models/rym_grid_c1_s64_e2_t4_r4/cnn_c1_g1_a0_l0p32_lr1e-05.pt (torch, 607701 bytes, 23 tensors)

conv.0.weight f4 [64, 64, 3, 3]
000000 b4 a1 e7 ba 9c 08 13 3c 71 a8 a1 bd 89 a5 7d bd
       -0.0017672093 0.008974221 -0.07893456 -0.061925445
000010 bd e5 c1 bc ee ea dc 3b bc 4f 1c be 9d 17 90 bd
       -0.023669118 0.006741873 -0.15264791 -0.07035754
000020 df 22 a2 bd ba f0 84 bc c1 31 52 3d 35 06 40 bd
       -0.079168074 -0.016228069 0.05131698 -0.04688092
000030 7e 93 d7 3c 22 66 71 bd 5d 1f 13 bd 97 5b 8d 3c
       0.026315447 -0.058935292 -0.035918582 0.017255588
000040 6f 93 7a 3b d0 55 95 bd 6c 03 ab bc dc 71 55 3c
       0.003823485 -0.07291758 -0.020875655 0.0130276345
000050 c9 15 80 bd 96 4d b5 bd 70 16 cd bd 64 93 3c bd
       -0.06254155 -0.08852689 -0.10014045 -0.046039
000060 cb 7a 6d bd 9a 0d 43 bd c3 da 90 bc 59 1d be 3c
       -0.057978433 -0.047620393 -0.017682439 0.023207353
000070 39 3d 8d 3d e0 ad c2 bc d8 9b 7e bd 14 4f ca 3c
       0.06896443 -0.02376455 -0.062160343 0.02469591
000080 9c 03 c8 bc 52 c1 9a bb 50 c8 d4 bc 87 f6 cf bb
       -0.024415784 -0.0047227526 -0.025974423 -0.006346527
000090 13 c7 a8 bd 46 fa cf 3c 60 eb b1 3c 45 f8 1b bd
       -0.082410954 0.025387894 0.02171868 -0.038078565
0000a0 35 33 a2 3c b8 45 2a bd 85 3e a8 bc 8d a0 81 3d
       0.019799808 -0.041570395 -0.020537624 0.06329451
0000b0 c7 f1 ef 3b e4 75 90 bc 3c d7 93 bc 56 19 0b 3c
       0.0073225233 -0.01763434 -0.018046968 0.008489927
0000c0 e8 59 60 bc 2b 57 b1 3d 6d ba 34 3d 30 9b 32 bd
       -0.01369331 0.08659204 0.044123102 -0.04360503
0000d0 51 01 b9 bd 67 a5 11 bd 7d 7a ef bc 67 24 ef 3c
       -0.09033454 -0.03555813 -0.029233212 0.029192163
0000e0 83 89 ef 3c 15 5d 6c bc 28 8e 90 bd c7 ed 1e 3d
       0.029240375 -0.014426489 -0.07058364 0.03880098
0000f0 ba 73 8b 3d 8d df 04 3d 8f 75 80 bd 43 ce b4 bd
       0.068091825 0.032439757 -0.062724225 -0.08828404
000100 2d ff e5 bc f5 28 a9 bd 7d af 83 3c 8b c0 07 3d
       -0.028075779 -0.08259765 0.01607489 0.033142608
000110 7d 6b 84 bb ad 67 21 3d 62 7d ba 3c cc fd f5 3c
       -0.004041134 0.039405514 0.022764865 0.030028246
000120 6f c1 87 bc d0 71 44 bc 87 2e 97 bd 1e fc 6b bc
       -0.016571729 -0.011990026 -0.07381921 -0.014403371
000130 66 8a 25 bd 90 93 56 3c fa d5 24 3d b5 02 22 3c
       -0.04041519 0.013096705 0.040243126 0.009888341
000140 f3 18 52 3d 03 43 24 bb 27 32 03 bd f3 d3 99 3c
       0.051293325 -0.0025064356 -0.03203025 0.018777823
000150 7b 6d 40 3d 4c a1 06 bc c3 be 60 bc cf f7 2a 3d
       0.04697941 -0.008217167 -0.013717356 0.041740235
000160 91 30 e3 b9 f6 64 12 3d 07 eb 60 bb cd e5 71 3c
       -0.00043333 0.035740815 -0.0034319775 0.014764261
000170 c7 5a 2c bd 30 cd 47 3d 27 5f b4 3c ec 67 cf 3c
       -0.04207876 0.048779666 0.022018028 0.025318108
000180 c3 d2 bc bc 1b 0e d6 bb b8 a8 95 3c bd 0f 05 bd
       -0.023049718 -0.006532443 0.018268928 -0.032485712
000190 93 1e 99 bd 03 31 99 bd 6e ad 19 bd ca 75 82 3b
       -0.07476535 -0.07480051 -0.03751891 0.0039813267
0001a0 6f 4a 0c 3d 06 1a 51 3c 22 98 fe bc d6 c9 c7 3c
       0.034250673 0.012762552 -0.031078402 0.024388235
0001b0 ee b8 29 bd b8 de 0c 3d 37 23 d4 bb 33 5b 40 3d
       -0.04143613 0.03439209 -0.0064739245 0.046961974
0001c0 e5 b2 40 3d d7 e4 9d bc 19 34 a2 bb fa 89 dd 3b
       0.047045607 -0.019274158 -0.004950058 0.006760833
0001d0 d9 2a 64 bd 81 1a 11 3c 95 37 b8 bc e2 c7 47 bc
       -0.055704925 0.008856417 -0.022487441 -0.012193652
0001e0 ba 91 18 3d 6b df 6b bc 3b 91 f3 bb 11 36 d2 3b
       0.03724835 -0.014396529 -0.0074330843 0.0064151366
0001f0 2b 58 8e bb af c4 1e 3c ed 90 6e 3c 18 4e ed 3c
       -0.0043440065 0.009690448 0.01456092 0.028967902
000200 13 f9 5f bc 5f 0c 73 3c 1f 16 ff bc c5 cc b1 3c
       -0.013670224 0.0148344925 -0.031138478 0.021704087
000210 32 86 fa 3c 9c 09 3d bc 49 04 6a bd 90 cc e0 bc
       0.030581567 -0.011537936 -0.057132993 -0.027441293
000220 79 83 aa 3b 18 09 4c bc 5d b8 da bc 09 4c 28 bc
       0.005203661 -0.01245334 -0.02669924 -0.010272034
000230 8a 0d 95 bc c7 aa e0 bb 9a 5a be 3c 11 4d c7 3c
       -0.018194932 -0.0068562957 0.023236562 0.02432874
000240 e4 c7 b6 bc 0e cf e5 3c 02 81 5d 3b da 1f b4 3c
       -0.022312112 0.028052833 0.0033798818 0.021987844
000250 c5 ad ec bc e4 6a eb bc d7 2d 47 3c 0b 91 b5 3c
       -0.028891454 -0.028737493 0.012156925 0.022163888
000260 4e cd 1a bd 68 ef 87 bc b1 ab 60 3a 4b e5 03 bd
       -0.03779345 -0.01659365 0.0008570506 -0.032201093
000270 21 80 b5 3c 52 0e 0e 3d f0 4d 86 bc f3 52 55 bb
       0.022155823 0.034681626 -0.016394585 -0.0032550662
000280 05 2d 88 bc 87 ec 1d 3c 05 12 11 bc 76 37 63 bd
       -0.01662303 0.009638912 -0.008854394 -0.055472814
000290 ef 7a 44 bd 16 90 83 bc ef 1d 29 3d ae 60 a4 bb
       -0.0479688 -0.016059916 0.041288313 -0.005016408
0002a0 d6 7a 11 3c 42 0f 3b 3d 26 af 8c 3d 80 50 a8 3c
       0.008879384 0.045668848 0.068693444 0.020546198
0002b0 84 ff 79 3d 2f 4f 16 bd f4 9f 55 3c 83 51 fb bb
       0.061034694 -0.03669661 0.013038624 -0.007669629
0002c0 00 64 d5 3c 8b d3 e3 3c 19 08 63 bc d9 83 a0 3c
       0.02604866 0.027810832 -0.013856911 0.01959412
0002d0 55 df 2a bd eb 94 26 3d d7 1c 28 bc 67 2e 0b 3d
       -0.041716892 0.040669363 -0.010260782 0.0339798
0002e0 59 f2 6b bd 63 be e2 3b 78 a8 98 bc a2 7d c0 3c
       -0.057604168 0.0069196685 -0.01863502 0.023497406
0002f0 d1 12 06 bc 12 ed 2f bc 64 48 3e bc bd 2b e8 bc
       -0.008183197 -0.010737674 -0.011613939 -0.028341169
000300 4b 1d 53 3c 3c 31 de bc a9 c6 26 bc 0e cd 05 3d
       0.012885402 -0.027123086 -0.0101792 0.03266626
000310 77 97 5f 3c 8f 1c 1e 3d 58 62 bc 3c 31 94 18 bd
       0.013646952 0.038601454 0.022996113 -0.0372507
000320 c8 10 94 bc 51 ed 76 bb fc 00 07 3c 84 ee ef bc
       -0.018074408 -0.0037678073 0.008239981 -0.029288538
000330 c1 9f 22 bc 96 b7 94 bc 13 18 99 3b 98 26 ed 3c
       -0.009925784 -0.018153947 0.0046720593 0.028949067
000340 70 69 7b bc df 70 97 bc a4 aa ac 3c d1 5e 03 3d
       -0.0153449625 -0.018486438 0.021077462 0.032072846
000350 42 a7 fa bc c9 e9 1b bb 14 49 20 3d f8 81 88 3c
       -0.030597333 -0.002379047 0.039132193 0.016663536
000360 d7 9f a5 3b 13 6d 05 3d bb 03 4e bd 95 0b a8 3c
       0.005054455 0.032574724 -0.050296526 0.020513335
000370 26 42 1c 3d 36 59 ad 3c 35 9c 1d bc ef 4a 61 bd
       0.03814902 0.021160703 -0.009619762 -0.055003103
000380 ae 1e 98 bc 37 f6 e1 3b 91 6a 60 3d 79 b0 6c 3c
       -0.018569317 0.006895806 0.05478913 0.014446371
000390 8e 9f 02 3d a9 ae 67 bc d3 8a 5e bd 09 dd 99 3c
       0.031890444 -0.014140763 -0.05433161 0.018782156
0003a0 e4 06 66 3b 6b 20 1f bd c4 99 ca 3c bb 4f 11 3c
       0.0035099322 -0.038849276 0.024731524 0.008869107
0003b0 ef 46 f6 3c 36 68 77 3c 72 c1 46 bc f8 63 0b bb
       0.03006312 0.015100529 -0.012131082 -0.0021269303
0003c0 b0 1f d6 3c 65 ae 5d bc f1 bc 62 bc 43 82 a0 bc
       0.026138157 -0.013530348 -0.013838992 -0.019593364
0003d0 c0 95 5f 3c 48 9d 17 3d 25 23 87 3a 85 a0 da bb
       0.013646543 0.03701523 0.0010310157 -0.0066719675
0003e0 bb 6c 85 bc b4 c0 6b 3c 05 55 5b 3d 63 c1 93 bc
       -0.016287198 0.014389206 0.053547878 -0.01803655
0003f0 4f 42 48 3c 89 74 ef bc 92 25 ec 3c 7a 76 f4 bc
       0.01222284 -0.029230373 0.028826509 -0.02984165

conv.1.weight f4 [64]
000000 18 d1 81 3f 0f d5 7d 3f e6 ef 7c 3f 7a df 77 3f
       1.0141935 0.99153227 0.98803556 0.96825373
000010 4e 2a 83 3f 71 2c 83 3f 2d da 75 3f 83 66 7e 3f
       1.0247285 1.0247937 0.96036035 0.9937517
000020 d8 d8 82 3f 84 f4 7b 3f 86 e9 80 3f 40 93 7b 3f
       1.0222425 0.98419976 1.0071266 0.9827156
000030 1f 4a 82 3f c6 f4 7f 3f af c8 84 3f 6a 46 84 3f
       1.017887 0.9998287 1.0373744 1.0333989
000040 38 fc 84 3f 30 08 82 3f 73 00 81 3f 6a f3 82 3f
       1.0389471 1.0158749 1.0078262 1.0230534
000050 b9 06 77 3f ce ee 80 3f d3 6a 80 3f b6 eb 80 3f
       0.9649463 1.0072877 1.00326 1.0071933
000060 7c b6 7a 3f 28 fb 7e 3f a0 ae 7f 3f 8c 0e 80 3f
       0.979347 0.99601984 0.9987583 1.0004439
000070 32 17 7d 3f 3b a5 75 3f a6 30 7e 3f c5 1c 7c 3f
       0.9886352 0.95955247 0.9929298 0.984814
000080 52 c2 7a 3f 0e 67 7f 3f 7e ac 7a 3f 81 4b 84 3f
       0.9795276 0.99766624 0.9791945 1.0335542
000090 f1 16 79 3f e8 0b 80 3f 12 a7 82 3f 95 49 7b 3f
       0.9730063 1.0003633 1.0207236 0.9815915
0000a0 d2 b9 7b 3f d6 18 7c 3f 85 45 80 3f 81 78 80 3f
       0.98330414 0.98475397 1.0021216 1.0036775
0000b0 50 a7 80 3f 5c ef 6e 3f b4 53 86 3f c1 73 7e 3f
       1.005106 0.93333983 1.0494294 0.99395376
0000c0 60 04 83 3f 1c 11 7d 3f 77 33 7f 3f 5e ac 80 3f
       1.023571 0.9885423 0.99687904 1.0052602
0000d0 9f f0 82 3f 65 dd 79 3f c9 2c 82 3f b3 fb 83 3f
       1.0229682 0.97603446 1.0169917 1.0311188
0000e0 ac 7b 84 3f d8 1d 81 3f 3f b6 80 3f b7 7e 82 3f
       1.0350242 1.0087233 1.0055617 1.019492
0000f0 30 cf 80 3f e1 54 85 3f 5c 28 7f 3f 6a 07 7e 3f
       1.0063229 1.0416528 0.9967096 0.9923006

conv.1.bias f4 [64]
000000 d6 61 27 3d eb 2d 8f 3c bb 39 60 3c 72 c9 a0 3c
       0.040864788 0.01747795 0.013685639 0.019627307
000010 6b 3f 47 3d be 49 e4 3c 3c f8 a8 bc 74 4b e3 39
       0.048644464 0.027867194 -0.02062618 0.0004335303
000020 28 05 12 3c 67 4a ed 3b 05 7a 80 3b 81 3d f6 3c
       0.008912362 0.0072415355 0.003920796 0.030058624
000030 c7 c9 dc 3b fe 12 d7 3c f6 3d 4a 3d e3 c0 6f 3d
       0.006737921 0.026254173 0.049375497 0.05853356
000040 fc 8b 45 3d 77 f7 bf 3c ff 16 eb 3c 92 84 21 3d
       0.048229203 0.02343343 0.028697489 0.03943307
000050 19 6f 52 3c 3f 47 3f 3d bb 7a f1 3c 6f 3a 72 3c
       0.012843871 0.046698805 0.029477468 0.0147844395
000060 76 42 9b 3c f9 83 22 3d 9b 2b d6 3b 3d 1f 61 3d
       0.01895259 0.03967664 0.00653596 0.05496143
000070 20 ec 9f 3d c9 c4 f1 3c be ea 58 3d 12 95 18 3d
       0.07808709 0.02951278 0.052958243 0.03725154
000080 be 0a d2 3c a9 7a f2 3c 1e 2f 51 3c 28 7e 81 3d
       0.025639888 0.029599505 0.012767581 0.063228905
000090 c0 d8 ad 3c 38 72 88 3d 5d b9 98 3d 9b ed c3 3c
       0.021221519 0.066624105 0.0745723 0.02391701
0000a0 2b 9f e0 bb db ce 22 3d 3a e8 d7 bc 8f ea ee 3c
       -0.006854912 0.039748054 -0.026355851 0.02916458
0000b0 bd 2b 12 3c 0b 47 eb 3b 20 4d 89 3d b8 9c 29 3d
       0.008921561 0.0071801 0.067041636 0.041409224
0000c0 66 03 8e 3d 2b 99 1d 3d 58 ce 0e 3d 56 1f 63 3d
       0.06934242 0.03847615 0.034864753 0.055449806
0000d0 a1 e6 64 3d bb 65 aa 3d 85 ca 38 3d 88 b1 0c 3d
       0.055884007 0.08320185 0.045115013 0.034348994
0000e0 95 e4 f1 3c de e4 53 3c c5 49 fb 3c 80 96 0e 3d
       0.029527942 0.012932984 0.030674824 0.034811497
0000f0 00 cc 53 3d 45 a8 4e 3d 70 80 20 3c 37 9f 79 3d
       0.05170822 0.050453443 0.009796247 0.060942855

conv.1.running_mean f4 [64]
000000 b6 c8 e1 bd a7 e6 ea bd 93 47 16 be 82 26 26 3e
       -0.11024611 -0.11469775 -0.14675741 0.16225627
000010 d6 52 7e be 5f 42 11 be 00 eb 4b 3e 36 c4 b2 3d
       -0.24836287 -0.14185475 0.19913864 0.087288305
000020 74 d7 81 bd 80 51 31 3d 7e 01 ab bd 73 32 10 be
       -0.063399225 0.043290615 -0.08349894 -0.14081745
000030 79 3a 11 3e f7 f7 78 bd d7 a6 05 3e 59 32 17 be
       0.14182462 -0.060783353 0.13051926 -0.147653
000040 bc a6 1d be b4 92 19 3e d6 41 32 bb 4c 25 0b be
       -0.15395635 0.14997369 -0.0027199886 -0.13588446
000050 bd 3f 14 bc 9f 22 f0 bd 63 4b 2a be 58 ff 8c 3d
       -0.0090483995 -0.117253534 -0.1663032 0.068846405
000060 1b ce ce bb 9a 09 95 bd fc 84 a6 bc c5 a3 c9 3b
       -0.006311191 -0.07277222 -0.020327084 0.006153556
000070 cf cd 3b 3e 95 3b 7d 3d cb 46 84 bd d2 2f 13 be
       0.18340228 0.0618244 -0.06458815 -0.14373711
000080 75 e9 26 3e 53 de 8d 3d a2 06 bc 3c c4 b0 90 be
       0.16299994 0.069271706 0.022952382 -0.2825986
000090 b8 ee 38 3e e5 6c 21 be a4 f0 c6 bd e2 fc 5e be
       0.18059814 -0.15764196 -0.09713867 -0.21776155
0000a0 65 a3 99 bd 71 27 7a 3e e2 c1 41 be b9 71 e7 bd
       -0.07501868 0.24429108 -0.18921617 -0.11300988
0000b0 b0 83 6a 3c f3 3c 43 be 6c 70 29 ba dd 74 09 be
       0.014313623 -0.19066219 -0.00064635905 -0.13423486
0000c0 67 36 83 3d fd 6b 18 3e 34 bb 46 bd b5 8a 9e 3d
       0.06406861 0.14884944 -0.048518375 0.077413
0000d0 ba a8 30 be 38 08 58 3d c4 68 61 3e 13 e7 cf bd
       -0.17251864 0.052742213 0.22012621 -0.10151496
0000e0 ce 8c 1c be 82 11 d9 3c e5 72 8e 3d c3 3b 4b 3e
       -0.15288088 0.026497606 0.06955508 0.19847016
0000f0 ba 67 a3 bd f9 62 73 be 3e 99 ed bd 85 39 ba 3d
       -0.07978769 -0.23768224 -0.11601494 0.09093002

conv.1.running_var f4 [64]
000000 ed 42 84 3d 39 29 11 3d cc b8 5a 3d f2 bf ed 3c
       0.064580776 0.035439704 0.053398892 0.02902219
000010 4b 1c 56 3d e8 17 64 3d d6 be 3a 3d 04 85 88 3d
       0.052273076 0.05568686 0.04559215 0.06665996
000020 fc b1 74 3d 4d ed 55 3d fa b4 2a 3d c1 22 56 3d
       0.05974005 0.05222826 0.0416765 0.052279238
000030 88 f7 1d 3d 57 f5 11 3d 31 07 cc 3c c1 95 e9 3c
       0.038566142 0.035634365 0.024905773 0.028513791
000040 d9 62 03 3d e0 d7 33 3d ee bd 11 3d 7c c2 f6 3c
       0.03207669 0.043907046 0.03558152 0.030122034
000050 8f b3 04 3d 45 5b 62 3d 5f f4 44 3d 7b d5 20 3d
       0.032397803 0.055262823 0.048084613 0.03926609
000060 af a9 1a 3d 44 c2 3a 3d 50 8a d8 3d 36 7d 0c 3d
       0.03775948 0.045595422 0.10573256 0.034299098
000070 4e 8b ed 3c 8f 32 3b 3d ab ed e8 3c 45 ab 2b 3d
       0.02899709 0.045702513 0.028433641 0.041911382
000080 d9 a2 4a 3d 5a ce 11 3d 1e 4a 1a 3d c6 8a 23 3d
       0.04947171 0.035597183 0.03766834 0.039927267
000090 f8 c7 43 3d 88 43 f4 3c d8 2d 1a 3d 0f 2b 5e 3d
       0.047798127 0.029817358 0.037641376 0.054240283
0000a0 90 81 08 3d 1d 95 24 3d 41 7a f5 3c 04 47 1c 3d
       0.033326685 0.040181268 0.029965522 0.038153663
0000b0 18 52 39 3d 6d 63 2f 3d d8 78 f2 3c be b6 f5 3c
       0.045244306 0.04281943 0.029598638 0.029994365
0000c0 b9 ec 09 3d 01 45 65 3d a8 3b 56 3d 32 67 d5 3c
       0.033673022 0.05597401 0.052302986 0.026050184
0000d0 17 95 10 3d be 42 e9 3c ec 91 10 3d 1f d3 04 3d
       0.035298433 0.028474208 0.035295412 0.032427903
0000e0 b1 d4 11 3d 22 1e 7e 3d 1f 0d 1e 3d 21 f9 04 3d
       0.03560323 0.062040456 0.038586732 0.03246415
0000f0 18 ac 29 3d c9 72 17 3d fc 7c 6e 3d c4 4f f0 3c
       0.041423887 0.036974702 0.058224663 0.02933491

conv.3.weight f4 [64, 64, 3, 3]
000000 c8 02 2c 3d 62 65 a9 3c fd d6 87 bb 9b ba 04 bd
       0.04199484 0.020678226 -0.0041455016 -0.032404523
000010 41 c4 af 3c 55 2f 5b 3c ef 56 ac 3c 23 70 88 bc
       0.021455886 0.013377984 0.021037547 -0.016655033
000020 12 27 1d bc 4e b6 db 3c 26 a4 9c bc cc 46 64 bc
       -0.009591835 0.026820328 -0.01912124 -0.013932895
000030 0d ca b0 3c ac f7 17 bc d1 7c db bc e1 98 67 bc
       0.02158072 -0.009275358 -0.026792916 -0.01413557
000040 97 ce 07 bd 6e 22 29 bd 7d 20 b1 bc 93 aa 37 3b
       -0.033156004 -0.0412926 -0.021621937 0.0028025254
000050 1d 86 1b bd e2 f8 26 bc 0a 4b 7f 3c 53 54 ac 3c
       -0.037969697 -0.010191174 0.015581856 0.021036303
000060 dd 38 1e 3c cd e8 b9 3c c4 de 27 bc 5d 7a 0e bc
       0.009657112 0.022694016 -0.010245983 -0.008696166
000070 54 ae 12 3d c8 21 f0 3c fa 61 48 bd 1c 20 6d bc
       0.035810784 0.029312983 -0.048921563 -0.0144729875
000080 e8 89 2e 3d 67 32 0a bd eb 54 19 bd aa 64 56 3b
       0.042611986 -0.033739474 -0.0374345 0.003271381
000090 49 32 ef 3c 00 c3 c7 3c a5 c1 b9 bc 5f 2d 91 3a
       0.029198783 0.024384975 -0.022675345 0.0011076144
0000a0 75 ce 96 3c 02 a7 66 ba 29 f5 40 3d cc 80 00 bd
       0.018408993 -0.000879869 0.047108803 -0.03137283
0000b0 41 f1 c8 bc 0b 50 ce bc f9 c9 93 3c a9 58 18 3d
       -0.024529101 -0.025184652 0.018040644 0.037193928
0000c0 52 62 53 3d 98 e4 4b 3c 02 c4 5b ba 74 a0 2a 3d
       0.051607437 0.012444638 -0.00083833945 0.041656926
0000d0 63 33 d5 bc 61 6d 69 3c 98 2c 0f 3d b2 c8 a4 3c
       -0.02602548 0.014247269 0.034954637 0.02011523
0000e0 cd 93 26 3d bc a4 e4 3c 40 55 bb 3c 6d 3e 00 bc
       0.040668298 0.027910583 0.022867799 -0.0078273835
0000f0 ff 1d f2 3c 69 ce 09 3d 73 57 ee bc f8 d3 26 bc
       0.029555319 0.033644114 -0.029094433 -0.010182373
000100 49 e4 21 3d ed c1 29 3b 7e 36 6f bc 00 25 09 3d
       0.03952435 0.0025902942 -0.014600394 0.03348255
000110 27 66 9d 3c 75 18 88 3c 83 99 60 3c 64 f9 cd bc
       0.01921375 0.016613225 0.013708475 -0.025143333
000120 72 5b cc 3c cd a5 1a bc 1b be 16 bc 7d de 17 bd
       0.024945948 -0.009438944 -0.009200598 -0.037077416
000130 aa 1c 10 3d f9 b6 82 3c 5f ed 4a 3c 25 38 21 3d
       0.035183586 0.015956389 0.012385695 0.039360184
000140 cb d0 9d bb c9 f3 d8 3c 12 42 20 bc 0f df 85 3c
       -0.00481615 0.026483433 -0.009781377 0.016341714
000150 13 32 e0 3c d8 a2 4a bd e7 6d cc bc 12 8f 54 bb
       0.027367627 -0.049471706 -0.02495475 -0.003243391
000160 9e f5 09 bd 9b 72 82 37 bc 90 b7 bc fb 37 37 bc
       -0.033681504 1.5550575e-05 -0.022407882 -0.01118278
000170 02 09 f3 bb 60 a2 a1 3c be 36 01 3d 69 e7 0f bd
       -0.0074168453 0.019730747 0.031546347 -0.0351328
000180 90 94 09 bc 72 aa 93 3c e5 26 e3 bc 95 19 82 bc
       -0.0083972365 0.01802561 -0.027728507 -0.01588134
000190 66 51 bf bc 79 c4 6f 3c 0f a2 40 bb de 6a a2 3c
       -0.023354243 0.014634245 -0.002939347 0.019826349
0001a0 ef 58 91 3b fb 17 f9 37 11 b3 10 3d cf 0f e8 bc
       0.0044356505 2.969428e-05 0.03532702 -0.02832785
0001b0 a5 a5 d0 3c 8a be f7 bc 60 ee d2 3c c9 5c 63 bc
       0.02546961 -0.030242223 0.025748432 -0.013877102
0001c0 9b 61 09 3c 5b 6d ff 3c 18 e4 9f bc d5 c8 92 3c
       0.008385087 0.031180074 -0.019517943 0.01791803
0001d0 ad 0f 09 bd da 73 41 3d bd 82 00 bc 56 82 23 bd
       -0.033462215 0.047229625 -0.00784367 -0.03991922
0001e0 82 f0 83 3c 7b 8e 39 3c eb f7 91 bc dc 05 63 bc
       0.016105894 0.011325474 -0.017818412 -0.013856377
0001f0 ed e2 a8 3c 8b 3a 16 3d 91 c0 4a 3b 1b 82 af bc
       0.02061602 0.036676925 0.0030937532 -0.021424344
000200 04 c0 21 bd 9e 05 48 bd 8c e0 25 3c d0 49 85 3c
       -0.03948976 -0.048833482 0.010124337 0.016270548
000210 8a 6e b2 bc 46 5a ce 3c e5 53 72 3c 8c a8 ad bc
       -0.021781225 0.02518953 0.01479051 -0.021198533
000220 29 4a 56 bd f4 de 26 3d 1e b9 3f 3d 44 2c a0 3c
       -0.05231682 0.04073997 0.0468074 0.019552357
000230 1a 57 29 bd 90 00 6f 3c 4e 4e 78 3c 6c 9a 5b bc
       -0.041342832 0.014587536 0.015155388 -0.013403516
000240 cc 95 9d 3c f9 f2 01 bd fd 5f a3 3c 13 d2 4d bd
       0.019236468 -0.031725857 0.019943232 -0.05024917
000250 9c b3 34 bd de 02 0a 3d 99 ed ba 3c 78 75 0b bc
       -0.0441166 0.03369414 0.022818374 -0.008511893
000260 ea 65 d4 3b 12 99 0f ba bc 9f ec bc db 5e 1e bd
       0.0064818757 -0.00054778263 -0.028884761 -0.03866468
000270 49 b3 2b bb 72 40 9b bc b6 94 08 bd 08 35 ea bc
       -0.0026199392 -0.018951628 -0.033344947 -0.02858974
000280 b3 74 e7 bb 01 1d da bc 3f 39 bd bc a6 d3 86 bb
       -0.007063472 -0.026625158 -0.023098586 -0.004114586
000290 f5 99 c0 bc 81 e4 f2 bb e2 c9 ee bb 33 20 d8 bc
       -0.023510912 -0.0074124937 -0.00728725 -0.026382541
0002a0 a4 a1 9a 3c 09 9d c4 bc 29 93 48 bd 0f 26 32 bd
       0.018875904 -0.024000661 -0.048968468 -0.043493327
0002b0 80 d7 41 3c 46 dd 8c bc 07 29 0d bd f3 dc 33 bb
       0.011831164 -0.017195355 -0.034462955 -0.0027444928
0002c0 69 53 28 3c 1e 1d 8a 3a 38 7c b5 3b 7a de 22 bc
       0.010273793 0.0010537242 0.0055384897 -0.009940738
0002d0 3f 78 c3 bb 38 b8 32 3d 35 17 a6 bc 24 7e ac 3c
       -0.005965262 0.043632716 -0.020274738 0.021056242
0002e0 e4 c3 83 bc 37 35 50 bc 9f bc 6f bd 18 94 40 bc
       -0.016084619 -0.012708 -0.058529492 -0.011754058
0002f0 0c a1 b7 bb 8a 0b 54 bc 20 e2 9e bc 77 47 e9 b9
       -0.005603915 -0.012942204 -0.019394934 -0.0004449447
000300 aa 87 ac bb ca 6d aa 3c 38 1a cd 3c 51 58 c8 3c
       -0.005265196 0.020804305 0.025036916 0.024456175
000310 f6 c9 bf bc c3 94 23 3c 95 9c 59 3d 6e c1 00 3d
       -0.023411732 0.009984198 0.053127844 0.03143447
000320 7c 19 dd bc 68 ad 5a 3c 44 37 2a 3d b3 94 1b 3d
       -0.026989691 0.013347007 0.04155661 0.037983608
000330 53 bb 0f 3d fc 3d 40 3c 4d c2 09 3d aa bc e3 bc
       0.035090756 0.011733528 0.033632565 -0.027799923
000340 73 6d 4a bd d1 af e6 bc 60 f3 ec bb 41 32 93 3b
       -0.049420785 -0.028160008 -0.007231161 0.0044920747
000350 de 7e 22 3d cc 80 cc bc 95 9a 43 3c 2b 5b c2 3c
       0.03967177 -0.024963759 0.011938711 0.023725113
000360 fe 0e eb bc 6b fe b8 3c 2f 3a 0c bc 75 a1 d0 bc
       -0.028693672 0.022582253 -0.008558794 -0.025467614
000370 a9 af 24 bc 58 b4 96 3b 1e cb 52 bd 02 19 de bc
       -0.010051646 0.0045991354 -0.05146324 -0.027111534
000380 46 e8 79 3c 2f ba da bc 00 dd d2 3c 2a 25 a2 3a
       0.015253132 -0.026700107 0.025740147 0.0012370695
000390 3d 7c 0d bc 6c 9e dd b9 36 77 08 3d e0 c4 62 3b
       -0.008635578 -0.00042270438 0.033316813 0.003460221
0003a0 d8 72 ac 3c e1 fe 6c 3c 7a f0 1f bd f5 03 0f bd
       0.021050856 0.014465065 -0.039047696 -0.034915883
0003b0 ed 98 25 3d d8 50 2f bc 6d cf c0 bb 5f 9b 47 3c
       0.040429045 -0.010700427 -0.005884102 0.012183039
0003c0 ad d8 80 ba 9a 85 b4 bb 87 d1 a1 3c f9 ea db 3c
       -0.0009830199 -0.0055090906 0.01975323 0.026845442
0003d0 5d da 22 3d 1b 48 c2 bb 89 d0 16 bd 20 10 f3 3b
       0.03975903 -0.005929006 -0.03681997 0.0074176937
0003e0 0e 8a 43 3c 65 61 eb 39 34 ca b6 bc 52 df 56 3c
       0.01193477 0.00044895257 -0.022313215 0.013114767
0003f0 07 3b 5b 3c 15 17 4f bc f1 80 f4 bc 3a b7 40 3c
       0.013380772 -0.0126397805 -0.02984664 0.011762435

conv.4.weight f4 [64]
000000 72 f8 7f 3f f0 64 80 3f 72 7c 81 3f d2 7d 80 3f
       0.9998847 1.0030804 1.0116103 1.0038397
000010 b9 7b 79 3f e4 6d 7c 3f dc 69 83 3f 99 08 80 3f
       0.9745441 0.9860518 1.0266681 1.0002624
000020 fa a9 80 3f 41 d1 7a 3f b0 e6 7f 3f 60 3e 83 3f
       1.0051873 0.97975546 0.99961376 1.025341
000030 23 6c 81 3f 08 76 7f 3f 18 b3 81 3f 69 92 7e 3f
       1.0111126 0.99789476 1.013278 0.99442154
000040 be 29 87 3f 71 99 7f 3f e2 ec 7a 3f 5e 5b 80 3f
       1.0559614 0.9984351 0.98017704 1.0027883
000050 bf 05 84 3f df dc 7e 3f b6 17 85 3f d9 c2 80 3f
       1.0314254 0.9955577 1.0397861 1.0059463
000060 c2 4b 7f 3f f5 aa 7d 3f 3a 6c 82 3f b7 49 82 3f
       0.9972497 0.99088985 1.0189278 1.0178746
000070 76 8a 81 3f 0a 1a 80 3f 81 fb 83 3f 31 f7 7e 3f
       1.012038 1.0007946 1.0311128 0.99595934
000080 01 ce 7e 3f 4f c9 79 3f e8 25 80 3f 77 74 83 3f
       0.99533087 0.975728 1.0011568 1.0269917
000090 b6 5c 80 3f f5 78 82 3f 20 9b 80 3f 63 b8 7d 3f
       1.0028293 1.0193163 1.004734 0.99109477
0000a0 4e e1 7f 3f b7 ea 7b 3f ee 49 7d 3f ef c4 7c 3f
       0.9995316 0.9840502 0.9894093 0.98737997
0000b0 10 bb 7e 3f 65 55 81 3f dc 69 7e 3f 59 74 80 3f
       0.99504185 1.0104185 0.9938028 1.0035506
0000c0 82 9a 80 3f f2 54 81 3f ed fe 7d 3f 2e 3c 80 3f
       1.0047152 1.0104048 0.9921711 1.0018365
0000d0 21 e6 83 3f c7 d1 7e 3f 5a ec 81 3f d8 5e 7e 3f
       1.0304605 0.99538845 1.0150254 0.9936347
0000e0 99 66 7d 3f 26 10 80 3f 88 8e 80 3f 0e 36 7f 3f
       0.98984677 1.0004928 1.0043497 0.99691856
0000f0 4e f0 81 3f 4a 8d 7f 3f ac 54 7d 3f 23 4f 80 3f
       1.015146 0.99824965 0.98957324 1.0024151

conv.4.bias f4 [64]
000000 8a 37 e2 3b 4f a7 c0 3c 82 bd 26 3d b5 15 84 3c
       0.0069035934 0.023517279 0.040708072 0.016123632
000010 21 38 01 bc f8 b2 26 3b 06 05 31 bc 84 19 66 3c
       -0.007886917 0.0025436264 -0.01080442 0.014044169
000020 a3 8d 17 3c bc 7c 59 bb 01 80 22 bc a6 92 e6 bb
       0.009250077 -0.003318592 -0.009918214 -0.007036525
000030 14 e4 34 bc e4 9f b2 ba 68 ce 3a 3b e2 9a e4 3b
       -0.011040706 -0.0013627973 0.0028504375 0.0069764713
000040 eb d7 a3 ba 01 a6 c9 bb 12 8b 68 bc 8b b5 86 3c
       -0.0012500262 -0.0061538224 -0.014193313 0.016443988
000050 f2 2b 91 3c 55 f0 65 3c 0c 3d 73 3b 1e b9 19 3d
       0.01772115 0.01403435 0.0037115244 0.037530057
000060 c8 e4 a1 bc 01 bf 98 bb 84 d9 51 3b 46 b7 60 3c
       -0.019762412 -0.0046614413 0.0032020519 0.013715571
000070 be bf 46 bb 6a 34 b3 3b 3a 03 01 3c 9f ec 1b 3c
       -0.003032669 0.0054688947 0.007874304 0.009516864
000080 e9 a7 ac 3c 3c b7 92 3b 32 fe 9c 3a 68 6e b9 3c
       0.02107616 0.0044774096 0.0011977612 0.022635654
000090 31 15 19 3c 1c b3 c2 bc 4b 7c cc 3c 7a fd 96 3c
       0.009343431 -0.023767047 0.024961611 0.018431414
0000a0 06 0e a0 bc f7 d0 0b bb bf 3b c8 ba 94 9f 5b bc
       -0.019537937 -0.002133427 -0.0015276595 -0.013404746
0000b0 ca fe ff bb e6 b5 c3 3a fd 3d c6 3a 6c 49 8c 3c
       -0.0078123556 0.0014931529 0.0015124675 0.017124854
0000c0 87 16 80 3c 59 f0 c9 3c 5f ed 47 bc 67 b7 10 3c
       0.015635742 0.02465074 -0.01220259 0.008832789
0000d0 74 e9 d7 3c ce 53 b4 bb 15 b7 83 3b dd 46 87 bc
       0.026356436 -0.0055031544 0.004019628 -0.016513282
0000e0 ba 89 35 bc 7d 2d b9 b9 3f 63 f7 3c bb 47 4f 3b
       -0.0110802 -0.0003531984 0.030198691 0.0031628448
0000f0 d7 b1 5e 3c c0 b6 e8 3b 8b 02 3b bc a2 99 df 3b
       0.013592205 0.0071018636 -0.0114141805 0.0068237344

conv.4.running_mean f4 [64]
000000 fd a3 1c bb 7e af e0 3c 3a af cc 3d 60 2c 14 bf
       -0.0023901456 0.027427431 0.09994359 -0.5788021
000010 a0 cb 42 3f 8e 6b 85 3e 51 df d4 be 02 97 ac 3e
       0.7609196 0.2605862 -0.41576627 0.3370896
000020 ae 29 0f 3e 11 02 ff be 39 66 18 3e 24 bc 63 be
       0.13980743 -0.49806264 0.14882745 -0.22239739
000030 be 93 fc be 1d ab c8 3e 4a df 8a bd c0 54 a2 3e
       -0.49331468 0.3919305 -0.0678087 0.31705284
000040 8a 26 2e bf 93 f1 e6 be b8 6a 87 3e 27 f2 23 be
       -0.68027556 -0.45106182 0.26448607 -0.16010343
000050 8c c9 41 be 14 05 51 3e 36 18 ae be 82 16 09 be
       -0.1892454 0.20412093 -0.34002846 -0.13387492
000060 bd ff b4 be 7e 0d 81 be a5 03 41 3d 5b 50 e7 3b
       -0.35351363 -0.25205606 0.047122616 0.0070591397
000070 06 19 00 bf b2 fa 90 bd c5 d1 c7 bd 5b 42 9d 3e
       -0.5003818 -0.07079066 -0.09756807 0.30714688
000080 4c 92 1a be 73 c7 9d 3e 0a 99 9b 3e 05 fb d2 3e
       -0.1509487 0.3081623 0.30390197 0.41207138
000090 1f 96 ea 3e 21 4f 0a bf f3 80 49 bf 4c 41 d9 bd
       0.45817658 -0.5402699 -0.78712386 -0.106081575
0000a0 d8 69 4f be 31 77 73 be 3b 23 05 3c 14 56 69 3e
       -0.2025522 -0.23775937 0.008126075 0.22786742
0000b0 8a a2 05 bf 06 fc ad bd ac 1f 66 3e a1 07 fe 3b
       -0.5220114 -0.08495335 0.2247302 0.0077523743
0000c0 73 8e 7f 3e 4b c8 1b bf bc 50 21 be 53 4f 9a 3e
       0.24956684 -0.608525 -0.15753454 0.30138645
0000d0 fd 0c 17 3e f3 a6 82 be cd 70 9f 3d 48 fa 44 3e
       0.14751048 -0.25517997 0.07785187 0.192361
0000e0 41 53 25 3f 8c 18 8b bd 25 5b d2 bd 68 ac 1b be
       0.6458016 -0.06791791 -0.10271291 -0.15202487
0000f0 b5 b0 5e be 05 d0 84 3e d3 e1 a9 bd 87 51 17 be
       -0.21747096 0.25939956 -0.08295026 -0.14777194

conv.4.running_var f4 [64]
000000 03 af f1 3d 09 05 0e 3e f7 a2 11 3e 17 4b eb 3d
       0.11800959 0.13869108 0.14222322 0.114889316
000010 59 23 d2 3d 51 4c 04 3e e3 9e 45 3e 54 a0 ec 3d
       0.10260648 0.12919737 0.19298892 0.11554018
000020 c3 e4 62 3e 25 79 3b 3e 32 bd 07 3e c7 18 38 3e
       0.22157578 0.18307932 0.13255766 0.17978202
000030 ed 97 65 3e 4d 19 0d 3e 31 2b 31 3e 50 ad 06 3e
       0.22421236 0.13779183 0.17301632 0.13152051
000040 d5 0e 4b 3e 34 89 32 3e d1 0d 2b 3e 0d 31 1a 3e
       0.19829877 0.17435151 0.1670449 0.15057774
000050 08 79 2c 3e d2 9c 57 3e 47 65 79 3e 54 eb 0c 3e
       0.16843045 0.21055916 0.2435504 0.13761646
000060 d1 2c 1c 3e db 53 20 3e 99 ab 13 3e 7c 6a 26 3e
       0.15251471 0.15656988 0.14420928 0.16251558
000070 5e 39 41 3e c2 7b 0b 3e 83 73 09 3e 38 9a 0c 3e
       0.1886954 0.13621429 0.1342297 0.13730705
000080 27 b3 10 3e 71 b0 14 3e 25 6c 1a 3e 43 13 1b 3e
       0.14130841 0.14520432 0.15080316 0.15144067
000090 cb 0b 47 3e 0e a5 24 3e fa 36 f9 3d e9 e5 02 3e
       0.19438092 0.16078588 0.12168689 0.12783016
0000a0 d2 32 88 3e d6 de 08 3e e7 53 13 3e 1d d6 0a 3e
       0.26601273 0.13366255 0.14387475 0.1355824
0000b0 ca 74 4f 3e 7e 24 56 3e e6 22 e7 3d 82 2e 3d 3e
       0.20259395 0.20912358 0.11285953 0.18474773
0000c0 cf 5d 0c 3e c0 db 1c 3e f2 c8 f2 3d 97 57 14 3e
       0.1370766 0.15318203 0.118547335 0.14486538
0000d0 b7 7b 39 3e a3 f0 0c 3e 1d e5 30 3e 4e 9b 76 3e
       0.181136 0.1376367 0.172749 0.24082682
0000e0 5b 0c 70 3e 33 fe d7 3d 08 53 d1 3d bf 5f 65 3e
       0.23442213 0.105465315 0.10220915 0.22399805
0000f0 5e cf 2e 3e ad b7 98 3e d9 48 02 3e 5d a0 02 3e
       0.17071292 0.29827634 0.12723102 0.12756486

conv.6.weight f4 [64, 64, 3, 3]
000000 c6 c8 08 bd 5f 96 a9 3b 37 6f ad 3c 7e fc 0b bd
       -0.033394597 0.0051753963 0.021171195 -0.034176342
000010 d5 8f ca bb c7 54 02 bd 0c eb e9 3c 6b 6d 8e bc
       -0.006181697 -0.03181913 0.028554462 -0.017386159
000020 9d 5a 8a 3c f1 e5 9f bc ea e5 5c 3c 03 32 fe bc
       0.01688891 -0.019518824 0.01348255 -0.031029707
000030 79 65 c8 3c 0b 5d 1b bb 8b d7 0d 3d 40 ba e9 ba
       0.024462448 -0.002370658 0.034629386 -0.0017831996
000040 20 2a ed 3c 72 03 cb 3c 00 8d 21 3d 9d 53 a8 39
       0.02895075 0.024781916 0.03944111 0.00032105754
000050 ab ce 57 3d 6b 0a d9 bb 5d 23 47 bd ca d4 36 3c
       0.05268733 -0.0066235564 -0.04861771 0.011159131
000060 8e 67 2b 3d 37 46 08 3d a9 ff 24 bd 4f 94 cb bc
       0.041846804 0.033270087 -0.04028288 -0.024850992
000070 14 4f 4a 3c 53 4b 69 3c 1b 36 49 bd 2f d3 15 bc
       0.012347955 0.01423915 -0.049123865 -0.009144588
000080 71 db 18 3d 79 d1 cc bc 2b 24 25 bc a7 67 b3 3c
       0.03731865 -0.025002228 -0.010079424 0.021900011
000090 e2 bd cd bc 62 cc 7e bc ee fa 1c bd d0 84 36 bc
       -0.025114957 -0.015551658 -0.038325243 -0.011140063
0000a0 d9 98 03 bd bb 59 80 3b ac 4e e4 bc 88 84 34 3c
       -0.03212819 0.0039169467 -0.027869545 0.011017926
0000b0 f1 0d 57 bc da 00 c9 bc 46 e8 11 3c 35 9e 44 bc
       -0.0131258825 -0.024536539 0.008905476 -0.01200061
0000c0 51 48 dc 3c da f1 1f 3d a1 ba 1e 3c ec 31 6c bc
       0.026889952 0.039049007 0.0096880505 -0.014416199
0000d0 ec 83 80 ba 01 92 13 3b 8e e2 94 3b b0 07 d1 bc
       -0.0009804941 0.0022517445 0.004543609 -0.025516361
0000e0 99 48 35 bd 7f 9e 96 bc 01 be 9d bc c9 85 45 3d
       -0.044258688 -0.018386124 -0.01925564 0.04822329
0000f0 2d 81 0b bd ad 01 b2 bc 56 34 b0 3c a0 0d 2e 3d
       -0.03405874 -0.021729315 0.02150933 0.042493463
000100 cc b6 e4 3c 47 7a 0f 3c c7 ee 09 3b 4a b4 01 bd
       0.027919196 0.0087571805 0.0021046863 -0.031666078
000110 8d 8a 28 bd 8c 40 32 3d b0 16 98 3c c5 f4 58 bc
       -0.041147757 0.043518588 0.018565506 -0.013241951
000120 05 59 1f 3d dc 44 13 3b e1 bd b7 3a 5a 73 ff 3c
       0.038903255 0.0022471463 0.001401838 0.031182934
000130 19 19 e9 bb c6 8b 81 bc df e7 07 bd cc 35 1c 3c
       -0.0071135876 -0.01581372 -0.033180114 0.009534311
000140 67 fd 2f bb bf c1 3b 3c d1 55 06 3d 54 f2 3d 3b
       -0.002685392 0.011459767 0.032796685 0.002898355
000150 f4 91 68 3c 1b 24 a8 bb 96 fc 08 3d 6c a6 42 3d
       0.014194954 -0.005131257 0.03344401 0.047521994
000160 9e aa 06 3d ed 4f ca bc 7c fa b7 bc de d9 64 3c
       0.032877557 -0.024696315 -0.022458307 0.013967959
000170 fd ff 94 3c 89 b1 a1 bc 77 26 03 bd 18 0f fd 3c
       0.018188471 -0.019737976 -0.032019105 0.030890986
000180 12 a2 48 bb 1f fc 63 bc f4 10 09 3d 76 26 8d bb
       -0.003061418 -0.013915091 0.033463433 -0.0043075634
000190 52 b9 78 bc 70 c9 17 3d b7 dc 30 3b 10 8f 95 3b
       -0.015180903 0.03705734 0.0026987025 0.0045641735
0001a0 28 51 a1 3b 19 33 95 3c fc 3e 0c 3d 18 52 90 3c
       0.0049230047 0.018212842 0.034239754 0.01761727
0001b0 ad 83 37 bd 33 f3 3a bb ad d8 a0 bc 3b 65 12 bd
       -0.04480331 -0.0028526306 -0.019634569 -0.035741072
0001c0 61 ca dd bb 72 18 bd bc 1f f5 98 3b a8 c3 1f 3d
       -0.00676851 -0.023082945 0.0046678926 0.03900495
0001d0 60 7f b5 3c 5b 12 3d bc 0d 6c 47 3b fc a9 5b 3c
       0.022155464 -0.011540021 0.0030429394 0.013407227
0001e0 5c 8d de bc 55 ae 9d 3c c6 20 b9 bc 34 66 e1 bb
       -0.027167015 0.019248167 -0.022598635 -0.0068786386
0001f0 c4 6a cc 3c 7f fe ea 3c 3f f5 b9 3c 7f 61 f5 bc
       0.024953254 0.028685806 0.02269995 -0.029953716
000200 62 1b b3 bc 1b 0a 0c 3c 4b 8f ba 3b 80 bd 06 3d
       -0.021863643 0.008547331 0.0056933514 0.032895565
000210 8f 14 9c bc 8b ce 93 3c 41 5c 68 3c 1c f7 4a 3b
       -0.019052772 0.018042823 0.014182151 0.0030970043
000220 48 e2 93 ba 6c 3e c7 3c be 00 41 bb a0 f0 0c bd
       -0.0011282647 0.024321757 -0.0029449905 -0.034409165
000230 80 06 62 3c 02 76 1b 3d 1b 9b 98 bc b4 71 ca 3c
       0.013795495 0.037954338 -0.018628648 0.024712421
000240 27 30 54 bd 4e 32 30 bd 57 2a 00 bd 96 f9 42 bc
       -0.051803734 -0.043016724 -0.03129038 -0.011900326
000250 ed f5 57 bc ac 64 1c 3d 25 ec 06 bc d9 9c 05 bb
       -0.013181192 0.038181946 -0.008235012 -0.0020387678
000260 d1 f0 fa 3c 97 0b 60 3d cf a9 85 bc 32 13 d5 bb
       0.030632408 0.054698553 -0.016316323 -0.0065025324
000270 8a 35 8b 3c cf a1 cf bc 20 bd 4d 3c cc 27 c1 3c
       0.016993303 -0.025345711 0.012557298 0.023578547
000280 dd 9c 0d 3d 8f 12 8b 3c e4 83 99 bc 42 6d 48 bc
       0.034573425 0.016976623 -0.018739648 -0.01223308
000290 8a 15 39 3d ed 47 a9 bc e6 7a 1e 3d f4 36 af 3c
       0.045186557 -0.02066418 0.038691424 0.021388508
0002a0 12 7f 37 3c 84 f2 f5 bc c2 27 2f 3c e2 96 49 bd
       0.0111997295 -0.030022867 0.010690631 -0.04921616
0002b0 92 02 4d bd 06 f2 9f bc d0 08 8b bc 32 d5 7e bc
       -0.05005128 -0.019524585 -0.016971976 -0.015553759
0002c0 b9 09 0a bc 17 b9 6a 3b 40 08 4c bb ae fa 72 3c
       -0.00842517 0.0035815889 -0.0031132847 0.0148302745
0002d0 9a f8 0f bd f7 97 24 bc 2f 28 f1 ba f4 a1 d4 bc
       -0.035149194 -0.010045997 -0.0018398816 -0.025956132
0002e0 fd 95 fa bc bb 07 e8 3c 43 93 c1 bc 11 1c ba bc
       -0.030589098 0.028323999 -0.02362979 -0.022718461
0002f0 11 60 60 3c eb a4 a9 3a 26 31 84 bc e9 d3 b4 3c
       0.013694779 0.0012942826 -0.016136717 0.022073703
000300 7b f7 ad bc b4 01 49 3c 99 01 6f 3b d0 89 88 3c
       -0.021236172 0.012268472 0.0036469458 0.016667277
000310 a7 a1 41 3c 10 3f 76 3c b3 b3 29 3c db eb e0 39
       0.011818326 0.015029684 0.010357785 0.00042900335
000320 17 f6 5d 3b bf e0 a5 bb a2 0c ae 3c 28 c8 56 bd
       0.0033868605 -0.005062192 0.021246258 -0.052436978
000330 40 d4 eb ba 2f 67 d0 bc c9 a7 da 3c b1 ef e5 bc
       -0.0017992333 -0.025439827 0.026691334 -0.028068395
000340 4e 78 c0 3c 57 df be 3c 07 20 03 bb d0 42 98 3c
       0.023494866 0.023299856 -0.0020008103 0.018586546
000350 96 a6 c6 3c 04 b4 b5 bc f5 f8 42 bb 83 38 e4 ba
       0.024249356 -0.022180565 -0.002975044 -0.0017411861
000360 61 fe 8f 3c 52 ff 80 3c b8 46 c3 3c 52 d9 ed bc
       0.017577352 0.015746746 0.023837432 -0.02903429
000370 39 7c 30 bc b9 c1 57 bb 49 07 f9 bc af c2 e4 bc
       -0.0107718045 -0.0032921864 -0.030398982 -0.027924864
000380 35 e3 1e bc 3f 96 93 bb 9d 7d 4d 3c 4d 67 14 bc
       -0.009697725 -0.0045039947 0.012542156 -0.009057832
000390 f7 fb 09 3d b6 12 c1 3c 18 cc 8d 3b e5 97 8e bc
       0.033687558 0.023568492 0.0043273084 -0.017406413
0003a0 03 40 0e bc 12 e7 1a 3d a6 a2 b6 bc 3a 25 f0 bc
       -0.008682254 0.037818022 -0.022294354 -0.029314626
0003b0 24 35 03 3d 21 16 aa 38 6d 5f c5 bc 55 d1 66 3c
       0.0320331 8.1103535e-05 -0.024093354 0.014087995
0003c0 51 0e 0e bd 9e b7 c8 bc 3c ba 03 3d ac 89 52 bd
       -0.034681622 -0.024501618 0.03216003 -0.051400825
0003d0 92 7b 17 bd f8 71 94 3c 5f 95 2e bd cd b3 2d 3d
       -0.03698308 0.01812075 -0.04262292 0.0424078
0003e0 46 56 14 ba 17 6b 78 bc f4 98 33 3d a2 0e 80 3b
       -0.00056586077 -0.015162251 0.04384704 0.0039079944
0003f0 12 39 93 3c 0e bf d4 ba 85 3a 12 3d be de 8a 3b
       0.01797155 -0.0016231255 0.03570034 0.0042379787

conv.7.weight f4 [64]
000000 82 c6 7d 3f 27 b0 7f 3f 81 db 7c 3f 01 b4 80 3f
       0.99131024 0.9987816 0.98772436 1.0054933
000010 81 dc 7b 3f 58 49 80 3f e9 0d 81 3f e4 0c 7f 3f
       0.9838334 1.0022383 1.008237 0.99629045
000020 5a a7 7e 3f 19 71 7d 3f 22 cb 80 3f 53 4a 7c 3f
       0.9947411 0.990007 1.0061991 0.9855091
000030 a0 8f 7e 3f 2c b3 80 3f d4 9b 81 3f 36 d6 80 3f
       0.99437904 1.0054679 1.012568 1.0065372
000040 94 b8 7c 3f c2 26 80 3f 46 85 7f 3f fe 2e 81 3f
       0.98719144 1.0011828 0.99812734 1.0092466
000050 5c 5f 7c 3f b5 50 7e 3f 41 85 7f 3f ba 70 7e 3f
       0.98583007 0.993419 0.99812704 0.9939076
000060 8f b5 80 3f f6 80 80 3f 08 36 81 3f e9 01 80 3f
       1.0055407 1.0039356 1.0094614 1.0000583
000070 8d c4 7b 3f 3f b5 80 3f e1 ed 7e 3f 99 a7 80 3f
       0.9834679 1.0055312 0.99581724 1.0051147
000080 51 57 7f 3f 98 d2 80 3f d0 15 7d 3f 99 94 80 3f
       0.9974261 1.0064268 0.9886141 1.0045348
000090 5e 1e 82 3f 84 5e 80 3f ad 72 7e 3f 67 26 7c 3f
       1.0165517 1.0028844 0.9939373 0.984961
0000a0 7f 34 81 3f a9 0e 7e 3f 89 5f 80 3f d4 74 7d 3f
       1.0094146 0.9924112 1.0029155 0.9900639
0000b0 15 1a 80 3f d9 0f 7f 3f f9 30 80 3f 68 8b 81 3f
       1.000796 0.99633557 1.0014945 1.0120668
0000c0 6d 23 7f 3f 80 19 80 3f ac 18 7e 3f 83 d0 7f 3f
       0.9966343 1.0007782 0.99256396 0.9992754
0000d0 5f 49 84 3f 7a b6 7d 3f b8 ef 7f 3f 32 9e 7e 3f
       1.0334891 0.9910656 0.99975157 0.99460137
0000e0 80 28 7f 3f 65 97 7b 3f 8b d2 7f 3f e3 ed 80 3f
       0.99671173 0.98277885 0.9993064 1.0072597
0000f0 4b 1f 7f 3f b2 2d 80 3f ab c9 7c 3f 45 35 80 3f
       0.99657124 1.0013945 0.9874522 1.0016257

conv.7.bias f4 [64]
000000 04 4b e4 bc 68 bf 2e bd 93 b4 58 bd c3 a3 af bc
       -0.027867801 -0.042663008 -0.052906584 -0.021440392
000010 2f ec 0f bd 3c 00 c0 bc 65 2b 6f bc ae 21 15 ba
       -0.03513735 -0.023437612 -0.014597748 -0.00056889176
000020 e5 a8 89 bc 6a be 20 bd 1e 59 e7 bc 9f d3 22 bd
       -0.016804168 -0.039244093 -0.028240737 -0.0397526
000030 00 ba c5 bc d3 af b3 bc c3 62 25 bd c4 a1 94 bc
       -0.024136543 -0.021934425 -0.04037739 -0.018143542
000040 52 96 58 bc 2a 2d a6 bc e7 a7 ab bc a3 f7 1f bc
       -0.013219433 -0.020285208 -0.020954086 -0.009763631
000050 71 03 46 bd a0 31 5a bd 59 ec 32 bd 04 e2 08 bd
       -0.048343126 -0.053269982 -0.04368243 -0.03341867
000060 b3 af 57 bd 29 1b 34 bd ef 52 84 bc 34 77 dc bc
       -0.052657794 -0.043971214 -0.016152827 -0.02691231
000070 ce 65 81 bc 2b 00 1c bd 43 4f 8d bc ac 60 73 bc
       -0.015795615 -0.038086098 -0.017249709 -0.014854591
000080 c3 fa 60 bc 7f b6 3d bd 06 ae 83 bc 1b 75 e3 bc
       -0.013731661 -0.04631662 -0.016074192 -0.027765801
000090 2b d5 b3 3c 12 f7 37 ba 1d e2 b0 bc bf 4c 07 bd
       0.021952232 -0.00070177123 -0.021592194 -0.033032175
0000a0 5c 65 75 bc 28 69 db bc 01 a0 0b bc bd 72 b0 bc
       -0.014977779 -0.02678354 -0.008522035 -0.021539086
0000b0 9a 58 a2 bc 6b 88 c1 bc e9 20 93 bc 60 68 4b bd
       -0.01981764 -0.02362462 -0.017960029 -0.049660087
0000c0 3b 01 c3 bc 9a 6f 7d bc a1 bb d9 bc 54 08 2b bd
       -0.023804298 -0.015468502 -0.026578726 -0.04175599
0000d0 5c a8 84 bc 4e 70 30 bd f6 f2 eb bb 1a 1b b1 bc
       -0.016193561 -0.043075852 -0.007200594 -0.021619368
0000e0 ed 1e 59 bd 9f 14 55 bd 1d 40 0a bd 9b ab 84 bc
       -0.05300801 -0.05202162 -0.03375255 -0.01619511
0000f0 98 c6 3d bd b3 f4 86 bc 3f 4b 8a bc f0 9c b4 bc
       -0.046331972 -0.016474104 -0.016881583 -0.02204749

conv.7.running_mean f4 [64]
000000 82 06 95 bd 3b aa 84 3d 52 b8 26 bd 90 b2 ac 3d
       -0.07276632 0.064777814 -0.040703125 0.084324956
000010 f4 9a 98 3e 36 94 26 be 35 82 5b be e3 44 bf 3d
       0.2980572 -0.16267475 -0.21436389 0.09339311
000020 e9 24 1a bf f8 19 28 bf 50 4b cf be 9f d7 3d 3e
       -0.6021257 -0.65664625 -0.40487146 0.18539284
000030 78 a5 34 bf 0c 86 ad be 6f ac e5 be 29 bd 01 bc
       -0.70564985 -0.33891332 -0.4485812 -0.007918634
000040 c4 e3 da bd d0 f3 61 3e 1c b7 a1 bd 68 27 38 be
       -0.10687974 0.22065663 -0.078962535 -0.17983782
000050 54 7b 3b bd ed c0 65 3e 57 0c d0 be c5 29 c5 be
       -0.04577191 0.22436877 -0.40634415 -0.3850843
000060 82 30 5a 3e 29 6f 92 be 31 1a 5f 3d 12 38 0a bf
       0.21307567 -0.28600433 0.054468337 -0.53991807
000070 0f 69 d5 3d 2d f1 ba 3d 8b 48 9b bd ea fb 9b be
       0.10420429 0.09128032 -0.07582196 -0.30465633
000080 b6 36 50 bd 9f bc 5a be e1 a8 b5 bd f5 fd b2 3d
       -0.050833426 -0.21361016 -0.08870102 0.08739845
000090 15 87 1e be b1 38 cf 3e cd 5c e8 3e c2 1f 05 be
       -0.15481217 0.4047294 0.453833 -0.13000396
0000a0 bf e3 1f bf 9b 35 5f bd 07 e9 87 3c f3 20 ef bd
       -0.6245689 -0.05449448 0.016590608 -0.116762064
0000b0 0e a0 bd 3d a5 08 11 bf 6b 39 b3 3c 9e e8 99 be
       0.09259044 -0.56653816 0.021877965 -0.30060285
0000c0 d0 ed 9e be e5 51 70 be 51 35 af be 16 63 b6 be
       -0.31040812 -0.2346874 -0.34220365 -0.35622472
0000d0 2d 41 36 bf 67 45 b2 be ba 09 19 be e1 e6 ee be
       -0.711932 -0.34818575 -0.14945117 -0.46660522
0000e0 11 36 3a be c3 ad dc 3d 34 ee 60 3d 7e a4 16 bd
       -0.18184687 0.1077533 0.05491467 -0.036777966
0000f0 4b 63 95 be 6d d7 72 3c b2 4e 1a be 0f 81 9d be
       -0.29177317 0.014821869 -0.15069082 -0.30762526

conv.7.running_var f4 [64]
000000 88 2f 24 3e d7 f3 16 3e d7 f7 11 3e 08 48 11 3e
       0.16033757 0.14741455 0.142547 0.14187634
000010 41 2c 33 3e 6d 9c d5 3d 15 9d e7 3d f6 14 c9 3d
       0.1749735 0.104302265 0.11309258 0.09818451
000020 8a 33 2c 3e a7 71 01 3e 61 15 14 3e 80 b5 06 3e
       0.16816536 0.12641011 0.1446128 0.13155174
000030 4b 13 40 3e 4e 24 dd 3d 45 5a e2 3d 53 46 0d 3e
       0.1875736 0.1079794 0.11052374 0.13796358
000040 b3 aa 69 3e 23 d0 04 3e 2f be 31 3e c6 6b 08 3e
       0.22819023 0.12970023 0.17357706 0.13322362
000050 f5 02 cd 3d 02 59 17 3e 6d f0 29 3e 87 4f 30 3e
       0.1001033 0.14780048 0.16595621 0.17217837
000060 73 5b 0d 3e 8e 45 38 3e a8 04 ff 3d cc ce 09 3e
       0.13804416 0.17995283 0.1245206 0.13457793
000070 93 a2 29 3e 49 f1 13 3e 1a 71 03 3e 74 7a 08 3e
       0.16565923 0.14447512 0.12836114 0.13327962
000080 43 77 0f 3e 1a e8 18 3e 22 b0 41 3e 8d 39 0a 3e
       0.14010338 0.1493229 0.18914846 0.13498516
000090 33 a2 c2 3d 24 b3 33 3e 7e 9b 1a 3e d0 34 f8 3d
       0.09503593 0.17548805 0.15098378 0.12119448
0000a0 4d 5b 4e 3e 63 7d fd 3d 1a c5 28 3e 52 92 3a 3e
       0.20152016 0.12377431 0.16481438 0.1821988
0000b0 2f c5 13 3e cf 90 02 3e a0 2e f5 3d e4 7c 36 3e
       0.14430688 0.12750553 0.11971784 0.1782108
0000c0 91 2f 3f 3e 5d 63 e2 3d 39 de df 3d 54 26 f1 3d
       0.18670489 0.11054108 0.109310575 0.11774889
0000d0 74 0c 2a 3e 6e 3e fe 3d 4d 91 4e 3e f6 28 fe 3d
       0.16606313 0.12414251 0.20172615 0.124101564
0000e0 3b 1f 11 3e da 08 f8 3d d3 c4 0a 3e f6 ca 02 3e
       0.1417207 0.12111063 0.13551645 0.12772736
0000f0 1a 1a 94 3e b4 41 1d 3e dd 37 ef 3d 06 26 19 3e
       0.28926164 0.15357095 0.11680577 0.14955911

conv.9.weight f4 [64, 64, 3, 3]
000000 ec 31 9d 3b a6 78 de bc cb a9 5b 3b 36 01 2c bd
       0.004797211 -0.027157139 0.0033517953 -0.041993342
000010 01 04 04 3c 8b 6f 07 bd 44 62 74 bc e5 7c f6 3b
       0.008057595 -0.03306536 -0.0149160065 0.007522213
000020 7e 10 71 bb 42 3b 24 bc a7 a2 81 bc a5 9d 15 bc
       -0.0036783512 -0.010023894 -0.015824629 -0.009131824
000030 c9 18 d9 bc 2e 5c b2 bc e5 8f c4 bc 5a 73 6a 3c
       -0.026501076 -0.02177247 -0.023994396 0.0143097285
000040 76 cd 9c bc f7 ec 66 3b 8e f7 22 3d d7 63 76 3c
       -0.01914094 0.0035236457 0.039786868 0.015038452
000050 d7 b8 88 3c 56 ac 11 bc 31 0b b3 3c f9 07 8f 3a
       0.016689701 -0.008891186 0.021855922 0.001091241
000060 0c b1 db 3c db bf 40 bc eb f5 c7 3c c3 8f cd ba
       0.026817821 -0.011764492 0.024409255 -0.0015683103
000070 2a cc 07 ba 06 73 ce 3a 8c cd 28 bb cc f7 0e bb
       -0.0005180264 0.0015750832 -0.002575728 -0.002181518
000080 d9 c3 00 bb 76 84 51 3b 89 77 75 bb 16 02 2c bc
       -0.0019647984 0.0031969822 -0.0037455282 -0.010498544
000090 b7 d2 8d bc 4c f9 53 3c 8a cd 85 3c af ec f1 3c
       -0.01731239 0.012937855 0.01633336 0.029531805
0000a0 34 01 aa 3c 98 55 33 3d a1 30 ea bb 14 47 10 3d
       0.020752527 0.0437828 -0.0071469103 0.035224035
0000b0 24 15 15 3d 38 51 ed 3c 4d 76 dc 3c ea 48 5d 3d
       0.036397114 0.028969392 0.026911879 0.054024614
0000c0 f1 81 3a 3d d5 60 a0 3c 3a b1 13 3d 6a 95 8e 3c
       0.045534078 0.019577423 0.03605769 0.01740523
0000d0 23 7e 36 3d 27 fd 1f 3b a3 8b fa 3b c3 dc a7 3c
       0.044553887 0.0024412365 0.0076460405 0.02049101
0000e0 f8 66 81 3c 89 96 81 3b 9f 11 03 bc 1e 3d 3e bc
       0.01579617 0.0039547128 -0.007999807 -0.011611251
0000f0 7c 2a 10 3d cd 3c 08 3b a5 5a a2 ba a8 c4 be 3c
       0.035196766 0.0020788193 -0.0012386633 0.023287132
000100 7b 98 a7 bc 43 7f 78 3a 87 e7 0a bc 68 10 24 3d
       -0.02045845 0.00094794127 -0.008478052 0.04005471
000110 31 dc b0 3c 6a f6 d7 3c 52 de 05 3b 9e 14 96 3b
       0.02158937 0.026362617 0.0020426703 0.0045800945
000120 46 ed 15 bc 6b 36 bb 3c 98 af 11 3c 97 2d 70 ba
       -0.009150809 0.022853097 0.0088919625 -0.0009162067
000130 e9 35 5f bb c2 9f 20 bc ad 1b 3d bb aa 36 28 bc
       -0.0034059233 -0.009803714 -0.0028855607 -0.010266939
000140 30 01 e6 bc ee 56 36 3d e7 1d 53 3d 14 e2 3d bc
       -0.028076738 0.044516496 0.05154219 -0.011589546
000150 17 79 09 3d c4 8e 76 3d 75 02 79 3c a1 1c 0d 3d
       0.033562746 0.060194746 0.01519834 0.03445113
000160 b8 a7 35 3d 83 a6 0c 3d 93 3c cd 3b b6 49 db 3b
       0.044349402 0.034338485 0.0062633245 0.0066921366
000170 f8 79 9a 3b 83 30 07 ba aa cb 3d bc d6 f8 80 3c
       0.004714247 -0.000515707 -0.011584202 0.015743654
000180 b9 4a 6a bc b0 3e 48 3d ab 04 3c 3d 36 30 17 3c
       -0.014300042 0.04888791 0.04590289 0.009227803
000190 83 fc 15 3d 4f 2c bd bb 1e ec bd bb 1b b5 26 3d
       0.036617767 -0.0057731043 -0.0057959696 0.04070006
0001a0 6e c4 ff bc 1d 38 21 3c dc 7a 0e 3d f0 be b5 3c
       -0.031221595 0.009840039 0.034785137 0.022185773
0001b0 a6 17 14 bc 3f fb 70 3c 37 fa 4f 3c 07 f0 ed 3c
       -0.009038841 0.014708339 0.012693933 0.029045118
0001c0 21 15 6f 3c 1c 77 63 3c c5 29 1c 3d d4 7b e0 3c
       0.01459244 0.013883378 0.038125772 0.027402796
0001d0 53 8e 02 3d 5a 16 23 bb 12 b6 8f bc 36 34 98 3c
       0.031874012 -0.0024885149 -0.017542873 0.018579584
0001e0 ac 13 2e 3b f6 2c 9b 3c 51 36 ed 3c b9 17 35 bb
       0.0026562018 0.018942337 0.028956564 -0.0027632548
0001f0 c5 1e 4d 3b d9 43 82 bc d1 6d c8 bb 5d be 49 3c
       0.0031298858 -0.015901493 -0.0061166068 0.012313453
000200 5d 65 52 3d fa 86 ba 3c 0e fc 67 3c 6b f2 9f 3c
       0.0513662 0.02276944 0.014159216 0.019524774
000210 27 c2 51 bc a2 1e 8b 3b d8 4f 16 3d 45 f3 39 bd
       -0.012802637 0.004245595 0.03669724 -0.045398016
000220 61 40 56 bd 9c 58 d8 bc b3 68 1a bd 7d fa 98 bc
       -0.05230749 -0.02640944 -0.037697505 -0.01867413
000230 18 f9 33 bd ec 16 dc bc 2b 72 d9 bc ae 3b 78 bd
       -0.043938726 -0.026866399 -0.026543697 -0.06060379
000240 21 db e2 3c 08 15 c9 bb 95 69 57 bd be 15 fd bc
       0.02769238 -0.0061365403 -0.052590925 -0.030894157
000250 de 49 b6 3c dc 0c e4 3b 0a f8 cf 3a 43 02 a7 bc
       0.02225202 0.006959541 0.0015866768 -0.02038682
000260 0f 0e 65 bb a3 7c 1f bd a5 e6 87 bb 7d 7c 99 bc
       -0.0034951007 -0.038937222 -0.004147368 -0.018736118
000270 7f d7 5c bc 76 ed 58 bc 3b b0 a2 bc a4 33 34 bd
       -0.013479113 -0.013240209 -0.019859424 -0.04399456
000280 c5 eb ad bc b5 2a 73 bc e2 b9 ab 39 74 b4 76 bc
       -0.021230588 -0.014841725 0.00032754155 -0.015057672
000290 24 47 cc 3a 85 93 a6 bc b7 65 12 bd 96 60 33 bd
       0.0015585166 -0.020334015 -0.035741534 -0.043793283
0002a0 c6 f8 a2 bc 7d 01 80 bc 32 11 d1 bc be 30 05 bd
       -0.019894015 -0.01562571 -0.025520895 -0.032517187
0002b0 bd c6 19 bd 93 bc 6e bc a3 ed 20 bd 49 d9 fc bc
       -0.037543047 -0.014571327 -0.039289128 -0.030865328
0002c0 d0 f8 1d bc aa bf 11 bd 85 91 fe bc c2 fa 90 bc
       -0.009641841 -0.035583176 -0.031075248 -0.017697696
0002d0 ff 07 b2 3c 91 63 0d 3b b5 1a a0 3a 61 55 fe 3b
       0.021732328 0.0021574239 0.001221499 0.007761643
0002e0 e5 34 85 bb 4f 9a 78 bb 21 af fe 3c f0 ab 1e 3c
       -0.0040651434 -0.0037933772 0.031089367 0.009684548
0002f0 85 18 63 3c 04 13 08 bd e2 64 83 3a 61 68 bd 3c
       0.013860826 -0.03322126 0.0010024572 0.02312106
000300 d2 8f be bc 16 63 86 3c 9e 4c 8a 3c 86 9f b9 bc
       -0.023261938 0.01640467 0.016882237 -0.022659075
000310 eb d9 0a bd 4b 5d 32 bc 40 81 72 3c 8d 27 d0 bc
       -0.03389923 -0.010886501 0.014801323 -0.025409484
000320 a1 de 19 3c 09 9e 48 3c 90 ad 16 3d ee dd 45 3d
       0.009391458 0.01224471 0.036786616 0.04830735
000330 89 ae 87 3c 82 27 14 3d 8a f3 6d 3d 0f 21 bb 3c
       0.016562717 0.03617049 0.058093585 0.022842912
000340 c0 19 33 3c 0c c3 48 3d cc 90 05 3c 34 4b 4f 3c
       0.010931432 0.049014136 0.008152198 0.012652207
000350 27 90 00 3d 78 92 1f 3d 6e 40 10 3c 32 bf 51 3d
       0.031387474 0.038958043 0.008804424 0.05120773
000360 55 6a 20 3c e6 56 33 3b 32 89 64 3c b0 4c 1e bc
       0.0097909765 0.0027365028 0.013948726 -0.009661838
000370 a5 4f 2a 3c 2e 14 94 bc e4 47 8b ba 2d 21 5f bc
       0.010394965 -0.018076029 -0.0010626283 -0.01361875
000380 86 09 c7 bc 1c b0 04 bc 69 62 02 bd b5 3f 08 bd
       -0.024296533 -0.008098628 -0.031832132 -0.03326388
000390 b4 62 0b 3c 79 3f 20 3a 72 9f 08 bc 49 54 1f 3c
       0.008507419 0.0006112974 -0.008338796 0.009724685
0003a0 1a 8b 19 bc c0 9f 02 bd 9f ad a5 bb 81 ca c6 3c
       -0.009371543 -0.03189063 -0.0050560976 0.024266483
0003b0 41 18 94 bb a5 35 8e 3b 9b 8c 13 bb 75 ec 3f bc
       -0.004519493 0.004339891 -0.0022514227 -0.011714091
0003c0 b5 4d 0d bb 61 33 fa bb 83 91 9a bc aa 72 ab 3c
       -0.002156121 -0.0076355194 -0.018868214 0.0209287
0003d0 db 79 c7 3b f0 b8 9e 3c 29 ab 26 3d 70 f4 9a 3b
       0.0060875244 0.019375294 0.040690575 0.0047288463
0003e0 8e 8b 3b bc 45 d5 89 bc 9b 77 57 bc b7 ef 3d 3c
       -0.011446847 -0.016825328 -0.013151075 0.011592797
0003f0 a6 5c 6c bd c2 5e 45 bd 6a 32 92 bc f1 7d a4 bb
       -0.057705544 -0.04818607 -0.017846305 -0.005019896
