models/rym_grid_c1_s64_e2_t4_r4/cnn_c1_ce_a0p5_l0_lr1e-04.pt (torch, 607667 bytes, 23 tensors)

conv.0.weight f4 [64, 64, 3, 3]
-0.21169284 0.0040040864 -0.061247036 -0.13877206 -0.17059103 -0.02611363 -0.29366624 -0.046232484
-0.13135089 -0.034045618 0.10707684 -0.06353208 -0.018122861 -0.24103647 -0.26928377 0.10765517
0.06935366 -0.112932645 -0.36286375 0.096506014 -0.20759991 -0.122351184 0.006873077 0.15055378
0.15715317 0.17549345 -0.17178996 -0.15118015 0.13062206 -0.06051328 0.0711238 0.028853847
-0.031632863 0.3773975 0.13602169 0.09027204 -0.3579171 0.20818587 0.08238414 0.12420456
0.087780684 0.064970344 0.16184495 0.074060716 0.1570577 0.11564674 0.105608836 -0.01152789
0.04469541 0.16894452 -0.13273399 0.036425557 -0.2692815 -0.15122947 -0.21880224 0.27593416
0.06563703 0.009130985 -0.03930505 0.09027079 0.08792782 0.35001284 0.10075005 0.1611549
0.2523199 -0.024879469 0.3166843 0.09051368 -0.18375322 0.56353813 0.1990568 0.17274705
0.0978921 0.09429391 -0.025861457 -0.006878155 -0.16307922 0.0016007689 -0.19379637 0.16750406
0.18382722 -0.06399588 0.009135344 -0.14669377 0.040828787 0.07097861 0.09243252 0.39004737
0.19852084 -0.066953585 0.111986786 -0.14786157 0.020378344 0.04935596 0.094669074 0.010070402
-0.029838162 -0.08222025 0.10353233 -0.15345272 -0.049006034 -0.2986615 0.035145972 -0.07446249
0.051319223 0.14046973 -0.035564695 -0.059160333 -0.10628007 0.028446974 -0.0019331469 -0.031822275
0.050033934 -0.11640001 -0.072636984 -0.033249054 -0.040314823 0.010079549 -0.067480765 -0.067661166
-0.0062672948 -0.011385314 -0.054298688 0.00604441 0.035362776 -0.043864615 -0.103794985 0.030311018
-0.093719564 -0.00906716 -0.07335604 0.086920194 0.11517736 0.036134798 -0.20243345 -0.13032545
-0.039284196 -0.013491248 -0.12357669 -0.022378288 0.022101156 -0.039553832 -0.088370405 -0.04814799
-0.027540708 -0.04100732 -0.088331535 -0.023955774 -0.0445772 -0.02202708 0.057958793 0.04173142
-0.1294685 -0.024377156 0.022621086 -0.06398741 0.025675777 0.015747372 -0.029230285 -0.009096816
-0.0032642342 0.01885412 -0.064437315 0.017637096 -0.056715026 -0.080323905 0.046989173 -0.04445587
0.117116794 0.20061202 0.3048239 -0.042889398 0.16875751 -0.0037286314 0.05757643 0.019169644
-0.019037502 0.062028214 -0.015063495 -0.027969463 -0.101918824 0.10182678 -0.017067824 0.012380512
0.0042403704 0.068447135 -0.010887995 0.024485003 0.02422508 -0.042168573 0.03485083 -0.0048053437
0.01283907 0.065875016 0.029839404 0.010688511 0.084406085 0.00827924 0.051221613 -0.026953688
-0.08011462 0.019874413 0.034772847 -0.011708083 -0.02971093 0.0054791206 -0.024124166 0.028082263
-0.038843002 -0.01764471 0.07652079 0.042557314 -0.0702119 -0.015629048 0.022361688 -0.0027819325
-0.059787452 0.026629858 -0.045757063 -0.05827251 0.041136175 -0.075965315 -0.07730717 -0.095013686
-0.00317894 0.008118723 0.009793876 -0.041023236 -0.0116251735 -0.011129684 -0.101197116 0.018412257
0.0432163 -0.09240474 -0.006368587 -0.033099923 0.095392905 -0.11484148 0.04966136 0.080722965
0.04495851 0.021431895 0.013496758 0.08462431 -0.051027246 0.0022419265 0.09442273 0.006033238
-0.010740351 0.113762386 0.10786971 -0.023896499 0.058444455 0.0518881 -0.026872588 0.046596415
00000000: 02c6 58be b634 833b 2cde 7abd 431a 0ebe
00000010: 6aaf 2ebe 40ec d5bc 6c5b 96be 465e 3dbd
00000020: d980 06be 6b73 0bbd 1a4b db3d 1b1d 82bd
00000030: 6576 94bc 44d2 76be 90df 89be 507a dc3d
00000040: 4b09 8e3d 3b49 e7bd 47c9 b9be f2a4 c53d
00000050: 1295 54be 4293 fabd 8c37 e13b c52a 1a3e
00000060: c3ec 203e 8eb4 333e b5e9 2fbe f8ce 1abe
00000070: cac1 053e c6dc 77bd 5ba9 913d e75e ec3c
00000080: 7691 01bd 3f3a c13e 4549 0b3e 8ce0 b83d
00000090: e940 b7be ad2e 553e 04b9 a83d f65e fe3d
000000a0: 5cc6 b33d 2c0f 853d afba 253e 25ad 973d
000000b0: bcd3 203e 33d8 ec3d 7249 d83d 7adf 3cbc
000000c0: 8912 373d cbff 2c3e 6beb 07be f732 153d
000000d0: 44df 89be e6db 1abe b20d 60be 3e47 8d3e
000000e0: b56c 863d 209a 153c 55fe 20bd e4df b83d
000000f0: 8013 b43d e234 b33e 0b56 ce3d ca05 253e
00000100: 1330 813e 07d0 cbbc 7224 a23e 3c5f b93d
00000110: ce29 3cbe 0944 103f 8cd5 4b3e 9ae4 303e
00000120: a77b c83d 2a1d c13d 68db d3bc 2562 e1bb
00000130: 3dfe 26be e4d0 d13a 8e72 46be 2f86 2b3e
00000140: 343d 3c3e 4610 83bd 69ac 153c e436 16be
00000150: 163c 273d 3c5d 913d 434d bd3d 4ab4 c73e
00000160: 0c49 4b3e f61e 89bd 5459 e53d 0669 17be
00000170: 7cf0 a63c 7a29 4a3d dce1 c13d 54fe 243c
00000180: 296f f4bc 1763 a8bd c208 d43d b622 1dbe
00000190: 8dba 48bd 29ea 98be 39f5 0f3d ca7f 98bd
000001a0: 1b34 523d 4cd7 0f3e 49ac 11bd 1b52 72bd
000001b0: 5ea9 d9bd a109 e93c a561 fdba 1358 02bd
000001c0: 62f0 4c3d 2163 eebd b3c2 94bd 2930 08bd
000001d0: 2821 25bd b124 253c 5b33 8abd f091 8abd
000001e0: e15d cdbb 7889 3abc 4d68 5ebd 3010 c63b
000001f0: 8fd8 103d 62ab 33bd 7792 d4bd d04e f83c
00000200: 0bf0 bfbd 6d8e 14bc b13b 96bd 3703 b23d
00000210: 1ce2 eb3d 1502 143d b74a 4fbe 0974 05be
00000220: 77e8 20bd 650a 5dbc c715 fdbd ac52 b7bc
00000230: 7c0d b53c 3303 22bd 8bfb b4bd d436 45bd
00000240: 0d9d e1bc 4bf7 27bd 2ae7 b4bd e63e c4bc
00000250: 9596 36bd 2372 b4bc 3366 6d3d 91ee 2a3d
00000260: 6493 04be 9ab2 c7bc db4f b93c d50b 83bd
00000270: 0256 d23c a200 813c 5a74 efbc d00a 15bc
00000280: c3ec 55bb f573 9a3c b6f7 83bd ac7b 903c
00000290: 044e 68bd dc80 a4bd b877 403d 5c17 36bd
000002a0: eeda ef3d 3d6d 4d3e e111 9c3e cbac 2fbd
000002b0: c5ce 2c3e 0e5c 74bb 43d5 6b3d a809 9d3c
000002c0: 89f4 9bbc 4c11 7e3d e1cc 76bc 3720 e5bc
000002d0: d1ba d0bd 8f8a d03d d2d1 8bbc a2d7 4a3c
000002e0: cef2 8a3b 032e 8c3d 9063 32bc c694 c83c
000002f0: ad73 c63c f4b8 2cbd bebf 0e3d 2576 9dbb
00000300: f65a 523c 7be9 863d c471 f43c dd1e 2f3c
00000310: 19dd ac3d a6a5 073c c1cd 513d fbcd dcbc
00000320: 2213 a4bd aacf a23c f96d 0e3d 42d3 3fbc
00000330: 5664 f3bc 328a b33b 0ba0 c5bc c60c e63c
00000340: d719 1fbd a48b 90bc efb6 9c3d 9450 2e3d
00000350: 42cb 8fbd 7d08 80bc dc2f b73c 1551 36bb
00000360: b0e3 74bd dc26 da3c c26b 3bbd 28af 6ebd
00000370: 687e 283d b493 9bbd 3953 9ebd 8996 c2bd
00000380: c355 50bb 6404 053c 7e76 203c fb07 28bd
00000390: 8377 3ebc 4759 36bc 6f40 cfbd 4dd5 963c
000003a0: 9303 313d b23e bdbd 94af d0bb c993 07bd
000003b0: 5b5d c33d 0332 ebbd b669 4b3d 1552 a53d
000003c0: 6a26 383d f191 af3c 8221 5d3c 834f ad3d
000003d0: f201 51bd 49ed 123b b460 c13d 78b2 c53b
000003e0: 4cf8 2fbc 41fc e83d cbea dc3d 97c2 c3bc
000003f0: 7463 6f3d 9e88 543d e723 dcbc e2db 3e3d

conv.1.weight f4 [64]
1.0730027 1.0800343 1.0235807 0.8413937 1.1313553 1.0562092 0.8700796 1.0444418
1.1641043 1.0069963 1.0453103 0.9058479 1.0425802 0.96487474 0.99546623 1.2425199
0.8507189 1.0119026 1.0462426 1.1702522 0.9348708 1.0610262 0.9608723 0.99410754
1.0025756 1.0831438 0.98904675 0.95176613 0.9043907 0.93460983 0.87565976 1.0633283
0.8533369 0.9493969 0.8754433 1.0676368 0.83563054 1.0753908 0.9592741 1.1542875
1.1626972 1.011527 1.0977118 1.2162472 1.0317043 1.0466591 0.99686706 1.00177
0.8948703 0.92530555 0.94695836 1.024971 0.88618636 0.9104454 1.0183284 1.1442281
1.082647 0.88422143 0.92544055 1.035057 1.0270151 1.0624917 1.0445324 0.99829143
00000000: 2758 893f 903e 8a3f b104 833f 9465 573f
00000010: 40d0 903f dd31 873f 89bd 5e3f 45b0 853f
00000020: 5f01 953f 41e5 803f bacc 853f a6e5 673f
00000030: 4573 853f 0802 773f e0d6 7e3f e40a 9f3f
00000040: b7c8 593f 0686 813f 47eb 853f d3ca 953f
00000050: b153 6f3f b5cf 873f bafb 753f d57d 7e3f
00000060: 6654 803f 75a4 8a3f 2b32 7d3f f2a6 733f
00000070: 2686 673f 9742 6f3f 3d2b 603f 241b 883f
00000080: 4974 5a3f ad0b 733f 0d1d 603f 53a8 883f
00000090: e2eb 553f 68a6 893f fd92 753f b1bf 933f
000000a0: 43d3 943f b779 813f d281 8c3f fdad 9b3f
000000b0: e30e 843f edf8 853f ae32 7f3f 003a 803f
000000c0: 3816 653f d3e0 6c3f dd6b 723f 4032 833f
000000d0: 1cdd 623f f312 693f 9658 823f 1176 923f
000000e0: 2d94 8a3f 565c 623f ace9 6c3f bf7c 843f
000000f0: 3b75 833f baff 873f 3db3 853f 0790 7f3f

conv.1.bias f4 [64]
-0.11907644 -0.04078581 -0.17570297 0.016361479 0.08770045 0.11970113 -0.12972607 -0.12680338
-0.07842195 0.084151395 -0.15831262 -0.026886338 -0.12938447 -0.052275598 -0.045389287 -0.019261861
0.09775972 -0.09399534 -0.2095451 -0.14312734 -0.1462913 0.043155327 0.01690132 0.09185639
0.005109039 -0.017357634 -0.19063607 -0.13637206 -0.11951081 0.11354789 -0.061433136 0.16138217
-0.0012710235 0.03308045 0.07389076 -0.068408184 0.08106485 -0.10067772 -0.07826001 -0.16608454
-0.025463955 -0.124973886 -0.066727586 0.029659163 -0.033972703 0.03153359 0.038077213 -0.019571535
0.112543255 0.00016378376 0.061626557 -0.09009373 0.012722313 0.07667282 0.15240772 -0.04249044
-0.121119946 -0.049668916 0.11924504 0.054875337 -0.0059548747 0.033725027 -0.07735833 -0.113231644
00000000: 59de f3bd 060f 27bd 7beb 33be 8208 863c
00000010: 4b9c b33d de25 f53d e9d6 04be bfd8 01be
00000020: b09b a0bd 9157 ac3d b41c 22be bd40 dcbc
00000030: 5d7d 04be f01e 56bd 1eea 39bd 0dcb 9dbc
00000040: 4036 c83d a180 c0bd fe92 56be f98f 12be
00000050: 63cd 15be a4c3 303d a374 8a3c 341f bc3d
00000060: ba69 a73b 9931 8ebc 1a36 43be 1ea5 0bbe
00000070: 15c2 f4bd cc8b e83d 50a1 7bbd 5e41 253e
00000080: 7998 a6ba 5e7f 073d 0a54 973d 9719 8cbd
00000090: 5405 a63d 1f30 cebd c946 a0bd 1112 2abe
000000a0: c999 d0bc 4ff2 ffbd 79a8 88bd c6f7 f23c
000000b0: f626 0bbd 5e29 013d daf6 1b3d 7c54 a0bc
000000c0: 147d e63d 5ebd 2b39 216c 7c3d 1083 b8bd
000000d0: 4071 503c a406 9d3d c510 1c3e 750a 2ebd
000000e0: bc0d f8bd a271 4bbd be36 f43d f6c4 603d
000000f0: 1c21 c3bb 4123 0a3d 0b6e 9ebd fee5 e7bd

conv.1.running_mean f4 [64]
-0.88391376 -0.41370746 -0.8613623 0.4756124 -0.640482 -0.61960346 -0.5235389 -0.29448742
0.008278773 -0.32436767 -0.1768733 0.14092521 0.5015192 -0.3086735 0.61857533 -1.1456348
-0.23467945 0.6452402 -0.08237948 -0.43221074 -0.5699636 -0.5162562 0.13398105 -0.327173
-0.9406375 -0.39555722 -0.18800123 -0.07035555 0.8156928 -0.05626456 -0.07586409 -0.9388997
0.28339157 0.44870105 -0.3612521 -0.90175796 0.27050778 -0.80120605 -0.15918279 -0.6946275
-0.9979989 0.32059655 -0.97391886 -1.1621344 -0.2691364 -1.1702417 0.013130648 -0.37518615
0.07776152 0.28549546 -0.5564358 -0.33075103 0.12340582 0.37342137 0.30979666 -0.5352349
-0.4398081 0.22844915 -0.49187154 0.7613252 -0.51758754 -0.9767481 -0.42009765 -0.055334434
00000000: 2c48 62bf 77d1 d3be 3d82 5cbf 7883 f33e
00000010: a1f6 23bf 559e 1ebf a506 06bf 0ec7 96be
00000020: b1a3 073c 8513 a6be 461e 35be b34e 103e
00000030: 9063 003f 740a 9ebe f45a 1e3f 29a4 92bf
00000040: cf4f 70be 762e 253f 93b6 a8bd ba4a ddbe
00000050: 22e9 11bf 5e29 04bf 5432 093e 3883 a7be
00000060: 9fcd 70bf 7a86 cabe 6583 40be 9216 90bd
00000070: 3ed1 503f ab75 66bd a25e 9bbd bb5b 70bf
00000080: b318 913e 25bc e53e 09f6 b8be 9cd9 66bf
00000090: ff7f 8a3e d71b 4dbf d000 23be 1cd3 31bf
000000a0: db7c 7fbf 3b25 a43e bf52 79bf d2c0 94bf
000000b0: 3fcc 89be 7bca 95bf ee21 573c 6618 c0be
000000c0: 6f41 9f3d 762c 923e 9472 0ebf 3358 a9be
000000d0: 31bc fc3d 1631 bf3e ab9d 9e3e 2805 09bf
000000e0: 872e e1be 93ee 693e 96d6 fbbe 35e6 423f
000000f0: 9e80 04bf 2a0c 7abf 0a17 d7be 5ca6 62bd

conv.1.running_var f4 [64]
0.50830305 0.43920258 0.6100747 0.26907647 0.35356265 0.5069197 0.33278432 0.23423178
0.29736713 0.5468019 0.2465396 0.36009046 0.2455094 0.36787108 0.26169768 0.4056513
0.23802084 0.4121237 0.19436873 0.22732 0.34400555 0.30174193 0.2779797 0.2693637
0.27450886 0.573055 0.47448647 0.364897 0.45595685 0.19269353 0.29417405 0.27264908
0.40735352 0.32243848 0.32797578 0.3801733 0.32069376 0.29200646 0.36425304 0.44297707
0.3628549 0.28486606 0.39335102 0.3748333 0.4352724 0.45107764 0.2421712 0.36987862
0.3786644 0.5152126 0.6683973 0.26827252 0.29649404 0.32548276 0.27409288 0.26205358
0.31106314 0.34580785 0.30173305 0.23924771 0.23510683 0.33605674 0.29249844 0.431388
00000000: 2620 023f 29df e03e db2d 1c3f 64c4 893e
00000010: 2a06 b53e 7dc5 013f b562 aa3e 75da 6f3e
00000020: 8140 983e 36fb 0b3f e074 7c3e c75d b83e
00000030: d166 7b3e 9959 bc3e 3dfd 853e 87b1 cf3e
00000040: bcbb 733e e101 d33e 9908 473e 93c6 683e
00000050: 7f21 b03e eb7d 9a3e 5b53 8e3e 0aea 893e
00000060: 6d8c 8c3e bcb3 123f e4ef f23e c8d3 ba3e
00000070: 2d73 e93e 7451 453e fb9d 963e a998 8b3e
00000080: a490 d03e a816 a53e 71ec a73e 13a6 c23e
00000090: f931 a43e df81 953e 607f ba3e e4cd e23e
000000a0: 1ec8 b93e f7d9 913e 4e65 c93e 26ea bf3e
000000b0: 06dc de3e a6f3 e63e bafb 773e bb60 bd3e
000000c0: 4de0 c13e f9e4 033f 161c 2b3f 045b 893e
000000d0: 11ce 973e ada5 a63e e755 8c3e e32b 863e
000000e0: ab43 9f3e ba0d b13e c17c 9a3e 5afd 743e
000000f0: d8bf 703e a10f ac3e 5bc2 953e e3de dc3e

conv.3.weight f4 [64, 64, 3, 3]
-0.006521663 0.06458048 -0.08821002 -0.01793653 0.054927047 -0.010754081 0.031244686 -0.018375708
0.053578377 -0.0058652596 -0.00071775157 0.094367325 0.06546618 -0.07634702 -0.0489548 -0.03061141
-0.057884477 -0.044013407 0.00826682 -0.075254746 0.0055866875 -0.06324782 -0.048293583 -0.043034233
0.022580903 0.020516822 0.13890256 -0.028010229 -0.014495235 -0.013578971 -0.083136186 0.07594829
0.09668002 -0.080575086 -0.05766456 -0.09647693 -0.05185645 0.20431274 -0.04711444 -0.024603533
-0.075773515 0.0644953 -0.06912401 0.05017985 -0.23209815 -0.19629261 0.07894246 0.07488031
-0.068229616 -0.065492146 -0.053112254 0.06745655 0.027806273 -0.0025947148 -0.009819695 -0.020662373
0.049960494 0.073230915 0.006925136 0.03099097 -0.03562287 -0.03757927 -0.029672535 0.036286008
0.085169025 0.021602256 0.03300683 0.0068018404 0.024313943 0.07399802 -0.023875339 -0.072074816
0.028957533 -0.010100616 -0.1356219 -0.06577798 0.05900998 0.09284919 0.11514586 0.024727466
0.13823876 -0.05420967 0.09380996 -0.13513206 0.019448958 0.051875018 -0.06450602 -0.030764854
-0.031088801 -0.042258225 -0.053889196 0.0054487213 -0.00784241 -0.04134305 -0.029019263 0.108675465
0.007591504 0.049815636 0.042879276 -0.01634788 -0.030161472 -0.008594025 0.011960227 0.0072481055
0.23128586 0.057341065 0.0059979646 -0.02953505 -0.021570466 -0.021661026 0.0039804755 0.009698405
0.10256332 -0.017189942 -0.035959095 -0.0540233 -0.09539976 0.07299698 -0.07958464 0.07562792
-0.011261073 0.06503823 -0.11328432 0.012312545 0.03569561 0.07039117 -0.01900721 -0.07296732
-0.15608163 -0.081672005 0.0049610944 0.03092645 -0.14074743 0.1643156 0.041494597 0.012352076
-0.11844386 0.051016912 0.06894116 0.0127698695 0.008263423 0.02659898 0.03951056 0.0708659
-0.06357971 -0.10807334 0.011120583 -0.04557664 -0.1651954 0.018061971 0.124285266 0.056778084
-0.033118263 0.0039567766 0.010667951 0.013244478 0.05127469 -0.0068596615 -0.03950492 -0.02645909
-0.018268144 -0.0047716917 0.058514204 0.081251524 0.04408476 -0.054517444 -0.09179478 -0.0479626
0.020919101 -0.020187147 -0.12556198 0.108417176 -0.05076968 -0.14895025 0.025196591 0.087365285
0.028562784 0.061098114 0.09116408 -0.1509447 -0.17859983 -0.046527546 -0.0735953 -0.017526673
-0.018487556 -0.25243646 0.0068749934 0.008048339 -0.060075928 0.06730626 -0.0009253744 -0.019305766
-0.039506823 0.02303295 -0.0814664 0.00416103 -0.07271277 -0.0076899906 0.09502916 0.08236599
0.019843703 -0.104185864 0.0633453 -0.08632382 0.051083904 -0.0017804152 -0.0389726 0.004338546
-0.07376879 0.023005137 0.060677998 -0.11478787 0.113347284 0.02024962 -0.03676424 -0.10295671
-0.09097019 0.029326178 -0.057756923 0.05462712 -0.03603873 -0.0002346971 0.028951002 -0.006205208
0.02093957 -0.034721702 0.09542704 0.08378636 0.023507517 -0.04348752 0.027809575 -0.004098654
-0.009688095 0.008725361 -0.037003182 -0.061307985 -0.10017246 0.068606846 0.038800962 -0.03891143
-0.14194117 0.07123873 0.045865778 -0.025871975 0.046698596 -0.08452033 -0.06497114 0.14037101
0.021353107 -0.056650557 0.07001243 -0.0026004722 -0.020521648 0.057657517 0.0030116641 0.016278755
00000000: adb3 d5bb c542 843d 74a7 b4bd a1ef 92bc
00000010: 2ffb 603d e331 30bc dbf4 ff3c a788 96bc
00000020: 0075 5b3d 5d31 c0bb 7e27 3cba a843 c13d
00000030: 2213 863d d45b 9cbd d484 48bd c8c4 fabc
00000040: 4618 6dbd 6747 34bd 8e71 073c 291f 9abd
00000050: 8810 b73b 1388 81bd 7ecf 45bd aa44 30bd
00000060: 96fb b83c e512 a83c 793c 0e3e b575 e5bc
00000070: 6c7d 6dbc 557a 5ebc 4e43 aabd c78a 9b3d
00000080: 2d00 c63d 8d04 a5bd ac31 6cbd b295 c5bd
00000090: 6e67 54bd 5c37 513e 12fb 40bd 598d c9bc
000000a0: 252f 9bbd 1d16 843d e490 8dbd 6389 4d3d
000000b0: 23ab 6dbe ee00 49be 96ac a13d d95a 993d
000000c0: f8bb 8bbd bf20 86bd 3c8c 59bd a926 8a3d
000000d0: fbc9 e33c 170c 2abb c9e2 20bc 2344 a9bc
000000e0: 60a3 4c3d 17fa 953d 40ec e23b c6e0 fd3c
000000f0: 49e9 11bd b8ec 19bd d113 f3bc a3a0 143d
00000100: 196d ae3d 37f7 b03c 2b32 073d f9e1 de3b
00000110: 092e c73c 468c 973d 3796 c3bc f69b 93bd
00000120: 5938 ed3c 0e7d 25bc 78e0 0abe 9bb6 86bd
00000130: 73b4 713d b727 be3d 98d1 eb3d 4191 ca3c
00000140: 768e 0d3e f50a 5ebd 701f c03d 0f60 0abe
00000150: 6c53 9f3c e67a 543d bb1b 84bd 9306 fcbc
00000160: f1ad febc f616 2dbd ebba 5cbd 308b b23b
00000170: 747d 00bc 5457 29bd ceb9 edbc 3e91 de3d
00000180: 27c2 f83b 7b0b 4c3d 2ea2 2f3d fdeb 85bc
00000190: 3115 f7bc f4cd 0cbc d4f4 433c 8481 ed3b
000001a0: 33d6 6c3e 77de 6a3d 938a c43b 7df3 f1bc
000001b0: 8cb4 b0bc 7772 b1bc a66e 823b 0fe6 1e3c
000001c0: b80c d23d ecd1 8cbc d849 13bd 8947 5dbd
000001d0: f360 c3bd 717f 953d 46fd a2bd d0e2 9a3d
000001e0: 5d80 38bc c332 853d 9c01 e8bd 8fba 493c
000001f0: 8f35 123d 3f29 903d 02b5 9bbc e46f 95bd
00000200: ddd3 1fbe a743 a7bd ad90 a23b 7759 fd3c
00000210: 1820 10be 5942 283e 3df6 293d 5d60 4a3c
00000220: b292 f2bd 1cf7 503d 0631 8d3d b738 513c
00000230: 4f63 073c 1be6 d93c d3d5 213d 2422 913d
00000240: 1436 82bd 8e55 ddbd 1b33 363c 92ae 3abd
00000250: fc28 29be b3f6 933c 4689 fe3d 2390 683d
00000260: 04a7 07bd d9a7 813b a1c8 2e3c 5eff 583c
00000270: 6905 523d 03c7 e0bb e9cf 21bd bcc0 d8bc
00000280: 13a7 95bc da5b 9cbb 97ac 6f3d 3367 a63d
00000290: 3992 343d af4d 5fbd e7fe bbbd 6e74 44bd
000002a0: 895e ab3c 845f a5bc 5293 00be d309 de3d
000002b0: def3 4fbd 6a86 18be 1569 ce3c 92ec b23d
000002c0: 80fc e93c 0442 7a3d 3cb4 ba3d 3f91 1abe
000002d0: e0e2 36be ab93 3ebd 22b9 96bd 1994 8fbc
000002e0: 3773 97bc 5a3f 81be a047 e13b 2edd 033c
000002f0: 2d12 76bd ddd7 893d d394 72ba 2027 9ebc
00000300: e8d1 21bd 99af bc3c dbd7 a6bd 4059 883b
00000310: 6fea 94bd 51fc fbbb a69e c23d 80af a83d
00000320: 438f a23c 665f d5bd 2ebb 813d 8bca b0bd
00000330: 5b3d 513d d25c e9ba bca1 1fbd 5d2a 8e3b
00000340: 1714 97bd 4575 bc3c 7e89 783d e715 ebbd
00000350: 9f22 e83d 88e2 a53c 1a96 16bd f8da d2bd
00000360: 944e babd 743d f03c 8692 6cbd b0c0 5f3d
00000370: 599d 13bd 0619 76b9 a72a ed3c 0f55 cbbb
00000380: 7689 ab3c 5838 0ebd 406f c33d 2f98 ab3d
00000390: d692 c03c f81f 32bd e8d0 e33c 004e 86bb
000003a0: d1ba 1ebc d1f4 0e3c a690 17bd 151e 7bbd
000003b0: 3827 cdbd bf81 8c3d c2ed 1e3d 9761 1fbd
000003c0: 0759 11be 9ce5 913d c1dd 3b3d 77f1 d3bc
000003d0: 0747 3f3d ff18 adbd 970f 85bd 6bbd 0f3e
000003e0: b6ec ae3c 6a0a 68bd ad62 8f3d af6c 2abb
000003f0: 041d a8bc 4a2a 6c3d 575f 453b 065b 853c

conv.4.weight f4 [64]
1.0233693 1.0271753 0.9614565 1.0476657 0.9283359 1.0084816 1.063239 0.8809847
1.0447226 1.0412464 0.96812415 1.0544964 0.9647168 1.0620205 1.108278 0.9470868
1.0591954 1.0166034 0.91528195 0.9592604 0.8747688 0.9652297 0.9172811 0.96688277
0.97479177 0.98434824 1.0652288 1.0313033 1.2515913 1.0164071 0.9269163 0.9328587
1.0824372 0.93916786 0.94369316 0.9129376 0.90215254 1.1029664 1.0495023 1.0189277
0.9366851 1.0376333 1.1650435 0.91703045 1.0034709 1.0088943 1.0043021 0.9175418
0.99828 1.1317705 1.0072714 1.0408016 0.91251534 1.015001 0.9544622 0.9252699
0.88780934 1.0008425 1.0477396 1.0429292 1.2034801 0.8638932 0.9918661 1.0967501
00000000: c4fd 823f 7b7a 833f 0322 763f e919 863f
00000010: 6ca7 6d3f ed15 813f 3718 883f 3788 613f
00000020: 78b9 853f 9047 853f fcd6 773f bdf9 863f
00000030: aef7 763f 4af0 873f 0edc 8d3f 4874 723f
00000040: b793 873f 0f20 823f eb4f 6a3f 1792 753f
00000050: d9f0 5f3f 4b19 773f efd2 6a3f a185 773f
00000060: f48b 793f 3ffe 7b3f 6b59 883f bf01 843f
00000070: 2534 a03f a119 823f 634a 6d3f d4cf 6e3f
00000080: 4d8d 8a3f 4e6d 703f e095 713f 47b6 693f
00000090: 78f3 663f 012e 8d3f 1756 863f 396c 823f
000000a0: 98ca 6f3f 2bd1 843f 2520 953f 82c2 6a3f
000000b0: bc71 803f 7323 813f f98c 803f 05e4 6a3f
000000c0: 478f 7f3f dbdd 903f 45ee 803f fd38 853f
000000d0: 9b9a 693f 8eeb 813f a257 743f 7dde 6c3f
000000e0: 7947 633f 9b1b 803f 551c 863f b47e 853f
000000f0: a30b 9a3f 1b28 5d3f f0ea 7d3f 4f62 8c3f

conv.4.bias f4 [64]
-0.2019214 -0.17700991 -0.0018149843 -0.1923457 -0.045356587 -0.2090713 -0.14368206 -0.13973296
-0.21249814 -0.23517303 -0.20172542 -0.34701422 -0.114817046 -0.0790132 -0.21415181 -0.13082482
-0.25266585 -0.24465285 -0.15053935 -0.16786528 -0.014890586 -0.16869219 -0.08739358 -0.027725128
-0.21226479 -0.14301075 -0.22228779 -0.13435659 -0.29556048 -0.1253798 -0.150148 -0.2683318
-0.04590725 -0.1418167 -0.18672775 -0.21760915 -0.008594 -0.1707446 -0.16606817 -0.23557355
-0.24331404 -0.1986028 -0.19007914 -0.040319152 -0.22860815 -0.16508886 -0.12923944 -0.10678914
-0.17619291 -0.26520988 -0.18340491 -0.16843311 -0.22333223 -0.006844533 -0.16926883 -0.1571712
-0.17740877 -0.088308655 -0.15510093 -0.13192612 -0.14239532 -0.2825111 -0.18827909 -0.14886686
00000000: 7cc4 4ebe 1642 35be c4e4 edba 45f6 44be
00000010: d4c7 39bd c916 56be 6421 13be 2816 0fbe
00000020: 1d99 59be 33d1 70be 1c91 4ebe d9ab b1be
00000030: 3325 ebbd acd1 a1bd 9d4a 5bbe f1f6 05be
00000040: 6b5d 81be 4786 7abe fd26 1abe e0e4 2bbe
00000050: a5f7 73bc a5bd 2cbe 68fb b2bd cf1f e3bc
00000060: f15b 59be 6971 12be 699f 63be c694 09be
00000070: b453 97be 9063 00be 66c0 19be c962 89be
00000080: 3e09 3cbd 6638 11be 8f35 3fbe efd4 5ebe
00000090: d9cd 0cbc acd7 2ebe c60d 2abe 313a 71be
000000a0: 5127 79be 885e 4bbe 1ba4 42be b225 25bd
000000b0: 4118 6abe 0e0d 29be 5857 04be 44b4 dabd
000000c0: ea6b 34be 97c9 87be 7fce 3bbe bb79 2cbe
000000d0: 34b1 64be 1b48 e0bb cf54 2dbe 7df1 20be
000000e0: a5aa 35be 2bdb b4bd c7d2 1ebe a417 07be
000000f0: 14d0 11be 4ba5 90be 3ccc 40be 8e70 18be

conv.4.running_mean f4 [64]
-1.0713816 -1.1363435 1.4898767 -1.5526065 0.27874887 -0.36268863 -0.9582415 -0.060845166
-0.45553318 -0.50490683 -0.7527278 -1.0221856 0.0461916 -0.72665507 -1.1873287 -0.39226565
-0.6388989 -0.9112528 -0.21283561 0.74081296 -0.20155504 0.11925178 -0.4837501 -0.050541177
-1.1323723 -0.83501375 -0.76378775 -0.45482627 -2.3645723 -0.6233511 -0.45030135 0.44888073
-1.6658612 -0.8298903 -0.8414525 -0.7870169 0.16559531 -1.7842712 -1.1567717 0.03977239
-0.22502181 -0.5466248 -0.109358855 -0.1161339 -0.24234343 0.68245083 0.33387166 -0.6524886
0.35809505 -1.5101761 -0.43190908 -0.08942793 0.31269795 -0.5432717 0.20424907 -0.11758663
1.0381968 0.33923292 -0.27971703 -1.1592673 -1.3815069 0.03789279 0.3327148 -0.7251341
00000000: 0823 89bf b473 91bf 48b4 be3f cfbb c6bf
00000010: 2cb8 8e3e 53b2 b9be 514f 75bf c838 79bd
00000020: a53b e9be 9341 01bf c5b2 40bf fad6 82bf
00000030: 6733 3d3d 1106 3abf 63fa 97bf 0bd7 c8be
00000040: e18e 23bf dd47 69bf 94f1 59be eba5 3d3f
00000050: 7264 4ebe 473a f43d 18ae f7be 4404 4fbd
00000060: 93f1 90bf 76c3 55bf 9887 43bf fdde e8be
00000070: 2755 17c0 f093 1fbf e68d e6be b2d3 e53e
00000080: f13a d5bf b173 54bf 6e69 57bf f179 49bf
00000090: d191 293e 0063 e4bf 1811 94bf 60e8 223d
000000a0: 1e6c 66be 9aef 0bbf 89f7 dfbd 9cd7 edbd
000000b0: e028 78be 19b5 2e3f 3af1 aa3e 7e09 27bf
000000c0: 3c58 b73e 734d c1bf 3023 ddbe fe25 b7bd
000000d0: f219 a03e db13 0bbf ab26 513e 42d1 f0bd
000000e0: a2e3 843f f0af ad3e 1237 8fbe df62 94bf
000000f0: 38d5 b0bf 7835 1b3d 9859 aa3e 63a2 39bf

conv.4.running_var f4 [64]
1.1284949 1.3862984 1.8025151 1.4731492 1.2210518 1.163528 1.6442871 1.0335914
1.1526009 1.0563072 1.1425996 1.6679529 1.3251874 1.6612551 1.7395194 1.16145
1.2432826 1.3941318 1.1071526 1.597238 1.179284 1.2069274 0.9849695 1.1070163
1.4877572 1.284407 1.1556046 1.3216195 1.7426414 1.614732 1.1816776 0.96981853
1.3924462 1.0556883 1.0411268 0.99600554 1.0881774 1.4587584 1.2449553 1.0930144
1.2427635 1.0127989 1.5203279 1.2359828 1.2292502 1.3878042 1.2872692 1.2673998
1.3079535 1.4946268 1.2577102 1.4455497 1.3171991 1.2274723 1.1807019 1.2264695
1.073823 1.2786843 1.1418104 1.8370737 1.6547011 0.9936994 1.4760318 1.8045267
00000000: 8572 903f 3a72 b13f d1b8 e63f 2790 bc3f
00000010: 6d4b 9c3f 7cee 943f 0078 d23f b94c 843f
00000020: 6d88 933f 1335 873f b440 923f 7b7f d53f
00000030: be9f a93f 02a4 d43f 92a8 de3f 65aa 943f
00000040: e223 9f3f e972 b23f 2db7 8d3f 4b72 cc3f
00000050: c7f2 963f 997c 9a3f f626 7c3f b6b2 8d3f
00000060: d46e be3f 7367 a43f daea 933f d42a a93f
00000070: e00e df3f 8aaf ce3f 3641 973f 0746 783f
00000080: ad3b b23f cb20 873f a543 853f 38fa 7e3f
00000090: 6649 8b3f 98b8 ba3f b25a 9f3f e5e7 8b3f
000000a0: e012 9f3f 65a3 813f 1b9a c23f af34 9e3f
000000b0: 1258 9d3f 91a3 b13f 3dc5 a43f 283a a23f
000000c0: 056b a73f ee4f bf3f a6fc a03f c607 b93f
000000d0: fb99 a83f d01d 9d3f 3d21 973f f4fc 9c3f
000000e0: 0873 893f edab a33f d826 923f 3b25 eb3f
000000f0: 3fcd d33f 1563 7e3f 9cee bc3f bbfa e63f

conv.6.weight f4 [64, 64, 3, 3]
-0.06279864 0.04393738 -0.09505448 0.046428338 -0.11139915 -0.034947984 -0.012815267 -0.15105382
0.010744348 -0.056060035 -0.041926507 -0.067028806 -0.00093807094 0.085523896 0.13704754 0.039961923
-0.04966399 0.13007694 0.10651955 -0.00070913637 -0.09330651 -0.06878598 -0.016499251 0.1020171
-0.048805565 -0.0032770215 -0.045258358 -0.13655491 -0.07407883 -0.066521905 0.07724791 -0.0761048
0.042970877 -0.056192767 0.021721754 -0.07485137 -0.03457891 -0.08981911 -0.09095499 -0.011285857
-0.037853394 0.003985618 -0.15180358 0.08731744 -0.008575796 -0.0708466 0.014536326 -0.093648344
0.052803736 -0.03341053 0.05358273 -0.038309228 0.002275076 -0.06366121 0.026727742 -0.032839116
-0.12168967 0.048375513 -0.102116205 0.13276702 -0.040829506 -0.02384853 -0.0830525 0.09325913
0.027285563 -0.0319114 0.0053669126 -0.087006934 -0.05205251 0.060065396 0.0073805633 -0.008213879
0.13071042 -0.06380965 -0.046567395 -0.025863485 0.023336615 0.11408101 0.056340892 -0.010624307
-0.00023913747 0.0034622839 0.094683096 0.017069474 -0.057405528 -0.033201676 0.033865184 0.073486485
0.06453641 0.030265851 -0.12466148 0.07874536 0.11353558 -0.010090758 0.041759413 0.052609425
0.006577403 -0.10718696 -0.002534621 -0.005446057 -0.18173604 0.044877663 -0.029177409 0.008312209
-0.035366572 0.11000711 0.13558325 -0.099828936 -0.023733445 -0.0002825913 0.0055608344 0.035913356
-0.036230255 -0.094261624 0.075874776 0.09074363 0.073190846 0.054615654 0.12839812 -0.014723123
-0.0034198773 0.016658591 0.09078513 0.058419883 0.015528615 0.005131537 -0.026693936 0.0079083275
-0.00073931116 -0.013057232 -0.057522662 -0.028556695 -0.19871256 0.07266072 -0.059926067 0.01968637
-0.053349115 -0.15226184 -0.06253653 -0.0680364 0.062322773 -0.0673935 -0.008226452 0.089833505
-0.09207291 -0.0894539 -0.038550515 -0.119088955 0.014282104 0.03505276 -0.08037146 0.099549875
0.17891885 0.012719096 -0.04334856 -0.067129664 0.09291034 -0.07675294 -0.0007510056 0.11725378
0.05321743 -0.012455871 -0.024460664 0.017056365 0.067853175 -0.08796391 0.10569493 0.040392548
0.118540354 -0.037645273 0.016023308 -0.0773785 -0.015513241 -0.1131183 0.067467235 -0.03145002
0.04925024 -0.00454317 0.013447062 -0.17725211 -0.03810464 0.02407777 -0.009657326 0.023456816
0.09081618 0.0014937174 -0.01850612 -0.0004924717 0.05760314 -0.05085477 0.00047605936 0.1026773
-0.011551432 0.0840099 -0.032716636 0.053427715 0.032200966 -0.095405445 0.042991996 -0.042961087
-0.011699955 -0.024501055 0.022580953 -0.17326191 -0.0031121282 -0.048005477 0.13482761 -0.09244073
-0.03191716 0.014262399 0.08200273 0.013128653 0.08858238 -0.011150538 0.015736004 -0.077699035
0.034605093 -0.07007597 -0.030593064 -0.05089944 -0.0135673825 -0.01779837 -0.028431438 -0.023050481
-0.0790033 0.03042735 -0.040639214 0.024100598 0.07026357 0.056376033 -0.026868958 -0.025181027
0.04483921 0.036327 -0.0911331 -0.004756159 0.0040764064 -0.012286486 -0.05111533 -0.07307484
-0.1890215 -0.043152273 0.027863363 -0.13990481 0.06265964 0.00072755513 0.062482074 -0.005088039
0.039873 -0.024963401 0.058837414 -0.073509805 0.06408851 0.05982666 0.03984224 -0.024045171
00000000: 939c 80bd aff7 333d ecab c2bd a42b 3e3d
00000010: 3d25 e4bd 9e25 0fbd 20f7 51bc daad 1abe
00000020: 1009 303c 359f 65bd 21bb 2bbd 6646 89bd
00000030: e0e8 75ba 2727 af3d 3156 0c3e 1daf 233d
00000040: 786c 4bbd e432 053e ec26 da3d 56e5 39ba
00000050: 7c17 bfbd aadf 8cbd 7029 87bc 57ee d03d
00000060: 58e8 47bd 4cc3 56bb d460 39bd 0dd5 0bbe
00000070: a4b6 97bd a33c 88bd 2734 9e3d d5dc 9bbd
00000080: 3b02 303d 632a 66bd d2f1 b13c ad4b 99bd
00000090: 9da2 0dbd 15f3 b7bd 9c46 babd 51e8 38bc
000000a0: 290c 1bbd c999 823b 6672 1bbe 7cd3 b23d
000000b0: 7f81 0cbc 0618 91bd c529 6e3c b4ca bfbd
000000c0: bb48 583d 7bd9 08bd 9179 5b3d 23ea 1cbd
000000d0: 7119 153b cf60 82bd 23f4 da3c 4f82 06bd
000000e0: 6f38 f9bd 6725 463d 4d22 d1bd 14f4 073e
000000f0: d73c 27bd fe5d c3bc 6e17 aabd a5fe be3d
00000100: f985 df3c 87b5 02bd eddc af3b b130 b2bd
00000110: 0335 55bd 2207 763d a7d8 f13b 8193 06bc
00000120: f4d8 053e a2ae 82bd 74bd 3ebd a9df d3bc
00000130: 6e2c bf3c 4ea3 e93d b5c5 663d 9311 2ebc
00000140: fac0 7ab9 7ce7 623b 36e9 c13d 48d5 8b3c
00000150: 0f22 6bbd 7bfe 07bd 38b6 0a3d 1580 963d
00000160: aa2b 843d 17f0 f73c 854e ffbd 3f45 a13d
00000170: 5885 e83d b553 25bc eb0b 2b3d fb7c 573d
00000180: 4187 d73b d684 dbbd e21b 26bb d674 b2bb
00000190: 0319 3abe a4d1 373d 7605 efbc ee2f 083c
000001a0: 8adc 10bd 684b e13d 56d6 0a3e 1d73 ccbd
000001b0: a46c c2bc c328 94b9 a937 b63b e219 133d
000001c0: 2d66 14bd 3d0c c1bd 3c64 9b3d ccd7 b93d
000001d0: 15e5 953d aab4 5f3d cc7a 033e 4139 71bc
000001e0: 0520 60bb 9977 883c 8eed b93d b049 6f3d
000001f0: bb6b 7e3c 7426 a83b 3ead dabc ee91 013c
00000200: 55ce 41ba 00ee 55bc e29c 6bbd bbef e9bc
00000210: 4e7b 4bbe 25cf 943d 0975 75bd 4f45 a13c
00000220: 9a84 5abd 87ea 1bbe 2713 80bd ab56 8bbd
00000230: 2a46 7f3d 9a05 8abd 3ec8 06bc a1fa b73d
00000240: b990 bcbd 9b33 b7bd 25e7 1dbd e9e4 f3bd
00000250: 7cff 693c 7c93 0f3d cb99 a4bd cee0 cb3d
00000260: 8136 373e c163 503c 428e 31bd 477b 89bd
00000270: c747 be3d a530 9dbd 22df 44ba c022 f03d
00000280: 85fa 593d b613 4cbc bb61 c8bc cab9 8b3c
00000290: 9bf6 8a3d 6c26 b4bd 9576 d83d a872 253d
000002a0: 49c5 f23d ee31 1abd 5043 833c 9e78 9ebd
000002b0: 402b 7ebc 91aa e7bd 432c 8a3d bcd1 00bd
000002c0: 9fba 493d dfde 94bb 1151 5c3c 9481 35be
000002d0: 9c13 1cbd be3e c53c c339 1ebc 8228 c03c
000002e0: d5fd b93d d7c8 c33a 269a 97bc 3719 01ba
000002f0: 45f1 6b3d 174d 50bd 9b97 f939 7a48 d23d
00000300: 3842 3dbc 620d ac3d e101 06bd 05d7 5a3d
00000310: 29e5 033d ee63 c3bd 6018 303d f7f7 2fbd
00000320: 2bb1 3fbc 70b6 c8bc b1fb b83c 926b 31be
00000330: d9f4 4bbb 64a1 44bd 4010 0a3e 9151 bdbd
00000340: 91bb 02bd d6ac 693c 0cf1 a73d 9019 573c
00000350: ae6a b53d bfb0 36bc cbe8 803c ac20 9fbd
00000360: 12be 0d3d fd83 8fbd 4e9e fabc ee7b 50bd
00000370: ba49 5ebc e3cd 91bc 0ce9 e8bc 5dd4 bcbc
00000380: 7bcc a1bd c742 f93c 4e75 26bd 9e6e c53c
00000390: 59e6 8f3d 8eea 663d 4a1c dcbc 7148 cebc
000003a0: 52a9 373d 9fcb 143d fea3 babd 8ed9 9bbb
000003b0: 6093 853b 424d 49bc 4f5e 51bd 43a8 95bd
000003c0: da8e 41be 70c0 30bd b541 e43c 3543 0fbe
000003d0: b353 803d 66b9 3e3a 34ed 7f3d 91b9 a6bb
000003e0: df51 233d 0c80 ccbc 80ff 703d 4f8c 96bd
000003f0: d640 833d cd0c 753d 9e31 233d 61fa c4bc

conv.7.weight f4 [64]
0.90909547 0.97430015 0.94516754 0.9502234 0.94150704 0.9662004 0.9649212 0.9811823
0.9704562 0.9886018 1.0174284 0.99992865 1.0395519 0.97357464 0.97239715 0.9264744
0.9493914 0.93923575 0.9796097 0.98794734 0.92660236 0.94025517 0.96688086 1.1140623
0.95436907 0.9891989 1.0235195 0.9282165 0.97309476 0.9551331 0.93631953 0.9718158
0.95291346 0.9529197 0.98191077 0.95224714 0.9961607 0.9592669 0.95786244 0.9433179
1.0064399 1.0042784 0.95104164 1.0757753 0.9900228 0.97298086 0.9762165 0.9963533
0.9588224 0.99349093 0.9580787 1.0172424 0.95444834 0.96704084 1.0086067 0.9938171
1.0205483 0.94567704 0.92100894 0.95424974 0.99910057 0.94545114 0.9458251 0.9995623
00000000: 7bba 683f bc6b 793f 80f6 713f d741 733f
00000010: 9b06 713f e958 773f 1305 773f c32e 7b3f
00000020: d16f 783f 0215 7d3f 183b 823f 53fb 7f3f
00000030: 0910 853f 303c 793f 05ef 783f 6d2d 6d3f
00000040: 510b 733f c171 703f b4c7 7a3f 1eea 7c3f
00000050: d035 6d3f 90b4 703f 8185 773f 9899 8e3f
00000060: 8851 743f 243c 7d3f b002 833f 999f 6d3f
00000070: bd1c 793f 9a83 743f a3b2 6f3f ecc8 783f
00000080: 23f2 733f 8cf2 733f 815e 7b3f 78c6 733f
00000090: 6304 7f3f 8492 753f 7936 753f 487d 713f
000000a0: 06d3 803f 328c 803f 7777 733f 01b3 893f
000000b0: 2272 7d3f 4615 793f 53e9 793f 0311 7f3f
000000c0: 6375 753f 6c55 7e3f a544 753f 0035 823f
000000d0: ba56 743f fd8f 773f 061a 813f cc6a 7e3f
000000e0: 54a1 823f e417 723f 3ec7 6b3f b649 743f
000000f0: 0ec5 7f3f 1609 723f 9821 723f 51e3 7f3f

conv.7.bias f4 [64]
-0.32208833 -0.20635927 -0.28680375 -0.34404597 -0.35226932 -0.19185795 -0.31340173 -0.18735386
-0.21703582 -0.3283871 -0.32179797 -0.32817724 -0.28325534 -0.29660386 -0.37467676 -0.38684982
-0.36660102 -0.23092672 -0.29776582 -0.25986555 -0.38543376 -0.3294514 -0.31565008 -0.31581992
-0.28060305 -0.21073633 -0.27950016 -0.2869453 -0.32371002 -0.11680081 -0.16859159 -0.38984433
-0.2860819 -0.31284216 -0.30884567 -0.43526942 -0.21198988 -0.19209781 -0.32077968 -0.36724445
-0.3521138 -0.31385347 -0.30454502 -0.13230959 -0.28242508 -0.1813452 -0.26199517 -0.06586186
-0.28126264 -0.33688387 -0.30153862 -0.26690355 -0.29933193 -0.33248568 -0.22653298 -0.23738834
-0.19191056 -0.36431742 -0.4011007 -0.33992606 -0.27394074 -0.29173124 -0.26409453 -0.33255485
00000000: c3e8 a4be d84f 53be f1d7 92be cb26 b0be
00000010: a55c b4be 6976 44be 3176 a0be b1d9 3fbe
00000020: a33e 5ebe 5b22 a8be b4c2 a4be d906 a8be
00000030: d806 91be 76dc 97be a2d5 bfbe 2e11 c6be
00000040: 21b3 bbbe 0e78 6cbe c374 98be 190d 85be
00000050: 9357 c5be dbad a8be e39c a1be 26b3 a1be
00000060: 34ab 8fbe 44cb 57be a51a 8fbe 7fea 92be
00000070: 52bd a5be 4335 efbd 46a3 2cbe ad99 c7be
00000080: 5479 92be d92c a0be 0521 9ebe a2db debe
00000090: e013 59be 4ab5 44be 3c3d a4be 7707 bcbe
000000a0: 4348 b4be 67b1 a0be 53ed 9bbe 2a7c 07be
000000b0: 059a 90be 8eb2 39be 3b24 86be 95e2 86bd
000000c0: a801 90be 0b7c acbe 4563 9abe 95a7 88be
000000d0: 0942 99be 903b aabe 43f8 67be ee15 73be
000000e0: 3484 44be d087 babe 125d cdbe ca0a aebe
000000f0: f641 8cbe cc5d 95be 6637 87be a144 aabe

conv.7.running_mean f4 [64]
-0.44098645 -0.74110436 -0.15305899 -0.87781656 0.20361614 -0.99644476 0.14483035 -0.78301996
-0.53379697 -0.9708565 -0.29912984 -0.5036363 -0.9839326 -0.49786404 -0.12784393 -0.8235143
0.058403548 -0.15741579 -0.12835822 -0.89360917 -0.63354445 0.9673099 -1.378318 -0.42243144
0.45694387 -0.2896876 0.1084864 -0.75467867 -0.18998888 -0.26784718 0.004166354 -0.49188155
0.08042603 -0.44267577 -0.1710945 -0.11070935 0.30350593 -0.39340463 0.07557133 -1.3922675
-0.9594968 -1.1010641 -0.2176814 0.19259912 -0.2591924 -0.30504993 -1.2059526 -0.65558517
-0.92277586 -1.0011078 -1.0592874 -0.553159 -0.9258238 0.5273802 -0.2102021 -0.47908583
0.13229546 -0.18823506 0.09169088 -0.47451562 -0.95774376 0.3742143 -0.107049994 -0.036746133
00000000: fac8 e1be 04b9 3dbf 7fbb 1cbe 96b8 60bf
00000010: c080 503e 0117 7fbf 684e 143e ff73 48bf
00000020: eba6 08bf 0d8a 78bf 8c27 99be 4fee 00bf
00000030: 02e3 7bbf 09e8 febe 85e9 02be d5d1 52bf
00000040: 8f38 6f3d 9b31 21be 5670 03be 92c3 64bf
00000050: f82f 22bf 9fa1 773f b96c b0bf ef48 d8be
00000060: 8cf4 e93e ef51 94be 1e2e de3d 9f32 41bf
00000070: 728c 42be 4423 89be e985 883b e6d7 fbbe
00000080: 67b6 a43d 66a6 e2be 6633 2fbe 95bb e2bd
00000090: 2165 9b3e 556c c9be 24c5 9a3d d235 b2bf
000000a0: 95a1 75bf abef 8cbf dfe7 5ebe b438 453e
000000b0: deb4 84be 812f 9cbe a85c 9abf 6ed4 27bf
000000c0: 0a3b 6cbf 4d24 80bf bb96 87bf d49b 0dbf
000000d0: ca02 6dbf 6402 073f 383f 57be bd4a f5be
000000e0: 7678 073e b1c0 40be 6ec8 bb3d b6f3 f2be
000000f0: b22e 75bf 0499 bf3e 073d dbbd 1d83 16bd

conv.7.running_var f4 [64]
0.97793466 1.0223 0.9537032 0.948702 0.8819595 1.1149724 0.8559735 1.2761191
0.97869647 0.96411 1.0399337 0.75541043 1.2253948 1.0978203 1.0086932 0.9134359
0.71339774 0.8470963 1.0295206 1.185063 0.9121577 0.85723567 1.2128599 1.2735808
0.7402254 1.078 0.8334735 1.111497 0.82003987 0.9402531 0.67105174 0.84616107
0.9654026 1.0758442 1.2151688 0.8753766 0.687538 0.9535035 0.8784563 0.99066067
1.0253781 1.0872079 0.6577149 0.9541479 1.1093862 0.8012663 1.0832218 0.9573616
0.90695757 1.0389954 0.9537926 1.3306468 1.0463002 1.2243848 0.85805887 0.94044966
0.7177394 1.0356495 0.94942164 0.99149495 1.0461589 0.75689304 0.9078881 1.1032463
00000000: ed59 7a3f bada 823f e525 743f 22de 723f
00000010: 19c8 613f 6ab7 8e3f 1421 5b3f df57 a33f
00000020: da8b 7a3f eacf 763f 8c1c 853f 9462 413f
00000030: bdd9 9c3f 6085 8c3f dc1c 813f efd6 693f
00000040: 3ca1 363f 4edb 583f 55c7 833f 25b0 973f
00000050: 2b83 693f cc73 5b3f fe3e 9b3f b204 a33f
00000060: 697f 3d3f e7fb 893f 855e 553f 8945 8e3f
00000070: 22ee 513f 6db4 703f 0cca 2b3f 039e 583f
00000080: a024 773f 43b5 893f a78a 9b3f ae18 603f
00000090: 7e02 303f ce18 743f 83e2 603f f09b 7d3f
000000a0: 973f 833f a129 8b3f 0160 283f 0943 743f
000000b0: 5e00 8e3f ca1f 4d3f 03a7 8a3f a615 753f
000000c0: 5f2e 683f cdfd 843f c02b 743f a252 aa3f
000000d0: 2aed 853f a4b8 9c3f bfa9 5b3f 4fc1 703f
000000e0: c5bd 373f 2a90 843f 4c0d 733f 9dd2 7d3f
000000f0: 89e8 853f bec3 413f 5b6b 683f 2d37 8d3f

conv.9.weight f4 [64, 64, 3, 3]
0.038835317 -0.052307848 0.012431253 -0.068863764 0.06230433 -0.017507814 -0.03516655 -0.035536934
-0.051574755 -0.0050432957 -0.043928053 0.023157327 0.022141611 -0.10712753 -0.035700195 0.10452967
-0.021469086 0.03956903 0.04216309 0.017753543 0.091301136 0.015758917 -0.042108297 0.029398182
0.031185277 -0.08800786 0.033922687 0.10523297 0.0474919 0.032959793 0.058853813 0.0074909152
0.042071864 0.13514377 0.04520715 0.042728473 -0.09594343 0.007951684 0.006907579 -0.13842079
-0.06322726 -0.03638668 0.023597708 -0.0012784459 -0.01111716 0.036135674 0.028083678 -0.018163059
-0.024119984 -0.02403526 0.03507383 0.0128156245 0.08972495 0.084923565 0.111090034 0.069884695
0.084325984 0.10460678 0.02693327 0.04405022 0.07459506 -0.069470905 -0.025383847 0.07204408
-0.026634773 -0.030141678 0.0075615332 0.02428877 0.016562501 0.06104182 -0.025565458 0.007913154
0.10925748 0.067302756 0.058187854 0.075033374 0.030221175 -0.0053317067 0.014617012 0.02264849
0.019712543 -0.057186656 -0.09615823 -0.10655024 -0.10921409 -0.017308254 -0.10425009 -0.123462126
-0.039957047 -0.08458689 -0.14747784 -0.08974327 -0.06005487 -0.073112614 -0.092957616 -0.113579504
-0.065151826 -0.023930017 -0.0655608 0.07313573 0.0795157 0.095096484 0.057963032 0.16216777
0.099003464 0.06716023 0.106381625 0.057226736 -0.040126957 0.027788432 0.045804452 -0.10521494
0.032860108 0.062098034 0.03963341 0.037277475 0.07734191 0.09581282 0.056315612 0.036064304
0.074199535 0.011616347 0.06417176 0.12104645 0.057375044 -0.014623679 0.073999025 -0.015031192
-0.029382467 0.038155235 -0.017712196 0.009097689 0.085308805 0.034866873 0.0313774 -0.085378125
-0.1335331 -0.011712031 -0.04351994 -0.045566764 0.031963598 0.0010360435 -0.063493446 -0.025803603
0.058406085 0.08660137 0.05931166 0.09053594 0.02319756 0.044077437 0.11299589 -0.000113941715
-0.044238374 -0.0085554505 -0.059708595 0.0061500724 -0.017562749 -0.0364035 -0.016871417 0.046789326
-0.0069054705 -0.05455048 -0.083277136 -0.040660717 -0.00038540375 -0.072600976 -0.07318962 -0.044537958
-0.22202203 -0.085824765 -0.11034839 -0.21281324 -0.12677841 -0.03519222 -0.15976423 -0.14476033
-0.114819735 -0.04286678 -0.055655837 -0.0062659476 0.044612423 0.030485485 0.021770526 0.063269205
-0.00313787 0.0409694 0.057860065 0.041641995 0.053828247 -0.06088718 0.06741421 0.03591406
-0.051597435 0.073228896 0.129496 -0.06275396 0.003878485 0.006885678 -0.007492413 0.0033268393
0.031430785 -0.058712848 0.05544685 -0.05498234 -0.008719275 -0.05301037 -0.06525438 -0.13580963
-0.08372311 -0.093271814 -0.13279995 -0.05234004 -0.09149224 -0.11036573 -0.105120905 -0.06708646
-0.16563116 -0.052611347 -0.029921206 0.02303569 0.013153848 0.028289095 0.0531902 0.10743736
-0.009856457 -0.0031448745 0.029486569 0.03697196 -0.07709747 -0.011086116 -0.0039507067 -0.0011705321
0.08258933 0.040602766 0.0044684242 -0.010529687 -0.020227334 0.039869312 0.083514735 0.045058794
0.045994937 0.11375672 0.10213412 0.015745971 -0.028026536 0.008806747 0.02448351 -0.0042707976
-0.02843732 -0.17794585 -0.17307273 -0.037069056 0.0291939 -0.012026632 -0.021955878 -0.0044659227
00000000: c811 1f3d c140 56bd 74ac 4b3c 7208 8dbd
00000010: d332 7f3d 8c6c 8fbc cd0a 10bd 2d8f 11bd
00000020: 0d40 53bd 3b42 a5bb e7ed 33bd 6fb4 bd3c
00000030: 5362 b53c ae65 dbbd 5e3a 12bd a713 d63d
00000040: f0df afbc 2313 223d 34b3 2c3d e16f 913c
00000050: 17fc ba3d d818 813c c079 2cbd 75d4 f03c
00000060: 4478 ff3c 773d b4bd 84f2 0a3d 6284 d73d
00000070: de86 423d d900 073d b210 713d 5a76 f53b
00000080: 8c53 2c3d 2163 0a3e 222b 393d 0d04 2f3d
00000090: fd7d c4bd c847 023c f958 e23b 2ebe 0dbe
000000a0: 4b7d 81bd 330a 15bd fb4f c13c 8791 a7ba
000000b0: c024 36bc 0003 143d be0f e63c b2ca 94bc
000000c0: 4697 c5bc 98e5 c4bc 94a9 0f3d a0f8 513c
000000d0: b7c1 b73d 68ec ad3d 2c83 e33d b51f 8f3d
000000e0: 1ab3 ac3d 143c d63d 29a3 dc3c 016e 343d
000000f0: 4bc5 983d c346 8ebd c9f1 cfbc d98b 933d
00000100: 2b31 dabc aeeb f6bc bdc6 f73b 3ef9 c63c
00000110: 15ae 873c fd06 7a3d a76e d1bc 2ca6 013c
00000120: 63c2 df3d 07d6 893d 6356 6e3d 19ab 993d
00000130: 6692 f73c 99b5 aebb 317c 6f3c 5389 b93c
00000140: 337c a13c 8e3c 6abd 9bee c4bd 0337 dabd
00000150: a3ab dfbd 0aca 8dbc 1281 d5bd b6d9 fcbd
00000160: 00aa 23bd e43b adbd 6e04 17be 52cb b7bd
00000170: 18fc 75bd 11bc 95bd 9060 bebd 5f9c e8bd
00000180: 526e 85bd e208 c4bc be44 86bd 30c8 953d
00000190: 21d9 a23d f2c1 c23d a56a 6d3d 4f0f 263e
000001a0: 54c2 ca3d 4d8b 893d 9cde d93d 9566 6a3d
000001b0: 2a5c 24bd 91a4 e33c 739d 3b3d ee7a d7bd
000001c0: 5298 063d 825a 7e3d a456 223d 44b0 183d
000001d0: 6f65 9e3d 8339 c43d 33ab 663d 2ab8 133d
000001e0: edf5 973d 7e52 3e3c 7c6c 833d 34e7 f73d
000001f0: 1802 6b3d 2898 6fbc cd8c 973d 6445 76bc
00000200: 80b3 f0bc aa48 1c3d 2b19 91bc 790e 153c
00000210: 62b6 ae3d 91d0 0e3d 9785 003d bada aebd
00000220: e7bc 08be d2e3 3fbc f741 32bd 37a4 3abd
00000230: 43ec 023d dacb 873a da08 82bd 1462 d3bc
00000240: 383b 6f3d 0f5c b13d c8f0 723d e86a b93d
00000250: cf08 be3c 8b8a 343d 646a e73d fef3 eeb8
00000260: 4c33 35bd 292c 0cbc 0091 74bd 8c86 c93b
00000270: c1df 8fbc d61b 15bd ed35 8abc 2aa6 3f3d
00000280: 4947 e2bb 5370 5fbd 348d aabd da8b 26bd
00000290: 0410 cab9 d2af 94bd 71e4 95bd 6f6d 36bd
000002a0: be59 63be e5c4 afbd 56fe e1bd b7eb 59be
000002b0: 33d2 01be b825 10bd 3c99 23be 0d3c 14be
000002c0: 9c26 ebbd 1495 2fbd 60f7 63bd 9452 cdbb
000002d0: 84bb 363d b2bc f93c 1a58 b23c 4993 813d
000002e0: b9a4 4dbb 88cf 273d adfe 6c3d cc90 2a3d
000002f0: 027b 5c3d d664 79bd 7610 8a3d 9f1a 133d
00000300: d557 53bd 08f9 953d 999a 043e 2685 80bd
00000310: 2e2e 7e3b 41a1 e13b ea82 f5bb 1a07 5a3b
00000320: 91bd 003d e27c 70bd 3c1c 633d 2a35 61bd
00000330: 4adb 0ebc 6721 59bd 17a4 85bd ae11 0bbe
00000340: 0677 abbd 4b05 bfbd b6fc 07be 8362 56bd
00000350: 4960 bbbd 6e07 e2bd a149 d7bd a064 89bd
00000360: 379b 29be ff7e 57bd 511d f5bc 58b5 bc3c
00000370: 3d83 573c 88be e73c f8dd 593d 1e08 dc3d
00000380: fa7c 21bc 3d1a 4ebb d18d f13c e96f 173d
00000390: 47e5 9dbd 8aa2 35bc ee74 81bb 8a6c 99ba
000003a0: 9824 a93d 164f 263d dc6b 923b b584 2cbc
000003b0: cbb3 a5bc 014e 233d c609 ab3d 928f 383d
000003c0: 3065 3c3d 49f9 e83d b22b d13d b2fd 803c
000003d0: e897 e5bc 2d4a 103c a491 c83c 0cf2 8bbb
000003e0: 62f5 e8bc 7037 36be fa39 31be b9d5 17bd
000003f0: 0c28 ef3c 5a0b 45bc d0dc b3bc e056 92bb

conv.10.weight f4 [64]
1.4416213 1.4282182 1.4566001 1.4039036 1.4697012 1.3270802 1.4084393 1.504715
1.4779892 1.4977188 1.3653698 1.6624513 1.2882435 1.3369311 1.4654036 1.5150007
1.4107068 1.41747 1.5056274 1.32526 1.583675 1.3126237 1.3886875 1.3133808
1.5596249 1.421075 1.317799 1.3008068 1.4196736 1.4572343 1.3385437 1.4810315
1.3228143 1.5154343 1.4405661 1.4087358 1.3480136 1.3196166 1.4418854 1.6560739
1.4701985 1.6693774 1.3774985 1.3798974 1.2861006 1.3745204 1.2922224 1.4581405
1.3613001 1.3050234 1.4528683 1.3791674 1.307937 1.4084728 1.3595694 1.4680694
1.6324421 1.3448219 1.4541553 1.6548892 1.4288485 1.4952289 1.3456534 1.5711778
00000000: 0c87 b83f dbcf b63f df71 ba3f 1db3 b33f
00000010: 2b1f bc3f c4dd a93f bd47 b43f 809a c03f
00000020: c02e bd3f 40b5 bf3f 70c4 ae3f 34cb d43f
00000030: 2ae5 a43f 8f20 ab3f 5892 bb3f 8beb c13f
00000040: 0a92 b43f a86f b53f 66b8 c03f 1fa2 a93f
00000050: ddb5 ca3f 0e04 a83f 83c0 b13f dd1c a83f
00000060: caa1 c73f c9e5 b53f a3ad a83f d680 a63f
00000070: ddb7 b53f a786 ba3f 6655 ab3f 7192 bd3f
00000080: fb51 a93f c0f9 c13f 7864 b83f 7451 b43f
00000090: b68b ac3f 32e9 a83f b38f b83f 3bfa d33f
000000a0: 772f bc3f 29ae d53f df51 b03f 7aa0 b03f
000000b0: f29e a43f 49f0 af3f 8b67 a53f 59a4 ba3f
000000c0: 153f ae3f 020b a73f 97f7 b93f 8f88 b03f
000000d0: 7b6a a73f d648 b43f 5f06 ae3f b3e9 bb3f
000000e0: ddf3 d03f 2023 ac3f c321 ba3f 69d3 d33f
000000f0: 82e4 b63f a963 bf3f 5f3e ac3f 5b1c c93f

conv.10.bias f4 [64]
-0.002725119 0.027967246 0.032160092 -0.021389032 0.0144484425 -0.02419167 0.04524346 0.027999215
0.06324743 0.06828132 -0.07734193 0.10341783 -0.0061526587 -0.089999326 -0.005491922 -0.022170931
-0.0039052418 -0.0035507893 0.05406843 -0.060613807 0.06071445 -0.016832165 -0.09159139 -0.03651335
0.01986826 0.034421984 -0.06192555 -0.04770575 -0.053680103 0.040564295 -0.032793667 0.027506804
-0.0997519 0.05659819 0.005673617 -0.02094717 -0.04963798 -0.030591402 0.029104726 -0.00027070762
-0.041157447 0.054918587 -0.054708026 -0.049043197 -0.09422836 -0.0598215 -0.07498619 0.026646182
0.0050142277 -0.02986212 0.021561215 -0.013663306 -0.09564787 -0.0014582095 -0.01272946 0.005056301
-0.039588973 -0.08604447 -0.06942848 0.02945466 0.019442428 0.045526605 -0.050594464 -0.013101054
00000000: e997 32bb 911b e53c 4dba 033d 0d38 afbc
00000010: 29b9 6c3c 9c2d c6bc 3551 393d 9c5e e53c
00000020: de87 813d 14d7 8b3d 7265 9ebd bacc d33d
00000030: 3e9c c9bb 9151 b8bd 95f5 b3bb d09f b5bc
00000040: 16ef 7fbb 5cb4 68bb dc76 5d3d 2f46 78bd
00000050: b7af 783d 9ce3 89bc 4494 bbbd 068f 15bd
00000060: c3c2 a23c 11fe 0c3d a5a5 7dbd 1b67 43bd
00000070: abdf 5bbd bf26 263d a752 06bd f355 e13c
00000080: b94a ccbd 81d3 673d c0e9 b93b 6699 abbc
00000090: 3251 4bbd d29a fabc 096d ee3c c3ed 8db9
000000a0: b694 28bd 50f2 603d 8615 60bd 85e1 48bd
000000b0: ccfa c0bd 6407 75bd 5c92 99bd 1849 da3c
000000c0: 644e a43b 68a1 f4bc 25a1 b03c 0fdc 5fbc
000000d0: 08e3 c3bd 6421 bfba 3a8f 50bc 54af a53b
000000e0: 0c28 22bd 1538 b0bd 8530 8ebd e64a f13c
000000f0: ba45 9f3c 1b7a 3a3d 243c 4fbd cea5 56bc

conv.10.running_mean f4 [64]
-0.7861193 -0.4284089 -0.4190703 1.0006825 -0.45688415 -0.777306 -0.48436752 -0.77277607
-0.37027815 0.27264315 0.47243327 0.060051996 -1.0105789 1.2398939 -0.7860968 0.731151
0.7413892 -0.44101304 -0.24305584 1.1782285 1.3944072 -1.0320028 0.0815883 -1.3901824
0.06283754 -0.9039937 0.92636836 -0.81017876 0.85088474 0.010595774 0.96242255 0.72829133
1.2968264 -0.7075146 1.8807229 0.30704713 1.0510069 -0.33821568 -0.091135874 0.98294526
0.09416937 0.42588738 0.83981484 0.9153038 0.3910173 0.63502824 0.021621753 -0.58801013
1.0309908 -1.0476149 0.27061048 0.20360397 1.2279444 -0.76693964 -0.64292014 -0.6520325
0.7445728 0.6126666 1.0915949 1.823925 -0.13845348 -0.4688607 0.71641135 -0.13309333
00000000: 1d3f 49bf 6958 dbbe 6290 d6be 5d16 803f
00000010: b8ec e9be 87fd 46bf 05ff f7be a7d4 45bf
00000020: 1995 bdbe e297 8b3e c6e2 f13e 15f9 753d
00000030: a65a 81bf d8b4 9e3f a43d 49bf b62c 3b3f
00000040: afcb 3d3f 76cc e1be a1e3 78be 31d0 963f
00000050: ef7b b23f ab18 84bf c417 a73d 7ff1 b1bf
00000060: f8b0 803d 226c 67bf 7a26 6d3f e067 4fbf
00000070: 95d3 593f e699 2d3c 5361 763f 4d71 3a3f
00000080: 68fe a53f ad1f 35bf 87bb f03f 4835 9d3e
00000090: 6587 863f 9b2a adbe 72a5 babd 4da2 7b3f
000000a0: dfdb c03d e90d da3e 1bfe 563f 5a51 6a3f
000000b0: 6b33 c83e 3691 223f 1a20 b13c d587 16bf
000000c0: 82f7 833f 3f18 86bf 758d 8a3e 8f7d 503e
000000d0: 482d 9d3f 2856 44bf 6a96 24bf 9aeb 26bf
000000e0: 539c 3e3f b8d7 1c3f 62b9 8b3f 6076 e93f
000000f0: c0c6 0dbe 820e f0be bc66 373f 9e49 08be

conv.10.running_var f4 [64]
0.40386108 0.5822209 0.5529955 0.4740558 0.4802063 0.4195758 0.56595534 0.46378356
0.39908975 0.40305275 0.5122757 0.42999092 0.45256728 0.49325743 0.42021272 0.46739802
0.48870817 0.45475078 0.47518793 0.5328655 0.48404372 0.5147641 0.43227956 0.4654588
0.43588707 0.49882844 0.50720537 0.39460155 0.5342755 0.35097408 0.5456762 0.45425132
0.49218953 0.563078 0.4926563 0.47477302 0.5040141 0.45017812 0.53658575 0.4950371
0.3764101 0.45304462 0.5269636 0.45879105 0.5083468 0.52734447 0.46408027 0.48948932
0.47522625 0.47731963 0.4390426 0.41574672 0.4925775 0.42498454 0.3921179 0.5095607
0.40672636 0.52620506 0.43746093 0.3962 0.44778934 0.48114994 0.5046595 0.4932677
00000000: e1c6 ce3e 6e0c 153f 1d91 0d3f 71b7 f23e
00000010: 9add f53e a4d2 d63e 73e2 103f 0a75 ed3e
00000020: 7e55 cc3e ee5c ce3e 8024 033f c527 dc3e
00000030: e6b6 e73e 3d8c fc3e 1f26 d73e cb4e ef3e
00000040: f537 fa3e 18d5 e83e d54b f33e e069 083f
00000050: 94d4 f73e 94c7 033f bf53 dd3e 9e50 ee3e
00000060: 972c df3e 7166 ff3e 36d8 013f 3709 ca3e
00000070: 47c6 083f e0b2 b33e 6fb1 0b3f a193 e83e
00000080: 4400 fc3e e125 103f 723d fc3e 7315 f33e
00000090: 1107 013f bf7d e63e af5d 093f 8175 fd3e
000000a0: d3b8 c03e 77f5 e73e 16e7 063f a9e6 ea3e
000000b0: 0423 023f 0c00 073f ee9b ed3e 589e fa3e
000000c0: db50 f33e 3d63 f43e 31ca e03e c1dc d43e
000000d0: 1e33 fc3e 9397 d93e adc3 c83e 9272 023f
000000e0: 703e d03e 60b5 063f e1fa df3e bada ca3e
000000f0: a544 e53e 4959 f63e 5d31 013f 958d fc3e
