models/rym_grid_c1_s64_e2_t4_r4/cnn_c1_g1_a0_l0p32_lr1e-04.pt (torch, 607701 bytes, 23 tensors)

conv.0.weight f4 [64, 64, 3, 3]
0	0xbe21a0cb	-0.15783994
1	0x3d431f4d	0.047637273
2	0xbe92a9c7	-0.28645155
3	0xbbca07f4	-0.006165499
4	0xbe877ea1	-0.26463798
5	0xbdd5ac4e	-0.10433255
6	0xbedc757e	-0.4305839
7	0xbebcb9fd	-0.36860648
8	0xbc15fe21	-0.009154827
9	0xbd131d24	-0.035916463
10	0x3e1a3a52	0.1506131
11	0xbe0dc1d2	-0.13843468
12	0x3c863239	0.01638137
13	0xbe9b6746	-0.3035223
14	0xbe338a8b	-0.17533319
15	0xbb7460ef	-0.0037289222
16	0x3d0206f4	0.031744912
17	0x3e83ae3d	0.2571887
18	0xbe092b4c	-0.13395423
19	0xbd9d6426	-0.076851174
20	0xbdc315cd	-0.095256425
21	0xbe192088	-0.14953816
22	0xbdb08f47	-0.08621078
23	0xbe5fad09	-0.21843351
24	0xbe31cd42	-0.17363456
25	0xbded1c46	-0.11577658
26	0xbbec1061	-0.007204101
27	0x3db031fd	0.086032845
28	0x3e88c9f8	0.2671659
29	0xbd9c9dac	-0.07647261
30	0x3c073248	0.008251734
31	0x3a65b12c	0.00087620574
32	0xbe309141	-0.1724291
33	0xbcbb4355	-0.022859255
34	0x3c1640bc	0.009170707
35	0xbc06cf02	-0.008228065
36	0xbe5c98f3	-0.2154272
37	0xbe0f2f3d	-0.13982864
38	0x3e4774c2	0.19478133
39	0xbd67c5b8	-0.056585044
40	0x3e4d553a	0.20052043
41	0xbd9e8769	-0.07740671
42	0x3d7c23a2	0.06155742
43	0x3e6fe072	0.23425463
44	0x3d92f160	0.07174945
45	0xbd141f98	-0.036162943
46	0x3e1db3a2	0.15400556
47	0x3d9a1b35	0.075247206
48	0xbdd366bb	-0.10322329
49	0x3d89f10b	0.067354284
50	0xbdb54977	-0.08851903
51	0x3e11a214	0.14221984
52	0xbd3d8206	-0.04626658
53	0xbd1fe5ac	-0.03903739
54	0xbe4fe594	-0.20302421
55	0x3e5aad25	0.21355112
56	0xbe597dd0	-0.212394
57	0x3d022fba	0.031783797
58	0xbe9d14d2	-0.30679947
59	0xbea11c68	-0.31466985
60	0x3e99e68e	0.30058712
61	0x3de16288	0.110051215
62	0x3d70bbe0	0.05877292
63	0xbddfa394	-0.10919872
64	0xbce5bccb	-0.028044125
65	0xbe038b27	-0.12846051
66	0x3e1e93d6	0.15486082
67	0xbd7c722c	-0.06163232
68	0xbe38a68d	-0.18032284
69	0x3e3c912f	0.18414758
70	0x3ded79ac	0.11595473
71	0x3dc74450	0.097298265
72	0xbd894a95	-0.067036785
73	0xbde51807	-0.111862235
74	0xbd66bb63	-0.05633105
75	0x3dc89c99	0.09795494
76	0xbeb8c58a	-0.3608821
77	0xbe257134	-0.16156465
78	0xbddb6794	-0.10713115
79	0x3d49f3e8	0.049304873
80	0x3e4b19f2	0.19834116
81	0xbe86f7eb	-0.2636102
82	0xbe28f16b	-0.16498344
83	0xbe848550	-0.2588296
84	0xbeafd826	-0.34344596
85	0xbe7b4d16	-0.24541125
86	0xbea07594	-0.31339705
87	0x3e565b4e	0.20933267
88	0xbb901e96	-0.0043981774
89	0x3de2ac27	0.11067992
90	0xbe6c6841	-0.23086645
91	0xbd91b837	-0.07115214
92	0xbd70daac	-0.05880229
93	0xbdd5caa3	-0.104390405
94	0xbe6f7ae9	-0.2338673
95	0xbe4f973f	-0.2027254
96	0x3e69aea7	0.22820531
97	0x3e80cd36	0.25156564
98	0x3eb8b9b8	0.36079192
99	0xbdabdf3a	-0.083921865
100	0xbe057ea5	-0.13036592
101	0xbe89b760	-0.26897717
102	0xbd548b9d	-0.051890958
103	0xbd170c72	-0.036877103
104	0x3d8ad619	0.06779117
105	0x3d1a3169	0.037644777
106	0x3e01d2f2	0.12678126
107	0x3e3173f5	0.1732939
108	0xbe108fa8	-0.141173
109	0x3d286882	0.04111529
110	0xbd3f9182	-0.046769626
111	0xbda0679d	-0.07832263
112	0xbda3b819	-0.07994098
113	0xbcaf1fc5	-0.021377454
114	0xbdd47827	-0.1037448
115	0xbd7917d3	-0.060813736
116	0xbdb39f08	-0.08770567
117	0xbcedb956	-0.02901904
118	0xbd7ddaa1	-0.06197608
119	0xbc900861	-0.01758212
120	0x3c04cc43	0.00810534
121	0x3bafc8df	0.005364522
122	0xbc81b0e2	-0.015831415
123	0x3c9de1b9	0.019272672
124	0xbc8f37a3	-0.017482584
125	0x3d4d7888	0.050163776
126	0xbda0c687	-0.07850366
127	0x3ddd596c	0.108080715
128	0xba547a0d	-0.0008105345
129	0x3cafa15e	0.02143925
130	0xbd801ba5	-0.06255273
131	0x3d2b7744	0.041861787
132	0x3d264e31	0.040601913
133	0x3c066fb7	0.008205346
134	0xbde4a671	-0.11164559
135	0x3c056c75	0.008143534
136	0xbd13b7df	-0.036064025
137	0xbd03c976	-0.03217455
138	0xbd836de6	-0.06417446
139	0xbc35fcc8	-0.011107631
140	0xbd4e66e0	-0.050391078
141	0xbcbd6ac5	-0.0231222
142	0xbd64ddac	-0.055875465
143	0x3b306ace	0.002691913
144	0xbd933d46	-0.07189421
145	0xbda4fd95	-0.080561794
146	0x3c183387	0.009289629
147	0xbd2370f2	-0.039902635
148	0x3d2ebc11	0.042659823
149	0xbe048fc7	-0.12945472
150	0x3d06384c	0.032768533
151	0x3cd4695b	0.025929144
152	0xbd90a9f4	-0.07063666
153	0xbbc9e6a1	-0.0061615263
154	0x3ca2bd48	0.019865647
155	0x3cd96fa2	0.026542488
156	0x3d63462e	0.05548685
157	0x3d208649	0.039190564
158	0x3c338477	0.010956875
159	0x3cc8a658	0.024493381
160	0xbd13e600	-0.036108017
161	0x3d2287de	0.039680354
162	0x3da12cf7	0.078699045
163	0xbe391e73	-0.18078022
164	0xbdb3fa68	-0.087879956
165	0xbdcc2c9c	-0.09969446
166	0x3de8ee5e	0.1137359
167	0x3d9cc517	0.076547794
168	0x3e153238	0.14569938
169	0x3ddfee5f	0.109341376
170	0x3e132507	0.14369594
171	0xbd20707f	-0.039169785
172	0xbc23ab28	-0.009989537
173	0x3cb014b1	0.021494241
174	0x3d3936b7	0.045218196
175	0x3bcbf581	0.0062243347
176	0x3a7c2d2d	0.0009619769
177	0x3dac62e9	0.08417303
178	0x3b453e6c	0.003009702
179	0xbc064cae	-0.008196993
180	0xbdc1bddb	-0.0946004
181	0x3cf8fb91	0.030393394
182	0xbcfee8a9	-0.0311168
183	0x3db53725	0.088484086
184	0xbe07067a	-0.13186064
185	0x3d3db38b	0.046313804
186	0xbbf6fcd8	-0.0075374655
187	0x3c96e483	0.01841951
188	0xbd5a6fbd	-0.05332922
189	0x3c691785	0.014226799
190	0xbd56a86a	-0.052406706
191	0xbd355d04	-0.04427816
192	0xbcefc822	-0.029270235
193	0xbcfb3ba4	-0.030668087
194	0xbd43e3a6	-0.047824524
195	0x3db7b42a	0.089699104
196	0x3d374246	0.044740938
197	0x3da1487e	0.07875155
198	0x3c6c7592	0.014432328
199	0xbd93be8c	-0.07214078
200	0xbd811ac5	-0.06303934
201	0xbc93b6bf	-0.018031476
202	0xbd855432	-0.065101996
203	0xbda44977	-0.08021825
204	0xbc4887a7	-0.012239373
205	0x3d74d3b0	0.059772193
206	0x3c1989e9	0.009371259
207	0x3d4a4913	0.049386095
208	0x3bc135ec	0.0058963206
209	0xbb8915a3	-0.0041834875
210	0x3d12706f	0.035751756
211	0x3dcd2ab2	0.10017909
212	0x3c4ca7dc	0.012491193
213	0x3cfe19e9	0.031018214
214	0xbc280893	-0.0102559505
215	0x3d806c5f	0.0627067
216	0xbdc1e95e	-0.094683394
217	0x3d20f769	0.03929845
218	0xbdb9880a	-0.090591505
219	0xbdd6939e	-0.104773745
220	0xbdb5f0aa	-0.08883794
221	0x3c9c1b09	0.01905586
222	0xbdde0820	-0.108413935
223	0xbdfb0a43	-0.12257817
224	0xbd4f25cb	-0.05057315
225	0xbcfdc9b9	-0.030979978
226	0x3c7aa407	0.015297896
227	0x3c146530	0.009057328
228	0x3b3412a9	0.0027476943
229	0x3bb82876	0.0056200577
230	0xbd8078a8	-0.06273013
231	0x3d0199a5	0.031640667
232	0xbc1dc1f8	-0.009628765
233	0x3ad4fd6d	0.0016249843
234	0x3c53d8a9	0.012930074
235	0x3c064dca	0.008197257
236	0xbc3395f1	-0.010961042
237	0x3d94c71d	0.0726454
238	0x3d09f716	0.033682905
239	0x3c96c8fb	0.018406382
240	0x3d3aaeb3	0.045576762
241	0x3ce4f6f9	0.027949797
242	0x3c7b7ea0	0.015350014
243	0x3dd5e15b	0.10443374
244	0x3dafc8fd	0.08583257
245	0x3dbb3dae	0.09142624
246	0x3cd6d039	0.026222335
247	0x3d07e2af	0.033175167
248	0x3d0e741f	0.03477871
249	0x3daef199	0.08542175
250	0xbcc3d147	-0.023903502
251	0xbd2a3c63	-0.041561496
252	0x3c6123d7	0.013741455
253	0x3c8cbaee	0.017178979
254	0x3d94182f	0.07231175
255	0x3d85ae27	0.065273575

conv.1.weight f4 [64]
0	0x3f832eaf	1.0248622
1	0x3f90c01d	1.1308628
2	0x3f82a01c	1.0205112
3	0x3f59054f	0.84773725
4	0x3f977f00	1.1835632
5	0x3f87bc4f	1.0604342
6	0x3f5c72da	0.8611275
7	0x3f7a05ef	0.97665304
8	0x3f94c9a7	1.162404
9	0x3f654732	0.8956176
10	0x3f86d2d9	1.0533096
11	0x3f893c6c	1.0721564
12	0x3f68ccf1	0.90937716
13	0x3f805ba3	1.0027965
14	0x3f84949f	1.0357856
15	0x3f96788d	1.1755539
16	0x3f5f8cae	0.87324035
17	0x3f5a7a74	0.853431
18	0x3f7c3e1f	0.9853229
19	0x3f835dfa	1.0263054
20	0x3f7c2e9d	0.98508626
21	0x3f829a8d	1.0203415
22	0x3f8bc58a	1.0919659
23	0x3f6cf978	0.9256816
24	0x3f796adc	0.9742868
25	0x3f8929d4	1.071589
26	0x3f86d1fa	1.053283
27	0x3f76a894	0.9635098
28	0x3f74b33e	0.95586
29	0x3f6c516b	0.92311734
30	0x3f75c41f	0.9600238
31	0x3f7321e7	0.94973606
32	0x3f7d47b3	0.9893753
33	0x3f6ccfb2	0.9250442
34	0x3f788c4e	0.9708909
35	0x3f8e8e24	1.1137128
36	0x3f6f41db	0.9345986
37	0x3f8fe8ac	1.1242881
38	0x3f7206a1	0.94541365
39	0x3f894d3c	1.0726695
40	0x3f8ec4c1	1.1153795
41	0x3f6e5b1d	0.9310778
42	0x3f93cf9a	1.154773
43	0x3f7598c7	0.95936245
44	0x3f8ce39c	1.1006961
45	0x3f92f789	1.1481792
46	0x3f850582	1.0392306
47	0x3f8d07ba	1.1017983
48	0x3f6b4a13	0.91909903
49	0x3f5b55fe	0.8567809
50	0x3f6e5305	0.9309543
51	0x3f609957	0.8773398
52	0x3f83fa01	1.031067
53	0x3f74efb0	0.95678234
54	0x3f8051c6	1.0024955
55	0x3f8d67d3	1.104731
56	0x3f8a7d5f	1.081951
57	0x3f82f57b	1.0231165
58	0x3f795db4	0.97408605
59	0x3f79e840	0.9762001
60	0x3f8ad8cc	1.0847411
61	0x3f8e30a0	1.1108589
62	0x3f858401	1.0430909
63	0x3f685c06	0.90765417

conv.1.bias f4 [64]
0	0xbdcbeebe	-0.09957646
1	0xbd83afbe	-0.064300045
2	0xbd7d3391	-0.061816756
3	0xbc036390	-0.008019343
4	0x3d1f9409	0.038959537
5	0xbdcdc8ed	-0.10048089
6	0x3c6c0cfc	0.014407393
7	0xbe4db8e9	-0.20090069
8	0x3cce4eef	0.025184123
9	0xbc29d5b4	-0.010365892
10	0x3ce8e8eb	0.028431376
11	0xbcf413b3	-0.02979455
12	0xbd102d63	-0.035199534
13	0xbd2b0346	-0.04175117
14	0xbe1dc03e	-0.15405366
15	0xbd1a02eb	-0.03760044
16	0xbc34e8f1	-0.011041866
17	0xbd42b594	-0.047536448
18	0xbdcca621	-0.09992624
19	0xbc2d65ed	-0.010583383
20	0xbd70a99d	-0.058755506
21	0xbd469ee8	-0.04849139
22	0xbc95d4da	-0.018289972
23	0x3b9df1bc	0.0048200767
24	0xbc086475	-0.008324732
25	0xbdd4c1c9	-0.10388524
26	0xbe369133	-0.17828827
27	0xbdbc9513	-0.09208121
28	0xbd4d2d7f	-0.050092217
29	0x3ddfc914	0.109270245
30	0xbb072240	-0.002061978
31	0x3e00cb3a	0.12577525
32	0x3d564f56	0.052321754
33	0x3d7771ab	0.060411137
34	0xbdb45f3d	-0.08807228
35	0xbc55311d	-0.013012198
36	0x3e390868	0.18069613
37	0xbe125f4f	-0.1429417
38	0xbd13de82	-0.03610087
39	0x3d1cb158	0.038255066
40	0x3d085bcd	0.033290673
41	0x3e24229e	0.1602883
42	0xbe1cefdd	-0.15325876
43	0xbdcc92af	-0.09988915
44	0xbe4ebe80	-0.20189857
45	0x3ca6b1ac	0.020348392
46	0x3ce02e01	0.027365686
47	0x3d2f3b31	0.04278106
48	0x3d243d17	0.040097322
49	0x3b9d6c89	0.004804198
50	0x3cc00ed6	0.023444574
51	0x3d8a2d28	0.06746894
52	0xbddd5aa0	-0.10808301
53	0x39aecbb4	0.00033339637
54	0xbdf80bba	-0.12111612
55	0xbdc7c6fc	-0.0975475
56	0xbe50c66f	-0.20388196
57	0xbd45e934	-0.048318103
58	0x3e7bc200	0.24585724
59	0xbd7e2f19	-0.062056635
60	0x3d307272	0.043077894
61	0x3db47945	0.08812193
62	0x3d9120a3	0.07086303
63	0x3ccbeaa9	0.024892168

conv.1.running_mean f4 [64]
0	0xbf1edfe5	-0.62060386
1	0xbf6e0130	-0.9297056
2	0xbf152fe0	-0.58276176
3	0x3e4745bd	0.19460197
4	0xbf7d7073	-0.9899971
5	0xbea88a21	-0.32917884
6	0xbe45cf68	-0.193174
7	0x3da109a5	0.07863168
8	0xbf6478f2	-0.8924705
9	0xbf073aff	-0.52824396
10	0xbe6745ff	-0.22585295
11	0xbf366875	-0.7125314
12	0x3f035a1e	0.5130938
13	0xbe816cb2	-0.2527824
14	0x3ebe3502	0.37149817
15	0xbf94846a	-1.160291
16	0xbed1206b	-0.40845045
17	0x3f5843bf	0.8447837
18	0xbf169efe	-0.5883635
19	0xbf37c1c3	-0.7178003
20	0xbf29cd3b	-0.6632878
21	0xbea49d63	-0.32151327
22	0xbf750b22	-0.9572011
23	0xbb96b36a	-0.0045990245
24	0xbee78ae8	-0.45223165
25	0xbeb26284	-0.34840786
26	0xbd5383e2	-0.051639445
27	0x3eee64f3	0.46561393
28	0x3eff1152	0.49817902
29	0xbe657f8f	-0.22411941
30	0x3e4df751	0.20113875
31	0xbeefdd60	-0.46848583
32	0x3e69e96a	0.22842947
33	0x3d85d0df	0.065339796
34	0xbe23ec94	-0.16008216
35	0xbf716c50	-0.94305897
36	0x3f0d2310	0.55131626
37	0xbf2fef4e	-0.68724525
38	0xbf26cdce	-0.65157783
39	0xbf37ab86	-0.717461
40	0xbf6d6177	-0.92726845
41	0x3f0736b9	0.52817875
42	0xbf352eb7	-0.70774406
43	0xbe496a1c	-0.19669384
44	0xbed3daf5	-0.41377988
45	0xbfb58bd2	-1.4183295
46	0xbddfa877	-0.10920804
47	0xbea6b8cd	-0.32562867
48	0xbe484744	-0.19558436
49	0x3ebfe2f0	0.37477827
50	0xbd6ba65f	-0.05753171
51	0xbd7ccd8c	-0.061719462
52	0xbe91d35b	-0.28481564
53	0xbefdfbdb	-0.49606213
54	0x3eb463d1	0.35232404
55	0xbed39962	-0.4132796
56	0xbea4f663	-0.32219228
57	0xbeec58b0	-0.46161413
58	0x3cb07c34	0.0215436
59	0x3f2dbd46	0.67866933
60	0xbf1e7ee5	-0.61912376
61	0xbf79c189	-0.97560936
62	0xbed582ef	-0.41701457
63	0x3d4e0022	0.050293095

conv.1.running_var f4 [64]
0	0x3eb1e46a	0.3474458
1	0x3f04d09e	0.51880825
2	0x3ef1582f	0.4713759
3	0x3e6fad51	0.23405959
4	0x3f119dba	0.56881297
5	0x3eb5118e	0.35364956
6	0x3e829838	0.2550676
7	0x3e9985dc	0.2998494
8	0x3f1515d1	0.58236414
9	0x3eead111	0.4586263
10	0x3eb57ce3	0.35446844
11	0x3f134c2b	0.575381
12	0x3e9a470c	0.3013233
13	0x3e886d24	0.26645768
14	0x3e860f07	0.2618334
15	0x3ec9cbf9	0.3941343
16	0x3e965875	0.29364362
17	0x3ed40676	0.4141118
18	0x3e8b2069	0.27173164
19	0x3e93a0a8	0.28833508
20	0x3eaff808	0.3436892
21	0x3ea2fda3	0.31834134
22	0x3efe25ae	0.49638122
23	0x3e9750fd	0.29553977
24	0x3e9e22aa	0.30885822
25	0x3edc2f1c	0.43004692
26	0x3ed1a141	0.4094334
27	0x3ed228c5	0.4104673
28	0x3ea8c815	0.3296515
29	0x3e82c426	0.25540274
30	0x3e8b89e7	0.2725365
31	0x3e9a570c	0.30144536
32	0x3eeb23c4	0.45925725
33	0x3e9aeb36	0.30257577
34	0x3e83c2d8	0.2573459
35	0x3efeb82f	0.49749896
36	0x3e9deaae	0.3084311
37	0x3eb35ac2	0.3503018
38	0x3e92dbac	0.2868322
39	0x3ea9e3f0	0.33181715
40	0x3eb08e2e	0.34483474
41	0x3e80f0d2	0.2518373
42	0x3e7f96d5	0.24959882
43	0x3e89ceae	0.26915497
44	0x3eaf4b37	0.34237072
45	0x3f0a22ee	0.5395955
46	0x3e8d4c58	0.27597308
47	0x3e9e62e2	0.30934817
48	0x3edc29de	0.43000692
49	0x3edc4f70	0.43029356
50	0x3f1bd63e	0.6087378
51	0x3e81b6bd	0.2533473
52	0x3e9efe03	0.3105317
53	0x3e8e661e	0.27812284
54	0x3ecd121f	0.40052888
55	0x3e973fb8	0.295408
56	0x3eafb6d5	0.34319177
57	0x3f048ca6	0.5177711
58	0x3e93743e	0.28799623
59	0x3eb6899d	0.35651866
60	0x3e6caab6	0.23111996
61	0x3e93cb47	0.28866026
62	0x3f0ccb9e	0.54998195
63	0x3e6a4f14	0.22881728

conv.3.weight f4 [64, 64, 3, 3]
0	0x3d8986ab	0.06715139
1	0x3d1b118b	0.037858527
2	0xbc21d07d	-0.009876368
3	0xbce5eb0a	-0.028066177
4	0x3d775276	0.060381375
5	0x3e1af73a	0.15133372
6	0xbd2c1e70	-0.042021215
7	0x3df61a95	0.12016789
8	0x3d8c50f5	0.06851379
9	0x3cfdd570	0.030985564
10	0x3d7a0262	0.06103743
11	0x3dbd34aa	0.092385605
12	0xbce37a3a	-0.027768243
13	0xbc3079af	-0.010771199
14	0x3d42826f	0.047487672
15	0xbcd3d024	-0.025856085
16	0xbdc29ccc	-0.09502563
17	0xbdc18e57	-0.09450977
18	0x3ddfaf75	0.10922138
19	0xbc0f9cfa	-0.0087654535
20	0x3cd80859	0.026371168
21	0x3e13c8b7	0.14432035
22	0x3c05e876	0.008173099
23	0x3db0bf27	0.086302094
24	0x3db26d27	0.087122254
25	0x3d7ffdd2	0.06249792
26	0x3dc0433a	0.093878224
27	0xbcb4a299	-0.022050189
28	0x3e16ed44	0.14738947
29	0x3d538357	0.051638927
30	0xbcfe62db	-0.031052997
31	0xbcd5bf34	-0.02609215
32	0xbd1aa53d	-0.03775524
33	0xbcfa05a3	-0.030520266
34	0xbd791696	-0.060812555
35	0x3cbc7098	0.023002908
36	0xbd4562ce	-0.04818993
37	0xbd5dd5ea	-0.054159082
38	0xbd122798	-0.03568229
39	0xbcbf9840	-0.023388028
40	0xbdb3e198	-0.08783263
41	0x3e388643	0.18019967
42	0xbcc410d7	-0.023933811
43	0xbdb3369b	-0.087506495
44	0x3cb1a446	0.021684777
45	0xbbb97654	-0.0056598578
46	0xbd08fe7d	-0.033445824
47	0x3dc21507	0.09476667
48	0x3dca02ba	0.09863801
49	0x3cf5e3d7	0.030015869
50	0xbd4b82d6	-0.04968532
51	0x3d43ca69	0.047800455
52	0x3daeb070	0.085297465
53	0x3da50bb7	0.08058875
54	0xbcb9fb11	-0.022702726
55	0xbd541a9d	-0.051783193
56	0x3dd83a5c	0.10558006
57	0xbd55dae6	-0.05221071
58	0x3d079269	0.033098612
59	0xbbf3395f	-0.0074226107
60	0xbb56cbdb	-0.0032775316
61	0x3d0b54df	0.034016486
62	0xbbf64f31	-0.0075167646
63	0x3cb1e801	0.021717073
64	0x3db7972e	0.08964382
65	0x3c9ca68c	0.019122384
66	0x3d57684e	0.052589707
67	0xbd816311	-0.063177235
68	0x3d48a23a	0.048982836
69	0x3d236568	0.03989163
70	0x3d1ea995	0.038735945
71	0xbe47d78a	-0.19515815
72	0x3dc981e3	0.09839227
73	0x3dbb176c	0.09135327
74	0x3dc1d1d8	0.09463853
75	0xbd7e8d0e	-0.06214624
76	0x3d9f8b9e	0.07790302
77	0x3dbc7540	0.09202051
78	0x3c974186	0.018463861
79	0x399864ca	0.00029066793
80	0xbc91027f	-0.017701386
81	0xb8f5a297	-0.00011712795
82	0xbd55d3c1	-0.052203897
83	0x3a96f207	0.0011516222
84	0x3d987f5f	0.07446169
85	0x3d4100ae	0.04711979
86	0xbd66d0f0	-0.056351602
87	0x3d4a33bf	0.049365755
88	0x3d828ff2	0.06375112
89	0xbcbc8c80	-0.023016214
90	0xbe11070c	-0.14162844
91	0x3e10160d	0.14070912
92	0xbdb15ca9	-0.08660252
93	0x3cf2af00	0.029624462
94	0x3d9919d7	0.07475632
95	0xbe254e1e	-0.1614308
96	0x3ca01824	0.019542761
97	0xbdc7216f	-0.09723174
98	0xbc7c7309	-0.015408286
99	0xbc9875df	-0.018610893
100	0xbe2d6ad5	-0.16935284
101	0xbd233c94	-0.039852694
102	0xbb122c65	-0.0022304293
103	0x3b5eeb63	0.0034014813
104	0x3d93c37d	0.07215021
105	0x3d5b9583	0.053609382
106	0x3d6f90c8	0.058487684
107	0xbd9afaea	-0.07567389
108	0xbd1111c6	-0.03541734
109	0xbdd9eef3	-0.10641279
110	0x3cfcadf2	0.030844662
111	0xbc5ad509	-0.013356456
112	0x3d0d579a	0.03450737
113	0xbbdd8665	-0.006760406
114	0xbd98e78e	-0.074660406
115	0x3dc4e137	0.09613269
116	0xbd9ba8be	-0.076005444
117	0xbc24984c	-0.010046076
118	0x3d159362	0.03651751
119	0xbd7dfc71	-0.062008325
120	0x3da5c246	0.08093695
121	0xbab92814	-0.0014126324
122	0xbd88d159	-0.06680555
123	0x3d038d0c	0.032116935
124	0x3dbbeee4	0.09176424
125	0x3bd3280e	0.006443984
126	0xbdcd837e	-0.10034846
127	0x3d643a1e	0.055719487
128	0xbcb82739	-0.02247964
129	0xbd516dc1	-0.05113006
130	0xbcf73bda	-0.030179907
131	0xbd1e2255	-0.03860696
132	0x3d377e48	0.044798166
133	0x3d561c58	0.052273124
134	0xbce4d21d	-0.027932221
135	0xbe018f82	-0.126524
136	0xbd0a4339	-0.033755515
137	0x3dacdd1b	0.0844061
138	0x3dba1e33	0.09087791
139	0xbc8efbbd	-0.017454023
140	0xbdc21fc8	-0.09478718
141	0xbbdd4809	-0.006752972
142	0xbd7743ce	-0.060367398
143	0x3cf6b58d	0.030115867
144	0x3d77cfc3	0.06050087
145	0x3ca9d416	0.020731013
146	0x3e18225c	0.14856857
147	0xbd182581	-0.03714514
148	0xbdc990ec	-0.09842095
149	0x3c415d17	0.0118019795
150	0x3c04bfc1	0.008102358
151	0x3cd0ce28	0.025488928
152	0x3996612a	0.00028682622
153	0xbd941507	-0.07230573
154	0xbdccc28a	-0.09998043
155	0xbdcc66f8	-0.09980577
156	0xbc963875	-0.018337468
157	0xbe01df37	-0.12682806
158	0x3c241bdd	0.010016409
159	0xbca2285c	-0.019794635
160	0xbccd9453	-0.02509514
161	0xbd1b1f8e	-0.03787189
162	0xbdd2c5c8	-0.1029163
163	0xbd58ad50	-0.05289966
164	0x3a806d63	0.0009798225
165	0xbd240b56	-0.040049873
166	0x3d0e3cff	0.03472614
167	0x3c926bc7	0.017873658
168	0x3d3743e1	0.04474247
169	0xbd9813bb	-0.07425638
170	0xbe3f61d2	-0.18689659
171	0x3c14a727	0.009073055
172	0xbd9c3fce	-0.07629357
173	0xbd228f0e	-0.03968721
174	0x3d1ffd41	0.03905988
175	0xbcea909a	-0.028633405
176	0xbc749604	-0.014928345
177	0x3de36a88	0.111043036
178	0x3d7bae7f	0.06144571
179	0xbdb32f4c	-0.087492555
180	0x3df5d782	0.120039955
181	0x3d305bb3	0.0430562
182	0xb9a5c1e5	-0.00031615715
183	0x3baab451	0.0052094837
184	0x3d1a4fa8	0.037673622
185	0xbd7edd64	-0.062222853
186	0xbda15147	-0.078768305
187	0x3d3e1c79	0.046413872
188	0xbc48cab6	-0.012255361
189	0xbd01f201	-0.031724934
190	0x3c84321f	0.01613718
191	0xbd17b4d3	-0.03703768
192	0x3dc655c8	0.0968433
193	0xbd5296c4	-0.051413313
194	0x3d92c468	0.07166368
195	0xbcc71145	-0.024300227
196	0xbcc55d7f	-0.024092434
197	0xbde2a8f6	-0.11067383
198	0x3dc020d4	0.093812615
199	0x3cd8ae5d	0.02645033
200	0xbbfda57b	-0.007740674
201	0x3d921932	0.07133712
202	0x3d37d538	0.044881076
203	0x3de94bd6	0.11391418
204	0xba9fd701	-0.0012194813
205	0x3d7fc758	0.06244597
206	0xbb3edab8	-0.0029122066
207	0xbd35f4bc	-0.04442285
208	0xbe1c2ae1	-0.15250732
209	0xbde9110a	-0.11380203
210	0xbc8aa8af	-0.016926138
211	0x3a07df92	0.0005183156
212	0x3d162dba	0.036664702
213	0xbd93c057	-0.0721442
214	0xbd24e47d	-0.040256966
215	0x3c22c232	0.009933995
216	0xbdada55b	-0.08478805
217	0xbdb19f6b	-0.08672985
218	0x3d2d3c3d	0.042293776
219	0xbca8ed50	-0.020620972
220	0xbd84fe82	-0.06493856
221	0x3dcff39f	0.10153889
222	0xbdb74589	-0.0894881
223	0x3c7ba1e5	0.015358423
224	0x3db27bc8	0.08715016
225	0xbbe66b4e	-0.0070318347
226	0xbcc68485	-0.024233112
227	0xbe07bfe7	-0.13256799
228	0x3c31d283	0.010853413
229	0x3cf568bd	0.02995717
230	0xbc4a91a6	-0.012363827
231	0xbdc3e331	-0.09564818
232	0xbd981e99	-0.07427711
233	0x3d778375	0.0604281
234	0x3d2ec3a4	0.042667046
235	0xbc67fb01	-0.014158965
236	0x3c1add17	0.009452126
237	0xbac276df	-0.0014836452
238	0xbd95f2ae	-0.07321678
239	0xbd141263	-0.036150347
240	0x3d572ff7	0.052535977
241	0xbc7a5d9b	-0.015281106
242	0x3ce90c8f	0.028448371
243	0x3d8ac390	0.06775582
244	0x3d89f223	0.06735637
245	0x3d094d8a	0.033521213
246	0xbd53e1e0	-0.051729083
247	0xbd1299d3	-0.03579123
248	0x3db8f0fc	0.09030339
249	0xbdf98d8d	-0.12185202
250	0xbdeee9ba	-0.116656736
251	0xbd7f61bd	-0.06234907
252	0x3d8bc668	0.06824952
253	0x3d00a5d2	0.03140814
254	0x3d4a02f6	0.04931923
255	0xbb19b8a7	-0.0023456009

conv.4.weight f4 [64]
0	0x3f6ec10a	0.93263304
1	0x3f7fb209	0.99881035
2	0x3f805c84	1.0028234
3	0x3f84d2f4	1.0376878
4	0x3f6e84a6	0.93171155
5	0x3f6c4c08	0.92303514
6	0x3f81b400	1.0133057
7	0x3f630583	0.88680285
8	0x3f802635	1.001166
9	0x3f823d30	1.0174923
10	0x3f8492e6	1.035733
11	0x3f850b36	1.0394046
12	0x3f8cad4f	1.099039
13	0x3f823e00	1.0175171
14	0x3f82abc5	1.020867
15	0x3f6db00c	0.9284675
16	0x3f8879c3	1.0662159
17	0x3f867393	1.050402
18	0x3f758680	0.95908356
19	0x3f855672	1.0417006
20	0x3f6bc17b	0.920921
21	0x3f71158d	0.9417351
22	0x3f72316a	0.9460665
23	0x3f6f13ab	0.93389386
24	0x3f933e17	1.1503323
25	0x3f8de263	1.1084713
26	0x3f890bcb	1.0706724
27	0x3f83bf17	1.0292691
28	0x3f8d01c8	1.1016169
29	0x3f88b1bb	1.0679239
30	0x3f76e1a8	0.96438074
31	0x3f6dfbaf	0.92962164
32	0x3f8910cd	1.0708252
33	0x3f7382a0	0.9512119
34	0x3f6a483e	0.9151648
35	0x3f778ee6	0.9670242
36	0x3f79f92b	0.97645825
37	0x3f816c9e	1.0111272
38	0x3f8ce1be	1.1006391
39	0x3f7a5e7e	0.97800434
40	0x3f815f1c	1.010715
41	0x3f7cc8f4	0.9874413
42	0x3f917669	1.1364261
43	0x3f784d16	0.96992624
44	0x3f83df65	1.030255
45	0x3f70dffe	0.94091785
46	0x3f7c78d3	0.98621863
47	0x3f7aef61	0.98021513
48	0x3f660828	0.89856195
49	0x3f8aa96c	1.0832953
50	0x3f68aed5	0.9089177
51	0x3f82921b	1.0200838
52	0x3f7c33d4	0.98516583
53	0x3f880d1b	1.0629
54	0x3f773460	0.9656429
55	0x3f5f3d75	0.8720315
56	0x3f67ec68	0.905951
57	0x3f8c554b	1.0963529
58	0x3f8387bc	1.0275798
59	0x3f8321a1	1.0244638
60	0x3f8e4662	1.1115229
61	0x3f7a7641	0.9783669
62	0x3f80de90	1.0067921
63	0x3f8e2c64	1.1107297

conv.4.bias f4 [64]
0	0xbe1fd7c7	-0.15609656
1	0xbb91c913	-0.0044490187
2	0xbdd03679	-0.1016664
3	0xbe2c8cec	-0.16850632
4	0x3cf75441	0.030191543
5	0xbe239b4e	-0.15977213
6	0xbe5cc9ea	-0.21561399
7	0xbd9352ff	-0.071935646
8	0xbe3b257d	-0.1827602
9	0xbda72680	-0.0816164
10	0xbdd66285	-0.1046801
11	0xbe614b54	-0.22001392
12	0xbe1d5880	-0.15365791
13	0xbdbe356b	-0.092875324
14	0xbe0dfe83	-0.1386662
15	0xbb4b61b1	-0.003103357
16	0xbe7894f9	-0.24275579
17	0xbe64dc1e	-0.22349593
18	0xbda2efca	-0.079558924
19	0xbdcc0df2	-0.09963597
20	0xbdc8cf57	-0.09805172
21	0xbccbb00d	-0.024864221
22	0xbdef197b	-0.11674782
23	0xbe2bbb4d	-0.16770668
24	0xbd9d4af3	-0.07680311
25	0xbe0b1b07	-0.13584529
26	0xbe1abdad	-0.15111418
27	0xbe85b91d	-0.26117793
28	0xbe0c9aac	-0.13730878
29	0xbdca674a	-0.09882982
30	0xbe2da8c0	-0.16958904
31	0xbdb5d0a9	-0.088776894
32	0xbe6851c4	-0.22687441
33	0xbdc2d4b1	-0.09513224
34	0xbe735d46	-0.2376605
35	0xbe490d48	-0.19633973
36	0xbe124198	-0.14282835
37	0xbe541101	-0.20709611
38	0xbdecad81	-0.11556531
39	0xbdf121c6	-0.1177402
40	0xbe88aeea	-0.2669595
41	0xbd7c6578	-0.061620206
42	0xbe9644a8	-0.29349256
43	0xbe91f977	-0.2851064
44	0xbe500c36	-0.20317158
45	0xbd99685c	-0.07490608
46	0xbe03407b	-0.12817566
47	0xbe7baacb	-0.24576871
48	0xbd7beba7	-0.061504032
49	0xbe8c7538	-0.2743318
50	0xbe2d9d2a	-0.16954485
51	0xbe667ccd	-0.22508545
52	0xbe0bb0a4	-0.13641602
53	0xbe12f02b	-0.1434943
54	0xbd602666	-0.05472412
55	0xbdd79146	-0.105257556
56	0xbe47f0fc	-0.19525522
57	0xbe4fb000	-0.20281982
58	0xbde4508e	-0.11148177
59	0xbe351f6b	-0.17687766
60	0xbe38ba09	-0.18039717
61	0xbe5f66b0	-0.21816516
62	0xbdecc0d5	-0.11560217
63	0xbe0dd56a	-0.13850942

conv.4.running_mean f4 [64]
0	0x3d76c5f6	0.060247384
1	0xbd1f9708	-0.038962394
2	0xbf07e7b0	-0.530879
3	0xbfc578b1	-1.5427457
4	0x3eac97b7	0.337095
5	0xbf1bb3d2	-0.6082126
6	0xbf2b50f1	-0.6692038
7	0xbee94662	-0.4556151
8	0xbe5ceae9	-0.21573986
9	0xbf0fcae7	-0.5616898
10	0x3d3f7310	0.04674059
11	0xbef94653	-0.48686466
12	0xbfbf7143	-1.495644
13	0xbef3e5b0	-0.47636175
14	0xbf3939c8	-0.7235379
15	0xbdd4d820	-0.10392785
16	0xbf2b1ea7	-0.66843647
17	0xbee2ad28	-0.44272733
18	0xbf40b4c7	-0.75275844
19	0xbf1cc7d9	-0.61242443
20	0xbe6e38f4	-0.23263913
21	0xbf195de5	-0.59908897
22	0xbea6757e	-0.32511514
23	0xbe9e7742	-0.30950361
24	0xbfc4f24f	-1.5386447
25	0xbf5f27e6	-0.87170255
26	0xbf1a95f6	-0.6038507
27	0xbf19a7e6	-0.6002182
28	0xbf8af57d	-1.0856167
29	0xbf03f4fe	-0.51545703
30	0x3da641a6	0.0811799
31	0xbd6d24e4	-0.05789651
32	0xbf84f2ce	-1.0386598
33	0xbf1d5416	-0.6145643
34	0x3c1340ac	0.008987587
35	0x3e4add72	0.19811037
36	0x3f12c832	0.57336724
37	0xbf468d9f	-0.77559847
38	0xbfdeb5da	-1.7399247
39	0xbf0223be	-0.5083579
40	0xbc370281	-0.011170031
41	0xbf2bba8a	-0.6708151
42	0xbe09a970	-0.13443542
43	0xbf362743	-0.7115366
44	0xbf989f5b	-1.1923631
45	0xbe9789d7	-0.2959735
46	0xbe90af8e	-0.28258938
47	0xbec988ed	-0.3936228
48	0xbe632111	-0.22180583
49	0xbf1cf19a	-0.61306155
50	0x3dc01d53	0.09380593
51	0x3f2991ae	0.66237915
52	0xbf40c73d	-0.75304013
53	0xbf8186c8	-1.0119257
54	0xbe98feaf	-0.29881808
55	0x3ebe1911	0.371285
56	0x3eab7b08	0.33492303
57	0x3dae04f7	0.08497041
58	0xbf24b436	-0.6433748
59	0xbec28365	-0.3799087
60	0xbf3902aa	-0.7226969
61	0x3f3c9ae5	0.7367385
62	0xb917782a	-0.00014445247
63	0xbf213277	-0.6296763

conv.4.running_var f4 [64]
0	0x3f92ca66	1.1468017
1	0x3f992fea	1.1967747
2	0x3fabfbac	1.3436179
3	0x3fc55237	1.5415715
4	0x3f9db193	1.2319816
5	0x3f9682ea	1.1758702
6	0x3fa61623	1.2975506
7	0x3f74df20	0.9565296
8	0x3fb67270	1.4253674
9	0x3f9f6a83	1.245438
10	0x3fadb2e8	1.3570223
11	0x3fc3d618	1.5299711
12	0x3fcc08ab	1.5940145
13	0x3fabc674	1.3419938
14	0x3f92ded0	1.1474247
15	0x3f8170a5	1.0112501
16	0x3fabccad	1.3421837
17	0x3fd203ad	1.6407372
18	0x3f9330da	1.1499283
19	0x3f9d4f1d	1.2289768
20	0x3fa45f14	1.2841516
21	0x3fabbcdf	1.3417014
22	0x3fcb40ff	1.587921
23	0x3f83f0b9	1.0307838
24	0x3fc16068	1.5107546
25	0x3fbc94e8	1.4732943
26	0x3fbb0d6d	1.4613472
27	0x3fac4789	1.3459331
28	0x3fd1d4c1	1.6393052
29	0x3fc84f8b	1.5649275
30	0x3f8d2a33	1.1028503
31	0x3fa3d37d	1.2798916
32	0x3fc01c74	1.5008683
33	0x3f7f0bbb	0.99627274
34	0x3faf0f64	1.3676572
35	0x3f8d5d02	1.1044009
36	0x3fc0366c	1.5016608
37	0x3f9701fd	1.1797482
38	0x3fd056ed	1.6276528
39	0x3f7c3a74	0.9852669
40	0x3f91f74d	1.1403595
41	0x3f93f9cf	1.156061
42	0x3fbf0b7a	1.4925377
43	0x3f87626a	1.0576909
44	0x3f9eae9d	1.2397038
45	0x3f9959c5	1.198052
46	0x3fa56584	1.2921605
47	0x3f947398	1.1597776
48	0x3f90bba6	1.1307266
49	0x3fd370b3	1.6518768
50	0x3f7ea165	0.9946502
51	0x3f9d1f55	1.2275187
52	0x3f9f6553	1.2452797
53	0x3fb76cc6	1.433007
54	0x3f9ebce6	1.2401397
55	0x3f975828	1.1823778
56	0x3f904efb	1.1274103
57	0x3fad65ad	1.3546654
58	0x3f8f5fa9	1.1201068
59	0x3fa1c793	1.263903
60	0x3fced279	1.6157981
61	0x3f910f1e	1.1332738
62	0x3fa77095	1.3081232
63	0x3fba4709	1.4552928

conv.6.weight f4 [64, 64, 3, 3]
0	0x3b8ecc5d	0.004357858
1	0xbd32eca0	-0.043682694
2	0xbd9974b0	-0.074929595
3	0xbdc2c919	-0.095110126
4	0xbd3be6fa	-0.045874573
5	0x3c6952e1	0.014240951
6	0x3bc2e9c2	0.0059482763
7	0x3d1ec4ab	0.038761776
8	0x3b0604b9	0.0020449592
9	0xbe136bf2	-0.14396647
10	0x3da0a6e7	0.07844334
11	0x3d63cab9	0.055613253
12	0x3d1269d5	0.03574546
13	0x3b14f147	0.002272682
14	0x3e1b330b	0.1515619
15	0x3ca5aa39	0.02022277
16	0xbcffeafc	-0.031239979
17	0x3d99b0b4	0.075044066
18	0x3bb0d730	0.005396746
19	0xbb1a3a15	-0.0023533155
20	0x3d47d762	0.04878939
21	0x3bc5707a	0.006025371
22	0xbe40e251	-0.18836333
23	0x3cbc60b3	0.022995329
24	0x3d8e1399	0.06937332
25	0x3bf7967b	0.0075557805
26	0xbd9ce799	-0.07661361
27	0x3d2c1444	0.042011514
28	0x3c76f5d4	0.015073258
29	0x3c6fb0b5	0.014629533
30	0x3cb46a44	0.022023328
31	0xbd2f11cc	-0.04274158
32	0x3c32baa4	0.010908756
33	0xbcdfd5c2	-0.027323607
34	0xbc808499	-0.015688227
35	0xbd8e7e38	-0.06957668
36	0xbd6b592a	-0.05745808
37	0xbc2c585a	-0.0105191115
38	0x3cb1642e	0.021654215
39	0x3c42585d	0.011861888
40	0xbc95b47e	-0.018274542
41	0x3d4e9255	0.05043252
42	0x3ca64089	0.020294445
43	0x3cccc9a4	0.024998493
44	0x3ddfb0f9	0.10922427
45	0x3d086e45	0.033308286
46	0x3d3e59f9	0.046472523
47	0xbcda3393	-0.02663592
48	0xbc38e7b6	-0.011285713
49	0x3dc39216	0.09549348
50	0x3d9a46a4	0.07533005
51	0xbc202c2a	-0.0097761545
52	0xbc85048b	-0.016237518
53	0x3adffb7c	0.0017088498
54	0x3d5f1ea5	0.054472584
55	0xbdbe95a1	-0.09305883
56	0xbdd79d11	-0.10528005
57	0xbcb04da4	-0.021521397
58	0xbda22475	-0.0791711
59	0x3ce116a8	0.027476624
60	0xbc6fd4c8	-0.014638133
61	0x3d097774	0.033561185
62	0x3cd1d131	0.025612446
63	0x3dee00c2	0.11621238
64	0x3d6caf7f	0.057784554
65	0xbd0a3b42	-0.03374792
66	0x3db4eb7b	0.08833977
67	0xbcfedce9	-0.031111198
68	0xbd109ed6	-0.035307728
69	0x3dbd523f	0.09244203
70	0x3d3b8cb5	0.045788486
71	0x3d8a7193	0.06759944
72	0xbc9ec984	-0.0193832
73	0x3c0ad9a4	0.008474741
74	0xbd5950e4	-0.05305566
75	0xb9be7fbb	-0.0003633479
76	0x3cf9a50a	0.030474205
77	0xbdb129ca	-0.08650549
78	0x3d742ed4	0.05961497
79	0xbd44858d	-0.047978926
80	0xbdbf8f90	-0.09353554
81	0x3d0a2489	0.03372625
82	0xbb478715	-0.0030445505
83	0xbc4dfd1a	-0.012572551
84	0x3d6cc42c	0.05780427
85	0xbdecfd18	-0.11571711
86	0xbd10f205	-0.035387058
87	0x3db541d6	0.08850448
88	0x3d897623	0.06711986
89	0xbc73d667	-0.0148826605
90	0xbe187188	-0.14887059
91	0xbd419f48	-0.047271043
92	0x3ca4bf3c	0.020110719
93	0xbdc436b7	-0.095807485
94	0xba0df692	-0.0005415465
95	0x3d1377d0	0.036002934
96	0xbcd95a1e	-0.026532229
97	0xba220a11	-0.00061813096
98	0xbbfc846a	-0.0077062147
99	0xbd11ab47	-0.035563733
100	0xbdd82ba4	-0.10555199
101	0x3e12a441	0.1432047
102	0x3d028cf0	0.03187269
103	0x3d899e75	0.067196764
104	0x3d1095e4	0.035299197
105	0x3c9e01fa	0.019288052
106	0x3d8ae19c	0.06781313
107	0xbda442d4	-0.08020559
108	0x3bbc3436	0.0057435287
109	0xbdca8798	-0.09889144
110	0x3d966c71	0.07344902
111	0x3ae06103	0.0017118755
112	0x3d700e09	0.058607135
113	0xbcbf9e99	-0.023391055
114	0x3cfc55e6	0.030802678
115	0x3c8be566	0.01707716
116	0x3e76119c	0.24030155
117	0x3e010c25	0.12602289
118	0xbd13f599	-0.036122892
119	0x3ccdcc9c	0.02512198
120	0xbd0e6b0b	-0.034770053
121	0x3db6540f	0.08902752
122	0xbd090f0c	-0.033461615
123	0x3dfbdae0	0.122976065
124	0xbb92f426	-0.004484671
125	0x3da8c517	0.08240717
126	0x3ae5218d	0.0017481312
127	0xbdc9c1c6	-0.098514125
128	0xbda59d4e	-0.08086644
129	0xbcf1aea1	-0.029502215
130	0x3da8b281	0.08237172
131	0x3cbdf9de	0.023190435
132	0xbdcd2710	-0.10017216
133	0xbd3025fc	-0.043004975
134	0x3de50dd1	0.11184276
135	0x3d4ee52a	0.050511517
136	0x3d4fff5f	0.05078065
137	0xbcef8b23	-0.02924115
138	0xbdb90c94	-0.09035602
139	0xbbdc7e03	-0.006728889
140	0xbd381f92	-0.044951983
141	0xbd0044c0	-0.031315565
142	0x3d1cfcd9	0.03832707
143	0xbcff07fa	-0.031131733
144	0xbde58bcd	-0.112083055
145	0xbe577692	-0.21041325
146	0xbd6a84e5	-0.057255644
147	0xbd883d61	-0.06652332
148	0xbe827c3d	-0.2548541
149	0x3d8681c5	0.0656772
150	0xbc9df3f0	-0.019281358
151	0xbd693fc0	-0.056945562
152	0x3cc74dce	0.024329092
153	0x3dc96789	0.09834201
154	0x3c10c187	0.008835203
155	0xbde79b94	-0.11308971
156	0xbb84de25	-0.004054802
157	0xbbdc1720	-0.006716624
158	0xbbf637bf	-0.0075139697
159	0x3de48468	0.11158067
160	0x3da61b47	0.081106715
161	0x3da4bdd0	0.08044016
162	0xbd44936b	-0.04799215
163	0x3dd27cf7	0.102777414
164	0x3d3d6a32	0.046243854
165	0xbdcaae9a	-0.09896584
166	0xbd417c0c	-0.04723744
167	0xbd3a29df	-0.045450088
168	0x3d10b86c	0.03533213
169	0x3cc79f09	0.024367826
170	0xbe0274e6	-0.12739906
171	0xbcb8e4d6	-0.022570055
172	0xbd9e7be6	-0.077384755
173	0x3dbfa78b	0.09358128
174	0xbd13f790	-0.036124766
175	0x3d78368f	0.060598906
176	0xbcf23770	-0.02956745
177	0x3ba920b1	0.005161368
178	0xbda56f65	-0.080778874
179	0xbd9d0d9d	-0.07668612
180	0xbc1dacad	-0.009623689
181	0x3c8b872a	0.017032225
182	0x3d84dc4c	0.06487331
183	0xbde6a243	-0.11261418
184	0x3d3d659f	0.04623949
185	0x3df39876	0.11894314
186	0xbe1401a3	-0.1445375
187	0xbd82f23e	-0.0639386
188	0x3e05c3cd	0.13062973
189	0xbc4784ef	-0.01217769
190	0x3d644cfc	0.05573748
191	0x3e039731	0.12850644
192	0xbdca3251	-0.09872878
193	0x3d79004b	0.060791295
194	0xbcf3521d	-0.02970224
195	0xbd03337a	-0.032031514
196	0x3abf5a8a	0.0014599126
197	0x3d225d2e	0.039639644
198	0x3ddecb68	0.108786404
199	0xbd97c3cb	-0.074103914
200	0xbced9412	-0.02900127
201	0xbd034834	-0.03205128
202	0x3dbc57df	0.091964476
203	0xbe00ee7c	-0.12590975
204	0xbd814bca	-0.06313284
205	0xbd96df57	-0.073668174
206	0x3e0102bc	0.125987
207	0x3bb45115	0.00550283
208	0x3c7306e4	0.014833186
209	0xbd94ec07	-0.07271581
210	0xbd1ecc61	-0.03876913
211	0xbd9945f5	-0.07484046
212	0xba9fa557	-0.0012180012
213	0xbd02ad86	-0.031903766
214	0xbdd61369	-0.10452921
215	0x3cf69620	0.030100882
216	0xbcdccae5	-0.026952216
217	0xbd308083	-0.04309131
218	0xbbeca606	-0.00722194
219	0xbc60e154	-0.013725597
220	0x3d9a9ad2	0.07549061
221	0xbc3e0bcf	-0.011599495
222	0xbd7b751d	-0.061390985
223	0xbd81a39f	-0.06330036
224	0x3daefd38	0.085443914
225	0xbc0c8457	-0.008576474
226	0xbc390764	-0.011293266
227	0xbd879cb3	-0.06621685
228	0xbcf36dc2	-0.029715423
229	0x3c296ac7	0.010340399
230	0x3d5957e1	0.053062323
231	0xbd7d81d6	-0.0618914
232	0x3c388c34	0.011263896
233	0x3e000cb8	0.12504852
234	0xbe140db0	-0.14458346
235	0xbd6309eb	-0.05542938
236	0x3e2febde	0.1717982
237	0x3a418d4e	0.0007383422
238	0x3d0af069	0.03392068
239	0xbcd03283	-0.02541471
240	0xbdac0271	-0.08398903
241	0xbc0d4dc0	-0.008624494
242	0xbd75fa01	-0.060052875
243	0xbccc0765	-0.02490587
244	0xbdbfbd8e	-0.093623266
245	0x3dbe7fae	0.09301697
246	0xbd4b92f5	-0.049700696
247	0x3bab4ea9	0.005227883
248	0x3d8ab26d	0.06772313
249	0xbd948435	-0.07251779
250	0xbbe5d886	-0.007014337
251	0x3db90409	0.09033973
252	0x3dd37e01	0.10326768
253	0x3d90d00a	0.0707093
254	0xbd3d74cb	-0.04625396
255	0x3dca9837	0.09892314

conv.7.weight f4 [64]
0	0x3f7dba99	0.9911285
1	0x3f76f3d6	0.96465814
2	0x3f71c5fc	0.94442725
3	0x3f763465	0.961737
4	0x3f708dbf	0.9396629
5	0x3f7748ea	0.96595633
6	0x3f70aeb4	0.94016576
7	0x3f815d62	1.0106623
8	0x3f7ad21e	0.97976863
9	0x3f7a2445	0.9771159
10	0x3f8a8b91	1.0823842
11	0x3f6f9a68	0.9359498
12	0x3f73a6ab	0.9517619
13	0x3f7926c8	0.973248
14	0x3f7a26cf	0.9771547
15	0x3f777908	0.96669054
16	0x3f69f704	0.9139254
17	0x3f78a4da	0.97126544
18	0x3f728598	0.947351
19	0x3f7aaab8	0.97916746
20	0x3f7431ae	0.95388305
21	0x3f73680e	0.9508065
22	0x3f7c1238	0.984653
23	0x3f7afc0d	0.9804085
24	0x3f7ee6cc	0.9957092
25	0x3f72e5b2	0.9488174
26	0x3f772502	0.96540844
27	0x3f713df9	0.9423519
28	0x3f7c41f1	0.9853812
29	0x3f7d8275	0.99027187
30	0x3f774d03	0.96601886
31	0x3f80196c	1.0007758
32	0x3f74facb	0.9569518
33	0x3f815f7b	1.0107263
34	0x3f82a21f	1.0205725
35	0x3f775a06	0.9662174
36	0x3f7cd702	0.98765576
37	0x3f7acfe6	0.9797348
38	0x3f7afcfb	0.9804227
39	0x3f7897fe	0.9710692
40	0x3f81191d	1.0085789
41	0x3f767ef4	0.96287465
42	0x3f7a8304	0.97856164
43	0x3f75f5c6	0.96078146
44	0x3f8321ce	1.0244691
45	0x3f7aacb7	0.9791979
46	0x3f754253	0.9580433
47	0x3f7b24b7	0.981029
48	0x3f7ed460	0.9954281
49	0x3f6d7e5d	0.9277094
50	0x3f78e5fa	0.97225916
51	0x3f7f2e04	0.9967959
52	0x3f79d67d	0.9759291
53	0x3f68e5d1	0.9097567
54	0x3f781618	0.9690871
55	0x3f808f50	1.0043736
56	0x3f788372	0.9707557
57	0x3f70d582	0.9407579
58	0x3f7f02a5	0.9961341
59	0x3f6fb063	0.9362852
60	0x3f775bda	0.9662453
61	0x3f79140e	0.97296226
62	0x3f7aa202	0.97903454
63	0x3f702987	0.93813366

conv.7.bias f4 [64]
0	0xbe8d049d	-0.27542582
1	0xbed1a02a	-0.40942508
2	0xbea9af13	-0.33141384
3	0xbe5a370d	-0.21310063
4	0xbea64a6b	-0.3247865
5	0xbe36f800	-0.17868042
6	0xbeb1da6a	-0.3473695
7	0xbe0a2c60	-0.1349349
8	0xbe8f3c2b	-0.27975592
9	0xbea9f6d6	-0.33196133
10	0xbcbe62e8	-0.023240522
11	0xbebffd12	-0.37497765
12	0xbe829ffa	-0.25512677
13	0xbe6328be	-0.2218351
14	0xbecae4ad	-0.3962759
15	0xbe980132	-0.29688412
16	0xbef09b84	-0.4699365
17	0xbe8c7a15	-0.2743689
18	0xbe927771	-0.28606752
19	0xbe9bdace	-0.30440372
20	0xbe8abec5	-0.2709867
21	0xbeb117ee	-0.3458857
22	0xbea67312	-0.32509667
23	0xbe827ccc	-0.25485837
24	0xbe92f061	-0.2869902
25	0xbed13764	-0.40862572
26	0xbe97e043	-0.29663286
27	0xbea537ea	-0.32269222
28	0xbead09aa	-0.33796436
29	0xbe94cc37	-0.29062054
30	0xbe382fb3	-0.17986946
31	0xbec77ab1	-0.38960794
32	0xbe88cbdf	-0.2671804
33	0xbe80d9ad	-0.25166073
34	0xbe5542c1	-0.20826246
35	0xbea076cd	-0.31340638
36	0xbe33cc13	-0.17558317
37	0xbe598689	-0.21242727
38	0xbe872741	-0.26397136
39	0xbede7a15	-0.43452516
40	0xbe39891d	-0.18118711
41	0xbeb0358d	-0.34415856
42	0xbe415566	-0.18880233
43	0xbe87ec64	-0.2654754
44	0xbeb63580	-0.35587692
45	0xbe6dd697	-0.23226391
46	0xbed12744	-0.4085027
47	0xbeb4410d	-0.3520588
48	0xbe983672	-0.29729038
49	0xbeb4f671	-0.3534427
50	0xbeb17b55	-0.34664407
51	0xbe7a27b0	-0.24429202
52	0xbeaf44b9	-0.3423212
53	0xbedaddc5	-0.42747322
54	0xbe8f1f57	-0.27953598
55	0xbe7d7238	-0.24750602
56	0xbeb20f2b	-0.34777197
57	0xbe94f4b3	-0.2909294
58	0xbe4cb83c	-0.19992155
59	0xbe949882	-0.29022604
60	0xbe9d8316	-0.30764073
61	0xbe73fde5	-0.23827322
62	0xbe921e00	-0.28538513
63	0xbed5eed0	-0.41783762

conv.7.running_mean f4 [64]
0	0xbeca9599	-0.3956726
1	0xbf1b4e37	-0.6066622
2	0xbeb5134e	-0.3536629
3	0xbf151f89	-0.58251244
4	0x3f465456	0.77472436
5	0xbea14b8a	-0.31502944
6	0x3db94f26	0.090482995
7	0xbc20fd1b	-0.00982597
8	0xbe92f43e	-0.28701967
9	0xbf979339	-1.1841804
10	0xbe409877	-0.1880816
11	0xbf8ce3cf	-1.1007022
12	0xbf6bc49b	-0.9209687
13	0xbed51590	-0.41618013
14	0xbf15a8ad	-0.58460504
15	0xbe0e9d6a	-0.13927236
16	0xbe37b17e	-0.17938802
17	0xbe89c9e8	-0.26911855
18	0xbd4b8c9b	-0.04969464
19	0xbf46a31c	-0.77592635
20	0xbf7c08fc	-0.9845121
21	0x3e4d7087	0.20062457
22	0xbe102ceb	-0.14079635
23	0xbf6f8080	-0.9355545
24	0xbe3e1ee4	-0.18566471
25	0xbf733984	-0.95009637
26	0xbc4165b0	-0.011804029
27	0xbf5f41ce	-0.87209785
28	0xbe09db8e	-0.1346266
29	0xbf043d32	-0.51655877
30	0x3e5116c1	0.20418836
31	0xbf90dab0	-1.1316738
32	0x3e14c10e	0.1452677
33	0xbe5cfc7a	-0.21580687
34	0xbf35d472	-0.7102729
35	0xbf5233f9	-0.82110554
36	0xbe109454	-0.14119083
37	0x3d0f989e	0.035057656
38	0xbe0834fb	-0.1330146
39	0xbe19b474	-0.15010244
40	0xbf434d9e	-0.7629031
41	0x3db030b7	0.086030416
42	0xbe536b0b	-0.20646302
43	0x3e37b973	0.17941837
44	0xbec20bc4	-0.378996
45	0xbf164d06	-0.5871128
46	0xbd1bcfa1	-0.038039807
47	0xbead6f4e	-0.3387398
48	0xbf420bd6	-0.7579931
49	0xbe8d359b	-0.2757996
50	0xbf7599d3	-0.9593784
51	0xbf85b0eb	-1.0444616
52	0xbeda53f2	-0.4264217
53	0x3e1e3f8f	0.15453933
54	0xbe9b0e83	-0.3028451
55	0xbf375515	-0.716142
56	0xbf1bc77a	-0.6085125
57	0x3f1da431	0.6157866
58	0x3e2f31b9	0.17108811
59	0x3eeeea2f	0.46663043
60	0xbe9fcddc	-0.31211746
61	0x3e67fa6a	0.22654119
62	0x3ce37184	0.02776409
63	0xbe389f94	-0.18029624

conv.7.running_var f4 [64]
0	0x3f8478b2	1.0349333
1	0x3fa3ae78	1.2787619
2	0x3f79e37f	0.97612756
3	0x3f482dc8	0.78194857
4	0x3f9f3f56	1.2441204
5	0x3f38e450	0.7222338
6	0x3f3b43fb	0.73150605
7	0x3f34217f	0.7036361
8	0x3f86d011	1.0532247
9	0x3f6b273b	0.91856736
10	0x3f7989fb	0.97476166
11	0x3f4dc487	0.80378
12	0x3f6eb72e	0.9324826
13	0x3f800dc2	1.0004199
14	0x3f91b579	1.1383506
15	0x3f4d7f84	0.802727
16	0x3f537997	0.82607406
17	0x3f9a1d55	1.2040201
18	0x3f6d71f4	0.92752004
19	0x3f4d6816	0.8023695
20	0x3f7ca79a	0.9869324
21	0x3f712b29	0.9420648
22	0x3f63f404	0.89044213
23	0x3f89ac41	1.0755693
24	0x3f748a8c	0.95523906
25	0x3fb2c58b	1.3966535
26	0x3f6aaadf	0.9166698
27	0x3f778f03	0.96702594
28	0x3f841e75	1.0321795
29	0x3f5a2b4c	0.85222316
30	0x3f1dde90	0.6166773
31	0x3f80134e	1.0005891
32	0x3f93e2ef	1.155363
33	0x3f8de904	1.1086736
34	0x3f49793c	0.78700614
35	0x3f85ba93	1.0447563
36	0x3f5b6730	0.85704327
37	0x3f657344	0.89629006
38	0x3f88e52f	1.0694941
39	0x3f5602bf	0.8359794
40	0x3f8097df	1.0046347
41	0x3f7b1737	0.980823
42	0x3f7708d3	0.9649784
43	0x3f5d6a38	0.864902
44	0x3f82cba3	1.0218395
45	0x3fa8a012	1.317385
46	0x3f67d997	0.9056639
47	0x3f823726	1.017308
48	0x3f584e62	0.844946
49	0x3f3a3a42	0.72745144
50	0x3f490546	0.7852367
51	0x3f7731ea	0.9656054
52	0x3f86fbbf	1.0545577
53	0x3f503738	0.8133426
54	0x3f8f4bab	1.1194967
55	0x3f8e8c41	1.1136552
56	0x3f83b1dd	1.0288655
57	0x3f7ad08a	0.97974455
58	0x3f5e9f00	0.86961365
59	0x3f682f22	0.9069692
60	0x3f638ded	0.88888437
61	0x3f6812aa	0.9065348
62	0x3f9a7110	1.2065754
63	0x3f7c85ea	0.98641837

conv.9.weight f4 [64, 64, 3, 3]
0	0x3d976906	0.073930785
1	0x3cd1764b	0.025569102
2	0xbe1876a0	-0.14889002
3	0x3d6cd64c	0.057821557
4	0x3d574fb5	0.05256625
5	0xbe13a717	-0.14419208
6	0x3dc349ef	0.09535586
7	0x3dbcec0d	0.092247106
8	0xbe166aad	-0.14689131
9	0xbcff0374	-0.031129576
10	0x3cce6a96	0.025197309
11	0xbcf566d7	-0.029956264
12	0xbcf16bec	-0.029470406
13	0x3cbcfcc2	0.023069743
14	0xbd01eb66	-0.031718634
15	0x3d4ab94d	0.049493123
16	0xbc85f2e9	-0.01635118
17	0xbdf98fd9	-0.1218564
18	0x3c3b6fa7	0.011440194
19	0x3d3ba9a5	0.045816083
20	0x3d689c6a	0.056789793
21	0x3a5a1400	0.000831902
22	0xbc970f9c	-0.01844006
23	0x3c963d2e	0.01833972
24	0x3d03838e	0.032107882
25	0x3d03e16c	0.0321974
26	0x3c5c1a73	0.01343404
27	0xbc45b948	-0.0120681
28	0x3c06da0e	0.008230699
29	0xbe18bffc	-0.14916986
30	0xbc60238d	-0.013680351
31	0x3d05148b	0.032490294
32	0xbbba6bbc	-0.0056891125
33	0xbceaa0ff	-0.028641222
34	0x3c29d4a2	0.010365637
35	0xbc71fe62	-0.014770122
36	0x3d5a1f15	0.0532523
37	0x3d48dd55	0.049039204
38	0x3d0f38c4	0.034966245
39	0xbc9b57d8	-0.018962786
40	0xbd117636	-0.035513125
41	0xbd17e27e	-0.037081234
42	0x3b22933d	0.0024807
43	0x3d941efc	0.07232472
44	0x3d456365	0.048190493
45	0x3e255ec8	0.16149437
46	0x3d8a1933	0.067430876
47	0x3db11eb6	0.08648436
48	0x3d9de93a	0.077105
49	0x3d648052	0.05578644
50	0x3cf509dc	0.029911928
51	0x3e0ab8c3	0.13547044
52	0x3dab0181	0.08349896
53	0x3cc5f7a4	0.024165936
54	0xbc95caa8	-0.01828511
55	0xbcb04d4f	-0.021521239
56	0x3d9a6364	0.075384885
57	0xbcef2c00	-0.029195786
58	0x3d05ac2f	0.03263491
59	0x3d07ea38	0.033182353
60	0x3db1bc5e	0.08678506
61	0x3d80e112	0.06292929
62	0x3d110ffa	0.035415627
63	0xbe29ed59	-0.16594447
64	0xbdb4e3a1	-0.08832479
65	0xbe15c2c5	-0.1462508
66	0xbdd34279	-0.10315413
67	0xbd543f1a	-0.05181799
68	0xbdcded0d	-0.100549795
69	0xbe14342b	-0.14473026
70	0xbd847c35	-0.06469003
71	0xbe80e7be	-0.25176805
72	0x3d505b5e	0.050868385
73	0x3d2d87b0	0.04236573
74	0x3dae57b8	0.08512825
75	0x3bb978d8	0.0056601577
76	0xbd1238bb	-0.035698634
77	0xbcf644f4	-0.030062176
78	0x3db04ddf	0.08608603
79	0x3b1ee81a	0.002424723
80	0xbdd128e3	-0.10212877
81	0x3d09d212	0.033647604
82	0x3d8975d0	0.06711924
83	0x3d9cbb5a	0.07652922
84	0xb91adcf7	-0.000147689
85	0xbba4bc08	-0.005027298
86	0xbc442f01	-0.011974097
87	0x3d07f7f4	0.03319545
88	0x3c27d9eb	0.010244827
89	0xbd259791	-0.040427748
90	0x3cfefdce	0.031126883
91	0x3c141cdb	0.009040083
92	0x3d860f39	0.06545872
93	0xbbeaeb79	-0.007169184
94	0xbd466678	-0.048437566
95	0xbce161ca	-0.02751245
96	0xbcfb33d6	-0.030664366
97	0x3bd6359b	0.006537152
98	0xbc80e755	-0.015735308
99	0xbbf061d7	-0.007335882
100	0x3cf79cce	0.030226137
101	0x3d388660	0.045050025
102	0x3db4d0ca	0.08828886
103	0x3da87a1d	0.08226416
104	0x3da92a40	0.08260012
105	0x3cd5efd7	0.026115341
106	0x3d5b25d2	0.053502865
107	0x3c90efba	0.017692436
108	0x3d0dda71	0.03463215
109	0xbd51e078	-0.05123946
110	0x3d0116e5	0.031515975
111	0xbc8a21fc	-0.016861908
112	0x3cb060df	0.021530567
113	0x3de15200	0.110019684
114	0xbcb6d7c2	-0.022319678
115	0x3da0e3b1	0.07855929
116	0x3dceca1e	0.100971445
117	0xbd848a26	-0.06471662
118	0x3d8424b4	0.06452313
119	0x3cb1204a	0.021621842
120	0xbd64e651	-0.05588371
121	0x3d21d267	0.039507296
122	0xbc9681de	-0.018372472
123	0x3d35faff	0.04442882
124	0x3d0d8a91	0.034555975
125	0xbccbaaa9	-0.02486165
126	0x3d3ef494	0.046619967
127	0x3d0ec06c	0.034851477
128	0x3d7c5d7a	0.061612584
129	0x3daaf5c9	0.08347661
130	0x3cddb05a	0.02706163
131	0x3d200c9f	0.039074536
132	0x3e2eea15	0.17081483
133	0x3de41513	0.11136832
134	0x3bfdbc4b	0.0077433935
135	0xbd9d404c	-0.07678279
136	0xbe30b556	-0.17256674
137	0xbe126bc5	-0.14298923
138	0xbd019d59	-0.0316442
139	0xbd897f5c	-0.06713745
140	0xbc79687a	-0.015222663
141	0xbd17774b	-0.036979
142	0xbb6cadc7	-0.0036114322
143	0x3b44d7cb	0.003003585
144	0xbd7fbaad	-0.062433887
145	0x3b6504a4	0.0034945393
146	0xbd064a1a	-0.032785513
147	0xbcddf723	-0.027095383
148	0x3d13f08a	0.036118068
149	0x3cae1d53	0.021254217
150	0xbd09851e	-0.033574216
151	0x3d4165d7	0.047216263
152	0x3c4e6844	0.012598101
153	0xbde4b04f	-0.11166441
154	0xbde3ff49	-0.11132676
155	0xbdb596fa	-0.08866687
156	0xbd978b96	-0.07399671
157	0xbd047d74	-0.032346204
158	0xbd987c88	-0.074456275
159	0xbe2d771d	-0.1693997
160	0xbe1e01f0	-0.15430427
161	0xbdf97bb6	-0.12181799
162	0xbddf6432	-0.109077826
163	0x3bd3146b	0.006441643
164	0xbd28a79c	-0.04117547
165	0xbc30e12e	-0.0107958745
166	0xbc00f6d4	-0.007871348
167	0xbda8a37d	-0.08234308
168	0xbd06fd38	-0.032956332
169	0xbba0f462	-0.004911945
170	0xbda817ca	-0.082076624
171	0xbdef62b1	-0.11688746
172	0xba4169b5	-0.00073781173
173	0xbda24181	-0.0792265
174	0xbd3596fc	-0.044333443
175	0x3bce64de	0.0062986454
176	0xbdb1f00c	-0.086883634
177	0x3b50f888	0.0031886417
178	0x3bcb5052	0.0062046433
179	0xbcedcd86	-0.029028665
180	0xbd95fae4	-0.07323244
181	0xbd59755e	-0.053090446
182	0x3d65783c	0.056022868
183	0xbd8c5d31	-0.06853712
184	0xbd4ed5d8	-0.050496906
185	0x3cf1f6a6	0.029536556
186	0xbda68247	-0.08130317
187	0x3cf4656c	0.029833518
188	0x3d8e9b5c	0.06963226
189	0x3d5a11ea	0.05323974
190	0x3d14337c	0.03618191
191	0xbc8b9c61	-0.01704234
192	0x3ddff6e2	0.10935761
193	0x3d0a8046	0.033813737
194	0xbd4014ad	-0.046894718
195	0x3d88405c	0.066529006
196	0x3d58bd77	0.052915063
197	0xbd350978	-0.044198483
198	0x3d89f788	0.06736666
199	0xbdb07e57	-0.086178474
200	0x3c808ae6	0.015691232
201	0xbbe9a9a7	-0.00713082
202	0x3cd04aa6	0.02542622
203	0x3d839cfe	0.06426428
204	0x3ce1f07c	0.027580492
205	0x3d3ff630	0.046865642
206	0x3d12ea65	0.035868067
207	0x3d833d1f	0.06408142
208	0x3dc55428	0.09635192
209	0x3e7d0c87	0.2471181
210	0xba59db8d	-0.00083106087
211	0xbd2b840a	-0.04187397
212	0x3bbb5f35	0.0057181367
213	0x3d081546	0.033223413
214	0x3d980471	0.07422722
215	0x3d7f4628	0.062322766
216	0xbd0919c4	-0.033471838
217	0xbce18f11	-0.02753404
218	0x3c9cb888	0.01913096
219	0x3d66b788	0.056327373
220	0x3defeb32	0.11714782
221	0x3de63ac5	0.11241678
222	0xbd8376db	-0.06419154
223	0x3ca6a8ad	0.020344103
224	0x3cda4e9c	0.026648812
225	0x3b757fe4	0.0037460262
226	0xbd83235a	-0.06403227
227	0xbd9ad4bc	-0.07560107
228	0xbe1d3561	-0.15352394
229	0xbd077eaf	-0.0330798
230	0xbd458f95	-0.048232634
231	0x3db9093e	0.09034966
232	0x3debd9b2	0.115161315
233	0xbdd27319	-0.102758594
234	0xbd92d850	-0.071701646
235	0x3cc3c7e0	0.023899019
236	0x3d47aca7	0.04874864
237	0xbddf2a57	-0.108967476
238	0xbcf22d0b	-0.029562494
239	0xbcc6b4d7	-0.024256153
240	0xbd9ef705	-0.07761959
241	0x3c8b3ba8	0.01699622
242	0x3ce0f240	0.027459264
243	0x3d83a541	0.06428004
244	0x3d8eabc0	0.069663525
245	0x3c8a3eac	0.016875587
246	0x3d8b72bb	0.068089925
247	0x3c2ff35a	0.010739172
248	0xbcffe5bb	-0.031237474
249	0x3d413811	0.04717261
250	0x3c17946d	0.009251696
251	0xbde19b0f	-0.11015903
252	0xbc85a77e	-0.016315218
253	0xbd160613	-0.036626887
254	0x3c664b22	0.014055999
255	0x3d151c1c	0.03640376

conv.10.weight f4 [64]
0	0x3fafb2da	1.3726456
1	0x3fa60820	1.297123
2	0x3faafcf6	1.3358448
3	0x3fa07660	1.2536125
4	0x3fa68256	1.3008525
5	0x3fa1bbc1	1.2635423
6	0x3fb2f709	1.3981639
7	0x3fa68e6a	1.3012211
8	0x3fad6e47	1.3549279
9	0x3fa8f6b6	1.320029
10	0x3fa3b031	1.2788144
11	0x3fa5dff6	1.2958972
12	0x3fa0623c	1.2529979
13	0x3fa41438	1.281867
14	0x3fb4c171	1.4121534
15	0x3fa724a8	1.3058062
16	0x3fa69965	1.3015562
17	0x3fab9f9b	1.3408083
18	0x3f9f8605	1.2462775
19	0x3fa4699b	1.2844728
20	0x3fa4bd54	1.2870278
21	0x3f9f1cff	1.2430724
22	0x3f9ec6c3	1.2404407
23	0x3fa1edbf	1.2650679
24	0x3fa5264d	1.2902313
25	0x3fbccb7c	1.4749599
26	0x3f9e5da0	1.2372322
27	0x3fa35451	1.2760106
28	0x3fadae68	1.356885
29	0x3fa601a9	1.2969257
30	0x3f9fb434	1.2476869
31	0x3fa49f82	1.2861178
32	0x3f9eafaf	1.2397364
33	0x3fb8a612	1.4425681
34	0x3fa6fb7f	1.30455
35	0x3fa91da1	1.3212167
36	0x3fa7abea	1.3099339
37	0x3fa3dc0f	1.2801532
38	0x3fb14b21	1.3851053
39	0x3fa544b7	1.2911595
40	0x3f9f96f4	1.2467942
41	0x3fa691ee	1.3013284
42	0x3fa43c5a	1.2830918
43	0x3fa13e92	1.259722
44	0x3fa45853	1.2839454
45	0x3f9a3f85	1.2050635
46	0x3fa24c62	1.267956
47	0x3faf2362	1.3682673
48	0x3fa4e333	1.2881836
49	0x3f9d67b5	1.2297274
50	0x3faebdaf	1.3651637
51	0x3fa51351	1.289652
52	0x3f9e9bad	1.2391258
53	0x3fa4b8bf	1.286888
54	0x3fa7f7b5	1.3122469
55	0x3fa019d0	1.2507877
56	0x3f9b4e96	1.2133358
57	0x3f9a5e9c	1.2060122
58	0x3f9c9132	1.223181
59	0x3faa3d3b	1.3299936
60	0x3faa361c	1.3297763
61	0x3fac8ea2	1.3481028
62	0x3fa43247	1.2827843
63	0x3fa1fade	1.2654684

conv.10.bias f4 [64]
0	0x3d3ad9aa	0.045617737
1	0xbd7144ab	-0.058903378
2	0xbd6ff4dc	-0.058583125
3	0xbdb0d80b	-0.08634957
4	0xbd4f13f8	-0.050556153
5	0x38af3981	8.355361e-05
6	0x3ad5bb81	0.0016306491
7	0xbd9cc346	-0.07654433
8	0xbc0c2a40	-0.008554995
9	0xbc5415c2	-0.012944641
10	0xbdc8acbf	-0.09798574
11	0xbd31f88c	-0.043449923
12	0xbdfbadb5	-0.12288991
13	0xbd8d3117	-0.06894129
14	0x3ba1c6d6	0.004937033
15	0xbd662055	-0.056183178
16	0xbd7a66f6	-0.061133347
17	0xbc99a20c	-0.018754028
18	0xbdb1ed2f	-0.08687817
19	0xbdaa59c1	-0.083179004
20	0xbd0f9812	-0.035057135
21	0xbd398820	-0.045295835
22	0xbd8bd0e8	-0.06826955
23	0xbcbae52e	-0.02281436
24	0xbda5a46f	-0.08088004
25	0x3d2a8c76	0.04163786
26	0xbdf16262	-0.11786343
27	0xbd676db3	-0.0565011
28	0xbc990494	-0.01867894
29	0xbd8240f2	-0.063600436
30	0xbc3d9f70	-0.011573657
31	0xbd9cbd2d	-0.0765327
32	0xbd9520e7	-0.07281666
33	0xbd08f730	-0.03343886
34	0xbd763da3	-0.060117375
35	0xbd5c0d6c	-0.053723738
36	0xbd3839e3	-0.04497708
37	0x3cdce155	0.026962915
38	0x3b3da9f4	0.0028940411
39	0xbd9b25c1	-0.0757556
40	0xbd995200	-0.074863434
41	0xbd635638	-0.055502146
42	0xbd8c57ee	-0.06852709
43	0xbd641906	-0.055687927
44	0xbd94e5d7	-0.07270401
45	0xbcbe2a85	-0.023213634
46	0xbdb38d62	-0.08767201
47	0xbbc85e4f	-0.006114758
48	0xbd00d8ae	-0.03145664
49	0xbd4ec16f	-0.05047744
50	0xbd3acb8e	-0.04560428
51	0xbd9466c4	-0.072461635
52	0xbdaba81c	-0.08381674
53	0xbb77c184	-0.0037804553
54	0xbdaf2cea	-0.085534886
55	0xbd0c02ce	-0.034182362
56	0xbdb1320e	-0.08652125
57	0xbce2f0e7	-0.027702762
58	0xbd98c5d3	-0.07459607
59	0xbdb03920	-0.08604646
60	0xbd8cb2da	-0.06870051
61	0xbc2aea0f	-0.0104317805
62	0x3bb69287	0.0055716666
63	0xbdd0c33b	-0.10193487
