models/rym_grid_c1_s64_e2_t4_r4/cnn_c1_g2_a0_l0_lr1e-03.pt (torch, 607599 bytes, 23 tensors)

conv.0.weight f4 [64, 64, 3, 3]
-0.097280346 -2.3989186 -0.813389 -1.8692024 -3.2266386 0.27648813 -0.6417848 -2.5742245
0.19393215 1.2753636 -0.7514407 -1.173291 0.3034134 -1.0898504 -0.41144484 0.32669
1.2926563 1.3587304 -3.9236944 0.07090889 0.22425166 0.41762406 -3.5773005 -2.8020432
2.1606598 0.20185636 0.38387635 0.48945752 1.2566565 -1.5567508 -0.08087221 -1.7381428
-2.6945453 0.34579372 0.32248396 1.026729 -3.008957 0.19098902 -0.35877547 -1.9484068
1.2973474 -2.748762 3.6896687 2.1451268 1.0902662 0.0720208 1.1332846 0.93654215
0.4329567 0.3611186 0.08735721 -1.554629 -1.9804472 0.4054431 -1.2756138 2.814652
-0.33966708 0.035424568 -2.8296483 -1.7750448 0.11763937 1.7435658 1.0196731 -0.47426265
-1.228638 -0.9078604 -1.2240613 -0.3909048 -0.19295608 2.9410346 2.199852 2.865466
-1.1208622 -1.1161661 0.9132614 -0.6059141 -2.8449616 -1.4574183 -0.70119613 -0.6248849
2.1097178 -0.3691026 -0.3207282 -1.1219378 -0.42154968 -2.810581 -1.1996118 1.2797167
-0.03992993 0.9345504 -1.6591544 -1.1647818 -3.2307477 -0.9260087 -2.1550388 -0.2392765
1.7514844 -0.024634736 1.153779 -1.5417966 -2.0647764 -1.3007212 0.30189535 -1.6217177
0.11715185 0.99559766 1.8322275 1.9316987 -1.032206 0.16259181 -1.1749043 -1.0609053
0.94557357 0.27364278 -0.9754634 -0.15028948 0.07154539 -0.12824139 -0.7900205 -0.106021486
0.7972913 0.26219925 0.3535365 -0.031647827 -0.74403673 -0.17828576 -1.1957982 1.6901426
-0.20120129 0.54589635 -1.0461198 -0.9061007 0.9599889 -0.9426903 -0.23035203 -0.16836886
-0.3952128 1.1040977 0.008348074 -0.19172038 -0.1342827 -0.167645 0.47556227 -0.122629724
-0.39277002 -0.24273698 -0.09883407 -0.31857318 -0.57974017 -0.51203525 0.47242886 -0.4533567
0.25058094 -0.0042736004 0.13821541 0.2375613 -0.33248696 0.09858956 -0.07055598 0.15510732
-0.22818919 -0.64282453 -0.813508 -0.791908 -0.37367392 -1.5561647 0.5007795 0.67299676
0.7720679 0.9609875 0.8143901 -0.1070481 0.13492486 0.5709905 0.5313489 -0.38860768
0.35376137 1.2835557 0.60827065 0.028427245 -1.0948008 -0.15209988 -0.44725412 0.5725767
0.3540494 -0.2642536 -0.7387933 0.16720581 -1.6416551 -0.67904484 0.088463336 0.55885667
0.15770419 0.3462381 -0.023965523 -0.46697372 0.3026249 -0.044246964 -0.093021885 -0.19414432
-0.022780284 0.02620593 0.48700422 0.117781274 0.64986485 0.5641304 -0.2594894 -0.79187953
-0.815892 -0.7187298 0.63447857 1.3847835 0.44550365 0.4501838 0.36125973 0.77612007
-0.98571813 0.16077438 -1.2187239 -1.0873545 0.9366817 0.3140761 -0.9801298 -0.21204929
0.10867523 -0.13020375 -0.7127442 -0.079378724 0.79193324 0.2624546 0.306639 -0.019281084
-0.7361842 -0.22682182 -0.41590962 0.2834926 -0.008113507 1.4225497 0.10108202 -0.20893605
1.0903677 0.52125627 0.049643338 1.2394137 0.15146483 0.50001234 -0.37199637 -0.009134365
-0.22808108 1.114425 0.43839106 0.59721637 -0.3670031 0.2834789 0.16733874 0.0035512033
00000000: eb3a c7bd e287 19c0 433a 50bf 0642 efbf
00000010: 3f81 4ec0 da8f 8d3e 024c 24bf 18c0 24c0
00000020: 2696 463e 1d3f a33f 6b5e 40bf 662e 96bf
00000030: 0059 9b3e 3880 8bbf e6a8 d2be e943 a73e
00000040: c375 a53f e1ea ad3f cf1d 7bc0 ae38 913d
00000050: 3aa2 653e d2d2 d53e 7ef2 64c0 ad54 33c0
00000060: 4048 0a40 6fb3 4e3e 718b c43e 2d9a fa3e
00000070: 1fda a03f 9c43 c7bf 54a0 a5bd 777b debf
00000080: 6e73 2cc0 e00b b13e 9e1c a53e db6b 833f
00000090: c092 40c0 a092 433e 6bb1 b7be 6565 f9bf
000000a0: 7b0f a63f b7eb 2fc0 8823 6c40 c249 0940
000000b0: d88d 8b3f a47f 933d 780f 913f 3ac1 6f3f
000000c0: 80ac dd3e 8ae4 b83e 56e8 b23d 15fe c6bf
000000d0: 4b7f fdbf 3d96 cf3e 5047 a3bf 4223 3440
000000e0: d8e8 adbe 5a19 113d f518 35c0 ab34 e3bf
000000f0: e9ec f03d 2a2d df3f a684 823f 8ed2 f2be
00000100: 0344 9dbf 8a69 68bf 0aae 9cbf ad24 c8be
00000110: 4796 45be e939 3c40 60ca 0c40 cc63 3740
00000120: 6a78 8fbf 88de 8ebf 80cb 693f 301d 1bbf
00000130: da13 36c0 af8c babf 9781 33bf 75f8 1fbf
00000140: 9e05 0740 04fb bcbe 7d36 a4be a89b 8fbf
00000150: 5cd5 d7be 8fe0 33c0 e18c 99bf c2cd a33f
00000160: 918d 23bd b23e 6f3f 2c5f d4bf 9217 95bf
00000170: 92c4 4ec0 e80e 6dbf 28ec 09c0 e604 75be
00000180: a430 e03f c9ce c9bc 08af 933f 9759 c5bf
00000190: 4c25 04c0 087e a6bf 0792 9a3e 7294 cfbf
000001a0: 4fed ef3d 7ddf 7e3f 6e86 ea3f e741 f73f
000001b0: 541f 84bf 787e 263e 4463 96bf bfcb 87bf
000001c0: 1c11 723f e81a 8c3e f8b7 79bf 7ce5 19be
000001d0: 6486 923d b651 03be c93e 4abf cb21 d9bd
000001e0: 481b 4c3f fb3e 863e bc02 b53e 27a1 01bd
000001f0: 3179 3ebf 8b90 36be ea0f 99bf 9856 d83f
00000200: b607 4ebe ddbf 0b3f 41e7 85bf 37f6 67bf
00000210: d5c1 753f 2754 71bf 67e1 6bbe e368 2cbe
00000220: 5559 cabe 1353 8d3f 5cc6 083c 5952 44be
00000230: 6781 09be 22ab 2bbe e67c f33e 4b25 fbbd
00000240: 2719 c9be 0b90 78be 8469 cabd 061c a3be
00000250: da69 14bf be14 03bf 32e2 f13e 5f1e e8be
00000260: 254c 803e 8f09 8cbb 5788 0d3e 4543 733e
00000270: bb3b aabe 53e9 c93d a77f 90bd 74d4 1e3e
00000280: 6daa 69be 2690 24bf 0f42 50bf 7cba 4abf
00000290: 3052 bfbe 6830 c7bf 1633 003f 8449 2c3f
000002a0: 3ea6 453f 4703 763f df7b 503f 093c dbbd
000002b0: be29 0a3e 6f2c 123f 7b06 083f 96f7 c6be
000002c0: 3620 b53e 8e4b a43f a0b7 1b3f 41e0 e83c
000002d0: 6f22 8cbf 12c0 1bbe 7efe e4be 6394 123f
000002e0: f745 b53e 3f4c 87be 8f21 3dbf 0038 2b3e
000002f0: c121 d2bf e2d5 2dbf 442c b53d 3b11 0f3f
00000300: 357d 213e 1f46 b13e 5853 c4bc 2e17 efbe
00000310: a7f1 9a3e 4e3c 35bd 4282 bebd c5cd 46be
00000320: b89d babc d2ad d63c 9e58 f93e 4f37 f13d
00000330: 8b5d 263f da6a 103f cbdb 84be 9eb8 4abf
00000340: 4cde 50bf adfe 37bf 306d 223f 9640 b13f
00000350: 0e19 e43e 7e7e e63e 09f7 b83e ceaf 463f
00000360: 0658 7cbf 0aa2 243e 25ff 9bbf 6f2e 8bbf
00000370: 5fca 6f3f 95ce a03e c9e9 7abf 7323 59be
00000380: 1e91 de3d 2254 05be 6776 36bf 5091 a2bd
00000390: 23bc 4a3f 7360 863e c9ff 9c3e 5df3 9dbc
000003a0: 9176 3cbf fb43 68be 1bf2 d4be f125 913e
000003b0: 84ee 04bc 1c16 b63f 1704 cf3d 55f3 55be
000003c0: 2b91 8b3f 0d71 053f d056 4b3d 1ca5 9e3f
000003d0: 9919 1b3e cf00 003f 4f76 bebe 4ea8 15bc
000003e0: 168e 69be 7aa5 8e3f cb74 e03e 2ce3 183f
000003f0: d5e7 bbbe 2524 913e d95a 2b3e 4ebb 683b

conv.1.weight f4 [64]
0.9077998 0.90326136 1.3363594 1.029159 1.6959609 1.351163 0.8793046 2.4596627
1.2684357 0.9218601 1.352879 0.8940018 1.5650241 1.1187295 1.5860051 1.2891577
1.0782056 1.2538068 1.9313426 1.063501 1.0853958 1.2348734 1.7025486 0.74342275
1.3202822 1.0487691 0.974524 0.801976 0.9874821 0.8686737 1.0739689 0.85240513
0.9084856 1.0600506 1.5277452 1.7826004 0.8024677 1.3743138 0.96705854 0.98641795
1.0341806 1.0907975 0.8748863 1.0334256 0.9229081 0.57972676 1.1506344 1.594032
1.2687411 0.8680279 1.0915843 0.8680163 1.6000687 1.2123158 1.145821 1.2952797
1.1365937 1.3372694 0.997365 1.5554677 1.0773995 1.4664034 1.3260795 1.394265
00000000: 9165 683f 233c 673f d30d ab3f 7bbb 833f
00000010: 3f15 d93f e9f2 ac3f 1b1a 613f 1d6b 1d40
00000020: 1a5c a23f 06ff 6b3f 242b ad3f 4ddd 643f
00000030: b652 c83f 8732 8f3f 3702 cb3f 1f03 a53f
00000040: a402 8a3f be7c a03f 3c36 f73f cd20 883f
00000050: 40ee 8a3f 5510 9e3f 1ded d93f f450 3e3f
00000060: 02ff a83f 113e 863f 687a 793f 4d4e 4d3f
00000070: a0cb 7c3f 6661 5e3f d077 893f 3937 5a3f
00000080: 8392 683f bdaf 873f 288d c33f 402c e43f
00000090: 866e 4d3f 84e9 af3f 2691 773f e385 7c3f
000000a0: 0860 843f 419f 8b3f 8cf8 5f3f 4a47 843f
000000b0: b543 6c3f f968 143f fd47 933f 3e09 cc3f
000000c0: 1c66 a23f 1437 5e3f 09b9 8b3f 5136 5e3f
000000d0: 0dcf cc3f 2a2d 9b3f 43aa 923f bacb a53f
000000e0: e77b 913f a52b ab3f 5053 7f3f 9119 c73f
000000f0: 3ae8 893f 1bb3 bb3f f9bc a93f 4777 b23f

conv.1.bias f4 [64]
-0.36209887 -0.13397682 -0.27531606 -0.45616385 0.18770713 -0.4514601 0.53464025 -2.2002356
-0.1469343 0.17127852 0.10506672 -0.22765186 -1.2118502 -0.14137606 -1.4754114 0.77233654
0.05156404 -0.65034807 -1.7174964 0.25266585 -0.655968 -0.14628123 -0.21565513 0.27319902
-0.56839645 -0.518894 -0.3077179 0.082826726 -0.22550564 0.035290685 -0.15987144 -0.03291695
-0.1702212 -0.18435113 -1.0076334 -0.57529867 0.011698099 -0.33263278 -0.17736997 0.23606639
-0.4093429 -0.15963939 -0.14277185 -0.23834187 0.11062304 0.5224791 -0.27888072 -0.72691184
-0.55414164 0.10819039 -0.0027138537 0.06076601 -0.62317836 -0.82175326 -0.3602415 -0.4335982
-0.26021746 -0.24851952 0.16438285 -1.3158687 -0.27108884 -0.0071381303 -0.22522496 -0.65198594
00000000: 0665 b9be 3831 09be 3af6 8cbe 4f8e e9be
00000010: 4c36 403e c725 e7be 2fde 083f a9d0 0cc0
00000020: f275 16be a363 2f3e 382d d73d 921d 69be
00000030: e81d 9bbf e3c4 10be 48da bcbf d9b7 453f
00000040: d134 533d 367d 26bf ecd6 dbbf 6b5d 813e
00000050: 85ed 27bf bfca 15be b3d4 5cbe bee0 8b3e
00000060: 6e82 11bf 3dd6 04bf 338d 9dbe 0fa1 a93d
00000070: f3ea 66be f78c 103d 57b5 23be ecd3 06bd
00000080: 774e 2ebe 8bc6 3cbe 22fa 80bf c646 13bf
00000090: 62a9 3f3c d84e aabe 79a0 35be 63bb 713e
000000a0: 6595 d1be 8278 23be c932 12be e40f 74be
000000b0: 558e e23d 31c1 053f 74c9 8ebe e516 3abf
000000c0: 3adc 0dbf ec92 dd3d e9da 31bb c8e5 783d
000000d0: 9e88 1fbf 6c5e 52bf 9371 b8be 9500 debe
000000e0: 393b 85be e77b 7ebe fa53 283e 636e a8bf
000000f0: 28cc 8abe fae6 e9bb 5fa1 66be 8de8 26bf

conv.1.running_mean f4 [64]
-6.707781 -3.5712597 -12.302559 -0.5573997 -12.563726 -9.415284 -6.877515 -0.956273
-1.4324464 -3.3281076 -9.264483 2.356314 -2.0928175 -9.596479 -5.234112 -3.4449227
-3.336986 -5.5209165 -1.4263132 -0.6368381 1.0947312 -8.30677 -14.128947 -2.2742903
-7.684607 -5.3286934 1.2191038 0.016145047 -7.0806007 4.063101 3.4002538 3.7485545
-1.1037167 -4.1262665 -5.406817 -13.503128 4.2006764 -8.329258 -7.888607 -5.9816036
-7.182019 -9.036628 5.6963377 -7.0206857 -5.104712 -3.9249024 -5.785959 -6.00678
-1.7025793 3.9652553 -4.7399454 -3.7479928 -4.111169 -5.7867055 -2.8623831 -5.235496
-9.980249 3.438778 -4.641653 2.9837666 1.5677472 -11.759258 -1.5584998 -2.7341697
00000000: 24a6 d6c0 858f 64c0 48d7 44c1 bfb1 0ebf
00000010: 0605 49c1 01a5 16c1 9a14 dcc0 4fce 74bf
00000020: 675a b7bf b7ff 54c0 533b 14c1 d9cd 1640
00000030: b9f0 05c0 2e8b 19c1 d87d a7c0 9d79 5cc0
00000040: 2e91 55c0 59ab b0c0 6e91 b6bf d207 23bf
00000050: 2720 8c3f 88e8 04c1 2b10 62c1 f98d 11c0
00000060: 4de8 f5c0 a884 aac0 980b 9c3f 9e42 843c
00000070: 4894 e2c0 ec04 8240 c29d 5940 51e8 6f40
00000080: 9746 8dbf 600a 84c0 a504 adc0 d00c 58c1
00000090: f16b 8640 a444 05c1 786f fcc0 4c69 bfc0
000000a0: 1ad3 e5c0 0796 10c1 6648 b640 75a9 e0c0
000000b0: cd59 a3c0 9a31 7bc0 9326 b9c0 8b37 c0c0
000000c0: 1eee d9bf bec6 7d40 a2ad 97c0 1ddf 6fc0
000000d0: b28e 83c0 b12c b9c0 4931 37c0 2f89 a7c0
000000e0: 1aaf 1fc1 f014 5c40 6c88 94c0 08f6 3e40
000000f0: f1ab c83f ec25 3cc1 ec7c c7bf a3fc 2ec0

conv.1.running_var f4 [64]
31.139502 35.345837 71.994705 32.316467 49.185764 25.817469 40.57197 26.111578
48.774563 37.851887 46.03799 31.638296 26.294287 35.91893 33.234478 21.078075
82.47477 31.425793 21.175186 32.11541 30.01517 46.292416 50.24417 23.086657
61.63539 37.806854 25.226734 28.150229 21.421225 23.210466 46.16238 39.379963
28.28037 27.437794 25.798231 25.788805 28.099113 28.844936 34.89984 31.760874
32.352524 29.740833 30.027105 27.180412 27.397604 23.032253 99.82251 20.5037
46.505894 24.602306 81.63881 33.655643 41.68655 32.231125 22.820011 33.87207
32.316525 69.14099 25.38152 24.90747 24.116537 40.31567 31.127573 34.25404
00000000: b31d f941 2362 0d42 4afd 8f42 1044 0142
00000010: 39be 4442 2d8a ce41 b349 2242 83e4 d041
00000020: 2719 4342 5568 1742 e726 3842 3b1b fd41
00000030: b35a d241 fcac 0f42 1bf0 0442 e69f a841
00000040: 15f3 a442 0668 fb41 c866 a941 2e76 0042
00000050: 111f f041 6f2b 3942 08fa 4842 79b1 b841
00000060: a48a 7642 383a 1742 5ad0 c941 ab33 e141
00000070: ab5e ab41 09af b941 47a6 3842 1585 1d42
00000080: 333e e241 9a80 db41 c762 ce41 794f ce41
00000090: fcca e041 6ec2 e641 7099 0b42 4516 fe41
000000a0: fc68 0142 3aed ed41 8337 f041 7c71 d941
000000b0: 4b2e db41 0e42 b841 20a5 c742 9407 a441
000000c0: 0906 3a42 86d1 c441 1247 a342 619f 0642
000000d0: 07bf 2642 acec 0042 628f b641 007d 0742
000000e0: 1f44 0142 3048 8a42 5a0d cb41 8042 c741
000000f0: abee c041 3f43 2142 4505 f941 2304 0942

conv.3.weight f4 [64, 64, 3, 3]
0.5235708 0.674851 1.3745496 -1.2548597 0.2499148 -0.39536044 1.6711718 0.17746912
0.55873835 -0.35259452 0.24207497 -1.1176492 -0.8473777 -0.2597599 -0.7552377 -1.0607566
0.5367889 -0.029662348 0.62154764 0.7509597 0.24797003 0.61206466 0.58633673 0.06275621
0.8700388 0.16706808 0.41459325 1.0403737 -0.47868425 -0.064705715 0.5724051 0.3870316
0.7606648 0.21739103 -0.7508582 1.0720395 -0.11343825 -1.3069855 1.3130581 -0.30656502
-0.47022137 0.3511666 -0.029659232 -0.29783577 -0.6095264 0.9775511 0.026909627 1.0552552
0.022447277 -0.101008676 -0.59788525 -0.40274778 -0.3067432 0.1801001 0.5318576 -1.0274212
0.6367299 -0.6855053 0.46588945 -0.76121116 -0.11289561 0.00483907 -0.019946422 0.01979927
0.1898992 -0.037947502 0.24682467 0.688359 -0.08625283 -0.39837053 0.18186499 0.39420557
0.48533654 -0.30880478 0.56535065 -0.606366 -0.08801411 0.73138 0.48163548 -0.13457003
-0.011451989 -0.1628109 -0.5181202 -0.3448937 0.04102668 -0.37307766 0.27243638 0.16675791
-0.8915617 -0.08492093 -1.047413 0.0007228826 1.0146428 0.22881952 0.09091744 0.40942347
0.35478592 -0.50930023 0.23568358 -0.34949794 -0.10986679 -0.20465934 0.56928974 -0.25599357
-1.2493818 -0.059587386 -0.65253013 -0.5826383 -0.61102474 -1.2603546 0.21809164 0.29894832
-0.097018905 -1.8051567 -0.7151197 0.018657185 -0.19541705 0.777222 -0.9066336 1.195842
0.28676468 0.49905843 -0.26398566 0.38931426 0.30190694 -0.16782364 -0.39609277 0.94231904
-1.2854445 -0.71798104 -0.35583133 0.5480873 0.93083954 0.6351824 0.60012454 0.027090374
0.6620792 0.22357963 0.74742234 0.068933696 -1.9727765 -0.6697132 -0.22278759 -0.577671
-0.5365577 1.0421195 -1.0492464 -0.8942426 -0.34391037 1.3684527 0.32060874 0.49354348
-0.08108808 0.7154325 -0.051690366 -0.086726144 -0.8956768 -0.070442595 -0.24580897 0.12027748
0.21190716 -0.7964141 -0.3426185 -0.787893 -0.2885978 0.31481218 -0.7404039 0.98161644
0.5659929 0.25424537 0.011241967 -0.7670597 -0.3240157 -0.052267227 -0.8122454 0.60298
0.2338727 -0.32583517 0.55867165 -0.7096719 -0.4948707 -0.3171225 -0.28880224 -0.9860122
0.5877295 -0.8236335 -0.7258093 -0.24229635 -0.4106303 1.247656 -0.33109868 -1.0042484
-0.11865681 -0.076230966 -0.46123892 -0.5814349 -0.31950855 0.12754329 0.47386152 0.9033737
0.5898936 -0.91016865 -0.20063753 0.12723963 -1.0109726 -1.3581586 -0.4668334 -0.70589834
-0.20082055 0.17628098 -0.80757046 -0.72885805 0.14281577 -0.023556164 -0.7121976 0.083188586
-1.4384899 -0.6444221 -0.7321978 -1.1934841 -0.6965956 -1.6973454 -0.68695086 -0.7651611
-0.88794416 0.5093795 0.8703945 0.24064316 -0.30393335 -0.14791197 0.74321145 0.5949785
0.2560797 -0.2167167 -0.045568947 0.2393377 1.2215232 -0.010451591 0.14032069 0.46268272
0.61552536 -0.18183893 1.1058964 0.23680435 1.0649583 -0.19630809 0.30190274 -0.4762122
-0.57246864 -0.002980688 -0.50130576 -0.11442224 0.5435716 -0.20266104 -1.2567128 0.13630249
00000000: bc08 063f 09c3 2c3f 3ef1 af3f 3e9f a0bf
00000010: aae9 7f3e af6c cabe f5e8 d53f 77ba 353e
00000020: 7a09 0f3f 4587 b4be 80e2 773e 210f 8fbf
00000030: bfed 58bf 40ff 84be 4257 41bf dfc6 87bf
00000040: ff6a 093f 74fe f2bc bf1d 1f3f e53e 403f
00000050: dbeb 7d3e 45b0 1c3f 2a1a 163f 5486 803d
00000060: ddba 5e3f e513 2b3e 9145 d43e f72a 853f
00000070: 1a16 f5be 6e84 84bd 2489 123f 0229 c63e
00000080: eeba 423f c19b 5e3e 3e38 40bf 9738 893f
00000090: 5052 e8bd 4d4b a7bf 4a12 a83f 17f6 9cbe
000000a0: dbc0 f0be 1ccc b33e ebf7 f2bc ee7d 98be
000000b0: ec09 1cbf ca40 7a3f 9471 dc3c 9a12 873f
000000c0: 5ae3 b73c a3dd cebd 020f 19bf f534 cebe
000000d0: 720d 9dbe 296c 383e d227 083f 8a82 83bf
000000e0: bb00 233f 467d 2fbf 1089 ee3e bcde 42bf
000000f0: d035 e7bd 1091 9e3b ae66 a3bc 1432 a23c
00000100: f074 423e d76e 1bbd 9bbf 7c3e 4c38 303f
00000110: 53a5 b0bd 39f7 cbbe d13a 3a3e 50d5 c93e
00000120: 087e f83e a91b 9ebe d2ba 103f cd3a 1bbf
00000130: be40 b4bd b83b 3b3f ed98 f63e bacc 09be
00000140: 20a1 3bbc e7b7 26be 87a3 04bf e895 b0be
00000150: 980b 283d 0904 bfbe c87c 8b3e 96c2 2a3e
00000160: 633d 64bf 06eb adbd a111 86bf d57f 3d3a
00000170: d1df 813f aa4f 6a3e ec32 ba3d f49f d13e
00000180: 80a6 b53e 8061 02bf 0957 713e 65f1 b2be
00000190: d701 e1bd 3892 51be f9bc 113f 9711 83be
000001a0: beeb 9fbf e711 74bd 370c 27bf c927 15bf
000001b0: 1e6c 1cbf 4d53 a1bf 6a53 5f3e c10f 993e
000001c0: d9b1 c6bd 600f e7bf 1612 37bf f4d6 983c
000001d0: 681b 48be 05f8 463f 2419 68bf 5a11 993f
000001e0: d2d2 923e 9684 ff3e 2129 87be 3354 c73e
000001f0: 8c93 9a3e f6d9 2bbe accc cabe d23b 713f
00000200: 7289 a4bf 9bcd 37bf 862f b6be 734f 0c3f
00000210: 804b 6e3f 509b 223f c3a1 193f a2ec dd3c
00000220: 067e 293f 0ff2 643e 1257 3f3f 1c2d 8d3d
00000230: f183 fcbf 5372 2bbf 6e22 64be 3fe2 13bf
00000240: d85b 09bf 2c64 853f b54d 86bf 15ed 64bf
00000250: 0515 b0be 7529 af3f d426 a43e bbb1 fc3e
00000260: 8211 a6bd 9626 373f 47b9 53bd 7a9d b1bd
00000270: 134b 65bf 3544 90bd 59b5 7bbe 0a54 f63d
00000280: 31fe 583e cbe1 4bbf b16b afbe 5bb3 49bf
00000290: 17c3 93be 102f a13e 1c8b 3dbf 374b 7b3f
000002a0: e9e4 103f 732c 823e 3a30 383c 065e 44bf
000002b0: 63e5 a5be 2916 56bd 51ef 4fbf e65c 1a3f
000002c0: 537c 6f3e ded3 a6be 1b05 0f3f 0fad 35bf
000002d0: b15f fdbe e15d a2be e3dd 93be 4c6b 7cbf
000002e0: 7175 163f a5d9 52bf a3ce 39bf 891c 78be
000002f0: 223e d2be 31b3 9f3f c485 a9be 368b 80bf
00000300: 5702 f3bd fb1e 9cbd 8227 ecbe ebd8 14bf
00000310: a096 a3be b59a 023e fa9d f23e 8043 673f
00000320: 4403 173f d000 69bf ed73 4dbe 1b4b 023e
00000330: 8d67 81bf 24d8 adbf ca04 efbe c1b5 34bf
00000340: e7a3 4dbe 0083 343e f0bc 4ebf 7196 3abf
00000350: 4c3e 123e dbf8 c0bc 9552 36bf c75e aa3d
00000360: 7020 b8bf d9f8 24bf 5171 3bbf 16c4 98bf
00000370: 1754 32bf 9d42 d9bf 03dc 2fbf 99e1 43bf
00000380: 4f50 63bf b266 023f 2dd2 5e3f 296b 763e
00000390: 279d 9bbe 3c76 17be 1b43 3e3f 8350 183f
000003a0: e11c 833e fcea 5dbe 81a6 3abd f114 753e
000003b0: df5a 9c3f 263d 2bbc 3ab0 0f3e c0e4 ec3e
000003c0: 1293 1d3f fc33 3abe 038e 8d3f d77c 723e
000003d0: 8e50 883f fd04 49be ff92 9a3e 16d2 f3be
000003e0: 4e8d 12bf a557 43bb 9355 00bf 3556 eabd
000003f0: 8227 0b3f 6086 4fbe f7db a0bf e192 0b3e

conv.4.weight f4 [64]
0.87817556 1.4565164 1.2953305 1.7100495 1.2511834 1.2754418 0.9395964 1.4379175
1.3419803 1.296071 1.0434644 1.5086907 1.1680433 1.3754914 1.2786909 1.0352646
1.4626381 1.2984601 1.0511574 0.92369723 1.1684787 1.1514543 1.2262161 1.1890138
1.1258167 1.058741 1.4614526 1.290477 1.2370125 1.3082428 1.3104521 1.1922911
1.0464001 0.8004206 1.0286887 0.9546998 1.2368954 1.2008277 1.0908557 1.2914772
1.0200229 1.2676994 1.1681842 1.2009505 1.3617034 0.94291186 1.115985 1.0733093
1.2378526 0.889891 1.4528054 1.2508762 0.9580771 1.2860616 1.385587 0.9198329
1.099644 0.7496332 1.3817695 1.1506072 1.1895319 1.0872693 1.3006959 0.99802893
00000000: 1dd0 603f 216f ba3f 64cd a53f e7e2 da3f
00000010: c726 a03f ad41 a33f 6489 703f ae0d b83f
00000020: 03c6 ab3f a8e5 a53f 3e90 853f c71c c13f
00000030: 7182 953f 1a10 b03f 25ac a33f 8d83 843f
00000040: ba37 bb3f f133 a63f 538c 863f 6c77 6c3f
00000050: b690 953f db62 933f a6f4 9c3f 9b31 983f
00000060: c31a 903f d384 873f e110 bb3f 5a2e a53f
00000070: 6d56 9e3f 8074 a73f e5bc a73f ff9c 983f
00000080: 70f0 853f 5de8 4c3f 12ac 833f 3567 743f
00000090: 9752 9e3f b9b4 993f 29a1 8b3f 204f a53f
000000a0: 1c90 823f f943 a23f 0f87 953f bfb8 993f
000000b0: 4c4c ae3f ac62 713f 99d8 8e3f 3362 893f
000000c0: f471 9e3f e6cf 633f 87f5 b93f b61c a03f
000000d0: 8a44 753f ab9d a43f ea5a b13f 2b7a 6b3f
000000e0: 22c1 8c3f f6e7 3f3f d3dd b03f 1947 933f
000000f0: 9542 983f a42b 8b3f 347d a63f d37e 7f3f

conv.4.bias f4 [64]
-0.33572474 -0.9391428 -1.1491741 -0.8836957 -0.7913603 -0.85013723 -0.4248158 -0.8767171
-0.7594805 -0.5788208 -0.46781537 -0.7884727 -0.57544684 -0.64572716 -0.5632537 -0.58080727
-0.67089367 -0.3867746 -0.7162038 -0.0987108 -0.725487 -0.49531153 -0.65301305 -0.72380716
-0.6220257 -0.15957002 -0.84444845 -0.78123605 -0.5438548 -0.84513927 -0.5575927 -0.7443385
-0.3681787 -0.16546789 -0.5392916 -0.4946175 -1.1113871 -0.7240925 -0.59873897 -0.9644587
-0.62065274 -0.75962967 -0.6642993 -0.88311017 -0.9309803 -0.335243 -0.5492801 -0.8371165
-0.311304 -0.3091485 -0.8581289 -0.8221002 0.00965417 -0.6400651 -1.2339543 -0.14413334
-0.5675566 0.192869 -0.5592604 -0.58817095 -0.6434657 -0.34037036 -0.69323796 -0.07272173
00000000: 1de4 abbe aa6b 70bf 2318 93bf e239 62bf
00000010: 9796 4abf 98a2 59bf 7581 d9be 8870 60bf
00000020: 506d 42bf 9a2d 14bf 7f85 efbe 59d9 49bf
00000030: 7c50 13bf 604e 25bf 6531 10bf c9af 14bf
00000040: b0bf 2bbf 5207 c6be 2259 37bf e328 cabd
00000050: 84b9 39bf 7999 fdbe dd2b 27bf 6d4b 39bf
00000060: 143d 1fbf 5366 23be c62d 58bf 16ff 47bf
00000070: 113a 0bbf 0c5b 58bf 65be 0ebf f88c 3ebf
00000080: eb81 bcbe 6a70 29be 040f 0abf 813e fdbe
00000090: ef41 8ebf 205e 39bf f546 19bf c4e6 76bf
000000a0: 19e3 1ebf 1777 42bf 850f 2abf 8213 62bf
000000b0: ba54 6ebf f8a4 abbe 9f9d 0cbf 444d 56bf
000000c0: 3d63 9fbe b648 9ebe 56ae 5bbf 2975 52bf
000000d0: 862c 1e3c 4edb 23bf 37f2 9dbf b197 13be
000000e0: 644b 11bf 737f 453e b12b 0fbf 5f92 16bf
000000f0: 2bba 24bf 0645 aebe 0b78 31bf 21ef 94bd

conv.4.running_mean f4 [64]
-5.46994 -4.7840667 -0.7367903 -17.27591 -6.2210417 -0.8265598 -5.8544273 -7.12744
8.322706 -6.004202 -5.2226768 -14.1410055 -10.327564 10.72928 -8.660798 -1.6252073
-12.638833 -13.280872 -0.8380753 -0.0058912956 3.0150616 -10.089845 -3.980799 -7.4376593
-4.996925 -11.956262 -11.12241 -15.8728895 -7.1255317 -1.2979363 -1.0203526 -1.9107382
3.3058894 -20.837738 4.234726 8.712116 7.506857 -3.7290316 0.35980698 -8.086706
1.0596298 -10.357108 -1.9093542 -1.7586933 -10.643287 8.03934 10.834223 6.3292513
-17.412865 7.3807445 -8.64117 -10.00782 -4.020107 -4.1238503 -12.362222 0.7707411
-11.666097 -1.9689116 -8.528183 -15.592309 -6.656652 -4.351525 -15.084308 -10.054722
00000000: c009 afc0 1317 99c0 4a9e 3cbf 1035 8ac1
00000010: c612 c7c0 6c99 53bf 7857 bbc0 fd13 e4c0
00000020: ce29 0541 6c22 c0c0 2b20 a7c0 8f41 62c1
00000030: b43d 25c1 22ab 2b41 a192 0ac1 cb06 d0bf
00000040: a938 4ac1 747e 54c1 1a8c 56bf c50b c1bb
00000050: c5f6 4040 0170 21c1 69c5 7ec0 4e01 eec0
00000060: cfe6 9fc0 d94c 3fc1 64f5 31c1 5bf7 7dc1
00000070: 5b04 e4c0 c722 a6bf ea9a 82bf 1293 f4bf
00000080: b193 5340 b0b3 a6c1 e082 8740 d464 0b41
00000090: 2c38 f040 74a8 6ec0 9f38 b83e 2663 01c1
000000a0: f3a1 873f b7b6 25c1 b865 f4bf dd1c e1bf
000000b0: e74a 2ac1 23a1 0041 fa58 2d41 3a89 ca40
000000c0: 8c4d 8bc1 0f2f ec40 3b42 0ac1 0820 20c1
000000d0: b7a4 80c0 95f6 83c0 a9cb 45c1 4a4f 453f
000000e0: 55a8 3ac1 4c05 fcbf 7073 08c1 197a 79c1
000000f0: 4b03 d5c0 b13f 8bc0 5359 71c1 24e0 20c1

conv.4.running_var f4 [64]
123.407005 173.96127 178.6031 218.72057 146.42361 142.22621 129.97095 125.140495
176.58382 155.92876 137.18257 180.15363 120.923134 216.39357 148.25943 171.99829
170.2035 187.2134 144.65805 177.79683 134.4227 129.05516 153.4074 138.0538
118.30928 170.51317 168.36905 148.31921 171.00842 155.33736 184.73508 136.64206
132.58633 153.29083 139.37488 165.96469 165.50757 137.64905 131.01599 146.1793
141.04265 168.00133 132.28656 135.13751 134.92545 178.44241 141.49774 147.5543
146.79697 84.66533 153.58862 145.98044 141.74504 151.16582 145.86974 142.06512
135.17705 99.32145 175.40045 163.8224 166.71513 162.91483 202.63615 154.0601
00000000: 63d0 f642 16f6 2d43 659a 3243 77b8 5a43
00000010: 726c 1243 e939 0e43 90f8 0143 ef47 fa42
00000020: 7595 3043 c3ed 1b43 bd2e 0943 5427 3443
00000030: a5d8 f142 c164 5843 6a42 1443 90ff 2b43
00000040: 1934 2a43 a136 3b43 76a8 1043 fdcb 3143
00000050: 366c 0643 1f0e 0143 4b68 1943 c60d 0a43
00000060: 5a9e ec42 5f83 2a43 7a5e 2843 b851 1443
00000070: 2802 2b43 5d56 1b43 2ebc 3843 5ea4 0843
00000080: 1a96 0443 744a 1943 f85f 0b43 f6f6 2543
00000090: f081 2543 28a6 0943 1804 0343 e72d 1243
000000a0: eb0a 0d43 5700 2843 5c49 0443 3423 0743
000000b0: eaec 0643 4271 3243 6c7f 0d43 e78d 1343
000000c0: 06cc 1243 a654 a942 b096 1943 fefa 1143
000000d0: bbbe 0d43 732a 1743 a7de 1143 ac10 0e43
000000e0: 532d 0743 95a4 c642 8466 2f43 89d2 2343
000000f0: 13b7 2643 32ea 2243 dba2 4a43 630f 1a43

conv.6.weight f4 [64, 64, 3, 3]
-1.7515213 -0.47649685 0.4204924 -0.23915066 -0.74879503 0.33434626 -0.5496499 -0.40521738
0.35071996 -1.4347324 0.56438327 -0.58344346 0.10357302 -0.6354341 0.7511503 0.40962952
-1.3006809 -0.48745978 -0.3538305 0.576498 -0.7379054 -0.68896854 0.13168417 0.68567
1.4641222 0.3432324 0.07358419 0.41608897 0.5566338 0.25784594 -0.404398 -0.02769625
0.49729848 0.7428727 0.064682506 0.81729704 0.10433937 0.5453139 0.4438548 -0.48712403
-0.93489826 0.5582664 0.00023039743 -0.22866873 0.9541133 -0.5933333 0.14089902 -0.29630172
0.38061127 -0.5791 0.19839208 0.23288347 -0.8534843 0.16541062 -1.5432708 -0.28423944
-0.571812 -1.1843411 0.43836638 1.5372344 -1.1532693 1.1721895 -1.0779868 0.1721243
-0.093889475 -0.89892167 1.0592877 0.37601617 0.1822615 -0.406277 1.5442358 0.05945829
0.14251043 -1.3680384 0.8760238 0.4255503 0.28135324 -0.30255002 0.95651203 -0.35346663
1.1126193 1.4845258 0.73239654 -0.92940897 0.032836717 -0.033748385 -0.21111894 0.5163273
0.1758733 -0.5937784 0.011512348 -1.4250251 0.27188718 1.351396 1.1846828 -0.49829426
0.39419022 0.17081133 -0.48891994 -0.36253956 -0.19102883 1.9883206 0.31614372 -0.39075112
0.14531206 -1.4545475 0.29740518 0.35541898 0.9741079 0.6048281 -0.2988366 -0.29211718
0.7232543 0.6629612 0.41731572 0.0018970439 -0.12046065 0.7346059 -0.9388209 0.115479454
0.75102746 -0.14210068 -0.8322254 0.43296176 -0.56413186 0.7272632 0.2767339 -0.3578355
-0.26317072 -0.23583052 0.18447047 0.13690695 0.53606635 0.16491425 -0.8120959 -0.11403758
-0.29861185 -0.056188643 0.049279712 0.94986886 1.1756333 -0.45829964 0.24856493 0.4426533
-0.63943374 -0.40179682 -0.30794847 1.1641039 0.7382885 -0.20253098 -1.2261229 -0.5310485
-0.44542825 -0.55191284 0.21051973 0.4322777 -0.2126446 -0.3407981 -0.51086825 0.21049455
0.15607297 -0.11956723 -0.9476592 -1.0605226 -0.39308846 1.3249222 0.4288505 -1.7004615
0.29310825 0.09886722 0.28252745 -0.4955539 0.66649646 0.03181508 -0.6493159 -0.28639564
0.5552935 0.7435571 0.4829314 -0.3713372 0.31826714 -0.033129085 -0.398372 -1.0805758
-0.033131815 0.718323 -0.9441298 -0.4827508 0.12328835 -0.16893163 -0.78361297 0.9369904
-0.092005424 0.90381956 0.031701732 -0.7918765 1.4333342 -0.38836935 -0.19789648 -0.47726062
1.0198798 -0.1534874 -0.78312343 -0.94708055 -0.4344714 0.5829034 -0.49168822 0.62517846
-0.08878054 -0.19649617 0.5522115 0.39324692 0.1950956 -0.34652448 -0.52376205 -0.7166668
0.5083727 -0.09093462 0.15946369 0.061655868 0.26467517 -0.9294077 -0.48597503 -0.5366029
-0.12344294 -0.468312 0.8376549 -0.23890956 -0.36969095 -0.28274208 -0.117455445 -0.11608217
0.1455276 -0.3640753 0.4526922 0.07426131 -1.1982281 0.17933653 -0.05620267 0.33636686
-0.9043054 0.9723435 0.5397989 -0.52638155 0.19357747 1.1655874 0.75288785 -0.048357673
0.25805512 -0.6919416 0.47839493 0.33802888 0.7584284 -0.012111953 0.8291605 -0.07169118
00000000: da31 e0bf 65f7 f3be c84a d73e e9e3 74be
00000010: 08b1 3fbf 6f2f ab3e dbb5 0cbf a778 cfbe
00000020: 9191 b33e 50a5 b7bf 6c7b 103f 8d5c 15bf
00000030: 171e d43d cfab 22bf 634b 403f f6ba d13e
00000040: b67c a6bf 5494 f9be 4529 b5be 5f95 133f
00000050: 5ee7 3cbf 3e60 30bf 37d8 063e 1288 2f3f
00000060: 5b68 bb3f 28bc af3e 4fb3 963d 9d09 d53e
00000070: 8d7f 0e3f 6204 843e 410d cfbe 3fe3 e2bc
00000080: e89d fe3e e82c 3e3f 4378 843d 613a 513f
00000090: e1af d53d b199 0b3f f040 e33e 5268 f9be
000000a0: 7e55 6fbf 8cea 0e3f d796 7139 2328 6abe
000000b0: c540 743f b1e4 17bf d547 103e dcb4 97be
000000c0: 7bdf c23e e63f 14bf 4b27 4b3e 0179 6e3e
000000d0: f27d 5abf 6761 293e e689 c5bf d587 91be
000000e0: 4562 12bf 7d98 97bf 8f71 e03e 19c4 c43f
000000f0: 549e 93bf 4e0a 963f 79fb 89bf 5a41 303e
00000100: 2049 c0bd bb1f 66bf bd96 873f 3185 c03e
00000110: c2a2 3a3e 8a03 d0be 85a9 c53f 898a 733d
00000120: 41ee 113e e21b afbf 1943 603f bbe1 d93e
00000130: 880d 903e d6e7 9abe f9dd 743f 94f9 b4be
00000140: 4f6a 8e3f f104 be3f 577e 3b3f bfed 6dbf
00000150: cb7f 063d bf3b 0abd 902f 58be 072e 043f
00000160: 2118 343e dc01 18bf 4a9e 3c3c 3967 b6bf
00000170: cc34 8b3e 8bfa ac3f b0a3 973f 6d20 ffbe
00000180: 4dd3 c93e 2ae9 2e3e b753 fabe c99e b9be
00000190: 109d 43be 4a81 fe3f 97dd a13e 8810 c8be
000001a0: afcc 143e 9d2e babf 7e45 983e 7af9 b53e
000001b0: 235f 793f 04d6 1a3f 1c01 99be 6290 95be
000001c0: 3227 393f d3b7 293f 68aa d53e 3ba6 f83a
000001d0: 13b4 f6bd 220f 3c3f 9156 70bf 7e80 ec3d
000001e0: 5643 403f d782 11be b90c 55bf 2aad dd3e
000001f0: f26a 10bf ec2d 3a3f 11b0 8d3e 3736 b7be
00000200: 50be 86be 8e7d 71be d4e5 3c3e 5631 0c3e
00000210: a53b 093f 48df 283e 84e5 4fbf 898c e9bd
00000220: a7e3 98be 1026 66bd 86d9 493d 9b2a 733f
00000230: 277b 963f 40a6 eabe ce87 7e3e 74a3 e23e
00000240: eeb1 23bf 50b8 cdbe 6cab 9dbe 5b01 953f
00000250: 7a00 3d3f 4864 4fbe 98f1 9cbf cbf2 07bf
00000260: 2c0f e4be 294a 0dbf 7c92 573e 8153 dd3e
00000270: 82bf 59be 177d aebe 43c8 02bf e28b 573e
00000280: 98d1 1f3e aadf f4bd cb99 72bf 34bf 87bf
00000290: e442 c9be 0d97 a93f 4b92 db3e b9a8 d9bf
000002a0: 4912 963e e67a ca3d 70a7 903e 3eb9 fdbe
000002b0: 839f 2a3f 8850 023d 9139 26bf 73a2 92be
000002c0: b727 0e3f c259 3e3f c942 f73e e91f bebe
000002d0: e9f3 a23e 5db2 07bd 6af7 cbbe 4f50 8abf
000002e0: 3ab5 07bd 04e4 373f 7eb2 71bf 1d2b f7be
000002f0: 9a7e fc3d 6afc 2cbe dc9a 48bf 9ade 6f3f
00000300: 576d bcbd b860 673f add9 013d 6bb8 4abf
00000310: 7f77 b73f 59d8 c6be 60a5 4abe 815b f4be
00000320: 6c8b 823f cd2b 1dbe c77a 48bf df73 72bf
00000330: 0973 debe 2839 153f 8fbe fbbe b20b 203f
00000340: 92d2 b5bd 4b36 49be bc5d 0d3f a957 c93e
00000350: 24c7 473e a86b b1be 4515 06bf 7a77 37bf
00000360: b724 023f ee3b babd 734a 233e dd8a 7c3d
00000370: 8183 873e aaed 6dbf b8d1 f8be cf5e 09bf
00000380: a7cf fcbd 97c6 efbe 8d70 563f b5a4 74be
00000390: 2248 bdbe 92c3 90be 7b8c f0bd 7dbc edbd
000003a0: 3005 153e 1468 babe 46c7 e73e 5016 983d
000003b0: 8a5f 99bf ffa3 373e c534 66bd 4738 ac3e
000003c0: 8f80 67bf 81eb 783f 4330 0a3f f1c0 06bf
000003d0: 2c39 463e f831 953f 42bd 403f b212 46bd
000003e0: cd1f 843e 1623 31bf 2ef0 f43e 1f12 ad3e
000003f0: 5d28 423f 3771 46bc dd43 543f d3d2 92bd

conv.7.weight f4 [64]
0.97962207 1.100263 0.81124556 0.8662385 1.0069139 0.8318967 0.92670137 0.8912544
1.0277168 0.8683148 0.9999651 1.01109 1.1220989 0.9665985 0.99014014 0.97486466
1.1117861 0.9172382 0.97438 1.0672874 1.0473067 0.9213205 1.0290407 1.0686266
0.9514654 1.029704 0.97784907 0.92717665 1.0750675 0.8601927 0.9439515 0.9797108
0.89674306 0.9575554 0.9964502 0.7188756 1.0173147 0.90914893 0.7607273 0.7946769
1.0874571 0.83336616 0.9766629 0.92504835 0.6534379 0.956208 0.8805306 0.7847626
0.80099833 0.91443664 0.94277114 0.80171967 1.1758647 0.97716457 0.88544744 1.0144624
0.9925356 0.93499255 0.8337681 0.8498773 1.1900268 0.9106903 1.0421913 0.97707033
00000000: 83c8 7a3f 6bd5 8c3f caad 4f3f cec1 5d3f
00000010: 8ee2 803f 2ff7 543f 4d3c 6d3f 4029 643f
00000020: 398c 833f e149 5e3f b6fd 7f3f 666b 813f
00000030: f0a0 8f3f 0073 773f d379 7d3f bb90 793f
00000040: 024f 8e3f 1fd0 6a3f f870 793f e09c 883f
00000050: 250e 863f a9db 6b3f 9bb7 833f c2c8 883f
00000060: 3d93 733f 57cd 833f 5154 7a3f 735b 6d3f
00000070: d09b 893f 9735 5c3f cea6 713f 54ce 7a3f
00000080: f490 653f 5a22 753f 5c17 7f3f 3b08 383f
00000090: 5e37 823f fcbd 683f 06bf 423f f26f 4b3f
000000a0: cb31 8b3f 7c57 553f 9406 7a3f f8cf 6c3f
000000b0: b547 273f 0cca 743f 746a 613f 34e6 483f
000000c0: 3a0e 4d3f 8518 6a3f 7359 713f 803d 4d3f
000000d0: bc82 963f 7527 7a3f afac 623f e7d9 813f
000000e0: d016 7e3f ac5b 6f3f d471 553f 8f91 593f
000000f0: cc52 983f 0023 693f 8666 853f 4821 7a3f

conv.7.bias f4 [64]
-1.3195927 -1.5860533 -0.6343569 -0.8703702 -1.5000596 -0.7492056 -0.9762816 -0.99166036
-0.91357094 -1.2074844 -1.0620621 -1.577854 -1.6022545 -1.3815863 -1.4554824 -0.9474471
-1.2127658 -0.6517887 -1.0593269 -1.2668401 -0.61222357 -0.94001025 -1.4021491 -1.1423272
-1.4137433 -0.9173147 -0.62234765 -1.1169685 -1.5118871 -1.0683033 -0.97955793 -1.0871755
-0.58963996 -1.7045945 -0.9906484 -0.56190526 -1.6367657 -1.2543297 -0.22092791 -0.77155256
-1.4297968 -0.7845467 -1.4017632 -0.6962584 -0.34546965 -0.91419995 -1.4159449 -0.47892082
-0.48461017 -0.6802202 -1.245338 -0.49890444 -1.0433459 -1.436002 -1.0826042 -0.8692065
-1.0488753 -0.9988519 -0.55025774 -0.6193312 -1.4629799 -0.8137154 -1.2931552 -1.0452756
00000000: 6ae8 a8bf cb03 cbbf 3765 22bf 95d0 5ebf
00000010: f401 c0bf f0cb 3fbf 97ed 79bf 74dd 7dbf
00000020: c9df 69bf d98e 9abf a7f1 87bf 1ff7 c9bf
00000030: ad16 cdbf d2d7 b0bf 3f4d babf e58b 72bf
00000040: e93b 9bbf a0db 26bf 0698 87bf d127 a2bf
00000050: afba 1cbf 83a4 70bf 9f79 b3bf c737 92bf
00000060: 8af5 b4bf 23d5 6abf 2d52 1fbf d3f8 8ebf
00000070: 8485 c1bf 2abe 88bf 4fc4 7abf 9128 8bbf
00000080: a5f2 16bf 2730 dabf 229b 7dbf 06d9 0fbf
00000090: 8a81 d1bf e08d a0bf ed3a 62be 7884 45bf
000000a0: 9503 b7bf 0dd8 48bf fa6c b3bf fe3d 32bf
000000b0: 66e1 b0be 0209 6abf af3d b5bf 1c35 f5be
000000c0: d31e f8be e922 2ebf 3c67 9fbf 6770 ffbe
000000d0: 5c8c 85bf eace b7bf c692 8abf 5184 5ebf
000000e0: 8c41 86bf c2b4 7fbf b1dd 0cbf 7d8c 1ebf
000000f0: ed42 bbbf a74f 50bf 1c86 a5bf 97cb 85bf

conv.7.running_mean f4 [64]
-3.2411556 0.71794605 -4.046097 -2.5712981 -1.749092 -4.788347 -5.59803 -1.8093294
-2.4363973 -6.6227574 -0.6296964 -0.11840069 -8.41498 1.2261033 0.22639513 -2.313447
-5.7870445 2.796546 -3.8614633 2.5726774 -4.194828 -1.1675992 0.66164154 1.1539718
-2.4035444 -8.8801565 -9.51944 -6.1903496 -6.31836 0.06705404 -4.516601 -1.4726539
-7.137871 -7.0188637 -4.3127723 -0.7603448 -0.48942453 -3.2613723 -3.9999843 0.5988941
-2.6796482 5.842797 -2.7525198 -5.470073 -0.48902503 -1.705191 0.8354207 -0.3231654
-6.116366 -3.126273 -4.6723266 5.511177 -5.751393 -0.15950176 -4.3439484 -4.8926506
0.15870488 -0.42950982 -3.6416807 -0.53656125 -6.1959476 -1.5509173 -3.1997626 -1.7605754
00000000: 186f 4fc0 50cb 373f a079 81c0 2690 24c0
00000010: 3fe2 dfbf 233a 99c0 1023 b3c0 1b98 e7bf
00000020: efed 1bc0 a1ed d3c0 c933 21bf 107c f2bd
00000030: c2a3 06c1 f4f0 9c3f 20d4 673e 840f 14c0
00000040: 782f b9c0 9cfa 3240 3722 77c0 bfa6 2440
00000050: 083c 86c0 e473 95bf 5761 293f 59b5 933f
00000060: acd3 19c0 1f15 0ec1 a04f 18c1 5817 c6c0
00000070: 0130 cac0 a153 893d ff87 90c0 ec7f bcbf
00000080: 7069 e4c0 889a e0c0 3b02 8ac0 f5a5 42bf
00000090: da95 fabe 53ba 50c0 beff 7fc0 2051 193f
000000a0: 5b7f 2bc0 31f8 ba40 4929 30c0 d70a afc0
000000b0: 7d61 fabe b343 dabf 22de 553f ef75 a5be
000000c0: 45b9 c3c0 db14 48c0 b383 95c0 905b b040
000000d0: 690b b8c0 6e54 23be a001 8bc0 9890 9cc0
000000e0: 8883 223e b6e8 dbbe 4c11 69c0 145c 09bf
000000f0: 3445 c6c0 7584 c6bf e9c8 4cc0 895a e1bf

conv.7.running_var f4 [64]
71.07958 81.50735 79.74606 73.69661 60.095707 70.26849 78.450226 76.50089
94.36277 67.58522 88.39562 68.3096 82.180565 82.66932 92.40782 89.47947
89.64516 97.87986 81.08861 67.286385 93.47947 75.73234 86.07541 104.371025
48.884983 123.57918 120.94336 86.32301 76.15337 74.77019 85.76103 76.400696
102.57714 71.3529 94.839935 81.20887 93.0705 84.99566 72.652405 66.62248
70.69817 97.98681 63.84222 98.41595 67.56556 61.97208 64.80936 82.185455
83.28063 73.41592 64.01224 99.89669 91.068855 101.41631 78.825 90.1455
90.8712 104.375626 60.674812 77.33727 86.5762 99.13891 96.325035 84.10971
00000000: bf28 8e42 c303 a342 fc7d 9f42 aa64 9342
00000010: 0162 7042 7889 8c42 84e6 9c42 7500 9942
00000020: bdb9 bc42 a22b 8742 8fca b042 849e 8842
00000030: 735c a442 b156 a542 ced0 b842 7df5 b242
00000040: 524a b342 7dc2 c342 5e2d a242 a192 8642
00000050: 7df5 ba42 f576 9742 9c26 ac42 f7bd d042
00000060: 398a 4342 8a28 f742 00e3 f142 62a5 ac42
00000070: 874e 9842 568a 9542 a685 ab42 28cd 9842
00000080: 7f27 cd42 afb4 8e42 0cae bd42 f16a a242
00000090: 1924 ba42 c7fd a942 084e 9142 b63e 8542
000000a0: 7765 8d42 3ff9 c342 6f5e 7f42 f7d4 c442
000000b0: 9121 8742 69e3 7742 649e 8142 f45e a442
000000c0: af8f a642 f3d4 9242 4406 8042 1bcb c742
000000d0: 4123 b642 27d5 ca42 66a6 9d42 7f4a b442
000000e0: 0ebe b542 52c0 d042 02b3 7242 afac 9a42
000000f0: 0427 ad42 1f47 c642 6ba6 c042 2c38 a842

conv.9.weight f4 [64, 64, 3, 3]
0.81425476 -0.2221829 0.5874255 -0.27272642 -1.0758768 -0.08851411 0.666558 -0.21336074
-1.6935778 1.2489364 -0.4993663 -2.4484596 0.24638915 -0.3768705 -0.7170333 -0.4432599
0.49888954 1.1484627 0.86278814 0.24514453 -0.27576068 0.84124917 -0.17156094 -0.60714424
-0.27410653 0.5473768 -0.3891561 0.46460828 0.14274392 0.7546276 0.6279469 0.28117722
-0.113132514 0.72597706 0.36334634 0.36373016 0.43283233 -0.38226342 0.12540853 0.88695794
0.21885522 0.49734005 0.098153904 0.6933201 0.42499378 -1.959288 -0.6186654 -1.4386714
-1.2664216 -0.82743555 -0.20904511 -0.5287208 -0.2646913 -0.6012237 0.13852358 0.42930633
0.41328925 0.6718381 0.793286 -0.50032896 -0.87522095 -0.040569402 1.0839896 -0.2422025
-0.4111953 0.45953542 0.26997772 0.3637738 0.272814 -0.18686827 1.1230054 0.14270751
0.29659846 -0.020634731 0.28515816 0.14723316 -0.6569729 0.4876948 0.04012815 -0.23936862
0.019730223 1.1017152 0.5314991 0.078302845 0.8127023 -0.032793846 0.37829864 -0.26384774
-0.08270125 -0.007025384 -0.7164148 -0.67689764 0.3069326 0.12977451 -0.07832753 0.13575298
-0.20275356 1.0877111 0.06930411 1.0565058 1.2737783 -0.32942674 -0.5856627 0.46341825
0.17235382 0.32614037 1.0083438 0.66366315 0.70482224 0.98655343 -0.051879905 -0.5967761
0.5275232 -0.9033085 -0.04219691 0.7675525 -0.0056803776 -2.194831 -0.74055994 -0.019189669
-0.037090823 -1.4572126 0.25177523 0.52332795 0.5336538 0.0033186886 1.1408217 -0.58171535
-0.36815473 -0.16657297 0.13413642 -0.44933438 1.4935027 -0.6211278 1.219951 -0.8419897
-0.029781342 0.80610937 -0.8931664 -0.40139368 1.0572151 -0.39550278 -1.0270329 -0.39172652
-1.3004522 0.09570551 -1.0765245 -0.62421155 0.07875459 -0.14550854 -1.8942075 0.5349191
-0.93451273 0.31724912 -0.7514019 -0.08265647 0.6288428 -1.1406978 -0.14722297 0.19272774
-0.18715942 -0.9169958 -0.2789373 -0.27824312 -0.89409906 0.6185039 -0.40001982 0.79823095
-1.6869435 -0.215779 -0.29359883 -1.1326735 -0.24863714 -0.3839522 -0.6252596 -0.8655583
-1.0516367 -0.32955208 -0.7625906 -0.42827576 -0.6508354 -0.52027476 -0.038115267 0.13321775
-0.41150957 -0.37868965 -1.4258343 -0.7416958 0.2945068 0.30177248 -0.22020599 0.10246955
0.3908894 -0.28627017 0.5824568 0.51425886 0.5684451 0.9355312 -0.56339926 0.35854053
0.5935884 -0.97031766 -0.9142338 -0.110199906 1.1097983 0.06712959 -0.653543 0.5735818
0.29028085 0.67335206 -0.09117196 -0.05145152 -0.5376209 0.21842618 -1.2073395 0.46737412
0.46141276 -0.54941404 0.67548746 0.21201815 0.5602719 -0.65721864 0.055013012 0.8928213
-1.1738685 0.22748446 0.09354541 0.57724464 0.7194473 0.9486429 -0.81414926 0.15578793
1.1269735 -1.2545295 0.35205853 0.16715987 1.0930042 0.32601807 -0.5083835 0.057807975
0.3006373 -0.14662808 0.6565354 -0.37716797 0.11709113 -0.8162688 1.0709782 0.092697896
-0.688163 1.3119538 -0.32460806 0.54408807 0.18580194 0.21405987 -0.6829626 -0.025757628
00000000: 0073 503f ea83 63be 8461 163f cca2 8bbe
00000010: 55b6 89bf e346 b5bd 8ca3 2a3f 3d7b 5abe
00000020: 28c7 d8bf 26dd 9f3f f1ac ffbe 90b3 1cc0
00000030: 704d 7c3e 2cf5 c0be 7f8f 37bf f6f2 e2be
00000040: 736e ff3e d300 933f afdf 5c3f 2b07 7b3e
00000050: 8130 8dbe 1b5c 573f acad 2fbe ce6d 1bbf
00000060: b157 8cbe e320 0c3f 783f c7be 23e1 ed3e
00000070: 762b 123e 462f 413f 21c1 203f 76f6 8f3e
00000080: 05b2 e7bd a2d9 393f 8808 ba3e d73a ba3e
00000090: 339c dd3e 08b8 c3be 186b 003e ad0f 633f
000000a0: 951b 603e 5ba3 fe3e ea04 c93d 6d7d 313f
000000b0: c998 d93e f3c9 fabf db60 1ebf 6226 b8bf
000000c0: 1a1a a2bf d1d2 53bf ec0f 56be 3f5a 07bf
000000d0: 9e85 87be cce9 19bf 20d9 0d3e 0ace db3e
000000e0: a69a d33e 95fd 2b3f cb14 4b3f 8f15 00bf
000000f0: 7b0e 60bf 1a2c 26bd 2cc0 8a3f ef03 78be
00000100: 3188 d2be 3a48 eb3e 853a 8a3e 8f40 ba3e
00000110: 47ae 8b3e 655a 3fbe a4be 8f3f eb21 123e
00000120: c1db 973e 2b0a a9bc 4000 923e 4ac4 163e
00000130: 602f 28bf 22b3 f93e 6a5d 243d 0c1d 75be
00000140: 47a1 a13c 0105 8d3f 5310 083f 3e5d a03d
00000150: 420d 503f d752 06bd 5cb0 c13e 0d17 87be
00000160: 465f a9bd 3135 e6bb f666 37bf 2a49 2dbf
00000170: 4526 9d3e 9ce3 043e 2f6a a0bd d402 0b3e
00000180: a19e 4fbe 1e3a 8b3f 50ef 8d3d 953b 873f
00000190: 2b0b a33f 9faa a8be feed 15bf 2845 ed3e
000001a0: 857d 303e dffb a63e 6911 813f d4e5 293f
000001b0: 3b6f 343f c48e 7c3f 0680 54bd 52c6 18bf
000001c0: c30b 073f 3a3f 67bf abd6 2cbd 527e 443f
000001d0: 7622 babb 1c78 0cc0 5695 3dbf a733 9dbc
000001e0: 8cec 17bd f185 babf afe8 803e d2f8 053f
000001f0: 899d 083f 5b7e 593b 7206 923f 4ceb 14bf
00000200: c77e bcbe 1b92 2abe 0f5b 093e 280f e6be
00000210: 192b bf3f 3b02 1fbf 5b27 9c3f a38c 57bf
00000220: 00f8 f3bc 2f5d 4e3f 8ea6 64bf 7983 cdbe
00000230: d352 873f 577f cabe d075 83bf 6190 c8be
00000240: 3875 a6bf 4001 c43d 8ecb 89bf 54cc 1fbf
00000250: 164a a13d 3100 15be 6475 f2bf 75f0 083f
00000260: 3a3c 6fbf 7a6e a23e e05b 40bf cc47 a9bd
00000270: d7fb 203f 6302 92bf 9ec1 16be 6c5a 453e
00000280: b8a6 3fbe 3dc0 6abf dfd0 8ebe e275 8ebe
00000290: ade3 64bf 4656 1e3f 66cf ccbe dd58 4c3f
000002a0: c4ed d7bf 2cf5 5cbe 9652 96be 72fb 90bf
000002b0: bc9a 7ebe 6295 c4be 0311 20bf 3b95 5dbf
000002c0: 089c 86bf 0dbb a8be 2339 43bf f646 dbbe
000002d0: 269d 26bf ba30 05bf c11e 1cbd 3c6a 083e
000002e0: 62b1 d2be 9ce3 c1be bd81 b6bf c7df 3dbf
000002f0: 98c9 963e ec81 9a3e ae7d 61be 8edb d13d
00000300: a822 c83e 0192 92be e41b 153f 78a6 033f
00000310: 9e85 113f f97e 6f3f ef3a 10bf a092 b73e
00000320: 69f5 173f bd66 78bf 3a0b 6abf 7db0 e1bd
00000330: df0d 8e3f 3d7b 893d 984e 27bf 42d6 123f
00000340: b19f 943e cd60 2c3f 5db8 babd d4be 52bd
00000350: 86a1 09bf 1dab 5f3e 1a8a 9abf a94b ef3e
00000360: 4b3e ec3e 66a6 0cbf bfec 2c3f 491b 593e
00000370: fb6d 0f3f 7b3f 28bf 5355 613d f08f 643f
00000380: 5341 96bf b0f1 683e bc94 bf3d 4ec6 133f
00000390: b32d 383f 43da 723f 166c 50bf df86 1f3e
000003a0: ab40 903f 6c94 a0bf 0441 b43e f52b 2b3e
000003b0: 90e7 8b3f d7eb a63e 6c25 02bf 0ec8 6c3d
000003c0: 22ed 993e ac25 16be b412 283f 291c c1be
000003d0: 79cd ef3d fef6 50bf d015 893f 65d8 bd3d
000003e0: 732b 30bf 1aee a73f 0733 a6be 5b49 0b3f
000003f0: dd42 3e3e 8332 5b3e a3d6 2ebf a901 d3bc

conv.10.weight f4 [64]
1.4434031 1.3721944 1.322506 1.2302192 1.4174725 1.3180193 1.4213357 1.1659459
1.3346331 1.3539064 1.1501033 1.1829304 1.1673399 1.2250719 1.4172156 1.236391
1.2989465 1.2171527 1.3616277 1.1867583 1.167863 1.323381 1.2672644 1.2122521
1.3044668 1.3383058 1.2392061 1.2261121 1.155653 1.3551831 1.2186817 1.4187138
1.1454754 1.4499673 1.1997384 1.2026213 1.1355433 1.278541 1.4090118 1.1952354
1.3399861 1.1870265 1.1110997 1.285089 1.2849985 1.1685041 1.3698882 1.4344223
1.2553461 1.196988 1.4409827 1.1854017 1.223318 1.1562583 1.2887826 1.294842
1.3596573 1.1469364 1.148782 1.2258247 1.3561186 1.45457 1.1799436 1.2531999
00000000: 6fc1 b83f 11a4 af3f e047 a93f d377 9d3f
00000010: bd6f b53f dbb4 a83f 54ee b53f b73d 953f
00000020: 42d5 aa3f ce4c ad3f 9636 933f 436a 973f
00000030: 656b 953f 28cf 9c3f 5267 b53f 0f42 9e3f
00000040: e143 a63f a9cb 9b3f d149 ae3f b2e7 973f
00000050: 897c 953f 8c64 a93f b835 a23f 142b 9b3f
00000060: c5f8 a63f 9b4d ab3f 4e9e 9e3f 3ef1 9c3f
00000070: 70ec 933f a476 ad3f c3fd 9b3f 6a98 b53f
00000080: f09e 923f 8798 b93f 0791 993f 7fef 993f
00000090: 7c59 913f 3ba7 a33f 805a b43f 79fd 983f
000000a0: aa84 ab3f 7cf0 973f 8438 8e3f cc7d a43f
000000b0: d57a a43f 8b91 953f 7f58 af3f 269b b73f
000000c0: 2eaf a03f e736 993f 1f72 b83f 3ebb 973f
000000d0: af95 9c3f 4600 943f d4f6 a43f 62bd a53f
000000e0: 4009 ae3f d0ce 923f 4a0b 933f d3e7 9c3f
000000f0: 4b95 ad3f 5a2f ba3f 6408 973f db68 a03f

conv.10.bias f4 [64]
-1.2805024 -1.0949847 -1.1886153 -1.3742701 -1.3010008 -1.0699266 -0.8990253 -0.98493075
-0.9823119 -0.76099896 -1.0385809 -1.179133 -1.4015993 -1.0991659 -1.0602955 -0.7444976
-0.7990973 -1.2967517 -0.88432235 -1.1708134 -1.0988343 -0.8982315 -1.188176 -1.2335595
-0.98868775 -1.0129548 -1.04023 -1.1931578 -0.865145 -1.3356391 -1.0332727 -1.0675272
-1.2286421 -1.0508596 -1.1406047 -1.1907338 -1.2142433 -1.0964923 -1.083583 -0.9880759
-0.9837214 -1.1445111 -0.96614 -1.2404326 -0.83753705 -1.3100522 -0.834517 -0.9590231
-1.1647018 -1.298702 -0.83368564 -1.095844 -1.2372196 -1.2059668 -1.1778611 -1.3833656
-1.6748126 -1.2279905 -1.2707806 -1.2267786 -0.8905125 -0.7366843 -1.2828218 -1.3653743
00000000: 81e7 a3bf 7528 8cbf 8c24 98bf 15e8 afbf
00000010: 3287 a6bf 5bf3 88bf 8626 66bf 6c24 7cbf
00000020: cb78 7bbf d4d0 42bf 38f0 84bf d5ed 96bf
00000030: 9b67 b3bf 78b1 8cbf c3b7 87bf 6597 3ebf
00000040: a491 4cbf f6fb a5bf f362 62bf 37dd 95bf
00000050: 9aa6 8cbf 80f2 65bf 2716 98bf 47e5 9dbf
00000060: a41a 7dbf 81a8 81bf 4226 85bf 65b9 98bf
00000070: 257a 5dbf 39f6 aabf 4842 84bf bba4 88bf
00000080: 2544 9dbf 9182 86bf 56ff 91bf f769 98bf
00000090: 536c 9bbf dc59 8cbf d9b2 8abf 8bf2 7cbf
000000a0: 2ad5 7bbf 577f 92bf f354 77bf 7fc6 9ebf
000000b0: d468 56bf caaf a7bf e8a2 55bf 8a82 75bf
000000c0: f314 95bf de3b a6bf 6c6c 55bf 9e44 8cbf
000000d0: 365d 9ebf 1f5d 9abf 27c4 96bf 2012 b1bf
000000e0: 4260 d6bf cb2e 9dbf f0a8 a2bf 1507 9dbf
000000f0: a1f8 63bf 5897 3cbf 8133 a4bf 96c4 aebf

conv.10.running_mean f4 [64]
-2.2369826 -2.681186 -0.85663223 -3.4569545 -3.8035665 -4.071315 -2.4830365 0.7877765
0.47805384 -4.2909513 2.0377216 -2.5673156 -2.0665889 0.23257825 -1.949943 -1.2048805
0.32247952 -3.447225 -0.97988945 -2.7306569 -2.9499004 -1.8021419 -3.375622 -2.045434
2.259928 -3.9741614 -4.458392 -2.8119028 -0.95493203 -5.975231 -2.8375373 -2.8790627
-2.5326836 -4.0501275 -4.1186824 -1.9030986 -1.654912 -1.869824 -4.754924 -0.66013896
1.1882262 -1.6612293 -1.1775621 -3.7754512 -1.1281419 -1.3358754 -2.770491 -1.4913572
-2.7435994 -2.6393304 -6.343356 -5.9441977 -3.2655122 -0.9700006 -0.2483212 2.053812
-6.733566 -0.35595354 -1.8138251 -0.49004647 -4.035217 -5.104473 -1.8865311 0.50896615
00000000: b92a 0fc0 8d98 2bc0 404c 5bbf be3e 5dc0
00000010: a26d 73c0 3648 82c0 12ea 1ec0 b9ab 493f
00000020: 79c3 f43e 794f 89c0 086a 0240 e64e 24c0
00000030: fe42 04c0 fe28 6e3e bb97 f9bf 8639 9abf
00000040: 091c a53e 569f 5cc0 09da 7abf 15c3 2ec0
00000050: 2bcb 3cc0 96ac e6bf 310a 58c0 64e8 02c0
00000060: a9a2 1040 a958 7ec0 26ab 8ec0 37f6 33c0
00000070: 6d76 74bf 1835 bfc0 369a 35c0 9042 38c0
00000080: 7d17 22c0 a59a 81c0 3fcc 83c0 bc98 f3bf
00000090: 28d4 d3bf 6556 efbf 5628 98c0 defe 28bf
000000a0: cc17 983f 29a3 d4bf 5bba 96bf fea0 71c0
000000b0: f466 90bf f7fd aabf b94f 31c0 cbe4 bebf
000000c0: 2297 2fc0 caea 28c0 c6fc cac0 de36 bec0
000000d0: 27fe 50c0 f651 78bf ea47 7ebe a871 0340
000000e0: 5f79 d7c0 8b3f b6be 6c2b e8bf 5fe7 fabe
000000f0: 7f20 81c0 d857 a3c0 da79 f1bf 9b4b 023f

conv.10.running_var f4 [64]
18.381021 20.86141 14.315722 17.142775 18.186789 17.947609 18.873873 16.876656
12.441518 16.564777 21.647865 16.010963 14.615906 19.548212 15.028918 16.236841
19.985386 18.346388 19.096394 14.846004 15.751274 20.346632 20.012163 16.342525
18.586918 17.708937 13.6313925 13.660209 18.574152 17.62831 16.090506 19.338451
17.891832 16.52844 15.336208 18.056122 16.151703 16.171034 17.143082 15.019833
17.509613 14.834645 15.183738 16.879076 14.577232 14.09733 19.705269 12.27292
17.777887 17.551226 16.541044 16.408628 17.307146 15.021816 13.648497 18.536499
24.518158 18.41394 17.371958 18.502432 18.157364 15.784171 17.922012 17.24093
00000000: 550c 9341 2be4 a641 330d 6541 6724 8941
00000010: 8b7e 9141 b494 8f41 b1fd 9641 6403 8741
00000020: 7510 4741 aa84 8441 d42e ad41 7416 8041
00000030: c0da 6941 bd62 9c41 7376 7041 0de5 8141
00000040: 12e2 9f41 67c5 9241 6ac5 9841 3b89 6d41
00000050: 3805 7c41 e7c5 a241 e918 a041 7ebd 8241
00000060: 02b2 9441 e7ab 8d41 2f1a 5a41 3790 5a41
00000070: dd97 9441 c706 8d41 5bb9 8041 26b5 9a41
00000080: 7922 8f41 3f3a 8441 1c61 7541 f072 9041
00000090: b036 8141 475e 8141 0825 8941 3c51 7041
000000a0: b013 8c41 b55a 6d41 97f0 7241 5908 8741
000000b0: 583c 6941 aa8e 6141 64a4 9d41 e15d 4441
000000c0: 1d39 8e41 e968 8c41 0f54 8441 df44 8341
000000d0: 0975 8a41 5c59 7041 3e60 5a41 c04a 9441
000000e0: 3025 c441 c04f 9341 c5f9 8a41 fb04 9441
000000f0: 4842 9141 f78b 7c41 4860 8f41 6ded 8941
