models/rym_grid_c1_s64_e2_t4_r4/cnn_c1_ce_a0p32_l0p16_lr1e-04.pt (torch, 607803 bytes, 23 tensors)

conv.0.weight f4 [64, 64, 3, 3]
00000000: d174 86be 28a9 8ebe 77e4 9ebd d5c6 863c
00000010: 850c 8dbc 1640 00be ad50 c8be c735 a6be
00000020: 7c6b 22be eb60 b23c 25f7 6c3e 84ec 7bbe
00000030: ef5c 843b 69cf 58be a58c 34be 6067 2b3e
00000040: 5b1e ed3d c089 853c d414 61be 0341 063d
00000050: 7d67 b7bd c954 70be 46d9 14bd 22b3 5b3e
00000060: de9e 1d3e 9944 9ebb 76b5 5abe 5f1c 053d
00000070: 2589 993e 153f c63d c052 30bc 0cc7 13bc
00000080: 05ad 10be 245e 2f3e 3042 3e3d 0813 bd3d
00000090: a12b 1fbe 6b1e 3b3d 2cb1 0c3e a389 073e
000000a0: 596e 323e 4159 7dbb 3627 373e 37ef 4e3e
000000b0: 7240 843e 4227 aebd 0192 bcbd c12f c93d
000000c0: 5244 883c 6782 453d ab38 94bc d9d3 bdbd
000000d0: bcc5 7abe 5252 343e 9dd2 20be 4adf 663e
000000e0: 6d16 073e c14e be3d 9b15 6d3d 46a7 bdbc
000000f0: beab a53d 825d 9a3e 65a3 74bc 377b f9bc
00000100: 0ee7 563e 813e 53bd ecba c03e 7f33 643e
00000110: 782f a2bd af31 b23e 578c 1c3e 4fc3 1e3e
00000120: b7fb 553e 6b60 d4bc 5112 753e 6eff 163d
00000130: 4ca6 a0bd 63fb 23be 0e91 aa3c 3cd4 093e
00000140: 3169 ee3c c6dd f4bd 2326 19be a000 47be
00000150: 6523 3ebd 3a5a 9abb df9e 16be 1cbd 853e
00000160: 9134 0bbd 3a17 633d 6d4f 1f3e d64e dcbc
00000170: 27fd c23d 3cc3 3b3d 785f bc3d 5cb0 2b3e
00000180: 9e54 e8bd 3ca0 d5bd b8dc f83d a95b 10be
00000190: acbb b5bd f518 27be 11db c7bd 04ad 96bc
000001a0: 6314 9cbb 6f95 393e a954 1b3d 7e19 ffbc
000001b0: 96e3 33be 357b 273d 9ba6 04be 151d d9bd
000001c0: d89e 623d b5e8 12be 0de6 0abe c588 dc3c
000001d0: c99f d3bd 2a34 3c3d 086b 3ebd c452 75bd
000001e0: 670e b3bb 9481 2abd 408f 95bc 52c0 9a3d
000001f0: bde7 413d 9ede 003c 63b6 89bd 701b 6b3d
00000200: 93bb 5f3d 16ba c1bd 031f aabd 507d 1a3d
00000210: 0e8f 8f3d 7638 313d c79f 52be 2fe9 a2bd
00000220: 498a c6bd 60eb 1fbd 2753 bcbd 87c9 c5bd
00000230: db73 cbbd ad22 a0bd 011b 49bc c0bb 823b
00000240: 9a30 c7bd 43fd 3e3b 07e2 8dbd 7db8 29bd
00000250: bb43 94bc a8a6 47bd 766a 543c d8ff 87bb
00000260: 3a20 25be 6a12 043d 044e 873c 3128 ec3c
00000270: f788 c03b fdbf 6fbb 31b2 f83b 6206 86bc
00000280: 1bb2 67bd df43 8f3c 4d9c 9e3d 3ad6 babc
00000290: 6c7d 09be 8865 2abd d8f4 ca3c 5f49 903c
000002a0: 95b6 f93d e0ba ac3d 38a9 a33e 6b60 8c3d
000002b0: 08ce 893d 5c8b d9bc a8ae fb3d 9d24 ae3c
000002c0: b010 6ebc 7b33 d73b 79c2 99bd 9e0b 683c
000002d0: c796 efbd 8ed6 cc3d 76f1 0a3c 2561 933d
000002e0: 2dec 85bc 1441 d5bc 57f0 afbd d72a 7c3c
000002f0: 4efc a63c 6b5e d03c ffde 013c 5bc8 8a39
00000300: 860b 25bc caad 343d cafe 6dbd 006c 453d
00000310: a28e 3a3d 9be8 673c 27d4 303c d807 6dbd
00000320: 4072 c2bd 839b 823b 2c69 98bd 07c9 debc
00000330: f490 4dbc a4d4 40bd 9b05 26bd 2132 693d
00000340: cd03 a6bd 7d40 56bc 308b 013d 9a55 d53c
00000350: 10f8 73bd 941b 1ebd fc98 113d 8a11 cc3c
00000360: 8148 04be a609 203d 6686 31be fca3 07be
00000370: 482e 3e3d 5e02 d3bd 36ae 0fbe 75b8 0ebd
00000380: af92 87bd 2f2c 343d bb34 fc3c 9236 08bd
00000390: eb4f 31bc 9f75 29bd 996f 85bd 6d14 b43d
000003a0: 0a13 623d 8599 26bd e04e 0bbc 41e1 d73c
000003b0: 4366 aabd aa86 99bc 6f85 893c dd22 833d
000003c0: b10e 1a3d 3b18 403d 21ba 743b bc72 183d
000003d0: 42be 1f3e 0cf6 923d d15f 313d 9302 af3d
000003e0: fc07 f83b 9ce4 4f3d 73fb b03d 0987 1fbd
000003f0: 2678 8d3d 99ae 763d 5aef 733b 15bd 703d
-0.26261 -0.2786343 -0.0775842 0.016452232 -0.017217884 -0.12524447 -0.3912405 -0.32462904
-0.15861315 0.02177473 0.23141153 -0.24601942 0.004039399 -0.2117287 -0.17631777 0.16738653
0.115780555 0.016301036 -0.21980602 0.032776844 -0.08955286 -0.23469843 -0.03634002 0.21455052
0.15392634 -0.004829955 -0.21358284 0.03249776 0.29987445 0.09680001 -0.010761917 -0.009019624
-0.14128502 0.17125756 0.04644984 0.092321455 -0.15543987 0.045683306 0.1373946 0.13236098
0.17424907 -0.0038657936 0.17886052 0.2020844 0.25830418 -0.085035816 -0.092075355 0.098235615
0.01663414 0.048220064 -0.018093428 -0.09268922 -0.24489492 0.17609528 -0.15705343 0.22546116
0.13192149 0.09292365 0.057881933 -0.023151051 0.08089398 0.30149466 -0.014931534 -0.030454261
0.20986578 -0.05157328 0.3764261 0.22285269 -0.0791921 0.3480353 0.1528791 0.15504192
0.20896803 -0.025924882 0.23932768 0.03686469 -0.078442186 -0.16013865 0.02082112 0.13459867
0.029102894 -0.119563624 -0.14955954 -0.19433832 -0.046420474 -0.004710463 -0.14709042 0.26120842
-0.033985678 0.055442072 0.15557642 -0.02689306 0.09520941 0.045840487 0.09197897 0.16766495
-0.113442644 -0.10430953 0.12151474 -0.14097466 -0.08873686 -0.16318114 -0.097585805 -0.018393047
-0.0047631725 0.1812341 0.037922535 -0.031140085 -0.17567286 0.040888984 -0.1295418 -0.1060125
0.055327266 -0.14346583 -0.1356432 0.026920686 -0.10333211 0.045948185 -0.04648879 -0.059893385
-0.0054643634 -0.04162748 -0.018256783 0.075562134 0.047340143 0.007865576 -0.06724241 0.057399213
0.054622244 -0.09459321 -0.08306696 0.037717164 0.070097074 0.043266736 -0.20568763 -0.079546325
-0.096943446 -0.03904283 -0.091955476 -0.09657579 -0.09934207 -0.07819114 -0.012274505 0.0039896667
-0.09726067 0.0029142655 -0.06927877 -0.041435707 -0.018098703 -0.04874292 0.012964835 -0.004150372
-0.16125575 0.032244124 0.016516693 0.028827759 0.0058757025 -0.003658294 0.0075896014 -0.016360465
-0.05656634 0.017488418 0.07744656 -0.02280723 -0.13426751 -0.041600734 0.024774954 0.017613111
0.12193028 0.08434081 0.3196504 0.06854328 0.067287505 -0.02655571 0.122891724 0.021257693
-0.014530346 0.0065674162 -0.07507796 0.014162926 -0.1169868 0.100018606 0.00848042 0.07196263
-0.016347969 -0.026032008 -0.08590763 0.015391073 0.02038398 0.025435647 0.007926702 0.00026470688
-0.010073548 0.04411105 -0.058104314 0.0481987 0.04554618 0.014154579 0.010792769 -0.05786881
-0.09494448 0.0039858236 -0.07441935 -0.027195467 -0.012546767 -0.04707779 -0.04053269 0.056932572
-0.08106194 -0.013076899 0.03162688 0.026041795 -0.059562743 -0.03860052 0.035546288 0.024910707
-0.12918283 0.0390717 -0.17336425 -0.13246149 0.046430856 -0.10303186 -0.140313 -0.03484388
-0.066197746 0.04398745 0.030786863 -0.033255167 -0.010822277 -0.041371938 -0.06515426 0.087929584
0.05519394 -0.04067375 -0.008502692 0.026352527 -0.08320286 -0.01874097 0.016787259 0.06403134
0.037611667 0.046898108 0.0037342387 0.037218794 0.15599921 0.07175836 0.04330427 0.08545413
0.007569311 0.05075513 0.0864171 -0.03894714 0.06907682 0.060225103 0.0037221522 0.058774073

conv.1.weight f4 [64]
00000000: 6371 843f f3d1 8c3f 4fd5 763f 9b95 5f3f
00000010: 06de 8b3f bbca 853f 3321 673f 8c7c 6f3f
00000020: 21e4 893f 78d4 7f3f c120 933f 76e5 733f
00000030: 34a5 683f bec4 8e3f 52a8 803f 0a96 993f
00000040: 44f9 6b3f 3940 733f 4d7e 883f 2b2b 8e3f
00000050: 62ad 7a3f bd8b 813f 340e 723f 262c 8b3f
00000060: 677e 863f e514 783f c084 743f 464d 683f
00000070: 3645 793f f675 633f 56b0 663f c277 893f
00000080: 05f5 623f c01f 7c3f 8198 7a3f 3cf0 913f
00000090: a05c 723f 3958 953f f15c 7e3f 2f7b 893f
000000a0: b47a 903f 8808 7f3f d0eb 933f 7568 993f
000000b0: 961a 823f 8cc9 8c3f 7ccf 773f ef29 843f
000000c0: c910 5f3f 5c17 633f 2042 6d3f aaea 703f
000000d0: ac80 5f3f 1714 5a3f 16b7 763f 3384 983f
000000e0: f505 833f 2f29 6d3f 44ff 713f 89c8 7f3f
000000f0: fc97 873f e155 893f 6cee 8c3f 970c 833f
1.0347103 1.1001571 0.96419233 0.87337655 1.0927131 1.0452493 0.90285033 0.9354942
1.0772744 0.99933577 1.1494371 0.95272005 0.9087708 1.1153791 1.0051367 1.1998913
0.92177224 0.9501987 1.0663544 1.1106924 0.9792081 1.012077 0.9455292 1.0872848
1.0507325 0.9690688 0.9551506 0.9074291 0.9737123 0.8885187 0.9011282 1.0739672
0.8865512 0.98485947 0.9788895 1.1401439 0.94672585 1.1667548 0.9936057 1.0740718
1.1287446 0.9962239 1.1556339 1.1985003 1.0164363 1.0999007 0.9680097 1.0325297
0.8713499 0.8870752 0.92679024 0.9410807 0.8730571 0.85186905 0.96373117 1.1915344
1.0236193 0.92640966 0.9453013 0.9991537 1.0593257 1.0729333 1.101026 1.0238217

conv.1.bias f4 [64]
00000000: 270e 0fbe 8749 afbd 8f55 49be 96f7 3fbe
00000010: 64b5 8b3d fc34 b33c 1cd1 e9bd 5b95 3abe
00000020: ce53 15be 49da 243e e948 0cbe ecb7 6dbc
00000030: 18cb f23b 094a 16bd 111b f2bc 2a08 54bd
00000040: f574 cfbd 75a7 e5bd 4aec 0bbe fc39 a3bd
00000050: 481d fcbd 9fe9 823c 11a7 38bc 6893 a63d
00000060: b765 0ebd 23dd dbbd b59b f4bd 0264 273d
00000070: 5a13 b8bd d0cb 033e 70a4 f3bd 23b0 173e
00000080: 8f38 0a3e 1127 bf3c 9c96 bf3c ef93 383d
00000090: 2e19 d1bb 0cf5 94bd 2901 2fbc e4dd f0bd
000000a0: 6d12 81bd a1e6 52bd 01f0 fab9 f5fa a1bd
000000b0: 90df 08be 258a 533d 0705 efbd 22b1 75bc
000000c0: 1b32 8e3d 7442 7abd 44ac 1aba 18e1 edbd
000000d0: 0617 0f3d 55c6 86bc 2c37 a03d aac0 973c
000000e0: 166c ebbd d22e 0abc d707 223d 194b a1bd
000000f0: ae90 c1bd da4e 163d 7c66 fc3c a88f cebd
-0.13970242 -0.08558946 -0.19661544 -0.1874679 0.06821707 0.02187585 -0.114168376 -0.18221037
-0.1458275 0.16098894 -0.13699688 -0.014509182 0.0074094646 -0.0366917 -0.029553922 -0.0517656
-0.1012973 -0.112135805 -0.13664356 -0.07970044 -0.123102725 0.01598054 -0.0112703005 0.08133584
-0.03476497 -0.10735538 -0.11943761 0.04086686 -0.08988066 0.12870717 -0.11896598 0.14813285
0.13498138 0.023334058 0.023387246 0.045062955 -0.0063811755 -0.072733015 -0.010681429 -0.11761072
-0.063023426 -0.051489476 -0.00047862533 -0.079091944 -0.13366532 0.051645417 -0.11670881 -0.014995845
0.069431506 -0.06109853 -0.00059003034 -0.11615199 0.034934066 -0.016451994 0.07823023 0.018524487
-0.11495225 -0.008434014 0.039558258 -0.07875652 -0.094514236 0.036696292 0.030810587 -0.10085994

conv.1.running_mean f4 [64]
00000000: abb7 5dbf 15a3 aebe afb4 ecbe 8607 393f
00000010: 24c0 39bf f1eb a9be 1cb7 8bbe 53ec 74be
00000020: 875c 733e 57c1 a5be 5aef 01bf c1da 58bd
00000030: 601e 1b3f 6f12 3dbf d6f9 193f 21de 88bf
00000040: 976d e0be 42aa cf3e 64e7 9bbe 3e7d 04bf
00000050: e65d 59bf 21f8 01bf e266 15bf 26b9 f6be
00000060: 94cb 55bf 3594 7ebe 01f5 53be 1c17 b13e
00000070: 2a27 293f bbfd 423e 431b 0ebf 5bd9 8abf
00000080: b351 193d 4f25 d73e d8ce 26be 43a4 8abf
00000090: 6d5d 243e 8c84 3cbf 47e4 8cbe 3bf1 57bf
000000a0: 8127 88bf edb6 8a3e 9c15 62bf 32cf 94bf
000000b0: 4856 e0bc 2cb1 86bf 056d cc3d 0006 cebe
000000c0: 667d 27bd c0e1 ad3e 02dd a6be 8663 a0be
000000d0: 4c15 953e 883f 03be 090f 293e 1e6d e6be
000000e0: 434b 11bf 320f 84bd 0083 a9bd 7a62 083f
000000f0: 166e a2be 7334 88bf ecc3 4bbe f69f 80be
-0.8660838 -0.34108797 -0.462316 0.72277105 -0.7255881 -0.33187822 -0.2728814 -0.23918276
0.23765765 -0.3237407 -0.50755847 -0.052942995 0.60593224 -0.7385625 0.60146844 -1.0692788
-0.4383361 0.40559584 -0.30449975 -0.51753604 -0.849089 -0.5076924 -0.5836011 -0.48188132
-0.8351376 -0.24861224 -0.2069893 0.34587944 0.66075385 0.19042103 -0.5551035 -1.0847582
0.03743143 0.42020652 -0.16289842 -1.0831379 0.16051264 -0.7363975 -0.27517912 -0.84352463
-1.0637056 0.27092686 -0.88314223 -1.1625731 -0.027384892 -1.0522819 0.09981731 -0.40238953
-0.040891074 0.33961296 -0.3259049 -0.3132593 0.2911781 -0.12817204 0.16509642 -0.45005125
-0.56755465 -0.06448211 -0.082769394 0.53275263 -0.31724614 -1.0641006 -0.19898957 -0.2512204

conv.1.running_var f4 [64]
00000000: 7605 013f dcfd 983e ee2d ea3e a0a6 9f3e
00000010: 7d4a a83e 14f2 0d3f 5932 9d3e 51df 703e
00000020: 08ee a53e d2a3 1b3f 0b58 5c3e fa64 ed3e
00000030: d257 933e 5367 cf3e bf18 a23e e992 ec3e
00000040: ff75 5b3e facd d33e 2c59 933e c337 753e
00000050: dcd3 a73e e944 983e 8419 b73e 2d3b 753e
00000060: d6c4 8a3e 50ec d43e 4764 9a3e 17f8 bb3e
00000070: 7c17 ad3e 0476 463e 5480 ae3e 43a3 b03e
00000080: bc5e d53e 392b ee3e c2f0 993e 12a8 093f
00000090: d615 913e 8e22 a83e 3bf4 ee3e 8283 cf3e
000000a0: 494a a83e c111 563e 9f58 b93e 0f8a cc3e
000000b0: 3322 e23e e75a da3e bd5c 383e 6063 da3e
000000c0: bcd1 ce3e 103b e53e 0e1c 1a3f 7e1e 8a3e
000000d0: bc05 813e 0ee2 a23e 1107 7f3e f255 533e
000000e0: 7d69 f13e 770a cd3e 4a47 a03e 13c2 993e
000000f0: 4485 783e 3f33 bf3e 4933 bd3e ef87 eb3e
0.5039896 0.2988118 0.45738167 0.31181812 0.3286933 0.55447507 0.30702475 0.23522688
0.32408166 0.60796845 0.2151796 0.46366102 0.2877794 0.40508518 0.31659505 0.46205834
0.2143173 0.41368085 0.2877897 0.23947053 0.32778823 0.29740074 0.35761654 0.23948355
0.271033 0.41586542 0.3015463 0.36712715 0.3380698 0.19380957 0.34082282 0.3449956
0.4167384 0.4651735 0.30066496 0.5377208 0.28336972 0.32838863 0.46670708 0.4053002
0.32869175 0.2090521 0.36200425 0.3994908 0.44166717 0.42647478 0.18004127 0.42653942
0.4039439 0.44771624 0.6019906 0.2697639 0.25199687 0.3181309 0.2490504 0.20638254
0.47150794 0.40047047 0.3130439 0.3003088 0.24269587 0.37343785 0.3695319 0.46002147

conv.3.weight f4 [64, 64, 3, 3]
00000000: 6e36 b63b cb5b 6b3d a5e0 0bbe 076a dbbc
00000010: 1941 003e f2d6 cdbc c9fc b43d f188 5dbd
00000020: 2269 53bd 7daa 7bbd b5cd 383d f812 233d
00000030: a59e b13d 8993 efbd d226 6abc b125 9a3d
00000040: c4b9 383d 4272 a2bc 20be 823d 3f7f 353b
00000050: 1b71 84bd 250c f13c 0fcd 2cbd 152f f13d
00000060: cff7 c33b de36 2cbd 9710 6a3d 1932 4b3d
00000070: d15b 16bd 8446 1c3b 2816 b4ba b7f4 0c3d
00000080: 2ad1 81bd 38ae 4fbd 8454 c43d 8b82 f33c
00000090: c7a0 873c 43f2 cf3d e3dd 94bd 957b 80bc
000000a0: 16ec d53c 1f35 503c b6c0 a7bd d201 3ebd
000000b0: 7123 253d e528 25bd 96ba 833d d3f1 f43c
000000c0: 00f1 163c ae0d 2a3d 095c 433c e857 a73d
000000d0: 760a 433c ac3b dabc 3b61 9cbd 52ea 893d
000000e0: 0d85 c73b 1c52 953d 3f2e 803c 91cb 1e3d
000000f0: 073a 9cbc 37d5 c93c 851e 25bd 3c75 8d3b
00000100: 5544 2bbc a1f5 c73c c6db d33d 0b69 4a3d
00000110: e586 1cbd b426 23bd 7fe8 163d 6d72 153d
00000120: caf5 31bc cdc1 7e3d 9cab 21be 49a1 cdbc
00000130: da93 703c 80e4 c93b 6a42 1a3e adf6 043d
00000140: f0e9 0fbd e5d1 543d 63a5 d9bc f42e 813d
00000150: 1e8d ff3c 46ea 2ebd 618d 943d db61 ce3b
00000160: 60b1 e33c 4690 8e3d bd97 d2bd f1be 423e
00000170: ebc2 21be 140e a73d 8b8c b7bc be78 483d
00000180: 92fc 57be 5c6d 43bd f5b0 c1bd d0f6 a6bc
00000190: 1ee5 43bd 6a83 a13c 41fb d63d e501 873c
000001a0: ece0 cd3d 332d cb3c 03ba c23d c114 a33c
000001b0: 0209 023e 88a2 d93c 40b5 403c 1ed8 223d
000001c0: 2993 053b 4139 eb3c aa85 a1bc 4a84 23bd
000001d0: bb78 b8bd 8470 23bd 45ff ea3d 4e74 84bd
000001e0: e669 1739 e24b d73b 42d0 55bd f375 08bc
000001f0: 4472 ba3c 94ce a93d 1d3d fe3c 4656 98bd
00000200: a8f6 61be a297 8b3c b44f d03b f6fe 5bbd
00000210: 7174 a8bd 801a 443d c6c4 ec3d faf0 94bd
00000220: 8976 8cbd c66e cabc a225 4bbc 84f6 373d
00000230: 1c56 a2bd d753 29be fe22 bf3c 3214 ed3c
00000240: 3491 adbd d069 a7bd faa1 8d3d 1ec8 81bd
00000250: 9941 4bbd c990 c5bd 937a 2f3c 5e98 c03d
00000260: 763c cabb b2de 8b3c 163f 0fbd 4930 c83d
00000270: 1b2e 6dbe 5b9d 80bd 5445 cdbd 1a7e 2bbe
00000280: e885 4ebc ba60 dabd 5647 c93d 7c53 ddbc
00000290: 9444 72bd 80f2 733d bbb0 04bd a73c ac3c
000002a0: 684c f3bc eea0 68bd de5c 093e 4e93 7fbd
000002b0: bd0d 6f3d 3719 59bd 93e9 bfbd 80bb b23b
000002c0: a473 92bc ab95 07bc be26 0f3d 034a 14be
000002d0: c6ce bf3c 21c5 c9b9 55cb 19bd 724d f5bd
000002e0: ae71 2ebc c296 ce3b 7879 08bc 7a0b 3cbc
000002f0: 1b4a fdbb a7b3 0fbd ab96 d13c b75e 6ebd
00000300: f29e 603b 8503 1a3d 0e6e f3bd 6e51 bc3c
00000310: e56f 48bd c461 d53d 3d34 e23d cf8c 613d
00000320: b152 acbd ca6d 413b a085 85bd 6c0b 263d
00000330: 1428 8a3d 5b0c d53d d2f3 083e b014 f33b
00000340: d120 e4bd bd38 813d b812 0fbd e2ff 5c3b
00000350: f12f cb3d 4e01 77bd ad9a 0a3c f347 8bbd
00000360: f5ca 533d ff50 0dbd 801c a33d 7d66 45bb
00000370: d793 483d 95a8 7a3d aae6 d6bd ec9a 20bd
00000380: 5c74 cb3d 8a6b c0bd 32d4 69bc 25b4 53bd
00000390: dc7a 023e 3091 80bd b6e7 05bd 21fe 853c
000003a0: 57c3 e13d f340 d93d f31e 9e3d d954 09be
000003b0: f643 bbbd f3de 423d d7e0 55bb e4ba a73b
000003c0: 2a9d 1bbd a989 c73d eb71 563d 9045 ebbd
000003d0: 4daf dd3d 5378 21be 2f05 3abd 3e86 c03d
000003e0: c3ed 773c 5276 a8bc 65b2 7cbd 93d3 023d
000003f0: ce15 c03d 086c 913c cb9c 64bd c67a 4d3d
0.0055606877 0.057460587 -0.13659914 -0.026783956 0.12524833 -0.025126908 0.088372774 -0.054085676
-0.051613934 -0.061441887 0.045118053 0.039813012 0.08672837 -0.11698062 -0.014291482 0.0752672
0.045099035 -0.019829873 0.0638392 0.0027694253 -0.06466886 0.029424736 -0.042187747 0.11776558
0.005980469 -0.042044513 0.057144728 0.049608324 -0.036708657 0.0023845742 -0.0013739513 0.034413066
-0.06338723 -0.050703257 0.095864326 0.029725334 0.016556157 0.1015363 -0.07268884 -0.015683929
0.026113551 0.012707978 -0.081910536 -0.046388455 0.040317003 -0.040322203 0.06432073 0.029900467
0.009212732 0.041516952 0.011923798 0.08171064 0.01190435 -0.026639782 -0.07635733 0.06734146
0.006088859 0.07291052 0.015647052 0.038768355 -0.019070638 0.024637802 -0.04031231 0.004316954
-0.010453303 0.024409117 0.10344653 0.049416583 -0.038214583 -0.039831832 0.03684282 0.036486078
-0.010861823 0.06219654 -0.1578812 -0.02510132 0.014683688 0.0061612725 0.15064397 0.03246181
-0.03513521 0.051957984 -0.02656812 0.06307784 0.03119522 -0.04270389 0.072535284 0.0062982864
0.02779454 0.06961112 -0.10282848 0.19018151 -0.15797012 0.08156982 -0.022405883 0.048943274
-0.21092442 -0.047711715 -0.0945758 -0.020381361 -0.047825925 0.019715983 0.10497142 0.016480396
0.10052666 0.024801826 0.09508135 0.019907357 0.12698749 0.026566759 0.011761963 0.039756887
0.0020381904 0.028713824 -0.019717056 -0.039921083 -0.090074025 -0.039902225 0.1147447 -0.06467496
0.00014439932 0.0065703252 -0.052200563 -0.008328903 0.022759564 0.08291355 0.031035 -0.0743833
-0.22066748 0.017040078 0.0063571576 -0.053709947 -0.082253344 0.047876835 0.11560969 -0.07272525
-0.06858546 -0.024711024 -0.012399109 0.04491283 -0.0792658 -0.16535889 0.023332115 0.028940294
-0.08474961 -0.08174479 0.0691566 -0.063369974 -0.049623106 -0.09646756 0.010710376 0.09404062
-0.0061717583 0.017073963 -0.034972273 0.09774835 -0.23162119 -0.06280013 -0.10022989 -0.16747323
-0.012605168 -0.106629804 0.098280594 -0.027017348 -0.059147432 0.059557438 -0.032395106 0.021025015
-0.02969952 -0.0567941 0.13414332 -0.06239634 0.05836271 -0.053002562 -0.093707226 0.0054544806
-0.017877407 -0.00827543 0.034949057 -0.14481358 0.023414027 -0.0003848458 -0.03754743 -0.11977662
-0.010647221 0.006304593 -0.008329742 -0.011477346 -0.0077297813 -0.03508344 0.02558454 -0.058195796
0.0034274426 0.037601013 -0.11886226 0.022988047 -0.048934836 0.10419038 0.1104512 0.055065926
-0.0841421 0.0029514902 -0.065196276 0.040538236 0.067459255 0.10402747 0.1337426 0.0074182376
-0.11139072 0.0630965 -0.03492996 0.0033721854 0.099212535 -0.06030398 0.008459729 -0.068008326
0.051707227 -0.034501072 0.0796442 -0.0030120902 0.048969116 0.06119593 -0.104932144 -0.039210245
0.09934303 -0.093955114 -0.014271783 -0.05168547 0.1274218 -0.06277692 -0.03269168 0.01635653
0.11023586 0.10608091 0.07720747 -0.13411273 -0.09143822 0.047575902 -0.0032635236 0.0051187146
-0.03799168 0.097430535 0.052354734 -0.11487877 0.108244516 -0.15768556 -0.0454151 0.09400605
0.01513237 -0.020564232 -0.061693568 0.031940054 0.09379159 0.017751709 -0.055813592 0.050165914

conv.4.weight f4 [64]
00000000: 6413 7a3f 521f 693f 94c5 773f 470f 8d3f
00000010: ea30 803f e292 743f 59e7 893f 5e27 6b3f
00000020: 7698 793f 3b5e 813f 2306 823f 0a85 7f3f
00000030: 29ee 753f 25da 873f 1d97 8b3f f5a6 773f
00000040: b09d 923f 82b9 803f 80d1 803f 7a78 7b3f
00000050: d469 5e3f f945 7e3f e522 7a3f 3567 7d3f
00000060: 0845 7a3f 52f8 7c3f 08fa 893f 26e3 7c3f
00000070: 3a6e 963f 755b 8c3f 0b17 863f 887b 803f
00000080: dee3 8b3f 8982 7b3f fd92 673f 98cb 723f
00000090: b439 6e3f fc75 903f 4ffe 873f 1a57 813f
000000a0: 47b9 813f 255c 6e3f dd0d 8a3f 448e 6d3f
000000b0: c669 783f 0372 783f e6db 7b3f ecef 6b3f
000000c0: 0d6f 803f 4426 8c3f 7b11 733f 12f6 893f
000000d0: 47c1 843f ee64 893f 877c 813f 6eac 6d3f
000000e0: 61ce 633f cec8 823f a0e9 703f 97bd 7a3f
000000f0: da12 933f ce24 7b3f 4556 6d3f c93f 863f
0.9768584 0.91063416 0.96785855 1.1020287 1.0014927 0.95536625 1.0773727 0.91856945
0.9749826 1.0106882 1.0158123 0.99812376 0.9606653 1.0613447 1.0905491 0.9673913
1.1454372 1.0056612 1.0063934 0.9823071 0.8688023 0.9932552 0.97709495 0.98985606
0.97761583 0.98816407 1.0779428 0.987841 1.1752388 1.096541 1.0475782 1.0037699
1.0928915 0.98246056 0.9045866 0.9484191 0.930568 1.1286006 1.0624484 1.0104706
1.0134667 0.9310935 1.0785481 0.92795205 0.970364 0.9704897 0.98382413 0.92162967
1.003389 1.0949178 0.9494855 1.077822 1.0371484 1.0733926 1.0116128 0.9284123
0.88986784 1.0217531 0.94106483 0.9794554 1.1490128 0.98103034 0.9270976 1.0488216

conv.4.bias f4 [64]
00000000: 75b2 c5bd b8b4 20be b0e5 9bbd 2e2e 59be
00000010: e40a 56bd bf40 58be e8c2 6cbe aaa0 92bd
00000020: 0e1e 34bd 7542 41be 4a76 4bbe 5fb4 ebbd
00000030: 5c61 d9bd 4edf f9bd 232f 5abe e3ab 46be
00000040: 2617 8fbe b01a 08be 4f68 5ebd 2956 2cbe
00000050: 6a04 78bd 634a a4bd d038 113d b8a7 56be
00000060: f151 7bbe d74c 0fbe 25f9 59be 3d1b 2dbe
00000070: bf54 7fbe 6f3d 99be 3206 18be 5c73 2dbe
00000080: b73e ddbd 3f3d 25be 9c6a b6bd 72d0 8bbd
00000090: 2c8a 13be 940e 68be 682d 25be 479d 23be
000000a0: 3ad1 5bbe 20ae bdbd f9bd fabd 7ea8 3a3d
000000b0: cb09 08be 0228 7dbe f2de 12be 8a5c 18be
000000c0: 201f 69bd de24 4cbe 7ceb 04be ab20 24be
000000d0: 5d4f 3fbe f6ca b4bd 7825 d0bd ef3b 31bd
000000e0: 91db 3fbe 36f3 64be 7c3d a3bd 8a5f 5ebd
000000f0: c20a ecbd e483 f7bc 341b 03be e588 37be
-0.096531786 -0.15693939 -0.07612169 -0.21209022 -0.05225648 -0.21118449 -0.23121226 -0.071595505
-0.043973975 -0.18873008 -0.19869342 -0.115090124 -0.10614273 -0.12200795 -0.21307044 -0.19401507
-0.27947348 -0.1329143 -0.054298695 -0.16829742 -0.060551085 -0.08022001 0.03545457 -0.20962417
-0.24542977 -0.13994156 -0.21286447 -0.16904922 -0.24934672 -0.29929683 -0.14846113 -0.16938537
-0.108029775 -0.16136645 -0.08907053 -0.06826867 -0.14408177 -0.22661811 -0.16130602 -0.15977965
-0.21466532 -0.09261727 -0.12243266 0.045570843 -0.13284986 -0.24722293 -0.1434286 -0.14879051
-0.05691445 -0.19935939 -0.12980455 -0.16028087 -0.18682618 -0.08827774 -0.101633966 -0.043270048
-0.18736102 -0.22358403 -0.079707116 -0.054290332 -0.115254894 -0.030214258 -0.12803346 -0.17923315

conv.4.running_mean f4 [64]
00000000: 784e 8ebe 6b89 c8be 7bf3 083f 42ea dfbf
00000010: e821 7c3f d536 fbbe bd57 27bf 33ef 49bf
00000020: a873 34bf d10b b9be 0502 d2bd 380d 84bf
00000030: 0c02 2cbf fa2c 45be 3738 e5bf 09be 5cbe
00000040: 6435 95bf a8c1 61bf c049 2cbf 8b4d d33e
00000050: dad0 ccbe ac8f d8bd a724 19bf 4e14 f2be
00000060: c23b 72bf 1a99 c5be 1ddd eebe 769b 4a3d
00000070: 55c0 04c0 7c24 9abf a11e b1bd 3423 23bf
00000080: e371 9ebf d642 7dbf fada a1be 5fb4 03bf
00000090: b7ae 783f 78c6 e6bf 1b4d b1bf 055c 21bf
000000a0: 4197 36bf 386c febe 3110 f9bd 4fe6 adbe
000000b0: 41b8 73bf 5e4c 6dbc df73 933c e3b6 77bf
000000c0: 4324 6e3e ad7f 07bf b5b2 41bf d19b 85bd
000000d0: 8984 91be 38f2 9fbf 2c61 123c c5f0 063e
000000e0: 8f3f 443f 94b2 8fbe a805 d8be 6c8d 0ebf
000000f0: 8433 7bbf 7450 9dbe 0018 e3bd a3da 3fbf
-0.27794242 -0.39167342 0.5349652 -1.7493365 0.98489237 -0.4906527 -0.65368253 -0.78880614
-0.7048898 -0.36141828 -0.102542914 -1.0316534 -0.67190623 -0.19255438 -1.790778 -0.21556868
-1.1656919 -0.8818612 -0.67300034 0.41270098 -0.4000309 -0.10574278 -0.5982155 -0.47281116
-0.94622433 -0.3859337 -0.4665307 0.049464665 -2.074239 -1.2042384 -0.0864842 -0.6372559
-1.2378505 -0.9893011 -0.31612378 -0.514471 0.97141594 -1.8029318 -1.3851656 -0.63031036
-0.71324545 -0.4969194 -0.121612914 -0.33964774 -0.95203024 -0.014483539 0.017999588 -0.9676344
0.2325602 -0.5292919 -0.7566331 -0.0652386 -0.2842143 -1.2495794 0.0089343 0.13177784
0.7665948 -0.28065932 -0.42191815 -0.5568454 -0.9812548 -0.30725443 -0.11088562 -0.7494299

conv.4.running_var f4 [64]
00000000: c6f2 9b3f 354f 833f 7471 b63f e2d7 b63f
00000010: 5b2a af3f 5db0 9d3f 430f b73f 9207 883f
00000020: 4d15 ae3f 707c 903f a78e b03f 9241 9c3f
00000030: bc0f ba3f fd56 c43f 2f65 a63f c79a 863f
00000040: 35db dd3f 80a7 a13f deb4 943f 4d5c a03f
00000050: b8ba a63f 5f24 a73f 3ad0 923f a43c 8b3f
00000060: 7e77 cc3f 2527 8d3f 5d53 923f 6b2a c83f
00000070: cd22 cf3f d61e aa3f 2ff6 b23f 4d50 8c3f
00000080: fe62 9d3f deb4 b23f f82e 833f 98ef 883f
00000090: 0c1d 753f 4468 b33f 0bd6 a43f 293f 8b3f
000000a0: a226 b93f 8218 933f 2acd a43f 7b58 823f
000000b0: 08c7 953f d103 833f 7149 b13f 676c a73f
000000c0: 83a5 ab3f 630a b23f e2be 853f c284 c63f
000000d0: fc77 a23f d8be a83f 62ad b43f 342e 903f
000000e0: 5c84 a33f 6d31 9e3f 5e63 6f3f fbb3 a23f
000000f0: cfd8 e03f 1300 a03f fb86 8a3f 2445 a03f
1.2183464 1.0258547 1.4253373 1.4284632 1.3684801 1.2319447 1.4301533 1.062731
1.360025 1.1287975 1.3793534 1.220751 1.4536052 1.5339047 1.2999629 1.0515984
1.7332522 1.2629242 1.1617696 1.2528168 1.3025732 1.3057975 1.1469796 1.0877881
1.5973966 1.1027571 1.143169 1.5637945 1.6182495 1.329066 1.3981379 1.0962006
1.2295835 1.3961446 1.0248709 1.0698118 0.95747447 1.4016194 1.2877821 1.087865
1.4464915 1.1491854 1.2875111 1.0183252 1.1701365 1.023554 1.3850538 1.3079957
1.3409885 1.390942 1.0448878 1.5509264 1.2692866 1.3183241 1.4115412 1.12641
1.2774768 1.2358834 0.93511 1.2711176 1.7566165 1.2500023 1.0822443 1.25211

conv.6.weight f4 [64, 64, 3, 3]
00000000: 6735 883d 8d69 8bbd 259c babc 38b2 763d
00000010: 56af 023d c4c5 78bd 4d5f c93d b1e2 f0bb
00000020: 057e c93d ac64 04be 7d36 e53d 21ab 0d3d
00000030: edd0 fabc 563f 4abd 65e7 303e b31c 053c
00000040: 2c7c c2bc e3ab 4c3d 58ca 07bd 0f29 ca3c
00000050: 143f 92bd 9ba4 673d 0723 84bd dcdf f73c
00000060: 05a7 743d 1acb aabb 1a77 9cbd d833 93bd
00000070: cca7 3b3d 89a5 03bd 950e 523c 99e9 c9bd
00000080: 1ca9 21bd e034 3bbd 9141 e2bd 5dcd 08bd
00000090: efa3 dd3c 19ea 8ebc 0dcc 14bc 1d09 cfbc
000000a0: 1d7d 883d f536 4a3d 7eba 7abe 584a 933d
000000b0: 849d 17bc a5f6 08bd 5af7 823c de08 0fbd
000000c0: c3db 983d c2bc 96bc 9427 423d f61f e53c
000000d0: f128 03bd 23da afbd 04da 8e3d e825 9db9
000000e0: e552 01be efde 36bd 74d9 33bc a683 ad3c
000000f0: f71e 20be 7ba7 57bd 9b59 06be 512d 27bd
00000100: e412 22bc 0375 14bd d860 81bd 8f3f 53bd
00000110: 4bae 3dbd 376f ea3d 88b3 1cbc b3f0 6abd
00000120: 41d1 043e 2d95 70bd cd77 1fbe d814 4f3d
00000130: ec9a 7cbd 0ffe f5bc c471 233d 91f1 f13d
00000140: 2798 1fbc 9a9a ae3c f01a 753d 5cc4 373d
00000150: 0b2d 2bbc 3acc 5dbd 109b 853d 7385 213d
00000160: ce6a e03d 2e22 473d c97c 57bd 86a2 e8bd
00000170: 24b3 7c3d ed14 9b3a df3e 8e3d 26d9 bbbc
00000180: b67d f7bd 7ceb 073c ad8a dbbb 190a ddbc
00000190: da72 1bbd d376 86bd 37a1 f0bc 5aa6 aabd
000001a0: 87f3 38bb 5385 973d 1757 03ba d1fa 1e3c
000001b0: f510 473c a958 15bb f658 8cbd 780f 393d
000001c0: 61c5 d73d 6d7d 4fbe 0e1a cf3d ca44 043c
000001d0: a78d 10bd 8f4f 90bc d978 843d 8880 473d
000001e0: b1b7 a03d 9440 b43d da26 df3d cd85 c0bd
000001f0: 0915 833c 89c8 df3d 0ceb 04bd fb57 b5bc
00000200: 4f12 8cbd d132 953d 8a0a a7bd 3955 d4bc
00000210: 34bf c4bc 3a1f 37bd 7a09 a2bc 1638 6d3c
00000220: 0831 873c 4488 17be ab0f 333d 557d 07be
00000230: 532e 1e3b e17d d8bd 41e8 8cbd dfb6 6bbd
00000240: f3e2 c4bb ac6b aa3d c26d 2abe 05f2 863d
00000250: d5a0 f93c 96c4 e23d f9b3 f3bc 4e23 acbc
00000260: ef92 603d 65bf f83d ae55 a4bd 3fa8 9f3b
00000270: 247d af3c f18b 7ebd 227c 0d3d 4647 96bc
00000280: c35a 4f3d 5337 7ebd 991a 90bd 0277 85bd
00000290: b6d5 d13d 41fd d2bd 6de5 4d3d 7f23 6e3d
000002a0: bcc1 133d ebe3 bbbd 5614 cd3c bd32 63be
000002b0: 7b00 b8bd ad7c 2abe c90c 0f3d 9df2 37bd
000002c0: 75bb 85bd 9f72 ec3c e9fc 00be cf06 e2bc
000002d0: afde fabd 326e 5f3c 4817 edbb 5905 603c
000002e0: e892 043c 1896 95bb afd0 b9bd 3f4d c3bc
000002f0: 08ff 313c 4712 0bbd bc8c b5bc 8df4 8cbd
00000300: 8d29 6dbd ec4f 523d a95e dbbd d966 0abd
00000310: 8b11 ec3c e883 133e 1110 42bc f2b0 0e3d
00000320: 4d8e 863c fed6 ddbc ef6d 063e 41a1 e6bc
00000330: 0d4e 1fbd fc53 e63d 5915 973d 1ab2 1d3d
00000340: de74 453d 6ead 3f3d 299e 77bd 4715 f73c
00000350: b641 85bc d0e1 66bd f571 59bd ffdb 88bc
00000360: a4eb b43d 1fa9 003b 7a32 533d 0fea 02bd
00000370: 65a5 bd3d 99da 74bd 0610 523d 1001 863c
00000380: 46f5 32bd 749d e5bc c47b 863d 8519 f9bd
00000390: d826 243d 6efc 3cbc dea3 b73d bb59 78bc
000003a0: 4b68 003c e288 143e b2e7 47bd 6dfd 9dbc
000003b0: fca8 edbd 57b5 853d a597 84bd 098a 5dba
000003c0: 1b7a a1bd c612 bdbc b967 acbd 8e43 02bd
000003d0: 635b efbd ae93 b43c 1555 2abe f2d8 f83c
000003e0: 8cde 933d 0613 003d 75d3 42bd f82b 223d
000003f0: 6a06 71bd 17f6 6b3d c09f 823d ef50 ab3d
0.06650811 -0.068072416 -0.022779534 0.060228556 0.031905495 -0.06073548 0.0983263 -0.0073512425
0.098384894 -0.12929028 0.111920334 0.03458703 -0.030617202 -0.049376808 0.1727577 0.008124518
-0.02374085 0.04996861 -0.033151954 0.024677781 -0.071409374 0.056553464 -0.064519934 0.030258112
0.059729595 -0.0052122 -0.07639904 -0.07187623 0.04581432 -0.03214029 0.012820859 -0.09859008
-0.039467916 -0.045704722 -0.11047662 -0.033398975 0.027055709 -0.01744561 -0.009081853 -0.0252729
0.066644885 0.049368817 -0.24485204 0.07191914 -0.009253863 -0.033438344 0.015987087 -0.034920566
0.07463791 -0.018400554 0.047401026 0.027969342 -0.032021467 -0.08586528 0.06975177 -0.00029973616
-0.12629278 -0.0446462 -0.010977138 0.021180939 -0.15636812 -0.052649956 -0.1312012 -0.0408147
-0.009892199 -0.036244404 -0.063172996 -0.051574286 -0.046308797 0.11446994 -0.009564288 -0.057358455
0.12970449 -0.058736015 -0.15573044 0.050556988 -0.061671183 -0.030028371 0.039903417 0.11813653
-0.009740866 0.021313954 0.059840143 0.044864997 -0.010447751 -0.054149844 0.065237164 0.039433908
0.109578714 0.04861658 -0.05260924 -0.11359124 0.06169428 0.0011831798 0.069455855 -0.022930693
-0.12084524 0.00829589 -0.006699881 -0.026982354 -0.037951328 -0.06565633 -0.029373748 -0.0833251
-0.0028221325 0.073984765 -0.0005010231 0.009703354 0.012150039 -0.0022788441 -0.068529055 0.045180768
0.10535694 -0.2026269 0.101123914 0.008073041 -0.03529134 -0.017616061 0.06468362 0.04870656
0.07847536 0.0880138 0.10896082 -0.094005205 0.016001241 0.10926921 -0.03245072 -0.022136679
-0.068394296 0.07285083 -0.08156307 -0.025919544 -0.024016954 -0.044707514 -0.01977991 0.014478704
0.016502872 -0.14798075 0.043716114 -0.13231404 0.0024136498 -0.105708845 -0.068802364 -0.057547446
-0.0060085 0.08321318 -0.16643432 0.0658913 0.030472199 0.11072652 -0.029748904 -0.021012928
0.054827627 0.121458806 -0.080241546 0.0048723514 0.021421976 -0.062145177 0.03454221 -0.018344533
0.050623666 -0.06206448 -0.07036323 -0.065168396 0.1024584 -0.103022106 0.050267626 0.05813932
0.03607343 -0.09174331 0.025034111 -0.22187324 -0.08984467 -0.16649123 0.034924302 -0.04490911
-0.06529895 0.02886325 -0.12596478 -0.027591137 -0.12249505 0.013637112 -0.0072354414 0.01367315
0.008091666 -0.0045650117 -0.09073006 -0.023840545 0.010864027 -0.033952978 -0.022161834 -0.06882582
-0.057900954 0.05134575 -0.10711414 -0.03378949 0.028816959 0.14405787 -0.011844651 0.034836717
0.016425276 -0.027080055 0.13127874 -0.028153064 -0.038892794 0.112464875 0.073771186 0.03849993
0.048207156 0.046796255 -0.060453568 0.030161513 -0.016266685 -0.056367695 -0.053087194 -0.016706465
0.088340074 0.0019632054 0.05156181 -0.031961497 0.09260062 -0.059778783 0.051284812 0.016357929
-0.043690942 -0.028029181 0.06566575 -0.121630706 0.040076107 -0.011534793 0.08966802 -0.015158112
0.007837365 0.14505342 -0.048804946 -0.019285882 -0.11604497 0.065287285 -0.064742364 -0.000845105
-0.07884618 -0.023080241 -0.08418221 -0.031802706 -0.116873525 0.022043075 -0.16634019 0.030376885
0.07220182 0.031268142 -0.047564942 0.039592713 -0.058844008 0.057607736 0.06378126 0.08365046

conv.7.weight f4 [64]
00000000: 9672 6e3f 83fd 753f 81a3 733f c8b8 763f
00000010: cc09 763f 8eeb 773f 9f8d 753f a4a8 843f
00000020: a568 853f c481 733f 6347 883f f6b3 7e3f
00000030: c2cd 7e3f 3b81 753f a818 803f 6774 703f
00000040: 3a55 813f 3110 753f e45e 713f cc8c 703f
00000050: 96cc 763f 2324 773f 2511 7f3f a71c 8c3f
00000060: e260 773f 2044 773f aa63 723f 8aa4 733f
00000070: 7639 853f 31a1 6c3f c625 733f 4f40 753f
00000080: fdb8 743f fcfd 763f 1bfb 783f 6d14 743f
00000090: 5e06 783f 021e 753f e294 6e3f 0107 7b3f
000000a0: 7abe 803f c9fd 7d3f 703a 6d3f e6d0 843f
000000b0: 08f7 843f e20a 713f daae 7d3f 3ead 7d3f
000000c0: 5fb4 6f3f dfcb 763f 6ec2 763f 7eaa 873f
000000d0: 2b8e 743f 3b14 733f be7b 7b3f a349 803f
000000e0: bdd6 803f bf98 793f 1cf3 6d3f 6786 7a3f
000000f0: 1ed7 723f 9be9 6d3f 695d 733f b091 7a3f
0.93143594 0.96089953 0.9517136 0.96375704 0.961087 0.968438 0.9591922 1.0363965
1.042256 0.9511988 1.0646785 0.9949335 0.9953271 0.95900315 1.0007524 0.93927616
1.0104134 0.9572783 0.94285417 0.9396484 0.96405923 0.96539515 0.99635535 1.0946244
0.96632206 0.96588326 0.94683325 0.9517294 1.0408161 0.9243346 0.9497951 0.9580125
0.9559477 0.964813 0.97258157 0.9534367 0.96884716 0.95748913 0.9319593 0.9805756
1.0058129 0.9921537 0.92667294 1.0376251 1.0387888 0.9415723 0.9909493 0.9909247
0.936346 0.9640483 0.96390426 1.0598905 0.9552943 0.94952744 0.9823569 1.0022472
1.0065533 0.974987 0.9294908 0.9786133 0.9485949 0.9293458 0.9506441 0.9787855

conv.7.bias f4 [64]
00000000: 6f61 cbbe 2f94 57be 84e9 a8be e56f 5bbe
00000010: 8efd 67be 1be7 41be 1257 b8be 8064 37be
00000020: 5aa4 57be eeef 85be e9db 64be 820f cdbe
00000030: ffde c3be b495 a2be 4fe9 00bf 4b3f 5abe
00000040: 0372 b8be 59f2 8bbe f7d9 97be e11c a0be
00000050: d796 98be a8dd bdbe 160d b5be fb21 b4be
00000060: bb19 c5be 6be1 44be f7bd 83be 826c afbe
00000070: 97d9 90be 18af bebe 9758 90be fa63 b5be
00000080: 4812 93be d742 73be fbf2 9bbe 5e0e b5be
00000090: c093 48be 148f 32be 23a1 83be 02cd 94be
000000a0: f6d9 9cbe 1e92 58be 4646 8cbe 52a3 74be
000000b0: a553 95be 17c1 a0be 623a 5bbe 853e e5bd
000000c0: b100 96be b919 94be a1a0 8dbe 649c c1be
000000d0: da37 8ebe 29fc a4be 2ebf 33be ad07 87be
000000e0: c0ff 67be 234e 95be ffcc 99be 0475 a6be
000000f0: d721 adbe 2a65 a2be ed15 68be 2a1c b5be
-0.39722773 -0.21052621 -0.32990658 -0.21429403 -0.22655317 -0.18935816 -0.3600393 -0.17909431
-0.21058789 -0.26159614 -0.22349514 -0.40050894 -0.3825607 -0.3175484 -0.50356 -0.21313207
-0.36024484 -0.27333334 -0.2965848 -0.31272033 -0.29802582 -0.37083173 -0.35361546 -0.35182175
-0.38496193 -0.19226615 -0.2573087 -0.34262472 -0.28291008 -0.3724296 -0.2819259 -0.3542784
-0.28724885 -0.23755966 -0.30458817 -0.35362524 -0.19587612 -0.17437392 -0.25708875 -0.2906266
-0.3063504 -0.2114949 -0.27397364 -0.23890427 -0.29165378 -0.31397316 -0.2140899 -0.11193565
-0.29297403 -0.28925875 -0.27661613 -0.3781463 -0.27776986 -0.32223633 -0.17553398 -0.26373044
-0.22656155 -0.29161176 -0.30039212 -0.3251115 -0.3381488 -0.31717807 -0.22664614 -0.3537305

conv.7.running_mean f4 [64]
00000000: f2cb 26bf a7f3 7ebf f50c 8ebe ddd3 4abf
00000010: 808c dabe d35f abbf adb6 f9bd 6dcb dcbe
00000020: c0ce 7fbe d0be e2bd 9527 d7be 6bc9 08bf
00000030: ad36 10be 12ea 013f ca0c 5bbf bdc7 b53e
00000040: 1c0c e53e 33f3 d93e 0dec 55be 3c6d f2be
00000050: 8a82 623e 39b9 a2be 694f 22bf a86d 0fbf
00000060: 58eb 25bf 8f49 32bf 73f4 29bf 1420 85bf
00000070: 6a7f 06bf 3636 47be 6c65 273e 9703 89be
00000080: f482 76be e0ba 39bf 8c22 26be 76ef 12bf
00000090: 11ff 443f d1fa 63bf 45a5 d2be 8fcd 91bf
000000a0: ef7b 59bf 58bd 61bf 5b27 723e e823 3bbf
000000b0: e336 e9be 7c57 f6bd c8ec 6cbf 2cd3 00bf
000000c0: 4eda a1be 8af5 7cbe 5917 8abf 98ac 1d3f
000000d0: 2b58 93be e814 96bd 806b 41bf 329b 56bf
000000e0: 0d65 9fbe 7c2b 14bf 07f1 463e f5c7 89bf
000000f0: 42f8 29bf 587e 573e b543 08bf 8cab 23bf
-0.65154946 -0.99590534 -0.2774426 -0.7922953 -0.42685318 -1.3388618 -0.12193046 -0.43123952
-0.24981213 -0.11071551 -0.42022386 -0.5343234 -0.14083357 0.5074779 -0.8556639 0.3550395
0.447358 0.4256836 -0.20890827 -0.47348964 0.22120109 -0.3178194 -0.6340242 -0.560267
-0.6481223 -0.6964349 -0.66388625 -1.0400414 -0.5253817 -0.19454274 0.16347283 -0.2676055
-0.24073392 -0.72550774 -0.16224116 -0.5739664 0.769517 -0.8905459 -0.41141716 -1.1390857
-0.8495473 -0.8817954 0.23647825 -0.73101664 -0.45549688 -0.12028405 -0.925488 -0.5032222
-0.31611866 -0.2470304 -1.0788375 0.6159148 -0.28778204 -0.07328206 -0.75554657 -0.8383056
-0.31131783 -0.5787885 0.19427882 -1.0764147 -0.66394436 0.2104429 -0.5322831 -0.63933635

conv.7.running_var f4 [64]
00000000: 1916 693f 021a 523f d25c 7b3f 3b44 6e3f
00000010: 1ca1 893f bcda a53f 382c 973f d879 633f
00000020: 605f 4c3f 9e66 5f3f d4a9 883f 7f9c 8a3f
00000030: 4eb9 873f b008 3a3f 43d3 7a3f 43cd 653f
00000040: 921b 813f 7235 5e3f 6136 873f 74b6 713f
00000050: bd00 3f3f 6c7b 643f b337 8a3f e636 a23f
00000060: 4b7e 943f b41f a43f d384 8d3f 6928 823f
00000070: 181b 433f 0156 573f 0bb5 4b3f 5446 5b3f
00000080: 63ec 5f3f 3f03 bb3f f201 a13f ec22 813f
00000090: 08f1 5b3f d6d3 8e3f c2ec 4e3f 22c4 a03f
000000a0: 2813 8f3f 78a3 9c3f 48eb 6c3f 20fa b73f
000000b0: 0195 843f 7fff 7f3f b118 8a3f 9c6f 833f
000000c0: 9ef1 873f 601d 573f c732 803f 6d60 783f
000000d0: ee2a 7c3f 6b87 6f3f 09a7 4b3f 7c16 923f
000000e0: cd5a 7f3f 038e 8e3f a73b 723f 97ca 923f
000000f0: 85f1 8a3f 02d2 323f f4fd 5f3f 0af4 8f3f
0.91049343 0.82070935 0.9818851 0.9307286 1.0752292 1.2957377 1.181037 0.88857794
0.7983303 0.87265956 1.0676827 1.0829009 1.0603426 0.72669506 0.9797861 0.8976633
1.0086539 0.868003 1.056347 0.94419026 0.746105 0.89250827 1.0798248 1.2673004
1.1601042 1.2822175 1.105616 1.0168582 0.76213217 0.84115607 0.79573125 0.8565419
0.8747007 1.4610366 1.2578719 1.0088782 0.8591466 1.1158397 0.80830014 1.2559855
1.1177721 1.2237387 0.9254651 1.4373207 1.0357972 0.9999923 1.0788785 1.0268435
1.0620611 0.840292 1.0015496 0.97022134 0.98503006 0.93566006 0.7955175 1.1413112
0.99747926 1.1137089 0.9462227 1.1468076 1.0854956 0.69851696 0.87496877 1.124635

conv.9.weight f4 [64, 64, 3, 3]
00000000: 5eee 31bd 9b82 37bb f131 243d b76f a8bd
00000010: 35cd 89bd 95ff aebd 8292 b9bd 0bc6 a0bc
00000020: eded e4bd 3b3b 4f3d 3c65 5a3b d37a 5bbd
00000030: 52bb 7ebd bf1a f63c 4ed4 2ebd c459 86bc
00000040: d10e f83c f96f 6b3b 1fc3 283d 18f2 373d
00000050: 5681 cebc b01b f5bc 46ac 6e3c a867 ddbd
00000060: c8b5 24bd c775 bdbd 36c4 a3bd 6414 293d
00000070: e906 883d 2564 183d 3ce9 4c3c 2812 713d
00000080: 7a21 293d 99a2 0d3d e703 a43d be73 a23d
00000090: f246 b4bd a1e5 94bd d364 72bd bf1f eebd
000000a0: f4ff 633c d150 d3bd 75ff b9bd d2bd 95bb
000000b0: 3525 27bd 1589 d93d 0acc 613d fe6a 7b3d
000000c0: 4b60 673c 4a8d 4f3c 5695 103d 06bd c93d
000000d0: 1648 ce3a 403e 403d 8061 293e 7730 0b3e
000000e0: 851a aa3d 8a14 033d 2609 953d 9caa d23c
000000f0: af53 823d a77e bf3d 7d70 653d 97c1 db3d
00000100: 4c3d 443d 575e f43d 42e9 bf3d 4dab 373d
00000110: 18e1 cb3d 574d 803c d360 053a ac7f bf3d
00000120: 41d6 c73c 4d38 02bd 4ff5 dcbd d768 7fbd
00000130: 0898 e4bc 6830 06be 9054 afbd 76f4 cdbd
00000140: 0094 22be 1166 b33b c8c3 28bd 11c2 00be
00000150: 80e9 86bc 0435 c13c aa16 c5bd 1a1c 27bd
00000160: 5916 32bd 6d67 8bbd e77e e5bc 0338 bbbd
00000170: 33db 7ebd be93 d1bb 03bf a8bb 3fc8 33bd
00000180: 8aa3 ebbd ebfe 0ebe e0b8 eabd 0917 9f3c
00000190: d97a 983d e248 be3d d1be ba3b 9bbb 013e
000001a0: a02d 763d bc7a b83d f90e d43d 447f 1e3d
000001b0: 98c8 59be 2028 d1bc c517 3bbd 2e41 b7bc
000001c0: 365e c4bc 411f d93b e519 3dbd eeb1 8c3d
000001d0: a6b5 ff3c 7f02 793d e15e f53c d17f fa3c
000001e0: 7a7c 3d3d a9c4 cdbc 6fbc 06bc 72e7 393a
000001f0: 8c1b d83c fc67 bfbd 34a9 813c 6fa8 6e3d
00000200: dc8d 803c 5c4e 043e 4d40 f63b caf0 893c
00000210: 8f56 933d 9f3d 9e3d ef68 4e3c 310d 49bd
00000220: 00ea 85bc f8b3 e23c e3be c6bc 171c 9f3b
00000230: f373 003c f318 8dbd 1a86 11bd c6e8 6dbd
00000240: 7059 b63b bfcd 47bd ebd0 a7bd 5ca0 0d3d
00000250: b9bb 8f3c 520c e2bb f2cd c53c bfea f9bc
00000260: f364 0e3b 0662 ca3c c788 1dbd 7fc7 4e3c
00000270: 00dd a13c 56d8 bbbc df91 c3bd d218 ed3c
00000280: 8072 483d 5e13 e43b 0302 af3d a354 543c
00000290: 960f 883c 4f16 593d ff79 d6bc daec b2bd
000002a0: 85fe a93c 44bb f43c f20b 01be d1a4 b0bd
000002b0: 2bc7 f4bd d98a 47bd b93d 0fbe fffe a5bd
000002c0: 49cb 3dbd aeff cbbd ffe7 1abd c9e9 93bc
000002d0: 15a1 323d 1d5c fe3c 3315 89bd b5f8 ad3c
000002e0: 972e 83bd 06cc 273d 9c51 a33d 4112 053d
000002f0: a21b 53bc 8f35 83bd 6c3d 04ba a186 1abd
00000300: 5a95 5bbd ca6d f1bb 86d7 253d cf08 19be
00000310: d212 74bd a32c 433c 9d4d 8a3d 9b45 f0bb
00000320: fd58 22bd b29c 31bc 80fd 893d 21f8 723d
00000330: ef7f 9dbd adf5 02bc 2e77 153d 67be 32be
00000340: 5b9d 65be db39 18bd 0c42 1abe 696c 07be
00000350: 3df2 97bd 4b31 03be 1325 2fbe 7926 a2bd
00000360: 6393 c63d 031a 0c3d e332 b93c 0c41 96bc
00000370: f18f 96ba 87ba c4bc 6fbf bf3d daea 863b
00000380: 659c ef3c 4ecb 003d 0929 0b3d 307f a6bd
00000390: 81ba 40bc 21ac 203d 28ff a23c e480 053e
000003a0: 225b e63d f865 2d3c 238d 163d 83ee d43c
000003b0: a1cc 06bc a1a4 263d 98b5 04bc 1371 5f3b
000003c0: fa38 9b3d 009e 9e3d 52d0 5c3d 350a 25bd
000003d0: df5d 0f3c a9e9 2c3c 6f61 4ebd b876 623c
000003e0: b4ed 1b3c 2062 82bd 238f 77bc 7da9 c3bc
000003f0: 7a52 a23d 6109 c13d 6411 083d ca91 013e
-0.043440215 -0.002800143 0.04008669 -0.08224433 -0.06728593 -0.08544842 -0.09061147 -0.019625684
-0.11178193 0.050593596 0.00333245 -0.05358393 -0.06219036 0.03004205 -0.04268294 -0.016400225
0.030280503 0.0035924895 0.041201707 0.044908613 -0.025208157 -0.029920429 0.01456744 -0.108107865
-0.040212423 -0.0925098 -0.07996409 0.04127921 0.06641943 0.03720488 0.012506779 0.058855206
0.04129169 0.034578893 0.08008557 0.07932232 -0.08802594 -0.07270361 -0.059178185 -0.11627149
0.013916004 -0.10318149 -0.09081928 -0.0045697475 -0.040806968 0.106218494 0.055126227 0.061381333
0.014122079 0.012667963 0.035298668 0.098505065 0.0015738036 0.046934366 0.165411 0.13592707
0.083058394 0.03200201 0.072771356 0.025716119 0.06363618 0.09350329 0.05601548 0.10730284
0.04791002 0.119320564 0.09370662 0.0448411 0.099550426 0.015661879 0.00050879753 0.09350523
0.024394156 -0.031791974 -0.107889764 -0.062355842 -0.027904525 -0.13104403 -0.08561051 -0.10056393
-0.1587677 0.0054748137 -0.041202337 -0.1257403 -0.016468763 0.02358485 -0.096234635 -0.040798284
-0.043478344 -0.06806836 -0.028014613 -0.09141543 -0.062220763 -0.006395786 -0.0051497235 -0.04389214
-0.11505802 -0.13964431 -0.11461043 0.019420164 0.07445306 0.09291245 0.0056990166 0.12669222
0.060102105 0.09007785 0.10354418 0.03869559 -0.21267927 -0.025531828 -0.045676965 -0.022369947
-0.023970705 0.00662604 -0.046167273 0.06869875 0.031214546 0.060793396 0.029952468 0.030578526
0.04626129 -0.025118189 -0.008223637 0.0007091678 0.026380323 -0.09346005 0.015827753 0.0582661
0.015692644 0.12920517 0.0075149895 0.01683845 0.07194244 0.07726597 0.01259826 -0.049084846
-0.016346931 0.027673706 -0.024260944 0.0048556435 0.007840144 -0.06889524 -0.03552828 -0.05808332
0.005564861 -0.0487802 -0.08194145 0.03457676 0.017545568 -0.0068984414 0.024146054 -0.030507443
0.002172765 0.024704944 -0.03846052 0.012620806 0.019758701 -0.022930305 -0.09549307 0.0289425
0.04893732 0.0069603166 0.085453056 0.012959632 0.016608994 0.05299979 -0.02618122 -0.08736582
0.020751247 0.029874451 -0.12602213 -0.08625186 -0.11952051 -0.0487164 -0.13988389 -0.08105277
-0.046336446 -0.099608764 -0.037818905 -0.018055813 0.04361065 0.031049782 -0.066934966 0.021236757
-0.06405371 0.040966056 0.0797455 0.03248811 -0.012885006 -0.064067 -0.0005044553 -0.03772605
-0.05360923 -0.007367824 0.040488742 -0.14944766 -0.05958826 0.011912498 0.06753085 -0.0073325164
-0.039635647 -0.010840582 0.067378044 0.059318665 -0.07690417 -0.007993144 0.03649061 -0.17455445
-0.22423308 -0.03716455 -0.15064257 -0.13224949 -0.0741925 -0.12811773 -0.17103986 -0.07917494
0.096960805 0.034204494 0.022607272 -0.018341564 -0.001148699 -0.024014724 0.09362685 0.004117352
0.02924938 0.031443886 0.03397468 -0.08129728 -0.011763216 0.039226655 0.019897059 0.13037449
0.11247851 0.010583393 0.036755692 0.025992638 -0.008227498 0.040684346 -0.008099936 0.0034094497
0.07579227 0.0774498 0.053909607 -0.040292937 0.008750408 0.010553756 -0.05038589 0.01382225
0.009517122 -0.06366372 -0.01510981 -0.02388453 0.079258874 0.09425617 0.03321971 0.1265327

conv.10.weight f4 [64]
00000000: 0435 b63f 7c5f b93f 17c5 ba3f 3e0f b13f
00000010: 1506 b93f 19ec a73f 102c b23f 3206 c03f
00000020: ae9b bb3f b7fe bd3f 7765 b03f b458 ce3f
00000030: dc91 a63f 72e5 ab3f dfdd ba3f 1371 c33f
00000040: 8ea7 b23f ae2f b13f 2c7e b93f f317 ab3f
00000050: a9bb d03f 6abc a83f 12ec b03f e3e5 a73f
00000060: c6a4 c83f 3f1c b93f 83f8 a83f 5ec2 a93f
00000070: af64 b93f f0ed b43f b723 ac3f 4e52 bb3f
00000080: 8387 aa3f 652f bf3f 13a7 b43f 070f b33f
00000090: 993b ac3f 7fa8 aa3f 97ef b73f 8a2a c93f
000000a0: 4660 bd3f fe33 d13f 7be7 af3f e345 af3f
000000b0: a520 a53f 0cf0 ae3f 03b9 a63f 55cf b83f
000000c0: e566 af3f 8da8 a53f 9aef b83f 75c2 b63f
000000d0: a4eb a33f beb7 bb3f 69c7 ad3f 009e b73f
000000e0: e698 c33f 5e6d a83f ce1c b83f dcb7 cd3f
000000f0: 621e b63f b000 b43f 9a86 aa3f 4ac9 bd3f
1.4234929 1.4482265 1.4591397 1.3832777 1.4454981 1.3118926 1.3919697 1.5001891
1.4656885 1.4843358 1.3780965 1.612082 1.3013263 1.3429396 1.459896 1.5268883
1.3957384 1.3842676 1.449163 1.3366684 1.6307269 1.31825 1.3822043 1.3117031
1.5675285 1.4461745 1.320084 1.3262441 1.4483851 1.4135113 1.3448399 1.4634492
1.3322605 1.4936339 1.4113487 1.3988961 1.3455688 1.3332671 1.4369992 1.5716107
1.4795005 1.6343992 1.3742517 1.3693203 1.2900587 1.3667006 1.3025211 1.4438273
1.3703276 1.2942063 1.444812 1.4278094 1.2806287 1.4665449 1.357648 1.4345093
1.5281036 1.3158376 1.438379 1.6071734 1.4228022 1.406271 1.3322327 1.4827054

conv.10.bias f4 [64]
00000000: 73a6 993b e398 ad3b f7a9 be3c 7c69 2abd
00000010: d627 d03c 4b14 53bd 88dc c6bb 4ceb d8bc
00000020: 1d8b 593d 68f8 973d 2f0d b4bd 1edf 8d3c
00000030: 0f8d 31bd 2e66 6bbd 46b0 d3bc db5e b3bd
00000040: a58e 1abd 0287 103c 7d0c 323c e27e 9bbd
00000050: 4b71 893d 1edd 25bd f373 f7bd e236 2cbd
00000060: 87ba c33b 6384 3b3d bdaf e6bd 8efb 50bd
00000070: f247 a5bd 808c 083d e9c2 6cbd 8135 e9bc
00000080: 18d7 abbd cb03 e43c 359f 6f3c bf78 eabc
00000090: c901 a4bd c7c5 9abd 1949 403c 99e9 0fbd
000000a0: 7fb2 85bd f008 dd3c 05c2 98bd 655b 53bd
000000b0: 4ec3 9cbd 2399 d7bd 3760 fbbd 0c7a 963b
000000c0: 3901 14bc b696 22bd ec27 1b3c 7451 c0bc
000000d0: 6090 b5bd 1771 843d ff10 3bbc 0f99 f53b
000000e0: 9716 a2bd 2e61 a1bd 6b13 88bd c716 4cbc
000000f0: 78ed 8cbb db35 363d f3a5 03bd ec58 75bd
0.0046890317 0.0052977665 0.023274405 -0.041604504 0.02540962 -0.051533025 -0.00606877 -0.026479386
0.053111184 0.074204266 -0.08791577 0.017318305 -0.043347415 -0.057470493 -0.02584089 -0.087583266
-0.037733693 0.008821251 0.010867235 -0.0759256 0.06711062 -0.040494077 -0.120826624 -0.042044528
0.0059731635 0.04578055 -0.11263988 -0.05102115 -0.08070363 0.033337116 -0.05780307 -0.028467895
-0.08390635 0.02783384 0.01462536 -0.02862203 -0.08008153 -0.07557254 0.011736178 -0.035134885
-0.06528186 0.0269818 -0.07458881 -0.051600832 -0.07654439 -0.105272554 -0.12274211 0.004592186
-0.009033495 -0.03969451 0.009469967 -0.02347634 -0.08865428 0.06466883 -0.011417626 0.0074950526
-0.07914465 -0.07879864 -0.06644329 -0.012456602 -0.0043007694 0.044484954 -0.032140683 -0.059899256

conv.10.running_mean f4 [64]
00000000: f050 48bf 5476 dcbe 9fa6 eebe 2337 453f
00000010: 6c79 cfbe c211 9cbf 580a 6dbf c92f 92bf
00000020: 074b 3abf 69e9 71bf a2e6 963e d4b9 643d
00000030: 1657 86bf 98fb 993f f517 90bf 0b65 633e
00000040: 1e04 203f 2785 0ebf ac70 98be 5ce3 8c3f
00000050: 8c02 5f3f 4c43 75bf 14ee e43c df5c f5bf
00000060: b7f6 27be 6844 4cbf 0796 223f 347b 9abf
00000070: 1e30 9a3e 5d10 a43e 0ee0 653f 996d 3d3f
00000080: 81e8 a73f 28a2 9abf d7a6 023f d900 f73e
00000090: 5029 213f bcaf ae3d 5b42 67bf 25fd f03d
000000a0: 6b2c 67be 5bba 023f f7ec 9e3f b882 853f
000000b0: 2627 2ebf b0e5 343f 817a 383e d14e e9be
000000c0: 0722 ea3e 59c3 dabe 4056 d1bd 4364 4b3f
000000d0: 7425 723f 7f32 d0be 7f46 f9be 7ef8 223f
000000e0: f6cf 263f 38b4 e0be 2f86 333f d954 9a3f
000000f0: af05 3cbf ebf8 04bf 4546 5b3f fcc0 753f
-0.782485 -0.43059027 -0.46611497 0.77037257 -0.40522325 -1.2192919 -0.9259391 -1.1420833
-0.7277073 -0.9449678 0.29472834 0.055841282 -1.0495327 1.2029905 -1.1257311 0.22206514
0.6250628 -0.55671924 -0.29773462 1.1006885 0.8711326 -0.9580581 0.027945556 -1.9168967
-0.16402708 -0.7979188 0.63510174 -1.2068849 0.30114836 0.32043734 0.89795005 0.7399536
1.311783 -1.2080736 0.5103583 0.48242834 0.6295366 0.085296124 -0.90335625 0.117670335
-0.22575538 0.51065606 1.2416066 1.0430517 -0.68028486 0.70662975 0.18015482 -0.45567945
0.45729086 -0.42727163 -0.10221529 0.7944986 0.945884 -0.40663525 -0.48686597 0.6366042
0.65161073 -0.43887496 0.7012662 1.2057143 -0.7344617 -0.5194232 0.856541 0.95997596

conv.10.running_var f4 [64]
00000000: 8f2a e53e 6cb6 0b3f fe33 273f f74d fd3e
00000010: c894 f73e 3443 f53e 4b24 003f f1f4 ea3e
00000020: fcb7 d43e b6d1 c43e b41d f03e 7ec2 d33e
00000030: 62bb fa3e d987 f93e 713a e53e 1377 fc3e
00000040: a0b7 f03e 639d e33e d4c3 073f e6d9 093f
00000050: 7473 d93e e82e d23e c344 ec3e c208 f43e
00000060: 1dfb bf3e 222e 193f 7c9e 003f 1f2e e93e
00000070: d582 093f 07b5 c03e ebca 043f 3b41 d03e
00000080: b763 e23e 793f 0b3f 6c6c d63e 5193 083f
00000090: f381 e53e 86a5 013f 3048 033f 3e03 013f
000000a0: 1d73 d73e c9e8 c73e 0f10 053f 000d e93e
000000b0: 671e ee3e b2e9 073f 003d 043f a1a7 183f
000000c0: 699a fc3e 4484 ef3e 7509 0b3f cb2f ff3e
000000d0: 74b0 ed3e b748 f33e f5fa dd3e fe51 083f
000000e0: 644f e63e 4bfc fb3e d485 ea3e fb8f cb3e
000000f0: 608b c33e 4904 003f a1c0 043f 9aa5 e83e
0.44759032 0.5457523 0.6531371 0.49473545 0.483557 0.47902834 0.5005538 0.4589
0.4154662 0.38441247 0.46897662 0.41359323 0.48971087 0.48736456 0.4477115 0.49309596
0.47015095 0.44456014 0.53033185 0.5384811 0.42470896 0.41051412 0.4614621 0.47662932
0.37496272 0.5983602 0.5024183 0.45543 0.5371526 0.37638113 0.5187213 0.40674767
0.442167 0.54393727 0.41879594 0.53349787 0.44825706 0.50643194 0.51282024 0.5039557
0.42080012 0.39044788 0.5197763 0.4551773 0.4650757 0.53090966 0.5165558 0.5963078
0.49336556 0.46780598 0.54311305 0.4984115 0.46423686 0.47516415 0.43355528 0.5325011
0.44982445 0.49215922 0.45805228 0.39758286 0.38192272 0.5000654 0.5185643 0.45438844
