models/rym_grid_c1_s64_e2_t4_r4/cnn_c1_ce_a0p32_l0p16_lr1e-03.pt (torch, 607803 bytes, 23 tensors)

conv.0.weight f4 [64, 64, 3, 3]
000000 d7 4c fc 3f 49 00 c6 3f 16 fe 84 bf 6a 85 52 3d
       1.971095 1.5468837 -1.0390041 0.051396765
000010 a1 b8 8f 3f 5f 46 c3 be ed 55 fc be c9 81 b1 be
       1.1228219 -0.38139626 -0.49284306 -0.3466933
000020 7b 0e d2 bf ea ad 8a 3f 71 d0 70 bf e4 a1 23 c0
       -1.6410669 1.0834324 -0.94068056 -2.556756
000030 1e d9 05 40 93 76 47 40 b2 5f 6f bf 56 7b 48 40
       2.0913768 3.1166122 -0.93505394 3.1325278
000040 96 59 32 3f 68 7a e8 bf 1d f2 df bd 9f 16 82 40
       0.6966795 -1.8162355 -0.10934851 4.0652614
000050 74 57 91 bf 90 bb a4 be 95 00 04 bf 97 f4 6f be
       -1.1354814 -0.3217435 -0.5156339 -0.23433147
000060 87 15 53 3f b4 95 70 bf fb 7d 05 c0 0b c7 fb 3f
       0.82454723 -0.9397843 -2.0858142 1.9670118
000070 a0 35 54 3f 85 2b ec bd d8 b3 02 bf dd ff 64 bf
       0.82894325 -0.11531738 -0.5105567 -0.89452916
000080 7b 6a 49 bf ab fb 28 40 eb 7a 01 bf a4 2c 8c 3f
       -0.786781 2.6403606 -0.5057818 1.0951123
000090 9d 26 04 40 33 59 0a 3f df 01 76 3f 8a 44 40 be
       2.0648568 0.5404236 0.96096605 -0.18776146
0000a0 6d 21 91 3f 7c e1 0c c0 64 93 53 40 ef 83 2d bf
       1.1338326 -2.2012625 3.305871 -0.6777944
0000b0 35 e9 51 bf c5 3a c5 3f e0 56 72 3f 73 67 0f 3f
       -0.8199647 1.540856 0.9466381 0.56017226
0000c0 19 ad 55 c0 d9 a4 ee 3f ed 8e 53 c0 09 d4 0f 40
       -3.33869 1.8644058 -3.3055985 2.2473166
0000d0 ae 15 d7 be 7c 94 d3 3f fb 98 77 bf af 38 eb 3f
       -0.42008728 1.6529689 -0.96717805 1.8376673
0000e0 f1 dd 87 bf 91 c1 8b 3e be 43 68 3f 87 4c 71 bf
       -1.0614606 0.27296117 0.90728366 -0.94257396
0000f0 59 23 8c bf 49 36 b8 3f d5 cd 8a 3e 14 99 eb bf
       -1.0948287 1.4391567 0.27110162 -1.8406091
000100 82 ba d8 3f d7 6d a9 be ac 44 bd 3f 5c bb c9 bf
       1.6931918 -0.33091614 1.4786582 -1.5760303
000110 4b 55 e6 bf f9 68 c4 3f 2b 13 fe 3f de 89 38 40
       -1.7994779 1.5344535 1.98496 2.8834147
000120 75 be 01 c0 4b a6 62 3e 2b 48 73 bf 2b c2 ab 3f
       -2.0272496 0.22133748 -0.95031995 1.341863
000130 63 0f da bf 16 c4 f5 be b7 54 03 3f 08 62 c7 be
       -1.7035946 -0.48001164 0.5130114 -0.3894198
000140 fa 31 81 bf 73 47 2e c0 60 12 7e bf 4b 6a 98 bf
       -1.0093377 -2.723111 -0.9924679 -1.1907438
000150 54 cc bd be dc 57 42 3d e9 03 41 be d9 87 26 40
       -0.37069952 0.04744707 -0.18849148 2.6020415
000160 27 b1 18 40 ca fd 1b bf 8e 05 31 40 1c 9a 2a 3f
       2.3858125 -0.60934126 2.765964 0.666414
000170 5f cb 8b bf 67 89 db be 11 18 4f 40 99 29 29 3e
       -1.0921439 -0.42878267 3.235844 0.16519774
000180 96 3d f1 3f 4d 54 26 40 c8 ff 00 3e 36 7e 3f 3e
       1.884692 2.5988953 0.12597573 0.1870049
000190 54 86 da be e0 eb 37 3f 8c a6 af bf 43 81 9d 3d
       -0.4268061 0.7184429 -1.3722701 0.0769067
0001a0 00 04 4c bf 8f 95 e7 3f dd 09 8e 3e 70 c3 97 3f
       -0.79693604 1.8092517 0.277419 1.1856518
0001b0 df 69 76 bf 36 4e 63 3c 13 48 18 be 28 2f a0 be
       -0.96255296 0.013873627 -0.14871244 -0.31285977
0001c0 4d 57 0d 3f 7e b1 46 bd de 4f 0c bd 09 e3 07 3f
       0.55211335 -0.048509113 -0.034255855 0.53080803
0001d0 52 42 98 be ab f6 e9 3d 55 a7 7d bf 93 e3 31 bf
       -0.29738098 0.11424001 -0.99083453 -0.69487876
0001e0 6c 27 de 3d f9 07 bb 3c 7e c1 af 3d e5 30 25 be
       0.10847363 0.02283095 0.085818276 -0.16131933
0001f0 3f 4d d1 be f7 ad 14 bf b9 15 ee bf 26 b1 83 bf
       -0.40879247 -0.5807795 -1.8600379 -1.0288436
000200 a0 5d d3 be d7 6e 96 3d 10 9d 01 c0 61 c1 09 3d
       -0.41282368 0.0734536 -2.0252113 0.033631686
000210 3d 12 9a bf b9 e6 cb bf 98 93 03 c0 64 66 0a bf
       -1.2036816 -1.5929786 -2.0558834 -0.54062486
000220 98 90 3e bf 3c 33 4a bf c1 85 a0 be 31 f9 3b bf
       -0.7443938 -0.7898443 -0.31352046 -0.7342711
000230 63 4b 7d bf 34 6c e3 3e a6 3d af be b2 eb 06 bf
       -0.98943156 0.4441849 -0.34226722 -0.5270339
000240 5c 12 3f bf d4 64 3c bf 8f 9c e0 bf 76 86 b0 be
       -0.7463739 -0.7359135 -1.7547778 -0.34477586
000250 87 03 9a bf a5 30 af bf 20 a4 83 be 3e f5 a9 bf
       -1.2032326 -1.368672 -0.25711155 -1.3277967
000260 b5 90 06 c0 5b 83 80 3e 65 7f 22 be ea 14 45 bc
       -2.1025822 0.25100216 -0.1586891 -0.012028912
000270 52 75 39 3f 7a e6 b5 bb df 7f 8e be fe b1 62 3e
       0.7244464 -0.0055511566 -0.27831933 0.22138211
000280 cc d2 a1 3e 30 af 48 3d b2 45 24 be 8f 42 43 be
       0.31606138 0.048995197 -0.16042212 -0.19068359
000290 14 cf a0 be 01 ad 06 bf b3 bb c3 3e 65 7a 48 be
       -0.31407988 -0.52607733 0.3822914 -0.1957794
0002a0 c5 3b 84 3e ae ee c6 3e 87 c9 e5 3e ad 8a b3 be
       0.2582685 0.38853973 0.44880316 -0.3506674
0002b0 f2 cd bb 3e af 4d d8 3e c2 9a ec 3e bb 80 b6 3e
       0.3668056 0.42246768 0.4621182 0.3564509
0002c0 e6 f9 04 3f 49 92 aa 3d 5f cc 87 3e 7c fe 51 3f
       0.51943815 0.08328683 0.2652311 0.8202894
0002d0 06 66 bf bf e3 95 95 bf 52 94 34 bd 3d 68 93 3d
       -1.495301 -1.1686367 -0.04408676 0.07197616
0002e0 6f c3 38 bf a7 fe 6b 3e 23 5d e8 bf 8f 15 a1 3f
       -0.7217321 0.23046361 -1.8153423 1.2584704
0002f0 20 3f f8 bf a2 51 bd 3d e4 9e 08 bd 74 7b 45 3e
       -1.9394264 0.09244086 -0.033354655 0.19285375
000300 46 52 6d be 46 28 5a be e0 c1 77 3e d2 a8 72 3f
       -0.23175916 -0.21304426 0.24195051 0.9478885
000310 54 51 31 3e ba e3 a4 be db c7 51 3e 7c e3 27 bf
       0.1731618 -0.32204992 0.20486395 -0.6558149
000320 75 3c 06 bf e5 3d 10 bf 54 5e 45 bf d1 71 45 bf
       -0.52436 -0.56344444 -0.7709706 -0.77126795
000330 80 a1 ec bd 08 6b b1 3e 76 98 b8 be bd c6 27 3f
       -0.11554241 0.3465197 -0.36053818 0.65537626
000340 e0 f2 b3 3e 1c 85 d6 be 1f 85 46 3f 83 77 18 3f
       0.35146236 -0.4189843 0.77546877 0.5955736
000350 27 f0 af be 9a 5e 43 3f 30 71 54 3e b4 2a d5 be
       -0.3436291 0.76316226 0.20746303 -0.41634142
000360 59 83 6a bf 0d 85 45 3c 5b 28 45 be 42 ba ad be
       -0.9160667 0.012055648 -0.19253676 -0.33931166
000370 65 10 0b 3f cc 57 04 bc c6 70 1f bd 2b 27 f0 3e
       0.5432189 -0.008077573 -0.03892591 0.46904883
000380 bd 3e 85 be 6b f3 e5 3d 19 df 69 bf 8a 11 2b bf
       -0.26024428 0.11228069 -0.91356045 -0.6682364
000390 c8 2e d3 3d 7e 20 bd 3c 35 69 1f 3d 41 86 18 be
       0.10311657 0.023086783 0.038918693 -0.14894964
0003a0 e3 47 cd be c2 1a 21 bf 28 32 44 bf 33 e2 18 3f
       -0.40093908 -0.62931454 -0.7663903 0.5972015
0003b0 e7 26 7a 3e c3 17 af 3f b6 5e e8 3d 62 43 cc 3e
       0.24428903 1.3679127 0.1134619 0.3989516
0003c0 e2 ee 57 3e 18 26 12 be 4c 25 00 bf dc 83 91 be
       0.2108722 -0.14272344 -0.5005691 -0.28420913
0003d0 f3 ad 26 bf 1a 9e 8f 3e 78 5b 49 3f 70 aa fe 3e
       -0.65109175 0.2805031 0.78655195 0.49739408
0003e0 a1 61 70 3d 3d 78 0a 3e c9 48 59 3f c4 0b d7 bd
       0.058686856 0.1352243 0.84876686 -0.10500291
0003f0 57 a6 20 3d 14 cc a8 be e8 e0 07 bf 30 fc 0b 3f
       0.039221134 -0.329682 -0.53077555 0.5468168

conv.1.weight f4 [64]
000000 85 b7 8a 3f 71 64 85 3f b5 ea 8a 3f 10 00 99 3f
       1.0837256 1.0421277 1.0852877 1.1953144
000010 e6 86 e8 3f f9 a9 78 3f 13 1c c2 3f 7f 68 a9 3f
       1.8166168 0.9713436 1.5164818 1.3235015
000020 18 9d 8c 3f 9e 65 80 3f d7 13 8c 3f 85 51 76 3f
       1.0985441 1.0031011 1.0943555 0.9621814
000030 5b 1a 8d 3f 7e 2b 7d 3f 79 19 76 3f 65 ed d5 3f
       1.1023668 0.9889449 0.9613262 1.6713072
000040 e5 c3 dc 3f 37 ba 97 3f ee 17 79 3f c4 bd 9a 3f
       1.7247282 1.1853703 0.9730214 1.2089162
000050 b7 91 95 3f d3 91 bc 3f 22 1a c9 3f 01 ea b0 3f
       1.1685094 1.4732002 1.57111 1.3821412
000060 53 12 d7 3f 72 46 83 3f f8 9d d3 3f f7 e3 a6 3f
       1.6802467 1.0255873 1.6532583 1.3038319
000070 12 f2 79 3f b2 ed 83 3f f4 ba 8f 3f 28 06 8d 3f
       0.97634995 1.0306914 1.1228929 1.1017504
000080 44 7c 99 3f cf 2e 88 3f ac dc a8 3f 37 da b8 3f
       1.1991048 1.0639285 1.3192344 1.4441594
000090 d9 db 8d 3f d3 b8 47 3f 05 f3 87 3f a8 b2 52 3f
       1.1082717 0.78016394 1.0621039 0.8230386
0000a0 06 e4 91 3f a1 ff 71 3f fe d0 bd 3f 80 64 83 3f
       1.1397712 0.94530684 1.4829404 1.0265045
0000b0 a2 8a b4 3f 76 43 d4 3f d0 a7 a1 3f cb d2 90 3f
       1.4104807 1.6583087 1.2629337 1.1314329
0000c0 9e 5e 8d 3f 7d 24 48 3f f0 98 7d 3f 2a 47 d2 3f
       1.10445 0.78180677 0.9906149 1.6427968
0000d0 41 03 97 3f 46 27 86 3f a0 01 f6 3f 96 b4 cd 3f
       1.1797868 1.0480735 1.9219246 1.6070735
0000e0 18 b1 88 3f 03 69 6f 3f 74 f7 91 3f 06 d3 b9 3f
       1.0679045 0.9351961 1.1403642 1.4517524
0000f0 f1 af 91 3f de 1a 91 3f b2 09 ce 3f 17 43 c7 3f
       1.1381818 1.1336324 1.6096709 1.5567349

conv.1.bias f4 [64]
000000 61 db ba be ca 25 02 bf 88 85 af be 56 4a ad be
       -0.36495498 -0.5083891 -0.34281564 -0.33845776
000010 44 89 d9 be 32 0e 6a bd 0f b8 d3 be 63 d0 6a bf
       -0.42487538 -0.057142444 -0.41351363 -0.9172422
000020 00 34 03 bf cf 06 42 3e 6f a2 02 bf 6a 43 da be
       -0.5125122 0.1894791 -0.51029104 -0.42629558
000030 06 d7 41 be b4 92 c4 3d d3 f6 df be 35 f7 6e 3e
       -0.18929681 0.09598294 -0.43743 0.2333649
000040 b6 5a 41 bf 65 e0 45 bf 98 f1 12 be 9e 65 ab be
       -0.7552904 -0.77295524 -0.14349973 -0.33475965
000050 43 1a 46 bf a9 5c 3b bf 90 cd e9 be f7 97 ef be
       -0.7738382 -0.73188263 -0.45664644 -0.46795627
000060 bd 0d 80 bf 85 0e 17 be 62 34 96 bf 4b b6 ae be
       -1.0004193 -0.14751633 -1.1734736 -0.34123453
000070 9a c8 62 be e1 b3 8c 3d 6a cf fd be f4 3b 05 3f
       -0.22146836 0.06870247 -0.49572307 0.52044606
000080 d9 12 4c be 81 8d 9c be d2 23 30 3c ec a3 c1 be
       -0.19929065 -0.3057671 0.010750728 -0.37820375
000090 fb 68 c9 be e1 84 a2 bc ca a8 ff be d2 73 af 3d
       -0.39337906 -0.019838752 -0.49933463 0.08567013
0000a0 11 2f e9 be 01 bd ce bd 5d ba 69 be 8b 19 8b bd
       -0.4554372 -0.100946434 -0.22824998 -0.06791981
0000b0 ed 0e 70 be 8d e5 f5 be 50 d2 d1 be 5c f4 2a bf
       -0.23443194 -0.48026696 -0.40980768 -0.6677911
0000c0 4c 30 84 bd 9a 2a 1a 3f 8a 21 07 bd 88 3f 8f bd
       -0.064545244 0.60221255 -0.03299097 -0.069945395
0000d0 86 9b 53 bf ff 79 9b be c9 cb d5 bf 2f 7c 34 bf
       -0.82659185 -0.30366513 -1.6702815 -0.7050199
0000e0 df 7f e7 be a1 f0 37 bd cd d8 a2 3d f9 8a 74 bf
       -0.45214745 -0.044907216 0.07951508 -0.95524555
0000f0 df f0 14 bf b3 60 81 bc f4 57 bc bf 67 5d 30 bf
       -0.5818004 -0.01579318 -1.4714341 -0.6889252

conv.1.running_mean f4 [64]
000000 89 44 20 c1 bb 23 92 40 4f 7f 29 bf 97 0a 32 c0
       -10.016732 4.5668616 -0.6620988 -2.7818964
000010 b9 2f 66 c1 35 b1 b8 c0 59 04 4a c1 13 72 bc bf
       -14.386651 -5.7716317 -12.626061 -1.4722313
000020 23 3f 07 c0 74 7b ad c0 1c 41 89 c0 3c 7c c4 bf
       -2.1132286 -5.42132 -4.289198 -1.5350413
000030 1e e5 c5 be 93 fc 44 c1 23 c0 85 40 51 7d 65 c0
       -0.38651365 -12.311664 4.179704 -3.5857737
000040 6b d7 31 c1 6c 30 1e bf 33 05 0b c0 c9 91 00 c0
       -11.115092 -0.61792636 -2.1721923 -2.008898
000050 a7 32 d1 bf 19 27 32 c1 29 cc 51 c1 fe 1d ab c0
       -1.6343583 -11.134545 -13.112344 -5.347411
000060 9b de 23 c1 6b c8 c2 c0 2c 41 0a 3e d1 d0 0a c1
       -10.241847 -6.086965 0.13501424 -8.675981
000070 e4 cd 37 c0 34 38 af c0 8a d0 87 bf df c0 3e c0
       -2.8719416 -5.4756107 -1.0610516 -2.980522
000080 6b c0 94 c0 b4 32 8a c0 58 24 21 bf e7 32 20 c1
       -4.6484885 -4.3186893 -0.6294608 -10.012427
000090 68 60 1a 40 22 06 46 c0 ff 7f 62 c0 48 74 a2 be
       2.4121342 -3.0941243 -3.5390623 -0.3172934
0000a0 f8 f4 6b c0 32 56 5c c0 95 ef 47 c1 02 a9 01 c1
       -3.6868267 -3.442761 -12.495992 -8.103762
0000b0 eb f3 30 c1 b3 e3 4b c1 bf e3 6f bf bf 84 d7 bf
       -11.05955 -12.743091 -0.9370689 -1.6837386
0000c0 da 04 03 3f 24 4e b5 40 75 ed 8f 40 4b 38 c8 c0
       0.5117928 5.6657887 4.4977365 -6.2568717
0000d0 85 84 c3 40 a0 d5 65 c0 2d d9 3b c0 88 62 1d c1
       6.1099267 -3.5911636 -2.9351304 -9.8365555
0000e0 cf 8c 90 c0 45 63 28 3f 49 93 09 c1 f0 90 20 c0
       -4.5171885 0.65776473 -8.598458 -2.5088463
0000f0 14 b6 1a bf 73 af 07 c1 50 31 91 be 0a f7 39 c0
       -0.6043408 -8.480334 -0.28357935 -2.905703

conv.1.running_var f4 [64]
000000 7f b1 23 42 5b e9 f0 41 82 2a dd 41 18 14 c6 41
       40.923336 30.113943 27.645756 24.759811
000010 35 b9 22 42 71 1b ab 42 0b c0 35 42 16 53 02 42
       40.680866 85.5536 45.437542 32.58114
000020 83 21 c0 41 cb 52 21 42 26 1f d1 41 03 a1 b1 41
       24.016363 40.330853 26.14021 22.203619
000030 e6 32 fe 41 f7 3c 1d 42 b7 61 30 42 a6 3e c3 41
       31.774853 39.309536 44.095425 24.40559
000040 09 0f 09 42 15 9b 04 42 4f 82 08 42 8f ed d5 41
       34.264683 33.151447 34.127254 26.740995
000050 31 20 ee 41 a1 07 12 42 c5 51 b4 42 ce 11 eb 41
       29.765718 36.50745 90.159706 29.383694
000060 fd e9 f7 41 ba a4 25 42 18 49 c0 41 79 c8 d0 41
       30.989252 41.410866 24.03569 26.097887
000070 b9 a5 ef 41 62 37 90 41 39 3b 16 42 ff e7 be 41
       29.95592 18.027042 37.557835 23.86328
000080 83 0c a9 42 f6 94 04 42 27 d3 40 42 04 13 14 42
       84.52444 33.14547 48.206203 37.01857
000090 1d 6b 5f 42 65 9e 15 42 f2 f4 fc 41 87 76 b6 41
       55.854603 37.404682 31.619602 22.807875
0000a0 30 6e fb 41 3f 4a 06 42 f9 38 10 42 53 7d d9 41
       31.428802 33.572506 36.055637 27.186193
0000b0 9c c0 61 42 e6 a6 07 42 08 4a 8f 41 d3 4a ae 41
       56.438095 33.912987 17.911148 21.786535
0000c0 43 b0 14 42 2f f6 02 42 a3 d7 5e 42 f4 e2 a1 42
       37.17213 32.740414 55.710583 80.94327
0000d0 7b 4a e7 41 2a 0a ca 41 2c 49 9b 41 7f 80 06 42
       28.911367 25.254963 19.410728 33.625484
0000e0 a8 47 a0 41 3c 3e 60 42 8c da 3c 42 b3 f2 cd 41
       20.034988 56.060776 47.213425 25.743505
0000f0 c8 59 e6 41 43 fe 19 42 5a 1d da 41 27 73 00 42
       28.793839 38.498302 27.264332 32.112453

conv.3.weight f4 [64, 64, 3, 3]
000000 79 09 30 3e 6f f6 c6 3e 50 63 0f 3f 63 22 0d 3e
       0.17191114 0.3885989 0.56010914 0.13782649
000010 ed 3f 1e 3f 87 32 3a 3f 1f 33 f3 3e 3c c0 05 be
       0.61816293 0.7273335 0.4749994 -0.13061613
000020 e2 a3 0d 3f 58 b8 41 3d e3 b3 c6 3e 98 2f 3d 3e
       0.5532819 0.047294945 0.38809118 0.18475187
000030 c5 01 dd bd 60 9c cb bc 6d 37 39 bf 18 6a d0 bd
       -0.10791353 -0.024854839 -0.723502 -0.10176486
000040 f9 dc 5b bd ad 5b 99 3c 6a e4 68 3e 09 31 04 bf
       -0.053677533 0.018720472 0.22743383 -0.5163732
000050 9e 29 f4 3e 98 dc 58 bf b9 ce 92 3d fe 3b f4 be
       0.47688 -0.847116 0.071683355 -0.4770202
000060 ff 10 ee bc 40 f3 f2 3e be 18 09 3f f1 fa 25 bf
       -0.029060839 0.4745121 0.5355338 -0.6483603
000070 a8 41 ba bb b0 92 7d be c7 1e d9 3e 75 0e f6 be
       -0.0056840964 -0.24762988 0.42406294 -0.48057905
000080 d5 9f 36 bd eb 6f d9 be 9b fb e7 be ff 8c 52 bf
       -0.04458602 -0.424682 -0.45309147 -0.8224639
000090 c0 e8 bf 3f 10 45 df be 30 02 e9 3e f7 86 ec 3d
       1.4992905 -0.43607378 0.4550948 0.1154918
0000a0 27 04 ed 3e bf 2a 54 be e3 7b 1b 3f 07 01 3c 3f
       0.4629223 -0.20719431 0.6073591 0.7343907
0000b0 e0 28 a4 bf d8 56 f3 be ea 73 fc 3e 27 f9 f3 be
       -1.2824974 -0.47527194 0.49307185 -0.47651026
0000c0 82 66 22 3f 25 27 35 3f 4b b5 da bf aa d8 99 be
       0.63437665 0.70762855 -1.7086576 -0.30048114
0000d0 7a df 04 bf 3c f1 81 be 74 e7 b9 3b f4 ea 44 3f
       -0.519035 -0.2537936 0.0056733433 0.7692101
0000e0 ca 0d 5d 3f 57 c3 fb 3e 1f 96 3b 3e cc dd 2d 3e
       0.86349165 0.4917247 0.18318985 0.1697914
0000f0 47 9d 56 bd 68 5c 2b bf e7 0a 2c be 79 93 bc 3e
       -0.052396085 -0.66937876 -0.16801034 0.36831263
000100 37 75 88 3c 8f c5 08 bf 86 8a 86 3e 79 44 73 be
       0.016657455 -0.5342645 0.2627756 -0.23756589
000110 be 8a d2 be 8a 4f cb 3d d2 1d 17 3f b0 9d 1f be
       -0.41121477 0.0992728 0.5902988 -0.15587497
000120 4e 6f ce 3c 38 4d 6a be 20 4a 73 bf 7b 3e 0f be
       0.025199559 -0.22881019 -0.9503498 -0.13988678
000130 c2 7a cb bd 9a 68 8b bd 3a 34 7e 3f 1a 3f 14 3e
       -0.099355236 -0.068070605 0.9929844 0.14477196
000140 2a 4a 1e bd 49 ed 67 3f 6b b5 4a 3f 8b 2a 9d 3f
       -0.038644947 0.90596443 0.7918307 1.2278608
000150 9a c4 1d 3f 48 5e 4e 3e 12 78 2e 3e 16 41 83 3e
       0.61628115 0.20153153 0.1703799 0.25635594
000160 cf 2e a6 bf 91 bc 11 bf ad 9e ab be cd 8a 0b 3f
       -1.2983035 -0.56928355 -0.33519498 0.5450867
000170 d7 27 87 bf 8a cd 46 3f 24 66 7f 3e ec b2 71 bf
       -1.0559033 0.7765738 0.24941307 -0.9441364
000180 e0 b1 40 3e 20 b7 69 bf be e1 2a 3f 0a 16 0c bf
       0.18817854 -0.9129505 0.66750705 -0.5472113
000190 cd 17 91 3e c6 96 43 3f 66 b3 8e bf 44 57 b3 3e
       0.2833847 0.76401937 -1.1148498 0.35027516
0001a0 0e 9a ab bf 0f bf 13 3e b2 22 97 bf 08 09 49 3e
       -1.3406389 0.14428352 -1.1807463 0.19632351
0001b0 4d 1e 0f be 13 ac 8c bd 40 4a 80 bc 0e 18 35 3f
       -0.13976403 -0.06868758 -0.015660405 0.7073983
0001c0 6c 5c c6 be 30 aa 1a bf 93 1d e4 3e a2 84 9b 3e
       -0.38742387 -0.60415936 0.44553813 0.30374628
0001d0 4b c1 4f bf f0 4d 56 bf 29 6a 3e bf 1b cd 33 3f
       -0.81154317 -0.83712673 -0.7438074 0.7023484
0001e0 db 24 7e be c2 6e e3 3e 6f b7 2d 3f ca 9f 00 bf
       -0.24818747 0.4442044 0.6785802 -0.5024382
0001f0 02 cf 26 bf 62 3e 18 bf b5 33 e6 be 18 16 45 3f
       -0.6515962 -0.5947019 -0.44961324 0.7698684
000200 b9 11 83 3e 0b 86 20 3e 8d 29 5b bd c3 0d 97 bd
       0.2559946 0.15676133 -0.053506423 -0.07375672
000210 3b d9 aa bd e8 78 1e 3e 33 9c fa be 11 c4 e0 3e
       -0.08342215 0.1547581 -0.48947296 0.43899587
000220 4d 7d ce 3f 1e 1b 1a 3f 44 c3 7b 3e 84 0f 36 be
       1.6131989 0.6019763 0.24586207 -0.17779356
000230 31 b2 e4 be bd c4 8b 3e 84 24 80 be c0 09 1d 3f
       -0.446672 0.27298537 -0.2502786 0.61343
000240 90 f2 9c 3f b1 f1 c7 bb a8 a9 1b 3f 45 88 1e 3f
       1.2261524 -0.00610181 0.6080575 0.6192668
000250 65 42 d6 3d 08 9e 13 3e b0 f6 8e 3f 93 ae b7 be
       0.104618825 0.14415753 1.1169033 -0.35875377
000260 a8 95 0e c0 4f 69 fc 3e 79 64 bf be 30 9a ae bf
       -2.2278843 0.49299094 -0.37381342 -1.3640804
000270 05 f3 e3 3e 17 25 5d bf f7 e0 01 3d 2e ce d9 3e
       0.44521347 -0.8638472 0.031708684 0.42540115
000280 99 64 85 bf d9 24 88 3f dd a2 1e bc e4 d5 d4 be
       -1.0421325 1.0636245 -0.009682384 -0.41569436
000290 0f 66 14 3d 19 6d 9e be dd 11 28 3e b2 35 a5 3d
       0.036230143 -0.3094261 0.16413064 0.08066882
0002a0 00 f2 2d bf d1 ca 2a be 67 c7 9c 3f 8d 65 87 3f
       -0.6794739 -0.16678931 1.2248353 1.0577866
0002b0 54 cc 3e 3f a9 47 da 3e e6 23 53 be 17 aa 40 3f
       0.7453053 0.42632797 -0.20619163 0.75259537
0002c0 e5 90 2a bf c5 e7 a9 bd c5 95 15 3f 8a 39 ab be
       -0.6662734 -0.0829616 0.58431655 -0.33442336
0002d0 cd 2c 77 be 28 be 4b 3f 0c bb 1b bf e0 43 6f 3e
       -0.24138184 0.7958703 -0.60832286 0.23365736
0002e0 45 b8 02 3f 03 3d e3 3e 7e 76 8e 3d 26 5e 5e 3e
       0.51062423 0.44382486 0.06956194 0.21715602
0002f0 34 ac 8b be 1f 33 0a 3f df b6 3f be 4a 03 08 bf
       -0.27279818 0.53984255 -0.18722104 -0.5313002
000300 6c 78 03 bf 1e ab 49 3d 18 16 27 3f 68 a6 2e 3f
       -0.51355624 0.049235456 0.6526809 0.68222666
000310 bd 48 19 bb 11 92 62 3f 1f 40 15 be ff a1 63 3f
       -0.0023389303 0.8850413 -0.14575242 0.8891906
000320 ae 4a b2 3f 31 6d 04 3f 0c 87 09 3e b0 0a 89 3f
       1.392904 0.5172911 0.13430423 1.0706387
000330 f3 c1 3a bf 57 40 51 bf 27 8d 47 bf d2 56 82 3e
       -0.72952193 -0.817388 -0.77949756 0.25456864
000340 3a 5e 88 3e 8f 3f 9f 3e 91 27 87 3f b5 b6 3d 3f
       0.2663439 0.3110318 1.055895 0.74106914
000350 1d e8 96 bd 24 4b fa be d5 bb 0e be a8 77 fc be
       -0.07368491 -0.48885453 -0.1393884 -0.4931004
000360 6f a6 99 bd 43 92 b8 bc 5a 56 bc 3f 92 65 0e bf
       -0.07502448 -0.02253068 1.4713852 -0.55623734
000370 24 a1 8e be 47 13 50 3f 6b 74 2f 3f 52 56 a8 3e
       -0.27857316 0.81279415 0.68537015 0.32878357
000380 a7 f8 b6 3f a1 8a 01 3f ac 82 33 bf a5 f7 9d 3e
       1.4294633 0.50602156 -0.70121264 0.30853
000390 0f 5b 00 3f 5c dd d6 3e 28 2c 4e be fd 16 05 bf
       0.50138944 0.4196576 -0.20134032 -0.519882
0003a0 c9 7e f5 3e 59 e2 2b 3f 84 21 90 be 49 be 75 bf
       0.47948292 0.67142254 -0.2815057 -0.9599348
0003b0 b5 a7 54 be c3 2a 4a 3f 8d f6 0b bf e6 59 41 bd
       -0.207671 0.789715 -0.5467308 -0.047204874
0003c0 94 c8 35 bf 4b 9c 54 bf 57 13 68 3e 4a 4e 7e be
       -0.7100918 -0.83050984 0.22663628 -0.24834552
0003d0 33 11 8f 3f 6f 67 2c 3f 99 60 4c be 25 9e c3 3f
       1.1177124 0.6734533 -0.19958724 1.5282637
0003e0 07 65 b0 be e1 54 8a bd 22 a0 6a bf e3 d8 31 bf
       -0.34452078 -0.067544706 -0.91650593 -0.6947157
0003f0 96 4a e1 3e a7 3b 87 3c 4d b0 ab be dc 31 69 bd
       0.44002217 0.016507937 -0.33532944 -0.056932315

conv.4.weight f4 [64]
000000 f9 96 97 3f 02 e5 85 3f ce a5 83 3f d9 f8 ae 3f
       1.1842948 1.0460513 1.0284975 1.3669692
000010 db be 84 3f 2c 07 8b 3f aa bb a8 3f 6e a3 a3 3f
       1.0370744 1.0861564 1.318227 1.278425
000020 3a 63 ae 3f ac 17 b6 3f dc 72 b3 3f e6 6d 7c 3f
       1.3624032 1.4225974 1.4019427 0.9860519
000030 c4 36 93 3f 93 cc 65 3f b6 ac a1 3f e8 af 88 3f
       1.1501088 0.8976528 1.2630832 1.0678682
000040 65 6c c1 3f 79 60 96 3f 05 0d 56 3f d3 da c9 3f
       1.5111204 1.1748191 0.83613616 1.5769905
000050 ed b9 6b 3f 64 22 8a 3f 0d 06 a6 3f 31 0c 8d 3f
       0.92080575 1.0791745 1.2970597 1.1019346
000060 fa 0a c2 3f 83 54 86 3f 6c dd a6 3f 15 9c ad 3f
       1.51596 1.0494541 1.3036323 1.3563257
000070 fc 8c 69 3f 01 b6 71 3f cc d6 80 3f 39 ba a3 3f
       0.9123075 0.9441834 1.0065551 1.2791206
000080 21 7d a0 3f 3d 6c 96 3f 7d 59 8c 3f 3f c3 80 3f
       1.2538186 1.1751782 1.096481 1.0059584
000090 11 cf a2 3f 0b c0 a5 3f 06 41 7e 3f ab 76 90 3f
       1.2719442 1.2949232 0.9931797 1.1286215
0000a0 30 d5 b2 3f 7a 5a d2 3f e7 73 aa 3f e4 37 7a 3f
       1.397131 1.6433861 1.331662 0.9774153
0000b0 1b 67 b8 3f f3 da ac 3f d8 1d 95 3f 1e 1a 9d 3f
       1.4406465 1.3504318 1.1649733 1.2273595
0000c0 24 59 9c 3f 6e e2 97 3f 85 12 7d 3f c8 ba a1 3f
       1.2214704 1.1865976 0.98856384 1.2635126
0000d0 36 ef 9a 3f 41 b1 81 3f 64 f4 a4 3f 4f c7 b1 3f
       1.2104251 1.0132219 1.2887082 1.3888949
0000e0 a4 66 a2 3f d4 88 4d 3f 0b 00 92 3f 1e 16 8a 3f
       1.2687573 0.8028691 1.1406263 1.0788
0000f0 94 ae 9a 3f 2b 0f ad 3f 52 2b 89 3f f7 f0 ce 3f
       1.2084527 1.3520254 1.0716345 1.6167287

conv.4.bias f4 [64]
000000 e4 c2 7c be 33 96 05 bf 39 16 02 be 8e 7a 00 bf
       -0.2468372 -0.5218231 -0.1270379 -0.50187004
000010 37 5c 5a bf 6e b0 84 be c1 84 d0 be c4 f5 d1 be
       -0.8529696 -0.25915855 -0.40726283 -0.41007817
000020 b6 bd 4c bf c4 02 84 bf 33 45 7e bf 27 12 11 bf
       -0.79976976 -1.0313344 -0.9932434 -0.56668323
000030 79 a5 b5 be 4d 6c cc be 97 e0 fd be 88 8b 92 be
       -0.35477808 -0.39926377 -0.4958541 -0.2862208
000040 f6 43 06 bf 5e 73 42 bf 60 81 fc 3d 7a f1 2d bf
       -0.5244745 -0.75957286 0.12329364 -0.6794659
000050 f5 9c d9 bd 9f e6 1e bf bd 54 1b bf df 3a 0a bf
       -0.1062564 -0.6207065 -0.60676175 -0.5399608
000060 4a d0 1f bf 00 57 15 bf 2c 9e de be 4d ce 07 bf
       -0.624272 -0.58335876 -0.4348005 -0.53049165
000070 9d 56 0e bd ca 57 0a be c0 a7 45 3c 7e 35 62 bf
       -0.03475057 -0.13510051 0.0120639205 -0.8836287
000080 4e 63 fd be 9f 5e 04 bf be 13 0b bf e9 46 49 be
       -0.49489826 -0.5170688 -0.54327 -0.19655956
000090 99 cd 56 bf 57 f9 04 bf 57 ff 1a bf 44 85 fa be
       -0.8390747 -0.5194296 -0.6054587 -0.489298
0000a0 48 12 7b bf a9 c6 50 bf 50 df aa bf 7e 33 46 bf
       -0.9807477 -0.8155313 -1.33494 -0.7742232
0000b0 e3 17 53 bf a9 ac 79 bf 18 61 6f bf 7e cc 70 bf
       -0.82458323 -0.97529083 -0.9350753 -0.9406203
0000c0 6e c3 09 bf 6a f6 26 bf 51 4f cd be de b1 38 bf
       -0.5381383 -0.6521975 -0.40099576 -0.72146404
0000d0 6c 0f df be 82 06 12 bf f0 39 2e bf ed 92 10 bf
       -0.43566453 -0.5704118 -0.68057156 -0.5647419
0000e0 98 be 08 bf 34 50 be 3d d5 bc 13 bf c6 bd cb be
       -0.53415823 0.09292641 -0.5771001 -0.39793223
0000f0 cd 1b 19 bf b9 8f 81 bf 1f 28 fd be c3 ce 67 bf
       -0.59808046 -1.0121986 -0.49444672 -0.9054987

conv.4.running_mean f4 [64]
000000 8b 00 c6 40 d5 ae 6c c1 16 ae 68 40 a0 4a 89 c1
       6.1875663 -14.792684 3.6356254 -17.161438
000010 b5 6a e6 3e 06 c2 f0 c0 27 5a 6e c1 e1 6a a0 3f
       0.45003286 -7.5236845 -14.89701 1.2532617
000020 76 ad 04 40 ef 51 e3 3d b6 e1 b4 40 76 a1 e2 c0
       2.0730872 0.11099612 5.6525526 -7.0822096
000030 d8 74 a6 c0 68 00 dd 3f 9a 22 4e c1 dc 70 5e 3f
       -5.201763 1.7265749 -12.883448 0.8689096
000040 21 60 4a c0 c4 ec 6a c1 94 1e db 3e 09 b3 f0 c0
       -3.1621172 -14.682804 0.42796767 -7.521855
000050 b8 bf 34 c0 0a c3 19 3f 6f f1 1d c1 a2 a7 7b c0
       -2.8242016 0.6006323 -9.871444 -3.9321065
000060 3c 7e 2e c1 85 af e4 3f ed e3 3b c1 68 3e 76 c1
       -10.905819 1.7866064 -11.743146 -15.390236
000070 2e f2 99 c0 d7 90 30 c1 d3 a4 e8 bc 60 15 68 c0
       -4.810813 -11.035361 -0.028398907 -3.6263046
000080 ff ad 56 40 da f2 fa c0 48 d9 71 3f 93 30 8a 40
       3.3543699 -7.842145 0.9447217 4.3184295
000090 7f 71 16 41 86 a3 13 c1 65 60 d4 c0 b0 c7 41 40
       9.402709 -9.227423 -6.636767 3.027813
0000a0 e5 1e 3f c0 2c 04 72 c1 70 87 5a c0 30 ad ba bf
       -2.9862607 -15.126019 -3.4145164 -1.4584103
0000b0 8a e1 d0 40 14 59 53 bf fd 4c 1c 41 e6 96 ab c0
       6.5275316 -0.825578 9.768796 -5.36217
0000c0 91 cf a4 40 88 7a 49 c1 71 f3 30 41 bb 5d c4 c0
       5.1503377 -12.592415 11.059434 -6.1364417
0000d0 c1 0d 49 40 83 4c 06 c1 8a 89 01 c1 ea 58 af c0
       3.1414645 -8.39368 -8.096079 -5.479604
0000e0 4f 9d ae 3e 12 ab 18 40 9b 07 b9 c0 aa d6 6a c0
       0.34104392 2.3854413 -5.7821784 -3.669352
0000f0 d0 85 ac 3f e8 f5 ff 3f 9e 1c ef bf 74 b0 43 c1
       1.3478336 1.999692 -1.8680608 -12.230579

conv.4.running_var f4 [64]
000000 66 4a 49 43 69 04 04 43 70 1b 3f 43 bf 71 ff 42
       201.29062 132.01723 191.10718 127.72216
000010 18 00 f5 42 c8 b7 ee 42 19 c2 1e 43 47 f3 2b 43
       122.50018 119.35895 158.7582 171.9503
000020 ea 7a 24 43 06 78 32 43 77 b7 18 43 d3 d6 e5 42
       164.48013 178.46884 152.71666 114.91958
000030 4f 07 fe 42 c7 75 de 42 84 7d 25 43 26 be f1 42
       127.014275 111.230034 165.4903 120.87138
000040 40 5f 0b 43 24 66 02 43 88 da 19 43 c2 15 25 43
       139.37207 130.39899 153.85364 165.08499
000050 f3 d2 d4 42 a0 c4 e7 42 3b f5 1b 43 70 0e 04 43
       106.41201 115.88403 155.95793 132.0564
000060 c9 fa 2e 43 d3 6d de 42 e0 35 16 43 6a df 14 43
       174.97963 111.2145 150.21045 148.87271
000070 e7 4c ff 42 63 39 cd 42 87 69 09 43 87 05 cd 42
       127.6502 102.61208 137.41222 102.510796
000080 dc 53 f6 42 98 e8 0d 43 92 c0 0a 43 52 8f 39 43
       123.16379 141.90857 138.75223 185.55984
000090 69 1e 4b 43 41 6f 21 43 c5 ff d1 42 fd 50 18 43
       203.11879 161.43459 104.99955 152.31636
0000a0 70 28 19 43 08 21 1c 43 2a d7 2c 43 a7 b5 c8 42
       153.15796 156.12903 172.84048 100.35479
0000b0 57 b8 27 43 0b 1b 05 43 fa ad 2a 43 b0 fb e1 42
       167.72008 133.10564 170.6796 112.99158
0000c0 5c 5e 2d 43 b7 78 0d 43 1e 48 06 43 a8 f0 ed 42
       173.36859 141.47154 134.28171 118.97003
0000d0 63 48 28 43 12 9e 04 43 1b 78 47 43 76 09 0c 43
       168.28276 132.61746 199.46916 140.03696
0000e0 ae 02 0b 43 49 48 e9 42 e4 38 16 43 98 e2 09 43
       139.01047 116.64118 150.22223 137.88513
0000f0 63 29 ff 42 6e 65 17 43 80 6f ff 42 28 98 1f 43
       127.58083 151.39621 127.71777 159.59436

conv.6.weight f4 [64, 64, 3, 3]
000000 3b ec 91 3e c6 48 d1 3d c5 8e 30 3f e1 9d 76 3e
       0.28500542 0.102189586 0.6896785 0.24083664
000010 3e 26 ce bd 26 03 a4 bc 39 56 3b 3f eb 17 0e 3d
       -0.10065888 -0.020021033 0.7317844 0.03469078
000020 94 da 3e 3e 9c 52 aa be b1 9d 11 be 54 89 b4 3e
       0.18638068 -0.3326615 -0.14220311 0.35261023
000030 7c e1 f9 3e 54 9c c8 be e1 bd 07 3e 79 22 5e 3e
       0.48804843 -0.3918177 0.13256027 0.21692838
000040 19 0c 91 3f 92 a7 07 be 9e 69 39 3c 2c 8d 15 3e
       1.1331817 -0.13247517 0.011316685 0.14604634
000050 04 ed 00 bf 6b 0c d2 3e a0 7d 67 3f 72 64 cc 3e
       -0.5036166 0.410251 0.90426064 0.39920384
000060 bc a2 ec 3e 45 b7 e2 3e 24 2c dd 3e e5 1d 19 3e
       0.46217906 0.4428045 0.4319774 0.1495281
000070 89 6f 43 be 6d 7c f1 be 58 e5 70 3e 09 9d ee 3f
       -0.19085516 -0.47165242 0.23524988 1.8641673
000080 32 a7 80 3f a6 71 0c 3f 10 55 03 3f 85 c5 18 be
       1.0051024 0.54860914 0.5130167 -0.14919098
000090 33 20 48 be 44 7f 9c be 7f bf 78 3f ee 87 04 bf
       -0.19543533 -0.30565846 0.971672 -0.5176991
0000a0 da 49 4b bd 1f 45 a4 be f6 bf e2 bf da 2a b4 bf
       -0.049630977 -0.32083985 -1.7714832 -1.4075577
0000b0 2e 2f db 3e 9c 63 74 3f 90 46 8a 3f 67 39 1f 3f
       0.42809433 0.9546449 1.0802784 0.62196964
0000c0 ac 51 60 be 43 4e b8 3e af 60 0b 3f fd 35 92 3f
       -0.21906155 0.3599721 0.544444 1.1422726
0000d0 0d f8 1f 3f 02 69 28 3b fa ce 76 3e 58 0f 52 3f
       0.6248787 0.0025697355 0.24102393 0.8205466
0000e0 61 36 67 3e bc 7f 14 3f b9 b4 a6 3f 4b 32 a3 3e
       0.22579338 0.5800741 1.3023902 0.31874308
0000f0 fb 8a 93 bf 28 50 7d 3e ac 26 0d bf 12 95 84 3e
       -1.1526788 0.24737608 -0.55137134 0.25894982
000100 1a f3 bb be 6a 77 60 3f 5b b9 02 3f 55 48 8b 3e
       -0.3670891 0.8768221 0.5106408 0.27203622
000110 a2 f4 a4 bf 4e b9 1b 3f 28 d8 96 3e 3e 38 1e 3f
       -1.2887156 0.6082963 0.2946179 0.6180457
000120 13 90 ca 3e 2d 33 96 bf f5 b3 76 bf 00 23 8a 3f
       0.39563045 -1.1734368 -0.9636834 1.0791931
000130 33 9a 85 bf 48 33 99 3e 57 7d 47 3f 37 f3 09 3f
       -1.0437683 0.29921937 0.7792563 0.5388674
000140 71 1b 8a bf 21 a5 e5 3e f8 7e 97 3e 46 ee be bc
       -1.0789624 0.44852546 0.29589057 -0.023306977
000150 bb 90 87 bd 2c d7 c1 3f 28 30 32 bf 38 ef 12 be
       -0.06619402 1.514379 -0.6960473 -0.14349067
000160 0b 5e cb be bc 69 dc 3e 57 aa 04 bf 8d 7d a6 be
       -0.39720187 0.4304942 -0.5182242 -0.32517663
000170 e0 1a c4 3f 7f fb 27 3f fe 21 98 3e 63 ba b3 3e
       1.5320702 0.6561813 0.29713434 0.3510314
000180 1d 2e 52 bf fb 1b 34 bd a6 07 1d 3e ea 9f e4 bd
       -0.82101613 -0.043971997 0.15334949 -0.11163314
000190 37 43 5a bd f7 7c cc 3e 5e ad 1b bf 1e ac 4b 3f
       -0.053286757 0.3993909 -0.6081141 0.79559505
0001a0 28 85 be 3e 3d b7 92 be 52 77 02 bc 4d 8e 27 3f
       0.37210965 -0.28655425 -0.0079630185 0.6545151
0001b0 5a 16 42 bf a6 7d 19 bf 45 44 b7 3e 41 18 69 3f
       -0.75815356 -0.5995735 0.35794273 0.91052634
0001c0 ba f1 9d be a5 ca a2 bf f1 1a 29 bd c9 f7 40 3f
       -0.30848485 -1.2718092 -0.04128546 0.7537809
0001d0 3d 2f 5e bf de 17 21 be 41 61 5e bf 78 bf 9a 3e
       -0.8679083 -0.15731761 -0.8686715 0.30224204
0001e0 7e 4a 05 bf 5b c2 ac 3e f9 60 2a be ee 88 0d 3f
       -0.5206679 0.3374203 -0.16638555 0.55287063
0001f0 74 63 ad 3e 3a bc a6 3e 80 4c 55 3e a1 4e 33 bf
       0.3386494 0.3256548 0.20829964 -0.70041853
000200 65 56 22 3f 31 16 79 bf b1 1f eb 3e 9a 44 31 3f
       0.6341308 -0.97299486 0.45922616 0.692453
000210 26 7f 80 bf dd 16 35 bf 29 ff 27 3e ac 5a 5a bf
       -1.0038803 -0.7073801 0.1640593 -0.85294604
000220 8d ec 0b bf f2 5c d6 be 38 7e ab bd 9b 98 06 3f
       -0.5465782 -0.41867787 -0.08373684 0.5257661
000230 51 46 b4 3c d6 6f bb 3e dc 70 0e bf c2 33 59 3f
       0.022006186 0.36608762 -0.5564096 0.848446
000240 03 07 39 3e 9d f1 a4 3f c1 68 05 bf e7 47 8e 3f
       0.18069081 1.2886235 -0.52112967 1.1115693
000250 5b 61 08 3f f4 dd 0e 3f fb d1 52 3e 7e 29 40 bf
       0.5327355 0.55807424 0.20587914 -0.7506331
000260 c3 f7 ac be 3d 17 9d bf 65 ad 02 3f 56 7e ea bc
       -0.33782777 -1.2272717 0.5104583 -0.028624695
000270 84 1d 7f bf a7 be 55 be 4b ef 28 3f b8 9c 97 3f
       -0.9965441 -0.2087351 0.6599013 1.1844702
000280 51 1d a0 3e d0 cf b1 bd 12 d2 e2 bf d4 13 b2 3e
       0.31272367 -0.08682215 -1.7720358 0.34780753
000290 fc 39 78 be 30 f5 93 bf f5 64 99 be 0f 92 cb 3d
       -0.2424087 -1.15592 -0.29959837 0.09939968
0002a0 b5 79 66 3e 34 96 a1 3f d4 cf 04 bf b7 02 ca 3e
       0.22507365 1.2623963 -0.5187962 0.39455196
0002b0 a3 80 bd be 8c 04 5a bf 51 7b 94 3f 4c e1 19 be
       -0.37012205 -0.8516319 1.1600133 -0.1502735
0002c0 7b a5 67 be ff 50 1f bf fc 43 2d 3f 99 33 2e bf
       -0.2262172 -0.62232965 0.6768186 -0.6804748
0002d0 49 43 3e bf 92 7b 5c bf 97 7d 57 3f b2 b2 89 be
       -0.7432142 -0.86126053 0.8417601 -0.26894146
0002e0 44 03 2f 3f 14 de 61 bf 3b d7 98 bf a1 93 aa be
       0.6836436 -0.8822949 -1.1940683 -0.33315757
0002f0 24 9b 46 bf c9 61 2d 3f c9 48 29 bf 30 54 27 3f
       -0.77580476 0.67727333 -0.66126686 0.65362835
000300 11 50 45 bf d6 0b f0 3d 76 af f4 bd 49 34 0b 3e
       -0.77075297 0.117210075 -0.11947529 0.13594164
000310 30 de de be 60 bf 2f bf aa 59 5f 3f 33 4a 06 3e
       -0.4352889 -0.6865139 0.8724619 0.13114242
000320 c4 21 50 bf d9 b2 50 bf ad d8 f4 bd 56 0c 35 bf
       -0.8130152 -0.815229 -0.1195539 -0.7072195
000330 ca 82 79 bf a4 b3 c7 be 23 02 d3 3e 9b 4f 7e be
       -0.97465193 -0.39004242 0.41212568 -0.24835055
000340 6f d4 6e be ca dc ec 3e df bd cd 3e 9c 61 c3 bb
       -0.23323224 0.462622 0.40183923 -0.0059625637
000350 96 8d 80 bf 0f e3 2e bf 89 61 99 bf 9e dd c5 bf
       -1.0043209 -0.68315214 -1.198289 -1.5458257
000360 c8 32 22 bc a5 53 43 3f 11 c7 ac bf b0 6e 58 3f
       -0.0098998025 0.76299506 -1.349825 0.84543896
000370 2e 8d f9 be 7f 50 2f 3f 4f 6c dd bd e3 92 90 3e
       -0.48740524 0.684822 -0.10811674 0.28237066
000380 94 b3 75 3f c8 26 23 bf 7d 26 5f be b6 94 12 bf
       0.9597714 -0.6373105 -0.21792026 -0.57258165
000390 01 cc 72 bf df ae 9e be d8 cc bb 3d ce ba 92 3e
       -0.94842535 -0.3099279 0.0916993 0.28658146
0003a0 3e 9e 18 3d 97 e6 bf be 7a 00 0d 3f de fe 00 bf
       0.037260287 -0.37480614 0.5507885 -0.50388896
0003b0 a3 43 d6 be 99 59 9b 3f c8 ae a4 3f 8d 61 a2 3f
       -0.41848478 1.2136718 1.2865839 1.268602
0003c0 bc 6c b0 3e a8 85 16 be b1 0c 3b 3f 92 70 e8 3e
       0.34457958 -0.14699423 0.7306624 0.45398384
0003d0 63 71 8b be 87 69 5b bf b8 51 62 bd 7a 47 20 3f
       -0.27234945 -0.85707897 -0.055253714 0.62609065
0003e0 a6 82 86 bc 95 fe 2b 3e 0d cd 41 3e 10 af 09 3f
       -0.01641972 0.16796334 0.18925877 0.5378275
0003f0 c0 a1 78 3e 34 62 b7 3e 11 cc 58 bf 4b 2a e8 3d
       0.24280453 0.3581711 -0.8468638 0.11336192

conv.7.weight f4 [64]
000000 d0 bb 7a 3f 10 f5 7a 3f 38 d6 3a 3f 0f f1 74 3f
       0.9794283 0.98030186 0.7298312 0.95680326
000010 66 8b 84 3f ec 33 69 3f 38 bd 85 3f b1 14 6d 3f
       1.0355041 0.9109485 1.044837 0.926097
000020 cb 1f 86 3f 63 3f 6e 3f 70 a2 87 3f 73 f4 81 3f
       1.0478452 0.9306547 1.0596447 1.0152725
000030 9d 33 80 3f 4d 1d 48 3f 13 46 90 3f 7b 60 6f 3f
       1.0015751 0.7816971 1.1271385 0.9350659
000040 f7 9a 82 3f a4 6f 97 3f 74 eb 84 3f 88 ff 8e 3f
       1.0203542 1.1830945 1.0384355 1.1171732
000050 32 68 98 3f 06 57 65 3f ed 2d 89 3f e0 02 83 3f
       1.1906798 0.8958591 1.071714 1.0235252
000060 fd cb 77 3f 4f b1 85 3f 88 ef 9a 3f 6d 4e 47 3f
       0.96795636 1.0444735 1.2104349 0.77854043
000070 cf 1a 7f 3f 63 e8 78 3f 67 07 6c 3f 39 4a 86 3f
       0.9965028 0.97229594 0.92198795 1.0491401
000080 9b 15 79 3f ee de 3c 3f ea dd 8a 3f d4 68 4b 3f
       0.9729859 0.73777664 1.0848973 0.7945683
000090 cc 0f 86 3f 2c d6 48 3f 74 d6 8e 3f cf 3c 4d 3f
       1.0473571 0.784518 1.1159196 0.8017091
0000a0 01 d8 8a 3f 15 55 6a 3f 3d 84 71 3f a6 ff 79 3f
       1.0847169 0.91536075 0.94342405 0.97655714
0000b0 1e d5 84 3f c8 fb 6d 3f 90 4e 85 3f 5d fc 6d 3f
       1.0377538 0.9296231 1.04146 0.929632
0000c0 1b de 8b 3f e1 b6 73 3f f2 9f 86 3f 56 e7 9a 3f
       1.0927156 0.95200926 1.0517561 1.2101848
0000d0 a0 e5 a1 3f 60 36 8d 3f fb 5d 81 3f 3d 34 70 3f
       1.2648201 1.1032219 1.0106806 0.9382971
0000e0 30 6d 77 3f b2 f0 87 3f a2 33 6d 3f 30 4e 47 3f
       0.9665098 1.0620329 0.9265691 0.7785368
0000f0 47 f5 8b 3f b8 cc 62 3f 5a 1a 8b 3f fb 26 9c 3f
       1.0934228 0.88593626 1.0867417 1.2199396

conv.7.bias f4 [64]
000000 4d 89 e1 bf 0c 60 7d bf ab 56 1a be ae 8c 98 bf
       -1.7620026 -0.9897468 -0.15072124 -1.1917932
000010 06 92 ea bf bb 16 27 bf fa 7d 77 bf fc 39 d5 bf
       -1.8325813 -0.6526906 -0.966766 -1.665832
000020 7f 30 98 bf d1 e1 1e bf b2 50 0e bf 99 f7 52 bf
       -1.18898 -0.6206332 -0.5559188 -0.82409054
000030 d3 d5 64 bf a0 f5 99 be c3 fd 9e bf b3 c5 70 bf
       -0.8938877 -0.3007021 -1.2421192 -0.94051665
000040 64 65 99 bf 2f 91 61 bf 83 cb d8 bf 8f d9 5f bf
       -1.1984067 -0.8811216 -1.6937107 -0.87441343
000050 08 93 8d bf 75 91 0a bf 10 4c f4 bf df 28 a3 bf
       -1.1060495 -0.541282 -1.9085712 -1.2746848
000060 da 05 2c bf 7c 9e 71 bf ff fd bd bf a1 cb 2d bf
       -0.6719643 -0.9438245 -1.4843138 -0.6788884
000070 73 ce 8e bf 17 be 95 bf 6a c4 51 bf 66 fc 8e bf
       -1.1156753 -1.1698636 -0.8194033 -1.1170776
000080 82 3a 68 bf 53 07 bd be 4a 7d 4a bf a6 93 09 bf
       -0.90714276 -0.3691965 -0.79097426 -0.5374092
000090 27 f4 51 bf 6c b2 2a bf bf 33 74 bf 50 56 da be
       -0.8201317 -0.666785 -0.9539146 -0.42643976
0000a0 20 72 77 bf 16 51 44 bf c8 dd 7b bf ca ef 1e bf
       -0.96658516 -0.7668623 -0.98385286 -0.6208464
0000b0 07 78 87 bf 7f ad aa bf d2 40 77 bf a5 6c 4b bf
       -1.0583504 -1.3334197 -0.9658328 -0.79462653
0000c0 ed f7 8c bf c1 72 96 bf 8d 95 a7 bf 9e 49 89 bf
       -1.1013161 -1.175377 -1.3092514 -1.0725591
0000d0 b0 99 a7 bf f4 e1 69 bf e0 6a 86 bf 0a bd 2c bf
       -1.3093777 -0.913604 -1.0501366 -0.6747595
0000e0 03 cb 4c bf cc 60 8b bf 8e 9f 31 bf 95 9b 39 bf
       -0.7999727 -1.0888915 -0.69384086 -0.72503024
0000f0 84 04 84 bf 73 0a 5b bf b3 01 97 bf 88 85 bd bf
       -1.0313878 -0.8556282 -1.1797394 -1.4806376

conv.7.running_mean f4 [64]
000000 6a b6 41 bf cb 0d 24 bf 8f d8 be c0 df 0e d9 bf
       -0.75668967 -0.64083546 -5.9639354 -1.6957663
000010 68 3c 95 c0 e2 48 0b 40 93 1a e5 c0 f4 30 51 c0
       -4.663624 2.1763234 -7.159494 -3.2686129
000020 9f c0 bd c0 f0 bb 70 3f 86 26 f6 3f 32 61 d1 c0
       -5.9297633 0.9403677 1.9230506 -6.5431147
000030 c4 ab 1a c0 36 47 09 c1 84 30 ef c0 4c 8c d6 c0
       -2.4167337 -8.5798855 -7.4746723 -6.704626
000040 81 c8 8a c0 d4 a3 57 bf 2c c3 7e c0 a5 51 e0 c0
       -4.3369756 -0.84234357 -3.9806623 -7.0099664
000050 2b f7 ac c0 98 c3 a2 c0 3d 60 5f 3e c7 37 1a bf
       -5.405172 -5.086376 0.21814056 -0.6024136
000060 94 97 5a c0 ee 42 cb bf 08 5e 24 c1 02 9d d4 be
       -3.4155016 -1.58798 -10.272957 -0.41526037
000070 09 71 dd 3f e4 e3 86 bf 2d 81 83 c0 b9 f3 c0 c0
       1.730012 -1.0538297 -4.1095185 -6.0297513
000080 14 f3 bb bf 29 1d 2e bf 05 c4 00 c0 ac 25 33 c0
       -1.4683557 -0.68013245 -2.011964 -2.7991743
000090 da ed 06 c0 68 43 d6 c0 9a 3d fb c0 3b 24 2c c1
       -2.1082673 -6.6957283 -7.8512697 -10.758845
0000a0 39 d6 cd c0 10 c6 8f 40 12 5e e2 bf 90 ed a4 c0
       -6.4324 4.4929276 -1.7684958 -5.1539993
0000b0 9a b6 16 c1 fd 83 ff 40 6c 68 cb 3e cd e4 ab bf
       -9.41958 7.984862 0.39728105 -1.34292
0000c0 c8 4b c3 c0 49 25 5e 3e 18 68 07 c1 a9 c4 d5 bf
       -6.1030006 0.2169391 -8.4629135 -1.6700641
0000d0 87 72 05 c1 cf 4f 93 bf 9d 24 18 c1 81 b4 d5 3e
       -8.340461 -1.1508731 -9.508939 0.41739276
0000e0 3d 34 e7 c0 be 98 40 c0 e2 64 ac 3e e4 bc be 3e
       -7.2251267 -3.0093226 0.33670717 0.37253487
0000f0 68 02 89 3f 6d 81 96 40 93 70 f7 bf 48 7c 8e 3d
       1.0703859 4.703299 -1.933123 0.069572985

conv.7.running_var f4 [64]
000000 40 11 05 43 9f 61 c9 42 c7 f9 ad 42 07 a2 cb 42
       133.06738 100.69067 86.98785 101.81646
000010 64 b9 97 42 92 b6 ae 42 9d 86 b4 42 4d 58 9a 42
       75.86209 87.35658 90.26292 77.17246
000020 60 1d 07 43 91 2f b8 42 85 22 d9 42 17 94 a0 42
       135.11475 92.0929 108.56742 80.28924
000030 8e 2b c8 42 75 67 a3 42 e1 0d 9d 42 93 05 a2 42
       100.08507 81.702065 78.52711 81.01089
000040 50 f2 81 42 3f c0 d3 42 23 13 8e 42 ff 60 c4 42
       64.97327 105.87548 71.03738 98.189445
000050 77 6f de 42 5c ab a6 42 3c ae 88 42 f2 00 89 42
       111.217705 83.33469 68.3403 68.50185
000060 55 b6 d0 42 29 61 91 42 db f1 be 42 84 de 8f 42
       104.35612 72.689766 95.472374 71.9346
000070 15 23 a2 42 ae 83 c2 42 b2 f9 c5 42 ee 0f a5 42
       81.06852 97.25719 98.987686 82.53111
000080 e9 8a cc 42 3d 68 ab 42 b5 ed de 42 4e 22 95 42
       102.27131 85.70359 111.46427 74.567
000090 43 6f d4 42 0f f1 8d 42 8b 3e ef 42 eb 0c 9d 42
       106.21731 70.97082 119.622154 78.52523
0000a0 16 c6 8b 42 5e fa 88 42 21 6f 75 42 54 01 9b 42
       69.88689 68.489 61.358524 77.502594
0000b0 01 26 e4 42 78 48 ad 42 90 13 cd 42 17 e6 bc 42
       114.07423 86.64154 102.53821 94.449394
0000c0 f4 b8 ec 42 c2 f9 ba 42 79 0b 9a 42 f8 7f e4 42
       118.36124 93.48781 77.02241 114.24994
0000d0 98 21 d1 42 6f 47 c2 42 32 2e 8e 42 be 09 c8 42
       104.56561 97.13952 71.090225 100.01903
0000e0 81 85 a4 42 17 57 8f 42 93 07 c6 42 0a 83 b9 42
       82.26075 71.6701 99.01479 92.755936
0000f0 2d 2c ba 42 5c b1 aa 42 24 31 f9 42 24 10 a4 42
       93.08628 85.346405 124.59598 82.031525

conv.9.weight f4 [64, 64, 3, 3]
000000 84 bd 97 3e 6b b3 0c 3d a6 93 5a be 23 a7 a6 3f
       0.29636776 0.034350794 -0.21345386 1.3019756
000010 44 12 e2 3e 72 7a 65 bf 01 48 53 3f 67 9d 80 bf
       0.4415456 -0.8963996 0.82531744 -1.0048035
000020 ed 88 50 3e 79 21 52 be c1 dd 7d 3f f0 a7 85 bf
       0.20364733 -0.20520581 0.99166495 -1.0441875
000030 72 ff 12 3f f0 fc af 3e 96 ad 8c 3f 55 0d 9b 3e
       0.5742103 0.34372663 1.0990474 0.3028361
000040 85 85 14 bf bf 06 c7 be e3 67 86 3e 42 64 34 3e
       -0.58016235 -0.38872334 0.26251134 0.1761637
000050 5f f8 90 be bd b1 8a 3e e4 d8 86 be 66 97 8f 3e
       -0.28314492 0.2708873 -0.2633735 0.28045195
000060 2c 43 66 3f 1c 8a d8 bd 86 b1 21 3e 6a 3e d4 3e
       0.89946246 -0.10573217 0.15790376 0.41453868
000070 10 fd f4 be 84 68 a4 3e 39 d6 30 3e f9 90 0b bf
       -0.4784932 0.3211099 0.1726922 -0.54518086
000080 07 cd e9 bf b1 30 84 bf 16 a0 a3 3e e5 09 b7 be
       -1.8265694 -1.032736 0.31958073 -0.35749736
000090 c7 2f 80 be 93 1f a2 3e 1b 45 4c bf fe 7b cb be
       -0.2503645 0.31664714 -0.79792947 -0.39743036
0000a0 fb 57 2e 3f 69 00 2a 3f d4 3e 87 3f b8 df 08 bd
       0.68103 0.66406876 1.0566049 -0.03341648
0000b0 32 66 d8 3c 60 28 97 3f bd 4a 94 3f a4 ce d6 3f
       0.026415918 1.1809196 1.1585308 1.6781812
0000c0 a0 1c 42 3f e5 b8 87 3e ed e9 7f 3f 21 aa 61 3e
       0.7582493 0.2650825 0.9996632 0.22037555
0000d0 8e 2e a5 bd 31 01 83 3f 1d dd ea 3e b5 9c d1 3e
       -0.0806552 1.0234739 0.4587182 0.4093987
0000e0 24 21 a5 3d 44 07 5c 3f d3 06 ae 3d c3 06 cf be
       0.08062962 0.85948586 0.08497395 -0.40434846
0000f0 c2 63 dd 3e 74 81 77 3e 5f a2 04 3e 61 2a 14 3d
       0.43240172 0.24170476 0.12952565 0.03617323
000100 c3 0d f6 3e e4 94 d3 3f 69 a4 9d 3f 14 f8 8f 3f
       0.48057374 1.6529813 1.2315799 1.1247582
000110 bf e3 bc 3b ad bb ba be fc 38 e3 3d 7b 90 09 bf
       0.005764454 -0.3647131 0.11094853 -0.53736085
000120 ab 6a be 3e 04 5c 58 3b 20 ee e5 3d be 4f 2b 3f
       0.37190756 0.003301383 0.11227059 0.6691855
000130 b5 cc 10 be 5c 36 42 bf 90 63 a2 3f d5 36 95 3f
       -0.1414059 -0.75864196 1.2686634 1.1657358
000140 1c 57 22 3e 81 23 1c be c6 85 d4 be f3 84 9a be
       0.15853542 -0.15247919 -0.4150831 -0.30179557
000150 4e 01 0d 3f 70 7c 57 3f a9 52 23 bf 01 71 80 3d
       0.55080116 0.8417425 -0.63798004 0.06271554
000160 91 10 a4 3e b3 16 3b 3f 39 a6 68 be a4 78 2b bf
       0.3204389 0.7308151 -0.22719659 -0.6698096
000170 1b ca 66 3e f3 c8 a4 3e 01 f4 70 3e 9f e1 d2 bd
       0.22538035 0.32184562 0.2353058 -0.1029694
000180 49 28 ac 3d 82 32 41 bf 76 c7 8a bf 27 26 1a 3f
       0.08406121 -0.75467694 -1.0842121 0.60214466
000190 10 47 55 3f 9b 6f 85 3e 60 00 09 3f a9 13 62 be
       0.8331156 0.2606171 0.535162 -0.22077812
0001a0 73 81 52 bf c3 84 21 3f 2b af cd 3e b9 7a c8 3d
       -0.82228774 0.63093203 0.40172705 0.097890325
0001b0 11 3f cb 3e a1 f4 de 3d 70 ba 02 3d a2 bb 98 3f
       0.39696553 0.10886503 0.031916082 1.1932261
0001c0 a8 8a be be 5a 63 9d 3e 40 da ef 3d 93 8c 93 3d
       -0.3721516 0.30739862 0.1171155 0.07204547
0001d0 90 b1 95 be ff 78 cd bf 1b 44 81 bf 73 d5 dd bf
       -0.29237032 -1.605255 -1.0098909 -1.7330765
0001e0 d9 2c 36 bf 11 58 85 be 4a 18 22 bf e5 ed 02 c0
       -0.7116218 -0.26043752 -0.6331831 -2.04577
0001f0 d6 e8 9f bf d9 b3 03 c0 43 2a 5a bf 3e 47 7e bf
       -1.2492931 -2.057852 -0.85220736 -0.99327457
000200 45 cf f0 3e 1d 0b 01 3e a7 a2 81 be db dc da be
       0.47033134 0.12601896 -0.25319406 -0.42746624
000210 4f ca 2e 3f ac f9 8b 3f 91 73 d3 3f 8a 4f 08 be
       0.6827745 1.0935569 1.6519643 -0.13311592
000220 d3 80 04 3e ab 7e f8 be d1 35 29 bf 77 aa 43 be
       0.12939768 -0.4853414 -0.6609774 -0.19107996
000230 25 a8 a1 be b3 ca 9f 3c cf cf 0d be 0e 9d 97 be
       -0.31573597 0.019505834 -0.13848804 -0.2961201
000240 3d ec 0e 3e ac 88 fa be 8b 5f 6a 3f 61 ac 16 3d
       0.13957305 -0.48932397 0.91552037 0.036785487
000250 da 34 e0 3d 09 d5 5b bf b2 67 36 be 44 6e ab 3e
       0.10947581 -0.8587194 -0.17812994 0.33482563
000260 e2 6e 47 3e 32 78 b0 3f fe 92 df be cc 35 4a be
       0.19475892 1.3786681 -0.43666834 -0.19747084
000270 da 24 7a 3e a4 13 4a bf 8c 2e 02 bf dc de c3 be
       0.2442812 -0.7893622 -0.50852275 -0.38255966
000280 4d e7 5f bf 0d c0 57 be de 47 bc bd 4f 48 3e bf
       -0.8746231 -0.21069355 -0.09193395 -0.74329084
000290 95 65 05 3f 58 2c 4e 3f 59 fe 80 3d 6d 46 8e bf
       0.52108127 0.80536413 0.06298513 -1.1115242
0002a0 0c af 93 3f 72 44 e5 bd 66 90 4c 3d 6c e1 ed 3e
       1.1537795 -0.111946955 0.049942397 0.46461046
0002b0 c9 f4 86 3e 25 e9 5a 3f 85 21 82 bf 92 56 d5 be
       0.2635863 0.85512 -1.0166479 -0.4166761
0002c0 21 0e 3c 3e e5 41 78 bf 25 4c ad bf b4 29 f2 be
       0.18364765 -0.9697555 -1.3538862 -0.47297442
0002d0 2e 8d 02 3e 91 81 04 bf aa db 12 be c0 5b ab 3e
       0.12749168 -0.517602 -0.14341608 0.33468437
0002e0 97 ee 06 bf 4b 25 14 be 14 64 b0 be f0 da cd 3e
       -0.5270781 -0.14467351 -0.34451354 0.402061
0002f0 c5 c8 a4 3c 74 4d 8a bf 02 8a ca be 15 f5 08 3e
       0.020115266 -1.0804887 -0.39558417 0.13374741
000300 31 5c fd be 8b 70 8b 3d 28 b3 4d 3e 48 18 f2 3c
       -0.494844 0.06808575 0.20087874 0.029552594
000310 13 08 10 3e bd e0 83 3e e2 0a 9b be 0a 6e b2 bf
       0.1406558 0.257574 -0.3028174 -1.3939831
000320 e9 50 6e be 3f f4 c1 be 60 09 86 3f de 9f b4 bf
       -0.23273052 -0.37881657 1.0471611 -1.4111288
000330 d0 e7 56 bf ee e8 cc bf 9a 5a 24 3f a2 72 70 3f
       -0.8394747 -1.6008584 0.64200747 0.93924916
000340 d8 9a 77 3f 0e 31 30 3f 4c 0d 6c bf 26 45 f3 3e
       0.9672065 0.6882485 -0.9220779 0.47513694
000350 fd 1b b1 3d cc 14 60 3d 6b c1 83 bf db 4a d6 3e
       0.086479165 0.054707333 -1.0293401 0.41853985
000360 7e a4 b3 bd 77 c7 c8 bc 70 61 f8 be 17 47 1e 3e
       -0.08771609 -0.024509175 -0.4851184 0.15456806
000370 4e 29 35 3e 8b a5 1f 3f 8a 5e cf 3e c4 7b 79 3e
       0.17691538 0.62361974 0.40501815 0.24363619
000380 07 b7 21 3f 0d bc 63 bc 00 cc 38 bc 3f 13 27 be
       0.631699 -0.013899815 -0.011279106 -0.16315936
000390 1f b1 4b be 4c 76 b6 be eb a0 a1 3e e6 8b 3c bf
       -0.19891785 -0.35637128 0.31568083 -0.7365097
0003a0 fa 3a 06 bf 0c 90 9d 3e f2 e5 5f 3e 5a fd 27 be
       -0.5243374 0.30773962 0.21865061 -0.1640524
0003b0 a1 63 f5 be 04 5d 98 3d b8 ee 0d c0 b6 bb 07 be
       -0.47927573 0.07439616 -2.2176952 -0.132552
0003c0 60 73 86 3f 9b b0 e1 3f 62 2d ef bf 6c 95 85 bd
       1.050396 1.7632021 -1.8685725 -0.065226406
0003d0 5a 4b 91 bd 4e 20 48 bd 59 14 3e bf 4b a9 d4 bc
       -0.0709445 -0.048858933 -0.742498 -0.025959631
0003e0 12 5d 48 be ef 7e 5e bf 63 b2 a4 be 0c a4 f7 bd
       -0.19566754 -0.86912435 -0.32167348 -0.12091836
0003f0 71 12 45 3e 6f 73 44 3f 20 d8 05 3f a1 96 ca 3e
       0.19245316 0.7673864 0.52282906 0.39568046

conv.10.weight f4 [64]
000000 ed b6 f1 3f 04 9b de 3f 5a d0 d3 3f e8 1f d1 3f
       1.888395 1.7391057 1.6547959 1.6337862
000010 1b 4b dd 3f fa 39 b5 3f a2 ef dc 3f 72 13 e7 3f
       1.7288545 1.4158318 1.726063 1.8052809
000020 50 4b e2 3f 79 75 e0 3f 86 ba d7 3f a8 fb b9 3f
       1.7679234 1.753585 1.6853797 1.4529924
000030 b1 ad bb 3f ed cc c0 3f f3 6c df 3f 47 41 d9 3f
       1.4662381 1.5062538 1.7455124 1.6973046
000040 8e df c8 3f 37 3b e0 3f 08 e1 de 3f f3 a0 c1 3f
       1.5693223 1.7518071 1.7412424 1.5127243
000050 97 3b d8 3f 7b fc be 3f d4 d9 c4 3f cf 0b bf 3f
       1.6893185 1.4920801 1.5378976 1.4925479
000060 55 dc ef 3f 4f a7 e0 3f 8d c1 bc 3f 0d 1d b0 3f
       1.8739115 1.7551059 1.4746567 1.3758866
000070 2a 33 c5 3f c2 c0 e2 3f 9f e1 b7 3f 1f 7c df 3f
       1.5406239 1.7715075 1.4365729 1.7459754
000080 c1 27 c9 3f 0e d3 e4 3f 4b ff d2 3f 75 7f cd 3f
       1.5715257 1.7876909 1.6484159 1.6054522
000090 eb 87 c0 3f cb 59 c2 3f 46 f5 df 3f ea c3 c3 3f
       1.5041479 1.5183653 1.7496727 1.5294163
0000a0 14 a3 d9 3f 3b a1 f6 3f 86 79 c5 3f 34 40 d0 3f
       1.7002892 1.9267954 1.5427711 1.6269593
0000b0 59 1d be 3f 08 31 c7 3f 73 c7 c2 3f fc 49 e2 3f
       1.4852706 1.5561838 1.5217117 1.7678828
0000c0 d6 32 bc 3f 77 f0 ba 3f d4 78 e0 3f c1 43 d6 3f
       1.4703014 1.4604634 1.7536874 1.6739427
0000d0 14 9c bc 3f 75 8f e3 3f 63 50 f8 3f a7 a3 d5 3f
       1.4735131 1.7778155 1.9399532 1.6690568
0000e0 d7 2a cd 3f 10 d7 c1 3f 7b 3b dc 3f 02 34 d1 3f
       1.6028699 1.5143757 1.7205652 1.6343997
0000f0 a2 0b da 3f a3 e7 e8 3f 93 37 ba 3f f5 0e d8 3f
       1.70348 1.819569 1.454821 1.6879565
