models/rym_grid_c1_s64_e2_t4_r4/conv_transformer_c1_g1_a0_l0p32_lr1e-04.pt (torch, 955166 bytes, 52 tensors)

pos_embed f4 [1, 64, 64]
000000 be 1f 02 3e 34 ad ce bc af f3 6d 3d f3 21 ce bd
       0.12707421 -0.025229074 0.058093723 -0.10065069
000010 37 f2 85 3d f9 ee 4b 3d c2 71 5b be 0f a0 21 3e
       0.065403394 0.04978845 -0.21430114 0.15783714
000020 45 43 ee 3c 9c 6d 8c 3d af 29 8b 3d fc 04 5e 3e
       0.029084811 0.06856844 0.0679506 0.21681589
000030 60 09 4f 3e 26 27 4e bd 55 07 89 be b6 a8 e4 bd
       0.2021842 -0.050330304 -0.26763406 -0.111649916
000040 8a de fc bd 0a 8c 23 be 27 c3 6a 3e b8 9b 42 be
       -0.123471335 -0.1597139 0.22926007 -0.19004714
000050 b3 49 b6 bd 4c 7e bb bc 88 64 7d 3c d1 90 8a bd
       -0.08900776 -0.022887371 0.015465863 -0.06765903
000060 19 0e 15 3e 8c 97 c2 bb 72 4c e7 bd a3 e2 99 bd
       0.14556159 -0.005938476 -0.11293878 -0.07513931
000070 22 04 9c bd dc e0 a6 3d 41 cf b5 bb a0 49 a5 bb
       -0.07617976 0.08148357 -0.005548388 -0.005044177
000080 91 64 99 3d 09 b0 f7 3c d2 f0 35 3d 3b a0 90 3b
       0.07489885 0.030235307 0.044419117 0.004413632
000090 68 da 08 bd 38 af 15 bc 49 01 a5 bc 1b 6a 84 3e
       -0.033411413 -0.009136014 -0.020142214 0.25862202
0000a0 bf 91 72 bd ff 07 07 3e f6 30 51 3e 0e 58 06 3e
       -0.059221026 0.13186644 0.20428833 0.13119528
0000b0 e8 b4 dc 3c cf 3b 9c bd d5 77 33 bd e1 2b d5 3d
       0.026941732 -0.07628595 -0.043815453 0.1040876
0000c0 b1 ee ba 3d 15 e4 50 3d a1 00 23 be 62 02 af bd
       0.09127558 0.050998766 -0.15918209 -0.08545376
0000d0 ae 7a cb 3d 8f e5 1b be a3 30 8c bd eb da 9c 3c
       0.09935509 -0.15224288 -0.06845214 0.019147357
0000e0 21 37 ce 3d 33 7d 01 bd 8f 62 c6 3d c0 93 51 3d
       0.10069109 -0.03161354 0.09686767 0.051166296
0000f0 63 2a 7e bd 46 26 e8 3c 62 6b ec bd 46 1f 13 be
       -0.062052142 0.028338563 -0.11543919 -0.14367399
000100 a2 4a b0 be d3 92 89 3b 0e 65 1d be 09 86 a8 bd
       -0.3443194 0.004198411 -0.1537058 -0.0822869
000110 ec 98 74 3d e8 eb af 3e 4a 3e 29 3d a3 9e eb bd
       0.05971615 0.3435967 0.04131917 -0.11504867
000120 10 04 1d bd 28 0c d2 3d 41 27 57 be 06 b8 54 3e
       -0.038333952 0.10256225 -0.21011068 0.20773324
000130 d1 49 aa be 66 97 c6 bb f7 07 80 3e ec cb 9f bd
       -0.33259442 -0.0060605286 0.25006077 -0.07802567
000140 34 f8 fa 3d 2d 5d 9b bc 1b a2 3d 3d ca 58 64 3d
       0.12254372 -0.018965328 0.046297174 0.05574874
000150 3a 88 b9 3c 29 5d 3f be eb ea 81 be c2 a0 60 3c
       0.022647966 -0.18687882 -0.2537454 0.013710203
000160 88 80 aa be 3c 0d a1 bd 58 5d 72 3c a7 1f 21 3d
       -0.33301187 -0.078638524 0.014792763 0.039336827
000170 22 1c df bd 6f e9 8f 3d c0 86 97 be 59 74 75 3c
       -0.10894038 0.07026946 -0.29594994 0.014981353
000180 e8 a4 25 bd 3e f5 9c 39 3f 5a 83 bd f4 b0 99 3c
       -0.04044047 0.00029937358 -0.064136975 0.018761136
000190 ee 68 b5 bd 57 49 b2 3e a9 df 3b bd 95 84 a3 3d
       -0.088579044 0.3482158 -0.045867596 0.079842724
0001a0 7d ff dc 3d 30 5d a3 3d 71 c9 04 3e 61 d1 b4 3d
       0.10790918 0.079767585 0.12967469 0.08828998
0001b0 c4 92 25 3e 5d bf 6f be f5 1d d1 bc 1b 1d 2b 3c
       0.16169268 -0.23412843 -0.02552698 0.010443951
0001c0 5a 8e 81 be 92 41 e4 3e 86 a1 58 3d ab 42 9d bd
       -0.25303918 0.44581276 0.052888416 -0.076787315
0001d0 00 87 04 3e ef 91 1f be 49 4e 41 be 05 a6 18 3e
       0.12942123 -0.15583013 -0.1887752 0.14907081
0001e0 61 2d 8b be f0 bf e6 3c 14 b2 b1 3d 00 25 ea bc
       -0.2718306 0.028167695 0.08676544 -0.028582096
0001f0 59 3f 59 3d b7 98 be 3d 67 fd 53 3e f7 68 53 bc
       0.05303893 0.09306472 0.20702134 -0.012903444
000200 eb 5c 20 be d9 af 6b 3e c9 5c 86 3d d5 55 1e 3d
       -0.15660445 0.230163 0.06560666 0.038656075
000210 02 0b c3 bd e9 cf 72 3d 14 b2 ee 3d 96 f6 4c bd
       -0.09523584 0.05928031 0.116550595 -0.05003985
000220 44 a9 3b be 68 8e c7 3d de b1 93 3d 2e 5c 7f bd
       -0.18326288 0.09743959 0.0721166 -0.06234377
000230 aa 82 88 3c 59 c4 83 bd b4 42 fa 3b aa e6 0a 3d
       0.016663868 -0.06433935 0.007637346 0.033911385
000240 84 ca 39 3e d7 3c 94 3d a6 e7 b2 bd 36 ac a4 3c
       0.1814366 0.07238167 -0.0873559 0.020101648
000250 c5 0d b9 bd 7c 68 23 be 91 ac 8f 3d 59 fb e8 bb
       -0.090358295 -0.15957826 0.07015336 -0.007110041
000260 57 05 b4 3d f9 8e 59 bd 72 e1 04 be 6b 1f b0 bc
       0.08790081 -0.053114865 -0.12976626 -0.021499356
000270 49 71 ae be ac 05 57 3d 8a 2e 25 bd 1d 71 de bd
       -0.34070805 0.052495643 -0.040327586 -0.108614184
000280 6b 81 15 3e a1 89 85 bd a7 45 88 bc 2c 77 15 3e
       0.1460015 -0.06520391 -0.016634775 0.14596242
000290 43 80 0e 3e 9e 11 60 3d 6a de 59 3c 5d ca a3 3d
       0.13916115 0.0547043 0.013297657 0.07997582
0002a0 5c 6a 07 3e f0 66 15 be 26 f1 9b bd 48 fb a5 3c
       0.13224167 -0.14590049 -0.07614355 0.020261422
0002b0 00 79 3e 3e 7a 1e 43 bd f4 76 64 3e 41 78 f5 bd
       0.18600845 -0.047636487 0.22311002 -0.11985827
0002c0 7b 5f 0a be c8 22 7f bc 74 f1 37 3e 78 02 dd be
       -0.13512985 -0.015572257 0.17963201 -0.43165946
0002d0 72 e2 bb 3c 12 8b 16 3e ff 99 f2 3d 98 b8 aa be
       0.022935126 0.14701489 0.11845779 -0.3334396
0002e0 78 2d 04 3d d7 4d e7 bd 45 ff 68 bd 45 48 35 3e
       0.032269925 -0.11294144 -0.05688407 0.1770335
0002f0 31 53 20 be 37 cb 88 3d e2 a3 34 3e 17 ef 87 3e
       -0.15656735 0.06679385 0.17640641 0.265496
000300 45 fd 7f 3d 6f a4 33 be 63 05 6b 3d 6c fe 65 3e
       0.062497396 -0.17543195 0.057378184 0.22460335
000310 fa 3c 8c 3d 26 f5 7e 3d 96 15 16 3e d3 2a 00 bd
       0.06847568 0.06224551 0.14656672 -0.03129084
000320 6f c6 95 3d 37 0e db b9 f2 db 42 bd dc 35 93 be
       0.07313239 -0.00041781526 -0.047573037 -0.2875203
000330 e5 4d 62 be d4 a4 23 3d 64 70 d4 3c d3 ea d3 3d
       -0.22100027 0.039952114 0.025932498 0.103475235
000340 7b 8d 82 3e 29 3a 84 bd df 46 91 3b eb 60 b4 3e
       0.25498566 -0.06456406 0.0044334973 0.35230193
000350 bc fe 36 be 33 67 24 bd 6b c1 72 3e 42 a8 44 bd
       -0.17870611 -0.04013748 0.23706596 -0.048012026
000360 84 d9 e3 bd 02 e2 29 be 95 17 a1 3e 7d 0a ce bd
       -0.11125472 -0.16590121 0.31463304 -0.10060594
000370 e9 ab 1b 3d bc 96 c4 be 87 b1 2c 3d 9d 16 44 be
       0.038005743 -0.3839625 0.04216149 -0.19149251
000380 7f db 92 bc 2b 16 a2 bd be 05 82 3d af f8 24 be
       -0.01792693 -0.079143845 0.063487515 -0.1611049
000390 ec 5d ac bd c6 3f 08 be df 1e 30 3e 1a 70 8c 3e
       -0.08416352 -0.13305578 0.17199276 0.27429277
0003a0 70 32 85 3e d0 b8 2a be 04 33 b1 be 15 1b 22 3e
       0.26015043 -0.16672063 -0.34609234 0.15830643
0003b0 55 77 8a be 7c 80 7c 3e 36 ed 81 bd 12 f8 31 be
       -0.27044168 0.24658388 -0.063440725 -0.17379788
0003c0 fb 56 28 3d 59 18 65 be aa 05 45 be 61 f1 3a be
       0.041098576 -0.22372569 -0.19240442 -0.18256141
0003d0 23 da cc bd 8a ef 82 bd 4e aa 9e 3e 86 57 2c bd
       -0.10002544 -0.06393345 0.30989307 -0.042075656
0003e0 31 59 6c be 3b 61 dc 3c 79 d1 64 3e 46 0f 1b 3e
       -0.23080899 0.026901832 0.22345532 0.15142545
0003f0 c6 49 b6 bd a0 cd 8e bd dc ae 81 3e 86 e9 aa be
       -0.0890079 -0.069728136 0.2532872 -0.3338129

conv_stem.0.weight f4 [64, 64, 3, 3]
000000 7b 92 10 3d 3d b7 0e bf 22 5a b2 3d 41 7c 07 3d
       0.035295945 -0.5574835 0.08708598 0.033077482
000010 9a 08 ab be c5 f3 65 bd cd 34 98 be 9f 5c 81 be
       -0.33405 -0.05614068 -0.29727784 -0.25265977
000020 60 e2 a3 3e 16 ed 90 bc 2a f9 96 be cd 8c ba bd
       0.32008648 -0.017691176 -0.29486972 -0.09108887
000030 db 22 57 3d ce 86 98 be 7c fc 21 bd c5 36 32 bd
       0.052523475 -0.29790348 -0.03954743 -0.043509264
000040 a2 e9 6c 3e aa 9f 9f 3d 76 85 bf 3c 75 aa b1 be
       0.23135999 0.077941254 0.023379069 -0.3470036
000050 1a cf 22 bd 6c 66 94 be 00 ef 1e be 94 12 d9 bc
       -0.03974829 -0.28984392 -0.15520859 -0.026498117
000060 d4 f4 81 3e d2 9d f2 3c e6 5a d3 3d d7 6e 72 3d
       0.25382102 0.02961627 0.10320072 0.059187736
000070 09 bb 53 3d 26 a9 db 3c 85 ac 80 be e1 de bb be
       0.051692042 0.026814055 -0.25131622 -0.3669348
000080 9e a2 18 be fa 9e a4 b9 56 aa 10 be c0 5f 9d 3d
       -0.14905784 -0.00031398964 -0.14127478 0.076842785
000090 4f e7 af 3d 3e 45 45 3d 53 8f c0 3e 14 b7 d3 3d
       0.085890405 0.048161738 0.37609348 0.10337654
0000a0 0a 3c 68 bd 9d 13 5e bd 99 7d 44 3e f7 8f 5a 3e
       -0.056697883 -0.054217923 0.19188537 0.2134398
0000b0 34 97 45 3e 60 a7 68 3e 55 27 e8 3d ac b7 f3 bd
       0.1929596 0.22720098 0.11335627 -0.11900267
0000c0 ba 2a b7 3d e0 af cf 3c 02 46 85 bc b5 f8 ac bc
       0.08943696 0.025352418 -0.016268734 -0.021114687
0000d0 83 6f 27 be 95 75 31 be 2f 79 79 3d 70 17 ac 3d
       -0.16351132 -0.1733001 0.060906585 0.08402908
0000e0 f1 32 25 3e 28 18 ba bc 0c cc 1b be a4 4b 97 bd
       0.16132714 -0.022716597 -0.15214556 -0.07387474
0000f0 dc 69 83 3e 00 af 99 bc 36 a4 42 be 0e 1f 2b 3e
       0.25666702 -0.018760204 -0.19007954 0.16711065
000100 e3 28 92 bd f4 47 64 be 4a ae cd bd 54 03 cd 3d
       -0.07136705 -0.22293073 -0.100430086 0.100104004
000110 5e 21 11 3e 28 fe a4 3e b6 5f de 3d 4e f8 0a 3d
       0.14172885 0.32225156 0.10858099 0.033928208
000120 76 fd 57 3e c4 f0 a4 3b 5d 9e 06 be 59 02 2d bd
       0.21092781 0.0050335843 -0.13146348 -0.042238567
000130 8f 37 7d 3d e4 dd 2e 3d 48 83 90 3e f5 20 bc 3d
       0.061820563 0.04269208 0.2822516 0.091859736
000140 67 6d c6 bc ab a1 78 be 25 9b c2 bd a1 c6 a8 bc
       -0.024222089 -0.24280421 -0.09502248 -0.020602526
000150 1c 8e c7 bc 9a 78 77 3d 09 e9 4b 3e 23 1b c0 3e
       -0.024359755 0.06041775 0.19913115 0.37520704
000160 0b 28 82 3d db f8 58 3e e8 0f 8f 3e 8b 7a 2e be
       0.06355294 0.21188681 0.27941823 -0.17038934
000170 24 be f9 bd 87 15 61 3e 2a 5c 1f 3e 35 63 bc 3d
       -0.121944696 0.21980868 0.15562502 0.0919861
000180 a2 d0 d7 3c 42 63 a8 3d ca f2 87 3d 44 b7 19 bd
       0.026344601 0.08222057 0.06638105 -0.03752829
000190 27 94 d3 bd 6a e6 f4 bd a3 ef 3e bd c2 4e e3 3c
       -0.10330992 -0.119580105 -0.046615254 0.027747516
0001a0 39 bb a3 3d 50 c8 31 bd 2a a0 10 3c 9d 86 c3 3d
       0.07994694 -0.043403924 0.008827249 0.0954716
0001b0 6b a5 df bd 1a 0b 5d 3e 02 ae 21 be c9 30 e1 bd
       -0.10920223 0.21586266 -0.15789035 -0.10995633
0001c0 bb 70 96 3e f9 4d fc bd 9b a2 d4 bd 4d 32 05 3d
       0.29382882 -0.123195596 -0.10382577 0.032518674
0001d0 3e 06 33 be 41 32 88 bd da 9f 11 be 8a 64 35 bd
       -0.1748285 -0.0665021 -0.14221135 -0.044285335
0001e0 af 39 23 3d 80 fd b9 bb 9f 11 fd bb 46 3f a7 bd
       0.039849933 -0.0056759715 -0.007723048 -0.08166365
0001f0 dd e3 68 bd 8d ab 56 3c 9b 44 38 bd 2f b0 bf 3d
       -0.056857932 0.013102424 -0.044987302 0.09359776
000200 ae 13 04 be 98 92 78 3c 00 cb b4 ba f4 44 be 3c
       -0.12898132 0.015171669 -0.0013793409 0.023226239
000210 46 84 20 3e 1e ba bb 3d 6c ee 1a be ff 77 3d bd
       0.15675458 0.091663584 -0.15130013 -0.046257015
000220 75 b1 d7 bc e4 d5 9f bc 5c 55 3f ba bf dc 3b 3d
       -0.026329735 -0.01951117 -0.00072987913 0.045864817
000230 23 4f 7b 3c fd b8 80 3c 25 95 ed bb b3 61 e0 3c
       0.015338692 0.01571321 -0.0072504454 0.027390337
000240 6b c2 d2 bd 74 ca 0f bc 22 74 cd bc 24 73 b9 bc
       -0.102909885 -0.008776296 -0.02507979 -0.022637911
000250 d6 cd 25 bd 40 6e 86 bd 72 14 1f bd 7e ac 7a bd
       -0.040479504 -0.06563997 -0.038837858 -0.061199658
000260 1c 9b ee bb d4 71 7b 3d 27 9a 48 3c 22 3f f9 3a
       -0.007281674 0.06138785 0.012243784 0.0019016007
000270 ec b6 b5 3d c3 ea c8 3d 23 ba c4 bd a0 7e 83 3d
       0.0887278 0.09810402 -0.09605815 0.06420636
000280 db a7 8f 3b 4a b2 be bd e2 22 2b 3d 45 31 b7 bd
       0.0043840236 -0.0931135 0.041781314 -0.08944944
000290 a2 77 f2 bd 9c 0a 44 3d 7b 06 e6 3c 48 89 26 bd
       -0.118392244 0.04786168 0.028079262 -0.040658265
0002a0 d0 4d 9f 3d 7a a9 99 3d f6 d0 e4 3a 12 1f b0 3d
       0.077785134 0.07503028 0.0017457295 0.08599676
0002b0 30 8e 73 3d c1 e5 de bc fb 69 cd bb 22 ff af 3b
       0.059461772 -0.027209165 -0.0062687374 0.0053709904
0002c0 dc 58 34 3d 4c 48 88 3d a1 d2 ac bc c9 12 9a 3c
       0.044030055 0.066544145 -0.02109653 0.018807786
0002d0 ba 2e f6 bc bf 4b b4 bd a6 4f 9b bd c1 ab a0 bc
       -0.030051578 -0.0880351 -0.07583551 -0.019613149
0002e0 b0 c7 f7 3c c3 39 2a 3d 62 c9 ce bc a9 6e 0f 3e
       0.030246586 0.041558992 -0.025242511 0.14007057
0002f0 71 c6 2e bd c4 ca ad bc 59 3e ee bc 9b a2 55 3d
       -0.042669717 -0.02121485 -0.029082464 0.052157026
000300 f0 61 79 bc fc 1e b6 3b f2 ef c6 3c 30 71 cd 3c
       -0.015221104 0.005557893 0.024284337 0.025078386
000310 48 f1 f4 3c 03 0f 79 3c b4 62 f0 3d aa fa d6 bd
       0.029900208 0.015201333 0.11737576 -0.10497029
000320 7f 03 2e 3d a5 a7 71 bb 37 1b 76 3d 69 c9 a9 3c
       0.042483803 -0.0036873606 0.060084548 0.020725923
000330 e1 0b bb 3c e3 78 13 3c eb 0d 60 3d 49 35 84 3d
       0.022832813 0.00900099 0.054700773 0.06455476
000340 23 9f 1a 3d 46 30 82 bd 54 ff 48 3c fb d5 6e 3c
       0.03774942 -0.06356864 0.012267906 0.014577384
000350 80 9e ab bd 45 ac d9 bc a2 84 0d bd 25 ba cb bc
       -0.08379841 -0.026571402 -0.034550317 -0.024869034
000360 db 70 80 bd ca 2e 5b 3e f0 8c 4e be 93 ad 0b be
       -0.062715255 0.21404567 -0.20170951 -0.13640432
000370 d5 e2 91 3e f8 7e a9 bd f8 32 de bd 5e 92 ef bc
       0.28493372 -0.082761705 -0.10849565 -0.029244598
000380 3c ff 0c be 56 36 8c bd 18 fe 84 bd 46 8f 90 bc
       -0.13769239 -0.06846301 -0.06493777 -0.017646443
000390 12 48 0d 3d ae 9b b1 bb 50 bc 5f bd df ea 8d bd
       0.03449256 -0.00542017 -0.05462295 -0.06929564
0003a0 9d b8 48 bd 5f 26 11 bd 79 67 a0 3b 43 46 ee bd
       -0.049004186 -0.035436984 0.0048951474 -0.11634495
0003b0 ea 31 aa 3c a7 3d fd bc 2b da 8c bc 6d 79 b0 3d
       0.020775754 -0.030913187 -0.017193874 0.0861691
0003c0 7d 2a 3b bb 1a f5 a7 bc bf 74 31 3e 1f 92 85 3d
       -0.002855926 -0.020502616 0.17329691 0.06522011
0003d0 e9 9c 85 bd de 0f 3e 3e 88 16 3c 3d 2b 11 bc ba
       -0.06524069 0.1856074 0.045919925 -0.0014348378
0003e0 c6 01 c0 bc 38 49 91 3d 64 ce c2 3b f5 13 cb 3b
       -0.023438346 0.070940435 0.005945014 0.0061974474
0003f0 64 17 17 3d c4 b0 e5 3c 53 e7 0d 3d 3d 9d 35 bd
       0.03688754 0.02803839 0.034644436 -0.044339407

conv_stem.1.weight f4 [64]
000000 8c 66 83 3f 0a 49 8f 3f 70 16 68 3f 18 cf 54 3f
       1.026567 1.1194165 0.90659237 0.831285
000010 d5 85 8f 3f 5d c1 7b 3f fc 53 70 3f cb 52 81 3f
       1.1212717 0.98341924 0.9387815 1.0103391
000020 f2 5e 83 3f 9b 06 6b 3f b1 6f 87 3f b4 cf 75 3f
       1.026335 0.91806954 1.058096 0.96020055
000030 26 c5 7e 3f 34 d9 7f 3f fa 8d 8a 3f ee 71 7b 3f
       0.99519575 0.999408 1.0824578 0.9822072
000040 68 b6 7f 3f 8a f7 70 3f 8c 40 81 3f a1 27 78 3f
       0.99887705 0.94127715 1.0097823 0.9693547
000050 19 82 7d 3f b4 41 6b 3f aa 30 8b 3f a6 33 92 3f
       0.9902664 0.9189713 1.0874226 1.1422012
000060 2e 7e 7e 3f 4f 18 71 3f 65 7e 7f 3f be ca 7d 3f
       0.99411285 0.94177717 0.9980224 0.99137485
000070 ce 3c 68 3f 1b 41 78 3f c0 61 8d 3f a8 a7 80 3f
       0.9071778 0.96974343 1.1045456 1.0051165
000080 d3 cb 63 3f 57 76 7c 3f a3 4b 95 3f 4f 1c 82 3f
       0.88982886 0.9861807 1.1663707 1.0164889
000090 c3 80 80 3f 3f 8f 7c 3f b4 9b 91 3f 4d 1b 82 3f
       1.0039295 0.98656076 1.1375642 1.0164582
0000a0 a8 76 89 3f 6d 12 83 3f ee b7 6f 3f 21 06 91 3f
       1.0739336 1.0239998 0.9364003 1.1329995
0000b0 a5 e1 60 3f ae 05 7e 3f 3c b0 88 3f e4 27 6a 3f
       0.87844306 0.99227417 1.0678782 0.9146712
0000c0 6b 89 7b 3f 8a bd 63 3f 0f 30 79 3f 85 e5 58 3f
       0.9825656 0.8896109 0.97338957 0.8472522
0000d0 d0 69 85 3f 1a b6 84 3f 33 da 90 3f b7 54 81 3f
       1.0422916 1.0368073 1.1316589 1.0103978
0000e0 99 9c 8e 3f a0 d9 8d 3f d5 74 69 3f 78 16 6e 3f
       1.114154 1.1082039 0.91193897 0.93003035
0000f0 e7 86 7e 3f 3b 97 8a 3f f1 0d 8d 3f e8 c6 68 3f
       0.99424595 1.0827402 1.101988 0.90928507

conv_stem.1.bias f4 [64]
000000 ef 44 aa bc d2 f9 fc bd b8 a7 73 bb eb 7e 38 3d
       -0.020784823 -0.12352337 -0.0037178826 0.045042913
000010 c7 33 46 bc 80 16 34 3d dc c4 70 3c b9 80 b8 bd
       -0.012097306 0.04396677 0.014695372 -0.09008927
000020 cb 8d cc bd 26 d7 2e 3c cb f5 ef bd 64 51 3d bc
       -0.09987982 0.010671413 -0.11716803 -0.01155505
000030 28 2c cb bd b2 c2 3b be e3 57 1b be ac b1 3e bc
       -0.099205315 -0.18335989 -0.15170245 -0.01163904
000040 63 3b eb bb 7a ec 09 be 66 c5 94 be e0 a6 7b bd
       -0.0071787103 -0.13469115 -0.29056853 -0.06143844
000050 06 de 57 bd af cb 1a be 04 6e 2b bd f2 c3 c9 bc
       -0.052701972 -0.15116762 -0.041852966 -0.024629567
000060 ad ec 8b bd cd 77 c9 bd 16 1a f8 bd 89 8d 70 bc
       -0.06832252 -0.09837303 -0.121143505 -0.014682182
000070 66 c7 d7 bd a5 55 36 be 0e fc b2 3d ad 58 3f 3c
       -0.10536079 -0.17806108 0.08739482 0.011678857
000080 78 c7 4b bd 71 e7 90 bd d5 f5 03 be bd 78 13 3d
       -0.049750775 -0.07075394 -0.12886746 0.036003817
000090 77 76 91 bd 59 2f 68 bd ae b9 55 3d 9c e2 37 bd
       -0.071026735 -0.05668578 0.05217903 -0.044893846
0000a0 36 ff 17 be 52 9b 9f 3c 2a 05 70 bd 56 59 9a bc
       -0.14843449 0.019483242 -0.058598675 -0.018841427
0000b0 c7 e5 26 be db 07 0b be b5 80 e7 bc 90 e2 ec 3c
       -0.1629859 -0.13577215 -0.028259614 0.028916627
0000c0 51 33 46 be 5b fb 33 be 28 7c 71 bc d6 56 71 3d
       -0.19355513 -0.17576353 -0.014739074 0.058920704
0000d0 76 9e 01 3c 68 58 5d 3d ab ae 12 be 58 23 31 be
       0.007911315 0.05403939 -0.14324443 -0.17298639
0000e0 ed ac 77 3d 4b 2c 0e bb 71 d8 ef 3c a3 34 69 bd
       0.06046765 -0.002169388 0.029278012 -0.056934964
0000f0 a1 c9 96 3d 68 eb 8c bc c5 18 cd bd 25 64 28 bd
       0.073626764 -0.017202094 -0.1001449 -0.04111113

conv_stem.1.running_mean f4 [64]
000000 63 68 7d be 51 b2 ec bd 15 80 56 3e 29 56 b3 be
       -0.24746852 -0.11557449 0.20947297 -0.35026672
000010 9b f5 fe be 24 14 04 3d 30 1e 83 be cc e0 94 be
       -0.49796757 0.03224577 -0.2560897 -0.29077756
000020 df 0c 14 3d 3a 75 ed be 84 36 56 bf e1 94 8e 3c
       0.036145087 -0.463785 -0.83676934 0.017404975
000030 9b 5a 44 3e 86 29 ac be ce 92 8f 3e 83 04 a7 be
       0.19175188 -0.3362543 0.2804169 -0.3262063
000040 0b 01 06 bf 46 2f 64 3e 9a 74 1b bf 69 24 6b 3d
       -0.5234534 0.22283658 -0.60724795 0.05740777
000050 57 de 79 bf 1b 8b 54 3d b6 f7 cb 3d 24 35 2a bf
       -0.9760489 0.051890474 0.099593565 -0.66487336
000060 ae ca 20 bf eb ab ad bc 38 f6 30 bf c9 f9 aa be
       -0.62809265 -0.021200141 -0.691257 -0.33393696
000070 61 56 ac bd 71 12 08 3c 1d 48 24 be 2f 8b 8c bf
       -0.08414913 0.008305178 -0.16043134 -1.0979975
000080 49 91 33 3c d9 f0 7a be 86 c3 70 be a7 74 d9 be
       0.010959932 -0.24505939 -0.23512086 -0.4247181
000090 b4 7c 9d 3e 8d e2 11 bf da ac 89 bf 03 7e 82 bf
       0.30759203 -0.56986314 -1.0755875 -1.0194706
0000a0 c6 e5 42 bf 4b f8 e9 bd 1b 4e ac be 92 f5 93 bf
       -0.76131856 -0.11424311 -0.3365334 -1.1559317
0000b0 95 da 6a 3e 4c 1b 13 bf 11 b8 ab bb c8 d8 68 bd
       0.22934945 -0.57463527 -0.0052404483 -0.056847364
0000c0 28 ff 50 3f d8 4d 22 3f b6 52 fc be d0 e5 37 3e
       0.8163934 0.6340003 -0.49281853 0.1795876
0000d0 a1 c5 a8 be dd 51 89 be fb 4c 4b 3e b7 d6 e8 bd
       -0.3296328 -0.2682027 0.19853584 -0.113690786
0000e0 b2 9b 9d be f1 60 1f bf 3b 6a 20 3e ff 14 22 3f
       -0.3078285 -0.62257296 0.15665524 0.6331329
0000f0 cc 86 c9 be 70 db 5f be d2 0d 3c bf ee 96 f0 3d
       -0.39360654 -0.21861053 -0.7345859 0.117475376

conv_stem.1.running_var f4 [64]
000000 c8 34 99 3e 79 67 7a 3e dd 5a a9 3e 77 f5 8f 3e
       0.2992308 0.24453534 0.33077136 0.28116962
000010 51 0e d0 3e 27 28 59 3e 55 a3 18 3f a0 6e a6 3e
       0.40635923 0.21206723 0.59624225 0.32506275
000020 94 3f e9 3e 0f 6a c5 3e 18 81 a1 3e 13 52 a8 3e
       0.4555632 0.3855748 0.31543803 0.32875118
000030 20 ca 95 3e 97 59 ac 3e 0e 7e 8e 3e 4b 04 76 3e
       0.29255772 0.33662102 0.27830547 0.24025075
000040 e7 23 91 3e 9f cc 94 3e 29 51 3f 3f c5 04 8e 3e
       0.28347704 0.29062364 0.74733216 0.27738014
000050 bf a5 85 3e 0b 4f 94 3e 03 16 8a 3e 9c d0 a6 3e
       0.26103017 0.28966555 0.2696992 0.3258103
000060 19 0d ce 3e 1f f2 a2 3e 98 a2 e5 3e 45 c5 a5 3e
       0.40244368 0.3182535 0.44850612 0.32377067
000070 1f 3b c7 3e 8c 97 69 3e 8c 2b 8f 3e 6d 0e f6 3e
       0.38912293 0.22811717 0.2796291 0.4805788
000080 33 28 df 3e 52 78 94 3e 1b 4a b3 3e 52 2a 90 3e
       0.43585357 0.28998047 0.35017475 0.28157288
000090 aa 03 ba 3e 1f 21 a2 3e c1 fc a7 3e ed ff b0 3e
       0.3633092 0.31665894 0.32810023 0.34570256
0000a0 1a 8d 99 3e 07 97 c2 3e 6a d8 ae 3e 8b e4 f8 3e
       0.29990464 0.3800585 0.34149486 0.48611864
0000b0 80 06 8a 3e 2c e7 97 3e aa 78 88 3e 1e 53 d6 3e
       0.26958084 0.29668558 0.2665456 0.41860288
0000c0 f1 71 ea 3e 56 48 d6 3e b1 61 ac 3e 05 a4 71 3e
       0.45790055 0.41852063 0.33668283 0.23597725
0000d0 fb 63 b6 3e 78 b3 bb 3e e1 f4 db 3e a4 6a 53 3e
       0.35623154 0.3666036 0.42960265 0.20646149
0000e0 f8 21 da 3e ab 1e 73 3e f5 de 9a 3e 31 cc 69 3e
       0.4260404 0.23742168 0.30248228 0.22831799
0000f0 2d f1 be 3e 8e 8b 9c 3e 77 bf b5 3e aa 64 58 3e
       0.37293378 0.30575222 0.3549764 0.2113215

conv_stem.3.weight f4 [64, 64, 3, 3]
000000 3d d3 23 3d 09 f2 c0 bb b1 50 9a 3c fc 79 9c 3d
       0.039996374 -0.005888228 0.018837305 0.07640454
000010 05 39 07 be eb 93 d0 3d 06 14 a2 3c 27 41 1b bd
       -0.13205345 0.10184463 0.019784939 -0.03790393
000020 43 db 5c bd 15 ea 80 3d 61 23 12 3d c4 be fe 3c
       -0.05392004 0.062946476 0.03567827 0.031096824
000030 21 e3 9c 3c 6c 6b 8b 3d f0 67 90 bd 90 f8 99 bd
       0.019151272 0.068075985 -0.070510745 -0.07518113
000040 bf a8 ef 3c e4 3b c5 bc 0c f5 39 bc 73 36 f6 3c
       0.02925527 -0.02407641 -0.011349928 0.03005526
000050 f1 4c 8f bd de 92 53 3d 7f b5 21 bd e6 66 d8 bc
       -0.06997097 0.051653735 -0.03947973 -0.026416253
000060 34 a4 a7 bd 85 49 ea 3d 19 10 4f bd b2 50 29 3d
       -0.08185616 0.11439804 -0.05055246 0.041336723
000070 13 2f 30 bd cd 91 90 3c 6b 52 83 3d 3f 8c a1 bc
       -0.043013643 0.017647648 0.06412204 -0.019720195
000080 c0 6c a8 bb b5 3c 1d 3d eb 80 9d bd 43 ac 5a 3c
       -0.005139917 0.038387973 -0.07690605 0.013346734
000090 c0 ae 2e 3c c2 74 01 3e 43 69 04 3d 6d b6 9d 3d
       0.010661781 0.12642196 0.032326948 0.077008106
0000a0 44 d9 13 3d b1 8b 9e bd 5b 50 cc bc 43 08 94 bd
       0.036095873 -0.07741488 -0.02494066 -0.07228138
0000b0 7f 67 f9 bd cb 0f 2b bd 44 0b 91 bd 11 4a 5e bc
       -0.121779434 -0.04176311 -0.07082227 -0.0135674635
0000c0 83 ff 91 3d 01 87 3d bb c2 89 97 bd 71 96 f7 3c
       0.07128813 -0.002891958 -0.07399322 0.030223103
0000d0 c5 4c 0a bd a7 6c a4 bc 4f 7c 6e 3d 37 23 b1 3b
       -0.03376462 -0.02007134 0.05822402 0.0054058093
0000e0 a1 68 83 bd ed 54 bd bd 86 f7 42 bc f3 94 4b bc
       -0.06416441 -0.09244714 -0.0118998345 -0.012425649
0000f0 17 72 cb 3d 11 84 5e 3d 51 f7 82 3d f6 b6 f7 bd
       0.0993387 0.054325167 0.06394828 -0.12095444
000100 3d e1 5b bd fc 61 b2 bc db 51 51 bd dd 30 13 3e
       -0.0536816 -0.021775238 -0.051103454 0.14374109
000110 bd 71 85 bc 66 88 91 bb 06 96 1c be f9 6d 11 be
       -0.016289586 -0.004441309 -0.15291604 -0.14202107
000120 77 a8 df bc ca d5 25 bd 94 80 e7 bd 41 06 4d bd
       -0.02730201 -0.04048709 -0.11303821 -0.050054792
000130 31 f9 b7 bc 9a e9 94 3b ff 2c c7 bc f5 38 f7 bc
       -0.02245769 0.004544449 -0.024313448 -0.030178526
000140 47 1d 78 3d ad f0 83 bb fd 9d 1e bd 73 3f 7f bd
       0.060574796 -0.0040264935 -0.038724888 -0.06231637
000150 cc 1b 00 3d a8 ed 9e bd 3d c1 b0 bb f6 f0 06 bd
       0.03127651 -0.07760173 -0.0053941295 -0.032944642
000160 24 fa 17 3e 13 52 8c 3d fb 8d 5a 3d 44 3a 88 bd
       0.14841515 0.06851592 0.05335806 -0.06651738
000170 b3 04 ca 39 f1 0c c6 bd 3d 3a 2f 3c 80 06 b5 bd
       0.00038531944 -0.09670437 0.010695037 -0.088391304
000180 bc ee 07 bb 4d e9 88 bc d4 b7 7e bd 71 e2 55 3d
       -0.0020741662 -0.016712809 -0.06218703 0.052217904
000190 d6 52 e4 3c b6 09 9c bc cd 76 65 3c c4 d6 4a bd
       0.02787153 -0.0190476 0.014005375 -0.049521223
0001a0 39 34 92 bd f7 d4 3f bd d5 41 19 bc 6d 89 12 bd
       -0.07138867 -0.04683396 -0.0093540745 -0.03577559
0001b0 03 49 11 3e 41 08 77 bd 4e 1e 8c bd 51 dd f4 3d
       0.14188008 -0.060310606 -0.06841718 0.11956275
0001c0 1d 7d bc 3b f6 5f c9 3d b2 d9 00 bd 4e 47 e0 3d
       0.0057522194 0.09832756 -0.03145761 0.109511
0001d0 66 ac ec bd e9 d8 8e bc 62 c4 74 3c ee ea 8d 3c
       -0.1155632 -0.017437415 0.014939399 0.017323937
0001e0 14 bd 77 3d 90 aa 81 3c 3a 88 41 3d ec 0c 4f bd
       0.060483053 0.0158284 0.047249056 -0.050549433
0001f0 6c c1 ab bd fa 7c e1 bc 27 ad 64 3c 08 0b 3f bd
       -0.08386502 -0.027525414 0.013957298 -0.04664138
000200 1e 6f 3f 3d 7b af 92 bc 79 ad 74 bd 49 23 02 3e
       0.04673683 -0.017905941 -0.05973575 0.12708773
000210 c6 0a 09 be a6 9c 0c 3e d4 86 5a bd 1c 0c e9 3c
       -0.13383016 0.13731632 -0.05335124 0.028448157
000220 a6 e9 d4 3d 83 2c 70 bd 78 c4 08 3d 52 70 9f bd
       0.103961274 -0.0586362 0.033390492 -0.07785095
000230 42 f3 88 bd cc 1e 58 3d 4f c2 13 bc a3 89 65 3d
       -0.06687023 0.052763745 -0.009018495 0.056039464
000240 2f db 20 3c 7c ce 22 bd ab ee 1c 3e c6 16 22 3d
       0.009817882 -0.0397477 0.1532542 0.0395725
000250 b5 b2 9f bd ea 1b 0e 3e 12 f7 87 bc dc 81 f2 b9
       -0.077977575 0.13877836 -0.016597304 -0.0004625459
000260 e8 27 3b bd 50 e2 0d bd 37 79 8e bd 26 3c a0 bd
       -0.045692354 -0.034639657 -0.06956714 -0.078239724
000270 20 36 86 bd 1f 69 86 bd 60 2c 9a 3d 08 6b 37 3d
       -0.06553292 -0.06563019 0.07527995 0.044779807
000280 d1 29 27 3e a1 ce 72 3d ce b0 b8 3d 8e 1f b0 bc
       0.16324545 0.059279088 0.09018098 -0.021499421
000290 3d b9 30 be a3 58 bb bc 7c 87 ca bd b3 b6 85 3c
       -0.17258163 -0.022869414 -0.09889123 0.01632247
0002a0 54 2b 34 3e 03 31 96 3d 62 75 cd 3c 85 31 be 3c
       0.17594653 0.07333567 0.025080387 0.023216972
0002b0 53 cf 5f bd 44 9d 83 bb ac d2 2e 3d 28 d3 f8 bc
       -0.05464108 -0.0040165503 0.04268138 -0.030374125
0002c0 46 31 7f 3d af fc ea 3c 4c eb 4d 3d 2a 91 23 3c
       0.06230285 0.028684942 0.050273225 0.00998334
0002d0 37 0b 61 3c 9e 03 4d bd 1f 64 80 bc 67 0d f7 3c
       0.013735584 -0.050052278 -0.015672741 0.030157758
0002e0 46 08 d1 bd 08 7c 4d be 6b a0 77 3c 8d d9 77 3b
       -0.10206656 -0.20066845 0.01511393 0.003781888
0002f0 b0 c7 5c bd 36 9d b2 3d 01 4f 86 bd 57 d6 a9 3d
       -0.053901374 0.08721392 -0.065580375 0.08292835
000300 01 f9 a0 3b d0 44 0d 3d c8 24 0e bd 99 ae ec bb
       0.004912496 0.034489453 -0.034703046 -0.007222962
000310 18 d6 c0 bd 1e d1 c2 3d 1c 3f 41 3e 1b 12 01 3d
       -0.09415835 0.09512542 0.1887173 0.031511407
000320 3a 86 4b bb c7 89 f5 3c 22 67 09 bc 0d b2 c0 3d
       -0.0031055347 0.029972924 -0.008386405 0.094089605
000330 a1 b6 ef 3d f2 4b 17 ba ea be d0 3d 29 71 c9 3d
       0.117047556 -0.00057715096 0.10192664 0.09836037
000340 97 66 18 bd d6 d6 80 bd 2a e6 18 bd 65 9c 84 3d
       -0.037207212 -0.06290977 -0.037328877 0.064751424
000350 94 ae 81 3d 68 cf a9 3d b7 25 2b bd f6 b8 ae bd
       0.06332126 0.08291513 -0.041784015 -0.08531372
000360 58 ea 99 3d 8c 2e 9a 3d db 69 11 3e 31 22 c1 bd
       0.07515401 0.07528409 0.14200537 -0.094303496
000370 87 f3 8a bd 61 9c e1 3b 15 98 1c 3d e1 38 ae 3c
       -0.067847304 0.006885097 0.038230974 0.021267356
000380 b7 fc db 3d 51 bf d7 bc c0 b8 45 3d 66 b3 ba b9
       0.10741561 -0.026336344 0.048271894 -0.00035610347
000390 27 47 b3 3b 04 0f 42 3c 66 51 82 3c 58 4d 4b 3d
       0.0054711285 0.0118444 0.015907954 0.049634308
0003a0 71 3e ca 3b ed 0a b1 bc 14 02 6b bd 91 ea de bd
       0.0061719944 -0.021611655 -0.05737503 -0.10884584
0003b0 99 3e dd 3d 63 79 93 bc 68 df 09 bd 32 b1 a8 3d
       0.10802955 -0.018002218 -0.033660322 0.08236922
0003c0 2c 34 5d 3d cf 09 d9 39 f4 88 01 3e ec 90 40 bd
       0.054004833 0.00041396773 0.126499 -0.04701321
0003d0 29 b0 04 be 4d 2e 85 bd 86 92 9d bd d4 2b 9c 3d
       -0.12957825 -0.06502972 -0.07693963 0.07625547
0003e0 9f 4b 25 3c e0 76 66 ba 22 7e cd bc 6d 40 5f 3c
       0.01008883 -0.00087915175 -0.025084559 0.0136262
0003f0 73 0d 9b bd c7 bb 84 bd 56 95 4f bd 37 3e c1 3d
       -0.075709246 -0.06481128 -0.050679527 0.09435695

conv_stem.4.weight f4 [64]
000000 6b 88 73 3f 3a 23 79 3f a7 b9 79 3f a8 e8 7b 3f
       0.9513003 0.97319376 0.9754891 0.9840188
000010 e0 a3 7b 3f 1f c0 78 3f 9d 44 78 3f 6e 70 75 3f
       0.9829693 0.97168154 0.96979696 0.9587468
000020 23 f7 7f 3f 07 0e 7d 3f f3 58 7e 3f 79 c0 78 3f
       0.99986476 0.9884953 0.99354476 0.9716869
000030 72 78 7c 3f 26 72 81 3f 03 d9 7b 3f bd 73 77 3f
       0.98621285 1.011296 0.9837801 0.9666098
000040 58 13 7b 3f a3 ae 81 3f 23 a3 7d 3f 37 84 81 3f
       0.9807639 1.013142 0.9907705 1.0118474
000050 97 cb 81 3f 3a 80 7b 3f 12 f4 7b 3f 43 56 6e 3f
       1.0140256 0.98242533 0.98419297 0.93100375
000060 db 11 7a 3f d0 eb 74 3f 9b a2 7c 3f c0 89 81 3f
       0.97683495 0.9567232 0.98685616 1.0120163
000070 86 d7 76 3f ff 0b 7f 3f 9e 0e 7f 3f 2b 39 76 3f
       0.9642261 0.9962768 0.9963168 0.9618098
000080 3b 39 7e 3f 0e 52 7c 3f 7d 47 78 3f 44 9f 79 3f
       0.99306077 0.98562706 0.9698408 0.97508645
000090 f1 69 7f 3f 90 18 80 3f 0b 14 82 3f 59 20 7c 3f
       0.9977103 1.0007496 1.0162367 0.9848686
0000a0 fe 84 7c 3f ac 7f 7f 3f 8a d7 73 3f 10 26 80 3f
       0.9864043 0.99804187 0.9525076 1.0011616
0000b0 c7 a8 7e 3f b8 5b 7e 3f 8b 09 7b 3f a0 4a 7a 3f
       0.99476284 0.993587 0.98061436 0.9777012
0000c0 b9 58 81 3f 16 27 77 3f 01 b5 74 3f 36 46 7a 3f
       1.0105201 0.96544015 0.9558869 0.97763383
0000d0 3d c4 80 3f 91 97 7d 3f 9d a1 5f 3f a1 53 7a 3f
       1.0059887 0.99059397 0.8735598 0.9778386
0000e0 c5 7f 7d 3f 58 89 7a 3f be 6e 7a 3f c5 69 7c 3f
       0.99023086 0.9786582 0.9782523 0.9859889
0000f0 d9 7f 7c 3f ca df 7c 3f 1a de 77 3f a6 b0 7d 3f
       0.9863258 0.98778975 0.96823275 0.9909767

conv_stem.4.bias f4 [64]
000000 48 76 72 bd 0f ae b2 bd b0 53 ee bb 05 67 8f bd
       -0.059194833 -0.08724605 -0.00727316 -0.07002071
000010 b2 65 d9 bd 74 8f 97 bd d6 02 f2 bd e3 ae f8 bd
       -0.106151 -0.074004084 -0.11816947 -0.12142732
000020 0c a0 93 bd f4 96 c1 bd c0 ae 44 bd 5b 06 9b bd
       -0.07208261 -0.0945262 -0.048018217 -0.075695716
000030 55 18 d0 bd 27 ba ce bd e5 a4 48 bd 45 47 cc bd
       -0.10160891 -0.100940995 -0.04898538 -0.09974531
000040 a0 06 82 bd ec 1b 77 bd ac 01 8d bd eb 88 35 bc
       -0.0634892 -0.060329363 -0.068850845 -0.011080007
000050 3c 04 05 bd 36 38 98 bd 45 fc 99 bd 34 09 86 bd
       -0.03247474 -0.074325964 -0.0751882 -0.06544724
000060 0f fb 7c bd c7 fd f3 bd ef 51 9a bd 01 13 0a bd
       -0.061762866 -0.119136386 -0.07535159 -0.03370953
000070 53 b4 e9 bd 60 d6 2e bd 7f 69 6c bd 81 ac b0 bd
       -0.11411347 -0.042684913 -0.057717796 -0.086266525
000080 9b 71 cd bd 60 bc 85 bd 5e 78 96 bd 20 3b 75 bd
       -0.10031434 -0.0653007 -0.07347177 -0.05987084
000090 7e bd 85 bc 95 0b 93 bd 37 aa 60 bd cd 1b 9e bd
       -0.016325708 -0.071799435 -0.05484983 -0.07720146
0000a0 6f 4c a5 bd 83 9e 92 bd eb 50 ca bd 0f ef d9 bd
       -0.08071219 -0.0715914 -0.09878715 -0.106413
0000b0 b0 8d a1 bd 72 ef a7 bd 1b 73 43 bd 09 88 a9 bd
       -0.07888353 -0.081999674 -0.047717195 -0.082779
0000c0 a3 1e a1 bd 2e 97 ca bd 89 b2 aa bd bd 5c 1b bd
       -0.078671716 -0.098921165 -0.08334834 -0.03793024
0000d0 ab bb 6d bd d6 7b ba bd e6 1b 52 be 25 a2 5d bd
       -0.058040302 -0.09105651 -0.20518455 -0.05410971
0000e0 ea 36 a7 bd be 02 49 bd 72 33 8e bd 99 56 96 bd
       -0.08164771 -0.04907488 -0.06943406 -0.07340736
0000f0 d4 71 83 bd fc be 89 bd 01 f5 56 bd b6 c2 66 bd
       -0.06418195 -0.067258805 -0.052479748 -0.056338035

conv_stem.4.running_mean f4 [64]
000000 cc 06 37 3e ec 8e 83 3f ed ae 0c 3f 69 80 01 3f
       0.17873687 1.0277991 0.54954416 0.50586563
000010 56 a0 a3 3f 24 c2 b7 3e d1 75 b3 3e c9 e7 c8 3e
       1.2783306 0.35890305 0.35050824 0.39239338
000020 81 ec b8 3f 5b eb eb be cc 2a 7c bf a3 ca 8d bf
       1.4447175 -0.46078 -0.985028 -1.1077465
000030 01 d4 97 bf ed c4 a8 3e 3c 3c fc 3e f8 d0 b2 bd
       -1.1861573 0.32962742 0.49264705 -0.08731264
000040 e5 49 98 bd a5 d6 3a be f5 e4 fe 3e 4d 1c 3d bd
       -0.07435969 -0.18245943 0.49784055 -0.046169568
000050 0c 43 78 bf 57 39 5f 3d 16 25 23 3f ab 65 d8 bc
       -0.96977305 0.054498043 0.63728464 -0.026415667
000060 a6 9b 40 bf b8 2b e2 3f cc 80 f4 be 8b 64 22 3f
       -0.752375 1.7669592 -0.47754514 0.63434666
000070 dc 0d c7 3e 3d 56 c7 3e 4a bc bf 3e 85 c8 e3 3f
       0.3887776 0.38932982 0.3744834 1.7795569
000080 f4 f3 79 be 5d 56 b6 bf ca 41 86 bf c9 3b 8b 3f
       -0.24409467 -1.4245106 -1.0488827 1.087762
000090 dc cd bf 3d 58 dc 9a be 9f 68 1f 3f 80 bf c9 be
       0.093654364 -0.30246234 0.62269014 -0.39403915
0000a0 c5 b8 0e 3d e2 61 2f bd 00 1a 8a 3f 31 1c 30 bf
       0.03484418 -0.042817958 1.0789185 -0.68793017
0000b0 33 64 ab be b7 97 46 3f 28 54 9a ba 04 99 b6 be
       -0.33474883 0.7757525 -0.0011774348 -0.35663617
0000c0 7b c1 d3 3f 18 70 1d 3e 86 23 fe be 81 1b 1e 3f
       1.654342 0.15374792 -0.49636477 0.6176072
0000d0 8b c7 a4 be 6d 88 4d be 1d 64 f4 bd 49 ba 2c 3f
       -0.3218349 -0.20071574 -0.119331576 0.6747175
0000e0 9e a6 ba bd ae cd 8f bd d4 c9 af 3f 81 72 ef bf
       -0.09113811 -0.07021652 1.3733468 -1.8706819
0000f0 0b 33 9e be 77 86 93 3e 45 00 b5 be 6f c8 3d 3f
       -0.30898318 0.28813526 -0.35351768 0.7413396

conv_stem.4.running_var f4 [64]
000000 4f 61 81 3f 83 e0 a5 3f 7e 57 c0 3f dd 55 94 3f
       1.0107821 1.295914 1.50267 1.1588703
000010 ff de 9a 3f 16 c8 9c 3f 3f b9 90 3f 06 f6 60 3f
       1.2099303 1.2248561 1.1306533 0.878754
000020 6b d3 a9 3f 83 48 9f 3f 47 c2 66 3f 62 97 a1 3f
       1.3267645 1.2444004 0.90140194 1.2624323
000030 d5 2d 8e 3f 75 a0 7f 3f de 9c a7 3f 90 ea 8f 3f
       1.1107737 0.99854213 1.3094747 1.1243458
000040 13 fd 86 3f db 03 9d 3f f3 cd a1 3f eb 95 67 3f
       1.0545982 1.2266802 1.2640976 0.9046313
000050 19 14 cd 3f 72 9d 43 3f c6 88 c1 3f b4 cf 80 3f
       1.6021758 0.7641212 1.5119865 1.0063386
000060 2c c6 92 3f b2 bb 9a 3f 8c 12 77 3f 41 7c 8d 3f
       1.1466727 1.208853 0.96512675 1.1053544
000070 b1 aa 80 3f 30 3a 8c 3f e2 20 70 3f e7 fe 97 3f
       1.0052091 1.0955257 0.93800175 1.1874665
000080 63 34 7a 3f f8 49 d1 3f f6 95 6a 3f 9c f3 6c 3f
       0.97736186 1.6350698 0.9163507 0.9255922
000090 c3 a3 8d 3f 6b 37 95 3f e5 b7 6f 3f 1b 08 9f 3f
       1.1065601 1.1657537 0.93639976 1.2424349
0000a0 4a 4b 51 3f 1c 3a 89 3f 7e 1b 78 3f 0a 25 af 3f
       0.81755507 1.0720859 0.9691695 1.3683178
0000b0 ac 91 5f 3f d4 a2 78 3f 73 e6 84 3f e2 0f 6d 3f
       0.8733165 0.97123456 1.0382828 0.9260236
0000c0 81 d1 af 3f 52 90 83 3f 63 21 86 3f 40 43 94 3f
       1.373581 1.0278418 1.0478939 1.1583023
0000d0 62 9a ca 3f 03 19 96 3f ee ce 47 3f af 12 58 3f
       1.5828364 1.1726383 0.78050125 0.8440351
0000e0 ba 6c 5a 3f e1 d0 62 3f bc 1b 75 3f aa 18 8c 3f
       0.85322154 0.88599974 0.95745444 1.0945027
0000f0 b2 ae 75 3f 41 30 94 3f da bc 83 3f 2e e5 c7 3f
       0.9596969 1.1577226 1.0292008 1.5616815

proj.weight f4 [64, 64, 1, 1]
000000 1c 3e 27 bd 92 e0 c4 3d d0 ea 41 3e 1a b4 b6 bd
       -0.040830716 0.09613146 0.1893723 -0.089210704
000010 d6 91 5f 3c 85 90 e5 bd 28 28 6c 3d 8a 1d 0b bd
       0.01364561 -0.112092055 0.057655483 -0.033963718
000020 fa 77 20 3e e5 22 1d bd 57 98 f7 ba 4f cf 1c be
       0.15670767 -0.038363356 -0.0018890005 -0.15313457
000030 70 cc 86 3d b4 8a 3e 3c 8b 25 ed 3b fd 4b 92 bd
       0.06581962 0.011629749 0.0072371415 -0.071434
000040 05 ec ab 3d b3 21 1b 3e 30 01 b5 3d e4 95 18 3c
       0.083946265 0.15149574 0.08838117 0.00931308
000050 93 6f 59 3d a5 87 9a 3c 80 80 2a be 80 b2 da 3d
       0.05308492 0.018863508 -0.16650581 0.106785774
000060 ed 47 2a 3d ed 57 0b 3e fd 65 ff bc 60 96 fe bd
       0.0415725 0.1360776 -0.031176561 -0.124310255
000070 20 4b a0 3d 7f 14 66 3d 53 fa 7b bd b9 6a 10 3c
       0.07826829 0.05617189 -0.061518025 0.008814507
000080 fa f4 af 3d 3a 94 3c bc b2 24 22 bd 01 fc d6 3c
       0.085916474 -0.011509949 -0.039585777 0.026243212
000090 dd c5 89 bd b3 af 2b 3d 80 2f 16 be d0 09 d6 3c
       -0.067271926 0.041915607 -0.14666557 0.026127726
0000a0 b5 6f 93 bd 0b 01 5b bd 79 19 09 be 9a 80 b7 3d
       -0.07199041 -0.05346779 -0.13388623 0.08960076
0000b0 51 19 d7 bd f0 65 8c bd b8 71 4a 3d d8 c6 1d bd
       -0.105028756 -0.068553805 0.049424857 -0.03851971
0000c0 6f c1 41 3e 6e 1a bb 3d b0 cf 68 3c 82 4c 3f bd
       0.18921445 0.091359004 0.014209673 -0.046703823
0000d0 f1 a5 26 3d 27 a0 e4 ba 74 f5 20 3c 69 01 07 bc
       0.040685598 -0.0017442749 0.009824146 -0.008240082
0000e0 d1 95 2d bd 5e 22 84 ba 8f b8 1a bd de 38 17 3e
       -0.042379204 -0.0010081043 -0.037773665 0.14767787
0000f0 c6 5b 03 be 19 85 26 3d ae d3 d5 3d 63 ac b7 3d
       -0.12827978 0.040654276 0.10440765 0.08968427
000100 ea e0 12 3e a8 0d 0a bd aa 51 27 3d 74 e4 a1 bd
       0.1434361 -0.03370443 0.040849365 -0.07904902
000110 75 77 19 be 45 ff d0 3d d4 29 1c 3e 91 3c 8b 3d
       -0.14986975 0.10204939 0.15250331 0.067986615
000120 c9 3e 47 3d 32 69 f0 bc 01 53 c6 3d e1 c2 25 3d
       0.04864386 -0.029347036 0.096838005 0.040469054
000130 82 40 1e bd 59 51 21 be 44 00 96 bd b3 11 99 3d
       -0.03863574 -0.15753688 -0.073242694 0.07474079
000140 5d 5e cf 3b 2a cf 72 3d 13 e8 d7 3d d9 47 7e 3b
       0.0063283877 0.0592796 0.105423115 0.0038800149
000150 61 13 78 3d 6c 42 91 bb ee e1 e1 3d 40 30 24 3e
       0.060565356 -0.004432967 0.11029421 0.16034031
000160 9f e0 0b 3e f2 af ab bd 08 38 dd 3b 2d a7 0b bd
       0.13659905 -0.08383168 0.006751064 -0.034094978
000170 25 c2 55 3d fe 89 63 bd 7b 33 29 be 73 56 b5 3c
       0.052187104 -0.05555152 -0.16523544 0.022135949
000180 65 e0 3f bb 25 fe 39 bd fe 28 af 3d b8 9f a7 bc
       -0.0029278037 -0.045408387 0.085527405 -0.020461902
000190 e3 de 04 be c6 fa 6a 3d 6c cf d4 3b bb 8d c8 3b
       -0.1297565 0.057368062 0.006494453 0.006120411
0001a0 c2 bf 08 3d 5f e1 80 3d 20 1c 5c 3c 10 07 d2 3b
       0.033386 0.06292986 0.01343444 0.0064095333
0001b0 41 c8 21 be 51 08 e3 3d 8f 40 4b bc 0c 88 76 bd
       -0.15799047 0.110855706 -0.012405529 -0.06018834
0001c0 26 a8 5b bd 9e 67 38 be 7f 06 a1 bc 84 d9 0d 3e
       -0.053627156 -0.18008277 -0.019656418 0.13852507
0001d0 3a 91 b4 3d a9 55 87 bd 3e e7 15 bc 85 3c c2 3d
       0.08816762 -0.06608135 -0.009149371 0.094841994
0001e0 4f 45 d8 bd a4 b3 56 3c d4 2a c9 bc e0 36 09 3d
       -0.105600946 0.013104353 -0.024556555 0.0334996
0001f0 1c 0a 6f 3d 6d 15 49 3c ba e1 93 3d 9b 8e f6 bd
       0.05835925 0.012273175 0.07220788 -0.120389186
000200 68 c7 58 bd cb 94 40 bd e2 ed 98 3d 90 89 bc 3d
       -0.052924544 -0.0470169 0.074672475 0.092059255
000210 19 94 ff bd 27 24 9f 3d df 69 8b 3c 93 39 18 bd
       -0.12479419 0.077705674 0.017018257 -0.037164282
000220 8e 26 f4 ba c9 12 7a bc 02 11 2f 3d f3 e4 1b bd
       -0.0018627213 -0.015263268 0.04274083 -0.03806014
000230 30 05 90 3c a4 56 c9 3d b3 7d 0a bd d5 98 00 3e
       0.017580599 0.098309785 -0.033811282 0.12558301
000240 a1 55 27 be 35 90 1d be e8 af 34 be f2 25 01 3d
       -0.16341259 -0.15387042 -0.17645228 0.031530328
000250 4d 32 37 bc 7c f3 c0 3d f6 45 d2 3c e7 34 0a 3d
       -0.011181426 0.09421441 0.025668126 0.033741858
000260 f8 b9 39 3e bc f2 e6 3d f7 1d df bd bb 89 25 3c
       0.18137348 0.11276767 -0.10894387 0.010103638
000270 72 e6 08 3e 8b 4a e8 bd d9 45 8a 3d 3a 14 10 3e
       0.13369158 -0.11342343 0.06751604 0.14070216
000280 b1 5c cb 3d cd 49 eb 3d 2b 7a 9a bd 99 ca 48 bd
       0.09929789 0.11488686 -0.07542833 -0.049021337
000290 b2 cb 14 3e 25 a0 e9 bd f8 c0 08 3e 4e 9e 97 3b
       0.14530829 -0.11407498 0.13354862 0.0046270257
0002a0 df 31 bd 3d d5 f0 4d bd c9 4a 61 3d 5a 23 fa bd
       0.09238028 -0.050278503 0.05500296 -0.12213774
0002b0 41 6d a4 bd d6 4b 9a bd d8 03 09 be fa 76 a5 3d
       -0.08028651 -0.07533996 -0.13380373 0.080793336
0002c0 d4 15 08 bd 75 b8 a9 3c fa 41 11 bc 09 cc 9c 3d
       -0.033223942 0.020717839 -0.008865828 0.07656104
0002d0 d7 93 b4 bd eb 45 a1 3c d9 45 06 3c 8d d6 9a 3d
       -0.08817261 0.01968666 0.008195364 0.075604536
0002e0 28 9a b4 bd 6f fd d7 bc 13 07 2f bd 54 de 01 be
       -0.088184655 -0.026365964 -0.042731356 -0.12682468
0002f0 b6 24 02 3c 38 50 44 3c 26 cf 15 3d 9b 00 8f 3d
       0.007943323 0.011982016 0.036574505 0.06982537
000300 83 f1 a4 bd da 19 af 3d c5 84 77 3b 32 bc 97 3d
       -0.08053877 0.08549853 0.0037768346 0.07408942
000310 54 a0 03 3d 70 0d c6 3d 64 3a 5f bc b5 23 ac 3d
       0.032135323 0.09670532 -0.013624761 0.08405248
000320 d1 2f 75 3d ff 36 58 bd b4 37 8c 3d b1 f0 fb bd
       0.059860054 -0.052786823 0.06846562 -0.123017676
000330 0a 94 0b bd 7d 42 4a bd 2e 21 14 3e 45 e2 9c bd
       -0.034076728 -0.049379814 0.14465782 -0.07660345
000340 47 d5 b7 3d 16 41 c9 3d b3 1f 5b bd 26 cc 5a 3d
       0.08976226 0.09826867 -0.053497028 0.053417347
000350 c0 46 51 3d 7b 4c 63 3d 04 5d 88 bc 37 90 6f bc
       0.051092863 0.05549286 -0.016645916 -0.014621786
000360 06 aa 1b 3e 0f 91 02 3d 60 fb e7 3c e3 0b b5 bd
       0.15201578 0.03187662 0.028318107 -0.08840158
000370 c5 c9 d0 bd 48 ba 05 bd 75 ef e4 bd c9 ab c8 bd
       -0.101947345 -0.032648355 -0.11178485 -0.097983904
000380 14 ba c8 bd c1 ae b0 3d d6 03 9c 3d be 78 7d 3d
       -0.098011166 0.08627082 0.07617919 0.061882727
000390 4f 4c e8 3d 24 92 b6 3d f4 d4 f1 3b c7 43 6d bd
       0.1134268 0.08914593 0.0073801223 -0.057925966
0003a0 22 3c 74 3d e6 e1 2e 3e dc 75 86 bd 36 4f 0e be
       0.05962766 0.17078361 -0.06565449 -0.13897404
0003b0 b0 f7 72 3d da 3d 05 be f1 c5 f1 bd dd 62 27 3d
       0.059318244 -0.13011876 -0.118053325 0.040865768
0003c0 d9 4c a7 bd 8c 2d 10 be 89 36 f2 3c 7d d4 10 be
       -0.081689544 -0.14079875 0.02956702 -0.14143558
0003d0 83 23 02 be 09 4b 37 3c 53 ae f3 bd e0 49 fb 3d
       -0.12708859 0.011187323 -0.11898484 0.1226995
0003e0 ad 20 1c bd d8 66 dd bd 05 06 15 3e 05 a3 7b bc
       -0.0381171 -0.108106315 0.14553078 -0.015358691
0003f0 f4 6a 0b 3e 4f 13 8c bd bd 36 be 3d 68 15 92 bd
       0.13615018 -0.0683962 0.09287784 -0.07132989

proj.bias f4 [64]
000000 0b 88 e8 bd 28 4a b0 bd 18 ec c8 bd ee 30 73 bd
       -0.11354073 -0.08607894 -0.09810656 -0.059372835
000010 85 62 ac 3d 71 83 00 3c aa 3f c1 3c 16 df 88 3d
       0.084172286 0.007843838 0.023589928 0.06683175
000020 45 1b b9 3c 16 cc 94 bd e9 f4 26 3d 23 39 43 bd
       0.022596011 -0.07265489 0.04076091 -0.04766191
000030 15 b5 8e 3b 0c 0d 5e 3d 42 1c e2 bc ff 1f 80 bd
       0.0043550828 0.05421166 -0.027601365 -0.06256103
000040 d8 80 9e 3d 11 dc 8a bd 2f 96 c0 bd 70 f0 f9 bc
       0.07739419 -0.067802556 -0.09403645 -0.030510157
000050 0c ed a0 bd ff 51 66 bc 64 ed d8 3c b4 3f 66 bd
       -0.07857713 -0.014057635 0.026480384 -0.056213096
000060 52 84 25 3e 8f 0b 9d bb 20 d7 37 3d c5 aa 5b 3d
       0.16163757 -0.0047926377 0.044882894 0.053629655
000070 ab 18 ad 3d fd a0 24 3d 27 0f b7 3c e6 af 56 3d
       0.08451971 0.040192593 0.022346092 0.052413844
000080 b7 05 f8 3d 33 98 6b 3d a1 f3 00 be 13 62 a1 bd
       0.12110465 0.057518195 -0.12592937 -0.07880034
000090 87 64 ad 3d e8 fc 27 3e 0e 15 c9 bd bd 69 b4 bd
       0.0846644 0.1640507 -0.09818469 -0.088092305
0000a0 43 a5 ce 3d 9f 20 79 3d 77 da 88 3c b3 81 92 bd
       0.10090115 0.060822126 0.016705735 -0.071536444
0000b0 9f 77 9d bd 24 d8 17 bc eb 93 0e bd 83 de 8f bd
       -0.076888315 -0.009267841 -0.034809034 -0.070248626
0000c0 cf 61 85 bd 02 6a a5 3d 20 c9 92 bb a2 5b 16 bd
       -0.06512796 0.0807686 -0.0044795424 -0.03670848
0000d0 bd 37 dc bd ba 8f ec 3d 97 aa 7b 3d b9 00 68 3d
       -0.10752819 0.11550851 0.061441984 0.056641314
0000e0 3e 6c ef 3d cb 01 14 3d ad 53 8e bd 91 0e 57 3d
       0.116905674 0.036134522 -0.06949554 0.052504126
0000f0 99 f1 36 bd e3 f2 b7 bd 5c f4 98 bc b0 cf 73 bd
       -0.044664 -0.08981874 -0.018671207 -0.059524238
