models/rym_grid_c1_s64_e2_t4_r4/conv_transformer_c1_g2_a0_l0_lr1e-05.pt (torch, 954983 bytes, 52 tensors)

pos_embed f4 [1, 64, 64]
0.018999472 0.0062322603 0.003223504 -0.030824395 -0.0109532485 -0.012367744 -0.003063033 0.033459812
-0.0294333 0.034622043 -0.012041585 0.030403508 0.07078685 -0.00032658083 -0.0070013236 0.012620941
-0.0073853843 0.013449319 -0.0034695375 0.012110485 0.0141094215 0.063985236 -0.007106855 -0.018157354
0.01445024 0.0072364523 -0.03558894 -0.034407273 -0.01589557 0.038499773 0.0074488856 0.02665909
-0.024595024 0.004811778 -0.026777875 0.023635823 -0.021136796 -0.041327484 -0.014916043 0.027330058
-0.0062435614 -0.018444328 0.013097559 0.02099325 -0.020694766 0.019165054 -0.010038688 -0.050054744
-0.0043948493 -0.025311206 -0.025837593 -0.034627765 0.03957745 -0.0041805734 -0.026168546 -0.058639385
0.02671339 -0.043176387 0.083346136 0.052098993 0.0038672131 -0.003454319 -0.0039218483 0.058556315
-0.005698724 0.002879223 -0.011814257 0.003995155 -0.02310458 0.009310257 -0.015575734 -0.004886121
-0.009027719 0.018141061 0.02006428 0.04250391 -0.039089266 -0.0034163003 -0.019825999 -0.01298671
-0.008945861 -0.015501141 0.014436924 -0.013212705 0.012823244 -0.0073997285 0.013846273 0.013113773
-0.048909564 0.01128783 0.014567921 0.019363778 0.00016033003 -0.007602162 0.0023183208 -0.009593422
0.009105112 -0.010513167 -0.0019846573 -0.0057290467 0.0074949833 0.035541903 -0.0023680422 -0.012488681
0.030177671 0.019611886 0.04183282 -0.0046345573 -0.00057107105 -0.041383177 0.007264998 -0.0049089147
0.025970345 0.003836682 -0.02085442 -0.024575558 -0.015076159 -0.014309606 -0.026537262 0.029282607
-0.0047509796 0.02307601 -0.011541348 -0.03672127 -0.0156163415 0.013606255 -0.008339088 0.01352908
-0.0033858628 -0.001135719 -0.014634343 0.0062890705 0.00962766 0.021891057 0.0061292187 0.0069025634
0.003583437 0.06727945 -0.0001334189 -0.018976007 -0.008472612 -0.015545004 -0.007860424 0.0062513095
0.015101273 -0.018489065 -0.0035963056 0.041202914 -0.0068965945 0.013738226 0.049742363 0.0015889667
0.031096287 0.003499045 -0.0007389013 -0.035089433 -0.0910002 0.0001251606 0.020020958 -0.08216103
-0.009039844 -0.013569925 -0.00969527 0.0013853696 -0.0031591868 -0.040782537 0.03648764 0.004932852
0.007265455 -0.034708504 -0.04182696 0.008580585 0.007388354 0.039646305 0.007965858 -0.007836496
0.047994368 -0.04911493 0.011649376 -0.07807394 0.024061907 0.053866588 0.055750225 -0.035331625
-0.011054483 -0.017075265 0.013089971 0.08901558 -0.019295163 -0.0006386855 0.031639077 -0.052984197
0.074871145 0.0014524885 -0.006881752 -0.02336898 -0.04488293 0.031921748 0.022287367 -0.005227006
-0.040694557 -0.053969495 -0.009564576 -0.010655761 0.05860969 0.009742778 0.0020103566 -0.0029608007
0.0008305138 0.018703155 -0.0020385855 -0.011956764 0.012954804 0.07019922 0.0029145689 -0.023415947
0.021535654 -0.01855777 -0.0070496504 -0.0049034674 -0.06904761 0.013050875 0.017771283 0.05896641
-0.009765802 0.030606743 -0.004168908 0.0076878895 -0.0554917 -0.0026058748 0.056957953 0.012443452
-0.013765828 0.05231731 0.0045998404 0.013834245 -0.011077627 0.018839153 -0.030566122 -0.0135119
-0.024923934 0.004993539 0.007872553 -0.055689905 0.017631968 0.040488493 -0.018119313 -0.037566673
-0.004370888 -0.06960565 0.07294798 0.06120824 0.018266512 0.0022739058 -0.03817417 -0.053512167
00000000: c8a4 9b3c fd37 cc3b 6c41 533b 7183 fcbc
00000010: 4175 33bc 14a2 4abc 2bbd 48bb 280d 093d
00000020: 1b1e f1bc d8cf 0d3d 114a 45bc c710 f93c
00000030: b2f8 903d f038 abb9 5c6b e5bb 10c8 4e3c
00000040: 1801 f2bb 885a 5c3c 2e61 63bb 0e6b 463c
00000050: 342b 673c b10a 833d 9fe0 e8bb bbbe 94bc
00000060: b3c0 6c3c c31f ed3b b5c5 11bd a4ee 0cbd
00000070: 6d37 82bc f0b1 1d3d c815 f43b 2a64 da3c
00000080: 817b c9bc 1fac 9d3b 465d dbbc ea9f c13c
00000090: 1327 adbc 0247 29bd 6b62 74bc 49e3 df3c
000000a0: ca96 ccbb 8f18 97bc 2597 563c 09fa ab3c
000000b0: 1288 a9bc 0800 9d3c 4f79 24bc 3406 4dbd
000000c0: ab02 90bb 7259 cfbc 5ca9 d3bc d8d5 0dbd
000000d0: f71b 223d 31fd 88bb 6b5f d6bc da2f 70bd
000000e0: 0ad6 da3c b9d9 30bd 61b1 aa3d c165 553d
000000f0: 1271 7d3b db61 62bb d982 80bb bfd8 6f3d
00000100: 5dbc babb 59b1 3c3b 9690 41bc cae9 823b
00000110: d145 bdbc 0c8a 183c 5d31 7fbc c11b a0bb
00000120: ffe8 13bc 909c 943c d85d a43c 9418 2e3d
00000130: 111c 20bd 02e4 5fbb 226a a2bc 36c6 54bc
00000140: a991 12bc 7ff8 7dbc d988 6c3c 1a7a 58bc
00000150: 9518 523c 6c79 f2bb 7adb 623c 27db 563c
00000160: 6555 48bd 97f0 383c 4aae 6e3c c9a0 9e3c
00000170: 441e 2839 8f1b f9bb f8ee 173b ba2d 1dbc
00000180: 9c2d 153c 6b3f 2cbc 0611 02bb baba bbbb
00000190: 7a98 f53b 6394 113d 2831 1bbb 539d 4cbc
000001a0: 2a37 f73c 1ba9 a03c e458 2b3d 7cdd 97bb
000001b0: eeb3 15ba 6881 29bd 380f ee3b f6da a0bb
000001c0: c3bf d43c d870 7b3b e3d6 aabc ae52 c9bc
000001d0: fe01 77bc d672 6abc ac64 d9bc 14e2 ef3c
000001e0: 1bae 9bbb e709 bd3c ec17 3dbc 0b69 16bd
000001f0: afdb 7fbc c5ec 5e3c aca0 08bc 13a9 5d3c
00000200: 5ae5 5dbb 68dc 94ba e2c4 6fbc 8c14 ce3b
00000210: 55bd 1d3c e054 b33c 9dd7 c83b e62e e23b
00000220: 19d8 6a3b cfc9 893d 5de6 0bb9 9273 9bbc
00000230: b6d0 0abc 79b0 7ebc 02c9 00bc c9d7 cc3b
00000240: 546b 773c 6176 97bc ffaf 6bbb 63c4 283d
00000250: d4fc e1bb 4c16 613c a6be 4b3d e044 d03a
00000260: a4bd fe3c 3c50 653b d4b2 41ba f0b9 0fbd
00000270: 505e babd 8b3d 0339 fe02 a43c 0b44 a8bd
00000280: db1b 14bc 6454 5ebc e9d8 1ebc 4a95 b53a
00000290: 5c0a 4fbb 970b 27bd 1074 153d c3a3 a13b
000002a0: 0e13 ee3b 812a 0ebd bf52 2bbd 9595 0c3c
000002b0: 011a f23b 2a64 223d 3b83 023c a664 00bc
000002c0: be95 443d bd2c 49bd 06dd 3e3c 3be5 9fbd
000002d0: 7a1d c53c 36a3 5c3d 595a 643d e5b7 10bd
000002e0: dd1d 35bc 6de1 8bbc 5177 563c cd4d b63d
000002f0: e410 9ebc 756d 27ba fa97 013d f505 59bd
00000300: 0b56 993d 6d61 be3a 5280 e1bb 4e70 bfbc
00000310: 2ad7 37bd 61c0 023d ff93 b63c 4e47 abbb
00000320: 56af 26bd 1e0f 5dbd bdb4 1cbc 8095 2ebc
00000330: b710 703d 2ca0 1f3c 30c0 033b fe09 42bb
00000340: d6b6 593a 5c37 993c ca99 05bb 4ee6 43bc
00000350: 6340 543c 9cc4 8f3d 5a02 3f3b cdd2 bfbc
00000360: 8a6b b03c 7706 98bc c100 e7bb 44ad a0bb
00000370: d568 8dbd 56d3 553c 1595 913c c386 713d
00000380: be00 20bc feba fa3c 569b 88bb b1ea fb3b
00000390: 444b 63bd 53c7 2abb be4c 693d 9fdf 4b3c
000003a0: 118a 61bc ad4a 563d 42ba 963b 07a9 623c
000003b0: ef7e 35bc 9154 9a3c ce65 fabc 0461 5dbc
000003c0: 472d ccbc d7a0 a33b e1fb 003c 191b 64bd
000003d0: eb70 903c 43d7 253d f46e 94bc 83df 19bd
000003e0: ab39 8fbb 688d 8ebd c065 953d 7eb5 7a3d
000003f0: a7a3 953c cf05 153b 855c 1cbd 932f 5bbd

conv_stem.0.weight f4 [64, 64, 3, 3]
-0.03570147 -0.08186995 0.011461538 -0.0017700116 -0.06740275 0.02346949 -0.07060603 0.055542756
0.030530917 0.037459735 -0.05677419 -0.084930636 -0.060088485 -0.011179818 -0.018059308 -0.13700359
0.08671423 0.012494488 0.0066632554 -0.042795204 -0.12797703 -0.06535957 -0.004782834 0.02188894
-0.060088105 -0.039478313 -0.01043896 0.02021849 0.01724735 0.03759012 -0.032242905 0.008450409
0.07517762 0.023406502 -0.0090747075 0.06556491 -0.014451363 0.020658726 0.0181021 0.03442278
0.02822414 -0.08142179 0.027028155 0.009790392 -0.003236532 -0.012072594 -0.025144208 -0.05942592
0.0066684037 0.05338902 -0.0025544383 0.04951153 0.039157838 -0.02878365 -0.014984106 0.056308437
0.052024785 -0.017466282 -0.028892739 0.021896664 0.029069783 0.015240467 -0.05443749 -0.10483749
0.010520032 0.050803002 0.022727575 0.119483076 -0.028154219 -0.011489331 0.01987186 0.033150595
-0.05179171 -0.013880382 -0.012613903 -0.06420619 0.019303154 0.00010005663 0.05378728 0.032658882
0.023859847 -0.054162577 -0.044293474 0.02957137 0.018480252 0.014321523 0.06125653 0.03994729
0.046099197 0.084221855 0.023391142 -0.046748664 0.023847418 0.021385198 0.054137636 0.010977608
-0.0066205645 0.031111399 0.05328828 -0.007816641 0.010074738 -0.054813154 -0.031915147 -0.008490975
0.015107662 0.036427844 -0.010038794 -0.0068720765 -0.05541736 0.021463873 -0.009710442 -0.019989954
0.0386987 -0.03452452 0.007951106 0.047255326 -0.083606675 0.016680626 -0.035383586 -0.036291007
0.009907141 0.0060446225 -0.014855459 0.01004274 0.004048691 0.0045323377 0.028699527 0.015337233
-0.031674042 -0.051013403 -0.0046898676 -0.003982965 0.007512003 0.018978635 -0.016007876 -0.02550379
0.011454641 -0.021792045 -0.00923736 -0.0024188426 -0.026259936 -0.008900669 0.0052541085 0.006205618
-0.011475573 0.028223965 -0.022310266 0.003789182 -0.019688195 -0.020101326 -0.0035176636 0.0020495309
-0.0051877354 -0.023712547 0.021635953 0.007704662 0.056990832 0.04590131 -0.06164967 0.052159406
-0.00069483614 -0.01565966 0.0077686314 -0.063053355 -0.05820393 -0.03813081 0.008009086 -0.030392265
-2.803568e-05 0.034570403 0.04098421 0.009124617 0.055814523 -0.028822701 0.0062173964 0.008246865
-0.0037249515 0.0333439 -0.0015611812 -0.0024361038 -0.024824306 0.0022895117 0.057241146 0.040270787
-0.033146948 -0.015185159 0.009693168 0.012570391 -0.00438681 -0.010450305 0.0028939946 -0.016850373
0.024650497 -0.01760315 0.022255063 0.035709318 -0.0010357855 0.043110106 0.010224942 -0.011967056
0.0011916406 0.0010440276 0.015706073 -0.006106257 -0.0024903454 -0.024327336 0.02266074 0.05298089
-0.012383595 -0.014954035 0.0467789 0.045614492 -0.039918583 0.022430742 0.03219451 0.008490471
-0.008928588 0.01964651 -0.053534463 -0.046440274 0.029801354 0.0059097353 0.0032810115 -0.014509475
-0.04647513 0.014720006 0.04189087 -0.009650926 0.0045494265 0.0063002966 -0.061754134 0.022410372
0.011902641 -0.044007335 0.055729397 -0.016416386 0.029813545 0.037076194 -0.0075091566 0.015585135
0.011261016 0.021119244 0.016115172 -0.019434413 -0.03561431 0.018931793 0.0040664496 0.006622202
-0.032174956 -0.010141032 0.05713012 -0.02121007 0.03039152 -0.009958857 0.025206089 -0.014635241
00000000: b43b 12bd 6fab a7bd 2dc9 3b3c bcff e7ba
00000010: 740a 8abd 1743 c03c e599 90bd cd80 633d
00000020: f91b fa3c 616f 193d 0e8c 68bd 1df0 adbd
00000030: 581f 76bd 8e2b 37bc 1df1 93bc ab4a 0cbe
00000040: 3b97 b13d aeb5 4c3c 7057 da3b 064a 2fbd
00000050: 690c 03be 3ddb 85bd 52b9 9cbb 6f50 b33c
00000060: f21e 76bd 03b4 21bd 2c08 2bbc 3fa1 a53c
00000070: 514a 8d3c 19f8 193d 2311 04bd 9673 0a3c
00000080: b9f6 993d febe bf3c 15ae 14bc e546 863d
00000090: 69c5 6cbc 7d3c a93c db4a 943c e7fe 0c3d
000000a0: 5036 e73c 78c0 a6bd 266a dd3c e167 203c
000000b0: ff1b 54bb 21cc 45bc 3afb cdbc 9868 73bd
000000c0: a082 da3b 72ae 5a3d 5d68 27bb 9acc 4a3d
000000d0: f863 203d b0cb ebbc e57f 75bc ada3 663d
000000e0: f117 553d 7315 8fbc 77b0 ecbc a260 b33c
000000f0: c123 ee3c 27b3 793c d8f9 5ebd 0ab5 d6bd
00000100: 365c 2c3c cf16 503d 2e2f ba3c 8bb3 f43d
00000110: ada3 e6bc bf3d 3cbc 50ca a23c ebc8 073d
00000120: 8b23 54bd 8b6a 63bc 8baa 4ebc 897e 83bd
00000130: a621 9e3c 7fd5 d138 0d50 5c3d 52c5 053d
00000140: ba75 c33c 94d9 5dbd 136d 35bd a83f f23c
00000150: e663 973c d2a4 6a3c 21e8 7a3d c59f 233d
00000160: 83d2 3c3d 827c ac3d c89e bf3c 877b 3fbd
00000170: a95b c33c 0330 af3c 6dbf 5d3d 6ddb 333c
00000180: 52f1 d8bb 55dd fe3c d044 5a3d 5e11 00bc
00000190: 8410 253c c283 60bd 75b9 02bd bb1d 0bbc
000001a0: 2186 773c 5d35 153d c179 24bc 282f e1bb
000001b0: 50fd 62bd 01d5 af3c 8c18 1fbc f9c1 a3bc
000001c0: 8782 1e3d 9569 0dbd 5b45 023c cd8e 413d
000001d0: fa39 abbd cfa5 883c 61ee 10bd e1a5 14bd
000001e0: 9051 223c f811 c63b 5064 73bc 4e8a 243c
000001f0: e2aa 843b 0184 943b 451b eb3c 0549 7b3c
00000200: a4bc 01bd 6ef3 50bd 76ad 99bb 8883 82bb
00000210: 4027 f63b 1579 9b3c f322 83bc 53ed d0bc
00000220: 3fac 3b3c 3b85 b2bc 4c58 17bc 7285 1ebb
00000230: 141f d7bc 1dd4 11bc a82a ac3b 7f58 cb3b
00000240: 0b04 3cbc f235 e73c 05c4 b6bc ed53 783b
00000250: 2349 a1bc 89ab a4bc 9a88 66bb 6c51 063b
00000260: e1fd a9bb d140 c2bc e23d b13c 6477 fc3b
00000270: 386f 693d 0303 3c3d 5d84 7cbd 1aa5 553d
00000280: aa25 36ba b048 80bc 0190 fe3b 1e22 81bd
00000290: 3e67 6ebd 0d2f 1cbd 8b38 033c 33f9 f8bc
000002a0: 2a2e ebb7 b299 0d3d 0fdf 273d 6b7f 153c
000002b0: c59d 643d 961d ecbc 4dbb cb3b dc1d 073c
000002c0: 511e 74bb 9d93 083d 8ca0 ccba 0aa7 1fbb
000002d0: 585c cbbc a20b 163b b175 6a3d fbf2 243d
000002e0: 18c5 07bd 2ccb 78bc 18d0 1e3c 0bf4 4d3c
000002f0: 3bbf 8fbb c237 2bbc 2ca9 3d3b cb09 8abc
00000300: d7ef c93c 7b34 90bc 4050 b63c ef43 123d
00000310: 32c3 87ba 3994 303d 8486 273c 7911 44bc
00000320: d330 9c3a c1d7 883a 06aa 803c ff16 c8bb
00000330: 1035 23bb 1f4a c7bc 04a3 b93c 7d02 593d
00000340: 90e4 4abc c501 75bc 3b9b 3f3d 43d6 3a3d
00000350: ab81 23bd adc0 b73c 64de 033d 9e1b 0b3c
00000360: 3649 12bc b8f1 a03c f446 5bbd 2838 3ebd
00000370: f821 f43c 74a6 c13b 3d06 573b 26b9 6dbc
00000380: b55c 3ebd 2e2c 713c c395 2b3d eb1e 1ebc
00000390: 5b13 953b b872 ce3b e7f1 7cbd f595 b73c
000003a0: 4b03 433c 0941 34bd 8244 643d a87b 86bc
000003b0: 893b f43c 35dd 173d 5f0f f6bb cb58 7f3c
000003c0: 2080 383c 4402 ad3c f703 843c eb34 9fbc
000003d0: 50e0 11bd d916 9b3c da3f 853b 0fff d83b
000003e0: e3c9 03bd 9226 26bc 4601 6a3d bec0 adbc
000003f0: a3f7 f83c 792a 23bc 007d ce3c a6c8 6fbc

conv_stem.1.weight f4 [64]
0.9966302 1.0260028 1.0083917 0.99886304 1.0352486 1.0272139 0.9870344 1.0217733
0.99968356 1.0012488 1.0177572 1.001573 1.0568138 0.97268146 1.0100545 0.99643755
1.0197741 0.9984341 1.015672 1.0148227 0.99153364 0.9540694 0.98206383 1.0125593
1.0174766 0.97990304 1.0042839 1.011166 0.9946238 0.9748228 1.0071112 0.98042715
1.0049539 1.0108364 1.0313718 1.0104958 0.9832165 0.99978447 1.0049007 0.98834395
1.0322075 0.99567866 1.0114869 1.0328773 0.96125865 0.9527852 1.0279021 0.9716828
1.0063907 0.99186677 0.98254734 0.94816715 1.0054721 0.99935067 1.0123231 0.9988794
1.039355 1.0165528 0.99485254 0.9951185 0.99184066 1.0330483 0.9705403 0.99928117
00000000: 2823 7f3f 0f54 833f fb12 813f 7db5 7f3f
00000010: 0783 843f bf7b 833f 49ae 7c3f 78c9 823f
00000020: 43eb 7f3f ec28 803f de45 823f 8b33 803f
00000030: ad45 873f a701 793f 7749 813f 8816 7f3f
00000040: f587 823f 6199 7f3f 8a01 823f b6e5 813f
00000050: 26d5 7d3f e43d 743f 8968 7b3f 8b9b 813f
00000060: ac3c 823f edda 7a3f 608c 803f e36d 813f
00000070: aa9f 7e3f fd8d 793f 05e9 803f 46fd 7a3f
00000080: 54a2 803f 1663 813f fe03 843f ed57 813f
00000090: 14b4 7b3f e0f1 7f3f 96a0 803f 1c04 7d3f
000000a0: 601f 843f cce4 7e3f 6778 813f 5335 843f
000000b0: 0c15 763f bbe9 733f 4c92 833f 34c0 783f
000000c0: 69d1 803f fbea 7d3f 3988 7b3f 15bb 723f
000000d0: 4fb3 803f 72d5 7f3f ce93 813f 8fb6 7f3f
000000e0: 9609 853f 671e 823f a8ae 7e3f 16c0 7e3f
000000f0: 45e9 7d3f ed3a 843f 5475 783f e4d0 7f3f

conv_stem.1.bias f4 [64]
0.026261859 0.04355922 0.037329353 0.033816196 0.07502858 0.023265522 -0.014596673 0.03462941
-0.010605147 0.03896405 0.033042986 0.0432017 0.03213648 0.01155579 0.00010065982 0.010326217
0.03832957 0.014253241 0.04367432 0.024862748 0.030039001 0.004930177 -0.01861057 0.013627462
0.048675418 0.024815092 0.007318901 0.021704532 -0.006091348 -0.020728514 0.014475459 0.006334843
0.030562649 0.015662933 0.016224101 0.055569008 0.002671898 0.023401586 0.0017501622 0.0068370183
0.03633386 0.028293155 0.0051933564 0.033114817 0.0071206624 -0.021962563 0.04699428 0.0035001081
-0.005858012 0.010197651 0.013513882 0.027346274 0.052430555 0.014550348 0.05697175 0.01020358
0.054225545 0.049945913 0.00018617322 0.038625844 0.07123832 0.042366657 -0.0052140094 0.01426304
00000000: 1c23 d73c 276b 323d aae6 183d da82 0a3d
00000010: 96a8 993d 5697 be3c e226 6fbc 91d7 0d3d
00000020: 36c1 2dbc c598 1f3d 1558 073d 44f4 303d
00000030: 8ba1 033d 7f54 3d3c 5419 d338 4b2f 293c
00000040: 78ff 1c3d 6d86 693c d8e3 323d f6ac cb3c
00000050: 5a14 f63c 528d a13b 3275 98bc b845 5f3c
00000060: e05f 473d 0549 cb3c 64d3 ef3b b4cd b13c
00000070: ee99 c7bb d8ce a9bc 7a2a 6d3c 8494 cf3b
00000080: 855e fa3c 8d4f 803c 68e8 843c 549c 633d
00000090: 031b 2f3b afb4 bf3c b365 e53a 1109 e03b
000000a0: d0d2 143d 0cc7 e73c 082d aa3b 67a3 073d
000000b0: 7254 e93b d5ea b3bc 137d 403d 1262 653b
000000c0: 91f4 bfbb 0c14 273c 5469 5d3c 4b05 e03c
000000d0: 6cc1 563d 9564 6e3c 365b 693d eb2c 273c
000000e0: 9b1b 5e3d 1694 4c3d 7e37 4339 2236 1e3d
000000f0: 65e5 913d a988 2d3d 48da aabb 87af 693c

conv_stem.1.running_mean f4 [64]
-0.14482562 -0.08645366 0.07074185 0.027310846 -0.19400617 -0.012007154 0.18591553 -0.123170294
-0.016263217 0.04528233 -0.31263983 0.11106735 0.14689901 0.10398094 0.15004417 -0.15149778
-0.23647237 0.28597623 -0.10209578 -0.049372062 -0.13711527 -0.1129347 -0.089482196 -0.06177954
-0.20415142 -0.010511089 -0.026637334 0.17409907 0.21267086 -0.03773083 0.062216934 -0.23961143
0.07363268 -0.11669215 -0.013700087 -0.19016561 -0.056269765 -0.13216507 -0.3766118 -0.24762686
-0.3318411 -0.07288574 -0.00140675 -0.33059525 0.17764725 -0.13734853 -0.01936554 -0.09836669
0.14878954 0.32573855 -0.027125092 -0.0097282445 0.029913796 -0.01776247 0.16170417 0.0083959615
-0.06749904 -0.13789955 0.316786 0.21485315 -0.19559331 -0.16988094 -0.15702082 0.036586195
00000000: 2b4d 14be 9e0e b1bd 1ae1 903d ffba df3c
00000010: 8ea9 46be a7b9 44bc a460 3e3e b540 fcbd
00000020: 703a 85bc f779 393d 5412 a0be 4777 e33d
00000030: b26c 163e f6f3 d43d 2ea5 193e 3c22 1bbe
00000040: d025 72be 7a6b 923e 9817 d1bd 5c3a 4abd
00000050: f267 0cbe 4f4a e7bd 7142 b7bd 8b0c 7dbd
00000060: 120d 51be b436 2cbc 8a36 dabc 0747 323e
00000070: 64c6 593e a58b 1abd 2fd7 7e3d b35c 75be
00000080: bbcc 963d 4bfc eebd 5476 60bc c6ba 42be
00000090: 207b 66bd 4856 07be 43d3 c0be e591 7dbe
000000a0: 14e7 a9be 1e45 95bd b262 b8ba c843 a9be
000000b0: 29e9 353e 18a5 0cbe 7ba4 9ebc 7a74 c9bd
000000c0: 495c 183e 34c7 a63e 7135 debc 3763 1fbc
000000d0: c70d f53c 9982 91bc c795 253e 378f 093c
000000e0: f03c 8abd 8a35 0dbe c631 a23e 7702 5c3e
000000f0: 9d49 48be 45f5 2dbe 11ca 20be 68db 153d

conv_stem.1.running_var f4 [64]
0.050405625 0.026585681 0.038726795 0.03700878 0.042124268 0.031298358 0.05654417 0.028771838
0.09511581 0.047024 0.03178774 0.0367993 0.034616232 0.040098675 0.037393037 0.042525876
0.043432385 0.061182007 0.04895282 0.03124057 0.03854661 0.04232632 0.026133576 0.043337923
0.051199276 0.028241985 0.061877683 0.036856536 0.0684145 0.030882865 0.03151519 0.036701765
0.04668111 0.045022447 0.029632028 0.028374804 0.056042984 0.039130576 0.055774875 0.04195147
0.04775581 0.052417077 0.05348607 0.047252707 0.032829266 0.033577505 0.037122738 0.033629753
0.034820545 0.075847425 0.04099978 0.03495571 0.029948428 0.04325797 0.038488604 0.02860659
0.031617105 0.034446683 0.04409798 0.03406924 0.033607077 0.041381877 0.042052217 0.03561334
00000000: 2176 4e3d 37ca d93c fd9f 1e3d 8596 173d
00000010: 7f8a 2c3d b532 003d dc9a 673d ebb2 eb3c
00000020: 14cc c23d 3d9c 403d dc33 023d ddba 163d
00000030: c0c9 0d3d 823e 243d 7129 193d 9d2f 2e3d
00000040: 28e6 313d fc99 7a3d c182 483d 39ec ff3c
00000050: 0de3 1d3d 5d5e 2d3d 1516 d63c 1b83 313d
00000060: 55b6 513d bc5b e73c 7473 7d3d e1f6 163d
00000070: e71c 8c3d 10fe fc3c 1216 013d 9754 163d
00000080: b134 3f3d 7569 383d debe f23c 4772 e83c
00000090: 548d 653d 6247 203d 3274 643d 4ed5 2b3d
000000a0: 999b 433d 4ab3 563d 3614 5b3d 0e8c 413d
000000b0: fb77 063d 9188 093d 030e 183d 5abf 093d
000000c0: fd9f 0e3d e555 9b3d 63ef 273d b82d 0f3d
000000d0: 6856 f53c 452f 313d 3aa6 1d3d 5e58 ea3c
000000e0: f080 013d f717 0d3d 15a0 343d 308c 0b3d
000000f0: 93a7 093d 0b80 293d f23e 2c3d 4bdf 113d

conv_stem.3.weight f4 [64, 64, 3, 3]
0.016618881 0.021150753 -0.01592304 -0.016138554 -0.005204617 -0.0029804127 0.030577116 -0.015358476
0.016804002 0.017000137 -0.023326902 -0.01696683 0.008269123 -0.0017467624 -0.009693512 -0.011419503
-0.0143789435 -0.034714397 -0.012879664 0.0034978173 -0.013950671 -0.0032772603 0.0021199067 0.028641146
-0.020767996 0.015658166 0.013149819 -0.007800508 0.029820733 0.024294272 -0.052865017 -0.022373684
0.046182428 -0.03773021 -0.046780605 0.007115632 -0.003950787 0.028617855 0.007277184 0.005804225
0.0068875565 0.03321282 0.0061647096 -0.03785562 -0.024824804 -0.0023136567 0.009846037 0.04237711
0.014036493 -0.00237342 -0.00850756 0.04816719 -0.008927938 0.012419925 0.037961196 0.02423111
0.04700003 0.022966688 0.020249518 -0.0077540926 0.0066821007 0.03138282 -0.041736487 -0.016805371
0.038376886 0.0037863802 -0.030713119 0.027518379 0.032332115 0.03301044 0.013035838 -0.019151902
0.029635094 0.016456995 -0.007491258 -0.046821482 0.021183621 0.014873001 0.01760349 0.024581648
-0.0028806976 0.037956752 -0.010768702 -0.005824141 0.043288182 -0.040272463 -0.020309499 -0.012526151
-0.035737287 -0.015724735 0.012503944 0.02594016 0.009733198 0.011617433 0.028434673 -0.02537206
0.0021845675 0.018011395 -0.00094373495 0.013866389 -0.018237649 0.00035309925 -0.004602982 -0.00048994826
-0.012350273 0.014562668 0.025990693 -0.03151291 0.022417068 -0.04956572 0.03302023 -0.013805435
0.020279655 0.03810596 -0.020784969 0.021029474 -0.008021788 0.022181658 -0.037078135 -0.028410576
0.011364458 0.0044188024 -0.022982044 -0.025783187 0.018229436 0.029037274 0.0010973763 -0.031583745
-0.03424967 -0.036671393 -0.003714311 -0.001910492 -0.036214665 0.028292662 -0.017937932 0.021333868
-0.03190729 0.027187534 0.03486563 0.027057432 -0.04002795 0.037346147 0.021071382 0.0077822106
0.010503072 -0.03536154 0.046826035 -0.0477727 -0.018561693 0.0506289 0.0057384977 -0.0299611
-0.017473312 0.014980741 -0.037439045 -0.03563631 0.0010712076 -0.036863048 -0.028883545 -0.038243223
-0.016515626 -0.02050684 -0.009218997 -0.012461326 -0.02891921 -0.025670098 -0.0018811522 -0.013720551
0.055835083 0.00037672897 -0.021228714 -0.018461166 -0.0050261896 -0.041717257 -0.019468883 0.02899317
0.04098534 0.004361536 0.018525109 0.018536538 -0.0056974106 0.029111011 -0.016611958 0.019282943
-0.020814931 -0.0117654195 -0.019025715 -0.01300789 0.0014785312 -0.0058975206 -0.023936614 -0.00874731
-0.013294241 0.020180106 0.032711115 0.011724054 -0.025887208 -0.0036220914 0.029223178 0.040768754
-0.0052785235 0.00841624 0.030744964 0.031875465 0.03318323 0.028417652 0.026778664 -0.0024539495
-0.03915818 0.0127423685 -0.012977349 -0.015022484 0.029544972 -0.009112061 0.011242004 0.013987929
-0.0051746 0.027372915 -0.0072104414 -0.0032623226 -0.019747669 -0.0017401829 -0.011423983 -0.016973143
0.04078712 -0.004609883 0.029446015 0.007891545 0.014657955 0.017290337 0.03421509 0.036910057
0.024552375 0.010491873 -0.034952674 -0.039490677 0.026978541 -0.0043991543 -0.03106924 0.032588337
0.015906889 -0.042668283 0.031502105 0.052027404 0.03441204 -0.014601915 -0.039697677 0.027678756
0.023772405 -0.0006234529 -0.023876494 -0.008752559 -0.014428021 -0.008014338 -0.05341542 0.037600696
00000000: 5224 883c 5844 ad3c 0971 82bc 0035 84bc
00000010: 7e8b aabb 0753 43bb dc7c fa3c 1ea2 7bbc
00000020: 8ca8 893c df43 8b3c 0f18 bfbc 05fe 8abc
00000030: 377b 073c 9ff3 e4ba 89d1 1ebc de18 3bbc
00000040: a995 6bbc af30 0ebd 3a05 53bc a33b 653b
00000050: 5b91 64bc 4ec7 56bb 22ee 0a3b d6a0 ea3c
00000060: a521 aabc 8e45 803c 5772 573c 679b ffbb
00000070: 9c4a f43c c804 c73c fd88 58bd 0449 b7bc
00000080: c929 3d3d fe8a 1abd 059d 3fbd 3f2a e93b
00000090: 9a75 81bb fe6f ea3c 7275 ee3b 5e31 be3b
000000a0: 03b1 e13b 2a0a 083d 5501 ca3b 7f0e 1bbd
000000b0: 635d cbbc b8a0 17bb 4651 213c 9f93 2d3d
000000c0: 52f9 653c 618b 1bbb 4b63 0bbc f64a 453d
000000d0: 7c46 12bc f17c 4b3c 337d 1b3d 5280 c63c
000000e0: 1a83 403d a324 bc3c 51e2 a53c 0b16 febb
000000f0: 86f5 da3b 468b 003d e1f3 2abd 6bab 89bc
00000100: 1531 1d3d eb24 783b 149a fbbc 396e e13c
00000110: ae6e 043d f535 073d 4494 553c 73e4 9cbc
00000120: 4cc5 f23c d2d0 863c 3a79 f5bb e2c7 3fbd
00000130: 4689 ad3c e3ad 733c 3235 903c 745f c93c
00000140: 16ca 3cbb 8a78 1b3d 366f 30bc 70d8 bebb
00000150: f34e 313d bdf4 24bd 1b60 a6bc 7c3a 4dbc
00000160: 4361 12bd 29d1 80bc 58dd 4c3c 7580 d43c
00000170: fe77 1f3c 0c57 3e3c d5ef e83c 11d9 cfbc
00000180: f62a 0f3b a28c 933c fb64 77ba da2f 633c
00000190: 1f67 95bc 2e20 b939 9dd4 96bb df6f 00ba
000001a0: cd58 4abc 4298 6e3c 6fea d43c ae13 01bd
000001b0: 00a4 b73c 6d05 4bbd 3840 073d 3130 62bc
000001c0: 8521 a63c ff14 1c3d 3d45 aabc 0146 ac3c
000001d0: d16d 03bc 4fb6 b53c 3edf 17bd 4cbd e8bc
000001e0: fe31 3a3c 9acb 903b d744 bcbc 4337 d3bc
000001f0: e655 953c 94df ed3c d7d5 8f3a f55d 01bd
00000200: 6249 0cbd be34 16bd cc6b 73bb 7969 faba
00000210: d455 14bd 03c6 e73c 92f2 92bc 5dc4 ae3c
00000220: 38b1 02bd 64b8 de3c 43cf 0e3d 8ca7 dd3c
00000230: 59f4 23bd 46f8 183d e49d ac3c ea01 ff3b
00000240: 1415 2c3c 43d7 10bd a8cc 3f3d 4fad 43bd
00000250: b10e 98bc 4060 4f3d 020a bc3b fb70 f5bc
00000260: 3124 8fbc c871 753c af59 19bd 61f7 11bd
00000270: c367 8c3a b5fd 16bd 2f9d ecbc eda4 1cbd
00000280: c74b 87bc f6fd a7bc 470b 17bc 972a 4cbc
00000290: fbe7 ecbc 194a d2bc fe90 f6ba 29cc 60bc
000002a0: 54b3 643d b583 c539 d7e7 adbc df3b 97bc
000002b0: bcb2 a4bb b7df 2abd 357d 9fbc 1683 ed3c
000002c0: 3ee0 273d 37eb 8e3b f8c1 973c f0d9 973c
000002d0: 58b1 babb 377a ee3c cd15 88bc 43f7 9d3c
000002e0: 1384 aabc bfc3 40bc d1db 9bbc 0c1f 55bc
000002f0: 46cb c13a fd3f c1bb b816 c4bc e150 0fbc
00000300: 17d0 59bc c050 a53c 17fc 053d 3f16 403c
00000310: 6911 d4bc 9c60 6dbb 7265 ef3c 23fd 263d
00000320: 77f7 acbb 45e4 093c dddc fb3c d98f 023d
00000330: 23eb 073d 23cc e83c ee5e db3c 71d2 20bb
00000340: 5464 20bd 5ec5 503c f29e 54bc dd20 76bc
00000350: 4c08 f23c c14a 15bc 6230 383c a02d 653c
00000360: b18f a9bb 2a3d e03c 9145 ecbb b1cc 55bb
00000370: ddc5 a1bc d916 e4ba a82b 3bbc 430b 8bbc
00000380: 6510 273d 800e 97bb c538 f13c 8a4b 013c
00000390: eb27 703c 77a4 8d3c 1f25 0c3d 002f 173d
000003a0: 1022 c93c 1be6 2b3c 892a 0fbd fac0 21bd
000003b0: 1a02 dd3c c826 90bb eb84 febc 597b 053d
000003c0: 2a4f 823c f0c4 2ebd 5a08 013d b01a 553d
000003d0: a4f3 0c3d df3c 6fbc 089a 22bd 8fbe e23c
000003e0: 59be c23c 376f 23ba a398 c3bc e566 0fbc
000003f0: 8263 6cbc 924e 03bc 21ca 5abd 3003 1a3d

conv_stem.4.weight f4 [64]
1.0064209 1.0096515 1.006051 0.996655 0.99600977 0.99800664 1.0008525 1.0004963
1.0324273 0.99802804 0.9981326 0.99955195 0.9989076 0.9985635 0.9976585 1.0175893
0.99344987 1.004192 0.9986388 0.9993635 1.0074271 1.000407 1.0044912 1.0113387
0.9925871 0.9980795 1.0165452 1.0031832 0.99378276 1.0018231 0.9968952 1.0000998
1.0005118 1.0007219 0.99525064 1.0026388 0.9982585 1.0003709 1.0056974 0.99563646
0.9974359 0.9982208 0.99886 1.0003477 1.0005995 1.0007187 0.9989441 1.0000906
1.0031146 1.0006596 1.0004423 1.0013068 1.0079752 1.0011921 1.0000862 1.0016861
0.9961726 0.9963447 1.0023072 1.0200816 0.9981756 1.0014826 0.99421006 1.0002424
00000000: 66d2 803f 433c 813f 47c6 803f c824 7f3f
00000010: 7ffa 7e3f 5d7d 7f3f ef1b 803f 4310 803f
00000020: 9426 843f c47e 7f3f 9e85 7f3f a3e2 7f3f
00000030: 69b8 7f3f dca1 7f3f 8c66 7f3f 5e40 823f
00000040: bb52 7e3f 5d89 803f cba6 7f3f 49d6 7f3f
00000050: 5ff3 803f 560d 803f 2b93 803f 8c73 813f
00000060: 301a 7e3f 2382 7f3f 271e 823f 4f68 803f
00000070: 8c68 7e3f bd3b 803f 8634 7f3f 4503 803f
00000080: c510 803f a817 803f bfc8 7e3f 7856 803f
00000090: de8d 7f3f 270c 803f b1ba 803f 08e2 7e3f
000000a0: f657 7f3f 668b 7f3f 4ab5 7f3f 650b 803f
000000b0: a513 803f 8d17 803f cdba 7f3f f802 803f
000000c0: 0f66 803f 9d15 803f 7e0e 803f d22a 803f
000000d0: 5505 813f 1027 803f d302 803f 4037 803f
000000e0: 2b05 7f3f 7210 7f3f 9a4b 803f 0992 823f
000000f0: 7088 7f3f 9530 803f 8d84 7e3f f107 803f

conv_stem.4.bias f4 [64]
-0.0006578193 -0.0015496807 0.0038976946 -0.004587893 -0.0022731123 -0.0075881993 -0.022895578 0.0030009418
0.008861431 3.6923888e-05 -0.0067699826 -0.0012286713 -0.010838684 -0.007970521 0.00070000853 -0.0013829438
-0.0056346506 0.0004720923 -0.006465033 -0.0030453685 0.0021256455 -0.008298807 -0.004516407 0.004411546
-0.008882238 -0.017873649 9.192612e-05 0.00022752665 -0.006873558 6.908134e-05 -0.0053391913 -0.004369038
-0.0009135297 -0.0036190967 -0.004495594 0.003676627 -0.010128472 -0.0023939146 0.0025667544 -0.0008863969
-0.0050842967 -5.1253282e-05 -0.0071000797 -0.0049551805 -0.001824109 0.0010343979 -0.0067206956 -0.0032432214
7.1830786e-05 -0.0016184913 -0.0019191749 -0.0028714803 -0.00095631246 -0.007379411 0.00084824295 0.0005168674
0.00025976714 0.000223881 0.0049136 0.005579787 -0.0033120622 -0.0005467932 -0.0018060158 -0.006973124
00000000: 8271 2cba a81e cbba 7770 7f3b 0956 96bb
00000010: 7ff8 14bb 6ea6 f8bb 828f bbbc 73ab 443b
00000020: 892f 113c b9de 1a38 bbd6 ddbb 5e0b a1ba
00000030: bc94 31bc ca96 02bc c780 373a e543 b5ba
00000040: e0a2 b8bb 2883 f739 a1d8 d3bb ce94 47bb
00000050: 6a4e 0b3b b8f7 07bc 5efe 93bb bb8e 903b
00000060: ce86 11bc c26b 92bc 76c8 c038 3894 6e39
00000070: 953b e1bb c3df 9038 62f4 aebb 262a 8fbb
00000080: f179 6fba 5e2e 6dbb c74f 93bb 91f3 703b
00000090: e4f1 25bc 39e3 1cbb fe36 283b 175d 68ba
000000a0: 2c9a a6bb cbf8 56b8 c9a7 e8bb 115f a2bb
000000b0: f116 efba a294 873a 4839 dcbb 3a8c 54bb
000000c0: dca3 9638 8e23 d4ba d38c fbba 722f 3cbb
000000d0: 0bb1 7aba fcce f1bb 9f5c 5e3a 627e 073a
000000e0: 5b31 8839 99c1 6a39 4402 a13b a5d6 b63b
000000f0: 2f0f 59bb ac56 0fba d6b7 ecba ce7e e4bb

conv_stem.4.running_mean f4 [64]
0.28716767 0.2678775 0.24679433 -0.12700875 0.17369021 0.20648746 0.4083268 0.19188517
0.49646243 0.030293185 0.0020522699 -0.42178988 -0.7670479 -0.20424129 -0.055273145 0.20654236
-0.21388793 -0.09577097 0.16971974 -0.11141858 -0.36611524 0.014396369 -0.50560844 -0.22915263
0.037088916 0.374788 0.15185916 0.36777687 -0.102697656 0.27179024 0.113227144 0.47758755
-0.07190429 -0.4596587 -0.06518787 0.2368098 0.81349176 -0.08436963 -0.16540793 0.17582417
0.13557407 0.24360912 0.30478117 0.02516625 -0.41872 0.04164342 0.08899975 -0.09543066
0.55178744 -0.15192443 -0.43678707 -0.30484992 -0.04414691 0.2275154 -0.14662915 -0.2281626
-0.069698915 0.09550523 0.2522375 -0.8787465 -0.1494248 0.45116135 -0.20155513 0.18307717
00000000: a407 933e 3d27 893e a7b7 7c3e 950e 02be
00000010: d9db 313e 7371 533e 3610 d13e 8c7d 443e
00000020: 5330 fe3e 6a29 f83c 607f 063b d8f4 d7be
00000030: 405d 44bf a124 51be 1866 62bd d77f 533e
00000040: 7005 5bbe 9223 c4bd 03cb 2d3e 6d2f e4bd
00000050: 7573 bbbe c0de 6b3c 8e6f 01bf fda6 6abe
00000060: 8cea 173d 36e4 bf3e f880 1b3e 404d bc3e
00000070: 2653 d2bd 1728 8b3e a2e3 e73d 5b86 f43e
00000080: 8e42 93bd 6358 ebbe 3881 85bd 457e 723e
00000090: ff40 503f fcc9 acbd b260 29be 400b 343e
000000a0: eed3 0a3e ab74 793e 470c 9c3e 7429 ce3c
000000b0: 7862 d6be 4a92 2a3d 8045 b63d 2671 c3bd
000000c0: f141 0d3f 1492 1bbe 8ea2 dfbe 4a15 9cbe
000000d0: 64d3 34bd ccf9 683e f425 16be 75a3 69be
000000e0: 4ebe 8ebd 3f98 c33d 4625 813e 88f5 60bf
000000f0: d102 19be 9ffe e63e 7864 4ebe 9578 3b3e

conv_stem.4.running_var f4 [64]
0.2211993 0.10649196 0.12443208 0.11843108 0.09179654 0.15059312 0.13865972 0.15029398
0.1540084 0.21208474 0.111260474 0.16539057 0.18626979 0.1065668 0.12729788 0.119829476
0.24024357 0.1475621 0.16490047 0.09951716 0.12138214 0.09941552 0.12781174 0.12644862
0.12135516 0.11894927 0.12205623 0.13519004 0.13153793 0.19075911 0.11242802 0.14260511
0.13512753 0.18034688 0.0901337 0.11666014 0.11614325 0.13949062 0.13022159 0.13742936
0.09784596 0.0928707 0.1711576 0.13793634 0.118635364 0.14603105 0.1358804 0.09883077
0.13533676 0.09101943 0.15886314 0.1871825 0.17868404 0.13997152 0.11035975 0.12277363
0.13284951 0.11366571 0.14469826 0.15857665 0.104581945 0.13216624 0.09821974 0.14015284
00000000: 1282 623e 7518 da3d 3fd6 fe3d fe8b f23d
00000010: d3ff bb3d 1535 1a3e d0fc 0d3e aae6 193e
00000020: 61b4 1d3e be2c 593e 88dc e33d 255c 293e
00000030: 82bd 3e3e b23f da3d 605a 023e 2869 f53d
00000040: 6902 763e 851a 173e abdb 283e a7cf cb3d
00000050: 3397 f83d 5d9a cb3d 15e1 023e bf7b 013e
00000060: 0e89 f83d ad9b f33d 9ef8 f93d 426f 0a3e
00000070: e1b1 063e 5b56 433e a940 e63d 1307 123e
00000080: df5e 0a3e daac 383e 0498 b83d 83eb ee3d
00000090: 83dc ed3d a1d6 0e3e cf58 053e 48ba 0c3e
000000a0: 7663 c83d fe32 be3d f043 2f3e 2f3f 0d3e
000000b0: 19f7 f23d 2a89 153e 3b24 0b3e c967 ca3d
000000c0: b895 0a3e 6568 ba3d 05ad 223e c5ac 3f3e
000000d0: f3f8 363e b254 0f3e 4b04 e23d be70 fb3d
000000e0: b409 083e 91c9 e83d c82b 143e eb61 223e
000000f0: 0f2f d63d 9656 073e 6e27 c93d 3a84 0f3e

proj.weight f4 [64, 64, 1, 1]
-0.069143035 0.085155524 0.09156291 -0.06724323 -0.015029185 -0.09289535 0.03325589 -0.034056146
0.12046624 -0.06534947 0.031239137 -0.10060243 0.06465199 -0.01770513 0.08659579 -0.0013954776
0.074691504 0.09828485 0.07597115 0.008882272 0.09507213 0.009568905 -0.11175718 0.108193845
0.11266574 0.08787356 -0.1011348 -0.087750554 0.07367484 0.038547333 -0.09734588 -0.018471899
0.1041362 -0.03780112 -0.048598807 0.05046584 -0.057545487 0.037550934 -0.096918434 -0.0025859429
-0.09210359 -0.000462481 -0.09893499 0.05990273 -0.07550961 -0.12047049 0.068105556 -0.033526886
0.11790584 0.059080265 -0.009728264 -0.03059891 -0.002103279 -0.014814708 -0.015604063 0.025649972
-0.028087942 -0.014614754 -0.094313174 0.116897345 -0.116828956 0.008243925 0.12535697 0.10778324
0.107536696 -0.0325899 0.055319913 -0.0425732 -0.09892961 0.11037698 0.121911384 0.04215834
0.031957723 -0.04337135 0.055370785 0.08052723 -0.036390908 -0.035769507 -0.09042554 0.04931606
0.011966583 0.0017881441 0.10283486 -0.016363276 0.010837056 0.0062738415 0.10909805 0.12185268
0.094308056 -0.050912317 -0.08289648 0.0010688897 0.043777965 -0.02614058 -0.09934481 0.07873539
-0.010825852 -0.051599566 0.110439464 -0.0056741126 -0.11458505 0.08648277 -0.02811025 -0.043741755
0.04725998 0.07935595 0.011939836 0.017151663 -0.094151326 0.06968413 -0.033932652 -0.058921725
0.0043839565 -0.121670105 0.025221802 0.0973345 0.07291797 -0.08302907 0.018650437 0.095462576
-0.054299407 0.03161115 -0.076444335 -0.0049445177 0.039142665 0.05272556 0.06546596 -0.10499213
-0.05243489 -0.009990403 0.04584978 0.07217129 -0.08755691 0.054455653 0.0021803635 -0.035332866
0.0067033884 -0.0074045295 0.045383472 -0.064742945 0.06151691 0.12031851 -0.026744094 0.11263183
-0.11743886 -0.11163398 -0.111351945 -0.014357485 -0.03663451 0.09322867 0.010788231 0.0121156685
0.12280207 0.11503504 -0.068370745 0.0021774913 0.059011776 -0.07404037 0.04209516 0.11847015
0.09626808 0.105134055 -0.087511875 -0.08398772 0.115312375 -0.10658412 0.12612298 0.045485664
0.048693758 -0.09975557 0.0078002103 -0.113483705 -0.106134504 -0.063230656 -0.07565074 0.06577522
-0.012980337 0.038083196 -0.019839518 0.059408065 -0.1050023 0.044051837 0.026079053 -0.0013843217
-0.092209876 0.014288527 -0.062683515 -0.10856954 0.024774015 0.030396247 0.03815867 0.07805185
-0.0910958 0.06437355 0.014988175 0.03967444 0.04039777 0.08348528 -0.025574956 0.025372328
0.039183624 -0.027562309 0.03644918 -0.10541596 -0.01992842 -0.03255292 0.119936 -0.078234516
0.091683425 0.100053295 -0.02147068 0.036142062 0.06667035 0.0025811468 -0.026278768 -0.0025254146
0.11571685 0.02173754 0.011654856 -0.077734016 -0.07671071 -0.0056087305 -0.09085962 -0.09784841
-0.067322776 0.08225939 0.04363422 0.055001106 0.103510804 0.09744603 0.033825357 -0.03989484
-0.0010139982 0.114168584 -0.059773397 -0.10889801 0.024715466 -0.07825537 -0.093288966 0.057483375
-0.083361 -0.12453567 0.04943535 -0.10400833 -0.092641234 0.022360798 -0.11173816 0.13010736
-0.030791616 -0.087928064 0.11181552 0.010101801 0.10070199 -0.012291189 0.10055796 -0.03388761
00000000: dd9a 8dbd 0566 ae3d 5685 bb3d d2b6 89bd
00000010: f93c 76bc eb3f bebd 5437 083d 757e 0bbd
00000020: 01b7 f63d f1d5 85bd 38e9 ff3c a608 cebd
00000030: 4368 843d 590a 91bc 2259 b13d 75e8 b6ba
00000040: dcf7 983d 9149 c93d c396 9b3d f386 113c
00000050: 2db5 c23d e6c6 1c3c f3e0 e4bd bc94 dd3d
00000060: 4cbd e63d 0ef7 b33d c31f cfbd 90b6 b3bd
00000070: d6e2 963d cfe3 1d3d 475d c7bd 6152 97bc
00000080: 5c45 d53d 59d5 1abd 8b0f 47bd 45b5 4e3d
00000090: d1b4 6bbd 02cf 193d 2c7d c6bd ec78 29bb
000000a0: cfa0 bcbd 2679 f2b9 6e9e cabd 915c 753d
000000b0: c8a4 9abd 3bb9 f6bd ed7a 8b3d 7d53 09bd
000000c0: 9e78 f13d 26fe 713d 4c63 1fbc 91aa fabc
000000d0: 2bd7 09bb 64b9 72bc 2fa8 7fbc e41f d23c
000000e0: af18 e6bc b972 6fbc 4427 c1bd e067 ef3d
000000f0: 0544 efbd 8711 073c 945d 003e 76bd dc3d
00000100: 333c dc3d fd7c 05bd 2297 623d 3c61 2ebd
00000110: 9b9b cabd 530d e23d adac f93d 39ae 2c3d
00000120: 1ae6 023d 28a6 31bd 7acc 623d 76eb a43d
00000130: a20e 15bd 0c83 12bd 0731 b9bd a3ff 493d
00000140: 7d0f 443c 2960 ea3a 159b d23d 470c 86bc
00000150: e88d 313c cc94 cd3b cc6e df3d e68d f93d
00000160: 9524 c13d 6f89 50bd a1c5 a9bd fd19 8c3a
00000170: 8650 333d c524 d6bc 4b75 cbbd 0540 a13d
00000180: ea5e 31bc 115a 53bd 162e e23d e8ed b9bb
00000190: 91ab eabd e11d b13d 7847 e6bc 8e2a 33bd
000001a0: ae93 413d 5f85 a23d 4d9f 433c a581 8c3c
000001b0: 69d2 c0bd 8eb6 8e3d f7fc 0abd e857 71bd
000001c0: 4ba7 8f3b 2d2e f9bd f49d ce3c 4f57 c73d
000001d0: 0456 953d 250b aabd cdc8 983c e281 c33d
000001e0: 0e69 5ebd b17a 013d d98e 9cbd 9f05 a2bb
000001f0: 0f54 203d c2f6 573d 0413 863d 1d06 d7bd
00000200: f8c5 56bd caae 23bc fbcc 3b3d 8bce 933d
00000210: 0a51 b3bd e40c 5f3d 6ee4 0e3b 32b9 10bd
00000220: 19a8 db3b b2a1 f2bb 05e4 393d f397 84bd
00000230: 28f9 7b3d 8d69 f63d 6e16 dbbc 84ab e63d
00000240: c983 f0bd 5ba0 e4bd 7d0c e4bd a83b 6bbc
00000250: 110e 16bd acee be3d 1fc1 303c cc80 463c
00000260: a77f fb3d 7e97 eb3d f605 8cbd 3eb4 0e3b
00000270: 55b6 713d 7aa2 97bd f96b 2c3d 7aa0 f23d
00000280: 3328 c53d 8650 d73d 6d39 b3bd c101 acbd
00000290: e528 ec3d c648 dabd 6226 013e 2d4f 3a3d
000002a0: 1b73 473d a64c ccbd e898 ff3b 256a e8bd
000002b0: 0c5d d9bd 137f 81bd c6ee 9abd 29b5 863d
000002c0: 7bab 54bc 20fd 1b3d 7c86 a2bc df55 733d
000002d0: 720b d7bd b36f 343d bda3 d53c 2172 b5ba
000002e0: 88d8 bcbd 6d1a 6a3c 3760 80bd b559 debd
000002f0: e0f2 ca3c 8d01 f93c 444c 1c3d a6d9 9f3d
00000300: 6f90 babd 48d6 833d f690 753c aa81 223d
00000310: 2278 253d 55fa aa3d 9282 d1bc a1d9 cf3c
00000320: 027f 203d 5aca e1bc bc4b 153d 53e4 d7bd
00000330: ed40 a3bc 3656 05bd 01a1 f53d 6b39 a0bd
00000340: 85c4 bb3d bee8 cc3d 48e3 afbc b309 143d
00000350: 778a 883d 7528 293b 9246 d7bc 6d81 25bb
00000360: f5fc ec3d ed12 b23c 02f4 3e3c 0333 9fbd
00000370: 811a 9dbd 71c9 b7bb 9c14 babd bf64 c8bd
00000380: 86e0 89bd 9c77 a83d ccb9 323d d748 613d
00000390: 79fd d33d c991 c73d 758c 0a3d c668 23bd
000003a0: 22e8 84ba 38d1 e93d f3d4 74bd eb05 dfbd
000003b0: 1778 ca3c 5a44 a0bd 490e bfbd b073 6b3d
000003c0: 2cb9 aabd 8f0c ffbd b97c 4a3d 5202 d5bd
000003d0: b0ba bdbd fe2d b73c fad6 e4bd dd3a 053e
000003e0: b33e fcbc a113 b4bd 89ff e43d 0682 253c
000003f0: d83c ce3d fc60 49bc 55f1 cd3d bccd 0abd

proj.bias f4 [64]
-0.11393057 -0.08463364 -0.08887398 -0.061330613 0.08317007 -0.005935632 0.02522912 -0.013438087
0.018389728 -0.07343012 0.04565264 -0.005482222 0.03914343 0.047605943 -0.02244396 -0.053680673
0.03847002 -0.047400143 -0.09022285 -0.027011618 -0.060991433 -0.0075644343 0.034986597 -0.05895457
0.09502703 -0.02302404 0.032902278 0.04819089 0.048045844 0.04557488 0.10967614 0.04471891
0.11636579 0.08891346 -0.091669135 -0.053432457 0.09446713 0.11635864 -0.091730066 -0.072910376
0.08502053 0.044750456 0.0044293427 -0.06094034 -0.06408308 -0.00835278 -0.039795067 -0.055334914
-0.064099625 0.08166117 0.0147561105 -0.048474956 -0.09959209 0.09227781 0.05201406 0.045581397
0.108185 -0.046877164 -0.07868548 0.07256261 -0.052433807 -0.09837036 -0.015724568 -0.07805537
00000000: 6e54 e9bd 6754 adbd 9003 b6bd cf35 7bbd
00000010: 1255 aa3d b17f c2bb 4dad ce3c 6c2b 5cbc
00000020: 0ea6 963c 8862 96bd 43fe 3a3d 36a4 b3bb
00000030: dc54 203d 73fe 423d 65dc b7bc 44e0 5bbd
00000040: bd92 1d3d a726 42bd c2c6 b8bd 7847 ddbc
00000050: 27d2 79bd 13df f7bb 1b4e 0f3d 597a 71bd
00000060: 889d c23d e99c bcbc 8ac4 063d d063 453d
00000070: b8cb 443d baac 3a3d e29d e03d 2d2b 373d
00000080: 3051 ee3d 4318 b63d 07bd bbbd fedb 5abd
00000090: fc77 c13d 704d ee3d f9dc bbbd 0952 95bd
000000a0: 3e1f ae3d 414c 373d 0524 913b 949c 79bd
000000b0: fd3d 83bd 19da 08bc 2700 23bd dda6 62bd
000000c0: aa46 83bd f93d a73d 9dc3 713c ad8d 46bd
000000d0: f0f6 cbbd 26fc bc3d b20c 553d 8fb3 3a3d
000000e0: 1990 dd3d 4502 40bd da25 a1bd b59b 943d
000000f0: d5c4 56bd 6676 c9bd cfd0 80bc 7edb 9fbd

encoder.layers.0.self_attn.in_proj_weight f4 [192, 64]
0.106205314 -0.078527704 -0.12609069 0.05040757 0.013343088 0.19194658 0.042307712 -0.09370704
0.050857376 0.027291844 0.028378138 -0.1996264 -0.027581614 0.0480975 0.018384669 0.008564239
0.11711043 -0.00014739897 0.08413858 -0.14690799 0.16829845 -0.18363786 0.07125865 0.15062721
-0.026564026 0.015125013 0.12893726 -0.064801686 -0.11226235 0.019052034 -0.13882463 0.06981764
-0.15068047 0.003208207 -0.19025336 0.045716267 -0.01078928 0.045472853 -0.065233275 0.008011735
-0.11586213 0.11571659 -0.1658063 -0.13964896 0.07863981 -0.13061512 -0.04582731 0.093504205
-0.13556291 -0.15647358 -0.17436008 0.13770838 -0.051169567 -0.10120806 0.0067695635 -0.023988761
0.03171412 0.17524919 -0.00795274 -0.059410017 0.018012887 -0.19804494 -0.11765706 0.119069465
0.18709874 0.18938068 0.019361991 0.07478131 -0.08160783 0.005756153 -0.10271381 -0.13410042
-0.016577028 -0.017931601 -0.01005693 0.06420743 0.102844395 0.06808935 -0.0070097432 -0.097186826
-0.13259408 0.009810832 -0.081002876 -0.06356529 0.07781322 -0.022955531 0.07505867 -0.026831592
0.119140856 -0.04083884 0.14372545 0.10020584 -0.023583544 -0.014692284 0.07393265 0.15853883
0.16188534 -0.0064318124 -0.026528766 -0.06854492 -0.11419811 -0.14459144 0.05085579 0.03555528
0.13322206 0.11791971 0.12829992 -0.075672366 0.044378877 -0.05027994 -0.06506294 0.10268386
-0.110196084 -0.11750721 0.07212871 0.12881179 0.12281795 -0.10740829 0.15051572 0.13736407
0.10400508 -0.08608919 0.008560301 -0.16348147 0.005551553 0.02929966 -0.04176274 0.15901071
0.12886989 -0.124313876 0.12684274 0.011050773 -0.12987962 0.087478235 -0.0011733673 -0.087955676
0.17557292 -0.08409969 0.12777227 0.18758938 0.077728175 0.09924024 -0.20454118 0.104215145
0.051124845 0.049361117 -0.16397038 -0.0032973706 -0.085826375 0.02706515 -0.110216916 -0.15360817
-0.12978572 0.008940683 -0.22537024 0.012356177 0.0034351295 -0.012119847 0.13453782 -0.08104443
-0.0075199837 -0.15467238 0.04164518 0.18266658 0.045252096 0.00029360625 -0.1563763 -0.17877714
-0.14779644 0.14428462 -0.07716899 0.15444562 0.045033872 -0.09011009 -0.13314243 -0.087490164
-0.0143265715 -0.06890171 -0.048285738 -0.1423112 -0.0394309 0.077379905 -0.050505567 -0.16383395
0.069827534 0.059614245 0.1545088 0.09058489 0.14266862 0.05101558 -0.030715508 0.022305153
-0.061558962 -0.06867216 -0.20159169 -0.107879914 0.076114796 -0.0018519108 -0.05324894 0.01578234
-0.0955342 0.16345476 -0.08962896 0.037126813 -0.10554737 0.08939676 -0.010127176 -0.011174275
-0.15262195 0.0115992995 0.061772756 0.13340595 -0.041171562 -0.03047199 0.08653409 -0.12756163
-0.22628585 0.12481637 -0.1430981 0.070196606 -0.08444904 -0.14574556 0.043284778 0.033339348
0.20136079 -0.085139714 0.089748174 -0.008443537 -0.04562089 -0.16106285 -0.084179424 -0.17223047
0.15315534 0.15063971 0.015573609 -0.04966414 0.112242036 -0.1283958 0.036105666 -0.14585026
-0.04448669 0.0120270215 0.025426786 -0.10518343 -0.05155657 -0.08542076 -0.0022442245 0.014257948
0.10568886 -0.11376393 -0.010737444 -0.034356613 0.08918567 -0.09467872 0.06087414 -0.12938306
00000000: 2c82 d93d 22d3 a0bd eb1d 01be 2b78 4e3d
00000010: f89c 5a3c a58d 443e da4a 2d3d 7ae9 bfbd
00000020: d34f 503d 2593 df3c 4579 e83c dd6a 4cbe
00000030: d6f2 e1bc e201 453d 729b 963c 0651 0c3c
00000040: 98d7 ef3d 1c8f 1ab9 d950 ac3d 0c6f 16be
00000050: 6e56 2c3e 900b 3cbe 0ef0 913d 053e 1a3e
00000060: cd9c d9bc e7ce 773c 2108 043e bfb6 84bd
00000070: cee9 e5bd 0313 9c3c 0b28 0ebe 8dfc 8e3d
00000080: fb4b 1abe c840 523b c7d1 42be fb40 3b3d
00000090: 85c5 30bc be41 3a3d 0699 85bd a743 033c
000000a0: 2049 edbd d2fc ec3d 20c9 29be 2300 0fbe
000000b0: e90d a13d f8bf 05be 6bb5 3bbd 227f bf3d
000000c0: 01d1 0abe 9c3a 20be 738b 32be 6d03 0d3e
000000d0: 2e97 51bd 2c46 cfbd 37d3 dd3b 1484 c4bc
000000e0: aae6 013d 8674 333e 364c 02bc eb57 73bd
000000f0: c38f 933c 4bcc 4abe 2ff6 f0bd b1da f33d
00000100: d096 3f3e 02ed 413e 0a9d 9e3c f226 993d
00000110: 0222 a7bd 1c9e bc3b 9e5b d2bd 9f51 09be
00000120: 8ccc 87bc 4be5 92bc d2c5 24bc 2f7f 833d
00000130: 15a0 d23d 6e72 8b3d fdb1 e5bb e309 c7bd
00000140: bec6 07be 9dbd 203c d6e4 a5bd 852e 82bd
00000150: 8a5c 9f3d 3d0d bcbc 5cb8 993d edcd dbbc
00000160: 1f00 f43d a146 27bd c42c 133e b838 cd3d
00000170: 4732 c1bc e8b7 70bc 006a 973d 0158 223e
00000180: 45c5 253e f4c1 d2bb db52 d9bc 4761 8cbd
00000190: b3e0 e9bd c70f 14be 294e 503d 6aa2 113d
000001a0: 5d6b 083e e47f f13d 0e61 033e 1dfa 9abd
000001b0: a0c6 353d 57f2 4dbd b83f 85bd ea4b d23d
000001c0: 7cae e1bd 9fa7 f0bd 38b8 933d 3de7 033e
000001d0: fa87 fb3d e1f8 dbbd cb20 1a3e 2ba9 0c3e
000001e0: 9e00 d53d 874f b0bd 8140 0c3c b067 27be
000001f0: cde9 b53b d705 f03c 680f 2bbd b4d3 223e
00000200: 78f6 033e 4698 febd 10e3 013e 4d0e 353c
00000210: 2aff 04be ca27 b33d accb 99ba 1b22 b4bd
00000220: 63c9 333e 753c acbd bcd6 023e 6e17 403e
00000230: f32f 9f3d 783e cb3d 3e73 51be c06e d53d
00000240: 4968 513d e22e 4a3d dae7 27be b318 58bb
00000250: bdc5 afbd bcb7 dd3c 68b9 e1bd 764b 1dbe
00000260: 8ce6 04be f17b 123c 75c7 66be 9071 4a3c
00000270: e91f 613b 5392 46bc 48c4 093e 9ffa a5bd
00000280: 326a f6bb 7062 1ebe 2394 2a3d f30c 3b3e
00000290: 435a 393d 2aef 9939 1c21 20be 5b11 37be
000002a0: f357 17be 59bf 133e c70a 9ebd fe26 1e3e
000002b0: 7075 383d a48b b8bd 7d56 08be 0b2e b3bd
000002c0: ffb9 6abc 571c 8dbd 44c7 45bd 07ba 11be
000002d0: 4c82 21bd 5b79 9e3d edde 4ebd 16c4 27be
000002e0: bd01 8f3d 112e 743d 8e37 1e3e 9284 b93d
000002f0: b917 123e b6f5 503d 179f fbbc 4cb9 b63c
00000300: 4025 7cbd fda3 8cbd 0d6e 4ebe 25f0 dcbd
00000310: 13e2 9b3d d1bb f2ba 8f1b 5abd f749 813c
00000320: 6fa7 c3bd af60 273e 638f b7bd 4912 183d
00000330: 3829 d8bd a615 b73d 74ec 25bc 4e14 37bc
00000340: ee48 1cbe fd0a 3e3c 6e05 7d3d 929b 083e
00000350: 83a3 28bd 65a0 f9bc c938 b13d 849f 02be
00000360: 7ab7 67be ba9f ff3d 4f88 12be 3dc3 8f3d
00000370: 9ef3 acbd 533e 15be 614b 313d d78e 083d
00000380: 8631 4e3e bb5d aebd e4cd b73d c356 0abc
00000390: f8dc 3abd a9ed 24be 4366 acbd 2f5d 30be
000003a0: c1d4 1c3e 4c41 1a3e 7328 7f3c a06c 4bbd
000003b0: 27df e53d 307a 03be 89e3 133d c559 15be
000003c0: ad37 36bd fc0c 453c d64b d03c 696a d7bd
000003d0: fb2c 53bd 14f1 aebd d713 13bb 2b9a 693c
000003e0: 6773 d83d 10fd e8bd 1bec 2fbc 85b9 0cbd
000003f0: faa6 b63d ebe6 c1bd 2a57 793d fe7c 04be
