models/rym_grid_c1_s64_e2_t4_r4/conv_transformer_c1_ce_a0p5_l0_lr1e-04.pt (torch, 955105 bytes, 52 tensors)

pos_embed f4 [1, 64, 64]
0	0x3dfcbcf7	0.1234073
1	0xbd95f306	-0.07321744
2	0xbc9ac942	-0.018894795
3	0xbba8da07	-0.005152944
4	0xbd3b30f0	-0.045700967
5	0xbd99e3eb	-0.07514175
6	0xbdf5ba92	-0.11998476
7	0x3d677c02	0.056514747
8	0xbdc985bf	-0.09839963
9	0xbcd6d4c8	-0.026224509
10	0x3d827f59	0.06371946
11	0x3d95485c	0.07289192
12	0x3df41df1	0.11919773
13	0xbd9ab669	-0.07554323
14	0x3d025f54	0.031829193
15	0x3d9fd838	0.07804912
16	0xbd3b42f6	-0.045718156
17	0xbe119269	-0.14216007
18	0x3c69eec0	0.014278114
19	0xbdade9a7	-0.08491831
20	0xbc148a78	-0.009066217
21	0x3d6d5e57	0.057951298
22	0x3dc68131	0.0969261
23	0x3c2779eb	0.010221939
24	0x3e456271	0.19275834
25	0xbd32f1dc	-0.043687686
26	0xbd7c3b51	-0.061580006
27	0xbdc9c9fe	-0.0985298
28	0xbe0f6f22	-0.14007238
29	0xbdaef4de	-0.085427985
30	0x3da508d3	0.08058324
31	0xbd745fbe	-0.05966162
32	0x3e62b745	0.22140224
33	0x3e237e02	0.15966037
34	0x3db5d96e	0.08879362
35	0x3d023545	0.031789083
36	0xbd0fda06	-0.035120033
37	0xbcc032e6	-0.02346177
38	0xb83f5a95	-4.562231e-05
39	0x3e4e92d2	0.20173195
40	0xbdcc3172	-0.099703684
41	0x3cc5891e	0.024113234
42	0x3df2613e	0.11834954
43	0x3dc81d33	0.09771194
44	0xbe71ee40	-0.23626041
45	0x3dcb0d05	0.09914593
46	0x3d9d5ad9	0.076833434
47	0x3e095665	0.13411863
48	0xbe253acf	-0.16135715
49	0x3dcfd158	0.10147351
50	0xbd951784	-0.07279876
51	0xbcc79a41	-0.024365546
52	0xbdae3a31	-0.08507193
53	0x3cb8677d	0.022510285
54	0xbe040ca4	-0.12895447
55	0x3cc71ba6	0.024305176
56	0x3b8100d8	0.003936868
57	0xbda73768	-0.08164865
58	0x3e00e3bc	0.12586874
59	0x3dd01b38	0.101614416
60	0xbd0b842f	-0.034061607
61	0xbe59f9b6	-0.21286663
62	0xbd840bd4	-0.064475685
63	0xbd0d9f0d	-0.03457551
64	0xbea72e48	-0.32652497
65	0x3cabf741	0.020991923
66	0xbd13dec7	-0.03610113
67	0x3ccfdda0	0.025374234
68	0x3c9f4510	0.019442111
69	0x3dff785d	0.12474129
70	0x3d85edd7	0.06539505
71	0x3e0c0076	0.13672051
72	0x38f49f74	0.00011664527
73	0xbe00edcd	-0.12590714
74	0xbcfeacf6	-0.031088334
75	0x3e16f6a7	0.14742528
76	0xbe44f0c7	-0.19232474
77	0xbd4f86cd	-0.050665665
78	0x3e8f2d3d	0.27964202
79	0xbdc78ce7	-0.09743672
80	0xbc535e06	-0.012900835
81	0x3e0f71f5	0.14008315
82	0x3d3ebdd1	0.04656774
83	0x3e684174	0.22681218
84	0x3ca63425	0.020288536
85	0xbc8bbaac	-0.017056786
86	0xbdce0479	-0.10059447
87	0x3d91f99b	0.071276866
88	0xbe782855	-0.24234135
89	0x3c01cb9a	0.007922078
90	0x3ead5a60	0.33858013
91	0xbd2580e5	-0.040406127
92	0xbd9701a1	-0.073733576
93	0x3e22e7eb	0.15908782
94	0xbe75807c	-0.23974794
95	0xbd23687f	-0.039894577
96	0xbbbdec23	-0.005795972
97	0xbe7689a8	-0.24075949
98	0x3d8fedd1	0.07027782
99	0xbdc03a00	-0.093860626
100	0x3e42866c	0.1899659
101	0x3e541045	0.20709331
102	0xbd8a1ced	-0.067437984
103	0x3daea2c5	0.085271396
104	0x3e9739df	0.2953634
105	0xbc2109c2	-0.009828987
106	0xbc9611d7	-0.018319054
107	0x3db25dea	0.08709319
108	0x3da5160c	0.08060846
109	0xbe828dbb	-0.25498757
110	0xbe2dc66d	-0.16970225
111	0xbd192fe7	-0.0373992
112	0x3e23a7d6	0.15981993
113	0xbd32bec3	-0.043638956
114	0x3dc152de	0.09439634
115	0x3d2046db	0.039130073
116	0x3b662a6d	0.0035120503
117	0x3be45af1	0.006968849
118	0xbd6a85a3	-0.057256352
119	0x3d3197c9	0.043357644
120	0xbe6e7c1a	-0.23289528
121	0xbdc07fc9	-0.09399373
122	0xbe1e9fea	-0.1549069
123	0xbcbe95ff	-0.023264883
124	0xbd426921	-0.04746354
125	0x3cea6acd	0.02861538
126	0x3e0ee24c	0.13953513
127	0xbde9eb75	-0.11421863
128	0x3df21ecb	0.118222795
129	0x3df2b85a	0.118515685
130	0x3c335bb4	0.010947157
131	0xbe26395a	-0.16232815
132	0xbeaf5f2c	-0.34252298
133	0x3e6680aa	0.22510019
134	0x3e3067f4	0.17227155
135	0xbeadc557	-0.3393962
136	0xbe23ff79	-0.16015424
137	0x3df87755	0.12132136
138	0x3ea470a7	0.32117197
139	0xbcca8e7c	-0.024726145
140	0xbd674a7f	-0.05646753
141	0x3cecd0be	0.02890813
142	0x3e09b912	0.13449505
143	0xbe45b96c	-0.19309014
144	0xbd718230	-0.058962047
145	0x3e6a4efd	0.22881694
146	0xbd1568ed	-0.03647702
147	0x3dac22ed	0.08405099
148	0xbdf0b369	-0.1175297
149	0x3e0a6b1c	0.13517421
150	0xbcba31aa	-0.02272876
151	0xbc9b5dc9	-0.018965619
152	0x3ea02ba0	0.31283283
153	0x3d638a6b	0.055551928
154	0x3e478a56	0.19486365
155	0xbea418b9	-0.32050112
156	0xbdd157c3	-0.10221817
157	0x3dc96df5	0.09835426
158	0xbd27bf6f	-0.04095405
159	0xbd2c4f3b	-0.042067748
160	0x3df49b12	0.1194364
161	0xbce07847	-0.027401103
162	0x3be749d1	0.00705836
163	0x3e11dfc0	0.1424551
164	0xbe0d8a30	-0.13822246
165	0xbd849c91	-0.06475175
166	0xbe3c5c96	-0.18394694
167	0xbe7169a0	-0.23575449
168	0x3d541716	0.05177983
169	0xbe0145f1	-0.12624337
170	0xbe351a9e	-0.17685935
171	0x3d44553b	0.047932845
172	0x3e0c04ac	0.13673657
173	0xbce04544	-0.027376778
174	0x3e3b37df	0.18283032
175	0x3e667d94	0.22508842
176	0xbd466e50	-0.048445046
177	0x3e0736e8	0.13204539
178	0xbc445b6f	-0.01198469
179	0xbe748345	-0.238782
180	0xbd8d036a	-0.06885417
181	0x3e531fa7	0.20617543
182	0x3e5b67d4	0.21426326
183	0xbe5c8fc5	-0.21539219
184	0x3d91ed52	0.071253434
185	0xbe128ace	-0.14310762
186	0xbe66a0ad	-0.2252223
187	0x3dfc7c06	0.12328343
188	0x3dbf0a8a	0.09328182
189	0xbcc71dec	-0.02430626
190	0x3db11359	0.086462684
191	0x3e58c666	0.21169433
192	0x3dcd7f5a	0.10034056
193	0x3d410f99	0.047134016
194	0x3d47e2e2	0.048800357
195	0x3df32ea7	0.118741326
196	0x3e191f84	0.14953429
197	0x3e37db95	0.17954858
198	0x3d7188e5	0.058968443
199	0x3cc6cd2f	0.024267761
200	0xbe5b0a71	-0.21390702
201	0x3e0f0a1c	0.139687
202	0x3c37f73e	0.011228381
203	0xbea01dde	-0.31272787
204	0xbb80372c	-0.003912827
205	0xbd425b7b	-0.047450524
206	0xbea4f676	-0.32219285
207	0xbcc66e94	-0.02422265
208	0x3cfd86d0	0.030948073
209	0xbca637e6	-0.020290326
210	0x3bab9be6	0.0052370904
211	0xbd6e669a	-0.058203317
212	0xbcef55ff	-0.02921581
213	0x3d7b74d7	0.061390724
214	0x3e5d9965	0.21640547
215	0xbe0b42d4	-0.13599712
216	0x3e5aa15f	0.2135062
217	0x3e0c3960	0.13693762
218	0xbe55619f	-0.2083802
219	0xbe8cc03f	-0.27490422
220	0xbd9b4a78	-0.07582563
221	0xbe92e950	-0.28693628
222	0x3dd1e17e	0.10248087
223	0xbe457697	-0.1928352
224	0x3dfd3d53	0.12365212
225	0xbb4bcb60	-0.0031096563
226	0xbd725970	-0.059167325
227	0x3dcf30b3	0.101167105
228	0xbe27c672	-0.16384295
229	0xbd2e6b4f	-0.042582806
230	0x3cecf57c	0.02892565
231	0x3d6f76af	0.058462795
232	0x3e1a6f52	0.15081528
233	0xbdead907	-0.11467176
234	0xbe535e35	-0.20641406
235	0x3d8b41b5	0.06799642
236	0xbd1f312a	-0.038865246
237	0x3e5ce636	0.21572194
238	0x3cef01fd	0.029175753
239	0xbd9a38fe	-0.07530402
240	0xbdaaa531	-0.08332289
241	0xbe251e9b	-0.16124956
242	0xbe0720cf	-0.13196109
243	0x3ca16287	0.019700302
244	0xbd32f8ec	-0.04369442
245	0xbc38a889	-0.011270651
246	0x3e4c77fa	0.19967642
247	0xbdafd689	-0.08585841
248	0x3e093650	0.13399625
249	0x3d1b73a6	0.037952088
250	0x3eb229aa	0.34797412
251	0x3e060958	0.13089502
252	0xbd09e854	-0.03366883
253	0x3ca32bec	0.019918405
254	0x3e67f82b	0.22653262
255	0x3e1fc6dc	0.15603203

conv_stem.0.weight f4 [64, 64, 3, 3]
0	0xbdaac252	-0.08337845
1	0xbeb2b67d	-0.34904853
2	0x3c37bd7d	0.011214611
3	0xbccc0d84	-0.024908789
4	0xbdc10e79	-0.094265886
5	0xbcaa4eff	-0.020789621
6	0xbdff8b2a	-0.12477715
7	0xbd27b081	-0.04093981
8	0xbe0279cc	-0.12741774
9	0x3d189cbe	0.037258856
10	0xbe8a1d6c	-0.26975572
11	0xbe6d6594	-0.2318328
12	0xbe2110f9	-0.15729131
13	0xbe935278	-0.28773856
14	0xbdc6190a	-0.096727446
15	0xbdb49c62	-0.0881889
16	0x3e9adaec	0.3024515
17	0xbe810635	-0.25200048
18	0xbd16545e	-0.036701553
19	0xbeb2ea04	-0.34944165
20	0xbe6b7dda	-0.22997227
21	0xbe211c50	-0.15733457
22	0xbe5b30d9	-0.21405353
23	0xbe6c8000	-0.23095703
24	0x3e66489c	0.22488636
25	0x3e34686c	0.17617959
26	0x3e6b105f	0.22955464
27	0xbb86a6cf	-0.0041092406
28	0xbe366a29	-0.17813934
29	0xbe527e7b	-0.20556061
30	0xbde0b898	-0.109727085
31	0xbe244f25	-0.16045816
32	0x3d710f7d	0.05885266
33	0xbd83cdac	-0.06435713
34	0xbe66c7e7	-0.22537194
35	0x3dc1263b	0.0943112
36	0xbea0f004	-0.31433117
37	0xbd6249a8	-0.055246025
38	0x3aefc3c9	0.0018292601
39	0xbc72c5bf	-0.014817654
40	0xbd6b3d4a	-0.057431497
41	0xbe489bb2	-0.19590643
42	0x3da59f46	0.080870196
43	0x3e271b23	0.16318946
44	0x3e97c44a	0.29641944
45	0xbd6ca55a	-0.05777488
46	0x3d550200	0.05200386
47	0xbe40a571	-0.18813111
48	0x3cc8202c	0.024429403
49	0x3e21d18d	0.15802594
50	0xbc4ac7c5	-0.01237673
51	0x3e891cc3	0.26779756
52	0x3e563873	0.20919971
53	0xbcfdf253	-0.030999338
54	0xbd7f4cbd	-0.062329043
55	0x3e5c0057	0.21484505
56	0xbdc7aac0	-0.09749365
57	0xbc470804	-0.012147907
58	0xbeb335df	-0.35002038
59	0xbe379224	-0.17926842
60	0x3ddfebba	0.10933633
61	0xbe0394ce	-0.12849733
62	0x3cb3a72e	0.021930303
63	0xbeb3cc11	-0.35116628
64	0xbd827ef4	-0.06371871
65	0xbc4879e6	-0.012236094
66	0x3d90d246	0.070713565
67	0xbd367a1a	-0.04455004
68	0xbd7fc5bf	-0.062444445
69	0x3e65df56	0.22448477
70	0xbe6477fc	-0.22311395
71	0x3db514a9	0.08841831
72	0xbd81f3e2	-0.06345345
73	0xbebf71fd	-0.37391654
74	0x3c7ffd64	0.015624378
75	0xbe53044d	-0.2060711
76	0xbd4a8d58	-0.049451202
77	0xbcddc4cf	-0.027071385
78	0x3e5343ae	0.20631287
79	0xbd591c8c	-0.05300574
80	0xbd1015eb	-0.035177153
81	0xbea9c521	-0.3315821
82	0xbecbe48f	-0.39822814
83	0xbdb959b4	-0.09050313
84	0xbdfbf4bd	-0.123025395
85	0x3d913451	0.07090057
86	0x3e081228	0.13288176
87	0x3e3a18f5	0.18173583
88	0xbaf484d2	-0.0018655306
89	0x3e07fd74	0.13280278
90	0x3e2b3f6c	0.16723412
91	0xbe2fa1f9	-0.17151631
92	0xbe04fefe	-0.12987897
93	0xbc0fba31	-0.008772419
94	0x3d946818	0.07246417
95	0x3c6cb656	0.014447769
96	0x3ed52963	0.41633138
97	0x3dd08186	0.10180955
98	0x3ec17f4f	0.3779244
99	0xbda170d5	-0.07882849
100	0xbea91927	-0.33027002
101	0xbe7a34a1	-0.24434139
102	0x3d4b8ed7	0.04969677
103	0xbcee3542	-0.02907813
104	0x3da770d1	0.08175815
105	0x3d052a4b	0.032511037
106	0x3c279056	0.010227283
107	0x3d918a83	0.07106497
108	0xbdaf6893	-0.08564868
109	0x3e2a5cb8	0.16636932
110	0xbd92fcba	-0.0717711
111	0x3cedd990	0.029034406
112	0x3e49610a	0.19665924
113	0xbd9898a5	-0.0745099
114	0x3d5bffab	0.05371062
115	0x3ccb9ca9	0.024854975
116	0xbddbbad4	-0.10728994
117	0x3d63491c	0.055489644
118	0x3c167677	0.009183518
119	0xbd205faf	-0.03915375
120	0xbce83585	-0.028345833
121	0xbcf6aca0	-0.03011161
122	0x3cd317b3	0.025768137
123	0x3b740be1	0.0037238526
124	0xbce651ef	-0.02811524
125	0xbadd5e5d	-0.0016889084
126	0xbc85faa9	-0.016354876
127	0x3e3ba120	0.18323183
128	0xbe7b6aef	-0.2455251
129	0xbdb95636	-0.090496466
130	0x3d362674	0.044470266
131	0x3ca25f25	0.01982076
132	0xbc75fa6d	-0.015013319
133	0xbcc9777a	-0.024593104
134	0xbe0fc1bf	-0.14038752
135	0xbd1d4880	-0.03839922
136	0xbc9a3c0d	-0.018827463
137	0xbd85a98b	-0.065264784
138	0xbdaff730	-0.08592069
139	0xbc8f195c	-0.017468147
140	0xbde6ec2a	-0.112755135
141	0xbd376a2d	-0.04477899
142	0xbc305a61	-0.0107637355
143	0x3d26afc6	0.040694974
144	0xbd4d8c38	-0.05018255
145	0x3cc4a923	0.024006432
146	0xbc142576	-0.0090421345
147	0x3da1ce44	0.0790067
148	0xbd6cb33e	-0.057788126
149	0xbdeeb81a	-0.11656208
150	0x3c9d9685	0.019236812
151	0x3d768faf	0.06019562
152	0xbc930563	-0.017946905
153	0xbc2fa340	-0.010720074
154	0x3d1d68c5	0.038429994
155	0x3daa49ed	0.083148815
156	0x3d05da80	0.03267908
157	0x3daaa061	0.08331371
158	0xbe0befb1	-0.13665654
159	0xbd830634	-0.063976675
160	0xbc57c272	-0.013168918
161	0xbe1550c4	-0.14581591
162	0x3e245179	0.16046704
163	0xbd020a50	-0.031748116
164	0xbd92aaf4	-0.07161513
165	0x3d0cb292	0.034349985
166	0x3d90f93a	0.07078786
167	0x3d95a6cc	0.073072046
168	0x3dafd051	0.08584655
169	0x3e3fc626	0.18727931
170	0x3dc776db	0.09739467
171	0xbc4c70f2	-0.0124781
172	0x3d0947dc	0.033515796
173	0xbd9fa744	-0.07795575
174	0xbd3b9424	-0.045795575
175	0x3ca3e59e	0.020006951
176	0x3c374ad9	0.011187279
177	0x3d1901cf	0.03735524
178	0x3baba043	0.0052376105
179	0x3cbc2f39	0.022971736
180	0xbd69f7b0	-0.05712098
181	0x3c1c4737	0.009538463
182	0xbb8f28be	-0.0043688705
183	0xbc961850	-0.01832214
184	0xbc084264	-0.00831661
185	0x3d870be9	0.065940686
186	0xbe26857f	-0.16261862
187	0x3d226d49	0.039655004
188	0x3d4b7905	0.04967596
189	0xbd1c6321	-0.038180474
190	0xbb93326a	-0.004492094
191	0x3ca8533b	0.0205475
192	0x3d79f292	0.06102235
193	0x38d5b825	0.00010190931
194	0x3ccc4b79	0.024938332
195	0x3af033d8	0.0018325998
196	0x3d023e46	0.03179767
197	0xbd3e0da2	-0.04639972
198	0x3ca40274	0.020020701
199	0x3ca3d32e	0.01999816
200	0xbd935ae7	-0.071950726
201	0xbd8a6e58	-0.06759328
202	0x3d4046fc	0.046942696
203	0xbd052548	-0.032506257
204	0x3d318243	0.043337118
205	0xbd2b1485	-0.041767616
206	0x3d485ae0	0.04891479
207	0x3cb8dbfd	0.022565836
208	0xbc82b820	-0.015956938
209	0x3b484a5b	0.0030561897
210	0x3ca2bdb7	0.019865854
211	0x3d834f55	0.06411616
212	0x3c368987	0.0111411875
213	0xbcd9906a	-0.02655812
214	0x3c097019	0.008388543
215	0xbb3d9593	-0.0028928265
216	0xbd206596	-0.03915938
217	0x3e28807b	0.16455261
218	0xbdecbd6b	-0.11559566
219	0x3b2958b3	0.0025840222
220	0x3e4044aa	0.18776193
221	0xbd0b93cc	-0.034076497
222	0x3d48ded9	0.04904065
223	0xbd172e21	-0.036909226
224	0xbd8fae47	-0.07015663
225	0x3d5b4131	0.05352897
226	0x3db11065	0.08645705
227	0xbc4d0606	-0.012513643
228	0xbd0a0d57	-0.033704128
229	0xbcf49460	-0.029855907
230	0xbcad17d8	-0.021129534
231	0x3c83d182	0.016091112
232	0xbca5fa62	-0.020260993
233	0xbd4dbc87	-0.05022862
234	0x3dc87103	0.0978718
235	0xbd919d16	-0.0711004
236	0xbc6b6cd3	-0.014369207
237	0x3dfafcc4	0.122552425
238	0xbd25ad82	-0.040448673
239	0x3d49bfbf	0.04925513
240	0x3e03fb6f	0.12888883
241	0x3da7fe55	0.08202807
242	0x3d639396	0.05556067
243	0x3d986827	0.074417405
244	0xbd434eeb	-0.047682684
245	0x3dadbfa6	0.0848382
246	0x3dc191b6	0.0945162
247	0x3e1f18f8	0.15536869
248	0x3d250254	0.040285423
249	0x3cb5e793	0.02220515
250	0x3dac0711	0.08399785
251	0x3cc4b23e	0.024010774
252	0x3d998a61	0.07497097
253	0xbcbbde6c	-0.022933207
254	0xbd8b0790	-0.06788552
255	0x3a50d408	0.00079661654

conv_stem.1.weight f4 [64]
0	0x3f71fd36	0.94526994
1	0x3f88b38d	1.0679795
2	0x3f7bd1b9	0.98366886
3	0x3f7af272	0.9802619
4	0x3f8f359b	1.1188234
5	0x3f7584d1	0.95905787
6	0x3f7ed471	0.9954291
7	0x3f6ff6cc	0.9373596
8	0x3f87fd59	1.062419
9	0x3f7fd28a	0.9993063
10	0x3f7379ec	0.95107913
11	0x3f5da65a	0.8658196
12	0x3f842a3f	1.0325392
13	0x3f90c13f	1.1308974
14	0x3f874d21	1.0570413
15	0x3f75f473	0.96076125
16	0x3f80b090	1.0053883
17	0x3f6e05fb	0.92977875
18	0x3f83cded	1.0297219
19	0x3f863bbc	1.048698
20	0x3f5b6d3d	0.8571356
21	0x3f8b12e2	1.0865138
22	0x3f82027e	1.015701
23	0x3f755de9	0.9584642
24	0x3f8649dd	1.0491291
25	0x3f7a6192	0.9780513
26	0x3f8d2b04	1.1028752
27	0x3f741052	0.953374
28	0x3f6495ee	0.89291275
29	0x3f6d97ca	0.92809737
30	0x3f8c2ed5	1.0951792
31	0x3f8551d7	1.04156
32	0x3f6ed3af	0.93291754
33	0x3f818b44	1.0120625
34	0x3f872fd8	1.0561476
35	0x3f819f78	1.0126791
36	0x3f7697e4	0.96325517
37	0x3f7b5d97	0.9818968
38	0x3f8f3526	1.1188095
39	0x3f712ceb	0.94209164
40	0x3f8f117a	1.1177208
41	0x3f853f44	1.0409932
42	0x3f83294b	1.0246977
43	0x3f97731a	1.1832001
44	0x3f603bd9	0.8759132
45	0x3f739a68	0.9515748
46	0x3f8c5ad8	1.0965223
47	0x3f6f2db2	0.934291
48	0x3f6700e4	0.90235734
49	0x3f5f025d	0.8711298
50	0x3f7dbe5d	0.99118596
51	0x3f62e76b	0.88634366
52	0x3f80e061	1.0068475
53	0x3f7d263f	0.98886484
54	0x3f8bf549	1.093423
55	0x3f8b6501	1.0890199
56	0x3f8e1b3f	1.1102065
57	0x3f77ae06	0.96749914
58	0x3f71fbd7	0.945249
59	0x3f80bb67	1.0057191
60	0x3f733b27	0.95012134
61	0x3f8fddbc	1.1239543
62	0x3f743199	0.9538818
63	0x3f77ef66	0.9684967

conv_stem.1.bias f4 [64]
0	0xbe15bd44	-0.1462298
1	0xbd21239c	-0.0393406
2	0xbc7e4a1e	-0.015520601
3	0xbdec519e	-0.11539005
4	0x3c33f964	0.010984752
5	0xbd51b36a	-0.051196493
6	0x3d8a2c11	0.06746686
7	0xbd1dca0e	-0.038522772
8	0xbe156c12	-0.14592007
9	0xbba37915	-0.0049887993
10	0xbd93add6	-0.07210891
11	0xbc010f26	-0.007877147
12	0xbd82c51b	-0.06385251
13	0xbe0417e7	-0.12899743
14	0xbd24f279	-0.040270302
15	0xbdcf6271	-0.10126198
16	0xbd318eda	-0.043349124
17	0xbe8f20ac	-0.27954614
18	0xbdd13b1d	-0.10216353
19	0xbc542ae9	-0.012949684
20	0x3d04ddf3	0.03243823
21	0xbde5ae24	-0.11214855
22	0x3d7ac41e	0.06122219
23	0xbc01c45b	-0.00792035
24	0x3c933021	0.017967286
25	0xbd183e99	-0.037169073
26	0xbdf4555b	-0.11930343
27	0xbddcb42a	-0.10776551
28	0xbe18d323	-0.14924292
29	0xbca673bb	-0.020318856
30	0xbd69a34e	-0.057040505
31	0x3b8175e4	0.0039508212
32	0xbca506c8	-0.020144835
33	0xbe2e235d	-0.17005678
34	0xbe1d0028	-0.15332091
35	0x3de6f439	0.112770505
36	0xbd2058b8	-0.03914711
37	0x3d48b574	0.049001172
38	0x3d90d41b	0.07071706
39	0xbcd68cfe	-0.026190277
40	0xbda904cc	-0.08252868
41	0x3c846ca3	0.016165083
42	0xbe8dbd15	-0.2768332
43	0xbdd0e860	-0.10200572
44	0xbe1915b2	-0.14949682
45	0xbe571711	-0.21004893
46	0xbd9a9500	-0.07547951
47	0xba95437d	-0.0011387911
48	0xbeb6864e	-0.3564934
49	0xbe42c0af	-0.19018815
50	0xbdad4609	-0.08460624
51	0x3d23d135	0.039994437
52	0xbdc7cc17	-0.09755724
53	0xbd9836ff	-0.07432365
54	0xbd1da82f	-0.03849047
55	0xbe61220f	-0.21985649
56	0xbd7572dc	-0.05992399
57	0xbd872de3	-0.06600549
58	0x3b6a9c68	0.0035798792
59	0xbd78e01a	-0.060760595
60	0xbdd7f582	-0.10544874
61	0xbcae6f5a	-0.021293331
62	0xbdbe0ce4	-0.092798024
63	0x3cbe0b5a	0.023198772

conv_stem.1.running_mean f4 [64]
0	0xbef13059	-0.471072
1	0xbf1c2fe0	-0.6101055
2	0x3deee39b	0.11664506
3	0xbd23b941	-0.039971594
4	0xbf148429	-0.5801416
5	0xbe25cd33	-0.16191559
6	0xbeac049b	-0.33597264
7	0xbe663e95	-0.2248481
8	0x3e3fc786	0.18728456
9	0xbee96846	-0.45587367
10	0xbecf270d	-0.4045948
11	0x3dc2f1c6	0.09518771
12	0xbd3d12fc	-0.046160683
13	0xbf15484c	-0.5831344
14	0x3f19adf1	0.6003104
15	0xbe6739f5	-0.22580703
16	0xbeb7addf	-0.3587484
17	0x3f0ea70a	0.5572363
18	0xbeb4b91a	-0.3529747
19	0x3d0c1fa9	0.03420988
20	0xbf2a0e42	-0.66428006
21	0xbdba8ed9	-0.09109277
22	0xbe6d41ee	-0.23169681
23	0xbde789b3	-0.11305561
24	0xbee9b11b	-0.45642933
25	0xbe09dcd5	-0.13463147
26	0xbecdaa96	-0.4016921
27	0x3c3c813a	0.011505419
28	0x3f2794b7	0.65461296
29	0xbe631801	-0.22177126
30	0xbe7458ae	-0.23861954
31	0xbf69abf5	-0.9127801
32	0xbe837365	-0.25673977
33	0xbe69ca82	-0.22831157
34	0x3e49a89e	0.19693229
35	0xbefeb803	-0.49749765
36	0x3ccaab7e	0.024739977
37	0xbf428016	-0.75976694
38	0xbf435e67	-0.7631592
39	0xbf4d55ee	-0.80209243
40	0xbf416913	-0.75550956
41	0xbebf8bde	-0.37411398
42	0x3ecd0393	0.4004179
43	0xbf8e8f36	-1.1137455
44	0x3eafad42	0.34311873
45	0xbed9326d	-0.42421284
46	0xbe833300	-0.25624847
47	0xbe8f2e34	-0.27964938
48	0x3dd7c4ea	0.10535605
49	0x3f169e25	0.5883506
50	0xbebc08a2	-0.36725336
51	0xbeaeb737	-0.34124157
52	0xbdc5bf80	-0.09655666
53	0xbf0f33b6	-0.5593828
54	0x3ecdcde7	0.40196154
55	0x3e0561d6	0.13025603
56	0xbe126ae6	-0.14298591
57	0x3dd8251a	0.105539516
58	0xbe61a887	-0.22036944
59	0x3f0228c6	0.50843465
60	0xbea26675	-0.31718794
61	0xbf0df32b	-0.5544917
62	0x3b38762e	0.0028146612
63	0x3eb26a35	0.34846655

conv_stem.1.running_var f4 [64]
0	0x3e93e214	0.2888342
1	0x3ea2b8e4	0.31781685
2	0x3e964a39	0.29353502
3	0x3e9a4d5a	0.3013714
4	0x3ed2626e	0.4109072
5	0x3e51d759	0.20492305
6	0x3eea0fe6	0.45715255
7	0x3e951289	0.29115704
8	0x3ee038dd	0.43793383
9	0x3ec0c811	0.3765264
10	0x3e6fb91f	0.23410462
11	0x3ed6bf30	0.4194274
12	0x3eaf1c2b	0.34201178
13	0x3f6b53b1	0.9192458
14	0x3e935b53	0.28780612
15	0x3ea1cf9b	0.31603703
16	0x3e8cd5f6	0.2750699
17	0x3eb6f703	0.3573533
18	0x3ee589da	0.44831735
19	0x3e54387d	0.20724674
20	0x3ea73df3	0.3266445
21	0x3e83e6a2	0.25761896
22	0x3e9d5c52	0.30734497
23	0x3ea66703	0.32500467
24	0x3ebdba88	0.37056375
25	0x3eb325e8	0.34989858
26	0x3f34b87a	0.7059399
27	0x3e994fe8	0.29943776
28	0x3ec3ff78	0.38280845
29	0x3e59f941	0.21286489
30	0x3e8e760d	0.2782444
31	0x3eea1382	0.45718008
32	0x3ebecab6	0.3726403
33	0x3edaf3db	0.42764172
34	0x3e6d08ca	0.23147884
35	0x3e9ff774	0.3124348
36	0x3eb3b5bc	0.3509959
37	0x3eb89fdd	0.36059466
38	0x3e96b234	0.29432833
39	0x3ea1f86c	0.31634843
40	0x3e41c019	0.18920936
41	0x3e8e3a93	0.27779064
42	0x3e9692b7	0.2940881
43	0x3ef1314e	0.4710793
44	0x3ea330a6	0.31873053
45	0x3ec39e7b	0.38206849
46	0x3eafd1a5	0.34339634
47	0x3f41ea13	0.75747794
48	0x3ebe2822	0.37139994
49	0x3ea25016	0.31701726
50	0x3edbc741	0.42925456
51	0x3ea3e9fc	0.32014453
52	0x3e7b5e1d	0.2454762
53	0x3ea371fe	0.31922907
54	0x3ebb51ce	0.3658585
55	0x3e4f7bc9	0.20262064
56	0x3e9cb362	0.30605608
57	0x3e811b50	0.2521615
58	0x3e9f4af4	0.31111872
59	0x3e87097f	0.26374432
60	0x3e9b188b	0.30292162
61	0x3eb738c1	0.35785487
62	0x3e90e1b1	0.2829719
63	0x3e688164	0.22705609

conv_stem.3.weight f4 [64, 64, 3, 3]
0	0x3bb4cf6a	0.0055178897
1	0x3d14a54b	0.03629045
2	0x3c9c439a	0.019075204
3	0x3cc9cba1	0.02463323
4	0x3ae5c2ba	0.0017529347
5	0x3bcc98e3	0.0062438115
6	0x3de235d4	0.11045423
7	0x3ba64873	0.0050745546
8	0x3c825497	0.015909476
9	0x3d813728	0.06309348
10	0x3d66d1b7	0.056352343
11	0x3dc0b50b	0.09409531
12	0x3ce4a94e	0.027912762
13	0x3caaf388	0.020868078
14	0x3dc8f74f	0.09812795
15	0xbd4231d5	-0.047410805
16	0xbbe816fa	-0.007082817
17	0x3d6dde26	0.058073185
18	0xbd016538	-0.03159067
19	0xbd8d7a7f	-0.0690813
20	0x3d70a967	0.058755305
21	0x3bd6eeb5	0.006559218
22	0xbd4f10bd	-0.050553072
23	0x3d2bc053	0.04193146
24	0xbd86dd0c	-0.0658513
25	0x3dbca700	0.0921154
26	0x3d5dbabf	0.054133173
27	0xbe2ebbbf	-0.17063807
28	0x3d88b523	0.06675174
29	0x3db9a57f	0.09064769
30	0xbd38f54e	-0.045155816
31	0x3bb3985c	0.005480809
32	0x3d9bfa09	0.0761605
33	0xbe05f440	-0.13081455
34	0xbd9fb3e9	-0.07797987
35	0x3d25ee3e	0.04051041
36	0x3e025251	0.12726714
37	0x3e0c08bd	0.13675208
38	0x3dc17d6a	0.09447749
39	0xbd8ccc4b	-0.06874903
40	0xbb00bcdc	-0.001964382
41	0xbd25eb23	-0.040507447
42	0xbcafefcf	-0.021476654
43	0xbd091ee1	-0.033476714
44	0xbd8dc1b7	-0.06921714
45	0xbd3a5fa9	-0.045501385
46	0xbdfe6ae4	-0.124227315
47	0x3c9e66f2	0.019336198
48	0xbbea3cad	-0.0071483464
49	0x3cb9e70b	0.022693178
50	0x3d559d07	0.052151706
51	0x3de67730	0.11253202
52	0xbe01ddd9	-0.12682284
53	0xbd95f0f5	-0.073213495
54	0x3dfb3745	0.12266401
55	0x3cc8e211	0.02452186
56	0x3d840c8f	0.06447708
57	0x3de880f8	0.11352724
58	0x3d7abbba	0.061214186
59	0xbd743f30	-0.059630573
60	0xbc0d72d9	-0.008633339
61	0x3d37c451	0.044864956
62	0x3d13da3a	0.03609679
63	0xbd2ce094	-0.042206362
64	0x3e259808	0.16171277
65	0x3d54983c	0.051902995
66	0x3dcb2109	0.0991841
67	0x3de0e6f3	0.1098155
68	0x3da9b6f3	0.08286848
69	0xbc7447ae	-0.014909668
70	0x3af986ad	0.0019037329
71	0x3daf6083	0.0856333
72	0xbdbfb233	-0.09360161
73	0x3d85c9f4	0.0653266
74	0x3d8527b3	0.06501713
75	0xbd76e0e4	-0.060273066
76	0xbd992c72	-0.074791804
77	0xbd3c0ba7	-0.04590955
78	0x3d587dbc	0.052854285
79	0x3ce51357	0.027963324
80	0x3d2ae86c	0.04172556
81	0x3cd9863e	0.02655327
82	0xbcad8167	-0.021179868
83	0x3c73f066	0.014888858
84	0x3d43f9d3	0.047845673
85	0x3d9e7828	0.07737762
86	0x3ce77153	0.02825228
87	0x3d5a5990	0.05330807
88	0x3d0e8314	0.034792975
89	0x3c89480e	0.016757991
90	0x3d1dc18e	0.038514666
91	0x3d9e11b5	0.07718221
92	0xbd722193	-0.05911405
93	0xbd7a988a	-0.06118063
94	0xbd435775	-0.047690827
95	0xbd9d92a4	-0.07693985
96	0xbd53f766	-0.05174961
97	0x3db05f98	0.08611983
98	0xbd33fafc	-0.04394053
99	0x3d1f98c3	0.038964044
100	0xbd9b6c24	-0.075889856
101	0xbe28102e	-0.16412422
102	0xbd22d2a7	-0.039751675
103	0x3d54f818	0.051994413
104	0x3e0d3e50	0.13793302
105	0xbd360a22	-0.044443257
106	0x3ce0d279	0.027444111
107	0xbdd6e8c2	-0.10493614
108	0xbc18e94e	-0.009332968
109	0xbe42b045	-0.19012554
110	0x3e070bd4	0.13188106
111	0xbc9b9de3	-0.018996185
112	0x3e47e51c	0.19520992
113	0xbd89ee42	-0.06734897
114	0x3d9e7e55	0.0773894
115	0x3d98a6c2	0.074536815
116	0x3ca769c0	0.020436168
117	0x3db69786	0.089156196
118	0x3c4f6dcf	0.012660458
119	0x3885b777	6.376107e-05
120	0xbdb6ae71	-0.08919991
121	0x3d761643	0.060079824
122	0xbd879599	-0.0662033
123	0xbe19f659	-0.1503538
124	0x3bbb2c9c	0.005712105
125	0xbcba29e4	-0.022725053
126	0x3d4be9db	0.04978357
127	0xbd358116	-0.04431256
128	0xbcf98d88	-0.030462995
129	0x3d012897	0.03153285
130	0x3b3b5687	0.002858551
131	0xbd4bc2b0	-0.049746215
132	0xbced8d47	-0.02899803
133	0x3d048cbf	0.03236079
134	0xbd9e3b29	-0.07726128
135	0xbd86915b	-0.06570693
136	0xbdc1b34e	-0.09458028
137	0x3acfa2ea	0.0015841399
138	0x3b82b69f	0.0039890553
139	0xbd13cbc5	-0.036083
140	0xbbfb72d4	-0.0076736007
141	0xbc018e56	-0.007907471
142	0x3b3a6e16	0.0028446964
143	0xbc47c068	-0.012191869
144	0x3d0a8e74	0.03382726
145	0xbb964bb3	-0.004586661
146	0xbce51c22	-0.027967516
147	0xbd0750ab	-0.033035915
148	0xbda40d49	-0.080103464
149	0xbdc619e8	-0.0967291
150	0x3d79643f	0.060886618
151	0x3aaf62fd	0.0013380941
152	0xbca9b37c	-0.020715468
153	0xbcf5288b	-0.029926559
154	0xbe79e53d	-0.24403854
155	0x3defce4b	0.11709269
156	0x3ce6cce8	0.028173879
157	0xbd30d077	-0.043167558
158	0xbe066d4c	-0.13127631
159	0xbb1d7b04	-0.0024029622
160	0xbcbd1dfd	-0.023085589
161	0xbd3e3d41	-0.046445135
162	0x3b829cab	0.0039859614
163	0x3d982ebb	0.07430788
164	0x3c1c8dfb	0.009555335
165	0xbe3bff01	-0.18358995
166	0xbcf1a3be	-0.029497024
167	0x3d898677	0.067151
168	0xbda0e05d	-0.07855294
169	0xbcbce171	-0.023056718
170	0xbd50205f	-0.05081212
171	0xbc5b0486	-0.013367778
172	0xbe0470dd	-0.12933679
173	0xbd5c1b36	-0.053736888
174	0xbc083add	-0.008314815
175	0xbd87d3c5	-0.06632189
176	0xbda40cc0	-0.08010244
177	0x3dfc6347	0.12323623
178	0x3d3147b4	0.043281272
179	0xbc22bc1c	-0.009932544
180	0xbdc14ee2	-0.09438874
181	0x3e0a125e	0.13483569
182	0x3ca21801	0.019786837
183	0x3c04a96e	0.008097036
184	0xbd001d14	-0.03127773
185	0xbd0d03ae	-0.034427337
186	0xbd28b4ae	-0.041187935
187	0xbdcc1fe5	-0.09967021
188	0x3d598c83	0.053112518
189	0x3d2c2a86	0.04203274
190	0x3cbb2bbe	0.022848006
191	0xbe3cdd93	-0.18443899
192	0x3b15b9fa	0.0022846446
193	0xbb4b36c2	-0.003100798
194	0x3d985e98	0.07439917
195	0x3caac47f	0.02084565
196	0x3cfc2de5	0.030783603
197	0x39b0dc54	0.00033733493
198	0x3dd1b73f	0.102400295
199	0x3dd91ac6	0.1060081
200	0x3c8a9fb7	0.016921861
201	0x3c87f96a	0.016598422
202	0x3ce24072	0.02761862
203	0x3e0429e2	0.12906602
204	0x3dd80af1	0.10548962
205	0x3d6f35f5	0.058401067
206	0x3da3dba2	0.08000876
207	0xbbb8b380	-0.0056366324
208	0xbd0c2697	-0.03421649
209	0xbdd6d767	-0.104903035
210	0xbcd5c731	-0.026095958
211	0x3cb9649d	0.022630984
212	0x3db6da2a	0.0892833
213	0xbdb29296	-0.08719365
214	0x3ba788cd	0.0051127435
215	0x3bb01ec0	0.0053747594
216	0x3cfd6b5c	0.030934982
217	0x3de4b6a3	0.11167648
218	0xbca4bf94	-0.020110883
219	0xbe27409a	-0.16333237
220	0x3ded0d39	0.11574788
221	0x3b99ea6b	0.0046971343
222	0x3c37be1f	0.011214762
223	0xbdf9b1f3	-0.12192144
224	0xbe0a8113	-0.135258
225	0xbd1efd03	-0.03881551
226	0x3c5e446c	0.013566118
227	0xbd1980ab	-0.037476223
228	0x3d693b02	0.05694104
229	0x3d68826f	0.056765016
230	0x3da27da2	0.07934119
231	0x3e04da5c	0.12973922
232	0x3dad480f	0.0846101
233	0x3d38d948	0.04512909
234	0x3cb4dc54	0.022077717
235	0xbdcc8b04	-0.099874526
236	0x3b9232b4	0.0044616107
237	0x3b99024a	0.0046694623
238	0xbda5a748	-0.08088547
239	0xbd0ae4d3	-0.03390963
240	0x3dd4dda7	0.10393839
241	0xbd0e5b5b	-0.034755092
242	0x3d6fd437	0.058551993
243	0xbda9da56	-0.082935974
244	0x3c214dec	0.009845238
245	0xbd90e46d	-0.07074819
246	0xbd5a53c7	-0.053302553
247	0x3dacb122	0.08432223
248	0x3d77766e	0.060415678
249	0x3d8cde8c	0.06878385
250	0xbcfd1d50	-0.030897766
251	0xbd00a09f	-0.03140318
252	0xbe060ccc	-0.13090819
253	0x3d17b0f8	0.037034005
254	0xbd0fdcb0	-0.035122573
255	0xbc608773	-0.013704169

conv_stem.4.weight f4 [64]
0	0x3f70a08d	0.9399498
1	0x3f6cf552	0.9256183
2	0x3f7ba2c8	0.9829526
3	0x3f7cae03	0.9870302
4	0x3f728f28	0.9474969
5	0x3f7c98be	0.98670566
6	0x3f77327e	0.9656142
7	0x3f766b2b	0.96257275
8	0x3f7c0867	0.9845032
9	0x3f7c48a7	0.9854836
10	0x3f7e4a9d	0.993326
11	0x3f7cef87	0.9880299
12	0x3f81fe56	1.0155742
13	0x3f773d50	0.9657793
14	0x3f7be08b	0.983895
15	0x3f7fc344	0.99907327
16	0x3f7c85d5	0.9864171
17	0x3f801c26	1.000859
18	0x3f7ab8dd	0.9793833
19	0x3f7aedc6	0.98019063
20	0x3f7869ed	0.9703663
21	0x3f7fda79	0.9994274
22	0x3f7cbbdd	0.98724157
23	0x3f6c48d4	0.92298627
24	0x3f74f192	0.9568111
25	0x3f76095d	0.9610804
26	0x3f81591b	1.0105318
27	0x3f8262da	1.0186417
28	0x3f783943	0.96962374
29	0x3f7d444d	0.98932344
30	0x3f803b2f	1.0018061
31	0x3f6a0318	0.9141097
32	0x3f7c3ab6	0.98527086
33	0x3f7aa12f	0.97902197
34	0x3f7c9936	0.9867128
35	0x3f81883e	1.0119703
36	0x3f7dfc17	0.99212784
37	0x3f7f5f58	0.9975486
38	0x3f7e3c77	0.9931101
39	0x3f7b0457	0.980535
40	0x3f7f3d99	0.99703366
41	0x3f80027f	1.0000762
42	0x3f7fbd21	0.9989796
43	0x3f76d8bb	0.96424454
44	0x3f7e5466	0.9934753
45	0x3f81039b	1.0079225
46	0x3f7b19d3	0.9808628
47	0x3f7a7c0c	0.9784553
48	0x3f7a881d	0.9786394
49	0x3f79e581	0.9761582
50	0x3f7ac0b5	0.979503
51	0x3f8062a8	1.0030107
52	0x3f7dc679	0.9913097
53	0x3f7cdf9b	0.98778695
54	0x3f78211b	0.96925515
55	0x3f7b4e72	0.98166573
56	0x3f78f06a	0.9724184
57	0x3f7fff63	0.99999064
58	0x3f7a749f	0.978342
59	0x3f7fc131	0.9990416
60	0x3f7f5b4c	0.9974868
61	0x3f7c2da4	0.9850714
62	0x3f794dff	0.9738464
63	0x3f804593	1.0021232

conv_stem.4.bias f4 [64]
0	0xbe061216	-0.13092837
1	0xbd790f9b	-0.0608059
2	0xbcf92bd3	-0.030416405
3	0xbd607695	-0.05480059
4	0xbdcf6cf4	-0.10128203
5	0xbd6db888	-0.05803731
6	0xbd89d9e6	-0.06731014
7	0xbdba00e7	-0.09082203
8	0xbdc42705	-0.09577755
9	0xbd98f394	-0.07468334
10	0xbd8cdadc	-0.068776816
11	0xbd9bcf6e	-0.076079234
12	0xbe03e64d	-0.12880822
13	0xbdf4492d	-0.1192802
14	0xbd8ab8e2	-0.06773545
15	0xbe068194	-0.13135368
16	0xbd8ed32f	-0.06973874
17	0xbd66995a	-0.05629859
18	0xbdde7aa9	-0.10863239
19	0xbd25e552	-0.0405019
20	0xbcae89c0	-0.021305919
21	0xbd1db0d6	-0.038498722
22	0xbd0c6d8c	-0.03428416
23	0xbde0dad8	-0.10979241
24	0xbda43421	-0.08017755
25	0xbe1b3bc5	-0.15159519
26	0xbd9a742e	-0.07541691
27	0xbd93639b	-0.071967326
28	0xbdcad29e	-0.09903453
29	0xbd5d684c	-0.054054543
30	0xbda5d63a	-0.08097501
31	0xbdcc2a29	-0.09968979
32	0xbd7e933d	-0.062152136
33	0xbd7ab811	-0.061210696
34	0xbd1a9bd4	-0.037746266
35	0xbd0e97ba	-0.034812666
36	0xbd93cad8	-0.07216424
37	0xbd894ff1	-0.06704701
38	0xbdf60b14	-0.12013832
39	0xbdbb4def	-0.09145724
40	0xbd0c039d	-0.034183133
41	0xbdc83441	-0.09775592
42	0xbdd10d7c	-0.1020765
43	0xbdc7fc32	-0.09764899
44	0xbd921050	-0.071320176
45	0xbd2517c5	-0.04030587
46	0xbdaea72a	-0.08527978
47	0xbdae9b1c	-0.085256785
48	0xbd7215c0	-0.059102774
49	0xbdd49d3c	-0.103815526
50	0xbdaa9090	-0.08328354
51	0xbca3addc	-0.019980364
52	0xbde006f9	-0.1093883
53	0xbe0a2060	-0.13488913
54	0xbc894960	-0.01675862
55	0xbd7a5c8c	-0.061123416
56	0xbdd52928	-0.104082406
57	0xbdcb41f8	-0.09924692
58	0xbd993e94	-0.07482639
59	0xbd6a4e2a	-0.05720345
60	0xbd6caf7c	-0.057784542
61	0xbd760f4e	-0.06007319
62	0xbd7389fc	-0.059457764
63	0xbcacfa89	-0.021115558

conv_stem.4.running_mean f4 [64]
0	0x3f4abcde	0.7919444
1	0x3f27e78e	0.655877
2	0x3f123604	0.5711367
3	0x3ef39a38	0.47578597
4	0xbeddfccb	-0.43356928
5	0x3e7608ae	0.24026749
6	0x3f325a5d	0.69669133
7	0x3e6081f4	0.21924573
8	0x4019d098	2.4033566
9	0x3d84abec	0.06478104
10	0xbe094118	-0.13403738
11	0xbfa63513	-1.2984947
12	0xbece4f7a	-0.4029501
13	0xbf075751	-0.5286761
14	0x3ef75aa4	0.4831134
15	0x3e9e962e	0.30973953
16	0xbf926c57	-1.1439313
17	0xbf24c172	-0.64357674
18	0x3f5f885d	0.8731745
19	0xbeac6f1c	-0.3367852
20	0xbf93d8c5	-1.1550528
21	0xbeaa6b28	-0.3328488
22	0xbd124994	-0.0357147
23	0xbeab35d7	-0.33439514
24	0x3d9553a2	0.07291342
25	0x3e5fa6a5	0.21840914
26	0x3f3d2a45	0.73892623
27	0x3f84a6a6	1.0363357
28	0x3f7bf7a1	0.98424727
29	0x3d8f7e0f	0.07006466
30	0x3ec3574f	0.3815255
31	0x3f5a74d7	0.85334533
32	0x3e23150f	0.15926002
33	0xbedc6ab4	-0.43050158
34	0x3e2118c2	0.157321
35	0x3ece72dc	0.40322006
36	0x3e89366e	0.2679934
37	0xbeb867d6	-0.3601672
38	0x3da2dd3c	0.07952353
39	0x3e13135b	0.14362852
40	0xbe5b1d88	-0.21397984
41	0x3ee913a2	0.4552279
42	0x3eb11913	0.34589443
43	0x3f022896	0.5084318
44	0x3dd833f3	0.105567835
45	0x3f08cb1a	0.5343491
46	0x3db79124	0.0896323
47	0x3c56c126	0.013107574
48	0x3fad34c3	1.3531727
49	0xbf6592e4	-0.8967726
50	0xbe5d2a17	-0.21598087
51	0xbf65a71c	-0.89708114
52	0x3e5f9847	0.21835433
53	0xbe901b76	-0.2814595
54	0x3f476c49	0.77899605
55	0xbebde4cd	-0.37088624
56	0x3d1f4a8c	0.038889453
57	0xbe1fad05	-0.15593345
58	0x3f81d240	1.0142288
59	0xbfe9b60d	-1.8258682
60	0xbef6121e	-0.48060697
61	0x3edcf377	0.431545
62	0xbf36cf5f	-0.71410173
63	0x3efb1ff7	0.49047825

conv_stem.4.running_var f4 [64]
0	0x3f924f5e	1.1430471
1	0x3f87cb16	1.0608852
2	0x3f82c3a7	1.0215958
3	0x3f8f6fb3	1.1205963
4	0x3f96126a	1.172437
5	0x3f8bf8a4	1.0935254
6	0x3f92babd	1.1463238
7	0x3f58ee1a	0.84738314
8	0x3fc729ab	1.5559591
9	0x3fbaf6ec	1.4606605
10	0x3f9ab0a6	1.2085159
11	0x3f81244e	1.0089204
12	0x3fd4d5b1	1.6627713
13	0x3f6e3512	0.9304973
14	0x3f868113	1.050814
15	0x3f88fd49	1.0702296
16	0x3fbc201b	1.4697298
17	0x3fb3ae6c	1.4037604
18	0x3fb18582	1.3868868
19	0x3f8f913a	1.1216195
20	0x3fac1c5d	1.3446156
21	0x3f8b0aaf	1.0862635
22	0x3f8400a3	1.0312694
23	0x3f81aad9	1.0130264
24	0x3f6dce1e	0.92892635
25	0x3f86ebb4	1.0540681
26	0x3fa4284f	1.2824801
27	0x3f8c7697	1.0973691
28	0x3f9260b5	1.1435763
29	0x3f887acf	1.0662478
30	0x3f65d605	0.8977969
31	0x3fa970c4	1.3237538
32	0x3faf5854	1.3698831
33	0x3f98d250	1.1939182
34	0x3fb680e5	1.4258085
35	0x3f92f8b5	1.1482149
36	0x3f983dfa	1.1893914
37	0x3f94a25d	1.1612049
38	0x3f8c0db7	1.0941685
39	0x3f925283	1.143143
40	0x3f853300	1.0406189
41	0x3f9d4a34	1.228827
42	0x3f99c1fd	1.2012326
43	0x3f891dc1	1.0712205
44	0x3f6492ed	0.8928669
45	0x3fa96a12	1.3235495
46	0x3f8ada20	1.0847816
47	0x3f75c153	0.95998114
48	0x3f9f7a52	1.2459204
49	0x3f8b466e	1.0880868
50	0x3f7fc3b1	0.99907976
51	0x3fce7d28	1.6131945
52	0x3fc01b08	1.5008249
53	0x3fa58300	1.2930603
54	0x3f75ea0f	0.9606027
55	0x3f6ed6fd	0.93296796
56	0x3f707169	0.9392305
57	0x3f9bb6ff	1.2165221
58	0x3f79266d	0.9732426
59	0x3f9c6d88	1.2220926
60	0x3fa794a3	1.3092235
61	0x3f9b6614	1.2140527
62	0x3f683d1d	0.9071825
63	0x3f869077	1.0512837

proj.weight f4 [64, 64, 1, 1]
0	0xbdc501bb	-0.09619471
1	0x3db8b83b	0.09019514
2	0x3df9474a	0.121718004
3	0xbd0b8807	-0.034065273
4	0x3d90d038	0.070709646
5	0xbe4eb7fa	-0.20187369
6	0x3d443fab	0.04791228
7	0x3c8b0ca2	0.016973797
8	0x3e6519cf	0.22373126
9	0xbdc2751c	-0.09494993
10	0x3b5b71ab	0.00334845
11	0xbdde39d2	-0.10850872
12	0x3d53f428	0.051746517
13	0xbc490488	-0.012269147
14	0x3d87cde2	0.06631066
15	0x3c60460f	0.013688578
16	0x3e1adcb2	0.15123251
17	0x3dc78cd0	0.09743655
18	0x3ce0703e	0.027397271
19	0xbc534a9f	-0.012896209
20	0x3ce9876c	0.028506957
21	0x3d644a0f	0.05573469
22	0xbe259f9b	-0.16174166
23	0x3ddd19d6	0.107959434
24	0x3dafaa8a	0.085774496
25	0x3d89307c	0.06698701
26	0xbe17bd55	-0.14818318
27	0xbd473159	-0.048631046
28	0x3e25a437	0.16175924
29	0x3d67d996	0.05660399
30	0xbd870dd8	-0.06594437
31	0xbde9d73d	-0.114180066
32	0x3de89ce4	0.113580495
33	0x3d7008b3	0.058602046
34	0xbd71487e	-0.058907025
35	0x3dc76284	0.09735587
36	0xbda8a907	-0.082353644
37	0x3d4dd987	0.05025628
38	0xbe473469	-0.19453587
39	0x3d5a4e22	0.05329717
40	0xbd0ebd5f	-0.034848567
41	0x3cb2bd71	0.021818848
42	0xbdc5b32c	-0.09653315
43	0xbc0aee5a	-0.008479679
44	0xbd16cfee	-0.03681939
45	0xbde1425c	-0.10998985
46	0x3d8505b4	0.064952284
47	0xbd41fd3c	-0.047360644
48	0x3e2dc461	0.16969444
49	0x3d3282b5	0.043581683
50	0x3db66e2b	0.089077316
51	0xbd21465f	-0.03937375
52	0xbc7b9b45	-0.015356843
53	0xbc816cf1	-0.015799018
54	0xbc4dcbbd	-0.012560782
55	0x3c86fa9e	0.016476925
56	0xbd142ab9	-0.036173556
57	0xbd273bc9	-0.0408285
58	0xbde06c56	-0.109581634
59	0x3df743fa	0.120735124
60	0xbe41357d	-0.1886806
61	0x3d1ffe1f	0.039060708
62	0x3e07a232	0.13245466
63	0x3de1f249	0.1103254
64	0x3dba1383	0.09085753
65	0xbd8719e6	-0.065967366
66	0x3c910427	0.017702175
67	0xbd77ca6c	-0.06049578
68	0xbdcff46e	-0.10154043
69	0x3e35e15d	0.1776175
70	0x3df39a32	0.11894645
71	0xbc52689b	-0.012842323
72	0xbd2b3281	-0.04179621
73	0xbd9ea7b5	-0.07746831
74	0x3c827055	0.015922705
75	0x3dc43556	0.095804855
76	0xbc9c9f35	-0.019118885
77	0x3bd5cde9	0.0065247905
78	0xbda72b58	-0.08162564
79	0x3d49b144	0.04924132
80	0xbb304a19	-0.0026899634
81	0xbb70728d	-0.0036689371
82	0x3e26d431	0.16291882
83	0x3d024adc	0.031809673
84	0x3cc3ffac	0.023925625
85	0x3d22c587	0.039739158
86	0x3e186d24	0.14885384
87	0x3e2830f2	0.16424921
88	0x3d9fbd2b	0.07799753
89	0xbd92cffe	-0.071685776
90	0xbd650f07	-0.055922534
91	0xbc1e9569	-0.009679177
92	0xbd01cb38	-0.031687945
93	0xbd265b5e	-0.04061448
94	0xbdbb7636	-0.09153406
95	0x3d8b62c6	0.06805949
96	0xbbc847d5	-0.0061120787
97	0xbd4ab676	-0.049490415
98	0x3dc14f26	0.094389245
99	0xbd20023a	-0.039064623
100	0xbdeeffb9	-0.11669869
101	0x3d87ac5a	0.0662467
102	0xbd0065a5	-0.031346936
103	0xbb914a60	-0.004433915
104	0x3df93454	0.12168184
105	0x3d886ab3	0.06660976
106	0x3cce2458	0.025163814
107	0x3c0c525c	0.008564558
108	0xbe517a9a	-0.20456925
109	0x3d975ea9	0.07391102
110	0xbca8e335	-0.020616153
111	0xbd418499	-0.047245596
112	0x3d4f7f88	0.050658733
113	0xbdeffd43	-0.11718228
114	0xbcda14c9	-0.02662124
115	0x3e1ddd4a	0.15416446
116	0x3d9b0edc	0.075711936
117	0xbddf76dc	-0.109113425
118	0xbd7d4556	-0.061833702
119	0x3dca58e6	0.09880237
120	0xbdbc3814	-0.091903836
121	0x3d0a2bdf	0.033733245
122	0xbdd2f910	-0.10301411
123	0x3c0d4800	0.008623123
124	0x3c9a2f10	0.01882127
125	0x3da9e9da	0.08296557
126	0x3dbb8a03	0.09157183
127	0xbdf772c4	-0.12082437
128	0xbd63e3a3	-0.055637013
129	0xbcbe735a	-0.023248363
130	0x3ce8de77	0.028426392
131	0x3d89f8de	0.06736921
132	0xbdfbe78c	-0.123000234
133	0x3d87391a	0.06602688
134	0xb87d7b9e	-6.0435028e-05
135	0xbd492c7b	-0.049114686
136	0x3d29ecc1	0.04148555
137	0xbd9c1683	-0.07621481
138	0x3d1bcbd7	0.038036194
139	0xbdd14484	-0.102181464
140	0x3d9ee4a8	0.077584565
141	0x3e0f195e	0.1397452
142	0xbcff5ba7	-0.031171633
143	0x3e167d73	0.14696293
144	0xbe21f5f0	-0.15816474
145	0xbde24366	-0.110480115
146	0xbdfa2768	-0.122145474
147	0xbd4385c5	-0.047734994
148	0xbd1dbb35	-0.038508613
149	0x3defeda9	0.11715252
150	0x3cca9b7a	0.02473234
151	0x3d0d4e4c	0.034498498
152	0x3de79222	0.113071695
153	0x3ddb0afa	0.10695453
154	0xbd3de02b	-0.04635636
155	0xbb7ee10d	-0.0038891465
156	0x3d81b7fb	0.063339196
157	0xbda34c70	-0.07973564
158	0x3d3fe770	0.046851575
159	0x3e19cea7	0.15020238
160	0x3df276de	0.11839078
161	0x3e162a63	0.14664607
162	0xbd842c7c	-0.06453797
163	0xbdc552f5	-0.096349634
164	0x3e109f12	0.1412318
165	0xbde34475	-0.110970415
166	0x3df58f71	0.1199025
167	0x3d9ecf23	0.07754352
168	0x3d8068fa	0.06270023
169	0xbe036557	-0.12831627
170	0x3d8f674a	0.07002123
171	0xbdb6a54c	-0.089182466
172	0xbda24cfb	-0.07924839
173	0xbdb2c0a4	-0.087281495
174	0xbd534a75	-0.05158468
175	0x3d90673b	0.0705094
176	0xbd3b0a1c	-0.045663938
177	0x3e01804c	0.12646598
178	0xbcacbee2	-0.021087114
179	0x3d9bd275	0.07608501
180	0xbde80dfd	-0.11330793
181	0x3d2145c9	0.039373193
182	0x3c3b2b05	0.011423831
183	0x3bbb539f	0.0057167555
184	0xbe16b8b6	-0.14718899
185	0xbcb912d0	-0.022591978
186	0xbcdde36c	-0.027085982
187	0xbdeae644	-0.11469701
188	0x3d8e4495	0.06946675
189	0x3d26399c	0.040582284
190	0x3c29a07e	0.010353206
191	0x3de0babe	0.10973118
192	0xbd37f1ce	-0.044908337
193	0x3dbe54bf	0.09293508
194	0x3a995519	0.0011698335
195	0x3d847476	0.06467526
196	0x3cda9ad0	0.026685148
197	0x3dafccf1	0.08584011
198	0xbc967b74	-0.018369414
199	0x3d80f5ab	0.062968574
200	0x3d5be9c3	0.05368973
201	0xbd72046f	-0.05908626
202	0x3d84f79f	0.064925425
203	0xbde75eee	-0.11297403
204	0xbd46e9ba	-0.048562743
205	0xbdf73668	-0.12070924
206	0x3e14b6fb	0.14522927
207	0xbde88208	-0.113529265
208	0x3da7c2f8	0.08191484
209	0x3da7b6b0	0.08189142
210	0xbd43ae5b	-0.0477737
211	0x3d77ec9c	0.060528383
212	0x3d4366b1	0.047705356
213	0x3d4a0226	0.049318455
214	0xbd839953	-0.06425729
215	0x3bfef49b	0.007780624
216	0x3e0fa200	0.14026642
217	0x3d384cb1	0.044995014
218	0x3d2cd0d2	0.042191334
219	0xbd3664a0	-0.044529557
220	0xbdcf5cda	-0.10125132
221	0xbb9ad013	-0.0047245114
222	0xbdd21e70	-0.10259712
223	0xbdbf96a0	-0.09354901
224	0xbdacca0e	-0.084369764
225	0x3d9324cf	0.07184755
226	0x3d160bf2	0.036632486
227	0x3d863995	0.06553952
228	0x3e126023	0.14294486
229	0x3d853416	0.06504075
230	0x3cbb34cc	0.022852324
231	0xbd679d20	-0.05654633
232	0x3d505155	0.050858814
233	0x3e21692b	0.15762775
234	0xbd65f120	-0.056138158
235	0xbe0e0888	-0.13870442
236	0x3d5f3cac	0.05450122
237	0xbdd92624	-0.10602978
238	0xbe11deca	-0.14245144
239	0x3d05a37a	0.032626607
240	0xbd888684	-0.06666282
241	0xbe0d796e	-0.13815853
242	0x3d63f038	0.055649012
243	0xbdf7fcc0	-0.12108755
244	0xbdcffb43	-0.10155346
245	0x3cc06b76	0.023488741
246	0xbdcd3672	-0.1002015
247	0x3dfb0200	0.12256241
248	0x3b9a2a38	0.00470474
249	0xbe2b2106	-0.16711816
250	0x3de9b0e0	0.11410689
251	0xbbb43c39	-0.005500343
252	0x3e307353	0.17231493
253	0xbd6c6ad4	-0.057719067
254	0x3dee4d45	0.11635832
255	0xbc0382b1	-0.008026765

proj.bias f4 [64]
0	0xbdb3098b	-0.087420546
1	0xbdb54f32	-0.08852996
2	0xbdd6b6d4	-0.104840904
3	0xbd5d9b2e	-0.05410307
4	0x3d80ad8f	0.06283104
5	0x3c8125bf	0.015765069
6	0x3af48800	0.0018656254
7	0x3d1ec6ba	0.03876374
8	0x3ce0daee	0.027448144
9	0xbdd57722	-0.104231134
10	0x3d7bf998	0.061517328
11	0xbd245146	-0.04011657
12	0x3d073357	0.033007946
13	0x3d644b56	0.05573591
14	0xbd0d3cbf	-0.03448176
15	0xbd8e0421	-0.06934381
16	0x3d86ea72	0.06587686
17	0xbd4210d3	-0.047379326
18	0xbdc1c468	-0.0946129
19	0xbd1976f1	-0.037466947
20	0xbd85b984	-0.06529525
21	0xbc55ba87	-0.01304496
22	0x3d2acdfd	0.041700352
23	0xbd57c6bf	-0.052679773
24	0x3dbbb6e9	0.09165747
25	0xbc1b81aa	-0.009491364
26	0x3d428f96	0.047500215
27	0x3d6de21d	0.058076967
28	0x3dadda36	0.08488886
29	0x3d9f1969	0.077685185
30	0x3d00c9b6	0.031442367
31	0x3d991953	0.07475533
32	0x3df88587	0.12134843
33	0x3d890b86	0.06691651
34	0xbe273358	-0.1632818
35	0xbdca41ce	-0.098758325
36	0x3da4dfca	0.08050497
37	0x3e06da39	0.13169183
38	0xbdad2a1d	-0.08455298
39	0xbd986790	-0.07441628
40	0x3db5f0a8	0.08883792
41	0x3d7117a9	0.058860455
42	0x3b1b8e99	0.0023736118
43	0xbdab26cd	-0.0835701
44	0xbd8ff27d	-0.07028673
45	0x3bd358c3	0.00644979
46	0xbc6ba457	-0.014382443
47	0xbd4fcccd	-0.050732423
48	0xbd52c23e	-0.051454775
49	0x3d844ebd	0.06460331
50	0xbc483acb	-0.012221049
51	0xbd472b65	-0.04862537
52	0xbe0898ec	-0.13339585
53	0x3df5e6ee	0.12006937
54	0x3d068ccb	0.032849114
55	0x3d5e446f	0.054264482
56	0x3df43399	0.11923904
57	0xb9e46712	-0.00043564342
58	0xbdee8f55	-0.11648432
59	0x3cdee533	0.0272089
60	0xbd53310d	-0.05156045
61	0xbdd68ef6	-0.104764864
62	0x3635d645	2.7095823e-06
63	0xbd648985	-0.05579521

encoder.layers.0.self_attn.in_proj_weight f4 [192, 64]
0	0xbb95ee30	-0.0045755133
1	0xbea93f4c	-0.33056104
2	0xbcb32764	-0.021869369
3	0xbdba2fed	-0.09091172
4	0xbd61562c	-0.05501382
5	0x3e4f48fc	0.20242685
6	0x3da876f6	0.08225815
7	0xbdd85402	-0.10562898
8	0x3e29ebd5	0.16593869
9	0x3e074679	0.13210477
10	0xbdd8e332	-0.10590209
11	0xbe8f439a	-0.27981263
12	0xbd21c2f9	-0.03949258
13	0x3d885689	0.0665713
14	0x3d1437a2	0.036185868
15	0x3dd64548	0.10462433
16	0x3e1baf9f	0.15203713
17	0xbda76bb1	-0.081748374
18	0x3e16aadb	0.14713614
19	0xbe8d3369	-0.27578285
20	0x3dcbc101	0.09948922
21	0xbdfcdf92	-0.1234733
22	0xbe6b32ea	-0.22968641
23	0x3e427bc6	0.18992528
24	0xbe2256c9	-0.15853418
25	0x3e280bcd	0.16410752
26	0x3d01de87	0.03170636
27	0xbe17b76f	-0.14816068
28	0xbd228b92	-0.039683886
29	0x3e82d17b	0.25550446
30	0xbde0f0bd	-0.10983417
31	0x3db08772	0.08619584
32	0xbe9271dc	-0.28602493
33	0xbbb8389b	-0.0056219823
34	0xbe19da35	-0.15024646
35	0x3dd32444	0.103096515
36	0x3db72ebe	0.08944462
37	0xbd62480f	-0.0552445
38	0xbe82b557	-0.25528976
39	0x3d98c89d	0.07460139
40	0xbda1a859	-0.07893438
41	0x3baa4013	0.0051956265
42	0xbeb7a3ef	-0.3586726
43	0xbb8e7384	-0.0043472666
44	0x3e81abe6	0.2532646
45	0xbd99a0bf	-0.07501363
46	0xbddcf279	-0.107884355
47	0xbd691013	-0.056900095
48	0xbdd4e2d5	-0.10394827
49	0xbc8eeeeb	-0.01744791
50	0xbccf2dcd	-0.025290394
51	0x3ea8b1a6	0.32948035
52	0x3b4e70b6	0.0031500286
53	0xbe4513c9	-0.19245829
54	0xbda60612	-0.081066266
55	0x3dbdbeff	0.09264945
56	0xbd22a502	-0.039708145
57	0x3d694248	0.056947976
58	0xbdd480a5	-0.103760995
59	0xbd81bf44	-0.06335309
60	0x3e793ed2	0.2434037
61	0xbe830a78	-0.25593925
62	0xbda61178	-0.08108801
63	0x3e7a54d5	0.24446423
64	0x3c809421	0.015695633
65	0x3d03b1e8	0.032152086
66	0xbd4ce5ab	-0.050023716
67	0x3d1384fc	0.036015496
68	0x3c37a3a9	0.011208453
69	0xbda7d48c	-0.08194837
70	0xbdfffee7	-0.12499791
71	0xbe38661e	-0.18007705
72	0x3caa8470	0.020815104
73	0x3d329b4a	0.043605126
74	0xbe5197bd	-0.2046804
75	0x3e84caec	0.25936067
76	0x3e81f3d5	0.25381342
77	0x3d87a9ca	0.066241816
78	0xbc818497	-0.015810294
79	0x3e1e2ab6	0.1544598
80	0xbe26e9b1	-0.16300084
81	0x3df4cae0	0.11952758
82	0xbe0e3754	-0.13888294
83	0xbe5ef185	-0.2177182
84	0x3e01ff44	0.12695032
85	0xbc8e073f	-0.01733744
86	0xbcb738f3	-0.022366023
87	0x3d5f9a27	0.05459037
88	0x3de637df	0.11241125
89	0xbd515f27	-0.051116135
90	0x3dbcf6ba	0.09226747
91	0x3e5c27d4	0.21499568
92	0x3d8f8fab	0.07009824
93	0x3d0cc517	0.034367647
94	0x3e034401	0.1281891
95	0x3e8e46a5	0.27788273
96	0xbb898723	-0.0041970178
97	0xbd259c40	-0.040432215
98	0x3d1d92c5	0.03847005
99	0xbc16318c	-0.009167086
100	0xbdb3b953	-0.08775582
101	0xbe3a2ac6	-0.1818038
102	0x3ddf9cd9	0.10918588
103	0xbd2b2e73	-0.041792344
104	0x3e54fdd6	0.20799956
105	0x3e1079d7	0.14108978
106	0x3d879a92	0.06621279
107	0x3d2a1794	0.041526392
108	0x3d23a118	0.039948553
109	0xbe1776a5	-0.14791353
110	0xbe45d48f	-0.19319366
111	0x3e43592a	0.19076982
112	0xbde25aac	-0.110524505
113	0xbd1c8c71	-0.038219873
114	0x3df859fb	0.121265374
115	0x3e69850f	0.22804664
116	0x3e76212f	0.24036096
117	0xbea05e5e	-0.31321996
118	0x3d3686a2	0.04456199
119	0x3dbb5ad4	0.091481835
120	0x3dc8d832	0.09806861
121	0xbe046ea2	-0.12932828
122	0xbbbb1cbe	-0.0057102134
123	0xbe70b256	-0.2350553
124	0x3e94bb87	0.29049322
125	0x3d95cbfe	0.07314299
126	0xbe498940	-0.19681263
127	0xbdd2bf3c	-0.10290381
128	0x3e895b5f	0.26827523
129	0xbdf8a808	-0.121414244
130	0x3e24b678	0.16085231
131	0x3cfe3a7c	0.031033747
132	0xbe526a21	-0.20548297
133	0x3dcefb2e	0.101065025
134	0xbc1c82e4	-0.009552691
135	0xbdcbcf4a	-0.099516466
136	0x3e3f0768	0.18655169
137	0xbe2a21f7	-0.16614519
138	0x3e1f7799	0.15572967
139	0x3e472469	0.19447483
140	0x3e7b0e5e	0.245172
141	0x3da115ae	0.07865463
142	0xbe281f41	-0.16418172
143	0x3e33774d	0.17525978
144	0x3e5de86b	0.21670692
145	0xbce84594	-0.02835349
146	0xbd4cf30c	-0.050036475
147	0xbca90cf5	-0.020636061
148	0x3c176281	0.009239794
149	0x3ddda06d	0.108216144
150	0x3bbc6bf0	0.005750172
151	0xbe25cfdd	-0.16192575
152	0x3e108667	0.1411377
153	0xbe38a514	-0.18031722
154	0xbe14bc45	-0.14524944
155	0x3e3b3159	0.18280543
156	0xbd4d9587	-0.05019143
157	0xbe59a9d0	-0.21256185
158	0x3dbe42ea	0.092901066
159	0x3d9288ba	0.07154985
160	0xbd7f3cc9	-0.06231383
161	0x3cec148b	0.02881839
162	0xbd1e79f3	-0.03869052
163	0x3db96570	0.09052551
164	0xbcbaafe9	-0.022788959
165	0xbd48ca1d	-0.049020875
166	0xbddbb96e	-0.10728727
167	0xbdec2794	-0.115309864
168	0xbe3d8a63	-0.18509822
169	0x3df7b5e0	0.12095237
170	0xbe6242e1	-0.22095825
171	0x3e37aaad	0.17936201
172	0x3db1bf77	0.08679097
173	0xbcf6fa7e	-0.03014874
174	0xbda3b76c	-0.07993969
175	0x3cdba299	0.026810931
176	0x3dc1bc2e	0.094597206
177	0xbdd1223e	-0.10211609
178	0xbdd3b398	-0.10336989
179	0xbe533767	-0.20626603
180	0xbde2c76a	-0.110731915
181	0x3e147a62	0.1449981
182	0xbad36921	-0.0016129353
183	0xbeaf6b5d	-0.342616
184	0xbd5c126b	-0.053728502
185	0x3d04cbc1	0.032420877
186	0x3e367339	0.17817391
187	0x3e11d5ef	0.14241765
188	0x3e134a7d	0.14383884
189	0x3c8e8a18	0.017399833
190	0x3ce35486	0.027750265
191	0xbe043118	-0.12909353
192	0xbcce7eea	-0.025207002
193	0x3e6ca11c	0.23108333
194	0xbeba949d	-0.36441508
195	0xbe1b907a	-0.15191832
196	0x3d18dd31	0.03732032
197	0xbc2490c1	-0.010044278
198	0x3d9e2b6d	0.077231266
199	0xbd60b3b1	-0.054858867
200	0xbe550d75	-0.20805915
201	0x3e10e51a	0.14149895
202	0x3cd13771	0.025539132
203	0xbd963cdb	-0.07335826
204	0xbe5b99b9	-0.2144536
205	0x3dd9e5eb	0.106395565
206	0x3e652571	0.22377564
207	0xbde27757	-0.110579185
208	0xbdd71450	-0.10501921
209	0xbd7a84f7	-0.06116196
210	0x3badb971	0.0053016474
211	0x3e914196	0.2837035
212	0xbbb6f59a	-0.005583477
213	0xbd80a9bb	-0.062823735
214	0x3e47bd61	0.19505836
215	0xbdb59484	-0.08866218
216	0xbe77dbbd	-0.24204917
217	0xbd901a03	-0.07036211
218	0xbcf130b7	-0.029442174
219	0x3d10d0c0	0.03535533
220	0xbe209962	-0.15683511
221	0xbe22029d	-0.1582131
222	0xbbcc39d1	-0.006232478
223	0x3d29a97c	0.0414214
224	0x3e702c11	0.2345431
225	0xbe1f48c5	-0.15555103
226	0x3d340754	0.0439523
227	0xbbf84c6f	-0.007577471
228	0xbe09d2b0	-0.13459277
229	0xbdff631c	-0.124700755
230	0xbe0cb36c	-0.13740319
231	0xbe5b9189	-0.21442236
232	0x3d1139bc	0.03545545
233	0x3ea8a393	0.32937297
234	0x3e4a4f8f	0.19756912
235	0xbdf27baa	-0.11839993
236	0x3d3f6b32	0.04673309
237	0xbe9c0617	-0.30473396
238	0x3e38c56d	0.18044062
239	0xbdeb7e65	-0.11498717
240	0xbdfa07df	-0.122085325
241	0xbe0678d3	-0.13132028
242	0x3c7f64cc	0.015587997
243	0xbe57939b	-0.21052401
244	0x3d6d5837	0.057945456
245	0x3e0f0e76	0.1397036
246	0xbc027301	-0.007961989
247	0xbdca8ebd	-0.098905064
248	0x3d570290	0.05249268
249	0xbc46d2df	-0.0121352365
250	0x3d5f1098	0.054459184
251	0xbd8137df	-0.06309485
252	0x3d1c1818	0.038108915
253	0xbc2a9715	-0.010411997
254	0x3d962042	0.073303714
255	0xbcc39458	-0.023874447
