models/rym_grid_c1_s64_e2_t4_r4/conv_transformer_c1_g1_a0_l0p32_lr1e-05.pt (torch, 955166 bytes, 52 tensors)

pos_embed f4 [1, 64, 64]
00000000: 6abb 843c 43c0 1f3c f26a 983b 50ff ffbb
00000010: 098f 913c bceb 40bc 5ae2 563b f894 ff3c
00000020: 33d4 1cbd b0e9 333d f0d3 0ebc 0ae0 923c
00000030: 3e2a c53d 8024 b7b9 8b2b c1bc 0989 fb3b
00000040: 45e7 a3bc ef56 3dbb 0bcc 99bb 02af 103d
00000050: 8f9b e83b 7b17 1c3d 4fba 933c 901d eabc
00000060: 1725 103d 31b6 bbbc 7e56 01bd e834 61bd
00000070: 3ea7 71bd 5068 893d a656 953c d0d3 8cbc
00000080: 3dd8 cebc 0aad 77bc e486 dfbb 41f0 673d
00000090: 4377 3bbc 362f 86bd fc98 babc ae95 033d
000000a0: 9ef5 10bd 4f3a 023c e21b b33b fc31 653d
000000b0: e13b 39bb 9eb1 6f3c 851d c5bb 8185 79bd
000000c0: e522 cd3c 009a 70bd 7d1e 243c 98b6 4cbd
000000d0: f226 443d 5d20 bb3b 7c63 633c 4d67 90bd
000000e0: 1175 0f3d 3ceb 5bbd a581 bc3d 2ba2 2f3d
000000f0: 07b6 283b b8d8 d73a 0483 c23a a8f0 e33c
00000100: 5e04 bbbc 46fb 0dbc 8707 9dbc e9c1 53bb
00000110: 6e0b 1c3c aae9 0d3c 209d bbbb 48c4 8c3c
00000120: d7b5 213d 3113 873c fd5b 793c a153 c23c
00000130: 23b7 a9bd 0e81 51bc 3762 15bc 0a86 a9bb
00000140: 4741 f53b f803 c1ba b4d5 4a3c 1ee8 c03b
00000150: ee2e 0d3c 7011 38bd e8fa 02bd 36c3 ca3b
00000160: c916 acbd 31af 323c 9318 353c 0fb7 e33c
00000170: 765f cb3c 1262 c2bb b530 a5bc 519a 1c3c
00000180: ebb9 0d3c ab71 ba3c f2aa 86bb cb4f 89bb
00000190: e007 2a3c e868 763d 0821 ddbb 2953 83bb
000001a0: 5a6e 783c 4629 18bc 559d ff3c e876 50bc
000001b0: f4c7 1bbc 7933 6bbd c42d 3d3a 65ea 67bd
000001c0: e001 813d c4f0 433d 35ee 7cbc 14ac 94bc
000001d0: bdc2 30bc 08e1 b7bc 7cc0 4d3c b20d 893d
000001e0: 91fd e7bc bf56 423d be75 c5bc 2973 46bd
000001f0: e6d1 91bc 4df5 2d3c 2c14 083d ec2f e5ba
00000200: 1ec5 c4bb b2fe 11bc fc77 82bc 9e64 653c
00000210: 12fd 68bc ccc6 bf3c febf 4d3c 7096 3e3c
00000220: b039 0dba d389 333c 10aa 2fbb cf83 c7bc
00000230: 1c66 69bd 57e0 aabc 95ad 023d 7e84 453c
00000240: fa21 f53c 2ee7 283b 39f4 a33a fecf 303d
00000250: 1d2f 063c af95 a9bc 3e20 b23c 3236 983b
00000260: b6df b0bc eba0 863b 0bd9 85bb 859d d03b
00000270: c13e 95bd 7d38 ef3a 2e69 21bb e272 10bd
00000280: ace3 b6bb ffd0 d9bb 9535 0c3c 1c3f 11bc
00000290: eb61 083b f19a 623b ea5a 043d aa24 bc38
000002a0: 3b9d 7b3d e355 6b3c 2656 9fbc 0059 b9ba
000002b0: 47d2 bd3c fefb 853a 9852 41bb fd85 f6bb
000002c0: e7fa c4ba 2c8c e6bc ff16 4b3c 661b 94bd
000002d0: 5d6a bd3c e420 783d 950b f3ba ed06 343b
000002e0: 3de7 3fbd 1a7a d5bc 61d1 cabc 8744 c53d
000002f0: 3c11 2ebc 2627 75ba 10a2 e63b e99c 20bd
00000300: 8f98 333d 99ee 8c3c 76a0 523b 32b1 933b
00000310: d28d 18bd 74bf 463c ba49 933c 623a c2bc
00000320: bb01 55bd c512 86bd c7d7 f33a 12ad 7ebc
00000330: 68e2 b2bb 73ce 4a3c 774e 083c b805 8dbb
00000340: 532e 06bc 3f1c 733c cc12 46bc 86c0 8abc
00000350: d3c1 8ebb 8685 8a3d 7dff 2f3d 5084 00bc
00000360: d922 083d 5ec2 18bc ca99 debb 5021 debc
00000370: 679e 5fbd ac5c 1b3b cb5e 073d c8c3 df3c
00000380: cd2e cf3a 5ad6 cf3b 00bd fa3b 5e18 6dbc
00000390: 98b5 05bd 7bdb aebc 025f 5a3d 69d2 2d3a
000003a0: 4e1f 143c 620b 9a3d 64d8 11bd 6be7 6b3c
000003b0: 8000 2c3c a239 b43c d569 77bc 293f a73c
000003c0: be7b 7fbd b320 a2bc e7fa ac3c 7cf8 f3bc
000003d0: 4484 4f3c b776 5c3d 94c4 67bb 8566 4dbd
000003e0: 544b 38bb f054 2abd 84fc 573d 2f28 123d
000003f0: 95df b03b 4de9 0b3c 266b f5bc 2366 96bd
0.016202647 0.009750429 0.0046514207 -0.007812418 0.0177684 -0.011774953 0.0032788725 0.031198964
-0.038288306 0.043924034 -0.008717522 0.017929096 0.09627198 -0.00034931675 -0.023580333 0.007676248
-0.020007739 -0.0028890928 -0.0046935133 0.03532315 0.007098622 0.03810833 0.018033175 -0.02857855
0.03519162 -0.022914024 -0.031576626 -0.054982096 -0.058997385 0.06709349 0.018229794 -0.017190844
-0.025249595 -0.015116939 -0.0068215 0.05662561 -0.011442008 -0.065519735 -0.022778027 0.032125168
-0.03539049 0.007948472 0.0054659704 0.055955872 -0.002826445 0.01462975 -0.006015482 -0.060918335
0.025041053 -0.058740616 0.010017035 -0.049978822 0.047888704 0.005710645 0.013878699 -0.07050953
0.035023753 -0.053691134 0.09204415 0.042879265 0.0025743262 0.0016467785 0.0014840071 0.027824715
-0.02282923 -0.008665865 -0.019168628 -0.0032311624 0.009524209 0.008661667 -0.005725518 0.017183438
0.039480057 0.016488643 0.015219686 0.023721518 -0.08286884 -0.012787117 -0.0091176545 -0.0051734494
0.0074845883 -0.0014725914 0.012380052 0.0058870455 0.008617146 -0.044938505 -0.031977564 0.0061878217
-0.084027834 0.010906027 0.011053222 0.02779725 0.024825793 -0.005932101 -0.020164827 0.009558276
0.008650283 0.02275928 -0.0041097337 -0.0041904203 0.010377854 0.06015864 -0.0067483224 -0.004007716
0.015163029 -0.009287184 0.031202951 -0.012723662 -0.009508122 -0.057422135 0.00072165974 -0.05662002
0.06299186 0.047837034 -0.015437652 -0.01814846 -0.010788617 -0.02244617 0.012558099 0.06692065
-0.028319152 0.04744601 -0.024103995 -0.04844967 -0.017800283 0.010617566 0.033222362 -0.0017485595
-0.0060049435 -0.008910822 -0.015926354 0.01400104 -0.014220493 0.023410223 0.012557982 0.011632547
-0.0005387319 0.010958153 -0.0026804246 -0.024354843 -0.056982145 -0.020858927 0.031903822 0.012055514
0.029923428 0.002577256 0.0012508697 0.043167107 0.008189944 -0.020701258 0.02174389 0.0046451325
-0.021591049 0.0041085384 -0.0040847114 0.006366434 -0.0728736 0.0018251088 -0.0024629342 -0.03526581
-0.00558134 -0.0066472287 0.008557697 -0.008865144 0.0020810317 0.0034577216 0.032313265 8.971368e-05
0.061429244 0.014363739 -0.019450258 -0.0014140904 0.023171557 0.0010222194 -0.0029498693 -0.007523297
-0.0015028388 -0.028143011 0.012395619 -0.07231788 0.023122007 0.060578242 -0.001854288 0.0027469948
-0.046851385 -0.0260592 -0.024758043 0.09632211 -0.010624226 -0.0009351842 0.0070383623 -0.03921214
0.043846663 0.017203616 0.00321391 0.0045072073 -0.037244625 0.012130607 0.017979492 -0.02370948
-0.052003603 -0.06546549 0.0018603735 -0.015544193 -0.0054591186 0.012378323 0.008319489 -0.0043036602
-0.0081897555 0.014838277 -0.012089442 -0.016937505 -0.0043566017 0.06763749 0.042968262 -0.007844046
0.03323636 -0.0093236845 -0.0067932354 -0.027115494 -0.054594424 0.002370636 0.033049386 0.027315035
0.0015806794 0.0063426914 0.007651925 -0.014471142 -0.032643884 -0.02134489 0.053313263 0.000663078
0.009040667 0.07521702 -0.035606757 0.014398436 0.010498166 0.022000138 -0.015100916 0.02041586
-0.06237387 -0.019790983 0.021115733 -0.029781573 0.012665812 0.053824153 -0.0035364972 -0.0501466
-0.002812107 -0.04158491 0.052731052 0.035682853 0.005397747 0.00853951 -0.029958319 -0.073437

conv_stem.0.weight f4 [64, 64, 3, 3]
00000000: 3271 fcbc 6860 74bd d47a f43c 8747 55bc
00000010: ab79 c0bd 7077 343d bbac aebd 7ea3 f63c
00000020: 5209 3d3d e26d 893d 129c a8bd 9f7f efbd
00000030: 7cdb 05be 87f0 34bd cff5 f43b d64f a1bd
00000040: 0bb3 693d dae7 453d 5a0e 2dbb f288 31bd
00000050: ce5c c7bd b705 0abd 8c82 36bd 50e5 7b3c
00000060: 09fc adbd 3c4c a8bd da57 323c ae6f 4b3c
00000070: 704f dabb 20a4 203d 456a 3ebb 1145 4fbc
00000080: fc35 7e3d 8c65 2d3d a0c3 05bd 0546 643d
00000090: d23d f4ba ba37 2b3d 64e4 683d e571 8e3c
000000a0: 4478 f23c 43bd 49bd 58c7 c53c 8653 7cbc
000000b0: 1829 91bc 5984 1dbc 99ab 26bb a884 a8bd
000000c0: 0e35 a53c 06b5 8e3d ae8e a2bc 7338 d63c
000000d0: b214 3e3d 34b4 b0bc 3f2a c5bb 3711 873d
000000e0: cc6a 733d 26cf 1d39 355d 17bd 9638 593d
000000f0: 125d 073d fb67 d2bb 5469 8bbd 9a06 9fbd
00000100: 26e0 2b3c ad62 473d e00c 9abb d626 043e
00000110: bbae 8bbc 2252 43bc 84c3 a93a 5293 613c
00000120: 277f 5cbd e0d7 28bc 2c01 fabb 8f9c 8dbd
00000130: 7276 773c 197b 293d 79cf aa3d fa61 023d
00000140: a6ea 8b3b 76ab 78bd f9c4 c7bb 31c1 263c
00000150: 8d3d 94bb 108f cb3c 392e f43c 1bca 213c
00000160: 65da b63c 6361 c93d ac4b 183c ecdb 96bc
00000170: df67 9ebc ef1e b73c 0772 4a3d 5c74 cd3c
00000180: 155f fdbc 0d53 e03c 176e 813d fe86 b0bc
00000190: 05c4 b0bc aac6 89bd 25fc debc cafb 02bb
000001a0: c8d8 a3b9 b8b9 b83c 4738 2dbc 8714 4e3b
000001b0: 3d7e 6dbd bf3d 013d e0ce 0abd e299 dabc
000001c0: bef0 883d 13fe 1cbd a2c1 c03b d4bb 4f3d
000001d0: 67dd b1bd 240b 413c 53e3 09bd 5e47 d7bc
000001e0: 873e 33bc 2317 533b 41da 71ba 2f36 873b
000001f0: e0d8 813c 4cfd a43c e5a1 a33c 7d6c 5e3c
00000200: 705e 4bbd dc3c dabc 9e5d 7cbc 3d59 a0bc
00000210: 58dd 0a3c 1d82 ba3c 391e 61bd 7352 d8bc
00000220: 7e76 153b 5c45 acbc 62f2 9bbc 6046 36bc
00000230: 321c c8bc 5def 26bb d780 65bc abf0 293c
00000240: 7cf7 bcbc 1f66 d73c e547 82bc 24e0 283c
00000250: c684 bebc 9d63 65bc 41f6 abbb 2026 13ba
00000260: f496 4cbc d0f1 28bc 52ed df3c 4563 963b
00000270: a175 a23d 74f1 443d 4f40 5ebd 7a82 6e3d
00000280: 4b64 923b b416 a6bc dd3b 2d3c cc48 4fbd
00000290: b9d6 a0bd c058 fcbc 3240 073c ce9c dfbc
000002a0: 74aa 49b9 152e f93c 5696 ef3c 77e1 4a3c
000002b0: e6dc 4c3d 64d3 0bbd 164f 983a 877f ab3b
000002c0: 0d75 b43b 03ad 033c 83ec 2bba 676c 883b
000002d0: 2d9a 0ebd 605e c33b a6f1 1f3d efcd 033d
000002e0: 8cd2 ccbc fe34 17bc 27cd 803c 50e4 913c
000002f0: 925f 53bc 5878 b5bb 26b8 9c3b 2e21 06bc
00000300: 1c4f bf3c 2643 87bc e533 273c a137 1f3d
00000310: bdb7 b63b 8cfe 233d dd40 343c 06ee 0ebc
00000320: fb88 163b 3795 1bbc b820 973b 02ee 21bb
00000330: aff8 3ebc 0647 1bbd 7cb2 983c 8561 4a3d
00000340: 2065 51bc 0b0e 8abc 977a 2c3d 1204 f53c
00000350: 882a 0abd 8313 f43c 00dc c73c a87d c33c
00000360: 1343 3cbc dd98 f33c e227 9fbd 97a4 59bd
00000370: 8172 6d3d 4f11 0a3b c0eb 9e3a 1401 35bc
00000380: 249e 4bbd f1e9 203c 3ba1 323d 09f2 bc39
00000390: 9383 85bc 52d9 633b a4e0 43bd c91d 873c
000003a0: 4f2f c23c 01a6 e8bc b7b1 0f3d 3263 33bc
000003b0: a0da 133d d835 313d bb62 1cbb 49e6 a03c
000003c0: bb10 273c 17ce 0e3d 987b ad3c 49f5 20bc
000003d0: 2192 5dbc 4e76 dc3c 79f2 1b3c dcfa 93bc
000003e0: 3257 18bd 9be1 53bb 1180 d33c 4d24 1ebc
000003f0: bc2d cc3c e770 82bc 7fbb 813c 93d9 3dbc
-0.030815694 -0.059662253 0.029843725 -0.013017542 -0.09398206 0.044059217 -0.085290395 0.030107256
0.046151467 0.067104116 -0.08232893 -0.11694264 -0.13072008 -0.044174697 0.0074755917 -0.078765556
0.057055514 0.048316814 -0.002640626 -0.04334349 -0.09734498 -0.033696856 -0.044558093 0.015374497
-0.084953375 -0.082176656 0.010885203 0.012416763 -0.0066623017 0.03921902 -0.002905504 -0.012650744
0.062063202 0.04233317 -0.032657266 0.05573084 -0.0018634147 0.041801192 0.056858435 0.017388294
0.029598363 -0.04925276 0.024142906 -0.015400773 -0.01771979 -0.009614074 -0.002543187 -0.08228427
0.0201669 0.06968121 -0.019843426 0.026149964 0.046406455 -0.021570303 -0.006016999 0.0659508
0.05942802 0.00015049856 -0.036954124 0.05303248 0.033047743 -0.006421087 -0.06807199 -0.07764931
0.010490453 0.04867809 -0.004701242 0.1290544 -0.017051091 -0.011921437 0.0012951945 0.013768034
-0.0538322 -0.010305375 -0.007629534 -0.06914627 0.015103923 0.04137716 0.083403535 0.03183172
0.0042699156 -0.060710393 -0.006096479 0.010177896 -0.004523939 0.024848491 0.029807197 0.009874846
0.022320936 0.09833028 0.009295385 -0.018415414 -0.019336639 0.022353617 0.04942515 0.025079899
-0.030929128 0.027383352 0.06319826 -0.021548744 -0.021577844 -0.06727345 -0.027219841 -0.0019986504
-0.00031251297 0.022549495 -0.0105725 0.003144534 -0.05798172 0.031553026 -0.033888698 -0.026684705
0.06686543 -0.03832824 0.005882458 0.050716236 -0.08684807 0.011782441 -0.03366406 -0.026279148
-0.010940201 0.0032209835 -0.0009225943 0.0041263322 0.015850484 0.020140313 0.019974658 0.01357567
-0.04965061 -0.026640348 -0.015403179 -0.019573802 0.008475624 0.022767121 -0.054960463 -0.026406502
0.0022806223 -0.021029167 -0.019036476 -0.011125177 -0.024427507 -0.0025472261 -0.014007769 0.010372321
-0.023067228 0.026293812 -0.015903423 0.010307346 -0.02325667 -0.0140008 -0.0052478616 -0.0005613286
-0.012487162 -0.010311559 0.027334843 0.0045894706 0.07932592 0.04808183 -0.05426055 0.0582299
0.0044675223 -0.020274498 0.010573355 -0.050606534 -0.07853455 -0.030804038 0.008255051 -0.02729645
-0.00019232352 0.030417481 0.02924649 0.012382857 0.050015353 -0.034137145 0.0011620249 0.0052337083
0.0055071176 0.008036855 -0.00065583753 0.004163313 -0.034815002 0.005962178 0.039048813 0.032178815
-0.02500274 -0.009228943 0.015722824 0.017809063 -0.012901204 -0.0055380277 0.0047826944 -0.008186622
0.023353152 -0.016511511 0.010205244 0.03887141 0.0055761025 0.040037677 0.011001793 -0.008723741
0.002296983 -0.009496025 0.0046120547 -0.0024708514 -0.0116559705 -0.03790953 0.018639795 0.049409408
-0.012780458 -0.0168524 0.0421091 0.029909167 -0.033731967 0.02979446 0.024396896 0.023863629
-0.011490601 0.029735977 -0.07771279 -0.05313548 0.057970528 0.0021067446 0.0012124702 -0.01104762
-0.04971136 0.009821401 0.043610793 0.00036038485 -0.016298091 0.0034766984 -0.047821656 0.016493695
0.0237042 -0.02839947 0.03508159 -0.010948943 0.03609717 0.04326424 -0.002386256 0.019641059
0.01019686 0.03486451 0.021177098 -0.009824106 -0.013523609 0.02691188 0.009518259 -0.018063955
-0.03719253 -0.0032330516 0.025817903 -0.0096522095 0.024924152 -0.015922977 0.015836475 -0.011587518

conv_stem.1.weight f4 [64]
00000000: 7551 813f 6686 853f a1e9 823f e0c2 793f
00000010: d95d 823f 764c 823f 67c4 803f f086 833f
00000020: c8c4 7e3f 5636 7f3f d4a7 853f 4335 7d3f
00000030: a46f 883f 6d62 753f 9a8d 803f fc15 813f
00000040: 2b0c 813f 4b1d 7d3f 3f8a 823f 73d0 813f
00000050: 53ca 7b3f 3e17 7c3f 20c7 7b3f 0891 843f
00000060: 392e 803f 2744 7f3f f62d 7f3f 072f 823f
00000070: 35fb 7e3f 390b 7b3f 3de6 823f dfd0 763f
00000080: 90b6 813f 4539 823f bdc1 833f 3af3 803f
00000090: aa29 783f 9c39 7e3f ce58 803f f24a 7c3f
000000a0: 5425 853f 18e3 7f3f 88d7 803f 7313 843f
000000b0: 80e2 743f 1d94 783f 246b 843f e077 763f
000000c0: c354 813f 0caf 7d3f 31b1 793f eb1a 713f
000000d0: 0d13 7f3f 0455 7d3f bdc5 803f 342f 7e3f
000000e0: e86f 853f 0c0b 833f 3b62 7d3f 1b7e 813f
000000f0: 4775 803f d545 843f 6678 793f aacc 7a3f
1.0102984 1.043164 1.0227548 0.9756298 1.018489 1.0179584 1.0059937 1.0275555
0.99519014 0.99692285 1.0441842 0.98909396 1.065907 0.9585331 1.0043213 1.0084834
1.0081838 0.9887282 1.0198439 1.0141739 0.983556 0.98472965 0.98350716 1.035676
1.0014106 0.9971337 0.99679506 1.0170602 0.9960206 0.98064 1.0226513 0.9641246
1.0133839 1.0173727 1.0293499 1.0074227 0.96938574 0.99306655 1.0027101 0.9855186
1.0402017 0.9995589 1.0065775 1.0318435 0.9565811 0.97101 1.0345197 0.96276665
1.0103992 0.99095225 0.97536 0.941817 0.99638444 0.9895785 1.0060345 0.99290776
1.0424776 1.0237746 0.9897801 1.0116609 1.003579 1.0333811 0.9744934 0.9796854

conv_stem.1.bias f4 [64]
00000000: e1bd 153d ec25 8e3d b83a 6e3d c242 3b3c
00000010: 61be 5a3d ae6f c23c cb74 87bc ee07 733d
00000020: a383 dcbc c241 de3c 9530 403d cdfc 183d
00000030: ed97 a53c b2e0 edbc 0678 e13a 0e51 0f3b
00000040: cbb3 c63c 7440 8bbb 7072 ba3c 7732 3f3d
00000050: cba4 d63c a190 943c c0f9 87bc 8eb0 1a3d
00000060: 119b 4e3d cf49 6e3d 2114 2dbc 8ccb 533c
00000070: 01b7 aabb c92f c6bb ce02 ed3c dd76 a03c
00000080: 0c77 af3c 22b6 953c 49ef 363d 01ed 6d3d
00000090: 4d65 27bc 6325 393c 1837 dd3b 65f3 2f3c
000000a0: 106a e93c 2346 f93c 5065 853c 83eb 563c
000000b0: 3fd5 7f3b a5f9 f5ba dfb3 523d 7d6e b83b
000000c0: a805 803c e92d 6d3c fb86 e83b 2fe0 723c
000000d0: bce7 373d 8e62 b8bb f6ff 6f3d 659b d7bb
000000e0: 769c f23c 1271 433d fea6 6b3c 7a43 693d
000000f0: 61e5 913d 59fa 963d d693 e9bb 9814 973c
0.036558036 0.06940827 0.058161467 0.0114294905 0.053404216 0.023734894 -0.016535183 0.059333734
-0.026918238 0.027130965 0.04692133 0.037350465 0.020214045 -0.029037807 0.0017201907 0.002186838
0.024255654 -0.004249627 0.022759646 0.046678986 0.026201626 0.01813537 -0.016598582 0.037766032
0.05044085 0.058175858 -0.010563881 0.012926947 -0.005209804 -0.006048177 0.028932001 0.019587928
0.02141907 0.018275324 0.044661794 0.058087353 -0.010217023 0.011300418 0.0067509525 0.010739182
0.028492957 0.030428952 0.016283661 0.013117674 0.0039037017 -0.0018766416 0.05144107 0.0056284056
0.015627697 0.014476278 0.007096169 0.014823957 0.044898733 -0.005626983 0.058593713 -0.006579804
0.029615622 0.047715254 0.014383076 0.056949116 0.07123829 0.07371969 -0.007128219 0.018442437

conv_stem.1.running_mean f4 [64]
00000000: 9ddd ffbd ff92 86bd 8739 be3d dd2c b13c
00000010: 309d 20be cfa3 bdbc a8b3 5b3e da0c cebd
00000020: 08e0 b53b 7ca8 523d 34d7 98be c8bf f43d
00000030: 6613 d43d b192 283e ccd3 103e 8328 abbd
00000040: d61a 82be 13cc 733e d0e8 1bbe 2b9a 5dbd
00000050: 88b5 80bd 1b28 dabd eb01 d5bd ce32 bcbd
00000060: 8b4e 86be 9463 51bb 2ba4 73bb b755 6c3e
00000070: b7f5 043e 6953 313c a0d6 3e3d 9b4e 3fbe
00000080: 16e9 0f3d 01cc 14be dc1e ccba 8b55 1bbe
00000090: 756d bcbd 64db fcbc 70e9 b4be ff19 9cbe
000000a0: 76f8 9bbe 74c3 fabd ed64 323d 60b3 b2be
000000b0: 8b98 2b3e c52a 31be bdd7 a13c ef7e 01be
000000c0: 6a96 0a3e c501 883e a1c0 253d 9f2b 18bd
000000d0: 0d99 e4bd 9e7f 133d 98d3 303e b977 28be
000000e0: c595 82bd 523b 05be 48a4 9b3e 0709 6a3e
000000f0: b733 60be 2f65 28be d802 21be 6a62 243b
-0.12493441 -0.06571006 0.09288316 0.021627838 -0.15684962 -0.0231494 0.21455252 -0.10061045
0.0055503882 0.05143021 -0.29851687 0.11950642 0.103552625 0.16462208 0.14143294 -0.08357336
-0.254111 0.23808317 -0.1522553 -0.054102104 -0.06284624 -0.10652181 -0.104007564 -0.09189378
-0.262318 -0.0031950222 -0.003717671 0.23079573 0.12984358 0.010823109 0.0465914 -0.1868233
0.035134397 -0.14530946 -0.0015573162 -0.15169351 -0.09200565 -0.030866332 -0.3533435 -0.30488583
-0.30462998 -0.12244311 0.04355328 -0.34902477 0.1675741 -0.17301472 0.019756192 -0.12646078
0.13533941 0.2656385 0.04046691 -0.037150975 -0.111620046 0.036010377 0.17268217 -0.1645192
-0.063762225 -0.1301091 0.30398774 0.22855006 -0.21894728 -0.16444848 -0.15723741 0.0025083073

conv_stem.1.running_var f4 [64]
00000000: 9083 343d 2989 d93c 52d1 2f3d 4098 143d
00000010: b0a1 263d 2a4a 0e3d 9eac 823d 4f89 e73c
00000020: 1d6d a73d 9786 563d f2e4 093d d00f 063d
00000030: 7f09 f03c 21b3 203d 5965 2b3d 5c4f 3f3d
00000040: 0ddd 0e3d 164c 543d 17ff 1f3d e953 0c3d
00000050: ed01 143d b480 3f3d c2ff ec3c 0c2e 283d
00000060: 7cf8 5f3d ac20 c63c 7f87 9b3d 57f8 313d
00000070: 416b 813d 1ab8 123d 3a11 fa3c 2019 0b3d
00000080: a668 323d 7ce3 4d3d b0e4 f23c 3e12 c93c
00000090: f0ab 933d f79c 263d e517 623d b583 4d3d
000000a0: 87dd 413d a455 3c3d acf7 293d 28aa 6c3d
000000b0: 0951 0f3d f5a6 2f3d bf82 163d 0dd5 143d
000000c0: adb1 103d decc 913d a5ff 5e3d 2da6 113d
000000d0: 73f1 063d 9226 353d 4192 2e3d cbfa 093d
000000e0: 7675 043d ed45 e23c 2738 2e3d db2f 0f3d
000000f0: 325e 1b3d ad41 153d 66cf 3f3d a2b8 0f3d
0.04407078 0.02655466 0.042924233 0.03627801 0.04068154 0.034738697 0.0638058 0.028263716
0.081751086 0.05237445 0.033665605 0.032729924 0.029301403 0.03923333 0.0418447 0.046706542
0.03487878 0.051830374 0.039061632 0.03425971 0.03613465 0.0467536 0.028930549 0.04105954
0.054680333 0.024185501 0.07594203 0.043449726 0.06319285 0.035820104 0.030525792 0.033959508
0.04355683 0.050265774 0.029650062 0.024544831 0.07210529 0.040677037 0.05519857 0.050174434
0.047330406 0.04598011 0.041495964 0.05777946 0.03498939 0.042883832 0.036745783 0.036335994
0.035325695 0.071191534 0.05444302 0.03555887 0.032945108 0.044226237 0.042619947 0.03368644
0.032338582 0.027621234 0.04253402 0.034957748 0.03793163 0.036439586 0.04682865 0.03508819

conv_stem.3.weight f4 [64, 64, 3, 3]
00000000: 1b42 053d f1e8 293d 50ee 83bc b9a2 96bc
00000010: 6ff3 a93b 91de 0c3b 4695 9c3c 66e4 dfb7
00000020: 4026 503c 496d f33c 71f1 3dbd 1eaf 08bb
00000030: 9fa7 093d bb11 37bc 55e5 7fbb 1fd1 93ba
00000040: 9399 523b 1d89 83bc 5233 acbc e97f bcbb
00000050: 0596 d3bc 633d 413c bb38 d43b 5682 f13b
00000060: 1f80 f8bb 5cf5 443c 5cf6 9c3b 0aeb aabc
00000070: b494 d03b 5f4f 16bc 4572 0cbd 80c6 00bd
00000080: d037 313d 703c 47bc befa 34bd ad84 1fbc
00000090: 4d15 bc3c 9df7 293d c086 8f3b 4593 b23c
000000a0: 7f28 c8bb 9060 b63c 138b 923c 6126 ddbc
000000b0: ff9c acbc 4e6f a5bc ebc8 e73b b702 e83c
000000c0: 8956 353d a890 b0bb fbfa 2ebd 5563 123d
000000d0: cfdd 75ba c243 0ebc d1e2 0d3d e6f2 463c
000000e0: 7aff 263d 14b7 ac3c 5414 bd3c 45e7 2bbc
000000f0: 7017 853b 460e f43c 7a98 12bd 362e abbb
00000100: 9d76 533d 8cd0 54bb 7aa0 86bc 71c5 1a3d
00000110: 551d 3a3d bd80 163d 77cd d53c f226 04bd
00000120: 55e8 2e3c b56a f13b 25b0 40bc 1411 20bd
00000130: db67 b13c e5bf 9b3c 89ee 793c 048b f83c
00000140: 8f38 4c3b 14c6 243d 85dd 40bc 537e f6b9
00000150: 0aba 1d3d d943 41bd dd83 b3bc 8787 b4b7
00000160: b370 2abd e8bb 043c 73f5 bb3c d4a8 ac3c
00000170: edf4 ed3c 8e5b 5e3a e764 5a3c 866d 00bd
00000180: dbb3 a83b 7a29 e13c 18d7 ac3b 05e1 923b
00000190: c7ce 90bc 2da2 6e3c a5da 55bc 9ddb a1ba
000001a0: 6afb 223b 9762 903c e570 083c 534a 09bd
000001b0: e3df e23c 2481 32bd 3a67 133d d6a0 58bc
000001c0: f302 0a3c e898 4e3d 0f40 67bc 7ece 933c
000001d0: f553 4fbc ce34 8a3c 7411 57bd 47e3 babc
000001e0: db6f 4cbb 348b b23b 5c45 d2bc 118f d8bc
000001f0: 6139 053d 506c 8c3c 075b 433b 157d 30bd
00000200: 564f 3cbd 7d97 ecbc 5b9b 2f3c e351 413c
00000210: 2c62 5abc cedc d53c 2183 b4bc 5bd4 843c
00000220: 6602 d6bc af01 c73c d61c ce3c 0e90 d53c
00000230: 517a ebbc 9ab5 963c 09a8 a23c 9932 fe3b
00000240: 960b 553c 09d1 a7bc d4da f33c 823e 27bd
00000250: 1815 f4bc 44bf 003d 0e89 05bc 39b7 74bc
00000260: c463 e5bc defc 493c 2a64 1ebd 0eae 18bd
00000270: facd 2ebc 3e2a 1ebd 0e44 cdbc d7af fdbc
00000280: 4106 65bc 92a2 a5bc 2a66 0a3a eb80 26bc
00000290: bf6f 19bd f9ab 01bd b254 76ba f06a 94bb
000002a0: 2b14 2f3d 1761 9ebb afea 0cbd cea8 823a
000002b0: 80be b23c b4a6 10bd 674e b8bc 6a78 813c
000002c0: 1e92 363d c203 cf3c 8148 7fbc 93e8 a1b8
000002d0: 832a 4bbb 19d0 df3c 2619 6ebc 63f4 ee3c
000002e0: f7cb fcbc de00 6fbb ad87 b1bc 1d6c 74bc
000002f0: 5190 62ba a459 5abc 77d8 9cbc f3a5 90bc
00000300: 0c09 56bc ee3d d83c 1f64 f33c 4414 cd3b
00000310: a188 e3bb 0aee 6cbb 3193 013d 3eb2 433d
00000320: 5ebd 0138 8d74 3dba fab2 053d 6400 113d
00000330: c934 e63c 6807 d93c 68b8 193d cc32 c2ba
00000340: 1543 cfbc 0cb5 e43b 0c99 94bc 2690 293c
00000350: 6383 883d e7de f4bc e6c4 213c d667 ce3c
00000360: 538b a3bb 282a 9d3c 5555 a4bb c70a 21bd
00000370: 6707 a4bc 87b7 203c 8d13 37bd 9f88 22bd
00000380: 3b04 5e3d fdd5 053c c7ed 3e3d aafc 04bc
00000390: 7bfb 8f3c c8ec 823c 6b80 fd3c 90d5 ae3c
000003a0: 55c6 973c 0b0e 9cba ac6b d1bc baf5 53bd
000003b0: 368d 9e3c 0e94 36bc b6bd eabb 246d 883c
000003c0: 05be d63c a6d4 18bd 9014 c93c 0b89 273d
000003d0: 00b0 c83c 0276 a4bc 5903 2ebd 5382 de3c
000003e0: 9eef e93c f915 1b3c 21be 9dbb 85f6 213b
000003f0: 9e78 82bc 21a1 7e3c f31e 3abd ddb6 c53c
0.032533746 0.041481916 -0.016104847 -0.01838814 0.0051864902 0.0021494965 0.019114148 -2.6690028e-05
0.012704432 0.029715197 -0.046372835 -0.002085633 0.03360712 -0.011173661 -0.0039046605 -0.0011277533
0.0032134994 -0.016056592 -0.021020565 -0.0057525528 -0.02582837 0.011794421 0.0064764894 0.0073702736
-0.0075836326 0.012021389 0.0047901105 -0.020864028 0.006365383 -0.009174197 -0.034288663 -0.031439304
0.043266118 -0.0121604055 -0.04418444 -0.009736222 0.022959376 0.041495908 0.004380077 0.02179874
-0.006108343 0.022262841 0.017888581 -0.02699584 -0.021070955 -0.020194676 0.007073512 0.028321607
0.04427198 -0.005388338 -0.042719822 0.03573926 -0.00093790604 -0.008683147 0.034640137 0.012142872
0.040770985 0.021083392 0.023080982 -0.010492151 0.004061632 0.029791962 -0.035789944 -0.0052240146
0.05162679 -0.0032472936 -0.016433943 0.03778595 0.04543813 0.03674387 0.02609895 -0.032263704
0.010675509 0.007367457 -0.011760746 -0.039078787 0.021655967 0.0190124 0.015254625 0.030339725
0.0031161641 0.040227965 -0.011771564 -0.00047014895 0.0385075 -0.047183845 -0.021913463 -2.1520782e-05
-0.041611385 0.008101441 0.022944188 0.021076597 0.029047454 0.00084822706 0.013329721 -0.03135445
0.0051483936 0.027485598 0.0052746646 0.004482391 -0.017676724 0.014565033 -0.013052617 -0.0012348775
0.0024869093 0.017625136 0.008327697 -0.033518147 0.027694648 -0.04358019 0.035987116 -0.01322194
0.008423555 0.05043879 -0.014114394 0.0180428 -0.012654294 0.016870882 -0.05250688 -0.022813452
-0.00311946 0.005448723 -0.025667839 -0.026435407 0.032525424 0.017141491 0.0029808895 -0.043088038
-0.0459741 -0.028880829 0.010718192 0.0117993085 -0.01332907 0.026106264 -0.022035183 0.01621454
-0.02612419 0.024292795 0.025160234 0.026069667 -0.028744848 0.018397141 0.019855516 0.0077574966
0.013003251 -0.020485418 0.029767431 -0.040831096 -0.029795215 0.031432405 -0.008150352 -0.014936262
-0.028001674 0.012328355 -0.038669743 -0.037275366 -0.010669226 -0.038614504 -0.025056865 -0.030967636
-0.013978542 -0.020219121 0.0005279506 -0.010162572 -0.037460085 -0.031658147 -0.0009396776 -0.0045293495
0.042743843 -0.0048333514 -0.0344035 0.0009968521 0.021819353 -0.03531523 -0.022498323 0.015804488
0.044572942 0.025270347 -0.015581251 -7.7203986e-05 -0.003100068 0.027320908 -0.014532363 0.029169267
-0.030858977 -0.0036469023 -0.02167114 -0.014918354 -0.00086427206 -0.013327036 -0.019146187 -0.017657256
-0.01306368 0.026396718 0.029710827 0.0062585194 -0.0069437777 -0.0036152625 0.031634513 0.047777407
3.093236e-05 -0.0007227145 0.03264139 0.035400763 0.028101342 0.02649279 0.03752938 -0.0014816164
-0.025300542 0.0069795903 -0.018139385 0.010349309 0.06665685 -0.029891444 0.009873604 0.025195997
-0.004990974 0.01918514 -0.005015055 -0.03931692 -0.020023061 0.009809381 -0.04469638 -0.039681073
0.054203253 0.008168695 0.04661348 -0.00811688 0.01757597 0.015982047 0.030945024 0.021342069
0.01852719 -0.0011906041 -0.025564037 -0.051748015 0.019354444 -0.011143697 -0.0071637286 0.016653605
0.026213655 -0.037312172 0.024545938 0.04090218 0.024497986 -0.020075802 -0.04248366 0.027161753
0.028556641 0.009465688 -0.004813925 0.0024713587 -0.015926655 0.015541346 -0.04543967 0.024135048

conv_stem.4.weight f4 [64]
00000000: ddc0 7f3f 0511 813f 8c6e 823f 9e43 7f3f
00000010: 0220 803f 5ea6 7f3f 91a8 7e3f 06ef 7f3f
00000020: 2273 823f ed87 7f3f a122 7f3f 9ef2 7e3f
00000030: 9cfe 7f3f a3a2 7e3f 435f 7f3f 8580 813f
00000040: e4fb 7e3f 589f 803f 4925 7f3f 57a0 7f3f
00000050: 27a9 803f 7bd7 7f3f e1e7 803f 5deb 803f
00000060: 9bf0 7d3f d592 7e3f 6a0b 813f ea1e 813f
00000070: 8713 7f3f e643 803f 3e49 7f3f ca8e 803f
00000080: 4402 803f a6e1 7f3f 73de 7e3f 86aa 803f
00000090: 8d4a 803f 1121 803f 1613 813f edbf 7e3f
000000a0: 3a8c 7e3f cf61 803f 1986 7f3f 506d 803f
000000b0: 8c1f 803f 2fac 7f3f 3796 7f3f 42ae 7f3f
000000c0: 987c 803f b122 803f f0c3 7f3f af91 7f3f
000000d0: 0fa6 803f cd0e 813f 3447 813f 4d50 803f
000000e0: 5910 7f3f a6d0 7e3f e7a1 803f 3cb3 813f
000000f0: 564b 7f3f 2527 803f 1f93 7d3f a8dc 7f3f
0.9990366 1.0083319 1.0189986 0.9971255 1.0009768 0.9986323 0.9947596 0.99974096
1.0191386 0.9981678 0.99662215 0.99588954 0.9999788 0.99466914 0.9975473 1.0117346
0.99603105 1.0048628 0.9966627 0.99854034 1.0051621 0.9993817 1.0070764 1.0071827
0.9919526 0.994428 1.0081608 1.0087559 0.9963917 1.0020721 0.99721134 1.0043576
1.0000691 0.9995369 0.9955818 1.005204 1.0022751 1.0010091 1.008395 0.99511606
0.9943272 1.0029849 0.9981399 1.003336 1.0009627 0.99872106 0.99838585 0.9987527
1.0038023 1.0010587 0.9990835 0.9983167 1.0050677 1.0082642 1.0099854 1.0024506
0.9963432 0.9953712 1.0049409 1.0132823 0.9972433 1.0011946 0.99052614 0.9994607

conv_stem.4.bias f4 [64]
00000000: bac2 9fbb 5cc5 9eba 5544 4c3c 4864 99bb
00000010: b017 babb bbc3 25bb b9f7 30bc 672a 573a
00000020: 086c 9bba 4c39 a7b9 c34f ddbb abbb 023b
00000030: aa95 04bc f63f 04bc 4162 e9b9 ac7e c83a
00000040: da66 b0bb 0120 a53b f5fc e3bb 047e deba
00000050: b0cd cdba 3d8f f6bb e16e 2abb e742 dc3b
00000060: 4f22 08bc 394e 7bbc 2fd4 b9ba c326 c339
00000070: 2a6f a4bb a3f6 b5ba c31d 08bc 8311 98bb
00000080: 2456 3aba 28ad 0fbb 8cff 81bb 4f2e ca3b
00000090: 1ef7 89b9 04ae 6cbb b1ce 853b 15fd 1dbb
000000a0: bb66 e8bb 0383 a53b c5fb aabb eb00 dfbb
000000b0: 3329 1b3a 654a 86bb c39d 9bbb 68ae 89bb
000000c0: 974a 0eba 032c 61bb 1197 11bb 3ef1 48bb
000000d0: 037a 93ba b48f 22bc 48d9 c13b 5f3d 5c3a
000000e0: 810f 753a 48d3 d33a ecff 513b 1408 3a3b
000000f0: c45f afbb be1f c2bb cbcb 3bbb e46e d4bb
-0.004875508 -0.0012113261 0.0124674635 -0.004681144 -0.0056790933 -0.0025293666 -0.010801249 0.00082079176
-0.0011857757 -0.00031895412 -0.006753893 0.0019948285 -0.008092323 -0.00807189 -0.00044514428 0.001529654
-0.0053833546 0.0050392156 -0.006957645 -0.0016974811 -0.0015701558 -0.0075243996 -0.002600603 0.0067218426
-0.008308961 -0.015338474 -0.0014177616 0.00037222178 -0.0050181346 -0.0013882708 -0.008307877 -0.0046407594
-0.0007108173 -0.0021923278 -0.003967231 0.006170071 -0.00026314793 -0.0036114464 0.0040834774 -0.0024107147
-0.0070923246 0.005051018 -0.0052180015 -0.0068055294 0.000591892 -0.004098224 -0.0047490313 -0.004201699
-0.0005427985 -0.0034358508 -0.0022215287 -0.003066137 -0.0011251572 -0.009921957 0.0059157945 0.0008401479
0.00093483186 0.0016160989 0.003204341 0.0028386163 -0.0053519923 -0.005924194 -0.0028655406 -0.0064829458

conv_stem.4.running_mean f4 [64]
00000000: ce89 5f3e 6ed2 a93e b968 5d3e 740b b3be
00000010: 5bbf 7c3e de53 4f3e ba7b b33e 3b71 093e
00000020: 2415 d83e c281 8b3d dbba f63c aed2 c1be
00000030: e2a3 0cbf 259d da3d 292d 9d3d b52b 6e3e
00000040: de8c 92be b647 45be 9cf4 303e 80aa 363e
00000050: 8ba8 90be 7ee2 853d b294 00bf 6dfe 52be
00000060: 2ffb 5f3d f8d1 823e 5ab4 cf3e 1729 933e
00000070: 75a0 fe3b 5bd9 283e de84 a03d 2670 e53e
00000080: 29b1 7fbe f71d cbbe e275 bdbe 1ede 1c3e
00000090: ab04 d13e 7622 57be a849 e7bd cf84 363e
000000a0: 48f8 883d 3081 523d 978b 9ebd b861 a1bd
000000b0: ad5c bcbe d5e2 f93d 82c8 d83d 8f4d 523d
000000c0: cdb9 f73e bf76 7cbe cdcb b7be ce1f 5fbe
000000d0: 8b3c e0bd 5381 853e ed7c 7cbe 527c 83be
000000e0: fe85 663d 4090 2e3d f85c 033f df95 37bf
000000f0: f7f6 28bd 55b4 a73e 6c63 76be f5fe 593e
0.21829912 0.33168358 0.2162198 -0.34969676 0.24682371 0.20246837 0.35055333 0.134221
0.4220363 0.06811859 0.030118397 -0.37856048 -0.54937565 0.10674504 0.07674629 0.2325886
-0.28623098 -0.19265637 0.17280811 0.17838478 -0.28253588 0.065373406 -0.5022689 -0.20604868
0.054682907 0.25550818 0.40567285 0.28742287 0.007770593 0.16489165 0.078378424 0.44812125
-0.24969925 -0.396713 -0.37004 0.15319106 0.40823874 -0.2100924 -0.11293346 0.178241
0.06687981 0.051392734 -0.077414684 -0.078799665 -0.36789456 0.12201468 0.10585119 0.051343497
0.48383942 -0.24654673 -0.35897675 -0.21789476 -0.10949048 0.2607523 -0.2465703 -0.25680786
0.05628013 0.042618036 0.51313734 -0.7171306 -0.04125115 0.3275477 -0.24061364 0.21288665

conv_stem.4.running_var f4 [64]
00000000: c6cf 093e 29e6 003e bcf7 fd3d f11b 0c3e
00000010: 545c ef3d 9228 113e 4e71 133e 32d2 073e
00000020: f2d7 133e f5d3 333e f023 db3d 750a 3d3e
00000030: c064 2c3e ffd1 dd3d 396a 033e bc81 d13d
00000040: b437 603e 3340 4c3e fd31 063e 4497 cf3d
00000050: 3f22 ef3d 8adc bc3d 1d01 0e3e 1d69 bc3d
00000060: bfd0 e43d 0bf2 cd3d 80e0 d63d 4c18 033e
00000070: 74ad d83d 8a34 2a3e 7b68 e63d 3aca 0f3e
00000080: d764 ee3d 439f 1f3e 71cb d93d aaa2 e03d
00000090: 7728 e83d 66af 173e b63a 043e 23e8 033e
000000a0: 0578 d73d 4abf e13d 5f1c 1a3e 4eb8 2e3e
000000b0: dda5 f23d bb87 2c3e 36e4 093e 3ecb bb3d
000000c0: 1629 023e d6e5 ba3d ec68 373e e3c2 0b3e
000000d0: 9a35 263e 405d 073e 9012 e33d 243f f83d
000000e0: f402 fd3d b9de e53d 87db 2d3e 004e 0d3e
000000f0: a7d8 d13d 0c70 e73d 9b90 c83d 48b3 003e
0.13458166 0.12587799 0.12400767 0.13682534 0.11687532 0.14175633 0.14398691 0.13263777
0.14437845 0.17561324 0.10700214 0.1846102 0.16835308 0.10831069 0.1283349 0.10229823
0.21896249 0.19946365 0.13105007 0.101362735 0.11676454 0.09221752 0.13867612 0.09199736
0.11172628 0.10055932 0.10492039 0.12802237 0.105799586 0.16621605 0.11250397 0.14041987
0.116403274 0.15588097 0.106345065 0.10968526 0.11335843 0.14813003 0.12913021 0.12881522
0.10520939 0.110228136 0.15049885 0.17062494 0.11848042 0.16848652 0.13465962 0.09169625
0.12710986 0.09125869 0.17911118 0.13648562 0.16231385 0.13219166 0.11087525 0.12121418
0.12354079 0.112241216 0.16978274 0.13799286 0.10246401 0.11300668 0.09793206 0.1256839

proj.weight f4 [64, 64, 1, 1]
00000000: c4a8 8fbd 4210 b33d 98da c33d e42d 82bd
00000010: a77f 74bc 466a c0bd 0ad9 0f3d a6e3 0bbd
00000020: 0f66 033e d65d 77bd d1c9 dd3c 0785 c6bd
00000030: 603f 813d bb50 9bbc 3936 a93d 1e2c 62b9
00000040: 18a3 983d 99f4 bc3d 0380 993d 223b 883c
00000050: 3372 ba3d 148e 223c 3413 e7bd 5f91 d53d
00000060: d1a1 e23d 91b3 af3d 3ee1 d3bd f760 aabd
00000070: e23d 903d 1be0 103d 3369 cdbd d4cf b6bc
00000080: 5d33 d33d f26e 24bd aee9 29bd 6d22 6c3d
00000090: db1f 78bd b010 133d d9a0 b3bd 9745 74bb
000000a0: 2ef0 bbbd 62ef 9cbb e63e c0bd 137a 7a3d
000000b0: 8d18 a6bd fbb7 f3bd 752b 8d3d 177e 0bbd
000000c0: b016 fb3d 1e56 603d 5b7a 39bc 7924 00bd
000000d0: 2652 95bb 8795 eebc bf19 7fbc 5df5 dd3c
000000e0: 77a4 f6bc 85a1 4ebc 8866 c3bd 156f e73d
000000f0: e34c f4bd 2bcc 2b3b 33dc 003e 1908 e43d
00000100: 8d6d d53d 46ed 00bd b2db 663d d748 33bd
00000110: d00f d1bd 3b19 e23d 241a fe3d 707b 213d
00000120: 3b66 d63c 2941 32bd ba4e 5c3d 2e8b a53d
00000130: 6a9e 0bbd dcc8 08bd a5c1 b5bd d953 4e3d
00000140: 8069 063c 1e9c da3b b4c4 d23d 311f bdbc
00000150: 28a7 223c df13 c73b 4d74 e23d 3178 fd3d
00000160: 7be7 c33d e355 4abd 951f aabd 5c4b 853a
00000170: 2622 363d 26e4 d8bc ea95 c7bd 2657 ac3d
00000180: 38d9 1cbc 6878 57bd 6515 d93d 15a6 a2bb
00000190: a724 f0bd de59 b43d 9767 c9bc 64fa 3abd
000001a0: b0aa 453d c203 af3d c5ac 253c e9c7 983c
000001b0: 72ea b9bd 10af 903d d3cc 0dbd c441 7cbd
000001c0: 56e2 963b 3c5c fabd f05e e13c b7cf cd3d
000001d0: 07f9 8e3d 1f1e 96bd 8eaf 783c f4b1 c93d
000001e0: 7061 5fbd 2065 073d 2cca a0bd 3830 e3bb
000001f0: 2e66 193d 72ee 443d b889 823d 0800 d4bd
00000200: f11d 47bd c790 05bc 5791 313d 5600 953d
00000210: 9669 adbd bdde 5e3d acfc 6f3b 16ef 19bd
00000220: 709d 8d3b b9fa 02bc 4e70 403d fbb5 81bd
00000230: 6d3d 783d 9326 ed3d d098 cfbc b222 e33d
00000240: 233d f5bd 4614 e7bd 8ff9 dbbd 9a60 43bc
00000250: fac4 12bd e50d bf3d 5bfe 4a3c 5836 623c
00000260: d87a fb3d 6ab1 eb3d 7532 84bd 336a 673b
00000270: b132 7a3d 04b1 96bd c599 383d 4bb9 f03d
00000280: c315 c43d 33e4 d73d e17e b4bd 5b3d a8bd
00000290: 938c f03d 3f54 dcbd 3b19 033e 5833 2e3d
000002a0: cc74 483d 5059 c8bd bf52 2e3c f556 f1bd
000002b0: 0327 debd 1e09 82bd 83ab 9abd 7731 893d
000002c0: 88b9 36bc fdc6 183d c322 aabc 7f7c 703d
000002d0: d7e4 d5bd 62ce 423d d43c d13c dcec 8f3a
000002e0: 3fb8 bbbd ae3b 803c 1d8a 84bd 7d3d dabd
000002f0: 63f7 ce3c 0bfa fe3c 1884 1b3d 9d83 9a3d
00000300: bce4 afbd 1d4e 8b3d cda5 6a3c e381 263d
00000310: 5d9f 353d 3ea1 a73d de76 e1bc b471 b33c
00000320: 9888 1f3d a2a4 02bd 031b 153d c8bb d6bd
00000330: fc88 91bc 9074 15bd 8366 f43d df2a a1bd
00000340: 7774 bd3d f99b c33d 8c1b afbc e403 083d
00000350: 806b 893d af74 a63b 51ce e4bc a1cd eabb
00000360: 4c49 e73d 788a bc3c 6b86 093c 7073 a6bd
00000370: 2b82 9dbd 3881 01bc afbb b7bd 6e1b ccbd
00000380: 71ff 8dbd 3f1d a23d e818 463d e27e 503d
00000390: 5639 d03d dbe3 c33d a83f eb3c a6e2 2dbd
000003a0: 4d89 46bb f9f2 eb3d 8e15 82bd 7e93 e5bd
000003b0: e3ae c83c 5c8c a3bd b51b bcbd 79a4 743d
000003c0: 3f4a b6bd 657d 01be b1cb 463d 98e2 dabd
000003d0: 913b c6bd c356 c73c 6c60 e4bd 0036 073e
000003e0: d234 e8bc 78cc b2bd 2248 e83d c081 0c3c
000003f0: 3729 d23d 0883 8abc 0de8 cc3d f858 05bd
-0.07014611 0.08743335 0.09563178 -0.06356409 -0.014923013 -0.0939527 0.035119094 -0.03415265
0.12831901 -0.060392223 0.027073773 -0.09693342 0.06310916 -0.018959394 0.08262295 -0.00021569474
0.07452983 0.09226341 0.074951194 0.01662976 0.09103813 0.009921569 -0.112829596 0.10428118
0.1106602 0.085791714 -0.10345696 -0.08319276 0.07043053 0.035369974 -0.10029831 -0.022315897
0.10312531 -0.04014487 -0.04148262 0.05765002 -0.060577255 0.035904586 -0.08770914 -0.0037272924
-0.0917667 -0.004789279 -0.09386997 0.061151575 -0.081101514 -0.11900326 0.068930544 -0.034055796
0.12260187 0.054769628 -0.011320676 -0.031284783 -0.004556912 -0.029124035 -0.015570103 0.027094537
-0.03010772 -0.012611751 -0.09541041 0.11300484 -0.119287275 0.0026214223 0.12584 0.11134357
0.10421286 -0.03147628 0.05636186 -0.043770637 -0.10208094 0.110399686 0.1240733 0.03942436
0.026171794 -0.043519173 0.053786017 0.08083187 -0.034086622 -0.03339468 -0.088748254 0.050372932
0.008203864 0.0066714427 0.102914244 -0.023086162 0.0099275485 0.006075367 0.11057339 0.1237644
0.09565636 -0.049398314 -0.08306805 0.0010169554 0.04446616 -0.026475977 -0.09745391 0.0841506
-0.009573273 -0.052605063 0.10599784 -0.004963646 -0.11725741 0.08806203 -0.024585528 -0.045648947
0.048258483 0.085456386 0.010111992 0.018650012 -0.0907792 0.070646405 -0.034619164 -0.061586156
0.004604618 -0.122246236 0.02751109 0.10049384 0.06981092 -0.07329964 0.015178574 0.09848395
-0.054536283 0.033055425 -0.07851061 -0.0069332384 0.03745096 0.04807896 0.06373924 -0.103515685
-0.04861254 -0.008152193 0.043351498 0.07275455 -0.084674045 0.05441164 0.003661911 -0.037581526
0.0043217465 -0.007994347 0.046982102 -0.06333538 0.060605455 0.11579623 -0.025341421 0.11090602
-0.119745515 -0.11283164 -0.10740959 -0.011924887 -0.035832383 0.09328822 0.012389745 0.013806902
0.1227929 0.115084484 -0.064549364 0.0035311102 0.0610835 -0.07357982 0.04506852 0.11754092
0.09574463 0.105415724 -0.08813263 -0.082148276 0.117455624 -0.10758256 0.12802593 0.042529434
0.04893951 -0.0978266 0.010639845 -0.11784164 -0.10847285 -0.06349395 -0.075522445 0.06698888
-0.011152633 0.037299145 -0.020768529 0.05871248 -0.10444038 0.047560103 0.0255417 0.0010980624
-0.091660015 0.015653457 -0.064716555 -0.10656259 0.025264448 0.03112509 0.03796777 0.075446345
-0.085885495 0.06802008 0.014321757 0.040651213 0.044341434 0.081850514 -0.0275225 0.021904804
0.038948625 -0.031895287 0.036402714 -0.10485035 -0.017765515 -0.036488116 0.11933615 -0.07869505
0.092507295 0.09551234 -0.02137544 0.033206835 0.06709957 0.0050798277 -0.02793041 -0.007165626
0.11293277 0.023015246 0.008393864 -0.08127487 -0.07690843 -0.007904343 -0.08971345 -0.09966169
-0.06933487 0.079157345 0.048363596 0.050902255 0.10167186 0.09564944 0.028716877 -0.042452477
-0.003029424 0.11520953 -0.063517675 -0.112097725 0.024497455 -0.07985756 -0.09184972 0.059727166
-0.0890088 -0.1264549 0.0485341 -0.106877506 -0.0967933 0.024333363 -0.111512035 0.13204193
-0.0283455 -0.087304056 0.11341883 0.008575857 0.10261767 -0.016908184 0.10005198 -0.03255555

proj.bias f4 [64]
00000000: a147 ecbd 67da abbd 96d0 b5bd 2125 80bd
00000010: 932f af3d 80b6 cabb 2d57 d13c 998b 67bc
00000020: a4c2 9c3c c788 94bd 1302 3b3d 1e54 75bb
00000030: e4f5 1b3d e059 453d e5d0 c1bc f2f9 57bd
00000040: b09f 1b3d 3a3c 3fbd 14f7 b9bd 225b d2bc
00000050: 3725 7bbd eff5 f0bb b264 073d 8ce3 71bd
00000060: 3f91 c33d 18af bdbc b220 023d 2b4c 3d3d
00000070: cfc3 4d3d 0f6f 3f3d 30c8 e03d 044a 323d
00000080: f023 ef3d cc8f b33d 379a bcbd 5d3b 5cbd
00000090: 33b8 b93d 7ed3 ee3d 763f c1bd 4a3c 96bd
000000a0: d2c0 b13d 8785 413d 557a cc3b 7fa1 79bd
000000b0: 091c 84bd bc79 04bc 1ba9 23bd 3e43 67bd
000000c0: 3647 7abd 958c aa3d 22bf 6a3c a45f 45bd
000000d0: 8a6b c9bd 288c c23d b5b7 553d 7851 3a3d
000000e0: af7d e03d 23ba 42bd ece9 9dbd 1a9f 923d
000000f0: a58a 51bd 7d1c c8bd 1c7b 82bc 1add 9cbd
-0.115371 -0.08391266 -0.08877675 -0.06257082 0.08553996 -0.0061863065 0.025554264 -0.014132404
0.01913578 -0.07252651 0.045656275 -0.003743417 0.038076296 0.048181415 -0.023659179 -0.0527286
0.037994087 -0.046688296 -0.090803295 -0.025678221 -0.061314788 -0.0073535363 0.033055015 -0.059054896
0.09549188 -0.02315478 0.031769462 0.046215218 0.050235566 0.046736773 0.10975683 0.043527618
0.116767764 0.087676615 -0.09209102 -0.05376755 0.09068336 0.11661433 -0.09435932 -0.07335718
0.08679356 0.047246482 0.006240169 -0.06094503 -0.0645066 -0.008085664 -0.039956193 -0.05646061
-0.06110307 0.08327595 0.014327796 -0.048186913 -0.098349646 0.09499389 0.05217715 0.04548785
0.10961472 -0.047540795 -0.07710633 0.071592525 -0.051157612 -0.09771059 -0.015927844 -0.07659359

encoder.layers.0.self_attn.in_proj_weight f4 [192, 64]
00000000: 5c14 e93d 4889 91bd 8e3b 09be dd1f fa3c
00000010: 66c6 393c 29ae 3f3e 2818 103d 8933 d7bd
00000020: c96c 5a3d 2cf1 0b3d cf58 0d3d 9494 41be
00000030: 8f1e e3bc 1284 563d e255 273a fa1d 7e3c
00000040: bddc db3d 5b09 ac3b eb6a 973d f7f4 18be
00000050: 5c6e 2d3e 269c 42be 981f 823d 9f6e 293e
00000060: 3914 21bd 90d6 f23c 8eba fb3d bedd 8fbd
00000070: fad1 d0bd d6c2 553b 037f 05be 3890 933d
00000080: 219a 24be 3109 103c f5b6 42be af8b 4a3d
00000090: 2999 07bc 1497 113d f1e9 a9bd 08cb cfbb
000000a0: d893 e9bd 2407 003e 9e10 33be b74a 11be
000000b0: 5dea aa3d b624 00be a06a 3ebd 1b06 c33d
000000c0: a9bb 0abe 4fbb 11be ce7e 29be 323d 103e
000000d0: b998 40bd e32a bdbd 8426 963c d517 dabc
000000e0: 22f7 283d c051 2b3e c7d0 f6bb c3c5 a3bd
000000f0: d137 073d 11a2 44be c60b d6bd 42fc f33d
00000100: 900f 2c3e c9c9 393e 5f58 4f3d 372a a03d
00000110: b4ad 9abd accd 25bc 7c80 f1bd 1c1e 12be
00000120: d0f7 0abc c83b 66bc b390 253a e495 7d3d
00000130: b6cf e13d 9e55 b03d 55d0 8cbc 511f c4bd
00000140: 2839 06be 3fa7 533c 268b a6bd 99c3 72bd
00000150: d158 b03d f97d 75bc e865 873d 9ac1 12bd
00000160: f206 fc3d f8d6 e0bc bd6d 0a3e a05e a63d
00000170: 94e7 f7bc 6928 5bbc f167 9b3d c144 1f3e
00000180: 9eaf 2a3e 58d0 1e3d 527d bfbc 92dc 8abd
00000190: 834c eebd 54f1 15be 0857 043d 426e 2d3d
000001a0: fced e63d b96b 013e 47d6 f33d b8d9 9cbd
000001b0: e662 a33d 1516 eabc 1dc3 a3bd a910 cf3d
000001c0: 53c0 b3bd ea5c e4bd ab0f 8e3d 074f f93d
000001d0: b855 023e 4ab3 f3bd 0423 0d3e 22c3 003e
000001e0: 278e d73d 6df4 b6bd 9cde d73c f477 3abe
000001f0: 1726 c8ba daec 043d a701 9dbd 2935 2a3e
00000200: ef9c 093e 7231 01be 5f73 cf3d f14b fb3c
00000210: 83e5 0bbe 0fd4 be3d 559a 8abc 35fe adbd
00000220: 7dd9 243e 9a7a d2bd 6214 fa3d 9491 323e
00000230: 937f b83d 7d40 c43d d2a2 23be 97f8 a23d
00000240: 702a 953d d1be 823c 58cf 17be 8e95 8ebb
00000250: 46c3 a5bd a662 af3c 50ed dfbd 0908 0ebe
00000260: 7198 b8bd 6f1a e1ba ecaa 44be 81d2 e93b
00000270: 85d6 ffbb 4639 c4bb 7da1 f63d 6765 7cbd
00000280: 2298 99bc 95f6 21be f98e 053d 431a 293e
00000290: 0cee 8d3c 7faa 953c dc28 16be 6d21 19be
000002a0: aaf7 30be 945d 143e 4b62 96bd 3552 123e
000002b0: 422b e93c 7311 bebd 4653 f6bd 9132 93bd
000002c0: c53f c3bc 6965 d7bd 07ed 82bd 17d7 07be
000002d0: 73eb 67bd 2916 af3d dd5a b1bd 432e 19be
000002e0: e083 4b3d b45d a33d 0cef 0c3e bab1 c83d
000002f0: 9bff 003e f56a 1c3d adb9 3bbd 7aa3 033d
00000300: 391e bfbd d59d a0bd 18b4 3cbe 62a8 bfbd
00000310: b053 3c3d e58c 54bc 3435 3abd 2183 ec3b
00000320: e1aa cebd debf 1e3e fc93 a7bd 489f 243d
00000330: c2af d3bd 5839 b53d ad49 2d3d e1d5 b4bc
00000340: 1c8a 0dbe 54ae a0bc c0d5 9a3d 1ede 143e
00000350: 2f00 53bd c1df 9dbc 18cc bc3d d9f6 cebd
00000360: c42b 45be d6cf 0a3e 653e 0bbe 2daf 6a3d
00000370: 1259 c1bd db29 1ebe 91b4 273d 3602 243d
00000380: 274d 603e ab83 0dbe 174d b23d 4952 bfbc
00000390: a170 28bd 69f4 1bbe 6d36 88bd d599 26be
000003a0: 05ab f23d e399 2e3e cb8a 203d 0ca3 46bd
000003b0: 0828 8e3d 98ea 29be 4ee6 1c3d fa7f 11be
000003c0: 0afd 44bd c53e 08bd 6566 943c 1702 46bd
000003d0: 7231 82bd 91ae 99bd 0d12 16bd 61f6 d13c
000003e0: 751a b33d 81d1 c7bd 294c 1bbd a2e5 d7bc
000003f0: 6acc a23d 79e6 cbbd ffce af3c b980 00be
0.11380836 -0.071062624 -0.13401625 0.030532772 0.011338806 0.1871878 0.035179287 -0.105078764
0.0533264 0.034165546 0.034508523 -0.18904334 -0.027724532 0.052372046 0.0006383342 0.015510077
0.10735462 0.0052501387 0.0739344 -0.14937197 0.1693663 -0.19004878 0.06353682 0.16546105
-0.039325926 0.029643327 0.12291442 -0.07024716 -0.101963 0.0032617352 -0.13036732 0.07205242
-0.1607442 0.008791254 -0.19015105 0.04944962 -0.008276262 0.03554447 -0.08296574 -0.006341342
-0.11405152 0.12502724 -0.17486808 -0.14188658 0.083454825 -0.12514004 -0.046488404 0.09522649
-0.13548149 -0.14231609 -0.16552278 0.14085844 -0.047020648 -0.092366956 0.018328913 -0.026622692
0.04125131 0.16730404 -0.0075322124 -0.079967044 0.033012215 -0.19202448 -0.10451464 0.11913349
0.16802812 0.18143381 0.050621387 0.07820552 -0.075526625 -0.010119837 -0.117920846 -0.14269298
-0.008481935 -0.014052339 0.00063158124 0.061910525 0.11025946 0.0861008 -0.017189184 -0.09576286
-0.13107741 0.012918293 -0.08132009 -0.059268568 0.086106904 -0.0149836475 0.06611234 -0.035829164
0.12306012 -0.027446255 0.13518424 0.08123517 -0.030261792 -0.013376334 0.075881846 0.15553571
0.16668555 0.03877291 -0.023375187 -0.06780352 -0.11635687 -0.1464284 0.032309562 0.04234148
0.11275861 0.12638749 0.119061045 -0.07658714 0.07977848 -0.028574983 -0.07996199 0.101105995
-0.08776917 -0.111505345 0.06936582 0.121732764 0.12728012 -0.11899431 0.13782889 0.12574437
0.1052516 -0.08933339 0.026351266 -0.18209821 -0.0015270141 0.03245244 -0.07666331 0.16621841
0.13438772 -0.12616518 0.10129427 0.03067586 -0.1366177 0.09317791 -0.016919294 -0.08495752
0.1609859 -0.10277291 0.12210919 0.17438346 0.09008708 0.09582613 -0.1598008 0.07957571
0.07283485 0.015960129 -0.14825189 -0.0043513244 -0.08093886 0.021409344 -0.10933936 -0.13870253
-0.09013451 -0.0017174016 -0.19205827 0.0071356897 -0.007807555 -0.005988273 0.1204252 -0.061620142
-0.0187493 -0.1581672 0.032607052 0.16513924 0.017325424 0.018269775 -0.14664024 -0.14954157
-0.17281976 0.14488822 -0.07342967 0.14289172 0.02846301 -0.09280672 -0.12027602 -0.07187379
-0.023834119 -0.10517389 -0.06392866 -0.13265644 -0.056621026 0.085491486 -0.08659909 -0.14959054
0.049686313 0.07976857 0.13763064 0.09799524 0.12597506 0.03818794 -0.04583137 0.032138325
-0.093319364 -0.07842604 -0.18428075 -0.09358288 0.045978248 -0.012973045 -0.045460895 0.00721778
-0.10091186 0.15502879 -0.08182523 0.040190965 -0.103362575 0.08848828 0.04230659 -0.022074642
-0.13822216 -0.019614376 0.07560301 0.14537856 -0.051513847 -0.019271733 0.09218615 -0.10105676
-0.19254977 0.13555846 -0.1359802 0.057295967 -0.09440817 -0.15445654 0.040943686 0.04004117
0.21904431 -0.13819759 0.0870611 -0.023354666 -0.041123036 -0.15229954 -0.06651006 -0.1626962
0.11849026 0.1705089 0.039194863 -0.048495337 0.06941229 -0.16593397 0.038305573 -0.14208975
-0.04809288 -0.033262987 0.018115232 -0.048341837 -0.06357087 -0.07503999 -0.03663831 0.025630178
0.08745281 -0.097567566 -0.03791443 -0.026354615 0.07949145 -0.099560685 0.021461008 -0.12549104
