models/rym_grid_c0_s64_e2_t4_r4/cnn_c0_ce_a0p32_l0p16_lr1e-03.pt (torch, 198843 bytes, 23 tensors)

conv.0.weight f4 [32, 64, 3, 3]
000000 65 8c 86 be d0 6a e3 3f c0 38 50 bf 46 f8 bd be
       -0.26278988 1.7766972 -0.81336594 -0.3710348
000010 2f 57 67 40 e2 f2 95 be ab eb af 3f 5c 03 39 3d
       3.6146963 -0.29286867 1.3743795 0.04516922
000020 00 c3 51 3f 8c fd 22 c0 84 10 10 c0 d0 db 0f c0
       0.8193817 -2.5467253 -2.251008 -2.2477913
000030 9c 97 83 c0 e2 1f 57 3f 27 f3 33 c0 55 bc d8 bf
       -4.112257 0.84033024 -2.8117158 -1.6932474
000040 8c 0f 05 bf df 54 47 bf d3 d7 85 be a4 1f 13 c0
       -0.5197685 -0.7786388 -0.26141223 -2.2988062
000050 32 75 96 c0 f1 9d 4c 3f 8f 8e bc bf c2 dc fa bf
       -4.701806 0.799285 -1.4731005 -1.959862
000060 b9 a1 91 3d 30 46 6f bd 16 15 2f c0 3e 75 e9 be
       0.07110924 -0.058416545 -2.735662 -0.4559726
000070 6b 89 e8 be 12 2a c7 bf 40 dc 30 3f 56 24 a9 c0
       -0.45417342 -1.5559714 0.69086075 -5.2856855
000080 32 90 de bd ac f9 4f 3f cc cd 26 c0 52 cc 73 bf
       -0.10867347 0.81240344 -2.6063108 -0.95233643
000090 52 e6 c8 bf 23 3c 33 bf a2 c0 a3 3d af c0 0b c0
       -1.5695288 -0.70013636 0.07995726 -2.1836355
0000a0 f3 ce ad 3f bb f3 2e c0 08 9c 1c c0 c9 39 98 be
       1.3578781 -2.7336261 -2.4470234 -0.29731587
0000b0 49 7c b4 3e 03 ed 2a bd 66 03 ad bf 67 6a 1a c0
       0.35251072 -0.04172994 -1.3516662 -2.4127443
0000c0 ea 10 f1 3e 02 e6 4b 40 1d 50 02 bf 67 47 a3 3f
       0.47083217 3.1859136 -0.50903493 1.2756165
0000d0 ae 74 1d 3f e4 b8 a0 bf 97 5b dd be 2c c3 ed 3f
       0.61506164 -1.2556424 -0.4323394 1.8575187
0000e0 41 8b f0 be 71 5f de 3e e2 18 6c bf 51 a7 21 c0
       -0.46981242 0.4343219 -0.9222547 -2.5258372
0000f0 fd bb 56 3f e2 a1 2c bf 0a 1c 02 40 74 b7 cb bf
       0.838806 -0.67434514 2.0329614 -1.591536
000100 f5 70 9e 3f d4 b9 0e c0 06 ee 94 be af d7 0e 40
       1.2378222 -2.230092 -0.29087847 2.2319143
000110 18 5c 09 c0 8e 1d 08 40 15 fb 97 3f c1 2e d9 3f
       -2.146246 2.1268039 1.1873499 1.6967393
000120 81 a8 1c bf 2d e4 cd bf c6 61 00 3f 2e 7c 5d bf
       -0.61194617 -1.6085259 0.5014919 -0.8651761
000130 b7 ba 9e be 1e c8 7d c0 15 b7 ab be 56 52 74 3e
       -0.31001827 -3.9653392 -0.33538118 0.23859534
000140 11 87 bf 3e d4 ed b6 3d 23 43 93 3f be 69 8a bf
       0.37407735 0.08932081 1.1504864 -1.081352
000150 46 58 ac 3f 0d 7e a2 3f e9 6a 3e bf 8e c5 11 c0
       1.3464439 1.2694718 -0.7438188 -2.2776828
000160 29 e2 a0 3f 53 9e 4f bf 9b be 94 3f 1a 35 cc bf
       1.2569019 -0.8110096 1.1620668 -1.5953705
000170 85 47 f7 be cc ba 35 bf 96 f7 3b 3f e0 42 ea be
       -0.48296753 -0.70988154 0.7342466 -0.45754147
000180 50 66 76 3f f4 96 fc 3f 0d f2 b2 bd fa 90 7f bf
       0.96249866 1.9733567 -0.08737574 -0.9983059
000190 a6 81 08 bf 4f 94 0b c0 9f cd 2a c0 b8 ac e5 bf
       -0.5332283 -2.180927 -2.6688 -1.7943335
0001a0 5e 28 a2 3f 87 3c 54 3e ed 62 0c 40 78 4b e2 3f
       1.2668569 0.20726214 2.193538 1.7679281
0001b0 49 ae 6e be 02 e9 84 3e 62 d8 2d bf 21 02 54 be
       -0.23308672 0.2595902 -0.679083 -0.20703937
0001c0 a2 14 32 3f 06 58 85 3e 11 0a 87 be 14 49 70 be
       0.69562733 0.2604372 -0.26374868 -0.23465377
0001d0 d3 51 dc 3e 3c ac 2f 3d 2a 4c d1 be 84 02 11 be
       0.43031177 0.042888865 -0.4087842 -0.14161116
0001e0 29 99 f7 be 1b f2 61 be 6e 84 bc bd 48 41 30 bf
       -0.4835904 -0.22065012 -0.092049465 -0.6884961
0001f0 91 16 63 3a e0 f4 8a be 50 36 94 3e 48 90 2f 3e
       0.00086627254 -0.2713995 0.28947687 0.17144883
000200 77 26 d2 3e 40 2b b9 3e 4d 5c b6 be 03 79 ee be
       0.4104497 0.3616581 -0.35617295 -0.465767
000210 eb 44 3d 3f 17 4d 27 3e 0d 7c f7 bd 74 42 9c be
       0.73933285 0.16338001 -0.12084208 -0.3051945
000220 dd 4a 8e bc 71 2e f1 3e 86 11 82 3e 80 2c c3 be
       -0.017369682 0.47105744 0.25403994 -0.38119888
000230 24 c4 1d 3f f9 cf 2d 3f ea b0 35 be 99 e6 5f 3f
       0.6162741 0.67895466 -0.17743269 0.8746124
000240 e7 f7 22 bf e6 49 03 3e fc ad ab 3e 65 98 9b bd
       -0.6365952 0.12821159 0.33531177 -0.07597426
000250 04 67 cb be 8b 76 da be ca ab ff bd ee 48 93 3e
       -0.39727032 -0.42668566 -0.12483938 0.28766578
000260 a1 7a 0b 3e b2 d6 fa 3e ef f3 f6 be d3 b4 24 be
       0.13620998 0.48991925 -0.48232982 -0.16084604
000270 6a d2 b8 bd f1 8b 49 bf 42 66 e0 bd 0e e9 81 be
       -0.09024508 -0.7872916 -0.10957004 -0.2537312
000280 a6 42 95 3e 18 45 20 bf 19 d6 1e 3e 0a 18 f9 be
       0.2915241 -0.6260543 0.1551136 -0.48651153
000290 c7 f5 fc be 55 b0 21 bd a6 71 50 be 39 e0 73 bd
       -0.49406263 -0.039474804 -0.20355853 -0.059540007
0002a0 19 ba 4f be b6 a9 95 3e e9 c2 6a 3f 5c 1e b0 be
       -0.20285834 0.29231042 0.9170366 -0.34398162
0002b0 4c 67 46 3e a7 c0 91 3e ac da 00 3e 9d fd 14 3e
       0.19375342 0.28467295 0.12583417 0.14549871
0002c0 d6 35 ff 3d 65 62 ac 3d 0b 39 8a 3e 09 fa 70 3e
       0.1246144 0.08417205 0.26996645 0.23532881
0002d0 26 8a 08 3f e0 45 05 bf 44 27 a4 3f df ba 10 3e
       0.533358 -0.52059746 1.2824483 0.14133786
0002e0 67 58 81 3e 15 03 e3 3e cd 95 9d 3e 00 47 3f 3f
       0.25262758 0.4433829 0.3077835 0.7471771
0002f0 4f 5a a7 3d 89 3a 66 bc a8 69 d8 3e 79 b1 9a 3e
       0.08171522 -0.014052042 0.4226811 0.30213526
000300 52 f1 3d 3f ed bd 93 bf da cf 1d 3e 57 90 c1 3d
       0.7419635 -1.1542336 0.1541132 0.09451359
000310 c7 3c 8c 3d a9 d0 e6 be 37 c5 96 be 96 9f a5 3e
       0.0684753 -0.4508107 -0.29447338 0.32348317
000320 1d 94 32 3f 56 32 76 be 94 e3 82 3d 2c ac 1f 3f
       0.6975725 -0.24042639 0.06391063 0.6237209
000330 a4 63 93 3c 52 ec 84 3e 1f 8f 7a bd ed 2b 44 be
       0.017991848 0.25961548 -0.061171647 -0.19157381
000340 7d db 4f bf ba a3 da be 44 27 a2 bd d0 62 85 3e
       -0.8119429 -0.42703038 -0.079176456 0.2605195
000350 79 07 9b 3d 2c 3b 87 bd 73 b3 c8 3d 20 5b 17 be
       0.07569785 -0.06603083 0.09799852 -0.14780855
000360 9b 13 3f be f9 fa 83 3e f7 0f 39 bf 9e 17 6f be
       -0.18659823 0.25777414 -0.72289985 -0.23348853
000370 b2 cd 2f 3f ac 0b 9a 3e 41 6e 89 be ad c4 97 be
       0.6867324 0.3008703 -0.2684193 -0.2964224
000380 0b 55 ef 3e e5 a3 27 3d 7a bc a9 be 79 76 eb bd
       0.4674457 0.040927786 -0.3315161 -0.11497206
000390 04 57 fa be 14 af 61 be 5a 48 0e be d7 16 2d bf
       -0.48894513 -0.22039443 -0.13894787 -0.67612976
0003a0 f5 df 0e 3c a0 cf a3 be 53 9b f5 bd 45 b7 fb be
       0.008720388 -0.31994343 -0.11992516 -0.4916326
0003b0 d2 35 39 bd aa 88 70 3d 9d f5 0d 3d bd 8f f9 3d
       -0.045217343 0.058724083 0.034658063 0.12185619
0003c0 77 b1 42 3f bf 72 80 3f 73 09 95 be 2d 9c 1e be
       0.7605204 1.0035018 -0.29108772 -0.15489264
0003d0 c1 3c 5b 3d 99 4c 48 bf c6 49 85 bf b1 9b 81 bf
       0.053524736 -0.7824188 -1.0413139 -1.0125638
0003e0 8b a3 4f bf e2 59 9f 3e 12 4b fd be be 05 4e 3e
       -0.8110892 0.31123263 -0.49471337 0.20119378
0003f0 77 0c 2e 3f 55 2b ff be 99 3b 70 3d 58 44 42 bf
       0.6798777 -0.49837747 0.058650587 -0.75885534

conv.1.weight f4 [32]
000000 c8 00 b7 3f d4 1a bc 3f 91 59 d1 3f 39 dd 74 3f
       1.4297113 1.4695687 1.6355458 0.9565006
000010 d2 ff d7 3f ff ea 99 3f 6c 17 b9 3f a4 41 92 3f
       1.6874945 1.202484 1.4460273 1.1426282
000020 e5 97 87 3f c2 c8 de 3f 49 64 7d 3f 7a 93 f8 3f
       1.059323 1.7405016 0.9898115 1.9420006
000030 ca 81 c1 3f 93 d3 bf 3f 79 22 4f 3f 3a 9d ee 3f
       1.5117733 1.4986442 0.80911976 1.8641732
000040 5d d8 94 3f 05 5d 82 3f 71 82 6a 3f 8a ae a0 3f
       1.1628529 1.0184637 0.9160529 1.2553265
000050 21 8d 55 3f da 3b 8a 3f 52 68 a0 3f e2 ce 8d 3f
       0.8341847 1.0799515 1.2531836 1.1078761
000060 75 41 ba 3f fc 0f 9d 3f 62 be cc 3f 8f 70 93 3f
       1.4551226 1.2270503 1.59956 1.1518725
000070 40 ac 9d 3f b8 7f 67 3f b0 51 a0 3f 06 84 9d 3f
       1.2318192 0.9042926 1.2524929 1.2305915

conv.1.bias f4 [32]
000000 1f 48 97 be a7 2f 62 be 4d ee 93 be 34 05 c9 3e
       -0.29547212 -0.2208849 -0.28892747 0.39261782
000010 2f bc 9d be c8 be 70 3e 96 f9 ca 3e d0 6d 93 be
       -0.30807635 0.23510277 0.39643544 -0.28794718
000020 95 d7 aa 3e a9 2b c5 be 35 03 2c 3f 5d c7 d3 3e
       0.333676 -0.38509873 0.67192394 0.4136304
000030 39 2d 3c be f4 ef 94 3e 8f 04 d0 3e d2 c8 cd 3e
       -0.18376626 0.2908932 0.40628478 0.40192276
000040 7b 8b f7 3e 89 7d af be 73 84 0b 3f 0a e0 15 3e
       0.48348603 -0.34275463 0.54498976 0.14636245
000050 d5 36 8f 3c 0f 47 d4 3e 5e ac 35 bd ea 6f 52 be
       0.0174822 0.41460463 -0.044353835 -0.20550504
000060 84 7a 86 be 81 6e 06 3f a3 7d f2 be cc f3 e5 bd
       -0.26265347 0.52512366 -0.47361478 -0.11228141
000070 1d a9 0c bf cf 4e b8 3e ee eb b8 3d f5 f0 13 3f
       -0.54945546 0.35997626 0.09029375 0.57789546

conv.1.running_mean f4 [32]
000000 b4 6e 07 c1 c3 5e 99 be 4e 0a 63 c1 b7 ee 80 40
       -8.464527 -0.2995511 -14.190016 4.02914
000010 df 63 f3 c0 c2 95 be c0 f8 51 cc c0 74 aa a7 3f
       -7.6059413 -5.955781 -6.385006 1.3098893
000020 48 90 cb 40 1f 30 ca c0 68 20 49 c0 25 23 20 c1
       6.3613625 -6.318374 -3.142603 -10.00858
000030 f3 39 8c c0 d5 b6 82 c0 96 42 4d bf 58 db 32 c1
       -4.382074 -4.0848184 -0.8017973 -11.178551
000040 37 79 0e c1 64 25 da 40 20 d5 c7 c0 27 7b 1b c1
       -8.904593 6.8170643 -6.244766 -9.7175665
000050 90 6d 17 bf f2 04 8d 3f 74 4a a9 c0 ff 22 04 40
       -0.59151554 1.1017134 -5.2903385 2.064636
000060 e6 49 9f c0 36 1c 95 c0 49 10 18 3f 80 ec a2 c0
       -4.977771 -4.6596937 0.5939985 -5.0913696
000070 04 01 8a 40 b1 0d e6 3d ce d1 68 3f c8 86 cf c0
       4.312624 0.1123308 0.90945137 -6.485203

conv.1.running_var f4 [32]
000000 e1 82 aa 41 54 93 ca 41 62 1c 49 42 d8 12 8b 41
       21.313906 25.321938 50.277718 17.384201
000010 4f 57 3f 42 2d 50 18 42 96 a5 ba 41 7c 80 8a 41
       47.835262 38.078297 23.330853 17.312737
000020 5b 65 17 42 bd f5 c0 41 a5 e1 5d 42 d2 65 19 42
       37.84898 24.11999 55.470356 38.349434
000030 19 cd c7 41 d2 59 39 42 38 74 ae 41 db a5 25 42
       24.975145 46.337715 21.806747 41.41197
000040 37 07 d7 41 1c 62 ff 41 34 5c db 41 90 b6 29 42
       26.878523 31.922905 27.420021 42.428284
000050 ae a5 f8 41 27 01 1c 42 1f a9 02 42 1f 10 c4 41
       31.080898 39.001125 32.665157 24.507872
000060 b1 90 e2 41 05 5e e8 41 9f ad cf 41 4b 72 96 42
       28.32065 29.045908 25.959776 75.22323
000070 df d4 24 42 c9 1d 9d 41 92 cc c2 41 ac 37 bf 41
       41.207882 19.639544 24.349888 23.902184

conv.3.weight f4 [32, 32, 3, 3]
000000 7d 39 c7 be 92 a2 9d be 35 87 45 3f 26 da 93 3e
       -0.38911048 -0.30788094 0.77159435 0.28877372
000010 29 d4 32 bf b8 cb a8 bf 10 24 6d 3f 23 8e 33 bf
       -0.6985498 -1.318717 0.9263315 -0.7013876
000020 a4 82 85 bd a5 80 32 3e 74 e2 93 3e dc 27 ab 3d
       -0.06519058 0.17431886 0.28883708 0.08357212
000030 74 e7 42 bf 41 1a 43 3f bf 59 81 bf e2 52 bf bf
       -0.7613442 0.76211935 -1.0105513 -1.4947169
000040 16 ef 8b 3e d7 e0 3e be 0e cc c5 bf 17 f8 1d 3f
       0.27330846 -0.18640457 -1.5452898 0.6170668
000050 d6 ce ff be 30 14 76 3f 5f 56 d3 3e 93 63 25 3e
       -0.4996249 0.96124554 0.41276833 0.16151266
000060 14 c4 6f 3f 05 e1 a4 3e f9 b6 56 3e 69 34 0e bf
       0.93658566 0.32202926 0.20968236 -0.5554872
000070 42 f2 47 3f e4 7a 33 3e 9b 3c ec bc 4c dd 3e bf
       0.7810403 0.17527348 -0.028837493 -0.7455642
000080 e9 55 9d be 41 78 30 bd af 78 56 bf 5a ec 32 3f
       -0.30729607 -0.043083433 -0.837779 0.69891894
000090 3b f0 a2 bf 2d ee 10 3f 17 4a 14 bf 06 41 5d 3f
       -1.2729563 0.5661343 -0.5792555 0.8642734
0000a0 4a c1 cf 3e 39 ee 45 3d 0c 3b 11 3f 42 a2 7f 3e
       0.40577155 0.04832289 0.56730723 0.2496424
0000b0 1e a9 37 bf f1 00 d2 3e cf ce 2d 3f 6f ac 97 3f
       -0.7174243 0.41016343 0.6789369 1.1849498
0000c0 31 84 f7 3d ea ed 8c bf a4 59 0e 3d 97 ae 45 3d
       0.120857604 -1.1010106 0.034753457 0.048262205
0000d0 ed 40 2b 3e 20 e5 dd be eb f8 f9 be aa 20 7b be
       0.16723986 -0.4333887 -0.48822722 -0.24524179
0000e0 c5 2f 97 be 9a 46 21 3f 72 75 38 3e d1 0b 15 be
       -0.29528633 0.62998354 0.18013552 -0.14555289
0000f0 45 c7 80 3e 8b 05 84 3f 95 72 06 bf 30 4f 13 3f
       0.2515203 1.0314192 -0.5251859 0.57542706
000100 53 b6 ea 3d e7 90 8d be 69 37 c8 bd e8 5d ab 3d
       0.11460557 -0.27649614 -0.09776194 0.083675206
000110 4c ef f0 3e 23 c8 25 3f dc e4 6d be b2 51 3f be
       0.4705757 0.6475851 -0.23231834 -0.18683508
000120 c9 8b bc 3c 07 d8 ea 3e 26 25 c7 3e 96 2b 44 3e
       0.023015874 0.4586794 0.3889553 0.19157252
000130 5a 62 a8 3d 6f 85 60 3f 12 12 63 3f 39 96 2f be
       0.08221884 0.87703604 0.8869945 -0.17147149
000140 9a 34 74 3f 68 a8 07 bf e8 1b ad bf 7c 4b 68 bf
       0.95392764 -0.5299134 -1.3524141 -0.9074018
000150 49 9e 10 bf 01 f6 52 be ba c1 c8 3f 5e 67 08 3f
       -0.56491524 -0.20601656 1.5684121 0.53282726
000160 f2 3f 00 3e 2e 13 82 bf d1 2b 2e 3e 85 36 e2 3e
       0.12524393 -1.0162103 0.17008902 0.4418222
000170 d6 e4 1b bf 2b 49 1d 3f 4a 73 00 3f b3 8f 0a 3f
       -0.6089605 0.6143977 0.5017592 0.5412552
000180 73 f7 ee 3e c5 c8 c1 3f 5f 7d 01 3f e7 f7 73 bf
       0.46673164 1.5139395 0.50581926 -0.95300144
000190 24 f1 26 bf 18 49 33 be 44 17 4d 3f 42 d1 49 be
       -0.652117 -0.17508352 0.80113626 -0.19708732
0001a0 85 11 a0 be bc d5 51 3f f3 29 45 3f 3a f5 7d bf
       -0.31263366 0.8196676 0.77017134 -0.9920231
0001b0 21 e4 c0 bd 19 bc 05 3f 97 0a 0b 3f fe 1f 51 3f
       -0.09418512 0.5224014 0.54313034 0.8168944
0001c0 4b f0 65 bd d5 1f c3 bc b9 89 74 bf 59 9f 1a 3f
       -0.056137364 -0.02381889 -0.9552265 0.60399395
0001d0 86 76 fb be 07 06 6e 3f 31 6a 10 bf 3c ce a0 bf
       -0.49113864 0.92977947 -0.56412035 -1.2562938
0001e0 4f b2 75 be 73 00 c6 bb 29 41 22 39 1f 00 80 bd
       -0.239938 -0.006042534 0.00015473798 -0.06250023
0001f0 50 bd 1f bf eb 60 db bf ad f6 f7 bd 8b 15 78 bf
       -0.6239824 -1.7138952 -0.121075965 -0.9690787
000200 6a ae 81 bf ff 0a 1b bf 03 98 35 be 3d e2 8a 3e
       -1.0131352 -0.60563654 -0.17733769 0.2712573
000210 cc aa 3e bf 19 af 70 bd 0e b8 11 3e 60 16 be be
       -0.74479365 -0.058760736 0.14230368 -0.37126446
000220 e9 f8 d0 3b b8 96 c1 be de cf 29 be 7e a0 5f bf
       0.0063773287 -0.37810302 -0.16583201 -0.87354267
000230 4c 54 3b 3e e0 f1 e4 bc 3a db ff 3f 81 98 d6 3e
       0.18293875 -0.027947366 1.9988778 0.41913226
000240 09 12 52 bf b3 b4 4a bf d4 db 42 bf d4 f4 0d 3e
       -0.8205877 -0.79181975 -0.7611668 0.13862926
000250 c1 cd 81 be 9c 3a b6 3d d5 d7 68 3f f5 a4 3e 3f
       -0.2535229 0.088978976 0.90954334 0.74470454
000260 5e 17 fc be 94 3c 62 bd ee a4 a1 be 5e 1b 86 bf
       -0.49236578 -0.055233553 -0.31571144 -1.0477102
000270 a7 3a 73 bf 09 27 a3 bf 1a 6c 1a bf 9c ca 42 be
       -0.9501137 -1.2746288 -0.603212 -0.19022602
000280 f7 06 05 3f d8 23 9f 3e 2c 9c 2d be a6 bd c3 be
       0.5196375 0.31082034 -0.16954106 -0.38230628
000290 1f 54 01 bf 1c 16 68 3f 6c 62 f0 3e 91 f5 67 3f
       -0.50518984 0.90658736 0.4695009 0.9060908
0002a0 1b 41 a9 3f 0d 1c 06 3f ff 29 3b 3f 14 15 81 bf
       1.3222994 0.5238655 0.73110956 -1.0084558
0002b0 e1 94 5d bf 6e d8 d0 be 96 b0 61 be 00 f1 b5 be
       -0.86555296 -0.40790123 -0.22040018 -0.3553543
0002c0 d7 a2 34 3f b1 b8 2d bf d9 a0 70 3f 11 28 7c bd
       0.70560974 -0.6785994 0.93995434 -0.061561648
0002d0 c0 41 30 3d 18 1e 39 be 8e 26 14 bf e5 65 00 bf
       0.043031454 -0.18077886 -0.5787133 -0.5015548
0002e0 df 42 af 3f 0b 5a 41 be a5 ac cc be cc ca af bd
       1.3692282 -0.18882005 -0.39975467 -0.08583602
0002f0 fb 9d 98 be 94 17 27 3e 2c cb 61 3f 81 ec 2b 3e
       -0.2980803 0.16317588 0.8820064 0.16789438
000300 67 87 ba 3d 6d f1 9c 3e 82 18 43 bf 7d 1e 7d bf
       0.09107857 0.30652943 -0.7620927 -0.98874646
000310 37 8d ec be 6e 2e 80 bf 13 c3 07 3f 86 3b a6 3e
       -0.46201488 -1.0014169 0.53032035 0.32467288
000320 e4 06 52 bf 8c bf c4 3e d6 c6 0e be 88 55 d4 3c
       -0.82041764 0.3842739 -0.13943037 0.02591969
000330 30 41 03 bf 4e 59 72 bd d4 44 ba 3e 84 a8 6c be
       -0.51271343 -0.0591672 0.36380637 -0.23111159
000340 f1 38 32 3e aa b7 52 bf 90 31 e0 3c 47 d0 f1 be
       0.17404534 -0.823115 0.027367383 -0.47229216
000350 b8 eb f2 bd 07 4d 80 3e 05 76 8e 3f d8 4f 7e 3f
       -0.11861366 0.25058767 1.1129767 0.9934058
000360 7d a4 1e bf 4f 36 79 3f fb 62 21 bf 11 31 84 bf
       -0.6196974 0.97348493 -0.6304166 -1.0327474
000370 8d 83 5c 3d 68 00 fb be 7b bb 63 be 6f cc d9 3e
       0.053836394 -0.49023747 -0.22239487 0.42538783
000380 cf 35 53 3e e3 e3 f2 bd d7 f0 09 bf a7 fe ef be
       0.20625995 -0.11859872 -0.5388312 -0.46873972
000390 5c 2a d3 bd de 63 81 be a9 81 1d 3e a8 77 43 bf
       -0.10310814 -0.25271505 0.15381493 -0.76354456
0003a0 47 10 4a 3f 3d a3 5b be a7 e3 90 be 93 d0 5d 3f
       0.7893109 -0.21448989 -0.28298685 0.86646384
0003b0 13 21 83 3f 7d 82 1d be 09 ae 5b be 69 ad 7c 3f
       1.0244468 -0.15381809 -0.21453108 0.987021
0003c0 42 70 60 3d 79 74 4a 3e 45 d3 e4 bf a1 fd 0c 3e
       0.054794557 0.19770993 -1.7876974 0.13768627
0003d0 bc 8e f0 3d bb 94 1b bf 19 7d be 3e ab aa bd 3c
       0.117459744 -0.6077382 0.37204817 0.02315267
0003e0 65 ca e7 be da 28 3d 3f 80 68 49 3f 86 b7 07 3e
       -0.45271602 0.7389046 0.7867508 0.13253602
0003f0 b9 7e 6f bf 94 d5 c5 bd 17 32 9f 3e 91 22 fe be
       -0.9355274 -0.096598774 0.31092903 -0.49635747

conv.4.weight f4 [32]
000000 fb 5b a7 3f 3e 11 ac 3f 68 cc 9f 3f 6a 41 9b 3f
       1.3074945 1.3442762 1.2484255 1.2129338
000010 d2 8f 8f 3f 5f 0e a8 3f 93 ea bb 3f d1 16 a0 3f
       1.1215765 1.3129386 1.4680961 1.2506963
000020 19 19 53 3f 78 f3 8b 3f 11 45 e0 3f 1d d1 71 3f
       0.8246017 1.0933676 1.7521077 0.94459707
000030 85 7d f9 3f 74 0e a8 3f a8 79 e0 3f 5a aa c8 3f
       1.949143 1.3129411 1.7537127 1.5676987
000040 0a cc a4 3f fb 82 e7 3f 3a 7f b6 3f 33 62 91 3f
       1.2874768 1.8086847 1.4257576 1.1358093
000050 87 d1 89 3f cd c7 d4 3f 67 48 bc 3f 6d 11 98 3f
       1.0767068 1.6623474 1.4709595 1.1880318
000060 35 31 9b 3f 43 aa 7e 3f a2 fb 59 3f c2 c3 64 3f
       1.2124392 0.9947855 0.85149586 0.893612
000070 e4 89 93 3f a5 e5 02 40 14 3c b2 3f 0a 26 8e 3f
       1.1526456 2.0452664 1.3924584 1.1105359

conv.4.bias f4 [32]
000000 4f 9b 4f be ff 1f a8 be 2b df 4b 3e 54 49 5b bd
       -0.2027409 -0.3283691 0.1990935 -0.053536728
000010 53 9e 47 3e 7d 0a 5b be 30 f1 ff be 2e 65 a2 3d
       0.1949399 -0.2139072 -0.499887 0.07929455
000020 4e a0 49 3e ca bd 7e 3c f8 2f 04 bf af 89 76 3e
       0.19690058 0.015548179 -0.51635695 0.2407596
000030 bc 68 d6 be 35 98 90 bd 44 c3 8c be 9c 50 a5 be
       -0.4187678 -0.07060281 -0.27492726 -0.32288063
000040 51 f1 d9 bd 58 21 0e bf 80 5c d6 be 0e 2c a5 3c
       -0.106417306 -0.5551963 -0.41867447 0.020162608
000050 46 05 fc 3d f3 fe 76 be fb f5 c8 be 7a 68 2e be
       0.12305693 -0.24120693 -0.39250168 -0.17032042
000060 87 b3 f7 3c 86 54 83 be 87 cf 59 bd d5 57 30 3e
       0.030236972 -0.25650424 -0.05317643 0.17221005
000070 81 e4 75 be 86 49 97 bf 67 05 13 bf 21 a0 12 3f
       -0.24012949 -1.1819313 -0.5743012 0.5727559

conv.4.running_mean f4 [32]
000000 df 2a 04 c0 ff 15 84 c0 8e 65 ce c0 de 3d 83 3f
       -2.0651166 -4.127685 -6.449897 1.0253255
000010 c3 fb a4 be f5 7c 49 bf 5c 92 88 c0 08 a0 56 c1
       -0.3222333 -0.78706294 -4.267866 -13.41407
000020 ff 40 99 40 e7 80 6a c0 06 5f 23 c1 7d fb 9e be
       4.789184 -3.6641176 -10.210699 -0.31051245
000030 d4 18 28 c1 2a ca 83 c0 7a c6 ef bf d0 d9 b5 c0
       -10.506062 -4.118428 -1.8732445 -5.6828384
000040 bc 52 83 c0 44 f9 11 c1 ed c9 af c0 0a 08 a1 bf
       -4.1038494 -9.123356 -5.493399 -1.2580578
000050 9f 88 a4 3e 76 8a 18 c0 08 2f af bf 5b 03 f8 bf
       0.32135484 -2.383451 -1.3686228 -1.9376024
000060 02 e2 86 c0 d5 09 5e 40 c6 ec 5e c0 82 8c 54 c0
       -4.215089 3.46935 -3.4832015 -3.321076
000070 ca d5 80 c0 11 11 9d c0 87 2a 93 bf 88 aa 1a 40
       -4.0260973 -4.9083333 -1.1497353 2.4166584

conv.4.running_var f4 [32]
000000 27 92 d0 42 61 20 af 42 70 8a c7 42 2f 13 b9 42
       104.28545 87.56324 99.770386 92.53747
000010 c1 78 b0 42 b1 5c b5 42 3d 60 c2 42 f1 21 ff 42
       88.23585 90.68104 97.187965 127.56629
000020 18 57 7a 42 53 a0 a5 42 b5 11 da 42 a4 03 80 42
       62.585052 82.81313 109.034584 64.00711
000030 19 51 05 43 37 0c cd 42 30 15 fa 42 31 21 f9 42
       133.31679 102.52386 125.04138 124.56483
000040 91 4b a6 42 d9 99 df 42 a7 fb b0 42 f0 d8 b8 42
       83.14759 111.80048 88.49151 92.423706
000050 e5 3a b5 42 a5 09 02 43 ee 3e b6 42 c6 6d 92 42
       90.61503 130.03767 91.12291 73.2144
000060 80 36 aa 42 36 59 a5 42 2b 7b 89 42 9a 2c 85 42
       85.106445 82.67424 68.74056 66.58711
000070 89 b1 a4 42 89 76 ec 42 b3 16 b3 42 8b 9a cb 42
       82.34675 118.231514 89.544334 101.80184

conv.6.weight f4 [32, 32, 3, 3]
000000 18 0b 80 3f c0 d7 3a 3f 08 6b 6e 3f e3 44 c8 be
       1.0003386 0.7298546 0.93132067 -0.39115056
000010 f4 13 01 bf f4 80 93 be 2e ed f2 be 43 8c 15 3f
       -0.5042107 -0.2880932 -0.4744658 0.5841715
000020 b8 b0 0e 3f 0a ab 7f bf 67 c4 14 3f e7 32 30 3e
       0.557384 -0.9987036 0.58112186 0.17206918
000030 df 60 58 bf a7 1a 9a bf a2 f3 89 bf 7c b5 c2 3e
       -0.84522814 -1.2039384 -1.0777476 0.38029087
000040 00 46 2b bf 3f 5f 30 3d 8e 9c fe bd d4 e5 27 3e
       -0.66903687 0.043059584 -0.12432204 0.16396266
000050 eb ee 16 3f 4e 44 44 3f 46 05 0d 3f 05 ee 3c 3f
       0.5895831 0.76666725 0.5508617 0.7380069
000060 91 f1 cf 3e 81 02 27 3e 39 6d ca bc ea 65 bf 3f
       0.40613988 0.16309549 -0.024710285 1.4952977
000070 22 ae a2 bd 44 66 56 be e6 2c 38 be 66 8a a1 be
       -0.079433694 -0.20937449 -0.17985877 -0.31550902
000080 69 8d 03 be fc 43 b4 3e d7 29 96 3e c1 a6 71 3e
       -0.12846912 0.35208118 0.29328796 0.23598768
000090 9c e0 9f 3e 80 96 34 3f 8c 16 73 be f1 5d ba 3e
       0.3122605 0.70542145 -0.2373907 0.36399797
0000a0 ef f7 81 be 5e e0 21 bf 55 ba 01 c0 67 f7 3c 3d
       -0.2538447 -0.6323298 -2.0269978 0.04613438
0000b0 8f 5b 49 bf cd bc c5 3d 9e 93 f4 bd 36 61 8d be
       -0.7865533 0.096551515 -0.11942218 -0.2761323
0000c0 a8 9b 6d be 91 ed 2d 3f 05 66 a7 3e 1f 63 40 bf
       -0.2320391 0.6794062 0.32695022 -0.75151247
0000d0 69 a3 fb bc 9b 93 05 bf e6 4d 27 3e a8 f8 67 3e
       -0.030717568 -0.52178353 0.1633831 0.22653449
0000e0 2d ef b0 3d 7c 3d 4b bf e8 8c 83 bc af 2c 8e 3e
       0.08639369 -0.7939069 -0.0160584 0.27768466
0000f0 62 3d 21 3f fe a5 c0 3e 09 60 42 3f 11 71 ed 3d
       0.6298429 0.37626642 0.7592779 0.11593831
000100 68 d3 24 bf b5 e3 bf 3f ef dd 32 bf 4d d7 a0 bf
       -0.6438508 1.4991366 -0.69869894 -1.2565705
000110 61 bc 2f 3f cf 67 e3 be f1 78 7a 3e b6 42 2e 3c
       0.6864682 -0.44415137 0.24460198 0.010636022
000120 e4 69 4d 3f 63 43 75 3d 62 0f 2a bf 1b b2 a4 be
       0.802397 0.059878718 -0.6642972 -0.32167134
000130 e3 ba 98 3e 66 a6 c5 be ec 33 91 be 74 e9 5f bf
       0.29830083 -0.38603514 -0.28359926 -0.87465596
000140 db 91 b8 3f 56 50 99 3d e9 99 13 bf 22 8c 86 be
       1.4419512 0.07486026 -0.57656723 -0.26278788
000150 ca 54 12 3f 4b b5 e8 3e e9 5b 2d 3f d2 b0 91 3f
       0.5716063 0.45450816 0.6771837 1.1382086
000160 23 7f 1d c0 dc 94 c7 3f 8f 48 a7 3f d6 cc 42 3e
       -2.4608848 1.5592303 1.3069018 0.19023451
000170 f2 ab 58 bf 82 84 85 3f d1 ca 63 3e f5 56 55 3e
       -0.8463737 1.0431063 0.22245337 0.20833953
000180 b0 b1 9c 3d 03 d5 2e 3f 86 6b 01 3f 12 23 8f 3e
       0.07651079 0.6829378 0.5055469 0.27956444
000190 3e c4 17 3f 41 64 c5 3e 8a ae d7 3e 83 a7 12 3e
       0.59283817 0.3855305 0.4212535 0.14321713
0001a0 8a 17 35 be fc 4c ad 3e db a3 d8 3e ce b8 21 3e
       -0.1768476 0.33847797 0.42312512 0.15793154
0001b0 98 01 e1 bd a4 e8 68 3f 7b 7a e2 3e 52 ad 2f 3a
       -0.10986632 0.9097998 0.4423407 0.0006701547
0001c0 1f 7c 86 bf 98 1a dd bd bd 34 b7 3e 89 32 9b 3e
       -1.0506629 -0.10796088 0.35782424 0.30311993
0001d0 0d 3f 33 bf 61 42 17 bf 51 7f 0d bf 50 fa 59 3e
       -0.7001808 -0.5908566 -0.55272394 0.21286893
0001e0 51 fa 52 3f 82 2c a5 3e 2c e8 a5 3e 8a 40 9e be
       0.824132 0.3226052 0.32403696 -0.30908614
0001f0 1e 3d 50 bf 90 79 0a bf 02 18 4b 3f 21 8e e4 bf
       -0.8134326 -0.5409174 0.7933351 -1.7855874
000200 41 3d 3e 3f 33 ce 4b 3f 4f cb 2f be ed 78 38 3e
       0.74312216 0.7961151 -0.171674 0.1801488
000210 ae 04 0f 3f 46 08 83 be 7d d8 71 3f 8f 3a c5 bc
       0.55866516 -0.2559225 0.9447096 -0.024075774
000220 9c 2e 03 bf 40 a5 86 3e 72 8a 7d be d0 a3 2a bf
       -0.51242995 0.2629795 -0.24759844 -0.6665621
000230 bf 2d 8b 3e cf c4 13 3f 9e d4 03 3e 1e 0d e2 be
       0.2718334 0.5772218 0.12874076 -0.44150633
000240 5a 3b 96 be c0 32 16 3f 27 19 f0 be 7c ec 7d bf
       -0.29342157 0.5867119 -0.4689419 -0.9918897
000250 e2 35 b8 3d d6 26 79 3e 56 a9 0f 3f 83 08 6c 3f
       0.08994652 0.24331221 0.5611776 0.9220049
000260 27 3c 77 bf 37 51 b1 3e b6 03 4c bc 78 8c fa 3e
       -0.9657616 0.34632275 -0.012452057 0.48935294
000270 9d 28 99 3f 2b 97 17 bf 8e 4f 21 bf 6a a8 10 3c
       1.1965519 -0.5921504 -0.63012016 0.008829216
000280 b9 b3 10 bf 04 5c 05 3f fd 57 a2 bf de 57 91 bf
       -0.56524235 0.5209353 -1.2683102 -1.135494
000290 e3 75 6b 3e d8 ef 9c bf e2 2a e8 be d2 83 34 bf
       0.22994189 -1.2260695 -0.45345217 -0.7051364
0002a0 03 fe f2 3e 79 9c d9 3e 10 1a 40 bf 3d 73 c2 3e
       0.4745942 0.42502192 -0.7503977 0.37978545
0002b0 bd 4d 3c bf 0b cb a8 bd 19 9e 04 3f fc 7a 9b bf
       -0.7355612 -0.082418524 0.5180374 -1.2146907
0002c0 db 97 cd 3e 61 a5 9e 3d 02 6c fa bd 19 48 fb 3e
       0.4015492 0.07746387 -0.12227632 0.49078444
0002d0 d2 10 20 be ee c6 06 bd a6 1a ba be f2 65 e7 be
       -0.15631416 -0.032904558 -0.36348456 -0.45194966
0002e0 3f a2 72 bd cb ed 04 3f 29 ca 65 3f fc 5a d7 3e
       -0.05923676 0.51925343 0.89761597 0.42061603
0002f0 6c 44 2c bf 88 e1 8a 3f d0 bd a8 3e 8a f8 69 3f
       -0.67291903 1.0850077 0.32957315 0.91394866
000300 c1 a6 8d 3e c6 72 d1 3e 98 68 21 3f 2f 4d 84 3d
       0.27666286 0.40907878 0.6305022 0.06460034
000310 6e 79 c6 be 61 d1 ee 3e b1 8f 51 3e 56 c8 f2 3e
       -0.38764518 0.46644118 0.2046497 0.4741847
000320 53 29 55 bf 82 16 68 3f fc 4b 8a be 9a 75 1e 3f
       -0.8326618 0.90659344 -0.27011096 0.61898196
000330 25 a8 3b bf 75 be 66 3f 6b fd 98 bf bc 39 20 bf
       -0.73303443 0.90134364 -1.1952337 -0.62588096
000340 af 4b ca 3e 29 56 18 3e ba 39 82 bf 3e 19 31 3f
       0.39510867 0.14876617 -1.0173867 0.6917914
000350 36 4e 7d bf 20 36 1e bf c5 94 95 3d 8f 33 54 bf
       -0.98947465 -0.6180134 0.07303766 -0.8289117
000360 68 cd 84 3f fc e9 ec be 3c 1a e0 be ad 0b 39 bf
       1.0375185 -0.46272266 -0.43770015 -0.7228344
000370 13 5c 7f 3e a5 40 6e bf ba 37 ec be d8 c3 86 bf
       0.24937467 -0.9306739 -0.46136266 -1.0528517
000380 fd 39 35 3e de cf 48 be d7 67 b3 be d7 af 80 3f
       0.17697902 -0.19610545 -0.3504016 1.0053662
000390 dd 57 7d bf df af 9b bc 66 c7 c1 39 6a 99 d1 bd
       -0.98962194 -0.01900476 0.00036960392 -0.102343395
0003a0 c2 aa 4a bf 4a ec 11 bf 14 8f 76 3e 5b 7c 00 3f
       -0.79166806 -0.57001173 0.24078017 0.5018975
0003b0 4d c7 2e bf ab d7 55 bf da 79 ab be aa 2a 04 bf
       -0.6827286 -0.8353221 -0.33491403 -0.516276
0003c0 6c 04 24 3f a4 16 61 3f 22 25 81 3e 22 fe 56 3f
       0.6406925 0.8792517 0.25223643 0.83981526
0003d0 76 c7 0a bf 01 1b 7f 3d fb ad 4a bf 19 cc fd be
       -0.54210603 0.062281612 -0.79171723 -0.49569777
0003e0 40 17 32 3f 44 c6 0d bf c3 1d b8 bf 76 3c e4 be
       0.69566727 -0.55380654 -1.4384083 -0.44577378
0003f0 ec ac 08 bf 9b 07 01 3f 6c d7 7e 3e 39 cd 83 bd
       -0.5338886 0.5040223 0.24886864 -0.064356275

conv.7.weight f4 [32]
000000 04 7d 8a 3f ed a1 92 3f 33 06 87 3f f1 0b 81 3f
       1.0819402 1.1455666 1.0548767 1.0081769
000010 b0 db 70 3f 0f 34 88 3f 64 d5 95 3f 33 8e 8d 3f
       0.94085217 1.0640887 1.1705747 1.1059021
000020 6c 53 96 3f a5 c9 86 3f f4 5c 92 3f d3 c0 94 3f
       1.1744208 1.0530287 1.1434617 1.1621345
000030 26 77 95 3f 73 93 8d 3f a3 cc a4 3f 53 5f 8a 3f
       1.1676986 1.1060623 1.287495 1.0810341
000040 ad 98 97 3f 5a cb af 3f 7d fe ac 3f 7a a3 a3 3f
       1.1843468 1.3733933 1.3515164 1.2784264
000050 04 d1 9d 3f 51 1d be 3f 93 fa 84 3f a1 e6 91 3f
       1.2329412 1.4852697 1.0388969 1.1398507
000060 e6 a4 a2 3f 92 00 81 3f dc 40 b7 3f 67 8c aa 3f
       1.2706573 1.0078299 1.4316669 1.3324097
000070 e5 c7 89 3f 35 7a 8e 3f 86 78 a1 3f e4 0d 8c 3f
       1.0764128 1.1131045 1.2614906 1.0941739

conv.7.bias f4 [32]
000000 21 7e 3c bf 57 a1 ff be 6f dc 39 bf 48 bb 09 bf
       -0.7362996 -0.4992778 -0.7260198 -0.53801394
000010 16 c1 06 bf a1 98 45 bf 78 b3 31 bf 87 45 0c bf
       -0.52638376 -0.7718602 -0.6941447 -0.5479359
000020 8a 72 2a bf 70 c1 f8 be 23 df 34 bf 3b 08 4b bf
       -0.6658102 -0.4858508 -0.7065298 -0.79309434
000030 1d 07 44 bf b4 0b d0 be 51 35 3d bf 45 a6 33 bf
       -0.76573354 -0.4063393 -0.7390948 -0.7017558
000040 10 a4 24 bf f2 26 72 bf bf 77 85 bf a7 b6 54 bf
       -0.6431284 -0.94590676 -1.0427169 -0.83091205
000050 94 03 98 bf d3 e8 92 bf 2c c2 bf be 79 6a 49 bf
       -1.1876092 -1.1477302 -0.3745283 -0.7867809
000060 83 11 1d bf 76 20 53 bf 64 13 61 bf 61 54 42 bf
       -0.61354846 -0.82471406 -0.8792021 -0.7591
000070 28 65 fe be b5 61 16 bf 86 c8 7b bf 1c ca 1b bf
       -0.4968655 -0.5874284 -0.9835285 -0.6085527

conv.7.running_mean f4 [32]
000000 32 8b 84 bf 2d 65 1d c1 aa 36 5f c0 ed cd 87 bf
       -1.0354979 -9.837201 -3.4877114 -1.0609719
000010 d0 f3 05 c1 d8 8b 9a 40 64 7f 07 c0 b7 a6 13 40
       -8.372025 4.829571 -2.1171503 2.3070505
000020 57 e5 1c c1 98 65 27 c0 fb a2 3e c1 f5 6c aa c0
       -9.805991 -2.6155758 -11.91479 -5.3258004
000030 48 18 84 c0 f7 56 5d c0 50 26 4e c0 66 ae 62 40
       -4.127964 -3.458433 -3.2210884 3.5418944
000040 0e 39 91 40 54 2f 6d 3e 34 a3 60 c0 8c 55 96 c0
       4.5382147 0.23162585 -3.5099611 -4.6979427
000050 c9 c1 f5 c0 b9 df cb c0 64 51 0c c1 38 c8 5b 40
       -7.6799054 -6.37106 -8.769871 3.4340954
000060 7e 5c 53 c1 fa 5d 06 3e d9 bd b5 bf 99 35 9b c0
       -13.210081 0.13121787 -1.4198562 -4.8502927
000070 57 e7 02 c1 40 c8 a1 c0 b9 44 29 40 bd 30 31 40
       -8.181479 -5.0556946 2.6448195 2.7685997

conv.7.running_var f4 [32]
000000 85 7d af 42 7e 25 ac 42 47 31 9c 42 43 1b 91 42
       87.745155 86.07323 78.096245 72.553246
000010 73 7b 7b 42 a0 81 56 42 a7 f7 89 42 b6 39 6f 42
       62.870556 53.626587 68.983696 59.80636
000020 73 dd 83 42 f4 eb 95 42 2e b9 89 42 00 35 ac 42
       65.93252 74.960846 68.86168 86.103516
000030 93 15 58 42 a9 7c 90 42 ed d1 a0 42 95 c9 74 42
       54.02107 72.24348 80.41001 61.196857
000040 95 83 bc 42 01 c6 b6 42 0e 3c 8e 42 90 7d 99 42
       94.256996 91.38673 71.117294 76.74524
000050 b9 49 95 42 a5 48 a6 42 ea 8a 85 42 b9 b5 b9 42
       74.64399 83.141884 66.77132 92.85493
000060 56 87 a7 42 84 74 59 42 19 9c 7f 42 01 9f 94 42
       83.76433 54.363785 63.90244 74.310555
000070 07 54 9c 42 8d 2a b4 42 89 70 af 42 ad 5c aa 42
       78.164116 90.08311 87.719795 85.18101

conv.9.weight f4 [32, 32, 3, 3]
000000 7b b8 a7 3f b0 4e 57 3f 5a 83 d7 3d 43 89 b6 be
       1.3103174 0.8410444 0.105231 -0.35651597
000010 6e be 8f 3f c0 85 ae 3e 69 b1 b5 3e 27 04 d1 3e
       1.122999 0.34086418 0.35486916 0.4082348
000020 4d d5 01 bf 64 96 05 3f 29 9d 88 3e c1 18 ab 3e
       -0.50716096 0.521826 0.26682404 0.33417323
000030 d2 23 bf be c8 05 34 bf 0d 09 ba bd 93 c7 8a be
       -0.37332016 -0.7032132 -0.090837575 -0.27105388
000040 b4 58 f6 be fd 48 01 bf df e7 c3 3d 2e e0 4a 3f
       -0.4811455 -0.50501996 0.0956571 0.7924832
000050 7e c4 7c 3d 11 eb 0e 3e f9 42 4e 3c 51 97 4f bf
       0.061710827 0.13956858 0.01258921 -0.81090266
000060 fc 74 68 bd 6d ef 7d be 0f 55 3f 3f 5a be 97 bd
       -0.05675219 -0.24798365 0.74739164 -0.074093536
000070 39 47 99 3c ae 4a 13 3f 8f 88 f6 be 0f ab 89 3e
       0.01871072 0.5753583 -0.4815106 0.2688832
000080 26 61 dc bd 4d cd 91 be 31 52 0e 3f d8 8e e5 bd
       -0.10760717 -0.28476945 0.55594164 -0.11208886
000090 90 0a 9b 3e af 8d ae bd 0f 91 46 bf cc 28 82 3e
       0.30281496 -0.08523118 -0.7756509 0.2542175
0000a0 4e a2 13 be f6 e0 0b bf 07 b7 97 bc c7 26 f8 3e
       -0.14417383 -0.5464014 -0.018519891 0.48467085
0000b0 65 82 bf bd fe 48 9a be f1 79 0a bf 08 b5 00 bf
       -0.09351043 -0.30133814 -0.5409232 -0.5027623
0000c0 95 66 20 3f 8c 4b cd 3d 9a a3 8c bf 81 01 42 be
       0.6265653 0.10024175 -1.0987427 -0.18945886
0000d0 7e 76 11 bf dc 7c 0e bf 5c 42 e4 be 94 66 e8 be
       -0.5682143 -0.5565927 -0.44581878 -0.4539076
0000e0 00 f0 96 bf c5 26 38 bf 38 5d 4a be 90 73 54 bf
       -1.1791992 -0.7193416 -0.19762123 -0.82988834
0000f0 e1 d6 6e be 15 eb 91 bf 0e 2c 00 bf 9a b0 db be
       -0.23324157 -1.1399866 -0.5006722 -0.42908174
000100 40 8c 8b 3f 86 ce 97 be 7d aa cc bf 0f a5 72 be
       1.0902176 -0.29649752 -1.5989529 -0.23695777
000110 97 70 93 bd ee a4 fc be d8 32 75 3e dd 55 93 3e
       -0.07199209 -0.4934458 0.23945177 0.28776446
000120 53 14 e1 bd 98 bf 80 3e a8 83 4d 3f e6 bf d3 be
       -0.10990205 0.25146174 0.80279016 -0.41357344
000130 da db 4f 3f 4d dd 1b be 40 9b ce 3e 51 73 73 3f
       0.8119484 -0.15221138 0.4035282 0.95097834
000140 2c fd 76 3e bf ef 56 3f 56 06 a9 3f 6a bd be 3f
       0.24120015 0.83959574 1.3205059 1.4901555
000150 2c 8c a3 3f 1d c3 9f be 32 98 95 3f 56 60 b9 3d
       1.2777152 -0.31203547 1.1687071 0.09051578
000160 82 aa 5e 3f 52 26 2a 3f c9 ec 46 3c dd da 5f bf
       0.86978924 0.6646472 0.012141415 -0.87443334
000170 a8 df 40 bd ef 9f 47 bf 63 7c a1 be 6b fd 14 3e
       -0.047088295 -0.77978414 -0.31540212 0.14549796
000180 91 16 e0 be 93 c8 24 bf bd 16 29 bf 34 f2 58 bf
       -0.43767217 -0.6436855 -0.6605032 -0.8474457
000190 be f6 1b bf 17 55 41 bd fe 61 a4 bd 21 08 ac be
       -0.60923374 -0.04720029 -0.08026503 -0.33599952
0001a0 cb a0 d7 be 9a 07 95 be 3b c0 81 bf e6 48 0b bf
       -0.42114863 -0.29107362 -1.0136789 -0.5440811
0001b0 41 7a 94 3f 8c 28 55 3f bc c5 28 bf 98 b7 a7 3f
       1.1599809 0.83264995 -0.6592672 1.3102903
0001c0 88 90 a0 3e 23 0f 43 be 6c 6d ea 3e ec 02 a9 3e
       0.3136027 -0.19048743 0.45786607 0.33010042
0001d0 34 c5 b0 bf 60 0c 80 3d 80 41 49 bf 58 2d 65 bf
       -1.3810182 0.0625236 -0.7861557 -0.89522314
0001e0 87 e9 b8 3e 7b e0 5e be 91 82 90 be 1b 36 22 3e
       0.36115667 -0.2176532 -0.28224614 0.15840952
0001f0 00 fa ca be fa 9d bd 3e 98 c8 49 bf 73 2c 94 be
       -0.3964386 0.3703459 -0.78821707 -0.28940162
000200 9e 64 34 bf 7e 31 1e 3e 16 f1 21 bf 54 62 cc 3d
       -0.7046603 0.15448567 -0.6325849 0.09979692
000210 59 83 30 3d 1d 8e 62 be 50 1a b7 be da 70 6d 3f
       0.043094013 -0.22124524 -0.35762262 0.9275032
000220 9e db 00 3f 54 d0 37 3f 9b 3c 9e 3f ae 98 65 3f
       0.5033511 0.7180226 1.2362245 0.89686096
000230 9c 41 9a be 20 e7 41 3f 2c 5e de bd 34 cb 3d bf
       -0.3012818 0.75743294 -0.108578056 -0.7413819
000240 bc fe 9e bf 26 a7 77 be 8b f1 6e 3f f5 27 38 bf
       -1.2421489 -0.24184856 0.93337315 -0.7193597
000250 97 94 22 bd bd 55 c6 bc 08 20 b3 bf 04 87 14 3f
       -0.039692488 -0.024210805 -1.399415 0.5801852
000260 ad 60 bf 3e cb 98 17 bf a4 a9 10 bf 04 8c e7 bc
       0.37378445 -0.5921752 -0.5650885 -0.028265007
000270 c8 13 f1 3e 48 06 b4 bd 31 2b ac 3e 04 41 02 3f
       0.47085404 -0.087902606 0.33626702 0.50880456
000280 ff b6 ba 3e e0 8c 73 3e 8e 29 f2 be e6 6f e7 3d
       0.3646774 0.23784208 -0.4729733 0.1130064
000290 a5 c4 d2 3e 8a 49 c9 bf f5 8a 3d 3f 3f 0a 98 be
       0.41165653 -1.5725567 0.74040157 -0.29695317
0002a0 c0 27 b0 be 83 9a 71 be b7 25 1b bf 69 44 06 bf
       -0.34405327 -0.23594098 -0.60604423 -0.52448136
0002b0 22 85 88 bf 90 c7 a2 be 6c 67 42 3e 9f 20 46 bf
       -1.0665629 -0.3179288 0.18984765 -0.77393526
0002c0 a1 d5 ac be 0b 1b aa bf f3 a9 0c c0 23 5c 14 bf
       -0.33756736 -1.3289503 -2.1978729 -0.5795309
0002d0 7f fc 8b 3e 2b ba c9 3e cd 17 2d bf 4a 61 c2 bd
       0.27341077 0.39399847 -0.6761444 -0.09491213
0002e0 c6 aa 6e bc 93 92 b4 bf be c3 9d 3d 97 9b c8 be
       -0.014567083 -1.4107231 0.077033505 -0.39181206
0002f0 be d0 63 be e3 e6 42 3f 78 2e 6f 3f e5 3e 3a be
       -0.22247598 0.76133555 0.9343028 -0.18188055
000300 92 00 8d 3f a2 6f 59 be 9e 07 b3 be 4d 5e d4 3e
       1.1015799 -0.21233991 -0.3496675 0.41478196
000310 20 03 6a be 49 0f 6e bd 7d 0c 95 bf c3 23 cc 3d
       -0.22852755 -0.058120046 -1.1644436 0.099677585
000320 5e 41 ca 3e 91 c6 6d 3f 97 de 93 3e dd 0c 18 3f
       0.39502996 0.92881113 0.2888076 0.5939463
000330 68 6b 5e be 49 99 b0 3f 71 0f 02 3f 9b 29 cf be
       -0.2172066 1.3796779 0.5080481 -0.4046143
000340 c2 6b 55 3e 78 95 d6 3e a2 3e e8 bd 9f 72 73 bf
       0.20841888 0.4191091 -0.11340071 -0.9509677
000350 09 3e 68 3e 84 b2 02 3f a7 cf 01 3f 07 a5 85 bf
       0.22679915 0.51053643 0.5070748 -1.0440987
000360 3d ac 82 3f aa ea 75 3f 3b df b4 bf 34 18 1d 3f
       1.0208813 0.96061194 -1.4130625 0.61365056
000370 d6 1b 23 bf 6c 96 58 3c 1e 90 30 3e 50 0b 28 3f
       -0.6371435 0.013219457 0.17242476 0.6564226
000380 19 a1 76 3f 50 d2 83 bf 68 03 e4 3d 85 3e aa bf
       0.96339566 -1.0298557 0.11133462 -1.330033
000390 2f 41 32 3e 00 cb 2a be 9e f5 93 be 0d 10 fa be
       0.17407678 -0.16679001 -0.2889833 -0.4884037
0003a0 ad 20 91 3e d2 fe 86 be 29 02 9c 3e 35 06 96 be
       0.28345242 -0.26366287 0.30470398 -0.2930161
0003b0 f4 0b 3c 3f de 9b 5c 3f 6c 02 0a be e9 8e 85 3e
       0.7345574 0.86175334 -0.13477486 0.26085594
0003c0 45 85 e7 3e ef 54 ec 3d 1c 08 7c bc 45 57 1e 3f
       0.45218864 0.11539637 -0.015382793 0.6185191
0003d0 b7 b8 c2 3c bd ad f5 be 1b 38 8f 3f ba 2e ff 3d
       0.02376972 -0.47984114 1.1188997 0.12460084
0003e0 e0 22 e4 bd c5 bd 81 bf ad 05 dd be 8c e0 6a 3e
       -0.111394644 -1.0136038 -0.43168393 0.2293722
0003f0 4d 8b b0 be aa 90 2c bf f6 4d 52 be 88 ef 2d be
       -0.34481278 -0.6740824 -0.20537552 -0.16985905

conv.10.weight f4 [32]
000000 79 f9 e1 3f a5 3f e7 3f c2 49 03 40 19 c6 db 3f
       1.7654258 1.8066298 2.0513768 1.716983
000010 25 96 fd 3f d7 30 ee 3f a1 50 07 40 a1 d3 eb 3f
       1.9811445 1.8608655 2.1142962 1.8423959
000020 ec 2f f3 3f 02 1c dd 3f 61 8b ed 3f 6c f2 02 40
       1.8999 1.7274172 1.855816 2.0460463
000030 1a 2b e2 3f 4a 63 03 40 b6 28 f8 3f 4d 9e e4 3f
       1.7669404 2.0529351 1.9387424 1.786081
000040 0e f2 dc 3f bb fa 04 40 32 2c db 3f 82 55 fc 3f
       1.7261369 2.0778034 1.7122862 1.9713595
000050 72 0b de 3f 7f 36 03 40 84 b4 e2 3f 25 f2 f4 3f
       1.7347243 2.0502012 1.7711339 1.9136397
000060 79 b2 e4 3f 69 79 de 3f 5b a5 02 40 b2 2d ce 3f
       1.7866966 1.7380801 2.0413425 1.6107695
000070 bb f1 e6 3f e2 05 fd 3f d2 36 ff 3f 1f 2f d8 3f
       1.804252 1.976742 1.9938605 1.688938

conv.10.bias f4 [32]
000000 66 f7 5f bf 26 8a 43 bf f5 4c 48 bf f8 f8 7a bf
       -0.87486875 -0.7638267 -0.7824243 -0.98036146
000010 20 cf 37 bf 13 ce 51 bf 3e fb 9d bf 7d d9 87 bf
       -0.7180042 -0.8195507 -1.2342298 -1.0613247
000020 c1 f0 72 bf 32 99 7c bf b6 b0 73 bf 27 4a 40 bf
       -0.9489861 -0.9867126 -0.95191514 -0.7511315
000030 8b 0c 9b bf f5 f6 2a bf 7f 15 7c bf ff 54 54 bf
       -1.2113203 -0.66783077 -0.984703 -0.82942194
000040 38 65 7c bf c4 bc 1c bf 12 1f 3d bf 31 45 72 bf
       -0.9859195 -0.61225533 -0.73875535 -0.9463683
000050 fc 3e 87 bf eb 21 63 bf 3c e0 7a bf 9a 0e 6c bf
       -1.0566096 -0.8872363 -0.97998405 -0.9220978
000060 d7 e4 27 bf c7 07 69 bf 3d c2 3d bf a4 cf 66 bf
       -0.65583557 -0.9102749 -0.7412451 -0.90160584
000070 d8 b6 3f bf 94 9b 83 bf 03 8d 2e bf 88 59 34 bf
       -0.7488837 -1.0281854 -0.68183917 -0.70449114

conv.10.running_mean f4 [32]
000000 27 62 e9 bf 91 4d 19 c0 21 de e8 3e a3 b2 00 bf
       -1.8233079 -2.3953593 0.4548197 -0.5027258
000010 ac 27 3a bf 14 65 4d 40 bf f9 ba 3f 53 4e fe 3f
       -0.72716784 3.2092943 1.4607466 1.9867653
000020 74 b0 64 3e 94 3d 60 be c9 c8 63 40 da 03 2a 40
       0.22332937 -0.2189849 3.55913 2.656485
000030 a6 90 42 bf fd 05 16 be b2 81 58 be 03 7c 0d bf
       -0.76001966 -0.14650722 -0.21143225 -0.5526735
000040 69 b5 25 40 0c a9 6b 40 15 27 8f 3e 48 18 b1 bf
       2.5891974 3.6821928 0.27959505 -1.3835535
000050 4f 57 ad 3f 78 2f 0b 40 56 d7 52 bf 6e 90 18 c0
       1.354227 2.1747723 -0.82359827 -2.3838153
000060 6e a8 a4 bf 30 22 d2 3f f7 6b 18 c0 77 60 8f 3e
       -1.2863901 1.6416683 -2.3815897 0.28003284
000070 d6 23 4d 3f f8 98 2d 3f ca ca 76 c0 91 5d 0b bf
       0.80132806 0.67811537 -3.8561273 -0.54439646

conv.10.running_var f4 [32]
000000 d0 01 ad 41 26 0b 69 41 5a 28 ae 41 b3 fa 6e 41
       21.625885 14.565222 21.769703 14.936206
000010 02 57 a1 41 0f 0c a0 41 f4 19 bc 41 fd 90 89 41
       20.167484 20.005888 23.512672 17.195795
000020 33 8a 9d 41 1b 6d 94 41 98 73 93 41 dd 4a a6 41
       19.69248 18.553274 18.431442 20.786554
000030 be f3 ab 41 4c 12 bd 41 3b 52 9c 41 70 9b 9a 41
       21.494015 23.633934 19.540152 19.325897
000040 ff 9d 9b 41 0c 7e a8 41 49 4f 79 41 62 2d a3 41
       19.452147 21.061546 15.581857 20.39716
000050 d6 79 a0 41 6e 50 a0 41 06 e5 99 41 47 41 92 41
       20.05949 20.039272 19.236828 18.281874
000060 f8 e2 95 41 74 77 83 41 28 07 f0 41 a9 5f aa 41
       18.735825 16.433327 30.003494 21.29671
000070 68 9d bd 41 dc 50 ac 41 2a 16 95 41 0f 31 90 41
       23.701859 21.539482 18.635822 18.023954

cls_head.weight f4 [10, 32]
000000 d3 46 ad 3f e8 99 40 3f 27 0a 7c 3f c2 0e be bf
       1.3537239 0.7523484 0.9845299 -1.4848254
000010 fd 48 95 3f 1b 20 d2 bf 58 bb 9c bf 03 20 87 3f
       1.1662899 -1.6416048 -1.2244673 1.0556644
000020 38 33 9f bf 67 f3 a1 bd 46 56 d0 3e e3 f8 40 3f
       -1.2437506 -0.079077534 0.4069082 0.7537977
000030 2c 0b 0e c0 a9 8d d0 3f b9 4d ac 3f 90 ca 78 bf
       -2.2194319 1.6293231 1.3461219 -0.97184086
000040 17 a3 bd bf d1 35 8a 3f 87 5a 82 be 57 91 0b c0
       -1.4815396 1.0797673 -0.25459692 -2.1807458
000050 c9 a1 be bf 63 f2 7c bf 54 2c 15 c0 4e 21 89 3f
       -1.4893123 -0.9880735 -2.3308306 1.0713289
000060 82 ef eb be 62 51 c9 bf 32 e9 df 3f 37 2a 1d bf
       -0.46081167 -1.5727961 1.749304 -0.6139254
000070 f0 8f d3 bf 65 b7 b6 bf d6 29 e9 3f 73 95 35 bf
       -1.6528301 -1.4274718 1.8215892 -0.70931166
000080 47 e7 54 3f db ff 8f 3f 20 2d 36 3f ea 0c 9e bf
       0.831654 1.1249956 0.71162605 -1.2347691
000090 45 ec 4f 3f 99 7c b1 bf a8 35 1b bf 2d 6c 95 3f
       0.81219894 -1.3866149 -0.6062875 1.1673638
0000a0 f2 aa 91 bf 09 5b c4 be 37 df 4e 3f 8c 63 03 bf
       -1.1380293 -0.38350704 0.8080935 -0.5132377
0000b0 37 1c cf bf ee 12 b9 3f c7 ac c1 3f 50 a6 ab bf
       -1.6180485 1.4458902 1.5130852 -1.341013
0000c0 a2 04 c7 bf 80 fa 93 3f 43 bb 82 bf 21 26 c7 bf
       -1.5548289 1.1560822 -1.0213398 -1.5558511
0000d0 82 23 9f bf dd 5b d0 bd 9b b9 ca bf 4c a9 83 3f
       -1.2432711 -0.101737715 -1.5837892 1.028604
0000e0 ee 74 0e bf 86 02 c9 bf a5 a5 94 3f bd 67 6d bf
       -0.5564717 -1.5703895 1.1613051 -0.9273642
0000f0 96 8d 11 bf 91 d6 b8 3e c7 a5 79 3f 11 03 7d bf
       -0.5685667 0.361012 0.9751858 -0.98832804
000100 98 ac fb 3e a1 7a 96 3f 61 a0 47 3e 73 6f 34 bf
       0.49155116 1.1756173 0.19494773 -0.7048256
000110 de 80 5c 3f a9 ba 81 bf 73 23 bd 3e 45 0d 7a 3f
       0.86134136 -1.0135089 0.36941108 0.976765
000120 ea 23 41 bf c8 7c 8a bf d5 71 91 3f 0e 02 70 bf
       -0.75445426 -1.081933 1.1362864 -0.93753135
000130 24 7b 0e bf f7 f6 78 3f 67 0a a7 3f d7 a1 9d bf
       -0.5565665 0.9725184 1.305005 -1.2315015
000140 d0 fa 90 bf 16 8c 7b 3f 8c 6e 8d bf 26 b7 46 bf
       -1.1326542 0.9826063 -1.1049361 -0.7762321
000150 a5 f5 64 bf 2e b8 24 3f 1a 58 67 bf ae eb 3c 3f
       -0.89437324 0.64343536 -0.9036881 0.7379712
000160 8e ad 36 bf 90 e0 a8 bf 88 d9 5c 3f 57 9b 9b bf
       -0.71358573 -1.3193531 0.86269426 -1.2156781
000170 00 66 1a bf 7d 85 a3 3f 97 b6 ee 3d 4d 1a ad bf
       -0.6031189 1.2775112 0.1165592 -1.3523651
000180 0b a3 0d 3f c0 4a 51 3f eb 51 16 bf e3 6a 5a be
       0.5532691 0.81754684 -0.58718747 -0.21329837
000190 f7 e0 5b 3f a8 bf 02 bf 56 94 99 3f 02 03 5e 3f
       0.85890144 -0.51073694 1.1998394 0.8672334
0001a0 d4 50 d6 3d 27 13 a0 bf b5 b0 82 3f 43 38 75 bf
       0.104646355 -1.2505845 1.0210177 -0.95788974
0001b0 56 4c 83 3e 78 68 d7 3e f0 47 7d 3f 02 7f 1f bf
       0.25644177 0.4207189 0.9893789 -0.62303174
0001c0 2b a5 36 bf ac 9a 33 3f 4d 88 8c bf 55 57 33 be
       -0.71345776 0.70157886 -1.0979096 -0.17513783
0001d0 bb 04 31 bf 71 62 a1 3f 2a 30 83 be 64 f1 e8 3e
       -0.69147843 1.2608167 -0.25622684 0.45496666
0001e0 e8 60 61 bf fc 15 3c bf b1 19 f8 3e fa c1 9d bf
       -0.8803849 -0.73471045 0.484571 -1.2324822
0001f0 6f 09 54 bf da 68 40 3f a5 52 26 bf 6c 5f 6b bf
       -0.82826895 0.7515999 -0.64969856 -0.9194248
000200 f3 32 83 3e 6b 18 b6 3e dc 85 86 bf 4f 38 38 be
       0.2562481 0.35565504 -1.0509601 -0.1799023
000210 fc 59 12 3f 50 26 55 be d1 33 c0 3f 6a b2 2b 3f
       0.57168555 -0.20815396 1.5015813 0.67069113
000220 7f 78 69 3f ab 37 b3 bf c1 8f 3d 3f cb ae 63 bf
       0.9119949 -1.4001364 0.74047476 -0.8893859
000230 4c b7 a7 3e 36 91 b7 bc 50 bb ca 3d ed 09 23 bc
       0.32757032 -0.02240811 0.09899008 -0.009951097
000240 73 0c d8 be 85 db d6 3e 59 25 1f bf 00 c6 cc 3e
       -0.42196998 0.41964355 -0.62166363 0.39994812
000250 08 b9 ce be d8 23 a9 3f 04 31 af 3e 54 f5 15 3f
       -0.40375543 1.3214064 0.34217083 0.58577466
000260 0d d9 43 bf 94 95 ab bd 81 a2 dc 3d db 66 09 bf
       -0.7650307 -0.08378139 0.10773183 -0.5367257
000270 33 05 c3 be bd da 36 bd 47 d4 93 bf dd 4e ad be
       -0.38089904 -0.0446422 -1.1549157 -0.3384923
000280 2e 17 66 3e 26 b8 31 be eb 3c 99 bf cf ba a7 3c
       0.2246978 -0.17355403 -1.1971716 0.02047482
000290 82 a0 88 3e d3 4f 04 bc c0 dc b2 3f ef 04 35 3e
       0.26684958 -0.008075672 1.3973618 0.17677663
0002a0 c9 19 a2 3f 9a ee 3d bf 90 09 0e 3f 4e f8 55 bf
       1.2664119 -0.741922 0.5548334 -0.8358201
0002b0 0b d8 24 3f 30 85 7d be 62 30 18 bf a5 ae e2 3e
       0.64392155 -0.24757838 -0.59448826 0.44273868
0002c0 ce 06 4a 3d 29 a4 d5 3d e9 8b 28 bf be 7e 22 3f
       0.049322896 0.10431702 -0.65838486 0.63474643
0002d0 17 bc d1 bd 7b 11 6f 3f 43 bd 02 3f 4c a2 17 3f
       -0.102409534 0.9338605 0.5107004 0.5923202
0002e0 9f 9f 2a bf 24 85 db 3e 3b a4 97 be e2 6b 33 be
       -0.6664981 0.42875016 -0.29617485 -0.17521623
0002f0 16 c6 5a 3e dd 44 12 bf 81 07 89 bf 92 8c da 3d
       0.21364626 -0.5713633 -1.0705415 0.10671343
000300 74 6c d9 be 05 0b 5c bf 65 6f 91 bf 98 5b 13 be
       -0.42465556 -0.85954314 -1.136212 -0.14390409
000310 f1 8d 8c bc 3c aa c9 3e 0e 32 56 3f f4 6e 85 be
       -0.017157527 0.3938769 0.8367013 -0.26061213
000320 dd 89 b8 3f 08 b2 ac bd e0 85 b6 3d ad 8a fc be
       1.4417073 -0.08432394 0.089122534 -0.4932455
000330 d3 c8 43 3f 7b 4f 30 bf 43 3d 84 bf 92 0e 5c 3f
       0.7647831 -0.6887128 -1.0331196 0.8595973
000340 8f cb 1d 3f 02 93 83 be c4 e5 45 3d da 36 49 3f
       0.6163873 -0.25698096 0.048314825 0.7859932
000350 4f 48 38 3e d7 92 d8 3e 85 23 0c 3f 04 f9 2f 3e
       0.17996334 0.4229953 0.547417 0.17184836
000360 6d 63 5b be 93 fb 47 3f 2d 9f 07 bf ce 21 04 3f
       -0.21424647 0.78118247 -0.5297726 0.5161408
000370 82 b0 33 3f e7 25 45 bf 09 65 6a bf 60 8a 0b 3f
       0.70191205 -0.7701096 -0.9156042 0.5450802
000380 0e 9b 47 bf 6b 4d a0 bf ec 83 5a bf d5 9b da 3c
       -0.7797097 -1.2523626 -0.85357547 0.026685635
000390 b7 f3 0a bf aa d8 32 3f 16 1d 53 ba d6 71 2f bf
       -0.5427813 0.69861853 -0.00080533454 -0.68533075
0003a0 41 a7 8b 3f 3a d2 12 3f 10 d2 51 bf fe b2 09 bd
       1.0910417 0.5735203 -0.81961155 -0.033617966
0003b0 b0 7a 46 3f 17 a7 6f bf 49 fb 9d bf 97 e4 a8 3f
       0.77530956 -0.93614334 -1.2342311 1.319476
0003c0 ec 2f 67 3f b4 f8 19 bf 08 a7 e1 3e 62 9d 55 3f
       0.903075 -0.60145116 0.44072747 0.8344327
0003d0 d0 23 ea 3e 41 fa d1 bd 1e 18 fa 3e 57 43 a6 be
       0.45730448 -0.1025281 0.48846525 -0.3247325
0003e0 32 43 a0 3e 6a cf 82 3f 8a c5 82 bf e2 35 5b 3f
       0.31301266 1.0219548 -1.0216534 0.85629094
0003f0 5f 59 a2 3f 22 bd fd be 3e d3 ca be e2 c4 78 3f
       1.2683524 -0.4955836 -0.3961429 0.9717542

cls_head.bias f4 [10]
000000 52 54 86 3d 6a a3 91 3d 3f 5d 0e bd 18 11 37 be
       0.065590516 0.07111247 -0.034756895 -0.17877614
000010 fd ef 1c be 32 30 70 bd 5c d3 f5 bc ef 77 4c bc
       -0.15325923 -0.058639713 -0.03000801 -0.012479766
000020 b7 6f 4c 3d 21 c0 a4 3e
       0.049911227 0.32177833

reg_head.weight f4 [1, 32]
000000 c6 df d8 3d 1d 4e 9c bd 41 a5 95 bd c4 ad 20 be
       0.105895564 -0.076320864 -0.0730691 -0.15691286
000010 0c f0 0e bd 00 32 f2 3a 93 61 20 3e 50 a1 14 3c
       -0.034896895 0.0018478036 0.15662222 0.009071663
000020 b9 44 17 3e 59 87 27 be 8f 0f 02 3e cc b6 33 be
       0.1477231 -0.16360225 0.12701248 -0.175502
000030 be 21 32 be 01 69 01 3e 08 cf 67 3d 0f e5 0b be
       -0.17395684 0.12637712 0.056593925 -0.13661598
000040 d0 9a 86 bc b5 ca 1f be 3e 1a fc 3d 7a db a4 3d
       -0.016431242 -0.1560467 0.12309693 0.08049674
000050 00 59 52 3b 50 83 54 3c 30 9a 1f be 51 27 e0 bd
       0.0032096505 0.01297076 -0.15586162 -0.10944999
000060 f0 36 5f 3d 67 4b 14 be d5 f1 b7 bd ea 95 c1 3d
       0.05449575 -0.14481889 -0.08981673 0.09452422
000070 7a 5e 55 bd 57 e8 0f 3e fa e1 a9 3d 16 79 f6 3d
       -0.052092053 0.14053474 0.08295055 0.12034814
