models/rym_grid_c0_s64_e2_t4_r4/cnn_c0_ce_a0p5_l0_lr1e-05.pt (torch, 198707 bytes, 23 tensors)

conv.0.weight f4 [32, 64, 3, 3]
-0.02666513 -0.014630676 -0.014133807 -0.0031914474 -0.0052821008 -0.07849125 -0.029086761 0.024515614
0.051830627 -0.0904605 -0.013554816 -0.011626155 -0.062347446 0.006597434 -0.060500566 0.0685188
-0.05992678 -0.08286712 -0.04530228 0.013838785 -0.06386204 -0.017614927 -0.071583204 0.018238021
0.015955573 -0.028855136 0.05323446 0.011529679 -0.018996784 -0.044514697 0.027625848 0.0054720724
0.033673886 0.04786096 -0.08410776 -0.014584044 -0.048737984 0.016023729 -0.010767949 0.007816076
0.037924938 -0.069308534 0.023330823 0.005658397 -0.015755609 -0.029200995 0.010096039 0.009033616
0.016048204 0.056014784 0.015616119 0.00917236 -0.0027165601 -0.08099786 -0.10525574 -0.080972046
0.07070886 -0.014459814 -0.055177774 0.03701214 0.02982639 0.012084337 -0.057420027 0.0011106961
-0.034174692 -0.050017606 0.059897244 -0.015557093 -0.019762974 -0.013434511 -0.042677768 0.01583702
-0.036716428 -0.079277486 -0.08170942 -0.02768541 -0.15569012 0.013437039 0.0465141 -0.029202923
0.08184308 -0.023875862 -0.18128915 -0.051053647 -0.03203671 -0.0562305 0.012259668 0.032565698
-0.029662305 0.040195987 0.025167817 -0.087529354 0.002300128 0.06651755 0.043196052 -0.033896044
-0.018725922 -0.007882168 0.03248613 -0.08015253 -0.11696706 -0.029859927 -0.11550626 0.04660622
0.025434412 0.015448411 -0.03689128 -0.03959122 -0.050710272 0.04785224 0.020448688 0.060931522
0.07156598 -0.019736668 -0.0006449292 0.00084050104 -0.06553888 0.03914962 -0.027072864 -0.019090889
0.0004666642 -0.017441396 0.016363489 0.0040124212 -0.0007328478 0.045420203 0.0083977 0.028523415
-0.037743915 0.010595521 -0.032346305 0.0401285 0.017038375 -0.011105908 -0.013143269 -0.025842486
-0.014913475 -0.036334675 0.008072804 -0.0138720805 -0.031063873 0.030949643 -0.00221881 0.016231975
-0.027148293 0.023141464 0.0026588724 0.040490773 -0.03563413 -0.0261711 0.02232915 0.009771216
-0.04394688 -0.0057503255 0.010456961 -0.045034908 0.062688865 0.050461493 -0.049042623 0.027037209
0.00504477 0.00926761 -0.01465791 -0.0574863 -0.04528066 -0.012175572 0.033357922 -0.01960551
-0.00016713004 0.064742886 0.08390366 0.012302849 0.05037265 -0.021383682 0.022001041 -0.012760393
0.010080966 0.016033607 -0.037496522 -0.010326217 -0.017493324 0.04845888 0.03211712 0.05610882
-0.023016373 0.025016433 -0.034811515 0.06416344 -0.010584994 -0.00085454865 0.0009524626 -0.0336647
0.031419218 -0.015100453 -0.0069932886 0.022153698 -0.002361902 0.0069553684 0.030925961 -0.010363655
-0.013824824 0.027544426 0.018651774 -0.021399267 0.0149902385 -0.0053709075 0.019488713 -0.012075401
-0.023981007 -0.0125843985 0.001635343 0.0053110723 -0.04768946 -0.02970289 0.006889605 0.0099884095
-0.004219285 0.046035103 -0.023374232 0.03448168 0.062669285 0.020698452 -0.005315047 -0.060925003
-0.02840352 0.03718897 0.050202515 0.007548529 -0.0048908647 -0.017185735 -0.03053518 0.016380087
0.007121034 -0.0031188393 0.010110464 -0.0023385866 0.010314164 0.042311385 0.0027591782 0.0036669401
0.017405786 0.007961141 0.011101477 -0.07338047 -0.060235754 -0.010473257 0.007140268 -0.015687631
-0.022887241 -0.007665156 0.04816821 -0.07040692 0.008505319 -0.024441862 -0.00415399 -0.017424079
00000000: d570 dabc 81b5 6fbc 7c91 67bc 9a27 51bb
00000010: 7915 adbb 05c0 a0bd 5c47 eebc f8d4 c83c
00000020: 5a4c 543d 5b43 b9bd 0515 5ebc a17b 3ebc
00000030: 0960 7fbd 4a2f d83b 71cf 77bd 9653 8c3d
00000040: c975 75bd 3db6 a9bd e28e 39bd 12bc 623c
00000050: 1aca 82bd 2e4d 90bc 379a 92bd e767 953c
00000060: 43b5 823c 9b61 ecbc 610c 5a3d fbe6 3c3c
00000070: 259f 9bbc 0b55 36bd 9a4f e23c 124f b33b
00000080: a1ed 093d db09 443d b040 acbd eaf1 6ebc
00000090: 7ba1 47bd 3244 833c 0d6c 30bc 000f 003c
000000a0: 2e57 1b3d a2f1 8dbd 4820 bf3c 136a b93b
000000b0: e811 81bc ed36 efbc db69 253c bb01 143c
000000c0: 8677 833c c26f 653d c0da 7f3c ab47 163c
000000d0: 5108 32bb 35e2 a5bd 5290 d7bd acd4 a5bd
000000e0: cfcf 903d dbe8 6cbc 1702 62bd 0b9a 173d
000000f0: 7956 f43c 62fd 453c 4331 6bbd c794 913a
00000100: c3fa 0bbd 43df 4cbd d056 753d 2de3 7ebc
00000110: f6e5 a1bc 6c1c 5cbc e2ce 2ebd a3bc 813c
00000120: f763 16bd 3c5c a2bd 4557 a7bd 83cc e2bc
00000130: 3b6d 1fbe 0727 5c3c 9285 3e3d f83a efbc
00000140: 589d a73d 5097 c3bc dda3 39be a11d 51bd
00000150: ed38 03bd f451 66bd c6dc 483c 9c63 053d
00000160: 5dfe f2bc 8ca4 243d bd2c ce3c 9742 b3bd
00000170: bfbd 163b 5a3a 883d 58ee 303d 94d6 0abd
00000180: 1b67 99bc 3524 01bc 2d10 053d 0227 a4bd
00000190: 6d8c efbd ce9c f4bc 8c8e ecbd 2ae6 3e3d
000001a0: d45b d03c 551b 7d3c 501b 17bd 672a 22bd
000001b0: 93b5 4fbd b600 443d 0284 a73c 5593 793d
000001c0: 2f91 923d cbae a1bc 7710 29ba 1255 5c3a
000001d0: 4039 86bd 5a5b 203d e9c7 ddbc 7f64 9cbc
000001e0: 9caa f439 42e1 8ebc b90c 863c a17a 833b
000001f0: 951c 40ba 890a 3a3d 8296 093c f0a9 e93c
00000200: 5d99 1abd d698 2d3c 8f7d 04bd c85d 243d
00000210: 1094 8b3c 8ef5 35bc de56 57bc 9fb3 d3bc
00000220: a657 74bc abd3 14bd cb43 043c b947 63bc
00000230: aa79 febc 1b8a fd3c 7469 11bb ebf8 843c
00000240: 1966 debc 2b93 bd3c 7a40 2e3b a7d9 253d
00000250: 18f5 11bd c664 d6bc 9feb b63c 7317 203c
00000260: a501 34bd 3a6d bcbb ac53 2b3c 8676 38bd
00000270: 0563 803d b6b0 4e3d ebe0 48bd 237d dd3c
00000280: 994e a53b 2cd7 173c bb27 70bc c176 6bbd
00000290: 3778 39bd 0d7c 47bc 51a2 083d bc9b a0bc
000002a0: a13f 2fb9 eb97 843d afd5 ab3d e491 493c
000002b0: 8d53 4e3d d52c afbc 873b b43c f810 51bc
000002c0: a32a 253c e958 833c f495 19bd 4b2f 29bc
000002d0: 294e 8fbc d27c 463d 3e8d 033d 5dd2 653d
000002e0: d58c bcbc 43ef cc3c 8596 0ebd 1f68 833d
000002f0: af6c 2dbc ca03 60ba afae 793a ffe3 09bd
00000300: 70b1 003d e467 77bc f527 e5bb ac7b b53c
00000310: 24ca 1abb dce9 e33b 7158 fd3c 52cc 29bc
00000320: 8481 62bc d9a4 e13c 9bcb 983c 844d afbc
00000330: 9e99 753c 70fe afbb cba6 9f3c e7d7 45bc
00000340: d173 c4bc cb2e 4ebc 0159 d63a 8108 ae3b
00000350: 0656 43bd 7a53 f3bc 32c2 e13b 6da6 233c
00000360: ee41 8abb 4e8f 3c3d 517b bfbc a93c 0d3d
00000370: c158 803d cd8f a93c d929 aebb 7f8c 79bd
00000380: 80ae e8bc 7653 183d 27a1 4d3d a759 f73b
00000390: 8c43 a0bb 19c9 8cbc ea24 fabc 882f 863c
000003a0: 9057 e93b 7165 4cbb 5ca6 253c f942 19bb
000003b0: bdfc 283c b44e 2d3d 54d3 343b 0c51 703b
000003c0: 9496 8e3c 726f 023c f8e2 353c 8048 96bd
000003d0: c4b9 76bd 0698 2bbc e9f8 e93b 5983 80bc
000003e0: 067e bbbc fd2b fbbb 074c 453d 8131 90bd
000003f0: e559 0b3c 4d3a c8bc 321e 88bb f1bc 8ebc

conv.1.weight f4 [32]
0.98424256 0.982788 1.0093774 0.9675119 1.0208519 1.009244 0.9551505 1.0070778
1.0104889 1.0060383 0.9799908 1.0289003 1.001166 1.0272014 1.0109575 1.0267532
1.028346 0.97998786 0.97133505 1.0416065 0.9944599 0.9951644 1.0092316 1.0045956
0.97962207 1.0140377 0.9964838 0.9921431 0.99375737 0.98181826 1.0006728 1.0086192
00000000: 52f7 7b3f ff97 7b3f 4733 813f dcae 773f
00000010: 46ab 823f e82e 813f be84 743f ede7 803f
00000020: b357 813f ddc5 803f ade0 7a3f 01b3 833f
00000030: 3526 803f 567b 833f 0e67 813f a66c 833f
00000040: d7a0 833f 7ce0 7a3f 6aa9 783f 5d53 853f
00000050: ed94 7e3f 18c3 7e3f 802e 813f 9796 803f
00000060: 83c8 7a3f fdcb 813f 9019 7f3f 17fd 7d3f
00000070: e266 7e3f 7158 7b3f 0c16 803f 6f1a 813f

conv.1.bias f4 [32]
0.006424578 0.025697557 0.097618505 0.06651239 0.010013253 0.03636721 0.03990649 0.06598016
0.012918958 0.085275605 0.046584733 0.03656362 0.0066875434 0.009085533 -0.03216137 0.0047660787
0.09530855 0.017277434 0.061839003 0.07477442 0.121206716 0.024207057 0.0076043205 0.030907746
0.011844165 0.043224998 0.050891515 0.06154881 0.035995223 0.030252635 0.0040736725 0.09674689
00000000: 4485 d23b af83 d23c 36ec c73d a637 883d
00000010: a10e 243c c9f5 143d fd74 233d 9b20 873d
00000020: 0aaa 533c faa4 ae3d a2cf 3e3d bcc3 153d
00000030: 2e23 db3b 7ddb 143c a4bb 03bd c42c 9c3b
00000040: 2131 c33d 6889 8d3c e54a 7d3d 5523 993d
00000050: 3a3b f83d e14d c63c aa2d f93b 3e32 fd3c
00000060: 070e 423c b20c 313d 9f73 503d 9b1a 7c3d
00000070: ba6f 133d 60d4 f73c 717c 853b 3c23 c63d

conv.1.running_mean f4 [32]
-0.21863464 0.040324725 0.17883337 -0.01382608 -0.31576073 -0.15548995 -0.031683683 0.11263345
-0.06792388 0.04364205 -0.16135892 -0.25359327 -0.053398192 -0.10537259 0.10366977 -0.042854868
-0.1996589 0.2939406 0.06587074 -0.0069157355 0.04180724 -0.099593386 -0.12262643 0.11670048
0.03193721 -0.23392478 0.2576788 -0.020485142 0.25022736 -0.09712556 0.11888439 -0.23839381
00000000: c2e1 5fbe 8a2b 253d 1820 373e c886 62bc
00000010: 64ab a1be c238 1fbe c0c6 01bd 5eac e63d
00000020: ad1b 8bbd 02c2 323d 463b 25be fad6 81be
00000030: 10b8 5abd 96cd d7bd d150 d43d 9688 2fbd
00000040: 6273 4cbe 627f 963e 3de7 863d 659d e2bb
00000050: 123e 2b3d 9ef7 cbbd 9123 fbbd a900 ef3d
00000060: 98d0 023d fa89 6fbe 7aee 833e 75d0 a7bc
00000070: cd1d 803e c4e9 c6bd a979 f33d 821d 74be

conv.1.running_var f4 [32]
0.06406237 0.03202958 0.05627714 0.029142175 0.06435824 0.034632523 0.037203927 0.048187293
0.059044555 0.035433594 0.0346905 0.06130025 0.06124798 0.050639715 0.033974994 0.038255986
0.048830334 0.04187814 0.027978823 0.030963195 0.024475366 0.042818435 0.03529569 0.04122258
0.030533547 0.052823942 0.051242128 0.034109365 0.04878717 0.04106169 0.050949898 0.036690142
00000000: 2233 833d 7331 033d dc82 663d 92bb ee3c
00000010: 41ce 833d d5da 0d3d 2563 183d 0a60 453d
00000020: b4d8 713d d122 113d a017 0e3d f915 7b3d
00000030: 29df 7a3d 976b 4f3d 5d29 0b3d 4fb2 1c3d
00000040: 5102 483d 6a88 2b3d d833 e53c 87a6 fd3c
00000050: 9080 c83c 6262 2f3d 3792 103d 02d9 283d
00000060: 7d21 fa3c eb5d 583d 44e3 513d 43b6 0b3d
00000070: 0ed5 473d 4d30 283d d7b0 503d 6748 163d

conv.3.weight f4 [32, 32, 3, 3]
-0.004951127 0.0009752297 0.02781343 0.053989016 -0.025041424 -0.03250114 -0.036921214 0.005678466
-0.01817032 0.054769173 -0.020569313 0.040593147 0.0152932 -0.0042405785 0.004527341 0.042091493
-0.046791613 0.031538714 0.07304889 0.0241933 0.018012634 0.05282485 -0.014937041 -0.020945586
-0.059169468 0.012762721 0.007736012 0.020569261 -0.0054097073 0.04929741 0.017552732 -0.0115233855
-0.024808412 0.008403964 -0.06299902 0.04228184 -0.009719435 -0.056441166 0.031946585 0.027375916
-0.024624571 0.046397507 0.038256016 -0.067174256 -0.01875933 0.07078768 -0.03935873 0.02256209
0.0102212895 0.056265377 -0.013828169 -0.0007959773 0.04000997 -0.006734725 0.052721202 -0.056928873
-0.056496926 -0.008725048 0.010697054 -0.010584874 -0.013812519 0.019041862 0.04775765 -0.030853495
0.014998031 -0.0545755 -0.01971217 0.03772457 -0.034824565 -0.026640497 -0.0077857003 0.011158755
-0.027787425 0.03620597 0.04885679 -0.0043594204 -0.027247801 -0.062865384 0.030547222 -0.0049553844
-0.11837697 0.030320408 -0.029143415 -0.017842617 -0.06317263 0.048032943 0.06713733 -0.06539278
-0.0656659 -0.017629275 0.042044096 0.0068098796 -0.017106306 0.035913944 -0.030978253 -0.03763515
0.045817968 -0.07938061 -0.057452057 -0.021055168 -0.045294404 0.034831565 0.050081275 -0.0009809319
-0.02201409 0.06303561 0.027579159 0.02272414 -0.023406958 -0.037768018 0.0055869515 0.054365594
0.0077472064 -0.039769933 0.014007269 0.007390033 -0.007322671 0.07537406 0.024804527 0.000934631
0.03269809 -0.01412922 0.025186043 -0.048328824 -0.029129116 -0.029588452 0.011649984 -0.01138731
-0.03678175 -0.03384863 0.039689533 0.02386201 0.012364785 0.01324289 0.020171346 -0.036185652
-0.03248776 -0.015633656 0.012729972 -0.023186252 0.02634124 -0.009106595 -0.034091637 0.0046973634
-0.059181374 -0.059530683 -0.0042684395 -0.0043786843 -0.021147368 0.022950446 0.03944797 -0.026127882
-0.026475193 -0.025293324 0.054401737 -0.036826957 -0.019497536 -0.032215968 0.048445307 -0.070083044
0.00059323094 -0.055551536 -0.046593945 0.032122813 0.06483172 0.039870434 0.024104774 -0.005739265
-0.020908535 -0.061555307 -0.02438857 0.0040718094 -0.05141308 0.02181231 0.013651638 -0.028731583
0.040218305 -0.047641966 0.038900208 0.034596417 0.022462435 -0.03466954 0.06864381 0.0007345292
-0.009686029 0.033964846 0.008168389 -0.015105299 -0.013713154 -0.05748677 0.0074321893 -0.0049970415
-0.051702045 -0.03226917 -0.07620034 -0.012439695 -0.03651264 -0.07068937 0.01230063 -0.005690683
-0.02169421 0.04446762 0.025375681 0.0394917 0.02960841 0.013673709 -0.008755639 -0.050838374
-0.015918069 -0.052973453 -0.01782668 0.009679848 -0.00622603 0.03460809 -0.008095865 -0.04998771
0.030773068 0.06391028 -0.0056936676 -0.037081916 -0.05529369 0.013389699 0.05059299 -0.021461321
0.030659394 0.012488779 -0.03511351 0.038305152 0.03933073 0.033394296 -0.03815684 -0.035360195
0.048449967 0.012646584 0.052611876 -0.025378881 0.033373382 -0.028058868 -0.06389611 -0.06487365
0.004653379 -0.021982038 -0.016651988 0.04506224 -0.050821804 0.036758054 0.032390505 0.04060904
-0.04486306 0.05884136 0.044008195 0.0021680668 -0.04014231 -0.008406454 0.013740679 0.044254996
00000000: 103d a2bb 8fa6 7f3a fed8 e33c 9623 5d3d
00000010: ac23 cdbc ea1f 05bd b33a 17bd 6d12 ba3b
00000020: ecd9 94bc a455 603d fa80 a8bc 0045 263d
00000030: 5490 7a3c 8df4 8abb 175a 943b 2168 2c3d
00000040: 90a8 3fbd bd2e 013d a89a 953d 0731 c63c
00000050: 3b8f 933c df5e 583d 7eba 74bc 1496 abbc
00000060: af5b 72bd bb1a 513c 5f7e fd3b de80 a83c
00000070: ea43 b1bb 15ec 493d bfca 8f3c 95cc 3cbc
00000080: 033b cbbc c8b0 093c a105 81bd b92f 2d3d
00000090: 443e 1fbc da2e 67bd 6cda 023d 7543 e03c
000000a0: 78b9 c9bc 500b 3e3d 57b2 1c3d a892 89bd
000000b0: 2bad 99bc 22f9 903d 9f36 21bd 22d4 b83c
000000c0: 3277 273c 8676 663d 8b8f 62bc 22a9 50ba
000000d0: 7fe1 233d f8ae dcbb 30f2 573d 402e 69bd
000000e0: 5269 67bd 81f3 0ebc b242 2f3c 2e6c 2dbc
000000f0: e74d 62bc aefd 9b3c 879d 433d 78c0 fcbc
00000100: 4dba 753c 8f8a 5fbd 6b7b a1bc 1485 1a3d
00000110: 34a4 0ebd 2c3d dabc 301f ffbb 36d3 363c
00000120: 74a2 e3bc b64c 143d 0f1e 483d 78d9 8ebb
00000130: c836 dfbc 91bf 80bd 2b3e fa3c c760 a2bb
00000140: a06f f2bd 8162 f83c 2cbe eebc ae2a 92bc
00000150: a760 81bd 31be 443d 4c7f 893d a6ec 85bd
00000160: d87b 86bd 456b 90bc 6e36 2c3d 6925 df3b
00000170: 8622 8cbc 801a 133d 1bc6 fdbc 5127 1abd
00000180: 9fab 3b3d 4d92 a2bd d952 6bbd e37b acbc
00000190: a086 39bd 8bab 0e3d 0622 4d3d 9d92 80ba
000001a0: e556 b4bc d018 813d b0ed e13c fa27 ba3c
000001b0: f3bf bfbc a3b2 1abd bf12 b73b 75ae 5e3d
000001c0: 47dc fd3b cce5 22bd bf7e 653c 1728 f23b
000001d0: 04f3 efbb b75d 9a3d dd32 cb3c 0602 753a
000001e0: 6fee 053d 3e7e 67bc f652 ce3c 72f4 45bd
000001f0: 2fa0 eebc 7b63 f2bc 93df 3e3c d791 3abc
00000200: 76a8 16bd dca4 0abd 7e91 223d 437a c33c
00000210: ab95 4a3c b5f8 583c 613e a53c 6837 14bd
00000220: e311 05bd 2712 80bc 5f91 503c 18f1 bdbc
00000230: 96c9 d73c d433 15bc aca3 0bbd 57ec 993b
00000240: 2b68 72bd 72d6 73bd 44de 8bbb 117b 8fbb
00000250: 3f3d adbc 9302 bc3c 3294 213d 240a d6bc
00000260: 81e2 d8bc f233 cfbc 5bd4 5e3d ddd7 16bd
00000270: 4cb9 9fbc e4f4 03bd 966e 463d b387 8fbd
00000280: 0e83 1b3a 028a 63bd 4bd9 3ebd 3693 033d
00000290: 7ec6 843d 2e4f 233d 6077 c53c 7210 bcbb
000002a0: 6048 abbc 6b21 7cbd 8aca c7bc d06c 853b
000002b0: 8696 52bd bbaf b23c 1fab 5f3c 7f5e ebbc
000002c0: f3bb 243d 3924 43bd d355 1f3d f9b4 0d3d
000002d0: 2403 b83c a601 0ebd 2095 8c3d 6c8d 403a
000002e0: 26b2 1ebc b91e 0b3d b5d4 053c 377c 77bc
000002f0: 23ad 60bc 3f77 6bbd b989 f33b 39be a3bb
00000300: 86c5 53bd ad2c 04bd ed0e 9cbd ddcf 4bbc
00000310: 478e 15bd 97c5 90bd 9588 493c e978 babb
00000320: 0eb8 b1bc ae23 363d a9e0 cf3c 0cc2 213d
00000330: 568d f23c b107 603c d073 0fbc e63b 50bd
00000340: 9c66 82bc b1fa 58bd 4209 92bc 3a98 1e3c
00000350: ba03 ccbb 36c1 0d3d 85a4 04bc eabf 4cbd
00000360: cd17 fc3c 65e3 823d f291 babb 35e3 17bd
00000370: a37b 62bd 7860 5b3c 983a 4f3d a7cf afbc
00000380: 6929 fb3c bc9d 4c3c 2fd3 0fbd dde5 1c3d
00000390: 4219 213d 75c8 083d 594a 1cbd dad5 10bd
000003a0: 7973 463d 9e33 4f3c 8d7f 573d 5fe7 cfbc
000003b0: 87b2 083d b6db e5bc f7db 82bd 7adc 84bd
000003c0: 5f7b 983b ad13 b4bc c069 88bc 2f93 383d
000003d0: 862a 50bd 9d8f 163d e8ab 043d aa55 263d
000003e0: 54c2 37bd a303 713d f041 343d 2016 0e3b
000003f0: 436c 24bd 39bb 09bc 9620 613c ba44 353d

conv.4.weight f4 [32]
1.0181024 0.98914 1.0071033 1.0348554 1.0051173 0.9865159 1.0432223 0.9833367
1.0066344 1.0059217 1.0403326 0.99120873 0.9998643 1.0072056 0.9927047 0.9885643
1.0026593 0.9894756 0.9924442 1.0095487 0.9919131 1.0337023 1.0087923 1.0303848
1.0092725 1.0045327 0.9835526 0.9948067 0.99698406 0.9867307 1.0138988 1.0146292
00000000: 2e51 823f 4738 7d3f c3e8 803f 2476 843f
00000010: afa7 803f 4e8c 7c3f 4f88 853f f4bb 7b3f
00000020: 65d9 803f 0bc2 803f 9e29 853f dbbf 7d3f
00000030: 1bf7 7f3f 1dec 803f e521 7e3f 8d12 7d3f
00000040: 2457 803f 464e 7d3f d310 7e3f e438 813f
00000050: 04ee 7d3f 5b50 843f 1b20 813f a6e3 833f
00000060: d72f 813f 8794 803f 1aca 7b3f a7ab 7e3f
00000070: 593a 7f3f 629a 7c3f 70c7 813f 5fdf 813f

conv.4.bias f4 [32]
-0.02365599 -0.011746779 0.053731594 0.03130108 -0.014384492 -0.005764346 0.03217824 0.0034165038
0.06996065 -0.013310832 0.0824515 -0.019724593 -0.0028945748 0.023110917 0.017437436 0.003973116
0.0017765098 0.012608397 0.023557976 0.02786449 0.005859812 0.014823821 0.0017922673 0.016753498
0.01077565 0.028508361 0.016204776 0.014925226 -0.0074389284 -0.0068503893 0.0014597811 0.0042222505
00000000: 35ca c1bc 9075 40bc a915 5c3d 9035 003d
00000010: efac 6bbc d7e2 bcbb 55cd 033d 6ce7 5f3b
00000020: 8747 8f3d ad15 5abc 55dc a83d 7895 a1bc
00000030: e8b2 3dbb 1b53 bd3c f4d8 8e3c ea30 823b
00000040: c7d9 e83a 7393 4e3c a8fc c03c 1244 e43c
00000050: aa03 c03b 9ddf 723c 83ea ea3a a23e 893c
00000060: 5a8c 303c 5e8a e93c e1bf 843c ef88 743c
00000070: 41c2 f3bb 3b79 e0bb 2056 bf3a ce5a 8a3b

conv.4.running_mean f4 [32]
-0.1478633 0.3600941 -0.18271983 0.08048955 0.015536632 -0.26583585 -0.10055974 -0.24348533
-0.18399625 -0.31786662 -0.41991222 -0.13025367 -0.25045663 -0.60314965 -0.27477038 0.25323206
-0.81496525 -0.42025864 -0.032836016 -0.2229406 -0.1720524 -0.38983765 0.43735644 -0.3228668
-0.44770136 0.2959526 -0.23380789 -0.18097953 -0.033742875 0.3290922 -0.47868893 -0.21822493
00000000: 7a69 17be 415e b83e e81a 3bbe b5d7 a43d
00000010: 5c8d 7e3c a31b 88be 44f2 cdbd 3854 79be
00000020: 8369 3cbe 6abf a2be bcfe d6be 3861 05be
00000030: da3b 80be 0468 1abf b4ae 8cbe a2a7 813e
00000040: 90a1 50bf 242c d7be 0f7f 06bd 8a4a 64be
00000050: 812e 30be cd98 c7be 2fed df3e cc4e a5be
00000060: 1d39 e5be 1987 973e 566b 6fbe b352 39be
00000070: f835 0abd c67e a83e b716 f5be 5b76 5fbe

conv.4.running_var f4 [32]
0.20362282 0.15430546 0.21340474 0.17107588 0.19054575 0.14538105 0.18478148 0.10572428
0.09699344 0.16687144 0.16908501 0.21535976 0.14553076 0.1662421 0.13139164 0.16984701
0.15885216 0.14083935 0.13479711 0.1721771 0.15278482 0.12479006 0.15094262 0.13598493
0.129933 0.1658858 0.10335331 0.13903292 0.14670196 0.1325396 0.30941075 0.14591715
00000000: 8082 503e 4002 1e3e c686 5a3e 842e 2f3e
00000010: 6d1e 433e c5de 143e 5b37 3d3e f985 d83d
00000020: 7fa4 c63d 59e0 2a3e 9f24 2d3e 4587 5c3e
00000030: 0406 153e 5e3b 2a3e 888b 063e 60ec 2d3e
00000040: 24aa 223e 3138 103e 4108 0a3e 324f 303e
00000050: a073 1c3e ee91 ff3d b490 1a3e a23f 0b3e
00000060: 280d 053e f8dd 293e e6aa d33d a55e 0e3e
00000070: 0a39 163e 76b8 073e 166b 9e3e 4e6b 153e

conv.6.weight f4 [32, 32, 3, 3]
-0.025525711 -0.038341377 0.006609494 0.009896053 -0.056451514 -0.026677005 -0.023622204 -0.038061604
0.0012584779 0.02987558 -0.008933407 -0.024246078 0.011187236 0.013153671 -0.00011543231 -0.044888113
0.027715348 0.039582267 -0.046248935 0.037908573 -0.029070362 0.008705125 -0.0355928 -0.024710746
0.037489455 -0.008801462 0.04390383 0.037611753 -0.031612325 0.0085926065 0.038045447 -0.029573768
-0.040400848 -0.049380485 0.015383288 -0.033513207 -0.008269002 0.0654616 0.027019402 0.02723161
-0.006364213 0.007051667 -0.029511213 0.03386537 -0.033685446 0.033129454 0.011673443 0.038900465
0.026831415 0.028569384 -0.0021010935 0.0009991522 0.0054816636 -0.070421904 0.005129712 -0.007045906
-0.048985925 -0.07680186 -0.024526617 0.010242972 0.023997756 -0.030804377 0.0356567 -0.039332673
-0.00062962994 0.04173581 -0.03975475 -0.0354272 0.05812665 0.021085758 0.016304715 -0.015619343
-0.05169383 0.0162771 -0.04156863 0.0021345809 0.05256374 -0.04945939 0.023400754 -0.023997001
-0.010628988 0.005296809 0.008834218 0.00449347 0.07617597 0.036850285 0.02844023 0.043580078
0.018529603 0.034570467 0.050663594 -0.0057525584 -0.03221626 -0.03692321 0.0034543173 0.027363637
0.073359154 -0.00020967303 0.016418256 0.039307874 0.05371213 0.04100998 0.018816402 0.05969113
0.03564305 -0.051352985 0.018356336 0.026473444 0.028515168 0.048027605 -0.011124703 -0.035009217
0.018819544 -0.056453846 0.041801423 -0.040669773 -0.05540264 0.0047030454 0.05424311 0.05053247
0.007985073 0.030354582 -0.03104104 -0.05316265 -0.017620124 -0.0320807 0.03517598 0.022430845
-0.0055922964 0.016495226 -0.010999996 -0.04541598 0.022333924 -0.06893301 0.011283073 0.035902437
-0.017382305 0.043091137 -0.0108573865 0.027143653 -0.023422338 0.013055185 -0.014036409 0.044719316
-0.005625964 0.019893771 -0.05822804 -0.013134979 0.020726005 -0.05285854 -0.04284756 0.030620808
0.034136537 0.03150772 0.02099712 -0.024359321 0.06374245 0.040896352 0.03968857 0.04958394
-0.032865085 -0.013870764 0.013225689 0.028948601 -0.035663802 -0.053426445 -0.031949267 -0.067460015
-0.04113798 0.024109265 0.056161877 -0.06543334 -0.054371078 0.05317847 -0.004008748 0.010357874
0.040696304 0.021478638 0.02093303 0.04914299 -0.01497432 -0.028582567 -0.045551255 -0.0022559136
-0.0064380914 -0.0057274927 0.03733806 0.000480904 -0.03475572 0.02239479 0.060971294 0.061362665
-0.022237085 0.016318465 -0.04314456 0.05915226 -0.023695663 0.05506641 0.008562288 0.011465512
0.053510506 0.057140622 0.052861586 0.0006725138 0.04382059 0.042570345 -0.03256404 0.011324226
-0.0057930844 0.002967553 0.0037772341 0.03463971 -0.078301124 -0.041375868 -0.02716088 0.020440923
-0.04368562 -0.032132033 -0.039251726 0.07564361 -0.03153834 0.0007966514 -0.010936164 -0.03662955
-0.03414048 -0.05375304 0.020408005 0.018465284 -0.034987725 -0.041861054 -0.0050504357 -0.039493408
0.0031634509 -0.0010033227 0.00011679017 0.010696823 -0.009396837 0.014462444 -0.0073795565 -0.028553175
0.014361479 -0.00025808084 0.046890613 -0.02599714 -0.023646472 -0.055858027 -0.040567033 0.00797097
-0.025493689 -0.047687802 -0.004211337 0.026967876 -0.021993503 -0.0030623144 0.034652118 0.0036328905
00000000: 4c1b d1bc d90b 1dbd 7494 d83b 0e23 223c
00000010: b439 67bd bc89 dabc 5a83 c1bc 7ce6 1bbd
00000020: 83f3 a43a a2bd f43c 6d5d 12bc b69f c6bc
00000030: ab4a 373c 7f82 573c 4014 f2b8 99dc 37bd
00000040: 4c0b e33c 0421 223d 866f 3dbd 0546 1b3d
00000050: f824 eebc f19f 0e3c c1c9 11bd 316e cabc
00000060: 8b8e 193d 0234 10bc 81d4 333d c80e 1a3d
00000070: ed7b 01bd 01c8 0c3c 8bd5 1b3d b044 f2bc
00000080: 5c7b 25bd 3143 4abd 300a 7c3c 2545 09bd
00000090: b57a 07bc bb10 863d cb57 dd3c d314 df3c
000000a0: e38a d0bb ac11 e73b 80c1 f1bc 6ab6 0a3d
000000b0: c0f9 09bd c0b2 073d f841 3f3c 1856 1f3d
000000c0: 8ecd db3c 570a ea3c 80b2 09bb fcf5 823a
000000d0: 879f b33b 5c39 90bd 2517 a83b 58e1 e6bb
000000e0: 77a5 48bd 4b4a 9dbd 0bec c8bc 23d2 273c
000000f0: f196 c43c 7659 fcbc c30c 123d 4c1b 21bd
00000100: c00d 25ba 2bf3 2a3d e0d5 22bd 1d1c 11bd
00000110: 3616 6e3d 0abc ac3c 7791 853c 46e8 7fbc
00000120: e9bc 53bd 8e57 853c de43 2abd 53e4 0b3b
00000130: 144d 573d ee95 4abd f0b2 bf3c 5c95 c4bc
00000140: 3525 2ebc db90 ad3b 65bd 103c f53d 933b
00000150: 2602 9c3d 53f0 163d 7cfb e83c 0681 323d
00000160: 65cb 973c c399 0d3d a184 4f3d f57f bcbb
00000170: 32f5 03bd cb3c 17bd d461 623b b529 e03c
00000180: 533d 963d addb 5bb9 947f 863c 4b01 213d
00000190: 4001 5c3d 15fa 273d db24 9a3c b07e 743d
000001a0: 72fe 113d 8257 52bd 0760 963c d6de d83c
000001b0: a498 e93c 98b8 443d 6344 36bc d365 0fbd
000001c0: 722b 9a3c 263c 67bd f837 2b3d 5995 26bd
000001d0: e1ed 62bd 011c 9a3b 062e 5e3d 23fb 4e3d
000001e0: d3d3 023c 2caa f83c c749 febc 14c1 59bd
000001f0: 1458 90bc 0d67 03bd b014 103d e4c0 b73c
00000200: 953f b7bb ff20 873c 5439 34bc 1b06 3abd
00000210: a2f5 b63c c02c 8dbd a3dc 383c 6f0e 133d
00000220: 5665 8ebc 5580 303d 2ee3 31bc 5e5c de3c
00000230: 34e0 bfbc 6ae5 553c f7f8 65bc 9a2b 373d
00000240: 025a b8bb 43f8 a23c 8680 6ebd 1834 57bc
00000250: 95c9 a93c 3282 58bd ec80 2fbd 7dd8 fa3c
00000260: c1d2 0b3d 3d0e 013d 2702 ac3c 338d c7bc
00000270: 678b 823d ef82 273d 7b90 223d 8818 4b3d
00000280: 8a9d 06bd 3342 63bc 8fb0 583c 9e25 ed3c
00000290: 3514 12bd b0d5 5abd 3cdd 02bd 7a28 8abd
000002a0: 4c80 28bd cb80 c53c ff09 663d ea01 86bd
000002b0: 35b4 5ebd abd1 593d d15b 83bb 13b4 293c
000002c0: 2bb1 263d f8f3 af3c bf7b ab3c 294a 493d
000002d0: da56 75bc fd25 eabc f493 3abd f3d7 13bb
000002e0: a0f6 d2bb b1ad bbbb cbef 183d d821 fc39
000002f0: 045c 0ebd 4775 b73c 09bd 793d 6b57 7b3d
00000300: 8c2a b6bc 4dae 853c 5ab8 30bd a449 723d
00000310: 681d c2bc 518d 613d d748 0c3c d8d9 3b3c
00000320: d52d 5b3d 490c 6a3d 6485 583d a34b 303a
00000330: 387d 333d 3e5e 2e3d df61 05bd 3f89 393c
00000340: ead3 bdbb 477b 423b 798b 773b 5ee2 0d3d
00000350: 575c a0bd be79 29bd 7e80 debc b973 a73c
00000360: b1ef 32bd e19c 03bd 6bc6 20bd 09eb 9a3d
00000370: 592e 01bd 5fd6 503a 992d 33bc de08 16bd
00000380: e3d6 0bbd 262c 5cbd b02e a73c 8244 973c
00000390: 4a4f 0fbd 7f76 2bbd 207e a5bb d7c3 21bd
000003a0: e651 4f3b ec81 83ba 3fed f438 ba41 2f3c
000003b0: 31f5 19bc e3f3 6c3c 35d0 f1bb 59e8 e9bc
000003c0: 694c 6b3c 064f 87b9 5f10 403d f4f7 d4bc
000003d0: 3fb6 c1bc 63cb 64bd 9e29 26bd ac98 023c
000003e0: 24d8 d0bc 4954 43bd 41ff 89bb bceb dc3c
000003f0: b82b b4bc 1cb1 48bb 61ef 0d3d ca15 6e3b

conv.7.weight f4 [32]
0.9790103 0.98620206 1.0075607 0.9884117 1.0081524 0.9962163 0.9840564 1.0119452
1.0069379 0.9858652 0.99894977 0.9954691 0.99716157 0.9607012 0.9984566 1.0264149
0.97313964 1.0130682 1.0066847 0.9865729 1.0000846 1.005068 0.9884185 0.9958926
1.0044194 0.9860468 1.0270103 1.0194626 0.9966781 1.0119203 0.99335283 0.97920513
00000000: 6ba0 7a3f bd77 7c3f c0f7 803f 8d08 7d3f
00000010: 230b 813f 0808 7f3f 1feb 7b3f 6c87 813f
00000020: 57e3 803f a961 7c3f 2cbb 7f3f 10d7 7e3f
00000030: fb45 7f3f 84f0 753f da9a 7f3f 9061 833f
00000040: ae1f 793f 38ac 813f 0bdb 803f 0b90 7c3f
00000050: c602 803f 11a6 803f ff08 7d3f d1f2 7e3f
00000060: d190 803f 906d 7c3f 1375 833f c07d 823f
00000070: 4c26 7f3f 9b86 813f 5f4c 7e3f 30ad 7a3f

conv.7.bias f4 [32]
-0.022254761 0.024406506 0.004304066 -0.027592963 -0.03621459 -0.061128456 -0.022602523 0.000659152
-0.021702478 -0.033641253 -0.017169384 -0.022670638 -0.018892486 -0.06667054 -0.017650736 -0.010225914
-0.042524524 -0.021209858 0.009704101 -0.023913711 -0.01876202 -0.01764589 -0.019095724 -0.11432855
-0.026643518 -0.034268837 0.011646631 -0.05196079 0.011028563 0.011991679 -0.042739797 -0.041339755
00000000: 9e4f b6bc 27f0 c73c 1f09 8d3b a30a e2bc
00000010: c055 14bd d561 7abd ed28 b9bc f1ca 2c3a
00000020: 65c9 b1bc 69cb 09bd cfa6 8cbc c6b7 b9bc
00000030: 6ac4 9abc 908a 88bd 4798 90bc 988a 27bc
00000040: 322e 2ebd 4cc0 adbc f3fd 1e3c b0e6 c3bc
00000050: cfb2 99bc 1d8e 90bc a36e 9cbc 1625 eabd
00000060: 8243 dabc 7b5d 0cbd 83d1 3e3c d6d4 54bd
00000070: 25b1 343c bf78 443c ed0f 2fbd e053 29bd

conv.7.running_mean f4 [32]
0.06492263 -0.122961715 0.2322389 0.26030213 -0.022255164 -0.12831372 0.03316843 -0.24952564
0.09720218 -0.34992704 -0.31508428 -0.032006163 -0.13557793 0.22422819 0.035126958 -0.16103359
0.34453905 -0.04892924 -0.2833975 -0.09015083 0.16788936 0.25569326 0.2977473 0.1581225
0.031913914 0.020847151 -0.53592056 -0.4056014 -0.022511415 -0.26130638 0.48209855 -0.08153034
00000000: 28f6 843d 5ad3 fbbd 09d0 6d3e 5246 853e
00000010: 7650 b6bc ac64 03be 9fdb 073d a683 7fbe
00000020: f011 c73d a329 b3be ba52 a1be e518 03bd
00000030: f1d4 0abe 139c 653e 49e1 0f3d fde5 24be
00000040: 6c67 b03e 076a 48bd 7a19 91be 00a1 b8bd
00000050: 30eb 2b3e 3aea 823e 5672 983e ddea 213e
00000060: 2ab8 023d a5c7 aa3c 1732 09bf fdaa cfbe
00000070: dc69 b8bc f3c9 85be 9fd5 f63e 61f9 a6bd

conv.7.running_var f4 [32]
0.10738646 0.09403053 0.102115594 0.11658539 0.12406412 0.1349213 0.099582605 0.11154718
0.09737099 0.09819935 0.08266939 0.13667138 0.12564854 0.108128466 0.12362582 0.10989411
0.08341517 0.13018864 0.13005404 0.099686496 0.12209096 0.10834777 0.10629089 0.12464033
0.116500124 0.10389452 0.12042385 0.12169494 0.107650906 0.123613544 0.09172459 0.18310913
00000000: 6fed db3d 1493 c03d fb21 d13d 52c4 ee3d
00000010: 5415 fe3d cf28 0a3e f7f1 cb3d d972 e43d
00000020: 716a c73d be1c c93d 924e a93d 95f3 0b3e
00000030: 03aa 003e 7572 dd3d 892f fd3d 2a10 e13d
00000040: 93d5 aa3d 2c50 053e e32c 053e 6f28 cc3d
00000050: d30a fa3d 70e5 dd3d 0aaf d93d 6e43 ff3d
00000060: 9e97 ee3d a6c6 d43d c8a0 f63d 323b f93d
00000070: 1478 dc3d 1929 fd3d 1ada bb3d f680 3b3e

conv.9.weight f4 [32, 32, 3, 3]
0.050658114 0.050016228 0.026216308 -0.018172469 0.027332498 0.011542501 0.031177817 0.0019265659
0.0041359975 -0.0036878623 -0.0122912945 -0.04176112 -0.014472267 0.0064666886 -0.028130393 -0.0021285326
0.00069562317 0.0071908105 0.010593603 0.003151101 0.009298087 -0.008523091 0.002157589 0.022642035
-0.0013458971 0.016261749 0.008663182 -0.0027228785 0.023954783 0.007970535 -0.060807288 -0.038967844
0.009256828 -0.052811958 -0.05273654 -0.03759862 -0.052497923 -0.021267008 -0.02327481 -0.037975714
-0.020585507 -0.0071983044 -0.033460367 -0.03291546 -0.011183977 -0.08650934 -0.01788235 -0.031049479
-0.020765051 -0.041956276 -0.053383745 -0.017734323 -0.056020502 -0.050209764 -0.012068897 -0.03918379
-0.017291235 0.010782583 -0.012728242 -0.05530179 -0.03415141 -0.013835666 -0.09068209 0.03252186
0.021841876 0.005891864 0.029670898 0.039011408 0.001660677 0.025411932 0.041316528 -0.02136226
0.06849272 0.056787867 0.026273575 0.0050670695 0.04709562 0.043165263 0.08456493 0.073724344
0.047208704 0.034724552 0.027247326 0.035793312 0.035286687 -0.0012536813 0.017966358 0.03171039
0.037641805 0.035604183 -0.022586416 -0.022178005 -0.028407866 0.016179398 0.0013624814 -0.037980076
-0.02057539 0.0067051444 -0.04267717 -0.016817518 -0.03268614 -0.022865755 -0.003854289 -0.004574684
0.0068844366 0.009908069 0.027239999 -0.025835963 0.013815851 -0.030415202 0.012530763 -0.037554365
-0.00049861893 0.01788252 -0.033957977 0.01277169 -0.04661515 0.034928635 -0.0361282 -0.059889853
-0.007274985 -0.002421636 -0.028258944 -0.043923005 0.03086064 0.027941056 -0.03740533 -0.06530344
-0.070280455 -0.0381281 -0.0052654906 0.0015583299 -0.016346674 0.02959773 -0.031504616 -0.0137555795
-0.010986092 0.01877534 0.024215441 0.018514398 -0.03960906 -0.023349445 0.025173718 -0.0029578013
0.02488273 -0.007845017 -0.023667643 -0.04249151 -0.03810301 -0.013816017 -0.027871184 -0.026035769
-0.03818509 -0.019074682 -0.021374406 -0.051772587 -0.040236488 -0.03147393 -0.067131735 -0.038289033
-0.025123678 -0.072367236 -0.009834589 0.0033973753 0.0056980187 -0.05457954 -0.012359495 -0.044928983
-0.008248287 -0.051049642 -0.06442626 -0.04488655 -0.0077144806 -0.025175922 -0.025322413 0.0012806132
0.014743837 -0.013181419 0.005099313 0.011883739 -0.03471078 0.04008671 -0.040727828 0.010301428
-0.024120022 -0.036014315 -0.040629722 -0.018987544 -0.03724475 0.010139026 2.0472262e-06 0.031052107
0.038189914 0.058995716 0.06576772 0.07293167 0.024753725 0.053858593 -0.0027405676 0.020438123
-0.015730001 -0.0069091027 0.016467242 0.013165815 0.010079198 0.00919017 0.010287984 -0.0039394954
0.030985808 0.027250841 0.027772207 0.032978844 0.07175667 0.01649871 0.057106003 0.064642094
-0.02601591 -0.014334118 -0.010150721 -0.021353927 -0.013258392 -0.0070980643 -0.10640364 -0.049864907
-0.009431213 -0.014807322 0.033052098 0.004635263 0.0054709604 0.017804021 0.059523 -0.0024012655
0.03384317 0.025820639 0.024100209 0.024124416 0.061871964 0.07615824 0.037887774 0.045212034
0.09021302 0.0292537 0.04330343 -0.039837167 -0.047693226 -0.054535583 -0.074663036 -0.037707504
-0.03912461 -0.03313706 -0.0382045 -0.005961738 -0.012321865 -0.0057797544 -0.023446372 -0.0019541436
00000000: e27e 4f3d d1dd 4c3d 95c3 d63c 6ede 94bc
00000010: 67e8 df3c c21c 3d3c 9f68 ff3c d384 fc3a
00000020: 4387 873b 10b0 71bb 6d61 49bc b50d 2bbd
00000030: 161d 6dbc 84e6 d33b b671 e6bc da7e 0bbb
00000040: 7b5a 363a e4a0 eb3b cb90 2d3c b482 4e3b
00000050: 0157 183c 6fa4 0bbc 5666 0d3b ca7b b93c
00000060: d068 b0ba 5c37 853c 05f0 0d3c 5272 32bb
00000070: d23c c43c d996 023c 1011 79bd bf9c 1fbd
00000080: f3a9 173c 5a51 58bd 4502 58bd 0301 1abd
00000090: 1008 57bd 2638 aebc d0aa bebc 6c8c 1bbd
000000a0: f0a2 a8bc c1df ebbb bd0d 09bd 5dd2 06bd
000000b0: 003d 37bc cf2b b1bd 027e 92bc 7a5b febc
000000c0: 781b aabc 58da 2bbd eaa8 5abd 9247 91bc
000000d0: c175 65bd c1a8 4dbd 9fbc 45bc 2f7f 20bd
000000e0: 59a6 8dbc 6ea9 303c 1e8a 50bc 2184 62bd
000000f0: 59e2 0bbd fdae 62bc 88b7 b9bd a435 053d
00000100: bced b23c 8a10 c13b 6210 f33c 6dca 1f3d
00000110: 13ab d93a af2c d03c 853b 293d e8ff aebc
00000120: e945 8c3d 659a 683d ae3b d73c a909 a63b
00000130: 56e7 403d 0fce 303d 6130 ad3d cafc 963d
00000140: ea5d 413d 553b 0e3d c935 df3c 029c 123d
00000150: c688 103d 9052 a4ba 2f2e 933c c1e2 013d
00000160: 4b2e 1a3d b1d5 113d 2607 b9bc a6ae b5bc
00000170: 9db7 e8bc a88a 843c 4a95 b23a ff90 1bbd
00000180: b88d a8bc d4b6 db3b 42ce 2ebd e4c4 89bc
00000190: e7e1 05bd f750 bbbc 3d98 7cbb 3be7 95bb
000001a0: d796 e13b 7455 223c 6b26 df3c f1a5 d3bc
000001b0: e15b 623c 4d29 f9bc d44d 4d3c 9bd2 19bd
000001c0: c0b5 02ba 5d7e 923c 8517 0bbd 5a40 513c
000001d0: 87ef 3ebd 5411 0f3d 2afb 13bd 104f 75bd
000001e0: ff62 eebb 4fb4 1ebb 4d7f e7bc 9ce8 33bd
000001f0: 74cf fc3c a4e4 e43c 5536 19bd cfbd 85bd
00000200: 33ef 8fbd 362c 1cbd 238a acbb e040 cc3a
00000210: 76e9 85bc f076 f23c fc0a 01bd 155f 61bc
00000220: 02ff 33bc bece 993c 765f c63c 82ab 973c
00000230: 1c3d 22bd 5647 bfbc 1d39 ce3c acd7 41bb
00000240: ded6 cb3c 6388 00bc a5e2 c1bc 940b 2ebd
00000250: e711 1cbd 935c 62bc 1c52 e4bc f748 d5bc
00000260: f867 1cbd 8242 9cbc 6119 afbc 7e0f 54bd
00000270: 04cf 24bd cfea 00bd 5d7c 89bd f6d4 1cbd
00000280: 2cd0 cdbc 4635 94bd 4221 21bc 80a6 5e3b
00000290: 72b6 ba3b cc8e 5fbd 7b7f 4abc 7407 38bd
000002a0: d323 07bc 6e19 51bd eaf1 83bd f6da 37bd
000002b0: c1c9 fcbb bc3d cebc f370 cfbc 40da a73a
000002c0: 2290 713c e1f6 57bc 2318 a73b 04b4 423c
000002d0: e42c 0ebd f631 243d 39d2 26bd 52c7 283c
000002e0: 5a97 c5bc bf83 13bd 5a6b 26bd c48b 9bbc
000002f0: f38d 18bd 281e 263c 1463 0936 fd60 fe3c
00000300: 076d 1c3d 7ea5 713d 3ab1 863d 335d 953d
00000310: 53c8 ca3c d49a 5c3d 189b 33bb da6d a73c
00000320: 34dc 80bc c165 e2bb 4fe6 863c 6eb5 573c
00000330: 3823 253c 5e92 163c ef8e 283c e216 81bb
00000340: f3d5 fd3c 283d df3c 8a82 e33c d314 073d
00000350: 29f5 923d 4d28 873c fce7 693d 1363 843d
00000360: 511f d5bc a6d9 6abc 364f 26bc 6eee aebc
00000370: ba39 59bc e196 e8bb 27ea d9bd 253f 4cbd
00000380: 6085 1abc 699a 72bc a361 073d 67e3 973b
00000390: be45 b33b bdd9 913c 64ce 733d 8d5e 1dbb
000003a0: 239f 0a3d ce85 d33c cd6d c53c 91a0 c53c
000003b0: 756d 7d3d daf8 9b3d 3630 1b3d 4130 393d
000003c0: 9bc1 b83d 75a5 ef3c f05e 313d 4c2c 23bd
000003d0: f959 43bd b460 5fbd efe8 98bd 2f73 1abd
000003e0: 2141 20bd baba 07bd 527c 1cbd af5a c3bb
000003f0: a6e1 49bc 1864 bdbb 9b12 c0bc 1711 00bb

conv.10.weight f4 [32]
1.1898382 1.1910582 1.2670989 1.210752 1.2150341 1.2171686 1.3626145 1.2138231
1.2253225 1.1732053 1.238143 1.2196906 1.2979267 1.2072366 1.1907021 1.1942016
1.2172961 1.238848 1.1819667 1.275044 1.1871401 1.3386854 1.2228228 1.2191405
1.1780984 1.2171688 1.1772779 1.1746734 1.2195673 1.263983 1.2170631 1.1745733
00000000: 9e4c 983f 9874 983f 4c30 a23f ecf9 9a3f
00000010: 3d86 9b3f 2ecc 9b3f 276a ae3f 8e5e 9b3f
00000020: 5ed7 9c3f 972b 963f 787b 9e3f d21e 9c3f
00000030: 7622 a63f bb86 9a3f ed68 983f 99db 983f
00000040: 5cd0 9b3f 9292 9e3f af4a 973f a434 a33f
00000050: 35f4 973f 0b5a ab3f 7585 9c3f cc0c 9c3f
00000060: eecb 963f 30cc 9b3f 0bb1 963f b35b 963f
00000070: c81a 9c3f 32ca a13f b9c8 9b3f 6b58 963f

conv.10.bias f4 [32]
0.07683457 0.114628285 0.13256888 0.15165569 0.11290654 0.13250537 0.1971814 0.1143653
0.07740343 0.07198598 0.1456786 0.09405065 0.15642156 0.096208 0.08919208 0.037350643
0.12551647 0.14407222 0.08997997 0.17951864 0.111816086 0.22362845 0.13922092 0.11535347
0.10378566 0.1336911 0.09830642 0.07774827 0.13823673 0.17868762 0.07704214 0.080313064
00000000: 715b 9d3d 3cc2 ea3d 23c0 073e a14b 1b3e
00000010: 8b3b e73d 7daf 073e ece9 493e 5b38 ea3d
00000020: b185 9e3d 636d 933d c52c 153e a19d c03d
00000030: f92c 203e b308 c53d 56aa b63d fdfc 183d
00000040: 6487 003e ab87 133e 6b47 b83d bcd3 373e
00000050: d5ff e43d dbfe 643e ee8f 0e3e 713e ec3d
00000060: 938d d43d 52e6 083e e054 c93d 7c3a 9f3d
00000070: ee8d 0d3e e3f9 363e 45c8 9d3d 2d7b a43d

conv.10.running_mean f4 [32]
-0.027809687 -0.2125553 -0.035056014 0.046607923 -0.3185177 0.12212229 0.19307807 -0.35915232
0.4925329 0.41407636 -0.35715187 0.33026323 0.30399236 -0.12129557 -0.08750253 0.28861204
0.41851905 -0.3061992 0.3012671 0.20785227 0.41438064 -0.08880088 0.20691171 -0.2030993
0.14270289 0.42661133 -0.3851238 0.5038419 -0.057817254 -0.103387155 0.07597412 0.40728486
00000000: 24d1 e3bc 19a8 59be e596 0fbd f3e7 3e3d
00000010: c114 a3be 401b fa3d 42b6 453e d0e2 b7be
00000020: 462d fc3e d101 d43e 9cdc b6be 4318 a93e
00000030: e3a4 9b3e d069 f8bd 8734 b3bd f5c4 933e
00000040: 2148 d63e 24c6 9cbe ae3f 9a3e 3ad7 543e
00000050: b329 d43e 3cdd b5bd aae0 533e 43f9 4fbe
00000060: b520 123e cd6c da3e f22e c5be c8fb 003f
00000070: c9d1 6cbd a5bc d3bd 5298 9b3d a487 d03e

conv.10.running_var f4 [32]
0.09568274 0.07999471 0.069681555 0.08265076 0.10861885 0.08319887 0.06811329 0.112158224
0.083680816 0.08261782 0.074564554 0.11869554 0.07530453 0.08218645 0.09536399 0.12391188
0.1062029 0.09888704 0.11857418 0.09483567 0.12604612 0.07291252 0.092281066 0.10432562
0.091174886 0.10038579 0.10419542 0.09310641 0.094369635 0.08766883 0.08352969 0.12476806
00000000: 50f5 c33d 44d4 a33d 34b5 8e3d cd44 a93d
00000010: 8f73 de3d 2b64 aa3d fb7e 8b3d 36b3 e53d
00000020: d960 ab3d 8833 a93d 4db5 983d a616 f33d
00000030: 4339 9a3d 5f51 a83d 324e c33d 83c5 fd3d
00000040: e880 d93d 4a85 ca3d 05d7 f23d 3439 c23d
00000050: 3c12 013e 2953 953d dbfd bc3d aca8 d53d
00000060: e6b9 ba3d 1197 cd3d 6964 d53d 93ae be3d
00000070: de44 c13d b78b b33d 9d11 ab3d 6686 ff3d

cls_head.weight f4 [10, 32]
0.3625034 0.14970663 0.27044523 -0.42603227 0.3045017 -0.36620685 -0.37571087 0.25300106
-0.21668579 -0.0023929237 -0.102593996 0.08999956 -0.45173362 0.2649656 0.29815376 0.21296874
-0.4084273 0.07627257 -0.15467718 -0.47076693 -0.41360685 -0.2719943 -0.442065 0.20969376
-0.15505388 -0.3275343 0.19675887 -0.021267088 -0.47462898 -0.44092444 0.37533754 -0.082363434
0.0038557244 0.17662998 0.15578835 -0.15511537 0.30039263 -0.37281334 -0.29546067 0.26446697
-0.17354636 -0.037981063 -0.005153531 -0.03797934 -0.26775235 0.35278288 0.22037499 -0.030999793
-0.36306557 0.34928256 -0.37887764 -0.29767048 -0.07279343 -0.19144689 -0.39299324 0.34590292
-0.08520143 -0.392702 0.026612386 -0.17786892 -0.13854462 -0.10315154 0.30601576 -0.16704693
0.16629463 0.07665994 0.17370836 -0.22878803 0.19080073 -0.31693026 0.039053556 0.20771971
-0.06833197 -0.10239023 0.3000881 -0.16349849 -0.16207059 0.21595222 0.17494233 -0.1554717
-0.17043391 0.2003877 -0.16358459 0.07354813 -0.23766269 0.044467684 -0.29362908 0.14926432
-0.08187157 -0.1493461 0.27802634 -0.30100605 -0.059791386 -0.11365992 -0.06671479 -0.30125332
-0.033144206 0.20561281 -0.15668094 -0.14901024 0.1954006 0.07143453 -0.06125743 0.2536052
-0.09245264 -0.30082875 0.14581743 -0.118969 0.12100581 0.06113722 0.033371907 0.12248713
-0.14337224 0.19733584 -0.26713547 0.007107514 -0.08127335 0.30432087 0.04430373 0.02194836
-0.2451669 -0.2075134 0.061178368 -0.2446551 -0.16574647 0.16898943 -0.05967947 -0.25251538
-0.21146655 0.13353635 -0.16736895 -0.08402386 0.019671315 0.04661858 0.2792913 0.06631404
0.16303459 -0.2807655 0.21649396 -0.1811295 0.1092524 -0.06131777 -0.037219323 0.06416194
-0.15965393 0.15947038 -0.2228875 0.20786592 -0.03228767 0.26317245 -0.10770126 0.110556
0.06952399 -0.046253096 0.05975947 -0.24298327 -0.15689604 -0.047377337 -0.26061326 -0.06458337
-0.21003614 -0.15660171 -0.32323658 0.023558889 0.111839354 -0.10625295 0.38154295 0.07450384
0.27257866 -0.26681376 0.10615559 -0.057924863 0.26362765 -0.17617612 -0.25020966 0.17443438
0.07607064 0.055774037 -0.16459356 0.07684955 0.013823215 0.04600218 0.060919277 0.010539357
-0.16688885 -0.11533038 -0.0397832 0.08046007 0.08471264 -0.00927575 -0.20926344 -0.14959939
-0.11489652 -0.29625484 -0.39213583 -0.09196343 -0.011938037 0.25157797 0.27625299 -0.23129155
0.14503796 0.02009175 -0.20014565 -0.07538363 0.23023398 -0.11149727 -0.25620243 0.16762593
0.04473379 0.03217973 -0.084242135 0.2664836 0.10199399 0.13674192 -0.019680487 0.004832559
-0.085347146 0.11105045 -0.0402407 -0.04863051 -0.030425867 0.046689738 -0.30961058 0.17561689
-0.29496923 -0.31201717 -0.38444445 -0.10396803 -0.15952028 0.22957437 -0.034225266 -0.16038021
0.310348 0.109983474 -0.15380235 -0.1625532 0.30463752 -0.19427606 -0.061082035 0.057024315
0.14377904 -0.13641815 0.107042514 0.20518242 0.16913477 -0.06740456 0.0756078 -0.05983684
0.14388376 -0.08345647 -0.33865038 0.2149716 0.09126396 0.12997377 -0.17431217 0.2478851
00000000: 0c9a b93e b24c 193e cc77 8a3e e720 dabe
00000010: a6e7 9b3e 777f bbbe 2d5d c0be 5b89 813e
00000020: e1e2 5dbe 99d2 1cbb cd1c d2bd b051 b83d
00000030: a149 e7be 92a9 873e 9ca7 983e 7a14 5a3e
00000040: 621d d1be cb34 9c3d b263 1ebe 5d08 f1be
00000050: 47c4 d3be d642 8bbe 5856 e2be f6b9 563e
00000060: 72c6 1ebe 93b2 a7be 287b 493e 5138 aebc
00000070: 9202 f3be d9c0 e1be 3e2c c03e 29ae a8bd
00000080: 52b0 7c3b 7dde 343e fb86 1f3e 90d6 1ebe
00000090: 10cd 993e 64e1 bebe 9f46 97be 3768 873e
000000a0: 23b6 31be 0892 1bbd f4de a8bb 3990 1bbd
000000b0: d616 89be f59f b43e fba9 613e 47f3 fdbc
000000c0: bbe3 b9be 2ad5 b23e 40fc c1be 4468 98be
000000d0: b914 95bd a70a 44be 6936 c9be 301a b13e
000000e0: 167e aebd 3d10 c9be 3802 da3c 4523 36be
000000f0: a4de 0dbe 1d41 d3bd 19ae 9c3e 5a0e 2bbe
00000100: 2449 2a3e e3ff 9c3d 9be0 313e 6947 6abe
00000110: 4461 433e af44 a2be 9ff6 1f3d 7ab4 543e
00000120: a2f1 8bbd f8b1 d1bd 26a5 993e 266c 27be
00000130: d5f5 25be 9422 5d3e 1524 333e f933 1fbe
00000140: 3a86 2ebe 6f32 4d3e b882 27be 67a0 963d
00000150: d95d 73be bf23 363d 8d56 96be bfd8 183e
00000160: 48ac a7bd 2fee 18be 7859 8e3e 771d 9abe
00000170: d0e7 74bd 88c6 e8bd c4a1 88bd e03d 9abe
00000180: 38c2 07bd 2a8c 523e f870 20be 2496 18be
00000190: 1817 483e 444c 923d 12e9 7abd 8ad8 813e
000001a0: cf57 bdbd 3a06 9abe 2a51 153e 05a6 f3bd
000001b0: e5d1 f73d 066b 7a3d fbb0 083d 88da fa3d
000001c0: 2cd0 12be 6812 4a3e fbc5 88be 26e6 e83b
000001d0: a472 a6bd f2cf 9b3e d477 353d 0ccd b33c
000001e0: 080d 7bbe 657e 54be 2b96 7a3d de86 7abe
000001f0: 71b9 29be 910b 2d3e 7672 74bd b249 81be
00000200: b08a 58be c1bd 083e c462 2bbe b414 acbd
00000210: bd25 a13c 20f3 3e3d 45ff 8e3e a8cf 873d
00000220: 8af2 263e 7fc0 8fbe 98b0 5d3e 037a 39be
00000230: b9bf df3d 5828 7bbd 4a73 18bd 5667 833d
00000240: 527c 23be 344c 233e 9f3c 64be ceda 543e
00000250: 1340 04bd 8abe 863e 7a92 dcbd 2f6b e23d
00000260: 9862 8e3d e373 3dbd 59c6 743d 9bd0 78be
00000270: 5ba9 20be bd0e 42bd 1a6f 85be 4944 84bd
00000280: b713 57be 335c 20be 447f a5be 92fe c03c
00000290: 080c e53d 269b d9bd 9959 c33e 7895 983d
000002a0: 6e8f 8b3e d09b 88be 1a68 d93d 9f42 6dbd
000002b0: 34fa 863e 8367 34be 7b1b 80be ed9e 323e
000002c0: ecca 9b3d 5173 643d 378b 28be 4c63 9d3d
000002d0: c47a 623c c86c 3c3d 7e86 793d 44ad 2c3c
000002e0: e9e4 2abe 5632 ecbd b5f3 22bd 40c8 a43d
000002f0: d27d ad3d 51f9 17bc 2849 56be 9530 19be
00000300: de4e ebbd b7ae 97be 07c6 c8be 5357 bcbd
00000310: c297 43bc d4ce 803e 0871 8d3e b1d7 6cbe
00000320: d584 143e 7497 a43c fbf2 4cbe bc62 9abd
00000330: 75c2 6b3e ae58 e4bd f72c 83be 22a6 2b3e
00000340: c73a 373d e4ce 033d 2487 acbd 8a70 883e
00000350: 3ae2 d03d 1306 0c3e f938 a1bc 715a 9e3b
00000360: 7cca aebd 6b6e e33d 6fd3 24bd c930 47bd
00000370: ab3f f9bc bd3d 3f3d 4785 9ebe ead4 333e
00000380: 3506 97be b7c0 9fbe e7d5 c4be 31ed d4bd
00000390: 4959 23be 8b15 6b3e cb2f 0cbd b63a 24be
000003a0: efe5 9e3e 043f e13d 5d7e 1dbe 5974 26be
000003b0: 73f9 9b3e 4ef0 46be 2831 7abd 5492 693d
000003c0: d03a 133e 33b1 0bbe 1b39 db3d 571b 523e
000003d0: aa31 2d3e 670b 8abd 43d8 9a3d 7917 75bd
000003e0: 4456 133e 3aeb aabd 9563 adbe 8421 5c3e
000003f0: 99e8 ba3d d817 053e e47e 32be 97d5 7d3e

cls_head.bias f4 [10]
-0.030465694 -0.089554004 -0.09886829 -0.012323578 0.006247675 0.17260861 0.09428058 0.06513428
-0.01557928 -0.017271953
00000000: 3193 f9bc 1768 b7bd 757b cabd d5e8 49bc
00000010: 4cb9 cc3b 50c0 303e 2d16 c13d 1f65 853d
00000020: 3d40 7fbc e97d 8dbc

reg_head.weight f4 [1, 32]
0.105895564 -0.076320864 -0.0730691 -0.15691286 -0.034896895 0.0018478036 0.15662222 0.009071663
0.1477231 -0.16360225 0.12701248 -0.175502 -0.17395684 0.12637712 0.056593925 -0.13661598
-0.016431242 -0.1560467 0.12309693 0.08049674 0.0032096505 0.01297076 -0.15586162 -0.10944999
0.05449575 -0.14481889 -0.08981673 0.09452422 -0.052092053 0.14053474 0.08295055 0.12034814
00000000: c6df d83d 1d4e 9cbd 41a5 95bd c4ad 20be
00000010: 0cf0 0ebd 0032 f23a 9361 203e 50a1 143c
00000020: b944 173e 5987 27be 8f0f 023e ccb6 33be
00000030: be21 32be 0169 013e 08cf 673d 0fe5 0bbe
00000040: d09a 86bc b5ca 1fbe 3e1a fc3d 7adb a43d
00000050: 0059 523b 5083 543c 309a 1fbe 5127 e0bd
00000060: f036 5f3d 674b 14be d5f1 b7bd ea95 c13d
00000070: 7a5e 55bd 57e8 0f3e fae1 a93d 1679 f63d
