models/rym_grid_c0_s64_e2_t4_r4/cnn_c0_ce_a0p32_l0p16_lr1e-04.pt (torch, 198843 bytes, 23 tensors)

conv.0.weight f4 [32, 64, 3, 3]
00000000: cba3 253e cb05 b93e 0558 b63c dced d23c
00000010: 3cc9 ec3d da7a 51be d163 073e b234 ff3c
00000020: 752d 573e 756c 3c3e dd83 2f3d c158 12be
00000030: 2d67 c7bd 4f94 22bd dcce 47bd 7ceb 0c3e
00000040: 1a04 323e 74b0 0fbd 5901 45be 1383 cc3d
00000050: 86bf e2ba 0d6c 053e 210e a8be dbfc 47be
00000060: 39a4 d93b 1b8d 193e c09d 303e 14be 95bd
00000070: 879d 163d a45d 6ebe 3c4b 843d 8258 d2bd
00000080: b741 243e 7805 0b3e 708e 393d 282d ee3d
00000090: 1884 b3be 7f2f 3dbd e54f eb3d 1437 97be
000000a0: cf43 36bd ea8a f2bd 2a51 233e f76d d73d
000000b0: 2d89 083e 8537 07bd f3d0 623e 4d61 16bd
000000c0: b2d3 5cbe f9b4 033d 40a7 983d d953 663d
000000d0: 5896 d53c 8f92 efbc 5a50 9cbc 37d1 743d
000000e0: 3e1a 103e 3a10 9f3d 43ff 83be c4e7 c13d
000000f0: 749e d4bd 5316 2a3e c75d e6bd 5699 67be
00000100: 2ca9 513e 6298 b73d 219f 423c d30d bdbd
00000110: 8006 3a3e cd76 a03d bf73 18be cb59 8a3e
00000120: d9e3 cc3c af8a b4be c60a 1c3e ad47 84be
00000130: 0e05 36be dd34 afbe 1714 013d 49fa 113e
00000140: e8e7 9e3e b6fa a1bd 7a25 e03d 3e87 6bbe
00000150: ae16 e9bb b117 7ebd 02d5 ab3d edcd a4bd
00000160: 6b91 29be 5288 1ebe 446d 00bc 85b0 c0be
00000170: a5c9 883d 2788 3bbe 4cb2 05bb 17b1 4fbe
00000180: 9330 ae3d 3b8a b3bc 31a6 103e 7d45 0cbe
00000190: 14eb 043d 10b5 56be c5df 8e3d 2b2b 53be
000001a0: b7cb 583e 7f14 dd3c 8062 a1bc 0211 6cbd
000001b0: 4e39 64bd b5e5 2e3e 6a5f 0e3e 58d3 953d
000001c0: abb6 823d a230 1e3d 56ff be3d ca81 9a3c
000001d0: f046 22be 91e0 893d 4235 12bd 223b 42bd
000001e0: e7a8 203c 3038 323d d9e5 d1bc f27f c43c
000001f0: 0825 313d 90de 573d 363b e9bd 65e0 813d
00000200: 2fe9 b4bc 2742 dd3d 38ff 2bbe 8d0e 573d
00000210: 8961 0ebd 8c3e cebd 604c 63bd d11e 35bd
00000220: 0ae9 683d 46ae 55bd b2da 0bbd 1854 b03b
00000230: e590 a1bc d50e 113d 069e 443d ad78 d93b
00000240: 7bbd 44bd e183 843d 249b edbc 54cc 1f3d
00000250: 7db3 993c 33eb dabc 2933 87bc 14c0 59bc
00000260: 452f d9bc 1084 4b3d c015 c63b fb0c 88bd
00000270: b6d5 d63d 5737 e73c 2f81 fdbd a8bd 8e3c
00000280: 5b59 55bd 064f 66bc dd0f 193d a673 2ebd
00000290: e8b3 9e3b f878 9cbc 763a 173d 7def 313c
000002a0: 5dac 06bc 5945 2a3e 2080 393e a14d 2e3c
000002b0: e1da ea3c f534 0cbd 1573 623c 6eed 5dbc
000002c0: b674 183d 3740 c23c b65e 29bd a848 963c
000002d0: adf4 0fbe b1db 673d 47bd 963d 31fe 623d
000002e0: bfe6 24be b8b2 503d 3485 0cbe c369 0d3d
000002f0: 1cd7 a2bd a8b0 9a3d 5020 ef3d 2c81 53bd
00000300: 2c22 acbc f3d3 67bd d8ee a1bd 3d70 42bd
00000310: efb3 e63a da20 c0bc febf 19bc d388 fabb
00000320: 809e 3fbc 148a 64bd 707e 5c3d 890c d8bd
00000330: 9393 553c be9a 99bc bca4 8c3c 867c dabb
00000340: 3052 7dbd ced5 1abd 4399 bcbb 97ce 733c
00000350: 393b 51bd b53e 243d 43c6 d2bc 2837 13bd
00000360: 1e38 17bc 6f09 2d3e 2efe c23d 434d 3f3d
00000370: b7fc 603d 42e8 a13d 0d6f b53d 00b9 2fbd
00000380: 0e7f f8bd 70dc 853d ee4e 2a3d ce39 aabc
00000390: 01c4 913b 7044 333d 7a86 94bd e2e7 143d
000003a0: 3b50 513d 1e63 883b 3b52 883d 891f 2e3d
000003b0: 8ec3 51bb 0829 f33d 8121 823c 444b 1abe
000003c0: 688f bb3c d209 463e 370e 173e 0fb5 f93c
000003d0: 30cc 06bc 77f3 b2bd 918f ce3d f6bf d03a
000003e0: 68d5 16bd 9ce6 e53c 0aa7 bc3d 27bf 613d
000003f0: 6008 983c f139 bdbc 2f2b f838 3dc8 7ebd
0.16175763 0.36137232 0.022258768 0.025748186 0.1156182 -0.2045702 0.1322167 0.031153057
0.21013434 0.18400748 0.042850364 -0.1429167 -0.09736476 -0.03969222 -0.04878126 0.13761705
0.17384377 -0.03508039 -0.19238795 0.09985938 -0.001729951 0.130295 -0.3282328 -0.1953005
0.0066418913 0.14995234 0.17247677 -0.07311645 0.036771324 -0.23277909 0.06459662 -0.10270788
0.16040693 0.13576305 0.045301855 0.116297066 -0.35061717 -0.046187874 0.11489848 -0.2953421
-0.04449826 -0.11842902 0.1594893 0.10519021 0.13333578 -0.033011932 0.2215002 -0.036713887
-0.2156513 0.03215501 0.074537754 0.056232307 0.026072666 -0.02924469 -0.019081283 0.059769835
0.1407251 0.07766767 -0.25780687 0.09468034 -0.10381785 0.16610079 -0.11248355 -0.22617087
0.2047469 0.089646116 0.01187876 -0.092311524 0.18166542 0.078351595 -0.14887904 0.27021632
0.02501099 -0.35262057 0.15238485 -0.25835934 -0.17775366 -0.3422002 0.0315133 0.14255632
0.31036305 -0.079091474 0.10944648 -0.2300081 -0.0071132993 -0.062034313 0.083902374 -0.0804709
-0.16559379 -0.1548169 -0.007838551 -0.37634674 0.06679086 -0.18313657 -0.0020400463 -0.20282398
0.085053585 -0.0219165 0.14125897 -0.13698383 0.03245075 -0.20967507 0.069762744 -0.20621936
0.21171461 0.026987312 -0.019700289 -0.057633407 -0.055718713 0.17079814 0.13903585 0.07315701
0.063824974 0.0386206 0.09326045 0.018860716 -0.15847373 0.06732286 -0.03569532 -0.047419675
0.009805894 0.043510616 -0.025622295 0.02398679 0.043248206 0.052702487 -0.11388247 0.06341628
-0.022083847 0.10803633 -0.16796577 0.05250411 -0.034760986 -0.100705236 -0.05549276 -0.044218842
0.05686287 -0.052168153 -0.03414411 0.0053811185 -0.019722411 0.035414536 0.048002265 0.0066367
-0.048032265 0.064704664 -0.02900464 0.03901322 0.018762344 -0.02672348 -0.016503887 -0.013290424
-0.026511798 0.04968649 0.0060450733 -0.06643101 0.10489981 0.02822463 -0.123781554 0.01742442
-0.05208717 -0.014056927 0.037368644 -0.04259076 0.004843224 -0.019100651 0.036920987 0.010860321
-0.008219806 0.16628017 0.18115282 0.010638625 0.028668823 -0.03423019 0.013821383 -0.013545377
0.03722068 0.02371226 -0.04135009 0.018345192 -0.1405818 0.056606 0.073603205 0.055418197
-0.16103648 0.05095169 -0.13722688 0.03452469 -0.07951185 0.07553226 0.11676085 -0.05163686
-0.021012388 -0.056598615 -0.07906884 -0.04747032 0.0017601232 -0.023453165 -0.009384153 -0.0076457052
-0.011695504 -0.055795744 0.053831518 -0.10549266 0.013035673 -0.018750545 0.017168395 -0.0066676764
-0.06184596 -0.037801556 -0.005755575 0.014880798 -0.05108187 0.040098865 -0.025729304 -0.035941273
-0.009229688 0.1689813 0.09521137 0.046704542 0.054928508 0.07905628 0.08859072 -0.04290104
-0.12133609 0.06536186 0.04157918 -0.020779517 0.0044484143 0.04376644 -0.07252212 0.036353953
0.051101904 0.0041622063 0.06656309 0.042510543 -0.0032007429 0.118730605 0.015885117 -0.15067774
0.02289553 0.19339684 0.14751516 0.030481843 -0.008227393 -0.087378435 0.10085977 0.001592635
-0.036824614 0.028064065 0.09211548 0.055113938 0.018558681 -0.023098918 0.00011833605 -0.06220268

conv.1.weight f4 [32]
00000000: 918b 753f 9788 693f 32ee 753f 754c 533f
00000010: 79a0 9c3f 38a0 823f 6dda 7d3f f4df 5b3f
00000020: 88c4 8a3f a88d 863f f526 833f f15e aa3f
00000030: 3e9a 893f 18c0 7f3f a5d1 753f cf30 9a3f
00000040: fdcd 9f3f 3d6b 603f a29b 603f cf79 893f
00000050: 3cac 623f 6198 703f 01f9 623f b843 6a3f
00000060: 99fd 5b3f d69d 813f a350 863f 8630 7e3f
00000070: 0847 5b3f 85c0 753f b943 7c3f a600 7b3f
0.95916086 0.91224045 0.9606658 0.8253854 1.2236472 1.0205145 0.99161416 0.858886
1.0841227 1.051198 1.0246264 1.3310224 1.0750196 0.99902487 0.9602302 1.2046145
1.2484738 0.8766363 0.87737477 1.0740298 0.8854406 0.9398251 0.886612 0.9150958
0.85933834 1.0126293 1.0493358 0.9929279 0.8565526 0.95996886 0.98540837 0.98047864

conv.1.bias f4 [32]
00000000: b551 643d 5afc db3d 1ae8 9a3d 9f44 f43d
00000010: cebd 95bd 9979 07bd 9f05 be3d ece3 503e
00000020: 7a14 d13d e0c4 0a3e 7d9e 1c3e 3bae 1d3e
00000030: 6277 c93d e71a 9f3e be11 713e 9fd2 143e
00000040: 4f84 5d3b 349e 13bc 1c74 b93d fc6e 8d3d
00000050: 618e f93d afa7 863e aff1 ab3d cc4e 5c3d
00000060: 59cc 0fbe b640 953e 7408 2d3e eba6 483e
00000070: a5bd 873e 4100 a23e f28f 263e c9ef 1e3e
0.055741984 0.107414916 0.07563801 0.11927151 -0.07311593 -0.03307495 0.09278416 0.20399445
0.10208984 0.13551664 0.15294833 0.15398495 0.098372236 0.31075212 0.23541924 0.1453347
0.0033800786 -0.0090098865 0.09055349 0.06905934 0.1218536 0.26299807 0.08395707 0.053786084
-0.14042796 0.29150933 0.16897756 0.19594924 0.26511875 0.3164082 0.16265848 0.15521158

conv.1.running_mean f4 [32]
00000000: 32ed 18bf 1ec4 273e 8490 fcbc 88aa 78be
00000010: 95d4 9fbf c449 11bf 2b7b 00bf 0560 b73e
00000020: f9c5 82be 0e68 d53e 33ec 8bbe 345b 8dbf
00000030: e069 2cbf c927 39be 7cb3 d53e 4f06 90bf
00000040: d34b 79bf e139 653f a743 763e 6cb1 94be
00000050: f707 b5bd 2624 afbe 8cb4 d6be 015f d9be
00000060: cc2b 2c3d 67d2 68bf 19d1 283f 8977 71be
00000070: fc2f 3e3f 9192 42bd a427 893e fb0c 04bf
-0.5973693 0.16383407 -0.03083063 -0.24283803 -1.248675 -0.5675318 -0.5018794 0.35815445
-0.25541666 0.4168095 -0.27328643 -1.1043458 -0.6734905 -0.18081583 0.41738498 -1.1251925
-0.97381324 0.8954144 0.24049245 -0.29041612 -0.0883941 -0.34207267 -0.4193462 -0.42455295
0.042033955 -0.9094605 0.6594406 -0.23580755 0.7429197 -0.047503058 0.26788056 -0.51582307

conv.1.running_var f4 [32]
00000000: 2089 ab3e b11c 6b3e 5445 ae3e 1595 a13e
00000010: e9bc fe3e 410e 823e fe73 bc3e 92e7 5b3e
00000020: f69b 173f 19ee 9b3e ee35 9c3e 1397 083f
00000030: ded5 d73e a040 143f 20cf bd3e 9a57 973e
00000040: 7f94 863e 4dec d43e 4b83 5d3e 0171 8e3e
00000050: f6e4 633e f38e 833e 038a 983e bc14 6a3e
00000060: 5d44 a03e eabb e83e a734 c33e bfe7 b23e
00000070: a37d d03e 147c a63e 159c c53e e7f9 7e3e
0.33503056 0.22960164 0.34037268 0.31559053 0.49753502 0.254015 0.36807245 0.21475056
0.5922235 0.30455092 0.30509895 0.5335552 0.42155355 0.5791111 0.37072086 0.29559022
0.2628517 0.41586533 0.21632116 0.2782059 0.2225531 0.25695 0.29792795 0.22859472
0.31302157 0.45455867 0.38126108 0.34942433 0.40720853 0.3251654 0.38595644 0.24900018

conv.3.weight f4 [32, 32, 3, 3]
00000000: 8626 9ebd 1a50 993c 7599 a03c a168 b4bb
00000010: 8a26 5abd ca32 9bbb a24a 043e 1065 ee3c
00000020: 885c e0bc af83 133d e74a 8c3d 8a93 96bc
00000030: cc36 913d 11c9 2fbd 176d 4dbd 0f55 e83d
00000040: 613c b63c 60e0 8dbd 13b6 563d e865 78bd
00000050: 3e5b d6bc c617 d13d 7b7d b43c 1c95 4a3d
00000060: 1258 123c fdeb 39bd 0d11 c0bc d572 28bd
00000070: a6b2 85bb 8152 c53d 26a9 cbbc b427 7dbc
00000080: 2587 fe3c 031e e1bc 3d3c 8dbd 3a16 20bd
00000090: 9179 4cbd 42b2 afbd 7919 56bd c466 c3bd
000000a0: 54bf 09be 64a4 aebc 28a8 52bd 1cc4 6cbd
000000b0: 8a70 46be 175b 9ebd 6738 1dbe c524 8d3c
000000c0: b789 713d 60c0 f23d e0e6 65bd a343 38bd
000000d0: 73eb 183e 9425 abba 6e87 a03d 84cd 81bd
000000e0: f3e8 bc3d 0ada de3c 2afa 9fbc 8209 a8bd
000000f0: 03d9 89bd 7f69 06bd ea76 6bbd 0c1c 22be
00000100: d801 0b3e 5b98 82bd b547 c23d b28f d03c
00000110: d789 98bd c27b 84bd 8b0b 3ebd d508 89bd
00000120: 398f d2bd ece0 873d 3c07 8cbd f4e6 b5bd
00000130: 9136 a6bd 5035 aebd 2499 f7ba 5901 1f3e
00000140: 5bb8 aabb 3d0b c23b b2fc cabd d7a1 3cbd
00000150: 2feb 7bbd c522 9f3d dc93 2f3e ce3c 2ebe
00000160: 2332 0cbe 3cde e6bd 41b1 52bd 0d11 e23c
00000170: b333 0bbd d521 dc3d cd49 8d3d aadb 92bd
00000180: df3d 8b3d 261c 65bd 56e0 36be 2042 4fbe
00000190: 44d5 e73c 3b9f b83c adcc b13d 4ae8 583d
000001a0: 8647 94bd 7fdf 9abd 0829 803a ddd0 0a3d
000001b0: 0cea 643d 222d d6bd 8f1b d9bb 927a 0b3e
000001c0: 28df b8bc 2fa4 94bc 28d9 803d 2828 9abb
000001d0: c3d6 f0bd 2df6 a63d e979 413d b9c4 77bd
000001e0: 7fe3 c0bc b6ce ddbd 8f86 87bc 7227 73bd
000001f0: 6d9a 29bd 9237 69bd 55fe 01bd f98f 553b
00000200: 60f8 d1bd aa53 a7bd 2bf7 833b 3233 07bd
00000210: b140 493d d6ef a6bd 7d07 13bd e90a 373d
00000220: 3103 80bd 77de cb3b ee13 173c 8bdd 683c
00000230: 4735 88bd a146 833d c4bb b43d 8d2b 9dbd
00000240: 7027 88bd 8d58 5dbe 472e bebb d7ab 3bbd
00000250: 8f03 eabd 840e 37bd aa93 57bc a40a 093d
00000260: a142 8e3d e726 16bc 8699 973c 7f04 bbbd
00000270: 1579 ad3c c503 edba f8eb 85bd 894e cabd
00000280: f7f5 d1bc fe7f 80be f4e1 d7bd 44b2 ad3b
00000290: 4b7d c13c 8bde c33d 5639 be3d 7366 21bc
000002a0: 12c1 2d3d 270b 03bd 420b ce3b 7205 d83d
000002b0: 7d8b ecbd 433a eabc 0907 663c 7b57 143c
000002c0: 8ebc 0ebc 1c74 1a3d 0d78 ef3c 2448 00bc
000002d0: 7f46 933d e5ac 1bbe 7457 c03d 6521 bfbc
000002e0: 9d36 973b 6d96 1e3d 49c1 27bd 2e77 95bd
000002f0: bad8 c2bd 9ba2 12be 09fd 413d be09 afbd
00000300: a6cc 073d 5fa5 09bb aaa7 eabd bab8 58ba
00000310: 2310 d23d 37a1 a5bd d8f7 75bd dd12 84bd
00000320: ff61 85bd 2eef db3d 4a17 1abd b9ab 1abc
00000330: 706d 333d bc33 903d ad2a 96bc 4ba1 53bd
00000340: 105d 093d d1fa 72bd 8f49 b0bc a473 08bd
00000350: c887 82bd 5a12 b43c c421 68bd 0506 dcbd
00000360: dc7f 123d 7cfd 5ebd db98 b0bc e354 5cbd
00000370: 739c f23a be46 8b3d bdf2 b2bd 7610 e73d
00000380: eff8 fdbc b9ec a0bd 3ec1 1d3d 7cbe 84bc
00000390: 9296 1bbe 2b5e 86bd 3067 9abd 47b7 2abd
000003a0: 8201 46bc e02f 2f3b bcb0 da3b c7b6 ab3d
000003b0: 6364 61bd efc6 e8bd c026 5d3c dd44 26bd
000003c0: c66a f1bd e911 06be 10d9 0dbd c57b 543d
000003d0: 6136 1ebe 385c 203e 225d 89bc ccc3 2f3c
000003e0: 0b10 313b 32cf 803b 81a2 a23d c350 ccb9
000003f0: 82d0 5fbc c92e 66bd 9320 31bb 4225 603d
-0.077221915 0.018714953 0.019604424 -0.005505637 -0.05325941 -0.004736279 0.12919095 0.029100925
-0.027387872 0.036014255 0.06850224 -0.018380899 0.0709053 -0.04291636 -0.050152864 0.11344349
0.022245588 -0.06927562 0.052419733 -0.06064406 -0.026166555 0.102096125 0.02203249 0.049458608
0.00893213 -0.04539107 -0.02344563 -0.041125137 -0.0040801344 0.09634877 -0.02486093 -0.0154513605
0.031070301 -0.027480131 -0.06896255 -0.039083697 -0.049920622 -0.08578922 -0.052270386 -0.09541085
-0.13451892 -0.021318622 -0.051429898 -0.057804212 -0.19378868 -0.07732218 -0.15353547 0.017229447
0.058969226 0.11853099 -0.056128383 -0.04498638 0.14933567 -0.0013057464 0.07838331 -0.06338027
0.09224119 0.027203579 -0.019528467 -0.082049385 -0.06730845 -0.032815453 -0.057486452 -0.15831012
0.13574922 -0.06376716 0.09486333 0.025459144 -0.07448166 -0.064689174 -0.046397727 -0.06691138
-0.10281224 0.06634697 -0.06837317 -0.088819414 -0.081158765 -0.08506262 -0.0018890244 0.15527858
-0.005209965 0.00592175 -0.09911479 -0.04605278 -0.061503585 0.07770304 0.17146248 -0.17015383
-0.13691 -0.112728566 -0.051438574 0.027596021 -0.03398485 0.107486404 0.06898842 -0.07170804
0.0679891 -0.055935048 -0.17859015 -0.20240068 0.028299935 0.022536865 0.08681617 0.052955903
-0.072402045 -0.0756216 0.0009777853 0.033890594 0.055887267 -0.10457827 -0.0066255997 0.13620976
-0.022567347 -0.018144695 0.06291419 -0.004704494 -0.117597125 0.08152423 0.047235403 -0.060490344
-0.023545979 -0.108304426 -0.016543655 -0.05936379 -0.041407038 -0.05693776 -0.03173669 0.0032587035
-0.10252452 -0.081702545 0.0040272675 -0.033007808 0.04913396 -0.08151214 -0.035895813 0.04468814
-0.06250609 0.0062215882 0.00922106 0.014212976 -0.06650787 0.06409956 0.08824876 -0.07674322
-0.06648147 -0.2161581 -0.0058038565 -0.045818176 -0.1142646 -0.044691578 -0.013157764 0.033457413
0.06946302 -0.0091645485 0.018505823 -0.09131717 0.0211759 -0.0018082788 -0.06539148 -0.09878261
-0.02562998 -0.2509765 -0.10541144 0.005300792 0.023619315 0.09563931 0.0928828 -0.009851086
0.042420454 -0.031993058 0.006287963 0.105479136 -0.11550043 -0.028592234 0.014039763 0.00905406
-0.008711947 0.037708387 0.02923205 -0.0078297 0.071911804 -0.15202673 0.0939168 -0.023331353
0.0046146647 0.038717676 -0.040955815 -0.07298122 -0.095139936 -0.14319842 0.047360454 -0.0854678
0.033154152 -0.002100311 -0.11457761 -0.00082672725 0.10256984 -0.0808739 -0.060050815 -0.064489104
-0.06512832 0.10738979 -0.037619866 -0.009440356 0.04380554 0.070411175 -0.018330896 -0.051667493
0.033536017 -0.05932123 -0.02151945 -0.03331341 -0.063735545 0.021981407 -0.056672826 -0.10743336
0.035766467 -0.05444096 -0.021557262 -0.05379189 0.001850976 0.068006024 -0.08737705 0.112824365
-0.03100249 -0.07857651 0.03851437 -0.016204111 -0.15194157 -0.0656093 -0.07539213 -0.041678693
-0.01208532 0.0026731417 0.0066739004 0.083844714 -0.055027377 -0.113660686 0.013498008 -0.040593017
-0.117879435 -0.1309277 -0.034630835 0.05187585 -0.15450431 0.15660179 -0.016768042 0.010727834
0.002701762 0.0039309496 0.079411514 -0.00038970084 -0.013660552 -0.05619696 -0.0027027472 0.05472303

conv.4.weight f4 [32]
00000000: 3996 883f 7fc9 7c3f 9b7d 803f 7b71 803f
00000010: 178c 713f 1e10 7a3f fbbf 903f d6c6 6b3f
00000020: bf0d 7a3f d4ef 823f 8477 7e3f 1679 883f
00000030: 6e7d 913f b900 923f effc 653f 994f 733f
00000040: 9458 7d3f 3b6e 8c3f b7a3 643f 6930 693f
00000050: 9565 843f 9dae 8c3f 58bc 7e3f 6431 793f
00000060: 6fb2 923f 0976 733f f3f3 6e3f b338 6d3f
00000070: 6a3d 823f 9ad2 7c3f 93b6 873f f190 8d3f
1.0670844 0.9874496 1.0038332 1.0034631 0.94354385 0.9768084 1.1308588 0.92100275
0.97677225 1.022944 0.99401116 1.0661952 1.1366403 1.140647 0.8983907 0.9504333
0.98963284 1.097114 0.8931231 0.91089493 1.03435 1.0990788 0.9950614 0.9734099
1.1460704 0.9510198 0.93340987 0.9266464 1.0174992 0.9875885 1.0602592 1.1059858

conv.4.bias f4 [32]
00000000: 7c35 e83c b13f a7bd 0621 1d3c 3cbc 773c
00000010: 6607 d43d 5ae4 ccbb 4cb7 913c b0f3 7bbd
00000020: 18c7 0e3e c707 22be dace dc3d 613f 09be
00000030: fcf7 5d3d 579b 33be 7b80 cf3d f5e9 36bc
00000040: 7031 943b a1d4 27bd 29ec 663e b0d4 783d
00000050: c57b a8bd 0c9c 66bd 5752 483d 5726 383d
00000060: df89 a1bb 418a 12bd ea6a d6bd fd06 593d
00000070: dd1f ca3c d137 58bd f98f 75bd ed36 2dbd
0.028345816 -0.08166445 0.009590393 0.015120562 0.10352974 -0.0062528076 0.017787598 -0.061511695
0.13943136 -0.1582328 0.10781641 -0.13403083 0.054191574 -0.17539726 0.101319276 -0.011164178
0.004522495 -0.040974263 0.22551025 0.06074971 -0.08226732 -0.05630116 0.04890665 0.04495844
-0.0049297656 -0.03577638 -0.10469611 0.05298518 0.024673397 -0.052787606 -0.059951756 -0.04228871

conv.4.running_mean f4 [32]
00000000: 959b e0bf 6d22 573f 231f e3be 2e15 e03d
00000010: f49e d93d 6547 f1be 8402 f63b e26b 623e
00000020: f50e 8dbe 08b6 da3e 898c 57bf e154 9ebe
00000030: 69cc 9bbf 4704 52bf 4008 0bbf ec15 cb3e
00000040: 54ac 4cbf be97 88bf 57eb d2be 8d68 72bf
00000050: def2 ebbe f041 4bbf d939 8abe 5e6d 92bf
00000060: 544a 02c0 7f73 2d3f fee4 43be e573 dbbe
00000070: f8a0 a6be c7ac 3bbf 52e0 5abf c6cc 6abe
-1.754748 0.84036905 -0.44359693 0.1094154 0.10626021 -0.47124782 0.007507624 0.22111467
-0.27550474 0.42717004 -0.84198815 -0.30924132 -1.2171756 -0.82037777 -0.54309464 0.39665163
-0.7995045 -1.0671308 -0.41195175 -0.9469078 -0.4608373 -0.7939749 -0.2699726 -1.1439626
-2.0357866 0.6775436 -0.19130322 -0.42861858 -0.32544684 -0.7331051 -0.85498536 -0.22929677

conv.4.running_var f4 [32]
00000000: d123 683f 8b50 343f fa5f 493f ad03 533f
00000010: e561 153f 430f 1a3f 8791 9b3f d6fb 053f
00000020: 895e 163f 4978 2e3f c28c 213f a677 3c3f
00000030: 190e 8b3f f231 6e3f 09f1 333f 13ad 3c3f
00000040: 7381 1c3f c4d3 523f 9f7e 143f 8378 223f
00000050: 26ea 2c3f 0f2e 5c3f 9fc2 333f c524 1d3f
00000060: 40c1 7b3f 0b48 163f f7b0 f23e c922 333f
00000070: e2b3 433f ba66 093f a19a a53f d305 2b3f
0.9067965 0.704354 0.78662074 0.82427484 0.583525 0.6017954 1.2153786 0.52337396
0.58738 0.6815229 0.63105404 0.7362007 1.0863677 0.9304496 0.70289665 0.7370159
0.61135024 0.8235438 0.5800571 0.63465136 0.6754478 0.8600778 0.70218843 0.6138423
0.9834175 0.5870368 0.47400638 0.6997495 0.76446354 0.53672373 1.2937814 0.6680576

conv.6.weight f4 [32, 32, 3, 3]
00000000: a8a2 3dbd 4ba6 edbd b4cc ff3d a5bc 993c
00000010: 1ca7 8b3d 2805 a2bc a23b d0bc 70d2 f13c
00000020: 9af6 ea3d af1d 153e d94f e63d 6deb e3bd
00000030: 4d82 e5bc ef20 4c3e 2841 ec3c 571e 2fbc
00000040: fa3d 263d 2001 173d 6e70 b2bc 9b92 973c
00000050: 1ed3 cbbd 7556 9bbc fc8c 853d 3b67 1ebd
00000060: 3aa7 1b3d 4c2a 9ebd b30c 673d 24d8 463d
00000070: 16bd a3bd 6e5c cabb 1d45 3a3d 212e 71bd
00000080: f49a 60bd 8e7d 9f3c 9282 b13d 6b32 9dbc
00000090: 5099 323c 364f 643d 82af 79bb b455 073e
000000a0: aa03 7ebb fdc2 fbbd 036d 13be d6ef 0bbc
000000b0: 945c 33be 583a cabd 527d 4c3d 83a3 2d3e
000000c0: 5d4b bf3d 67e4 003e 2c8d 96bd 227a a53b
000000d0: 3e4e ca3c 49a4 8bbd 33b9 debc 3371 803d
000000e0: 6368 bbbd 5c54 79bd a986 263c af95 003e
000000f0: 4c6c f5bc dda3 c1bc ef54 983c aa70 1f3d
00000100: 7070 1dbc 328c 863d 1446 06be ac2b b73b
00000110: 5778 b23d e1f6 0e3d 44c5 c1bc d842 ccbd
00000120: 3eb0 83bd 2748 403d 958d c6bd d97b 463d
00000130: a2f4 203c fad9 f93c 118f 8ebd 3e8c 74bd
00000140: c552 f8bd 98f5 233c 1f71 11bb bd2d 3abd
00000150: dd95 be3d 01f3 d2bd 608e 27bd 54ee 173c
00000160: db68 9fbd 5e51 7fbc fe9a 393d 60e1 9fbd
00000170: 8245 1d39 83af 5fbd a0d7 433d e3ac 463d
00000180: f901 603d ef25 00bd fdda 913c fd32 31bd
00000190: c043 663c e317 5cbc a5d6 cbbb bf60 da3d
000001a0: 7086 a4bc d31c d4bc 6c4b 9bbd fa53 21bb
000001b0: 9729 c8bb 5847 d83d f13c 1cbc 35c8 67bd
000001c0: 7ab7 6d3d 00f4 52bd 52a1 d7bd ec74 0ebe
000001d0: 07c4 88bc feaf aa3b 4fbe 813d 3101 84bd
000001e0: ce9c 06bd 019f ab3d ba69 54bd cc95 6dbd
000001f0: 686d 533d d276 ca3d d00d 483a 7321 5c3d
00000200: 7c2e 03bd 8021 fd3d d9f0 24bd e9cc 30bd
00000210: 9c0a 7e3d ae10 f6bd 53df 37bd a747 1b3e
00000220: dd0a a4bd 25cf c33c d7af 8dbc 57e0 8a3d
00000230: 145b 10bd 701f 793d 07eb 583c 334b bbbc
00000240: f7b4 0a3e b9e7 50bc 155f 36bc 8dab 993d
00000250: a1a4 923d b6bd 5cbd 4fa7 bbbc 0d12 993d
00000260: fe1d aa3d a5a0 8a3d 320d c43c 360a 90bd
00000270: 119c b23d 0d01 cf3c 17b9 903c d201 013d
00000280: fa00 d83c 8332 69bd e4df 683c edfb 863d
00000290: 64cc dcbd 265c c3bb 8302 a2bd 95cb d9bd
000002a0: 424c 91bd a2ac 5a3a f5a8 903d a6cd 29be
000002b0: 056c bcbd 07d0 e63c 7af8 50bd ca29 9a3d
000002c0: 5b34 b33c bce8 9cbd a38a d73c 35b9 7b3d
000002d0: d6bb dabd 1d59 6a3d abfb 4ebe 57f5 81bd
000002e0: e8ce d43d a170 833d 1d77 653d 97ec 8c3a
000002f0: 5fcd 4b3d 14d1 4f3d 6b87 863d 9914 403e
00000300: 5932 6b3d 32e1 453d e568 903d 2e8c 153b
00000310: b5d0 09bd f707 1d3e e93c a7bd 933e 503a
00000320: ca68 113e 1fba 533d 45cb af3d ce0a 4dbd
00000330: 44d9 9a3d 897e 8b3c a55d 4fbd e96a d3bc
00000340: 689c 003d d091 9e3d f4b4 d7bd 1579 c53d
00000350: f0ef 60bd ebd8 973b 2465 153c 62e7 ecbc
00000360: 6c5c 023e ffe2 cd3a 5ba6 dd3c ce17 ce3d
00000370: 4af0 323d d481 f13b 2496 003d 16c2 e8bc
00000380: 14f9 d6bd 682d 04bd 0169 5e3d 1910 21bc
00000390: 6c85 79bd f664 46bd 79a2 0ebe ba5b 613a
000003a0: f800 a33b 1a6f 343d d1ac 3dbd 04d6 22be
000003b0: 0987 c3bb c919 f93d 0314 3c38 39b3 31bd
000003c0: 6c99 1d3d 8723 dc3d 49dd 2fbe cd0b 783d
000003d0: f587 adbd c67e e6bc 0684 37bd 92f9 1bbc
000003e0: 0489 1bbd 29b6 f6bc fbd2 813d dec9 1a3d
000003f0: a716 063c 6c99 91bd ccd5 373e 929d 64bc
-0.0462977 -0.116039835 0.12490216 0.01876671 0.06818983 -0.01977785 -0.02541906 0.02951929
0.11472817 0.14562105 0.112456985 -0.11128888 -0.028016234 0.19934438 0.028839663 -0.010688386
0.04058645 0.036866307 -0.021782126 0.018502524 -0.09952377 -0.018962124 0.06521031 -0.038672667
0.038001277 -0.07722911 0.056408595 0.04854597 -0.0799505 -0.0061755693 0.045476068 -0.058881883
-0.054835275 0.019469049 0.086674824 -0.01918908 0.01090081 0.055739604 -0.0038098996 0.13216287
-0.0038759508 -0.122930504 -0.14397053 -0.008541068 -0.17515785 -0.098744094 0.049924202 0.16956906
0.09340546 0.12587129 -0.07351145 0.0050499598 0.024695512 -0.06818444 -0.02718792 0.06271591
-0.091507696 -0.060871467 0.010163941 0.125571 -0.029958867 -0.023637706 0.018595187 0.038925804
-0.009609327 0.06569709 -0.1311267 0.005589923 0.08714359 0.03490341 -0.023653634 -0.09973687
-0.064301 0.04694381 -0.096949734 0.048457954 0.00982395 0.030499447 -0.069608815 -0.059704058
-0.12125162 0.010007285 -0.002219267 -0.045453776 0.09305928 -0.103002556 -0.040907264 0.00927313
-0.077836715 -0.015583364 0.045313828 -0.07806659 0.0001499858 -0.05461074 0.047813058 0.04850472
0.05468938 -0.031286176 0.017804617 -0.043261517 0.014054239 -0.013433429 -0.006220656 0.10662984
-0.020083636 -0.02589265 -0.07582745 -0.0024616704 -0.0061084735 0.10560483 -0.009536014 -0.056587417
0.058036305 -0.051502228 -0.10528816 -0.1391179 -0.016695036 0.005208968 0.063351266 -0.0644554
-0.032864384 0.08379937 -0.05185864 -0.058004186 0.05161801 0.098859444 0.0007631453 0.053742837
-0.032026753 0.12359905 -0.040268753 -0.043164168 0.062021837 -0.120149 -0.044890713 0.15164052
-0.080098845 0.023902485 -0.017295761 0.06781071 -0.03524311 0.060820997 0.013239629 -0.022863006
0.13545595 -0.0127505595 -0.011131068 0.07503424 0.07160307 -0.05389186 -0.022906927 0.07474146
0.08306502 0.06768922 0.023932073 -0.070331976 0.087211736 0.025269056 0.017666383 0.031495877
0.026367653 -0.056932937 0.014213536 0.0659102 -0.10781172 -0.0059619127 -0.07910635 -0.10634533
-0.07094623 0.00083417643 0.07063476 -0.16582355 -0.092002906 0.028175367 -0.051018216 0.07527502
0.021875551 -0.07661578 0.026311224 0.061455924 -0.10680358 0.05721389 -0.20213191 -0.06345623
0.10391027 0.06417967 0.0560218 0.0010751662 0.049756404 0.0507365 0.06568798 0.18757857
0.057421062 0.048310466 0.07051257 0.002281915 -0.033646304 0.1533507 -0.081659146 0.00079438946
0.1420013 0.05169117 0.085836925 -0.050059132 0.075609714 0.01702811 -0.050626416 -0.025807815
0.03139916 0.07742655 -0.10532561 0.09642235 -0.054916322 0.004634013 0.009118352 -0.028918926
0.12730569 0.0015707909 0.027056864 0.10063134 0.04368619 0.007370213 0.031393185 -0.02841286
-0.10496727 -0.032269865 0.05429936 -0.009830498 -0.060918257 -0.048436128 -0.13929166 0.0008596737
0.0049744807 0.044051267 -0.04630739 -0.15901953 -0.005967025 0.12163121 4.484133e-05 -0.04338381
0.038476393 0.10748964 -0.17174257 0.06055813 -0.08473197 -0.028136622 -0.04480364 -0.009519951
-0.037972465 -0.030116158 0.063390695 0.03779017 0.008184112 -0.07109341 0.17952651 -0.013953583

conv.7.weight f4 [32]
00000000: e40a 793f a9a7 823f 1021 813f 74c7 7d3f
00000010: f92b 7f3f 52f3 7d3f 9a5f 853f b4ef 7f3f
00000020: 06bb 783f 8b23 733f db28 823f ec00 813f
00000030: 8d0f 7e3f 1613 813f 932e 7c3f 895b 803f
00000040: da81 723f a778 843f e9c8 803f b8dc 883f
00000050: ebfb 833f 7ee5 793f d7e0 773f 468c 7a3f
00000060: b9fd 753f a18b 7c3f 3d50 813f c54a 7a3f
00000070: 9416 823f 233b 833f f4ff 7c3f b5a3 813f
0.9728224 1.0207416 1.0088215 0.99132466 0.9967647 0.991994 1.04198 0.9997513
0.97160375 0.9497611 1.0168718 1.0078406 0.9924248 1.008395 0.98508567 1.0027934
0.9472939 1.034932 1.0061313 1.0692358 1.0311254 0.976158 0.96827453 0.9787029
0.96090275 0.98650557 1.0102612 0.9777034 1.016314 1.0252422 0.98828053 1.0128084

conv.7.bias f4 [32]
00000000: 8b80 17be 9b14 f7bd 050f 13be d99c cfbd
00000010: c232 4dbd bb1d 1bbe 09ae b3bd 5a84 3abe
00000020: c443 2dbe 2ba7 aabd e1a4 56be be74 35be
00000030: 7c24 03be 30de efbd 98b8 0fbe b904 e6bd
00000040: e5c2 a0be fb67 a9be 0756 18be 1fcb b7be
00000050: 241e 35be cfa7 febc ee34 edbd 94bd a6be
00000060: 58c8 40be c9f3 5ebe 85c6 52be 8fb3 11be
00000070: 5578 35bd 6a55 06be 869e 92be 75bb a5be
-0.14795129 -0.12064477 -0.14361198 -0.10137338 -0.050097235 -0.1514806 -0.08773429 -0.1821455
-0.16920382 -0.08332666 -0.20961334 -0.17720315 -0.12806886 -0.11712301 -0.1403526 -0.112313695
-0.31398693 -0.33087143 -0.14876567 -0.35897157 -0.17687279 -0.031085877 -0.11582361 -0.32566512
-0.18826425 -0.21772684 -0.20583542 -0.14228652 -0.04430421 -0.1311852 -0.2863657 -0.3236958

conv.7.running_mean f4 [32]
00000000: 3a4a fa3d f26e 043e bce4 0d3f 7fa0 08be
00000010: f754 673e 5136 6d3e 2c4d ef3d 5ba8 bf3e
00000020: b488 a43e 0484 a3be 9f2a 9dbc 02fc 2cbc
00000030: da2d acbe ef60 253e 7334 b0be 6ea8 cabd
00000040: 9961 723f 1d5d 613e 434f 45be ea53 07bf
00000050: dda2 66bf 423b 813e 96a0 dd3d d2ca 813e
00000060: 7fef 233e 415e 59be ca4c a3be e307 06bf
00000070: f6dd a43e 5e05 bebe ca27 043f dbeb b9bc
0.12221189 0.12932947 0.55427146 -0.13342474 0.22591005 0.23165251 0.11684641 0.37433133
0.32135546 -0.31936657 -0.019185362 -0.01055813 -0.33628732 0.16150258 -0.34415016 -0.09895407
0.9468017 0.22008176 -0.19268517 -0.5286242 -0.9009226 0.25240523 0.10821645 0.25350052
0.1600933 -0.21227361 -0.31894523 -0.52355784 0.32200593 -0.3711347 0.51623213 -0.022695472

conv.7.running_var f4 [32]
00000000: 42d9 da3e 03f7 d43e 8253 e13e 70fc c43e
00000010: efd7 fa3e aee3 343f a00a 053f a801 273f
00000020: e61f 003f bff3 a43e 2643 f53e aaec 163f
00000030: ffa0 ae3e 6f1b 183f 5b8e 2c3f 6604 123f
00000040: 891f fb3e 2e35 0c3f 13a5 103f 7e73 073f
00000050: 94f9 f63e 639c 2a3f 54b7 f83e a39e 1c3f
00000060: 63af b83e 3eb7 1e3f 6387 023f 2af6 bf3e
00000070: 5e30 073f 02cf dd3e fa50 ab3e 3f33 fe3e
0.4274388 0.41594705 0.44009024 0.38473845 0.4899287 0.7065991 0.5196934 0.652369
0.50048673 0.32217214 0.47902793 0.5895487 0.34107205 0.5941686 0.6740472 0.5703796
0.49047497 0.54768646 0.56501883 0.529106 0.48237288 0.6664488 0.48577368 0.6117956
0.3607131 0.61998355 0.50987834 0.37492496 0.5280818 0.43321997 0.33460218 0.49648473

conv.9.weight f4 [32, 32, 3, 3]
00000000: 6f47 bb3d 397f 463e 6903 403d 548b c93d
00000010: 7f9f fe3d 8f30 a23c 9f62 d03b 8a0e 5c3c
00000020: b02c 9e3b ca10 c6bd 5057 cfbd 0c06 a4bd
00000030: 7285 5cbd f946 11bd be7d 53bd c2ff 10bc
00000040: fdcc 973c 109a e2bc dc7f 823c acdb a0bc
00000050: 1920 92bd 2026 9dbd 52db 08bd 639e f7bc
00000060: 08bc e43c 3b59 a93d c0e8 b03d 242a edbc
00000070: 49ba a0bc 6c21 30bc 97a3 c1bd d224 72bd
00000080: 5996 ebbc 9ee8 a4bd 13f4 efbc 613d b0bd
00000090: 37be e4bc 008b dcbc 9036 78bd 051d 8639
000000a0: 2668 5cbd 1bd9 9bbb dcd1 d0bb 7c9f 8fbd
000000b0: 8560 80bd bb19 d8bd 5d6a d7bc 8540 a9bd
000000c0: 17a9 7cbd faac 8e3b aec3 18bd b048 bbba
000000d0: 40ac 1cbd 0137 41bd 667b 633d 35c5 75bd
000000e0: 4f6e c83d 38ee a93b 70c6 9f3d 4995 ee3d
000000f0: 04a2 123e 5f05 e73d b046 4a3e aa7a b63d
00000100: a7bd af3d caa6 4f3d 2b5b debc 02bd 1bbc
00000110: 2cb1 7fbd 4589 923c a606 4e3d b533 a0bd
00000120: d520 243d 051f 6abd 1297 c9bd 902a 5a3d
00000130: 863b 2a3d 42fb 803d d64b e53d efaf 2e3d
00000140: 7d6c 4e3d e461 52bd 1b08 81bc eb1b 313d
00000150: 3d16 17bd eda8 143b b451 e13d 7c84 53bd
00000160: 651b 42bb e99c 643d 6934 76bd c4fe 0fbd
00000170: badd 60bc f777 143d 5647 fd3c c46b cebc
00000180: 19b2 7fbc 9efd 29bd bd52 b3bd 8adc aebd
00000190: 49ba d1bd f53f 6cbd 5852 f7ba b0dd 203d
000001a0: 56db e73d 7378 873d c34d 553d 20d6 803d
000001b0: fae8 4dbd dd47 06be a437 ba3c f379 8ebd
000001c0: dbfc d1bc b7a9 5f3d d5b8 f7bc a59c 323d
000001d0: 84e9 023e 787a 56bd 57d8 83bc 9c16 bf3b
000001e0: ac68 ccbd 9c3e d1bc d21a 5e3c 820a 2fbc
000001f0: df3d ce3c 0e6a 663c 3ccc b5bd 102b 7d3c
00000200: f458 103b da3b 603d 243e 2c3b d25e 173d
00000210: 99e7 cc3d b27d 8c3d d13b 643d 6492 ccbd
00000220: c0e5 95bd bbf4 05bb 4374 afbc 76ce 1d3b
00000230: 1924 8ebc b452 e03c a1a5 fb3c 6519 9b3c
00000240: dd14 803d 5965 a4bc c6ab 853c 6503 2b3c
00000250: 3738 04bd cb86 97bc 0d8f d93c d3d9 44bc
00000260: 3208 62bd d074 89bd 407a 92bd e429 b0bd
00000270: c680 2ebc b59c 87bd f6f5 aabd 3a93 35bd
00000280: 1bd8 abbd de52 61bd a733 653d 2921 0b3d
00000290: 0a34 ad3c abcb b1bd 46a4 4bbe e459 21be
000002a0: 1fa2 bebd c0c9 33be 4914 47be e1b9 e7bd
000002b0: 01ec b3bc 9a32 a8bd 0b24 14bd 58cd 323d
000002c0: 3dfa 14bd 5593 1d3d 788c 10bd 33aa cc3d
000002d0: bcc7 f7bc aad7 9abd 1c8e 83bd 6b8b 3e3c
000002e0: efb4 803c 4246 4cbd 372c e2bc f780 22bd
000002f0: e1e0 fdbd dd5d 483d 3bb8 e9bc 2630 90bd
00000300: 1a30 c33d 95bb 093d 23a1 923d 392f 103e
00000310: 1859 8c3c 0509 db3d 73e4 e63c 5f42 ce3d
00000320: 6659 b43d 1ad6 a13d f963 413d 76fb 093e
00000330: 043d 133d f90f 953d ca27 c5bc bd47 c33c
00000340: e1f0 72bc c829 bdbc 7c92 b93d 608f 513d
00000350: 85af d43d 719a c53d 9544 e83d 88ae 233e
00000360: 788d 7bbc 1353 6e3d 76a5 343d 4a5f 08bd
00000370: 22bd 953d 7348 1e3d 4a8c c1bd 998d 2ebb
00000380: 5c0e 023d 9345 b13d 714b c43b 9401 b4bc
00000390: 3db8 e43c e95d 643d 3fa6 d73c 3140 7bbc
000003a0: 8457 66bc 9493 dabc 0bde 0d3e 6931 2b3e
000003b0: b874 e73d 4d00 663e 94f3 103e 9ef5 753d
000003c0: 1bdc 383e c797 2e3d 4f32 63bd 4187 6d3d
000003d0: 626d 723d 01ff 0fbd 6d34 0f3d d45d 8b3d
000003e0: 6c44 203d 41f7 dc3c 1902 373d 8f8b 7d3d
000003f0: 177b 1ebe 3186 efbd c850 55be d7dc 93bd
0.09144484 0.19384469 0.046878252 0.09841028 0.12432765 0.019798545 0.006359413 0.013431201
0.0048271045 -0.09671171 -0.101240754 -0.08008966 -0.0538382 -0.035468075 -0.05163359 -0.00885004
0.018530363 -0.027661353 0.015930109 -0.019635998 -0.071350284 -0.076732874 -0.033412285 -0.030226892
0.027921692 0.082689725 0.086381435 -0.028950758 -0.019620078 -0.010750156 -0.094550304 -0.059117146
-0.028758215 -0.08052181 -0.029291188 -0.08605457 -0.027922733 -0.02692175 -0.06059891 0.00025580093
-0.05381026 -0.0047561056 -0.0063726734 -0.07012841 -0.0626841 -0.10551783 -0.026295835 -0.08264259
-0.061684694 0.0043541165 -0.03729599 -0.001428863 -0.038250208 -0.047171596 0.055537604 -0.060002524
0.09786665 0.0051858686 0.07801521 0.11649568 0.14319617 0.11280321 0.19753528 0.08910115
0.08581095 0.05069617 -0.027143082 -0.009505512 -0.062424824 0.01788772 0.05029931 -0.07822362
0.040070374 -0.05715849 -0.098432675 0.053263247 0.041560672 0.062979236 0.11196105 0.042648252
0.05039643 -0.051362887 -0.015750935 0.043239515 -0.036886442 0.0022683695 0.11001912 -0.05164002
-0.002961838 0.055813704 -0.060108576 -0.035155073 -0.013724739 0.03624722 0.030917805 -0.025197871
-0.015606427 -0.041501634 -0.087560154 -0.08538158 -0.10240609 -0.05767818 -0.0018869145 0.039273918
0.11321132 0.06614771 0.052076112 0.06290841 -0.050271012 -0.13113351 0.02273161 -0.06956854
-0.025633266 0.054605212 -0.030239502 0.04360642 0.12784392 -0.05236289 -0.01609437 0.0058315527
-0.09980902 -0.02554255 0.013556199 -0.010683658 0.025175987 0.014063371 -0.08876845 0.015452161
0.0022025676 0.05474458 0.0026282156 0.036955662 0.10005111 0.06859912 0.055721108 -0.09988859
-0.07319212 -0.002044006 -0.021417743 0.002407936 -0.017351197 0.027383186 0.030718626 0.018933007
0.06253979 -0.020067858 0.01631726 0.010437821 -0.032280173 -0.018496891 0.02655747 -0.012014824
-0.055183597 -0.06711733 -0.071522236 -0.0860174 -0.010650819 -0.06621686 -0.083476946 -0.04432986
-0.08390828 -0.05501067 0.055957463 0.03396717 0.021142978 -0.08681425 -0.19886884 -0.15756947
-0.09308266 -0.1755743 -0.19441332 -0.113147505 -0.021963121 -0.082127765 -0.036167186 0.043652862
-0.03637146 0.038470585 -0.03529021 0.099934004 -0.030246608 -0.07560666 -0.064235896 0.0116299195
0.015711276 -0.04987169 -0.027608974 -0.03967377 -0.12396408 0.04891764 -0.02853023 -0.070404336
0.09530659 0.033626158 0.07159641 0.14080514 0.017132327 0.1069508 0.028185105 0.10071253
0.08806114 0.07902165 0.047214482 0.13474831 0.03594686 0.07278437 -0.024066824 0.023837918
-0.014827938 -0.023091212 0.09061143 0.051162124 0.1038504 0.09648598 0.11341206 0.15984547
-0.015353553 0.058184694 0.04410311 -0.033294 0.07311465 0.03864331 -0.09450586 -0.0026634692
0.031751975 0.08655848 0.0059904386 -0.021973409 0.027919883 0.055753622 0.02632439 -0.015335129
-0.014058951 -0.026681699 0.13854234 0.16718067 0.11301559 0.22461052 0.14155418 0.060048692
0.18052714 0.042625215 -0.0554679 0.057990316 0.059186347 -0.0351553 0.034962106 0.06805006
0.039127752 0.026973369 0.044679735 0.06190067 -0.15476643 -0.11695517 -0.20831597 -0.07219856

conv.10.weight f4 [32]
00000000: 7ac5 c13f 14ea c03f a847 d83f c2aa c13f
00000010: 18ae c63f 8a20 b73f c18c e43f aa1a c83f
00000020: 266a c33f fe3a c63f 8c8d c93f ed3c d73f
00000030: 0c9d cf3f ce60 c13f df13 c23f e0c3 c63f
00000040: 01dd bf3f e444 cc3f a732 b83f a5f3 c93f
00000050: 314e b93f 88a4 e33f 02b4 bf3f 5f76 c53f
00000060: abbd b73f ae2b bf3f 23bb c73f 372e b83f
00000070: 652f c53f 57d7 d73f cdd6 c53f 8371 b83f
1.513839 1.5071435 1.6896868 1.5130236 1.5521879 1.4306805 1.7855455 1.5633137
1.5266769 1.5486753 1.5746322 1.6815468 1.6219802 1.5107667 1.5162314 1.5528526
1.498932 1.5958524 1.4390458 1.577748 1.4476987 1.7784586 1.4976809 1.5426749
1.4354757 1.4935205 1.5603985 1.4389104 1.5405089 1.6862592 1.5456177 1.4409641

conv.10.bias f4 [32]
00000000: 33a9 643d a9dd 8e3d bda5 063e 4ca0 e03d
00000010: a1db 773d bcd3 623d e361 1d3d 156d 1b3d
00000020: 7ad7 01bd d4bf 883d d747 223e 4f2a a13d
00000030: 590e 0d3d 2b58 813d 9997 ac3d 1ce3 9abd
00000040: 8777 133d 85e9 0f3e d7b7 6bbb 5f69 6a3d
00000050: 99f8 203d 13df b83d 166e 0c3d 2410 bb3d
00000060: 9692 bf3d ea2e 543d c052 103e bedb e8bb
00000070: 8ee0 e43d ceb3 083e f4a8 e53d 0bc0 88bb
0.055825423 0.06975872 0.13149162 0.10968074 0.06051219 0.055377707 0.03842343 0.037945826
-0.031699635 0.06677213 0.15847717 0.07869398 0.03443751 0.06315645 0.084273525 -0.07562849
0.036002662 0.14053924 -0.0035967731 0.057229396 0.03929958 0.09026923 0.034284674 0.09133938
0.09354131 0.051802553 0.14094067 -0.0071062734 0.11175643 0.1334984 0.11213866 -0.004173284

conv.10.running_mean f4 [32]
00000000: 6d84 fb3d 8a9e a73d fa30 383d 4143 febe
00000010: b2db 73bc 5c4c fa3e 9153 783e 823c f0be
00000020: ce65 943f 2c7f c53d fb4a 323e 2fe4 473f
00000030: 60ef 993f 8c3e 93be 6f49 eabe 2f6d 023f
00000040: 989f bc3d b8d2 52be ed8c 923f eafe 8a3f
00000050: 6f29 39be 163c 843e 64d0 573f 089c a8be
00000060: d0f2 a9be 679a aa3e 2ba1 c3be 0737 593f
00000070: dae0 e13e 497b 633e 86be e7be 3e99 7f3f
0.122811176 0.08184536 0.044968583 -0.49660686 -0.014883922 0.48886383 0.24250628 -0.46921164
1.1593568 0.09643397 0.17411415 0.78082556 1.2026176 -0.28758657 -0.4575915 0.5094785
0.092101276 -0.20588195 1.1449257 1.0859044 -0.18082212 0.25827092 0.84302354 -0.32931542
-0.33193064 0.33320925 -0.382089 0.8484959 0.4411686 0.22214998 -0.45262545 0.99843204

conv.10.running_var f4 [32]
00000000: ca49 b83e 621b 8f3e 32d2 773e 1df1 823e
00000010: fe00 ae3e f8e9 8d3e 9195 903e c2b0 903e
00000020: a757 8e3e d882 b63e 598e 993e baf7 883e
00000030: d6a7 a43e 6a71 913e 0bec 943e 8276 973e
00000040: edca 863e ea3e 983e 0283 b93e 087b ad3e
00000050: 0aea 883e 4574 a03e c6ce 9b3e 91fc b53e
00000060: ccd3 9a3e 24b0 973e 1b9b d23e cb98 aa3e
00000070: 57b7 973e c946 b23e 82bf b03e 8398 b53e
0.35993797 0.2795058 0.24201277 0.2557458 0.33985132 0.27717566 0.2823911 0.28259856
0.27801248 0.356467 0.29991415 0.267515 0.321593 0.2840684 0.29086336 0.29582602
0.26326695 0.297355 0.36232764 0.33882928 0.26741058 0.31338707 0.30431193 0.35544255
0.30239713 0.29626572 0.4113396 0.33319697 0.29632065 0.3481963 0.3452111 0.3546792

cls_head.weight f4 [10, 32]
00000000: 674a 3d3f 391b 9a3e de1b e73e ff14 17bf
00000010: 58eb e33e 71e9 09bf 7109 ecbe a5a7 c13e
00000020: 4a72 b9be e304 8f3e 9384 93bd 8477 973e
00000030: 073c 4cbf cf1e ec3e e648 003f 4147 23bc
00000040: ee8c 10bf 71bf 7a3e d99b 24be b6e7 4abf
00000050: 5202 28bf e29f 03bf dc29 3abf d31b f13e
00000060: 04bf e6bb 2e1c 15bf 6efa ce3e 4100 043e
00000070: 0877 46bf 34ce 39bf 166a 3d3f a7f9 1abe
00000080: 2557 4f3e 2fbd b43e c960 d33e f85e bdbe
00000090: 6bf7 e43e aa91 0cbf a274 c5be c88b c33e
000000a0: 5f21 b4be 4627 c23d 9a23 8b3e 87f3 f1bc
000000b0: 9584 e6be 9788 0e3f 3886 033f 790c 01bf
000000c0: 484f 15bf 81d4 e63e c77d edbe cfc6 eebe
000000d0: 8367 65be f2f7 89be 48b8 25bf d5aa d23e
000000e0: 4ad1 89be 7ab7 1dbf ba91 823e c33d 7ebe
000000f0: 527e b0bd 828f 113d 793b fc3e 3ce1 90be
00000100: 66b0 343e bcf7 a13e 8884 c43e f7de b2be
00000110: 2684 a83e 2600 efbe 46d7 50bd dd42 033f
00000120: 3b6e 92be 6a0a 86be b851 0d3f 4e01 8ebe
00000130: df77 6ebe 0f4d e53e 1fa3 d93e dbe7 27bf
00000140: 55dd f7be f1e2 b33e 0fab 92be 2a1e 743d
00000150: 1f2d b7be 8dd7 673e 7473 d3be 3151 693e
00000160: ede8 a9be f375 bdbe 050f ce3e b526 0fbf
00000170: 16c5 d53b 8b1b 783e fe78 1abd 808c 02bf
00000180: 61fc 5fbb b47f de3e 58a4 9abc 71f8 5bbe
00000190: da34 983e f2ab 69bd 0a31 c13d a028 033f
000001a0: 0295 85be c14f 19bf 402f d43e 52e6 75be
000001b0: b255 633e 61b1 4d3e dd09 3d3e 2ca9 31be
000001c0: 738b a6be 1170 c33e 4972 cfbe fc01 a4bc
000001d0: 0b3a 7fbe 1028 093f 209d 303d 0ebb e13d
000001e0: 9937 c3be ead3 99be eff6 863e a825 04bf
000001f0: 28f2 8abe 9dd2 543e 3a49 e5bd 44e9 f2be
00000200: db5b 3fbe 896a 833e 0697 c2be 567d 90bd
00000210: 7967 4b3e 4320 f83b 20a8 f23e ada6 713e
00000220: 37eb 133e 7010 21bf e825 8a3e 5bbc 8dbe
00000230: 0d8d 6a3e f055 a63b 2c89 23bd 99dc 793c
00000240: c3a7 27be 1aef 8d3e 015b c7be a391 933e
00000250: 8f1d edbd 7871 e93e d507 1c3d 6160 6c3e
00000260: 493e eabd eab2 5dbb ba60 683e 6479 c9be
00000270: f59f 9bbe a51b 95bd 3acd 97be bbd9 70be
00000280: 08b0 88be 3878 09be 74e6 0abf 8cec b53d
00000290: 89d4 783e 92d7 4fbc 5f78 1b3f f39c 313e
000002a0: 63e6 a43e 3988 eebe d79e ba3d 3ca0 91be
000002b0: 5bbb b23e c9af 3dbe 52c9 b6be 6e10 ad3e
000002c0: d5c1 503e 0a96 1a3e 5f2a aebe 01e5 3b3e
000002d0: c04e 473d a38f 343e b9b2 193e 692d 1b3e
000002e0: b344 49be fa79 80bd 98f8 633d 0cca a7bc
000002f0: 8f54 403d 1290 15be 3feb 9bbe 986e 4cbe
00000300: 219e 97be 3f40 b2be 648a 27bf 4223 6fbd
00000310: 6f26 0b3d 2423 a23e aa4d dc3e 5354 9abe
00000320: b77c bd3e 222a 3dbd 6c87 07be 3766 a5be
00000330: a869 7c3e 0dd0 74be 8bde c4be 8db9 153f
00000340: 9a13 8a3e a3f6 fd3d 9d21 04be 0ed0 d33e
00000350: 77d9 323e 4c39 523d deba 273d 0073 703d
00000360: c4b5 a2bd fca4 413e 4c0d cebd 07e1 023c
00000370: ca82 1b3d 4a75 cebc 97a7 a4be b135 813e
00000380: 900e bcbe 261c f4be 5d85 2cbf 5f3a d2bd
00000390: e9f9 4dbe d860 a73e e3ad cd3d d6d8 c4be
000003a0: ad76 083f edee 753e 743a 85be 8662 97be
000003b0: 9855 d13e 496e a8be d118 96be f45d f83e
000003c0: 000c ab3e c6ec 26be cd44 3c3e c1be 653e
000003d0: 5907 a53e b092 1abe 54ce 143e 9fb0 f2bd
000003e0: 5248 583e 587c 9c3d e584 d0be 7044 aa3e
000003f0: 776a 893e 24bc 103e 9338 7abe 9f51 d23e
0.73941654 0.30098894 0.45138448 -0.5901641 0.4451549 -0.5387183 -0.46100953 0.37823215
-0.36220008 0.27933416 -0.07203021 0.2958337 -0.79779094 0.46117255 0.50111234 -0.009965719
-0.5646504 0.24487092 -0.16075076 -0.7925981 -0.6562854 -0.51415837 -0.7272012 0.4709154
-0.007041814 -0.58246124 0.40425438 0.12890722 -0.7752538 -0.72580266 0.7399 -0.15134297
0.20248087 0.35300586 0.4128478 -0.36986518 0.44720015 -0.54909766 -0.38565546 0.38192582
-0.3518171 0.09480147 0.271756 -0.029535068 -0.45023027 0.5567717 0.51376677 -0.50409657
-0.583241 0.45084003 -0.46385023 -0.46636054 -0.22402768 -0.2694698 -0.64734316 0.4114596
-0.26917487 -0.6160809 0.25501806 -0.24828248 -0.08617844 0.03553725 0.49264124 -0.2829684
0.17645416 0.3163432 0.38382363 -0.34935734 0.3291332 -0.466798 -0.05098655 0.512739
-0.28599724 -0.2617982 0.5520282 -0.2773537 -0.23287915 0.44785354 0.42507264 -0.6558816
-0.4841105 0.3513408 -0.28646132 0.05959908 -0.35776612 0.2264082 -0.4129902 0.22784878
-0.3318552 -0.3700405 0.40245834 -0.5591844 0.0065237386 0.24229257 -0.037713043 -0.50995636
-0.003417753 0.43456805 -0.018877193 -0.21481492 0.29727823 -0.057048745 0.094331816 0.51233864
-0.26090246 -0.5988732 0.414423 -0.24013641 0.22200659 0.20087196 0.18460794 -0.1734969
-0.32528266 0.38171437 -0.4051688 -0.020020477 -0.24924485 0.53576756 0.043118596 0.11022006
-0.38128355 -0.3004449 0.2636027 -0.5161996 -0.27137876 0.20783468 -0.111956075 -0.47443593
-0.18687384 0.25667217 -0.38005847 -0.07055156 0.1986369 0.0075722053 0.47393894 0.23598738
0.14445196 -0.62915707 0.26982045 -0.27682766 0.22905369 0.0050761625 -0.03992574 0.0152503485
-0.1637259 0.27721483 -0.38936618 0.2882205 -0.115779035 0.45594382 0.038093407 0.2308364
-0.11437661 -0.0033828565 0.22693148 -0.39350426 -0.30395475 -0.072806634 -0.29648763 -0.23520558
-0.266968 -0.13424766 -0.54257894 0.08883008 0.24299826 -0.012685673 0.60730547 0.17345028
0.3220702 -0.46588305 0.091123275 -0.28442562 0.34908566 -0.18524088 -0.3570047 0.33801597
0.20386441 0.15096298 -0.34016702 0.18349077 0.048659086 0.17632918 0.15009584 0.15154041
-0.19655113 -0.06273265 0.055657 -0.020482086 0.04695564 -0.1460574 -0.30452916 -0.19964063
-0.2961283 -0.3481464 -0.6544554 -0.058383234 0.0339722 0.31667435 0.43028003 -0.3014246
0.37009212 -0.04618276 -0.13235253 -0.32304546 0.2464968 -0.2390749 -0.38451037 0.58486253
0.2696808 0.12400558 -0.12903447 0.4136967 0.17465769 0.051324174 0.040949695 0.058703423
-0.07944825 0.18910593 -0.1006113 0.007988221 0.037966527 -0.025202412 -0.3215911 0.25236276
-0.3672986 -0.47677726 -0.67390996 -0.1026504 -0.20114864 0.32691073 0.10042932 -0.38446683
0.53306085 0.24016924 -0.2602116 -0.29567355 0.40885615 -0.3289664 -0.29315808 0.4850918
0.33407593 -0.1630126 0.1838562 0.22436048 0.32232168 -0.1509502 0.14531833 -0.11850094
0.21121338 0.07640904 -0.4072639 0.3325534 0.2683904 0.1413427 -0.24435644 0.41077897

cls_head.bias f4 [10]
00000000: adef da3d 0a28 5ebd 16a1 aabd 2930 80bd
00000010: 20ed d6ba 03f0 073e bcff 093d 309a b33c
00000020: 8c3c 05bc 82d4 a33d
0.10690246 -0.054237403 -0.08331506 -0.06259186 -0.0016397573 0.13275151 0.033691153 0.021924108
-0.008132111 0.07999517

reg_head.weight f4 [1, 32]
00000000: c6df d83d 1d4e 9cbd 41a5 95bd c4ad 20be
00000010: 0cf0 0ebd 0032 f23a 9361 203e 50a1 143c
00000020: b944 173e 5987 27be 8f0f 023e ccb6 33be
00000030: be21 32be 0169 013e 08cf 673d 0fe5 0bbe
00000040: d09a 86bc b5ca 1fbe 3e1a fc3d 7adb a43d
00000050: 0059 523b 5083 543c 309a 1fbe 5127 e0bd
00000060: f036 5f3d 674b 14be d5f1 b7bd ea95 c13d
00000070: 7a5e 55bd 57e8 0f3e fae1 a93d 1679 f63d
0.105895564 -0.076320864 -0.0730691 -0.15691286 -0.034896895 0.0018478036 0.15662222 0.009071663
0.1477231 -0.16360225 0.12701248 -0.175502 -0.17395684 0.12637712 0.056593925 -0.13661598
-0.016431242 -0.1560467 0.12309693 0.08049674 0.0032096505 0.01297076 -0.15586162 -0.10944999
0.05449575 -0.14481889 -0.08981673 0.09452422 -0.052092053 0.14053474 0.08295055 0.12034814
