models/rym_grid_c0_s64_e2_t4_r4/cnn_c0_g1_a0_l0p32_lr1e-05.pt (torch, 198741 bytes, 23 tensors)

conv.0.weight f4 [32, 64, 3, 3]
0	0xbd07f1a0	-0.033189416
1	0xbc82fd8a	-0.015990037
2	0xbdbc1814	-0.0918428
3	0xbdadba36	-0.084827825
4	0xbcb31bd5	-0.021863857
5	0x3c71c71e	0.014756946
6	0xbc5718d5	-0.013128479
7	0x3c21fdda	0.009887183
8	0x3d173e66	0.036924742
9	0xbd0d5ded	-0.034513403
10	0x3cde45e4	0.027132936
11	0xbd708ca2	-0.058727868
12	0xbd0fe198	-0.035127252
13	0xbce3655d	-0.027758295
14	0xbdcffa93	-0.10155215
15	0x3c9a6107	0.018845094
16	0x3cc7532a	0.024331648
17	0xbd1797f0	-0.037010133
18	0xbc9a7931	-0.018856617
19	0x3c6b2467	0.014351941
20	0xbd23144c	-0.03981428
21	0x3cea2bd8	0.02858536
22	0x3c00ee23	0.007869276
23	0xbc37e723	-0.011224541
24	0xbb6a1850	-0.0035720058
25	0xbcb6a39e	-0.022294816
26	0x3d022114	0.031769827
27	0xbd08b3f0	-0.033374727
28	0xbbac3673	-0.0052555143
29	0xbc7b7caa	-0.015349546
30	0x3c540293	0.012940067
31	0x3ccbe972	0.024891589
32	0x3d0f8379	0.03503749
33	0x3d0ccec1	0.034376863
34	0xbbfdb74b	-0.0077427975
35	0xbd687901	-0.056756023
36	0xbc87d8d3	-0.016582882
37	0x3d1dad21	0.038495187
38	0x3ae2546d	0.0017267592
39	0xbb900989	-0.004395668
40	0x3d604af8	0.054758996
41	0xbc56fc09	-0.013121613
42	0x3cbf5ad4	0.02335874
43	0x3dc50c9b	0.09621545
44	0x3d6fd727	0.058554795
45	0x3895f7ee	7.151054e-05
46	0xbc618c8f	-0.013766422
47	0xbcd461fe	-0.025925633
48	0xbd27a795	-0.040931303
49	0xbb8172be	-0.003950446
50	0x3d078fac	0.033096
51	0xbd2ab758	-0.041678756
52	0xbd9537e4	-0.07286051
53	0xbdc3d9e2	-0.09563042
54	0xbdea49a6	-0.114398286
55	0xbdce5676	-0.10075085
56	0x3d4e02e6	0.050295733
57	0x3ca6a7f6	0.020343762
58	0xbdd1c8f8	-0.1024341
59	0x3d10820a	0.035280265
60	0x3c584939	0.013201051
61	0x3ccd7995	0.025082389
62	0xbda025b7	-0.078196935
63	0x3d550b39	0.052012656
64	0x3c9df13c	0.019280069
65	0xbd403693	-0.046927046
66	0x3c9329dd	0.017964298
67	0x3d4b8478	0.04968688
68	0x3bc62720	0.0060471445
69	0xbbbec1d7	-0.0058214474
70	0xbd572022	-0.05252088
71	0x3d9c473b	0.07630774
72	0xbafbe7fa	-0.0019218915
73	0xbcfd6c8f	-0.030935554
74	0xbddfc8ed	-0.109269954
75	0x3be4a5d0	0.006977774
76	0xbe20e4f4	-0.15712339
77	0x3cd2dac5	0.025739083
78	0x3ddc01f2	0.107425585
79	0x3d3a509c	0.04548703
80	0x3d8c6413	0.06855025
81	0x3ae4cbba	0.0017455735
82	0xbe214a32	-0.1575096
83	0xbd54e7e7	-0.05197897
84	0x3cca787e	0.024715658
85	0xbd9125b1	-0.07087267
86	0x3d36aadf	0.04459655
87	0x3d2de299	0.04245243
88	0x3ccbd323	0.024880951
89	0x3d19731e	0.0374633
90	0x3cff4222	0.031159464
91	0xbd4db0a6	-0.050217293
92	0xbd9f36f0	-0.0777415
93	0x3da37a13	0.07982268
94	0x3d0b91d3	0.034074616
95	0x3bfb8280	0.007675469
96	0xbd2ad1bc	-0.041703925
97	0x3c629437	0.0138292825
98	0x3d149ae2	0.03628052
99	0xbc84d6b1	-0.016215654
100	0xbdbd330a	-0.092382506
101	0xbd7fec82	-0.06248141
102	0xbdaa8868	-0.08326799
103	0xbbc4f205	-0.0060102963
104	0x3cd30453	0.025758898
105	0xbba9e15e	-0.0051843366
106	0xbd0117c3	-0.0315168
107	0x3b211f12	0.002458517
108	0xbd2ee718	-0.042700857
109	0x3ceb9a01	0.028759958
110	0x3c921e76	0.01783679
111	0x3d36857b	0.04456089
112	0x3cf85341	0.030313136
113	0xbcacd757	-0.021098776
114	0x3cf838d2	0.030300532
115	0x3c8bc2c8	0.017060652
116	0xbd8ffbba	-0.07030435
117	0x3d09004f	0.03344756
118	0xbc6eeb00	-0.014582396
119	0xbb9fc085	-0.004875245
120	0x3cb80ebc	0.022467963
121	0xbc1754f1	-0.00923656
122	0x3c55fa0b	0.013060103
123	0xbc033439	-0.008008056
124	0x3c56da2c	0.01311354
125	0x3d643905	0.05571844
126	0x3c18e861	0.009332747
127	0x3cb11994	0.021618642
128	0xbd33d9f5	-0.043909032
129	0x3c5c9c9e	0.013465075
130	0xbc4d4f13	-0.01253106
131	0x3d3b1256	0.045671783
132	0x3ca14d61	0.019690217
133	0x3cd7d7e7	0.026348067
134	0x3ce1d7e1	0.02756876
135	0xbc1e6f97	-0.00967016
136	0xbb4e7b88	-0.0031506736
137	0xbcd7e2c1	-0.026353242
138	0x3c1af65a	0.009458149
139	0x3c519248	0.012791224
140	0xbbb6637e	-0.0055660596
141	0x3c433e3a	0.011916691
142	0x3c1182b0	0.008881256
143	0x3c92550a	0.017862815
144	0xbc80f725	-0.015742848
145	0x3d065449	0.032795224
146	0x3c141984	0.0090392865
147	0x3cfd9168	0.030953124
148	0xbc4b5888	-0.012411244
149	0x3b22c1a1	0.002483465
150	0x3c373828	0.011182822
151	0x3cecd094	0.028908052
152	0xbc636fa6	-0.0138815995
153	0xbc1e5b0c	-0.009665262
154	0x3c529435	0.012852718
155	0xbd7d5d48	-0.061856538
156	0x3cec952e	0.028879728
157	0x3d17fddf	0.037107345
158	0xbda8cb62	-0.08241917
159	0xbd26d740	-0.040732622
160	0xbd4dbe33	-0.050230216
161	0xbd1d3eca	-0.03838996
162	0xbbe997cb	-0.007128691
163	0xbd88e28e	-0.06683837
164	0xbcf556f8	-0.029948696
165	0xbc083563	-0.00831351
166	0x3ca37610	0.019953758
167	0xbd0c6416	-0.034275137
168	0xbbbd85b4	-0.005783761
169	0x3d739a0a	0.059473075
170	0x3db75d3b	0.08953329
171	0x3cfddb1d	0.03098827
172	0x3d43b44b	0.047779363
173	0xbcacaf58	-0.021079704
174	0x3d01ca15	0.03168686
175	0xbbd05098	-0.006357264
176	0x3c31ec16	0.01085951
177	0x3bdbcc6a	0.0067077177
178	0xbd054f9f	-0.032546636
179	0xbacc8d27	-0.0015606032
180	0x3c871468	0.016489223
181	0x3d37667a	0.044775464
182	0x3cfb862e	0.03070363
183	0x3d18775e	0.037223212
184	0xbd17c6e9	-0.03705493
185	0x3c8cd23d	0.017190093
186	0xbd355a8c	-0.044275805
187	0x3ce4b414	0.0279179
188	0xbbd29ab6	-0.0064271344
189	0xbbef3cf9	-0.0073009697
190	0xbba9776b	-0.0051717064
191	0xbc602fff	-0.013683318
192	0x3c862cc3	0.016378766
193	0xbc41a4af	-0.011819049
194	0x3b221091	0.0024729113
195	0x3d055a64	0.032556906
196	0x3c567113	0.013088482
197	0x3d014f02	0.03156949
198	0x3bfba15a	0.0076791467
199	0xbb7809f1	-0.0037847722
200	0xbb5593c6	-0.00325893
201	0x3c3b5c30	0.011435553
202	0x3c7eacd9	0.01554414
203	0xbc13fe54	-0.0090328045
204	0xbc6881d2	-0.014191108
205	0xbb878a7e	-0.0041363826
206	0x3c99de67	0.018782808
207	0x3a841c26	0.001007919
208	0xbcf8d21c	-0.030373625
209	0xbd0321f5	-0.032014806
210	0xbb0fc1eb	-0.0021935652
211	0x3ca52181	0.020157577
212	0xbd42a511	-0.0475207
213	0xbcb12eb5	-0.021628717
214	0xbb99d342	-0.0046943733
215	0xbbd2103f	-0.006410628
216	0x3b7875a2	0.0037911911
217	0x3cdcb5dd	0.026942188
218	0xbcd4e06c	-0.025985919
219	0x3c945c4c	0.018110417
220	0x3caf6ecc	0.021415137
221	0x3c9e6757	0.019336386
222	0x3cd1f679	0.025630223
223	0xbd371b80	-0.04470396
224	0xbd07de2c	-0.033170864
225	0x3d00f89c	0.031487092
226	0x3d806505	0.06269268
227	0x3cb24af5	0.021764258
228	0x3c8c2ab3	0.017110204
229	0xbc13248d	-0.008980882
230	0xbd0a99da	-0.03383813
231	0x3b8ed7b6	0.004359211
232	0x3cabc482	0.020967726
233	0x3beb3b82	0.0071787247
234	0x3c2aecc5	0.010432427
235	0x3c55d5de	0.013051478
236	0x3c96a599	0.01838951
237	0x3d3e8eeb	0.046523016
238	0xbb0cbb36	-0.002147389
239	0x3c456abc	0.012049373
240	0x3b93db2c	0.0045122113
241	0x3bf0120c	0.00732637
242	0xbc8aa1ee	-0.016922917
243	0xbd68d347	-0.056842115
244	0x3c04269a	0.008065844
245	0x3ab858c5	0.0014064541
246	0xbc367cb2	-0.011138128
247	0xbcd83d54	-0.026396431
248	0xbb7a3d90	-0.0038183667
249	0x3c8b018d	0.016968513
250	0x3d30e6ee	0.04318898
251	0xbd514177	-0.051087823
252	0x3cb6260d	0.02223494
253	0xbc61fdd8	-0.013793431
254	0xba98cce3	-0.0011657741
255	0xbcb142a4	-0.021638222

conv.1.weight f4 [32]
0	0x3f7eb939	0.9950138
1	0x3f7d7fdc	0.9902322
2	0x3f8090b5	1.0044161
3	0x3f7a9e95	0.97898227
4	0x3f84068a	1.0314496
5	0x3f7b18c6	0.98084676
6	0x3f752c18	0.95770407
7	0x3f811b4d	1.0086457
8	0x3f80a055	1.004893
9	0x3f793091	0.9733973
10	0x3f7d0db2	0.9884902
11	0x3f83ba7d	1.0291287
12	0x3f82c1e0	1.0215416
13	0x3f7b2388	0.9810109
14	0x3f82bb90	1.021349
15	0x3f872f54	1.0561318
16	0x3f8428dd	1.032497
17	0x3f7e3a64	0.9930785
18	0x3f762329	0.961474
19	0x3f84508e	1.0337083
20	0x3f81cf69	1.0141422
21	0x3f787709	0.97056633
22	0x3f81d830	1.01441
23	0x3f80ccb4	1.006247
24	0x3f73afd2	0.95190156
25	0x3f8153a3	1.0103649
26	0x3f81bc5c	1.0135608
27	0x3f81a8bb	1.0129617
28	0x3f7c264c	0.98495936
29	0x3f7ff612	0.9998485
30	0x3f82e9ea	1.0227635
31	0x3f7d8858	0.9903617

conv.1.bias f4 [32]
0	0x3ce14556	0.027498882
1	0x3cdd1b93	0.026990687
2	0x3d882d50	0.06649268
3	0x3dead240	0.11465883
4	0x3d22aaba	0.0397136
5	0x3cec9634	0.028880216
6	0x3d8d9a87	0.069142394
7	0x3d22f381	0.039783005
8	0x3d0b54b8	0.03401634
9	0x3dee339f	0.1163094
10	0x3c89d7d6	0.016826551
11	0x3d3553b6	0.044269286
12	0x3d281674	0.041037038
13	0x3cb5b807	0.022182478
14	0xbc652891	-0.013986723
15	0x3d868bd8	0.06569642
16	0x3db8a43b	0.090156995
17	0x3ce467ad	0.027881468
18	0x3da57f5f	0.08080935
19	0x3d97241d	0.07379935
20	0x3cbeb98a	0.023281831
21	0x3d40163c	0.046896204
22	0x3d044e97	0.03230151
23	0x3cef8a74	0.029240824
24	0xbc5d9b45	-0.013525789
25	0x3d6715cf	0.056417283
26	0x3d852b2f	0.06502377
27	0x3d52be64	0.051451102
28	0x3c82b882	0.01595712
29	0x3d21e875	0.03952833
30	0x3d00ccb1	0.03144521
31	0x3cae9fde	0.021316465

conv.1.running_mean f4 [32]
0	0xbdbb31c9	-0.09140355
1	0x3dcefe7a	0.10107131
2	0x3db32958	0.0874812
3	0x3de98004	0.1140137
4	0xbe47d184	-0.19513518
5	0xbdba09db	-0.09083911
6	0x3d6b79eb	0.057489317
7	0x3d6cde2f	0.05782908
8	0x3d5033c6	0.050830625
9	0x3c201b9e	0.009772209
10	0xbe20b55f	-0.15694188
11	0xbe75fe5a	-0.24022809
12	0xbdf3f2ba	-0.11911531
13	0x3e40adeb	0.18816344
14	0x3ce43cdf	0.027861057
15	0xbe16a5df	-0.14711712
16	0xbe935ffd	-0.2878417
17	0x3e8f006b	0.27930006
18	0x3d59be10	0.053159773
19	0xbc2d3a0f	-0.010572924
20	0x3e0d8808	0.13821423
21	0xbdc36d3d	-0.0954232
22	0xbe24e99d	-0.16104741
23	0x3e04e88a	0.12979332
24	0x3ca5e2ef	0.020249812
25	0xbdc78af3	-0.09743299
26	0x3e582324	0.21107155
27	0xbd928da2	-0.071559206
28	0x3e7727b2	0.24136236
29	0xbe39c9d0	-0.18143392
30	0x3d54b37e	0.05192899
31	0xbebc60b5	-0.36792532

conv.1.running_var f4 [32]
0	0x3d6fe61b	0.058569055
1	0x3d25e116	0.04049786
2	0x3d5690dd	0.052384246
3	0x3cdfa8ad	0.02730211
4	0x3d5f05ac	0.05444877
5	0x3d23b2d8	0.03996548
6	0x3cf7a063	0.030227846
7	0x3d70863c	0.058721766
8	0x3d5dbb05	0.054133434
9	0x3d0b3c8a	0.03399328
10	0x3ce77ced	0.028257811
11	0x3d58f761	0.052970294
12	0x3d2d99d8	0.042383045
13	0x3d099907	0.033593204
14	0x3d153903	0.036431324
15	0x3d1e8bcb	0.038707536
16	0x3d2f0fcc	0.042739674
17	0x3d259b73	0.04043145
18	0x3cb908b0	0.02258715
19	0x3d477c45	0.048702497
20	0x3d204f4c	0.039138123
21	0x3d3a8b39	0.04554293
22	0x3d32fde2	0.043699153
23	0x3d1795fb	0.037008267
24	0x3cec88d2	0.028873835
25	0x3d04fa87	0.032465484
26	0x3d88887e	0.06666659
27	0x3cff1e32	0.031142328
28	0x3d72f36e	0.059314184
29	0x3d4f9676	0.0506806
30	0x3d548568	0.05188504
31	0x3d41b90e	0.047295623

conv.3.weight f4 [32, 32, 3, 3]
0	0xbbaa10b1	-0.005189978
1	0x3d48a531	0.048985664
2	0x3d30f4db	0.043202262
3	0x3d982eca	0.07430799
4	0xbba8bdc4	-0.005149575
5	0xbd8148e3	-0.0631273
6	0xbd7bab54	-0.061442688
7	0xbbd354a3	-0.0064492985
8	0xbdb9b473	-0.09067621
9	0x3d10b137	0.035325255
10	0xbc9b11d8	-0.018929407
11	0x3d049a18	0.032373518
12	0x3bbce031	0.0057640304
13	0xbc17c373	-0.009262907
14	0x3c9be620	0.01903063
15	0x3cdc15d7	0.026865883
16	0xbd92edad	-0.07174239
17	0x3c94e3ec	0.018175088
18	0x3d7e1f7f	0.062041756
19	0xbbfcda61	-0.0077164625
20	0xbbbf8046	-0.005844149
21	0x3d3175e6	0.043325327
22	0x3c009e5d	0.007850257
23	0x3c5205dc	0.01281878
24	0xbd49635d	-0.049167026
25	0x3beea3a7	0.0072826925
26	0x3ca74088	0.020416513
27	0xbc21c256	-0.009872993
28	0x3ccd7aa0	0.025082886
29	0x3d582ac5	0.052775163
30	0x3bed3162	0.007238553
31	0x3c7e0bff	0.01550579
32	0xbd05df9a	-0.032683946
33	0xbd301601	-0.042989735
34	0xbd4238fb	-0.047417622
35	0x3cebd3fe	0.02878761
36	0xbc0047c3	-0.007829609
37	0xbd0e7bc2	-0.034785993
38	0x3c521ba7	0.012823976
39	0xbc215daa	-0.009848991
40	0xbcb2448d	-0.021761203
41	0x3ce14636	0.0274993
42	0x3d77997a	0.0604491
43	0xbda6a4c2	-0.08136894
44	0xbd62c541	-0.055363897
45	0x3d077c1a	0.033077337
46	0xbd363713	-0.044486117
47	0x3ccda2b0	0.02510199
48	0x3ccf4794	0.025302686
49	0x3cf4ed86	0.029898416
50	0xbd058f53	-0.032607388
51	0xbc93d5fb	-0.01804637
52	0x3cd8b035	0.02645121
53	0xbc492e13	-0.012279051
54	0x3d971276	0.07376568
55	0xbd7fdf8a	-0.062469043
56	0xbd369a23	-0.04458059
57	0xbbbffb8c	-0.005858844
58	0x3c84c328	0.016206339
59	0xbcfb3d31	-0.030668827
60	0x3a933aa4	0.0011232686
61	0x3cca1ef4	0.024672963
62	0x3d3b225e	0.045687072
63	0xbd39be13	-0.045347285
64	0x3cbddbb4	0.023176052
65	0xbd42189d	-0.047386754
66	0xbc420ce3	-0.011843893
67	0x3d15db8a	0.036586322
68	0xbcfd25dd	-0.030901844
69	0xbca7762c	-0.02044209
70	0xbc822ad0	-0.015889555
71	0x3ccb3348	0.024804726
72	0xbc783e01	-0.015151502
73	0x3d14883a	0.03626273
74	0x3c48a4cc	0.012246322
75	0x3b3e58bf	0.0029044596
76	0x3c509198	0.012730025
77	0xbd0d098a	-0.034432925
78	0x3d35d2bd	0.04439043
79	0xbb911355	-0.0044273534
80	0xbd3447e3	-0.04401387
81	0xbc7d68c4	-0.015466873
82	0xbd2e1db0	-0.04250878
83	0xbd19a0c7	-0.037506845
84	0xbd98d9e3	-0.074634336
85	0x3d016e40	0.031599283
86	0x3d8d4c54	0.06899324
87	0xbd4eb48f	-0.050465163
88	0xbd903ebd	-0.070432164
89	0xbd245bb0	-0.040126503
90	0x3d719e1b	0.05898867
91	0x3cce9e16	0.025221866
92	0xbbc5a3e1	-0.006031499
93	0x3d36a73a	0.044593073
94	0xbd34fe5b	-0.044187885
95	0xbd1801be	-0.037111036
96	0x3d395e66	0.04525604
97	0xbd40431f	-0.04693901
98	0xbd424f31	-0.047438804
99	0xbd0eba33	-0.034845542
100	0xbced4045	-0.02896131
101	0x3cae4e8a	0.021277685
102	0x3d54fc7a	0.051998593
103	0xbca59176	-0.020210963
104	0xbd314cd9	-0.04328618
105	0x3ce3e41a	0.027818728
106	0x3c975618	0.01847367
107	0x3cda6bf2	0.0266628
108	0xbca69b3a	-0.02033769
109	0xbd0d1530	-0.034444034
110	0xb9a87002	-0.0003212691
111	0x3cb0a3de	0.021562513
112	0x3c898bb6	0.016790252
113	0xbd751df2	-0.05984301
114	0x3c0adcfb	0.008475537
115	0x3c3897e7	0.011266685
116	0xbc084240	-0.0083165765
117	0x3d87a603	0.06623461
118	0x3d3d7fe2	0.046264537
119	0xbd1b9302	-0.037981994
120	0x3cdea458	0.027177975
121	0xbcf97d76	-0.030455332
122	0x3cd4512c	0.025917612
123	0x3bb9567c	0.0056560617
124	0x3cd8b46a	0.026453216
125	0xbce50bd0	-0.027959734
126	0xbc511911	-0.012762324
127	0xbce2e159	-0.027695345
128	0xbc40872b	-0.011750977
129	0xbcb10ff6	-0.021614056
130	0x3bbcb64a	0.0057590352
131	0x3c72fce0	0.014830798
132	0x3cd50eae	0.026007976
133	0xbb7e36fd	-0.00387901
134	0xbc6b359e	-0.014356045
135	0xbd463a37	-0.04839536
136	0xbd5d1f43	-0.05398489
137	0x3cc05bf5	0.023481349
138	0x3c0e2c3e	0.00867754
139	0xbc31de9c	-0.010856297
140	0x3cb4f8e3	0.022091335
141	0xbcf867e3	-0.030322975
142	0xbc2529e8	-0.010080792
143	0x3c1773d3	0.009243923
144	0xbd498a58	-0.0492042
145	0xbcdb5cf6	-0.026777726
146	0x3cd240ff	0.025665758
147	0xbceaf40a	-0.02868082
148	0xbcad4069	-0.021148877
149	0x3cc79c53	0.024366533
150	0x3d1580ea	0.036499895
151	0x3c0cd8d4	0.008596618
152	0xbcd40123	-0.025879448
153	0xbcb9f2c6	-0.022698771
154	0x3d606c3c	0.05479072
155	0xbd4a733c	-0.049426302
156	0xbd0f9f08	-0.035063773
157	0xbd4ee419	-0.0505105
158	0x3c670d3f	0.014102279
159	0xbd2cb056	-0.042160355
160	0x3c162f7a	0.009166593
161	0xbda96363	-0.0827091
162	0xbd35b11e	-0.044358365
163	0x3c93b943	0.018032676
164	0x3cc10e9a	0.023566533
165	0x3c3535d2	0.011060195
166	0x3b1f84de	0.002434067
167	0x3cae86ee	0.021304574
168	0xbd2ca75f	-0.042151805
169	0xbd2f4446	-0.04278972
170	0xbbe94895	-0.007119248
171	0xbc8df360	-0.017327964
172	0xbd78f7d5	-0.060783226
173	0x3b22f479	0.0024864955
174	0x3c6f3bd2	0.014601665
175	0xbd9ff113	-0.07809653
176	0x3d34b9ad	0.044122387
177	0xbcf4f51c	-0.029902034
178	0x3d46393b	0.048394423
179	0x3d045534	0.03230782
180	0x3cd372d1	0.025811585
181	0xbd047d29	-0.032345925
182	0x3d687179	0.05674884
183	0x3c6b063c	0.014344748
184	0xbbd8efb1	-0.0066203703
185	0x3cfb695f	0.030689893
186	0xbcfe6706	-0.031054985
187	0xbd2ef621	-0.042715196
188	0xbd6c8b13	-0.05774982
189	0xbd85ea99	-0.065388866
190	0xbcbc16ce	-0.022960093
191	0x3b96782b	0.004591962
192	0xbd905f9a	-0.070494846
193	0xbcb0cfb7	-0.021583421
194	0xbd87dcc8	-0.066339076
195	0xbcb6e67a	-0.022326697
196	0xbd822e8d	-0.06356535
197	0xbd87f1fb	-0.06637951
198	0x3c7e96e2	0.015538903
199	0xbd0075fb	-0.031362515
200	0xbd34f0af	-0.044174846
201	0x3ce548a0	0.027988732
202	0x3d2f5186	0.042802356
203	0x3d39ab7e	0.045329563
204	0x3d4814a8	0.048847824
205	0x3cb017cc	0.021495722
206	0x3c5f93bf	0.013646065
207	0xbd238dd3	-0.039930176
208	0xbc163a2f	-0.0091691455
209	0xbd84de9c	-0.06487772
210	0xbcf298f7	-0.029613955
211	0xbc461795	-0.012090583
212	0x3c089e8b	0.008338581
213	0x3d44f21e	0.048082463
214	0xbc80375b	-0.015651396
215	0xbd87fe9e	-0.06640361
216	0x3d1ef72f	0.03880995
217	0x3d807868	0.06272966
218	0x3c1c6be9	0.009547212
219	0xbc89ba3d	-0.016812438
220	0xbd226706	-0.039649032
221	0x3c6cca6b	0.014452557
222	0xbbee700c	-0.0072765406
223	0xbafa31d2	-0.0019088334
224	0x3c04b160	0.00809893
225	0x3bd83cc2	0.00659904
226	0xbd401f76	-0.046905003
227	0x3b6b0ec4	0.0035866955
228	0x3cf613d8	0.03003876
229	0x3ad83539	0.0016495354
230	0xbd673fba	-0.05645726
231	0xbcdddd1a	-0.027082969
232	0x3d0e7bed	0.034786154
233	0xbccbf75c	-0.024898224
234	0x3d74c1d7	0.059755173
235	0xbd1f43b2	-0.03888292
236	0x3d2059d9	0.039148185
237	0xbd1011bb	-0.03517316
238	0xbd5aef3f	-0.05345082
239	0xbcf419a9	-0.029797392
240	0x3d04a836	0.03238698
241	0xbcbf49cb	-0.023350617
242	0xbc8ac2be	-0.016938563
243	0x3d2618cb	0.04055099
244	0xbd2844cc	-0.041081235
245	0x3c4372c5	0.011929219
246	0x3ce6079b	0.028079798
247	0x3cca6905	0.02470828
248	0xbd803fff	-0.06262206
249	0x3d123275	0.03569265
250	0x3d3c0a52	0.04590828
251	0x3c269b59	0.010168874
252	0xbd5161ca	-0.05111865
253	0xbd5b7f40	-0.053588152
254	0x3c39315f	0.011303275
255	0x3cfc2e0b	0.030783674

conv.4.weight f4 [32]
0	0x3f8182b1	1.0118009
1	0x3f8039c9	1.0017635
2	0x3f821f5c	1.016582
3	0x3f8255f3	1.018248
4	0x3f7f6b83	0.99773425
5	0x3f796a1c	0.97427535
6	0x3f803662	1.0016596
7	0x3f8048cd	1.0022217
8	0x3f7a6f77	0.9782633
9	0x3f805372	1.0025465
10	0x3f80cfce	1.0063417
11	0x3f825c8d	1.0184494
12	0x3f8112f0	1.0083904
13	0x3f818d02	1.0121157
14	0x3f7ed11c	0.99537826
15	0x3f7a61b6	0.97805345
16	0x3f80828d	1.0039841
17	0x3f7f8967	0.99819034
18	0x3f7d05c4	0.9883692
19	0x3f801cf0	1.0008831
20	0x3f80d7ec	1.0065894
21	0x3f84f9c7	1.0388726
22	0x3f7c0ac3	0.9845392
23	0x3f809777	1.0046223
24	0x3f81cf8e	1.0141466
25	0x3f8298b6	1.0202854
26	0x3f7e1b9d	0.99260885
27	0x3f80164c	1.0006804
28	0x3f7e36e2	0.99302495
29	0x3f7c1c79	0.98480946
30	0x3f82c8ab	1.0217489
31	0x3f805b40	1.0027847

conv.4.bias f4 [32]
0	0x3b63290f	0.0034661924
1	0x3c503e33	0.012710142
2	0x3c2a17e2	0.010381671
3	0x3cab132d	0.020883167
4	0x3cf895fe	0.03034496
5	0x3c6f2da4	0.014598284
6	0x3b839e50	0.004016675
7	0x3d6b8d63	0.057507884
8	0x3d8ee0f5	0.06976501
9	0x3cc2ee78	0.023795351
10	0x3d2a04c7	0.041508462
11	0x3b1b25ed	0.0023673729
12	0x3c8cfe92	0.017211232
13	0x3d74fb6f	0.0598101
14	0x3cd194cc	0.025583647
15	0x3b4af3c5	0.0030968052
16	0x3cdb0829	0.02673729
17	0x3c99a5c8	0.018755808
18	0x3ca73aa8	0.020413712
19	0x3c9909ff	0.018681524
20	0xbba45d46	-0.005016002
21	0x3c3361fc	0.010948654
22	0x3c04685c	0.008081522
23	0x3d29d69a	0.041464426
24	0x3b820368	0.003967691
25	0x3b095029	0.002095232
26	0xbbb46c3a	-0.0055060657
27	0x3cdb007a	0.026733626
28	0x3b80f8ce	0.00393591
29	0xbc3c0c87	-0.011477596
30	0x3b22b801	0.0024828913
31	0x3bcdff3f	0.006286531

conv.4.running_mean f4 [32]
0	0xbf06380a	-0.5242926
1	0x3ebc16f4	0.36736262
2	0xbebf8000	-0.37402344
3	0x3e0f17e6	0.1397396
4	0xbdc47a30	-0.09593618
5	0x3ba52304	0.0050395746
6	0xbe506330	-0.20350337
7	0x3e081a3d	0.13291259
8	0xbe9c131a	-0.30483323
9	0xbe3b10fe	-0.18268201
10	0xbe76963e	-0.2408075
11	0x3e899c0d	0.2687687
12	0xbde6b2f2	-0.112646
13	0xbecb5455	-0.39712778
14	0xbe2c69d3	-0.16837244
15	0x3e9a7930	0.30170584
16	0xbf3dd8ad	-0.74158746
17	0xbed0a1e0	-0.407485
18	0x3b2566eb	0.0025238346
19	0xbe10f2f5	-0.14155181
20	0xbc907de4	-0.017638154
21	0xbefc079a	-0.4922455
22	0x3eaeefe7	0.34167406
23	0xbeee8004	-0.46582043
24	0xbe6782f2	-0.22608545
25	0x3ea2f728	0.3182919
26	0xbe6c8988	-0.23099339
27	0xbebb9e9f	-0.36644456
28	0xbda4947d	-0.080361344
29	0xbd651b7d	-0.055934418
30	0xbea1008c	-0.3144573
31	0xbe9094a2	-0.28238398

conv.4.running_var f4 [32]
0	0x3e23063b	0.15920345
1	0x3e27510f	0.16339515
2	0x3e48e332	0.19617918
3	0x3e4988b7	0.19681059
4	0x3e2e2696	0.17006907
5	0x3df5c9be	0.1200137
6	0x3e4c243e	0.199357
7	0x3e0555ee	0.13021061
8	0x3dcd829c	0.100346774
9	0x3e3638bf	0.17795084
10	0x3e10ecad	0.14152785
11	0x3e13e20e	0.14441702
12	0x3e5602b1	0.20899464
13	0x3e3c39d5	0.18381436
14	0x3e197a55	0.14988072
15	0x3e10c1c5	0.14136417
16	0x3df71f3e	0.12066506
17	0x3e2abf4d	0.16674538
18	0x3e17b36d	0.14814539
19	0x3def40fc	0.11682317
20	0x3e3b23b0	0.18275332
21	0x3dd821b2	0.10553302
22	0x3dfcfa25	0.12352399
23	0x3e0fd94b	0.14047734
24	0x3e16ccd2	0.1472657
25	0x3e3f8eeb	0.18706863
26	0x3dc99440	0.098427296
27	0x3e1065ee	0.14101383
28	0x3e0fd352	0.14045456
29	0x3e0422e1	0.1290393
30	0x3e95c7a9	0.2925389
31	0x3e4dbde1	0.20091964

conv.6.weight f4 [32, 32, 3, 3]
0	0x3c0578a2	0.008146437
1	0x3c69d3a2	0.014271649
2	0x3d32f728	0.043692738
3	0x3cdf30dd	0.02724498
4	0xbc004c63	-0.007830712
5	0x3c555ed0	0.013023093
6	0xbc9d9294	-0.019234933
7	0xbd445749	-0.047934804
8	0x3be5c153	0.0070115714
9	0x3cb75645	0.022380004
10	0xbbeb22c2	-0.0071757743
11	0xbd0a51ef	-0.033769544
12	0xba4316a0	-0.0007442031
13	0xbaca48c4	-0.0015433063
14	0xbcbdd3d1	-0.023172291
15	0xbd67420d	-0.056459475
16	0x3ca644a9	0.020296412
17	0x3cf79d11	0.030226262
18	0xbd31de5a	-0.04342494
19	0x3d70238c	0.05862765
20	0xbc9cf460	-0.019159496
21	0x3bf787e6	0.007554042
22	0x39de0f91	0.00042354738
23	0xbced1962	-0.028942768
24	0x3d4b4e91	0.049635474
25	0xbcca8545	-0.024721751
26	0x3c58a13c	0.013222035
27	0x3c87697f	0.016529797
28	0xbd83af06	-0.064298674
29	0xbd49b92c	-0.04924886
30	0x3d0c2d52	0.03422291
31	0xbd1e6927	-0.0386745
32	0xbda61d87	-0.08111101
33	0xbc481a5c	-0.012213316
34	0x3d620870	0.055183828
35	0xbccbeece	-0.024894144
36	0xbc222996	-0.00989761
37	0x3d7bbbeb	0.06145851
38	0x3cb7f9be	0.022457954
39	0x3b8c9f7e	0.004291474
40	0xbca38dad	-0.019965017
41	0xbb4b0946	-0.003098087
42	0xbd5497ea	-0.05190269
43	0x3c513890	0.012769833
44	0xbd855a8b	-0.0651141
45	0x3d00c3c3	0.031436693
46	0x3c0c13dc	0.008549657
47	0x3d953a10	0.07286465
48	0x3d4148a9	0.047188435
49	0x3d283693	0.04106767
50	0x3ceaeac3	0.028676396
51	0x3cc65c9b	0.02421408
52	0x3c889eea	0.016677339
53	0xbcfb82ed	-0.030702079
54	0x3d12064b	0.035650533
55	0x3d0d35a1	0.034474973
56	0xbd0d2bdb	-0.034465652
57	0xbd572143	-0.052521955
58	0x3c8d0a0e	0.017216709
59	0x3cd237ad	0.025661314
60	0x3c8a0332	0.016847227
61	0xbd6160d9	-0.055024
62	0x3c25f650	0.010129526
63	0xbd5479a7	-0.05187383
64	0x3acb5849	0.0015513982
65	0x3c3d6592	0.011559861
66	0xbd47a188	-0.048738033
67	0xbd5ca1c2	-0.0538652
68	0x3a049056	0.0005056908
69	0x3d817304	0.063207656
70	0x39cb5f39	0.00038790124
71	0xbd336ed1	-0.043806855
72	0xbd7b3986	-0.061334155
73	0xbbe18954	-0.006882826
74	0xbd89ff81	-0.06738187
75	0xbd82a557	-0.06379192
76	0x3bdecb4e	0.006799138
77	0x3bbb39fc	0.0057136994
78	0xbc5eadfe	-0.013591288
79	0xbd745cca	-0.059658803
80	0xbc9f245f	-0.019426523
81	0x3cbe97bc	0.023265712
82	0xbc93dd9a	-0.018050004
83	0x3c9d15e5	0.01917548
84	0x3d753f89	0.059875045
85	0x3becf148	0.0072309114
86	0x3d28e401	0.041233066
87	0x3cd1445f	0.025545297
88	0xbb90a9e0	-0.004414782
89	0x3d2b9359	0.04188857
90	0x3cb67473	0.022272324
91	0xbc4030de	-0.011730401
92	0xbcf06ee0	-0.029349744
93	0xbd219f59	-0.039458606
94	0x3c033f1a	0.00801065
95	0x3d0d2008	0.034454376
96	0x3d9a7b45	0.07543043
97	0x3c26a9a5	0.010172282
98	0x3b0103b3	0.0019686043
99	0x3da8b4dc	0.08237621
100	0x3d5e21a1	0.05423129
101	0x3dabe5bb	0.08393427
102	0xbb8d81f7	-0.0043184715
103	0x3ccb7cdd	0.024839813
104	0x3ce2f469	0.027704434
105	0xbb640c76	-0.0034797466
106	0x3c03f0fc	0.008053061
107	0x3d2d3fd5	0.042297203
108	0x3ba4e93a	0.0050326856
109	0x3d42b4fa	0.047535874
110	0xbc878df9	-0.01654719
111	0xbdaa887f	-0.08326816
112	0x3b8a968e	0.0042293733
113	0xbd8d2e11	-0.06893552
114	0xbccd6408	-0.025072113
115	0xbd0c09ab	-0.034188908
116	0xbd23fff1	-0.040039007
117	0xbd0f3327	-0.034960892
118	0xb9235e84	-0.00015580101
119	0xbc90708a	-0.017631788
120	0xbd39dfc3	-0.04537941
121	0x3c19e74e	0.009393526
122	0xbd0a5c4e	-0.033779435
123	0xbd96f591	-0.07371057
124	0xbd6bcae5	-0.057566542
125	0xbdad759f	-0.084697
126	0x3d2dab70	0.042399824
127	0x3cb6720f	0.022271184
128	0xbc75dd5a	-0.015006388
129	0x3cf20953	0.029545462
130	0xbc0fa165	-0.008766507
131	0xbd165896	-0.036705576
132	0x3d5156a4	0.051108018
133	0xbceb3c75	-0.028715352
134	0x3b5eef5f	0.0034017188
135	0x3d30ccd2	0.043164082
136	0xbcaa4a1b	-0.02078729
137	0x3d1454ae	0.03621357
138	0xbbbb7072	-0.0057201916
139	0x3cde4350	0.027131706
140	0xbcff3309	-0.031152265
141	0x3d4c561f	0.04988682
142	0x3c661735	0.014043619
143	0x3d3cf77d	0.04613446
144	0x3c9dcacc	0.01926174
145	0x3cd7dd00	0.026350498
146	0xbd133c4e	-0.035946183
147	0xbd33e0bf	-0.043915506
148	0x3c80374c	0.015651368
149	0xbd677c5f	-0.056515094
150	0xbd399097	-0.045303907
151	0x3a9399b3	0.0011261016
152	0xbd3f3120	-0.04667771
153	0x3ca3ab42	0.019979123
154	0x3c9d099a	0.019169617
155	0xbc9993ba	-0.0187472
156	0x3d47bc10	0.048763335
157	0x3d1944cb	0.03741912
158	0x3ce6be8c	0.028167032
159	0x3d740d00	0.05958271
160	0xbd2a14f7	-0.0415239
161	0xbba0af7a	-0.004903731
162	0x3cbe4695	0.023227016
163	0x3cc7d9a9	0.02439578
164	0xbd0b650c	-0.034031913
165	0xbc8dde83	-0.017318016
166	0xbcc29c13	-0.023756063
167	0xbd50d771	-0.05098671
168	0xbc72c72e	-0.014817996
169	0x3cdbf13e	0.026848432
170	0x3ca1ab6c	0.01973506
171	0xbd5a5a3f	-0.05330872
172	0xbd4f20ca	-0.05056838
173	0x3c11c9a5	0.008898173
174	0xbb42ff6a	-0.002975429
175	0x3be45207	0.0069677862
176	0x3cc86558	0.024462387
177	0x3d06109c	0.032730684
178	0x3d606581	0.0547843
179	0x3cf7a1a1	0.030228438
180	0x3bbb1c1e	0.005710139
181	0xbbbf5093	-0.0058384626
182	0xbd4361a5	-0.047700543
183	0xbaadea5c	-0.0013268697
184	0xbb470f8e	-0.0030374262
185	0xbcfcd9e2	-0.030865613
186	0x3d842a34	0.06453362
187	0x3d0b5930	0.034020603
188	0xbc093196	-0.008373639
189	0xbc1e0a0d	-0.009645951
190	0x38a5869c	7.892886e-05
191	0x3d6c4efd	0.057692517
192	0xbcd8a8ac	-0.026447617
193	0x3b464f38	0.003025962
194	0xbd2b3138	-0.041794986
195	0x3d790459	0.060795162
196	0xbd74914d	-0.059708882
197	0x3d0ba7c5	0.034095544
198	0xbcb81bcc	-0.022474192
199	0xbc1f5bcd	-0.009726477
200	0x3c1f33a3	0.009716901
201	0x3d040160	0.032227874
202	0x3d199376	0.037494145
203	0xbcbfd4ef	-0.023416964
204	0x3ced1d8c	0.028944753
205	0x3d451eb4	0.048124984
206	0xbd131804	-0.035911575
207	0x3c8e02fb	0.017335406
208	0x3b824d49	0.0039764983
209	0x3c4292bb	0.011875804
210	0x3c29cfd1	0.010364489
211	0x3cf45291	0.029824527
212	0xbd6890b4	-0.056778625
213	0xbc93d2be	-0.018044826
214	0xbcc3a15f	-0.023880659
215	0x3cf5c6ab	0.030001959
216	0xbbef6cb5	-0.00730666
217	0xbcc3319e	-0.02382737
218	0xbd9fe6db	-0.07807704
219	0x3d7117f6	0.05886074
220	0xbc1ff019	-0.009761834
221	0x3beb5157	0.0071813273
222	0x3cd6adf6	0.026205998
223	0xbc766c68	-0.0150404945
224	0xbd301175	-0.0429854
225	0xbd15a287	-0.03653195
226	0x3a9c3670	0.0011918079
227	0xbc90435f	-0.01761025
228	0xbca0c610	-0.019625694
229	0xbd5042b3	-0.05084486
230	0xbcda24d9	-0.026628898
231	0xbb3f0956	-0.0029149852
232	0x3bc5a827	0.006032008
233	0xbc8c1220	-0.017098486
234	0xbcd12e06	-0.025534641
235	0xbd05cf43	-0.032668363
236	0xbb737da4	-0.0037153745
237	0x3d449620	0.047994733
238	0xbce58326	-0.028016638
239	0xbd15ccfc	-0.03657244
240	0xbcef7afb	-0.029233446
241	0xbc18aa90	-0.009318009
242	0x3ccffd50	0.025389344
243	0xbd078c29	-0.03309265
244	0xbd28f463	-0.04124869
245	0xbdc88138	-0.097902715
246	0xbd60ad26	-0.054852627
247	0x3c96f94e	0.018429425
248	0xbd0079ea	-0.031366266
249	0xbd019d71	-0.03164429
250	0x3c516a67	0.012781716
251	0x3c9c1217	0.019051595
252	0xbca73cee	-0.020414796
253	0xbc5d26cc	-0.013498019
254	0x3d1a806d	0.037720133
255	0x3c5e5f8f	0.013572588

conv.7.weight f4 [32]
0	0x3f790de4	0.9728682
1	0x3f7eef25	0.99583656
2	0x3f8192f8	1.0122976
3	0x3f7c2cbc	0.9850576
4	0x3f7ec693	0.9952175
5	0x3f800001	1.0000001
6	0x3f7d6e28	0.9899621
7	0x3f7e67c1	0.99377066
8	0x3f7c6318	0.98588705
9	0x3f7b3f5f	0.9814357
10	0x3f8288de	1.0198019
11	0x3f8272c0	1.0191269
12	0x3f7cd1c9	0.98757607
13	0x3f80c464	1.0059934
14	0x3f8166d6	1.0109508
15	0x3f8423fb	1.032348
16	0x3f7df90b	0.99208134
17	0x3f7fd5ac	0.9993541
18	0x3f80db4c	1.0066924
19	0x3f7e964b	0.9944808
20	0x3f7e11c0	0.99245834
21	0x3f7edf78	0.99559736
22	0x3f805e87	1.0028847
23	0x3f7a494a	0.9776808
24	0x3f7df064	0.9919493
25	0x3f78950b	0.9710242
26	0x3f83c3d7	1.029414
27	0x3f818a04	1.0120244
28	0x3f8296b6	1.0202243
29	0x3f80a1a2	1.0049326
30	0x3f7f4c19	0.9972549
31	0x3f7bb0b1	0.98316485

conv.7.bias f4 [32]
0	0xbcef6689	-0.029223697
1	0xbcd979d3	-0.026547348
2	0xbca72aea	-0.020406205
3	0xbce2c7c8	-0.027683154
4	0xbc3655f5	-0.011128892
5	0xbc2c0fc7	-0.0105018085
6	0xbd147885	-0.03624775
7	0xbcbb8691	-0.022891315
8	0xbc0c62f3	-0.008568513
9	0xbca23487	-0.019800438
10	0xbd740651	-0.059576336
11	0x3c53cf66	0.012927866
12	0xbd3c1003	-0.045913707
13	0xbd4306ef	-0.047614034
14	0x3d297944	0.041375414
15	0x3d044852	0.032295533
16	0xbd2c6f05	-0.042098064
17	0xbd4d9c46	-0.050197862
18	0xbc8f2a60	-0.01747626
19	0xbcc5f91b	-0.024166634
20	0xbd41d65c	-0.04732357
21	0xbd1bf480	-0.03807497
22	0xbcda967a	-0.026683081
23	0xbdce5a6d	-0.10075841
24	0xbd5bcef1	-0.05366415
25	0xbd2c35ef	-0.042043623
26	0x3cdb3ae7	0.026761485
27	0xbd349468	-0.044086844
28	0xbd43db23	-0.047816407
29	0x3c28da94	0.010306019
30	0xbcad317e	-0.021141764
31	0xbd1d6897	-0.038429823

conv.7.running_mean f4 [32]
0	0xbe582dcf	-0.21111225
1	0xbe863d19	-0.2621849
2	0xbe50efe1	-0.20404007
3	0x3e316380	0.17323112
4	0xbde98660	-0.11402583
5	0x3e8fe2f5	0.28102842
6	0xbe13b3fe	-0.1442413
7	0xbe9d44b0	-0.30716467
8	0x3d614a62	0.055002578
9	0xbe4a7bda	-0.19773808
10	0xbedb8091	-0.42871526
11	0x3d2e11a6	0.0424973
12	0xbbb15e26	-0.0054128347
13	0x3d8fd4c3	0.07023003
14	0xbd463c97	-0.048397627
15	0x3e6b22eb	0.22962539
16	0x3f0346a2	0.5127965
17	0x3dda3bc0	0.10655928
18	0xbed09dc3	-0.40745363
19	0xbec99849	-0.39373997
20	0xbe53b1a9	-0.2067324
21	0x3ee30f8c	0.443478
22	0x3cf16b0d	0.029469991
23	0x3ddf45ae	0.10901962
24	0x3d97ada4	0.07406166
25	0x3ded1651	0.11576522
26	0xbf420ea6	-0.758036
27	0xbe69d1b3	-0.228339
28	0xbd7ab9ea	-0.061212458
29	0xbe453b14	-0.19260818
30	0x3e1485de	0.14504191
31	0x3d35e674	0.04440923

conv.7.running_var f4 [32]
0	0x3dd26ad0	0.10274279
1	0x3dd82d86	0.10555558
2	0x3dd7759b	0.10520478
3	0x3e547d88	0.20751011
4	0x3df184e0	0.11792922
5	0x3e0a9b9a	0.1353592
6	0x3df6b4d4	0.12046209
7	0x3dcfcbc9	0.10146291
8	0x3dafef71	0.08590592
9	0x3e0c3e82	0.1369572
10	0x3dbdc6aa	0.09266408
11	0x3e126b22	0.1429868
12	0x3db7b30c	0.08969697
13	0x3df8ee56	0.12154834
14	0x3e0241b9	0.12720384
15	0x3dd7c375	0.10535327
16	0x3df511f6	0.119663164
17	0x3dc86f6d	0.09786878
18	0x3e054617	0.13015018
19	0x3e1c06e5	0.15237005
20	0x3df29b61	0.118460424
21	0x3dd6853e	0.10474633
22	0x3dbc312f	0.091890685
23	0x3dd133de	0.10214971
24	0x3dacb1b7	0.08432334
25	0x3dc8953a	0.09794088
26	0x3e13b168	0.14423144
27	0x3dff1f84	0.12457183
28	0x3e0ed0c2	0.13946822
29	0x3ddc491b	0.10756131
30	0x3e176d54	0.14787799
31	0x3e3423b4	0.17591745

conv.9.weight f4 [32, 32, 3, 3]
0	0x3d907260	0.07053065
1	0x3d4a4748	0.049384385
2	0x3ca92c56	0.020651024
3	0xbac995fd	-0.0015379783
4	0x3d00d6b6	0.031454764
5	0x3cbc809a	0.02301054
6	0x3cba77db	0.02276223
7	0xbc1a5f1f	-0.009422093
8	0xbafafe86	-0.001914934
9	0x3cb642d2	0.02224866
10	0xbc9868f1	-0.018604727
11	0xbb03f903	-0.0020137436
12	0x3cc2ac61	0.023763837
13	0x3c7ca23a	0.015419537
14	0x3c0cbb38	0.008589558
15	0x3cb85271	0.022500249
16	0x3c98ba84	0.018643625
17	0x3cfdb885	0.030971775
18	0x3d4dcf74	0.05024667
19	0x3cff1c4a	0.031141419
20	0x3d3832e2	0.0449704
21	0x3cc19ca1	0.023634257
22	0x3c9cadee	0.019125905
23	0x3d4bd1c7	0.049760606
24	0x3d0edca1	0.034878377
25	0x3ccde14d	0.025131846
26	0x3cf18d6d	0.029486382
27	0xbbed2460	-0.0072370023
28	0x3c29c2e3	0.010361406
29	0x3c45ea41	0.012079776
30	0xbd5b3540	-0.05351758
31	0xbd13fdf8	-0.036130875
32	0x3cc75ab3	0.024335241
33	0xbd1ea5e9	-0.038732443
34	0xbd22bf67	-0.039733317
35	0xbcd040b5	-0.02542148
36	0xbd7595f2	-0.059957452
37	0xbca3d0e1	-0.019997062
38	0xbd4e8a1c	-0.05042468
39	0xbd207168	-0.039170653
40	0xbc4fcd6d	-0.012683255
41	0xbcab6a7a	-0.020924795
42	0xbc4fb031	-0.012676285
43	0xbd06bce8	-0.032895
44	0xbd0caf17	-0.034346666
45	0xbda16a41	-0.078815944
46	0xbc8a7d6f	-0.016905515
47	0xbd113b05	-0.035456676
48	0xbc7a4a9a	-0.015276575
49	0xbcb5903e	-0.022163507
50	0xbd433be2	-0.04766453
51	0xbd18005b	-0.037109714
52	0xbd5981b7	-0.05310222
53	0xbd8269c5	-0.0636783
54	0x3d38b41c	0.04509364
55	0x3ba2682e	0.004956267
56	0x3d627e5f	0.055296298
57	0x3a8b8202	0.0010643604
58	0x3ccd8a8c	0.025090478
59	0xbbf295d1	-0.0074031134
60	0xbd8b10a8	-0.06790286
61	0xbc79d793	-0.015249151
62	0xbd7a44d0	-0.06110078
63	0xbc8d51f9	-0.017251002
64	0xbca79512	-0.020456824
65	0xbbbd2310	-0.005772002
66	0x3c232112	0.009956615
67	0x3cc744d3	0.02432481
68	0xbb47ffeb	-0.003051753
69	0xba5d6115	-0.00084449473
70	0x3bbbb441	0.005728275
71	0xbd16e5f2	-0.036840387
72	0x3d91a1cf	0.07110941
73	0x3d37a65f	0.0448364
74	0x3cc1ff58	0.023681328
75	0x3c63b806	0.013898855
76	0x3d7d9c06	0.061916374
77	0x3d72f1fe	0.059312813
78	0x3cfd576e	0.030925479
79	0x3d190512	0.03735835
80	0x3ce6243e	0.028093453
81	0x3d9b56d3	0.0758492
82	0x3d0b3ee1	0.033995513
83	0x3d6bee96	0.05760058
84	0x3da7b2dc	0.081884116
85	0x3c56f948	0.013120957
86	0x3d01a10b	0.031647723
87	0x3d08e230	0.033418834
88	0x3cf6eec7	0.030143155
89	0x3cee8f2e	0.029121008
90	0xbcb3587e	-0.021892782
91	0xbd0644fb	-0.03278063
92	0xbd750bd2	-0.059825726
93	0x3cc45cc7	0.023970021
94	0x3c76ca26	0.015062844
95	0xbd66381e	-0.05620586
96	0xbd3c66aa	-0.045996346
97	0xbc2f0fb9	-0.010684901
98	0xbd9ed68e	-0.07755767
99	0xbd49e374	-0.04928918
100	0xbd1593d4	-0.036517933
101	0xbd024ea4	-0.03181328
102	0xbdaed312	-0.08536352
103	0xbcbafd8c	-0.022825979
104	0xbc36cca5	-0.0111571895
105	0xbd91fabe	-0.071279034
106	0xbcad6a4a	-0.021168847
107	0xbd599f94	-0.0531307
108	0xbb4f6247	-0.0031644271
109	0xbd0a84d6	-0.03381809
110	0xbb8663f7	-0.004101272
111	0xbd66ee8f	-0.05637985
112	0xbb990195	-0.004669378
113	0x3ae3f806	0.0017392642
114	0xbd1ec913	-0.038765978
115	0x3ab53165	0.0013823925
116	0xbd00af48	-0.03141716
117	0x3cae190f	0.021252183
118	0xbc60adbf	-0.013713299
119	0xbd89fce3	-0.067376874
120	0xb973f807	-0.00023266683
121	0x3b01f693	0.0019830808
122	0xbd1b5a1a	-0.037927724
123	0xbc7be544	-0.015374485
124	0x3d4a9a2a	0.04946343
125	0x3cc36115	0.023850003
126	0xbda2a8cd	-0.079423524
127	0xbda29362	-0.07938267
128	0xbd51b9f1	-0.05120272
129	0xbd9c5bd3	-0.076347016
130	0xbb77c79b	-0.0037808183
131	0xb96a3098	-0.00022334082
132	0xbd61765b	-0.055044513
133	0x3ab9044c	0.001411566
134	0xbce876ca	-0.028376956
135	0x3c1bb125	0.009502684
136	0x3c2600bb	0.01013201
137	0x3d50c919	0.05097303
138	0x3d7dbf44	0.061949983
139	0x3d582e99	0.052778814
140	0xb9b09839	-0.0003368275
141	0x3c8a5fa6	0.016891312
142	0x3d8aa980	0.06770611
143	0x3d38c275	0.045107324
144	0x3ca0e149	0.019638674
145	0xbc4f6414	-0.012658138
146	0xbbd8e0cb	-0.0066185943
147	0xbcf00444	-0.029298909
148	0xbcdb9ae0	-0.026807249
149	0xbc5accbd	-0.0133544775
150	0xbcdeac3f	-0.027181743
151	0x3b802bb3	0.0039114594
152	0xbd213272	-0.03935475
153	0xbd1abdcf	-0.03777867
154	0xbcb44fc2	-0.022010688
155	0xbd49a42c	-0.049228832
156	0xbd422440	-0.047397852
157	0xbcab80e6	-0.020935487
158	0xbd1070bd	-0.035263766
159	0xbd47cb6f	-0.048777994
160	0xbc5d358b	-0.013501535
161	0xbd1fa522	-0.038975842
162	0xbbcecec7	-0.006311271
163	0xbcbe2e34	-0.02321539
164	0x3bbc5fd4	0.0057487283
165	0xbd564635	-0.05231305
166	0x3c05ae5d	0.008159247
167	0xbcdf9637	-0.027293308
168	0x3aebf1b2	0.0018001108
169	0xbd331e7a	-0.043730237
170	0xbd88a471	-0.0667199
171	0xbcda5ddd	-0.026656086
172	0x3d3eb112	0.046555586
173	0x3c82c5be	0.015963431
174	0xbc4ad881	-0.01238072
175	0x3d4ea286	0.050447963
176	0x3d53c728	0.051703602
177	0xbbc4136d	-0.005983761
178	0x3ce58e45	0.028021941
179	0x3d01f159	0.031724308
180	0xbcebc160	-0.028778732
181	0x3c3b7aaf	0.011442824
182	0xbd84e815	-0.06489579
183	0x3c4c202c	0.012458842
184	0xbca8a5fc	-0.02058696
185	0xbd285bfb	-0.041103344
186	0xbc8373c5	-0.016046414
187	0xbb09d0af	-0.0021028926
188	0xbc3e49f8	-0.011614315
189	0x3bd17a33	0.006392741
190	0xbc5ddf6e	-0.013542039
191	0x3be5b926	0.007010597
192	0xbc2bf5e7	-0.010495639
193	0x3d0c26ba	0.03421662
194	0x3d24d2e8	0.0402402
195	0x3c5dd751	0.013540105
196	0xbc8ad67a	-0.016947974
197	0x3c4df7aa	0.012571255
198	0xbbe39777	-0.0069455463
199	0x3cb01368	0.021493629
200	0xbcd54185	-0.026032219
201	0xbc31e37c	-0.010857459
202	0x3c31ac64	0.010844324
203	0x3bfb709e	0.007673337
204	0x3ae1b35e	0.0017219593
205	0x3c6196f3	0.013768899
206	0x3ca44267	0.020051194
207	0xbcc7f64b	-0.024409434
208	0x3c6541a0	0.013992697
209	0x3d1e5230	0.0386526
210	0x3c8bf0fd	0.017082686
211	0x3d2bcc7e	0.041943066
212	0x3db25df1	0.08709324
213	0x3c99d7da	0.018779684
214	0x3d31541b	0.0432931
215	0x3dac4080	0.0841074
216	0xbccdf524	-0.025141306
217	0xbc95ef83	-0.018302685
218	0xbcf6ab6b	-0.030111035
219	0xbc1a7daf	-0.009429379
220	0xbd1fabe3	-0.038982283
221	0xbcfc1877	-0.030773384
222	0xbca76a62	-0.02043647
223	0xbd1bdc1c	-0.03805171
224	0xbce7375c	-0.02822464
225	0xbbd47390	-0.0064835027
226	0x3ca0f539	0.019648181
227	0xbc1ee9e2	-0.009699317
228	0x3c3199f8	0.010839932
229	0x3c211a35	0.009832908
230	0x3d09b5d0	0.033620656
231	0xb8fd0de4	-0.000120665674
232	0x3d0c5578	0.034261197
233	0x3cbb5fe0	0.022872865
234	0x3c7f62fd	0.0155875655
235	0x3c1c79c8	0.009550519
236	0x3d898563	0.067148946
237	0x3d719cc9	0.058987413
238	0x3c42aea4	0.011882458
239	0x3d2dd61e	0.042440526
240	0x3d871c2f	0.065971725
241	0x3b924ead	0.0044649453
242	0x3ca31637	0.019908054
243	0xbc4f744a	-0.012662003
244	0xbd0c5139	-0.034257147
245	0xbd65429c	-0.055971727
246	0xbd8467b0	-0.06465089
247	0xbd085507	-0.033284213
248	0xbd6415f0	-0.055684984
249	0xbd5149da	-0.05109582
250	0xbd3238e6	-0.043511294
251	0xbd10d917	-0.035363283
252	0xbc49a5b5	-0.012307574
253	0xbcac3491	-0.02102116
254	0xbd883cfd	-0.066522576
255	0xbc5dfad3	-0.013548571

conv.10.weight f4 [32]
0	0x3f938d55	1.1527506
1	0x3f8ddce0	1.1083031
2	0x3f953987	1.1658181
3	0x3f938be7	1.152707
4	0x3f99fe63	1.2030758
5	0x3f979e23	1.1845134
6	0x3f908b89	1.1292583
7	0x3f973f3e	1.1816175
8	0x3f8e4d2d	1.1117302
9	0x3f8efc99	1.1170837
10	0x3f90ebce	1.1321962
11	0x3f92359e	1.1422613
12	0x3f9beb46	1.2181175
13	0x3f96698e	1.1750963
14	0x3f940199	1.1562988
15	0x3f89681f	1.07349
16	0x3f98ea54	1.1946511
17	0x3f990e51	1.1957494
18	0x3f8f5cfb	1.120025
19	0x3f9ab613	1.2086815
20	0x3f9585bc	1.1681437
21	0x3f9141ca	1.1348202
22	0x3f975845	1.1823813
23	0x3f983e90	1.1894093
24	0x3f8c9d21	1.0985452
25	0x3f990986	1.1956031
26	0x3f8f71d1	1.1206609
27	0x3f8fd11c	1.123569
28	0x3f97ee0e	1.1869524
29	0x3f95f3be	1.1715009
30	0x3f8eee93	1.1166557
31	0x3f9213d3	1.14123

conv.10.bias f4 [32]
0	0x3daa8504	0.08326152
1	0x3da2484f	0.07923948
2	0x3dc3ee60	0.09566951
3	0x3df5daea	0.12004645
4	0x3e0fc82b	0.14041202
5	0x3e0160a5	0.12634523
6	0x3d9b0ce4	0.07570818
7	0x3dfc000f	0.12304699
8	0x3d24bccb	0.04021911
9	0x3d45e04d	0.048309613
10	0x3d9b3c52	0.075798646
11	0x3d777c5e	0.06042134
12	0x3df529b6	0.11970846
13	0x3df7839c	0.12085649
14	0x3dc25a50	0.09489882
15	0xbc5f29e7	-0.01362083
16	0x3e11ed85	0.14250763
17	0x3e03d467	0.12873994
18	0x3d5f6fd6	0.054550014
19	0x3e1cbeca	0.15307155
20	0x3e0c385a	0.13693371
21	0x3da71637	0.08158534
22	0x3e00ae16	0.12566409
23	0x3e07fc0d	0.13279743
24	0x3d2cc0b0	0.04217595
25	0x3e15c9ae	0.14627716
26	0x3d89590e	0.06706439
27	0x3d3d7a3b	0.046259146
28	0x3e1baef2	0.15203455
29	0x3de6d29c	0.11270639
30	0x3d903cad	0.07042823
31	0x3dbc36fa	0.091901734

conv.10.running_mean f4 [32]
0	0xbd9bd5a5	-0.07609109
1	0xbe4c829f	-0.19971703
2	0xbd0c229b	-0.03421269
3	0x3e323414	0.17402679
4	0xbe4e9d78	-0.20177257
5	0x3e815467	0.25259706
6	0x3e3e1381	0.18562128
7	0xbe1b9814	-0.15194732
8	0x3eae0e55	0.3399531
9	0x3e99fe36	0.3007676
10	0xbe8717d2	-0.2638536
11	0x3d8d2a9c	0.06892893
12	0x3e1955e4	0.14974171
13	0xbe66238e	-0.224745
14	0xbd988cc5	-0.07448725
15	0x3eb1f063	0.34753713
16	0x3eeb26cf	0.45928046
17	0xbe364587	-0.1779996
18	0x3eaa0bd8	0.3321216
19	0x3e2b4ba9	0.16728081
20	0x3ef731ee	0.4828028
21	0xbd14a342	-0.036288507
22	0x3e99de01	0.30052188
23	0xbe1fbccc	-0.15599364
24	0x3e00c258	0.12574136
25	0x3ec02936	0.3753144
26	0xbe4d6617	-0.20058475
27	0x3e98d71a	0.2985161
28	0xbe20c582	-0.15700343
29	0xbe0b93bb	-0.13630573
30	0xbcdf0296	-0.027222913
31	0x3ead8e41	0.33897594

conv.10.running_var f4 [32]
0	0x3db79a7a	0.08965011
1	0x3d8344f4	0.06409636
2	0x3d95d15a	0.07315321
3	0x3db919d7	0.09038132
4	0x3dc1efc0	0.09469557
5	0x3daee887	0.08540445
6	0x3d8c7e1b	0.0685999
7	0x3db8801d	0.09008811
8	0x3d930bb0	0.071799636
9	0x3d899ffb	0.06719967
10	0x3d8de7d4	0.06928983
11	0x3dbe8ede	0.093045935
12	0x3d970417	0.07373827
13	0x3d87e7fd	0.06636045
14	0x3d9fbe3f	0.077999584
15	0x3d95d51c	0.07316038
16	0x3db67eb3	0.08910885
17	0x3dabb811	0.08384717
18	0x3def5890	0.11686814
19	0x3da80e58	0.08205861
20	0x3dc41453	0.09574189
21	0x3daf7f2d	0.08569179
22	0x3daefca5	0.08544282
23	0x3de4be23	0.11169078
24	0x3d9d9a79	0.07695479
25	0x3dc141a2	0.094363466
26	0x3dab985b	0.08378669
27	0x3db9970e	0.090620145
28	0x3d9cb66e	0.07651983
29	0x3daaf82d	0.08348117
30	0x3dad2cc5	0.08455805
31	0x3db85d66	0.09002189

cls_head.weight f4 [10, 32]
0	0x3e9224f8	0.2854383
1	0x3d82daf6	0.0638942
2	0x3e0dbc1d	0.13841291
3	0xbeaf106e	-0.34192222
4	0x3e7816c6	0.24227437
5	0xbe893713	-0.2679983
6	0xbe841bc9	-0.25802448
7	0x3e5b914a	0.21442142
8	0xbdb4a6a1	-0.088208444
9	0x3dab2559	0.08356733
10	0xbda10891	-0.07862962
11	0x3e86fe86	0.2636606
12	0xbeaf5a46	-0.3424856
13	0x3e439cf1	0.19102837
14	0x3e4cdb38	0.200055
15	0xbc08a6a8	-0.008340515
16	0xbe9fced1	-0.31212476
17	0x3d6b4110	0.057435095
18	0xbdd1b452	-0.102394715
19	0xbeb8613c	-0.36011684
20	0xbeb26619	-0.3484352
21	0xbe47b97c	-0.1950435
22	0xbeb39c2f	-0.35080096
23	0x3e2b06b4	0.16701776
24	0xbd68f319	-0.05687246
25	0xbe7fb82e	-0.24972603
26	0x3d65825b	0.05603252
27	0x3d54d9a8	0.051965386
28	0xbec72170	-0.38892698
29	0xbe6e91c6	-0.23297796
30	0x3e8784f1	0.26468614
31	0xbd39703b	-0.045273047
32	0xbcb9dc59	-0.022688078
33	0x3db96d7a	0.09054084
34	0x3e079792	0.13241413
35	0xbdd63920	-0.104601145
36	0x3e6a41aa	0.22876611
37	0xbe9ec944	-0.31012928
38	0xbe85b2c2	-0.26112944
39	0x3e3e0fc6	0.18560705
40	0xbd97e3fc	-0.074165314
41	0x3da9292c	0.08259806
42	0xbdb8fb3a	-0.09032293
43	0x3e629f93	0.22131185
44	0xbe31fe7b	-0.17382233
45	0x3e9c3467	0.3050873
46	0x3e49c780	0.1970501
47	0xbe339949	-0.17538942
48	0xbea06abb	-0.3133143
49	0x3e77206d	0.24133463
50	0xbe9ab666	-0.30217284
51	0xbe811106	-0.252083
52	0xbd0cbbd3	-0.03435881
53	0xbe521e8f	-0.2051947
54	0xbeac0a3e	-0.33601564
55	0x3e813d08	0.25241876
56	0x3d1dd822	0.0385362
57	0xbeb3b702	-0.3510056
58	0xbdb47b1e	-0.08812545
59	0xbdd75077	-0.10513394
60	0xbd452aaa	-0.04813639
61	0x3da48c82	0.08034612
62	0x3e887b8d	0.26656762
63	0xbdef4520	-0.116831064
64	0x3e177942	0.1479235
65	0x3cc36829	0.023853378
66	0x3e58e2f3	0.21180324
67	0xbe2d21b4	-0.16907388
68	0x3e11581b	0.14193766
69	0xbe940f09	-0.2891772
70	0x3c478130	0.012176797
71	0x3e1c3729	0.15255417
72	0xbd2d5d4a	-0.042325296
73	0xbcb8c8d6	-0.022556704
74	0x3e3d7688	0.18502247
75	0x3d2cd5e0	0.042196155
76	0xbddbdb75	-0.107352175
77	0x3e56bfd6	0.20971617
78	0x3e452c0f	0.19255088
79	0xbe848cb8	-0.2588861
80	0xbe1d8188	-0.15381444
81	0x3dc67842	0.09690906
82	0xbe03daae	-0.12876388
83	0x3d6a22bd	0.057162035
84	0xbe4bc421	-0.19899036
85	0x3a3c6722	0.0007186999
86	0xbe8682f6	-0.2627179
87	0x3d966989	0.07344348
88	0xba931fb2	-0.0011224656
89	0xbe0252ef	-0.12726949
90	0x3e4a47d9	0.1975397
91	0xbe8a43a9	-0.27004746
92	0x3cc653b1	0.024209829
93	0x3d55b804	0.052177444
94	0xbd768320	-0.060183644
95	0xbe80e4ff	-0.2517471
96	0xbd058823	-0.032600533
97	0x3e420a3f	0.18949221
98	0xbd9ab370	-0.07553756
99	0xbdd88812	-0.10572828
100	0x3e302551	0.17201735
101	0x3d4a64bc	0.049412474
102	0xbde36755	-0.111036934
103	0x3e5a1082	0.2129536
104	0xbd954329	-0.072882004
105	0xbe6546ab	-0.22390239
106	0x3d8f6ed5	0.070035614
107	0x3ce346e2	0.02774376
108	0x3e1e2029	0.15441956
109	0x3d6fe88d	0.058571387
110	0x3d98f875	0.074692644
111	0x3c0e3d3e	0.008681593
112	0xbe28a8b9	-0.16470613
113	0x3e1c6d18	0.15275991
114	0xbe7a87ae	-0.2446582
115	0xbbb6bf6c	-0.0055770185
116	0xbda0f8f1	-0.07859982
117	0x3e5ebe83	0.21752362
118	0x3d41b152	0.047288246
119	0x3b96f5c4	0.0046069343
120	0xbe2e1c9d	-0.17003103
121	0xbe571928	-0.2100569
122	0x3db9936a	0.0906132
123	0xbe73990e	-0.23788854
124	0xbde233eb	-0.11045059
125	0x3e784eef	0.24248861
126	0xbcba115e	-0.02271336
127	0xbe7fb90b	-0.24972932
128	0xbe0d0de7	-0.13774835
129	0x3e3b2d32	0.1827896
130	0xbdb54152	-0.088503495
131	0xbd7e6ea7	-0.062117245
132	0x3d8d8128	0.069094
133	0x3d058980	0.032601833
134	0x3e45b2c7	0.1930648
135	0x3d3a5fdd	0.04550158
136	0x3e21b8fd	0.15793224
137	0xbe880031	-0.26562646
138	0x3e23bfe9	0.15991177
139	0xbe0a7c42	-0.13523963
140	0x3df324eb	0.11872276
141	0xbcf207aa	-0.02954467
142	0x3be2c9ec	0.0069210436
143	0xbdb17588	-0.086649954
144	0xbe2474e4	-0.16060215
145	0x3e458b61	0.1929145
146	0xbe6209a5	-0.22073992
147	0x3e49c615	0.19704469
148	0xbcb4dd17	-0.02207808
149	0x3e319110	0.17340493
150	0xbdb94d24	-0.090479165
151	0x3e1c65d5	0.15273221
152	0x3cfc0278	0.030762896
153	0xbd6f26a6	-0.058386467
154	0x3dce7255	0.10080401
155	0xbe720b7a	-0.2363719
156	0xbdefab9c	-0.11702654
157	0xbd27b43b	-0.040943366
158	0xbe2086a0	-0.15676355
159	0xbd686417	-0.056736078
160	0xbe3d9a7c	-0.18515962
161	0xbdfbf788	-0.12303072
162	0xbe702cfe	-0.23454663
163	0x3ca31944	0.019909509
164	0x3e319dab	0.17345302
165	0xbdd469b0	-0.10371721
166	0x3e8084ef	0.2510142
167	0x3e099e98	0.13439405
168	0x3e5c0eb7	0.21489988
169	0xbe6de426	-0.23231563
170	0x3d8b39d8	0.06798142
171	0xbd9b8c3d	-0.07595108
172	0x3e6405e4	0.22267872
173	0xbe0338f0	-0.12814689
174	0xbe478556	-0.19484457
175	0x3ddf95c1	0.10917235
176	0x3d92e86e	0.07173239
177	0x3dd7d579	0.105387636
178	0xbe1ad1e1	-0.15119125
179	0x3d46dd66	0.048550986
180	0x3c8e837d	0.017396683
181	0xbd6c835b	-0.057742458
182	0x3d61aab9	0.055094454
183	0x3d8fac36	0.070152685
184	0xbe363c1c	-0.17796367
185	0xbdfca88a	-0.12336834
186	0x3d4fe11f	0.0507518
187	0x3dd85cad	0.105645515
188	0x3d6e8fe9	0.058242712
189	0xbda034bc	-0.07822558
190	0xbe0d0916	-0.13772997
191	0xbdfecf1b	-0.12441846
192	0xbd3ad9bd	-0.045617808
193	0xbe516a20	-0.2045064
194	0xbe9c59a4	-0.3053714
195	0xbe07675f	-0.13223027
196	0x3d6e6cd4	0.058209255
197	0x3e5fd45f	0.21858357
198	0x3e4040ee	0.18774769
199	0xbe3ccc56	-0.18437323
200	0x3dc4fecf	0.096189134
201	0x3b92ecb9	0.004483786
202	0xbe10242d	-0.140763
203	0xbe2625b2	-0.16225317
204	0x3e28bf35	0.1647919
205	0xbd82d181	-0.06387616
206	0xbe4cf491	-0.2001517
207	0x3e774f3d	0.24151321
208	0x3c7bc92f	0.01536779
209	0x3de5cdfc	0.11220929
210	0xbd9f5993	-0.07780757
211	0x3e5d8c33	0.21635513
212	0x3d8fa280	0.07013416
213	0x3d7e2827	0.06205001
214	0xbd7a998e	-0.061181597
215	0x3dbcdae4	0.092214376
216	0xbdc9bab1	-0.09850062
217	0x3d72badc	0.059260234
218	0x3d750aae	0.059824638
219	0xbd053466	-0.032520674
220	0xbd8ffd67	-0.070307545
221	0xbd82d551	-0.06388343
222	0xbe5a7533	-0.2133377
223	0x3e195911	0.14975382
224	0xbe7bedd1	-0.24602439
225	0xbe822151	-0.25416043
226	0xbe9bcf30	-0.3043151
227	0xbdfc1c6b	-0.12310108
228	0xbdbd0857	-0.09230106
229	0x3e48cced	0.19609423
230	0xbdb856cf	-0.090009324
231	0xbdd579ad	-0.104235984
232	0x3e6a91ad	0.22907133
233	0x3dca0962	0.09865071
234	0xbe068b9a	-0.13139191
235	0xbe56d197	-0.2097839
236	0x3e741ea2	0.2383981
237	0xbe112308	-0.1417352
238	0xbcbaa740	-0.02278483
239	0x3e1bd2fe	0.15217206
240	0x3de5bcae	0.112176284
241	0xbd908ea9	-0.0705846
242	0x3de0a797	0.10969465
243	0x3e245815	0.16049226
244	0x3e187dde	0.14891765
245	0xbde647d8	-0.11244172
246	0x3d1d4625	0.038396973
247	0x3ca1928e	0.019723203
248	0x3e05ba01	0.13059236
249	0xbdf673c6	-0.12033801
250	0xbe60ee66	-0.21965942
251	0x3e4839a4	0.19553238
252	0x3d493ec6	0.04913213
253	0x3d1cecad	0.03831165
254	0xbdd55502	-0.104166046
255	0x3e5c1263	0.21491389

cls_head.bias f4 [10]
0	0xbc223c9c	-0.009902146
1	0xbd91ff50	-0.07128775
2	0xbddbd6f0	-0.107343554
3	0xbd2fec2e	-0.042949848
4	0xbc9ea281	-0.019364597
5	0x3e1b5ccc	0.15172118
6	0x3dec45f5	0.11536781
7	0x3dad2406	0.084541366
8	0x3ca69833	0.020336246
9	0xbd12e92b	-0.035866898

reg_head.weight f4 [1, 32]
0	0x3dd8dfc6	0.105895564
1	0xbd9c4e1d	-0.076320864
2	0xbd95a541	-0.0730691
3	0xbe20adc4	-0.15691286
4	0xbd0ef00c	-0.034896895
5	0x3af23200	0.0018478036
6	0x3e206193	0.15662222
7	0x3c14a150	0.009071663
8	0x3e1744b9	0.1477231
9	0xbe278759	-0.16360225
10	0x3e020f8f	0.12701248
11	0xbe33b6cc	-0.175502
12	0xbe3221be	-0.17395684
13	0x3e016901	0.12637712
14	0x3d67cf08	0.056593925
15	0xbe0be50f	-0.13661598
16	0xbc869ad0	-0.016431242
17	0xbe1fcab5	-0.1560467
18	0x3dfc1a3e	0.12309693
19	0x3da4db7a	0.08049674
20	0x3b525900	0.0032096505
21	0x3c548350	0.01297076
22	0xbe1f9a30	-0.15586162
23	0xbde02751	-0.10944999
24	0x3d5f36f0	0.05449575
25	0xbe144b67	-0.14481889
26	0xbdb7f1d5	-0.08981673
27	0x3dc195ea	0.09452422
28	0xbd555e7a	-0.052092053
29	0x3e0fe857	0.14053474
30	0x3da9e1fa	0.08295055
31	0x3df67916	0.12034814
