models/rym_grid_c0_s64_e2_t4_r4/conv_transformer_c0_ce_a0p32_l0p16_lr1e-05.pt (torch, 750677 bytes, 40 tensors)

pos_embed f4 [1, 64, 64]
00000000: 7bd8 d6b9 e112 2f3c 79d9 cd3b 7f77 18bc
00000010: 061c 29bc 4fa8 59bc f93f b8bb 87c5 8c3c
00000020: e1cb afbc 7574 5d3d efa8 6cbc af48 453c
00000030: cb4e 603d 3bb7 76bc ba93 1b3c 4b81 483c
00000040: b030 94bc aabc e4ba 1f74 97bb 8211 333d
00000050: 88dd 1cbc d672 4dbc 2894 173b 1612 52bc
00000060: a1d8 363c c968 5cbc 14a1 bdbc 0d17 d0bc
00000070: ccb6 05bd 2862 f23c cd93 483c 802e e43c
00000080: 3087 86bb ad1c 823b 2662 e7bb 4a56 033d
00000090: cfe9 c7bc 614f 31bd b18c 333d 0d2b 7b3c
000000a0: 6824 84bc 17b3 2d3d 29f6 8439 1fe0 d53c
000000b0: db4b f8bc 2523 bbbb e866 06bc f35d 15bd
000000c0: d13a b2bc 6f76 d83a 9e72 a83c bf00 d2bc
000000d0: 1097 153d 5821 6c3d a92a d63c d115 50bd
000000e0: ccc1 fc3b bd2f a9bc 407e 783d a424 8d3c
000000f0: c692 033c 51cb 063b 7fda ab3d f2a8 d63a
00000100: a451 1c3c 30e0 f8bc 9541 10ba 8326 82bc
00000110: 243e 22b9 9cfb 2c3c c2ae 063b 08ce 7a3d
00000120: 8edf 053d dec8 7fbc 04a2 9e3b 52c7 a53d
00000130: ad52 8ebd 1a5f 35bc 9da2 f43c 5d11 ef3a
00000140: 2af2 ca3b e523 eb3a 0435 dc3c 6be5 20ba
00000150: 4fa2 3b3c e130 92bc c29d f03a 12eb cfba
00000160: 1acd cfbd 9361 edbb eb1d 2b3b 5a1c 66bb
00000170: 7970 1b3d bd49 243c b411 3fbc 69e4 0f3c
00000180: 78a2 8bbc bcfc 8fbc d922 6cbb 16ad fdbc
00000190: 2fe3 9c3c d38a 4f3d 8c24 103d b84f f13c
000001a0: f0ac 613b 4dcf 4abc 90c2 ab3c ae68 903b
000001b0: 34c3 c8ba 72c7 19bd 7db3 9abc b5b0 46bd
000001c0: 6c68 963d 842d 6cbb 8809 89bd 944e 443b
000001d0: 522b 0b3b c9c4 863b 69bd bfbc b61e 353d
000001e0: 788b a0bd 7afd 113d c72b 37bd 2231 d53c
000001f0: ab38 73bc 0355 9e3b 95a2 453c b275 a13b
00000200: fc61 ab3c c9cc afbc de10 d5bc 29c1 c2bb
00000210: aeda 22bd 1a9c 113d bd66 db3b e111 85bb
00000220: 3c7e dbbc 55e2 8cbc 10ba 483c ecb9 aeb9
00000230: d816 f1bb b2e0 8dbc 49ac b03c b26c 063c
00000240: a7a2 883c ec1c 313c 4f1b 803b 1a67 ae3c
00000250: 6906 d53b 05a7 c83b ff7c f6bb 909e 66bc
00000260: da96 7dbc 0b0e 9cbc c384 373c 6e7d 0e3c
00000270: 3f69 48bd c669 053c ff0a 85bc e9a7 573c
00000280: bb83 433b 178c 913c 1977 b93a 53af 433a
00000290: 799c 553c 8811 5f3b 532f 02bd 79be 08bc
000002a0: 8e50 bc3c c7fc 873b 6b45 8c3c 8c21 9c3b
000002b0: 735f f73c 3511 a43b 9ef7 a6bb 286f 9cbc
000002c0: 59d7 213c f670 dc3b 6066 063d 781f ecbc
000002d0: 0d08 903c 1729 663d 1e97 053d 5ecd a23b
000002e0: b2d6 7fbc b540 29bd 6905 8eba 9ebb 07ba
000002f0: f26d 083c f064 2ebc c312 23bc 037e 1a3c
00000300: a070 393b e110 003d ac43 883b a9f2 ac3c
00000310: 1a19 d7bc 1e67 5abb 37ea 0b3c ea83 10bd
00000320: 8590 49bd d5e9 883b aee8 0b3c 1df3 d3bc
00000330: 96dd c13c 0da9 9d3c e5f3 9bbc a08c 58bc
00000340: 5dbd 48bc 11c3 81bc 5335 b9bc 4f5e b03c
00000350: 9621 b7bc 03f9 a6bc 141d 0b3d ced7 e539
00000360: 1420 e23c 7b25 ddbb 5cfa e73b 8f4d fbbc
00000370: 7340 babd c91f 71bc b0f8 d93c e61a ad3b
00000380: cf49 ac3c 9006 4e3c 9ba2 d63c da43 3a3c
00000390: 7daa 66bd 5591 73bd ca6f e9bb ac9d 4ebc
000003a0: 6acb e6bc c55d af3d 2b7f 0bbd 6897 abba
000003b0: 2c3a 9fbc 8d03 c83c 2bf9 7e3c 4fc2 c33c
000003c0: cfed b9bc e94f 553d 9994 943d 2585 43bd
000003d0: bcf2 353c 2273 02bc 8636 803d b54a 56bd
000003e0: 45a0 2d3d 1d64 1ebd b178 8c3d 612a a83b
000003f0: 7a84 8dbb f09f d73c 9217 94bc 1f16 49bd
-0.0004097855 0.010685653 0.0062820283 -0.009305834 -0.010321623 -0.013284757 -0.0056228605 0.017184032
-0.021459522 0.05406614 -0.014444574 0.012041255 0.054762643 -0.015058334 0.00949567 0.012237857
-0.018089622 -0.0017451246 -0.004621997 0.04371787 -0.009574302 -0.012539586 0.002312908 -0.012821695
0.011160047 -0.013452717 -0.023148097 -0.025401616 -0.03264503 0.02958782 0.01224227 0.027854204
-0.004105471 0.0039707036 -0.0070612608 0.032064714 -0.02440348 -0.043288592 0.043835346 0.015330088
-0.016130641 0.04240712 0.00025360406 0.026107846 -0.030309608 -0.0057109767 -0.008203246 -0.03646655
-0.021756561 0.0016514788 0.020562466 -0.025635121 0.036521018 0.057648987 0.026143389 -0.050802056
0.007713532 -0.020652646 0.060667276 0.017229386 0.008030599 0.0020567963 0.08391284 0.0016377254
0.009540949 -0.030380338 -0.00055029365 -0.015887504 -0.00015472673 0.010558035 0.002055094 0.061231643
0.0326839 -0.015611855 0.004841091 0.08094658 -0.06949363 -0.011070037 0.029862696 0.0018239428
0.006193419 0.0017939775 0.026880749 -0.00061377016 0.011452272 -0.017845573 0.0018357562 -0.0015862903
-0.10146542 -0.007244298 0.0026110362 -0.0035112114 0.03794906 0.010027346 -0.011661936 0.008782485
-0.017045245 -0.017576568 -0.0036031513 -0.030966323 0.019151298 0.050669502 0.035191104 0.029456958
0.0034435354 -0.012378526 0.020966798 0.00440701 -0.0015316964 -0.03754372 -0.018884415 -0.048508365
0.07344136 -0.0036037872 -0.06691271 0.0029954063 0.0021235538 0.004112814 -0.023405747 0.04421874
-0.078391016 0.035642125 -0.044719484 0.026024405 -0.014845054 0.0048319115 0.012062688 0.0049273605
0.020920746 -0.021459954 -0.02600902 -0.0059434366 -0.03975933 0.03554926 0.006695597 -0.004060969
-0.026793592 -0.017197767 0.012251392 -0.0003332639 -0.0073574595 -0.017319057 0.021566527 0.008204626
0.016679121 0.010810118 0.0039095054 0.021289397 0.0065010083 0.006123426 -0.007522225 -0.01407589
-0.01547786 -0.019049665 0.011201086 0.008696897 -0.048928495 0.008142894 -0.016240595 0.0131625915
0.0029833156 0.017766995 0.0014149874 0.0007464785 0.013037794 0.003403755 -0.031783413 -0.0083461935
0.02298763 0.0041500065 0.017122945 0.0047647413 0.03019688 0.005006934 -0.0050954362 -0.019095972
0.009878003 0.006727333 0.032812476 -0.0288236 0.017581964 0.05619153 0.03261482 0.0049683293
-0.015615152 -0.041321475 -0.0010835353 -0.00051777984 0.008326994 -0.010644183 -0.009953204 0.009429458
0.002829589 0.031266097 0.0041584577 0.021111803 -0.026257087 -0.0033325623 0.008539728 -0.035282053
-0.04921009 0.0041782656 0.008539362 -0.025872761 0.02366523 0.019245649 -0.019037196 -0.013217121
-0.012252179 -0.015840085 -0.022608435 0.021529345 -0.022354882 -0.02038241 0.033963278 0.0004383907
0.027603187 -0.006748853 0.0070794057 -0.030676631 -0.09094324 -0.014717051 0.026607841 0.0052827476
0.021031288 0.012574807 0.026200583 0.011368716 -0.056314934 -0.05946477 -0.007123922 -0.012610834
-0.028173167 0.08562807 -0.034056824 -0.0013091387 -0.019436918 0.024415756 0.015562336 0.023896364
-0.022696404 0.05207816 0.07254905 -0.0477344 0.011105236 -0.00796202 0.062603995 -0.05231734
0.042389173 -0.038669694 0.068589576 0.005132005 -0.004318771 0.026321381 -0.018077645 -0.049093362

conv_stem.0.weight f4 [64, 64, 3, 3]
00000000: d7ec 78bd 5194 68bd 18ba 0abd 9210 4ebd
00000010: fdd2 c4bc a848 113c 326d 5ebd 707c 983c
00000020: 21ee d63c 9b7f 403d 18cc 9abd 3135 63bd
00000030: c0ae 4abd 39a0 81bd b023 42bd e61e 1bbe
00000040: 5ccc 483c f461 febc 12c3 483d 3df1 90bd
00000050: 1ef6 c5bd 7469 17bd e797 91bb 6d79 2d3d
00000060: 9cf0 9abd fd2c d7bb 6d17 9c3d 5bf2 6dbc
00000070: 99a0 a0bb 73cc 9c3c 2be9 653c cdda 1d3d
00000080: 3dc5 653d 0e39 033d d9b5 9c3c 9b1c 933d
00000090: 4bd9 ba3c 2778 d63c 3eae 3e3d 01ed 073d
000000a0: 3de2 493d ed48 e2bc fada 173d 416d 1e3d
000000b0: 2864 6c3c 35ca aabb 9415 70bd 9c20 bbbd
000000c0: 23d3 bb3b 154c 343d cd24 53bd 144c a43c
000000d0: f80c a93d b4ef 70bb 96b8 883b cf21 f03c
000000e0: 9c28 843d 5214 4b3c 98df fabb db25 953d
000000f0: e4d0 0c3d 9c49 413d 4176 60bd 0462 c1bd
00000100: 62c9 f83c 97b8 1a3d b563 b53c 9138 1d3e
00000110: 4efe 983c 496b 513d 0ec3 923d 7ef7 683d
00000120: 1db2 4cbd c974 1a3d cd1b 4ebb cc89 e8bc
00000130: cf0d 603d 0955 763c 0f28 9d3d 521d 053d
00000140: 3f8f 5b3c c578 5dbd 4e25 02bc 59f7 b93c
00000150: 185d 213c 0902 4c3d 5842 683d 4dac 413d
00000160: ef96 3f3d c3a4 ba3d 6c2c a23c d35e 98bc
00000170: dced 833c 7d4c 5f3c a2c5 a03d 02fd 263d
00000180: ec03 31bd 51dd 643d 410b 173d 6b9c 2abd
00000190: 0dbd 83bc 0166 a2bd 4397 2fbd b9cc 183b
000001a0: 5fae ca3c 67b5 363b 28ff 9abc b3da 4d3c
000001b0: 14c3 abbc fac4 893c cd4b c139 8f33 99bc
000001c0: b08d 013d 2078 5abd f8d6 8e3c 6d84 063a
000001d0: 7252 d9bd 2445 453c 31d8 32bd 9383 40bc
000001e0: a1f1 3c3c cd4f 09bc 0eec b03c 38ed 0fbc
000001f0: a6bc 9c39 f7f1 4e3c eaea 3e3c fdf7 103b
00000200: 516e 32bd 52ed 2ebd 37dd cdbc 8f9a 04ba
00000210: 783f 093a 9d0b 0dbc 2838 8bbd ff4d e5bc
00000220: 084c 59bc 2e21 fcbc 12bf 9ebc 05bb 3dbc
00000230: 3a90 b7bc f4c5 35bc 3aa8 5abc 9b05 29bc
00000240: 3327 d1bc f0df 1e3d e6ef 16bd 1761 4a3c
00000250: 3927 c5bc 15b8 85bc 69e9 1e3c 1545 47b9
00000260: 0673 2cbd fc8c bebc f34f ce3c da16 81bc
00000270: b182 563d 5c75 133d 1f94 23bd a788 173d
00000280: cbbf 2cbc 5060 0f3a 8f67 d23a 6ede 27bd
00000290: 56b3 0abd 50e1 ddbc 5db3 693c 78e8 9ebc
000002a0: 8660 e13b 1a6d 453d cd07 db3c 6d12 c13c
000002b0: e271 803d 92c3 26bd e621 37bb 598b 883c
000002c0: 2dbe be3b e056 b63c 099d 41bc 1922 58bb
000002d0: 94ea 5ebd 57a1 6c3c 6d25 463d 8e5b 1f3d
000002e0: b9fc 18bd d93b 70bc ca25 5a3c 0dc9 b23c
000002f0: 39cb 0d3d 1d64 87bc 5b72 633c dd36 aabc
00000300: cf2b 153d 2a34 75bc 37e6 073c 5b44 2f3d
00000310: 9a15 183c 6260 2f3d 4ce3 663c a60a 8fbc
00000320: 960f fdbb ea18 f73b 006c 003c c97a 5bbb
00000330: 24d8 24bc 9330 06bd 1165 a33c bf4e 643d
00000340: ae40 74bc 64e4 18bc 5e35 093d 8044 bb3c
00000350: a186 54bd 9715 cfba 43e2 cb3c dde4 823c
00000360: 7b15 d13c 4ac6 753c 70fc 31bd bbf1 38bd
00000370: 363c ba3c 8066 53bc 382a 513c b2e1 7abd
00000380: 6b44 8dbd 4124 253c 5fab 093d abf3 733c
00000390: b055 ca3b b01f 05bc 6f45 cfbc cfcf 6a3b
000003a0: 4792 053c c114 13bd f7b7 ea3c 585b 7fbc
000003b0: 1de1 003d 9b44 863c 1967 813c 2a50 f03c
000003c0: c75b 3a3c 757a e63c 3b6a 023d cc92 18bc
000003d0: 4c7f bf3b 05e7 433d 8f21 c73b 163f 6ebb
000003e0: 328f a1bc e460 08ba 649d 603d bd9a 7fbc
000003f0: 7c4c ff3c d0b8 95bc c735 c33c 80d7 bcbc
-0.060772743 -0.05678207 -0.03386888 -0.05030877 -0.024026388 0.00886742 -0.054303356 0.018614024
0.026236596 0.046996694 -0.07558459 -0.05547065 -0.04948306 -0.06329388 -0.047397316 -0.15148506
0.012255754 -0.031052567 0.04901416 -0.070772626 -0.09666084 -0.036965802 -0.004443157 0.04235213
-0.07565424 -0.0065666423 0.076216556 -0.014523114 -0.004901957 0.019140458 0.014032642 0.038538743
0.056096304 0.032036833 0.01912968 0.071831904 0.022808691 0.02618034 0.04655289 0.03318501
0.049288023 -0.027622664 0.037074067 0.03867841 0.014428176 -0.0052120932 -0.05861433 -0.09137079
0.0057319566 0.04401787 -0.051548768 0.020055808 0.08254427 -0.0036763968 0.004172395 0.029312996
0.06453058 0.012394981 -0.007656049 0.07282611 0.0343789 0.04718934 -0.054800276 -0.09442523
0.030369464 0.037773695 0.02214227 0.1535361 0.01867595 0.051127706 0.0716611 0.056876652
-0.04997455 0.03770903 -0.0031449676 -0.02838602 0.05470067 0.015034922 0.07673656 0.032498665
0.013400852 -0.054070253 -0.007943464 0.022700952 0.009848855 0.04980663 0.056703895 0.04728346
0.0467748 0.09113457 0.019796573 -0.018599903 0.016104631 0.013629076 0.078501955 0.04076863
-0.04321663 0.055875126 0.036875967 -0.041653078 -0.016081357 -0.07929612 -0.042868864 0.0023315384
0.02474135 0.002787912 -0.018920496 0.012564349 -0.020967044 0.016817559 0.00036868305 -0.018701343
0.031629264 -0.053337216 0.01743649 0.00051314273 -0.10611428 0.01204041 -0.043663207 -0.01175012
0.011532218 -0.008380842 0.021596935 -0.008784585 0.00029895193 0.012630931 0.011652688 0.0022120469
-0.043562237 -0.042706795 -0.025129898 -0.00050584314 0.0005235593 -0.008608726 -0.0679782 -0.027991293
-0.013262756 -0.03077754 -0.019378219 -0.011580233 -0.02240764 -0.011094559 -0.013345772 -0.010316278
-0.025531387 0.038787782 -0.03684988 0.01235225 -0.024066554 -0.016323129 0.009699204 -0.00019003854
-0.042101882 -0.023260586 0.025184607 -0.015757967 0.05237073 0.036000594 -0.03993618 0.036995556
-0.010543774 0.0005469369 0.0016052591 -0.04098361 -0.033862434 -0.027084976 0.014263955 -0.01939796
0.0068779616 0.04819975 0.026737118 0.023568356 0.062717214 -0.040713854 -0.002794379 0.016668009
0.0058210106 0.022258222 -0.011817225 -0.0032979308 -0.05442293 0.014442763 0.048375536 0.038905673
-0.03735039 -0.014662706 0.013314674 0.021824384 0.034617636 -0.01652723 0.013882245 -0.020778114
0.036418732 -0.01496605 0.008294634 0.0427898 0.009282494 0.042816527 0.014092278 -0.017461132
-0.0077228053 0.007540812 0.007838249 -0.0033489934 -0.010061298 -0.032761168 0.019945653 0.05573916
-0.014907999 -0.009331796 0.03349816 0.022859812 -0.051886205 -0.0015799281 0.024888163 0.015978271
0.025522938 0.015000889 -0.043453634 -0.045152407 0.022733789 -0.012902856 0.012766413 -0.061250396
-0.06897815 0.010079444 0.033610698 0.014889638 0.0061747655 -0.008125231 -0.025301663 0.003582943
0.008152551 -0.035908464 0.028652174 -0.015585743 0.031464685 0.016390136 0.015796231 0.0293351
0.0113744205 0.028134564 0.03183959 -0.009312343 0.0058440324 0.04782774 0.0060769985 -0.003635352
-0.019721601 -0.0005202426 0.0548376 -0.015600857 0.0311644 -0.018276602 0.023829354 -0.023051977

conv_stem.1.weight f4 [64]
00000000: b036 823f eb81 813f 8c66 813f 3a8f 7b3f
00000010: 1156 7e3f c47d 833f b358 803f eb54 823f
00000020: 1491 803f 14b5 7e3f e7bd 853f 4e2e 7d3f
00000030: 91cf 873f f5b9 773f 77fa 7e3f 933e 813f
00000040: 2969 7e3f 0272 7f3f 9c7e 803f 9504 813f
00000050: c992 783f 4257 753f fef9 7c3f 1eac 823f
00000060: 0b37 823f cf51 7e3f 0481 803f 9cb9 823f
00000070: 8631 7f3f 4dff 783f 031b 843f 5b8f 793f
00000080: ff79 823f 16b0 7e3f 987f 823f 0a1b 823f
00000090: e856 703f 7f77 7f3f 6512 813f e501 7f3f
000000a0: a086 833f 6c4e 7e3f 0cb0 813f bc32 833f
000000b0: 449b 723f 12f9 7c3f 3e36 853f 7728 793f
000000c0: 7484 833f 0635 7e3f d17c 7d3f 0907 7c3f
000000d0: e7f0 813f b528 803f 9ee6 813f e3e3 7f3f
000000e0: 2db1 833f cfdd 7f3f 2f8a 783f 34a4 813f
000000f0: e887 7c3f d669 823f 2058 783f 4df4 7e3f
1.0172939 1.0117773 1.010942 0.9826542 0.99350077 1.0272756 1.0027069 1.0182165
1.0044274 0.99495053 1.0448579 0.9889878 1.0610219 0.9676812 0.9960093 1.0097221
0.9937921 0.9978334 1.0038638 1.0079523 0.97098976 0.9583627 0.9881896 1.0208776
1.0173048 0.9934358 1.0039372 1.0212893 0.9968494 0.9726456 1.0320743 0.9748437
1.019348 0.99487436 1.0195189 1.0164502 0.9388261 0.9979171 1.0083739 0.99612266
1.0275459 0.9933841 1.013185 1.0249858 0.94768167 0.9881755 1.0407178 0.9732737
1.0274796 0.9929966 0.9901858 0.98448235 1.0151643 1.0012423 1.0148504 0.999571
1.0288445 0.9994783 0.9708585 1.0128236 0.98644876 1.0188549 0.9700947 0.99591523

conv_stem.1.bias f4 [64]
00000000: 9d38 a53c fc06 333c 78ac b43c d397 e6bb
00000010: 2cb0 503d 6046 f83b 81e4 7a3a 56d7 0a3d
00000020: e3e3 43bc 58bf 0f3c 629a 2f3d 80ab f63c
00000030: 99ee d63c 309a 1a3c 4e32 36bc f940 9b3c
00000040: 22e0 463c e8d5 9bbb e3ae 323d 402c ae3c
00000050: c6f7 c9bb e707 673c e45a 203b a32e 9b3c
00000060: e907 f03c 9e49 1f3d c760 6ebc 2d0f 013d
00000070: 0d04 1ebc 01ca b0bc 24d0 d03a 0775 cb3c
00000080: 2e36 503d cf23 1e3c 2153 023d bd24 173d
00000090: 9ddd ce3c 91cf 1f3d ce68 6b3b 7005 423c
000000a0: 2e74 b43c 44b0 903d b410 043a bb15 b63c
000000b0: 838f d63b e552 a0bb 42bc 093d d52c 703c
000000c0: 786b b03c 2365 b23c 28b5 a03c 3d45 203d
000000d0: 487c 253d bda6 bf3b 9a20 153d 53af 813b
000000e0: 7be9 203d 98a9 b43c 21a6 d0bb b980 873c
000000f0: 537e bd3d 9f15 9a3c 481f c7bb 7e7b ac3c
0.020168597 0.010926958 0.022054896 -0.007037142 0.05094926 0.0075767487 0.0009570793 0.033896767
-0.011956188 0.008773647 0.04287184 0.030111074 0.02623682 0.009436175 -0.011120392 0.01895188
0.012138398 -0.004755724 0.043623816 0.021261334 -0.00616357 0.014101005 0.0024468238 0.018943137
0.029300647 0.038888566 -0.014549441 0.031508613 -0.0096445205 -0.021580698 0.0015931171 0.024836076
0.05083292 0.009652092 0.03181756 0.03690027 0.025252158 0.03901631 0.0035920623 0.011842117
0.022028055 0.0706487 0.00050378894 0.022227159 0.0065478696 -0.0048926943 0.033626802 0.014659126
0.02153562 0.021776741 0.019617632 0.03912853 0.040401727 0.005848734 0.036408044 0.003957668
0.039285164 0.022053525 -0.0063674604 0.016540872 0.0925261 0.018809138 -0.006076727 0.02105498

conv_stem.1.running_mean f4 [64]
00000000: 0cf7 18be d0cd 01be b990 903d e7a3 fe3d
00000010: 76ff 34be b533 0cbd 2d29 1cbd 37a9 7abd
00000020: a3a7 39bc 9925 d63d d531 bebe 9661 643e
00000030: cb74 7c3d 4847 463e 8bb8 af3d 2d97 ddbd
00000040: b2d0 71be b9e4 713e 4570 87bd 3af9 01bd
00000050: 603d 87bd 687a 56be c6d2 dabd 9793 9bbc
00000060: 6ef8 6ebe 0249 c33c d9d1 973d ca74 353c
00000070: 0b81 a13e a6a1 e33b 2ba7 183d ea7c 31be
00000080: 670c 203d 318a c2bd 929f 86bd 757d 51be
00000090: ccb7 403d d60e f4bd 051a bcbe 57d0 82be
000000a0: 9b89 75be 9c24 22bc 1011 a4bc 9416 bdbe
000000b0: 428d 213e 7680 1fbe 0cf3 16bd f844 ffbd
000000c0: bdec eb3d 63e6 693e e03a dbbd c2a9 ecbc
000000d0: 6b89 febd b775 97bd d137 7c3e 11e9 ee3c
000000e0: 744a cabd 28e7 35be d10d 8f3e c7cb 423e
000000f0: 1f3e f0bd 549b 65be 62ca 4fbe 44ba 143d
-0.14937991 -0.12676167 0.07058854 0.12433606 -0.17675576 -0.034229 -0.038125206 -0.061196532
-0.011331472 0.1045639 -0.37147394 0.22302851 0.06163482 0.19363129 0.08580121 -0.1081985
-0.23614767 0.23622407 -0.066132106 -0.03173182 -0.06603503 -0.20945132 -0.10684733 -0.018991275
-0.23336956 0.023838524 0.07413072 0.011075208 0.31543764 0.00694676 0.0372688 -0.17332807
0.039074328 -0.09499014 -0.06573404 -0.20458014 0.047050282 -0.11916892 -0.367386 -0.25549576
-0.23978274 -0.009896424 -0.020027667 -0.36931288 0.15776542 -0.15576348 -0.03685288 -0.124643266
0.115197636 0.22841792 -0.10704589 -0.02888954 -0.12428554 -0.07395499 0.24630667 0.02916387
-0.09877482 -0.1776396 0.2794023 0.19023047 -0.11730599 -0.22422534 -0.20292047 0.03631045

conv_stem.1.running_var f4 [64]
00000000: 063c 993d 7de3 f53c 9b1b 443d 091c d63c
00000010: dd33 3f3d a411 3d3d 9dbd 843d b06e 043d
00000020: 6ab8 a73d 668f 4f3d 8828 083d d4fe f73c
00000030: 39b8 f03c b0e9 f03c e41d 013d a03c 243d
00000040: 6985 1b3d bae6 6a3d 4d67 093d 3201 213d
00000050: 5880 083d 3558 243d a35c ee3c 870e 103d
00000060: e236 263d b07d ba3c 6e45 823d 4e13 0a3d
00000070: e3ff 883d 1128 e63c c960 e53c 148f 093d
00000080: 992a 4a3d a034 3e3d 2e90 313d d409 143d
00000090: 89d1 243d 7b00 053d af1f 463d 2dff 623d
000000a0: 0a0c 383d 85e2 393d cc71 2c3d 3583 553d
000000b0: 90e1 203d 8f9c 2a3d cd33 203d 1b1f 193d
000000c0: 68fd 113d 2784 693d 2def 3f3d 6cf6 f33c
000000d0: 9e4a 113d fc7d 6f3d 814d 413d 6173 d53c
000000e0: ea46 2f3d bfdd 333d 10e1 1e3d 8b7c 263d
000000f0: 6855 e93c 501b 203d e059 393d 19b5 043d
0.07482152 0.030015701 0.04787789 0.026136415 0.04668032 0.0461594 0.06481478 0.032332122
0.08189471 0.050673865 0.03324178 0.030272879 0.02938472 0.029408306 0.031522647 0.04009688
0.037969027 0.057348944 0.03354578 0.03930778 0.033325523 0.040123183 0.029096907 0.035170104
0.040579684 0.02276501 0.06360899 0.033709817 0.066894315 0.028095277 0.028000252 0.033583716
0.04935703 0.046436906 0.04335039 0.036142185 0.04023889 0.03247116 0.04837006 0.055419136
0.044933356 0.04538204 0.042100713 0.052127082 0.039277613 0.041653212 0.0391119 0.03738318
0.035642058 0.057010796 0.046858955 0.029780589 0.03547155 0.058469757 0.047193054 0.026055994
0.04279224 0.043912645 0.038788855 0.040646117 0.028483108 0.039088547 0.045251727 0.03239927

conv_stem.3.weight f4 [64, 64, 3, 3]
00000000: ce68 063d ccad ef3c bb73 903c 2b58 2fbc
00000010: cba0 683c fa9c 883c a497 203d c306 50bb
00000020: ad16 e93c e8fd e93c 0221 68bc 0767 8dbc
00000030: b934 203c 48a0 c83b a40d 1a3c f0f2 db3c
00000040: cc65 dfbb 89e2 2b3a 0da6 80bc 343b 9bbc
00000050: aa78 b9bc b847 debb 6035 153c 6589 98bc
00000060: d15d 71bc ae34 933c 37af 96bb f415 583c
00000070: 278a 923c e359 013c 23db f1bc 913f 6bbb
00000080: 3b8a 323d 7f13 c3bc eba4 b0bc a496 fcbc
00000090: e0ed b03c 9b34 6d3d 86be c63c 3359 733c
000000a0: 5687 803c e143 ef3c 28c7 6e3b 52f3 3fbc
000000b0: 1dff 44bd 1370 1dbd badc ac3c 33e9 b23c
000000c0: 38a7 113d 6da2 0abc 229c f7bc 680b 163d
000000d0: 2429 efbc 3f93 09bc 1196 313d c2fe e53c
000000e0: e23c 393d 4a5f 283d e49b ae3c 00cb 71bc
000000f0: 9626 c33c ae97 123d 9bf8 d1bc c641 4f3c
00000100: a7eb 423d 4ec0 963c fb3b 1f3b 03ea 6e3d
00000110: 97c1 d33c 158a a13c f805 2c3b eb73 933b
00000120: ec99 833c efac 78bb d447 aabc 6198 35bd
00000130: b71b 093d e766 113d 4fc4 2a3c 25e6 323d
00000140: c983 413c 779b ac3c 1e4a b9bc f34d e3bb
00000150: a6b5 db3c ccbd a4bc 244c 88bc 7146 f3bb
00000160: 574b 96bc 8559 e23b 6325 2abb ca6f 2f3c
00000170: db5c babc cac1 1f3c b51b 893c 3e4c e2bc
00000180: 4d98 2abb 061b 3a3c 6f78 8cbc 0d08 aebb
00000190: 4719 96bc 71c9 a8bc 2aff dfba a5c0 eaba
000001a0: e2e7 033c 85e6 d93c 6802 033d 5193 6fbc
000001b0: 8396 283c 7d0a 8739 899c 943c f8f4 c3bc
000001c0: 2a8e c23c 58a0 c23c 899c d1bc e87b e43c
000001d0: a2fb b3bc df6f f13c 6e30 d8bc 5f0f 923a
000001e0: 0558 39bc f71b e1ba 642a aa3b 477c fabc
000001f0: f876 c23c 95a1 913c e63b 923c c138 33bd
00000200: ca23 38bd 280b 80bc 96da 273b 5d97 853c
00000210: f665 b2bc 755e db3c 3d9a c2bb e64e 36bc
00000220: 50e6 11bc e517 f93b e60c 493d 8559 8f3c
00000230: 869a 03bc 6b40 6b3c 5714 1a3d d37c 4e3c
00000240: 672f 49bd f40e edbc 722a 073d a61e 3fbd
00000250: 9856 1abd 0152 193d f1c4 493c 872e cc3b
00000260: ebb9 8bbc 85fd 033d 8051 a4bc 0240 21bd
00000270: f345 eb3b 182c 92bc 9156 f7bc 8744 d8bc
00000280: c249 00bb 6688 cbbc a2d0 1dba ae4b 77bc
00000290: e35b 08bc 9d4d 97bc 947c 763b fa70 8bbb
000002a0: d43b 4a3d c206 823c 9d91 a2bb 086c 65bd
000002b0: da63 693c 0664 4cbc 824e e1bc 2957 90bc
000002c0: 5d28 ab3c e7ba 9abb 4169 923c a9be 8cbc
000002d0: 6641 813a ff1e f13c 348b 69bc 4819 f63b
000002e0: 7f20 ffbc e421 69bb b5ec 12bd 62c6 f6bb
000002f0: 2620 553c 8153 a4bb b2cc 03bd ff27 0fbc
00000300: 1b20 a5bb d570 c93c d5e9 843c 8217 3e3c
00000310: b3c7 57bc 476c de3b 4d58 0c3d d8b6 f73c
00000320: d93c 09bc 8383 3a3c 93d6 033d 2296 073d
00000330: 1892 153d 4eb5 923c 791f 1b3d faec 47bc
00000340: 330b 0bbd 7180 ebbc 94a2 873c 83bd 893c
00000350: 96a0 233d f73c a1bc cab5 f13b 60fc fe3c
00000360: 2d3c 983b b1bb cf3c 08f8 91b9 df07 90bc
00000370: cde7 0a39 28c6 ebba ce5c 95bc 7d48 b4bc
00000380: a031 053d 7461 86bc 004b ba3c a188 383d
00000390: 1332 f13b 9761 9a3c 7052 7f3d ebf8 e33c
000003a0: 3076 1d3d 8f04 cf3c 076e d1bc 74d2 d4bc
000003b0: 064d 103d 792a b43b 9d76 893c 61e9 903c
000003c0: eba3 ab3c 2d36 2abc 8122 e63c 093b 313d
000003d0: 098d 3c3d f47f b5bc 1238 81bc 754b f73c
000003e0: f2f5 463c f035 6dbc 9542 c4bc bce4 e43b
000003f0: 9357 2ebb 72f0 2abc d9d6 15bd b655 853c
0.032814793 0.029257677 0.01763331 -0.010702173 0.014198492 0.016676415 0.039207116 -0.0031742312
0.028453195 0.028563455 -0.014168026 -0.017261041 0.009778195 0.0061226226 0.009402666 0.02684924
-0.006817555 0.00065568887 -0.01570418 -0.018949129 -0.022640545 -0.006783452 0.009106964 -0.018620202
-0.01473184 0.017969456 -0.004598524 0.013188828 0.017888142 0.007894966 -0.029523438 -0.0035896043
0.043588858 -0.023813007 -0.021563014 -0.03083355 0.021597803 0.057911497 0.02426077 0.01485281
0.015689533 0.029207172 0.0036434624 -0.011715727 -0.048094857 -0.03843696 0.021101344 0.021839714
0.035559863 -0.008461577 -0.030225817 0.03663197 -0.029194422 -0.008396923 0.043356005 0.02807558
0.045224078 0.0411065 0.021314569 -0.014757872 0.02382211 0.035789184 -0.02563124 0.012649959
0.047588017 0.018402245 0.0024297226 0.05832864 0.025849147 0.019719163 0.0026248675 0.0044999025
0.016064607 -0.0037944873 -0.020786203 -0.044334773 0.033473697 0.035498526 0.01042278 0.043676514
0.011811205 0.021070225 -0.02261835 -0.0069367825 0.026820015 -0.020110033 -0.01663787 -0.0074241688
-0.018346472 0.006907644 -0.0025962226 0.010707805 -0.022749355 0.009750793 0.016736845 -0.027624246
-0.002603072 0.011358982 -0.017147271 -0.0053110183 -0.0183226 -0.020603867 -0.0017089595 -0.0017910196
0.008050891 0.026599178 0.031984717 -0.014622525 0.010289791 0.0002575702 0.018141048 -0.023920521
0.02374943 0.023758098 -0.025587337 0.027891114 -0.021970574 0.02947229 -0.02639028 0.0011143497
-0.011312489 -0.0017174472 0.0051930416 -0.030576838 0.02373837 0.017777244 0.017850827 -0.043755297
-0.044956006 -0.01563032 0.0025612465 0.016307527 -0.021777134 0.026778439 -0.005938797 -0.011127209
-0.008905008 0.0076017254 0.049084567 0.01749874 -0.008032447 0.01435862 0.037617054 0.012603003
-0.049117472 -0.028937794 0.032999463 -0.046660088 -0.03768024 0.03743172 0.012315021 0.0062311324
-0.017056426 0.032224197 -0.020058393 -0.039367683 0.0071799695 -0.017843291 -0.030192645 -0.026399864
-0.0019575213 -0.024845313 -0.00060201634 -0.015093727 -0.008322689 -0.018469626 0.0037610875 -0.004255411
0.049373463 0.015872363 -0.004961206 -0.05601123 0.014244998 -0.012475019 -0.027503256 -0.017619686
0.02089327 -0.0047219875 0.017872455 -0.017180758 0.0009861409 0.029433725 -0.01425438 0.007510338
-0.031143425 -0.003557318 -0.035870273 -0.0075309733 0.013008153 -0.0050148373 -0.032177635 -0.008737563
-0.0050392277 0.024589935 0.016224781 0.011602284 -0.013170171 0.00678781 0.034263898 0.030238554
-0.008376324 0.011383894 0.032187056 0.033102162 0.03651628 0.017908718 0.03787181 -0.012202496
-0.033946227 -0.02874777 0.016557015 0.016813999 0.03994807 -0.01968239 0.0073764073 0.031126201
0.0046458454 0.025358053 -0.00027841353 -0.017581878 0.00013247058 -0.0017988132 -0.01823273 -0.022007221
0.03251803 -0.016403891 0.02274084 0.045052174 0.0073607056 0.018845363 0.062334478 0.027828654
0.03844279 0.025270728 -0.02556516 -0.025979258 0.035229705 0.005498227 0.016780192 0.017689409
0.020952186 -0.010388893 0.028092625 0.04326919 0.04603294 -0.02215574 -0.015773807 0.030187348
0.012143599 -0.014478192 -0.02395753 0.006985275 -0.0026602491 -0.010433303 -0.036581848 0.016276222

conv_stem.4.weight f4 [64]
00000000: 536b 803f 147d 813f 0866 813f e1bd 7f3f
00000010: 33d5 7e3f ec8b 7e3f e3a8 803f 49be 7e3f
00000020: 38c8 823f 79b4 7f3f a234 7f3f 2a02 7e3f
00000030: fe3d 803f 8003 7e3f eec8 7f3f 4bf3 803f
00000040: 9d2a 7f3f f4d1 803f 58f2 7e3f ec39 803f
00000050: e392 803f 79c5 7f3f f12c 803f 5870 803f
00000060: 5cb8 7e3f da08 803f 29e1 7f3f 9cef 803f
00000070: 0a7d 7e3f d973 803f a4c1 7f3f 754c 7f3f
00000080: 090f 803f db22 7f3f 0b12 7f3f 67bf 803f
00000090: 00cb 833f 9645 7f3f 4fbd 813f 0d83 7f3f
000000a0: 53d5 7e3f 6f29 803f a26e 7f3f 53d7 7f3f
000000b0: b5ff 7f3f 77bc 7f3f d6f0 7f3f b328 803f
000000c0: 741e 803f 0eaf 7f3f 21eb 7f3f 5fae 7f3f
000000d0: 02ec 803f cc9c 803f 7546 803f f341 803f
000000e0: 4814 7f3f a131 7f3f 5e99 803f ac25 823f
000000f0: dbc7 7f3f 6055 7f3f 0ab0 7e3f 730d 803f
1.0032753 1.0116296 1.0109262 0.9989911 0.99544066 0.99432254 1.005154 0.995091
1.0217352 0.99884754 0.99689686 0.9922205 1.0018919 0.9922409 0.9991597 1.0074247
0.996744 1.0064073 0.9958854 1.0017676 1.0044826 0.99910694 1.0013715 1.0034285
0.9950006 1.0002701 0.9995294 1.0073123 0.99409544 1.0035354 0.9990485 0.9972604
1.0004588 0.9966256 0.99636906 1.0058411 1.0296326 0.99715555 1.0135897 0.9980934
0.99544257 1.0012645 0.9977819 0.99937934 0.9999955 0.9989695 0.9997686 1.001242
1.0009294 0.9987649 0.99968153 0.99875444 1.0072024 1.0047851 1.0021502 1.0020126
0.9964032 0.996851 1.0046804 1.0167747 0.9991433 0.99739647 0.99487364 1.0004104

conv_stem.4.bias f4 [64]
00000000: a9de 16bc abbe a1bb 2c13 1f3b c477 85ba
00000010: a33c 6bbb 9319 12bc f628 fabb 0da4 86bb
00000020: e431 493c 8804 b1bb 3d06 cdbb 9405 c9bb
00000030: 6150 19bc 527c e4bb 4e72 dfba aca5 bfba
00000040: ec18 9ebb 24a3 a93a 58a7 a2bb 512d 11ba
00000050: 8fd5 74bb 83f3 fdbb 7212 8abb 577c 97b9
00000060: ed40 1cbc 9d5e 4cbc 2875 f4bb ac7b 50ba
00000070: 8fc8 3cbc d45c c0ba cd81 b4bb 3450 ddbb
00000080: 88b6 ab3a 8ecf 18bc 7ec2 05bc a140 0e3b
00000090: 1d8b 923c 8262 16bc bbaf ab3b 0c6b 9cbb
000000a0: d81b a1bb d0b1 89bb e106 debb 74b0 c6bb
000000b0: 9fd8 e139 7342 a5bb 898a d9bb c780 62bb
000000c0: 8f83 f3ba 24eb b8bb bbbf a4ba 4602 4ebb
000000d0: 5114 1fbb d809 d839 36f0 cb3b 2f3f 673b
000000e0: 5ebe e6ba 0fb3 87bb 7687 6a3a 610e 973b
000000f0: 02d2 c5bb 6432 21bc b122 c2ba 3af2 bbbb
-0.00920836 -0.0049360595 0.0024272902 -0.0010182788 -0.0035894297 -0.00891723 -0.0076342775 -0.004108912
0.012279961 -0.0054021515 -0.006256847 -0.006134698 -0.009357543 -0.006972828 -0.0017047615 -0.0014621518
-0.0048247483 0.0012942296 -0.0049637966 -0.00055380637 -0.0037358736 -0.007749976 -0.0042136246 -0.00028893605
-0.009536964 -0.012473729 -0.007460255 -0.0007952999 -0.011522426 -0.0014676102 -0.0055086375 -0.0067539457
0.0013100663 -0.009326829 -0.008164046 0.0021706002 0.0178886 -0.0091787595 0.0052394546 -0.004773503
-0.0049166493 -0.004202105 -0.0067757224 -0.0060635153 0.0004307674 -0.0050433218 -0.006638829 -0.003456162
-0.0018578636 -0.0056432653 -0.0012569347 -0.003143446 -0.0024273584 0.00041206065 0.0062237037 0.0035285463
-0.0017604341 -0.0041412185 0.0008946577 0.0046098684 -0.006036998 -0.009838674 -0.0014811364 -0.0057356628

conv_stem.4.running_mean f4 [64]
00000000: 4c79 253f 569e 943e 7668 ca3d 6663 aebd
00000010: c1e3 2c3d fd8e 4a3e 3d74 693e dbbf c93e
00000020: 7768 bf3c 929e fc3d 0098 163e fa97 70bd
00000030: e4c0 f8be a0d3 003d 87c0 b43d 2c6e eb3d
00000040: 2e3d b0be 4926 babe 7e8a ca3c 6fc0 21be
00000050: 5db1 26be 747b 3ebd 0022 adbe 9a01 583d
00000060: 4f46 b7bd 6777 da3e 644d d63e 9ccd 1e3e
00000070: fe2c b33e 49c0 d03d 28b1 8d3e b999 fb3e
00000080: ce58 6dbd 4af4 e8be 98cb a6bd ec58 a53c
00000090: 550f 7e3d 77d5 a13e 5202 66bd 85a6 b03e
000000a0: bc81 493d a030 a23d b49d 5dbd 4cae 6abe
000000b0: 88b5 b8be 012f 103e 9647 de3d 290e 03be
000000c0: bb68 a63e fa34 8dbe 1f3f c3be 9510 57be
000000d0: 52db 97bd 9c9f 0e3e 6fd1 aabe a125 b1be
000000e0: 5bc1 d1bc 0730 283e 710d 993e c314 bcbe
000000f0: 6317 08bc e95c 893e c751 263b 8d97 143e
0.6463821 0.2902705 0.098832056 -0.085150525 0.04220939 0.19781108 0.22798248 0.39404187
0.023365242 0.123349324 0.14706421 -0.058738686 -0.48584664 0.03145182 0.08825784 0.11495623
-0.34421676 -0.36357334 0.024724241 -0.15796064 -0.16278596 -0.046504453 -0.33815002 0.052735902
-0.08948957 0.42669222 0.4185592 0.15508121 0.34995264 0.101929255 0.27674222 0.4914072
-0.05794602 -0.45498878 -0.08144301 0.020184003 0.06202634 0.31608173 -0.056154557 0.34502044
0.04919599 0.07919431 -0.054105476 -0.22918051 -0.36075997 0.1408043 0.10853498 -0.1279837
0.32501778 -0.2757948 -0.38134095 -0.2100242 -0.07414879 0.13928074 -0.3336291 -0.3459902
-0.025604894 0.16424571 0.29893067 -0.3673459 -0.008306357 0.26828697 0.0025378333 0.14510937

conv_stem.4.running_var f4 [64]
00000000: 8e8b df3d 348f de3d ace3 ee3d 87dc f23d
00000010: bdda d53d 8c41 073e 247a d03d 0b75 073e
00000020: 4fb5 013e 7a6f 243e 772d c23d 9bed 033e
00000030: 87fc 543e f4d4 e93d 0a02 ce3d 9d33 d03d
00000040: 3c72 783e 307b 1f3e 8d90 003e 7870 d53d
00000050: 8e58 093e 987c d53d 3c23 1e3e 06e4 113e
00000060: bdf5 d93d 8741 e83d 3d1e 163e 546c 083e
00000070: ee65 c43d 1db1 1e3e 0022 ee3d 5d18 0a3e
00000080: c066 e53d 44fd 1b3e 1f95 0f3e 3c9a ee3d
00000090: f5b0 013e 4e40 083e f2cf 043e 373d 003e
000000a0: 613e bc3d 7cd0 b73d a43c 113e fdd4 263e
000000b0: c5d4 e93d 2a0b 513e 3839 323e 37b9 e63d
000000c0: 9a9c e93d b40c c13d 9529 e93d 0c85 343e
000000d0: 3f8d 4e3e 6080 163e 86e4 be3d af9e ed3d
000000e0: 85ed 023e 16a2 063e a0bb 0b3e f79a e53d
000000f0: 4710 b83d b5ad da3d 4886 cf3d ac64 303e
0.1091529 0.108671576 0.11664519 0.118584685 0.10442112 0.13208598 0.101795465 0.13228242
0.1266682 0.1605815 0.09481328 0.12883608 0.20799457 0.11417571 0.10058983 0.101660945
0.24262327 0.15574336 0.12555142 0.10421842 0.13412687 0.10424155 0.15443128 0.1424714
0.10642574 0.11340623 0.14659972 0.13322574 0.09589754 0.15497251 0.11627579 0.13485856
0.11201239 0.15233332 0.14021729 0.116505116 0.1266516 0.1330578 0.1296995 0.12523352
0.09191585 0.08975312 0.14183289 0.16292186 0.11417536 0.20414415 0.1740464 0.11265796
0.114068225 0.09426251 0.11384884 0.17628878 0.20171069 0.14697409 0.09320931 0.11602532
0.12785919 0.13147768 0.13645792 0.11211198 0.0898748 0.10677663 0.10133034 0.17225903

proj.weight f4 [64, 64, 1, 1]
00000000: 86a2 9bbd b66e 973d 556c cc3d 4d69 8cbd
00000010: f147 7cbc faaf bcbd dea6 193d 128c 05bd
00000020: a8b6 023e 6502 82bd cabf f73c 6005 ccbd
00000030: 9412 963d a784 b3bc aaa7 a43d b6a4 e93b
00000040: a06a 9a3d 5dc5 c43d 1fda 933d 8ccc 7a3c
00000050: 8184 c63d dd90 cf3b 3fb5 e4bd e0aa d73d
00000060: 799f e23d e48f b13d d828 d5bd effe a4bd
00000070: df8f 963d da37 2b3d 2cd0 c6bd 204e d2bc
00000080: 5dc2 d13d 09bb 14bd d2fe 19bd 26e6 523d
00000090: 25cb 77bd 6ca5 1f3d 0802 b3bd 6021 b6bb
000000a0: 1654 b6bd d5aa b1bb 3042 c5bd d79e 813d
000000b0: 373a abbd 5789 f0bd 1d37 843d cd4e e4bc
000000c0: 9da1 f53d 005d 6f3d ab15 77bb cc1d d1bc
000000d0: 59b3 3cbb 534b 40bc a1f8 a3bc 8c78 d63c
000000e0: 6857 f1bc 4dde 86bc f7e8 c2bd 4057 ef3d
000000f0: ecbd f6bd fd56 0b3c fb74 023e 6898 e03d
00000100: 7004 ee3d eb62 05bd e155 513d 7876 26bd
00000110: f599 d1bd 8771 d73d 940c f93d 819d 293d
00000120: d52d b43c 33e4 3cbd a0c5 613d 684e a53d
00000130: a25c 19bd 1860 1fbd 08b3 b3bd e8f6 283d
00000140: a62e 203c 38f6 183b c8e2 d53d 8641 9abc
00000150: 51cd 2c3c 37ab f03b 3a59 d93d 9d99 f43d
00000160: a603 be3d ddb2 55bd 1149 a2bd 04fa f4ba
00000170: 4f6c 363d aefe f6bc eaf6 d8bd 3a26 ab3d
00000180: fd61 94bc 57bd 55bd ee29 dc3d 60eb 36bb
00000190: 3d16 f6bd 7880 aa3d 861f bcbc 2e0d 56bd
000001a0: b53e 3a3d 0f84 a43d f151 503c 7b0d 983c
000001b0: 0dd7 c2bd 8a62 8c3d a650 13bd 8ba4 82bd
000001c0: 28ce a93b e894 f9bd 2ebd c13c 09f8 ca3d
000001d0: 14e2 923d 1f9d adbd d05a 623c c1e9 c23d
000001e0: 3d98 61bd 7132 033d fee1 a0bd 3dca 17bc
000001f0: 2f85 163d 0fa3 493d 5b28 833d c379 dabd
00000200: d4d1 0bbd 9e7f 0bbc f341 3c3d 97ce 933d
00000210: 8cb8 a9bd 4a02 553d 851d ca3a 765e 21bd
00000220: 933d 73bb 77b5 45bc 2bd9 213d 9195 7dbd
00000230: 28d5 7b3d 9639 ec3d 8983 eebc f6e3 e43d
00000240: 05c9 fdbd 726c ecbd 3e7e dabd ef51 7bbc
00000250: 5a58 f9bc 6002 bb3d 7d57 f83b 2e65 253c
00000260: 5068 f73d 2fa9 e83d 455e 7ebd 29e6 663b
00000270: b584 803d b5f0 97bd 171b 2a3d d89a f13d
00000280: 639a c43d f725 dc3d 1de4 b1bd 0313 a8bd
00000290: 20c7 ef3d cdae d7bd 13ec 003e 4269 3f3d
000002a0: 645e 483d d448 c6bd 4cf2 fa3b 30a4 efbd
000002b0: d972 dabd e2d8 81bd 0960 9ebd 9451 843d
000002c0: d247 1cbc 71ad 203d b92f cdbc 6da5 663d
000002d0: aecc d3bd e953 293d 63fe d83c cdf2 13ba
000002e0: de3f b4bd 7a5e 733c 5fbd 78bd ad73 e5bd
000002f0: d3ed bd3c 7a6f ff3c c483 233d e175 a33d
00000300: c8ef 9dbd e7a4 853d becb 923c 37b5 203d
00000310: 06fc 263d d2e1 a13d 99f9 eebc 4b4c b43c
00000320: 19d5 0a3d 9ffc 01bd 819e 123d 66d9 cdbd
00000330: 2cda 88bc 1b66 24bd 7536 f63d fc9b adbd
00000340: 9e2d b13d c58a cb3d 0f26 b2bc a927 103d
00000350: abad 8c3d 04b6 8d3b e030 cebc 42d6 3fbc
00000360: ddbe f13d 44f7 953c c06c bd3c 4fcd 97bd
00000370: dfef 9fbd 4f77 dbba 4a9b b7bd 1d98 c9bd
00000380: e48a 91bd 6bc6 a03d a381 3f3d ae8d 613d
00000390: 5d39 db3d 43df bf3d 13e8 fb3c e996 24bd
000003a0: dfff 59bb 9e18 f43d 31ce 82bd 8aa6 d8bd
000003b0: 1906 b83c 984e 9ebd 96a4 babd d11a 753d
000003c0: 31e9 acbd 2615 fdbd d9f0 4a3d dee2 d6bd
000003d0: c59c cdbd 89f9 ba3c 8d05 debd bc98 0a3e
000003e0: 68af 03bd cd07 b6bd 4246 e93d c42d 033c
000003f0: 8706 d53d d95b 8abc 9007 dd3d 9f50 f9bc
-0.07599358 0.07394163 0.099816 -0.06856022 -0.015398012 -0.09213252 0.037512653 -0.032604285
0.1276499 -0.06348113 0.03024282 -0.09961963 0.07327762 -0.02191384 0.08039792 0.007130231
0.07539868 0.096079566 0.07219338 0.015307557 0.09693242 0.0063344077 -0.111673824 0.10530639
0.11065573 0.08670023 -0.10408181 -0.08056437 0.0735166 0.04180131 -0.097076744 -0.025672019
0.1024215 -0.036311183 -0.03759653 0.051489018 -0.060496468 0.038976118 -0.08740622 -0.005558178
-0.08902757 -0.005421976 -0.09631765 0.063291244 -0.08360713 -0.117449455 0.064558245 -0.027869606
0.11993716 0.0584383 -0.0037702124 -0.025526904 -0.0028793423 -0.011736709 -0.020016016 0.026180528
-0.029460624 -0.016463423 -0.09517091 0.116865635 -0.120479435 0.008504626 0.12739937 0.10966569
0.1162194 -0.03256504 0.05110729 -0.040640324 -0.10234443 0.105197005 0.12160602 0.041409973
0.02199451 -0.046116065 0.05512011 0.080715954 -0.037441857 -0.03891 -0.08774382 0.041251093
0.009776747 0.0023340117 0.10443646 -0.018830072 0.010546998 0.007344629 0.10612722 0.11943362
0.0927804 -0.05217253 -0.079240926 -0.0018690233 0.044536885 -0.030150738 -0.1059397 0.083569005
-0.01811313 -0.05218252 0.10750185 -0.002791129 -0.1201596 0.08325285 -0.02296425 -0.052258663
0.04546996 0.08033001 0.012714849 0.018561115 -0.09513674 0.06854732 -0.035965584 -0.0637904
0.0051820464 -0.12186605 0.023649778 0.0991059 0.07172027 -0.08477234 0.013815597 0.09517241
-0.055076826 0.032030527 -0.078556046 -0.009264526 0.036748108 0.04922777 0.064041816 -0.106677555
-0.034135655 -0.008514313 0.04596133 0.07217138 -0.08287153 0.052004136 0.0015420174 -0.039396726
-0.0037115559 -0.01206719 0.03951375 -0.061910216 0.06148258 0.11534421 -0.029115455 0.111762926
-0.12391857 -0.11544122 -0.1066861 -0.015339359 -0.030437637 0.09131312 0.007578789 0.010094924
0.12080443 0.11360394 -0.06210162 0.00352324 0.06275312 -0.07418958 0.04152974 0.11797112
0.095997594 0.10749429 -0.08686087 -0.08206751 0.11707902 -0.105313875 0.12590055 0.04673124
0.048918143 -0.096818596 0.0076582786 -0.11701238 -0.10666437 -0.06340195 -0.07733161 0.06460872
-0.009538608 0.039227907 -0.02504717 0.056310106 -0.10341774 0.04133979 0.026488489 -0.0005643785
-0.08801244 0.014854068 -0.060727473 -0.11203704 0.023184692 0.031181086 0.039920583 0.07981468
-0.0771175 0.06525593 0.017919417 0.03923532 0.040767692 0.079044 -0.029171752 0.022009036
0.033894632 -0.03173506 0.035795692 -0.10051231 -0.016705595 -0.040136438 0.120221056 -0.08477017
0.08651279 0.099385776 -0.021746663 0.035194073 0.06869062 0.0043246765 -0.02516979 -0.011708798
0.118039824 0.018306382 0.023123145 -0.074122064 -0.07809424 -0.0016743931 -0.08965166 -0.098434664
-0.071065694 0.07850345 0.04675449 0.055066757 0.107043006 0.09368756 0.03075031 -0.04018298
-0.0033264083 0.11918758 -0.06386984 -0.1057864 0.022463845 -0.07729834 -0.091134235 0.059840027
-0.08442915 -0.12357549 0.049546096 -0.1049249 -0.10039667 0.022824066 -0.108409025 0.13534826
-0.032149702 -0.08888207 0.11390354 0.008006517 0.104016356 -0.0168895 0.10792458 -0.030433951

proj.bias f4 [64]
00000000: 0b0e ebbd 172f afbd 4292 b5bd ce1f 7abd
00000010: c3ee b63d ab08 c0bb a65e c13c 5c48 5dbc
00000020: f72f 9a3c 8b6b 9dbd 0245 483d 0f1f a3bb
00000030: 2f67 133d c516 4a3d 65c4 d5bc bd0c 5bbd
00000040: 2494 143d 744f 44bd 5756 b9bd f37a e3bc
00000050: 2888 7dbd f157 39bb 840f 123d 61c3 6cbd
00000060: e647 c03d b368 c2bc faa7 073d 3573 333d
00000070: 0ecb 593d e4d3 3e3d 182e e23d f937 273d
00000080: 08cc f13d ec82 ae3d 0a5c babd 5332 5cbd
00000090: bf72 bd3d e3af f23d de17 c7bd 36f6 96bd
000000a0: f172 b33d 5ab9 2c3d 0fd6 fc3b 931c 7bbd
000000b0: 2fb2 86bd e74c 0ebc 7507 22bd 1eb6 6dbd
000000c0: 3850 78bd e62f a53d d7de 4d3c 346a 41bd
000000d0: 4fbc cabd 25cd bf3d 2283 553d 6b7c 413d
000000e0: 1372 de3d fa84 3fbd a830 9abd 26ce a13d
000000f0: c18a 56bd 50cd c8bd cc8f 8cbc 05e9 a4bd
-0.11477288 -0.085539035 -0.08865787 -0.061065488 0.08932259 -0.0058604083 0.023604702 -0.013506021
0.0188217 -0.07686528 0.048893936 -0.0049780677 0.035987075 0.04933812 -0.026094625 -0.053478945
0.03627409 -0.047927335 -0.09049671 -0.027768588 -0.061897427 -0.0028281177 0.035659328 -0.057803515
0.093887135 -0.023731565 0.03311918 0.04381104 0.053172164 0.046588793 0.11043948 0.040824864
0.11806494 0.08521065 -0.09099586 -0.05375893 0.09250402 0.11849954 -0.09721349 -0.0737118
0.08762158 0.042168953 0.0077159475 -0.061306547 -0.065769546 -0.008685327 -0.039557893 -0.05803501
-0.060623378 0.080657765 0.012565336 -0.047220424 -0.09899198 0.093653 0.05212701 0.047237795
0.10861602 -0.046757676 -0.07528812 0.07900648 -0.05237842 -0.09804785 -0.017158411 -0.080522574

encoder.layers.0.self_attn.in_proj_weight f4 [192, 64]
00000000: 8296 1c3e d0d8 96bd 4000 00be 9be2 263d
00000010: dbce 153d 961d 543e 31db 213d 0bfe d9bd
00000020: 22d6 0e3d a0bf 133d 8e39 0b3d a1d3 43be
00000030: fb4d 02bd 7cab 2f3d 060f 5fbd ec41 623c
00000040: ab96 d83d 064f 603c 2213 8e3d b938 21be
00000050: 7f06 3e3e 2c56 46be d987 923d 703d e43d
00000060: c340 f0bc f944 683c f319 f23d d487 26bd
00000070: 0eae b5bd 6955 533b ab3c fabd f429 7b3d
00000080: b04c e3bd 7638 18bc 37cf 44be 02e7 5e3d
00000090: 0d69 f93a b9a5 323d 8618 a5bd fd2a 42bc
000000a0: 0514 0ebe 48f9 e03d 23f5 19be 45a4 0bbe
000000b0: e12e 4a3d 45e9 10be cc07 f3bc ad0a b03d
000000c0: bff0 d0bd d640 19be 40cf 31be 3993 0f3e
000000d0: bc23 21bd ddd6 a6bd 7599 b93c dfcb d7bc
000000e0: 8db7 5d3d baae 2a3e 782b b9bc a117 acbd
000000f0: f378 413d e5ca 4cbe 7c06 e2bd 40c6 003e
00000100: 7ca9 303e 45bf 453e 529c 5c3a 06ee 2d3d
00000110: c4e1 6cbd 2b7d ed3c c642 ffbd f334 ffbd
00000120: 033d 9bbd 454f 3dbd 6ea6 ac3c 5c55 2e3d
00000130: 3609 0e3e 070d 3d3d 79ee 353c 869f ffbd
00000140: 8751 c8bd cfc5 84bc e35c 52bd 103f 93bd
00000150: 4478 ab3d 6265 0cbd 46d8 003e 1c64 053d
00000160: b75a 363e 1be4 96bd 4bdb 2d3e aec2 463d
00000170: ce5c 39bd 5a91 d33c 1c54 3b3d 0322 393e
00000180: 928b e73d b252 d93b 5282 45bd 317c dbbd
00000190: 4b9a 21be 6b10 00be 2cc4 513d cf0e a73d
000001a0: bff3 253e b97c c93d d3b3 0d3e 895b c6bd
000001b0: dd6c 513d d735 07bd 4c96 72bd fc22 0d3e
000001c0: e63a 46bd 609a 10be 211a 623d d388 e83d
000001d0: 4fe6 e53d 06dd 9abd f568 133e 3360 eb3d
000001e0: d0eb 7c3d 4ac4 4cbd f376 993c 3bf6 1cbe
000001f0: f397 bcbc c15b 34ba c638 fdbc 9a34 223e
00000200: 051b 673d 4e01 12be 73bf 113e bf92 60bc
00000210: 1781 17be 2ddd b33d b1cb 7ebc 3061 b3bd
00000220: eea9 363e 13db bfbd c5a6 b13d 4b98 453e
00000230: e75a b73d 594a db3d 23ca dabd eaff c03d
00000240: b44d 7e3d d12f dc3c c430 16be 74a7 9ebc
00000250: 21e0 bcbd 8ecf 003d 8e9b 03be 17b2 f7bd
00000260: f00f ecbd c547 963b c446 51be 17d9 81bc
00000270: 16f5 df39 0791 dabc f835 043e dd82 9dbd
00000280: fd90 88bd 0e9a 2bbe ef51 343d c63b 2e3e
00000290: 0a10 043d 59ee 133c 9e3e 0bbe 5e6c 23be
000002a0: 7120 29be 05b3 f43d b82c b7bd ff1b 143e
000002b0: f273 493d 11ab d0bd 74c3 0fbe 5bb1 95bd
000002c0: a0f0 80bd aea2 d9bd 089f 78bd 074c ecbd
000002d0: e9c9 47bd 26f7 2e3d 84a3 a0bd 2223 27be
000002e0: 3abc 413d f40f 8d3d 2b84 173e 3e6b d43d
000002f0: 3245 f13d 32df 363d da38 80bd 2e81 073d
00000300: d35c 2fbe c1d7 d5bd 71b3 d7bd 5180 12be
00000310: e791 57bc 43b5 82bd 3059 b1bc 9e5e 25bd
00000320: 266f 1dbc 0e59 453e ce7d 19be 4aca a13d
00000330: fd05 f4bd 92eb 173e f96e 9c3d eb7d 5b3c
00000340: b573 35be 88ac 693b f493 1e3d 358f da3d
00000350: 474c cbbd ebe2 47bb ddb8 5f3d 94ed 87bd
00000360: 5537 7fbe 9eff 153e 69dc 23be 3ef8 f13c
00000370: 77f0 9fbd f533 47be 3834 893d 9cff 273c
00000380: 3f27 cf3d d885 c4bd 5cf1 fd3d ed43 9d3b
00000390: 7cf0 a53b 4358 47be d228 ddbd f4f2 46be
000003a0: c317 973d b1aa 273e c3c8 a03c 9223 e4bc
000003b0: 11a3 ca3d 82b3 32be 1023 313c 6e84 1bbe
000003c0: c8b7 d0bd 6625 783c f76b 203d c7f0 debc
000003d0: 0b39 f7bc db36 0dbe 71a7 93bd dc0a 153c
000003e0: b13e d93d f676 03be ac54 ebba a5b6 3abd
000003f0: 1ed4 e23d 755f 94bd bca4 8dbb 7a42 e4bd
0.15291789 -0.073655725 -0.12500095 0.04074345 0.036574226 0.20714411 0.039515678 -0.10644158
0.03487218 0.03607142 0.033990435 -0.19123699 -0.03181265 0.04288815 -0.054457687 0.013809662
0.10575613 0.013690716 0.06937243 -0.15744294 0.18557166 -0.1936881 0.07154817 0.11144531
-0.029327756 0.014176601 0.11821356 -0.04065688 -0.08871089 0.0032246953 -0.12218603 0.061319306
-0.11098611 -0.009290805 -0.19219671 0.054419525 0.00190285 0.043615077 -0.08061318 -0.0118510695
-0.13874824 0.109850466 -0.15034918 -0.13636883 0.049361113 -0.14151485 -0.029666804 0.08595786
-0.10202169 -0.14966139 -0.17364216 0.14021005 -0.03934072 -0.08146451 0.022656182 -0.02634233
0.054130126 0.16668215 -0.022603735 -0.08402944 0.047234487 -0.19999273 -0.11036393 0.12575626
0.17252153 0.19311245 0.00084156275 0.042463325 -0.057832494 0.028990349 -0.12463908 -0.12461271
-0.075799964 -0.046218175 0.021075454 0.042561874 0.13870701 0.046155002 0.01110422 -0.124815986
-0.09781175 -0.016207604 -0.051358115 -0.071897626 0.08372548 -0.034276374 0.12582502 0.032566175
0.17808042 -0.073677264 0.16978185 0.048525505 -0.04525452 0.025826145 0.04573451 0.1807938
0.11305918 0.0066321725 -0.048219986 -0.10717047 -0.15781514 -0.12506263 0.051212475 0.081571214
0.16206263 0.09838242 0.13838129 -0.09685428 0.05112921 -0.03301033 -0.059225366 0.13782877
-0.048396014 -0.1412139 0.0552007 0.11354222 0.112255685 -0.07561688 0.14395507 0.11492958
0.061748326 -0.049991883 0.018733477 -0.15328304 -0.023021674 -0.00068801275 -0.03091086 0.15840378
0.056422252 -0.1425831 0.14233188 -0.013706862 -0.14795338 0.0878242 -0.0155514935 -0.087587714
0.1783826 -0.09367957 0.08674387 0.19296376 0.08952885 0.1070754 -0.10683086 0.09423812
0.062085822 0.02687827 -0.1466704 -0.019366957 -0.09222437 0.03144794 -0.12852308 -0.12094515
-0.11526477 0.0045861923 -0.20437151 -0.015850587 0.00042716478 -0.026680483 0.12911212 -0.07690976
-0.06668279 -0.16757986 0.04402345 0.1701499 0.03224186 0.0090289945 -0.13598105 -0.15959308
-0.16516282 0.11948208 -0.08944076 0.14463805 0.04918284 -0.10188878 -0.14039403 -0.073092185
-0.062958956 -0.10626732 -0.06069854 -0.115379386 -0.04877654 0.042716168 -0.07843688 -0.16321996
0.047298647 0.068878084 0.14796512 0.10372017 0.11780776 0.04464645 -0.062608436 0.03308218
-0.17125253 -0.104415424 -0.105322726 -0.14306761 -0.013157344 -0.06382229 -0.021648973 -0.040373437
-0.009609019 0.19272253 -0.14989397 0.07899912 -0.11915205 0.14835957 0.07638354 0.01339672
-0.1771992 0.0035655815 0.038715318 0.10671846 -0.09926658 -0.0030500244 0.05461966 -0.06637111
-0.24923451 0.14648291 -0.16002049 0.029537316 -0.07809537 -0.19453414 0.06699413 0.010253813
0.101149075 -0.09595841 0.12399551 0.004799357 0.0050640684 -0.19467263 -0.107988015 -0.19428617
0.07377579 0.16373707 0.01962698 -0.027848992 0.09894384 -0.1745129 0.010811582 -0.15187237
-0.101913035 0.015145635 0.039165463 -0.027214421 -0.030178567 -0.13790457 -0.07209671 0.009096827
0.106076606 -0.12838349 -0.0017954311 -0.04558434 0.110756144 -0.072447695 -0.0043226164 -0.11145492
