models/rym_grid_c0_s64_e2_t4_r4/conv_transformer_c0_g1_a0_l0p32_lr1e-04.pt (torch, 750530 bytes, 40 tensors)

pos_embed f4 [1, 64, 64]
0	0x3e522a99	0.20524062
1	0xbdbdd3ad	-0.092688896
2	0x3e1ebbc7	0.15501319
3	0xbd8d53a1	-0.069007166
4	0x3df520d9	0.11969156
5	0x3d706602	0.058691032
6	0xbdb973b6	-0.09055273
7	0x3e03991d	0.12851377
8	0x3dd3e6e7	0.103467755
9	0x3dea833d	0.11450813
10	0x3e2fef10	0.17181039
11	0x3e259596	0.16170344
12	0x3e5a6c59	0.21330394
13	0x3dcd28de	0.100175604
14	0xbdb7ad3c	-0.08968589
15	0xbe237f77	-0.15966593
16	0xbe1b73bf	-0.15180872
17	0xbd6b1810	-0.057395995
18	0x3da60ba0	0.08107686
19	0xbe180c39	-0.14848413
20	0xbd4cfcbc	-0.050045714
21	0xbdd7a591	-0.10529626
22	0x3db29778	0.087202966
23	0x3cb3c950	0.02194658
24	0x3d3e56f5	0.046469647
25	0x3cd5e6cb	0.026111027
26	0xbd504bd8	-0.05085358
27	0xbdc055a2	-0.09391333
28	0xbd8e34fe	-0.06943701
29	0x3c457682	0.01205218
30	0x3df00256	0.117191955
31	0x3d46a8aa	0.048500694
32	0xbbed76fb	-0.0072468496
33	0xbd83bf5c	-0.06432983
34	0xbb890077	-0.0041809636
35	0xbcf63f18	-0.030059382
36	0x3d89071d	0.0669081
37	0xbdeb2959	-0.11482496
38	0xbc45493e	-0.012041388
39	0x3e22b35c	0.15888733
40	0xbe444f02	-0.19170764
41	0xbc6512e0	-0.013981551
42	0x3caf9584	0.0214336
43	0x3d4b1beb	0.04958717
44	0x3d914be8	0.07094556
45	0xbe061540	-0.13094044
46	0xbc24723a	-0.010036999
47	0xbd07f6f1	-0.033194486
48	0x3df9a4f5	0.12189666
49	0x3d54fd25	0.05199923
50	0xbcbca590	-0.023028165
51	0xbe5b6596	-0.2142547
52	0xbcfae384	-0.030626066
53	0xbda6554e	-0.08121739
54	0x3d936468	0.07196885
55	0x3d48a6f1	0.048987333
56	0x3d933f6a	0.0718983
57	0xbd79f277	-0.061022248
58	0x3ddf92c3	0.109166645
59	0xbd2b7b4e	-0.04186564
60	0x3c1d2a99	0.009592676
61	0x3dff0110	0.124513745
62	0x3dd8a911	0.10579122
63	0x3d1235fe	0.035696022
64	0x3e67f61f	0.22652481
65	0xbdb0b425	-0.0862811
66	0xbdd0b2cf	-0.10190355
67	0xbd02bfb6	-0.03192111
68	0xbd9001e1	-0.070316084
69	0x3e6aef49	0.22942843
70	0x3e0a4490	0.13502717
71	0x3dd9df3e	0.10638283
72	0x3b875f6e	0.004131249
73	0x3b26430c	0.0025369553
74	0xbe889d96	-0.2668273
75	0xbdd36618	-0.10322207
76	0x3b579ea7	0.003290096
77	0xbde12b57	-0.109945945
78	0xbc8f5c09	-0.01749994
79	0x3ddd602e	0.108093604
80	0x3e03a964	0.12857586
81	0x3b5c94d1	0.0033658037
82	0x3d7c3f7c	0.06158398
83	0x3e5fea9b	0.21866839
84	0xbc215f72	-0.009849416
85	0xbe4b6d4d	-0.19865914
86	0xbcf53a13	-0.029934919
87	0xbce387b8	-0.027774677
88	0xbe0e3bac	-0.1388995
89	0xbd7e7de2	-0.06213177
90	0xbdf26f48	-0.118376315
91	0x3c194446	0.009354657
92	0xbdb2241e	-0.08698295
93	0x3dcf4b12	0.101217404
94	0xbe984623	-0.2974101
95	0xbc8925a3	-0.01674158
96	0xbddbda72	-0.107350245
97	0x3e158467	0.14601289
98	0x3deb0406	0.11475377
99	0xbdb54dd9	-0.08852739
100	0xbe162c09	-0.14665236
101	0x3e37520d	0.17902394
102	0x3e08060a	0.13283554
103	0x3e0d8ea5	0.13823946
104	0x3e90d2b4	0.28285754
105	0x3e61a247	0.2203456
106	0x3d868e13	0.06570067
107	0x3d059cce	0.032620244
108	0x3e566227	0.2093588
109	0x3c69bbaf	0.014265939
110	0xbd6b17f5	-0.057395894
111	0xbd953e78	-0.072873056
112	0xbd7713ac	-0.060321495
113	0xbced290e	-0.02895024
114	0x3e0ebc12	0.1393893
115	0xbc20cf2b	-0.009815018
116	0x3e4c3bef	0.19944738
117	0xbdc75c79	-0.09734435
118	0xbd942c51	-0.07235015
119	0xbd052741	-0.03250814
120	0xbd6d2008	-0.057891876
121	0xbe2fac7b	-0.1715564
122	0x3d3cccde	0.046093814
123	0xbb8699f1	-0.0041077067
124	0x3d82a612	0.06379332
125	0xbd969cd0	-0.07354128
126	0x3df9712a	0.121797875
127	0x3cdbe280	0.026841402
128	0x3e0ba7b2	0.1363819
129	0xbca1406a	-0.019684035
130	0xbea0383d	-0.31292906
131	0xbc92657c	-0.017870657
132	0xbe200b76	-0.15629372
133	0x3d378dad	0.044812847
134	0x3d4bb915	0.049737055
135	0xbe4c3ca7	-0.19945012
136	0xbd368712	-0.044562407
137	0x3e3af4a0	0.1825738
138	0x3dbe322d	0.09286914
139	0x3d0ee1c5	0.03488328
140	0xbe21a2ff	-0.15784834
141	0xbd52c13f	-0.051453825
142	0xbe1f2561	-0.15541603
143	0xbdcb7a40	-0.09935427
144	0xbc831ade	-0.016004022
145	0x3e56f13b	0.2099046
146	0x3d2ede19	0.042692278
147	0xbe26fd23	-0.16307501
148	0xbe076488	-0.13221943
149	0xbea84ab4	-0.32869494
150	0x3dacff07	0.0844708
151	0xbda72588	-0.081614554
152	0x3e14bd82	0.14525416
153	0x3d603748	0.05474022
154	0x3dc776fe	0.09739493
155	0x3db1c3a8	0.086798966
156	0xbdf5caae	-0.12001549
157	0x3da698b3	0.08134594
158	0x3dbf6682	0.09345724
159	0xbdef1fe8	-0.116760075
160	0x3d5ce22d	0.053926636
161	0xbe067f73	-0.13134556
162	0xbe198e4f	-0.14995693
163	0xb9a54539	-0.00031522827
164	0x3db0018e	0.085940465
165	0xbc43a41a	-0.01194098
166	0x3da4b25b	0.08041831
167	0x3ddb6f29	0.107145615
168	0x3cc1f9a2	0.023678605
169	0xbe419061	-0.18902732
170	0x3e05123c	0.12995237
171	0xbd580b92	-0.05274541
172	0x3d3326f0	0.043738306
173	0xbce00c7c	-0.027349703
174	0x3e4aa77c	0.19790453
175	0x3e807ad4	0.2509371
176	0x3e16e332	0.14735106
177	0x3e13dfcd	0.14440842
178	0x3d8af43c	0.06784865
179	0xbd847922	-0.06468417
180	0xbe76e820	-0.24111986
181	0x3d040ed3	0.0322407
182	0x3b8e66e7	0.004345763
183	0xbdb3e273	-0.08783426
184	0xbdf195dc	-0.117961615
185	0xbd807d6c	-0.06273922
186	0x3d12d446	0.03584697
187	0xbe466650	-0.19374967
188	0x3b9d2ce0	0.0047966093
189	0xbe02ff25	-0.12792642
190	0x3e2d78cd	0.16940613
191	0x3e058cb1	0.13041951
192	0xbd62c3e7	-0.05536261
193	0x3e07d0de	0.1326327
194	0xbccf2608	-0.02528669
195	0x3df16087	0.11785989
196	0x3e1bf725	0.15230997
197	0x3e2c5ade	0.16831538
198	0x3e2eefd0	0.17083669
199	0x3cd1ca5e	0.025609192
200	0xbcf0ef63	-0.029411023
201	0x3dbb692b	0.091509186
202	0xbe21b19c	-0.15790409
203	0x3ddbc89f	0.10731625
204	0xbe572ca4	-0.21013123
205	0x3d90bcff	0.07067298
206	0xbd8641e4	-0.065555364
207	0xbde7f963	-0.113268636
208	0xbd0e87de	-0.03479754
209	0x3be7758f	0.0070635746
210	0xb9eda48a	-0.00045326754
211	0x3eb28739	0.34868792
212	0xbe89d7ec	-0.26922548
213	0xbe0434a5	-0.12910707
214	0x3d8fa075	0.070130266
215	0xbccf48c4	-0.025303252
216	0x3dbce074	0.092224985
217	0xbe53540f	-0.20637535
218	0x3e2e2689	0.17006887
219	0xbecb8d5e	-0.39756292
220	0xbe2dfac4	-0.1699019
221	0xbe0e5e50	-0.13903165
222	0xbe49dd8a	-0.19713417
223	0xbe8b2e4f	-0.27183768
224	0x3d4a8c19	0.049450014
225	0x3ddc3360	0.107519865
226	0x3e7a3d3c	0.24437422
227	0x3d87a693	0.066235684
228	0xbcf46901	-0.029835226
229	0xbdc2b613	-0.09507384
230	0x3da22007	0.07916265
231	0x3e751295	0.2393287
232	0xbda8b906	-0.082384154
233	0xbe60c9c8	-0.21951973
234	0xbee43f09	-0.44579342
235	0x3c23122a	0.009953061
236	0xbdf9c71e	-0.12196182
237	0x3e829219	0.2550209
238	0xbd845e67	-0.06463318
239	0xbe0addd8	-0.13561189
240	0x3c1673b3	0.009182858
241	0xbc568a13	-0.013094443
242	0xbe82087d	-0.253971
243	0xbdb6b1d1	-0.089206345
244	0x3e6c3999	0.23068847
245	0x3e970410	0.29495287
246	0x3dc0ee3b	0.09420439
247	0xbe728518	-0.23683584
248	0xbe352384	-0.1768933
249	0x3e4b1c9c	0.19835132
250	0x3e4eb8c6	0.20187673
251	0x3e825c5c	0.2546109
252	0xbd853ef6	-0.065061495
253	0xbcbb16bb	-0.022837987
254	0xbc011142	-0.00787765
255	0xbd8cfc9c	-0.06884119

conv_stem.0.weight f4 [64, 64, 3, 3]
0	0xbe3f4d4d	-0.18681832
1	0xbf13f0e1	-0.5778943
2	0x3e0ffb88	0.14060795
3	0xbc33582d	-0.010946316
4	0xbf0e626d	-0.55618936
5	0xbd272d4a	-0.040814675
6	0xbea5b18a	-0.32362014
7	0xbe95e22b	-0.29274115
8	0x3eafad9f	0.3431215
9	0xbd4bb045	-0.04972865
10	0xbf1f38fa	-0.62196314
11	0xbebb7f83	-0.3662072
12	0xbdb14b4c	-0.0865694
13	0xbe72efcc	-0.23724288
14	0xbd4239f1	-0.04741854
15	0x3e0906d9	0.13381518
16	0x3e2cc340	0.16871357
17	0xbe2ffef4	-0.171871
18	0xbe295dae	-0.16539642
19	0xbe93c7b2	-0.28863293
20	0xbe040e00	-0.12895966
21	0x3dbb3511	0.09140981
22	0xbe113434	-0.1418007
23	0x3c8b1328	0.016976908
24	0x3d8cc20e	0.068729505
25	0x3d2763f5	0.04086681
26	0x3c6dce56	0.014514526
27	0xbd658154	-0.05603154
28	0xbc84d71f	-0.016215859
29	0xbd99e14e	-0.075136766
30	0xbe482217	-0.19544254
31	0xbe6be181	-0.23035242
32	0xbe349b8d	-0.17637463
33	0xbd41e718	-0.04733953
34	0xbd5fc8d5	-0.054634888
35	0xbd96d54c	-0.07364902
36	0xbccc673c	-0.02495157
37	0x3e4f6b78	0.2025584
38	0xbe4e2d25	-0.20134409
39	0xbd479c4d	-0.048733044
40	0xbcf20c45	-0.029546866
41	0x3c8f0a81	0.017461063
42	0x3e096f68	0.13421404
43	0xbdebbe52	-0.1151091
44	0xbdae69c0	-0.08516264
45	0x3dfd190b	0.12358292
46	0xbcad3378	-0.021142706
47	0xbe8334df	-0.25626275
48	0xbbc580df	-0.0060273255
49	0x3d6e2106	0.058136962
50	0xbda4a626	-0.08039503
51	0x3df6b5b2	0.120463744
52	0xbdcdb305	-0.10043911
53	0xbe19f55e	-0.15035006
54	0x3e2381cc	0.15967482
55	0x3e5610a5	0.20904787
56	0xbd419a52	-0.047266312
57	0xbe04d192	-0.1297057
58	0xbe989ae8	-0.29805684
59	0xbe00957d	-0.12557025
60	0xbe31107e	-0.17291448
61	0x3d9ba287	0.07599359
62	0xbc04f178	-0.008114211
63	0x3ccc9eb3	0.024978017
64	0x3e96ab2c	0.2942747
65	0x3d8b1e72	0.06792916
66	0x3ec950cd	0.3931946
67	0x3e6c603a	0.23083583
68	0x3e24607b	0.1605243
69	0x3e9f807e	0.3115272
70	0x3e9fd4e7	0.3121712
71	0x3e6a8a72	0.22904375
72	0x3d4e6200	0.05038643
73	0x3e0ebf49	0.13940157
74	0xbe01985f	-0.12655781
75	0xbd882bd3	-0.06648984
76	0x3e2d38da	0.16916218
77	0x3e20c5a0	0.15700388
78	0x3e85a0a8	0.26099133
79	0x3e68b261	0.22724296
80	0x3de0a1f3	0.10968389
81	0x3d21626e	0.03940051
82	0xbc8c01e0	-0.017090738
83	0x3db9de83	0.09075644
84	0x3e7e8276	0.24854454
85	0x3e60af99	0.21941985
86	0x3e4f579f	0.20248269
87	0x3e4527cc	0.19253463
88	0x3db53cce	0.08849488
89	0x3e6d6666	0.23183593
90	0xbbd56f19	-0.006513488
91	0x3dfed96f	0.12443816
92	0xbb8ac900	-0.004235387
93	0x3deb7a78	0.114979684
94	0x3e539c91	0.20665194
95	0x3dc8ba41	0.0980115
96	0x3dd9dd42	0.10637905
97	0x3e72421a	0.23658028
98	0x3e2289d1	0.15872885
99	0xbdc38599	-0.09546966
100	0xbe6a7f4b	-0.22900121
101	0xbe1dde57	-0.15416847
102	0xbd846655	-0.06464831
103	0xba12fef8	-0.00056074513
104	0x3d980170	0.07422149
105	0x3c98f1f8	0.018670067
106	0x3cf58b34	0.029973604
107	0x3d91da6e	0.0712174
108	0xbe2cdc6d	-0.16880961
109	0x3e66a471	0.22523667
110	0xbe6d7154	-0.23187762
111	0xbdde863d	-0.10865448
112	0x3e894320	0.26809025
113	0xbd0ace7e	-0.033888333
114	0xbdae57c0	-0.08512831
115	0xbd2378cf	-0.039910134
116	0xbd81e715	-0.063429035
117	0xbb26f639	-0.002547635
118	0xbde3b992	-0.11119379
119	0xbe02cd3d	-0.12773605
120	0xbc93b8d0	-0.018032461
121	0x3c370bc3	0.011172238
122	0x3d02b651	0.03191215
123	0xbccb3d1d	-0.024809415
124	0xbd2c6452	-0.04208786
125	0xbceb4abd	-0.028722161
126	0xbd255f0c	-0.040373847
127	0x3da39cd8	0.079889
128	0xbdbd9146	-0.09256224
129	0xbdf2dfdb	-0.11859103
130	0x3cbe5ded	0.023238147
131	0xbbbceff3	-0.005765909
132	0x3d6fe5a0	0.058568597
133	0x3cb5b19b	0.022179415
134	0xbe27245f	-0.16322468
135	0xbd16f7fb	-0.036857586
136	0xbd544f6b	-0.05183355
137	0xbd9fcdc6	-0.0780292
138	0x3cdd1d0b	0.026991388
139	0xbd0e39f6	-0.034723245
140	0xbd3fa5cd	-0.04678898
141	0xbc05bbb9	-0.008162432
142	0x3d25c8e4	0.040474787
143	0xbd080726	-0.033209942
144	0xbd75eb31	-0.06003875
145	0x3ce187c4	0.027530558
146	0xbcb94151	-0.022614153
147	0x3bab1c3a	0.0052218707
148	0xbd990a7c	-0.07472703
149	0xbd39e24a	-0.04538182
150	0xbcca7921	-0.024715962
151	0xbc87deb0	-0.016585678
152	0xbcaf547f	-0.021402596
153	0x3d8904a9	0.06690342
154	0x3dafbec8	0.085813105
155	0x3d1f2fac	0.038863823
156	0x3db628e9	0.08894522
157	0xbc377425	-0.011197125
158	0xbdf1262f	-0.11774861
159	0x3d4b3a04	0.049615875
160	0xbdabadfc	-0.08382794
161	0xbcab63bf	-0.020921586
162	0xbb1041d7	-0.00220119
163	0xbddb31dc	-0.10702869
164	0xbd7c0100	-0.06152439
165	0xbc52ecb7	-0.01287382
166	0xbd53d31f	-0.051715013
167	0x36edd929	7.088431e-06
168	0x3cbcc7a9	0.023044424
169	0x3d0d0efa	0.03443811
170	0xbd8f45de	-0.06995748
171	0x3d1dea76	0.038553677
172	0x3cbb7cf8	0.022886738
173	0xbb1af0fe	-0.0023642178
174	0x3d92e6fb	0.07172962
175	0xbb1abfd2	-0.002361287
176	0x3ad3de44	0.0016164263
177	0xbc2c8f5b	-0.0105322255
178	0xba876ef1	-0.0010332746
179	0x3d2e8231	0.04260463
180	0xbd84a741	-0.06477214
181	0xbccd3105	-0.025047788
182	0xbd2ef868	-0.042717367
183	0x3d8d838d	0.06909857
184	0x3d1f6902	0.038918503
185	0x3ceeb9eb	0.029141387
186	0x3d75d50c	0.06001763
187	0x3d8e5f75	0.06951801
188	0xbd28b76b	-0.041190546
189	0x3b6aad07	0.0035808699
190	0x3d151a33	0.03640194
191	0xbcb106ec	-0.021609746
192	0x3d5ca544	0.053868547
193	0xbcae7f0d	-0.021300817
194	0x3d1275c8	0.035756856
195	0x3dcc4db2	0.09975757
196	0x3dae017a	0.084963754
197	0x3d952b35	0.07283632
198	0x3cd09f20	0.025466502
199	0x3b3b1986	0.0028549149
200	0xbc9cba26	-0.019131731
201	0x3db3015f	0.08740496
202	0x3c805f75	0.015670517
203	0x3b2c152f	0.0026257744
204	0x3d87d859	0.06633062
205	0x3c93d16a	0.018044192
206	0x3ce29ed8	0.027663633
207	0x3d161035	0.03663655
208	0xbd43a5d9	-0.047765587
209	0xbd19b745	-0.037528295
210	0x3cc9b4eb	0.024622401
211	0x3c9dcee2	0.019263688
212	0x3c6d0866	0.014467334
213	0x3cb43958	0.022
214	0xbc785095	-0.015155931
215	0xbbdce4e5	-0.0067411535
216	0xbdfa8303	-0.1223202
217	0x3e64c806	0.22341928
218	0xbe8d2947	-0.27570555
219	0xbe0a5847	-0.13510238
220	0x3e84b4df	0.25919244
221	0x3bd6868b	0.0065468005
222	0xbdb7e88f	-0.08979904
223	0xbdd0394f	-0.10167181
224	0xbcd7660f	-0.026293783
225	0xbb93bdc0	-0.004508704
226	0xbd0aefe9	-0.033920202
227	0xbdcf0baf	-0.1010965
228	0xbcbf9c4d	-0.02338996
229	0x3c3b3c07	0.011427886
230	0xbc758b18	-0.014986776
231	0xbc4bda67	-0.012442208
232	0xbd0c38db	-0.03423391
233	0xbd9e3aa0	-0.077260256
234	0xbd1e9021	-0.03871167
235	0x3c683980	0.014173865
236	0xbc26d6a8	-0.010183014
237	0x3d4f8af2	0.050669618
238	0xbc809285	-0.015694866
239	0x3d8c0567	0.06836968
240	0x3d91167b	0.07084366
241	0x3d979d0f	0.074030034
242	0x3da96ff9	0.0827331
243	0x3d7a45ea	0.06110183
244	0xbb4de9be	-0.0031419839
245	0x3df47f5e	0.11938356
246	0x3d3cf11b	0.046128374
247	0xbd0ceae1	-0.034403685
248	0x3d3625fe	0.044469826
249	0xbd81d7e9	-0.0634001
250	0x3d07ea1d	0.033182252
251	0xbbdd4956	-0.006753127
252	0x3d89904b	0.06716975
253	0x3c1f69c5	0.009729807
254	0xbc71fcea	-0.014769772
255	0x3d458fb5	0.048232753

conv_stem.1.weight f4 [64]
0	0x3f7e7007	0.9938969
1	0x3f8b20fc	1.0869441
2	0x3f6118b5	0.87928325
3	0x3f7473e2	0.95489323
4	0x3f89ebd9	1.07751
5	0x3f88e2a9	1.0694171
6	0x3f71712a	0.943133
7	0x3f6b2906	0.9185947
8	0x3f87eff1	1.0620099
9	0x3f73adf6	0.9518732
10	0x3f8a2fe5	1.0795866
11	0x3f7258f1	0.94666964
12	0x3f95b9e0	1.169735
13	0x3f78b446	0.97150075
14	0x3f837adc	1.0271869
15	0x3f7c6979	0.9859844
16	0x3f7953b9	0.97393376
17	0x3f62bb01	0.88566595
18	0x3f835cd1	1.02627
19	0x3f7b37e0	0.98132133
20	0x3f7f23b7	0.9966387
21	0x3f7a327e	0.97733295
22	0x3f739da5	0.9516242
23	0x3f8b22e4	1.0870023
24	0x3f889932	1.0671751
25	0x3f844ea6	1.0336502
26	0x3f7797f9	0.96716267
27	0x3f7b267f	0.98105615
28	0x3f6fa466	0.9361023
29	0x3f69211b	0.9106614
30	0x3f8d1482	1.1021883
31	0x3f7c5310	0.98564243
32	0x3f65f570	0.8982763
33	0x3f80b309	1.0054637
34	0x3f8980ab	1.0742391
35	0x3f816aae	1.0110681
36	0x3f6fa984	0.93618035
37	0x3f81486b	1.0100225
38	0x3f8cceb3	1.100058
39	0x3f803677	1.0016621
40	0x3f88c8c0	1.0686264
41	0x3f7b05d8	0.9805579
42	0x3f7c5e7c	0.9858167
43	0x3f903087	1.1264809
44	0x3f7a40ec	0.9775531
45	0x3f88f4b6	1.069968
46	0x3f86031b	1.0469698
47	0x3f7d9657	0.99057525
48	0x3f7735e0	0.9656658
49	0x3f630eaa	0.8869425
50	0x3f6fcb66	0.93669736
51	0x3f5c2b45	0.86003524
52	0x3f8e62e9	1.1123935
53	0x3f841de7	1.0321625
54	0x3f88d4b7	1.0689915
55	0x3f868202	1.0508425
56	0x3f82e149	1.0225002
57	0x3f74ab66	0.95574033
58	0x3f69721c	0.9118974
59	0x3f77e54e	0.96834266
60	0x3f6fca6f	0.93668264
61	0x3f8d8e40	1.1059036
62	0x3f8d62e0	1.1045799
63	0x3f6d2842	0.92639554

conv_stem.1.bias f4 [64]
0	0x3d922d77	0.07137578
1	0xbe340937	-0.1758164
2	0x3daed93c	0.08537528
3	0xbe74776f	-0.23873685
4	0xbc8f486e	-0.017490592
5	0xbc417301	-0.011807204
6	0xbd638f4d	-0.055556584
7	0xbe3d56ae	-0.18490097
8	0xbdb0ec9c	-0.0863888
9	0x3d198732	0.037482448
10	0xbdca690b	-0.098833166
11	0xbcdaf48f	-0.026727943
12	0xbdb5179d	-0.088423945
13	0xbd294bca	-0.041332044
14	0xbe92f001	-0.28698733
15	0xbe84552c	-0.2584623
16	0xbdef32ca	-0.11679609
17	0xbe80077c	-0.2500571
18	0xbe193913	-0.14963178
19	0xbd903a95	-0.07042424
20	0xbd54eb98	-0.051982492
21	0xbdda65ee	-0.10663973
22	0xbdee1bf4	-0.116264254
23	0xbddfd231	-0.10928763
24	0xbc499a58	-0.012304865
25	0xbe2486a9	-0.16066994
26	0xbe270144	-0.16309077
27	0xbe326af0	-0.17423606
28	0x3c067beb	0.008208255
29	0xbe2990fe	-0.16559216
30	0xbcd77e48	-0.026305333
31	0x3d8897ba	0.066695645
32	0xbc15c919	-0.009142184
33	0xbdb98f51	-0.090605386
34	0xbe1889cb	-0.14896314
35	0x3c47c4ec	0.012192946
36	0xbd872e56	-0.06600635
37	0xbdc01fe8	-0.09381086
38	0xbcf5a7ff	-0.029987333
39	0xbdb065c0	-0.08613157
40	0xbe16546f	-0.14680646
41	0xbdd2910d	-0.102815725
42	0xbe157fbd	-0.1459951
43	0xbe533e0e	-0.2062914
44	0xbc804430	-0.015657514
45	0xbe1b689f	-0.15176629
46	0x3d636c70	0.055523336
47	0xbd65b472	-0.05608029
48	0xbe9dd6a3	-0.30827817
49	0x3d540bd9	0.05176911
50	0xbdd626c1	-0.104566105
51	0xbdb9e946	-0.090776965
52	0xbcf3aa15	-0.029744187
53	0x3d371e31	0.044706527
54	0xbc26cf4d	-0.01018126
55	0xbda01a2f	-0.07817494
56	0xbdd844b4	-0.10559979
57	0x3dd7f8ce	0.105455026
58	0xbd9fec51	-0.07808746
59	0xbdbc3bf2	-0.09191121
60	0x3d6a993d	0.057275046
61	0x3d05182c	0.032493755
62	0xbe18e953	-0.14932756
63	0xbe70c359	-0.23512019

conv_stem.1.running_mean f4 [64]
0	0xbefbfd1a	-0.4921654
1	0xbe270f3f	-0.1631441
2	0x3d2bc327	0.04193416
3	0x3d42c809	0.04755405
4	0xbf16e2aa	-0.5893961
5	0xbe035359	-0.12824763
6	0xbe2b70d1	-0.16742255
7	0xbe56c4d9	-0.20973529
8	0xbdc99b48	-0.09844071
9	0xbe573d4f	-0.21019481
10	0xbf40c47d	-0.7529982
11	0xbe12bf27	-0.14330731
12	0x3eb1c64e	0.34721607
13	0xbe3e45ef	-0.18581365
14	0x3ef40a64	0.47664177
15	0xbe170f00	-0.14751816
16	0xbf1dfe5a	-0.61716235
17	0x3eedb0b0	0.46423864
18	0xbebec86e	-0.3726229
19	0x3e0e9638	0.13924491
20	0xbee9e2c8	-0.45680833
21	0xbd9cbe7a	-0.07653518
22	0x3dc6088b	0.09669598
23	0xbe8f1071	-0.2794223
24	0xbf724308	-0.9463353
25	0xbe09dfef	-0.1346433
26	0xbf30aa69	-0.69010025
27	0xbe37b7fb	-0.17941277
28	0xbb849125	-0.004045623
29	0x3e3de715	0.18545182
30	0xbe7ba340	-0.24573994
31	0xbf0e9d39	-0.5570865
32	0xbe03a0eb	-0.12854354
33	0xbe7dce9d	-0.24785848
34	0xbe7bb5d2	-0.24581078
35	0xbf14ebf9	-0.58172566
36	0x3ed80f32	0.42199093
37	0xbf25494f	-0.64564985
38	0xbf86c630	-1.0529232
39	0xbf57fba6	-0.8436836
40	0xbf51f9f1	-0.82022005
41	0x3e704b88	0.23466313
42	0xbec4ccd8	-0.38437533
43	0xbf820344	-1.0157247
44	0xbd8aafd3	-0.06771817
45	0xbf9e419e	-1.2363775
46	0xbe14796c	-0.14499444
47	0xbf136379	-0.5757366
48	0x3ed7a90f	0.4212117
49	0x3f182332	0.59428704
50	0x3ed1f0a5	0.4100391
51	0x3e1a6e95	0.15081246
52	0xbf583e9f	-0.8447055
53	0xbedf56ab	-0.4362081
54	0xbd896625	-0.06708936
55	0xbec0000e	-0.37500042
56	0xbea500da	-0.32227212
57	0xbe40aa7f	-0.18815039
58	0xbd81bd5d	-0.06334946
59	0x3f0f8885	0.5606769
60	0xbe3e9038	-0.18609703
61	0xbe3241f5	-0.17407973
62	0xbf205846	-0.62634695
63	0xbe023448	-0.12715256

conv_stem.1.running_var f4 [64]
0	0x3eb41a06	0.35176104
1	0x3e3657db	0.17806952
2	0x3e8b11a8	0.27161908
3	0x3e6bc0a5	0.23022707
4	0x3eb920c1	0.36157802
5	0x3e9f8026	0.31152457
6	0x3edcc82d	0.43121472
7	0x3ea05b09	0.31319454
8	0x3f187381	0.59551245
9	0x3eeab0ce	0.45838016
10	0x3e9062ae	0.28200287
11	0x3eba5dc0	0.3639965
12	0x3e8274fd	0.2547988
13	0x3ea43645	0.32072654
14	0x3e97300f	0.29528853
15	0x3e827a93	0.25484142
16	0x3e7a52e8	0.24445689
17	0x3ef2f612	0.47453362
18	0x3e9f2039	0.3107927
19	0x3e7c1679	0.24617948
20	0x3e99f930	0.30072927
21	0x3e95d03a	0.29260427
22	0x3e846d99	0.25864866
23	0x3ec43408	0.38320947
24	0x3ec17b06	0.37789172
25	0x3e733d3a	0.23753825
26	0x3eb8768c	0.36027944
27	0x3ea5f172	0.3241077
28	0x3edc0f15	0.42980257
29	0x3ea8637d	0.32888404
30	0x3eaa952d	0.33316937
31	0x3e97f54e	0.2967934
32	0x3e98c16d	0.29835072
33	0x3ea69667	0.32536623
34	0x3eacd56a	0.33756572
35	0x3ebd70e2	0.37000185
36	0x3ecf9542	0.40543562
37	0x3e731179	0.23737134
38	0x3eaaf40d	0.3338932
39	0x3ea0edc9	0.31431416
40	0x3ed4bb79	0.4154928
41	0x3e98cb92	0.29842812
42	0x3ec95a4e	0.3932671
43	0x3f07330c	0.52812266
44	0x3ec75af1	0.3893657
45	0x3eee54cf	0.4654908
46	0x3edddecd	0.43334046
47	0x3f060279	0.5234752
48	0x3e8eff9b	0.27929386
49	0x3e87cbf3	0.26522788
50	0x3edefb29	0.43550995
51	0x3e90fb35	0.28316656
52	0x3f159569	0.58431107
53	0x3f00196b	0.50038785
54	0x3ef3f37b	0.47646698
55	0x3e434cac	0.19072217
56	0x3e861479	0.26187494
57	0x3e699f64	0.22814709
58	0x3e96cd9c	0.29453743
59	0x3e950521	0.29105476
60	0x3e82b309	0.25527218
61	0x3e857451	0.26065305
62	0x3ed6303f	0.41833684
63	0x3e48b329	0.19599594

conv_stem.3.weight f4 [64, 64, 3, 3]
0	0xbc5604af	-0.01306264
1	0x3d160901	0.03662968
2	0x3d9583e3	0.07300546
3	0xbd536bc2	-0.051616438
4	0xbde5b6a5	-0.11216477
5	0xbd7ac0cc	-0.06121902
6	0x3dfa1020	0.12210107
7	0xbc3d536f	-0.011555537
8	0xbdbcd1ed	-0.09219728
9	0x3c410f84	0.011783484
10	0xbc8e9ec0	-0.017409682
11	0x3dad02dd	0.08447812
12	0x3d9797b2	0.074019805
13	0x3ce71032	0.028205965
14	0xbbe1d28d	-0.0068915547
15	0xbd8d3308	-0.06894499
16	0xbdcadf7b	-0.09905907
17	0x3ca5e02e	0.020248499
18	0xbd5ea24a	-0.05435399
19	0xbc0168c9	-0.007898518
20	0xbd9bd2c5	-0.076085605
21	0xbcf47da4	-0.029845066
22	0x3d30e73b	0.04318927
23	0x3c9a4857	0.018833322
24	0x3cc219eb	0.023694
25	0x3c8c52c6	0.017129313
26	0xbcc00fe3	-0.023445075
27	0xbda46102	-0.08026315
28	0x3e2bbc9d	0.16771169
29	0x3d4bd258	0.049761146
30	0xbd4f636a	-0.050631918
31	0x3cc7f991	0.024410995
32	0x3ccfd36f	0.025369374
33	0xbd79b6f4	-0.060965493
34	0x3d092004	0.033477798
35	0x3c19e0cc	0.009391975
36	0x3bb0cd1f	0.005395546
37	0xbd109ab0	-0.03530377
38	0x3d9c2b27	0.07625418
39	0x3c0bf237	0.008541635
40	0xbcec2364	-0.02882547
41	0x3d37fc0b	0.0449181
42	0x3d217c44	0.03942515
43	0xbcbce3fc	-0.02305793
44	0xbde93494	-0.113869816
45	0xbc20c2e5	-0.0098120915
46	0x3a9604b6	0.0011445496
47	0x3dcae9d1	0.09907878
48	0x3d8b30a1	0.067963846
49	0xbe1d256e	-0.1534631
50	0xbd7d04b5	-0.061772067
51	0x3db831af	0.089938514
52	0x3da73c85	0.0816584
53	0xbcb4cf9a	-0.022071648
54	0x3d6a2bca	0.057170667
55	0x3c7056b1	0.014669106
56	0x3dbcdc08	0.09221655
57	0x3d3eed6e	0.04661315
58	0xbb4ac57e	-0.0030940468
59	0xbc8f6399	-0.017503547
60	0x3c11d666	0.008901214
61	0x3d002bc0	0.031291723
62	0x3e0760a7	0.13220464
63	0x3e250cd4	0.16118175
64	0x3d4ebd87	0.050473716
65	0xbe0b2efe	-0.13592145
66	0xbdbcd8d4	-0.09221044
67	0x3de47e66	0.11156921
68	0xbc89e837	-0.016834361
69	0x3d8074a0	0.062722445
70	0x3c381fcb	0.011238049
71	0x3ce2bccf	0.027677922
72	0xbc956806	-0.018238079
73	0x3d740299	0.05957279
74	0xbde294ba	-0.110635236
75	0x3d310eb9	0.04322693
76	0x3ce0bd2e	0.027433958
77	0x3d5eb1af	0.05436867
78	0xbd98fff9	-0.07470698
79	0xbdc4b854	-0.0960547
80	0x3d735f69	0.059417162
81	0x3c8ce5a8	0.017199352
82	0xbc748b37	-0.0149257695
83	0x3d8bd8c9	0.06828458
84	0xbd165207	-0.03669932
85	0x3d1f9659	0.038961742
86	0x3d41f8b7	0.047356334
87	0xbd25a7d7	-0.040443268
88	0x3c264b7d	0.010149834
89	0x3ca79611	0.0204573
90	0xbe23772f	-0.15963434
91	0x3da0c510	0.07850087
92	0xbc7ad939	-0.015310579
93	0x3d831597	0.06400602
94	0xbd2a146a	-0.041523375
95	0xbd9d0ce7	-0.076684766
96	0xbd595509	-0.05305961
97	0xbd2e210b	-0.04251198
98	0x3df07ac9	0.117421694
99	0xbdaf7d5a	-0.08568831
100	0xbdc5c670	-0.096569896
101	0x3c7a3574	0.015271533
102	0xbc4e65bf	-0.0125975
103	0x3ce280b1	0.027649255
104	0x3b857a03	0.004073383
105	0x3de04e8c	0.109524816
106	0xbc8e1a61	-0.017346563
107	0x3c0040b2	0.007827925
108	0x3de9dd3a	0.11419149
109	0x3e0fcf4a	0.14043918
110	0x3a33f6a8	0.0006865063
111	0xbd84893b	-0.06471487
112	0x3d8d6b63	0.06905248
113	0x3d64ec10	0.05588919
114	0x3d640c21	0.05567563
115	0x3d5ce194	0.053926066
116	0xbd3da563	-0.046300303
117	0x3cfbe90d	0.030750776
118	0xbd16bd8f	-0.03680187
119	0xbdeb1792	-0.11479105
120	0xbd013c7f	-0.031551834
121	0xbb615aee	-0.0034386474
122	0xbd705db3	-0.05868311
123	0xbd000f2f	-0.03126448
124	0x3db7a3c0	0.0896678
125	0xba04258d	-0.0005040996
126	0x3d8acc1a	0.067772105
127	0xbd7348fe	-0.059395783
128	0xbd7500df	-0.059815284
129	0xbdcc0005	-0.09960941
130	0x3d504309	0.05084518
131	0x3cfb27fb	0.030658713
132	0xbd531070	-0.051529348
133	0xbd8cea03	-0.06880572
134	0x3df5eb35	0.12007753
135	0xbbd57fdc	-0.006515486
136	0xbe165aad	-0.14683028
137	0xbd92d0ad	-0.07168708
138	0x3d89ff6a	0.067381695
139	0xbdf0f599	-0.11765594
140	0xbd21cfc6	-0.03950479
141	0xbdc84f02	-0.097806945
142	0x3d965c9c	0.073418826
143	0x3da22cbb	0.07918688
144	0x3d14bdaf	0.03631371
145	0xbe14dd49	-0.14537539
146	0x3da52861	0.08064342
147	0xbbaab5fe	-0.0052096834
148	0xbd6134f5	-0.054982144
149	0x3dab9d43	0.08379605
150	0x3d456023	0.048187386
151	0xbd5bf352	-0.053698845
152	0xbd78013f	-0.060548063
153	0xbd11273e	-0.035437815
154	0xbce54494	-0.027986802
155	0xbd8d360a	-0.06895073
156	0xbd0b4ba1	-0.034007672
157	0xbd9ca8a3	-0.076493524
158	0xbe05b300	-0.13056564
159	0x3d8aa004	0.06768802
160	0xbdf85831	-0.12126196
161	0x3ccee9f2	0.025258038
162	0xbc8ca7a8	-0.017169788
163	0xbd84f380	-0.064917564
164	0xbdb6f1ab	-0.08932813
165	0x3dfe3742	0.12412883
166	0x3d224297	0.039614286
167	0x3db7278e	0.08943091
168	0x3dcd116d	0.10013089
169	0xbd628225	-0.055299897
170	0xbdc3f5d5	-0.09568373
171	0x3d812099	0.06305046
172	0x3d596622	0.053075917
173	0xbd0e01e5	-0.034669776
174	0x3d355141	0.044266943
175	0x3b0f8342	0.0021898304
176	0xbc11a26d	-0.008888823
177	0xbd1ce1fc	-0.038301453
178	0xbc2b3fef	-0.010452255
179	0xbddf85dc	-0.109142035
180	0xbd7d22fd	-0.061800946
181	0xbc9fc8e9	-0.019504981
182	0x3c11e060	0.008903593
183	0xbd3ca649	-0.04605702
184	0xbcbf508b	-0.023353836
185	0xbda180d9	-0.07885904
186	0x3c61e88a	0.013788352
187	0xbd2b1149	-0.04176453
188	0x3d6ffd79	0.05859134
189	0xbd4c22e6	-0.04983797
190	0x3c37fd76	0.011229863
191	0x3c1c7eab	0.009551684
192	0xbd7f2895	-0.06229456
193	0xba029116	-0.0004980726
194	0x3d678f3c	0.056533083
195	0x3daba145	0.08380369
196	0xbd96534a	-0.07340105
197	0x3c76a748	0.015054531
198	0x3c6710c7	0.014103121
199	0x3c378183	0.011200312
200	0xbcabada9	-0.020956831
201	0xbc70176b	-0.014654021
202	0xbdc6f525	-0.09714726
203	0x3d98c170	0.0745877
204	0x3dac0d79	0.08401007
205	0x3b77cd7b	0.0037811685
206	0x3ccc30e2	0.024925653
207	0x3d58bc82	0.05291415
208	0xbdf31441	-0.118690975
209	0xbe2bc54d	-0.16774483
210	0x3c4748f8	0.012163393
211	0xbd37600b	-0.044769328
212	0x3d9aa77d	0.07551477
213	0x3d9bc429	0.07605774
214	0xbb8ed078	-0.0043583475
215	0x3d618c07	0.05506518
216	0x3d427326	0.047473095
217	0x3e52552e	0.20540306
218	0x3c7ce5d0	0.015435651
219	0xbd314afd	-0.043284405
220	0x3c98c6a1	0.018649401
221	0xbd694fdc	-0.056960925
222	0x3d73a953	0.059487652
223	0xbded7175	-0.11593906
224	0x3d31c568	0.043401152
225	0xbcad0f58	-0.02112548
226	0x3d1cec16	0.038311087
227	0xbd80eb3c	-0.062948674
228	0xbc49ab04	-0.01230884
229	0xbd80893b	-0.06276175
230	0x3bbb0fe2	0.0057086805
231	0x3c121bce	0.008917762
232	0x3cabcda2	0.020972077
233	0x3dd85b1f	0.10564255
234	0x3d5e720c	0.054307982
235	0xbdc31e0b	-0.095272146
236	0xbe0b24e6	-0.13588294
237	0x3d26520b	0.040605586
238	0x3cf3237a	0.029680002
239	0xbd11cceb	-0.035595816
240	0x3d027051	0.031845395
241	0xbcf01cf8	-0.029310688
242	0x3d6ad245	0.057329435
243	0x3dca0175	0.09863559
244	0x3cadd9aa	0.021221954
245	0x3c10f412	0.008847253
246	0x3d9b380d	0.0757905
247	0x3d2edabd	0.042689074
248	0x3d867b1a	0.065664485
249	0x3b4cf9ee	0.00312769
250	0x3d302a0b	0.043008845
251	0xbbe74c90	-0.0070586875
252	0xbc5e0979	-0.013552063
253	0xbe0c2615	-0.13686402
254	0x3c672910	0.014108911
255	0x3bd4be8b	0.006492441

conv_stem.4.weight f4 [64]
0	0x3f7a9947	0.9789013
1	0x3f734713	0.95030326
2	0x3f792736	0.97325456
3	0x3f783748	0.9695935
4	0x3f79f218	0.9763503
5	0x3f7ed54f	0.99544233
6	0x3f7a2f43	0.97728366
7	0x3f799b5b	0.9750268
8	0x3f8183c1	1.0118333
9	0x3f74f233	0.95682067
10	0x3f7df4ef	0.99201864
11	0x3f7bb2ce	0.9831971
12	0x3f82117c	1.0161586
13	0x3f7af4fc	0.98030066
14	0x3f7ba4a1	0.9829808
15	0x3f8015ad	1.0006615
16	0x3f7c3790	0.9852228
17	0x3f829d6d	1.0204293
18	0x3f7e2b25	0.99284583
19	0x3f7b1e5e	0.9809321
20	0x3f7d4358	0.98930883
21	0x3f813820	1.0095253
22	0x3f7e51e7	0.99343723
23	0x3f752d31	0.9577208
24	0x3f79a63a	0.97519267
25	0x3f782cfa	0.9694363
26	0x3f7e886a	0.994269
27	0x3f814701	1.0099794
28	0x3f6bd2a9	0.92118317
29	0x3f7bbc83	0.9833452
30	0x3f7ec996	0.99526346
31	0x3f7b2d2b	0.98115796
32	0x3f7c63d6	0.9858984
33	0x3f691862	0.9105283
34	0x3f7b3830	0.9813261
35	0x3f7e41e8	0.99319315
36	0x3f7bd7b5	0.9837602
37	0x3f7b3f51	0.9814349
38	0x3f83e82a	1.0305226
39	0x3f7e5648	0.99350405
40	0x3f799f1d	0.9750841
41	0x3f808df5	1.0043322
42	0x3f812f51	1.0092565
43	0x3f7c0d6d	0.98457986
44	0x3f79cb35	0.97575694
45	0x3f7e697a	0.99379694
46	0x3f773fc8	0.965817
47	0x3f7ced2f	0.98799413
48	0x3f7f8a04	0.9981997
49	0x3f81c018	1.0136747
50	0x3f7c5f22	0.9858266
51	0x3f793d1a	0.9735886
52	0x3f8155ef	1.010435
53	0x3f7dc77f	0.9913253
54	0x3f71a319	0.9438949
55	0x3f7e3c64	0.993109
56	0x3f79b92b	0.9754817
57	0x3f7b1670	0.9808111
58	0x3f7c964e	0.98666847
59	0x3f80646b	1.0030645
60	0x3f800854	1.0002542
61	0x3f7b5d55	0.9818929
62	0x3f7b3f9b	0.9814393
63	0x3f7e3d78	0.99312544

conv_stem.4.bias f4 [64]
0	0xbd54be38	-0.05193922
1	0xbdfe2510	-0.12409413
2	0xbd814700	-0.0631237
3	0xbd93d07a	-0.07217498
4	0xbdde9c1e	-0.10869621
5	0xbdb054c5	-0.086099185
6	0xbdaebd08	-0.085321486
7	0xbde68703	-0.1125622
8	0xbda04fcf	-0.07827722
9	0xbda8ef7e	-0.082488045
10	0xbd8bef4c	-0.06832752
11	0xbd70aad3	-0.05875666
12	0xbdbc9ac6	-0.09209208
13	0xbe0a086a	-0.13479772
14	0xbd7261d5	-0.05917533
15	0xbdc20abc	-0.09474704
16	0xbd840743	-0.064466976
17	0xbdd64295	-0.10461918
18	0xbdc5831b	-0.09644147
19	0xbd9c4c6a	-0.07631762
20	0xbcf5caa7	-0.030003859
21	0xbdba6dbc	-0.091029614
22	0xbe409eb3	-0.18810539
23	0xbd93e0e6	-0.0722063
24	0xbdc261e0	-0.094913244
25	0xbddb9e0a	-0.10723503
26	0xbdffe2a9	-0.12494404
27	0xbd99a744	-0.075026065
28	0xbe0cf9df	-0.13767193
29	0xbd98b6e6	-0.0745676
30	0xbdae6174	-0.085146815
31	0xbdccd20d	-0.100010015
32	0xbd962dec	-0.07332978
33	0xbe3021dd	-0.17200418
34	0xbd9e7528	-0.077371895
35	0xbd8645cf	-0.06556284
36	0xbd84d2f7	-0.06485551
37	0xbdddea56	-0.10835712
38	0xbd346d66	-0.044049643
39	0xbdd0a1cf	-0.101871125
40	0xbda72ed7	-0.08163231
41	0xbd77a706	-0.06046202
42	0xbd23a47e	-0.039951794
43	0xbda879ec	-0.0822638
44	0xbdcc375c	-0.099714965
45	0xbd9fa70e	-0.07795535
46	0xbd9aaceb	-0.07552513
47	0xbdae2a58	-0.0850417
48	0xbdae9ccd	-0.08526001
49	0xbd3d8197	-0.046266165
50	0xbd8bdc47	-0.06829124
51	0xbe1259c8	-0.14292061
52	0xbd59f67d	-0.053213585
53	0xbdc225f7	-0.094798975
54	0xbe01661f	-0.12636612
55	0xbd47141b	-0.04860316
56	0xbd7deb08	-0.06199172
57	0xbd7c4a76	-0.06159445
58	0xbdcbd82d	-0.09953342
59	0xbd74e34a	-0.059787072
60	0xbda0ce0a	-0.07851799
61	0xbdb6c3d3	-0.08924069
62	0xbdc4f8b4	-0.09617749
63	0xbdb42b40	-0.08797312

conv_stem.4.running_mean f4 [64]
0	0xbe823db2	-0.25437695
1	0x3f9c0b96	1.2191036
2	0x3f52d54d	0.8235672
3	0x3ed84bd4	0.42245352
4	0x3ea2f8d8	0.31830478
5	0x3ed0bec1	0.40770534
6	0x3ed8cf1e	0.42345518
7	0xbdbba050	-0.091614366
8	0x3fbb3647	1.4625939
9	0x3eae1391	0.33999303
10	0x3e5d049e	0.21583793
11	0xbfa1ec8a	-1.2650311
12	0xbef6d83e	-0.48211855
13	0x3da4e850	0.080521226
14	0xbd4a9648	-0.049459726
15	0xbe5aa1f0	-0.21350837
16	0xbe20b4f5	-0.1569403
17	0xbedd7e46	-0.432604
18	0x3f558c5c	0.83417296
19	0x3dbd60d3	0.092469834
20	0xbf445766	-0.7669586
21	0x3f44e7a3	0.7691595
22	0xbe32b0a2	-0.17450193
23	0xbf27c3dd	-0.6553324
24	0xbfabe9c7	-1.3430718
25	0x3f02e95d	0.51137334
26	0x3f1a5084	0.6027911
27	0xbed41803	-0.4142457
28	0xbf82cf32	-1.0219481
29	0x3f7cd224	0.9875815
30	0xbe06f3b3	-0.13178901
31	0x3f0a4544	0.5401194
32	0x3f194dcd	0.5988434
33	0x3f05fd3f	0.5233955
34	0xbf867c67	-1.0506715
35	0x3f25b461	0.6472836
36	0xbf43a903	-0.76429766
37	0x3e1a7619	0.15084113
38	0x3f651f8a	0.8950125
39	0x3c70e688	0.0147034
40	0x3e4d3424	0.20039421
41	0x3e187e90	0.1489203
42	0x3e102101	0.1407509
43	0xbf747ab5	-0.95499736
44	0xbe6e5509	-0.23274626
45	0x3f2033e8	0.625792
46	0xbeb26a7f	-0.34846875
47	0xbef892d9	-0.48549536
48	0x3f217bf6	0.63079774
49	0xbf5ec20c	-0.8701484
50	0xbf6778b3	-0.9041855
51	0x3ef764d4	0.48319113
52	0x3f01a463	0.5064146
53	0xbe9592e4	-0.2921363
54	0xbe3d497f	-0.18485068
55	0x3e0725c3	0.13197999
56	0xbede29f7	-0.43391392
57	0x3f13d14c	0.57741237
58	0x3f5cfc34	0.8632233
59	0xc012c1b7	-2.2930734
60	0xbe90f19d	-0.28309336
61	0x3f17f799	0.5936218
62	0xbf814872	-1.0100234
63	0x3e4c326e	0.19941112

conv_stem.4.running_var f4 [64]
0	0x3f4ae0bb	0.7924916
1	0x3f62966b	0.8851077
2	0x3f9dbb09	1.2322704
3	0x3f5de0b3	0.8667099
4	0x3f7c1550	0.9847002
5	0x3f745eac	0.9545696
6	0x3f57db4f	0.84319013
7	0x3f335e92	0.7006618
8	0x3f9332e2	1.1499903
9	0x3f5b4c62	0.85663426
10	0x3f903472	1.1266005
11	0x3f817090	1.0112476
12	0x3f7cf5af	0.98812383
13	0x3f339729	0.7015253
14	0x3f4c83d1	0.79888636
15	0x3f682f11	0.9069682
16	0x3f799f7c	0.9750898
17	0x3f8d73cd	1.1050965
18	0x3f82df8a	1.0224469
19	0x3f2fb4d0	0.6863527
20	0x3fa96596	1.3234127
21	0x3f4f96e9	0.81089646
22	0x3f9a74a7	1.206685
23	0x3f79c6f3	0.975692
24	0x3fa1fba4	1.265492
25	0x3f765430	0.9622221
26	0x3f5b890e	0.85756004
27	0x3f923cf2	1.1424849
28	0x3f74420c	0.9541328
29	0x3f8c473c	1.0959239
30	0x3f58beb4	0.8466599
31	0x3f94d7cb	1.1628355
32	0x3f48280d	0.7818611
33	0x3f438fea	0.7639147
34	0x3f27c3a0	0.65532875
35	0x3f50bf2e	0.8154172
36	0x3f7fd3bf	0.99932474
37	0x3f649a83	0.89298266
38	0x3f9686d8	1.1759901
39	0x3f74d195	0.95632297
40	0x3f43b1c2	0.7644311
41	0x3f7680db	0.9629037
42	0x3f914cb2	1.135153
43	0x3fbb3a73	1.4627212
44	0x3f71fcb8	0.94526243
45	0x3f7d6675	0.9898446
46	0x3f43856f	0.7637548
47	0x3f6b3c34	0.9188874
48	0x3f8ea66b	1.1144537
49	0x3fb09d4d	1.3798004
50	0x3f7273a5	0.9470771
51	0x3f969f8d	1.1767441
52	0x3fda98a6	1.7077835
53	0x3fa3b72b	1.2790273
54	0x3f97e42c	1.1866508
55	0x3f456a8c	0.771157
56	0x3f34a894	0.7056973
57	0x3f70321d	0.93826467
58	0x3f90668b	1.1281294
59	0x3f99971f	1.1999243
60	0x3f82b099	1.0210143
61	0x3f7f405b	0.99707574
62	0x3f8f6390	1.1202259
63	0x3f8ba5c2	1.090996

proj.weight f4 [64, 64, 1, 1]
0	0xbd7f0d5b	-0.062268596
1	0x3d8d88a1	0.069108255
2	0x3e3cf794	0.18453819
3	0xbdd9b149	-0.106295176
4	0x3d362a0b	0.04447369
5	0xbe075e38	-0.13219535
6	0xbc2f711e	-0.010708122
7	0xbd98ab9c	-0.07454607
8	0x3e4d5a46	0.20053968
9	0xbd660e63	-0.056166064
10	0xbc6b9713	-0.014379281
11	0xbe06ab88	-0.13151371
12	0x3daf2211	0.085514195
13	0x3d8ac8fa	0.067766145
14	0x3db12cdc	0.08651134
15	0x3d800ff2	0.06253041
16	0x3d2b4e83	0.04182292
17	0x3e1180be	0.14209267
18	0x3d1e12a6	0.038592003
19	0x3d27bf5a	0.04095397
20	0x3de58dad	0.11208663
21	0xbd515efe	-0.051115982
22	0xbde76b53	-0.11299767
23	0x3e140a70	0.14457107
24	0x3e0687e0	0.1313777
25	0x3d8a7da3	0.067622446
26	0x3c4053b6	0.011738708
27	0xbe0cb5f1	-0.1374128
28	0x3da83cf7	0.08214753
29	0xbc8f48b8	-0.01749073
30	0xbd9509bf	-0.072772495
31	0xbdcd9cf6	-0.100397035
32	0x3d8cff75	0.06884662
33	0xbcccbef6	-0.024993401
34	0xbdcf7217	-0.10129183
35	0x3c16b014	0.009197254
36	0xbcb9de38	-0.02268897
37	0x3d4d2235	0.05008145
38	0xbdef7ea7	-0.11694079
39	0xbd8a3388	-0.0674811
40	0xbe034935	-0.12820895
41	0xbd82f1d7	-0.063937835
42	0xbe098c0f	-0.13432334
43	0x3dd9ee72	0.10641183
44	0x3b68e954	0.0035539465
45	0xbdc06b5c	-0.09395477
46	0x3d430d93	0.047620367
47	0xbd6c1e08	-0.057645828
48	0x3e470579	0.19435681
49	0xbb4fada1	-0.0031689184
50	0x3d9d0adf	0.07668089
51	0xbcf7956d	-0.030222619
52	0x3c950743	0.01819194
53	0xbcfb2766	-0.030658435
54	0xbc4fbedd	-0.012679783
55	0xbb9ee30c	-0.0048488434
56	0xbd686dd3	-0.05674536
57	0x3c7a5a29	0.015280285
58	0xbde95966	-0.113940045
59	0x3de4eabc	0.111775845
60	0xbdec8d7c	-0.115504235
61	0x3dcdfb80	0.100577354
62	0x3db09e8d	0.08623991
63	0x3de9eef3	0.11422529
64	0x3d5cb076	0.053879224
65	0xbd064b35	-0.032786567
66	0x3df1fb87	0.11815553
67	0xbcd104fc	-0.025515072
68	0xbe2e1b61	-0.17002632
69	0x3e25831b	0.16163294
70	0x3df29c84	0.11846259
71	0x3c28d13f	0.010303794
72	0xbce142c8	-0.027497664
73	0xbd0f5e17	-0.03500184
74	0x3dc7e88f	0.09761154
75	0x3d85d923	0.06535556
76	0xbd8348e1	-0.06410385
77	0xbdbaa0a7	-0.09112673
78	0xbd9dda6a	-0.07707675
79	0x3da9552b	0.082681976
80	0xbb686c57	-0.0035464966
81	0x3d152552	0.036412545
82	0x3de9c51a	0.11414547
83	0xbd40ee47	-0.04710224
84	0x3cbfd5a4	0.023417301
85	0x3cb3ad6a	0.021933276
86	0x3db39fb8	0.08770698
87	0x3e08bb32	0.1335266
88	0x3db7beab	0.08971914
89	0xbdc8e370	-0.09809005
90	0xbd3cbbb9	-0.046077464
91	0xbd19464f	-0.037420567
92	0x3dae4f74	0.08511248
93	0xbd87d0c6	-0.06631617
94	0xbe21e941	-0.15811636
95	0x3ddc6e5e	0.10763238
96	0xbc7ffd9b	-0.015624429
97	0xbda3828b	-0.079838835
98	0x3dde35cd	0.108501054
99	0x3c96ca88	0.018407121
100	0xbdd1d1e2	-0.1024511
101	0x3dbdcdae	0.09267746
102	0xbb105d88	-0.0022028405
103	0xbcd8b64a	-0.02645411
104	0x3cc076e9	0.0234942
105	0x3daa306b	0.08310016
106	0x3ceeb296	0.02913789
107	0x3ccfc25f	0.025361238
108	0xbda717b6	-0.081588194
109	0x3da584a7	0.08081942
110	0xbd718f6b	-0.058974665
111	0xbda16bab	-0.07881864
112	0xbc1c159a	-0.009526635
113	0xbe3d609d	-0.18493886
114	0x3d8e8dcf	0.069606416
115	0x3e01ff26	0.12694988
116	0x3d7ce339	0.061740134
117	0xbca95e3c	-0.020674817
118	0xbcc23ff3	-0.023712134
119	0x3dcd4e90	0.1002475
120	0xbdb14291	-0.08655275
121	0x3d5038e1	0.050835494
122	0xbde570db	-0.11203166
123	0x3c03b5c4	0.008038942
124	0x3caf3a9e	0.021390256
125	0x3cfa7fad	0.030578459
126	0x3daef09f	0.085419886
127	0xbe082554	-0.1329549
128	0xbb2bfd1a	-0.002624339
129	0x3cc835d8	0.024439737
130	0x3d188b55	0.037242252
131	0x3d912d4b	0.07088717
132	0xbdc1a5c1	-0.09455443
133	0x3d0fc970	0.035104215
134	0x3bc1f2f2	0.005918854
135	0x3cbbca17	0.022923512
136	0xbd53b5ed	-0.05168717
137	0xbb92cfdd	-0.0044803456
138	0x3d523412	0.05131919
139	0xbc2a1293	-0.010380405
140	0x3d86b40a	0.065773085
141	0x3dba6b75	0.09102527
142	0xbc96bd6f	-0.018400876
143	0x3dca99e9	0.09892637
144	0xbe0781b3	-0.1323307
145	0xbe4c9380	-0.19978142
146	0xbe01951a	-0.12654534
147	0x3c8470d0	0.016167074
148	0xbcf0501f	-0.02933508
149	0x3dbb165e	0.091351256
150	0x3d2f1481	0.042744163
151	0x3ce10b0a	0.027471084
152	0x3e1d104f	0.15338252
153	0x3e06676a	0.13125387
154	0xbdc2a4f3	-0.09504118
155	0xbd4874c7	-0.048939493
156	0x3ba41044	0.005006822
157	0xbdf9e785	-0.12202362
158	0x3d81ef5a	0.06344481
159	0x3e26725f	0.16254567
160	0x3dba161c	0.09086248
161	0x3e5538ea	0.20822492
162	0xbde455c4	-0.11149171
163	0xbd4af35b	-0.049548488
164	0x3dcac0a0	0.099000216
165	0xbe2e36c4	-0.17013079
166	0x3dd50d39	0.10402913
167	0x3dd0c265	0.10193328
168	0x3ce307b2	0.02771363
169	0xbdb251d4	-0.08707014
170	0x3d508456	0.050907455
171	0xbe097424	-0.1342321
172	0xbcdc3a30	-0.026883215
173	0xbd0d08ee	-0.034432344
174	0xbce427d0	-0.027851015
175	0x3e04d76d	0.12972803
176	0xbc45b1a4	-0.012066279
177	0x3cb81020	0.022468626
178	0x3bbcb63f	0.00575903
179	0x3d3df175	0.04637285
180	0xbdd8ac64	-0.10579756
181	0x3d1ad0f9	0.037796948
182	0x3cb3c453	0.0219442
183	0x3d93f36d	0.07224164
184	0xbdb2ff72	-0.087401286
185	0x3d6981b4	0.05700846
186	0xbd8620cb	-0.065492235
187	0xbd6eeea5	-0.058333058
188	0x3c6edbb2	0.014578747
189	0x3d11a1c9	0.03555468
190	0xbcba057b	-0.022707691
191	0x3d368086	0.044556163
192	0xbd566c3f	-0.052349325
193	0x3dc24779	0.094862886
194	0xbcba3dd9	-0.02273457
195	0x3d599d07	0.05312827
196	0x3bc5b29e	0.0060332557
197	0x3dbf6c1c	0.09346792
198	0x3a9d6c7d	0.0012010481
199	0x3caf49c1	0.021397473
200	0x3d8d03cd	0.068854906
201	0xbd3955da	-0.04524789
202	0x3d1a67f5	0.037696797
203	0xbe0bb12c	-0.13641804
204	0xbcf9438b	-0.030427715
205	0xbd84b980	-0.06480694
206	0x3e07612c	0.13220662
207	0xbde9f9d4	-0.11424604
208	0x3da59715	0.08085457
209	0x3d98ac2c	0.07454714
210	0xbd83d701	-0.06437493
211	0x3d9d5664	0.07682493
212	0x3dc47ece	0.095944986
213	0x3c74f941	0.014952005
214	0xbd4acd3d	-0.049512137
215	0xba06a936	-0.0005136909
216	0x3e152e19	0.14568366
217	0x3cbf1329	0.023324566
218	0x3cac5466	0.021036338
219	0xbdaa8daf	-0.08327805
220	0xbdca24bd	-0.098702885
221	0xbd538467	-0.05163994
222	0xbdd8c68c	-0.10584745
223	0xbd2f109b	-0.042740446
224	0xbd9b25f7	-0.075756006
225	0x3db1c156	0.08679454
226	0x3dc98ebe	0.09841679
227	0x3d94dcef	0.07268702
228	0x3e0c7e41	0.13720037
229	0x3da9e582	0.08295728
230	0xbbab7a4b	-0.0052330843
231	0xbd9bb589	-0.076029845
232	0x3d485f74	0.048919156
233	0x3e365551	0.17805983
234	0xbcaeef7f	-0.021354435
235	0xbe08ed55	-0.13371785
236	0x3d429006	0.047500633
237	0xbdcb23aa	-0.09918912
238	0xbde256fd	-0.11051748
239	0x3d46bb24	0.048518315
240	0xbdb92316	-0.09039895
241	0xbe0a20db	-0.13489096
242	0x3d139564	0.036031142
243	0xbda4974f	-0.08036672
244	0xbe067be7	-0.13133202
245	0x3cdba5c3	0.02681244
246	0xbe01c0b3	-0.12671165
247	0x3e1b134c	0.1514408
248	0xbd2e4584	-0.042546764
249	0xbdfd96ae	-0.123822555
250	0x3e1a5af0	0.15073752
251	0xb95b69ef	-0.00020924931
252	0x3de1c80b	0.11024483
253	0xbd722b8d	-0.059123565
254	0x3dfd35e6	0.12363796
255	0xbd71ba7f	-0.059015747

proj.bias f4 [64]
0	0xbdbd40b4	-0.09240857
1	0xbdc8dbd6	-0.098075554
2	0xbdb434c8	-0.0879913
3	0xbd78680c	-0.0606461
4	0x3dd3551b	0.10318967
5	0xbbb4cb3f	-0.005517393
6	0x3c9da74b	0.01924481
7	0x3cd01894	0.025402345
8	0x3cf525c4	0.029925235
9	0xbdd54311	-0.104131825
10	0x3d1f2c4a	0.038860597
11	0xbc40fc47	-0.011778898
12	0x3d0713c6	0.03297784
13	0x3d56c4d8	0.05243382
14	0xbd2299e6	-0.03969755
15	0xbd6a3624	-0.05718054
16	0x3d6e7027	0.058212426
17	0xbd4238cb	-0.047417443
18	0xbdd05655	-0.101727165
19	0xbc086147	-0.008323974
20	0xbd92d7d0	-0.07170069
21	0x3c10e07f	0.008842587
22	0x3ce1c921	0.027561726
23	0xbd7132a0	-0.05888617
24	0x3e0dae62	0.13836053
25	0xbd194c79	-0.037426446
26	0x3cf8f586	0.030390512
27	0x3d3dafd5	0.046310265
28	0x3d98a796	0.074538395
29	0x3d79055f	0.060796138
30	0x3da874bc	0.0822539
31	0x3d8ca061	0.06866527
32	0x3df5a5e2	0.1199453
33	0x3d97b0de	0.074067816
34	0xbe10f785	-0.14156921
35	0xbd8ec5d4	-0.069713265
36	0x3dcdb9df	0.10045218
37	0x3e316196	0.17322382
38	0xbdaf1229	-0.08548386
39	0xbdb94ea2	-0.09048201
40	0x3dd9bb51	0.10631431
41	0x3d692747	0.056922223
42	0x3c04cffe	0.00810623
43	0xbd8cc5ea	-0.068736866
44	0xbd9bc14e	-0.07605229
45	0x3ac8bcea	0.001531509
46	0xbd1188cd	-0.035530854
47	0xbd69b48a	-0.05705694
48	0xbd7a598c	-0.061120555
49	0x3c97f5fb	0.01854991
50	0x3b682c80	0.0035426915
51	0xbd4bec07	-0.04978564
52	0xbe06534c	-0.13117713
53	0x3de03c4d	0.109490015
54	0x3d89b174	0.067232996
55	0x3da41796	0.08012311
56	0x3dfde63a	0.12397428
57	0xbc95a9f4	-0.018269517
58	0xbdd3ef3b	-0.10348364
59	0x3d857278	0.06515974
60	0xbd5f0303	-0.05444623
61	0xbdc634a8	-0.09678012
62	0xbc4a8e23	-0.01236299
63	0xbdaf1e77	-0.085507326

encoder.layers.0.self_attn.in_proj_weight f4 [192, 64]
0	0x3e046a17	0.12931095
1	0xbc5cd0da	-0.0134775285
2	0xbcd10482	-0.025514845
3	0x3d66380a	0.056205787
4	0x3df027a1	0.117263086
5	0x3d916357	0.07099026
6	0x3da4182f	0.08012425
7	0xbe4347fe	-0.19070432
8	0x3e67b96c	0.22629327
9	0xbcdf56bd	-0.02726304
10	0x3d276b8e	0.040874057
11	0xbe965a7c	-0.2936591
12	0x3e1dc9f5	0.15409072
13	0x3d0cfc2b	0.034420174
14	0x3c7b7cd3	0.015349585
15	0xbcd8f070	-0.026481837
16	0x3d1decc8	0.03855589
17	0xbd7aaa0e	-0.061197333
18	0x3d7dc3ca	0.061954297
19	0xbe26c718	-0.16286886
20	0x3da7ccb9	0.081933446
21	0xbdd3b866	-0.103379056
22	0x3de51d1c	0.11187193
23	0x3e4980d2	0.19678047
24	0xbdae30a4	-0.08505371
25	0x3dbad93f	0.09123468
26	0x3e08e9e6	0.13370475
27	0xbdcb2f5a	-0.09921141
28	0xbaec08e7	-0.0018008024
29	0xbe66521f	-0.22492264
30	0xbd514336	-0.051089488
31	0x3db47994	0.08812252
32	0xbb25fe17	-0.0025328451
33	0xbdc5695d	-0.09639237
34	0xbe116843	-0.14199929
35	0x3dad60b6	0.08465712
36	0x3dc55857	0.0963599
37	0x3c02c802	0.007982256
38	0xbe88d0d4	-0.26721823
39	0xbd01a476	-0.031650983
40	0xbdfdc0e9	-0.1239031
41	0x3e233f71	0.1594217
42	0xbe87900a	-0.2647708
43	0xbe2b5816	-0.16732821
44	0x3dec76ab	0.115460716
45	0xbe86752a	-0.26261264
46	0xbc4d72b6	-0.012539556
47	0x3da3369b	0.079693995
48	0x3d34a36d	0.044101167
49	0xbe58fbbb	-0.21189778
50	0xbe33db0c	-0.17564029
51	0x3e64d6e6	0.22347602
52	0xbe0067be	-0.12539575
53	0xbd2d055c	-0.04224144
54	0x3d5af10a	0.05345253
55	0x3e44a2d7	0.19202743
56	0xbdad5030	-0.0846256
57	0x3e0552f1	0.13019921
58	0xbdaef8c1	-0.0854354
59	0xbdd182c1	-0.102300175
60	0xbdae53e7	-0.08512097
61	0xbe2b6efa	-0.16741553
62	0xbe8478b2	-0.25873333
63	0x3d819b8d	0.06328497
64	0x3dbfb501	0.09360696
65	0x3dfda177	0.123843126
66	0x3e3c9327	0.18415509
67	0x3dcce406	0.100044295
68	0xbe45a913	-0.19302778
69	0xbc89aed8	-0.016807005
70	0x3ce7c7af	0.028293459
71	0xbe1fa80d	-0.1559145
72	0xbdd1e2ea	-0.102483585
73	0xbba9cf24	-0.005182164
74	0xbcbdba44	-0.023160107
75	0x3e06dc45	0.13169964
76	0x3e988b95	0.29793993
77	0x3e1d29fb	0.15348046
78	0x3da44b8e	0.080222234
79	0xbcf10863	-0.029422944
80	0xbddc4024	-0.10754421
81	0x3d2ac2be	0.041689627
82	0xbc9c4187	-0.019074215
83	0xbdeffe06	-0.11718373
84	0x3e685853	0.22689943
85	0x3c11be7f	0.008895515
86	0xbd70c120	-0.05877793
87	0xbd3d9499	-0.046284292
88	0x3e2a436b	0.1662728
89	0xbd9d25e0	-0.0767324
90	0x3d4aab64	0.049479857
91	0x3db33718	0.08750743
92	0xbe2656c8	-0.16244042
93	0xbd8bccf8	-0.06826204
94	0x3dddca5e	0.10829614
95	0x3d9ae738	0.07563633
96	0x3deaa26c	0.11456761
97	0x3e203b04	0.15647513
98	0xbc6eca17	-0.014574549
99	0xbc8ffe13	-0.017577207
100	0xbe0b7155	-0.13617451
101	0xbe665098	-0.22491682
102	0xbdd29bda	-0.102836326
103	0x3dcab123	0.098970674
104	0x3dd57f84	0.10424712
105	0x3e75a55e	0.23988864
106	0x3e449094	0.19195777
107	0x3dc06606	0.093944594
108	0x3e1ae336	0.15125737
109	0x3d5dbd8c	0.054135844
110	0xbe79d213	-0.24396543
111	0x3d8aec5a	0.06783362
112	0xbe105019	-0.14093055
113	0xbd937e83	-0.072018646
114	0x3dc3591b	0.0953848
115	0x3e30bda7	0.17259847
116	0x3d67000b	0.056396525
117	0xbe8792e7	-0.26479265
118	0x3e95e356	0.29275006
119	0xbc68dc71	-0.014212714
120	0xbe37d56c	-0.17952508
121	0xbe9176f4	-0.28411067
122	0x3e4b33f1	0.19844033
123	0xbe2890a5	-0.16461428
124	0x3cf3cbd2	0.029760275
125	0xbc058ea5	-0.008151685
126	0xbcfc3668	-0.030787662
127	0x3e19d235	0.15021594
128	0x3c7f12dd	0.015568462
129	0xbd8f1800	-0.069869995
130	0x3ea61d21	0.324441
131	0xbd1c7705	-0.038199443
132	0xbd2b2059	-0.041778896
133	0x3d460e73	0.048353624
134	0xbcc3dab6	-0.023908
135	0xbd3594b4	-0.044331267
136	0x3d911f06	0.070859954
137	0xbd6d7e99	-0.05798206
138	0x3e4f69db	0.20255224
139	0x3e125d41	0.14293386
140	0x3dfda252	0.12384476
141	0x3e051b36	0.12998661
142	0xbd251bc1	-0.04030967
143	0x3e3cd4d4	0.18440562
144	0x3d20d132	0.039262004
145	0x3d8a67f0	0.06758106
146	0xbdfaa5bc	-0.122386426
147	0x3cca1eb6	0.024672847
148	0xbdafd753	-0.08585992
149	0xbcbfdf67	-0.023421956
150	0xbe302c25	-0.1720434
151	0xbc1430a4	-0.0090448
152	0x3d5e58a3	0.05428375
153	0x3b4246bf	0.0029644219
154	0xbd8b39f8	-0.06798166
155	0x3bb6d6e1	0.005579815
156	0xbdb62b20	-0.08894944
157	0x3bb09392	0.0053886855
158	0x3d5aa146	0.05337646
159	0x3d0ac65f	0.033880588
160	0xbd9eb66d	-0.07749639
161	0xbe17a3d6	-0.14808592
162	0xbca4ef97	-0.020133777
163	0x3e01282b	0.12612979
164	0xbd8e1f0f	-0.06939518
165	0xbc9d5bdd	-0.019208843
166	0xbe31ca56	-0.17362341
167	0xbd422698	-0.047400087
168	0xbdc5f68e	-0.09666167
169	0x3e2a2bef	0.16618322
170	0xb977c087	-0.00023627478
171	0x3e195043	0.14972024
172	0x3d4d364b	0.050100606
173	0xbdbee4b6	-0.09320967
174	0xbe0df4e7	-0.13862954
175	0xbe128d1e	-0.14311644
176	0xbae58b63	-0.0017512854
177	0xbe1d3fb1	-0.15356328
178	0xbd4d7fe4	-0.050170794
179	0xbdb3b912	-0.08775534
180	0xbe0735b7	-0.13204084
181	0x3db7b4cb	0.089700304
182	0x3dda36e2	0.10654999
183	0xbe8baee2	-0.27281862
184	0xbd6c8fba	-0.057754256
185	0x3c8a3b72	0.016874049
186	0x3e870e88	0.26378274
187	0x3e26f64b	0.16304891
188	0x3d6a8968	0.057259947
189	0x3d8867b7	0.06660407
190	0x3e46f6e2	0.19430116
191	0x3da3218a	0.079653814
192	0xbe80ac41	-0.2513142
193	0x3d4e8914	0.050423697
194	0xbe3709a1	-0.17874767
195	0xbe69adf4	-0.22820264
196	0x3d7e91f4	0.06215091
197	0x3d027683	0.031851303
198	0xbe410fa7	-0.18853627
199	0xbd134113	-0.03595073
200	0xbe3cc8da	-0.18435994
201	0x3e4142af	0.18873094
202	0x3d2e4d0e	0.042553954
203	0xbdac2ea3	-0.08407333
204	0xbb921dfd	-0.0044591413
205	0x3b4a1bdb	0.0030839357
206	0x3ddbff95	0.10742108
207	0xbda72635	-0.08161584
208	0xbe417d33	-0.18895416
209	0x3c48700e	0.012233747
210	0x3de54889	0.111954756
211	0x3e6891ed	0.22711916
212	0xbd4dd559	-0.050252292
213	0xbde16b69	-0.11006815
214	0x3df82e49	0.12118203
215	0x3d971d43	0.07378628
216	0xbad97322	-0.0016590098
217	0x3e2f0b21	0.17094089
218	0xbdc81e49	-0.097714014
219	0xba0b4ad1	-0.0005313578
220	0xbe239c25	-0.15977533
221	0xbdcc486b	-0.0997475
222	0xbdb91a04	-0.09038165
223	0x3eb463cc	0.3523239
224	0x3e69d53d	0.2283525
225	0xbe980fd5	-0.2969958
226	0x3d50dbf7	0.050991025
227	0xbe2c56f1	-0.1683004
228	0xbe23a0a3	-0.15979247
229	0xbdbd3e5c	-0.0924041
230	0xbe842231	-0.25807336
231	0xbdb13fde	-0.0865476
232	0x3e88ac24	0.26693833
233	0x3e700f6e	0.23443386
234	0x3eb8dca2	0.3610583
235	0xbd2c3cb6	-0.042050086
236	0x3e1ebee8	0.15502512
237	0xbee861f4	-0.45387232
238	0x3db347d5	0.08753935
239	0xbe1021c4	-0.1407538
240	0x3dedb3d0	0.11606562
241	0xbdd52aa7	-0.10408526
242	0xbd0457ed	-0.032310415
243	0x3e31832a	0.17335191
244	0xbe66a10d	-0.22522373
245	0x3e0888ee	0.13333485
246	0xbdae71c5	-0.085177936
247	0x3ded8eae	0.115994796
248	0x3d7a18c2	0.061058767
249	0xbc82eec9	-0.015983002
250	0xbe074477	-0.13209711
251	0xbddb808f	-0.1071788
252	0x3e358da9	0.1772982
253	0xbd99643f	-0.074898235
254	0x3e97ea81	0.296711
255	0x3e3696f0	0.17831016
