models/rym_grid_c0_s64_e2_t4_r4/conv_transformer_c0_g2_a0_l0_lr1e-03.pt (torch, 750383 bytes, 40 tensors)

pos_embed f4 [1, 64, 64]
0	0xbd0843ca	-0.033267774
1	0x3d819f5d	0.06329224
2	0x3e9c8916	0.30573338
3	0x3dca099d	0.09865115
4	0x3e0f5630	0.13997722
5	0x3dc09685	0.09403709
6	0x3e73d671	0.23812272
7	0xbf47d289	-0.78055626
8	0x3e221b60	0.15830755
9	0xbe9021ad	-0.28150693
10	0x3f3f1869	0.7464662
11	0xbf4a3606	-0.78988683
12	0xbed513f5	-0.41616789
13	0xbf130bec	-0.57440066
14	0x3d3683f0	0.04455942
15	0xbe8395ad	-0.2570013
16	0xbf36aec6	-0.71360433
17	0x3edd37d0	0.43206644
18	0x3eb9de55	0.36302438
19	0x3d596b42	0.053080805
20	0xbeed400c	-0.46337926
21	0xbddb128b	-0.10696896
22	0x3f272596	0.65291727
23	0x3ec69c37	0.38791057
24	0xbf96b0c8	-1.1772699
25	0x3ee15596	0.4401061
26	0x3e715e25	0.2357107
27	0x3f5fbae8	0.8739457
28	0xbc5daa8a	-0.013529429
29	0x3d79f591	0.061025206
30	0x3f3492b0	0.7053633
31	0x3dd7ed21	0.105432756
32	0x3ed93d32	0.424295
33	0xbe2e409a	-0.17016831
34	0x3f2bb6ca	0.6707579
35	0xbf535bfd	-0.8256224
36	0x3ef9d545	0.48795524
37	0xbf23b518	-0.639482
38	0x3ecdf700	0.4022751
39	0xbeb7afa9	-0.35876206
40	0x3ec209a0	0.37897968
41	0x3ea8771f	0.32903382
42	0x3f4014b7	0.7503161
43	0xbe548567	-0.20754014
44	0x3dc828fb	0.097734414
45	0x3e667c2b	0.22508304
46	0xbf1c64c1	-0.6109124
47	0xbe0f7932	-0.14011076
48	0x3f5bd251	0.8586779
49	0x3ef3d159	0.47620657
50	0xbeb62494	-0.35574782
51	0xbf170880	-0.58997345
52	0xbf8a034c	-1.0782256
53	0xbf358bd0	-0.7091646
54	0x3ef5fd11	0.48044637
55	0x3da96772	0.08271684
56	0x3f0abaf4	0.5419152
57	0xbf4e0b1a	-0.8048569
58	0x3f5324a8	0.8247781
59	0x3e2eaaee	0.17057392
60	0x3f5ff946	0.87489736
61	0x3d903f98	0.070433795
62	0x3f167ad3	0.58781165
63	0xbf10498e	-0.56362236
64	0xbf028654	-0.5098622
65	0xbf256c4d	-0.6461838
66	0xbf2df013	-0.6794445
67	0xbf425f4d	-0.7592667
68	0xbcd60122	-0.026123587
69	0x3ec1e308	0.37868524
70	0xbea5057f	-0.32230756
71	0xbfd1d843	-1.6394123
72	0x3ef4b7b9	0.4779642
73	0x3d01bb3e	0.03167271
74	0xbf3346be	-0.7002982
75	0xbef9df67	-0.48803255
76	0x3d3817ba	0.044944502
77	0x3f5eb7c3	0.8699915
78	0xbecd5c31	-0.401094
79	0xbf7fb963	-0.9989225
80	0x3d7db7f7	0.06194302
81	0x3c94d2a7	0.018166853
82	0xbe4ae1b0	-0.19812655
83	0x3e5d0cb8	0.21586883
84	0x3ee6ade3	0.4505454
85	0x3e940d48	0.28916383
86	0xbcc85a40	-0.024457097
87	0x3f0a7497	0.5408415
88	0x3ea7f4c7	0.32803938
89	0x3f26f49c	0.65216994
90	0x3f0c6f0b	0.5485694
91	0xbe5cf91c	-0.21579403
92	0xbd003162	-0.031297095
93	0x3eade67a	0.33964902
94	0xbd054faf	-0.032546695
95	0xbe35d586	-0.17757234
96	0x3f455a57	0.7709097
97	0xbf24e8df	-0.64417833
98	0x3eebe6d9	0.4607456
99	0xbf53a546	-0.8267406
100	0x3f0afdd3	0.54293555
101	0xbee426e1	-0.44560912
102	0x3d915c28	0.070976555
103	0xbf31cab4	-0.69449925
104	0xbf04b073	-0.5183174
105	0xbe737af8	-0.23777378
106	0xbf4abbcc	-0.79192805
107	0x3e61335a	0.21992245
108	0x3fab2485	1.337052
109	0xbdf0afc4	-0.11752275
110	0xbe75c006	-0.23999032
111	0x3ecb0d41	0.3965855
112	0xbf087baf	-0.53313726
113	0xbeaa0425	-0.33206287
114	0xbf03b57e	-0.5144881
115	0xbe8cccfc	-0.2750014
116	0x3f28b095	0.6589444
117	0xbe25a971	-0.16177918
118	0x3df098ca	0.11747892
119	0x3f3437cf	0.7039766
120	0xbe5d94ba	-0.21638766
121	0xbe8f4579	-0.2798269
122	0xbe55da00	-0.20883942
123	0xbe8684cd	-0.26273194
124	0xbf23a0ff	-0.63917536
125	0x3e1be197	0.15222774
126	0x3ed27200	0.411026
127	0xbd2de1ae	-0.042451553
128	0x3f02a231	0.51028734
129	0xbf1122e5	-0.5669387
130	0x3ee75a4c	0.4518608
131	0x3f7a3275	0.9773324
132	0x3f9d3ffc	1.2285151
133	0x3d297a4e	0.041376404
134	0xbee160b2	-0.44019085
135	0xbe0cb75b	-0.1374182
136	0x3f7a5058	0.97778845
137	0xbf33ec4a	-0.70282423
138	0xbeb253bb	-0.34829506
139	0xbe692eb1	-0.22771718
140	0xbf23fa73	-0.6405403
141	0x3e286818	0.16445959
142	0x3edc1494	0.4298445
143	0x3f6f4af2	0.9347373
144	0x3d375238	0.044756144
145	0xbcf59454	-0.029977955
146	0xbf366b5d	-0.71257573
147	0x3e7f6f2a	0.2494475
148	0xbe72bd56	-0.23705038
149	0x3e23eb94	0.16007835
150	0x3f34bcb7	0.70600456
151	0xbf2cf141	-0.67555624
152	0x3f574481	0.84088904
153	0x3ecac86e	0.3960604
154	0x3eaaa5e1	0.3332968
155	0xbf541f77	-0.8286051
156	0xbf23f1dd	-0.6404093
157	0xbeb96fe2	-0.36218172
158	0x3c2840cb	0.010269354
159	0xbf0f4ef2	-0.55979836
160	0x3f6648dd	0.8995493
161	0x3f2bf8d7	0.67176574
162	0xbef567cf	-0.47930762
163	0xbd90325c	-0.07040855
164	0x3ef95326	0.4869625
165	0xbecdf558	-0.40226245
166	0x3f2a3769	0.664908
167	0xbf5c21b6	-0.8598894
168	0x3eac67d9	0.3367298
169	0x3c3ff5f9	0.011716359
170	0xbf168bd5	-0.58807117
171	0x3f330bde	0.6993998
172	0xbca1d11f	-0.019753037
173	0xbe2476a4	-0.16060883
174	0x3f368fa9	0.7131296
175	0x3e8e4eed	0.2779459
176	0x3c1da63c	0.009622153
177	0xbf33cd95	-0.7023557
178	0x3f0d3381	0.55156714
179	0xbe8daa51	-0.27669004
180	0x3d6c0a4f	0.05762702
181	0xbf347ca8	-0.7050271
182	0x3f788c6d	0.9708927
183	0x3f331bb0	0.6996412
184	0x3f2ad9c3	0.6673853
185	0xbea7f84c	-0.32806623
186	0x3f7062b1	0.9390059
187	0xbee73968	-0.45160985
188	0xbeece969	-0.46271828
189	0xbe479e79	-0.19494046
190	0xbf421d68	-0.7582612
191	0xbe582bc6	-0.21110448
192	0x3ef71541	0.48258403
193	0x3ea4253c	0.32059658
194	0x3e41094b	0.18851201
195	0x3f03905b	0.51392144
196	0xbdb9522d	-0.09048877
197	0x3eee74c6	0.46573466
198	0xbfa6f617	-1.3043851
199	0xbf3cbb49	-0.73723274
200	0xbed5c825	-0.4175426
201	0x3f0e2711	0.5552836
202	0xbe1040d4	-0.1408723
203	0xbf709b36	-0.93986833
204	0x3e921760	0.2853346
205	0x3ee8bfe7	0.4545891
206	0xbe4c510a	-0.19952789
207	0x3f3e0aac	0.74235034
208	0xbef8c6ef	-0.48589274
209	0x3f9f47e0	1.244381
210	0x3ed390b0	0.41321325
211	0x3e914c19	0.2837837
212	0x3e7bb92d	0.24582358
213	0xbe82663e	-0.2546863
214	0x3dd7aa3b	0.10530516
215	0x3ea2f280	0.31825638
216	0xbf49e5e9	-0.7886644
217	0xbf2e9008	-0.68188524
218	0x3f262c35	0.64911205
219	0x3e82cc3b	0.2554644
220	0x3d67fde8	0.05663863
221	0x3f08e26a	0.5347048
222	0x3d091168	0.033463866
223	0x3e351536	0.17683873
224	0x3f24af9e	0.6433047
225	0x3f74e981	0.956688
226	0x3f1f2abd	0.6217459
227	0x3f064beb	0.5245959
228	0x3f2183cd	0.6309174
229	0xbf1257d3	-0.5716526
230	0x3f153fcd	0.5830048
231	0xbfa95b61	-1.3231012
232	0x3f325488	0.69660234
233	0xbd9f8709	-0.07789428
234	0x3f81a0c4	1.0127187
235	0xbdab0f91	-0.083525784
236	0xbf8f74d5	-1.1207529
237	0x3dea65d1	0.11445201
238	0xbea970c0	-0.33093834
239	0x3e54bebe	0.20775887
240	0x3eb47851	0.35248044
241	0xbe81d6ac	-0.25359094
242	0xbf1fc8ed	-0.62415963
243	0xbfc92047	-1.5712975
244	0x3db3c2fe	0.08777426
245	0xbf600588	-0.8750844
246	0xbdb99964	-0.0906246
247	0x3e1a9218	0.15094793
248	0x3e88c1b7	0.26710293
249	0x3f188fdb	0.59594506
250	0x3f657626	0.89633405
251	0xbe3f116b	-0.18658988
252	0xbee8809f	-0.4541063
253	0x3e1250b2	0.14288595
254	0x3ef73a3d	0.4828662
255	0xbd183d70	-0.037167966

conv_stem.0.weight f4 [64, 64, 3, 3]
0	0xbf258835	-0.6466096
1	0xbec83284	-0.3910104
2	0x3fe69f6b	1.80174
3	0x3f838d76	1.0277545
4	0x3fe3bbd9	1.7791702
5	0xc06d4372	-3.7072415
6	0xbfac90ec	-1.3481727
7	0x3e4bb63c	0.19893736
8	0xbf4a1ea1	-0.78952986
9	0xc004e6e8	-2.0765934
10	0x40008df9	2.0086653
11	0xbd53a4a4	-0.051670685
12	0xbf411770	-0.7542639
13	0xc0295c90	-2.6462746
14	0xc03f0ad6	-2.9850364
15	0xbe8de253	-0.27711734
16	0x3eecffaa	0.46288806
17	0x4023e596	2.5608878
18	0xc090fd1f	-4.5308986
19	0x3e531a43	0.20615487
20	0xc0510ef9	-3.2665389
21	0x3e9cd229	0.3062909
22	0xc01d1a99	-2.4547484
23	0xc007d1ae	-2.1221728
24	0xc00f9ab5	-2.2438176
25	0xbfd3fe3b	-1.656196
26	0xc01de7e2	-2.467278
27	0xbff36f63	-1.9018368
28	0xc0422da3	-3.0340354
29	0x3ee1059c	0.43949592
30	0x3f083782	0.532097
31	0xc06e849f	-3.7268445
32	0xc054e8f7	-3.326719
33	0x3f63b27b	0.88944215
34	0xbfa8baff	-1.3182067
35	0xbed429d0	-0.4143815
36	0xbfcc7216	-1.5972316
37	0x3fab133a	1.3365242
38	0xc02d9e4a	-2.7127862
39	0xbfa8150a	-1.3131421
40	0xbf689a4d	-0.90860444
41	0xc0965962	-4.698411
42	0xc03dff89	-2.9687216
43	0x3e4e28a8	0.20132697
44	0xbfbbe2b3	-1.4678558
45	0xbfaefcc1	-1.3670884
46	0xbd8af542	-0.067850605
47	0x3f56d957	0.83925384
48	0xbf9eb20e	-1.2398088
49	0x40339b3e	2.8063502
50	0x400c87c4	2.1957865
51	0xbfa05f28	-1.2529039
52	0x3f8d5fef	1.1044902
53	0xbf9d1865	-1.227307
54	0xc001681d	-2.0219796
55	0x3f44542e	0.7669095
56	0xbfee16ee	-1.8600748
57	0xbed305cb	-0.41215357
58	0x3e616dc7	0.22014533
59	0xc0001b5e	-2.0016704
60	0xbfb7d061	-1.4360467
61	0xbeb5deb0	-0.3552146
62	0xbf2df4a0	-0.67951393
63	0xc0241ac3	-2.5641334
64	0x4047f3cd	3.1242554
65	0xbf6f144f	-0.93390363
66	0x4005a3cc	2.0881224
67	0xbf61b2c9	-0.8816343
68	0xbef9d184	-0.4879266
69	0xbf19421c	-0.598665
70	0xbee63c7b	-0.44968018
71	0x402756d9	2.6146758
72	0xbff8a046	-1.9423912
73	0x405d8375	3.4611485
74	0x3f8ceeb7	1.101035
75	0x3e83e6be	0.2576198
76	0xbff59498	-1.9185972
77	0xbf316f21	-0.69310194
78	0x3fabbbed	1.3416725
79	0xc08d06ae	-4.4070654
80	0xc0171aba	-2.3610063
81	0xbec63dc6	-0.38719004
82	0x3fe5e7d1	1.796137
83	0xbedd0952	-0.43171173
84	0xbfcd10e1	-1.6020776
85	0x3fa1089b	1.2580751
86	0xbf90a384	-1.1299901
87	0x3fb3fd41	1.4061662
88	0x3eb040ac	0.3442434
89	0xbbbac616	-0.005699883
90	0x3f1cc6f6	0.6124109
91	0x3eb51da1	0.35374168
92	0xc009d519	-2.1536314
93	0x3edd8fda	0.43273813
94	0x3f892a0a	1.0715954
95	0xbfbe5a4d	-1.4871308
96	0x3e9606ba	0.29302007
97	0x3f6617ec	0.8988025
98	0x3e9b0108	0.30274224
99	0xbf8786d3	-1.058802
100	0xbfe6b25e	-1.8023183
101	0x3df0c8a8	0.11757022
102	0xbe8af182	-0.2713738
103	0x3f51144b	0.8167159
104	0x3f069671	0.52573305
105	0x3ed1a431	0.4094558
106	0xbf502cfd	-0.81318647
107	0x3fcb6c64	1.5892453
108	0xbf0c9af7	-0.5492396
109	0xbf319776	-0.69371736
110	0xbe89c106	-0.26905078
111	0xbe84011f	-0.25782105
112	0x3ed3ee0b	0.4139255
113	0xbd31e272	-0.043428846
114	0xbdf4a91b	-0.11946317
115	0xbeb8a296	-0.36061543
116	0xbeb77c16	-0.35836858
117	0x3d5935d2	0.053029843
118	0x3ddadef5	0.10687057
119	0xbe7e9632	-0.24861982
120	0xbf0765f7	-0.5288996
121	0x3eeb3920	0.4594202
122	0xbd8eecf3	-0.06978788
123	0x3e62a397	0.22132717
124	0x3e996ec2	0.29967314
125	0x3da3717a	0.07980628
126	0xbe5b0199	-0.21387328
127	0x3f2db576	0.6785501
128	0x3f0675d1	0.52523524
129	0xbe1bf924	-0.15231758
130	0xbeb5f039	-0.35534838
131	0x3dd0321e	0.10165809
132	0x3f9dfc0d	1.2342545
133	0xbe271085	-0.16314895
134	0xbdbac6bc	-0.09119937
135	0x3d9a7a91	0.07542909
136	0x3b799d71	0.0038088227
137	0xbe8d6cec	-0.27622163
138	0x3e1fb01b	0.15594523
139	0x3edb0352	0.4277597
140	0xbdd89d48	-0.10576874
141	0x3f35256c	0.70760226
142	0xbf743f66	-0.9540924
143	0x3eb29472	0.3487888
144	0x3e70f3ee	0.23530552
145	0x3e883c1b	0.26608357
146	0x3ea9efcf	0.33190772
147	0x3f454b99	0.7706848
148	0x3efc7384	0.4930688
149	0x3e6252af	0.22101854
150	0x3f3c392e	0.7352475
151	0x3efab616	0.48967046
152	0xbe999f62	-0.30004412
153	0xbdff180b	-0.12455758
154	0xbf83c5e9	-1.0294772
155	0xbeaee2e3	-0.34157476
156	0x3d599caa	0.053127922
157	0xbe632852	-0.2218335
158	0xbf1433f5	-0.5789178
159	0x3e86d41b	0.263337
160	0x3ec009c9	0.37507465
161	0x3def3e72	0.116818324
162	0x3ea7f696	0.32805318
163	0xbf84adbc	-1.036552
164	0xbf3e5103	-0.74342364
165	0xbed6e00d	-0.41967812
166	0xbe48510e	-0.1956217
167	0xbecf7d39	-0.40525225
168	0xbe9d155c	-0.30680358
169	0x3f24497e	0.6417464
170	0x3f917021	1.1362344
171	0xbe9afc00	-0.30270386
172	0xbe3aec06	-0.18254098
173	0x3ef02c44	0.46908772
174	0x3eb55b31	0.35421136
175	0x3e703f0b	0.23461549
176	0x3e002516	0.12514147
177	0x3f2c0397	0.6719298
178	0x3e404029	0.18774475
179	0xbf1bc183	-0.6084215
180	0x3d88959e	0.06669162
181	0x3f8237ea	1.0173314
182	0x3ed79e45	0.42112938
183	0x3f004aef	0.5011434
184	0xbede3ead	-0.43407193
185	0xbeb7d687	-0.3590586
186	0xbe6cdfd9	-0.23132266
187	0x3f86cc75	1.0531145
188	0xbf03da09	-0.5150457
189	0x3ee16f55	0.44030252
190	0x3ec19694	0.37810194
191	0x3ea67c4f	0.32516715
192	0xbdd84eb0	-0.105618834
193	0xbd0f3b07	-0.034968402
194	0x3f067cb0	0.5253401
195	0x3f58d4db	0.8469979
196	0xbeb03784	-0.34417355
197	0x3db8acc9	0.09017331
198	0x3eb2153c	0.34781826
199	0x3e04b95e	0.12961337
200	0xbf63b5aa	-0.8894907
201	0x3f1596ca	0.5843321
202	0x3ee37861	0.4442778
203	0x3dfe3aa8	0.124135315
204	0x3eb225d6	0.34794492
205	0x3f162e5d	0.58664495
206	0xbf296cb4	-0.6618149
207	0x3d809a0a	0.062793806
208	0x3e05b6f4	0.13058072
209	0xbdfbd044	-0.12295583
210	0x3ead24a8	0.3381703
211	0x3e0b8fd6	0.13629088
212	0x3f16e0f4	0.58937
213	0xbd5252da	-0.051348545
214	0xbe8a37e7	-0.26995775
215	0xbeefde6e	-0.46849388
216	0xbf00b402	-0.5027467
217	0xbf320e91	-0.69553477
218	0xbea030ac	-0.31287134
219	0xbe918bb8	-0.2842691
220	0x3ecf6004	0.40502942
221	0xbb4421b8	-0.0029927325
222	0xbdfe3966	-0.12413292
223	0xbed84279	-0.42238215
224	0xbea4794f	-0.321238
225	0x3d512d42	0.05106855
226	0x3e3c9175	0.18414862
227	0xbe634e4b	-0.22197835
228	0xbf08c52e	-0.5342587
229	0x3eeb5a9f	0.45967576
230	0xbdeef8a6	-0.1166852
231	0x3e6f4d8b	0.23369424
232	0x3e9d7427	0.3075268
233	0x3d001264	0.03126754
234	0x3ea7773b	0.32708153
235	0x3eef2e69	0.46715096
236	0x3e3934d2	0.18086556
237	0x3f2fedcd	0.6872223
238	0x3d96f511	0.073709615
239	0xbe16cdb3	-0.14726906
240	0xbd32d970	-0.043664396
241	0xbee564cc	-0.44803464
242	0x3fa8fdaa	1.3202412
243	0xbf39e9de	-0.7262248
244	0x3e5e4821	0.21707202
245	0x3f12e3d0	0.57378864
246	0x3e7099dc	0.23496193
247	0xbfb13054	-1.3842874
248	0xbf887d0b	-1.066316
249	0x3edd05c2	0.43168455
250	0xbe81d4a1	-0.25357535
251	0x3da597b2	0.08085574
252	0x3f80edfe	1.007263
253	0x3f349a52	0.70547974
254	0x3ec0fecb	0.37694392
255	0x3c615301	0.0137527

conv_stem.1.weight f4 [64]
0	0x3fbcddc2	1.4755175
1	0x3fba9a4d	1.4578339
2	0x3f5e75ab	0.868983
3	0x3fc1f0b7	1.5151585
4	0x3fa07c2b	1.2537893
5	0x3f9edd5f	1.2411307
6	0x3f83a9c0	1.0286179
7	0x3f9b3ba1	1.2127572
8	0x3faf51e2	1.3696864
9	0x3f858ed1	1.0434209
10	0x3f955cc2	1.1668932
11	0x3f981513	1.1881431
12	0x3f822f79	1.0170738
13	0x3f936f27	1.1518296
14	0x3f96d8fb	1.1784967
15	0x3f9dca78	1.2327414
16	0x3f8061b7	1.002982
17	0x3f934423	1.1505169
18	0x3fa3ce1c	1.2797275
19	0x3f982513	1.1886314
20	0x3fca99dc	1.5828204
21	0x3f64570c	0.89195323
22	0x3f973ee7	1.1816071
23	0x3fb80b84	1.4378514
24	0x3fc2fd73	1.5233597
25	0x3f599407	0.84991497
26	0x3f913cf5	1.1346728
27	0x3fc178e6	1.511502
28	0x3f87c386	1.0606544
29	0x3f8ed15c	1.1157641
30	0x3f7aaa16	0.9791578
31	0x3f9f4d9b	1.2445558
32	0x3fa18130	1.261755
33	0x3f4c20b3	0.79737395
34	0x3f7884c1	0.97077566
35	0x3f812c02	1.0091555
36	0x3f6d8719	0.9278427
37	0x3f828978	1.0198202
38	0x3fbedf9a	1.4911988
39	0x3fa74813	1.306887
40	0x3f87f190	1.0620594
41	0x3f6d54f1	0.92707735
42	0x3f973cba	1.1815407
43	0x3ffe75d1	1.9879705
44	0x3fa34e5c	1.2758288
45	0x3f73aaed	0.9518269
46	0x3f9a6c44	1.206429
47	0x3fc91811	1.571047
48	0x3fb1f6dc	1.390346
49	0x3f91d99f	1.1394538
50	0x3f63927b	0.88895386
51	0x3f714354	0.9424336
52	0x3fba84ff	1.4571837
53	0x3fa25ae2	1.2683985
54	0x3fc940c0	1.5722885
55	0x3f97d3ba	1.1861489
56	0x3f8f73c2	1.1207201
57	0x3fdacaa6	1.7093093
58	0x3f7dcdea	0.99142325
59	0x3f9790e4	1.1841092
60	0x3fbc25d4	1.4699044
61	0x3fb9de6c	1.4521003
62	0x3f90d8a4	1.1316113
63	0x3fa2e5a2	1.2726328

conv_stem.1.bias f4 [64]
0	0xbf809ced	-1.004789
1	0xbf07d038	-0.5305209
2	0xbe9729ee	-0.29524177
3	0xbea58760	-0.32329845
4	0xbe7e7c2e	-0.24852058
5	0xbe4ceab7	-0.20011412
6	0xbdc17ab8	-0.09447235
7	0xbf240f62	-0.6408597
8	0xbf2c078c	-0.67199016
9	0xbc9f65c5	-0.019457707
10	0xbea7c504	-0.32767498
11	0xbf1ebe21	-0.62008864
12	0xbe0e8430	-0.13917613
13	0xbedfeba7	-0.43734476
14	0xbef4368e	-0.47697872
15	0xbf0f1902	-0.55897534
16	0xbd7c7fc6	-0.06164529
17	0xbf343826	-0.70398176
18	0xbecc5a46	-0.39912623
19	0xbf1a0690	-0.60166264
20	0xbf98d26a	-1.1939213
21	0xbe56a8fc	-0.209629
22	0xbcd7e5ab	-0.026354631
23	0xbf23bfda	-0.6396462
24	0xbf444e6a	-0.7668215
25	0xbe06dccc	-0.13170165
26	0xbf3c757a	-0.73616755
27	0xbf8eaf10	-1.1147175
28	0xbe47b0cb	-0.19501035
29	0xbdfdea8c	-0.12398252
30	0x3da3fb32	0.08006896
31	0x3d0b5000	0.03401184
32	0xbdde1a33	-0.10844841
33	0xbdf17b55	-0.11791102
34	0x3d9fcac7	0.078023486
35	0xbf2b50d2	-0.66920197
36	0xbef7bfeb	-0.4838861
37	0xbee8abda	-0.45443612
38	0xbf1cffef	-0.61328024
39	0x3de5b612	0.11216368
40	0x3d1b76ad	0.037954975
41	0xbe3be571	-0.18349244
42	0xbee4e02f	-0.44702289
43	0xbf68e025	-0.9096702
44	0xbf277bd5	-0.6542333
45	0xbe247fcb	-0.16064374
46	0xbec7b650	-0.3900628
47	0xbf0ad3da	-0.5422951
48	0xbf3e089b	-0.7423188
49	0xbf24c555	-0.64363605
50	0x3de7b7fa	0.113143876
51	0xbe76d5be	-0.24104974
52	0xbe93ee83	-0.28892908
53	0xbe8bc283	-0.27296838
54	0xbf38e25c	-0.72220397
55	0xbf24ffe6	-0.6445297
56	0xbede795c	-0.43451965
57	0xbf96ef56	-1.179179
58	0x3d812040	0.06304979
59	0xbf3de9e8	-0.7418504
60	0xbf2da179	-0.6782451
61	0xbf7ef19c	-0.99587417
62	0xbef1edbb	-0.47251686
63	0xbe9a855b	-0.30179867

conv_stem.1.running_mean f4 [64]
0	0xc10d22b2	-8.820971
1	0xc0a37a3f	-5.1086726
2	0xbfa8ca5e	-1.3186758
3	0xc0ba6f94	-5.8261204
4	0xc09c53cb	-4.8852286
5	0xbfbaf5fc	-1.4606318
6	0xc0e0da2a	-7.0266314
7	0xbfd2b8ae	-1.646261
8	0xc080a85e	-4.0205526
9	0xc0d0a961	-6.520676
10	0xc08f3b04	-4.475954
11	0xc0c77ad1	-6.233742
12	0x403dd129	2.9658911
13	0xc0253de5	-2.5819027
14	0xc06cbc97	-3.6990106
15	0xbf520b93	-0.8204891
16	0xc099c2b7	-4.805019
17	0x40053c9f	2.081825
18	0x3d36b457	0.04460558
19	0x40077a6c	2.116847
20	0xc0b2f726	-5.5926695
21	0x3f9f08ff	1.242462
22	0xc09389d6	-4.6105757
23	0xc0c0c0d7	-6.02354
24	0xc09bc845	-4.868197
25	0xc0d88df7	-6.7673297
26	0xc0651886	-3.5796218
27	0xbeacbd9f	-0.3373842
28	0x404e8404	3.2268076
29	0x3f27e206	0.6557926
30	0x3ecc88fc	0.3994826
31	0xc102e7b5	-8.181569
32	0xc0cbf43c	-6.373564
33	0x3e9d105b	0.3067654
34	0xc08d8151	-4.4220357
35	0x3fbae7d8	1.4602003
36	0x40cc5c37	6.3862567
37	0x3f3da452	0.7407886
38	0xc14acf51	-12.675614
39	0xc1015035	-8.082082
40	0xc0f29925	-7.5811944
41	0xbf8dac50	-1.1068211
42	0xbd308d0a	-0.043103255
43	0xc131400b	-11.0781355
44	0xc0a0cf1c	-5.025282
45	0xc0b981f1	-5.797112
46	0xc032dd82	-2.7947698
47	0xbf7298ff	-0.94764704
48	0x408655d3	4.1979766
49	0x40bfa05f	5.9883265
50	0xc09ebbbe	-4.9604177
51	0xc0954032	-4.6640863
52	0xc0ea49f8	-7.3215294
53	0xc04c90d6	-3.19634
54	0xc0c34627	-6.1023135
55	0xc06c5d58	-3.6931973
56	0xc0ac1fb9	-5.3788724
57	0xbfbeba40	-1.4900589
58	0xc04f4fbb	-3.2392414
59	0x409c4c24	4.8842945
60	0xc0f90460	-7.781784
61	0xc04f34f3	-3.2376068
62	0x40986632	4.762475
63	0x40377802	2.8666997

conv_stem.1.running_var f4 [64]
0	0x41c8cac4	25.099007
1	0x424e7229	51.611485
2	0x41e95750	29.167633
3	0x4211fe9c	36.498642
4	0x41d2098e	26.254665
5	0x42457748	49.366486
6	0x4228b188	42.17337
7	0x41c9de2b	25.23348
8	0x428daf9c	70.84299
9	0x4218025f	38.002316
10	0x41d0a437	26.080183
11	0x4205cc82	33.449715
12	0x41d78ce6	26.943798
13	0x42a94f58	84.65497
14	0x41b260ff	22.297361
15	0x420be50b	34.973675
16	0x42040ce7	33.0126
17	0x421de5b7	39.47433
18	0x41a6104a	20.757954
19	0x41e0ca1e	28.09869
20	0x41d2ed17	26.365767
21	0x41eaa3f0	29.330048
22	0x420793a2	33.894173
23	0x42100f5a	36.01499
24	0x424493b1	49.14423
25	0x42143da8	37.06021
26	0x41c2a550	24.330719
27	0x41dadcef	27.357878
28	0x41b77c23	22.935614
29	0x41b38c03	22.443365
30	0x4243c133	48.93867
31	0x41d9d7cf	27.230375
32	0x41f4550e	30.54153
33	0x41ba0cab	23.256186
34	0x42097047	34.359646
35	0x42128b2a	36.635902
36	0x4210dfab	36.218426
37	0x41d21e86	26.264904
38	0x42226a58	40.60385
39	0x41f2f890	30.371368
40	0x4221584f	40.33624
41	0x421075e6	36.115135
42	0x41b2a2da	22.329517
43	0x4209fa72	34.494576
44	0x4264d5ef	57.20892
45	0x41fbfc52	31.498203
46	0x41d8cbf7	27.099592
47	0x41a72fb9	20.898302
48	0x4229f3da	42.488136
49	0x4212bdf9	36.68552
50	0x4204709c	33.10997
51	0x41e4c3c8	28.595596
52	0x4216cd17	37.700283
53	0x41dc5e87	27.546156
54	0x428130d8	64.5954
55	0x41e0609b	28.04717
56	0x424c3e67	51.06094
57	0x41b537e5	22.652292
58	0x4194bff4	18.593727
59	0x41e4224c	28.516747
60	0x4209c281	34.439945
61	0x41e5fb6a	28.74776
62	0x42241cdd	41.028187
63	0x41aabcc6	21.342175

conv_stem.3.weight f4 [64, 64, 3, 3]
0	0xbf172003	-0.5903322
1	0x3f0c28b9	0.5474964
2	0x3e737c1a	0.2377781
3	0x3de73ed7	0.112912826
4	0x3d1a51ec	0.037675783
5	0xbf20a86d	-0.62757
6	0xbdf5e7ff	-0.1200714
7	0xbdbc5417	-0.09195726
8	0x3e2ead5f	0.17058323
9	0x3f383a9e	0.7196444
10	0x3e9772a4	0.2957965
11	0x3e71fea6	0.23632297
12	0xbdf6d41d	-0.12052176
13	0x3f989c0e	1.1922624
14	0x3f50575c	0.813833
15	0x3dd4133a	0.1035523
16	0x3f6f6427	0.93512195
17	0xbd5082dd	-0.05090605
18	0xbdf4e399	-0.11957473
19	0xbf0413ce	-0.5159272
20	0xbdff64b0	-0.124703765
21	0x3e2bf61a	0.16793099
22	0x3da296d9	0.07938928
23	0x3f25bb7f	0.6473922
24	0x3f852e14	1.0404687
25	0x3ea98c15	0.33114687
26	0xbe0db3d4	-0.1383813
27	0x3d51b4e0	0.051197886
28	0xbe92df23	-0.28685865
29	0xbf9cbacd	-1.2244507
30	0x3f95d982	1.1707003
31	0x3ef9713a	0.48719198
32	0xbf49062d	-0.7852505
33	0xbf8272a2	-1.0191233
34	0xbfafe02e	-1.3740289
35	0xbeb690a1	-0.35657218
36	0x3f0fa04e	0.5610398
37	0x3f8758f3	1.057402
38	0xbf82c2ef	-1.0215739
39	0xbcb7a3b6	-0.02241693
40	0xbf6f6a8c	-0.9352195
41	0x3d928e55	0.07156054
42	0xbd9e1185	-0.07718185
43	0x3eb42dcf	0.351912
44	0x3dfe40e8	0.12414724
45	0xbfb4ae91	-1.4115773
46	0xbf85da5a	-1.0457261
47	0xbf37426a	-0.71585715
48	0xbebb3571	-0.3656421
49	0xbe27048a	-0.16310325
50	0x3efe7103	0.49695596
51	0xbdea008b	-0.11425885
52	0xbd602579	-0.054723237
53	0xbe8190ff	-0.25305936
54	0x3e2d4d7b	0.16924088
55	0x3f4192d3	0.7561466
56	0x3e16e059	0.1473402
57	0xbe27f40a	-0.16401687
58	0x3f12c798	0.57335806
59	0x3f097540	0.53694534
60	0xbe9d1366	-0.30678862
61	0x3f9d5afc	1.2293391
62	0x3f76007f	0.96094507
63	0xbf1cbbe5	-0.61224204
64	0xbc4eaa51	-0.012613849
65	0xbe013160	-0.12616491
66	0xbed433cd	-0.4144577
67	0xbf3a5742	-0.72789395
68	0xbca1af0f	-0.019736795
69	0xbe5db4b5	-0.21650966
70	0xbf857a8f	-1.0428027
71	0xbd014da4	-0.031568184
72	0xbf91c7e0	-1.1389122
73	0xbf7175f6	-0.9432062
74	0xbee1131f	-0.439599
75	0xbf5dfe53	-0.8671619
76	0xbe86834d	-0.2627205
77	0xbe862441	-0.26199535
78	0xbf89e504	-1.0773015
79	0xbf9505b6	-1.1642368
80	0xbf9500ba	-1.1640847
81	0x3e873055	0.26404062
82	0x3ed4f470	0.4159274
83	0x3e9b4c55	0.30331674
84	0xbddc7418	-0.107643306
85	0x3f7f46ef	0.9971761
86	0x3f072f0d	0.5280617
87	0x3ee0871a	0.43853074
88	0x3f5e49ad	0.8683117
89	0x3d029271	0.03187794
90	0xbeabf1a6	-0.335828
91	0x3e884440	0.2661457
92	0xbe822513	-0.2541891
93	0xbef52c33	-0.47885284
94	0xbf1e029c	-0.6172273
95	0x3f4f5d69	0.8100191
96	0xbdfdf44a	-0.1240011
97	0x3b383c69	0.002811218
98	0x3daaa61a	0.083324626
99	0xbec18052	-0.37793213
100	0x3ef80329	0.4843991
101	0x3f80c1a4	1.0059094
102	0x3e22db87	0.15904056
103	0xbb8927f1	-0.0041856696
104	0xbca25920	-0.019817889
105	0x3f0c663f	0.54843515
106	0x3f101c55	0.5629323
107	0x3f33ef06	0.70286596
108	0xbee094b8	-0.43863463
109	0x3e8891b2	0.26673657
110	0xbee5fab5	-0.44917837
111	0xbe1b600d	-0.15173359
112	0x3e9bd9f5	0.30439726
113	0xbf4f3e53	-0.80954474
114	0x3ef0ad3d	0.4700717
115	0x3f22cd19	0.63594204
116	0x3ea00af5	0.3125836
117	0xbf41b85f	-0.7567195
118	0x3e3b8697	0.1831306
119	0xbf1961cb	-0.59914845
120	0x3f23c783	0.63976306
121	0x3f2a613d	0.66554624
122	0x3dad534c	0.08463153
123	0xbcb113dd	-0.021615917
124	0x3e36afda	0.1784052
125	0x3d8407e7	0.0644682
126	0xbf73ca9b	-0.95231026
127	0x3e6bc054	0.23022586
128	0xbf22c4c2	-0.6358148
129	0xbe7f615f	-0.24939488
130	0xbf813fd3	-1.0097603
131	0x3e34c9a2	0.17655042
132	0x3d0e419b	0.034730535
133	0x3e9cafb0	0.3060279
134	0xbf0cb283	-0.5495989
135	0x3f8ec512	1.1153891
136	0xbe3ce70c	-0.18447512
137	0xbe8eb2ce	-0.27870792
138	0x3e4aec8d	0.198168
139	0x3d525f70	0.051360548
140	0xbfc55d74	-1.5419145
141	0xbf2bb34a	-0.6707045
142	0x3e8dff5a	0.2773388
143	0xbf6ca648	-0.92441225
144	0xbf091a0e	-0.5355538
145	0xbf15ec71	-0.58563906
146	0x3f4c6180	0.79836273
147	0x3f439929	0.7640558
148	0x3d808c41	0.06276751
149	0xbd07d8d6	-0.033165775
150	0xbd90b07e	-0.07064913
151	0xbf1c1d24	-0.60981965
152	0xbf8fd94a	-1.1238186
153	0xbf46b169	-0.77614456
154	0xbf51435d	-0.81743413
155	0xbf7f470f	-0.997178
156	0xbfbce1d9	-1.4756423
157	0xbf840722	-1.0314677
158	0xbf54a18e	-0.8305901
159	0x3f758416	0.9590467
160	0xbf95e5c2	-1.1710742
161	0x3f6cb3b2	0.92461693
162	0x3f089d5f	0.5336513
163	0xbdfd1063	-0.12356641
164	0x3e7bc4ca	0.24586788
165	0x3e78df69	0.24303974
166	0xbf985b5a	-1.1902878
167	0xbea5fb66	-0.32418364
168	0x3e82b343	0.2552739
169	0x3f3f7517	0.7478804
170	0xbf3593a9	-0.70928437
171	0xbfa4513d	-1.2837292
172	0xbefb8d98	-0.49131465
173	0xbeaa5bd6	-0.3327319
174	0xbf2e760a	-0.68148863
175	0x3e1a6ae1	0.15079834
176	0x3e9bbcfa	0.30417615
177	0xbf8ae742	-1.0851824
178	0x3ed635be	0.41837877
179	0x3f57ea18	0.84341574
180	0xbf06bd29	-0.52632385
181	0x3f3382a7	0.70121235
182	0xbd9b32c8	-0.07578045
183	0x3ecb6fe8	0.39733815
184	0xbf107e8c	-0.56443095
185	0x3b8b4a53	0.0042508035
186	0x3e43ed86	0.19133577
187	0x3f0a0c46	0.5392498
188	0x3f7f13c9	0.99639565
189	0x3e65c79f	0.2243943
190	0xbf002d4f	-0.50069135
191	0xbfb052c8	-1.3775263
192	0xbfa096c2	-1.2546008
193	0xbdd3f4cb	-0.10349425
194	0xbf45c4fa	-0.7725369
195	0xbdbe60fd	-0.09295843
196	0x3ca3843d	0.019960517
197	0x3f7a798c	0.97841716
198	0x3f1e5e5a	0.6186272
199	0x3e9e457f	0.30912396
200	0x3edce1ab	0.4314092
201	0x3ed36ce0	0.41294003
202	0xbe38e583	-0.18056302
203	0x3e373ac6	0.17893514
204	0x3e664be2	0.22489884
205	0x3f4a437e	0.79009235
206	0x3f865807	1.0495614
207	0x3f0651be	0.5246848
208	0x3ef49267	0.47767946
209	0xbd87d541	-0.06632472
210	0x3da4bc0b	0.08043679
211	0xbef7ebb2	-0.4842201
212	0xbecd3733	-0.40081176
213	0x3e55869c	0.2085213
214	0xbee98b25	-0.4561397
215	0xbef4e4ce	-0.47830814
216	0x3e04588c	0.12924403
217	0x3edfcce9	0.43711022
218	0x3eb20d49	0.3477576
219	0x3e6365fb	0.22206871
220	0x3eeb010b	0.45899233
221	0xbeda8db6	-0.42686242
222	0x3d674abb	0.056467753
223	0xbde21a58	-0.11040181
224	0x3e267085	0.1625386
225	0xbf245143	-0.64186496
226	0x3d9e787d	0.07737825
227	0x3e94ab23	0.29036817
228	0xbdaca9c7	-0.0843082
229	0xbe92f9c7	-0.2870619
230	0x3c8b0d91	0.016974242
231	0xbf284c9d	-0.657419
232	0x3e89621d	0.26832667
233	0x3e446d92	0.19182423
234	0xbe3ed1a0	-0.18634653
235	0xbee58ddf	-0.44834802
236	0xbfb1936e	-1.3873117
237	0x3dc3ec71	0.09566582
238	0x3f6ec084	0.93262506
239	0xbf90db53	-1.1316932
240	0xbefb775f	-0.4911451
241	0x3e4511af	0.19245027
242	0xbf567856	-0.8377737
243	0xbf0cc040	-0.5498085
244	0xbf5f800d	-0.87304765
245	0xbeb70edd	-0.35753527
246	0xbe761018	-0.24029577
247	0xbe654bc5	-0.22392185
248	0xbf42799b	-0.75966805
249	0x3ea09693	0.3136488
250	0xbf6d3614	-0.9266064
251	0xbe835958	-0.256541
252	0x3e04d67e	0.12972447
253	0xbfaae350	-1.335062
254	0xbef2a9ed	-0.47395268
255	0x3e60d258	0.2195524

conv_stem.4.weight f4 [64]
0	0x3f14a4b2	0.58063805
1	0x3eeac073	0.45849952
2	0x3f19fe45	0.6015361
3	0x3f131f01	0.57469183
4	0x3ef1443e	0.47122377
5	0x3ed5749e	0.41690534
6	0x3f0e4d7f	0.55587
7	0x3f1ab2ea	0.6042925
8	0x3f01734a	0.5056654
9	0x3f146d17	0.5797896
10	0x3f18200a	0.5942389
11	0x3f3cef2f	0.73802465
12	0x3f0a90e7	0.54127353
13	0x3f12f8f6	0.57411134
14	0x3f21b597	0.6316771
15	0x3f38c120	0.72169685
16	0x3f148400	0.58013916
17	0x3f127ff8	0.57226515
18	0x3f14855e	0.58016
19	0x3eeaf239	0.45887926
20	0x3f0d2d02	0.551468
21	0x3f090b4c	0.5353286
22	0x3f15bec6	0.5849422
23	0x3f07a26a	0.529822
24	0x3f05b500	0.5222931
25	0x3f204b9e	0.6261538
26	0x3f0db2f5	0.5535119
27	0x3f060db3	0.52364653
28	0x3f0ec671	0.5577155
29	0x3ef36c48	0.4754355
30	0x3f1020ab	0.5629985
31	0x3f04db97	0.5189757
32	0x3eee039c	0.4648713
33	0x3f251b33	0.6449463
34	0x3efb3bfc	0.49069202
35	0x3f1a7c40	0.6034584
36	0x3edc2578	0.42997336
37	0x3f1a161f	0.60190004
38	0x3f1bfa57	0.60928863
39	0x3f0d7f8d	0.5527275
40	0x3f24a54c	0.64314723
41	0x3f20ed90	0.6286249
42	0x3f07dd01	0.530716
43	0x3f029361	0.5100613
44	0x3f20fe19	0.6288772
45	0x3f25d93e	0.6478461
46	0x3ed0a917	0.40754005
47	0x3f0cc824	0.5499289
48	0x3f158b9e	0.58416164
49	0x3ef349ff	0.47517392
50	0x3eec8cb6	0.46201104
51	0x3f28b9a8	0.6590829
52	0x3f21be47	0.63180965
53	0x3eeb2ffb	0.45935044
54	0x3f1534dd	0.5828379
55	0x3efa4ae9	0.48885277
56	0x3ee85321	0.45375922
57	0x3f3747c3	0.71593875
58	0x3ee76cdb	0.45200238
59	0x3f0bb947	0.54579586
60	0x3f14ce3f	0.58127207
61	0x3ee5dcf7	0.44895145
62	0x3efd7d1b	0.4950951
63	0x3f0398f7	0.5140528

conv_stem.4.bias f4 [64]
0	0xbebd3cf9	-0.3696058
1	0xbee73e16	-0.45164555
2	0xbf205393	-0.62627524
3	0xbeb7e6c8	-0.3591826
4	0xbeb35596	-0.35026234
5	0xbea5c0a1	-0.32373527
6	0xbee7dcaa	-0.4528554
7	0xbf1036d7	-0.5633368
8	0xbecda141	-0.4016209
9	0xbf2f5b90	-0.6849909
10	0xbef36892	-0.47540718
11	0xbf688a72	-0.9083625
12	0xbf0d3ce0	-0.5517101
13	0xbeecc684	-0.46245205
14	0xbef1ba3e	-0.47212404
15	0xbf00681d	-0.50158864
16	0xbee0dfc1	-0.4392071
17	0xbf371674	-0.71518636
18	0xbf22dc92	-0.63617814
19	0xbe975ea5	-0.29564396
20	0xbf03dda0	-0.5151005
21	0xbeaf3259	-0.342181
22	0xbf1d0ce5	-0.613478
23	0xbefc47d3	-0.49273548
24	0xbee7b931	-0.45258477
25	0xbf17c4b0	-0.59284496
26	0xbee30ff2	-0.44348103
27	0xbf037778	-0.5135417
28	0xbec37a56	-0.38179272
29	0xbef98122	-0.48731333
30	0xbf1533b6	-0.5828203
31	0xbf0804ca	-0.5313231
32	0xbe9db28b	-0.3080028
33	0xbf23556e	-0.6380223
34	0xbedd3e98	-0.43211818
35	0xbf19428a	-0.59867156
36	0xbee7714d	-0.4520363
37	0xbf075361	-0.528616
38	0xbefe3aaa	-0.49654132
39	0xbf0b97c5	-0.54528457
40	0xbedc47e3	-0.43023595
41	0xbf179f2f	-0.5922727
42	0xbf009200	-0.5022278
43	0xbf08a8e8	-0.5338273
44	0xbf10879c	-0.56456923
45	0xbf1c9505	-0.61164886
46	0xbd83e7df	-0.0644071
47	0xbeec3ad2	-0.46138626
48	0xbef7a907	-0.48371145
49	0xbeabd552	-0.33561188
50	0xbebae4a6	-0.3650257
51	0xbf0b39a9	-0.5438486
52	0xbf05f583	-0.52327746
53	0xbefb7028	-0.49109006
54	0xbe2360fb	-0.15954964
55	0xbe316ef7	-0.17327486
56	0xbf083cb2	-0.53217614
57	0xbf2efe9d	-0.6835726
58	0xbe38ae88	-0.18035328
59	0xbeac2a0d	-0.33625832
60	0xbeed3ccf	-0.46335456
61	0xbef084a5	-0.469762
62	0xbebdf492	-0.37100655
63	0xbf1f542c	-0.6223781

conv_stem.4.running_mean f4 [64]
0	0xc117485d	-9.455167
1	0xc01dbb5d	-2.4645607
2	0x3ef2ed1c	0.47446525
3	0xc12617d0	-10.380814
4	0xc0c9e66d	-6.309378
5	0x4058be97	3.3866327
6	0xc116db11	-9.428483
7	0xbfc8bde9	-1.5682956
8	0xc0dabfe2	-6.835923
9	0xc1a0e4a4	-20.11164
10	0xc103114a	-8.191721
11	0xc102f390	-8.1844635
12	0xc16cf32f	-14.809371
13	0xc159cb1c	-13.612087
14	0xc04861ed	-3.130977
15	0xc0d027c2	-6.5048532
16	0xc1101d83	-9.007205
17	0xc0b06cac	-5.5132656
18	0xc1329080	-11.160278
19	0xc0c23d64	-6.069994
20	0x3fd93743	1.696999
21	0xc034e369	-2.82638
22	0xc0be707d	-5.9512315
23	0xc0403cf2	-3.0037198
24	0xc00b399b	-2.175391
25	0xc10d3729	-8.825967
26	0xc0e2e807	-7.0908237
27	0xc086f83c	-4.217802
28	0x3f8b07e0	1.0861778
29	0xc01f7a0d	-2.4918244
30	0xc1028e72	-8.159777
31	0xc0a9d34c	-5.307043
32	0xc103bbbf	-8.233336
33	0xc1243e1a	-10.2651615
34	0xc0ab9c8b	-5.3628592
35	0x3f03904c	0.51392055
36	0xc05777f5	-3.3666966
37	0xc13603e1	-11.375947
38	0xc10cceaa	-8.800455
39	0xbfcf3708	-1.6188669
40	0xc07b1df9	-3.9237044
41	0xc131c4a9	-11.110513
42	0xc106415e	-8.390959
43	0xc0e7557c	-7.229185
44	0xbd4ca9ea	-0.04996673
45	0xc08ee9cf	-4.466041
46	0xc08ba6f8	-4.364132
47	0xc0a0b1ea	-5.021718
48	0x40c4797c	6.1398296
49	0xc0eb77f4	-7.3583927
50	0xc12fc211	-10.9848795
51	0xc188c724	-17.097237
52	0x3faf8b42	1.3714373
53	0xc09f80ac	-4.984457
54	0xc133cdcd	-11.237744
55	0xc13226be	-11.134459
56	0xbfec26e2	-1.8449366
57	0xc0be8214	-5.9533787
58	0xc0420aa8	-3.0319004
59	0xc12fb793	-10.982318
60	0xc0fba30b	-7.8636527
61	0xc0506eb8	-3.2567577
62	0xc092b607	-4.58472
63	0xc1065461	-8.3956

conv_stem.4.running_var f4 [64]
0	0x436d7ca2	237.48685
1	0x42f53e9f	122.62231
2	0x42adb2d7	86.8493
3	0x42f240f5	121.12687
4	0x42d2f25e	105.47337
5	0x42e01102	112.03322
6	0x42b6212c	91.06479
7	0x42c08762	96.26442
8	0x43195846	153.34482
9	0x430aed29	138.9264
10	0x42cfd9bc	103.92526
11	0x42eca6a9	118.32551
12	0x430b49f1	139.28883
13	0x43048daa	132.55338
14	0x42dfc370	111.881714
15	0x436bfd75	235.99007
16	0x4347d2aa	199.8229
17	0x42a877ec	84.23422
18	0x43087084	136.43951
19	0x42f1b763	120.85818
20	0x42c851d2	100.159805
21	0x42adbc25	86.86747
22	0x42c4cb68	98.39728
23	0x43097e30	137.49292
24	0x42e9834e	116.756454
25	0x43286238	168.38367
26	0x4349e611	201.8987
27	0x42f4ab8c	122.33505
28	0x431ae23a	154.8837
29	0x4305cca5	133.7994
30	0x42b9c185	92.87797
31	0x42b08440	88.2583
32	0x4301ee65	129.93123
33	0x4307d902	135.84769
34	0x430836c1	136.21388
35	0x430567d4	133.40558
36	0x42e805a2	116.011
37	0x4340cfb3	192.81133
38	0x42fbae96	125.84099
39	0x42b94301	92.63087
40	0x43604c1e	224.29733
41	0x42ca1a9e	101.05199
42	0x42f50fe0	122.531006
43	0x42dd5716	110.67009
44	0x42bec56f	95.38561
45	0x43094df1	137.30446
46	0x42eabcaf	117.36852
47	0x42d7238e	107.56944
48	0x4300ed9a	128.92813
49	0x432580cd	165.50313
50	0x42f58de8	122.77716
51	0x4340b7e7	192.71837
52	0x430e8059	142.50136
53	0x42ddfdf9	110.99604
54	0x42fbf110	125.970825
55	0x43217cb9	161.4872
56	0x42cc5f30	102.18591
57	0x42e58731	114.764046
58	0x431dc279	157.75966
59	0x42cc2dfd	102.08982
60	0x42ddeded	110.9647
61	0x42ec66f0	118.20105
62	0x4313be02	147.74222
63	0x43054771	133.27907

proj.weight f4 [64, 64, 1, 1]
0	0xbf0bbe32	-0.5458709
1	0x3e85c621	0.26127723
2	0xbd77aa73	-0.060465287
3	0x3e9183a4	0.28420746
4	0x3eadd66e	0.3395266
5	0xbd9515ba	-0.07279535
6	0xbd8fa95e	-0.07014726
7	0xbdaa8a78	-0.08327192
8	0x3e966dad	0.2938055
9	0x3f1920b5	0.5981553
10	0x3f077db2	0.5292617
11	0x3e059333	0.13044433
12	0x3eadf845	0.33978477
13	0x3daca207	0.08429342
14	0x3dbf3469	0.09336168
15	0x3edf6c77	0.4363744
16	0xbe61ba4d	-0.22043724
17	0xbe48dc9a	-0.19615403
18	0xbe89e989	-0.26935986
19	0xbe520c3d	-0.20512481
20	0x3eca19fb	0.39472947
21	0x3f00b624	0.50277925
22	0xbec3b411	-0.38223317
23	0xbefcd158	-0.49378467
24	0xbef330f6	-0.47498292
25	0x3f011a68	0.5043092
26	0xbf679a6a	-0.9046999
27	0x3c1fa4bc	0.009743866
28	0x3c82064a	0.01587214
29	0x3f809f35	1.0048586
30	0xbef6f9ea	-0.48237544
31	0xbd2e25bb	-0.04251645
32	0x3f449a05	0.76797515
33	0xbe1a9783	-0.1509686
34	0xbe5d5c09	-0.2161714
35	0x3e19aa2f	0.15006326
36	0xbee2b376	-0.44277543
37	0x3e0c2fdf	0.13690136
38	0x3e3cec6c	0.18449563
39	0xbebbb213	-0.36659297
40	0xb7df99fa	-2.6655372e-05
41	0xbb1a184c	-0.0023513017
42	0xbdd2f622	-0.10300852
43	0x3f043246	0.5163921
44	0x3f0d2b5b	0.5514428
45	0xbebdad15	-0.37046114
46	0x3e39a1a6	0.1812807
47	0xbdd6fc81	-0.1049738
48	0x3ee1ed49	0.44126347
49	0x3e12f78e	0.14352247
50	0x3e370d53	0.17876177
51	0xbe542e0d	-0.20720692
52	0xbd839bc0	-0.06426191
53	0xbea02d27	-0.31284449
54	0x3bfa1502	0.007631899
55	0xbe793aba	-0.24338809
56	0xbe1066d6	-0.14101729
57	0xbf192a73	-0.598304
58	0x3db29679	0.08720107
59	0x3ef18054	0.4716822
60	0x3eb554ac	0.35416162
61	0xbcf8d3ea	-0.030374486
62	0x3e2e07f6	0.16995224
63	0x3ecde81c	0.40216148
64	0x3c9dd753	0.019267714
65	0x3f00a86f	0.5025701
66	0x3f0a1aa2	0.5394689
67	0xbe72ae17	-0.23699223
68	0x3cdaae04	0.026694305
69	0x3ee4e188	0.44703317
70	0xbef7ccaf	-0.4839835
71	0xbe4e1b04	-0.20127493
72	0xbde4d6c5	-0.111737765
73	0xbe95872a	-0.29204684
74	0xbe8799de	-0.2648458
75	0xbde57662	-0.1120422
76	0xbf08310f	-0.5319986
77	0xbd742799	-0.059608076
78	0x3db45022	0.088043466
79	0x3f4bd924	0.79628205
80	0xbeb87133	-0.36023864
81	0xbc23453a	-0.009965235
82	0x3f941ee2	1.1571925
83	0x3dc5c4dc	0.096566886
84	0xbe5bf1a0	-0.21478891
85	0xbe2f588a	-0.17123619
86	0xbe0ef0a6	-0.13958988
87	0xbeaf9726	-0.34295005
88	0xbd460286	-0.04834225
89	0x3d97798e	0.073962316
90	0x3c355091	0.011066572
91	0xbee7bd8b	-0.45261797
92	0x3bcbb85f	0.006217047
93	0xbeabd56a	-0.3356126
94	0x3e0feb3b	0.14054577
95	0xbdde94a5	-0.108681954
96	0xbf0f1a46	-0.55899465
97	0x3eaa3fbd	0.33251753
98	0x3ee740a7	0.45166513
99	0xbf17fde5	-0.5937179
100	0xbf3d6af2	-0.7399131
101	0x3f00256e	0.50057113
102	0xbf275fe0	-0.6538067
103	0xbbad6a75	-0.0052922317
104	0x3ebd49d6	0.36970395
105	0x3e9ab5cd	0.30216828
106	0xbd672b2c	-0.056437656
107	0x3f2fedc4	0.68722177
108	0xbdd115b4	-0.10209218
109	0xbdca76ed	-0.098859645
110	0x3eddb8df	0.43305108
111	0xbdada410	-0.08478558
112	0x3dbdec17	0.09273546
113	0xbda6a82a	-0.081375435
114	0x3d85988d	0.065232374
115	0xbd8ee197	-0.069766216
116	0xbd1e10d2	-0.03859026
117	0x3ed15a32	0.40889126
118	0x3da84266	0.082157895
119	0xbde1c793	-0.11024394
120	0x3f1ccaa9	0.61246735
121	0x3ec962c2	0.3933316
122	0xbe18809e	-0.14892814
123	0xbeea2fd1	-0.45739606
124	0xbedb79af	-0.42866275
125	0x3f25b9cf	0.64736646
126	0xbe2888be	-0.16458413
127	0xbf1a1699	-0.6019073
128	0x3f156557	0.5835776
129	0x3e36c0d3	0.17846994
130	0xbe569a76	-0.2095736
131	0xbeb53863	-0.35394582
132	0x3e4de244	0.20105845
133	0x3da84307	0.082159095
134	0x3cee9925	0.02912576
135	0x3e692679	0.22768582
136	0xbd251b32	-0.04030914
137	0xbe619cae	-0.22032425
138	0xbe4189c9	-0.18900217
139	0xbdfd43f0	-0.12366474
140	0xbe3a86b4	-0.18215448
141	0xbed69b61	-0.4191542
142	0x3e2e4a1e	0.17020461
143	0x3e7cff4a	0.2470676
144	0x3e29346e	0.16523907
145	0x3ec14357	0.3774669
146	0xbef12f1d	-0.47106257
147	0x3c9abb50	0.018888146
148	0x3ebef2fb	0.37294754
149	0x3db175de	0.086650595
150	0xbe6b20e2	-0.22961763
151	0x3cdc090b	0.02685978
152	0xbdf3893a	-0.11891408
153	0x3eea0df9	0.45713785
154	0xbd2ccee5	-0.042189498
155	0x3e1e5915	0.1546367
156	0x3da37ed6	0.079831764
157	0xbecd0107	-0.40039846
158	0x3e52c770	0.20583892
159	0x3e75c2a7	0.24000035
160	0xbe124905	-0.14285667
161	0xbdd33918	-0.10313624
162	0x3edda246	0.43287867
163	0xbdff68f7	-0.12471192
164	0x3f518a1f	0.8185138
165	0xbf6321f3	-0.8872368
166	0x3f1b3b37	0.6063723
167	0x3e36d858	0.17855966
168	0x3eac6c42	0.33676344
169	0xbf039cd5	-0.5141118
170	0xbdc49d50	-0.096003175
171	0x3e9b6afe	0.30355066
172	0xbec0e434	-0.37674105
173	0xbea05c86	-0.3132059
174	0x3ef8c113	0.48584804
175	0x3e9b48de	0.3032903
176	0xbe851bae	-0.2599768
177	0x3f05b0d7	0.5222296
178	0xbe0cb750	-0.13741803
179	0x3d6fd163	0.058549296
180	0xbf28fe75	-0.6601327
181	0x3de72802	0.11286928
182	0x3ec3b725	0.38225666
183	0x3ed82f81	0.42223743
184	0x3e5501fe	0.20801541
185	0x3d232ea8	0.039839417
186	0x3e8645cc	0.26225126
187	0xbde54e83	-0.111966155
188	0x3f5c3213	0.8601391
189	0x3e9a4d8e	0.30137295
190	0x3d8a21e2	0.06744744
191	0xbe726575	-0.23671515
192	0xbedc8a79	-0.43074396
193	0xbe81b887	-0.25336096
194	0x3e059436	0.13044819
195	0xbccfeddb	-0.025381973
196	0x3ea0e026	0.31421012
197	0x3e2b3252	0.16718414
198	0xbf21f86e	-0.632697
199	0xbca5db04	-0.020246036
200	0x3eaae092	0.3337446
201	0xbe86122a	-0.26185733
202	0x3e9b48bc	0.3032893
203	0xbf5df348	-0.8669934
204	0xbecae53f	-0.39628026
205	0x3ef5be77	0.47996876
206	0x3e814315	0.25246492
207	0xbcbbfdbd	-0.02294814
208	0x3ee4e280	0.44704056
209	0xbea5e0ce	-0.32398075
210	0xbf68c156	-0.9092001
211	0xbe94106a	-0.28918773
212	0x3e9b6136	0.30347604
213	0x3e080602	0.13283542
214	0xbd896565	-0.067087926
215	0xbec4aca9	-0.3841298
216	0x3e6bb7f0	0.23019385
217	0xbdc0a7d4	-0.09407011
218	0x3ea2a9bb	0.3177012
219	0xbdf9c311	-0.12195409
220	0xbe168c49	-0.14701952
221	0x3e487524	0.19575936
222	0x3e7d64fb	0.24745552
223	0x3e3ecab5	0.18632014
224	0x3f2c703b	0.6735875
225	0x3e5311af	0.20612215
226	0x3eee5772	0.4655109
227	0xbc86bade	-0.016446527
228	0x3f54854a	0.8301588
229	0xbf3bdbf8	-0.7338252
230	0xbd8afe4a	-0.06786783
231	0x3d657362	0.05601824
232	0x3e4ef047	0.20208846
233	0x3ec781d5	0.3896624
234	0x3ee3cfd8	0.4449451
235	0x3bcb11a8	0.006197173
236	0x3f06c394	0.5264218
237	0xbe2ff3f5	-0.17182906
238	0xbd33d885	-0.04390766
239	0x3ee1a3e8	0.44070363
240	0xbe969adc	-0.29415023
241	0xbf0a018c	-0.5390861
242	0x3ef4d785	0.47820678
243	0xbeee40d0	-0.46533823
244	0xbf16d7fc	-0.58923316
245	0xbf11de9c	-0.569803
246	0xbe8a601c	-0.2702645
247	0x3d126f03	0.0357504
248	0xbea5ddab	-0.32395682
249	0x3e2f5cbd	0.1712522
250	0x3edc26a5	0.42998233
251	0x3eaf0254	0.34181464
252	0xbe591b93	-0.21201925
253	0xbf2e2f4d	-0.68040925
254	0x3d90aff4	0.070648104
255	0x3e6828e5	0.2267185

proj.bias f4 [64]
0	0xbe6744a0	-0.22584772
1	0x3bbf9e4b	0.0058477274
2	0xbe726f8b	-0.23675363
3	0xbd51f519	-0.051259134
4	0x3e167fc1	0.14697172
5	0x3a29e542	0.00064810005
6	0x3c6b721d	0.014370468
7	0x3ea4d8d7	0.32196686
8	0xbe063014	-0.13104278
9	0xbe322c58	-0.17399728
10	0xbe4a4e34	-0.19756395
11	0x3b880221	0.0041506444
12	0xbd051ada	-0.03249631
13	0x3de53501	0.1119175
14	0xbd828a5c	-0.06374046
15	0xbe3273a9	-0.17426933
16	0x3df13eb0	0.11779535
17	0xbdd836a6	-0.10557298
18	0x3d8f6062	0.070008054
19	0x3ea98d0c	0.33115423
20	0xbe17aed4	-0.14812785
21	0x3bcac6a4	0.0061882306
22	0x3e1845ee	0.14870426
23	0xbe23499a	-0.15946046
24	0x3e68d057	0.22735725
25	0xbe272732	-0.16323546
26	0x3ddc5857	0.10759037
27	0xbb0cdeee	-0.002149518
28	0x3e1d231b	0.15345423
29	0x3e0c6a16	0.13712344
30	0xbda1b6c4	-0.07896188
31	0x3e04ee62	0.12981561
32	0x3ea93824	0.33050644
33	0x3db9f1de	0.09079336
34	0x3c037ec2	0.008025827
35	0xbda9db11	-0.08293737
36	0x3dbd380e	0.09239207
37	0x3eb7e56e	0.35917228
38	0x3da578a2	0.080796495
39	0xbe762773	-0.24038486
40	0x3e81fd04	0.25388348
41	0xbcc12f47	-0.023582114
42	0xbdc01c36	-0.09380381
43	0x3d42fd8f	0.047605094
44	0xbd81b849	-0.06333978
45	0x3ddf0a22	0.108906046
46	0xbc9bce64	-0.019019313
47	0xbd8fee92	-0.070279256
48	0x3e2a2731	0.16616513
49	0x3d8da509	0.069162436
50	0x3d19c46b	0.037540834
51	0xbdb14434	-0.08655587
52	0xbe872b29	-0.26400116
53	0x3e17d6ce	0.14828035
54	0x39cc8962	0.0003901227
55	0x3d903989	0.07042224
56	0x3dd260f6	0.102724
57	0xbe196b34	-0.14982301
58	0xbe018a40	-0.12650394
59	0x3d6ec0b5	0.05828925
60	0x3e0f4c0e	0.13993856
61	0x3bd451e2	0.0064794878
62	0x3dc80d3b	0.097681485
63	0xbe244414	-0.16041595

encoder.layers.0.self_attn.in_proj_weight f4 [192, 64]
0	0x3ea184c5	0.31546608
1	0x3e1ce6aa	0.15322366
2	0x3c078884	0.008272294
3	0x3eda6d95	0.4266173
4	0xbd7e3d73	-0.06207032
5	0xbdabf30e	-0.083959684
6	0x3f050536	0.51961076
7	0x3e21d73f	0.15804766
8	0x3da1dcde	0.07903455
9	0x3d73aa2b	0.059488457
10	0xbe0bf134	-0.1366623
11	0x3dbdf37e	0.09274958
12	0xbe9edc55	-0.31027475
13	0x3dbdf836	0.09275858
14	0xbee99c0a	-0.4562686
15	0xbe1c82a1	-0.15284206
16	0x3e3ddd99	0.18541564
17	0x3e0c2ba1	0.13688518
18	0xbe775405	-0.24153145
19	0xbd941cef	-0.07232081
20	0xbd9e3af0	-0.07726085
21	0x3b026bb0	0.0019900613
22	0x3e46e8b1	0.19424702
23	0x3dcb6f6f	0.09933364
24	0xbca838d7	-0.020534916
25	0xbd41b5ed	-0.04729264
26	0xbe081d56	-0.13292441
27	0x3e2aadb9	0.16667832
28	0x3e6d9683	0.23201947
29	0xbe65b6f3	-0.22433071
30	0xbe8ea064	-0.27856743
31	0xbc28c401	-0.010300637
32	0x3e48a634	0.19594651
33	0x3db9eeef	0.09078776
34	0xbd51646a	-0.051121153
35	0xbd89deaf	-0.06731927
36	0xbe2becb1	-0.1678951
37	0x3e5ffb4d	0.21873207
38	0xbe941b61	-0.28927138
39	0x3e5bc0e7	0.21460305
40	0xbe88048f	-0.26565978
41	0x3e8d7594	0.27628767
42	0xbd78da62	-0.06075514
43	0xbd9d794a	-0.0768915
44	0x3dc7aedf	0.09750151
45	0xbea2f5a1	-0.31828025
46	0xbe41cc79	-0.18925656
47	0x3ccfaa64	0.025349803
48	0x3d21f918	0.039544195
49	0x3d55d759	0.052207325
50	0xbe1d87a2	-0.15383771
51	0xbe518081	-0.20459177
52	0xbde03920	-0.10948396
53	0x3e654b94	0.22392112
54	0x3c3658d4	0.011129577
55	0xbe6cd83b	-0.2312936
56	0xbe349b3e	-0.17637345
57	0x3df926c8	0.121656
58	0x3da9b4a6	0.08286409
59	0x3d3ba5f8	0.045812577
60	0x3c8f22d9	0.017472671
61	0xbe0efc91	-0.13963534
62	0x3dc5f85f	0.09666514
63	0xbe0f63d6	-0.14002928
64	0xbf02e33e	-0.51127994
65	0xbcb70ad3	-0.022344029
66	0xbe1e08f5	-0.15433104
67	0xbd27e55d	-0.040990222
68	0x3df123e2	0.11774422
69	0x3e342e22	0.17595723
70	0xbe9c160b	-0.30485567
71	0x3edd27ac	0.4319433
72	0x3d9c40bb	0.07629534
73	0x3e300368	0.171888
74	0xbe7514f7	-0.23933779
75	0xbe825754	-0.2545725
76	0x3e28c9f0	0.16483283
77	0xbeaaa1ea	-0.33326656
78	0xbf2fbf15	-0.68650943
79	0xbe540bd9	-0.20707645
80	0x3e8395ba	0.2570017
81	0x3e9a9a03	0.30195627
82	0x3e01ddc8	0.12682259
83	0x3ed47055	0.41491953
84	0xbe912f9b	-0.28356633
85	0xbd284cf9	-0.04108903
86	0xbd14dc48	-0.03634289
87	0xbc42a2dc	-0.011879649
88	0x3e1a3f41	0.15063192
89	0xbe0729eb	-0.13199584
90	0x3e9f1b5c	0.3107556
91	0x3c86d2be	0.016457912
92	0x3e463228	0.1935507
93	0xbde1a8b0	-0.11018503
94	0xbe2fde00	-0.1717453
95	0xbecf33f1	-0.40469316
96	0x3d92c16c	0.071657985
97	0xbbbe61b3	-0.0058099865
98	0x3e7b1e81	0.24523355
99	0xbe0a1558	-0.13484704
100	0x3dcbac1d	0.099449374
101	0x3c9bae30	0.019003958
102	0xbe6edca6	-0.23326358
103	0xbe8a7508	-0.27042413
104	0x3b854bf2	0.0040678913
105	0x3da04f09	0.07827575
106	0x3dd0ab42	0.10188915
107	0xbe5fa392	-0.21839741
108	0x3ea097bf	0.31365773
109	0x3d8e034c	0.069342226
110	0xbe41138e	-0.18855116
111	0x3d6363f9	0.055515263
112	0xbebadf42	-0.36498457
113	0x3d960c98	0.07326621
114	0x3b78563d	0.00378932
115	0x3e2005d1	0.15627219
116	0xbe1bcc4a	-0.15214649
117	0x3d1b8ef4	0.037978128
118	0xbe29aef3	-0.16570644
119	0xbe789369	-0.24274983
120	0x3c707894	0.014677186
121	0xbe0f5cc2	-0.14000228
122	0xbc294b19	-0.010332846
123	0x3e1da7e8	0.15396082
124	0x3e43be22	0.19115499
125	0xbe293c66	-0.16526946
126	0xbdc5d50b	-0.09659775
127	0x3e185a49	0.14878191
128	0xbdbd4fbb	-0.09243723
129	0xbe56f486	-0.20991716
130	0xbe01b1cb	-0.12665479
131	0x3e3c999b	0.18417971
132	0x399ec9ed	0.00030286555
133	0xbe2b73de	-0.16743419
134	0x3e2f2e88	0.17107594
135	0x3da3cdbb	0.07998224
136	0xbdfec1aa	-0.12439282
137	0x3e262ed4	0.16228801
138	0x3e0eb88a	0.13937584
139	0x3e136555	0.14394124
140	0x3e36dfbe	0.17858788
141	0x3ea5b0de	0.323615
142	0xbd809817	-0.06279009
143	0xbe32e758	-0.17471063
144	0xbe5618c8	-0.20907891
145	0xbbfa46f2	-0.007637852
146	0x3da33721	0.079694994
147	0xbe339789	-0.17538275
148	0xbeaa4d57	-0.3326213
149	0x3e951371	0.29116395
150	0xbdea6672	-0.11445321
151	0xbeaee652	-0.34160095
152	0x3eb37841	0.35052684
153	0xbe7c5f22	-0.24645665
154	0xbd9c1ce7	-0.076227
155	0x3e02cc73	0.12773304
156	0x3eb91d09	0.36154965
157	0xbe20617f	-0.15662192
158	0xbdc383da	-0.09546633
159	0x3df2b3e6	0.11850719
160	0xbb6dd394	-0.003628944
161	0x3d8995ed	0.06718049
162	0xbe1fc6ec	-0.15603226
163	0x3ef0a9d0	0.47004557
164	0xbd9b9aa8	-0.07597858
165	0x3c4fa854	0.01267441
166	0x3e058fa2	0.13043073
167	0x3e1ac54b	0.15114324
168	0x3e73a0b6	0.23791775
169	0xbe01ff48	-0.12695038
170	0xbe026e39	-0.12737359
171	0x3ec0f3c8	0.3768599
172	0x3e648e4f	0.22319911
173	0xbd8d8c5a	-0.069115356
174	0xbe0c2b58	-0.1368841
175	0x3c7ec041	0.015548767
176	0xbe2084ca	-0.15675655
177	0xbe9c01ef	-0.30470225
178	0x3e5a1db6	0.21300396
179	0x3c985c09	0.018598573
180	0x3eb1b5c5	0.34708992
181	0x3d65d084	0.05610706
182	0x3e357d89	0.17723669
183	0x3e6a4b2e	0.22880241
184	0x3db8b1a0	0.09018254
185	0xbe553868	-0.20822299
186	0xbebde332	-0.370874
187	0x3e378c4e	0.17924616
188	0xbe19631a	-0.1497921
189	0xbe8bfb38	-0.27340102
190	0x3e9e77a0	0.30950642
191	0xbdf70c81	-0.12062932
192	0xbd2f0239	-0.04272673
193	0x3e751200	0.23932648
194	0x3dc78229	0.09741623
195	0x3e1061f6	0.14099869
196	0x3e9ab99d	0.30219737
197	0x3bbd346d	0.005774072
198	0xbd46cefd	-0.048537243
199	0x3d8d19a0	0.06889653
200	0xbd8a450f	-0.06751453
201	0xbeabbb67	-0.33541414
202	0xbe294ac0	-0.16532421
203	0xbdb140a2	-0.08654906
204	0x3bfd557b	0.0077311373
205	0xbdddbf51	-0.10827506
206	0x3e48c2e3	0.19605593
207	0xbe70a5e5	-0.23500784
208	0xbc94f5d5	-0.018183628
209	0x3d0aa7ec	0.03385155
210	0x3e598ed5	0.21245892
211	0xbe7b7101	-0.24554826
212	0xbdd14c05	-0.10219578
213	0xbd39fa59	-0.045404766
214	0x3ea88026	0.3291027
215	0xbda58704	-0.08082393
216	0x3ded083f	0.115738384
217	0x3df5df93	0.12005534
218	0xbe5402a6	-0.20704135
219	0x3da02c93	0.07821002
220	0x3e1d6d31	0.15373684
221	0xbeb6180b	-0.35565218
222	0xbd34be4d	-0.044126797
223	0xbe176ed0	-0.14788365
224	0x3e4c9dd8	0.19982088
225	0x3d80f5e4	0.062969
226	0x3e2dad54	0.1696065
227	0xbdbcd0c7	-0.092195086
228	0x3ed4ab2f	0.41536853
229	0xbe461287	-0.19343005
230	0xbd185317	-0.037188616
231	0x3e3456ac	0.17611188
232	0xbe267d84	-0.16258818
233	0x3e4de276	0.20105919
234	0xbeaabf24	-0.33348954
235	0x3e47b7df	0.19503735
236	0x3de71771	0.11283768
237	0xbdbad740	-0.09123087
238	0x3db75a29	0.089527436
239	0x3d38c3fd	0.045108784
240	0x3db63270	0.08896339
241	0xbcaf0b17	-0.021367593
242	0xbe2a0711	-0.16604258
243	0x3e808962	0.25104815
244	0x3df65db9	0.12029595
245	0xbec6e6cc	-0.3884796
246	0xbe3e51a5	-0.18585832
247	0xbcb2a3b3	-0.021806573
248	0x3cec176c	0.028819762
249	0xbe45e3f4	-0.19325238
250	0xbe3ec8a0	-0.1863122
251	0x3e3b3f45	0.18285854
252	0xbe9aedef	-0.30259654
253	0xbd7b43d7	-0.061343994
254	0x3e8612fe	0.26186365
255	0xbe6c4428	-0.23072875
