models/rym_grid_c0_s64_e2_t4_r4/conv_transformer_c0_ce_a0p5_l0_lr1e-03.pt (torch, 750481 bytes, 40 tensors)

pos_embed f4 [1, 64, 64]
0	0xbec41e88	-0.38304543
1	0x3e83bac2	0.25728422
2	0xbe89c07c	-0.26904666
3	0x3f0d433e	0.5518073
4	0xbe780b56	-0.24223074
5	0x3f0e5902	0.55604565
6	0xbeb294e5	-0.34879223
7	0xbec7f975	-0.39057508
8	0xbe3efcb3	-0.18651085
9	0xbe887efa	-0.26659375
10	0x3e25c18f	0.16187118
11	0xbeaa7c77	-0.33298084
12	0x3dbaadca	0.09115179
13	0x3ea3ba28	0.31977963
14	0xbf25ba4f	-0.6473741
15	0xbd9080e5	-0.07055835
16	0xbf2a38b5	-0.6649278
17	0x3c8f78df	0.01751369
18	0x3db3bf91	0.08776773
19	0xbe9654b9	-0.29361513
20	0xbf0ba3ce	-0.5454682
21	0xbe264286	-0.16236314
22	0xbe9b952f	-0.30387256
23	0x3f003e2a	0.50094855
24	0x3f810b44	1.0081563
25	0xbe6306db	-0.22170584
26	0x3ede0635	0.4336411
27	0xbe091659	-0.13387431
28	0xbe42cba1	-0.19022991
29	0xbf10909f	-0.56470674
30	0x3eab1b5f	0.3341932
31	0x3ea39d7a	0.31956083
32	0x3f0d4d84	0.55196404
33	0x3f887108	1.0659494
34	0x3e5314ee	0.20613453
35	0x3f83ee58	1.0307112
36	0xbea93a83	-0.33052453
37	0x3db2c508	0.08728987
38	0x3ec1ca76	0.37849778
39	0xbf57d12c	-0.84303546
40	0x3ecbd795	0.39812914
41	0x3de32eed	0.11092935
42	0x3e939562	0.28824908
43	0xbf10e48e	-0.56598747
44	0xbe063915	-0.13107713
45	0x3e83ce14	0.25743163
46	0xbce3a5ce	-0.027789023
47	0x3f47f918	0.7811446
48	0xbe0de36e	-0.13856289
49	0xbef27df7	-0.4736173
50	0xbef287d4	-0.47369254
51	0xbe6a3095	-0.22870095
52	0xbe3298e5	-0.17441137
53	0x3e8ff857	0.28119156
54	0xbe78d6cb	-0.24300687
55	0x3e93c06a	0.28857738
56	0xbe2c060e	-0.16799185
57	0x3c08996c	0.00833736
58	0x3f1cc921	0.612444
59	0x3d109f12	0.03530795
60	0x3f0302ec	0.51176333
61	0xbf20f66a	-0.62876
62	0xbf158fe5	-0.5842269
63	0xbf32f2b5	-0.6990159
64	0xbe6e1a93	-0.23252325
65	0xbf03f71d	-0.5154894
66	0xbf893fc3	-1.0722584
67	0xbf20abde	-0.6276225
68	0xbf106f3c	-0.5641973
69	0x3d040ee3	0.03224076
70	0x3d2e6f13	0.042586397
71	0xbe9256f3	-0.28581962
72	0x3e9f231a	0.31081468
73	0x3eba5d94	0.3639952
74	0x3f8463ca	1.0342953
75	0xbed6b6cb	-0.41936335
76	0xbf5d2527	-0.86384815
77	0xbe5ae284	-0.21375471
78	0xbf7fab23	-0.9987051
79	0xbe17438f	-0.14771865
80	0xbea8e582	-0.329876
81	0x3f83aea3	1.028767
82	0xbe7b752c	-0.24556416
83	0xbf43a492	-0.7642299
84	0x3ee10714	0.43950713
85	0x3f0ec47f	0.5576858
86	0xbed66192	-0.41871315
87	0x3f433b14	0.7626202
88	0x3ead07ae	0.33794922
89	0x3f5b85b8	0.85750914
90	0xbd6e70cf	-0.05821305
91	0x3f26a1c7	0.650906
92	0x3db7879c	0.08961412
93	0x3e2b9c3a	0.16758814
94	0x3ecb594f	0.39716575
95	0x3f9e6c3f	1.2376784
96	0x3f139a9a	0.5765778
97	0x3edb9e22	0.42894083
98	0x3f6bd954	0.9212849
99	0xbf6aa1ad	-0.9165295
100	0x3e6e1ae2	0.23252442
101	0x3e9f30d3	0.31091937
102	0xbefe8dfe	-0.49717706
103	0xbca696f3	-0.02033565
104	0xbddeb6c5	-0.10874704
105	0xbec1fd98	-0.3788879
106	0xbd83e8b4	-0.06440869
107	0x3ec5563d	0.38542357
108	0x3f6bd6c0	0.9212456
109	0xbeb213f2	-0.34780842
110	0x3ee95adb	0.4557713
111	0x3bf6ba5d	0.0075295405
112	0xbdc4d0c6	-0.09610133
113	0xbd4c42c5	-0.049868364
114	0x3de59474	0.11209956
115	0x3f34d67f	0.70639795
116	0x3e7a3ca7	0.244372
117	0xbee4c8e0	-0.44684505
118	0x3be1e466	0.0068936823
119	0x3ebe634d	0.37185135
120	0xbe34830d	-0.17628117
121	0x3e7db7f6	0.24777207
122	0xbf3f5c90	-0.74750614
123	0xbf01b6a8	-0.50669336
124	0x3e4e52c1	0.20148756
125	0xbf3f031b	-0.74614114
126	0x3f15197b	0.58242005
127	0x3f5a9e33	0.8539764
128	0x3d606ec9	0.054793153
129	0xbf218f32	-0.63109124
130	0xbe074bd0	-0.13212514
131	0x3f5fe787	0.8746266
132	0x3d8b9496	0.0681545
133	0xbebf1331	-0.3731933
134	0x3e420769	0.18948139
135	0xbefcc755	-0.49370828
136	0xbecc516a	-0.39905864
137	0x3edb794a	0.42865974
138	0x3f4a8840	0.7911415
139	0xbe850a3f	-0.2598438
140	0x3e3c9932	0.18417814
141	0xbd74c6d9	-0.05975995
142	0x3ea71fe0	0.32641506
143	0x3e10ae63	0.14129023
144	0xbdc5d9b0	-0.09660661
145	0x3def3a68	0.11681062
146	0x3ecf2943	0.40461168
147	0xbd3073ee	-0.04307931
148	0x3e50e30c	0.20399112
149	0x3e8cb7f1	0.27484086
150	0xbd07b043	-0.03312708
151	0x3ed73ca2	0.42038447
152	0x3f2bc709	0.6710058
153	0xbf34497e	-0.7042464
154	0x3d7a1c30	0.061062038
155	0x3ea501a5	0.32227817
156	0xbf7e17c4	-0.99255013
157	0x3e089c20	0.13340807
158	0xbe92ece5	-0.2869636
159	0x3d7fb767	0.062430765
160	0x3f069cf2	0.5258323
161	0x3ee83883	0.45355615
162	0x3f328aa5	0.69742805
163	0x3f17a3f0	0.59234524
164	0xbd6afd11	-0.05737025
165	0xbf1c158e	-0.6097039
166	0x3dbe42a8	0.092900574
167	0x3db97186	0.09054856
168	0xbe8485bb	-0.25883278
169	0xbebc5c0f	-0.36788985
170	0x3bea9ac8	0.0071595646
171	0xbe4b16be	-0.19832894
172	0x3f66f0f6	0.9021143
173	0xbe33bc75	-0.1755236
174	0x3e837f1e	0.2568292
175	0x3ef41a00	0.47676086
176	0x3dc79aed	0.097463466
177	0xbe8d7934	-0.27631533
178	0xbfa59836	-1.2937076
179	0xbecf7d60	-0.4052534
180	0xbe8c3b6f	-0.27389094
181	0xbe8bff70	-0.2734332
182	0xbe84e60a	-0.25956756
183	0x3e807321	0.25087836
184	0xbf38a85b	-0.7213189
185	0x3e5bdb39	0.21470346
186	0x3e9a1703	0.30095682
187	0x3c2e8aa8	0.010653175
188	0xbeffe90c	-0.49982488
189	0x3ee941ac	0.45557916
190	0x3f7f2c89	0.9967733
191	0xbecf3c5a	-0.40475732
192	0xbf437a41	-0.7635842
193	0xbdc2425d	-0.09485314
194	0x3f29541b	0.6614396
195	0xbdc3c6da	-0.09559412
196	0xbe0ad667	-0.1355835
197	0x3ecd032a	0.40041476
198	0xbebd8dd9	-0.37022284
199	0x3e9f9769	0.31170204
200	0x3d0439fc	0.03228186
201	0xbfcb873f	-1.5900649
202	0x3e884a01	0.2661896
203	0x3deccc84	0.11562446
204	0xbf4d22e7	-0.8013138
205	0x3f448a3f	0.76773447
206	0x3d65784d	0.05602293
207	0x3e1568ba	0.14590731
208	0x3f08371d	0.53209096
209	0xbd81c467	-0.06336289
210	0x3e2f264d	0.17104454
211	0xbe60fc4d	-0.21971245
212	0x3e253424	0.16133171
213	0x3f33874f	0.7012834
214	0x3f4ff48c	0.81232524
215	0x3eb04d3d	0.34433928
216	0xbf478514	-0.77937436
217	0xbeda8d87	-0.42686102
218	0x3d80049b	0.062508784
219	0xbd00748e	-0.031361155
220	0xbf2fa4e3	-0.6861097
221	0xbee5463f	-0.44780156
222	0x3bcd0ba4	0.006257491
223	0xbf6acb15	-0.9171613
224	0x3f63a9a9	0.88930756
225	0x3f4ac4bc	0.7920644
226	0xbc96904b	-0.018379351
227	0x3e97cdff	0.2964935
228	0x3d91a6bb	0.071118794
229	0xbf3f99e8	-0.7484422
230	0x3eee0f3b	0.46495995
231	0x3c7ad780	0.015310168
232	0xbf0c0c9f	-0.5470676
233	0x3f0081ec	0.50198245
234	0xbf63def4	-0.89012074
235	0x3e983d13	0.29734096
236	0xbe24db61	-0.16099311
237	0x3daeb6aa	0.08530934
238	0x3e75f11d	0.24017759
239	0x3e57c77d	0.21072192
240	0x3d14d964	0.036340132
241	0xbe1f76db	-0.15572684
242	0xbed3dd37	-0.4137971
243	0xbcf559f7	-0.029950125
244	0xbe947f4e	-0.29003376
245	0xbd702b76	-0.058635198
246	0x3e9ed89b	0.31024632
247	0xbe706407	-0.23475657
248	0xbe10ce62	-0.14141229
249	0xbf2ed89f	-0.6829929
250	0x3f954615	1.1662012
251	0xbf1b670a	-0.607041
252	0x3f067e80	0.52536774
253	0xbe97da3a	-0.2965868
254	0x3f210b56	0.6290792
255	0xbf363241	-0.7117043

conv_stem.0.weight f4 [64, 64, 3, 3]
0	0x3f6d4818	0.9268813
1	0x3d015666	0.031576537
2	0x3fd27f5b	1.6445116
3	0x3d4b5302	0.04963971
4	0xc0bd5f0a	-5.9178514
5	0xbf78d683	-0.9720232
6	0xbf9fa44a	-1.2472012
7	0xbe5affa3	-0.2138658
8	0xbeec6efe	-0.4617843
9	0xbfc72504	-1.5558171
10	0xbfca3069	-1.5796024
11	0x3ea79f0c	0.3273853
12	0xbf684801	-0.9073487
13	0xc0a701f7	-5.21899
14	0xbf86dcd3	-1.053614
15	0xbf62afcb	-0.8854949
16	0xc05b12dd	-3.4230263
17	0xbeb85f10	-0.36010027
18	0xbf632ea8	-0.88743067
19	0xbf7a9a80	-0.97892
20	0x403bffd8	2.9374905
21	0x3edf1918	0.43573833
22	0xc0a55e61	-5.167771
23	0x3f0a6f23	0.5407583
24	0xbff5e784	-1.9211278
25	0x400d0ac6	2.2037826
26	0x3edb51d9	0.42835882
27	0x3fd057ae	1.6276758
28	0x3eb39213	0.35072383
29	0xbee388cb	-0.44440302
30	0xbe1bc9bc	-0.15213674
31	0xc01a85b6	-2.414411
32	0xc016de45	-2.3573163
33	0xbf658548	-0.89656496
34	0xbff275ac	-1.8942161
35	0xbf0e48d0	-0.55579853
36	0xc006d224	-2.106576
37	0x3e92c963	0.2866927
38	0x3fa828de	1.3137472
39	0x3ec64669	0.38725594
40	0xbfecf09b	-1.8510927
41	0x3f2b5afa	0.66935694
42	0xc00c5a61	-2.1930163
43	0x3fdcce9f	1.7250556
44	0xbffbc1e4	-1.9668546
45	0x3fa09eef	1.2548503
46	0x3ebaa295	0.36452165
47	0xbf2a525e	-0.6653193
48	0x3f506990	0.81411076
49	0xbe107d8b	-0.14110391
50	0x3f5836c9	0.84458596
51	0xbf4c0412	-0.7969371
52	0xbfb2b7e4	-1.3962369
53	0xbf860518	-1.0470304
54	0xc03cefa3	-2.9521263
55	0x3f14c622	0.58114827
56	0x4000e2cf	2.0138433
57	0xbf49a068	-0.78760386
58	0xbffea5fe	-1.9894407
59	0x4028d677	2.63809
60	0x3d8aa9e9	0.06770689
61	0xbfd4de80	-1.6630402
62	0xbf84aace	-1.0364625
63	0x3f18220f	0.5942697
64	0xbfea76e7	-1.8317536
65	0x3fd5fbb4	1.6717439
66	0x3f93a66f	1.1535167
67	0x400f5db1	2.2400935
68	0x3ed3db5b	0.41378292
69	0x3febe188	1.8428202
70	0x3f08d6c1	0.5345269
71	0x3f750b3e	0.9572028
72	0xbfac9eb6	-1.3485935
73	0xbef5400e	-0.47900432
74	0x3f80c521	1.0060159
75	0xbc23d252	-0.009998875
76	0x3fc6aacf	1.5520877
77	0x3fe46924	1.7844586
78	0xbf7e7a4d	-0.99405366
79	0x3f1b176e	0.60582626
80	0x3f3e9088	0.7443929
81	0x3feb2da0	1.8373299
82	0x3e153500	0.14570999
83	0x3ee69aca	0.4503997
84	0xbf42ab2b	-0.7604243
85	0xc088daa2	-4.2766886
86	0xc036c9b6	-2.8560615
87	0xc0a0b8b7	-5.022548
88	0xbf26f4b7	-0.65217155
89	0xc023c6f7	-2.5590189
90	0xbe2d4cc6	-0.16923818
91	0xbfb92590	-1.4464588
92	0x3dce868d	0.10084257
93	0x3fb8c394	1.4434686
94	0xbe30ecb9	-0.17277803
95	0x3f397b79	0.7245403
96	0xbe2b9879	-0.16757382
97	0xc00b076e	-2.1723285
98	0xbfe41ba9	-1.7820941
99	0x3cd88c75	0.026434163
100	0x3fd7692b	1.682897
101	0x3e2cf03f	0.16888522
102	0x3db250ff	0.08706855
103	0x3fcb0813	1.5861839
104	0x3f8b47b7	1.0881261
105	0xbebb8945	-0.36628166
106	0xbfa32e73	-1.274855
107	0xbf31df7f	-0.6948165
108	0xbeabf0e0	-0.3358221
109	0x3ec9e4bd	0.39432326
110	0x3e4df000	0.20111084
111	0x3ebb94a7	0.3663685
112	0xbe404a21	-0.18778278
113	0xbf9897ef	-1.1921366
114	0x3e03ff5f	0.12890385
115	0xbe360d3d	-0.17778488
116	0xbf03b016	-0.5144056
117	0x3f4d4ee2	0.8019849
118	0xbe98aab7	-0.29817745
119	0x3f145e67	0.57956547
120	0x3f1bc606	0.60849035
121	0xbe834f22	-0.2564631
122	0xbe8f17d9	-0.27947882
123	0xbf2f7e54	-0.68552136
124	0x3e331310	0.1748774
125	0x3f04b101	0.51832587
126	0x3fd1cb57	1.6390179
127	0x3f561413	0.8362438
128	0x3f877343	1.058205
129	0x3e76ec10	0.24113488
130	0x3fa63714	1.2985559
131	0xbf9267f5	-1.1437975
132	0x3f468f23	0.7756216
133	0x3df785df	0.12086081
134	0x3f18d834	0.597049
135	0x3ea11074	0.31457865
136	0xbe6c708c	-0.23089808
137	0xbce20bd1	-0.027593525
138	0x3f43db17	0.7650618
139	0xbe95f596	-0.2928893
140	0xbe4de02a	-0.20105043
141	0x3e76a39b	0.24085848
142	0x3d9ed06c	0.07754597
143	0x3e7a9daa	0.24474207
144	0xbf05e75e	-0.52306163
145	0x3eb5f6de	0.35539907
146	0xbf52c7da	-0.823362
147	0xbeb8b0ef	-0.3607249
148	0xbe2af148	-0.16693604
149	0xbe3eb28f	-0.18622802
150	0xbe3f6616	-0.18691286
151	0x3e501446	0.20320234
152	0xbf7f2177	-0.9966044
153	0x3ec7f60a	0.390549
154	0x3e491ad4	0.1963914
155	0x3dfa2927	0.122148804
156	0x3d526a34	0.051370814
157	0x3eae3880	0.3402748
158	0xbf282e6c	-0.65695834
159	0xbe7c8557	-0.2466024
160	0x3d699791	0.05702931
161	0xbe1ffb4f	-0.1562321
162	0xbe8414e9	-0.25797203
163	0x3ebf38f4	0.3734814
164	0xbf99eb5a	-1.2024949
165	0x3e9a0cc7	0.30087873
166	0xbfb9d0fd	-1.4516903
167	0x3c40424f	0.011734559
168	0xbf772b17	-0.96550125
169	0x3ea2e468	0.31814885
170	0xbef64a0a	-0.48103362
171	0xbe2a906b	-0.16656654
172	0x3e821eb6	0.25414056
173	0xbdd019c2	-0.10161163
174	0xbeda7c34	-0.42672884
175	0x3cfd3e9a	0.03091364
176	0x3f3c6fe7	0.7360825
177	0x3f5e4b8a	0.86834013
178	0x3ea56a2f	0.32307574
179	0x3eaaa22b	0.3332685
180	0xbd919924	-0.071092874
181	0x3f32d65d	0.6985834
182	0x3fb08987	1.379197
183	0xbeb32d16	-0.34995335
184	0xbe94a94b	-0.2903541
185	0x3e3dbf95	0.18530114
186	0xbf7c722f	-0.9861173
187	0x3d81febb	0.06347414
188	0xbeaeed5e	-0.34165472
189	0x3ea0285a	0.31280786
190	0x3e7d2e28	0.24724638
191	0x3be70d32	0.0070511336
192	0xbe6b3f75	-0.22973426
193	0xbf048112	-0.51759446
194	0xbc81ae4a	-0.015830178
195	0x3ec4a054	0.3840357
196	0xbe4cdb14	-0.20005447
197	0xbc38837d	-0.011261818
198	0x3d1f10ce	0.038834386
199	0xbed8c959	-0.42341116
200	0x3e19ea7d	0.15030856
201	0xbf37ceb2	-0.71799767
202	0x3e38db1a	0.1805233
203	0xbe4d4255	-0.20044835
204	0x3f3eb36d	0.7449253
205	0x3ecb9a1d	0.39766017
206	0x3d662987	0.056191947
207	0xbe94912e	-0.29017013
208	0x3e084f00	0.13311386
209	0x3f87e3a5	1.0616347
210	0xbfab4e0d	-1.3383194
211	0x3e965d46	0.29368037
212	0xbef7606f	-0.4831576
213	0xbee5a646	-0.4485342
214	0xbf7d307c	-0.98902106
215	0xbf1f3226	-0.62185895
216	0xbe94235f	-0.28933236
217	0x3ec8f66f	0.39250514
218	0x3e210feb	0.15728728
219	0x3eae092f	0.33991382
220	0xbe49661c	-0.19667858
221	0xbf936a89	-1.1516887
222	0x3dfe6ea2	0.12423445
223	0xbe754c63	-0.2395492
224	0xbef45d1c	-0.47727287
225	0x3f4cce6e	0.80002487
226	0xbe623446	-0.22090253
227	0x3f1b3063	0.6062071
228	0x3f1a66e8	0.6031327
229	0xbe832d90	-0.256207
230	0xbea71a0b	-0.32637057
231	0xbf2c53ed	-0.6731556
232	0x3e3b1dd6	0.182731
233	0x3ef08850	0.46978998
234	0x3e0f9dfa	0.14025107
235	0xbecf30a8	-0.4046681
236	0x3f48e215	0.78469974
237	0xbebf4299	-0.37355497
238	0xbf0dff4a	-0.55467665
239	0x3f58fa50	0.84756947
240	0x3e79a360	0.24378729
241	0x3d1edbcd	0.038783837
242	0xbe93f879	-0.28900507
243	0x3e939f30	0.28832388
244	0x3d8360d4	0.06414953
245	0xbecec710	-0.40386248
246	0xbfa50e75	-1.2895037
247	0xbe03fd0c	-0.12889498
248	0xbf90423f	-1.1270217
249	0xbec2d914	-0.38056242
250	0x3dbd872c	0.092542976
251	0x3f0a16ce	0.5394105
252	0xbd358161	-0.04431284
253	0xbec82a77	-0.39094898
254	0x3e757497	0.23970257
255	0x3e26a091	0.16272189

conv_stem.1.weight f4 [64]
0	0x3f949a69	1.1609622
1	0x3f9c2c35	1.2200991
2	0x3f87b137	1.0600957
3	0x3fa50ec1	1.2895128
4	0x3fbbe9f9	1.4680778
5	0x3f831cb3	1.0243133
6	0x3f9f52f5	1.2447191
7	0x3fa321ba	1.2744668
8	0x3fb23efd	1.3925472
9	0x3f9ee82e	1.2414606
10	0x3f8274d3	1.0191902
11	0x3f89823b	1.0742868
12	0x3fb2c544	1.3966451
13	0x3fe280ca	1.7695553
14	0x3f9c0148	1.2187891
15	0x3f52f017	0.823976
16	0x3f9a27a9	1.2043353
17	0x3f9d075f	1.2267874
18	0x3faaf09c	1.3354678
19	0x3fbe5979	1.4871055
20	0x3f8ee16c	1.1162543
21	0x3f87778d	1.0583359
22	0x3f7e5a1b	0.9935624
23	0x3fa575f6	1.2926624
24	0x3f801817	1.0007352
25	0x3f841f65	1.0322081
26	0x3fa5b77f	1.2946624
27	0x3faf102e	1.3676813
28	0x3f6a1259	0.91434246
29	0x3f990e38	1.1957464
30	0x3face993	1.3508781
31	0x3fae74e0	1.3629417
32	0x3fb0d283	1.3814243
33	0x3f73a79d	0.9517763
34	0x3fabded1	1.3427373
35	0x3f7d9970	0.9906225
36	0x3f864053	1.048838
37	0x3f9f4ca9	1.244527
38	0x3f9c45e0	1.2208824
39	0x3fc5f2d2	1.5464728
40	0x3f864141	1.0488664
41	0x3f89374a	1.0719998
42	0x3fa2415b	1.2676195
43	0x3fc59db7	1.5438756
44	0x3f86ff0c	1.0546584
45	0x3fa74341	1.3067399
46	0x3faaa1e8	1.333066
47	0x3f8cba0c	1.0994277
48	0x3fa1156d	1.2584664
49	0x3f8a5169	1.0806094
50	0x3fa45224	1.2837567
51	0x3fa2a49c	1.2706485
52	0x3f92b1aa	1.1460469
53	0x3f965dbf	1.1747359
54	0x3fd2096b	1.6409124
55	0x3fc39971	1.5281202
56	0x3f8dcdc8	1.1078424
57	0x3f99be4c	1.2011199
58	0x3f5052cb	0.8137633
59	0x3f8760c0	1.0576401
60	0x3f95e761	1.1711236
61	0x3fa77ce0	1.3084984
62	0x3f977dc6	1.1835258
63	0x3f605c42	0.87640774

conv_stem.1.bias f4 [64]
0	0xbefbb1b8	-0.49159026
1	0xbf2e9c21	-0.68206984
2	0x3d3e5a76	0.04647299
3	0xbee48476	-0.4463231
4	0xbfbc995c	-1.4734302
5	0xbeeeb868	-0.46625066
6	0xbecd3f73	-0.4008747
7	0xbf42ec5b	-0.761419
8	0xbec55604	-0.38542187
9	0x3d908640	0.07056856
10	0x3e07089c	0.13186878
11	0xbe8f9f8e	-0.28051418
12	0xbf5e829f	-0.8691806
13	0xbf55c7fb	-0.8350827
14	0xbed625b6	-0.41825646
15	0xbe0c3b88	-0.13694584
16	0xbe8ab399	-0.27090147
17	0xbf687bba	-0.9081379
18	0xbf5c3ee8	-0.8603349
19	0xbecf28be	-0.4046077
20	0xbf11a6ec	-0.5689533
21	0xbe8dce4e	-0.2769646
22	0xbe932790	-0.2874112
23	0xbe796ff0	-0.24359107
24	0xbeda3cc8	-0.42624497
25	0x3e3af9ab	0.18259303
26	0xbf47835a	-0.779348
27	0xbf6096c6	-0.8773006
28	0xbef7f95b	-0.4843243
29	0xbd3fc69a	-0.04682026
30	0xbf2bc564	-0.6709807
31	0xbdc72c91	-0.09725297
32	0xbf9b99d6	-1.2156322
33	0xbe459e50	-0.19298673
34	0xbec5e88c	-0.38653982
35	0xbeb446cb	-0.3521026
36	0xbe06d2bb	-0.13166325
37	0xbf02b6b9	-0.5106006
38	0xbe392997	-0.18082272
39	0xbf334b9d	-0.7003725
40	0xbef9eec9	-0.4881499
41	0xbebe1043	-0.37121782
42	0xbf48832a	-0.7832514
43	0xbf3e88d0	-0.7442751
44	0xbe91719a	-0.28406984
45	0xbf10a597	-0.5650267
46	0xbee28e2c	-0.44249094
47	0xbe9d1cf3	-0.3068615
48	0xbe384775	-0.17996009
49	0xbf12084c	-0.5704391
50	0xbf5ca073	-0.86182326
51	0xbef2c806	-0.4741823
52	0xbedd1b1e	-0.4318475
53	0xbf51c75a	-0.8194481
54	0xbf4a2262	-0.78958714
55	0xbf3d406f	-0.7392644
56	0xbf36acc2	-0.7135736
57	0xbe2e4d6b	-0.1702172
58	0xbc4eba83	-0.01261771
59	0x3df17b3e	0.11791085
60	0xbd8b6e8d	-0.06808195
61	0xbefa8fc8	-0.4893782
62	0xbf150cb1	-0.5822249
63	0xbdf023d7	-0.11725586

conv_stem.1.running_mean f4 [64]
0	0xc0cb33d7	-6.350078
1	0xc070870c	-3.7582426
2	0xc1021f9d	-8.132718
3	0xbde79c33	-0.113090895
4	0xbf7f2518	-0.99665976
5	0x400ab17a	2.1670823
6	0xc0e5c5ff	-7.1804194
7	0x3fbd24b9	1.4776832
8	0xc096a7ce	-4.707984
9	0xc0da0085	-6.8125634
10	0xc0affc68	-5.4995613
11	0xc09863ef	-4.762199
12	0x3f9d6352	1.2295935
13	0xc09cbe54	-4.8982334
14	0xc0448d0c	-3.0711088
15	0xc067b41c	-3.620368
16	0xc10ff2c3	-8.996768
17	0x40ec87fd	7.3916
18	0xbe1aa489	-0.15101828
19	0xc0c524cb	-6.1607413
20	0xbf2cf226	-0.6755699
21	0x3fc681e6	1.5508392
22	0xc0127563	-2.2884147
23	0xc0f87722	-7.7645426
24	0xbffe7a4a	-1.988107
25	0xc12d5c6a	-10.835062
26	0xc08c6583	-4.3873916
27	0xc0e21060	-7.064499
28	0x4108a8d7	8.541221
29	0x40185ebb	2.380782
30	0xbf578e04	-0.84201074
31	0xc1099015	-8.597676
32	0xbf74197c	-0.95351386
33	0xbf691573	-0.91048354
34	0xc121d97a	-10.115595
35	0x3f31d08b	0.69458836
36	0xbffc6c2e	-1.9720514
37	0xc09d8dce	-4.92356
38	0xc1116126	-9.086218
39	0xc03f3eed	-2.9882157
40	0x3de92ed1	0.11385883
41	0xc005f162	-2.0928578
42	0x40a173f3	5.045404
43	0xc0f0e80c	-7.528326
44	0xc0b48231	-5.6408925
45	0xc0bd302a	-5.9121294
46	0x3fea3a4d	1.8299042
47	0xc0a51c38	-5.1596947
48	0xc073e528	-3.8108616
49	0xc0b349ee	-5.6027746
50	0xc08b8cd2	-4.36094
51	0xc0a1f217	-5.060802
52	0xc0ed19ba	-7.4093904
53	0xc04c2747	-3.1898973
54	0xc02135fa	-2.5189195
55	0xc055195c	-3.3296728
56	0x40bdfa19	5.9367795
57	0xc0dfad2f	-6.9898906
58	0x3d15edaf	0.036603626
59	0xbeaa3dc9	-0.33250263
60	0xc11c3b4c	-9.764477
61	0xc093496d	-4.602713
62	0x3f40bb7e	0.7528609
63	0xc07ef283	-3.9835517

conv_stem.1.running_var f4 [64]
0	0x41b46a7d	22.551996
1	0x41f2c462	30.34589
2	0x421c35fd	39.052723
3	0x42136fa4	36.859024
4	0x4201e912	32.477608
5	0x41c01df8	24.014633
6	0x41ca2b62	25.271183
7	0x4208bac1	34.182377
8	0x426018e5	56.02431
9	0x41b4deb7	22.608747
10	0x41aef0c0	21.867554
11	0x419f1467	19.884962
12	0x41d3f463	26.49433
13	0x422278e7	40.61807
14	0x41b42677	22.518782
15	0x41e69f5e	28.827816
16	0x41d0c399	26.095507
17	0x42443afa	49.057594
18	0x429ceb82	78.45998
19	0x42097b3b	34.370342
20	0x41ead3df	29.353453
21	0x4198c4c4	19.096077
22	0x42187ec8	38.12381
23	0x421abe11	38.68561
24	0x41e5d0d1	28.726961
25	0x421544b9	37.317112
26	0x421795e3	37.896374
27	0x42033007	32.7969
28	0x42290565	42.25527
29	0x41d6f2ba	26.868519
30	0x41a30382	20.376713
31	0x420bf751	34.99152
32	0x41a9a399	21.204882
33	0x41afbdb5	21.96763
34	0x4265ca93	57.447826
35	0x41e15c7a	28.170155
36	0x424eeaeb	51.729412
37	0x41f6aaa7	30.833326
38	0x41ea37ab	29.277182
39	0x4213d314	36.95613
40	0x42a7606d	83.68833
41	0x41a07ecd	20.061914
42	0x41b2501c	22.289116
43	0x41e4482d	28.535242
44	0x4244a521	49.16126
45	0x419e3d8d	19.780054
46	0x41d99c6e	27.201382
47	0x42a93a68	84.614075
48	0x41ea1460	29.259949
49	0x41e2f97d	28.37182
50	0x421a7652	38.615547
51	0x41f4b13c	30.58654
52	0x421f6bf1	39.85541
53	0x41d45a86	26.5442
54	0x420a4b32	34.573433
55	0x419959c3	19.168829
56	0x41ee6644	29.799934
57	0x4227a0f4	41.90718
58	0x41ebf19d	29.492975
59	0x41c55bfb	24.669912
60	0x41d5f73e	26.745724
61	0x420f8665	35.881245
62	0x42563119	53.547947
63	0x41cdc7df	25.722593

conv_stem.3.weight f4 [64, 64, 3, 3]
0	0x3d44be18	0.04803285
1	0xbf08361c	-0.53207564
2	0xbf489942	-0.7835885
3	0x3e9fd7c4	0.31219304
4	0xbf303872	-0.6883613
5	0x3fa7cd94	1.3109612
6	0x3ec15a89	0.37764385
7	0x3fb957d5	1.4479929
8	0x3f00070d	0.5001076
9	0xbfa7212e	-1.3057001
10	0xbd8fa24b	-0.07013377
11	0xbe217232	-0.15766218
12	0x3b203107	0.0024443285
13	0x3dd51b10	0.104055524
14	0xbe0c716d	-0.13715144
15	0xbf2ec130	-0.6826353
16	0x3d1749eb	0.036935728
17	0x3e2a40a8	0.16626227
18	0xbeddb74f	-0.43303916
19	0x3f3bf0a3	0.7341406
20	0xbf0a22bd	-0.53959256
21	0xbc5a1bdb	-0.013312305
22	0x3e1a5474	0.15071279
23	0xbe6a8bdf	-0.22904919
24	0x3fde96fa	1.7389824
25	0xbf137eea	-0.5761553
26	0x3ebee358	0.37282825
27	0x3f80e17c	1.0068812
28	0x3f453fc3	0.7705042
29	0x3f30034c	0.6875503
30	0x3fadcb77	1.3577718
31	0xbf41c174	-0.7568581
32	0xbd9c2095	-0.07623402
33	0x3edb1200	0.4278717
34	0x3f15b9b9	0.58486515
35	0xbf03e3fb	-0.51519746
36	0x3eccde40	0.40013313
37	0xbe8ce025	-0.2751476
38	0xbefc3b96	-0.4926421
39	0x3f1c7cd6	0.61127985
40	0x3e63ebae	0.22257873
41	0x3f4741eb	0.7783496
42	0xbf496602	-0.78671277
43	0xbee8cf3c	-0.45470607
44	0xbe461978	-0.19345653
45	0x3f091152	0.53542054
46	0xbf09024b	-0.53519124
47	0xbfc1136b	-1.5084051
48	0xbe66590d	-0.22494908
49	0xbf8003d5	-1.000117
50	0x3d1f306d	0.03886454
51	0xbe57869a	-0.2104744
52	0xbe9f5f41	-0.3112736
53	0xbf2e43e3	-0.68072337
54	0x3edab129	0.42713287
55	0x3e1061e3	0.14099841
56	0x3f5171b6	0.81814134
57	0xbf1c8991	-0.6114741
58	0x3f03979a	0.514032
59	0xbe95ab52	-0.2923227
60	0x3ef88af2	0.48543507
61	0xbe4c3471	-0.1994188
62	0xc0009d89	-2.0096152
63	0xbdcc50d3	-0.099763535
64	0xbf65e2ad	-0.89799005
65	0x3f82e9bd	1.0227581
66	0x3f72f9f7	0.94912666
67	0xbdcb6f6e	-0.09933363
68	0x3e59ef00	0.21282578
69	0x3ee67520	0.45011234
70	0xbf53612e	-0.8257016
71	0x3ea708ba	0.32623845
72	0x3e94f159	0.29090384
73	0x3efcbe22	0.4936381
74	0xbdfa9f19	-0.12237377
75	0x3dab575d	0.083662726
76	0x3f81e7d8	1.0148878
77	0x3e8345aa	0.25639087
78	0xbe98c247	-0.29835722
79	0xbe3863a4	-0.1800676
80	0xbe7745b9	-0.24147691
81	0xbdcd5f79	-0.100279756
82	0xbeb1f727	-0.34758875
83	0xbda7338f	-0.08164131
84	0xbe505666	-0.20345458
85	0xbf9b73da	-1.214473
86	0xbeb93011	-0.36169484
87	0xbdb5fff9	-0.088867135
88	0xbf4805ba	-0.7813374
89	0x3fce9269	1.6138431
90	0xbd833b47	-0.06407791
91	0x3cd4855b	0.025942495
92	0x3f227ab8	0.63468504
93	0x3f570de2	0.8400556
94	0x3db22f89	0.08700473
95	0xbf7eeefb	-0.99583405
96	0x3dcf21c7	0.101138644
97	0xbc4e3c6c	-0.012587648
98	0x3d541a8a	0.051783122
99	0x3ee1f64e	0.44133228
100	0x3ed494ee	0.41519874
101	0x3f036801	0.5133057
102	0x3d316316	0.043307386
103	0x3edc7b40	0.43062782
104	0xbc8e5398	-0.017373845
105	0x3baa3a6f	0.005194954
106	0xbe7532ed	-0.23945208
107	0xbc39ddd6	-0.011344394
108	0x3fcdb979	1.6072227
109	0xbf92ea2d	-1.1477715
110	0xbe970dd8	-0.2950275
111	0x3ee4fe96	0.44725484
112	0xbeadfbc2	-0.33981138
113	0x3f4cd291	0.800088
114	0xbef67896	-0.48138875
115	0x3ecb02da	0.39650613
116	0xbf444444	-0.76666665
117	0xbfb2be27	-1.396428
118	0xbf8a1bbb	-1.0789713
119	0xbeec6f07	-0.46178457
120	0x3c10d523	0.008839878
121	0x3f9a54ce	1.205713
122	0xbfa8ae07	-1.3178109
123	0xbff81870	-1.9382458
124	0x3de58def	0.11208712
125	0xbf236f08	-0.63841295
126	0xbf327671	-0.6971198
127	0xbc405665	-0.011739348
128	0x3ef167ba	0.4714945
129	0xbed83318	-0.4222648
130	0x3f08794d	0.5331009
131	0x3f749ff7	0.95556587
132	0xbf2e352e	-0.68049896
133	0x3f9764c2	1.1827624
134	0xbe95bbe7	-0.2924492
135	0xbf60d55b	-0.87825555
136	0xbfa6fb69	-1.3045474
137	0xbf938fd5	-1.1528269
138	0xbe2f1994	-0.17099601
139	0xbeabc17d	-0.33546057
140	0x3f5dfb22	0.86711323
141	0x3c99d01d	0.018775994
142	0x3f562fc8	0.8366666
143	0xbf04b41c	-0.51837325
144	0xbe05b7f7	-0.13058458
145	0x3ea72afd	0.32649985
146	0x3e512eb8	0.20427978
147	0x3f175280	0.5911026
148	0xbf5322f5	-0.82475215
149	0x3d0a7775	0.03380533
150	0x3ea5f1cd	0.32411042
151	0x3f1178a6	0.5682472
152	0xbe31c7be	-0.17361352
153	0x3d680a4b	0.05665044
154	0x3f811dcc	1.0087218
155	0x3dbc89b4	0.09205952
156	0xbea89d24	-0.3293239
157	0xbee0ad59	-0.43882254
158	0xbf0bed28	-0.54658747
159	0x3f82f542	1.0231097
160	0x3f0c79b3	0.548732
161	0x3e43115c	0.19049591
162	0xbfced65c	-1.6159167
163	0xbd840d7b	-0.06447884
164	0xbfb861d5	-1.4404856
165	0xbf357c5f	-0.708929
166	0xbea16769	-0.31524208
167	0x3ee9a235	0.45631567
168	0xbeee15ac	-0.4650091
169	0xbdfd70e2	-0.12375046
170	0x3c69a48a	0.014260421
171	0xbe9089d7	-0.28230163
172	0xbf06c4e1	-0.52644163
173	0x3ea6f6ed	0.32610264
174	0xbdc4c6fa	-0.09608264
175	0x3ea939f0	0.33052015
176	0xbf82a9dd	-1.0208088
177	0x3f3977b1	0.7244826
178	0x3da0e960	0.07857013
179	0x3cd56e4e	0.026053574
180	0xbe1faf42	-0.155942
181	0xbf3fe2f1	-0.7495566
182	0xbfa6a35e	-1.3018606
183	0x3f2c7b90	0.6737604
184	0xbdba3258	-0.090916336
185	0x3e679088	0.22613728
186	0x3e875816	0.26434392
187	0xbf7ca849	-0.9869428
188	0xbf838568	-1.0275087
189	0x3f170d20	0.590044
190	0x3f901028	1.125493
191	0x3e02d230	0.12775493
192	0xbf003bc4	-0.50091195
193	0x3de0693e	0.10957573
194	0x3fa3cf88	1.2797709
195	0xbf9c727b	-1.2222437
196	0xbe587f23	-0.21142249
197	0xbe769b93	-0.24082784
198	0x3e53508c	0.20636195
199	0x3f93d120	1.1548195
200	0x3ed15d69	0.4089158
201	0x3f51d9ed	0.81973153
202	0xbe2f6098	-0.17126691
203	0x3e956141	0.2917576
204	0xbf1afade	-0.6053904
205	0xbed7e22a	-0.42164737
206	0xbc8e1288	-0.01734282
207	0x3dd230ae	0.10263191
208	0xbf7de43f	-0.991764
209	0xbf3255aa	-0.69661963
210	0xbe81b3a8	-0.2533238
211	0x3f07f8d3	0.5311405
212	0xbf80ec98	-1.0072203
213	0xbf6a514c	-0.915303
214	0xbcf5a04d	-0.029983664
215	0xbe4ebf12	-0.20190075
216	0xbdeb6a78	-0.11494917
217	0x3f61472a	0.8799921
218	0x3e95580b	0.29168734
219	0xbf252704	-0.6451266
220	0x3fa5a20f	1.2940081
221	0x3f393d2b	0.7235896
222	0xbea64c16	-0.32479924
223	0x3d01e232	0.031709857
224	0x3eaea789	0.34112194
225	0x3ea4ca08	0.32185388
226	0x3ee6eb8a	0.45101577
227	0x3f049e90	0.5180445
228	0xbfb122b9	-1.3838722
229	0x3f5e1289	0.8674703
230	0x3ea40552	0.3203531
231	0x3def3eb7	0.11681884
232	0x3f97f45e	1.187145
233	0x3eb7b930	0.35883474
234	0xbe9e263e	-0.3088855
235	0xbf142395	-0.57866794
236	0xbeb3ccac	-0.3511709
237	0xbf4058c8	-0.7513547
238	0xbe20de9c	-0.15709919
239	0x3ed68a6f	0.4190249
240	0x3d6eaa21	0.058267716
241	0xbef182fc	-0.47170246
242	0xbfa62bc8	-1.2982111
243	0x3e80939b	0.25112614
244	0x3e0300bd	0.1279325
245	0xbecc7f6f	-0.39940974
246	0x3f11cef0	0.56956387
247	0x3f628401	0.8848267
248	0xbed8ab12	-0.42318016
249	0xbf55dd8a	-0.83541167
250	0x3e1a270a	0.15053955
251	0x3eced7a6	0.40398902
252	0x3eff6986	0.49885195
253	0x3effb600	0.49943542
254	0x3fb1d18c	1.3892074
255	0x3ea4f71d	0.32219782

conv_stem.4.weight f4 [64]
0	0x3f17d354	0.59306836
1	0x3ed08e42	0.40733534
2	0x3efffb81	0.4999657
3	0x3ef2d017	0.47424385
4	0x3f0ed389	0.5579153
5	0x3f0d1592	0.5511104
6	0x3f20d89c	0.6283052
7	0x3f058729	0.52159363
8	0x3ec1ee33	0.37877044
9	0x3f1c4bcd	0.6105316
10	0x3f12a982	0.572899
11	0x3f134ab8	0.57535887
12	0x3edaca6a	0.42732555
13	0x3f0ebe54	0.5575917
14	0x3f0574a1	0.52131087
15	0x3f1d82b8	0.61527586
16	0x3f084fde	0.5324687
17	0x3f2100d8	0.6289191
18	0x3f1eb042	0.619877
19	0x3f213f7c	0.62987494
20	0x3ee0965f	0.43864724
21	0x3f013148	0.5046582
22	0x3f1e685b	0.61877984
23	0x3ee09c46	0.43869227
24	0x3f09e727	0.53868335
25	0x3f000f24	0.500231
26	0x3f0608b7	0.5235705
27	0x3eece7fd	0.46270743
28	0x3f179278	0.5920787
29	0x3eea473c	0.45757473
30	0x3f103733	0.5633423
31	0x3f067c3f	0.52533334
32	0x3ee380d6	0.44434232
33	0x3f12dbaf	0.5736646
34	0x3f02dc24	0.5111716
35	0x3ee90466	0.45511168
36	0x3f036ea0	0.51340675
37	0x3f063fb1	0.52440935
38	0x3f2110a2	0.62916005
39	0x3f197d26	0.59956586
40	0x3f1dcfb7	0.6164507
41	0x3f0240b9	0.5088001
42	0x3eeccb73	0.4624897
43	0x3ef1eeea	0.4725259
44	0x3f120a2b	0.57046765
45	0x3eec649b	0.46170506
46	0x3f000d93	0.5002071
47	0x3effa591	0.49931005
48	0x3eea5a84	0.45772183
49	0x3ef65500	0.48111725
50	0x3ebd99f0	0.37031507
51	0x3f28bf4e	0.6591691
52	0x3f07aa18	0.5299392
53	0x3f3cedd0	0.73800373
54	0x3f09b337	0.53789085
55	0x3f0b01e8	0.54299784
56	0x3eecf330	0.46279287
57	0x3f04d9d8	0.51894903
58	0x3f057fce	0.5214814
59	0x3eeb1ef6	0.4592206
60	0x3f0b6a1b	0.5445878
61	0x3f116ea5	0.56809455
62	0x3f12bc91	0.5731898
63	0x3ed1f50d	0.4100727

conv_stem.4.bias f4 [64]
0	0xbf285d97	-0.65767807
1	0xbf1fae38	-0.6237521
2	0xbf02d7f0	-0.51110744
3	0xbf077a5f	-0.529211
4	0xbf12e3a1	-0.57378584
5	0xbee77c6c	-0.45212114
6	0xbf1ba87f	-0.6080398
7	0xbf063f0a	-0.5243994
8	0xbe80d09c	-0.25159156
9	0xbf36945c	-0.7132013
10	0xbed06099	-0.40698698
11	0xbf2d0427	-0.6758446
12	0xbeb56ea0	-0.35435963
13	0xbeef376d	-0.46721974
14	0xbee264e7	-0.44217607
15	0xbeee15f7	-0.46501133
16	0xbebce90f	-0.3689656
17	0xbf16a0d9	-0.58839184
18	0xbf3870bd	-0.72047025
19	0xbefe1038	-0.4962175
20	0xbf0a0221	-0.539095
21	0xbf2744b8	-0.6533923
22	0xbf125a62	-0.57169163
23	0xbe3a75df	-0.18209027
24	0xbf228ce3	-0.63496226
25	0xbecce57f	-0.40018842
26	0xbf3542ff	-0.7080535
27	0xbec403f0	-0.38284254
28	0xbf18ba40	-0.59659195
29	0xbeba3c7c	-0.3637427
30	0xbf188481	-0.59577185
31	0xbef58288	-0.4795115
32	0xbee3b2e0	-0.44472408
33	0xbf200848	-0.62512636
34	0xbedeae54	-0.43492377
35	0xbe83ded9	-0.25755957
36	0xbf13aaeb	-0.57682675
37	0xbf1f094d	-0.62123567
38	0xbf1f427e	-0.62210834
39	0xbf127966	-0.5721649
40	0xbf203519	-0.6258102
41	0xbf2409f4	-0.6407769
42	0xbebcc445	-0.36868492
43	0xbec05b5e	-0.37569708
44	0xbf279c86	-0.6547321
45	0xbece6ca3	-0.40317258
46	0xbf135ec9	-0.57566506
47	0xbf096268	-0.5366578
48	0xbf05dd26	-0.5229057
49	0xbef8fe83	-0.48631677
50	0xbecf6669	-0.4050782
51	0xbf1286d9	-0.5723701
52	0xbf414c53	-0.75507087
53	0xbf1f9e77	-0.62351173
54	0xbe2a516f	-0.16632627
55	0xbecbb3ad	-0.3978552
56	0xbf11e6bc	-0.569927
57	0xbf06bb23	-0.526293
58	0x3d529eb3	0.05142088
59	0xbf00a28e	-0.5024804
60	0xbef92387	-0.48659918
61	0xbed46dde	-0.41490072
62	0xbed05273	-0.40687904
63	0xbe3ee770	-0.18642974

conv_stem.4.running_mean f4 [64]
0	0xc0c0b45c	-6.0220165
1	0xc0ef2964	-7.4738026
2	0xc096d43c	-4.7134075
3	0xc0db1cfa	-6.847287
4	0xc0cf6637	-6.4812274
5	0xc0f2a90f	-7.583137
6	0xc11abe51	-9.671464
7	0xc07434ba	-3.8157182
8	0x40828f0e	4.0799627
9	0xc102d104	-8.176029
10	0xc1544255	-13.266194
11	0xc0c47cfc	-6.140257
12	0xc117920b	-9.473155
13	0x3e1ae427	0.15126096
14	0xbe0c34a9	-0.13691963
15	0xc11fe2ff	-9.992919
16	0x3f0b8b34	0.5450928
17	0xc121c202	-10.109865
18	0xc12c2d76	-10.761099
19	0xc1234d09	-10.206307
20	0x3e325b5f	0.17417668
21	0xbfd3c7d3	-1.6545357
22	0xc18aaf3e	-17.335567
23	0x4083de86	4.1209135
24	0xc023c121	-2.5586627
25	0xbfe8fe2b	-1.8202566
26	0xc0e18fce	-7.0488043
27	0xc0575fd5	-3.3652241
28	0xc0ad6e07	-5.419681
29	0xc05d4334	-3.4572268
30	0xc14023bc	-12.008724
31	0xc0991175	-4.783381
32	0xbe75df9f	-0.24011086
33	0x3eb69cf3	0.35666618
34	0xc02cc7d7	-2.6996973
35	0x3f835e20	1.02631
36	0xc0a547ae	-5.165
37	0xc141f47e	-12.12219
38	0xc0ec52cf	-7.3851085
39	0xc0b9db66	-5.808032
40	0xc0ec04aa	-7.3755693
41	0xc19b5247	-19.415174
42	0xc0ad5a66	-5.417285
43	0x3f9949f9	1.19757
44	0xc012a2bc	-2.2911825
45	0xc01066b5	-2.2562687
46	0xc0b8f410	-5.779793
47	0xc1245a8b	-10.272105
48	0x3ed3e67a	0.41386777
49	0xc0a1bb55	-5.0541177
50	0xc08341f5	-4.1018014
51	0xc1a19c1a	-20.201221
52	0xc11cb191	-9.793351
53	0xc0c30a15	-6.0949807
54	0xc10a7a06	-8.654791
55	0xbf9ba930	-1.2161007
56	0xc04e53b0	-3.2238579
57	0xc0f1887a	-7.5479097
58	0xc0e255ae	-7.072959
59	0xc165fc35	-14.374074
60	0xc0faa093	-7.8321013
61	0xc0a7b72e	-5.241111
62	0xc080896a	-4.016774
63	0x3f6e8510	0.9317179

conv_stem.4.running_var f4 [64]
0	0x42f0edf2	120.46474
1	0x42ed1973	118.549706
2	0x42d4773e	106.232895
3	0x429e6851	79.20374
4	0x429a3356	77.100266
5	0x43305ffb	176.37492
6	0x42d22662	105.07497
7	0x42856624	66.69949
8	0x42f95a9a	124.676956
9	0x42e497dc	114.2966
10	0x42ec363e	118.10594
11	0x4311d24e	145.8215
12	0x42ef227e	119.56737
13	0x42dada16	109.42595
14	0x429d2402	78.57033
15	0x4332fdcf	178.99144
16	0x42faae16	125.34001
17	0x42fe65a9	127.198555
18	0x42c150c8	96.657776
19	0x438b7cac	278.974
20	0x42cca100	102.31445
21	0x42bc796b	94.237144
22	0x431bf40e	155.95334
23	0x430e0074	142.00177
24	0x430e9cbb	142.61223
25	0x4305cc12	133.79715
26	0x42ee258d	119.07334
27	0x42b91d79	92.55756
28	0x42c2344f	97.102165
29	0x42c54b68	98.64728
30	0x42ae2681	87.0752
31	0x42dcafe8	110.34357
32	0x430f120e	143.07053
33	0x42d62419	107.0705
34	0x42baa04c	93.31308
35	0x43043ede	132.24557
36	0x42c87c07	100.24224
37	0x431f2ba8	159.17053
38	0x430517c2	133.0928
39	0x42beeeb7	95.46624
40	0x430ce741	140.90334
41	0x42d9a2d6	108.81804
42	0x42f3cd73	121.90127
43	0x42e3b527	113.85381
44	0x4290c505	72.3848
45	0x42d56235	106.69181
46	0x42e181be	112.7534
47	0x430d4f2c	141.30927
48	0x42b9e730	92.95154
49	0x42eac05a	117.37569
50	0x4296fa13	75.48843
51	0x4384882a	265.06378
52	0x42adbc6f	86.868034
53	0x4319272b	153.153
54	0x431744f5	151.26936
55	0x4294b815	74.359535
56	0x42d89120	108.28345
57	0x42cabc04	101.36722
58	0x43240aac	164.04169
59	0x430d5d57	141.36461
60	0x4300f780	128.9668
61	0x433d860c	189.52362
62	0x43196fe3	153.43706
63	0x42c3baa3	97.864525

proj.weight f4 [64, 64, 1, 1]
0	0x3eb82e6d	0.3597292
1	0xbe0ff1bf	-0.14057063
2	0xbd98c0c5	-0.07458643
3	0x3e552038	0.20813072
4	0x3da67c3c	0.081291646
5	0xbed5e135	-0.41773382
6	0xbe5cf2e7	-0.21577035
7	0x3cbbe222	0.022934977
8	0x3e56b368	0.20966876
9	0xbea8029f	-0.328145
10	0xbe5c3fed	-0.21508761
11	0xbeab9037	-0.33508465
12	0x3effaea2	0.49937922
13	0xbee51b04	-0.44747174
14	0x3ecfd349	0.40590885
15	0x3e4f9b3d	0.20274062
16	0x3ecf9f50	0.40551233
17	0xbed49aac	-0.41524255
18	0xbd500281	-0.050783638
19	0x3ee41b93	0.44552287
20	0xbcafa134	-0.021439172
21	0x3dee63cd	0.11640129
22	0x3c5c054e	0.013428999
23	0xbf3b1f9d	-0.73095113
24	0x3f8dfcb8	1.1092749
25	0xbe9339ba	-0.2875498
26	0xbe4f1687	-0.20223437
27	0x3e2d062e	0.16896889
28	0xbe14025d	-0.14454027
29	0x3bd2cd86	0.0064331917
30	0xbec709ae	-0.38874573
31	0x3e0cb396	0.13740382
32	0x3f162e10	0.58664036
33	0xbe50276e	-0.20327541
34	0x3ed5a7eb	0.41729674
35	0x3ed05fab	0.4069799
36	0xbe08e97f	-0.13370322
37	0xbf29ca55	-0.6632436
38	0x3dcf2c48	0.10115868
39	0xbe8f4291	-0.27980474
40	0xbdfded8d	-0.12398825
41	0xbd5501c4	-0.052003637
42	0xbf17bbb9	-0.5927082
43	0xbf0ab4fc	-0.5418241
44	0x3e98c656	0.29838818
45	0x3d27ca8a	0.04096464
46	0x3e47e5ec	0.19521302
47	0xbe9f19db	-0.31074414
48	0xbf0bff96	-0.5468687
49	0xbf0dde39	-0.5541721
50	0xbe1389ee	-0.14408085
51	0x3dfa1512	0.1221105
52	0x3ecf2ef8	0.40465522
53	0xbed4ccd0	-0.4156251
54	0xbdb8bbd8	-0.09020203
55	0x3b706684	0.0036682198
56	0xbcc5deb0	-0.024154037
57	0xbe680751	-0.22659041
58	0xbda732b1	-0.081639655
59	0xbd95b975	-0.07310764
60	0xbc41ea90	-0.011835709
61	0x3f21c474	0.6319039
62	0x3dbb2789	0.091384
63	0x3d1f7a90	0.038935244
64	0xbeeaa56b	-0.4582933
65	0xbe0d51b8	-0.13800704
66	0xbccd0e63	-0.025031274
67	0x3ee87a08	0.45405602
68	0x3ec314b7	0.38101742
69	0x3f730dd2	0.94942963
70	0xbe8b19d4	-0.27168143
71	0x3f1b1540	0.605793
72	0xbe57fd70	-0.21092772
73	0xbf024908	-0.50892687
74	0x3ebe345d	0.37149325
75	0xbe25ada5	-0.16179521
76	0xbeac9df2	-0.33714253
77	0x3e2a60c4	0.16638476
78	0xbe04e1f0	-0.12976813
79	0xbd458a44	-0.048227564
80	0x3e5ee7b1	0.21768071
81	0xbee79a6d	-0.45235005
82	0x3e36b682	0.17843059
83	0xbd634ace	-0.05549126
84	0x3eaff008	0.34362817
85	0x3f4baabd	0.795574
86	0x3f081868	0.5316224
87	0xbeb68eeb	-0.35655913
88	0xbe0e7074	-0.13910085
89	0xbebbcde0	-0.36680508
90	0x3f09fd8f	0.53902525
91	0x3ecc6e99	0.3992813
92	0x3c22e3ca	0.009942004
93	0x3d919105	0.071077384
94	0xbec2107e	-0.37903208
95	0x3ca3931f	0.019967614
96	0xbd1a062e	-0.03760355
97	0xbf126e3e	-0.57199466
98	0x3eec9719	0.46209028
99	0x3ed68793	0.4190031
100	0xbf158f51	-0.5842181
101	0xbde66e5d	-0.11251519
102	0xbd0d4075	-0.0344853
103	0xbe49b96d	-0.1969964
104	0x3e66f1db	0.22553198
105	0xbf0d1fce	-0.55126655
106	0x3cfd1448	0.03089346
107	0x3a349086	0.0006887991
108	0x3d3e7707	0.046500232
109	0xbe8b0bbe	-0.27157396
110	0x3e3e58c8	0.18588555
111	0xbe0f0bc4	-0.13969332
112	0x3ee0a02c	0.438722
113	0x3a713af0	0.0009202203
114	0x3f24a33a	0.64311564
115	0x3f1b3a13	0.6063549
116	0x3f09cedd	0.53831273
117	0xbed40a28	-0.41414
118	0x3e3df435	0.18550189
119	0xbd9eda24	-0.07756451
120	0xbf2f86a6	-0.6856483
121	0x3cf320eb	0.029678782
122	0xbe17067d	-0.14748569
123	0x3ead7a92	0.33882576
124	0x3d176877	0.03696486
125	0xbea782c1	-0.32716945
126	0x3f379297	0.71708053
127	0x3da78895	0.08180348
128	0x3e9a390f	0.30121657
129	0xbec959a1	-0.39326194
130	0x3e94bfaa	0.29052478
131	0xbe3a11bf	-0.18170832
132	0xbea93ff0	-0.33056593
133	0x3d7c2be7	0.061565306
134	0xbeae83ab	-0.3408483
135	0xbd8a83dc	-0.067634314
136	0xbedd8c32	-0.43271023
137	0xbe3c48c3	-0.18387131
138	0xbec1f627	-0.37883112
139	0xbe62333e	-0.2208986
140	0xbeac5d51	-0.33664945
141	0xbe22b31e	-0.1588864
142	0x3d15ab4c	0.036540315
143	0xbe7649b0	-0.24051547
144	0xbe5d29ef	-0.21598028
145	0xbf01a229	-0.5063806
146	0x3e766311	0.24061228
147	0x3e8a0823	0.26959333
148	0x3de39614	0.111126095
149	0x3ee38c34	0.44442904
150	0xbd61804e	-0.055054
151	0xbe4ec5a9	-0.20192589
152	0x3ec63261	0.3871031
153	0xbda4e4d4	-0.08051458
154	0xbf0233f3	-0.5086052
155	0x3e7434ca	0.23848262
156	0x3cea35a8	0.028590038
157	0xbe24a585	-0.16078766
158	0xbd170d0b	-0.036877673
159	0x3f2a70c1	0.665783
160	0xbf1910e1	-0.5979138
161	0x3edc5d21	0.43039802
162	0xbcaa5fd9	-0.020797657
163	0xbedf3b59	-0.43599966
164	0xbe794c30	-0.2434547
165	0xbd24db9a	-0.04024849
166	0x3e2e9ab1	0.17051198
167	0x3db353ef	0.087562434
168	0xbe4c9ada	-0.19980946
169	0x3e8f50ff	0.27991483
170	0xbe2ab643	-0.1667109
171	0xbede6b5d	-0.43441287
172	0xbe0f1425	-0.13972528
173	0xbe7e1d26	-0.24815807
174	0x3f2ec98a	0.68276274
175	0x3e511b1b	0.20420496
176	0x3ead8c99	0.3389633
177	0x3e901d89	0.28147534
178	0xbae8e155	-0.001776735
179	0x3f448e12	0.7677928
180	0x3e282286	0.1641942
181	0x3f1dee54	0.61691785
182	0xbe8d66fe	-0.2761764
183	0x3ea068a5	0.31329837
184	0xbecb45fa	-0.39701825
185	0xbb1d5ad7	-0.0024010444
186	0xbd248209	-0.040163074
187	0xbf0f4623	-0.55966395
188	0xbead2d7f	-0.33823773
189	0x3ec1f35e	0.37880987
190	0x3da5e8e0	0.08101058
191	0x3ebac228	0.36476254
192	0xbf01b2f5	-0.5066369
193	0x3cd6b5d1	0.026209744
194	0x3e13f7f8	0.14450061
195	0x3e060613	0.13088255
196	0x3e387d86	0.18016633
197	0x3db406dd	0.087903716
198	0x3ea703f7	0.32620212
199	0x3eca73e1	0.39541534
200	0x3eb65787	0.35613653
201	0x3e9fdc9e	0.31223005
202	0xbcbc6f32	-0.02300224
203	0xbea3137b	-0.318508
204	0x3e05c427	0.13063107
205	0x3e52ac08	0.20573437
206	0x3df886c2	0.12135078
207	0xbf12bb7e	-0.5731734
208	0x3f2cebdc	0.6754739
209	0xbe8a22d3	-0.26979694
210	0xbe864215	-0.26222292
211	0x3ea771bc	0.3270396
212	0x3f7b036b	0.9805209
213	0xbf65df41	-0.89793783
214	0xbd9a6863	-0.075394414
215	0xbef302c0	-0.47463036
216	0x3e4068c2	0.18789962
217	0x3f36cdc9	0.71407753
218	0x3e91104a	0.2833274
219	0xbd11a60c	-0.035558745
220	0xbf085c6e	-0.53266037
221	0x3e2cf5db	0.16890661
222	0xbdb468d4	-0.08809057
223	0xbf2cc747	-0.67491573
224	0x3eb7a530	0.35868216
225	0x3dd0d861	0.10197521
226	0x3e67419e	0.22583625
227	0xbde65e9b	-0.11248513
228	0x3f1aaa14	0.6041577
229	0x3f25b05d	0.64722234
230	0x3f2ab1a5	0.66677314
231	0xbe3ef9fd	-0.1865005
232	0x3e76db1d	0.24107023
233	0x3f5d4b4e	0.8644303
234	0xbe361d97	-0.17784725
235	0xbccc0774	-0.024905898
236	0x3d535d43	0.051602613
237	0xbd11f716	-0.03563603
238	0xbf699123	-0.91237086
239	0x3f11a9c7	0.56899685
240	0xbe2a0655	-0.16603978
241	0xbf2b1396	-0.6682676
242	0xbd340ed7	-0.043959465
243	0x3ed9d8fe	0.42548364
244	0xbedc501f	-0.43029878
245	0x3f0ee990	0.5582514
246	0xbe0c4f46	-0.13702115
247	0xbe529de7	-0.20568047
248	0xbe37eb52	-0.17960861
249	0xbecd2bca	-0.4007247
250	0x3d8c0b79	0.06838126
251	0x3f2ca138	0.674335
252	0x3e6e1674	0.23250753
253	0x3e6bd99a	0.23032227
254	0xbe429a50	-0.19004178
255	0x3f31c32b	0.6943843

proj.bias f4 [64]
0	0x3ccfd253	0.025368845
1	0xbcfdf782	-0.03100181
2	0xbcebc362	-0.02877969
3	0xbe5b2582	-0.21401027
4	0x3d01b72d	0.03166883
5	0x3df284b0	0.118417144
6	0xbc1c2c90	-0.009532109
7	0x3d5226cb	0.051306527
8	0xbdfd42ea	-0.123662785
9	0x3c1c9ebd	0.0095593305
10	0x3d55c678	0.052191228
11	0x3da4802b	0.080322586
12	0xbd02a17a	-0.031892277
13	0x3cf4eba7	0.029897524
14	0x3c398a66	0.011324501
15	0xbdd28bbc	-0.102805585
16	0x3ec36777	0.38164875
17	0x3d4175fa	0.04723165
18	0xbe6243cf	-0.2209618
19	0x3e0a456c	0.13503045
20	0xbb25818f	-0.0025254225
21	0x3d0539c2	0.032525785
22	0xbd242b33	-0.04008026
23	0xbd62d1fe	-0.055376045
24	0x3e2dc00b	0.1696779
25	0xbec60202	-0.38673407
26	0x3cb06833	0.021534061
27	0x3bc0f2bc	0.005888311
28	0xbe3d7dfd	-0.18505092
29	0x3e62c9e7	0.22147332
30	0xbd9caaea	-0.07649787
31	0xbe7697df	-0.24081372
32	0x3ddb636d	0.10712323
33	0x3eb0cabc	0.34529674
34	0xbe433619	-0.19063605
35	0xbd042751	-0.032264058
36	0xbd38a090	-0.045075
37	0x3e53369a	0.20626298
38	0xbe0f298c	-0.13980693
39	0xbd21f244	-0.039537683
40	0xbdbca863	-0.09211805
41	0xbc1f14e8	-0.009709574
42	0x3d49ee26	0.04929938
43	0xbdfe8489	-0.12427623
44	0x3b38a8f5	0.0028176878
45	0x3d79ab34	0.060954288
46	0xbcaa4614	-0.020785369
47	0xbe32b997	-0.1745361
48	0xbe032440	-0.12806797
49	0x3e8000dd	0.2500066
50	0xbcb16d07	-0.021658434
51	0xbd190222	-0.03735555
52	0xbe507e22	-0.20360616
53	0x3d8c9bc8	0.068656504
54	0x3e108cc2	0.14116195
55	0x3e017558	0.1264242
56	0x3d6b4956	0.057442985
57	0x3dda05fd	0.106456734
58	0xbe81d8e9	-0.25360802
59	0x3ce8c950	0.028416306
60	0xbdef5a90	-0.11687195
61	0xbdf5b966	-0.119982526
62	0x3e162175	0.146612
63	0xbde10b86	-0.10988526

encoder.layers.0.self_attn.in_proj_weight f4 [192, 64]
0	0xbc229945	-0.009924238
1	0x3e88dc22	0.26730448
2	0xbef0b01d	-0.47009364
3	0xbe1cc3f7	-0.1530913
4	0xbe3c35a2	-0.18379834
5	0xbd5963c7	-0.05307367
6	0xbe24efb5	-0.16107066
7	0xbdaab0f7	-0.083345346
8	0x3e6986ef	0.2280538
9	0x3e4fb2b4	0.20283014
10	0xbdfcfbf0	-0.12352741
11	0x3eac80d0	0.33692026
12	0x3e16b55f	0.14717625
13	0xbd83bb0f	-0.06432163
14	0x3deccd41	0.115625866
15	0xbda2418f	-0.079226606
16	0x3f1c43a5	0.6104072
17	0xbd0a13e6	-0.033710383
18	0xbe42d71f	-0.19027375
19	0x3d400849	0.0468829
20	0xbeaefabd	-0.34175673
21	0x3b9a4a15	0.0047085383
22	0xbca3b054	-0.01998154
23	0xbe5d56cc	-0.21615142
24	0xbe2ae9f9	-0.16690816
25	0x3b41b688	0.002955826
26	0x3c84fea9	0.016234713
27	0x3ea20c08	0.31649804
28	0xbead9e12	-0.3390966
29	0xbd48501c	-0.048904523
30	0xbe97d8d9	-0.2965763
31	0x3dc6b3a3	0.09702232
32	0xbce7ee1e	-0.028311785
33	0xbd984919	-0.07435817
34	0xbd4ea10a	-0.050446548
35	0xbe161945	-0.14658077
36	0xbe121cb8	-0.14268768
37	0xbe686fa2	-0.22698835
38	0x3da6bb6a	0.08141215
39	0xbdefcda5	-0.117091455
40	0xbb72c4c8	-0.003704356
41	0x3e471b62	0.1944404
42	0x3d40870b	0.047003787
43	0xbe86eb7a	-0.2635153
44	0x3da7bde2	0.08190514
45	0x3ebda2af	0.3703818
46	0x3ea1bd52	0.31589752
47	0xbb2d51d2	-0.0026446474
48	0x3e7f1a4a	0.24912372
49	0x3e42794c	0.18991584
50	0xbdf3e96b	-0.11909755
51	0x3e79fed3	0.24413614
52	0xbeac97be	-0.3370952
53	0x3dafe2b2	0.085881606
54	0xbedb422a	-0.42823917
55	0xbdd35f7f	-0.10320949
56	0x3d3308fc	0.04370974
57	0xbd6026bc	-0.05472444
58	0x3c91dd7a	0.017805804
59	0x3e6a6c36	0.22892842
60	0xbe958e27	-0.29210016
61	0x3e9274c1	0.286047
62	0xbeae1ed5	-0.34007898
63	0x3d9762c3	0.07391884
64	0xbc00ac9f	-0.007853656
65	0xbda88a1e	-0.08229469
66	0xbe37a959	-0.17935695
67	0xbe95ed99	-0.29282835
68	0xbe9ea06d	-0.3098177
69	0xbebbb93a	-0.36664754
70	0x3dd6539a	0.104651645
71	0xbd6e447c	-0.05817078
72	0xbe99879b	-0.2998627
73	0xbd929272	-0.071568385
74	0xbe580dac	-0.21098965
75	0x3e5acc01	0.21366884
76	0xbd1a5ef2	-0.037688203
77	0xbe1b83a0	-0.1518693
78	0xbcaa679d	-0.02080136
79	0x3d9a56f0	0.07536113
80	0x39c14e63	0.0003687023
81	0xbf0b0dc4	-0.5431788
82	0xbf24ba37	-0.6434664
83	0xbec6618c	-0.38746297
84	0x3e871b19	0.2638786
85	0xbe0a8662	-0.13527825
86	0x3d2dd111	0.04243571
87	0xbe75a2fd	-0.23987956
88	0x3eb2c59a	0.34916383
89	0x3ef62b01	0.48079684
90	0x3e5c4ca4	0.21513611
91	0x3da58944	0.08082822
92	0xbe22b1e4	-0.15888172
93	0xbe934e22	-0.28770548
94	0xbd9a2768	-0.075270474
95	0xbc416edf	-0.011806219
96	0x3de1ff24	0.11034992
97	0x3d7c3b3c	0.061579928
98	0xbe6c5e2e	-0.23082802
99	0xbe93b1b3	-0.2884651
100	0xbe8a8da1	-0.2706118
101	0x3e0d0a15	0.13773377
102	0xbe3249a8	-0.1741091
103	0xbd2cac68	-0.042156607
104	0x3e31f182	0.17377284
105	0x3d8b45c1	0.06800414
106	0x3c7cffa3	0.015441808
107	0x3de4449e	0.111459
108	0xbea52b00	-0.3225937
109	0xbc9e0879	-0.01929115
110	0x3d49d87c	0.04927872
111	0xbe0f71ed	-0.14008303
112	0xbdf71700	-0.12064934
113	0xbe809b76	-0.25118607
114	0xbe27c93b	-0.16385357
115	0x3d9644ad	0.073373176
116	0xbe535140	-0.20636463
117	0x3d4c02a6	0.049807213
118	0xbde71387	-0.112830214
119	0x3cc6ce46	0.02426828
120	0x3e1497f1	0.14511086
121	0x3dc2069b	0.09473916
122	0x3e16d37d	0.14729114
123	0x3ea1da2a	0.31611758
124	0x3ebf46e8	0.37358785
125	0xbe05b0cf	-0.13055728
126	0x3ec5f366	0.3866226
127	0xbe2ddf35	-0.16979678
128	0xbe8a9c97	-0.27072594
129	0x3ef687cc	0.4815048
130	0x3ddafd20	0.10692811
131	0xbdaa7498	-0.0832302
132	0xbdd1ddf1	-0.1024741
133	0xbdaa9c9d	-0.08330653
134	0xbeb9895f	-0.36237618
135	0xbe0d389c	-0.13791126
136	0x3e546954	0.20743304
137	0xbcad33fe	-0.021142956
138	0xbe1a126d	-0.15046091
139	0xbea29d95	-0.3176085
140	0x3e951736	0.2911927
141	0xbd8d63c5	-0.06903795
142	0xbed44c56	-0.4146449
143	0xbdeb093f	-0.11476373
144	0xbdb067c6	-0.08613543
145	0x3de3822d	0.111088134
146	0x3d8934d1	0.06699527
147	0x3e294f42	0.1653414
148	0x3e9190a0	0.28430653
149	0x3d858795	0.06520001
150	0x3d3354b3	0.043781947
151	0xbe4a531f	-0.1975827
152	0xbd3af497	-0.045643415
153	0x3c861d3b	0.01637136
154	0xbdd630dd	-0.10458539
155	0xbd52dac8	-0.051478177
156	0xbd3de78d	-0.046363402
157	0x3e1e8ce1	0.15483429
158	0x3de42350	0.11139548
159	0xbe06772b	-0.13131396
160	0xbe63193d	-0.22177596
161	0x3d041133	0.032242965
162	0xbbc11749	-0.0058926684
163	0x3d9e35b2	0.07725085
164	0xbe2916ff	-0.16512679
165	0xbe452423	-0.19252066
166	0x3dd0080d	0.101577856
167	0x3d67c6fd	0.056586254
168	0x3d9f8864	0.07789686
169	0x3f04d23c	0.5188329
170	0xbe88e149	-0.2673438
171	0x3d99d727	0.0751174
172	0xbe072632	-0.13198164
173	0x3e4921d6	0.19641814
174	0x3da9717f	0.08273601
175	0xbe8524ed	-0.26004735
176	0xba01b68a	-0.000494816
177	0xbe49d302	-0.197094
178	0xbdb8afc2	-0.09017898
179	0xb95dea74	-0.00021163543
180	0xbc2f967e	-0.0107170325
181	0xbdf4f884	-0.11961463
182	0x3e5e15c4	0.2168799
183	0x3e59b3b3	0.21259956
184	0xbb802108	-0.0039101876
185	0x3e0b646c	0.13612527
186	0x3d9f209d	0.07769892
187	0xbdb233c5	-0.087012805
188	0x3ee2d380	0.44301987
189	0xbe937f21	-0.2880793
190	0x3da8a21f	0.08234047
191	0xbcb9ffb0	-0.02270493
192	0xbe87f893	-0.26556835
193	0xba951802	-0.0011374953
194	0xbb14e5b2	-0.0022719917
195	0xbe2ae246	-0.16687879
196	0xbe17a3ef	-0.1480863
197	0x3bd19547	0.006395969
198	0xbdd3a817	-0.10334795
199	0x3dae1c1b	0.085014544
200	0xbf0cb95b	-0.5497033
201	0x3e973506	0.2953264
202	0x3da3d063	0.07998731
203	0xbd961c0f	-0.073295705
204	0x3ea550a6	0.32288092
205	0x3ca642f6	0.020295601
206	0xbe67985e	-0.22616717
207	0xbd39f24b	-0.045397084
208	0x3e840de2	0.25791842
209	0x3e074a19	0.1321186
210	0x3d1df29c	0.03856145
211	0x3ebad744	0.3649236
212	0xbe0cd9e6	-0.13754997
213	0xbc5b9e1b	-0.0134043945
214	0x3e1750bc	0.14776891
215	0x3caa32bf	0.02077615
216	0x3e9953a4	0.29946625
217	0xbe38fc4d	-0.18064995
218	0x3cfb3b9c	0.030668072
219	0xbd2b7fe5	-0.041870017
220	0x3d57615b	0.05258308
221	0x3e571316	0.21003374
222	0xbdba4331	-0.09094847
223	0x3d97c590	0.07410729
224	0x3d960dc2	0.07326843
225	0xbc967aff	-0.018369196
226	0xbd67faa7	-0.056635525
227	0xbde24dd1	-0.110499986
228	0xbeae188e	-0.3400311
229	0xbeb05c06	-0.34445208
230	0x3d299511	0.041401926
231	0xbdbfff9f	-0.09374928
232	0xbeaec9aa	-0.34138232
233	0x3e35e8bd	0.17764564
234	0x3cc45fe8	0.023971513
235	0x3ee3e156	0.44507855
236	0x3d377960	0.044793487
237	0xbe1e8ef0	-0.15484214
238	0xbd21459e	-0.039373033
239	0xbdc0e5fa	-0.094188645
240	0xbd304336	-0.043032847
241	0xbe877cde	-0.26462454
242	0x3bf436b0	0.0074528083
243	0xbe9fa745	-0.31182304
244	0xbe192086	-0.14953813
245	0xbe061f52	-0.13097885
246	0xbe5bd679	-0.21468534
247	0xbebc8e6a	-0.36827403
248	0xbdaa8899	-0.08326835
249	0x3e6664ac	0.22499341
250	0x3e03b5df	0.12862347
251	0xbebe3b42	-0.37154585
252	0xbeb67dde	-0.35642904
253	0x3e79962a	0.2437369
254	0x3e119d11	0.14220072
255	0x3e65d09a	0.22442856
