models/rym_grid_c0_s64_e2_t4_r4/conv_transformer_c0_g1_a0_l0p32_lr1e-03.pt (torch, 750530 bytes, 40 tensors)

pos_embed f4 [1, 64, 64]
0	0x3eccff31	0.40038446
1	0xbe9729b3	-0.29524
2	0x3ec827fe	0.39093012
3	0xbeb537dc	-0.3539418
4	0x3e9fd4cf	0.31217048
5	0x3ec9d451	0.39419797
6	0x3e813baf	0.25240847
7	0x3f0cc5cf	0.5498933
8	0x3ba7aae1	0.005116806
9	0x3f196901	0.5992585
10	0x3e136a28	0.14395964
11	0xbf1c6c08	-0.6110234
12	0xbf703ce5	-0.9384292
13	0xbe06ffae	-0.13183472
14	0xbd086809	-0.03330234
15	0x3e4b1fd4	0.1983636
16	0xbe8becad	-0.27329007
17	0x3ee7dbe8	0.45284963
18	0x3ee1aa9f	0.44075486
19	0xbf98ebea	-1.1946995
20	0x3ea4785e	0.32123083
21	0x3ef90857	0.48639175
22	0x3f88e121	1.0693704
23	0x3e945cc4	0.28977025
24	0xbcd231d1	-0.02565852
25	0xbc8456d3	-0.016154682
26	0xbf2428b0	-0.64124584
27	0x3e60d3dd	0.2195582
28	0xbf9476b3	-1.1598724
29	0x3ea4b0d7	0.32166168
30	0xbf05b647	-0.5223126
31	0xbe50e471	-0.20399643
32	0x3ee924b6	0.4553582
33	0xbde9e312	-0.11420263
34	0x3f0a05ce	0.5391511
35	0x3f688918	0.9083419
36	0x3d9cc5b8	0.07654899
37	0xbf6e3634	-0.9305146
38	0x3ea75ef3	0.32689628
39	0x3de2029c	0.11035654
40	0xbf0fb274	-0.5613167
41	0xbd895958	-0.06706494
42	0x3ec2794d	0.3798317
43	0x3ec4bdd6	0.38426083
44	0x3ed4073f	0.41411778
45	0x3d9ee6ce	0.07758866
46	0x3d946ba2	0.07247092
47	0x3f0442ff	0.5166473
48	0x3f005d63	0.50142497
49	0x3ea1b0d9	0.31580237
50	0xbf054b94	-0.5206845
51	0x3e50d3d3	0.20393305
52	0x3d76c851	0.06024963
53	0x3efafc96	0.49020833
54	0xbe763e50	-0.24047208
55	0xbe8aacac	-0.27084863
56	0x3f090b8d	0.5353325
57	0xbed985c8	-0.4248488
58	0x3f243852	0.6414844
59	0xbc53dcff	-0.012931108
60	0xbe49fb6e	-0.19724819
61	0xbddaf819	-0.10691852
62	0xbd6e781c	-0.058220014
63	0xbe021a12	-0.12705258
64	0xbe858d85	-0.26084533
65	0xbeb2a255	-0.34889475
66	0xbeee735a	-0.4657238
67	0x3d49f057	0.04930147
68	0x3f490fb1	0.7853957
69	0xbea6cc23	-0.3257762
70	0x3f0f4c98	0.5597625
71	0xbd78a146	-0.060700677
72	0x3f22ac9e	0.6354464
73	0x3e933afa	0.28755933
74	0xbed19ca4	-0.4093982
75	0x3e9c15fb	0.3048552
76	0xbedde727	-0.43340418
77	0xbf17bd16	-0.592729
78	0xbeee8364	-0.46584618
79	0xbd238eef	-0.039931234
80	0xbf232d92	-0.6374141
81	0x3eb09d95	0.34495226
82	0x3e4d1a5a	0.20029584
83	0x3f3488ac	0.70521045
84	0xbd718636	-0.058965884
85	0xbea2996f	-0.31757686
86	0x3e76f73d	0.24117751
87	0x3f240560	0.640707
88	0xbd74bb9d	-0.059749234
89	0xbe7bd77c	-0.2459392
90	0xbf5e774b	-0.86900777
91	0x3e79c98d	0.24393292
92	0x3d94e45b	0.07270118
93	0xbdf84137	-0.12121814
94	0x3f67be31	0.90524584
95	0x3e0cfacf	0.13767551
96	0xbc07d68c	-0.008290898
97	0xbe41f02d	-0.18939276
98	0x3f472cd6	0.7780279
99	0x3e129915	0.14316209
100	0x3f644eed	0.8918293
101	0x3e6cbbe7	0.23118554
102	0x3ea3c9b7	0.31989834
103	0xbefd2703	-0.49443826
104	0xbddbaed7	-0.107267074
105	0x3e258193	0.1616271
106	0x3e42c9f4	0.19022352
107	0x3db7cc17	0.08974474
108	0xbfa34064	-1.2754025
109	0xbf4a6426	-0.79059064
110	0xbe1074a8	-0.14107001
111	0xbc5a0ce2	-0.013308736
112	0xbebeac7b	-0.37240967
113	0x3db5f5ac	0.08884749
114	0xbdb33d22	-0.087518945
115	0xbf83c303	-1.0293888
116	0xbf5c44dc	-0.8604257
117	0xbef6291a	-0.48078233
118	0xbd842f1a	-0.064542964
119	0xbd89834d	-0.06714497
120	0xbc9cda4b	-0.019147059
121	0xbedea6f2	-0.43486744
122	0x3f5b3d0f	0.85640043
123	0xbf24cdb2	-0.64376366
124	0xbed40f65	-0.41417995
125	0x3f630f78	0.8869548
126	0x3dfe0763	0.12403753
127	0x3ee58226	0.44825858
128	0x3f165faa	0.5873972
129	0x3f06dceb	0.52680844
130	0xbeabe890	-0.3357587
131	0x3eb33a1a	0.35005265
132	0xbf07687b	-0.528938
133	0xbe1b4b7a	-0.15165511
134	0x3e8c167b	0.273609
135	0x3f05526e	0.520789
136	0x3f4cbeaf	0.7997846
137	0xbe2afd74	-0.16698247
138	0x3e4d745c	0.20063919
139	0xbe6cba90	-0.23118043
140	0xbf371882	-0.7152177
141	0xbe7279b3	-0.23679237
142	0x3e5ecb37	0.21757208
143	0xbf719d29	-0.9438043
144	0xbdd3d024	-0.10342434
145	0x3c7b6312	0.015343444
146	0x3ea60d48	0.32432008
147	0xbd855e66	-0.06512146
148	0x3f3e6cb5	0.74384624
149	0xbf05ece5	-0.523146
150	0x3f0902df	0.53520006
151	0x3cedcbf7	0.029027922
152	0xbee529d8	-0.44758487
153	0x3f139cd2	0.57661164
154	0xbe3c421e	-0.18384597
155	0x3da555c7	0.08073001
156	0x3c79902c	0.015232127
157	0x3f2e78c3	0.6815302
158	0xbf70cc73	-0.94061965
159	0xbf211549	-0.62923104
160	0x3f0174ea	0.5056902
161	0xbe376811	-0.17910792
162	0x3f948ebd	1.160606
163	0xbef1dcbf	-0.47238728
164	0xbefac313	-0.48976955
165	0xbee91214	-0.45521605
166	0x3e8d22ee	0.27565712
167	0xbee16857	-0.44024917
168	0xbea89246	-0.32924098
169	0xbe39aac8	-0.18131554
170	0x3ebff3b5	0.3749062
171	0xbecffc0b	-0.4062198
172	0x3f063104	0.5241854
173	0x3ea5f707	0.3241503
174	0x3c953723	0.018214768
175	0xbd25b907	-0.04045966
176	0x3ddca623	0.107738756
177	0xbec27ed8	-0.379874
178	0x3f5aec4e	0.8551682
179	0xbe9ce8a3	-0.30646238
180	0xbefe4ac4	-0.49666417
181	0xbc9122b1	-0.017716737
182	0xbd6d20a7	-0.057892468
183	0x3d2d5a71	0.04232258
184	0x3e8f593a	0.27997762
185	0xbe4d0304	-0.20020682
186	0x3f125f2c	0.5717647
187	0xbdfd2718	-0.12360972
188	0xbe645c46	-0.22300825
189	0x3f09eb35	0.5387452
190	0xbea31073	-0.31848487
191	0x3d623136	0.055222712
192	0x3efa72ae	0.4891562
193	0x3d8d5b5f	0.06902193
194	0x3ef8e44f	0.48611686
195	0x3da6a0d1	0.08136142
196	0x3e23b875	0.15988334
197	0xbe07c5c8	-0.13259041
198	0xbe069c63	-0.13145594
199	0xbdc18c6b	-0.09450611
200	0xbe462aef	-0.19352315
201	0x3ecd917a	0.40150052
202	0x3daca3dc	0.08429691
203	0x3dfe8519	0.1242773
204	0xbec7bb43	-0.39010057
205	0x3f8480cd	1.0351807
206	0xbf179895	-0.59217197
207	0x3f79b214	0.9753735
208	0xbda30ccc	-0.07961425
209	0x3f7145e4	0.9424727
210	0x3f07d8bd	0.5306509
211	0x3e49fa29	0.19724335
212	0x3f195c09	0.5990606
213	0xbe89d0f4	-0.2691723
214	0x3e373e8e	0.17894956
215	0x3f75a342	0.95952237
216	0xbf188e51	-0.5959216
217	0xbef6333a	-0.48085958
218	0xbf22e67b	-0.63632935
219	0xbee4448f	-0.44583556
220	0x3ea200e8	0.31641316
221	0xbe15c33f	-0.14625262
222	0xbef4a871	-0.4778476
223	0xbd810338	-0.06299442
224	0x3ef5996e	0.4796862
225	0x3f156ad0	0.5836611
226	0x3e7a3a2c	0.24436253
227	0xbd7dcac7	-0.06196096
228	0x3f0cbe48	0.54977846
229	0xbf13d2f9	-0.57743794
230	0xbda05851	-0.07829345
231	0xbe251b40	-0.16123676
232	0x3e4e165d	0.20125718
233	0xbe6d99d4	-0.23203212
234	0x3e3b8be2	0.1831508
235	0x3ec33964	0.38129723
236	0x3d83ce9d	0.06435893
237	0xbe3c2a36	-0.18375477
238	0x3e98fbe0	0.29879665
239	0xbde40c8f	-0.11135208
240	0x3f2bb40e	0.67071617
241	0xbe81b17d	-0.25330725
242	0xbf192547	-0.59822506
243	0xbf0748f5	-0.528457
244	0xbe173d17	-0.14769398
245	0xbec7f306	-0.390526
246	0xbebb5ba7	-0.36593363
247	0xbe95e011	-0.29272512
248	0x3db7754a	0.08957918
249	0x3d3c82f9	0.046023343
250	0x3e532ec7	0.20623313
251	0xbea51057	-0.3223903
252	0xbe87aee5	-0.2650062
253	0x3ec9aef3	0.39391288
254	0xbd712c54	-0.058880165
255	0xbe6fb298	-0.23407972

conv_stem.0.weight f4 [64, 64, 3, 3]
0	0xc02d2c5f	-2.7058332
1	0xc04cc427	-3.1994722
2	0x3f456391	0.7710505
3	0x3f1dd1f2	0.61648476
4	0xc094889b	-4.6416755
5	0xc00154da	-2.020804
6	0xc045dcca	-3.091601
7	0xbfdd6067	-1.7295045
8	0x3f542fbf	0.82885355
9	0xbfa08200	-1.2539673
10	0x3df38a07	0.11891561
11	0xbff4f63e	-1.9137647
12	0xbfc1356f	-1.5094432
13	0xbfa7a549	-1.3097316
14	0xc0163be6	-2.347406
15	0xbed2576b	-0.4108232
16	0xbfcce50b	-1.6007398
17	0x3eb8de6f	0.36107203
18	0xc0321764	-2.7826777
19	0xc01e2bce	-2.4714236
20	0xbfab4b51	-1.338236
21	0xbf3722bc	-0.71537375
22	0x3e9d8d18	0.30771708
23	0xc0b3f00e	-5.6230536
24	0x3fa7ad5f	1.3099784
25	0xbf372948	-0.71547365
26	0x402f19b3	2.7359436
27	0xc0063d86	-2.097505
28	0xbdeb46c2	-0.11488105
29	0xbfa1344c	-1.2594085
30	0xbfc6fff8	-1.5546865
31	0xbfd6d4b8	-1.6783667
32	0xbf6cb70c	-0.9246681
33	0xc03fc20d	-2.996219
34	0xc056bdfd	-3.355346
35	0xbeb4de37	-0.35325786
36	0x3e70c16e	0.23511288
37	0xbe80dc37	-0.2516801
38	0x3f3f7c69	0.7479921
39	0xc003cdba	-2.0594316
40	0xc0403428	-3.0031834
41	0xbf68329d	-0.9070223
42	0x3f305b3e	0.68889225
43	0xbeee480d	-0.46539345
44	0x3f0cb336	0.54960954
45	0x3fa8c2f8	1.31845
46	0xbcf12bbb	-0.029439798
47	0x3d04604b	0.032318395
48	0xbf139b54	-0.57658887
49	0x3df85c99	0.121270366
50	0x3f56ee3e	0.8395728
51	0xbf2a807f	-0.6660232
52	0xbe13f6fd	-0.14449687
53	0x3f3db84b	0.74109334
54	0xc0006c6a	-2.006617
55	0xbfc69e84	-1.5517125
56	0x3f8e2822	1.1105998
57	0x3ddd3f7a	0.10803123
58	0xc02a90c3	-2.6650856
59	0xbf8e47fb	-1.1115717
60	0xbef11e3c	-0.4709338
61	0x3f808dea	1.0043309
62	0x3e0ce9d8	0.1376108
63	0xc0154497	-2.3323114
64	0x3fc0ba3b	1.5056833
65	0x3fb41e75	1.4071795
66	0x3f0d7fe7	0.5527329
67	0xbfccbfe0	-1.5996056
68	0xbec1671f	-0.37773988
69	0xbd944223	-0.07239177
70	0x3f29cdae	0.6632947
71	0x401034b9	2.253218
72	0xbf94a70f	-1.1613482
73	0x4020a425	2.5100186
74	0xbfa3c1ad	-1.279348
75	0x3ed7ab5a	0.42122918
76	0xc005fe05	-2.0936291
77	0x3edfa58b	0.43680987
78	0x3ec7d176	0.39026994
79	0xbea698ac	-0.32538354
80	0xbf01766a	-0.5057131
81	0x4004eb5d	2.0768654
82	0x3f23d63e	0.6399878
83	0x3f7c0eff	0.9846038
84	0x3f6d741c	0.92755294
85	0xbfc4246c	-1.5323615
86	0xbf63eb44	-0.8903086
87	0xbf181fc9	-0.594235
88	0xbf7f7465	-0.9978698
89	0xbf02f001	-0.51147467
90	0x3fdd6f0d	1.7299515
91	0xbe190d7b	-0.14946549
92	0xbf2918b8	-0.6605334
93	0x3e7cd1e8	0.24689448
94	0xbfb68811	-1.4260274
95	0xbed5a366	-0.41726226
96	0xbef40dce	-0.47666782
97	0xbf6358b8	-0.8880725
98	0x3ff3c308	1.9043894
99	0x3f33b59c	0.7019899
100	0xbfa752b9	-1.307212
101	0x3e9fd4d0	0.3121705
102	0x3f3ef45d	0.7459162
103	0xbfd22894	-1.6418633
104	0xc005f5f0	-2.0931358
105	0x3f0a0072	0.5390693
106	0x3ed1652a	0.40897495
107	0xbeddf36b	-0.43349776
108	0xbdfc0229	-0.123050995
109	0x3f70edda	0.9411293
110	0xbf66baed	-0.90128976
111	0x3deb08ee	0.114763126
112	0x3f45c7c3	0.7725794
113	0x3f8b56f8	1.0885916
114	0x3f1d4df0	0.6144705
115	0xbf6a6e38	-0.9157443
116	0xc01dd45e	-2.4660869
117	0xbd740b5b	-0.059581142
118	0x3f09d2f0	0.5383749
119	0xbf474e5b	-0.77853936
120	0xbf92178d	-1.1413437
121	0xbd60ba98	-0.05486545
122	0x3d1f487f	0.038887497
123	0x3db4de3e	0.08831452
124	0xbf1b94ab	-0.60773724
125	0xbf21a1a0	-0.63137245
126	0xbf4d8ded	-0.80294687
127	0x3f14ea43	0.58169955
128	0xbfc35222	-1.525944
129	0xbf7f3e05	-0.9970401
130	0xbe9a6d91	-0.30161718
131	0xbecdf66f	-0.40227076
132	0x3f1e9bc6	0.6195644
133	0xbf80d222	-1.0064127
134	0x3f8aa860	1.0832634
135	0x3e6624f9	0.22475041
136	0xbef61544	-0.480631
137	0xbf54b71a	-0.8309189
138	0xbbfcc1e3	-0.007713543
139	0xbecdf534	-0.40226138
140	0x3ee1d21f	0.44105622
141	0xbea50faf	-0.32238528
142	0xbf076bd2	-0.52898896
143	0xbdf67d5f	-0.120356314
144	0xbec6391c	-0.38715446
145	0x3d94a804	0.07258609
146	0xbec5f2fa	-0.3866194
147	0xbd7dae65	-0.061933894
148	0xbf636581	-0.8882676
149	0xbf8e637c	-1.112411
150	0x3bd88c39	0.0066085127
151	0xbea10011	-0.31445363
152	0xbf81bef8	-1.0136404
153	0x3f833f4a	1.0253689
154	0x3f82964d	1.0202118
155	0x3f0f5b61	0.5599881
156	0x3ef7024e	0.48243946
157	0x3ef25b09	0.4733508
158	0x3e366155	0.17810567
159	0xbe9f0f3f	-0.3106632
160	0x3e11aa64	0.14225155
161	0x3e352832	0.17691115
162	0x3f9a6960	1.2063408
163	0xbe997405	-0.29971328
164	0xbf517a8f	-0.81827635
165	0x3ed1abc5	0.40951362
166	0x3d8fe899	0.07026786
167	0xbf10aeb0	-0.5651655
168	0xbf6b490d	-0.9190834
169	0x3f738173	0.951194
170	0x3fab7142	1.3393939
171	0xbf156d4d	-0.58369905
172	0x3eaa4667	0.33256838
173	0x3ea87f2b	0.3290952
174	0x3f4cc5ad	0.7998913
175	0xbe9f8cc2	-0.31162077
176	0xbdeeaa2d	-0.11653552
177	0x3df01d64	0.11724356
178	0x3f35752d	0.7088192
179	0x3f898348	1.0743189
180	0xbfd8dcc4	-1.6942372
181	0x3ea1ea25	0.3162395
182	0xbf25857e	-0.6465682
183	0x3eca7b80	0.39547348
184	0x3f3b14e7	0.7307877
185	0x3ed4659c	0.41483772
186	0x3f99917f	1.1997527
187	0x3eb8f824	0.36126816
188	0x3eb456c6	0.35222453
189	0x3ed2e926	0.41193503
190	0xbd7b728d	-0.06138854
191	0x3effa78b	0.49932513
192	0xbca4cabb	-0.0201162
193	0xbf28614a	-0.6577345
194	0x3e05513f	0.13019274
195	0x3f29cdb7	0.6632952
196	0x3ec55956	0.3854472
197	0x3f735214	0.95047116
198	0x3f26ba6b	0.651282
199	0xbe882948	-0.26593995
200	0x3f242015	0.64111453
201	0x3e45e6cc	0.19326323
202	0x3d9de5cb	0.07709845
203	0x3ea2fd19	0.31833723
204	0x3e99ee38	0.3006456
205	0x3f3919e6	0.7230514
206	0x3f2f55d6	0.6849035
207	0x3f3405c8	0.7032132
208	0x3ed055b5	0.4069039
209	0xbcd99440	-0.026559949
210	0xbe8c0ff4	-0.2735592
211	0xbe80d0c5	-0.2515928
212	0x3eaca633	0.3372055
213	0x3e722907	0.23648463
214	0xbee8f4af	-0.4549918
215	0x3e657fdd	0.22412057
216	0xbd9ccb63	-0.076559804
217	0x3f7076c3	0.93931216
218	0xbf71f305	-0.94511443
219	0x3db4dd82	0.08831312
220	0x3f4380a8	0.7636819
221	0x3f9083a4	1.1290174
222	0x3f1c1bae	0.60979736
223	0xbf7a3e45	-0.97751266
224	0xc01b73f3	-2.428952
225	0xbd7c1383	-0.061542045
226	0x3f1d9b3a	0.6156498
227	0xbf407cbf	-0.7519035
228	0xbf92c726	-1.1467025
229	0xbd5fae90	-0.054609835
230	0xbc034b03	-0.00801349
231	0x3dce32be	0.10068272
232	0xbf1991d9	-0.5998817
233	0xbf2e0e54	-0.67990613
234	0x3e94b897	0.2904708
235	0x3f888c48	1.066781
236	0x3d0af302	0.033923157
237	0x3f56ac58	0.83856726
238	0x3ea74163	0.32667074
239	0xbe57e892	-0.21084812
240	0x3effeaa2	0.49983698
241	0x3e9568e1	0.2918158
242	0x3fd4ba52	1.661936
243	0x3ed0ffc7	0.40820143
244	0x3e24601e	0.16052291
245	0xbdc26bea	-0.09493239
246	0x3f108427	0.5645165
247	0xbe49d280	-0.19709206
248	0xbebfcc1f	-0.3746042
249	0xbeb9f548	-0.36319947
250	0xbd0e1311	-0.034686152
251	0x3ece3bf6	0.40280122
252	0x3e85d343	0.26137742
253	0xbe19c38e	-0.15016004
254	0x3eaf3b38	0.34224868
255	0x3d06c3d3	0.032901596

conv_stem.1.weight f4 [64]
0	0x3f283064	0.6569884
1	0x400320b3	2.0488708
2	0x3f953252	1.1655982
3	0x3f9dc8a7	1.2326859
4	0x3fa4efa5	1.2885634
5	0x3f56a17d	0.8384016
6	0x3fb6aef3	1.427214
7	0x3fac3901	1.3454896
8	0x3fa7f35a	1.312114
9	0x3f74ba97	0.95597214
10	0x3fb37d21	1.4022561
11	0x3fd59928	1.6687365
12	0x3f98fcf6	1.1952198
13	0x3f65f505	0.89826995
14	0x3f560939	0.8360782
15	0x3faba551	1.3409826
16	0x3fa13f0e	1.2597368
17	0x3f57fb4a	0.8436781
18	0x3f9ff949	1.2497951
19	0x3f6cf1a9	0.92556244
20	0x3f66a23c	0.900913
21	0x3f9309a0	1.1487312
22	0x3fdb5a03	1.7136844
23	0x3f970efb	1.1801447
24	0x3fe75483	1.8072666
25	0x3f6319cc	0.8871124
26	0x3f926ef5	1.1440111
27	0x3f8d53f7	1.1041249
28	0x3f6b096a	0.9181124
29	0x3f8db53c	1.1070933
30	0x3fa5e513	1.2960533
31	0x3f7a0d97	0.97676986
32	0x3f9693b8	1.176383
33	0x3f7f432b	0.99711865
34	0x3fd88b70	1.6917553
35	0x3fbc9b08	1.4734812
36	0x3f7c16f3	0.9847252
37	0x3fc0bd82	1.5057833
38	0x3f9f20b7	1.2431859
39	0x3fbea195	1.4893061
40	0x3f9e7623	1.2379802
41	0x3f5e4aae	0.868327
42	0x3fa534e6	1.2906768
43	0x3fc39237	1.5278996
44	0x3f8db233	1.1070007
45	0x3f61a74e	0.8814591
46	0x3f87612b	1.0576528
47	0x3f856df1	1.0424176
48	0x3f913419	1.1344024
49	0x3f90c665	1.1310545
50	0x3fb1ac9e	1.3880804
51	0x3f84194b	1.0320219
52	0x3fbd90fd	1.4809872
53	0x3f5347fa	0.825317
54	0x3faf85a6	1.3712661
55	0x3f86fce1	1.0545923
56	0x3f9e7639	1.2379829
57	0x3fb0189a	1.3757508
58	0x3f626c20	0.88446236
59	0x3f75063a	0.95712626
60	0x3fa803b4	1.312613
61	0x3fe2226e	1.7666757
62	0x3f93df20	1.1552467
63	0x3f7b6d61	0.98213774

conv_stem.1.bias f4 [64]
0	0x3d8b1219	0.06790561
1	0xbfcb3903	-1.5876774
2	0xbe2aa607	-0.16664897
3	0xbf48a2bd	-0.7837332
4	0xbc1b8935	-0.009493162
5	0xbd75c0b6	-0.059998237
6	0xbe5c5c8b	-0.21519677
7	0xbf1d59d8	-0.61465216
8	0xbf86e9f4	-1.0540147
9	0xbd4988de	-0.049202792
10	0xbf2d3fa6	-0.67675245
11	0xbf795a4e	-0.9740342
12	0xbf1b5e80	-0.6069107
13	0xbd31383c	-0.04326652
14	0xbeaaa795	-0.3333098
15	0xbf3d7372	-0.7400428
16	0xbe36e200	-0.1785965
17	0xbe8f825d	-0.28029147
18	0xbec27349	-0.3797858
19	0xbf1981e1	-0.59963804
20	0xbea2e9f8	-0.3181913
21	0xbf2ba075	-0.67041713
22	0xbf1e02d7	-0.61723083
23	0xbe8203a7	-0.25393412
24	0xbf8c30d3	-1.09524
25	0x3e2d9685	0.1695195
26	0xbf077eac	-0.5292766
27	0xbeff4977	-0.49860737
28	0xbef47e16	-0.47752446
29	0xbdd952be	-0.10611485
30	0xbe8d8bbc	-0.2764567
31	0x3dcbea14	0.09956756
32	0xbdecbce6	-0.11559467
33	0xbe8ce135	-0.2751557
34	0xbf4251eb	-0.75906247
35	0xbf7fb462	-0.9988462
36	0xbf15bcb4	-0.58491063
37	0xbf16165b	-0.5862786
38	0xbeb9ef31	-0.363153
39	0xbe431bde	-0.19053599
40	0xbe8cabf5	-0.27474943
41	0xbf331b8d	-0.69963914
42	0xbf53bf38	-0.8271365
43	0xbf3543ac	-0.70806384
44	0xbf12b64e	-0.57309425
45	0xbe9df9f1	-0.30854753
46	0xbe44aa29	-0.19205536
47	0xbe85533f	-0.26040074
48	0xbed1cdef	-0.40977427
49	0xbf198bf6	-0.5997919
50	0xbf34a0c2	-0.70557797
51	0xbd9ddfb4	-0.077086836
52	0xbf00d81d	-0.5032976
53	0xbebdbbf2	-0.37057453
54	0xbeeaaed8	-0.4583652
55	0xbda68e8a	-0.08132656
56	0xbf3fa4b7	-0.7486071
57	0xbf13214d	-0.5747269
58	0xbe92004d	-0.28515854
59	0xbed5d452	-0.4176355
60	0xbed0a7bd	-0.40752974
61	0xbf8b85ef	-1.0900248
62	0xbf47b6b0	-0.78013134
63	0xbda865a3	-0.08222511

conv_stem.1.running_mean f4 [64]
0	0xbfeba78e	-1.8410509
1	0xc0005683	-2.0052803
2	0x3ff7f37c	1.937118
3	0xbf14dedf	-0.58152574
4	0xc0fe299b	-7.942579
5	0xc00d4b03	-2.2077034
6	0xc0de643c	-6.9497356
7	0xc1259480	-10.348755
8	0xc0c28234	-6.078394
9	0xc0b029d2	-5.505105
10	0xc1213b1a	-10.076929
11	0xc0ff10bf	-7.970794
12	0xc0024afa	-2.0358262
13	0x3f0272d2	0.5095645
14	0x401a04ec	2.4065504
15	0xc09a4679	-4.8211026
16	0xc0fceabf	-7.9036555
17	0x3eb1f75f	0.34759042
18	0xbf09d74d	-0.5384415
19	0x3f752f23	0.9577505
20	0xc0b859c5	-5.760958
21	0x3e317df2	0.173332
22	0xc0d58484	-6.672426
23	0xc094d3b0	-4.6508408
24	0xc0f60995	-7.6886697
25	0xc0f16beb	-7.5444236
26	0xc093f322	-4.6234293
27	0xc091918b	-4.5490165
28	0x40191682	2.3919988
29	0xc07fe966	-3.9986205
30	0xc07913a1	-3.891823
31	0xc011567b	-2.2709033
32	0xc0828318	-4.0785027
33	0xc025d0c6	-2.5908675
34	0x3ee3482a	0.44390994
35	0xc06b5666	-3.6771483
36	0x40c316fd	6.096556
37	0xc1291562	-10.56772
38	0xc12d9a0e	-10.850111
39	0xc0ae080b	-5.438482
40	0xc11b4913	-9.70534
41	0x4117934e	9.473463
42	0x3fd20597	1.6407956
43	0xc13f60d4	-11.96114
44	0xbf7ccfe6	-0.9875473
45	0xc0cfe9be	-6.497283
46	0xc084fcef	-4.1558757
47	0xc0cd155b	-6.408857
48	0x40e22667	7.067188
49	0x40c273cf	6.076637
50	0xbf40c528	-0.75300837
51	0xc0b4b48a	-5.6470385
52	0xc1341d6b	-11.257182
53	0xbf6dc7db	-0.9288308
54	0xc08ee5f5	-4.465571
55	0xbf9cfe6e	-1.2265146
56	0xc081e248	-4.058872
57	0xbf8e019e	-1.1094244
58	0xbf3a143d	-0.7268713
59	0xc05dcbe5	-3.4655697
60	0xbebb9a02	-0.36640936
61	0xc0dff7ac	-6.9989834
62	0xc0b94a04	-5.790285
63	0xc0863947	-4.194492

conv_stem.1.running_var f4 [64]
0	0x41da1404	27.259773
1	0x41d54110	26.656769
2	0x41fdf12e	31.742764
3	0x41e12099	28.140917
4	0x422a1289	42.5181
5	0x4201c861	32.445683
6	0x4239edbf	46.482174
7	0x423beb77	46.979946
8	0x427d9950	63.39972
9	0x4232e65d	44.724964
10	0x42049f4f	33.155575
11	0x4209cae9	34.448154
12	0x420c63a9	35.097324
13	0x42065da4	33.591446
14	0x4193180c	18.386742
15	0x41b14773	22.159887
16	0x420467a9	33.10123
17	0x420e34c8	35.551544
18	0x41c49dd9	24.577074
19	0x41e45ea1	28.546206
20	0x41ce831b	25.814016
21	0x41cae580	25.36206
22	0x420f6962	35.852913
23	0x41fb6fee	31.429653
24	0x41bb7486	23.431896
25	0x41da1018	27.257858
26	0x42060952	33.5091
27	0x41f5aa3e	30.708126
28	0x41d571a4	26.680489
29	0x421350c1	36.82886
30	0x429f83d9	79.757515
31	0x41ed45ac	29.65902
32	0x4200bd03	32.18458
33	0x41c75b3a	24.919544
34	0x41df75e3	27.932562
35	0x41dcb85a	27.590015
36	0x4203b609	32.92777
37	0x41cc7bda	25.560474
38	0x421d8048	39.375275
39	0x41f33469	30.40059
40	0x422fef7b	43.983868
41	0x42035ced	32.840748
42	0x41a2e084	20.359627
43	0x4261d044	56.453384
44	0x425d4bef	55.324154
45	0x421a4017	38.562588
46	0x41de28e3	27.769964
47	0x4220003f	40.00024
48	0x41e2649a	28.299122
49	0x425f7aeb	55.870037
50	0x41c6d192	24.85233
51	0x42576419	53.84775
52	0x423178a0	44.367798
53	0x41d067a5	26.050608
54	0x421f4181	39.81397
55	0x41a5704c	20.679832
56	0x418ba285	17.454355
57	0x41eb874f	29.441069
58	0x41b64607	22.784193
59	0x41d308b0	26.379242
60	0x41a79516	20.947796
61	0x41d6e9ab	26.864096
62	0x421f974b	39.897747
63	0x41f556cb	30.66738

conv_stem.3.weight f4 [64, 64, 3, 3]
0	0xbf441345	-0.765919
1	0xbe9eeeb3	-0.31041488
2	0xbcd5d91f	-0.026104508
3	0xbe41f1f0	-0.18939948
4	0x3edd6db3	0.43247756
5	0x3f235c4a	0.63812697
6	0x3dd0efe4	0.102020055
7	0x3e814269	0.2524598
8	0x3dc80b09	0.0976773
9	0x3d8efb6a	0.06981547
10	0xbdc10b97	-0.09426039
11	0x3cfed983	0.031109577
12	0xbe035b82	-0.12827876
13	0xbf6fc91c	-0.93666244
14	0x3edabf2d	0.4272398
15	0xbee7c9ad	-0.45271054
16	0x3f1e2e5e	0.617895
17	0xbf1c33a7	-0.61016315
18	0xbf7fa91f	-0.99867433
19	0xbed845fb	-0.4224089
20	0xbea14794	-0.31499922
21	0xbed1b7e3	-0.40960607
22	0xbe420196	-0.18945917
23	0xbfb3e3c4	-1.4053884
24	0xbf6f4d57	-0.93477386
25	0xbfe89ec7	-1.8173455
26	0x3ea3add1	0.3196855
27	0x3eede0e4	0.4646064
28	0xbe02bfdd	-0.12768503
29	0x3edd7691	0.4325452
30	0xbe9cf5df	-0.30656335
31	0xbf12c83a	-0.5733677
32	0x3e2d4f29	0.16924728
33	0xbf83f55e	-1.0309255
34	0x3eb9ff14	0.36327422
35	0xbe0eea89	-0.13956656
36	0xbef487d3	-0.47759876
37	0x3d12a751	0.035804097
38	0xbd85ec3b	-0.06539198
39	0xbe9d8ff7	-0.307739
40	0x3eae80fb	0.3408278
41	0xbf331eff	-0.6996917
42	0xbcd0b353	-0.025476133
43	0xbe847775	-0.25872388
44	0x3f2bd67c	0.6712415
45	0x3f6617bf	0.89879984
46	0x3edc9c9a	0.43088228
47	0x3ea9884e	0.33111805
48	0x3ed43e75	0.414539
49	0x3eccda2e	0.40010208
50	0xbdf0049a	-0.11719628
51	0x3f53591a	0.82557833
52	0xbea8a58d	-0.32938805
53	0x3e9ec13b	0.31006798
54	0x3f985509	1.1900951
55	0x3e59d839	0.21273889
56	0xbea9429d	-0.33058634
57	0x3f3a1b86	0.7269825
58	0x3f51219d	0.81691915
59	0x3fa110f4	1.2583299
60	0x3f5abb54	0.8544209
61	0x3fbc50e9	1.4712192
62	0x3f49229b	0.7856843
63	0xbf08b146	-0.533955
64	0x3ecfa64a	0.40556556
65	0x3c11ca86	0.008898383
66	0xbe7a5f1c	-0.24450344
67	0x3d9471fe	0.07248305
68	0x3f0c987f	0.5492019
69	0xbe1cbc1c	-0.15306133
70	0x3fe91de3	1.8212246
71	0x3f5afc4d	0.8554123
72	0xbfd70f30	-1.680151
73	0xbf2bd615	-0.6712354
74	0xbed72214	-0.42018187
75	0xbea2ca1a	-0.31794816
76	0x3ebfcb2e	0.374597
77	0x3f11512c	0.56764483
78	0x3f2a8632	0.66611016
79	0xbf0fa94d	-0.5611771
80	0xbe62d2ec	-0.22150773
81	0xbf0e4cf9	-0.555862
82	0xbee4977a	-0.44646817
83	0xbff323a0	-1.8995247
84	0xbf569f9b	-0.8383729
85	0xbebe1f43	-0.37133226
86	0xbfa4b8e1	-1.286892
87	0x3e5f3166	0.21796188
88	0xbe0f6aa3	-0.14005522
89	0xbf4a324d	-0.78983
90	0x3ec61e56	0.3869502
91	0x3ee7ffc9	0.45312336
92	0x3e32e292	0.17469242
93	0x3f0780fb	0.52931184
94	0x3dda40c4	0.10656884
95	0x3f18fca9	0.5976053
96	0x3f1eacfb	0.619827
97	0x3e8c1a0c	0.27363622
98	0x3eba357b	0.36368927
99	0xbe3e1d58	-0.18565881
100	0x3f6b2c6d	0.91864663
101	0x3e58af80	0.21160698
102	0xbe960150	-0.29297876
103	0x3f6f2ae6	0.9342483
104	0x3e8a669a	0.27031404
105	0x3f805379	1.0025474
106	0x3e47c98d	0.1951048
107	0x3f1c82bb	0.6113698
108	0x3f7881d9	0.9707313
109	0x3d77fe02	0.060544975
110	0x3f8a468f	1.0802783
111	0xbeea2703	-0.4573289
112	0x3e8a7404	0.27041638
113	0x3f8912a7	1.0708817
114	0xbefaaf95	-0.48962083
115	0xbeec0146	-0.46094722
116	0x3f465d08	0.77485704
117	0x3de0e996	0.10982053
118	0x3f10a72f	0.565051
119	0x3f0d8159	0.55275494
120	0xbe860ddc	-0.2618245
121	0xbf414cf7	-0.75508064
122	0x3e4e47a3	0.20144515
123	0xbf08651f	-0.532793
124	0xbeaec971	-0.34138063
125	0xbea02141	-0.3127537
126	0xbf3c245e	-0.7349299
127	0x3ec87f7a	0.39159757
128	0x3fb17748	1.3864527
129	0xbeb3744f	-0.35049674
130	0xbea560b2	-0.32300335
131	0xbdde5249	-0.108555384
132	0xbe930623	-0.2871562
133	0xbb8e829f	-0.0043490673
134	0xbe61b95a	-0.22043362
135	0xbf43862e	-0.76376617
136	0x3e8c04e8	0.27347493
137	0x3e8cb6b4	0.2748314
138	0x3f2306a6	0.6368202
139	0x3f893293	1.0718559
140	0x3eb9e8fc	0.36310565
141	0x3e4b860b	0.19875352
142	0x3e614265	0.21997984
143	0x3fd08e96	1.6293514
144	0x3f05d1ac	0.5227306
145	0x3ee82d55	0.45347086
146	0xbeffd2d8	-0.4996555
147	0xbfa8fc9a	-1.3202088
148	0x3f94ba72	1.1619399
149	0xbec90799	-0.3926361
150	0x3f9b2d92	1.2123282
151	0x3ef90d70	0.48643064
152	0x3f351eab	0.7074992
153	0xbd330c22	-0.043712743
154	0x3f3476c2	0.7049371
155	0x3f311ea2	0.69187367
156	0xbbffd424	-0.0078072716
157	0xbe8ef3a8	-0.2792027
158	0x3ed40a28	0.41414
159	0x3f69b82d	0.91296655
160	0xbe227e7d	-0.15868564
161	0x3ede509c	0.43420875
162	0x3f101ba0	0.5629215
163	0xbe5b3d33	-0.21410064
164	0xbd695604	-0.056966797
165	0xbe39b3dc	-0.18135017
166	0x3f248712	0.642686
167	0xbeac5594	-0.3365904
168	0x3c9e434d	0.0193192
169	0x3e20355c	0.15645355
170	0x3f5da986	0.865868
171	0xbd82b397	-0.0638191
172	0xbe6acf8a	-0.22930732
173	0x3fc75e7e	1.5575712
174	0x3f825f4f	1.0185336
175	0xbe866749	-0.26250675
176	0x3e368056	0.17822394
177	0x3ef1aa9e	0.47200483
178	0xbfa0eec6	-1.2572868
179	0xbe8567c2	-0.26055723
180	0xbf137251	-0.5759631
181	0xbe62220c	-0.220833
182	0xbf745fc6	-0.9545864
183	0x3ee64634	0.44975436
184	0x3e9759d9	0.29560736
185	0xbf088888	-0.5333333
186	0xbf7eafe2	-0.99487126
187	0xbed84c49	-0.422457
188	0x3e19da15	0.15024598
189	0x3eb9ca1a	0.36287004
190	0xbd9881f4	-0.074466616
191	0x3e405e83	0.18786053
192	0xbe9ba796	-0.30401295
193	0x3f254207	0.64553875
194	0xbf05b927	-0.52235645
195	0xbe24ab00	-0.16080856
196	0xbf5e10c7	-0.8674435
197	0x3f66caa1	0.9015294
198	0xbf147bee	-0.580016
199	0x3f29b733	0.66295165
200	0xbde1788a	-0.11009319
201	0x3f215e3e	0.6303443
202	0x3d215d2a	0.03939549
203	0x3cfb1b31	0.030652614
204	0xbf7ed5fe	-0.99545276
205	0x3fa690bf	1.3012923
206	0x3d321005	0.04347231
207	0xbe9cce36	-0.30626076
208	0xbe64fb38	-0.22361457
209	0x3e06b7d6	0.13156065
210	0x3e90190a	0.28144103
211	0x3ec6a8b2	0.3880058
212	0xbe133fa8	-0.14379752
213	0xbecbbe50	-0.39793634
214	0xbd8be0ed	-0.068300106
215	0x3f7c06e5	0.9844802
216	0xbddcfd78	-0.10790533
217	0xbe799a8f	-0.24375366
218	0xbfac78c6	-1.3474357
219	0xbeade9a3	-0.33967313
220	0x3d94b02a	0.07260163
221	0xbeca3d5f	-0.39499947
222	0x3f1f5ded	0.62252694
223	0xbef3ca33	-0.47615203
224	0x3afba987	0.0019200303
225	0x3e26292b	0.16226642
226	0xbeb606c3	-0.35552034
227	0xbf2eed4d	-0.6833084
228	0x3eb1c6a9	0.34721878
229	0x3f30ae44	0.6901591
230	0x3f634c45	0.88788253
231	0x3ea381ec	0.3193506
232	0x3f45260b	0.77011174
233	0x3cf3ef94	0.029777326
234	0xbf013c18	-0.5048232
235	0x3f1e0652	0.61728394
236	0xbf2118cd	-0.6292847
237	0x3ddb8b22	0.10719897
238	0xbe39cc71	-0.18144394
239	0x3fa1bc2c	1.263555
240	0xbf01d5a7	-0.5071663
241	0xbf0c5403	-0.5481569
242	0xbf71efad	-0.9450634
243	0xbe2126d6	-0.15737471
244	0xbec66fe1	-0.38757232
245	0x3f03ce7a	0.51486933
246	0xbfe127c5	-1.7590262
247	0xbf9dfaf3	-1.2342209
248	0xbf8e803e	-1.1132886
249	0xbf516605	-0.81796294
250	0x3ec89355	0.39174905
251	0xbe2ed731	-0.17074277
252	0xbf317e70	-0.69333553
253	0x3f40a565	0.7525237
254	0xbef6a4b1	-0.48172525
255	0x3de5f94c	0.1122919

conv_stem.4.weight f4 [64]
0	0x3eff874e	0.49907917
1	0x3ed087ed	0.40728703
2	0x3f0bd7cb	0.5462615
3	0x3ed50759	0.41607168
4	0x3ee2a2a6	0.44264716
5	0x3f1253d1	0.57159144
6	0x3f0d14a0	0.55109596
7	0x3f189fe8	0.59619
8	0x3eaa3062	0.33240038
9	0x3eea6a79	0.45784357
10	0x3f1d4a8a	0.6144186
11	0x3f0c0504	0.54695153
12	0x3f34949d	0.70539266
13	0x3edf6c14	0.43637145
14	0x3f033b23	0.5126211
15	0x3f1bbabb	0.60831803
16	0x3f087000	0.532959
17	0x3ee91ceb	0.45529875
18	0x3f0e3884	0.55554986
19	0x3f17073c	0.58995414
20	0x3ef01cc3	0.46896943
21	0x3eecf106	0.46277636
22	0x3eeda9a4	0.46418488
23	0x3ed8c9fe	0.42341608
24	0x3ebfc8f8	0.37458014
25	0x3f079b96	0.5297178
26	0x3f0fdd89	0.5619741
27	0x3eed3488	0.4632914
28	0x3f129dca	0.57272017
29	0x3f25b719	0.6473251
30	0x3f038bd5	0.5138524
31	0x3f08538e	0.53252494
32	0x3ef4b2bb	0.4779261
33	0x3f04f996	0.5194334
34	0x3f28f9e5	0.6600631
35	0x3ed74f22	0.4205256
36	0x3f238fc8	0.6389127
37	0x3ed17313	0.40908107
38	0x3f2216ae	0.63315856
39	0x3f0e3848	0.5555463
40	0x3f21a775	0.63146144
41	0x3f2e99e5	0.68203574
42	0x3ed38fc9	0.41320637
43	0x3f0683a3	0.5254461
44	0x3eb9d977	0.36298725
45	0x3eb5720e	0.3543858
46	0x3efa205f	0.48852822
47	0x3ede5cac	0.43430078
48	0x3f1d4600	0.61434937
49	0x3efe7c5c	0.49704254
50	0x3ee3560f	0.44401595
51	0x3f1dc3c1	0.6162682
52	0x3f18bf71	0.59667116
53	0x3f085f29	0.532702
54	0x3ef8da3b	0.48603997
55	0x3f095ed0	0.536603
56	0x3ee7f70a	0.45305663
57	0x3ed14826	0.40875357
58	0x3ee9312a	0.45545322
59	0x3ee56770	0.4480548
60	0x3f0d3b18	0.55168295
61	0x3ef763b3	0.48318252
62	0x3f11e99c	0.56997085
63	0x3f116bd8	0.5680518

conv_stem.4.bias f4 [64]
0	0xbf07e1b1	-0.5307875
1	0xbec8523d	-0.39125243
2	0xbf0bc1fb	-0.54592866
3	0xbe2381cb	-0.15967481
4	0xbeccaa2b	-0.39973578
5	0xbef2b433	-0.47403106
6	0xbdf9949d	-0.12186549
7	0xbf11a539	-0.56892735
8	0xbe311f52	-0.17297104
9	0xbee816bf	-0.45329854
10	0xbf2092ed	-0.6272419
11	0xbeaf5f55	-0.3425242
12	0xbf273093	-0.65308493
13	0xbee0a152	-0.43873078
14	0xbf0e7eaf	-0.55662054
15	0xbf0b1ec4	-0.5434382
16	0xbf2235fc	-0.63363624
17	0xbf08b8c1	-0.5340691
18	0xbf372568	-0.7154145
19	0xbf29f988	-0.6639638
20	0xbeaad0b7	-0.33362362
21	0xbee5bed4	-0.44872153
22	0xbf0e4c4e	-0.5558518
23	0xbe1bc8d4	-0.15213329
24	0xbe6abf80	-0.22924614
25	0xbf12ff67	-0.57420963
26	0xbf1914bf	-0.5979728
27	0xbec162fb	-0.3777083
28	0xbf03da19	-0.51504666
29	0xbf2bb137	-0.67067283
30	0xbf10a1c3	-0.5649683
31	0xbf27d0d7	-0.6555304
32	0xbe7b4505	-0.24538048
33	0xbf3cc82b	-0.7374293
34	0xbf147521	-0.57991225
35	0xbe8df2cd	-0.27724305
36	0xbf1df243	-0.6169779
37	0xbe8515b0	-0.2599311
38	0xbf16839f	-0.5879459
39	0xbef40aa5	-0.4766437
40	0xbef56b2f	-0.47933337
41	0xbf068860	-0.5255184
42	0xbeb6bba9	-0.35690048
43	0xbf03411a	-0.5127121
44	0xbee8749b	-0.45401463
45	0xbe8e80a7	-0.2783253
46	0xbefc9d2f	-0.49338672
47	0xbeccbc4e	-0.39987415
48	0xbf000afd	-0.50016767
49	0xbedc4f6b	-0.4302934
50	0xbec6a701	-0.3879929
51	0xbf4cddb0	-0.8002577
52	0xbede4149	-0.43409184
53	0xbf00f88c	-0.5037925
54	0xbf25dbbc	-0.64788413
55	0xbe167074	-0.14691335
56	0xbe9d1370	-0.30678892
57	0xbef4da85	-0.47822967
58	0xbed7c001	-0.42138675
59	0xbea03721	-0.3129206
60	0xbead4c40	-0.33847237
61	0xbf030106	-0.51173437
62	0xbed2aecf	-0.41148993
63	0xbec1fb13	-0.37886867

conv_stem.4.running_mean f4 [64]
0	0x3f0ff1bc	0.5622823
1	0xbf996d37	-1.1986455
2	0xc13407fe	-11.251951
3	0xc066a073	-3.603543
4	0xbfdbe9ec	-1.7180762
5	0xc0991d25	-4.7848077
6	0xc12d7ecb	-10.843455
7	0x405cd937	3.4507577
8	0xc14a7d8a	-12.655649
9	0xbfec8cf6	-1.8480518
10	0xc120f20f	-10.059096
11	0xc0c1f959	-6.061688
12	0xc129ea9c	-10.619778
13	0xc0b9c456	-5.805217
14	0xc00b70ac	-2.178752
15	0xbfe966e9	-1.8234531
16	0xc17a5395	-15.645406
17	0xc09a31c6	-4.818576
18	0xc0ba63ec	-5.8246975
19	0xbfb939cf	-1.4470767
20	0x40b6392a	5.694478
21	0x4017d3dd	2.372306
22	0xbed2474f	-0.4107003
23	0xc054235b	-3.314658
24	0xc0da6919	-6.8253293
25	0xbff4058b	-1.9064192
26	0xc052ff4a	-3.2968316
27	0x3d1985ab	0.03748099
28	0xc0f816ed	-7.7527986
29	0xbec935fb	-0.39298996
30	0xc1288bfb	-10.534175
31	0xc0c61f10	-6.191292
32	0xc058aff4	-3.3857393
33	0xc082ef09	-4.091679
34	0xc0e1183c	-7.0342083
35	0xbf79c117	-0.97560257
36	0xc1827b8d	-16.310328
37	0xc0a9a9da	-5.301984
38	0xc112adfb	-9.167476
39	0xc0d8436d	-6.7582307
40	0xc085c389	-4.180119
41	0xc121bb34	-10.108204
42	0xbecdd064	-0.40198052
43	0xc121365c	-10.075771
44	0xc06d0177	-3.7032144
45	0x40853224	4.1623707
46	0x403b66c7	2.928148
47	0xc10065d0	-8.024857
48	0xbfb3636f	-1.401472
49	0xc09a9712	-4.830941
50	0xc08686ba	-4.203946
51	0xc0a06d00	-5.0133057
52	0xc10c9377	-8.786002
53	0xc10aea87	-8.682258
54	0xc167032a	-14.438272
55	0xc110cde1	-9.050263
56	0x400a5973	2.1617095
57	0xc020ddd4	-2.5135393
58	0xc0a06fe1	-5.013657
59	0xc10055b1	-8.020921
60	0xc0e26502	-7.07483
61	0xc11256b6	-9.14617
62	0xc16570bb	-14.340022
63	0xbfc0d54f	-1.5065097

conv_stem.4.running_var f4 [64]
0	0x42e7a358	115.81903
1	0x430ee84e	142.90744
2	0x42d4ecf4	106.4628
3	0x42c288a3	97.26687
4	0x42a666f2	83.201065
5	0x4311001b	145.00041
6	0x4308a5d9	136.64784
7	0x42a1a310	80.81848
8	0x430637fe	134.21872
9	0x42db8e9d	109.77854
10	0x42abc966	85.89336
11	0x43126cc7	146.42491
12	0x431ec77e	158.77927
13	0x42a9c50d	84.884865
14	0x42a8a2cd	84.31797
15	0x42e140f4	112.62686
16	0x42f0246e	120.07115
17	0x42ada973	86.830956
18	0x42df925f	111.78588
19	0x42e2720d	113.222755
20	0x42b33ae7	89.61504
21	0x428bd7fd	69.92185
22	0x42c6cc17	99.39861
23	0x430a312d	138.1921
24	0x42ccf780	102.4834
25	0x4299b791	76.85853
26	0x42e464f4	114.197174
27	0x42f10f06	120.52934
28	0x43046e68	132.43127
29	0x43290468	169.01721
30	0x42f22d10	121.08801
31	0x431b148a	155.08023
32	0x42a62727	83.07647
33	0x42cd47ff	102.64062
34	0x4326fa53	166.97783
35	0x431f0dd9	159.0541
36	0x42b8fd31	92.494514
37	0x4327d1d6	167.81967
38	0x42c133e7	96.60137
39	0x42a2ad11	81.33802
40	0x430b780c	139.46893
41	0x431948fb	153.28508
42	0x42bb4a51	93.64515
43	0x42e86871	116.20399
44	0x42c7393f	99.61181
45	0x42fecb06	127.39653
46	0x42de20ac	111.06381
47	0x42db75bf	109.72997
48	0x433fe3db	191.89006
49	0x42c36046	97.688034
50	0x42a575d2	82.73012
51	0x42e16ebe	112.71629
52	0x430483dd	132.51509
53	0x42b711be	91.53465
54	0x42fb95ac	125.79233
55	0x4303b024	131.68805
56	0x43144f15	148.30891
57	0x42e094db	112.29073
58	0x42ea168b	117.04403
59	0x42eff473	119.97744
60	0x42ccb5cf	102.355095
61	0x42f9a426	124.8206
62	0x43179269	151.57191
63	0x43397252	185.44656

proj.weight f4 [64, 64, 1, 1]
0	0x3ebc5c50	0.3678918
1	0x3e95d2d1	0.29262403
2	0x3f254d99	0.6457153
3	0x3e075daf	0.13219331
4	0xbead11c4	-0.33802617
5	0xbe7fbac7	-0.24973594
6	0x3cd7df0e	0.026351478
7	0x3ee63679	0.44963434
8	0x3f68d9e7	0.9095749
9	0x3e12631b	0.14295618
10	0xbd81d7f4	-0.06340018
11	0xbe2f4d52	-0.17119339
12	0x3e0083aa	0.12550226
13	0xbe81df9e	-0.2536592
14	0xbdf288dc	-0.1184251
15	0xbf40645d	-0.7515314
16	0x3f1eeb73	0.62078017
17	0x3e4f5881	0.20248605
18	0x3e7eea48	0.24894059
19	0xbe7f9fe7	-0.24963342
20	0xbe59a1a0	-0.21253061
21	0xbda0bde1	-0.078487165
22	0xbf4ed954	-0.80800366
23	0xbe13e4b3	-0.1444271
24	0xbf0407ad	-0.5157421
25	0xbdefb13a	-0.11703725
26	0x3e702a29	0.23453583
27	0xbe9933d1	-0.29922345
28	0xbdf3b600	-0.11899948
29	0x3dc646dc	0.09681484
30	0xbdf3f99a	-0.11912842
31	0xbeaf7c45	-0.34274498
32	0xbce1019f	-0.027466593
33	0xbe6a9b58	-0.22910821
34	0xbe90d3f3	-0.28286704
35	0x3d8a9707	0.067670874
36	0x3e34f0c8	0.17669976
37	0xbd934be8	-0.07192212
38	0xbebc5057	-0.36780044
39	0x3e020523	0.12697272
40	0xbe18c373	-0.14918308
41	0x3e7f1e62	0.24913934
42	0x3e8bfc76	0.2734105
43	0x3c29483b	0.0103321625
44	0xbee7e427	-0.45291254
45	0x3cb4640c	0.022020362
46	0xbef120e4	-0.47095406
47	0x3ea5d5e3	0.32389745
48	0x3f621f31	0.88328844
49	0x3eb82e9a	0.35973054
50	0x3e51f981	0.20505334
51	0xbf16f62b	-0.5896937
52	0x3d4b77c3	0.04967476
53	0xbf1220f4	-0.5708153
54	0x3f1cb896	0.61219156
55	0x3e4a398f	0.1974852
56	0x3d419ce6	0.04726877
57	0x3d4edabf	0.05050158
58	0xbec23685	-0.3793222
59	0x3eaa0d37	0.33213207
60	0x3e53ec99	0.20695724
61	0xbf13b345	-0.5769542
62	0x3e561960	0.20908117
63	0xbd5a1d3a	-0.05325053
64	0x3f4941c3	0.7861597
65	0xbf13aa38	-0.5768161
66	0xbf5fa8f9	-0.87367207
67	0x3d4ec7c4	0.05048348
68	0xbe02eaf7	-0.12784944
69	0x3eefc923	0.46833143
70	0x3e46eeae	0.19426987
71	0xbf00ed89	-0.5036245
72	0xbe18e2d0	-0.14930272
73	0xbda63e89	-0.081173964
74	0x3df6e23e	0.12054871
75	0x3e214f64	0.15752941
76	0x3e404540	0.18776417
77	0xbdacc267	-0.08435517
78	0xbf19259e	-0.59823024
79	0x3ce92201	0.028458597
80	0xbdba6faa	-0.091033295
81	0x3e019eb5	0.12658198
82	0x3ec0a5b9	0.37626436
83	0xbefde8d4	-0.49591696
84	0xbecab614	-0.3959204
85	0xbb11837a	-0.002220361
86	0x3f307276	0.68924654
87	0xbdc9529b	-0.09830209
88	0xbc4c5e0c	-0.012473594
89	0x3d447003	0.047958385
90	0x3eb60e7a	0.3555792
91	0x3ef09648	0.46989655
92	0x3f104677	0.5635752
93	0xbd88db56	-0.0668246
94	0x3e11818c	0.14209574
95	0x3ea3d814	0.32000792
96	0x3e846d8e	0.25864834
97	0x3eb169d7	0.34651062
98	0x3e6676ca	0.22506252
99	0x3f59bb9b	0.8505189
100	0x3e4bcd9a	0.1990265
101	0xbd45e61d	-0.048315156
102	0x3ec47b49	0.3837531
103	0xbe3bdde0	-0.18346357
104	0x3e7937d7	0.24337707
105	0x3ef3570d	0.47527352
106	0x3ef3ca6e	0.4761538
107	0x3ed9bb76	0.42525834
108	0xbec7225c	-0.38893402
109	0x3f3bcbba	0.7335774
110	0xbeabb652	-0.33537537
111	0xbdadb454	-0.084816605
112	0x3c09e724	0.008416925
113	0xbf1a76db	-0.6033761
114	0x3e130039	0.14355554
115	0x3ea13abe	0.3149013
116	0xbd7fe16d	-0.062470842
117	0xbf015c1d	-0.5053118
118	0x3f79e9f8	0.97622633
119	0x3e762652	0.24038056
120	0xbe82abad	-0.25521603
121	0x3e06a6bc	0.13149542
122	0xbea6d5db	-0.32585034
123	0xbd0e92e2	-0.034808047
124	0x3ebe7fe1	0.3720694
125	0x3f7518c0	0.9574089
126	0x3e4a9038	0.19781578
127	0xbf71202e	-0.9418973
128	0xbec66df0	-0.3875575
129	0xbe488318	-0.19581258
130	0x3f0c094b	0.5470168
131	0xbdad02ad	-0.08447776
132	0x3e9228fa	0.28546888
133	0x3ce6fb3d	0.028195972
134	0x3dc7f748	0.09763962
135	0x3eda42ad	0.42628995
136	0xbd79fbce	-0.061031155
137	0xbcafd213	-0.021462476
138	0xbee44224	-0.4458171
139	0xbf220f5f	-0.63304704
140	0x3ec808d4	0.39069235
141	0x3eb13a90	0.34614992
142	0xbe9d4d07	-0.3072283
143	0x3ee64e62	0.44981676
144	0xbd8cb4ef	-0.06870448
145	0xbeec4b81	-0.46151355
146	0x3d043d46	0.032284997
147	0x3e30c96c	0.17264336
148	0x3e625a9b	0.22104876
149	0xbee72d7e	-0.45151895
150	0xbd95c892	-0.073136464
151	0x3f03eaee	0.5153035
152	0x3e05c073	0.13061695
153	0xbdb85dea	-0.09002288
154	0xbddf52e4	-0.10904482
155	0x3dd9e95b	0.10640212
156	0x3e15e198	0.14636838
157	0x3efffc0f	0.49996993
158	0xbd2445bc	-0.040105566
159	0x3ef681c9	0.48145893
160	0x3e98221a	0.29713517
161	0x3eb30713	0.34966335
162	0x3dd4acd7	0.10384529
163	0xbef42570	-0.47684813
164	0xbec149f0	-0.37751722
165	0xbe8d32cf	-0.27577826
166	0x3ea16682	0.3152352
167	0x3d92f2d5	0.07175223
168	0x3e155c32	0.14585951
169	0xbe5e313b	-0.21698467
170	0x3ddc04ea	0.10743125
171	0x3d4ae4c9	0.049534593
172	0xba712408	-0.00091987895
173	0x3f1d1592	0.6136104
174	0x3ed6d0e4	0.41956246
175	0xbe05cc97	-0.13066326
176	0x3e480e48	0.19536698
177	0x3d3c2b7c	0.045939907
178	0xbe955aa0	-0.29170704
179	0x3e44d5be	0.19222161
180	0xbe95c758	-0.2925365
181	0xbc183e04	-0.009292129
182	0xbd11e67e	-0.035620205
183	0x3e839009	0.25695828
184	0xbe7de07b	-0.24792664
185	0xbd82df1a	-0.063902095
186	0x3da78fe9	0.081817456
187	0xbdd77e5a	-0.105221465
188	0x3f31fd0b	0.6952674
189	0xbe38787b	-0.1801471
190	0xbeaaff25	-0.33397785
191	0x3e3df2de	0.18549678
192	0xbd3797a7	-0.04482236
193	0x3e6bee6d	0.23040171
194	0x3d0f4260	0.03497541
195	0x3e11c4d2	0.14235237
196	0xbed377f0	-0.41302443
197	0x3d3122ce	0.043246083
198	0xbdb35d1f	-0.08757996
199	0xbcab84be	-0.02093732
200	0x3f0a8963	0.54115885
201	0xbed0c9ee	-0.4077906
202	0x3e4f6b96	0.20255885
203	0xbe966fcc	-0.2938217
204	0xbd6c74e9	-0.05772868
205	0x3f12b0e6	0.57301176
206	0x3f945a96	1.1590145
207	0x3e447ccd	0.19188233
208	0xbe652f89	-0.22381414
209	0x3e77fc75	0.24217398
210	0x3e39d130	0.18146205
211	0xbd3a6c44	-0.045513406
212	0x3d378cc9	0.044811998
213	0xbde9ec39	-0.11422009
214	0x3f2741bb	0.6533467
215	0xbe2364fd	-0.15956493
216	0x3df76c61	0.120812185
217	0xbe8b3f81	-0.27196887
218	0x3e13cf22	0.14434484
219	0x3e346fff	0.17620848
220	0x3eb3eb9d	0.35140696
221	0x3ddf467b	0.10902115
222	0x3f2c2d42	0.6725656
223	0xbe9a3846	-0.30121058
224	0xbe6a45bb	-0.22878163
225	0x3ea34fb6	0.31896752
226	0xbd70c482	-0.058781154
227	0xbf3df31d	-0.74199086
228	0x3ea13220	0.31483555
229	0x3ef83fbb	0.48486122
230	0x3d3540a9	0.044251118
231	0x3ed6f26a	0.41981822
232	0x3e5030a7	0.2033106
233	0xbf1722f6	-0.5903772
234	0xbe3b3bd9	-0.18284549
235	0xbed25834	-0.4108292
236	0xbdfd5742	-0.12370159
237	0xbe98cd9c	-0.29844368
238	0x3d70697f	0.05869436
239	0xbdee5ba6	-0.11638574
240	0xbd23afbe	-0.039962523
241	0xbf90a1a8	-1.1299334
242	0x3e700209	0.23438276
243	0xbda17fd9	-0.07885713
244	0xbdd33620	-0.10313058
245	0x3f10f06b	0.5661685
246	0xbcf4721a	-0.029839564
247	0x3e16241d	0.14662214
248	0xbe636456	-0.22206244
249	0xbf28e658	-0.65976477
250	0xbde698ea	-0.11259635
251	0xbf33d7bb	-0.70251054
252	0x3e09ee3a	0.13469782
253	0x3d9a53aa	0.07535489
254	0xbeb52df5	-0.35386625
255	0x3ded8f9f	0.11599659

proj.bias f4 [64]
0	0xbd59a83e	-0.053138964
1	0xbdd96181	-0.106143005
2	0xbe155b25	-0.1458555
3	0xbd6446c9	-0.05573157
4	0x3e0d9cbb	0.13829319
5	0xbd048fde	-0.032363765
6	0x3ac7aa75	0.0015233295
7	0x3dff31f7	0.12460702
8	0xbd6b4e81	-0.057447914
9	0xbd953c83	-0.07286932
10	0x3ce9dc95	0.028547565
11	0x3e09d19e	0.13458869
12	0x3ce1896f	0.027531354
13	0xbb35df37	-0.0027751455
14	0xbd72a2d6	-0.059237324
15	0xbea3966f	-0.3195071
16	0x3e1078cc	0.1410858
17	0x3c61e374	0.013787139
18	0xbc80abd1	-0.015706928
19	0xbdaefed1	-0.08544696
20	0x3e1fbff1	0.15600564
21	0x3c6aaeb4	0.014323879
22	0x3d024b27	0.031809952
23	0xbdb31db9	-0.087459035
24	0x3dd56795	0.10420147
25	0xbbecb6f2	-0.007223957
26	0x3cd5f961	0.02611989
27	0xbe3e3499	-0.18574752
28	0x3e4c381f	0.19943283
29	0x3d0eeed6	0.03489574
30	0xbe39fe23	-0.18163352
31	0xbdde4a02	-0.108539596
32	0x3e72e547	0.23720275
33	0x3cc39d8c	0.023878835
34	0x3ec1fedb	0.37889752
35	0xbe362149	-0.17786135
36	0x3e14c8f2	0.1452978
37	0x3ed7742f	0.4208083
38	0x3b5bcb57	0.0033537948
39	0xbdcd9ddb	-0.10039874
40	0xbb2a0852	-0.00259449
41	0x3e0f544a	0.13996997
42	0xbd702e7f	-0.058638092
43	0xbd84ef49	-0.064909525
44	0xbe19b72b	-0.1501128
45	0x3e0cbd43	0.13744073
46	0x3a2bc07e	0.0006551816
47	0xbd4d07c3	-0.05005623
48	0x3dcd6559	0.10029096
49	0x3cb3ea1b	0.021962216
50	0xbd83926b	-0.064244114
51	0x3deeab0f	0.116537206
52	0xbe17eae1	-0.14835693
53	0x3e6ea662	0.23305658
54	0x3d35bf68	0.044371992
55	0x3d6c276d	0.057654787
56	0x3e2dec27	0.16984616
57	0xbeae7a39	-0.34077623
58	0xbd81d9db	-0.06340381
59	0x3dbeb8c4	0.09312585
60	0x3de67ead	0.1125463
61	0xbe0a57ee	-0.13510105
62	0xbe170ac5	-0.14750202
63	0xbdb7616b	-0.08954128

encoder.layers.0.self_attn.in_proj_weight f4 [192, 64]
0	0x3e706288	0.23475087
1	0xbecfbc72	-0.4057346
2	0x3ec14be6	0.37753218
3	0xbe843a51	-0.25825742
4	0x3e770fff	0.24127196
5	0xbe413090	-0.18866181
6	0x3dc891b4	0.09793416
7	0x3f4be2b4	0.79642797
8	0x3e490d14	0.19633895
9	0xbf2e698a	-0.6812979
10	0xbd371eea	-0.044707216
11	0x3df0bc2a	0.117546394
12	0xbec67993	-0.3876463
13	0x3e17c119	0.14819755
14	0xbe1ce700	-0.15322495
15	0xbeddf894	-0.43353713
16	0x3db78baf	0.089621894
17	0x3e3931ab	0.18085353
18	0xbe33d37d	-0.17561145
19	0x3ecacf9e	0.39611524
20	0xbdb31b5a	-0.08745451
21	0x3eb200a3	0.3476611
22	0x3ed7ce8f	0.4214978
23	0x3ef7bfaa	0.48388416
24	0xbc12467e	-0.008927939
25	0xbe0ee081	-0.13952829
26	0xbe04aeae	-0.1295726
27	0x3e93fb61	0.28902724
28	0x3e860677	0.26176807
29	0x3eceb744	0.40374196
30	0x3e28dc9c	0.16490406
31	0x3e1505c6	0.14552984
32	0x3e21be28	0.15795195
33	0x3d9318c9	0.07182462
34	0xbe9c9a19	-0.30586317
35	0x3f2c7035	0.67358714
36	0x3e04e262	0.12976983
37	0xbda2318b	-0.07919606
38	0xbf4191c0	-0.7561302
39	0xbccbc178	-0.024872527
40	0xbec9c0c1	-0.39404872
41	0xbe48290f	-0.19546913
42	0xbf0480bd	-0.5175894
43	0xbf060b58	-0.5236106
44	0xbba9f64c	-0.0051868316
45	0xbc473751	-0.012159185
46	0x3e1950c6	0.14972219
47	0xbe2ce989	-0.16885962
48	0xbf2e2d7b	-0.6803815
49	0xbd24e8dd	-0.04026114
50	0xbd8dc7d3	-0.06922879
51	0x3e179cb9	0.14805879
52	0x3ea8d00b	0.32971224
53	0xbef39e2a	-0.47581607
54	0x3eb5e6ee	0.35527748
55	0x3f35465c	0.70810485
56	0xbf4d9048	-0.8029828
57	0x3e8038a3	0.2504321
58	0x3dca9d7f	0.09893321
59	0x3c246973	0.010034907
60	0x3e1582bb	0.14600651
61	0xbe4e9fed	-0.20178194
62	0xbe97eb3d	-0.2967166
63	0x3d7b9555	0.06142171
64	0xbd93b1f2	-0.07211675
65	0x3e82d36a	0.2555192
66	0xbdb53f89	-0.08850009
67	0x3e9e49de	0.3091573
68	0x3ec36c90	0.38168764
69	0xbd9cf339	-0.076635785
70	0xbe21e105	-0.15808494
71	0x3e8bb2e0	0.27284908
72	0x3e505d8d	0.20348187
73	0x3bfe02c9	0.007751797
74	0xbecf5cb7	-0.40500423
75	0xbe3c8fb2	-0.1841419
76	0x3e67926d	0.22614451
77	0xbe80327f	-0.25038525
78	0x3e3fbd8c	0.1872465
79	0xbe6eccbe	-0.2332029
80	0xbe2a10c6	-0.16607961
81	0xbdacd135	-0.084383406
82	0xbdfff909	-0.124986716
83	0x3e01043c	0.12599272
84	0xbe36bb03	-0.17844777
85	0xbeb16eeb	-0.34654936
86	0xbd267bba	-0.04064534
87	0xbdf6507f	-0.12027072
88	0xbee53cc8	-0.44772935
89	0x3e83fbf4	0.25778162
90	0x3dd1ea88	0.102498114
91	0xbe8bd2ef	-0.27309367
92	0xbdb677b1	-0.08909548
93	0xbbc6112a	-0.0060445266
94	0x3ec23ad1	0.37935498
95	0x3ed5b75d	0.41741458
96	0x3e540f98	0.20709074
97	0x3d32bf4d	0.04363947
98	0x3edcf218	0.43153453
99	0x3d7f044a	0.06225995
100	0x3eb9fbfb	0.36325058
101	0xbf1335d5	-0.57504016
102	0xbdc6fd07	-0.0971623
103	0x3e856aae	0.26057953
104	0xbcde555a	-0.027140308
105	0x3e14b538	0.14522254
106	0x3b08cf12	0.0020875377
107	0xbdb67d2c	-0.089105934
108	0x3e730172	0.2373102
109	0xbe7115cc	-0.23543471
110	0x3d1e25b5	0.03861018
111	0xbd17e26c	-0.037081167
112	0xbe8abd57	-0.2709758
113	0xbe91d656	-0.28483838
114	0xbe9e7fe0	-0.30956936
115	0x3dac7697	0.08421057
116	0x3d5397f4	0.051658586
117	0xbe051433	-0.12995987
118	0x3db7ab0e	0.08968173
119	0xbf04723b	-0.517368
120	0x3e88e642	0.26738173
121	0xbde411e6	-0.11136226
122	0x3edf0f2d	0.43566266
123	0x3ea9d3ac	0.33169305
124	0x3e72bf03	0.23705678
125	0xbec819d0	-0.39082193
126	0x3e8693dc	0.26284683
127	0xbdc15977	-0.09440892
128	0xbed31071	-0.4122348
129	0x3c8c398b	0.017117282
130	0xbedf2075	-0.4357945
131	0x3e503734	0.20333558
132	0xbeb433e8	-0.3519585
133	0x3e0be4c9	0.13661493
134	0xbdf52722	-0.119703546
135	0x3e7119a7	0.23544942
136	0x3ec85ca0	0.39133167
137	0xbe2b4fa1	-0.16729595
138	0x3ebe5574	0.3717457
139	0xbe2efc7b	-0.17088501
140	0xbe557602	-0.20845798
141	0xbd1d841e	-0.038456075
142	0x3e437285	0.19086654
143	0x3c4ffe65	0.01269493
144	0x3f14ad60	0.5807705
145	0x3da36404	0.07978061
146	0xbe8fcc1d	-0.28085414
147	0x3e699510	0.22810769
148	0xbea482a4	-0.3213092
149	0x3b935749	0.004496489
150	0xbf0623a7	-0.5239815
151	0xbecf49a1	-0.40485862
152	0xbdcee190	-0.101016164
153	0x3da84447	0.08216148
154	0x3cc76d2f	0.024344055
155	0x3ed53edc	0.4164952
156	0x3e350e47	0.17681228
157	0x3e16e47e	0.147356
158	0xbdd1cfac	-0.102446884
159	0x3e399bfd	0.18125911
160	0x3e67b640	0.22628117
161	0x3e23ae40	0.1598444
162	0xbe8a2dda	-0.26988107
163	0xbf1cdc07	-0.61273235
164	0xbf083657	-0.53207916
165	0xbe9113d6	-0.28335446
166	0xbe6041ea	-0.21900144
167	0x3ce885a5	0.02838404
168	0xbda6fd60	-0.08153796
169	0x3d231176	0.039811574
170	0xbbcb0c93	-0.0061965673
171	0xbac90074	-0.0015335218
172	0xbd86dc34	-0.06584969
173	0x3ef3575f	0.47527596
174	0x3db4c069	0.08825762
175	0x3e7532ce	0.23945162
176	0x3d1a0afe	0.03760814
177	0xbd9c140b	-0.076210104
178	0xbe3ef847	-0.18649398
179	0x3d624863	0.055244815
180	0xbe658ede	-0.22417781
181	0xbf1c5980	-0.61074066
182	0x3eefee9b	0.4686173
183	0xbc9cf7a4	-0.019161053
184	0x3d29169e	0.041281335
185	0x3ea7c12c	0.32764566
186	0xbe3187c8	-0.17336953
187	0x3e947ad4	0.2899996
188	0xbd8b0eae	-0.06789909
189	0x3decd80f	0.115646474
190	0x3f233928	0.6375909
191	0xbe495986	-0.19663057
192	0xbefc5840	-0.4928608
193	0xbf25c805	-0.6475833
194	0x3ef062c2	0.46950346
195	0xbe00e7d3	-0.12588434
196	0x3e87a7e8	0.2649529
197	0x3eccc1a5	0.3999149
198	0xbd94d3fe	-0.07266997
199	0x3d8c2422	0.06842829
200	0xbdf4658e	-0.119334325
201	0x3eac31eb	0.33631834
202	0xbe6ade61	-0.22936393
203	0x3cf8a9f1	0.030354472
204	0x3d46ff81	0.04858351
205	0xbe8ded56	-0.27720135
206	0x3e8f1ef1	0.27953294
207	0xbe87607f	-0.26440808
208	0xbe1e2c43	-0.15446572
209	0xbdb81a0d	-0.08989344
210	0xbc2104f4	-0.009827841
211	0xbe8e181f	-0.27752778
212	0x3e65be20	0.22435808
213	0x3c824cb6	0.01590572
214	0x3f1f1ee2	0.621565
215	0xbf22c1e9	-0.63577133
216	0x3e007893	0.12545995
217	0x3e95aadf	0.29231927
218	0xbdb8d37f	-0.09024715
219	0xbeec494e	-0.46149677
220	0xbd78e162	-0.060761817
221	0x3da1a164	0.07892111
222	0xbd2891ae	-0.041154556
223	0x3e485bd0	0.19566274
224	0xbf231e50	-0.6371813
225	0x3c1715dc	0.00922152
226	0xbeeb58e9	-0.4596627
227	0xbe9ef076	-0.31042832
228	0x3f26f445	0.65216476
229	0x3e851722	0.2599421
230	0xbea8de92	-0.32982308
231	0xba80236d	-0.0009776183
232	0x3dc66424	0.09687069
233	0xbeb0b750	-0.34514856
234	0x3de3a719	0.11115856
235	0xbf3d225c	-0.73880553
236	0xbedbb813	-0.42913875
237	0x3eb2aede	0.34899038
238	0x3ef20564	0.47269738
239	0x3cab87bf	0.020938752
240	0xbedb4f31	-0.42833856
241	0x3d82254a	0.063547686
242	0x3d902245	0.070377864
243	0xbcd2dcd1	-0.02574006
244	0xbeac8ea7	-0.33702585
245	0xbe95f8c4	-0.29291356
246	0x3ed28d5d	0.41123477
247	0x3e68b1b4	0.22724038
248	0x3d196f6a	0.03745977
249	0x3ea60576	0.3242604
250	0x3e36df85	0.17858703
251	0x3ef5af00	0.47985077
252	0x3ad82390	0.0016490091
253	0x3e0058bd	0.12533851
254	0xbd6bd25f	-0.057573672
255	0x3f09ccf3	0.5382835
