models/rym_grid_c0_s64_e2_t4_r4/conv_transformer_c0_ce_a0p5_l0_lr1e-04.pt (torch, 750481 bytes, 40 tensors)

pos_embed f4 [1, 64, 64]
00000000: 8ea7 a73d 6807 02be f4b8 5f3c 01cb 633d
00000010: 2b27 ccbd eb3e a63d bc25 a7bb 0cd3 f3bd
00000020: 5843 f8bc 9668 bcbc 37c3 153d 9c5d f13d
00000030: b096 393e 7111 863b 701f 17be 6d6f e4bc
00000040: 3503 82be 9700 433d ee44 a93d 1bb7 f9bd
00000050: 974f cc3d 117e 84bd 7c7c d93d 68ee 05bd
00000060: 5a59 3b3e efad 0dbe d87d e4bd 27d2 d0bc
00000070: 3cac c8bd 0c97 c03b 8755 593d 7abe 7b3e
00000080: 2db7 383e f73e 27ba cec9 ee3d 46ac 233d
00000090: 26bc b8bd 4995 ddbd 8d27 573c 093c 9c3d
000000a0: a9db 26be 044e 483b 5ea5 a73d 60d3 4b3e
000000b0: 2eee 313c 10a3 2fbd caea 083d e788 41bc
000000c0: 54a3 dbbc f505 4e3e 983c e1bb b0d3 5e3d
000000d0: 47d5 9cbd 6c12 9b3c fc65 5f3b 270f 1dbe
000000e0: 24b7 713d 4034 56be cb8c 553e 1663 853c
000000f0: fb7c 353d d5b4 753d 085a b43d cd0a fcbc
00000100: b86e 9dbd 4c27 1d3e f543 f73d b44c 1c3d
00000110: d98e a43d 78f7 123e 5dfe 503c f248 c83d
00000120: d2da 72bd acf6 18bd e876 6cbe c5ae 303e
00000130: 6356 61bd 258e 94bd ff05 433e d52b 053e
00000140: 20b2 ad3d 6317 1abc 8c66 1f3e 59cd 323e
00000150: 6b22 a73c e63c 0abe 3a3c 00be d9fd 9abd
00000160: 52f1 77be 695f 8ebd cb60 963c 4e09 7f3e
00000170: d551 f33d 7654 4a3d d71e eebd 69ae 3cbd
00000180: d029 d1bd d9b4 3f3c 6e5f 93bd aee1 35be
00000190: a4dd 593d 5950 043e a9ef 39bc 4d1d bd39
000001a0: 9973 103e 17d1 a03d a1e4 c33d 1cb2 ea3d
000001b0: 291b 31bd 31a7 d9bd 0d99 4ebe c278 1dbb
000001c0: 7194 72be d6cd 27be 6de0 77bc 5334 023d
000001d0: ce92 d93c b3c6 6abd 4466 dbbd 6a98 493d
000001e0: 16e6 de3c f240 d93d 0474 2bbe 102d b5bd
000001f0: 29a7 fb3d 5aaf f9bd 61f1 8c3c 3301 483d
00000200: 355c 3ebe afa1 c83d 832e 1f3e 3723 dd3d
00000210: 38f3 d4bd f7de b7bc 6b41 f13d 9b7a 47bd
00000220: 936f 35be 2459 903c d602 89bd 2299 bd3d
00000230: 5724 a8bd a758 d6bd 5e93 ef3d 9a07 3f3d
00000240: fbc6 273c abbc d53d 996f f03c 989f f33d
00000250: 537a 8d3d c80a 90be d17b ec3c eb0d 2bbc
00000260: 8959 55be 1746 36be 944a 27bd 84c8 fdbc
00000270: 7247 423e 0bb9 bdbd c021 e0bd c189 93bd
00000280: d633 1f3d c884 38bd 3d14 663b 370d e53c
00000290: 356b 6ebe 1c45 0b3e f772 423e a6d4 8abb
000002a0: 5de8 4e3e 0672 8c3c f58a 353e 4c64 d93d
000002b0: a24e 2c3e 9e7d a6bd e5be 58bd f581 d53d
000002c0: 2157 dbbd 735e dcbc 127b f5bb 1b35 b9bc
000002d0: 54f0 e33d 0da8 d8bd 3a9f f4bc 1c00 36be
000002e0: 6c83 0fbd 7b85 fc3d b973 dc3d f5e4 6ebe
000002f0: 87df a73d 5049 86bc be96 243d 14fe acbd
00000300: 5d2d cd3d 24f7 70bc 9dc9 4b3e 81ef db3d
00000310: 6696 fdbc e5d0 153c ce8e d1bd 43ab cfbc
00000320: b5e0 4abe fc88 b23b f12c 093d 90a7 44bd
00000330: f87c 6dbe 9a08 8fbc d412 bf3c bf0f 1a3e
00000340: ee44 873d 8fd7 463b 3ab0 233e 9a64 54be
00000350: c9f0 a9bd 80cb 8c3d 8ed0 bfbd bb17 633c
00000360: 3838 e73c 7552 213e 0f2b bc3d 2710 33be
00000370: d8a2 0c3d fb1f 10be 83df a7bd 1608 cabd
00000380: c66b 5e3d 70dd 15bd 1db3 ae3d 7ed5 863d
00000390: 4bfe e83b acc1 db3c ad06 e2bc 4d1a 813e
000003a0: 6667 bbbd a3a2 f9bd 1e7f 653d eaa9 9e3d
000003b0: 0e5b fe3d b41f 763e 649d a53d 77d5 c33d
000003c0: 3d2f 52be 07e4 483e 010d 16be 3b29 3d3e
000003d0: f8f8 313c 0dfe 8bbe aa04 ba3d 16f3 263e
000003e0: f12f 9abd 0624 813d 5027 b23d f59a 40bd
000003f0: 9fe9 12bd 3dc0 6c3d 0238 f3bd 28b4 02be
0.081862554 -0.12698138 0.013654936 0.05561352 -0.09968408 0.081174694 -0.005100934 -0.11905488
-0.03030555 -0.02299909 0.036563125 0.11785433 0.18123889 0.0040914346 -0.14758086 -0.027885163
-0.25393072 0.047607984 0.082651004 -0.12193128 0.09976118 -0.06469358 0.10619447 -0.032698065
0.18295804 -0.13835882 -0.11156815 -0.025490833 -0.09798476 0.005877381 0.05306008 0.2458438
0.18038626 -0.0006379927 0.11659585 0.039959215 -0.090202615 -0.108194895 0.013131988 0.07628638
-0.16294731 0.003056408 0.08185838 0.19904852 0.010860009 -0.042880118 0.033427037 -0.011812425
-0.02681128 0.2011946 -0.0068736784 0.0544011 -0.07657867 0.018929683 0.0034087887 -0.15337811
0.059012547 -0.2091837 0.2085449 0.0162826 0.044308644 0.059986908 0.088062346 -0.030766869
-0.076871336 0.15347022 0.12073509 0.038159087 0.080350585 0.14352214 0.012755957 0.09779538
-0.059290715 -0.03734462 -0.23092234 0.1725417 -0.055014025 -0.072536744 0.19045256 0.13005002
0.0848124 -0.00940499 0.15566462 0.17461146 0.020402154 -0.13499793 -0.12522975 -0.07567949
-0.2421315 -0.06951792 0.018356701 0.24905893 0.118808426 0.049396954 -0.11626976 -0.046064768
-0.10213053 0.011700832 -0.07195936 -0.17761871 0.05318989 0.12921275 -0.011348643 0.0003607072
0.14106597 0.07852381 0.09565092 0.11459753 -0.043238793 -0.10627592 -0.20175572 -0.0024028276
-0.23689438 -0.16387114 -0.015129191 0.03178818 0.02655926 -0.0573184 -0.10712865 0.04921762
0.027209323 0.106080905 -0.16743475 -0.088464856 0.12287743 -0.12191649 0.017204942 0.04882927
-0.18589862 0.09796464 0.15545087 0.10797732 -0.10397953 -0.022445185 0.117800556 -0.04870091
-0.17718343 0.01762063 -0.06689994 0.092577234 -0.08210056 -0.10466128 0.1169803 0.04663811
0.010240312 0.10436376 0.029350089 0.118956745 0.06908097 -0.28133225 0.028867634 -0.01044033
-0.20834936 -0.17800175 -0.040842608 -0.030979402 0.18972567 -0.0926381 -0.10943937 -0.07204009
0.038867794 -0.045048505 0.0035107278 0.027960403 -0.23283084 0.13600582 0.18989168 -0.0042367755
0.20205827 0.017144214 0.17728789 0.10614833 0.16826871 -0.08129428 -0.052916426 0.10425178
-0.10709978 -0.026900506 -0.0074914778 -0.02260833 0.11129823 -0.10578928 -0.029861081 -0.17773479
-0.035037443 0.12330147 0.1076426 -0.23329528 0.08196931 -0.01639238 0.04018282 -0.08446899
0.10018418 -0.01470736 0.19901128 0.10739041 -0.030955505 0.009144043 -0.10232316 -0.025350219
-0.19812281 0.0054484587 0.033490125 -0.048011363 -0.23192203 -0.017460156 0.023324408 0.15045069
0.06604944 0.0030340885 0.15985194 -0.20741501 -0.08297879 0.06874752 -0.093659505 0.013860638
0.02822505 0.15754111 0.091879 -0.1748663 0.034334987 -0.140747 -0.08196928 -0.098648235
0.054302 -0.036588132 0.08530257 0.06583689 0.007110392 0.026825748 -0.027591074 0.25215378
-0.09150581 -0.121892236 0.05602943 0.07747252 0.12419711 0.24035531 0.080866605 0.095621996
-0.20525832 0.19618236 -0.14653398 0.1847276 0.010862581 -0.27342263 0.09082921 0.16303667
-0.07528675 0.06305699 0.086989045 -0.04702278 -0.03586733 0.05780052 -0.11875917 -0.12764037

conv_stem.0.weight f4 [64, 64, 3, 3]
00000000: 005a 35bd f754 11bf d2aa 453d ab8f ca3d
00000010: ba6f 45be 49ab 38bd ee2b 4dbe 65da 12bb
00000020: 8eee 053e 0f5e c13d ac0b 48be dde4 e6bd
00000030: 255b ef3d 69db d2bd 7ed1 0bbe 45c2 913e
00000040: 6834 293e 3830 403b 3a66 e83c cb4c 86be
00000050: 87aa 51be e432 62be c5a4 40be a80a 933c
00000060: f571 3a3e b5d4 c2bc 47ac 4b3d 4161 1bbd
00000070: 994f b43d 4f1b 78bd 53ec fcbd 7ca4 e8bd
00000080: c8f5 06be 2224 473d 8459 5a3e 72d8 3f3d
00000090: 8259 dcbd 9a0b 6cbb 8619 933d e6bb bcbd
000000a0: 2efb babd 7770 a7bd 6404 543e 92c9 143e
000000b0: 21fb 1c3e e5db 03be 440b e53d 8615 473c
000000c0: 62ef 00bc 086d 2b3d e712 16be e6d9 e03d
000000d0: 5dfa e8bd 8ccb 303e 6a72 ab3d 928c 073e
000000e0: 3330 423e 2e38 83bd c959 9abe 9f11 c5bd
000000f0: 7454 4d3e 4063 33be 94d0 7ebe a12f d8bd
00000100: d050 38be cc24 ae3d 2d52 d2bc 6f22 9abd
00000110: 331b 043e 9e20 893e 3316 02be 1769 4a3e
00000120: f427 1d3d 2cfe a2be b0bd 54be 168f a1be
00000130: bec0 34be f1d4 16bc 39ab 8a3e d28d ad3d
00000140: 5102 10bd edfa b5bd e3cd 71be 5209 5d3d
00000150: 95af 75bb 55f3 58be e945 083e 6623 94bc
00000160: 870d b1bd 8557 133e 414e 8e3c c6da 4abd
00000170: 2061 20bd 7514 1a3e 3572 183d b40a d53d
00000180: fadb 993e 69a0 7a3b 3e22 aa3e 1be2 19be
00000190: 94a7 22be a3eb 93bd fbba 9fbd 3304 e73c
000001a0: 8b8f b3bc 395d 693d 3e2c 183d 7bdb 9f3d
000001b0: 5b67 bcbd e71d 1c3e f410 52be 3c4d bd3b
000001c0: 437d 073e 0413 babd f181 0dbd 91a7 9e3d
000001d0: e399 3dbe 16a3 fbbc 4e9d 77bd 915d 53bc
000001e0: ec32 ffbc 28c9 2dbd 39c6 a1bb 3271 d63c
000001f0: 408c a7bc cab6 e8bd dd72 c3bc 030f b73d
00000200: 4056 56be c7ab 55bc 1fd8 2dbc 1844 86bd
00000210: f793 d03d f6ea 373d 7eab 65be 088f aabd
00000220: 863f 39bd 2ccf c7bc 93a3 77bd b32a 3bbd
00000230: 7a9f 16bd ed7e 7fbd d172 3bbc f3d6 48bc
00000240: e891 7bbd c08d f2ba e7f2 f73b 636b 1b3d
00000250: bd08 febc dd4b a8bb e020 f6bc 3fce 6fbc
00000260: 7fa2 f1bb 8d14 713d ea22 823d 2ee0 563d
00000270: 49de 033d 26af ce3c d505 22be 1a1e 35bd
00000280: 5cd7 afbc bebc 45bd c4c7 e13c 5cfe 11be
00000290: 9724 afbd 1dc1 273d edb5 103e c36c b23a
000002a0: fa5d 193e 4126 d83d ed79 813c a3a5 843d
000002b0: 8457 723d 6e5b 00bd 449c 8d3c a0b0 35bc
000002c0: 2657 563a 57ab 8a3c d9cf b33c d24d 973d
000002d0: 4f4f 4c3b 7dbb 00bc de14 4dbc d739 d63d
000002e0: 66b2 203b 4637 1c3d fec6 54bc 334e 393c
000002f0: 1438 a73a 6135 e23c c127 b63c 4070 013d
00000300: 6c54 753d d4e1 79bc 95f1 023d 7ca1 743c
00000310: e104 223c 7ead c03c 1dcf 7ebc f65d a83b
00000320: 5770 c23c d839 c53b 306a 103d 992b b8bc
00000330: 74f9 493c b72e 5ebc 63f3 423d 1eed 44bc
00000340: 8b51 07bc ab69 9dbc 2392 21bc b7d6 29bc
00000350: a44d 473d e529 7ebd c95f 8cbc b29a 263b
00000360: 2361 3abd 9941 1a3e 64f1 7ebe 365f a9bc
00000370: dec2 fc3d f589 4ebd 4aa2 20bd 9da4 803c
00000380: 4993 17be 8dd9 05bd d8cc 893c d217 613c
00000390: 7a8b 15bd 31bd 2cbd 8750 54bd 17e0 1d3d
000003a0: 5b6b 4ebc e30f 26be 0d02 013e 71fd babc
000003b0: 6324 ae3d bafd da3d 36d3 49bd 499e 123e
000003c0: b50c 8fba 699b d63d 8d62 ff3d fd06 033e
000003d0: 639d 0a3d 4341 f63d 58f2 883c 7b17 aabc
000003e0: 191e 753c 0fcb 823d 8fb9 433e 3fef 99bb
000003f0: 7abc 303d f1cd ab3d 45d2 663d 4f8b c1bb
-0.044275284 -0.5677027 0.04825861 0.09890684 -0.19280902 -0.045085225 -0.20036289 -0.0022408005
0.13079283 0.094417684 -0.19535702 -0.11274121 0.11687306 -0.102957554 -0.13654134 0.28468528
0.16523898 0.0029325616 0.028369058 -0.26230463 -0.20475207 -0.22089726 -0.18812855 0.017949417
0.18207534 -0.023783067 0.049724843 -0.037934545 0.088042445 -0.06057292 -0.12349763 -0.11359498
-0.13179696 0.048618443 0.2132321 0.046837278 -0.1075926 -0.0036017657 0.071826026 -0.09215526
-0.0912994 -0.08175748 0.207048 0.14530018 0.15330173 -0.12876852 0.11183789 0.012151128
-0.007869573 0.041852027 -0.14655648 0.10979061 -0.11375878 0.17265147 0.08371432 0.13237217
0.18963699 -0.064072 -0.30146626 -0.096225016 0.20051748 -0.1751833 -0.24884254 -0.105559595
-0.17999578 0.08503112 -0.02567395 -0.07526099 0.12901 0.26782697 -0.12703781 0.19766651
0.03836818 -0.31834543 -0.20775485 -0.31554478 -0.1765165 -0.009206043 0.27083758 0.08474316
-0.03515846 -0.08885751 -0.23613696 0.053963967 -0.0037488688 -0.21186574 0.13307919 -0.018083286
-0.08645158 0.14388855 0.017371299 -0.049525045 -0.039155126 0.15046866 0.03721829 0.10402432
0.3005064 0.0038242585 0.3322925 -0.15027659 -0.15884238 -0.072226785 -0.077993356 0.028200245
-0.021919033 0.05697367 0.037151568 0.078055345 -0.09199401 0.15245782 -0.2051428 0.0057770293
0.13231377 -0.09085658 -0.03454775 0.077468045 -0.18515734 -0.030717414 -0.06045275 -0.012900726
-0.031152211 -0.042428166 -0.00493696 0.026177023 -0.020452619 -0.11362989 -0.023858482 0.0893841
-0.2093134 -0.013041443 -0.010610609 -0.065559566 0.10184472 0.04490181 -0.224287 -0.08328062
-0.045226596 -0.02439078 -0.06045873 -0.045695018 -0.036773182 -0.062376905 -0.011440949 -0.012258279
-0.061418444 -0.001850538 0.007566798 0.03794421 -0.031010026 -0.0051359967 -0.030044973 -0.014636575
-0.0073741074 0.05885749 0.063543156 0.05245989 0.03219441 0.025230002 -0.15822537 -0.04421816
-0.021464996 -0.0482757 0.027561076 -0.14257187 -0.08551901 0.04095565 0.14131899 0.0013612736
0.14977255 0.10554171 0.015805209 0.06476905 0.059165493 -0.031337194 0.017286427 -0.011089474
0.0008176438 0.016927404 0.021949695 0.0738789 0.0031175201 -0.007857201 -0.012517182 0.10460251
0.0024520396 0.03813865 -0.012986897 0.011310148 0.0012757801 0.027613344 0.022235753 0.03160119
0.059894964 -0.0152515955 0.03196867 0.014931079 0.009888859 0.023520228 -0.015552309 0.005138154
0.023735208 0.0060188584 0.03525752 -0.022481726 0.012327541 -0.013560942 0.047595393 -0.012019424
-0.008259187 -0.019215425 -0.009861502 -0.010366133 0.04865803 -0.062051672 -0.017135518 0.0025421795
-0.045502793 0.15064086 -0.2489677 -0.020675283 0.123418555 -0.050424535 -0.03921727 0.015703494
-0.14802279 -0.032678176 0.01682131 0.013738589 -0.03650997 -0.042172614 -0.05183461 0.038543787
-0.012598838 -0.16216998 0.12598439 -0.022825928 0.08503034 0.10692926 -0.049273692 0.14318193
-0.0010913821 0.10478861 0.12469969 0.12795635 0.033841502 0.120241664 0.016717121 -0.02076315
0.014960789 0.063863866 0.19113754 -0.00469771 0.043148495 0.083888896 0.056352872 -0.0059064995

conv_stem.1.weight f4 [64]
00000000: 2755 823f 8ba0 8c3f 40c2 7b3f 9f63 853f
00000010: e2bb 863f ec33 883f bc15 943f 02cf 773f
00000020: 0a9c 8a3f 9ca9 7b3f 54ed 733f e5bc 703f
00000030: 863c 883f c646 6f3f ddc7 7f3f b8c3 7d3f
00000040: febb 7a3f 6228 583f 4494 823f 32b0 833f
00000050: 3e1c 723f 9bd7 873f e814 823f 5ac2 673f
00000060: d011 7c3f 9d18 7e3f ad7f 863f f486 7d3f
00000070: 96cc 653f ca00 753f 015f 893f fc33 723f
00000080: 7474 693f 063c 8c3f aa9d 863f 226e 853f
00000090: 6402 623f b6fd 853f b031 843f 3c7c 843f
000000a0: b522 843f ed10 813f 8411 853f e63d 913f
000000b0: 2d83 543f d4f9 833f f16f 8c3f 0323 703f
000000c0: a53f 6b3f 3e7c 5b3f 8519 6b3f 90b8 703f
000000d0: a11a 863f 649d 863f 9408 903f bb26 7c3f
000000e0: b54e 883f 6360 803f 9675 5c3f ef6b 7e3f
000000f0: e71f 7c3f 70ac 873f a78d 893f 24c8 733f
1.0182236 1.0986494 0.98343277 1.0421027 1.0526087 1.0640845 1.1569133 0.96800244
1.0828869 0.9830568 0.9528401 0.9403823 1.064347 0.93467367 0.9991434 0.9912677
0.97943103 0.8443662 1.0201497 1.0288146 0.94574344 1.0612673 1.016263 0.9053093
0.9846468 0.99256307 1.0507714 0.9903405 0.897653 0.9570433 1.0732118 0.9461057
0.9119332 1.0955818 1.0516865 1.0424235 0.882849 1.0468051 1.0327663 1.0350413
1.0323092 1.008329 1.039597 1.1347015 0.8301266 1.0310616 1.0971662 0.93803424
0.9189399 0.85736454 0.91835815 0.9403162 1.0476876 1.0516782 1.1252618 0.984966
1.064902 1.0029415 0.8611692 0.99383444 0.9848618 1.0599499 1.0746354 0.95227265

conv_stem.1.bias f4 [64]
00000000: 6034 99bd 371a 9abd b1be aebc 4d6f 31be
00000010: 7268 37bd 44f8 1fbe 247b 2cbd e2be a7bd
00000020: 33ce 93bd 60ef 853d 6297 c3bc c767 b6bc
00000030: c168 14bc f258 38be 64dc 1fbe 2f4c 48be
00000040: 5a27 12bd acaa 00be b6f8 3cbe 1ca1 a1bd
00000050: bae1 d8bd d133 92bd d367 b5bc 095c 2bbe
00000060: c6bd 16be 454e babd 9904 64be 518c e23d
00000070: 7416 c3bd 576c 4abc c8bb 01be 5954 36bb
00000080: ce0e 9c3d 592c 90bd d5ef 16be 182c f13d
00000090: 512a 813b b0ff 8cbd cf67 963d 0531 47bd
000000a0: db28 93bd 4eda 7abd 5e15 b2be 3b9a 25be
000000b0: 8521 26bd 7600 36be 66d6 a6bd 0591 203d
000000c0: c5d1 a5be 60ad 8ebe 6ac5 08bc 69e9 04be
000000d0: fc4f 5fbe 0ba2 dbbd aa98 d3bd c0e0 9ebd
000000e0: b911 e3bc e4de 22bd 0c76 643d 2a4e a5bc
000000f0: 2999 af3c 9438 65bd 56d9 2a3d dc33 53bc
-0.07480693 -0.07524531 -0.021331163 -0.17327614 -0.04477734 -0.1562205 -0.042109624 -0.08190705
-0.07217064 0.06539798 -0.023875896 -0.022266282 -0.009058178 -0.1800268 -0.15611416 -0.19560312
-0.03568206 -0.12565106 -0.1845425 -0.07892057 -0.10589929 -0.071387894 -0.022144234 -0.16734327
-0.1472083 -0.0909696 -0.22267379 0.110619195 -0.09525767 -0.012354932 -0.12669289 -0.0027821271
0.07620011 -0.07039709 -0.14739926 0.11775988 0.003941812 -0.06884706 0.07344019 -0.048630733
-0.07185527 -0.061243348 -0.34781927 -0.16172116 -0.04055931 -0.17773613 -0.08146362 0.0392008
-0.32386604 -0.2786665 -0.008347848 -0.12979664 -0.21807855 -0.107242666 -0.10331853 -0.077577114
-0.027718412 -0.039763346 0.05577664 -0.020178873 0.021435337 -0.05596216 0.041711174 -0.012890782

conv_stem.1.running_mean f4 [64]
00000000: f4c2 d2be 5545 e7be ffb2 2abe 8427 dabd
00000010: 7eb0 8fbe de58 903d ff1e 36bf 954c bfbe
00000020: 58e2 cbbe 482b f6be e0cc 1abf 5f1c 823b
00000030: 08a8 b33e b11a 1cbf ce4f c43e 5a76 a0be
00000040: 6b03 e1be 54fc ad3e bcd0 15bf c983 853d
00000050: 3bbf f9be b189 7abe ada5 b4bd 4510 93bc
00000060: ee94 c9be d047 d5be 3c6b 57be bbee a13e
00000070: 0564 1f3f 8e1c bc3e 4500 adbe df8e 48bf
00000080: 596a 9abe 45f6 fbbe bac0 3fbe 1614 debe
00000090: 0cc2 0e3f 0c74 d9be 21e5 6ebf 65ae 7dbf
000000a0: 3456 60bf a44f 11be 8e4c be3d 3d0a 8fbf
000000b0: 36cc 743e d332 07bf 2f4f 03be c7c1 683d
000000c0: 642d 123f a847 033f 9ca6 d9be 94e0 afbe
000000d0: 247f bdbe 1400 8bbe f02e 043e f5f4 d63c
000000e0: 9bae babe a661 07be 2e71 cd3d 9b58 ea3e
000000f0: 0002 08bf 4218 2bbf 88d5 eebe e296 d63e
-0.41164362 -0.45170084 -0.16669844 -0.10652068 -0.2806434 0.070482 -0.71141046 -0.37363115
-0.39821124 -0.48079896 -0.60468864 0.0039706673 0.35089135 -0.6097823 0.38342136 -0.31340295
-0.4394792 0.33981574 -0.5852163 0.06519277 -0.4877871 -0.24466588 -0.08820663 -0.017952094
-0.39371437 -0.4165635 -0.21037 0.3162745 0.6226199 0.36740535 -0.33789268 -0.78343004
-0.30159262 -0.49211326 -0.18725863 -0.433747 0.5576484 -0.4247135 -0.9331837 -0.9909423
-0.87631536 -0.14190537 0.092919454 -1.1175 0.23906025 -0.52811927 -0.12823175 0.056825425
0.5710051 0.51281214 -0.42509925 -0.34351027 -0.37011063 -0.27148497 0.1290853 0.026239851
-0.36461338 -0.13220844 0.10031353 0.45770726 -0.5312805 -0.6683389 -0.46647286 0.4191199

conv_stem.1.running_var f4 [64]
00000000: 035e a33e 2eac 9e3e fb23 b23e 1661 843e
00000010: a49d 843e 9252 763e 91ea f63e 1a5b 683e
00000020: 71e4 383f 8686 0c3f ae37 613e c1ce ba3e
00000030: edb1 6b3e 386b b93e 1cef 873e 8fdd 853e
00000040: 8ade 883e d055 893e 6a44 e53e bdf5 6a3e
00000050: 64e9 c73e eb46 943e 170b b73e 565b b93e
00000060: 5d75 a33e f2fb 963e cc91 243f d592 873e
00000070: f835 c43e 2a24 a33e 4230 883e c000 b03e
00000080: e5ea b73e c0cd a83e 6972 b23e ed37 8f3e
00000090: 7042 b23e 6925 8f3e fe92 d03e 68c5 b63e
000000a0: ab37 ee3e 100c 643e b0a7 6d3e 60fd c93e
000000b0: 62d8 ac3e 632f c23e e8cd aa3e cb4b 273f
000000c0: 3c30 b93e 8153 883e 8703 ba3e 36d7 873e
000000d0: 1b38 ad3e 8715 a03e 57b7 013f db29 433e
000000e0: f735 d13e 9c72 8e3e f53c 9b3e f998 8c3e
000000f0: 7ddc bf3e 1fcf b43e f803 aa3e 24cc b83e
0.31907663 0.30990738 0.34793076 0.2585532 0.2590152 0.24054936 0.48225835 0.22691002
0.72223574 0.54892766 0.21993896 0.36485866 0.23017092 0.36214614 0.26549613 0.26145598
0.26732284 0.26823282 0.44778758 0.22945304 0.3904525 0.28960356 0.35750648 0.36202496
0.3192548 0.29489094 0.6428497 0.2647921 0.38322425 0.31863528 0.26599318 0.34375572
0.35921398 0.32969475 0.34852913 0.27972355 0.34816313 0.2795823 0.40737146 0.35697484
0.46526846 0.22270226 0.23208499 0.39451122 0.33758837 0.37926778 0.3336022 0.65350026
0.36169612 0.26626208 0.36330816 0.2653138 0.33831868 0.31266424 0.5067038 0.19058935
0.40861484 0.27821815 0.30319944 0.2746046 0.37472907 0.3531427 0.33206153 0.36093247

conv_stem.3.weight f4 [64, 64, 3, 3]
00000000: 7a8a ed3d f816 5c3d cee8 ac3d ab5a b33d
00000010: 6e33 2fbe 8125 913b a527 80bd d817 a8bd
00000020: 020c 24be c095 d63d d70f cdbd 8ef5 5ebc
00000030: b1da 28bc ff77 05bc 984b cf3c dcef 1ebd
00000040: 2e5e 12bd dbec fbbc afe1 ca3c 1c75 e1bc
00000050: c876 3f3b e795 afbd c5d8 2dbc fa17 383e
00000060: a6f9 e7bb 6324 ba3c fa15 5a3d 6c4f 3ebd
00000070: f960 853d 533b 74bd e6fa a4bc 849b 0a3d
00000080: 8c08 d4bd 9855 a1bc 345a 91bd 6a14 44bd
00000090: f487 253d 4537 343d e979 1e3d ed73 8f3d
000000a0: 3436 30bd 6073 6b3d 00a2 5dbc 3867 5bbd
000000b0: 7c4e 1abe f52e b3bd b629 8dbd 5aa2 e2bd
000000c0: 9ff8 b03d 0829 1abd 4bb4 e1bc 35a2 883b
000000d0: e10c d5bd 4586 d0bd 6441 e13c d042 543d
000000e0: 0c4a 933d 8a33 33bc 0708 f9bc a7b8 ebbc
000000f0: 17a0 a53d 4de9 b13d 9c7e 80bd 3f47 2fbc
00000100: bc86 1ebc df2c 4d3d d0c8 03bd 694b 8f3d
00000110: 5ae8 fd3d 0133 ba3d d968 07bc 06a6 98bd
00000120: 1b81 94bd 5dc4 08bd 58dd a13b 155c 2639
00000130: 3437 12bd 7b73 c7bd 166e e6bc 9334 4fbd
00000140: b380 313d 1e8d 713d b61f 2d3c 167b d9bd
00000150: 2df3 213e cc4c 35bd eb5e cf3c 95b8 973d
00000160: cc3e 993d 03c4 b43d 69ac f63c e4f2 c93c
00000170: 617f e53c 973c 00bc 61ba eabc 21eb 51bd
00000180: 42c3 d73c 8b58 8c3c 9798 17bd ee4c 383d
00000190: 8e67 983d a6d1 d7bd b10d b63c 54f4 7c3c
000001a0: 86ee 9abd b0f4 cc3d 65d1 47bc 6102 2bbd
000001b0: 0de2 cabb ec77 4f3d 0a30 34bb 6a0b b8bd
000001c0: 3455 0d3d 84bb 473d 04b3 9dbd 06e1 5539
000001d0: 0d8a eabd 8e38 513c d1cd 1b3c cdf2 1c3e
000001e0: 52b2 adbc 5ddb 80bd b7fa c63c 698e ddbd
000001f0: f8bb 3bbc f031 983d bd0b b1bd 8be8 94bd
00000200: 5676 1bbd 85e5 cfba 54a5 83bc b506 343d
00000210: 6c63 7a3c 681a df3c 7deb a1bc bfa1 963d
00000220: ece9 8dbd 9636 3f3e c3c4 a23d c59b 04bb
00000230: 0f89 88bb 846c bb3d 8c5b 0cbc 24b5 a83c
00000240: 0db0 d1bd 9162 eebd 482f 9a3c 6fc7 11be
00000250: 8f43 24be 9164 9e3d 645a aaba f93c e23d
00000260: f26c 2e3c 7a2c 373a 979f 153d 6fb4 01be
00000270: 8c34 b4bd 0bbd 93bd 4aa4 0c3d b0f3 fa3c
00000280: e50d 213e af71 93bc 12bc 39bd d53f 873d
00000290: d67f c13c b801 98bc dc0c 983c fa50 1f3d
000002a0: bb55 ce3d 8584 e53c 2002 f6bd e2b4 52bd
000002b0: 8249 68bd a405 233d 6fce 033e 997a 20bd
000002c0: 9cea a03c a775 ebbd c355 51bc 3568 afbd
000002d0: b59b c03c d4f2 1e3d f202 513b 4703 8d3c
000002e0: 6bad 843b 3df2 bcbd 754f 95bc 1e01 9abd
000002f0: a86d 243c 5ed8 d83d e6f3 4abd 6c5f 4a3b
00000300: dbdf 52bc 1470 3fbd 560b df3d 3422 a1bd
00000310: 8f74 babd b901 133d a274 993d ec37 24bd
00000320: f96c c03d 83d6 453d 0b6d 383d 457a 003e
00000330: c8fe 48bc a50b a13d e8b0 b23d 12f7 07bb
00000340: f14b 16bc e8c6 c3bd ea64 783c a0bb 633d
00000350: 0e85 c1bb dfdf 0abd 2079 0ebd af6f fe3b
00000360: cad5 053d f869 b2bc d8d0 47bd 6523 b7bc
00000370: c698 02be 8bb7 abbd 76c9 9f3c e32c 533b
00000380: 52b3 403d c16f 2ebd 6a1f 2c3c e3ac a2bc
00000390: b82d 4fbc f06a 27bd a8b0 76bd 5dfe fa3c
000003a0: ef2a 553d 2c23 bebd 79a1 54bc 572d 09be
000003b0: e52a 82bd da47 e9bc 2207 723d 7c56 443d
000003c0: 6709 ff3b a2e4 7fbb 3fd2 293e 1d9a 743c
000003d0: cf7b 233c 2a77 a6bd 0692 4bbc 3daa 9f3d
000003e0: e15f c73d 78d6 22ba dd35 87bc e744 a73c
000003f0: 73ec a83c 45c7 94bd 4770 2bbe 7cd3 3e3c
0.11598678 0.053732842 0.084428415 0.08757528 -0.17109463 0.0044295196 -0.062575616 -0.08207673
-0.16020206 0.10477781 -0.10012787 -0.0136083495 -0.010306046 -0.008146285 0.0253046 -0.038802966
-0.035734348 -0.03075259 0.024765817 -0.027521662 0.0029215086 -0.085735135 -0.010610764 0.17977896
-0.007079321 0.022722429 0.053243615 -0.04646246 0.06512637 -0.05962689 -0.020139169 0.033839718
-0.10353193 -0.019694135 -0.07097283 -0.04787103 0.040412858 0.04399802 0.03869048 0.07004533
-0.043020442 0.057483077 -0.013527393 -0.053565234 -0.15069002 -0.08749191 -0.06892721 -0.11066122
0.08641171 -0.037636787 -0.02755179 0.004169727 -0.10402847 -0.1018186 0.027497001 0.05182153
0.07191858 -0.010937581 -0.030399336 -0.028774573 0.08087175 0.08687077 -0.06274149 -0.010698139
-0.009675678 0.05009162 -0.03217393 0.06996805 0.12397833 0.090917595 -0.008264744 -0.074535415
-0.072511874 -0.03339039 0.0049397163 0.00015865297 -0.035697177 -0.09738823 -0.028128665 -0.050587248
0.043335628 0.05897247 0.0105666425 -0.1061918 0.1581542 -0.044262692 0.025313815 0.07408253
0.07482681 0.08826449 0.030111508 0.024651952 0.02801484 -0.007826946 -0.028653326 -0.051249627
0.026338223 0.017132064 -0.037010755 0.04499524 0.074416265 -0.10538034 0.022223325 0.015439112
-0.07565026 0.10007608 -0.01219592 -0.041750316 -0.006191498 0.050651476 -0.0027494454 -0.08986552
0.034505084 0.048762813 -0.0770016 0.0002039709 -0.11452112 0.012769831 0.00950952 0.15326996
-0.021203194 -0.0629184 0.024289472 -0.10818178 -0.011458389 0.074314 -0.08644817 -0.072709166
-0.03795465 -0.0015861249 -0.016070046 0.04395171 0.015282493 0.027234271 -0.01976561 0.07355069
-0.06929383 0.18673167 0.079476856 -0.0020234447 -0.0041667293 0.09151557 -0.008566748 0.020594187
-0.10238657 -0.11639894 0.018821374 -0.14236234 -0.16041397 0.07734025 -0.0012996909 0.11046786
0.010646092 0.00069875235 0.03652915 -0.12666486 -0.08799085 -0.072137915 0.034336366 0.030633777
0.15727957 -0.017998544 -0.045345373 0.06603972 0.023620527 -0.018555507 0.01856082 0.038895585
0.100749455 0.028017292 -0.12012124 -0.051442035 -0.056710728 0.0398003 0.12871717 -0.03917942
0.01964312 -0.1149705 -0.012776795 -0.08564798 0.023511747 0.038805798 0.0031892625 0.017213477
0.0040489933 -0.09225891 -0.018226365 -0.07519744 0.01003591 0.10588144 -0.049549006 0.003087963
-0.012870754 -0.046737745 0.10890834 -0.07867852 -0.09104263 0.035890315 0.07492949 -0.040092394
0.09395785 0.048300277 0.045025866 0.12546642 -0.012267776 0.07863549 0.087251484 -0.002074663
-0.009173379 -0.09559423 0.015160779 0.055598855 -0.005905754 -0.033904906 -0.034783483 0.0077647786
0.03267459 -0.021779045 -0.048783153 -0.022355745 -0.12753591 -0.083846174 0.019505244 0.00322228
0.047046013 -0.042587046 0.010505537 -0.01985783 -0.012645178 -0.040873468 -0.060227066 0.030638868
0.052042898 -0.09284052 -0.012977951 -0.13396202 -0.06355838 -0.028476644 0.059088834 0.04793404
0.0077831033 -0.0039046188 0.16584109 0.014929322 0.009978249 -0.081281975 -0.012424951 0.07796142
0.09735084 -0.0006211768 -0.016505176 0.020418597 0.02062056 -0.0726457 -0.16742049 0.0116471015

conv_stem.4.weight f4 [64]
00000000: aee0 7b3f 3db3 773f 16eb 773f 85af 7a3f
00000010: a9bb 783f 235b 813f 70ad 743f 021d 7f3f
00000020: 68d7 7c3f 16bf 7a3f 1586 7c3f f93c 793f
00000030: da14 823f 3473 7e3f 9982 7a3f ee31 803f
00000040: 79f7 7d3f 9179 7d3f 9a14 813f 4b14 7e3f
00000050: c292 7c3f 066c 7b3f e8b1 7b3f 9f4d 6e3f
00000060: 00de 753f 58b1 7c3f a7f4 803f 787a 803f
00000070: 927c 773f 793f 7d3f 6448 7b3f 7d10 6f3f
00000080: 4999 783f 14c8 763f fac5 7f3f 0090 7f3f
00000090: 2959 763f f65e 7a3f 7e2f 823f ea5a 773f
000000a0: 29ed 7b3f d464 763f 27a7 7d3f e5b7 763f
000000b0: e3df 7e3f 11aa 7f3f 1af2 7b3f 7c63 7c3f
000000c0: a0d4 783f d2e0 803f 73b9 763f 7364 7c3f
000000d0: 20ad 813f 651f 753f 3961 7d3f e9c8 7f3f
000000e0: 08b9 7b3f 3f4f 7d3f c13c 803f 47f9 803f
000000f0: 4e29 803f c7b9 7f3f a7c5 7d3f 3f34 7d3f
0.9838971 0.9675787 0.9684309 0.9792407 0.97161347 1.0105938 0.95577145 0.9965364
0.98766184 0.97947824 0.9864209 0.9735866 1.0162613 0.99394536 0.97855526 1.0015237
0.9920574 0.9901362 1.0084412 0.99249715 0.98661435 0.98211706 0.9831834 0.9308719
0.9604187 0.98708105 1.0074662 1.0037374 0.96674454 0.98924977 0.98157334 0.93384534
0.97108895 0.96399045 0.99911463 0.998291 0.962298 0.9780115 1.0170743 0.966231
0.9840875 0.962476 0.9908318 0.9637435 0.99560374 0.99868876 0.9841629 0.985893
0.9719944 1.006861 0.96376723 0.98590773 1.0130959 0.9575103 0.98976475 0.9991594
0.9832921 0.98949045 1.0018541 1.0076073 1.0012605 0.9989285 0.9912972 0.98907846

conv_stem.4.bias f4 [64]
00000000: 27c3 00be 759c 08be fe66 4cbd ee8f 9ebd
00000010: 05bb ebbd 024b c4bd a58c 8dbd 4139 abbd
00000020: a413 1dbe 79e5 b9bd 677e a5bd 03ab c2bd
00000030: 3586 7dbd 052b d1bd c8c0 9abd a20d 29be
00000040: d7a5 94bd 3956 c2bd 49c5 c2bd 96c1 c6bd
00000050: 14cc dfbc ee6c b5bd aa12 b6bd 63f4 e2bd
00000060: 17bd d5bd c36b e4bd f3c5 6ebd 23e6 8cbd
00000070: 4bfa a0bd 1770 95bd b350 e2bd 85ef e6bd
00000080: 78cf c6bd a667 29be 7f26 a3bd 342e 31bd
00000090: ba0e 63bd d495 07be 5b65 0ebd 096d a3bd
000000a0: 6d94 4dbd c0f4 1ebe 42b3 b7bd 8df0 03be
000000b0: 2891 abbd 48fb 8fbd 7716 92bd 7b99 cebd
000000c0: c012 8ebd a343 e0bd 4473 c5bd 5fa0 57bd
000000d0: 0eec b2bd fa49 afbd 6fad aabd 0d24 3fbd
000000e0: f575 91bd ccfb 84bd a0e8 82bd 0614 a4bd
000000f0: e715 59bd 781e cdbd d950 56bd 6d8c 9fbd
-0.12574445 -0.13340934 -0.04990291 -0.07742296 -0.115102805 -0.09584619 -0.069115914 -0.0836053
-0.15339524 -0.090769716 -0.0808075 -0.09505274 -0.061895568 -0.102132834 -0.07556301 -0.16509107
-0.07258194 -0.09489102 -0.095102854 -0.09704892 -0.027318992 -0.08858667 -0.08890279 -0.11081769
-0.10436457 -0.111533664 -0.058294248 -0.068798326 -0.078602396 -0.0729677 -0.110505484 -0.112761535
-0.0970754 -0.16543445 -0.07966327 -0.043256953 -0.055433966 -0.13240749 -0.03476463 -0.07979781
-0.050190378 -0.15523052 -0.089697376 -0.12884732 -0.08377296 -0.0703035 -0.07133191 -0.10087868
-0.0693717 -0.10950401 -0.09641126 -0.052643176 -0.0873643 -0.08559032 -0.08333861 -0.04666524
-0.07102577 -0.06493339 -0.06392026 -0.08011632 -0.052999403 -0.10015577 -0.052323196 -0.07790456

conv_stem.4.running_mean f4 [64]
00000000: ea1a 513f 12e1 b13f 73c5 c33e 08a3 1c3f
00000010: 92d2 e9be aca8 01bf c835 0d3f d679 8b3e
00000020: 3b8f 61bf 610e ee3e fd61 873e 970d 2abe
00000030: 400b 0d3f bf23 9e3f aaa3 edbd a9ca 173f
00000040: b714 30bf 519a 913e 9fc5 c8be c5ee 6dbe
00000050: 1ac1 c4be ba4d 90be 53dd 57be b97d 7bbd
00000060: 3f21 cb3b a726 293f dcbf a83e 529e 8c3f
00000070: 22c6 f2be 267f 263e a37c 7f3f bda4 a63e
00000080: 705f d2bf de0d 2e3f 61c1 54be 4ef7 123e
00000090: 3f4c c13d 2f50 753f 3485 b73e 2df8 c43e
000000a0: af68 11bf 2a54 7b3f 35fd e13e 7eef 0abf
000000b0: 7d99 973e 8de4 703d 90dd a53e fc3d 49bf
000000c0: 45a9 4a3f f4ac 6ebf 686f 5fbf 6b1f 253f
000000d0: c991 43be 9104 2c3f 17b1 71bf 8114 643e
000000e0: 1d78 ff3d bab9 ae3f 4313 423f a14f a9bf
000000f0: e1a0 b8be 6f40 8bbe dd60 87bf 8765 f2bd
0.8168169 1.3896811 0.3823658 0.61186266 -0.45668465 -0.50648 0.5516019 0.2724139
-0.8810918 0.46495345 0.26441947 -0.16606747 0.5509529 1.2354659 -0.11603482 0.5929361
-0.6878161 0.28438047 -0.39213273 -0.23235615 -0.38428575 -0.281843 -0.21080522 -0.061399195
0.0061990316 0.66074604 0.32958877 1.0985816 -0.47416788 0.16259441 0.99799556 0.3254756
-1.6435375 0.6798991 -0.20776893 0.14352152 0.09438371 0.95825475 0.35843813 0.38470593
-0.5680036 0.981753 0.44138494 -0.54271686 0.2960929 0.058811713 0.323956 -0.78610206
0.79164535 -0.93232656 -0.8727937 0.64501065 -0.19098581 0.6719447 -0.9441084 0.22273447
0.12474082 1.3650429 0.7581064 -1.3227426 -0.3606024 -0.27197596 -1.0576435 -0.11835771

conv_stem.4.running_var f4 [64]
00000000: 4abc 963f 9021 813f 867b 8c3f 5877 8a3f
00000010: df9c ad3f 648b 723f 7000 853f 9ba4 9b3f
00000020: e8a8 873f e5b9 833f 2f7d 4c3f c002 643f
00000030: 207e ab3f b8ad 903f 1575 613f ba7b 723f
00000040: 94e3 863f 3643 b23f 7732 873f f426 9b3f
00000050: 372b bd3f a7c3 873f 4ea6 7c3f b2d1 893f
00000060: 860f 863f 26e8 813f 9be1 963f 5a06 863f
00000070: b8cf 523f 8d19 883f 937f 6e3f 832d 953f
00000080: 2d5e 883f 5963 8b3f f5f6 503f b33f 683f
00000090: a4f7 833f ab7d 8c3f c73c 8a3f 6295 663f
000000a0: 56bf 813f ed72 703f 1c99 8c3f 448d aa3f
000000b0: 4cff 503f d857 963f f6d6 893f b462 753f
000000c0: 9881 653f 7a20 5f3f 139e 5d3f 54e2 9d3f
000000d0: ff8f ac3f 5291 983f 2274 c53f 58b3 743f
000000e0: 80eb 513f 96a3 7e3f 4d3a 763f 4ca8 893f
000000f0: 0ac4 823f 2378 793f 8f0e 843f 9bc1 863f
1.1776211 1.0088367 1.0975196 1.0817671 1.3563498 0.94743943 1.0390759 1.2159609
1.0598421 1.0291106 0.79878515 0.89066696 1.3397865 1.1303015 0.8806928 0.9472004
1.0538201 1.3926761 1.0562276 1.2121263 1.4778813 1.0606583 0.9869126 1.0767119
1.0473487 1.0148971 1.1787599 1.0470688 0.82348204 1.0632797 0.9316341 1.1654514
1.065374 1.0889693 0.81626827 0.907222 1.0309949 1.0975851 1.0799798 0.9007169
1.0136516 0.9392536 1.0984225 1.3324361 0.8163955 1.1745558 1.0768726 0.95853734
0.8965087 0.8715893 0.8656933 1.2334695 1.3481444 1.1919348 1.5426066 0.95586157
0.8199997 0.9946836 0.9618271 1.0754485 1.0216076 0.9744894 1.0316943 1.0527834

proj.weight f4 [64, 64, 1, 1]
00000000: 2277 2ebc 6b5f 053e 97ac 123e de8e b6bd
00000010: a5ad 45bd 4fea f4bd 026e 573c 45af ca3c
00000020: 03c3 263e 56b8 afbd 41f2 3e3d 4ffa abbd
00000030: b2f3 953d 3fb4 05bc b244 c93d 25a6 babc
00000040: dea6 d73d 9c18 fd3d 7b8c 5d3d 6cb7 17bd
00000050: 6ddc b03c f851 793d 57ab f8bd 08f3 dc3d
00000060: 0f2d d43d cc9a 013e 19f9 13be 07a3 61bd
00000070: f219 163e 148c 8c3a a070 8fbd ade2 2ebd
00000080: d3b1 0a3e f9b3 27bd 011e 18be 5892 a43c
00000090: 1ae0 e5bd a5a5 c33d 2bab 39be 5819 de3c
000000a0: ff6f d7bd 38e8 f0bc 25b0 18be 3619 ad3c
000000b0: a9c8 96bd c6b4 bcbd 43c9 273d 0fc8 633c
000000c0: a8d6 243e ee6e f93d ca3e 1fbc bd55 7abd
000000d0: 7fe5 e33b d4db f4bc 80b3 d2bc cf5e 313d
000000e0: 0507 c8bb bc8a 8b3c d452 85bd 3ab1 b13d
000000f0: f83e 16be 389b 08bc a453 e73d a244 cf3d
00000100: ed67 fc3d abfa 073c a6da fa3d 7453 a4bd
00000110: 00dd 0cbe b925 213e fdc6 e33d c434 433c
00000120: ae64 d33c b33c e8bc db54 633c 0fcb 763d
00000130: 5238 0cbd ccd6 23be 34df 46bd b690 b53c
00000140: 2e1b 553d 5e3f 1dbd 99dc 093e e0f4 193d
00000150: 9dfc 023d 3a88 19bd 905e b83d 82de 023e
00000160: 2776 943d c28b a9bd 093b c2bd 6595 623c
00000170: 4c04 6f3d c933 f7bd e8e7 ddbd fe11 c23d
00000180: 1ac6 78bc 4e52 57bd 5e9f c73d 6d7b 153d
00000190: ca9b babc a7c0 f43d f4a8 873b 8dbe 76bd
000001a0: dd49 013e af10 883d f67e 42bc 31de 063d
000001b0: ce3b a9bd c061 003e aeac a6bc 083b 60bd
000001c0: 8c14 473d 8a37 18be 2dd2 6f3d 3c85 b43d
000001d0: 6a71 203e 0e98 84bd 2c9d de3c f311 253e
000001e0: 3f8f 74bd fce8 0ebd de9d 18be 453d 463d
000001f0: 48b6 a43d 16a0 d5bb 76e1 843d 6372 08be
00000200: 42e8 ecbb 6ec6 b1bd 8558 a83d da2b e33d
00000210: aec8 d1bd b68c 563d 8f11 a3bc 4fdd 80bd
00000220: 1c62 82bd 5fb9 09bd ce89 a63d 678e 02bd
00000230: ed8a 8b3c f242 a83d 7c77 7ebc 3d7b df3d
00000240: cd2b 32be 30e0 4abe 460f a0bd bbfc eabc
00000250: 20ed 99bd a865 0b3e f045 5abc 0d36 113d
00000260: 853f 403e 7efb b43d cba3 e3bd b511 ad3d
00000270: 7c73 de3d 5d2c 93bd a768 b13d 78c5 093e
00000280: eccc a03d 3c2c 0e3e 9213 7bbd 1997 98bd
00000290: e056 b53d 5c03 38be b96c 363e 279c 363d
000002a0: 5fef 413d d48f a1bd c278 a03d b49c ddbd
000002b0: 6404 b9bd 372c acbd 287a 74bd aacd fc3d
000002c0: 9642 17bb 5df6 453c 0cae d0bd e179 c63b
000002d0: 2515 0fbe a9f5 ba3d 2d0c 413d fccd 063d
000002e0: f40c e1bd 0c77 9fbc a520 b7bd 1593 f8bc
000002f0: 5b9d 1d3c 9e8a 8c3d 0a3e b33c f895 0c3e
00000300: 89a6 9dbd 3066 6f3d e450 ea3a 6b18 4b3d
00000310: 7968 073d 09cf e43d 88d7 fbbc d815 e63c
00000320: e11a 1b3d 0eb3 5cbd 790e 8a3d acf7 f8bd
00000330: 23c8 c6bc 05a6 98bd e7ec 153e afe3 cfbd
00000340: 5600 6b3d ed23 8a3d a36c 91bd ba83 bf3d
00000350: 16e1 c73d c7c7 193d 74b0 8ebc 2767 123b
00000360: 9cf7 0f3e ef5e 533c 061e 633d 50ba c0bd
00000370: 5909 acbd 8ec8 60bb 0741 d1bd 86e1 abbd
00000380: 90b0 b3bd 462d 623d 9af3 be3d 8669 c13d
00000390: f3e4 073e 0f8c b43d cf34 c73c 12bd 98bd
000003a0: 83c7 5a3c dbef 253e 39c7 44bd 8829 fbbd
000003b0: 2aae 9f3c b4e7 a0bd 09de fabd 3765 323d
000003c0: 0628 a0bd 32bc 20be 05f3 4f3d dfc4 bebd
000003d0: 3f7c 0dbe 8703 073d 5fd6 ecbd a7c7 123e
000003e0: 2dcc 1fbd c16a 04be 5964 063e 56e3 823c
000003f0: bec8 0a3e 1b92 8bbd 526f 1a3e 8efc 4fbd
-0.010648521 0.1302468 0.1432365 -0.089139685 -0.048261303 -0.11958753 0.0131487865 0.024741778
0.16285329 -0.08580081 0.04661775 -0.08397352 0.07321872 -0.00816065 0.09827556 -0.022784302
0.10529874 0.123582095 0.05408905 -0.03704016 0.021589482 0.060869187 -0.121420555 0.10788542
0.10360157 0.12656707 -0.14450492 -0.055087116 0.14658335 0.0010722899 -0.070039034 -0.042696644
0.13544397 -0.04094312 -0.14855196 0.020089313 -0.112243846 0.095530786 -0.18131702 0.027111694
-0.105194084 -0.029407606 -0.14910944 0.021130186 -0.07362492 -0.09214167 0.040963423 0.013902678
0.1609751 0.12179361 -0.00971956 -0.061116923 0.0069548483 -0.029889978 -0.025720358 0.043303307
-0.0061043524 0.017033927 -0.06509939 0.086763814 -0.14672458 -0.008337788 0.1129525 0.101205125
0.1232451 0.00829951 0.12248735 -0.0802373 -0.1375618 0.15737046 0.111219384 0.011914436
0.025804844 -0.028349256 0.013875212 0.060252246 -0.0342334 -0.15999907 -0.048552707 0.02216373
0.052027874 -0.03839051 0.13463058 0.037587047 0.031979192 -0.03748343 0.09002411 0.12780192
0.07249098 -0.0827861 -0.09483916 0.013829564 0.058353707 -0.12070424 -0.10835248 0.09476088
-0.01518395 -0.052568726 0.09747194 0.03649466 -0.022779364 0.11950808 0.004140014 -0.060240317
0.12625833 0.06643807 -0.01187109 0.032926742 -0.0826336 0.12537289 -0.020346012 -0.054743797
0.04860358 -0.14864936 0.05855005 0.08814475 0.15668264 -0.06474315 0.027174555 0.16120128
-0.059706923 -0.03489016 -0.14903972 0.048398275 0.0804258 -0.006519328 0.06488316 -0.13324885
-0.0072298357 -0.086804256 0.08220009 0.110923484 -0.10243355 0.052380286 -0.019905834 -0.06292211
-0.06366369 -0.03362405 0.08131753 -0.031874087 0.017034018 0.08215894 -0.015531417 0.10912178
-0.17399521 -0.19812083 -0.07815413 -0.028684964 -0.07515931 0.13612998 -0.013322338 0.035451937
0.18774231 0.08837031 -0.111152254 0.08450643 0.10861871 -0.07186196 0.08662539 0.13454235
0.07851586 0.13884062 -0.06129796 -0.074506946 0.08854461 -0.17970031 0.17814912 0.044582512
0.047347423 -0.07888761 0.07835533 -0.108209044 -0.090340406 -0.08406871 -0.05968681 0.12343915
-0.002308046 0.012082663 -0.10189447 0.0060570096 -0.1397291 0.09128887 0.047130752 0.032911286
-0.10988799 -0.019465946 -0.08941773 -0.030343572 0.009620036 0.06862377 0.021880168 0.13729084
-0.0769778 0.058447063 0.001787689 0.049583834 0.033058617 0.11172301 -0.030742422 0.028086588
0.03786743 -0.053881697 0.06741042 -0.12156615 -0.024265354 -0.07453541 0.14641152 -0.10150849
0.057373367 0.067451335 -0.07100799 0.09351297 0.097597286 0.03754404 -0.017418124 0.0022339316
0.14059299 0.012901052 0.055448554 -0.09410536 -0.084002204 -0.0034299227 -0.10217481 -0.083926246
-0.08773911 0.055218957 0.09323807 0.09443955 0.13270931 0.088157766 0.024317173 -0.07457937
0.013353231 0.16204779 -0.048041556 -0.12263781 0.019492228 -0.07856694 -0.12249381 0.043553557
-0.07820134 -0.15696791 0.05076887 -0.09314894 -0.13816927 0.03296235 -0.115643255 0.14333974
-0.039013077 -0.12931348 0.13124217 0.015977543 0.1355314 -0.06814977 0.15081528 -0.050777964

proj.bias f4 [64]
00000000: e660 d5bd e620 86bd a059 84bd 3542 6bbd
00000010: 84b1 ac3d 88e0 3dbc 1a85 8e3c f378 8cbc
00000020: d187 10bb 4410 ffbd 335c 303d 4571 b7bc
00000030: e053 483c 5dac 653d 56ab cebc 8955 93bd
00000040: b95a 8c3d 3db7 53bd a7c9 d2bd 0484 0ebc
00000050: 9e50 a4bd 4d97 cb3c e22b 113d e3a8 68bd
00000060: fc69 ae3d ca43 61bc 46e6 233d bc85 6b3d
00000070: aa02 c83d d695 3a3d c20e 883d 9508 153d
00000080: bba4 0b3e ea2d 003e 9c2b 07be 0fca 23bd
00000090: 421f a03d cee6 463e 55ec c2bd 2579 b5bd
000000a0: 7099 a73d d25e 803d 7657 233c 3b1b 9cbd
000000b0: 36aa babd 52d2 003b 604b d9bc 66aa 8fbd
000000c0: 74a2 8bbd ccf5 5b3d bdac 3b3c 6b82 47bd
000000d0: 01d2 bfbd adee 013e 8b9a 403d f1be 833d
000000e0: 7e1a d33d 0dc2 153c e032 ebbd e6b3 7a3d
000000f0: a1ec 6dbd 3fb2 c4bd e5b2 fbbb 449c 89bd
-0.104188725 -0.06549244 -0.06462407 -0.057436187 0.08432296 -0.011589177 0.017397452 -0.017147517
-0.002205361 -0.12454274 0.043056678 -0.022392878 0.012227029 0.05607258 -0.025228184 -0.07194049
0.068532415 -0.05168842 -0.102923684 -0.008698467 -0.08023189 0.02485242 0.03544224 -0.056801688
0.08516309 -0.013749072 0.040014528 0.057500586 0.09766133 0.04555305 0.0664344 0.036385138
0.13637058 0.12517515 -0.1320023 -0.03998762 0.07818462 0.19423983 -0.09517733 -0.08860997
0.08183563 0.062680855 0.009969583 -0.07622381 -0.091144964 0.001965661 -0.0265252 -0.07014923
-0.06818095 0.053701207 0.011454758 -0.04870836 -0.09366227 0.12688704 0.047022384 0.064329036
0.10307787 0.009140504 -0.11484313 0.06120672 -0.058086995 -0.0960431 -0.007681238 -0.067192584

encoder.layers.0.self_attn.in_proj_weight f4 [192, 64]
00000000: 33ad 753e 30e4 43be 3031 2dbe 38d2 cdbd
00000010: 0b6e 5dbd 0890 e23d 8f8b c9bc 40cb aebc
00000020: e021 483e ba1e 313e 7048 eb3b 122e 0a3d
00000030: d4b2 aabd f141 9d3d fb62 da3d 5e00 533e
00000040: 8b54 c83d 8d7e 963b 4708 853d 3141 9bbe
00000050: 5205 6a3e 8ebb 193d 2526 abbd 6c39 95bc
00000060: d911 64be f83c 26be 70d7 463e c1a7 9bbd
00000070: ac62 843d d10f 2c3d afe7 bdbd 32bf 13bc
00000080: 6b6a a7be 6ab1 91bd 3b62 53be 1f56 223e
00000090: 53de c1bd fb7b d93c f385 77be d1bc a03c
000000a0: aef6 a2bd 50b3 ef3d 5c7b cbbd 58bf 38be
000000b0: c2da 9cba 333b debd ef1a 03be 8841 5c3d
000000c0: d1b0 b9bd 0eaa 6cbe 60f8 18bd fa54 823e
000000d0: 08eb e63b 81b5 d4bd d657 b8bd 9f3b e0bd
000000e0: 2721 d93d bf57 1d3e 21f6 55be 8839 a6bd
000000f0: 0519 6f3e 0aea 31be de5a b3be cf14 643e
00000100: 5c24 623e 0a3c 123e 058c 88bd 4a3e 973d
00000110: 129c fe3d b55e 153e 822c 9dbd d3b3 03be
00000120: 8fe4 bbbd 59ae 8b3d 8d80 0e3e a2b4 f9bc
00000130: 751c 8b3e 8c7c 05bc 8d91 78bd 9c4b f0bc
00000140: 8cb7 04be a2f1 643e c79c 793c 6f76 3f3c
00000150: 645c 7a3e 1a6f 3a3e 0fdd 553d 065e d8bd
00000160: 189a 333e 2e8a dbbd 66ff d83d 12b9 b13e
00000170: 3154 34be d69e a43c a329 7a3d 4627 3a3e
00000180: 6512 0f3e d8a1 413e d8c5 3fbd f2fe 85bd
00000190: bffb 78bd 9672 a9bd 9c14 ecbd 7f78 e83c
000001a0: 3c0b fd3d 124a 613e 4a71 5a3e f348 8e3d
000001b0: 1829 8a3e 6d40 74bd d724 2fbe 6d79 633c
000001c0: 333a 58bc 0267 f2bc 0c82 ef3d 56cb 9a3d
000001d0: 7f63 233e b577 b0bc 6e1a 913e 8559 56bd
000001e0: d92e 973c c776 2abe c28a 803d c8a3 84bd
000001f0: 8392 933e ab34 6d3a bd06 00be 7038 133e
00000200: c9ab 2b3e 5b8c 2b3d 9546 263d 2b24 03be
00000210: b668 02be e5fc d13d ed96 a73d 1c7a d7bd
00000220: b707 473e 3663 a53d 9553 0d3e 297e cb3d
00000230: 9501 6b3e 8cc8 6fbc ab57 abbd 2cbe 2d3e
00000240: 4162 803e bb79 ae3d 1df9 e9bb 004b 3a3e
00000250: 13a8 5cbe 5e63 bd3c 9e0f 00be 46f5 1cbd
00000260: bf96 763d 0e2d 1a3e 8275 88bd fdaa 693d
00000270: fa3c e2bd b91a af3c c7ce c13d 4a1e 14be
00000280: 7d72 3bbe 85df 22be 1ab2 11bc 6e2a 573d
00000290: 0dff 31ba 3e4d 6f3d 760b 1abc 56d7 84bd
000002a0: 7524 d4bd 30b5 b33e f364 35bd 7283 6e3e
000002b0: 9729 193e ce09 4abe 8b51 26be 7d24 91bc
000002c0: 1d63 2e3e 7d7a bbbe 7d0a 663d 60ae 56be
000002d0: 3de0 08be b5d2 ad3e d77c 8a3c d9d8 9ebe
000002e0: 09c3 4bbe 20e7 be3d a779 5a3e f464 8a3e
000002f0: 3318 9c3d 4e76 3abd ac08 2b3e 5aae e8bd
00000300: 201b 123d 0c78 b1bd 130b cebe 704e 6fbe
00000310: 21ef a1bd 38e7 903d 9cc3 20bd fbee d4bc
00000320: d406 86be 7dbd ac3d 813f fcbd 7d97 66bd
00000330: 6ed9 c0bd e565 523d c4a5 8c3d f844 cb3c
00000340: 2cf5 4dbe 2a57 faba 7866 203e e331 b43d
00000350: 14c6 223e a1af 163e 7a1a 6f3d 549b 89bd
00000360: 5788 99be 5b4a fd3d 7350 49be ffc0 083e
00000370: 9fdc a5bd 87b9 58be f682 8ebd becc 253e
00000380: 8516 bd3c 7328 8f3d 4f63 873d 378a b8bb
00000390: ec85 41ba 68fa 83bd 7331 93bd a3be 75be
000003a0: ffee 763e cf60 b33e da78 c73e 037d 5438
000003b0: 75bb 863e 18be 34be d5ce bebd a0d5 cdbd
000003c0: f503 13be 8203 933c 9948 28bc 1777 9cbc
000003d0: c3c2 1ebe 1fcf 21bd f91f d03c c833 0c3e
000003e0: b74d 3dbd c80f 93bd b994 e3bc c9f6 81bd
000003f0: f45a 9f3e a373 3cbe cba1 f73d 306d ccbd
0.23991852 -0.19130015 -0.16913295 -0.10049862 -0.054060023 0.11062628 -0.02460268 -0.021337152
0.19544172 0.17296878 0.007180266 0.033735342 -0.0833489 0.07678593 0.1066341 0.20605609
0.0978175 0.0045927227 0.064957194 -0.30323175 0.22853592 0.03753238 -0.08356885 -0.018215857
-0.22272433 -0.16234195 0.1941812 -0.07600356 0.06464133 0.04200727 -0.09272706 -0.0090177525
-0.32698378 -0.07113917 -0.2064294 0.15853165 -0.09466233 0.026548376 -0.24172191 0.019621285
-0.07957207 0.11704123 -0.09935638 -0.18041742 -0.001196705 -0.10851135 -0.12803243 0.053773433
-0.09066928 -0.23111746 -0.037346244 0.25455457 0.007047061 -0.103861816 -0.090011284 -0.10948872
0.106020264 0.15365504 -0.20894672 -0.08116442 0.23349388 -0.17374435 -0.35030264 0.22273563
0.22084183 0.14280716 -0.066673316 0.073849276 0.12432112 0.14586909 -0.07674505 -0.12861566
-0.091744535 0.068203636 0.13916226 -0.03048164 0.27170148 -0.00814737 -0.060685683 -0.029332928
-0.12960643 0.223578 0.015235133 0.011685952 0.24449307 0.18206444 0.05221277 -0.105648085
0.17539251 -0.10719715 0.105955884 0.3471151 -0.17610241 0.02009527 0.061074864 0.18179044
0.1397186 0.18909395 -0.046819538 -0.065427676 -0.06078696 -0.08273809 -0.115273684 0.02837777
0.123556584 0.22000912 0.21332279 0.06947508 0.26984477 -0.059631754 -0.17103897 0.013883931
-0.0131974695 -0.029590134 0.11694726 0.075583145 0.15955923 -0.021541456 0.28340477 -0.052331466
0.018454956 -0.16646872 0.06276466 -0.06476551 0.28822717 0.00090486807 -0.1250257 0.14376998
0.1676475 0.0418819 0.040594656 -0.12806766 -0.12735257 0.10253314 0.08183084 -0.105213374
0.19436537 0.080755636 0.13801415 0.099361725 0.22949822 -0.014635216 -0.08366331 0.16967076
0.25074962 0.08519312 -0.0071402923 0.18192673 -0.2154849 0.023118671 -0.12505957 -0.03831985
0.060202356 0.1505625 -0.06663038 0.057047833 -0.110467866 0.021375047 0.09463268 -0.1446468
-0.18305393 -0.15905578 -0.00889256 0.0525307 -0.00067900197 0.058423273 -0.009402147 -0.064863846
-0.10358516 0.35099173 -0.044285726 0.2329233 0.14957272 -0.19730303 -0.16242044 -0.017717594
0.17029996 -0.3661689 0.056162346 -0.20964956 -0.1336679 0.3394982 0.016905231 -0.31024817
-0.19898619 0.09321427 0.21335469 0.27030146 0.07621803 -0.04552298 0.16702527 -0.1136138
0.0356704 -0.08665475 -0.40242824 -0.23369765 -0.07906938 0.070753515 -0.039249048 -0.025992861
-0.26177084 0.084345795 -0.123168 -0.056296814 -0.094164714 0.051366705 0.06867555 0.02481316
-0.20113057 -0.0019099463 0.15664089 0.08798578 0.15895873 0.14715435 0.05837486 -0.067190796
-0.29986832 0.12367698 -0.19659595 0.13354872 -0.08098721 -0.21164523 -0.069585726 0.16191384
0.023082027 0.06990137 0.066107385 -0.005631711 -0.00073823216 -0.064442456 -0.07187166 -0.23998503
0.24114607 0.35034797 0.3895939 5.0661165e-05 0.26314893 -0.1765064 -0.09316794 -0.10050511
-0.14356978 0.017946009 -0.010271215 -0.019099755 -0.15503983 -0.039504167 0.02540587 0.13691628
-0.046216693 -0.071807444 -0.027780877 -0.06345899 0.3112408 -0.18403487 0.120914064 -0.09981763

encoder.layers.0.self_attn.in_proj_bias f4 [192]
00000000: efd9 543c 7a95 aa3c 63c1 0abd 3e23 ed3b
00000010: f089 f5bd 2c79 123c 202d b3bb a81d 1bbd
00000020: c532 20bd 2c7f c33c d26c 263d ce6a 403d
00000030: f9c3 d33d f525 0e3d 5120 c2bd bc15 d83d
00000040: 140d 26be 5b41 22be 89ff eebd cb13 673d
00000050: cd45 6b3e da69 253e ccac 26be 32b4 07bd
00000060: 7227 d23d 2336 243d bce7 0b3e e737 4ebe
00000070: d771 e5bd 02af 093d 4f8a 423e 1b12 933c
00000080: 4570 20be 553f 0b3d 24e7 5cbe f504 0ebe
00000090: b9a8 e8bd a567 1c3d 680c a83d 4d99 383e
000000a0: 9648 a63d c687 9b3d 3d62 2f3e dc99 5a3e
000000b0: d6e0 a13d b4e3 513d f89b cdbc 6d25 ca3c
000000c0: edc2 67be 524d 09be 34b2 e53d 5f9c 9abd
000000d0: 1817 863d edab 55be 2e78 02be ed21 dcbd
000000e0: a774 87bd a6e4 1ebe 5eac 843d 6c9a 6b3d
000000f0: 5ff1 17be 8d2d c7bd e7b9 023e 115f a73d
00000100: 1a11 b33b b611 0ebd f6c1 303c d43d 4c3b
00000110: 7ea6 ba3c f4ce 753c f775 d8bc bcb3 853b
00000120: 102e 5e3a 1860 0abb 6199 70bc 6413 453b
00000130: 0d5f 6dbc 332f d63a 77af 5e3c bdd0 4b3c
00000140: cdb0 2b3d 2534 593d 2641 073d 960a 743b
00000150: ea0a 99bd b7da 0ebd 3d6e 793d 93f5 78bc
00000160: 59bc 5dbd c36d 4fbd d63c 74bd a7b9 ab3d
00000170: f12e 893d 86bd aabc 0da5 a3bd c30f 8739
00000180: 2558 5d3d 5d81 beba a63d 3a3d cc9a f13c
00000190: 2faf 503d 05c2 c4bc 8d05 d7bc 8cba 8bbd
000001a0: f9d5 a3bc 0ea5 01bd 58f0 6bbd 17fe 93bd
000001b0: 835b 46bd 4ae0 cdbc 2cc2 99bb 0150 90bb
000001c0: 6da1 983d 8d82 7d3d 43e4 5abd 9f33 833c
000001d0: a223 77bc 21f6 763d 8391 173d 5909 0b3d
000001e0: fcf9 4e3c 7bbe 8f3d 0c7e f3bc a28b 44bd
000001f0: 563c 803d db19 af3b a9b7 03bd 4536 93bc
00000200: 6795 09bc 3b8a ff3a 2de1 85bb b17d 4abc
00000210: 86a3 e8bc ddd4 4cbc ae90 9ebc 7764 24bc
00000220: b3de 96bb 4a2e 87bb b9df 183c f4f7 ae3c
00000230: b6a4 90bb 7684 1cbc e119 413c fe15 d6bb
00000240: 6a14 8dbb 7e5a 263b f234 503c 1ca8 2cbc
00000250: 6cb5 053c f4a2 e0bb 5032 babc b8d6 1ebc
00000260: 1697 1c3c f7e9 f2bc a818 69ba 78d4 32bc
00000270: 6167 3f3d a110 6cbb 1820 c0bc 5a1d 39ba
00000280: fcda 813c 71e3 1abc 8dfa c23c 2c16 3b3b
00000290: e2aa 543c 775b 6fba a443 b93b f560 953c
000002a0: 4320 743c 383b 233c 16da 5ebc cabe 63bc
000002b0: 2f4d b43c 484d 92bb f347 6ebc 530a 3f3c
000002c0: 21f2 f8bc 57f4 3438 05da 853c e75f 663c
000002d0: d8a3 20bc 3932 1cbc 75a0 7a3c bbde 26bc
000002e0: 4dda e5bb e3ff acbc 18bd 663b 8e12 a63c
000002f0: 3c79 d93b e290 0dbc bbf7 68bc edeb 8c3c
0.012991413 0.02082323 -0.033875834 0.007236867 -0.119892 0.008940022 -0.005468026 -0.03787008
-0.039110918 0.023864351 0.040631123 0.046976857 0.10340113 0.034704167 -0.0947882 0.105510205
-0.16215926 -0.15845244 -0.11669833 0.05641536 0.22975846 0.1615366 -0.16276854 -0.033130832
0.1026143 0.04009069 0.13662618 -0.20138513 -0.11203354 0.033614166 0.18998073 0.01795297
-0.15667827 0.033995945 -0.21572548 -0.13869078 -0.11360306 0.03818478 0.08205491 0.1802723
0.081193134 0.07594256 0.17127319 0.21347755 0.07904212 0.051242545 -0.025098786 0.02467605
-0.22632952 -0.13408402 0.1121563 -0.07549357 0.065473735 -0.20866366 -0.12741157 -0.10748658
-0.066140465 -0.1551691 0.06478189 0.057520315 -0.1483817 -0.09725485 0.12766229 0.08172429
0.005464685 -0.03468486 0.010788431 0.0031164782 0.022784468 0.015002955 -0.026423438 0.004080264
0.0008475492 -0.0021114405 -0.014685006 0.0030071372 -0.014487994 0.0016340971 0.013591639 0.012439904
0.041916657 0.053028245 0.033021115 0.0037237755 -0.07472785 -0.03487655 0.060896147 -0.015195268
-0.0541347 -0.050641786 -0.05962833 0.0838502 0.066984065 -0.020842325 -0.07990465 0.0002576095
0.05403914 -0.0014534403 0.04546895 0.029492758 0.050948318 -0.024018297 -0.026247764 -0.0682269
-0.019999491 -0.03165155 -0.057602257 -0.07226198 -0.048427116 -0.025131363 -0.0046923365 -0.0044040685
0.074526645 0.06189208 -0.053440344 0.016015826 -0.015084179 0.06029332 0.037004005 0.03394446
0.012632843 0.07018753 -0.02972319 -0.047984727 0.06261508 0.0053436584 -0.032157574 -0.017970214
-0.008397437 0.0019496152 -0.004085681 -0.012359069 -0.028398287 -0.012501922 -0.019356098 -0.010033718
-0.0046041845 -0.004125391 0.009330683 0.021358468 -0.0044141663 -0.0095530655 0.011785955 -0.0065333834
-0.004305412 0.0025383527 0.012707936 -0.010538127 0.00816093 -0.006855363 -0.022729069 -0.009694748
0.009557506 -0.029652579 -0.00088919187 -0.010914914 0.04672945 -0.0036020654 -0.023452803 -0.00070615637
0.01585149 -0.00945364 0.023801113 0.002854715 0.012980195 -0.0009130756 0.0056538153 0.01823471
0.01490027 0.009962849 -0.0136018 -0.013900468 0.02200946 -0.004464779 -0.014543521 0.011660176
-0.030388894 4.3142903e-05 0.016339311 0.014060951 -0.009804688 -0.009533458 0.015297045 -0.010184939
-0.007014549 -0.02111811 0.0035207924 0.02027252 0.0066367667 -0.0086405 -0.01421922 0.017202342
