models/rym_grid_c0_s64_e2_t4_r4/conv_transformer_c0_ce_a0p32_l0p16_lr1e-04.pt (torch, 750677 bytes, 40 tensors)

pos_embed f4 [1, 64, 64]
0	0x3da6498e	0.08119498
1	0xbe376afb	-0.17911904
2	0x3c5c29bc	0.013437685
3	0xbd844984	-0.064593345
4	0x3d5dd033	0.054153632
5	0x3db909d8	0.09035081
6	0xbccdbd29	-0.025114613
7	0x3b86247b	0.0040937043
8	0xbc94b561	-0.018152894
9	0x3e20a950	0.15689588
10	0x3da04911	0.07826436
11	0x3daa6110	0.083192945
12	0x3e2e432a	0.17017809
13	0x3c8a8021	0.0169068
14	0xbe7ccd0b	-0.24687593
15	0x3d2060de	0.03915488
16	0xbe0782b4	-0.13233453
17	0x3d930fd0	0.0718075
18	0x3d480907	0.048836734
19	0xbe39e1df	-0.18152569
20	0x3cf27ed4	0.029601492
21	0x3b5879be	0.0033031548
22	0x3cb8a0c7	0.022537602
23	0xbd0a7b8c	-0.03380923
24	0x3e5eb50f	0.21748756
25	0xbc0e8844	-0.00869948
26	0xbe03910d	-0.12848301
27	0xbd9a1c6f	-0.075249545
28	0xbe5cffe4	-0.2158199
29	0x3df0d371	0.11759079
30	0x3c45162b	0.012029211
31	0x3e8f565c	0.27995574
32	0x3dabc3aa	0.08386929
33	0x3dd79533	0.10526504
34	0x3c66886b	0.0140706105
35	0x3d71daa4	0.059046403
36	0xbe076597	-0.13222347
37	0xbd3c7603	-0.046010982
38	0xbe18e3e0	-0.14930677
39	0x3e0f250e	0.13978979
40	0xbe39bf04	-0.18139273
41	0xbdc2003d	-0.09472702
42	0x3dbf7c89	0.09349925
43	0x3e111074	0.14166433
44	0x3d9104de	0.070810065
45	0xbdc45ccd	-0.09588013
46	0xbd1697b9	-0.036765788
47	0xbd532117	-0.05154523
48	0x3dc832b8	0.09775299
49	0x3e810f3b	0.25206932
50	0xbdcb1bfb	-0.09917446
51	0x3bcdbd40	0.006278664
52	0xbb5a6ef2	-0.0033330289
53	0x3df1a2f4	0.11798659
54	0x3dc167d1	0.094436295
55	0xbdd358c5	-0.10319666
56	0x3e42471e	0.18972442
57	0xbd139795	-0.03603323
58	0x3d85996a	0.06523402
59	0x3daa2ab8	0.08308929
60	0x3c323925	0.010877882
61	0x3c2f145b	0.0106860055
62	0x3de32bd1	0.11092342
63	0xbc36184c	-0.011114191
64	0x3b0a5bff	0.0021111963
65	0xbdc6df7f	-0.09710597
66	0xbe7b4a0d	-0.24539967
67	0x3e0e4bda	0.13896123
68	0xbc8dad8c	-0.017294668
69	0x3db5bbfb	0.08873745
70	0x3dbc96c5	0.092084445
71	0x3e80fe27	0.25193903
72	0x3d04eeb2	0.0324542
73	0x3e01d8ae	0.12680313
74	0xbe33cb6a	-0.17558065
75	0x3c9ff65a	0.01952665
76	0xbe9a91cb	-0.30189356
77	0xbc7ba875	-0.0153599875
78	0x3ec9505a	0.39319116
79	0xbccfe39c	-0.025377087
80	0x3ea9ddd7	0.33177063
81	0x3e0c7946	0.13718137
82	0x3e0be1d7	0.1366037
83	0x3e028b72	0.12748507
84	0x3de200cb	0.110353075
85	0xbdf36159	-0.11883802
86	0xbe7e9937	-0.24863134
87	0xbd8fd889	-0.07023723
88	0xbe4f2471	-0.20228745
89	0x3cba013f	0.022705672
90	0x3dcc8ade	0.09987424
91	0x3d9ac143	0.07556393
92	0xbd669459	-0.05629382
93	0xbd01ecde	-0.031720035
94	0xbe99d436	-0.30044717
95	0x3cd692df	0.02619308
96	0xbe13bd31	-0.1442764
97	0xbdfe1cda	-0.12407847
98	0x3c3e5f42	0.011619391
99	0xbdecb9c0	-0.115588665
100	0xbd502bcf	-0.05082303
101	0x3e83fd90	0.2577939
102	0x3e0aa6ce	0.13540193
103	0x3d488e21	0.04896367
104	0x3e8068b9	0.25079897
105	0x3e1b702c	0.15179509
106	0xbe0fcb0c	-0.140423
107	0xbc90b046	-0.017662179
108	0x3db82b1c	0.089925975
109	0xbd89d612	-0.06730284
110	0xbc9b8cd3	-0.018988049
111	0xbe5111e6	-0.20416984
112	0xbe022a6f	-0.127115
113	0xbe2891aa	-0.16461816
114	0x3e0a1c3d	0.13487335
115	0x3d43a788	0.047767192
116	0x3e17a2a6	0.14808139
117	0xbe1d7330	-0.15375972
118	0xbd61921c	-0.05507098
119	0xbd530f23	-0.051528107
120	0xbe6b8ac7	-0.23002158
121	0x3d4e619f	0.050386067
122	0xbda29a2a	-0.07939561
123	0x3d3be242	0.045870073
124	0x3e0fa8da	0.14029256
125	0xbdb12160	-0.08648944
126	0x3dcb2355	0.099188484
127	0x3df4d731	0.11955107
128	0x3db39e1f	0.087703936
129	0xbe0d4faf	-0.13799928
130	0x3913509e	0.00014049045
131	0x3d822d14	0.06356254
132	0xbe73d8ef	-0.23813222
133	0xbd25d9ee	-0.040491037
134	0x3e7dc6de	0.24782893
135	0xbdfe01a8	-0.1240266
136	0xbcae60be	-0.021286365
137	0x3cb54bab	0.022130808
138	0x3de3a5c2	0.111156
139	0x3d13efa8	0.036117226
140	0xbdf0d5fe	-0.11759566
141	0xbd8a8d99	-0.06765289
142	0x3e862013	0.26196346
143	0xbd9cb7dc	-0.07652256
144	0x3e0a0ae9	0.13480724
145	0x3db402e7	0.08789616
146	0xbe4fe6fd	-0.20302959
147	0x3e0aab00	0.13541794
148	0xbdb10ca3	-0.086449884
149	0xbc6e21d7	-0.014534435
150	0xbd18c4d5	-0.03729709
151	0xbc9afe3a	-0.018920053
152	0x3de562a8	0.11200458
153	0xbdf6c78e	-0.12049781
154	0xbdf84aaa	-0.12123616
155	0x3e3f7e15	0.1870044
156	0xbe5ce582	-0.21571925
157	0xbd3b30f1	-0.04570097
158	0xbd5f9fa4	-0.054595605
159	0x3e1155b2	0.14192846
160	0x3e1c6379	0.15272321
161	0x3e09cae3	0.13456301
162	0xbd50c165	-0.050965685
163	0x3d9b303e	0.07577561
164	0xbe766e6e	-0.24065563
165	0xbda32ad7	-0.079671554
166	0xbcb06d75	-0.021536568
167	0x3bd7c9b4	0.006585324
168	0x3d0a01e5	0.033693213
169	0xbd979bff	-0.07402801
170	0xbcf419ef	-0.029797522
171	0xbd826a25	-0.06367902
172	0x3dbba578	0.0916242
173	0xbde06494	-0.10956684
174	0x3ce8e9b4	0.02843175
175	0x3e4877d6	0.19576964
176	0xbdde043e	-0.10840653
177	0x3d28845b	0.04114185
178	0xbca47fd5	-0.020080486
179	0xbd22b408	-0.039722472
180	0x3d1581df	0.036500808
181	0x3e9bd5de	0.30436605
182	0x3d66759f	0.056264516
183	0x3d8c1970	0.06840789
184	0xbcf51b1d	-0.029920155
185	0xbc8ac477	-0.016939385
186	0x3e240cdb	0.16020529
187	0x3d9745c3	0.07386353
188	0x3dd91175	0.10599033
189	0xbbacbd12	-0.0052715624
190	0x3dc5dbac	0.0966104
191	0xbd992635	-0.074779905
192	0x3c940afd	0.018071646
193	0x3e57af55	0.21062978
194	0x3e58b0c7	0.21161185
195	0x3ce04627	0.027377201
196	0x3e57976d	0.21053858
197	0x3e79f212	0.24408749
198	0x3d513a08	0.051080734
199	0xbe652747	-0.22378264
200	0x3dc8d40a	0.09806068
201	0x3d206638	0.039159983
202	0x3e243370	0.16035247
203	0xbda675c9	-0.081279345
204	0x3e20b420	0.15693712
205	0xbd33592d	-0.043786217
206	0xbe0af9c4	-0.1357184
207	0xbe019d4c	-0.1265766
208	0xbe220d1e	-0.15825316
209	0x3d1c47cd	0.038154412
210	0x3dbcfbd5	0.09227721
211	0x3e417cbc	0.18895239
212	0xbe04453c	-0.12917036
213	0xbd3fe2b3	-0.046847057
214	0x3e29c901	0.16580583
215	0xbc002e64	-0.00782356
216	0xbd1bf819	-0.0380784
217	0x3e1a436a	0.15064779
218	0xbcb2baaf	-0.021817533
219	0x3c9f8154	0.019470848
220	0xbd983ecf	-0.07433855
221	0xbe154c8f	-0.14579986
222	0x3de77420	0.11301446
223	0xbe68d586	-0.22737703
224	0x3d6834e2	0.056691058
225	0x3e18097b	0.14847367
226	0x3e242d11	0.16032816
227	0xbdbc951c	-0.09208128
228	0xbdc4339e	-0.09580158
229	0xbcd35f8c	-0.025802396
230	0xbd6f1266	-0.058367155
231	0x3d3713fd	0.044696797
232	0xbe08d6ef	-0.1336324
233	0xbdce7649	-0.10081155
234	0xbd2b0af5	-0.041758496
235	0x3df36862	0.11885144
236	0xbd5fe00b	-0.054657023
237	0x3e17cd60	0.14824438
238	0xbd5b3249	-0.053514753
239	0x3bcabb3a	0.00618687
240	0xbd13a190	-0.03604275
241	0xbddb6e4f	-0.10714399
242	0xbcea7c6a	-0.028623778
243	0xbdb3dd1a	-0.08782406
244	0xbe38865b	-0.18020003
245	0xbdae9cc2	-0.08525993
246	0x3ee142fe	0.43996423
247	0xbdca481d	-0.09877036
248	0x3d978cbc	0.0739989
249	0xbe3bbb03	-0.18333058
250	0x3e496953	0.19669084
251	0x3e1d0a5c	0.15335983
252	0xbd269e63	-0.040678393
253	0x3dbf94c3	0.09354546
254	0x3e03dff7	0.12878405
255	0xbe6b7519	-0.22993888

conv_stem.0.weight f4 [64, 64, 3, 3]
0	0xbded592b	-0.11589273
1	0xbf203e26	-0.6259483
2	0x3ce4e8cf	0.027943043
3	0x3c270f44	0.010196511
4	0xbe8d8cae	-0.27646393
5	0xbdba0bf3	-0.090843104
6	0xbed52178	-0.41627097
7	0xbe5c8228	-0.21534026
8	0x3e2113c6	0.15730199
9	0x3e17b1df	0.14813946
10	0xbe7b428c	-0.24537104
11	0xbe413849	-0.18869127
12	0x3c7be347	0.015374011
13	0x3cd0a1b1	0.025467725
14	0x3b7bd2ff	0.0038425324
15	0x3df79428	0.120888054
16	0x3f01d4dd	0.5071543
17	0xbd441268	-0.047869116
18	0x3e8acf93	0.27111492
19	0xbd75d9f2	-0.060022302
20	0xbdbbf6e3	-0.09177949
21	0xbe8be8a4	-0.27325928
22	0x3d5a2ee4	0.053267375
23	0x3c944d27	0.018103195
24	0x3dc1a638	0.09455532
25	0x3e654b9a	0.22392121
26	0x3cb3e9c0	0.021962047
27	0xbd67c932	-0.05658836
28	0x3da45cb0	0.08025491
29	0xbdd67b27	-0.10472708
30	0x3c409631	0.011754558
31	0x3e042d30	0.12907863
32	0xbdc57e80	-0.096432686
33	0xbd91e198	-0.07123107
34	0x3e097cc0	0.13426495
35	0x3e02af75	0.12762244
36	0xbe51a9b5	-0.20474894
37	0x3e5a9d80	0.21349144
38	0xbaa06a4a	-0.0012238708
39	0xbe73d1a4	-0.2381044
40	0x3daf7adf	0.08568358
41	0xbe1ac984	-0.15115935
42	0x3df81bf7	0.12114709
43	0x3e40a5a3	0.18813185
44	0x3ddde30f	0.108343236
45	0xbd4b10c4	-0.049576536
46	0x3e4149b2	0.18875769
47	0xbdda2e02	-0.106533065
48	0xbc25eaed	-0.010126811
49	0xbc653988	-0.013990767
50	0xbe6f0410	-0.23341393
51	0x3e151d4a	0.14561954
52	0x3b54624a	0.0032407218
53	0xbda42a4a	-0.080158785
54	0x3e3e8bc9	0.18608011
55	0x3e1ea741	0.1549349
56	0x3db24626	0.08704786
57	0xbd3f1508	-0.046650916
58	0xbe93659b	-0.28788456
59	0xbe06d36b	-0.13166587
60	0x3dc33fb3	0.09533634
61	0x3c26515a	0.010151232
62	0xbe42b2ae	-0.19013473
63	0xbce19443	-0.027536517
64	0xbe9643f4	-0.2934872
65	0x3e0821e7	0.13294183
66	0x3c7a1ca0	0.015265614
67	0xbdf541b8	-0.119754255
68	0x3d638694	0.055548266
69	0x3e73e1a1	0.2381654
70	0xbe3b0af5	-0.18265899
71	0x3ebe0731	0.37114862
72	0xbd95b968	-0.07310754
73	0xbdb95505	-0.09049419
74	0xbe3c12c4	-0.18366534
75	0xbe137f0e	-0.14403936
76	0xbe8c0f75	-0.27355543
77	0xbc0a2f81	-0.008434177
78	0x3e149912	0.14511517
79	0x3cc9144f	0.024545817
80	0xbe1f14df	-0.15535305
81	0xbd5f554b	-0.0545247
82	0xbe14a2b9	-0.14515199
83	0x3e1fa53a	0.15590373
84	0x3db89410	0.09012616
85	0x3d2a3279	0.04155204
86	0x3da4eaa6	0.08052568
87	0xbe49ba2d	-0.19699927
88	0xbe520311	-0.20508982
89	0x3d6e4a39	0.058176253
90	0x3ddb4f70	0.10708511
91	0xbd3126d8	-0.043249935
92	0xbd00c06d	-0.03143351
93	0x3e241da8	0.16026938
94	0x3cea1ce5	0.028578231
95	0x3d4cc412	0.049991675
96	0x3df81d42	0.121149555
97	0x3d0b73e2	0.03404606
98	0x3e299a81	0.16562845
99	0xbe03483d	-0.12820525
100	0xbe148b2e	-0.14506218
101	0x3e16bc04	0.1472016
102	0xbe2ffd3d	-0.17186446
103	0x3d74a2fc	0.059725747
104	0x3c09c2cc	0.00840826
105	0x3e022567	0.1270958
106	0xbdc716e3	-0.09721162
107	0x3cefe751	0.029285105
108	0xbda945fb	-0.08265301
109	0x3e518237	0.2045983
110	0xbe1cd002	-0.15313724
111	0x3c8e7109	0.017387884
112	0x3e0e1fe0	0.13879347
113	0xbd63b7aa	-0.055595078
114	0xbd220cb6	-0.039562903
115	0xbb4d749b	-0.003135002
116	0xbe57b138	-0.21063697
117	0xbd16b498	-0.03679332
118	0xbde71448	-0.11283165
119	0x3ba55183	0.0050451173
120	0x3d680438	0.05664465
121	0x3d28a528	0.04117313
122	0xbdc2f3f8	-0.095191896
123	0x3c3108bd	0.010805306
124	0xbcd2f144	-0.02574981
125	0xbd2e5c65	-0.042568583
126	0x3b6b79ab	0.0035930674
127	0xbd89cce0	-0.0672853
128	0xbe588123	-0.21143012
129	0xbe2c283a	-0.1681222
130	0xbba3f786	-0.0050038723
131	0xbd1d72e0	-0.03843963
132	0x3e16f291	0.14740969
133	0xbc809a7b	-0.015698662
134	0xbe15844c	-0.14601249
135	0xbd4ddf38	-0.050261706
136	0x3c2f2c66	0.010691738
137	0xbd80f161	-0.062960394
138	0xbd49d28d	-0.049273062
139	0xbc096122	-0.008384975
140	0xbd315ee2	-0.043303378
141	0xbcf1f010	-0.029533416
142	0xbd59e14c	-0.053193375
143	0xbd0442e4	-0.032290354
144	0xbce72f90	-0.028220922
145	0x3ba350bc	0.0049839895
146	0x3c8ca1e3	0.017167037
147	0xbd3f731e	-0.046740644
148	0x3cdb39af	0.026760904
149	0xbd0cabe8	-0.03434363
150	0xbbc59613	-0.006029853
151	0x3d926eb0	0.07150018
152	0xbdada222	-0.0847819
153	0x3cb127e3	0.021625465
154	0xbc4cfa4c	-0.012510847
155	0x3dbe74fc	0.09299657
156	0x3b76b941	0.003764704
157	0xbc669a8a	-0.014074931
158	0xbdb80f71	-0.0898732
159	0xbc307700	-0.010770559
160	0xbdaa2813	-0.08308425
161	0x3cab7a1c	0.02093225
162	0x3ded4ae3	0.11586549
163	0xbe1024f7	-0.14076601
164	0xbdfe45a2	-0.12415625
165	0x3cd3f6c6	0.025874507
166	0x3d9b20d2	0.07574619
167	0x3c4ffae4	0.012694094
168	0x3bffadb7	0.007802691
169	0x3c73dc62	0.014884086
170	0x3da33c7d	0.079705216
171	0x3d0e69d3	0.03476889
172	0x3c9349c4	0.01797951
173	0x3c3bec1c	0.011469867
174	0xbab70a26	-0.0013964816
175	0x3d2496ea	0.040182985
176	0x3d836068	0.064148724
177	0x3d2c9782	0.042136677
178	0x3c44f0de	0.012020318
179	0x3d71073e	0.058844797
180	0xbc840e0d	-0.016119981
181	0xbdec519e	-0.11539005
182	0xba15c047	-0.00057125505
183	0x3d37b73e	0.044852488
184	0x3da739fb	0.08165356
185	0xbd85f6a9	-0.06541187
186	0xbd1dfae4	-0.038569346
187	0x3d912b62	0.07088353
188	0xbc726d6a	-0.014796594
189	0x3d430ac4	0.04761769
190	0xbc055ec2	-0.008140268
191	0xba0f18ea	-0.00054587296
192	0x3d9b4791	0.075820096
193	0x3d5048e3	0.05085076
194	0x3dd5e394	0.10443798
195	0x3be9d54b	0.007136022
196	0x3cc6d2d9	0.024270462
197	0x3da28e1c	0.079372615
198	0x3c16e91f	0.009210854
199	0x3d034abf	0.032053705
200	0x3cb4baa6	0.022061657
201	0x3c4f2646	0.012643402
202	0xbca18f74	-0.019721724
203	0xbc8cb7aa	-0.017177422
204	0xbd89eb56	-0.0673434
205	0xbcc3cb53	-0.023900663
206	0x3d8a0504	0.06739238
207	0xbcebad71	-0.028769227
208	0xbd97832e	-0.073980674
209	0xbb6829e3	-0.0035425357
210	0x3d4966b9	0.04917023
211	0x3c13498e	0.008989705
212	0x3d28caad	0.04120891
213	0xbd287333	-0.041125488
214	0x3d041b4f	0.032252606
215	0xbce5a773	-0.028033948
216	0xbd141dcb	-0.036161225
217	0x3e4fa607	0.20278178
218	0xbe49b04f	-0.19696163
219	0xbc147bb6	-0.009062698
220	0x3e05040d	0.12989827
221	0xbc786351	-0.015160398
222	0xbd352e0d	-0.04423337
223	0xbd84ea0e	-0.06489955
224	0xbe31aad4	-0.17350322
225	0xbd1ebcc5	-0.038754243
226	0xbd11a624	-0.035558835
227	0x3d01c808	0.031684905
228	0x3d52120a	0.051286735
229	0x3d29b148	0.041428834
230	0xbe11807b	-0.14209168
231	0x3cbdd403	0.023172384
232	0xbc9299d4	-0.017895617
233	0xbdba9665	-0.09110717
234	0x3d1a6e0a	0.037702598
235	0xbbd8ba9e	-0.0066140434
236	0x3dac1152	0.08401741
237	0x3e03f7f0	0.1288755
238	0x3d3acaa8	0.045603424
239	0x3d96f8b1	0.07371653
240	0x3d116ea1	0.035505895
241	0x3dde5ddd	0.10857747
242	0x3de65759	0.11247129
243	0x3d9f34fd	0.077737786
244	0xbcfcdf0c	-0.030868076
245	0x3e2a2267	0.16614686
246	0x3c599c91	0.013281957
247	0xbc6acb52	-0.014330702
248	0x3de3fa55	0.111317314
249	0x3cf55cff	0.02995157
250	0x3e322f12	0.17400768
251	0xbd4622d2	-0.04837305
252	0x3c4c309c	0.012462761
253	0x3c69f85c	0.014280405
254	0x3dc1f6d0	0.09470904
255	0xbcd3e6dd	-0.02586692

conv_stem.1.weight f4 [64]
0	0x3f70eb0a	0.9410864
1	0x3f9564f1	1.167143
2	0x3f6ec9a7	0.9327645
3	0x3f858c63	1.0433468
4	0x3f7a9ed3	0.97898597
5	0x3f8d5186	1.1040504
6	0x3f88b081	1.0678865
7	0x3f7874f4	0.97053456
8	0x3f83df2e	1.0302484
9	0x3f810c82	1.0081942
10	0x3f836171	1.0264112
11	0x3f6e63f4	0.93121266
12	0x3f84c465	1.0372435
13	0x3f62ea56	0.8863882
14	0x3f811c75	1.0086809
15	0x3f7e19f0	0.9925833
16	0x3f7257b5	0.9466508
17	0x3f63ffd0	0.89062214
18	0x3f84f24d	1.0386444
19	0x3f7f8ef1	0.99827486
20	0x3f8b4c44	1.088265
21	0x3f893256	1.0718486
22	0x3f7e8ceb	0.99433774
23	0x3f804225	1.0020186
24	0x3f8481bf	1.0352095
25	0x3f6d90fb	0.9279935
26	0x3f7f995a	0.9984337
27	0x3f6cccc3	0.9249994
28	0x3f6c114e	0.92213905
29	0x3f722c85	0.9459918
30	0x3f885731	1.0651609
31	0x3f7a0831	0.9766875
32	0x3f642765	0.8912261
33	0x3f8545b1	1.0411893
34	0x3f8cf8c0	1.1013412
35	0x3f84c2e9	1.0371982
36	0x3f670212	0.90237534
37	0x3f8be03b	1.0927805
38	0x3f83917f	1.0278777
39	0x3f72bc6f	0.94818777
40	0x3f8304cb	1.0235838
41	0x3f8779f2	1.058409
42	0x3f802f5c	1.0014453
43	0x3f90effe	1.132324
44	0x3f62b70a	0.88560545
45	0x3f72f390	0.94902897
46	0x3f8d007c	1.1015773
47	0x3f700ff3	0.93774337
48	0x3f7859fe	0.9701232
49	0x3f61a333	0.8813965
50	0x3f81afe2	1.01318
51	0x3f6b6135	0.919452
52	0x3f7ab2a9	0.97928864
53	0x3f8badb4	1.0912385
54	0x3f89ffe0	1.0781212
55	0x3f84e74a	1.0383084
56	0x3f88c071	1.0683728
57	0x3f81b4a2	1.013325
58	0x3f6615c3	0.89876956
59	0x3f79ae86	0.97531927
60	0x3f8bbf6c	1.0917792
61	0x3f85b8ad	1.0446984
62	0x3f871de0	1.0555992
63	0x3f7365d3	0.95077246

conv_stem.1.bias f4 [64]
0	0x3d826d6f	0.06368529
1	0xbe01cbb1	-0.12675358
2	0xbd773636	-0.060354434
3	0xbe53938d	-0.20661755
4	0x3e05002b	0.12988345
5	0xbe07d774	-0.13265783
6	0xbd83be1e	-0.06432746
7	0xbe50427d	-0.20337863
8	0xbd9b6765	-0.0758808
9	0x3b9bb78f	0.0047521065
10	0xbdcbbae9	-0.0994776
11	0xbdc3e20f	-0.09564602
12	0xbe0b6913	-0.13614301
13	0xbdc0601a	-0.0939333
14	0xbe120a7d	-0.14261813
15	0xbe2aa3e1	-0.16664077
16	0xbd24a116	-0.040192686
17	0xbe0d8aa1	-0.13822414
18	0xbe220aab	-0.15824382
19	0xbdf6388f	-0.120225064
20	0xbda5bc7e	-0.08092593
21	0xbe6cde55	-0.23131688
22	0x3d0f079d	0.03491937
23	0xbdeb29fd	-0.11482618
24	0xbdcb46b5	-0.09925596
25	0xbcff96d3	-0.031199848
26	0xbe65b4a7	-0.22432195
27	0xbde1fdc2	-0.110347286
28	0xbde138ff	-0.10997199
29	0xbdafbbc0	-0.08580732
30	0xbd521882	-0.051292904
31	0x3971a28a	0.00023044102
32	0xbd28f51f	-0.04124939
33	0xbe0e6a80	-0.13907814
34	0xbdfb9302	-0.12283899
35	0x3e06c5f9	0.13161458
36	0xbd106d9d	-0.035260785
37	0xbdedba8f	-0.11607849
38	0x3c6c375b	0.014417495
39	0xbd114d91	-0.035474364
40	0xbe32bc55	-0.17454655
41	0xbe0d6678	-0.1380862
42	0xbe5b2864	-0.21402127
43	0xbe0b955f	-0.136312
44	0xbe610ca9	-0.21977486
45	0xbe66e825	-0.22549494
46	0xbd9c29d2	-0.07625164
47	0xbd402af6	-0.04691597
48	0xbe9755e4	-0.29557717
49	0xbde227bd	-0.11042736
50	0xbcac9194	-0.02106551
51	0xbe30fb42	-0.17283347
52	0xbdc3f842	-0.09568836
53	0x3c00c4ae	0.007859392
54	0xbde84726	-0.113416955
55	0xbc8b2af3	-0.016988253
56	0xbd9712ac	-0.07376608
57	0xbd4133e7	-0.04716864
58	0x3d785850	0.060631096
59	0xbd22af8f	-0.039718207
60	0x3c9c30a6	0.019066166
61	0xbdde31e8	-0.108493626
62	0xbd888036	-0.06665079
63	0xbc1bd331	-0.009510801

conv_stem.1.running_mean f4 [64]
0	0xbee6c76d	-0.45074025
1	0xbe42aa2e	-0.19010231
2	0x3d1108be	0.035408728
3	0x3e6d4fba	0.23174945
4	0xbed17819	-0.4091194
5	0xbe6ddaf1	-0.23228051
6	0xbf239826	-0.63904035
7	0xbe5504f9	-0.20802678
8	0xbe805b4c	-0.25069654
9	0xbf041078	-0.5158763
10	0xbedf6bfa	-0.43637067
11	0xbdff8a70	-0.12477577
12	0x3e1b21bb	0.15149586
13	0xbf0fa5e4	-0.56112504
14	0x3eaa11d7	0.33216736
15	0xbeb2eebe	-0.3494777
16	0xbe14923d	-0.1450891
17	0x3eb1d866	0.3473541
18	0xbed87ce6	-0.4228279
19	0x3db42ef6	0.087980196
20	0xbf83d96e	-1.0300729
21	0xbe9f9b26	-0.31173056
22	0x3c44a33b	0.012001808
23	0xbeef4e5b	-0.46739468
24	0xbf5b5e8f	-0.8569116
25	0xbe8c48a3	-0.27399167
26	0xbda9542e	-0.08268009
27	0xbc768ab7	-0.015047721
28	0x3f276bd2	0.65398896
29	0x3e22479c	0.1584763
30	0xbe9a7e5c	-0.3017453
31	0xbf3f7a29	-0.74795777
32	0xbec1dd7b	-0.3786429
33	0xbedf3ced	-0.4360117
34	0xbee1c858	-0.44098163
35	0xbf36e328	-0.7144036
36	0x3f3179f5	0.69326717
37	0xbf11588e	-0.5677575
38	0xbf6a9426	-0.91632307
39	0xbf3e098b	-0.7423331
40	0xbf96e049	-1.1787196
41	0xbe3f89f5	-0.1870497
42	0xbdf1c60e	-0.11805354
43	0xbf5b0d7a	-0.8556744
44	0x3e2e1569	0.17000355
45	0xbedfba96	-0.4369704
46	0xbde95f63	-0.11395147
47	0xbd2ba38a	-0.04190401
48	0x3eb0a78b	0.34502825
49	0x3f0ec90c	0.55775523
50	0xbf2c6637	-0.6734347
51	0xbec249bb	-0.37946877
52	0xbe7c79ff	-0.24655913
53	0xbea8f595	-0.32999864
54	0xbe0af851	-0.13571288
55	0xbe536e92	-0.20647648
56	0xbef3271b	-0.47490773
57	0xbeb4b2dc	-0.3529271
58	0x3e855c84	0.26047146
59	0x3eaab0a1	0.33337882
60	0xbf289074	-0.6584542
61	0xbf6a5a8b	-0.9154441
62	0xbf3a3515	-0.72737247
63	0x3ed955a0	0.4244814

conv_stem.1.running_var f4 [64]
0	0x3e96ba83	0.29439172
1	0x3eaa1129	0.33216217
2	0x3e846439	0.25857714
3	0x3e65e881	0.22451974
4	0x3e9728f1	0.29523423
5	0x3e8784d8	0.2646854
6	0x3eda6453	0.42654666
7	0x3e844adf	0.25838372
8	0x3f42ee4d	0.7614487
9	0x3f020c94	0.5080044
10	0x3e84d272	0.25941807
11	0x3ed522f1	0.4162822
12	0x3e9c919a	0.30579835
13	0x3ea7ece9	0.32797936
14	0x3e9fee00	0.31236267
15	0x3e9506c3	0.2910672
16	0x3e8a3ab5	0.26997915
17	0x3ea9328c	0.33046377
18	0x3ec55077	0.38537952
19	0x3e537850	0.20651364
20	0x3eb171fe	0.34657282
21	0x3e877049	0.26452854
22	0x3e9d97d1	0.3077989
23	0x3ecbe765	0.39824978
24	0x3eb35179	0.35023096
25	0x3ea9e841	0.33185008
26	0x3ed3d839	0.41375902
27	0x3ea1240a	0.31472808
28	0x3ede86c3	0.4346219
29	0x3e9f9001	0.31164554
30	0x3e837cd1	0.25681165
31	0x3ea1a590	0.31571627
32	0x3ee32494	0.44363844
33	0x3e8d38e5	0.2758247
34	0x3ec07c1f	0.37594697
35	0x3e9820b9	0.29712465
36	0x3eaf14e2	0.3419562
37	0x3eb668fe	0.35626978
38	0x3eac64ec	0.33670747
39	0x3eb94948	0.36188722
40	0x3ef235d4	0.47306693
41	0x3e71be57	0.23607765
42	0x3e5bb277	0.21454798
43	0x3ec19caa	0.37814838
44	0x3eb36753	0.35039768
45	0x3e954efe	0.2916183
46	0x3e8f1424	0.27945054
47	0x3f36d1ae	0.71413696
48	0x3ecec9c0	0.40388298
49	0x3e92b44e	0.28653187
50	0x3eeafc15	0.45895448
51	0x3e93435c	0.2876233
52	0x3e8b7fa8	0.2724583
53	0x3ee681ab	0.45020804
54	0x3f0088ec	0.50208926
55	0x3e489fa9	0.19592156
56	0x3ed37e56	0.41307324
57	0x3e9aa842	0.30206496
58	0x3ea10efa	0.3145674
59	0x3e8c68fd	0.2742385
60	0x3ec9ebe6	0.3943779
61	0x3eda2451	0.42605832
62	0x3ec6fb3b	0.3886355
63	0x3e9a6472	0.3015476

conv_stem.3.weight f4 [64, 64, 3, 3]
0	0x3d9306bd	0.071790196
1	0x3d730094	0.059326723
2	0xbc7e0b15	-0.015505572
3	0x3c8fa777	0.017535908
4	0xbdb54b53	-0.088522576
5	0xb975b758	-0.00023433322
6	0x3cdea7da	0.027179647
7	0x3d52d3e3	0.051471602
8	0xbde89fc3	-0.11358597
9	0x3d178f37	0.037001815
10	0x39dda608	0.00042276108
11	0xbdfa7f79	-0.12231345
12	0xbd78a512	-0.0607043
13	0x3de40493	0.11133685
14	0x3d0849ac	0.033273384
15	0xbcd74085	-0.026275882
16	0xbd09c067	-0.033630755
17	0xbd291641	-0.04128099
18	0xbd9ecd24	-0.07753971
19	0xbd6247d0	-0.055244267
20	0xbd87cc2a	-0.06630738
21	0x3da16fd1	0.078826554
22	0x3c6e9051	0.014560775
23	0x3d8e31d9	0.069431014
24	0xbd56446c	-0.052311346
25	0x3da903c3	0.082526706
26	0xbd58c077	-0.052917924
27	0xbdd8f969	-0.10594446
28	0xbd63be9e	-0.05560171
29	0x3d68e998	0.056863397
30	0xbda7c594	-0.08191982
31	0x3d52e54f	0.051488217
32	0xbda0577b	-0.078291856
33	0xbd4895a5	-0.048970837
34	0xbe14f22d	-0.14545508
35	0x3d3c140b	0.045917552
36	0x3d3e9272	0.04652638
37	0x3b35d8c3	0.0027747608
38	0xbdbb7733	-0.09153595
39	0x3bac4dcd	0.005258298
40	0xbd3dc68f	-0.04633194
41	0xbd05a74f	-0.03263026
42	0x398c45c5	0.00026754863
43	0xbca0502f	-0.019569485
44	0xbdd83c21	-0.10558344
45	0xbde4e10c	-0.11175737
46	0xbe2f0fbc	-0.17095846
47	0x3d3266d0	0.04355508
48	0x3de23351	0.11044944
49	0xbdd1e30b	-0.10248383
50	0x3b813c63	0.0039439662
51	0x3cd9be85	0.026580105
52	0xbdf53635	-0.1197323
53	0xbd6d1c5f	-0.057888385
54	0x3d853a63	0.06505277
55	0x3d72b700	0.059256554
56	0x3d98ee13	0.07467284
57	0xba1ec53b	-0.00060566113
58	0xbd77d458	-0.06050524
59	0x3c11d5ab	0.00890104
60	0x3dc056bd	0.09391544
61	0x3e485db9	0.19567002
62	0xbe3e7f2c	-0.186032
63	0xbd3bca14	-0.045847014
64	0xbbe92e2b	-0.0071160994
65	0x3dbb1497	0.091347866
66	0x3cb4979f	0.022044955
67	0x3c384670	0.011247262
68	0xbd2d8f1c	-0.042372808
69	0x3d338ee0	0.043837428
70	0xbc909375	-0.017648438
71	0xbc4be25e	-0.012444107
72	0xbd687ea9	-0.056761418
73	0xbd263b9f	-0.040584203
74	0x3cbe8db8	0.023260936
75	0xbd0bbd4a	-0.034116067
76	0xbcb97042	-0.022636537
77	0x3c8c0172	0.017090533
78	0xbd4484ab	-0.047978085
79	0xbb6ad50a	-0.0035832548
80	0x3d6eb51e	0.058278196
81	0x3d8bb6b2	0.06821956
82	0xbd08141b	-0.0332223
83	0xbda42095	-0.08014027
84	0x3dfa0427	0.12207823
85	0x3c1a76b9	0.00942772
86	0xbb7b1719	-0.0038313328
87	0x3de529fa	0.11189647
88	0x3de293ca	0.11063345
89	0x3cca37d2	0.02468482
90	0x3ca45121	0.020058217
91	0x3c7c065a	0.015382374
92	0xbdd14547	-0.10218292
93	0x3accd0ec	0.0015626228
94	0x3ca7b8d7	0.02047388
95	0x3d25b1cf	0.040452775
96	0x3c5898af	0.013219996
97	0xbcbd1a19	-0.023083733
98	0x3ca4dc52	0.020124588
99	0x3cd36cab	0.025808653
100	0x3d8367d8	0.06416291
101	0xbdb59fe3	-0.088683866
102	0x3d019efa	0.031645752
103	0x3db81cc5	0.08989862
104	0xbde35f24	-0.11102131
105	0x3ddfb8af	0.109238975
106	0x3dda26e6	0.106519505
107	0xbdf7c4f1	-0.120981105
108	0xbd74fc39	-0.05981085
109	0xbb74b0c9	-0.0037336817
110	0x3daa932e	0.083288535
111	0xbde9ce85	-0.114163436
112	0x3d9f49db	0.07777759
113	0x3e029671	0.12752701
114	0x3bc4ed3a	0.006009725
115	0x3d78e0a5	0.060761113
116	0x3c08d891	0.008352415
117	0x3cd17925	0.025570462
118	0xbd833b68	-0.06407815
119	0x3e3365fb	0.17519371
120	0x3d0f39e6	0.034967326
121	0x3d5d5d62	0.054044135
122	0x3d19667b	0.03745125
123	0xbce11239	-0.02747451
124	0x3d7e1a54	0.062036827
125	0xbd065087	-0.03279164
126	0x3cee691f	0.02910286
127	0xbd95b85f	-0.073105566
128	0xbd412eca	-0.047163762
129	0x3d0ee0da	0.034882404
130	0xbd81b986	-0.06334214
131	0x3dc5843a	0.09644361
132	0x3aed1681	0.0018088372
133	0x3d54067c	0.051763996
134	0x3dd0be08	0.101924956
135	0x3d091341	0.033465628
136	0xbe2f1707	-0.17098628
137	0x3e1c5b0a	0.15269104
138	0x3e102cc7	0.14079581
139	0x3d247172	0.040147252
140	0xbd8c98cc	-0.06865081
141	0xbe012a6d	-0.1261384
142	0xbc935c02	-0.017988209
143	0x3df4a1e9	0.119449444
144	0x3c15c27f	0.00914061
145	0xbd82e799	-0.0639183
146	0x3e07b8b5	0.13254054
147	0xbe44eda9	-0.19231285
148	0xbd44d216	-0.048051916
149	0x3da6106a	0.081085995
150	0xbd9c1073	-0.07620325
151	0x3daf98c6	0.08574061
152	0xbcadd767	-0.021220876
153	0x3bb5780a	0.0055379914
154	0xbc893b87	-0.016752018
155	0xbd83a154	-0.06427255
156	0x3d082134	0.03323479
157	0xbbaad32b	-0.0052131615
158	0xbd5d8ede	-0.054091327
159	0x3ba7a0c8	0.005115602
160	0x3d3cd1f7	0.046098676
161	0x3d0f8f70	0.035048902
162	0x3e2aa7a0	0.16665506
163	0xbd6ae7ca	-0.057349958
164	0xbd28c18c	-0.041200206
165	0xbd7d284f	-0.06180602
166	0x3b88d844	0.0041761715
167	0xb9fde936	-0.00048429676
168	0x3d8c7eef	0.06860148
169	0x3c7551bb	0.014973099
170	0xbd908134	-0.070558935
171	0xbd8cb6e1	-0.06870819
172	0xbda184fa	-0.078866914
173	0x3ca7a568	0.020464614
174	0x3d03d34b	0.032183927
175	0xbd38b3c0	-0.045093298
176	0xbd0fa53d	-0.035069693
177	0x3da220b3	0.07916393
178	0xbce30d8c	-0.02771642
179	0xbccaea3e	-0.024769899
180	0x3d2d4718	0.04230413
181	0x3b6d3755	0.003619631
182	0x3d83c571	0.06434143
183	0x3d28396d	0.04107039
184	0xbd811fae	-0.063048705
185	0xbd3175ba	-0.043325163
186	0x3e0db520	0.13838625
187	0xbda53918	-0.080675304
188	0xbb2a1e77	-0.00259581
189	0x3ddd5e0e	0.10808955
190	0x3c768152	0.015045481
191	0xbc9bf153	-0.01903597
192	0xbd25ee61	-0.04051054
193	0xbdb0cada	-0.08632441
194	0xbd2cd3e2	-0.042194255
195	0xbbdfa601	-0.006825209
196	0x3c7ecf41	0.015552343
197	0x3d165a7e	0.036707394
198	0x3d044b60	0.032298446
199	0x3c116cf9	0.008876079
200	0xbd1047d6	-0.035224758
201	0x3d865a59	0.06560201
202	0x3d4c64cc	0.049900815
203	0x3d25cb57	0.040477123
204	0xbb0f27df	-0.0021843833
205	0x3da4defe	0.08050345
206	0x3cbccdee	0.023047414
207	0xbc08794b	-0.0083297
208	0xbd87cf24	-0.06631306
209	0xbc9642e5	-0.018342445
210	0x3dbf8770	0.093520045
211	0x3e02c704	0.12771231
212	0x3c8b77e5	0.017024944
213	0x3dda7114	0.10666099
214	0x3dad3f9f	0.084594004
215	0xbd7efea2	-0.062254556
216	0xbb58caae	-0.003307979
217	0x3db97d8e	0.09057151
218	0x3d940e02	0.07229234
219	0xbc2f36dc	-0.010694232
220	0xbdce5ae7	-0.10075932
221	0xbe228b43	-0.15873437
222	0xbd944e94	-0.0724155
223	0xbd62e262	-0.055391677
224	0x3c09d045	0.008411472
225	0x3c6bbb86	0.014387971
226	0x3d8bcd0d	0.0682622
227	0x3dca17e6	0.098678395
228	0xbd6cbc18	-0.057796568
229	0xbd4fa162	-0.050691016
230	0xbb98da03	-0.004664661
231	0x3dd9bd1e	0.10631774
232	0xbd61eadd	-0.055155624
233	0x3b958e03	0.0045640483
234	0xbd026fac	-0.03184478
235	0xbd3cd173	-0.046098184
236	0xbc171f62	-0.009223791
237	0x3d79768e	0.06090408
238	0x3dcf8804	0.10133365
239	0x3d7411b1	0.059587184
240	0x3dfddb47	0.123953395
241	0x3d2b295a	0.041787483
242	0x3d781b77	0.060573068
243	0x3d1d8cf2	0.038464494
244	0x3d949d32	0.07256545
245	0xbdf5e10a	-0.120058134
246	0x3c04b6e1	0.008100242
247	0x3dec8324	0.115484506
248	0x3e0f0109	0.13965239
249	0x3d9dd9b5	0.0770754
250	0xbd6f43b8	-0.05841419
251	0xbb7e1d82	-0.0038774912
252	0x3cf4b63d	0.029872054
253	0xbd42e7dd	-0.047584403
254	0xbe09620e	-0.13416311
255	0x3d83dc24	0.06438473

conv_stem.4.weight f4 [64]
0	0x3f7cf47a	0.9881054
1	0x3f7474f3	0.9549095
2	0x3f7267d8	0.94689703
3	0x3f7c224b	0.98489827
4	0x3f76ebb3	0.964534
5	0x3f7e046a	0.99225485
6	0x3f79cce2	0.9757825
7	0x3f7ef4c1	0.99592215
8	0x3f73b948	0.9520459
9	0x3f807cd5	1.0038096
10	0x3f7ddad7	0.9916205
11	0x3f76041d	0.96100026
12	0x3f7e64b8	0.99372435
13	0x3f79d80c	0.97595286
14	0x3f7eeead	0.9958294
15	0x3f7ec8ea	0.9952532
16	0x3f795787	0.9739918
17	0x3f7f138f	0.9963922
18	0x3f793353	0.9734394
19	0x3f80349c	1.0016055
20	0x3f7b61e6	0.98196256
21	0x3f7ef643	0.99594516
22	0x3f833aea	1.0252354
23	0x3f711630	0.9417448
24	0x3f703d90	0.93843937
25	0x3f785f69	0.97020584
26	0x3f8101af	1.0078639
27	0x3f81489d	1.0100285
28	0x3f727326	0.9470695
29	0x3f7e1451	0.9924975
30	0x3f7f84fc	0.99812293
31	0x3f6e7572	0.9314796
32	0x3f7b9fd4	0.98290753
33	0x3f74b054	0.95581555
34	0x3f7cbcc2	0.9872552
35	0x3f7e31aa	0.9929453
36	0x3f74c025	0.9560569
37	0x3f8115f0	1.008482
38	0x3f88ce8d	1.0688034
39	0x3f7b2595	0.9810422
40	0x3f76fd1e	0.96479976
41	0x3f7effcc	0.99609065
42	0x3f80e5ed	1.0070168
43	0x3f7c0194	0.9843991
44	0x3f8133cd	1.0093933
45	0x3f80369a	1.0016663
46	0x3f79b071	0.97534853
47	0x3f7ab20a	0.97927916
48	0x3f7d423a	0.9892918
49	0x3f7ec72c	0.9952266
50	0x3f77532c	0.96611285
51	0x3f788715	0.9708112
52	0x3f82683e	1.0188062
53	0x3f798d58	0.974813
54	0x3f78ce27	0.97189564
55	0x3f7d2834	0.9888947
56	0x3f7aeb27	0.98015064
57	0x3f7d1ba2	0.9887029
58	0x3f7d9d04	0.9906771
59	0x3f80a9e0	1.0051842
60	0x3f7ba146	0.9829296
61	0x3f7bc7d8	0.9835181
62	0x3f80f24f	1.0073947
63	0x3f7b92ea	0.9827105

conv_stem.4.bias f4 [64]
0	0xbe021c96	-0.12706217
1	0xbe2f6d36	-0.17131504
2	0xbd8f742e	-0.070045814
3	0xbd9ebe2e	-0.07751118
4	0xbe4ac210	-0.19800591
5	0xbde355c3	-0.11100342
6	0xbda2f0a9	-0.079560585
7	0xbd8bd12e	-0.06827007
8	0xbe0709f1	-0.13187386
9	0xbdc9d0e7	-0.09854298
10	0xbda52f1b	-0.08065625
11	0xbd72b0f3	-0.059250783
12	0xbdc88dfd	-0.09792707
13	0xbe033e43	-0.1281672
14	0xbd761322	-0.06007684
15	0xbdb3c2a2	-0.08777358
16	0xbdb5c74b	-0.08875903
17	0xbdcdf236	-0.10055964
18	0xbde0563e	-0.109539494
19	0xbdc6756b	-0.096903645
20	0xbd6c1154	-0.057633713
21	0xbdcb0c33	-0.09914436
22	0xbe0421c6	-0.12903509
23	0xbda1e9e1	-0.07905937
24	0xbe0c5b41	-0.13706686
25	0xbe05d2af	-0.1306865
26	0xbd9a657a	-0.07538886
27	0xbd640ae4	-0.05567445
28	0xbe1dbcdd	-0.15404077
29	0xbd9d642c	-0.07685122
30	0xbdb2d9aa	-0.087329224
31	0xbde97fb7	-0.11401313
32	0xbdb887d5	-0.09010283
33	0xbe48cb11	-0.19608714
34	0xbd810980	-0.0630064
35	0xbd12ba7f	-0.035822388
36	0xbd763b8e	-0.06011539
37	0xbdef233f	-0.116766445
38	0xbd7fe911	-0.06247813
39	0xbd9872b6	-0.074437544
40	0xbda2c047	-0.0794683
41	0xbdaaed84	-0.08346084
42	0xbd539dda	-0.05166421
43	0xbdbd1a8e	-0.092335805
44	0xbd8f526e	-0.06998144
45	0xbdd4cf91	-0.10391153
46	0xbdb8debf	-0.090268604
47	0xbda2e5f4	-0.07954016
48	0xbd160847	-0.036628988
49	0xbdb0db19	-0.086355396
50	0xbdcb4b3c	-0.09926459
51	0xbdcd9cbd	-0.10039661
52	0xbd889b36	-0.06670229
53	0xbd9ca588	-0.0764876
54	0xbdb72ae6	-0.08943729
55	0xbd4e0f85	-0.05030777
56	0xbd6cd102	-0.057816513
57	0xbdc20c6d	-0.09475026
58	0xbd8ac780	-0.06776333
59	0xbdac2a26	-0.08406477
60	0xbdb56cbb	-0.08858629
61	0xbd890498	-0.06690329
62	0xbd567d0f	-0.05236536
63	0xbdb8e676	-0.09028332

conv_stem.4.running_mean f4 [64]
0	0x3ee1e1c9	0.44117573
1	0x3fb78b71	1.4339429
2	0x3f48a986	0.7838367
3	0x3f3eda86	0.7455219
4	0x3dd42efb	0.10360523
5	0x3d943c7b	0.07238098
6	0xbda8b7a4	-0.08238152
7	0x3f68178e	0.9066094
8	0x3e0c80d7	0.13721023
9	0xbdd7ef6a	-0.105437115
10	0x3e382145	0.17981441
11	0xbfcf28d0	-1.618433
12	0x3d12ada9	0.035810146
13	0x3fb7487d	1.4318997
14	0xbdeec6a8	-0.116589844
15	0x3d768933	0.060189437
16	0xbf2c5289	-0.6731344
17	0xbf4483b8	-0.76763487
18	0x3da8e16c	0.08246121
19	0xbec1bc9b	-0.37839207
20	0x3db5a41f	0.08869194
21	0x3e8082e3	0.2509986
22	0xbe96010d	-0.29297677
23	0xbcf1b8ee	-0.029507127
24	0xbe842589	-0.25809887
25	0x3f19d9a5	0.60097724
26	0x3f8e82fc	1.1133723
27	0x3f4bd3c0	0.7961998
28	0xbe8cb8ff	-0.2748489
29	0x3f0c375c	0.5477197
30	0x3a8ddf79	0.0010824046
31	0x3f009927	0.5023369
32	0xbd16648e	-0.03671699
33	0x3ece50ad	0.40295926
34	0x3e8f1fcb	0.27953944
35	0xbe49380a	-0.19650283
36	0xbecd9733	-0.40154418
37	0x3edec7b0	0.43511724
38	0x3eff7fc7	0.49902174
39	0xbea66bd3	-0.32504138
40	0xbf07083f	-0.5274696
41	0xbf05eb98	-0.5231261
42	0x3e06a0b5	0.13147242
43	0xbe8396ef	-0.2570109
44	0xbf3d0e94	-0.7385037
45	0xbe6124fa	-0.21986762
46	0x3e0f8253	0.14014558
47	0xbf59cf17	-0.8508162
48	0x3f968ac4	1.1761098
49	0xbfa1efb5	-1.2651278
50	0xbe12c7bc	-0.14334005
51	0xbf18b69e	-0.5965365
52	0xbf73b2b2	-0.9519454
53	0x3ee02f86	0.43786258
54	0xbf6648f1	-0.8995505
55	0x3ea4189f	0.32050034
56	0xbe8af7c4	-0.27142155
57	0x3f2cc38b	0.67485875
58	0xbd84030e	-0.06445895
59	0xbf4f83b7	-0.81060356
60	0x3d087414	0.033313826
61	0x3ea4183c	0.3204974
62	0xbf957d40	-1.1678848
63	0xbe48df02	-0.1961632

conv_stem.4.running_var f4 [64]
0	0x3f7fa266	0.99857175
1	0x3f8a0cb3	1.0785125
2	0x3f9cb78e	1.2243516
3	0x3f94a788	1.1613626
4	0x3f8408ce	1.0315187
5	0x3fa185f5	1.2619005
6	0x3f94ad95	1.1615473
7	0x3f91cfc6	1.1391532
8	0x3f84db5a	1.0379441
9	0x3f9f1327	1.242772
10	0x3f6ee5d0	0.93319416
11	0x3f73591f	0.95057863
12	0x3f9b0ee2	1.2113917
13	0x3f57c4d0	0.8428469
14	0x3f587119	0.84547573
15	0x3f4bf3d0	0.79668903
16	0x3f6698da	0.9007698
17	0x3f842226	1.0322921
18	0x3f6dcad8	0.9288764
19	0x3f94094c	1.1565337
20	0x3f988bb5	1.1917635
21	0x3f659772	0.8968421
22	0x3f9d6e10	1.2299213
23	0x3f9e6f7c	1.2377772
24	0x3f529eb6	0.82273424
25	0x3f61bb45	0.88176376
26	0x3f90fae1	1.1326562
27	0x3f832779	1.0246421
28	0x3f4ff5af	0.8123426
29	0x3f95f067	1.171399
30	0x3f88b2c7	1.0679559
31	0x3f7eeb1c	0.995775
32	0x3f4a8d8f	0.7912225
33	0x3f685f9c	0.9077089
34	0x3f4edbbd	0.80804044
35	0x3f8135b4	1.0094514
36	0x3f8e27e6	1.1105926
37	0x3f81d9ac	1.0144553
38	0x3fbed964	1.4910092
39	0x3f8b726b	1.0894293
40	0x3f6b37a9	0.91881806
41	0x3f7d1de5	0.9887374
42	0x3fa99422	1.3248332
43	0x3f912e31	1.1342221
44	0x3f503281	0.8132706
45	0x3f9b460e	1.2130754
46	0x3f8e3e42	1.111275
47	0x3f7fc9e9	0.99917465
48	0x3f81fecb	1.0155882
49	0x3f8e789e	1.113056
50	0x3f678522	0.9043752
51	0x3f990932	1.1955931
52	0x3fd5dbf9	1.6707755
53	0x3f78c057	0.9716849
54	0x3fbc26e7	1.4699372
55	0x3f4d6411	0.80230814
56	0x3f6386f2	0.88877785
57	0x3f429404	0.76007104
58	0x3f59c228	0.85061884
59	0x3f891ea1	1.0712472
60	0x3f77e2c6	0.96830404
61	0x3f8dc45d	1.107555
62	0x3fb3a240	1.403389
63	0x3f6c88bc	0.9239614

proj.weight f4 [64, 64, 1, 1]
0	0xbd9324db	-0.07184764
1	0x3e16d47c	0.14729494
2	0x3e2b172e	0.16708061
3	0xbe194746	-0.14968595
4	0xbc530da3	-0.012881669
5	0xbe0aacf1	-0.13542534
6	0x3ca13ef2	0.019683335
7	0x3c6312ae	0.013859434
8	0x3dc19990	0.09453118
9	0xbd1fba46	-0.038996004
10	0x3cbded8f	0.023184566
11	0xbda8867c	-0.08228776
12	0x3d19ea4e	0.037576966
13	0xbbc5bd53	-0.006034532
14	0x3dbdc5b3	0.09266224
15	0x3d53bfd1	0.051696602
16	0x3d9f0af6	0.077657625
17	0x3deae65f	0.11469721
18	0x3de1a0d3	0.11017003
19	0xbc3f2db2	-0.011668609
20	0x3d82eda0	0.063929796
21	0x3ce6308b	0.028099319
22	0xbd97dab0	-0.07414758
23	0x3dfe0f5f	0.124052756
24	0x3e08e106	0.1336709
25	0x3db3a5e9	0.08771879
26	0xbe465045	-0.19366558
27	0xbe10c164	-0.14136273
28	0x3e1a3bfa	0.15061942
29	0x3d11b9b6	0.0355775
30	0x3d2cd4bf	0.042195078
31	0xbb1c9683	-0.0023893423
32	0x3d404394	0.046939448
33	0xbd1f1765	-0.03884067
34	0xbc17f6a0	-0.009275109
35	0x3ca96f69	0.020683007
36	0xbd859607	-0.06522756
37	0x3d579ec0	0.05264163
38	0xbe0deb2a	-0.13859239
39	0x3c492547	0.012276954
40	0xbd91e31b	-0.07123395
41	0xbd229b26	-0.039698742
42	0xbe07ec8c	-0.13273829
43	0x3d7435ef	0.059621748
44	0xbd86b85e	-0.06578134
45	0xbdafc0aa	-0.0858167
46	0x3deb2eb7	0.114835195
47	0xbd641810	-0.05568701
48	0x3e09521a	0.13410226
49	0x3e2f7153	0.17133074
50	0x3c8855fd	0.016642565
51	0xbca048b9	-0.019565927
52	0xbdab7bff	-0.0837326
53	0xbd366c77	-0.044537034
54	0xbd9f14ae	-0.07767616
55	0x3d6eaf4b	0.05827264
56	0xbca19bd0	-0.019727618
57	0xbd242447	-0.04007366
58	0xbdbba887	-0.091630034
59	0x3d51f8e4	0.05126275
60	0xbe090a1a	-0.1338276
61	0x3ce59fc2	0.02803028
62	0x3dffa3f3	0.12482443
63	0x3e11c814	0.1423648
64	0x3deb6831	0.11494482
65	0xbd2980bb	-0.041382533
66	0x3d6e4dac	0.058179542
67	0xbd43bd67	-0.04778805
68	0xbe277c0a	-0.16355911
69	0x3dddc989	0.108294554
70	0x3ddd49f9	0.10805125
71	0x3dbea87d	0.0930948
72	0x3cf24f21	0.029578747
73	0xbd13101f	-0.035904046
74	0x3c55fecd	0.0130612375
75	0x3d95468a	0.07288845
76	0x3cab1d37	0.020887954
77	0xbc172a33	-0.00922637
78	0xbd8d0c88	-0.06887156
79	0x3d8bd066	0.06826858
80	0x3b81dfda	0.0039634528
81	0x3dc8c8d7	0.09803932
82	0x3e1c5f93	0.15270834
83	0x3ce82136	0.028336149
84	0xbceaa99b	-0.028645327
85	0xbac29eb1	-0.0014848319
86	0x3e0431b5	0.12909587
87	0x3e15c562	0.14626077
88	0x3d8cc757	0.068739586
89	0xbde2ec59	-0.11080236
90	0xbca29d24	-0.019850321
91	0xbcffe2f9	-0.031236159
92	0x3d9d5dcb	0.07683905
93	0xbd2b11c5	-0.041764993
94	0xbdb11566	-0.086466596
95	0x3d5cff06	0.053954147
96	0x3cb13ebf	0.021636365
97	0xbdb0ba4d	-0.08629284
98	0x3e12819b	0.14307253
99	0x3b8bd5df	0.004267439
100	0xbde7139c	-0.11283037
101	0x3d9399ec	0.07207093
102	0xbd809227	-0.06277876
103	0xbd27dc1d	-0.0409814
104	0x3db82b1f	0.089926
105	0x3cfbc134	0.030731775
106	0x3d3ca28e	0.04605346
107	0x3c6902b2	0.014221834
108	0xbe2a279f	-0.16616677
109	0x3def0d8e	0.11672507
110	0xbd0937dc	-0.033500537
111	0xbd1e0f56	-0.038588844
112	0x3cc8ae2b	0.024497112
113	0xbe493ed0	-0.19652867
114	0x3c5fac28	0.013651885
115	0x3daf4d9e	0.08559726
116	0x3d94f77d	0.07273767
117	0xbd7f29cb	-0.062295716
118	0xbc4f1f6d	-0.01264177
119	0x3e079340	0.13239765
120	0xbdc466c6	-0.09589915
121	0xbd330962	-0.04371012
122	0xbdd2f16f	-0.10299956
123	0x3c25c02b	0.010116617
124	0x3cb8f189	0.02257611
125	0x3cd4da4b	0.025982996
126	0x3de5c44f	0.112190835
127	0xbdbc9b3b	-0.09209295
128	0x3c39a741	0.01133138
129	0xbd448dbf	-0.047986742
130	0xbcc19261	-0.02362937
131	0x3d5f32eb	0.05449192
132	0xbdec5d70	-0.11541259
133	0x3be28c26	0.0069136797
134	0xbd144057	-0.03619417
135	0x3b6f70bb	0.0036535698
136	0xbda071ab	-0.078341804
137	0xbc7a5bbb	-0.015280659
138	0x3d8450f8	0.06460756
139	0xbd4d488e	-0.05011802
140	0x3a3e2325	0.0007253162
141	0x3e079024	0.13238579
142	0xbb9f4ffd	-0.0048618303
143	0x3e12af6d	0.14324732
144	0xbe027cde	-0.12742946
145	0xbe28ef35	-0.164975
146	0xbdff0e5f	-0.12453913
147	0xbcbf2d34	-0.023336984
148	0xbd537d1a	-0.051632978
149	0x3dc2e84e	0.09516965
150	0xbc2e2b29	-0.010630407
151	0x3dc6fd89	0.09716327
152	0x3e07f57f	0.13277243
153	0x3d7065be	0.05869078
154	0xbd41b1ff	-0.04728889
155	0x3c800591	0.015627654
156	0x3d8bb773	0.068220995
157	0xbe2de337	-0.16981207
158	0x3da407bf	0.0800929
159	0x3e252b60	0.16129827
160	0x3dd2a324	0.10285023
161	0x3e5640b0	0.20923114
162	0xbd8d0023	-0.06884792
163	0xbda4ec4a	-0.08052881
164	0x3e06f1f1	0.13178231
165	0xbdefcdd5	-0.11709181
166	0x3dd28771	0.1027974
167	0x3debfb18	0.11522502
168	0xbbb357b1	-0.0054731
169	0xbd71eb2b	-0.059062164
170	0x3d747127	0.059678223
171	0xbd9e5b81	-0.07732297
172	0xbdf8c934	-0.121477515
173	0xbd2e95af	-0.04262322
174	0xbd326be6	-0.04355993
175	0x3d352c8d	0.04423194
176	0xbd2bf057	-0.041977253
177	0x3d0307ff	0.031990048
178	0x3cf380bd	0.029724473
179	0x3db5cda4	0.088771135
180	0xbe081fb9	-0.13293351
181	0x3d74fbda	0.059810497
182	0x3cb4d084	0.022072084
183	0x3de42fd2	0.111419335
184	0xbe2833f4	-0.16426069
185	0x3d442a02	0.047891624
186	0xbd9f2e01	-0.077724464
187	0xbd8ae8cb	-0.06782683
188	0x3c67f2e8	0.014157034
189	0x3d75a5f6	0.059972726
190	0xbcdfedaf	-0.027335016
191	0x3d582f91	0.052779738
192	0xbd63b959	-0.055596683
193	0x3db34a25	0.08754376
194	0x3c93f17f	0.01805949
195	0x3daeb1da	0.08530016
196	0x3d043d6d	0.032285143
197	0x3de0985f	0.109665625
198	0xbcd83ea8	-0.026397064
199	0x3d60d3e8	0.05488959
200	0x3d2a099f	0.04151308
201	0xbd892eb6	-0.066983625
202	0x3d903375	0.07041065
203	0xbdc97335	-0.09836427
204	0xbd56b65f	-0.052420016
205	0xbdc4af57	-0.09603756
206	0x3e1142da	0.14185658
207	0xbdc2c7c1	-0.09510756
208	0x3db56060	0.08856273
209	0x3de883bc	0.11353251
210	0xbc3cb68a	-0.01151813
211	0x3d842505	0.064523734
212	0x3d9651f0	0.07339847
213	0x3d3bd04f	0.045852955
214	0xbd1d6173	-0.038423013
215	0x3bf32e4f	0.007421292
216	0x3dfabcab	0.12243017
217	0xbc3741e1	-0.01118514
218	0x3d86a950	0.065752625
219	0xbdcd919b	-0.10037538
220	0xbdae03bd	-0.08496807
221	0xbcd9a9cd	-0.026570225
222	0xbde957cf	-0.11393701
223	0xbdf8c828	-0.12147552
224	0xbda33e37	-0.07970851
225	0x3d98d468	0.07462388
226	0x3d6f8ad0	0.05848199
227	0x3dbd928d	0.09256468
228	0x3e1053b3	0.14094429
229	0x3da4a80d	0.08039866
230	0x3cb3a869	0.02193089
231	0xbd428ceb	-0.04749767
232	0x3cae2bba	0.021261085
233	0x3e126b5d	0.14298768
234	0xbd50f292	-0.051012583
235	0xbdf83e03	-0.12121203
236	0x3d76d0e9	0.060257826
237	0xbdc8791e	-0.09788726
238	0xbdeaac38	-0.11458629
239	0x3d3f0225	0.046632905
240	0xbda4ea9c	-0.08052561
241	0xbe252a47	-0.16129409
242	0x3d288d20	0.041150212
243	0xbdfa3167	-0.12216454
244	0xbdff627c	-0.12469956
245	0x3c15e6c9	0.009149262
246	0xbdc8f32a	-0.09812005
247	0x3e2fa347	0.17152129
248	0xbd479c4b	-0.048733037
249	0xbdb56205	-0.08856586
250	0x3dff9c8f	0.12481033
251	0xbd0441b5	-0.032289226
252	0x3e1b23e3	0.15150408
253	0xbd836e11	-0.06417478
254	0x3e12127c	0.14264864
255	0xbd608dde	-0.054822795

proj.bias f4 [64]
0	0xbe007b1e	-0.12546965
1	0xbd9698ec	-0.07353386
2	0xbd1715a8	-0.036885887
3	0xbd6e5b76	-0.058192693
4	0x3db8c5ae	0.090220794
5	0xbc5960f5	-0.013267745
6	0x3c085dcd	0.008323145
7	0xbccaba37	-0.024746997
8	0x3c8ee732	0.017444227
9	0xbdbef3a8	-0.093238175
10	0x3d5ca069	0.053863917
11	0xbd3e5d55	-0.046475727
12	0x3cefadda	0.029257704
13	0x3d74f2a6	0.05980172
14	0xbd09c725	-0.033637185
15	0xbd8ad9d3	-0.06779828
16	0x3d865a3a	0.06560178
17	0xbd59668a	-0.053076304
18	0xbdd6acc3	-0.104821704
19	0xbcbc5018	-0.02298741
20	0xbd976b45	-0.07393507
21	0x3d1dec9b	0.038555723
22	0x3d19306f	0.037399705
23	0xbd679f53	-0.056548428
24	0x3da0eb70	0.07857406
25	0xbc70a7a9	-0.014688411
26	0x3d049520	0.03236878
27	0x3d4dc3ac	0.050235435
28	0x3de85f86	0.11346345
29	0x3d2b0373	0.041751336
30	0x3dc76f26	0.09737997
31	0x3d7c5d76	0.06161257
32	0x3e079725	0.13241251
33	0x3dcf28a8	0.101151764
34	0xbe020e52	-0.12700775
35	0xbd25a7ce	-0.040443234
36	0x3dc87a68	0.09788972
37	0x3e0313e2	0.12800553
38	0xbdc7ddb4	-0.097590834
39	0xbdbd3ae4	-0.09239748
40	0x3d909c0c	0.070610136
41	0x3d897008	0.067108214
42	0xbabc4f78	-0.0014366945
43	0xbd87acbb	-0.066247426
44	0xbda77ce2	-0.081781164
45	0xbb095318	-0.0020954069
46	0xbcfe771f	-0.03106266
47	0xbcb3282f	-0.021869747
48	0xbd8437c3	-0.06455948
49	0x3d91e2e1	0.07123352
50	0x3bfa2025	0.0076332265
51	0xbd4a8c4c	-0.049450204
52	0xbdf3a8bb	-0.11897417
53	0x3defb12d	0.117037155
54	0x3ca6f1b6	0.020378929
55	0x3d680305	0.056643505
56	0x3e009676	0.12557396
57	0xbbd1a5a7	-0.006397921
58	0xbdf4fa03	-0.119617485
59	0x3cf6e48a	0.030138273
60	0xbd5cc845	-0.05390193
61	0xbdbf34ac	-0.09336218
62	0xbc624f9c	-0.013812926
63	0xbd9183f7	-0.071052484

encoder.layers.0.self_attn.in_proj_weight f4 [192, 64]
0	0x3dfd2108	0.12359816
1	0xbe81f9b5	-0.25385824
2	0xbc39f571	-0.011350022
3	0x3e80281c	0.250306
4	0x3b2e422b	0.0026589732
5	0x3da307ab	0.07960447
6	0x3d8e8c71	0.06960381
7	0xbc931de8	-0.017958596
8	0x3d87acbf	0.066247456
9	0x3da63551	0.08115638
10	0x3d6ec989	0.058297668
11	0xbe6e3b4f	-0.23264812
12	0xbe3d31ee	-0.18476078
13	0x3e06ba26	0.13156947
14	0x3e3fda6d	0.18735667
15	0x3d231f47	0.03982475
16	0x3e275446	0.16340742
17	0xbd28dbe5	-0.041225333
18	0x3dfa1291	0.122105725
19	0xbeaeb7d3	-0.34124622
20	0x3e8a9420	0.27066135
21	0xbdeae391	-0.11469186
22	0xbd3a7ebd	-0.045531023
23	0xb83c65aa	-4.4917375e-05
24	0xbe41f6e5	-0.18941839
25	0x3dcfff6d	0.101561405
26	0x3e569449	0.20955004
27	0xbbaa3613	-0.0051944344
28	0x3b01f1f1	0.0019828046
29	0x3def38ef	0.11680781
30	0xbe174ceb	-0.14775436
31	0x3d757d49	0.059933934
32	0xbdeca7b1	-0.11555422
33	0xbd3a0eba	-0.0454242
34	0xbe3bc929	-0.18338455
35	0x3dbd8c0d	0.09255228
36	0xbd0eef19	-0.03489599
37	0x3e0dc000	0.13842773
38	0xbe7b95c9	-0.24568857
39	0xbcd52c84	-0.026022203
40	0x3de6e486	0.11274056
41	0x3e00198b	0.12509744
42	0xbdf77622	-0.12083079
43	0xbd98d65c	-0.07462761
44	0x3db1eff1	0.08688343
45	0xbd753b2e	-0.05987089
46	0xbde486d4	-0.11158529
47	0xbc94fade	-0.018186029
48	0xbe620358	-0.22071588
49	0xbe86866b	-0.26274428
50	0xbdf7631f	-0.12079453
51	0x3e8f8737	0.28032848
52	0xbe821237	-0.25404522
53	0xbe158857	-0.14602791
54	0xba75bc95	-0.0009374109
55	0x3daba656	0.083813354
56	0xbd956d63	-0.072962545
57	0x3e564af5	0.20927031
58	0xbd0abce8	-0.03387156
59	0xbe136aae	-0.14396164
60	0x3d14f9d3	0.036371063
61	0xbe7d7373	-0.24751072
62	0xbe4985a6	-0.19679889
63	0x3e94ef15	0.29088655
64	0x3c93a42a	0.018022615
65	0x3e038d38	0.1284684
66	0x3d8a1672	0.06742562
67	0x3d53d23f	0.05171418
68	0x3e125f11	0.14294077
69	0xbaa0f1f3	-0.0012279138
70	0xbe2ccde9	-0.16875423
71	0xbe4b249c	-0.19838184
72	0xbe170ec9	-0.14751734
73	0x3e04ce6b	0.12969367
74	0x3def5b8c	0.11687383
75	0xbcccc5b1	-0.02499661
76	0x3e9ee019	0.31030348
77	0x3de55c72	0.11199273
78	0x3d2189f4	0.039438203
79	0xbd618f98	-0.055068582
80	0xbe3581a8	-0.17725241
81	0x3d3449bc	0.04401563
82	0xbd7e6cc5	-0.06211545
83	0xbd2e1daf	-0.042508777
84	0x3d3c5750	0.045981705
85	0x3e06660c	0.13124865
86	0x3dc07b0e	0.09398471
87	0xbd5c359b	-0.05376206
88	0x3e979b7c	0.29610813
89	0x3dc61d90	0.09673607
90	0x3d4751a0	0.048661828
91	0x3d04071a	0.032233335
92	0xbdcd400f	-0.10021984
93	0x3e1e3400	0.15449524
94	0x3da463ba	0.08026834
95	0x3e0ba402	0.13636783
96	0x3e726735	0.23672183
97	0xbdd02e8d	-0.10165129
98	0x3d19e3e7	0.03757086
99	0xbd4a9292	-0.049456187
100	0xbe061739	-0.13094796
101	0xbe149562	-0.1451011
102	0xbe034400	-0.12818909
103	0x3deb47d7	0.11488312
104	0x3e06710c	0.13129061
105	0x3e492968	0.19644701
106	0x3ebec8ff	0.37262723
107	0x3d9805cd	0.074229814
108	0x3e79e9ac	0.24405545
109	0xbdcff6ee	-0.1015452
110	0xbe8a6476	-0.2702977
111	0xbd81267f	-0.06306171
112	0x3e69d69f	0.22835778
113	0xbe2dcf1c	-0.16973537
114	0x3bd9b0dc	0.0066433977
115	0x3e970c53	0.2950159
116	0x3e0f270e	0.13979742
117	0xbd9bc162	-0.07605244
118	0x3e88bdfa	0.2670744
119	0xbd28a6a2	-0.04117454
120	0x3e1caab1	0.15299489
121	0xbe1c7e53	-0.15282564
122	0x3d445ef1	0.047942106
123	0xbdc7662a	-0.09736283
124	0x3e0dca5b	0.13846724
125	0x3d3b04bc	0.045658812
126	0xbe4a7840	-0.19772434
127	0x3e88b3f1	0.26699784
128	0x3e5c9e5f	0.21544789
129	0xbdde7b98	-0.108634174
130	0x3e078a5b	0.13236372
131	0xbe654664	-0.22390133
132	0xbdc3bda1	-0.09557653
133	0x3e1aea78	0.15128505
134	0xbc9d6192	-0.019211564
135	0xbded008d	-0.11572371
136	0x3e80fa41	0.2519093
137	0xbcb10c0c	-0.02161219
138	0x3e50eb6a	0.20402303
139	0x3d471fe0	0.048614383
140	0x3e0758a8	0.13217413
141	0x3d8b135c	0.06790802
142	0xbd8dea63	-0.06929471
143	0x3e5d5a16	0.21616396
144	0x3e113a94	0.14182502
145	0x3de5d780	0.11222744
146	0xbc9358df	-0.017986713
147	0x3b32b285	0.002726705
148	0x3d84edb0	0.06490648
149	0x3ddaaf70	0.10677993
150	0xbd576a02	-0.05259133
151	0xbe6c2b92	-0.23063496
152	0x3ca7c192	0.020478044
153	0xbc904d03	-0.017614847
154	0xbdfd4267	-0.12366181
155	0x3d3cdf0a	0.046111144
156	0x3c96197c	0.018322699
157	0xbd8219de	-0.0635259
158	0x3d20e455	0.039280254
159	0xbcd7a0bf	-0.026321767
160	0xbe085731	-0.13314511
161	0xbe1e494a	-0.15457645
162	0xbd6cb064	-0.057785407
163	0x3e4ff7d8	0.20309389
164	0x3d8fc32d	0.07019649
165	0x3d637035	0.05552693
166	0xbdbddbcf	-0.09270441
167	0xbd0fefa9	-0.035140667
168	0xbe03ebb3	-0.12882881
169	0x3e1d8b16	0.15385088
170	0x3c27c277	0.010239235
171	0x3e516bed	0.20451327
172	0x3e4a4baf	0.19755433
173	0xbda92e38	-0.08260769
174	0xbe3dca3f	-0.18534182
175	0xba0de5cd	-0.0005412966
176	0xbd254ea3	-0.040358197
177	0xbdd10b8c	-0.102072805
178	0xbd77aef8	-0.060469598
179	0xbdd60380	-0.10449886
180	0xbdc81e54	-0.0977141
181	0x3e369577	0.17830454
182	0xbda36f1c	-0.07980177
183	0xbe75b3ff	-0.23994444
184	0xbc6d278c	-0.014474761
185	0x3dae1c9f	0.08501553
186	0x3dd97bc6	0.10619311
187	0x3da17761	0.07884098
188	0x3e8aca11	0.2710729
189	0xbd19b58c	-0.037526652
190	0x3d42dd62	0.04757441
191	0x3d123af8	0.03570077
192	0xbe2ddd4a	-0.16978946
193	0xbe1006fa	-0.14065161
194	0xbe492814	-0.19644195
195	0xbe74adbe	-0.23894402
196	0xbe8a1b01	-0.26973727
197	0x3e0c4442	0.13697913
198	0xbdc85940	-0.09782648
199	0xbdb9bdfa	-0.09069438
200	0xbe7053e1	-0.23469497
201	0x3db426c8	0.087964594
202	0x3d33b278	0.043871373
203	0xbe1cc42c	-0.15309209
204	0xbe2cfa8f	-0.16892456
205	0x3d94cf9b	0.0726616
206	0x3d0cf74c	0.03441553
207	0xbd996658	-0.07490224
208	0xbd5c3b3a	-0.05376742
209	0xbe0cf87d	-0.13766666
210	0x3db069f5	0.0861396
211	0xbd496476	-0.049168073
212	0x3df64fab	0.12026914
213	0x3bae7a38	0.005324628
214	0x3dadb8ca	0.08482511
215	0xbb38df70	-0.002820935
216	0xbe4fb283	-0.2028294
217	0x3cd79cb0	0.026319832
218	0xbe51c8b8	-0.20486724
219	0x3cc081d2	0.023499403
220	0xbd9e9d39	-0.077448316
221	0xbe96d9e9	-0.29463127
222	0xbd984740	-0.07435465
223	0x3e14ee58	0.14544046
224	0xbdbaaf4b	-0.09115466
225	0x3da00754	0.07813898
226	0x3cab3105	0.020897398
227	0xbcdb928f	-0.026803283
228	0xbe1f99dd	-0.15586038
229	0xbdebbdbd	-0.11510799
230	0xbdbb8d27	-0.09157782
231	0xbdabaad1	-0.0838219
232	0x3e405501	0.18782426
233	0x3d99b246	0.07504706
234	0x3e3beb7f	0.18351553
235	0xbde814d9	-0.113321014
236	0x3e3bbb74	0.18333226
237	0xbdcb4210	-0.0992471
238	0x3c082b06	0.008311039
239	0x3e0977a9	0.13424553
240	0xbec05f6c	-0.375728
241	0x3c0d129c	0.008610394
242	0xbd72c52c	-0.05927007
243	0xbe211cf0	-0.15733695
244	0xbdb08134	-0.086183935
245	0xbe3dc6c8	-0.1853286
246	0xbd9223cb	-0.07135733
247	0xbcb0a9b9	-0.021565305
248	0x3da27196	0.07931821
249	0xbe077cd0	-0.13231206
250	0xbcda7ffa	-0.026672352
251	0xbdfd235a	-0.123602584
252	0x3e5605d1	0.20900656
253	0xbe75aa3e	-0.23990723
254	0x3e4cc1cf	0.19995807
255	0xbddea37a	-0.108710244
