models/rym_grid_c0_s64_e2_t4_r4/resnet_c0_g1_a0_l0p32_lr1e-03.pt (torch, 758509 bytes, 28 tensors)

stem.0.weight f4 [64, 64, 3, 3]
000000 ee e1 1f 40 63 16 c4 bf 20 2c fa bd 83 d7 1e 3f
       2.4981647 -1.5319332 -0.122154474 0.62047595
000010 5f 18 98 bd f6 8b 47 bf c7 7e 9e 3f be af 1f bc
       -0.074265234 -0.7794794 1.2382439 -0.00974649
000020 e7 d4 b1 3f 3f 46 4c bf f6 c6 47 c0 98 7a 92 bf
       1.3893098 -0.7979469 -3.1215186 -1.1443663
000030 ce 51 31 c0 5d f6 7f c0 de b6 10 c0 b5 df 6a 3e
       -2.770618 -3.9994118 -2.2611613 0.229369
000040 ef c5 df bf 91 32 5e c0 f5 f1 86 bf 41 aa 05 c0
       -1.748228 -3.4718363 -1.054259 -2.0885165
000050 0c 98 ed bc 16 be ba bf a3 63 a5 bf 71 de 31 3e
       -0.029003166 -1.458926 -1.2921032 0.17370011
000060 01 1e 94 be ac 3e 99 bf b8 4e 00 c0 cf 72 73 bf
       -0.2892914 -1.1972251 -2.0048046 -0.9509706
000070 66 59 2c bf 7b ef 7a 3f d3 fe 07 3c 42 49 6d bf
       -0.6732391 0.9802167 0.008300501 -0.9268991
000080 5a 43 a3 3f 5d e4 83 3f 56 e7 cc bf 92 02 32 40
       1.2754929 1.0304066 -1.6008098 2.7814069
000090 fd ed 38 be e5 34 1f 3f 0b f9 5e bd 87 fc 27 40
       -0.18059535 0.62190086 -0.054436725 2.624788
0000a0 29 a1 6c 3f f0 0f 14 3f 1d 5c d0 3f 85 4a 0f be
       0.9243341 0.5783682 1.6278111 -0.1399327
0000b0 67 e2 0c bf 5a 9f fd bf 11 34 7a be 9b 98 08 bf
       -0.5503296 -1.9814255 -0.24433924 -0.5335786
0000c0 1b 53 0c bf 68 54 54 3f dc c0 0a 3f e7 12 26 be
       -0.5481431 0.82941294 0.5420053 -0.16218148
0000d0 e4 f4 c8 3e 0b a1 e5 3f 9e 93 ae be f6 77 53 40
       0.39249337 1.7939771 -0.34096998 3.3041968
0000e0 6f 0f bc 3f 3b 23 33 3f 0d 82 00 3f 89 b1 03 40
       1.469221 0.6997563 0.5019844 2.057711
0000f0 30 25 60 bf 4f fd c5 bd b4 7e 3a 3f 90 ca 70 3f
       -0.87556744 -0.096674554 0.72849584 0.94059086
000100 c6 79 46 3e 4d 43 54 3f 95 6f 5b 40 b9 9b 11 40
       0.1938239 0.8291519 3.4286854 2.2751296
000110 43 90 4a 3f 39 23 94 40 f2 34 79 40 4f fc 5a 40
       0.79126376 4.6292996 3.8938565 3.4216497
000120 d8 09 a7 be 40 cc 69 40 c1 71 86 3e 4e 1a 6a 40
       -0.32624698 3.6530914 0.26258662 3.6578555
000130 e7 d2 60 3f c6 98 0a 40 5d c1 06 3f 94 9d 0f 3e
       0.8782181 2.1655746 0.526388 0.14024955
000140 e1 aa b3 bd 73 f0 dc bf f5 35 80 bf bd e4 ca 3e
       -0.08772827 -1.7260879 -1.0016466 0.39627638
000150 fb 5f e1 3e b4 6b 55 3e 67 11 aa 3e 8e d8 03 40
       0.4401854 0.20841867 0.33216402 2.0600924
000160 7c 02 05 40 ab 33 db 3e 3a b5 f9 3e 42 73 1b bf
       2.0782766 0.42812857 0.48771077 -0.60722744
000170 db 2d fc 3f c1 73 ef bb 0e bc d2 3f 0c ec 69 bd
       1.9701494 -0.0073075 1.646364 -0.057109877
000180 37 96 91 3f b0 2c c8 bf 1e a9 68 bf 4e dd 53 be
       1.1373967 -1.5638638 -0.9088305 -0.2068989
000190 79 32 a5 bf dc 65 94 bf 32 5b a1 3f 5e 20 4f 3e
       -1.2906028 -1.1593585 1.2605956 0.20227191
0001a0 58 95 1b 3f ea 0d d4 3e f7 94 25 3f be f5 0c 3e
       0.60774755 0.41416866 0.6468043 0.13765618
0001b0 e2 ff 2c be de b2 77 3f b0 39 1f bf f0 50 5b be
       -0.16894487 0.96757305 -0.621974 -0.21417594
0001c0 76 22 ad 3f e6 9e 8d bf 03 1c ec bd 90 05 53 3e
       1.3526142 -1.1064117 -0.1152878 0.2060759
0001d0 6c 9c 27 bf 54 ee 3a be ce 95 16 bf 53 07 17 be
       -0.65473056 -0.18254977 -0.58822334 -0.14748888
0001e0 84 46 34 bf 9e a8 1a be 8b e7 d0 be 1b 2a c7 bd
       -0.704201 -0.15103385 -0.40801653 -0.09724828
0001f0 8f 49 0e be 7e 29 da bd 08 8b 8d bd c6 f7 b8 be
       -0.13895248 -0.10652445 -0.06911284 -0.36126536
000200 5a 06 5c 3e f6 51 79 bf 02 1e 7e 3e 64 11 9b bd
       0.21486798 -0.9739069 0.24816135 -0.075716764
000210 d0 24 f8 be 27 e8 c0 be d7 fc b6 bf e1 2c 57 3e
       -0.48465586 -0.37677118 -1.4295911 0.21013214
000220 c3 79 30 be 6e 4f 01 bf 99 81 81 bf 4b aa c0 bd
       -0.17233948 -0.50511825 -1.0117675 -0.09407481
000230 37 e6 ba be 7a ba f6 3e 1f db 22 bf 78 fa 25 bf
       -0.36503765 0.48189145 -0.636156 -0.6483531
000240 be ea 3e 3e b4 e2 81 be 49 6a 9d bd dd 40 ee bd
       0.18644235 -0.25368273 -0.07686288 -0.116334654
000250 42 5a 20 be dc 2a 98 3e c2 03 2a bd 7c bc e0 3c
       -0.1565943 0.297202 -0.04150749 0.027433626
000260 75 de f2 be 29 cd 1b bf 1a 04 b1 bd 1a 60 3e bf
       -0.47435346 -0.60859925 -0.086433604 -0.7436539
000270 16 b0 47 bc 44 d9 55 be 9d 5b 16 3f 4e cc ba bd
       -0.012187978 -0.20883662 0.5873354 -0.09120999
000280 a3 7b d4 3d d4 10 18 3f 85 61 0d bf 1e ec 9f 3e
       0.10375144 0.5940068 -0.5522693 0.3123483
000290 91 ad 47 bf 9a 4f 89 bf 70 84 a4 be 53 3b 83 bd
       -0.77999216 -1.0727417 -0.32132292 -0.064077996
0002a0 b0 ad 42 3f 63 59 f0 be e5 c1 7e bf 0f 7f bb 3d
       0.76046276 -0.46943197 -0.9951461 0.09155094
0002b0 70 ff 5e be ca 3e af bc 05 1c 79 bd 62 27 f4 3e
       -0.21777129 -0.021392245 -0.060817737 0.47686297
0002c0 f6 4c 6e be a1 31 94 3e c1 c1 14 3e eb 7e c8 3e
       -0.23271546 0.28944114 0.14527036 0.3915933
0002d0 d7 84 a7 bf 6f a6 a8 3f 1d 40 11 3f 78 92 98 3f
       -1.3087415 1.3175792 0.56738454 1.1919699
0002e0 be 87 c7 3e 03 54 37 bf 4a 8d 5c be 34 87 0c 3f
       0.3897075 -0.71612567 -0.21538273 0.54893804
0002f0 25 bb 14 3e 1f 14 22 3e a4 94 98 3e a2 aa a7 bc
       0.14524515 0.15827988 0.29800904 -0.020467106
000300 10 09 af 3e 04 1f 09 3f 48 2a 52 3e e7 e2 9a 3f
       0.34186602 0.5356295 0.20523942 1.2100495
000310 ab 79 d3 3f 5a 16 16 3f b7 9f 31 bc 07 d5 08 be
       1.6521505 0.58627856 -0.010841302 -0.13362513
000320 3a 5b 8b be 31 65 32 bf 3c 81 89 3e c8 18 bb be
       -0.27218038 -0.69685656 0.2685641 -0.36542344
000330 1e 52 eb bc 0a 35 bf 3e 87 9f b7 be cf 0d 04 3e
       -0.02872568 0.37345153 -0.35863897 0.12895893
000340 64 31 42 3e c8 0e c1 be 2f 93 cc be 38 d5 27 3f
       0.18964154 -0.3770659 -0.39956042 0.6555972
000350 b8 27 29 be c3 4c 0a bd 81 e8 ac be 54 f4 3a 3a
       -0.16519058 -0.033764612 -0.33771136 0.00071317446
000360 c0 cb fa bd d4 3b 77 3f 45 71 2a bf a9 65 76 be
       -0.122458935 0.96575665 -0.66579086 -0.24062218
000370 e0 fe ab 3f 70 71 88 bf ea ab f5 bd 52 c6 13 3e
       1.3437157 -1.0659618 -0.11995681 0.14431122
000380 8e 1a 1e bf 7d f0 3c be f6 cc 02 bf f9 7e f7 bd
       -0.6175927 -0.18451114 -0.51093996 -0.12084765
000390 99 a5 35 bf 81 65 1a be 55 eb e8 be bb d5 ad bd
       -0.70955807 -0.15077783 -0.45492044 -0.084880315
0003a0 f2 3e 06 be b5 c6 1e be 1d c6 68 3e ea 6a e9 be
       -0.13109949 -0.15505488 0.22731824 -0.4558938
0003b0 ca f1 aa 3e 46 4c 11 3e aa aa 9f be c7 1c 71 3f
       0.33387595 0.14189252 -0.31184894 0.94184536
0003c0 2d a2 15 3e 43 da c9 be cf 73 a2 bd 00 82 9e 3e
       0.14612646 -0.39424333 -0.07932245 0.30958557
0003d0 3d 4e 66 bf 5d 90 03 bd d5 64 df be d8 14 e4 3c
       -0.8996313 -0.032120097 -0.43631616 0.02784197
0003e0 bb 7d d9 3e fd 6b 64 3e 33 53 89 bd 45 5e 10 3f
       0.42478737 0.2230682 -0.06705322 0.56393844
0003f0 cd b8 0e be 1e ef 53 bc ef 0c 66 be d8 7d 9d be
       -0.13937683 -0.012935428 -0.22465871 -0.30760074

stem.1.weight f4 [64]
000000 96 77 21 3f 80 1a b8 3e 02 b6 2d 3f 64 8c 09 3f
       0.630731 0.35957718 0.67855847 0.53729844
000010 bb 88 38 3f f8 9f ce 3e 26 fd df 3e 36 87 34 3f
       0.72083634 0.4035642 0.43747824 0.70518816
000020 62 14 35 3f 7a 53 cf 3e ec 90 4c 3f c1 e4 22 3f
       0.70734227 0.40493375 0.79908633 0.636303
000030 a7 dd 13 3f 08 05 06 3f f6 05 ed 3e 1c c5 33 3f
       0.5776009 0.5235143 0.4629361 0.7022264
000040 97 c0 72 3f 01 72 e4 3e aa d6 ed 3e 47 4e 25 3f
       0.9482512 0.44618228 0.46452838 0.64572567
000050 7f 8c a2 3e 6a 80 92 3f a8 63 39 3f b8 c8 0a 3f
       0.31747815 1.1445439 0.7241769 0.5421252
000060 45 62 f9 3e f2 f1 16 3f de e9 29 3f 2d d3 2f 3f
       0.48707786 0.5896293 0.6637248 0.68681604
000070 78 42 f3 3e 1a 8c f2 3e e4 df 0b 3f 46 a7 ca 3e
       0.4751165 0.47372514 0.54638505 0.39580745
000080 ad 4b 20 3f 68 ae 11 3f 26 df af 3e 45 a4 d8 3e
       0.6261547 0.5690675 0.34349936 0.42312828
000090 28 29 03 3f f5 15 57 3f b4 c5 00 3f e6 be 11 3f
       0.51234674 0.8401788 0.5030167 0.5693191
0000a0 1a 1f 91 3f c0 78 39 3f 68 dc 5f 3f 96 0b ef 3e
       1.1337616 0.72449875 0.8744569 0.46688527
0000b0 8c d6 fa 3e 37 43 01 3f a4 6c 2b 3f 26 8e 1b 3f
       0.4899181 0.50493187 0.6696265 0.60763776
0000c0 46 be e3 3e ea 39 d4 3e 66 d3 9f 3e c4 2b 53 3f
       0.44481105 0.41450435 0.31215972 0.82488656
0000d0 37 1d 7a 3f 20 c8 27 3f dc 44 d6 3e e6 2f 33 3f
       0.9770083 0.6553974 0.4184941 0.6999496
0000e0 d2 a9 25 3f 90 bb cf 3e 97 8b 95 3e 61 17 ef 3e
       0.6471225 0.40572786 0.2920806 0.46697524
0000f0 bb 7a 2d 3f 6d e6 44 3f 11 00 dd 3e 47 df ff 3e
       0.67765397 0.769141 0.43164113 0.49975035

stem.1.bias f4 [64]
000000 bb aa a7 bd fc a9 eb 3c a2 e3 e1 be 4a fe 0c be
       -0.08186861 0.028767578 -0.44118983 -0.13768879
000010 80 c2 60 be 22 6c 37 be 86 72 1e be 11 d3 32 bf
       -0.21949196 -0.17912343 -0.15473375 -0.6985331
000020 c7 08 1d bf 5c d6 67 3e 57 cb 30 bd 9b 9d cc be
       -0.6134152 0.22640365 -0.04316267 -0.39963993
000030 c5 c8 8e be 2a 11 04 bf 04 12 50 bd 7a ac a6 be
       -0.2788755 -0.5158869 -0.05079843 -0.32553464
000040 a9 14 6a bf db 78 75 be aa ec d3 be e4 de 8b bd
       -0.91437775 -0.23971884 -0.41391498 -0.068296224
000050 fb de 04 bb a1 d6 23 bf 77 4b 3d bf 54 31 24 be
       -0.0020274508 -0.6399937 -0.73943275 -0.16034442
000060 60 2a 3a be c3 35 e4 be a7 a8 b0 be 06 d1 08 bf
       -0.18180227 -0.44572267 -0.34503672 -0.53443944
000070 30 4e 3a be 6e 91 82 be 4d 91 cd 3d 1a 77 55 3e
       -0.18193889 -0.2550158 0.100374795 0.20846215
000080 be 99 d0 be e4 81 f2 be d6 d7 88 3e d1 e0 dd 3c
       -0.40742296 -0.47364724 0.2672717 0.02708474
000090 80 4a e2 bd 4e fd 10 bf 8a 4a 31 be 3d fc 7f be
       -0.11049366 -0.5663651 -0.1731359 -0.24998565
0000a0 d6 17 5e bf 76 b5 95 be e1 c0 72 bf 69 35 69 3e
       -0.8675512 -0.29240006 -0.9482556 0.2277428
0000b0 cd 1b 93 be 54 2e 30 bc 4a 8d b8 be 27 4c f2 be
       -0.28732148 -0.010753233 -0.36045295 -0.47323725
0000c0 7c 22 fd bd 41 c4 61 be f1 e9 a0 3e 0f e0 03 bf
       -0.12360093 -0.22047521 0.31428483 -0.5151376
0000d0 40 c6 5a bf d8 6d 8e be df 87 46 be 96 b3 f4 be
       -0.85458755 -0.2781818 -0.19387768 -0.47793263
0000e0 32 34 d7 be 59 89 c5 bd f6 41 26 bc b6 6f 70 be
       -0.4203201 -0.096453376 -0.010147562 -0.23480114
0000f0 06 b5 82 bd 95 5a 7a bd 90 89 96 be 56 41 49 bd
       -0.06382184 -0.061121542 -0.29401827 -0.049134575

stem.1.running_mean f4 [64]
000000 4e 00 09 c1 39 fc 8f c0 fa cc 00 40 5b 07 ae bf
       -8.562574 -4.499539 2.0125108 -1.3595995
000010 47 b1 84 c1 4f 01 f1 c0 f9 2e d9 40 2e 0b 0f 40
       -16.586561 -7.5314097 6.786984 2.2350574
000020 f6 75 e4 c0 cc 21 23 c1 eb 4d ea c0 d6 ab 79 c0
       -7.1393995 -10.195751 -7.3220115 -3.901113
000030 3d 8a c5 3f 87 5f ab be 6b 10 05 40 1b 7a 20 c0
       1.5432812 -0.3347132 2.079127 -2.5074527
000040 39 fd aa c0 9d 0f 50 c0 cf 6b 95 40 2b ff 04 c1
       -5.343411 -3.250953 4.66941 -8.312297
000050 ef 12 c8 c0 f1 7c 4b c1 8f a4 04 c1 0f 18 2e c1
       -6.252311 -12.718003 -8.290175 -10.880874
000060 e7 8d 01 c0 bf 1f 30 c1 b6 83 17 c1 11 c3 a6 c0
       -2.024286 -11.0077505 -9.469656 -5.211312
000070 70 f0 33 40 76 a1 eb c0 c3 3e 84 c0 47 62 88 c0
       2.8115501 -7.3634596 -4.1326613 -4.2619967
000080 3b f7 8f bd c3 e7 b5 c0 80 7c 31 bf 8c 36 20 c1
       -0.07029577 -5.684541 -0.69330597 -10.013317
000090 93 da 47 c1 34 54 3a c1 25 c0 01 c1 20 77 0e c1
       -12.490863 -11.645557 -8.10941 -8.904083
0000a0 f6 c4 26 c1 2f c2 2b c1 06 04 80 bf b1 e1 4f c1
       -10.423086 -10.734908 -1.0001228 -12.9926
0000b0 04 fc a4 c0 d6 29 56 c0 45 9d 9c c0 46 05 49 c0
       -5.1557636 -3.3463035 -4.894198 -3.1409469
0000c0 45 7a f5 bf 73 fe 8a 3f 61 58 47 40 35 a5 28 c1
       -1.9177939 1.0858902 3.1147692 -10.540334
0000d0 11 70 e0 bf 95 8c d5 c0 7b b2 db 40 fb f8 4d c0
       -1.75342 -6.673411 6.865537 -3.2183216
0000e0 02 e8 a3 c0 58 d8 c9 c0 50 35 84 bf 3d 39 60 c0
       -5.1220713 -6.307659 -1.032877 -3.5034935
0000f0 21 bc 68 c1 8f 4d 45 c1 e8 c0 a2 bf 1d a3 84 40
       -14.54593 -12.331435 -1.271512 4.1449113

stem.1.running_var f4 [64]
000000 5b 42 25 42 05 22 d4 41 49 35 ca 41 08 89 b6 42
       41.3148 26.516611 25.276018 91.26764
000010 3c 5c 7c 42 75 5e f4 41 83 be 46 42 ef 44 00 42
       63.090073 30.546122 49.686047 32.067318
000020 ce 25 da 41 37 fc 60 42 46 91 0e 42 6d 3f f6 41
       27.26846 56.246304 35.64187 30.78097
000030 da f5 b4 41 21 85 1f 42 ee b5 c4 41 85 08 53 42
       22.620045 39.88001 24.588833 52.75832
000040 22 b8 f1 41 d5 df f7 41 4f cd 05 42 10 5b 15 42
       30.214909 30.984293 33.450497 37.33893
000050 ad b1 29 42 6f 75 08 42 6a ee 2f 42 7d f6 f9 41
       42.42351 34.11468 43.982826 31.245356
000060 db bc ad 41 8e 19 56 42 29 5d ab 41 72 c7 d2 41
       21.717215 53.524956 21.420488 26.347385
000070 35 cb 31 42 75 b8 00 42 0d 20 04 42 43 de e4 41
       44.448444 32.180134 33.0313 28.608526
000080 5d 4b 3d 42 8e be c2 41 7e 4c 91 41 84 98 85 42
       47.323597 24.343044 18.16235 66.79788
000090 68 17 1b 42 7e 47 20 42 99 e3 91 42 4e b5 30 42
       38.772858 40.069817 72.94453 44.177055
0000a0 95 d5 2a 42 3f 6f 25 42 ce 59 db 41 37 81 11 42
       42.708576 41.35864 27.41885 36.376186
0000b0 86 6c a8 42 ba f4 24 42 ec 11 f9 41 92 32 c6 41
       84.21196 41.23899 31.13375 24.774693
0000c0 09 6f 07 42 d2 41 31 42 e1 64 47 42 4f 11 18 42
       33.858433 44.314278 49.848515 38.016903
0000d0 26 7a 93 41 76 e2 1c 42 54 e0 2f 42 f9 1d 3b 42
       18.434643 39.221153 43.96907 46.77927
0000e0 b4 c7 df 41 fe 7f 00 42 32 81 ef 41 c4 0b cb 41
       27.972511 32.124992 29.938084 25.380745
0000f0 54 bc 86 42 fd 02 28 42 6b bd 11 42 c5 bf 44 42
       67.36783 42.00292 36.43498 49.187275

blocks.0.conv1.weight f4 [64, 64, 3, 3]
000000 7e 3d 8e 3f f6 a7 b3 3e e7 56 87 3e 83 d5 45 bd
       1.1112516 0.35089082 0.2643349 -0.048299324
000010 0a e9 34 3f b2 e6 6b bf 34 fd ae be 8f 27 25 3d
       0.7066809 -0.9214889 -0.34177554 0.04032093
000020 b5 9a 0a bd 73 06 fd bd 19 60 c5 3f 78 fc bd 3e
       -0.033838946 -0.12354746 1.5419952 0.3710668
000030 0b 50 ad 3e ad 13 a6 bf 95 50 04 bf 74 6b 85 3e
       0.3385013 -1.2974755 -0.5168546 0.26058543
000040 56 78 3f bf 6f 9e 3b bf 9d 82 81 bf d6 9f 03 3f
       -0.74792993 -0.73288625 -1.0117985 0.51415765
000050 73 31 b6 bf e3 b9 01 3f 63 ed 77 3f 28 b5 16 3d
       -1.4233841 0.50674266 0.968466 0.036793858
000060 c7 ec b8 be 69 07 5b 3f 6d 3e 89 be 36 37 b9 be
       -0.36118147 0.8555818 -0.2680544 -0.36174935
000070 7f 98 1e 3e dd 16 4b 3d cb b2 5c 3e 49 53 b7 bd
       0.1548786 0.04958235 0.21552579 -0.08951432
000080 fc d0 dc bd 50 78 92 be cf 3d 37 3f 3a 20 b1 3d
       -0.10782048 -0.28607416 0.7157869 0.08648725
000090 aa 9e a3 3f 1e 02 02 3e 63 8f 56 3f a0 64 8e be
       1.2782795 0.1269612 0.8381254 -0.27811146
0000a0 63 65 83 be f9 89 9b 3e 33 42 80 bf cf 6c 12 bf
       -0.2566329 0.30378702 -1.0020202 -0.5719728
0000b0 58 9b 9d bf 8e 7f 3b be 40 b7 c0 bf 20 e6 1f 3f
       -1.2313032 -0.18310377 -1.5055923 0.6246052
0000c0 d0 53 44 3e 2e cd 8d 3f 34 02 3c 3e 8f 68 83 be
       0.19172597 1.1078241 0.18360215 -0.2566571
0000d0 65 28 51 bf dd e7 52 bf 89 65 14 bd 4f 61 d5 be
       -0.8170226 -0.82385045 -0.036229644 -0.41675803
0000e0 54 68 f1 3e 67 c2 16 be 93 68 3a be a8 be 57 3f
       0.4714991 -0.14722596 -0.18203954 0.84275293
0000f0 d9 5d 1e bf 24 7c bf bf a1 75 ca be df fc 13 bf
       -0.6186195 -1.495976 -0.3954287 -0.57807726
000100 78 fb 17 bf ec 7e af 3e 59 dd a1 3f 54 6c 9e 3d
       -0.59368086 0.3427652 1.2645675 0.07735506
000110 3f bd 71 bf d4 06 1b be 3b a1 91 3f ab eb 86 3f
       -0.9442939 -0.15139323 1.1377329 1.054067
000120 dd 08 7e 3e 52 da 59 3d 6d 51 a5 be 38 0d a4 be
       0.24808069 0.053186722 -0.32288685 -0.32041335
000130 6b 13 df be af fd 04 be 7a 72 74 bf 1b 6a 60 3f
       -0.43569502 -0.12987398 -0.9548718 0.87661904
000140 09 65 ba be a7 3a 88 3f 8b 59 9c 3f 51 73 5c 3f
       -0.3640521 1.0642899 1.2214826 0.8611346
000150 89 3e f6 be 5a 3f 46 bf f2 1e 55 bf f8 47 85 3e
       -0.48094586 -0.77440417 -0.83250344 0.2603147
000160 11 85 59 bf 5a 09 e1 3e b6 d1 b8 be c2 81 31 3f
       -0.8496867 0.43952447 -0.36097497 0.6933862
000170 d7 0f 17 be 14 0e 31 3f 5a 41 c4 3d 1a 8d 2c bf
       -0.14752136 0.69162107 0.09582777 -0.67402804
000180 9c b9 80 3e 2d fa a3 3d c8 43 2c 3e a6 f5 c2 be
       0.2514161 0.080067016 0.16822731 -0.3807804
000190 ed 27 5f bd 93 d2 ac be 71 7e 06 bd 93 7a fc 3e
       -0.054481436 -0.33754405 -0.032835428 0.49312267
0001a0 d1 3d 4f 3f 07 d5 e4 bf 8d 9d 6b be 1a c4 19 bf
       0.809537 -1.7877511 -0.2300932 -0.6006485
0001b0 07 ef 48 be 1e bd 35 3f a5 0b c1 be 48 f8 9d 3f
       -0.19622432 0.70991695 -0.37704197 1.2341394
0001c0 b0 4d da 3e 5d 27 15 bf 8d c7 58 3e dc d6 e7 3e
       0.42637396 -0.5826319 0.21169873 0.45281112
0001d0 79 84 34 3e 28 d3 18 bf c9 20 66 3d 5a 30 10 3f
       0.1762866 -0.596972 0.05618361 0.5632378
0001e0 9e bf f5 be 69 0d d7 3d 32 bc ca bf ec b5 49 be
       -0.47997755 0.10500605 -1.5838683 -0.19698304
0001f0 e5 ff a1 3f 96 7a e0 be 37 d0 20 3f 54 b2 b6 be
       1.2656218 -0.43843526 0.6281771 -0.3568293
000200 70 ed 60 3f 5c 0b 60 3e bd 46 26 bf c7 d8 52 be
       0.878623 0.21879333 -0.6495169 -0.20590506
000210 81 bb 9c bd 71 16 99 be 12 4e 2a 3f 7b 1a 1a 3e
       -0.07652951 -0.29899934 0.66525376 0.15049164
000220 45 e6 69 3d d7 f5 65 3e 34 53 4f 3f b4 b2 54 be
       0.057104368 0.22457062 0.8098633 -0.20771295
000230 95 f4 0d bf d7 b9 72 be 9b fa 4d bf 71 2e ab bf
       -0.5545133 -0.23703705 -0.8046052 -1.3373548
000240 f1 ef 3e 3b c8 c7 cd bf f4 dc ae bf 86 fc c2 3d
       0.0029134715 -1.6076593 -1.366118 0.09520821
000250 7d 80 3b 3f b8 f0 8c bf 6f 8e 5d be 09 9b bc 3f
       0.7324293 -1.1010962 -0.21636365 1.4734813
000260 b3 fc 60 3e fc b7 1d 3e 5b c9 a8 3d 83 0f c9 bd
       0.21971397 0.15402216 0.082415305 -0.09817412
000270 a2 7b e8 3b 1f 2f 1a bf 9d a6 bb be 41 44 e1 be
       0.0070948163 -0.6022815 -0.36650553 -0.43997386
000280 35 d5 fe be 34 e1 2c bf 0b 9c 5c bf 26 22 4a bf
       -0.4977204 -0.6753113 -0.861756 -0.78958356
000290 05 dd 40 3f 98 2d 2e 3f 7a 80 4f bf 22 7d a8 3d
       0.7533725 0.6803832 -0.81055415 0.08226992
0002a0 cb fa 85 3e 2d 64 dd be a9 d5 e6 3e 34 ed 48 be
       0.26167902 -0.4324049 0.45084885 -0.19621736
0002b0 43 c8 d2 3c bd 32 88 3f 47 5d 05 bf ae 82 82 be
       0.025730258 1.0640484 -0.52095455 -0.25490326
0002c0 41 3d bc 3e 8c fe 36 3f ba fb 0b be 43 e3 18 be
       0.36765483 0.7148216 -0.13670245 -0.14930443
0002d0 d5 3c 21 bf cb d1 67 bf 5d 5a 61 3e 20 5a 2c be
       -0.6298345 -0.90554494 0.22007127 -0.16831255
0002e0 62 8c 80 3e 15 1c 22 bf 79 b4 38 bf 06 ee 8e bf
       0.25107104 -0.633241 -0.7215038 -1.1166389
0002f0 ef 5f 1b 3e 78 6d b8 be e0 e5 5f 3e 24 35 1e 3f
       0.15173315 -0.36021018 0.21865034 0.61799836
000300 69 2b 84 3e 92 14 9a 3d 36 e7 fa be 71 b9 ad be
       0.2581437 0.07523455 -0.49004525 -0.33930543
000310 c6 8f 8d bf 2d ca b1 be a4 34 e3 be 0d 41 c2 3e
       -1.1059501 -0.3472456 -0.443761 0.37940255
000320 25 5d 90 bf 5a 4c 47 3d ae db 1e be 79 59 1b bf
       -1.1278425 0.0486568 -0.15513489 -0.606834
000330 0d d3 91 bc 06 70 1c 3f 33 ca cd 3f d2 d7 58 bd
       -0.017800832 0.61108434 1.6077331 -0.052940197
000340 1a e7 8b be d9 3e dc 3c 2d 12 01 3f 16 9a 14 bf
       -0.27324754 0.026885437 0.5041836 -0.58047616
000350 cc 08 5f bf 75 b3 28 bf fa de bb be ef a7 c1 be
       -0.871228 -0.6589883 -0.36693555 -0.37823436
000360 34 e6 82 be cd 6e 26 3d 33 68 6b bf 18 3e c9 bd
       -0.25566256 0.04063301 -0.9195587 -0.098262966
000370 5d 18 bb 3e 7b fb 4d 3f 90 a2 10 bf 24 7f 35 3d
       0.36542025 0.80461854 -0.5649805 0.044310704
000380 ff b5 3a be 07 4e 9a 3f d5 bf 4a bf 5c 39 15 bf
       -0.18233489 1.2055062 -0.7919896 -0.5829065
000390 a5 a0 ba be f8 8b 6a be 8d a5 49 3f 9a 03 54 bf
       -0.36450687 -0.22904956 0.78768235 -0.82817996
0003a0 b5 09 84 bd fd 8f ec 3e 9c 2c 21 c0 74 68 a0 3f
       -0.06447164 0.46203604 -2.5183477 1.2531877
0003b0 5a 67 ab be ab bd 23 bf 60 c2 86 3e 39 35 35 bf
       -0.33477288 -0.63961285 0.2632017 -0.70784336
0003c0 d1 4b fc be ad a2 87 bf c9 cb 80 be cd ad 76 3e
       -0.49276593 -1.059652 -0.25155476 0.24089737
0003d0 2c 5d 63 3f c1 68 38 3e 55 1f 2c 3f 98 01 d7 be
       0.88814044 0.1800871 0.6723531 -0.41993403
0003e0 2a 30 90 bf f4 4a 90 bf 0e 6c 21 3e 7e 0c 36 3f
       -1.1264699 -1.1272874 0.15763876 0.7111281
0003f0 8d 02 36 3f c0 36 eb bd 24 b7 c9 3e 32 03 d6 3e
       0.7109764 -0.11485052 0.39397538 0.41799313

blocks.0.bn1.weight f4 [64]
000000 84 b8 a3 3f cf a6 98 3f 30 92 80 3f 94 35 8d 3f
       1.2790685 1.1925906 1.0044613 1.1031976
000010 b6 1f a0 3f f5 dc 99 3f 50 b8 60 3f bb 8c a2 3f
       1.2509677 1.2020556 0.8778124 1.2699198
000020 7f bb 96 3f 6d be ba 3f ae fe b5 3f 73 b8 cf 3f
       1.1775969 1.4589363 1.4218347 1.6228164
000030 a2 61 97 3f 43 b0 63 3f fb 04 93 3f 36 28 98 3f
       1.182667 0.8894083 1.1485895 1.1887271
000040 3e 8d 80 3f 69 9a bf 3f 20 c2 88 3f 53 f1 93 3f
       1.0043104 1.4968997 1.0684242 1.1558021
000050 a6 4d 42 3f 3f 7e af 3f fb ac 72 3f 50 14 98 3f
       0.7589973 1.3710402 0.947952 1.1881199
000060 c8 c9 b4 3f 4f 8d c4 3f 46 12 96 3f 7d 19 a4 3f
       1.4124079 1.5355624 1.1724327 1.2820278
000070 45 af 93 3f a2 67 68 3f d9 b1 67 3f 19 03 b1 3f
       1.1537863 0.9078313 0.9050575 1.382907
000080 c8 96 df 3f e6 f4 7b 3f 54 1d 5e 3f 9e d5 77 3f
       1.746789 0.9842056 0.867635 0.9681033
000090 1f ed 5d 3f 0e 15 a9 3f e0 a0 87 3f 9c b1 89 3f
       0.86689943 1.320955 1.059597 1.0757327
0000a0 32 4d 99 3f b7 ea 90 3f 18 56 53 3f 9f e1 8d 3f
       1.1976683 1.1321629 0.82553244 1.1084479
0000b0 88 f0 bd 3f b1 86 6c 3f f9 5d 90 3f c1 37 9d 3f
       1.4839029 0.9239302 1.1278678 1.228264
0000c0 ee 6f 71 3f c6 f7 8b 3f 6b 6e 89 3f 5c 87 94 3f
       0.94311416 1.093499 1.0736822 1.1603808
0000d0 c7 76 92 3f 7e 64 a7 3f a7 f7 55 3f 21 50 71 3f
       1.1442498 1.3077543 0.8358101 0.9426289
0000e0 cf 7a 8f 3f ac c7 92 3f c5 e6 4f 3f 4a 13 a0 3f
       1.1209353 1.1467185 0.812115 1.2505887
0000f0 92 55 cd 3f 72 58 ac 3f 86 6f 86 3f e3 01 8b 3f
       1.6041739 1.3464491 1.0502784 1.0859951

blocks.0.bn1.bias f4 [64]
000000 e3 c1 1d bf de 9c 46 bf f9 f5 09 bf 7d ae 20 bf
       -0.6162397 -0.7758311 -0.5389095 -0.6276625
000010 11 3d 71 bf 2d 5b 8d bf dd e6 6c be 45 e3 91 bf
       -0.94233805 -1.104345 -0.23134942 -1.1397482
000020 ba 1d 25 bf 84 fc 5d bf 65 1c 87 bf 31 97 85 bf
       -0.64498484 -0.86713433 -1.055554 -1.0436765
000030 de 2f d6 be f7 bd 02 3e 23 2c 5a bf 2a e9 38 bf
       -0.41833395 0.12767778 -0.852236 -0.7223078
000040 2c 53 13 bf f3 0f f8 be 27 30 c6 be 74 c5 9d bf
       -0.57548785 -0.48449668 -0.38708612 -1.2325883
000050 f0 1e 9c 3e b9 35 b3 bf b8 1d 0e 3c eb a5 3a bf
       0.30492353 -1.400077 0.008674078 -0.7290942
000060 cd e8 6d bf 16 df 61 bf c6 c8 92 bf 54 51 1d bf
       -0.9293335 -0.8823103 -1.1467521 -0.6145222
000070 2b ea 59 bf 48 bf a8 be c0 d4 79 be 5a f7 63 bf
       -0.85122937 -0.32958436 -0.24397564 -0.89049304
000080 03 49 38 bf db a3 51 be be 3d c5 3c a9 c6 e4 be
       -0.7198641 -0.20472662 0.024077293 -0.44682816
000090 e4 e0 80 be 22 ad 96 bf b4 de e0 be 47 47 66 be
       -0.25171578 -1.1771586 -0.4391991 -0.22488128
0000a0 ae 6b 44 bf 98 09 0a bf 15 a7 2d 3e bd 23 4d bf
       -0.76726806 -0.5392089 0.16958268 -0.8013266
0000b0 65 6a 68 bf cb 6a 75 be 0d 30 b7 be 36 0f 8a bf
       -0.90787345 -0.2396652 -0.35778847 -1.0785892
0000c0 bb a8 03 bf ae 52 0d bf a8 c9 32 bf a0 1f 72 be
       -0.5142934 -0.55204284 -0.69838953 -0.23644876
0000d0 e4 4c cf be 43 e2 99 bf 93 e9 0f 3c ed d3 53 bf
       -0.4048835 -1.2022175 0.008783716 -0.8274525
0000e0 52 3a 18 bf 93 e0 4d bf 72 dd e3 3d 2a df 38 bf
       -0.5946399 -0.804208 0.11126222 -0.7221552
0000f0 69 82 a5 bf e8 d5 67 bf e9 65 00 bf 3f 23 d1 be
       -1.2930423 -0.9056077 -0.501555 -0.40847203

blocks.0.bn1.running_mean f4 [64]
000000 33 06 65 c0 9a e3 59 c0 2d 2e 67 c0 a8 57 b3 bf
       -3.5785034 -3.4045167 -3.6121933 -1.4011126
000010 bb f1 a1 c0 f3 b6 55 c0 9c 3e c5 c0 3a 05 df be
       -5.060758 -3.3392913 -6.1638927 -0.43558675
000020 a8 5f 8e c0 45 59 95 bf 79 d6 a9 bf 46 84 b4 c0
       -4.449177 -1.1667868 -1.3268577 -5.6411467
000030 32 88 95 bf e0 5e 0b c0 f1 44 39 c0 79 7d 5c 3f
       -1.1682189 -2.1776657 -2.8948328 0.86128956
000040 86 2f 82 c0 a4 8b de c0 ba 60 1c c0 5c f8 54 40
       -4.068301 -6.954546 -2.4434037 3.3276587
000050 3c 2d bb bf a0 78 08 be 81 86 86 c0 02 a9 31 3e
       -1.462318 -0.13327265 -4.203919 0.17349628
000060 be fb 2b c0 98 ee 5c 3e 0d c8 98 3e fb cc 53 3f
       -2.6872401 0.21575391 0.29840127 0.8273465
000070 fa 93 60 c0 ff b9 f4 3f 53 3f 3c c0 41 fd a4 be
       -3.5090318 1.9119262 -2.941365 -0.32224467
000080 93 4c 3e c1 fc db 88 c0 91 1a 9e c0 59 47 77 c0
       -11.893695 -4.2768536 -4.940743 -3.8637297
000090 9e 12 ff be d0 42 4f c0 c3 b5 9b c0 b1 44 bc c0
       -0.4981889 -3.238453 -4.8659377 -5.883385
0000a0 72 e4 09 c0 de e8 61 c0 9c f9 4a 40 2c 00 e6 bf
       -2.1545682 -3.529838 3.171485 -1.7968802
0000b0 ab aa 5c c0 31 03 71 bf 90 40 4f c0 9a 93 d5 bf
       -3.4479167 -0.94145495 -3.2383156 -1.668567
0000c0 22 27 1c 3f 23 bb a9 bb dd 86 8f be fe fe c0 3f
       0.6099721 -0.005179779 -0.2803258 1.5077817
0000d0 88 46 c1 bf 8b 7d 95 3f f9 e0 fc be a4 eb ab bf
       -1.509965 1.1678938 -0.4939039 -1.3431287
0000e0 53 1a a0 bf 16 9d 2b 3f d1 f5 be 3f 27 6d 4b 3f
       -1.2508034 0.6703657 1.4918767 0.7946343
0000f0 f1 42 47 c0 c8 62 9c c0 09 54 4e c0 9b 19 18 c0
       -3.1134608 -4.8870583 -3.223879 -2.3765628

blocks.0.bn1.running_var f4 [64]
000000 07 f4 0a 42 da 98 fb 41 14 a7 e2 41 82 3b e8 41
       34.738308 31.449635 28.331581 29.029057
000010 e5 c9 b9 41 f6 a6 15 42 9f d0 b4 41 60 e2 df 41
       23.223581 37.413048 22.601866 27.985535
000020 3e 1b de 41 98 83 40 42 30 81 f6 41 ee a8 09 42
       27.763302 48.12851 30.81308 34.41497
000030 5b eb 12 42 64 6d ab 41 26 6b d0 41 ba 5f c4 41
       36.72984 21.428413 26.052319 24.546741
000040 61 45 a5 41 7b b1 0c 42 dd 3c d8 41 0c 6d 10 42
       20.658876 35.17332 27.029718 36.10649
000050 08 88 dd 41 8f 35 03 42 9c f4 0c 42 b7 fd dc 41
       27.691422 32.802303 35.238876 27.623884
000060 12 27 21 42 c1 4c 21 42 ff fe f8 41 d2 01 16 42
       40.288155 40.324955 31.12451 37.501778
000070 09 51 ef 41 e8 1b d9 41 56 49 c9 41 73 12 12 42
       29.914568 27.138626 25.160809 36.518017
000080 20 a4 49 42 47 7f eb 41 c8 8e d8 41 f7 e8 d2 41
       50.41028 29.437147 27.069717 26.363752
000090 db c9 a4 41 25 b5 e9 41 4d f3 1d 42 ef b8 df 41
       20.598562 29.21345 39.4876 27.9653
0000a0 23 59 e9 41 83 09 1b 42 a1 71 d6 41 fd 31 ec 41
       29.168524 38.75929 26.805483 29.524408
0000b0 61 59 11 42 94 86 e4 41 36 76 f9 41 07 98 c9 41
       36.337284 28.565712 31.18272 25.199232
0000c0 72 60 a2 41 0e 12 df 41 bb 4b d6 41 98 8b 01 42
       20.297092 27.883816 26.786978 32.386322
0000d0 12 88 e7 41 ef b2 df 41 64 90 eb 41 91 f2 97 41
       28.94144 27.96237 29.445503 18.99344
0000e0 63 b4 ef 41 10 07 e0 41 8a 3c fa 41 9a 8c 00 42
       29.96308 28.003448 31.27956 32.137306
0000f0 1c 79 0f 42 59 a1 db 41 13 2d cd 41 db e7 ee 41
       35.86827 27.453783 25.647009 29.86321

blocks.0.conv2.weight f4 [64, 64, 3, 3]
000000 39 45 23 3e 32 0e 22 3f 75 64 ec bd f1 a9 bb bf
       0.15944375 0.6330291 -0.11542598 -1.4661237
000010 3e 3c 22 be c8 21 b2 3e b2 d8 2b 3d f7 56 09 bf
       -0.15843293 0.34791398 0.041954704 -0.5364832
000020 1f 2c 43 3f 4b a8 16 3f 67 5f 9c bf f0 d1 45 3f
       0.762392 0.58850545 -1.2216614 0.77273464
000030 1a 8d 04 3f d4 3d 50 bf 58 cd d2 be 68 b3 63 3f
       0.51777804 -0.8134434 -0.4117229 0.8894563
000040 90 e9 ae be 16 37 30 be c0 0f 58 bf 75 09 2f 3e
       -0.3416257 -0.17208514 -0.8439903 0.17093451
000050 8b 62 6e bf 62 e0 2d 3f 9d fa 6f 3e 6d 84 83 be
       -0.93119115 0.67920506 0.23435445 -0.2568697
000060 89 c5 92 be a6 dc 46 3f 0d 61 50 bf c3 4a 1b 3f
       -0.28666332 0.7768043 -0.8139809 0.6066095
000070 4e f2 a7 3e 66 86 5e bf 1f 8e 44 be e5 82 02 bf
       0.3280205 -0.86923826 -0.1919484 -0.5098098
000080 95 31 67 bf 5f 3f f1 3e b7 01 89 3f 89 be f2 bd
       -0.9031003 0.4711866 1.0703648 -0.11852748
000090 c2 87 3b 3d 85 c3 f1 be 69 b2 ab be e8 d2 af 3e
       0.045783766 -0.47219482 -0.33534554 0.34340596
0000a0 8b 70 6a be ad bf a5 3f 2f 5b 8b 3e 49 cf 8c 3e
       -0.22894494 1.294912 0.27218005 0.27501896
0000b0 39 37 6e be c8 0c a6 bf 23 92 35 3f d1 d3 27 bf
       -0.23263253 -1.297265 0.7092611 -0.6555758
0000c0 ab bd a6 3e e9 ab d4 be 49 77 9b 3e 66 e8 0b 3f
       0.3256658 -0.41537407 0.30364445 0.54651487
0000d0 6e d9 8a bd 32 5b 40 be 71 b4 e2 3e ff 51 ea 3e
       -0.06779753 -0.18784788 0.4427829 0.45765683
0000e0 0a ea bc 3e 4d 20 b8 be 5e a9 80 3d 09 41 19 bf
       0.36897308 -0.35962144 0.06282304 -0.5986486
0000f0 1e 95 8d 3d 36 2a 2b be f6 90 bb be 95 b5 df bc
       0.069132075 -0.16715321 -0.36634034 -0.027308265
000100 ce bd 82 3d 01 c9 fe be 46 ef 8f bf e5 29 99 3e
       0.063838586 -0.4976273 -1.1244895 0.29914775
000110 1f 4f d8 3d 9d 36 78 3e 3c e5 3c bf 4d a1 b1 3f
       0.10561966 0.24239583 -0.73787284 1.387735
000120 bb a9 4a bf 7d c1 03 3e 73 34 3e bf 2e 57 9a 3f
       -0.7916524 0.12866779 -0.7429878 1.2057855
000130 36 64 6f 3e 46 0f 82 be d3 74 97 3f bd 88 0c be
       0.23378071 -0.25402278 1.1832527 -0.13724037
000140 1d 80 25 bc 4f e1 32 3f 11 55 02 bf 06 b8 87 3f
       -0.010101345 0.69875044 -0.5091105 1.0603034
000150 c9 5b 25 3f 24 b1 af bf d7 cf 06 3e 98 79 f6 3e
       0.6459318 -1.3725934 0.13165222 0.48139644
000160 5b 05 ac be 7e b9 4d 3e 47 b0 aa 3e b1 0f 82 be
       -0.33597836 0.20090291 0.33337614 -0.25402597
000170 19 14 65 bf 1a ad 8f be 25 54 40 3f 20 44 57 3f
       -0.8948379 -0.28061754 0.75128394 0.84088326
000180 05 3d 80 3e 01 18 01 3e 4f bf f5 3e 2b d1 02 3f
       0.25046554 0.12606813 0.4799752 0.51100415
000190 d7 cf b1 be 28 ad 52 bc 62 a5 78 be 52 32 32 bf
       -0.34728882 -0.0128586665 -0.24281839 -0.6960803
0001a0 04 f1 99 be 37 2f 06 bf 7a 99 37 3f ee 22 d1 3e
       -0.30066693 -0.52415794 0.7171856 0.40846962
0001b0 ad e3 43 3e 7b 2b e7 be 15 15 81 be ce f8 d9 be
       0.1912982 -0.4515036 -0.25211397 -0.42572635
0001c0 65 07 2e be 3d 0d a7 bd 47 60 a5 bd c3 1c 8d 3f
       -0.16995008 -0.08156822 -0.08075004 1.1024402
0001d0 ee 19 87 bd 4c b1 0e bf 96 c1 ca bf 24 26 a6 bd
       -0.065967426 -0.55739284 -1.5840328 -0.081127435
0001e0 0a e5 c4 3e e7 fb 67 be 63 ee 59 be 03 c8 c4 3e
       0.38455993 -0.22654687 -0.21282344 0.38433847
0001f0 e1 d9 30 be 94 df 98 bf 83 5b be be 74 dd 7c 3f
       -0.17270614 -1.1943231 -0.37179193 0.9877541
000200 13 68 45 3f 24 f5 e6 3d 8b 0c 33 3e 8d e8 d6 3e
       0.7711193 0.112772256 0.17485254 0.41974297
000210 b7 b4 3f 3f 14 dd 0a bd 46 c7 e4 bf 67 dd 2c 3f
       0.74885124 -0.033902243 -1.7873313 0.67525333
000220 b5 0d 09 bd d1 a8 54 3f 01 0c 05 bf 94 b6 8e 3f
       -0.033460338 0.83070093 -0.5197144 1.1149468
000230 69 92 16 3e df 39 b4 bd 53 83 ef 3e e9 14 2e be
       0.14704289 -0.088001005 0.4677988 -0.17000164
000240 1a 84 6e bf 73 a6 82 3e fe 32 17 3f 87 90 d1 3e
       -0.9317032 0.25517616 0.5906218 0.40930578
000250 c0 9e b3 3e b1 80 c1 bf be 0e 8c bf a9 8e d9 3d
       0.35082054 -1.5117399 -1.0941999 0.106229134
000260 b8 86 dd 3e 6e 86 4e bf b4 45 3d bf 75 2b af 3e
       0.43266845 -0.80673873 -0.73934484 0.34212843
000270 99 a4 5d 3f 54 28 1f be 8d bb b6 be 37 b7 70 3f
       0.8657928 -0.15542728 -0.35689965 0.94029564
000280 13 c9 be be 79 f6 99 3d 9e 11 fc 3e a5 61 9e bf
       -0.37262782 0.07517714 0.4923219 -1.2373549
000290 34 d8 47 3d e8 47 77 3d a4 0e 9e 3f 07 05 0d 3f
       0.04879017 0.06037131 1.2348218 0.55085796
0002a0 54 5a 36 3f 20 79 63 bf da 38 16 bf bc 0c 2e be
       0.7123158 -0.888567 -0.586805 -0.16997045
0002b0 45 3b db bf e3 a5 07 3f 15 06 45 bd 78 37 ba be
       -1.7127463 0.529875 -0.048101503 -0.36370444
0002c0 87 97 1c 3f 0a 4b 38 3f 2c b0 af be fe 77 09 3f
       0.6116871 0.719895 -0.34314096 0.5369872
0002d0 d3 e1 42 bf a4 84 51 3f 7e 24 80 be 6c 23 5f 3e
       -0.7612583 0.8184302 -0.2502784 0.21790856
0002e0 11 fb 51 bf d6 b6 49 bf b1 57 56 3f 18 94 0b bb
       -0.8202372 -0.7879461 0.83727556 -0.0021297988
0002f0 62 81 29 3f ff fe b6 bf 9d 7f 08 3f b0 00 2b 3e
       0.6621305 -1.4296569 0.5331972 0.16699481
000300 59 ab 08 3f fe 48 e2 3e 22 64 56 bf f8 0c 00 3f
       0.53386456 0.44196314 -0.8374654 0.5001979
000310 c9 72 c3 be f2 9e bb 3e b7 84 fd 3e 4c 26 0b 3f
       -0.38173512 0.36644703 0.49515316 0.5435531
000320 8e 23 09 3e cd 08 b0 3d 1f 4d 9e be 22 b2 b5 be
       0.1339247 0.085954286 -0.30918214 -0.35487467
000330 07 80 03 3e 82 3e 45 3f 24 0f 63 bd f7 33 42 bf
       0.12841807 0.77048504 -0.05543436 -0.7586054
000340 5d 57 7e 3e 8d ed 6d 3f 28 1e d8 be 75 a8 09 bf
       0.24838014 0.929406 -0.42210507 -0.5377267
000350 49 19 40 be 9b ce ec 3e 95 e9 8c 3e 4b 1c 97 be
       -0.18759646 0.46251377 0.2752196 -0.29513773
000360 e7 5c 85 3d 0e 85 9f 3e b9 6d 78 3e 3d f6 fb 3e
       0.0651186 0.311562 0.24260606 0.49211302
000370 a7 f8 01 3e de 63 99 be 62 b4 19 3f 7d e3 3f bf
       0.1269251 -0.29959005 0.6004087 -0.74956495
000380 85 80 ac bd 09 38 43 3f df bc 87 3f 1e 09 d0 be
       -0.08422951 0.7625738 1.0604514 -0.40631956
000390 b6 7e ef 3d 50 e9 90 3e 3e 46 32 3f 11 aa 29 3f
       0.1169409 0.28303003 0.6963843 0.66275126
0003a0 90 46 82 3f cd 6f e4 3e e8 d5 1d 3e 3a 60 93 3f
       1.0177784 0.44616547 0.1541363 1.1513741
0003b0 8c 9f c4 be 0f 19 a7 bf 8e 4e 2a 3e d8 ff f4 3c
       -0.38402975 -1.3054522 0.16631529 0.029907152
0003c0 83 41 20 bf 05 30 a6 bd 6f 17 83 3e e1 63 9b 3f
       -0.6259996 -0.08114628 0.25603816 1.2139856
0003d0 8b f7 47 bf d1 13 2c 3f 38 df f5 be c5 a8 c3 3f
       -0.78112096 0.6721774 -0.48021865 1.5285879
0003e0 8e ae 3d 3b 0f e7 f7 be 59 24 00 bd c9 75 c1 bd
       0.0028943154 -0.4841847 -0.031284664 -0.09446294
0003f0 4c fd fe be ea 62 92 bc ca 66 dd 3e 7e 85 d3 be
       -0.49802625 -0.017869432 0.43242484 -0.41312784

blocks.0.bn2.weight f4 [64]
000000 2e b9 9b 3f bb 9a a1 3f a3 8a b2 3f 1a cc 98 3f
       1.2165887 1.2625345 1.3948559 1.1937287
000010 ce 96 96 3f bb ea 8d 3f c9 ee 9e 3f cd 6e af 3f
       1.1764772 1.1087259 1.2416621 1.3705689
000020 ee 61 82 3f 67 72 a3 3f 0d 80 a0 3f b2 53 97 3f
       1.0186136 1.2769288 1.2539078 1.1822417
000030 58 5c b4 3f 10 a7 92 3f fd d3 9e 3f 85 1f 93 3f
       1.4090681 1.1457233 1.2408444 1.1493994
000040 60 d4 99 3f fe a9 aa 3f 23 a7 87 3f 33 c2 93 3f
       1.2017937 1.3333127 1.0597881 1.154364
000050 07 28 96 3f 08 7d a8 3f 88 92 98 3f c1 b7 c9 3f
       1.1730965 1.3163157 1.1919718 1.5759202
000060 eb 3b 8b 3f 66 47 b3 3f 16 05 85 3f 0f 62 9d 3f
       1.087766 1.4006164 1.0392177 1.229555
000070 fe ef a9 3f 2b 63 a7 3f 76 61 95 3f f4 be b8 3f
       1.3276365 1.3077139 1.1670368 1.4433274
000080 04 61 9b 3f 40 60 ac 3f 94 9c 8f 3f 5b 19 c2 3f
       1.2138982 1.3466873 1.1219659 1.5163988
000090 7e 74 a0 3f 9d 2c a4 3f 78 44 91 3f be 9e a3 3f
       1.253555 1.2826115 1.134902 1.2782819
0000a0 9b 09 9b 3f ac 76 a7 3f 9a f5 aa 3f 38 94 b5 3f
       1.2112306 1.3083091 1.3356202 1.4185858
0000b0 2e 03 90 3f 28 cc 94 3f 45 c2 a0 3f 14 20 b2 3f
       1.125097 1.1624804 1.2559286 1.391604
0000c0 9f 47 ae 3f cb 4e 9d 3f ec 0a 8d 3f d9 f0 94 3f
       1.3615607 1.2289671 1.1018958 1.1636001
0000d0 81 88 ab 3f 3e cd 81 3f c8 23 80 3f b3 e4 98 3f
       1.3401033 1.014076 1.001092 1.1944793
0000e0 bd 42 a9 3f 70 6b 94 3f 25 6c 9e 3f 66 96 81 3f
       1.3223492 1.1595287 1.2376753 1.0124023
0000f0 0f 7a 9d 3f 80 36 9c 3f f0 d1 9e 3f b7 d6 84 3f
       1.2302874 1.2204132 1.2407818 1.0378026

blocks.0.bn2.bias f4 [64]
000000 09 b7 87 bf e8 4f 5c bf 3f a1 01 c0 0d 15 17 bf
       -1.0602733 -0.8605943 -2.0254667 -0.59016496
000010 2d ea 06 bf 74 d5 87 bf 9b d5 90 bf 14 32 94 bf
       -0.52701074 -1.0612016 -1.1315187 -1.1577783
000020 ee 72 9e bf 12 55 9d bf 98 9e 8b bf fb 0d 9a bf
       -1.2378824 -1.2291586 -1.0907774 -1.2035517
000030 90 8f 93 bf b6 0b 09 bf 66 f3 96 bf d5 4e 63 bf
       -1.1528187 -0.53533494 -1.1793029 -0.88792163
000040 b5 50 81 bf 30 19 2d bf 8e db e5 be f2 27 9f bf
       -1.0102755 -0.6761656 -0.4489407 -1.2434065
000050 12 77 41 bf 6a df a4 bf cf ee 91 bf c0 bd 81 bf
       -0.7557231 -1.288068 -1.1401004 -1.0136032
000060 ce 90 3c bf aa 93 86 bf 45 42 67 bf 99 4a 5b bf
       -0.73658454 -1.0513813 -0.90335494 -0.856607
000070 9d 55 c5 bf 71 f4 1c bf 27 90 c2 bf ab eb 84 bf
       -1.5416752 -0.6131049 -1.5200242 -1.038442
000080 08 9d 3c bf be ba 70 bf 72 22 86 bf 51 3b bf bf
       -0.7367711 -0.94034946 -1.0479262 -1.4939977
000090 31 d8 93 bf 41 89 8d bf 8f 99 5b bf b1 98 86 bf
       -1.1550351 -1.1057512 -0.85781187 -1.0515348
0000a0 fa 59 29 bf 4b dc 87 bf 7a c6 a3 bf c2 44 cf bf
       -0.6615292 -1.0614103 -1.2794945 -1.6192858
0000b0 fd 32 b0 be 10 79 c4 be 43 95 98 bf 1e 77 39 bf
       -0.344139 -0.38373613 -1.1920551 -0.72447383
0000c0 9b 18 5f bf 0e 8c 54 bf d1 e5 91 bf 3d 4e 97 bf
       -0.8714692 -0.83026206 -1.1398259 -1.1820751
0000d0 cc a6 c6 bf 27 f6 0b bf 30 7d 03 bf 6a b8 33 bf
       -1.5519652 -0.54672474 -0.51362896 -0.7020327
0000e0 d5 49 ca bf f2 91 4e bf 92 2a 99 bf 6a 62 34 bf
       -1.5803782 -0.80691445 -1.1966116 -0.7046267
0000f0 ed eb 9e bf 5c aa 57 bf c3 bd ad bf 2f 03 45 bf
       -1.2415749 -0.8424432 -1.3573536 -0.7695798

blocks.0.bn2.running_mean f4 [64]
000000 87 d6 60 c0 bb 2d cf c0 06 ad 90 bf ec cf c3 c0
       -3.5130937 -6.4743323 -1.1302803 -6.119131
000010 e3 89 6a 40 37 44 5a c0 71 7d a3 bf b5 21 2a c1
       3.664666 -3.4104135 -1.2772657 -10.633229
000020 d2 b1 36 c0 d7 21 0d c1 9e 1c 8f bf 15 dc 82 be
       -2.8546033 -8.820762 -1.1180608 -0.25558534
000030 3d 47 db c0 3f 9b 00 c1 3e 78 13 c1 84 5c ca bf
       -6.852446 -8.037902 -9.216856 -1.5809484
000040 98 31 fa bf 23 a7 33 c1 70 f8 85 3f 17 fe 57 c0
       -1.9546385 -11.228305 1.0466442 -3.3748834
000050 e7 e9 1d bf f4 e0 48 c0 0f 5a 92 bf 0a 08 23 c1
       -0.6168503 -3.13873 -1.1433734 -10.189463
000060 bd ab 88 bf b1 09 09 bf 83 01 76 c0 b7 3c 0b c1
       -1.067741 -0.5353041 -3.8438423 -8.702323
000070 ce 18 18 c0 60 33 ce c0 d9 ac f4 c0 c9 e3 03 c1
       -2.376514 -6.4437714 -7.6460996 -8.243112
000080 94 3a 84 c0 b7 79 06 c1 5c ed c6 3e 34 3c 0f c1
       -4.1321507 -8.404716 0.38852966 -8.952198
000090 85 c5 b2 c0 ee 24 44 40 b1 98 8e c0 9b 2a 0f be
       -5.5866113 3.064754 -4.456139 -0.13981096
0000a0 9c 9c 7e c0 1c d6 cb c0 fc d6 31 c0 41 58 0f c1
       -3.9783087 -6.3698864 -2.7787466 -8.959046
0000b0 df 4c 36 3f ba 09 9a c0 ba 08 6f c0 c2 e1 15 c1
       0.71211046 -4.8136873 -3.7349076 -9.367617
0000c0 d7 0c 18 c1 76 f3 af c0 2c 9b 8d c0 74 a8 43 40
       -9.503135 -5.4984694 -4.425192 3.0571566
0000d0 38 3a da bf 6a fb 51 c0 06 31 27 3f d7 72 fe c0
       -1.7049017 -3.28097 0.6530918 -7.9515185
0000e0 6b f9 fa c0 6d ea b7 be bd f4 9b c0 20 c2 ac 3f
       -7.8429465 -0.3592104 -4.8736253 1.3496742
0000f0 da 6c 6b c0 35 16 98 c0 cb 10 c2 bf 0c 71 89 c0
       -3.6785188 -4.752711 -1.5161375 -4.2950497

blocks.0.bn2.running_var f4 [64]
000000 86 3a a5 42 b7 dc c2 42 5b 69 6a 42 88 b1 bd 42
       82.6143 97.43108 58.602886 94.84674
000010 8d d5 db 42 56 eb d3 42 dd 70 94 42 f8 46 94 42
       109.91709 105.95964 74.220436 74.13861
000020 1b 2e 7d 42 4a 27 91 42 0c 5c a7 42 ee af 8e 42
       63.295025 72.57674 83.67978 71.34361
000030 68 e3 b5 42 a8 f4 c6 42 11 9b a2 42 33 69 7a 42
       90.94415 99.477844 81.302864 62.602734
000040 cd 36 6f 42 da 6b b4 42 f5 1f 99 42 ef 38 e4 42
       59.803516 90.21065 76.562416 114.1112
000050 b7 6c 9d 42 cd ec c6 42 43 4b ac 42 87 8d bf 42
       78.71233 99.4625 86.146996 95.77642
000060 c9 2c c7 42 4b 24 bd 42 01 f1 a8 42 d6 55 a7 42
       99.58747 94.570885 84.47071 83.66765
000070 14 77 93 42 2a d5 d7 42 fb 13 96 42 69 bd db 42
       73.732574 107.916336 75.039024 109.86994
000080 45 a7 77 42 cb 54 95 42 09 21 83 42 7f 65 cf 42
       61.91335 74.66561 65.56452 103.698235
000090 3b d3 8a 42 08 a6 8e 42 e8 f6 ad 42 6b 10 8e 42
       69.41256 71.32428 86.98224 71.03207
0000a0 9e e8 92 42 d5 8a 81 42 7a 99 b9 42 cd 53 ae 42
       73.45433 64.77116 92.79976 87.16367
0000b0 ed b2 c5 42 75 27 c2 42 4b c4 98 42 1f 96 9a 42
       98.849464 97.077065 76.383385 77.293205
0000c0 40 62 a8 42 7f 58 b0 42 c2 75 cc 42 cd 5e 74 42
       84.191895 88.172844 102.229996 61.09258
0000d0 ff 01 a6 42 65 4b af 42 83 b9 a3 42 09 a3 a4 42
       83.0039 87.647255 81.86233 82.31843
0000e0 54 2e c4 42 fa 81 ba 42 24 ba 69 42 1f a2 90 42
       98.090485 93.25386 58.431778 72.31664
0000f0 d2 c5 a3 42 87 54 c6 42 f1 07 8e 42 d2 0d a7 42
       81.88637 99.16509 71.01551 83.52699

blocks.1.conv1.weight f4 [64, 64, 3, 3]
000000 b7 21 31 bf cb 7f bc 3e 79 57 a4 3e 50 0a b4 3d
       -0.6919207 0.36816248 0.32097986 0.087910295
000010 13 f4 dd 3e ca 2f 3f 3f cf 31 10 be 88 55 a6 be
       0.43350276 0.74682295 -0.140815 -0.3248713
000020 b3 cf 80 3e 99 8e f0 3e 82 a5 54 bc 9c 57 49 3e
       0.25158462 0.46983793 -0.012978913 0.19662327
000030 ea 36 80 3e be b9 08 bf f4 7b 07 3f df 64 2a bf
       0.25041896 -0.5340842 0.5292351 -0.6656017
000040 6d f4 cc 3e d8 8f ad be f1 d0 48 bf cc fb 58 be
       0.40030232 -0.33898807 -0.7844382 -0.21189803
000050 dd 9c 8e bf d6 4e 4c bf df 14 38 3f 4f f4 39 3e
       -1.1141621 -0.79807794 0.71906847 0.18159603
000060 35 36 91 bf 9a fc 87 be 99 4c 7c 3f 82 8e 75 be
       -1.1344668 -0.26559907 0.9855438 -0.23980144
000070 fd 53 f2 bd 03 1c f6 3e c0 b0 c7 3e 8a 99 71 3e
       -0.11832426 0.48068246 0.39002037 0.23593727
000080 84 df 3e 3d 0d 4b c7 3e 11 49 12 bd e6 11 c1 3d
       0.04659988 0.38924447 -0.035714213 0.09427242
000090 35 bd 63 bf 5f 51 2a be 79 32 44 3f 4c 12 4f be
       -0.8896058 -0.16632603 0.76639515 -0.20221823
0000a0 2f ee da bd 26 df 52 3e 1e a2 80 bf b8 c0 25 bf
       -0.10689961 0.20592937 -1.0049474 -0.6474719
0000b0 9a c8 27 3f 81 fc c2 3e 71 b5 62 bf 9b 15 be 3e
       0.6554047 0.3808327 -0.8855811 0.3712586
0000c0 e5 b3 69 bf 4e 7e fa be e1 b7 e5 be 8e 58 70 bf
       -0.9129012 -0.48924488 -0.4486685 -0.93885124
0000d0 87 c7 30 3f 00 22 04 3f 1f 13 9a be 6e 2f 46 be
       0.69054455 0.5161438 -0.30092713 -0.1935403
0000e0 34 91 b7 3e e8 9c b3 be fe ba 86 bf e1 1d be bd
       0.3585297 -0.35080647 -1.0525815 -0.09283043
0000f0 ab 0f ee be a1 77 29 bd 7e 24 b6 be 40 47 e8 3b
       -0.4649633 -0.041373853 -0.35574716 0.007088572
000100 1e 52 40 bf 39 4f 3f be 4e ba 91 bf 7e 0d 1a 3d
       -0.751253 -0.18682565 -1.1384981 0.037610523
000110 d7 6d 47 3f 93 be 34 bf eb c9 7e be 03 34 80 3e
       0.7790198 -0.70603293 -0.24881713 0.25039682
000120 a7 cc e4 3d 3c 14 1e 3f ac ca a5 b7 79 8e 7f bd
       0.11171847 0.61749625 -1.976391e-05 -0.062391732
000130 9d 49 8f 3c f4 0c 04 3f 00 5c 3e bf ae a8 33 be
       0.017491156 0.51582265 -0.7435913 -0.17544815
000140 e2 5c 39 bf f6 8e ae bd d8 98 a0 3e c9 08 dd be
       -0.7240735 -0.085233614 0.3136661 -0.43170765
000150 b0 33 03 3f 6b b8 a4 be e9 8f b9 ba 6f 4e 73 bf
       0.51250744 -0.3217195 -0.0014157268 -0.95041555
000160 9f 52 5e bf 6c 68 fa bd 0b 7f 84 bf 08 7a 78 bf
       -0.8684482 -0.12226948 -1.035127 -0.97061205
000170 92 07 3a bd d5 96 b0 bd 0b 97 12 bf da a2 b6 be
       -0.045417376 -0.08622519 -0.57261723 -0.3567112
000180 7d 54 4e be 77 00 b1 3d 88 50 b0 bf c8 e6 d9 bd
       -0.20149417 0.08642667 -1.3774576 -0.10639721
000190 5f 6f ce be c5 99 00 bf cf f5 d8 be 8d 76 e0 3d
       -0.40319344 -0.50234634 -0.42375037 0.10960112
0001a0 63 54 58 3f b4 54 51 3f 25 96 f2 3d 50 5c 9e be
       0.84503764 0.8176987 0.11845044 -0.30929804
0001b0 dd 90 61 3f a5 c2 13 3e 7e d2 bb be 5c 31 76 3e
       0.8811167 0.1442972 -0.3668403 0.24042267
0001c0 0b e6 53 be 04 73 8c bf 3c ce 90 bf bb 3a 8e 3d
       -0.20693223 -1.09726 -1.1312938 0.06944796
0001d0 cf 7e 61 bf bc df 86 be 60 b7 87 3c aa 30 81 be
       -0.8808412 -0.2634257 0.016566932 -0.2523244
0001e0 ba 86 e4 3e 56 3f e8 3b ff 6c 63 3f 6b 19 61 be
       0.44634038 0.0070876284 0.8883819 -0.21982352
0001f0 90 36 eb 3e 2f e1 81 be 71 d7 d3 bd 84 a4 15 bd
       0.45940065 -0.25367114 -0.103438266 -0.036533847
000200 47 0d 24 bf 7a 33 5d 3f 66 36 fb ba f4 31 8c 3f
       -0.6408276 0.8640667 -0.0019165992 1.0952744
000210 ab a8 db 3a 58 ab 25 3f 32 fe 12 bf 89 40 58 3d
       0.0016758641 0.64714575 -0.5741912 0.05279592
000220 7c c3 1d 3f d7 cb 79 3e 66 35 c1 3e 73 0b c8 be
       0.6162641 0.24394165 0.37736052 -0.39071235
000230 cf 36 4d bf 12 65 f5 be ae 9c f5 3e 6e 45 11 bf
       -0.80161756 -0.47928673 0.479711 -0.56746566
000240 4a 6d b6 3e 6e de a6 bd 6e bb fb 3c 35 1d 14 bf
       0.35630256 -0.08147894 0.030729022 -0.57857066
000250 06 6e fb 3e 0b 41 42 3e 56 cb 83 bf 48 7c 08 be
       0.4910738 0.18970124 -1.0296428 -0.1332866
000260 a3 ce 0e bc 0b 74 ae 3e ab 5f 23 bd b1 cf 15 be
       -0.008716258 0.3407291 -0.039886158 -0.14630009
000270 08 57 27 bf 32 02 55 3f 68 27 b2 3f 73 87 8e bf
       -0.65367174 0.83206475 1.3918276 -1.1135086
000280 82 0d dc bd 3e f6 df bd 14 50 87 3d 49 09 3a bd
       -0.10744764 -0.10935639 0.066070706 -0.04541901
000290 66 d5 fc bc c0 f0 a8 3d 10 20 0d 3f 0c c2 e7 bd
       -0.030863475 0.082490444 0.5512705 -0.113163084
0002a0 a1 68 6a bf 4c 81 33 bf 7a 50 62 3d 43 b9 9f be
       -0.915659 -0.70119166 0.05525253 -0.3119603
0002b0 e4 28 55 bf 6b 5b b6 bf 78 b8 47 3f 0a 70 61 3d
       -0.8326552 -1.4246649 0.7801585 0.05503849
0002c0 ff 5e 82 3f 52 80 b6 be a7 1d f9 be 15 dd 0f bf
       1.018524 -0.35644776 -0.48655435 -0.5619672
0002d0 32 99 27 be 10 4a 7f 3d 3f 48 ba be 2d 3f 21 3f
       -0.16367033 0.06232649 -0.36383244 0.62987024
0002e0 1e 7a 17 be e5 92 98 be eb ad c8 3e 58 72 b8 bd
       -0.14792678 -0.29799572 0.3919519 -0.09006184
0002f0 31 69 11 3f 4e 4c 53 3f 01 04 0c be 00 6c 98 bf
       0.56801134 0.82538307 -0.13673402 -1.1907959
000300 1f c2 f6 3e e1 8b 86 3e 2d 3a 17 3f d8 75 2d bf
       0.48194978 0.26278594 0.59073144 -0.6775794
000310 2e 24 9f 3e 9c fa dd 3e 77 5f f7 3e 3d cd 99 3f
       0.3108229 0.43355262 0.4831502 1.2015759
000320 f5 b5 11 3e 0e 3a a8 3e db 48 ad be 7d 26 4e be
       0.14229567 0.32856792 -0.33844647 -0.2013187
000330 a9 11 53 bc 0e fa 2d bf ef df fd be e7 de 86 be
       -0.0128826285 -0.6795968 -0.4958491 -0.26341936
000340 d4 ee 32 3c d7 1f 34 3f b9 d3 57 bf 83 54 39 3c
       0.010921199 0.70361084 -0.8430744 0.011311653
000350 26 2c 85 bd fc cd ec be dd 0d 4a 3c 6c 35 2b be
       -0.06502561 -0.46250904 0.012332407 -0.16719598
000360 57 1b 4d bf 1a 19 a2 3e 65 e0 1d 3e fe 0b 81 3e
       -0.8011984 0.31659776 0.15417631 0.25204462
000370 2d 32 4d bd dc 78 dd 3d cf 89 bc 3e 49 6a 54 3f
       -0.05009668 0.10814068 0.3682389 0.8297468
000380 c5 16 cb 3e 34 82 74 3e 04 6e 71 be e2 88 99 be
       0.3966581 0.23877794 -0.23577124 -0.29987246
000390 de bc 33 3e d4 b8 d6 be d8 a3 40 bd 4a 55 21 bd
       0.17552516 -0.41937888 -0.047031254 -0.03938798
0003a0 c2 90 0b 3a f2 58 2a 3e 51 c0 08 3f 77 67 47 bf
       0.0005324 0.16635492 0.5341845 -0.7789225
0003b0 b4 9b 7b bf 79 e6 c8 3d 52 4d 29 bf d0 f9 e0 3e
       -0.9828446 0.09809584 -0.66133606 0.43940592
0003c0 3b 3b cc be 9a 48 d6 bd b1 b3 20 bf c3 7c 31 3d
       -0.3988894 -0.104630664 -0.6277419 0.043331873
0003d0 b5 23 22 bf bd f8 a4 3e 64 1d 91 3f c9 38 26 bf
       -0.63335735 0.32221022 1.1337094 -0.649304
0003e0 cd 70 a7 3e 08 f1 67 3f ca f4 ab be 32 53 62 be
       0.32703248 0.9060216 -0.33585197 -0.22102049
0003f0 fd 8e 1b bf 5a 93 8d be 9b 7d f9 bd d3 2e ca 3d
       -0.6076506 -0.27651483 -0.121821605 0.09872212

blocks.1.bn1.weight f4 [64]
000000 00 aa 3f 3f 3b fa 56 3f 8a f3 2f 3f 43 51 59 3f
       0.74868774 0.8397557 0.68730986 0.8488962
000010 db bc 41 3f fd d5 15 3f b3 2d 5b 3f 32 33 4b 3f
       0.75678796 0.58529645 0.85616606 0.7937499
000020 2e af 60 3f 32 a1 4c 3f 8f 1d 68 3f 7e e7 39 3f
       0.87767303 0.79933465 0.906701 0.72618854
000030 27 f3 1f 3f 48 66 2e 3f 7f fb 62 3f 5c 23 5e 3f
       0.62480396 0.6812482 0.88665 0.86772704
000040 b8 74 52 3f c8 60 5d 3f 1f c5 41 3f 77 e0 07 3f
       0.8220935 0.864758 0.7569141 0.5307688
000050 c9 10 50 3f da 71 3c 3f b1 5c 44 3f 6c bf 28 3f
       0.8127561 0.73611224 0.76703936 0.65917087
000060 fb 18 50 3f 30 60 4e 3f 7d ab 45 3f 03 bb 5b 3f
       0.8128812 0.8061552 0.77214795 0.8583223
000070 87 76 2a 3f d2 51 2a 3f 78 b7 35 3f cf 5a 61 3f
       0.6658711 0.665311 0.70983076 0.8802919
000080 12 3d 55 3f 9e 2a 34 3f 3b 57 43 3f 89 8c 28 3f
       0.8329631 0.7037753 0.7630498 0.6583944
000090 17 05 53 3f 99 02 0d 3f 63 c0 42 3f 83 2b 47 3f
       0.8242964 0.5508209 0.7607481 0.7780077
0000a0 0c ea 7b 3f 1d 12 73 3f 6d c2 34 3f fc 3e 38 3f
       0.98404 0.94949514 0.7060917 0.71971107
0000b0 3e 37 4f 3f 00 08 47 3f 47 f7 38 3f 99 01 52 3f
       0.8094367 0.7774658 0.72252315 0.8203369
0000c0 f3 4a 60 3f 24 09 3e 3f 28 80 52 3f 0c 24 57 3f
       0.87614363 0.742327 0.822268 0.8403938
0000d0 c9 02 f5 3e d1 d5 45 3f f7 5c 43 3f 0c 73 4c 3f
       0.47853687 0.7727938 0.7631373 0.7986305
0000e0 35 9c 5c 3f a9 d7 4f 3f bc 03 40 3f 6a 70 65 3f
       0.86175853 0.81188446 0.750057 0.89624655
0000f0 20 53 5b 3f f7 63 32 3f 53 ce 56 3f ed 75 5f 3f
       0.85673714 0.69683784 0.83908576 0.87289315
