models/rym_grid_c0_s64_e2_t4_r4/resnet_c0_ce_a0p32_l0p16_lr1e-05.pt (torch, 758693 bytes, 28 tensors)

stem.0.weight f4 [64, 64, 3, 3]
0	0xbd8eb869	-0.06968767
1	0x3d63e0a9	0.055634174
2	0xbc1cfe11	-0.0095820585
3	0xbb2b192e	-0.0026107538
4	0x3c2f7712	0.010709541
5	0xbcad4575	-0.021151284
6	0x3bb1c3ca	0.005424951
7	0xbd999847	-0.07499748
8	0xbd8e1598	-0.069377124
9	0x3b9195da	0.0044429125
10	0x3d81a584	0.06330398
11	0xbdd26972	-0.10274018
12	0xbc11fb88	-0.008910067
13	0x3d6ad4dc	0.057331905
14	0xbdb40f67	-0.08792
15	0x3d299a34	0.041406825
16	0x3d4a0f51	0.049331013
17	0x3d01fbac	0.031734154
18	0xbc2bd398	-0.01048746
19	0x3cbd534c	0.023111008
20	0xbd1ebec5	-0.03875615
21	0xbb3b6c15	-0.0028598357
22	0x3c711bba	0.014716083
23	0x3c1b6f97	0.009487054
24	0x3c3c404d	0.01148994
25	0x3d1e060f	0.038579997
26	0x3d63ee44	0.05564715
27	0xbcf384c0	-0.029726386
28	0xbd290e02	-0.041273125
29	0x3c0c534b	0.0085647805
30	0xbcd380a8	-0.025818184
31	0x3cd6002a	0.026123125
32	0x3d25355c	0.04033409
33	0x3d01ff9a	0.0317379
34	0x3d28d003	0.041214
35	0x3d52e7f3	0.051490735
36	0xbca9855a	-0.02069347
37	0x3cbcc07a	0.023040999
38	0x3ce7384a	0.028225083
39	0x3d698af2	0.057017274
40	0x3db11d70	0.08648193
41	0x3c35b836	0.011091283
42	0x3d81902e	0.06326328
43	0xbd37d1f9	-0.04487798
44	0x3cee1f9d	0.029067809
45	0xbcbab109	-0.022789495
46	0xbcb3d0d9	-0.021950172
47	0xbd04ccd2	-0.032421894
48	0xbd2cc389	-0.042178664
49	0x3d9027df	0.07038855
50	0xbd282618	-0.041051954
51	0x3c7bb903	0.015363934
52	0x3d9574e0	0.07297683
53	0xbd144eba	-0.036207892
54	0xbd617fcc	-0.055053517
55	0x3d412a34	0.04715939
56	0x3cc7c1b3	0.024384355
57	0x3b53d24f	0.0032321399
58	0xbd8345d8	-0.06409806
59	0x3d31978a	0.04335741
60	0x3d49968e	0.049215846
61	0x3d587f63	0.05285586
62	0xbcedbc8b	-0.029020568
63	0xbd190a65	-0.03736343
64	0x3b58fbf0	0.003310915
65	0xbd3f6aa3	-0.046732556
66	0x3d6c4184	0.057679668
67	0x3da57929	0.0807975
68	0xbc8225ac	-0.015887104
69	0x3c7fb7cc	0.015607785
70	0x3d2ab26f	0.041674074
71	0x3db55d67	0.08855706
72	0xbd997544	-0.0749307
73	0xbd69c42d	-0.057071853
74	0xbd08027a	-0.033205487
75	0xbd12c017	-0.035827722
76	0xbd401fc2	-0.046905287
77	0x3b108bc7	0.002205597
78	0x3d7e4a93	0.06208284
79	0x3d134e79	0.03596351
80	0x3d12d491	0.03584725
81	0xbb9081e8	-0.0044100173
82	0x3cc3f30e	0.023919608
83	0xbcdc2ad0	-0.026875883
84	0x3cd83ba3	0.026395625
85	0x3cf4b78f	0.029872684
86	0x3c8cf8b6	0.017208438
87	0x3d68177a	0.056663014
88	0x3ca1f1bd	0.01976859
89	0x3d5e9ed2	0.05435068
90	0xba50b126	-0.00079609675
91	0xbd87ddbf	-0.066340916
92	0xbda31655	-0.07963244
93	0x3d29a63e	0.041418307
94	0x3c2f0ea9	0.010684648
95	0xbc69b34b	-0.014263938
96	0xbc6c76ae	-0.014432592
97	0x3c5b55a3	0.013387117
98	0x3d1270a9	0.035751972
99	0xbd2c2ec4	-0.042036787
100	0xbce5d9e1	-0.028057994
101	0xbdc1f8ce	-0.09471284
102	0xbd42595c	-0.0474485
103	0x3cce865b	0.02521055
104	0x3cf344d3	0.029695904
105	0x3c0f7f86	0.008758431
106	0xbcadbd4c	-0.021208428
107	0x3d0c5fb7	0.03427097
108	0xbc5d599d	-0.013510135
109	0x3d1094dd	0.035298217
110	0x3c401e7b	0.011726017
111	0x3c8001d7	0.015625877
112	0x3d4ab719	0.04949102
113	0xbd57ec91	-0.05271584
114	0xbb06cc76	-0.0020568646
115	0x3ce7f5e7	0.028315498
116	0xbd986268	-0.074406445
117	0x3c1b329a	0.009472514
118	0xbd5ff7dd	-0.05467974
119	0xbd39a4a5	-0.045323033
120	0x3cb053ca	0.021524329
121	0x3c0372f1	0.00802301
122	0x3cb9ee31	0.022696586
123	0x3b73d12c	0.0037203534
124	0xbc9089bb	-0.0176438
125	0x3bd8ff0d	0.0066222013
126	0xbc8bf15a	-0.017082859
127	0x3c71c9b7	0.014757565
128	0xbd4a1109	-0.049332652
129	0xbd0d2cfc	-0.03446673
130	0xbd6b6480	-0.05746889
131	0x3d09e36f	0.033664163
132	0x3c54fb05	0.012999301
133	0xbbbb83c6	-0.0057224957
134	0xbd746a8c	-0.059671924
135	0xbce5e177	-0.028061612
136	0x3b443679	0.0029939695
137	0xbcfbee90	-0.030753404
138	0xbcbea9f8	-0.023274407
139	0xbcc6ed75	-0.02428315
140	0xbd182e3c	-0.037153468
141	0xbcc65e59	-0.02421491
142	0xbc928327	-0.017884804
143	0xbcf7f77f	-0.030269383
144	0xbd005eba	-0.03134034
145	0x3c45d16f	0.012073859
146	0xbce48e84	-0.027899988
147	0x3c7d81a3	0.015472802
148	0xbd08f9e8	-0.033441454
149	0xbd2552e5	-0.040362258
150	0xbce3d8fb	-0.027813425
151	0x3bc2e9f9	0.005948302
152	0xbd420614	-0.047369078
153	0xbcbaab92	-0.02278689
154	0x38a21336	7.72834e-05
155	0xbd133389	-0.03593782
156	0x3ccbcecd	0.024878884
157	0x3c86d7f2	0.016460393
158	0xbd0c82df	-0.034304496
159	0xbae487cc	-0.001743549
160	0xbcaba342	-0.02095187
161	0xbb478bec	-0.003044839
162	0xbbeed1cf	-0.0072881947
163	0xbd363155	-0.04448064
164	0xbcc09e45	-0.023512969
165	0xbd463581	-0.04839087
166	0x3d790d71	0.060803834
167	0xbc9a701f	-0.018852292
168	0x3bc3710b	0.0059644035
169	0x3d1601d0	0.036622822
170	0x3d960ab1	0.07326258
171	0x3cb95418	0.022623107
172	0x3d44eeaf	0.04807919
173	0xbca5f6d7	-0.020259304
174	0x3d01d6ec	0.031699106
175	0xba8a89f0	-0.0010569673
176	0x3c98d237	0.018654926
177	0x3ccd15a9	0.025034742
178	0xbc6c8c45	-0.01443774
179	0x3cb9fde5	0.022704074
180	0xbd01d153	-0.031693768
181	0x3c628b31	0.013827131
182	0x3cebc065	0.028778264
183	0x3d02f029	0.031967316
184	0xbc17dd44	-0.009269062
185	0xbad25b09	-0.0016048859
186	0xbb554fd8	-0.0032548811
187	0x3cca92f0	0.024728268
188	0xbc1759c1	-0.009237708
189	0xbbfdc596	-0.0077445013
190	0x3bd23a2a	0.006415625
191	0xbce2fc2a	-0.027708132
192	0x3d252290	0.040316164
193	0xbbd585a2	-0.0065161744
194	0x3b49310c	0.00306994
195	0x3d80adfb	0.06283184
196	0x3ce21d8c	0.02760198
197	0x3d03fd83	0.03222419
198	0x3cc2982c	0.023754202
199	0xbc5e7f9e	-0.013580231
200	0xbc5b19e9	-0.013372877
201	0x3a77e849	0.00094569154
202	0x3cdf5d03	0.027266031
203	0xbc7b6674	-0.015344251
204	0xbc4fd73a	-0.012685591
205	0xbc9f8277	-0.01947139
206	0x3c04bf0a	0.008102188
207	0x3cd3d3e5	0.025857875
208	0xbc42fdf0	-0.011901364
209	0xbbf09269	-0.007341672
210	0x3ca1bed2	0.01974431
211	0x3ce46085	0.027878055
212	0xbcdafa46	-0.026730668
213	0xbb80f424	-0.003935354
214	0x3c4373d2	0.011929469
215	0xbb3ddfe2	-0.0028972556
216	0x3d07172d	0.032981087
217	0x3d0922f4	0.0334806
218	0xbd03781c	-0.032096967
219	0xbc315aa3	-0.010824832
220	0x3d2646b1	0.04059476
221	0xbc49365c	-0.012281027
222	0xbbdc6e07	-0.0067269835
223	0xbd09008f	-0.0334478
224	0xbd18aa98	-0.037272066
225	0x3bf62474	0.00751167
226	0x3cb91d13	0.022596871
227	0xbc990e9e	-0.018683728
228	0x3c846fa0	0.016166508
229	0x3c07a33f	0.008278667
230	0xbcc64311	-0.024201902
231	0x3c83c9d1	0.016087444
232	0xbc2065c5	-0.009789889
233	0xbd2bb088	-0.0419164
234	0x3d29d006	0.041458152
235	0xbb1ac1d2	-0.002361406
236	0x3d390526	0.045170926
237	0x3ca56f09	0.020194547
238	0x3a1585cf	0.0005703838
239	0x3d05b48c	0.032642886
240	0x3cdf3994	0.027249135
241	0x3c02f1a3	0.007992181
242	0x3c289812	0.010290163
243	0xbc388f6a	-0.011264661
244	0x3b91428d	0.0044329823
245	0x3ce138c1	0.027492883
246	0x3d03f748	0.032218248
247	0xbcab8085	-0.020935306
248	0xbcc9b81b	-0.024623921
249	0x3d35870c	0.044318244
250	0x3d502176	0.05081316
251	0x3acdaaea	0.0015691195
252	0x3cd7ef51	0.026359232
253	0xbd0ac0d7	-0.033875313
254	0x3c2cfe59	0.010558688
255	0xba871c7f	-0.0010308175

stem.1.weight f4 [64]
0	0x3f7f6641	0.997654
1	0x3f77dafb	0.9681851
2	0x3f79d86b	0.9759585
3	0x3f7b0a95	0.9806302
4	0x3f831fcd	1.024408
5	0x3f822733	1.0168213
6	0x3f75fe42	0.9609109
7	0x3f7f73ea	0.99786246
8	0x3f7f8f59	0.99828106
9	0x3f7d471b	0.98936623
10	0x3f84ac2f	1.0365046
11	0x3f80c669	1.006055
12	0x3f7d85e9	0.99032456
13	0x3f7a26eb	0.97715634
14	0x3f800ea5	1.0004469
15	0x3f7c4025	0.98535377
16	0x3f7a6bdc	0.9782083
17	0x3f7f176e	0.99645126
18	0x3f79e144	0.97609353
19	0x3f7c47fb	0.98547333
20	0x3f75c8ea	0.96009696
21	0x3f743284	0.9538958
22	0x3f7b3efd	0.9814299
23	0x3f7843b7	0.96978325
24	0x3f811f2a	1.0087636
25	0x3f77f871	0.96863467
26	0x3f7ed5ac	0.9954479
27	0x3f813f59	1.0097457
28	0x3f7d59a8	0.9896493
29	0x3f77eb52	0.96843445
30	0x3f7eb315	0.9949201
31	0x3f7ccbad	0.98748285
32	0x3f7ceba1	0.9879704
33	0x3f7b39b7	0.9813494
34	0x3f7c1101	0.98463446
35	0x3f812b25	1.0091292
36	0x3f77f805	0.9686282
37	0x3f7a33d2	0.9773532
38	0x3f806e7b	1.0033716
39	0x3f825053	1.0180763
40	0x3f7fe04a	0.9995161
41	0x3f76e5a8	0.9644418
42	0x3f794181	0.97365576
43	0x3f7e325d	0.992956
44	0x3f77e9c4	0.96841073
45	0x3f72f766	0.9490875
46	0x3f7eda59	0.9955192
47	0x3f7ae77d	0.98009473
48	0x3f7c5b81	0.98577124
49	0x3f7a972c	0.9788692
50	0x3f7fb6da	0.99888384
51	0x3f7a7c32	0.97845757
52	0x3f81290e	1.0090654
53	0x3f7a7a0c	0.9784248
54	0x3f8264c1	1.0186998
55	0x3f7f0f40	0.99632645
56	0x3f805584	1.0026097
57	0x3f7b979f	0.9827823
58	0x3f7b9f39	0.9828983
59	0x3f7b85df	0.98251146
60	0x3f77f55e	0.96858776
61	0x3f7fd27d	0.99930555
62	0x3f7ad70d	0.9798439
63	0x3f79d865	0.97595817

stem.1.bias f4 [64]
0	0x3c93e0e8	0.01805158
1	0x3c639d6b	0.013892512
2	0x3b93f3f5	0.004515166
3	0xbc0d4d60	-0.008624405
4	0x3c6d8078	0.014495961
5	0x3ce93465	0.028467366
6	0x3c1d956f	0.009618147
7	0x3b8b2e8a	0.0042474912
8	0x3d070e6b	0.032972734
9	0x3d4aab99	0.049480055
10	0x3d5714da	0.05251012
11	0x3d18ee84	0.03733684
12	0x3d0b2477	0.033970322
13	0xbb819c83	-0.003955425
14	0x3c7d17c3	0.01544756
15	0x3d4d40f5	0.050110776
16	0x3d1dceba	0.038527228
17	0x3c8e52b0	0.017373413
18	0x3cf6545b	0.03006952
19	0xbc13f133	-0.009029674
20	0x3bb319a2	0.005465702
21	0xbc2766f1	-0.010217414
22	0x3ab2889a	0.0013621033
23	0x3cdc3f79	0.026885735
24	0x3d243adc	0.040095195
25	0xbbad714a	-0.005293046
26	0x3b223a90	0.0024754144
27	0x3cfbe8a0	0.030750573
28	0x3d1478fb	0.03624819
29	0x3bfc4304	0.0076984186
30	0x3d2ceff7	0.042221036
31	0x3cc2956d	0.023752892
32	0x3cab2122	0.020889822
33	0x3c4f8854	0.0126667805
34	0x3cca6465	0.024706075
35	0x3d4d4d5f	0.050122615
36	0x3bccbcb7	0.0062480825
37	0x3d2c9560	0.042134643
38	0x3ca1a161	0.019730272
39	0x3cac9a8d	0.02106979
40	0x3cfcdb0e	0.030866172
41	0x3d4fa533	0.050694656
42	0xbcc91d11	-0.024549993
43	0x3db78f89	0.08962924
44	0x3aef92d8	0.0018278016
45	0xbcf781d0	-0.030213267
46	0x3d2e9447	0.042621877
47	0x3aa25c32	0.0012387095
48	0x3ce22cc4	0.027609237
49	0xbb2e97f5	-0.0026640866
50	0x3d2083bd	0.039188135
51	0x3c1fbbd8	0.009749375
52	0x3c6fa080	0.0146256685
53	0xbb1952cd	-0.00233953
54	0x3d83c404	0.064338714
55	0x3c6eeef1	0.014583335
56	0xbc1eaf18	-0.0096853
57	0x3d1b5dfe	0.037931435
58	0x3a0c7acc	0.00053588743
59	0x3d4d1d8a	0.050077
60	0x3bdac88f	0.0066767405
61	0x3d4e26fa	0.05033014
62	0x3b14e795	0.0022721041
63	0x3d7b9d23	0.061429154

stem.1.running_mean f4 [64]
0	0xbdf297d9	-0.11845369
1	0x3dacdff2	0.08441152
2	0xbe0147db	-0.12625067
3	0x3e04970a	0.12948242
4	0xbea7a308	-0.3274157
5	0xbdb635c3	-0.08896973
6	0x3e47fe23	0.19530539
7	0x3e1b910d	0.15192051
8	0xbe7a577c	-0.24447435
9	0xbdc366f7	-0.09541123
10	0xbe88bdbc	-0.26707256
11	0xbe59b30f	-0.21259712
12	0x3c03b4fd	0.008038756
13	0x3dd2d7c5	0.10295061
14	0x3e014319	0.12623252
15	0xbd4c2e12	-0.049848624
16	0xbe041d5d	-0.12901826
17	0x3e905a5c	0.2819394
18	0xbe69c0ca	-0.2282745
19	0xbc8c7697	-0.017146392
20	0xbd53e176	-0.05172869
21	0x3d98f952	0.07469429
22	0xbe615ad3	-0.22007303
23	0x3dca3d8d	0.09875021
24	0x3d155499	0.03645763
25	0xbe4565c4	-0.19277102
26	0xbd76cfb1	-0.060256664
27	0xbc72539e	-0.014790444
28	0x3d08a719	0.03336248
29	0xbd739169	-0.059464846
30	0x3d32e3e7	0.043674376
31	0xbea7118c	-0.32630575
32	0x3e77baff	0.24192427
33	0x3d5cfa56	0.053949676
34	0xbd5d4ea2	-0.05403007
35	0xbe30e514	-0.17274886
36	0xbccabe03	-0.024748808
37	0x3bde2dff	0.0067803855
38	0xbe4d3feb	-0.20043914
39	0xbe8e6f02	-0.27819067
40	0xbe3a23c1	-0.18177702
41	0xbd84b773	-0.06480303
42	0xbe103379	-0.14082135
43	0xbe36f0b9	-0.17865266
44	0x3dfb4b33	0.122702025
45	0x3d18d87a	0.037315823
46	0x3da0aba2	0.07845236
47	0xbe54d31e	-0.2078366
48	0x3dfcf1ae	0.12350784
49	0x3dd1d1ff	0.10245132
50	0x3d7a3b01	0.061091427
51	0xbd4105fd	-0.04712485
52	0xbdf5258b	-0.119700514
53	0x3e85d2c8	0.26137376
54	0x3e72a38d	0.23695202
55	0xbe812b56	-0.25228375
56	0xbdef27e4	-0.116775304
57	0x3d0529b1	0.032510463
58	0x3dd4b3da	0.103858665
59	0x3e516a44	0.20450693
60	0xbda0a0b5	-0.078431524
61	0xbdf1e05f	-0.118103735
62	0xbc841281	-0.016122105
63	0x3d2a9fd7	0.04165634

stem.1.running_var f4 [64]
0	0x3d710782	0.05884505
1	0x3d20f07e	0.03929185
2	0x3d4a1d36	0.049344264
3	0x3d829997	0.06376951
4	0x3d976bf6	0.07393639
5	0x3d652646	0.055944704
6	0x3d1e9291	0.038713995
7	0x3d17d6a7	0.037069943
8	0x3d42ac0f	0.04752737
9	0x3d38130d	0.044940043
10	0x3d7a3484	0.06108524
11	0x3d122d58	0.035687774
12	0x3d3aa3c7	0.045566346
13	0x3d5b687c	0.05356644
14	0x3d42ac63	0.047527682
15	0x3ce12945	0.0274855
16	0x3ccffa5c	0.025387935
17	0x3d36716b	0.044541758
18	0x3d3a5d37	0.045499053
19	0x3d22b372	0.039721914
20	0x3d07bd42	0.033139475
21	0x3d58a9d1	0.052896325
22	0x3dbaee5d	0.091274954
23	0x3d36be8b	0.04461531
24	0x3db94ed9	0.09048242
25	0x3d75527e	0.059893124
26	0x3d8b3cd9	0.06798715
27	0x3d896c2b	0.067100845
28	0x3d2c0a34	0.042001918
29	0x3d29c91b	0.041451555
30	0x3d71b747	0.059012678
31	0x3d5ef205	0.054430027
32	0x3dd12939	0.10212941
33	0x3da39840	0.07988024
34	0x3d1d0738	0.038336962
35	0x3ceabcf4	0.028654553
36	0x3d8d8981	0.069109924
37	0x3d0072df	0.03135955
38	0x3d591b3a	0.05300448
39	0x3d3fdecc	0.046843335
40	0x3d19a6b5	0.0375125
41	0x3d184c13	0.037181925
42	0x3d6c49dc	0.057687625
43	0x3ced0b3d	0.028936023
44	0x3d28646d	0.0411114
45	0x3d408083	0.04699756
46	0x3d035ddc	0.032071933
47	0x3d56a3d2	0.052402325
48	0x3d0153d1	0.031574074
49	0x3d6b1451	0.057392422
50	0x3d75ed0c	0.06004052
51	0x3cf94aa3	0.030431097
52	0x3d45aa8a	0.04825834
53	0x3dcbad7c	0.09945199
54	0x3d214d0f	0.03938013
55	0x3da92b50	0.08260214
56	0x3ce9ebbe	0.028554793
57	0x3d65d260	0.056108832
58	0x3d242074	0.040070012
59	0x3d0e2030	0.034698665
60	0x3d461bd0	0.048366368
61	0x3d38d592	0.04512555
62	0x3d8d269b	0.06892129
63	0x3d0eee6e	0.034895353

blocks.0.conv1.weight f4 [64, 64, 3, 3]
0	0x3d3b7a14	0.04577072
1	0x3c7db3cc	0.015484761
2	0xbbd7daaf	-0.0065873484
3	0xbc80065a	-0.015628029
4	0x3cbb89f9	0.022892939
5	0xbc5b6710	-0.013391271
6	0x3cce34de	0.025171693
7	0xbca95c77	-0.020673973
8	0xbca95d60	-0.020674407
9	0x3d1628a8	0.036659867
10	0xbc98286d	-0.018573964
11	0xbc96a531	-0.018389316
12	0x3d2a3d9b	0.041562658
13	0x3bc3ee2b	0.0059793196
14	0xbbfff515	-0.0078111985
15	0xbce35cdd	-0.027754242
16	0xbce1c2bf	-0.027558682
17	0xbcf0f354	-0.029412903
18	0xbae8682d	-0.0017731242
19	0xbccf63e2	-0.025316183
20	0xbc493705	-0.012281184
21	0xba9badc9	-0.0011877354
22	0x3b67e945	0.0035386842
23	0xbbc1793f	-0.0059043462
24	0x3bd069f8	0.0063602887
25	0x3cb9119c	0.022591405
26	0x3be76561	0.007061646
27	0x3c21472d	0.00984363
28	0x3d077e60	0.033079505
29	0x3cc6792d	0.024227703
30	0xbc9d1753	-0.01917616
31	0x3bef30e5	0.00729953
32	0x3d168703	0.03674985
33	0xbc067a95	-0.008207937
34	0xbcc8c078	-0.024505839
35	0xbb4b5cdd	-0.0031030693
36	0xbccfaed9	-0.025351929
37	0x3d3be9ab	0.04587714
38	0x3c8e62da	0.01738112
39	0xbb6e2c4e	-0.0036342326
40	0x3cad2e97	0.02114038
41	0x3ce3ba1e	0.027798709
42	0x3c99ef28	0.018790796
43	0xbcf36fe2	-0.029716436
44	0xbc97e2b6	-0.018540721
45	0xbd106951	-0.035256688
46	0x3c8e9f25	0.01740987
47	0x3d107baf	0.035274204
48	0x3d566f74	0.052352384
49	0xbba49f32	-0.0050238604
50	0xbcf267a5	-0.029590437
51	0x3d40c09c	0.047058687
52	0xbc02e485	-0.007989054
53	0x3c7bf396	0.0153779
54	0x3d1b09a0	0.037850976
55	0x3c68a067	0.014198399
56	0x3cdcd350	0.02695623
57	0x3c654720	0.013994008
58	0x3cc4a3ec	0.024003945
59	0xbc19d2a8	-0.009388603
60	0x3c7a5c93	0.0152808605
61	0x3cf4e3cf	0.029893784
62	0xbd1f465a	-0.03888545
63	0x3c831f6f	0.0160062
64	0x3d1a0021	0.03759778
65	0xbb7555dd	-0.0037435212
66	0xbbd483b6	-0.0064854277
67	0x3d1d6b68	0.03843251
68	0x3c52145d	0.012822238
69	0x3d24fdae	0.04028099
70	0x3c4df959	0.012571656
71	0xbd25893d	-0.040414084
72	0x3cbe353d	0.023218745
73	0x3a84eddf	0.0010141692
74	0xbc5dbdd0	-0.013534024
75	0xbd4410e0	-0.047867656
76	0x3cff4c33	0.031164264
77	0x3ce58dfd	0.028021807
78	0x3cf892e1	0.030343475
79	0x3d0bed5d	0.034161914
80	0xbbcfceef	-0.006341807
81	0x3d0f1df3	0.03494067
82	0xbc33539c	-0.010945227
83	0x3d361dd7	0.04446205
84	0x3c965c7b	0.018354645
85	0xbd276b21	-0.04087365
86	0x3b58d75a	0.0033087344
87	0x3c4353d3	0.011921841
88	0xbcc1617a	-0.02360605
89	0x3c1f051f	0.009705811
90	0xbc88d103	-0.016701227
91	0x3c9f0b7d	0.019414658
92	0xbcb919f2	-0.02259538
93	0x3c281803	0.010259631
94	0x3cb87323	0.022515839
95	0xbd2db53f	-0.042409178
96	0xbc5406ba	-0.012941057
97	0x3ccd1bf3	0.025037741
98	0xbb9f26cd	-0.0048569203
99	0xbbad1b72	-0.0052828128
100	0x3cccee4a	0.025015969
101	0x3cd32c5a	0.025777984
102	0x3ac875e1	0.001529392
103	0x3c36b265	0.011150931
104	0xbca6b798	-0.020351216
105	0x3cca5da7	0.02470286
106	0x3d0c2365	0.034213442
107	0xbcfe7211	-0.03106025
108	0x3d3ab528	0.04558292
109	0xbc440dce	-0.011966182
110	0x3d3e37a4	0.04643978
111	0xbc28c8da	-0.010301793
112	0x3c4b58d6	0.012411317
113	0x3ceee93d	0.029163951
114	0xbcb135b8	-0.02163206
115	0x3c369266	0.011143303
116	0xbc9ca133	-0.019119835
117	0x3cba8744	0.022769578
118	0xbcd4c2d1	-0.025971802
119	0xbcef537d	-0.029214615
120	0xbb3957fb	-0.00282812
121	0xbae5a933	-0.0017521739
122	0xbd26dcaf	-0.040737804
123	0xbd26d362	-0.040728934
124	0x3cf4bc8c	0.029875062
125	0x3c774db3	0.0150942085
126	0x3b01f2aa	0.0019828477
127	0xbd3eeb96	-0.04661139
128	0xbd57e65a	-0.052709915
129	0xbd1e9f54	-0.038726166
130	0xbc5daed3	-0.013530451
131	0x3b814c15	0.0039458373
132	0xbca613cd	-0.020273114
133	0x3d3a73ca	0.04552058
134	0xbc6c0e95	-0.0144077735
135	0xbcb79d85	-0.022413978
136	0xbd2ea1cd	-0.042634774
137	0x3cbd7bb0	0.023130268
138	0x3caf4e44	0.021399625
139	0x3c8dda07	0.017315878
140	0xbc498895	-0.01230063
141	0x3aaf971f	0.0013396478
142	0x3bbf967c	0.0058467966
143	0x3c3727fb	0.011178966
144	0xbab08d09	-0.0013469766
145	0xbc4c786a	-0.012479881
146	0x3d2342d3	0.03985865
147	0xbd0f0697	-0.034918394
148	0xbcad0b98	-0.021123692
149	0x3d706e2b	0.058698814
150	0x3ca7e23e	0.020493623
151	0x3b3a271d	0.002840466
152	0xbb04f696	-0.0020288578
153	0x3beafe0f	0.0071713994
154	0xbcf56c46	-0.029958855
155	0xbd03b2c6	-0.032152914
156	0xbb47d27d	-0.003049045
157	0xbd08a4d9	-0.033360336
158	0xbc58c495	-0.013230463
159	0xbc50832c	-0.012726586
160	0xbc7afd8e	-0.015319241
161	0xbc686eda	-0.014186585
162	0xbc578642	-0.013154568
163	0xbb93bcdb	-0.0045085973
164	0xbcd8bb3f	-0.026456473
165	0xbcd6e407	-0.026231779
166	0x3a555123	0.00081373955
167	0xbd0bbd8d	-0.034116317
168	0x3cf371a7	0.02971728
169	0xbcb23c87	-0.021757377
170	0xbd49de2d	-0.04928415
171	0xbd0340ed	-0.03204434
172	0x3d3e210d	0.04641824
173	0xbcb83550	-0.022486359
174	0xbba4b3d5	-0.0050263205
175	0xbc3580e5	-0.011078094
176	0x3c5e0681	0.013551355
177	0x3d01c17e	0.03167867
178	0x3a17c640	0.00057897344
179	0xbc5eb8ee	-0.013593895
180	0xbce0ee99	-0.027457522
181	0x3d259eb0	0.04043454
182	0xbcd6863c	-0.026187055
183	0x3bea6b87	0.0071539315
184	0xbcd372eb	-0.025811633
185	0xbcbdd0aa	-0.023170788
186	0xbd170e6d	-0.036878992
187	0x3c54756e	0.012967451
188	0x39b7fdff	0.00035093722
189	0xbceb3fb4	-0.0287169
190	0xbd21dfd7	-0.03952011
191	0x3aafea68	0.0013421299
192	0xbc0fa21c	-0.008766677
193	0x3cc91056	0.024543922
194	0x3cf6f368	0.030145362
195	0x3d24ff13	0.04028232
196	0xbb9fba9d	-0.004874541
197	0x3c2f0f44	0.010684792
198	0x3d4917c5	0.049094934
199	0x3d29796e	0.04137557
200	0xba27acae	-0.0006396276
201	0x3bd25f72	0.0064200694
202	0x3d09163a	0.033468463
203	0x3ca9161a	0.020640422
204	0x3d0ee2b5	0.034884173
205	0x3ca0e034	0.019638158
206	0x3cbb6635	0.022875885
207	0xbd1eea41	-0.03879762
208	0xbd050f77	-0.03248545
209	0x3c366a95	0.01113381
210	0xbbfe4240	-0.0077593625
211	0xbbcd6407	-0.0062680277
212	0x3cc9928d	0.024606014
213	0xbd182ab0	-0.037150085
214	0xbbd89b2a	-0.006610294
215	0x3cf4a3b6	0.02986322
216	0xbd232740	-0.039832354
217	0x3c6da97b	0.014505739
218	0xbcba9402	-0.022775654
219	0xbc92745c	-0.01787775
220	0xbc8263e3	-0.01591677
221	0x3c433bcc	0.011916112
222	0xbd105c13	-0.03524406
223	0xbd4645e8	-0.04840651
224	0x3cc37a09	0.023861902
225	0xbcc7008c	-0.024292253
226	0x3d11ec2d	0.035625625
227	0x3c5c0376	0.0134285595
228	0xbaf55b2f	-0.0018719191
229	0xbbd2cd13	-0.006433138
230	0x3d719326	0.058978222
231	0xbc86bbbf	-0.016446946
232	0x3ce46ab1	0.027882906
233	0xbbcdcb40	-0.006280333
234	0xbd357784	-0.044303432
235	0xbd2cb332	-0.04216308
236	0x3d2b69be	0.04184889
237	0xbc418fa0	-0.011814028
238	0xbb32fe2e	-0.0027312147
239	0x3ca0e204	0.019639023
240	0x3b462219	0.0030232726
241	0xbc1b9229	-0.0094952965
242	0x3c733cb0	0.014846012
243	0x3b79d7d4	0.0038123028
244	0x3d36c082	0.044617184
245	0xbb46fc62	-0.0030362834
246	0xbd0cb865	-0.03435554
247	0x3d182944	0.03714873
248	0x3d26b57b	0.040700417
249	0x3c57eb03	0.01317859
250	0xbd1f4c1e	-0.03889095
251	0x3d22afd9	0.039718483
252	0x3cf89076	0.030342322
253	0x3cad9785	0.021190414
254	0xbce3c35b	-0.027803114
255	0x3cbec908	0.023289219

blocks.0.bn1.weight f4 [64]
0	0x3f80641b	1.003055
1	0x3f810b47	1.0081567
2	0x3f7f4acb	0.997235
3	0x3f7df170	0.9919653
4	0x3f7a6d90	0.9782343
5	0x3f814b0c	1.0101027
6	0x3f8085b8	1.0040808
7	0x3f7cd927	0.9876885
8	0x3f81422a	1.0098317
9	0x3f7d7d84	0.99019647
10	0x3f810a90	1.0081348
11	0x3f83cd5e	1.0297048
12	0x3f81f8f9	1.0154105
13	0x3f817da0	1.0116463
14	0x3f823296	1.0171688
15	0x3f7e571d	0.99351674
16	0x3f813db8	1.009696
17	0x3f8059e5	1.0027434
18	0x3f807742	1.0036395
19	0x3f7f4ef1	0.9972983
20	0x3f82681c	1.0188022
21	0x3f853579	1.0406944
22	0x3f815abe	1.0105817
23	0x3f816ff2	1.0112288
24	0x3f807453	1.0035499
25	0x3f7faf98	0.9987731
26	0x3f82181f	1.0163611
27	0x3f82c998	1.0217772
28	0x3f7f3ad8	0.99699163
29	0x3f7cfdaa	0.9882456
30	0x3f848098	1.0351744
31	0x3f84ef31	1.0385495
32	0x3f86d842	1.0534747
33	0x3f7fc9ad	0.9991711
34	0x3f7eb317	0.9949202
35	0x3f78c560	0.9717617
36	0x3f7b2104	0.9809725
37	0x3f812747	1.0090111
38	0x3f7e9e7f	0.99460596
39	0x3f7b462e	0.9815396
40	0x3f7e3d9b	0.9931275
41	0x3f7eac6c	0.99481845
42	0x3f7bb224	0.98318696
43	0x3f7d33c3	0.9890711
44	0x3f7dccf4	0.9914086
45	0x3f8049c5	1.0022513
46	0x3f801e5b	1.0009264
47	0x3f824a81	1.0178987
48	0x3f7cfaa9	0.9881998
49	0x3f818bb7	1.0120763
50	0x3f7ddc80	0.9916458
51	0x3f824244	1.0176473
52	0x3f80e74f	1.007059
53	0x3f7f83a2	0.9981023
54	0x3f811d24	1.0087018
55	0x3f7deeea	0.9919268
56	0x3f7ea447	0.9946942
57	0x3f7dfee9	0.9921709
58	0x3f7cd1fd	0.98757917
59	0x3f7e4f8b	0.9934012
60	0x3f839a55	1.0281473
61	0x3f81fbd1	1.0154973
62	0x3f7ecb63	0.99529094
63	0x3f80cd85	1.006272

blocks.0.bn1.bias f4 [64]
0	0x3c03107c	0.007999536
1	0x3ce5fd45	0.02807487
2	0x3c16602a	0.009178201
3	0x3684f820	3.962792e-06
4	0x3bb0d436	0.0053963913
5	0x3d09a87d	0.03360795
6	0xbc251dc6	-0.010077899
7	0x3c4a0426	0.012330091
8	0x3d10ce52	0.035353012
9	0xbbb0a455	-0.0053906837
10	0x3c003b8f	0.0078267
11	0xb9461135	-0.00018889162
12	0x3c155c2c	0.009116214
13	0x3c8dc153	0.017304098
14	0x3d0b2c9f	0.0339781
15	0x3b4cd898	0.003125703
16	0xbc5acd57	-0.013354621
17	0x3c07728b	0.008267055
18	0xbc0148ee	-0.007890923
19	0xbc1142de	-0.00886604
20	0x3b963314	0.0045837257
21	0x3ca5aedd	0.020224983
22	0xbbcefd14	-0.0063167904
23	0x3c82634e	0.015916493
24	0x3af70c28	0.0018848227
25	0xbbaef4a0	-0.00533922
26	0x3bebfc7d	0.00720173
27	0x3c833372	0.016015742
28	0xbac11b28	-0.0014732825
29	0x3ca452f5	0.020059088
30	0x3c8e030c	0.017335437
31	0x3b915a82	0.004435838
32	0x3cb3df20	0.02195698
33	0x3cc4da13	0.024029767
34	0x3ccc602d	0.024948204
35	0xbb88199b	-0.004153443
36	0xbc9f01b5	-0.019409994
37	0x3b85c9ef	0.0040829103
38	0xbb1e4513	-0.0024150058
39	0xba4b3915	-0.00077523413
40	0x3cd08492	0.02545384
41	0xbc3c304a	-0.011486122
42	0xba7a435e	-0.00095467817
43	0xbcc76597	-0.024340434
44	0x3a9f0627	0.0012132571
45	0xbbb9e576	-0.005673106
46	0xba6d82bf	-0.0009060315
47	0xbbe04396	-0.0068439944
48	0x3d14e51f	0.03635132
49	0xbbbd48d8	-0.005776506
50	0xbc85e7de	-0.016345914
51	0x3ca71aec	0.02039858
52	0xbc539d98	-0.012915991
53	0xbc72e32c	-0.01482467
54	0x3c893402	0.016748432
55	0xbc67399e	-0.014112858
56	0xbbdc35d0	-0.006720282
57	0x3b5f81dc	0.0034104502
58	0x3c056216	0.008141061
59	0x3a86ea33	0.0010293185
60	0x3b82f2fe	0.003996252
61	0x3d106ca1	0.035259847
62	0xbbbef53e	-0.005827575
63	0x3aa8a554	0.0012866654

blocks.0.bn1.running_mean f4 [64]
0	0x3e1b4ec5	0.15166767
1	0x39bad20d	0.00035633185
2	0x3ea039b1	0.31294015
3	0x3da0e767	0.078566365
4	0x3f0ca5c5	0.54940444
5	0x3eb611f6	0.35560578
6	0xbe4abc46	-0.19798383
7	0x3ee5faf7	0.44918033
8	0x3e7e1dbc	0.2481603
9	0xbe057f16	-0.1303676
10	0x3d164564	0.03668727
11	0xbeb176f0	-0.34661055
12	0xbebb8077	-0.36621448
13	0x3c57f2ad	0.013180417
14	0xbdb10432	-0.08643378
15	0x3f0a5205	0.540314
16	0xbecf086d	-0.40436116
17	0xbf02f257	-0.5115103
18	0xb9d1ce9f	-0.0004001753
19	0x3dd81825	0.1055148
20	0xbdd06a3d	-0.10176513
21	0x3e9d9b5b	0.3078259
22	0xbf17005f	-0.5898494
23	0xbe751361	-0.23933174
24	0x3cadf2fe	0.021234032
25	0x3e791ff9	0.24328603
26	0x3dd3bd28	0.10338813
27	0x3d995f42	0.07488872
28	0xbdbd8eec	-0.09255776
29	0x3e80961b	0.2511452
30	0xbe0bedd2	-0.1366494
31	0xbd73051b	-0.05933104
32	0xbef46d83	-0.477398
33	0x3c2dc3f3	0.0106058
34	0x3dd53ed2	0.10412373
35	0xbd12c0f1	-0.035828535
36	0x3f0ccce1	0.5500012
37	0x3e216be2	0.1576381
38	0xbea4daa7	-0.32198068
39	0x3e425671	0.18978287
40	0x3e407d6f	0.18797849
41	0x3d52e42d	0.051487137
42	0x3e570dd2	0.21001366
43	0x3ef2b692	0.47404915
44	0xbe917d90	-0.2841611
45	0xbc751bf5	-0.014960279
46	0x3d9ac059	0.07556219
47	0x3d3e85e7	0.046514418
48	0x3ed13e96	0.40868062
49	0xbec99387	-0.39370367
50	0xbea078b9	-0.31342104
51	0x3e07fd49	0.13280214
52	0x3e2767bf	0.1634817
53	0xbe8ea70d	-0.27861825
54	0xbdc8a777	-0.097975664
55	0x3e9046ab	0.28178915
56	0x3f0574bd	0.52131253
57	0xbdbfb937	-0.09361499
58	0x3d354232	0.044252582
59	0xbdc65448	-0.09684044
60	0xbeef73c0	-0.46767998
61	0x3e3e7e7f	0.18602942
62	0xbe3e6c1d	-0.1859593
63	0x3e66b367	0.22529374

blocks.0.bn1.running_var f4 [64]
0	0x3dbda7c2	0.09260513
1	0x3de54490	0.11194718
2	0x3e217b26	0.15769634
3	0x3dcec390	0.10095894
4	0x3e20803f	0.15673922
5	0x3e2acd11	0.16679789
6	0x3e115fe3	0.14196734
7	0x3deaf939	0.11473317
8	0x3e042735	0.12905581
9	0x3e3e9ecb	0.18615262
10	0x3e27eb59	0.16398372
11	0x3e36efa9	0.1786486
12	0x3e0838e2	0.13302949
13	0x3e349540	0.1763506
14	0x3e02d80a	0.12777725
15	0x3e144e89	0.14483084
16	0x3e1c61ed	0.1527173
17	0x3e1e1429	0.15437378
18	0x3e694784	0.22781187
19	0x3e2c8e16	0.16851076
20	0x3e055cfe	0.13023755
21	0x3dff05ec	0.124523014
22	0x3e33d0b3	0.17560081
23	0x3e2fbed4	0.17162639
24	0x3e16e92c	0.14737386
25	0x3e01300a	0.12615982
26	0x3e2acce2	0.16679719
27	0x3e1bae21	0.15203144
28	0x3e23fcea	0.16014448
29	0x3dc78637	0.09742396
30	0x3e0b70b4	0.13617212
31	0x3ded4196	0.11584775
32	0x3df3c255	0.119023
33	0x3e19e8df	0.1503024
34	0x3e117528	0.14204848
35	0x3dff29d7	0.12459152
36	0x3e113aa0	0.1418252
37	0x3e169b3b	0.14707653
38	0x3dfd0bcb	0.12355765
39	0x3dd1a78e	0.10237037
40	0x3df3bd11	0.11901296
41	0x3e1e2a66	0.15445861
42	0x3dd473c9	0.10373647
43	0x3e1d0856	0.15335211
44	0x3e5912d7	0.21198593
45	0x3e1e5f4e	0.15466043
46	0x3e3be797	0.18350063
47	0x3df51648	0.119671404
48	0x3e23c15b	0.15991728
49	0x3df024a8	0.117257416
50	0x3e0a5c37	0.1351174
51	0x3dc74dd2	0.0973164
52	0x3e376b2d	0.17911978
53	0x3e4271c3	0.18988709
54	0x3e27965d	0.16365953
55	0x3e3e9f30	0.18615413
56	0x3e3bae18	0.1832813
57	0x3e07ade0	0.13249922
58	0x3e23236d	0.15931483
59	0x3e048302	0.129406
60	0x3e0bcd81	0.13652612
61	0x3e21029c	0.15723652
62	0x3e5fcf60	0.21856451
63	0x3e04ed93	0.12981252

blocks.0.conv2.weight f4 [64, 64, 3, 3]
0	0xbd1c3959	-0.03814063
1	0x3d286b95	0.041118223
2	0x3d2c4a62	0.042063124
3	0xbc838333	-0.016053772
4	0x3c372dd9	0.0111803645
5	0xbd1da5f6	-0.03848835
6	0xbb9b7948	-0.0047446825
7	0xbc9201be	-0.017823096
8	0x3c9ccb5b	0.019139936
9	0xbcc60ae8	-0.024175122
10	0x3c7d18a8	0.015447773
11	0xbd25f551	-0.040517155
12	0x3c9be5a3	0.019030398
13	0xbc508fd7	-0.012729607
14	0x3cfcc98e	0.030857828
15	0xbca1db72	-0.01975796
16	0x3c5b3c3c	0.01338106
17	0x3b5e67d3	0.0033936396
18	0x3ca90248	0.02063097
19	0x3cbfbd8f	0.023405818
20	0x3d636778	0.055518597
21	0xbc08da40	-0.008352816
22	0xbd4fdee5	-0.05074968
23	0x3cdd3e6f	0.02700731
24	0x3cec73c1	0.02886379
25	0x3cda81fc	0.02667331
26	0xbd007e05	-0.03137018
27	0xbd394909	-0.045235667
28	0x3bc068a7	0.0058718505
29	0x3c34a8c7	0.011026568
30	0xbd152227	-0.036409523
31	0xbc62941f	-0.01382926
32	0x3d2416c0	0.04006076
33	0x3bb4b276	0.0055144383
34	0xbcb87ea0	-0.022521317
35	0x3c9b954a	0.018992085
36	0xbcad1073	-0.021126008
37	0x3ba7f025	0.005125063
38	0xbc48d477	-0.012257687
39	0xbc5746f7	-0.013139478
40	0xbc8c7791	-0.017146857
41	0x3c07a932	0.008280085
42	0xbcf06d66	-0.02934904
43	0xbc021799	-0.007940196
44	0xbd1c3dba	-0.038144805
45	0xbd197bc6	-0.037471555
46	0x3cc38166	0.023865413
47	0xbc189724	-0.0093133785
48	0x3cf0cd87	0.029394878
49	0x3c48faae	0.012266798
50	0xbc4f33a7	-0.012646592
51	0xbcc9c8a5	-0.024631808
52	0x3c006646	0.007836884
53	0xbcbbac1e	-0.02290922
54	0x3b9f1ecc	0.004855966
55	0x3cafd742	0.021464948
56	0x3c3e1b36	0.011603167
57	0x3c3504b5	0.0110484855
58	0xbd09c129	-0.033631478
59	0x3d03b4fd	0.032155026
60	0xbc59e683	-0.013299587
61	0x3c22d610	0.009938732
62	0x3d399fd3	0.045318436
63	0x3bdc47c3	0.006722422
64	0x3c5fd7b5	0.013662268
65	0xbbf8bab9	-0.0075906185
66	0x3c9ac5e5	0.018893192
67	0xbcfacec7	-0.030616177
68	0xbc5ff1ac	-0.013668459
69	0x3ca9924a	0.020699639
70	0x3d201d1c	0.03909026
71	0x3afb349e	0.0019165461
72	0x3c8431d3	0.01613704
73	0xbca5ef7c	-0.020255797
74	0x3cabb07e	0.020958181
75	0x3ca09daa	0.01960643
76	0xbbf2ea03	-0.0074131503
77	0xbbda5863	-0.0066633685
78	0xbb34ddbc	-0.0027597984
79	0x3cc3bceb	0.023893794
80	0x3d1181aa	0.035524048
81	0x3c22b39e	0.009930519
82	0x3d120783	0.035651695
83	0x3b7ae795	0.0038285006
84	0xbc4b97da	-0.012426341
85	0x3c2e86fc	0.0106523
86	0x3d4cdd8d	0.050015975
87	0x3c53fe48	0.012939043
88	0x3d38f0f3	0.045151662
89	0xbb8e76e0	-0.004347667
90	0xbcbdecdc	-0.023184232
91	0xbc0172f1	-0.007900939
92	0xbb0a88cb	-0.0021138664
93	0x39a0d334	0.00030674937
94	0xbd059118	-0.032609075
95	0x3c701d26	0.014655387
96	0xbcf615ed	-0.030039752
97	0x3c1467a5	0.009057914
98	0x3d29a7f2	0.04141993
99	0x3d05eb2d	0.032694984
100	0xbcb2a526	-0.021807265
101	0x3d36054b	0.04443864
102	0xbcf8e100	-0.030380726
103	0xbcad9163	-0.02118749
104	0x3c172e21	0.009227307
105	0x3cc3b255	0.023888746
106	0x3bff62d0	0.007793762
107	0xbb2d80e6	-0.0026474535
108	0xbce94f7f	-0.02848029
109	0x3cc48522	0.023989264
110	0xbb175b0f	-0.0023095047
111	0xbd0c9669	-0.03432313
112	0x3c619806	0.013769155
113	0xbd5e77a2	-0.05431331
114	0x3c916890	0.017750055
115	0x3cd723f2	0.026262257
116	0x3cf18cb2	0.029486034
117	0x3bb4528a	0.0055030035
118	0xba569257	-0.00081852585
119	0x3cd99f46	0.026565205
120	0xbb7919b6	-0.003800971
121	0x3cd16149	0.025559084
122	0xbd3142c5	-0.043276567
123	0x3c7019a0	0.014654547
124	0xbc53d73c	-0.012929734
125	0x3be01a36	0.006839062
126	0x3ce528ac	0.027973495
127	0xbc34f4ae	-0.011044664
128	0x3ca2ab04	0.019856937
129	0x3c5f45ef	0.013627513
130	0x3cae471b	0.02127414
131	0x3d1dfbd7	0.03857025
132	0xbc89c458	-0.016817257
133	0x3d059d1c	0.032620534
134	0x3d079a31	0.033106033
135	0xbcdacfef	-0.026710479
136	0xbc8a2d8e	-0.016867425
137	0xbbf55b15	-0.0074876645
138	0x3c516280	0.012779832
139	0xbd0c0287	-0.034182098
140	0x3ca67897	0.020321174
141	0x3d073b98	0.033015817
142	0xbafb33f7	-0.0019165267
143	0x3d460139	0.04834101
144	0xbd0e3872	-0.0347218
145	0xbd06735b	-0.032824855
146	0xbd37f770	-0.04491371
147	0xbcaf25b6	-0.021380287
148	0xbcd27960	-0.025692642
149	0x3d4e674b	0.050391477
150	0xbcdcc8d5	-0.026951233
151	0xbc6dbfda	-0.014511073
152	0x3d540452	0.051761933
153	0x3d0686b6	0.032843314
154	0xbcce8426	-0.025209498
155	0xbcd5d47b	-0.026102295
156	0x3c69d601	0.014272214
157	0xbc2c2cd9	-0.010508739
158	0x3a9620ae	0.0011453831
159	0x3c4cc338	0.012497716
160	0x3cfec67c	0.031100504
161	0xbaae2939	-0.0013287432
162	0xbca0fca3	-0.019651717
163	0xbcbe5e3a	-0.02323829
164	0x3d00251e	0.031285398
165	0xbc8fab0f	-0.017537622
166	0x3d05c6b9	0.03266022
167	0x3cb3e69c	0.021960549
168	0x3c8507d6	0.016239088
169	0xbd2d9a9d	-0.04238378
170	0x3c014c90	0.007891789
171	0xbd68f65f	-0.056875583
172	0xbcde7977	-0.027157528
173	0xbb1659fc	-0.0022941818
174	0xbd181a04	-0.037134185
175	0x3c2eb351	0.01066287
176	0x3bb04cd4	0.0053802524
177	0xbb6da082	-0.0036259
178	0xbbcdacbd	-0.0062766955
179	0x3b939655	0.004504005
180	0x3c253de1	0.010085554
181	0x3c936d92	0.017996583
182	0x3c8b4949	0.017002719
183	0x3ca13777	0.019679768
184	0x39577f60	0.00020551449
185	0x3befc0e3	0.007316695
186	0x3b6c3b1b	0.0036045972
187	0xbd42fe4c	-0.047605798
188	0x3c7fc75f	0.015611499
189	0x3b32bfbe	0.0027274932
190	0x3b210b86	0.002457352
191	0x3c9e8508	0.019350544
192	0xbd01b383	-0.031665336
193	0x3c278573	0.010224688
194	0x3aedb440	0.0018135384
195	0x3d2ba8ac	0.041908905
196	0x3c990697	0.0186799
197	0x3d815053	0.06314149
198	0x3b027dfd	0.001991152
199	0x3c26955d	0.010167447
200	0x3b8c6868	0.004284907
201	0xbcd05519	-0.025431203
202	0xbbb57cbc	-0.005538551
203	0x3b9e583e	0.0048322966
204	0xbc43f67b	-0.011960621
205	0x3b0e8853	0.0021748736
206	0x3bf5089b	0.0074778325
207	0xbb9b4808	-0.0047388114
208	0x3d45e13b	0.0483105
209	0x3d550aeb	0.052012365
210	0x3bfa64ca	0.0076414095
211	0x3cd44434	0.025911428
212	0x3d0cc40b	0.03436665
213	0xbc644f61	-0.013934941
214	0xbc33803b	-0.0109558655
215	0xbbe9b373	-0.0071319877
216	0x3d4d27ae	0.05008667
217	0xbb66d505	-0.0035222184
218	0xba88e7e4	-0.0010445085
219	0xbc24c59d	-0.01005688
220	0xbc84a1e0	-0.01619047
221	0x3c1ee0f8	0.009697191
222	0xbcfbbb95	-0.030729095
223	0xbc935be6	-0.017988157
224	0xbc94b603	-0.018153196
225	0x3c9adb87	0.018903507
226	0x3c419fb6	0.011817863
227	0xbc2b5767	-0.01045785
228	0x3cecd49a	0.02890997
229	0x3cf8d45b	0.030374696
230	0x3aa6263d	0.0012676191
231	0xbcadcf91	-0.02121714
232	0xbb1e1b1e	-0.002412505
233	0x3ce5d2ba	0.028054584
234	0xbcbab89e	-0.02279311
235	0xbcd8f963	-0.026486104
236	0xba6e1cd5	-0.0009083276
237	0xbcdd89b8	-0.027043208
238	0xbcef0b54	-0.029180206
239	0x3d0061c4	0.031343237
240	0xbd393021	-0.045211915
241	0xbd59c2f4	-0.053164437
242	0x3d19de1f	0.037565347
243	0xbca753ca	-0.020425696
244	0x3c4da2e4	0.012551043
245	0x3c0fbcbb	0.008773024
246	0xbcac2a2a	-0.0210162
247	0x3d001c6c	0.031277105
248	0xbccaf607	-0.024775518
249	0xbba66ec9	-0.0050791246
250	0x3ca64f7a	0.02030157
251	0xbc2b13f4	-0.010441769
252	0x3d0affd1	0.03393537
253	0xbc478d8a	-0.012179742
254	0x3d115181	0.03547812
255	0xbc2da850	-0.010599211

blocks.0.bn2.weight f4 [64]
0	0x3f841bc7	1.0320977
1	0x3f812a56	1.0091045
2	0x3f82162a	1.0163014
3	0x3f80dc18	1.0067167
4	0x3f83b628	1.0289965
5	0x3f84eb30	1.0384274
6	0x3f836574	1.0265336
7	0x3f84bd74	1.0370317
8	0x3f828119	1.0195647
9	0x3f854d12	1.0414145
10	0x3f8e42b5	1.1114107
11	0x3f89318a	1.0718243
12	0x3f844cbf	1.0335921
13	0x3f82d14f	1.0220126
14	0x3f8315aa	1.0240986
15	0x3f859356	1.0435588
16	0x3f83318f	1.0249499
17	0x3f8657ce	1.0495546
18	0x3f889c56	1.067271
19	0x3f84d27b	1.0376734
20	0x3f82f0b1	1.0229703
21	0x3f7e51d9	0.9934364
22	0x3f83bc7c	1.0291896
23	0x3f818d61	1.012127
24	0x3f8125b2	1.0089629
25	0x3f816d66	1.0111511
26	0x3f827e45	1.0194784
27	0x3f848809	1.0354015
28	0x3f833c71	1.025282
29	0x3f83bc11	1.0291768
30	0x3f8096c2	1.0046008
31	0x3f812fb9	1.0092689
32	0x3f867ac6	1.0506217
33	0x3f826494	1.0186944
34	0x3f87f79e	1.0622442
35	0x3f85cf2c	1.0453849
36	0x3f834eda	1.0258439
37	0x3f804b68	1.0023012
38	0x3f80e306	1.0069282
39	0x3f8099de	1.0046957
40	0x3f819bcd	1.0125672
41	0x3f8311ed	1.0239846
42	0x3f81e734	1.0148683
43	0x3f8681b5	1.0508333
44	0x3f80fc24	1.0076947
45	0x3f859fad	1.0439354
46	0x3f829ed5	1.0204722
47	0x3f834775	1.0256182
48	0x3f84d17b	1.0376428
49	0x3f80dd93	1.0067619
50	0x3f83f8f6	1.0310352
51	0x3f84abe5	1.0364958
52	0x3f80eee7	1.0072907
53	0x3f81f6b2	1.015341
54	0x3f82d707	1.0221871
55	0x3f840c09	1.0316173
56	0x3f81f738	1.015357
57	0x3f8248b3	1.0178436
58	0x3f898047	1.0742272
59	0x3f86ccec	1.0531287
60	0x3f85f185	1.0464331
61	0x3f888a9b	1.0667299
62	0x3f8097ac	1.0046287
63	0x3f83f1b9	1.0308143

blocks.0.bn2.bias f4 [64]
0	0x3b331d59	0.0027330725
1	0x3c2905c8	0.01031632
2	0x3c32dd00	0.010916948
3	0xbc873042	-0.016502503
4	0x3c9609a5	0.018315146
5	0x3b90c9ce	0.0044185882
6	0x3c924c1f	0.017858563
7	0x3baf6905	0.0053530955
8	0x3b218e40	0.0024651438
9	0x3c5027b6	0.01270478
10	0x3c338f75	0.010959496
11	0x3ce04d45	0.027380595
12	0x3c333106	0.010936981
13	0xba90f4c8	-0.0011059279
14	0xbc03688b	-0.00802053
15	0xbceac730	-0.028659433
16	0xbca1a360	-0.019731224
17	0x39b9980b	0.0003539923
18	0x3aa6255b	0.0012675928
19	0x3b48a529	0.0030616021
20	0xbb0c3846	-0.0021395846
21	0xbcf91245	-0.03040422
22	0xbab0b858	-0.0013482673
23	0x3c1e81ff	0.009674548
24	0x3cbfd0f8	0.023415074
25	0xbc7df2e7	-0.015499807
26	0x3c91dcdd	0.017805511
27	0x3c1a5970	0.009420738
28	0x3c906f9e	0.017631348
29	0xbb859f06	-0.004077795
30	0x3c03815a	0.008026445
31	0xbc94d647	-0.018168582
32	0x3d065bd4	0.032802418
33	0xbc4f33c6	-0.012646621
34	0x3caff76c	0.021480285
35	0xbc09b03c	-0.008403834
36	0x3c574a9a	0.013140345
37	0x3b523750	0.0032076426
38	0xbc34e52c	-0.011040967
39	0xbb8eae91	-0.004354306
40	0x3c299800	0.010351181
41	0xbc13958e	-0.009007825
42	0xbd38b576	-0.04509493
43	0x3b1aa560	0.0023597106
44	0xbccc8df9	-0.024970042
45	0x3ca22cdb	0.01979678
46	0x3918a49d	0.00014557173
47	0xbbecfd4c	-0.007232344
48	0x3a701c94	0.0009159532
49	0xbc920cf4	-0.017828442
50	0x3cce9bc2	0.025220755
51	0x3c8edaa6	0.017438244
52	0x3c4882b9	0.012238198
53	0xbc9431b0	-0.0180901
54	0x3c9b8322	0.018983427
55	0x3c9ca9da	0.01912396
56	0xbcb12ce5	-0.021627853
57	0xb96af790	-0.00022408203
58	0x3d076ffd	0.033065785
59	0xbc415320	-0.011799604
60	0x3cd50e66	0.026007842
61	0x3d02166d	0.03175967
62	0xbd26daa5	-0.04073586
63	0xbbb6f965	-0.0055839294

blocks.0.bn2.running_mean f4 [64]
0	0x3da68cc0	0.08132315
1	0xbe30ff03	-0.17284779
2	0xbde9b073	-0.11410608
3	0xbe837abc	-0.25679576
4	0x3ceb76c6	0.028743159
5	0x3e32ad30	0.17448878
6	0xbe1f9e23	-0.15587668
7	0xbe78e309	-0.24305357
8	0xbe86c232	-0.26320034
9	0xbea4aaa9	-0.32161453
10	0xbe8d54a0	-0.27603626
11	0x3d4c6d7c	0.0499091
12	0x3de9d65c	0.11417839
13	0x3e56d220	0.20978594
14	0xbe83b124	-0.25721085
15	0x3c1d2f80	0.009593844
16	0x3d6e7c24	0.05822386
17	0x3e3bb20f	0.18329643
18	0xbe260dc0	-0.16216183
19	0xbe0c03a7	-0.13673268
20	0x3e748f18	0.23882711
21	0x3ebb39aa	0.36567432
22	0xbe62ecf8	-0.22160709
23	0xbde16fd2	-0.11007656
24	0x3e8e2d3c	0.27768886
25	0xbcbed2ea	-0.023293931
26	0x3cbcdec1	0.023055436
27	0xbe9891b4	-0.29798663
28	0xbe342e7b	-0.17595856
29	0xbef3b0a5	-0.47595707
30	0xbcbb2257	-0.022843523
31	0xbe9009bd	-0.2813243
32	0x3e5f37a9	0.21798576
33	0xbeac41c4	-0.33643925
34	0xbe0acb77	-0.13554178
35	0x3c34240f	0.010994925
36	0x3daace5d	0.08340142
37	0xbd6a9b11	-0.05727679
38	0x3e9566ce	0.29179996
39	0xbb549e28	-0.0032442901
40	0xbe93579c	-0.28777778
41	0xbe8596c9	-0.26091602
42	0xbd96c583	-0.07361891
43	0xbca6df65	-0.020370195
44	0x3e91b4a9	0.28458145
45	0xbdf194cd	-0.117959596
46	0x3e81e18f	0.253674
47	0xbe7d5851	-0.24740721
48	0xbd6bf7c0	-0.05760932
49	0xbe18771e	-0.1488919
50	0xbdb43d47	-0.0880075
51	0xbed2304f	-0.41052482
52	0xbe938667	-0.28813478
53	0x3cb3e422	0.021959368
54	0x3d1671da	0.03672967
55	0xbc7ba71e	-0.015359668
56	0x3a3ea114	0.00072719273
57	0x3e0448c8	0.12918389
58	0xbdb8b5c6	-0.090190455
59	0xbdc36776	-0.09541218
60	0x3c2daf51	0.010600881
61	0x3d3b89b3	0.045785617
62	0xbdab21cf	-0.08356058
63	0x3e754393	0.23951559

blocks.0.bn2.running_var f4 [64]
0	0x3e10a494	0.14125282
1	0x3e097961	0.13425209
2	0x3e31e724	0.1737333
3	0x3e24cc86	0.16093644
4	0x3e157fcf	0.14599536
5	0x3e0acaf3	0.13553981
6	0x3e0ce21c	0.13758129
7	0x3e17e822	0.14834645
8	0x3de353ef	0.110999934
9	0x3e04e35d	0.12977357
10	0x3df46665	0.11933593
11	0x3e04a69d	0.12954183
12	0x3dc09792	0.0940391
13	0x3dfefc6f	0.12450492
14	0x3de8c2fb	0.113653146
15	0x3e181b59	0.14854182
16	0x3de171b7	0.110080175
17	0x3e00f49e	0.12593314
18	0x3e16132d	0.14655752
19	0x3dfbdd5e	0.12298082
20	0x3e181cd6	0.1485475
21	0x3e1b24a3	0.15150695
22	0x3df57b3c	0.11986396
23	0x3e0280ce	0.12744448
24	0x3ddb7106	0.10714917
25	0x3dd93425	0.10605649
26	0x3e04102e	0.12896797
27	0x3e1b7b06	0.15183648
28	0x3e0803b7	0.13282667
29	0x3e1daffe	0.15399167
30	0x3df82423	0.121162675
31	0x3e0e449b	0.13893358
32	0x3dfd63a0	0.123725176
33	0x3e02bb22	0.12766698
34	0x3dd4259a	0.103587344
35	0x3e125b7b	0.1429271
36	0x3df33eea	0.11877234
37	0x3e1d0b8a	0.15336433
38	0x3e14722c	0.14496678
39	0x3df05553	0.11735024
40	0x3e11915d	0.14215608
41	0x3e103fb8	0.14086807
42	0x3e3c18b9	0.18368806
43	0x3e06197a	0.13095656
44	0x3e06448a	0.13112083
45	0x3e1a9c43	0.15098672
46	0x3dd92e83	0.106045745
47	0x3e0135e8	0.1261822
48	0x3dc4ea90	0.09615052
49	0x3ddab6ce	0.106793985
50	0x3e05921d	0.13044019
51	0x3dda8053	0.10669007
52	0x3deb2559	0.11481733
53	0x3d9f0c5f	0.077660315
54	0x3dd6e48c	0.104928106
55	0x3df4ddbb	0.11956354
56	0x3df96e20	0.12179208
57	0x3dd3540a	0.103187636
58	0x3e015d1c	0.12633175
59	0x3de674e1	0.11252762
60	0x3e09c768	0.13454974
61	0x3de12a66	0.10994415
62	0x3e0ac4ed	0.13551684
63	0x3dd7a1b6	0.10528891

blocks.1.conv1.weight f4 [64, 64, 3, 3]
0	0x3d0cc189	0.034364257
1	0xbce06748	-0.027392998
2	0xbb11a1ec	-0.0022221757
3	0xbb5c8167	-0.0033646466
4	0x3d214a3e	0.039377443
5	0xbd20fb84	-0.039302364
6	0x3b04c6c7	0.0020260082
7	0x3d2364c9	0.039891038
8	0x3c58893d	0.013216314
9	0xbc3d70da	-0.01156255
10	0xbbbb4e38	-0.0057161115
11	0x3c00af69	0.007854321
12	0xbd238755	-0.039923985
13	0xbd1f542c	-0.038898632
14	0xbcf1f3af	-0.029535143
15	0x3cd60092	0.026123319
16	0xbd236ce9	-0.039898787
17	0x3c736dfc	0.014857765
18	0x3c9f0a30	0.019414037
19	0x3ce218fd	0.027599806
20	0x3ccff948	0.025387421
21	0xbcb531ab	-0.02211841
22	0x3cd5eead	0.026114786
23	0xbc7cb7b1	-0.015424655
24	0x3c876e66	0.016532134
25	0xbd2d20ce	-0.042267613
26	0x3a0d4ab6	0.0005389856
27	0x3c4b6857	0.012415013
28	0x3c06c51e	0.008225707
29	0x3c13c375	0.009018769
30	0x3c6b9743	0.014379325
31	0x3be6722d	0.007032654
32	0x39650be7	0.00021843576
33	0x3c2a7df2	0.010406004
34	0x3a224baa	0.00061910844
35	0xbb891b19	-0.0041841385
36	0xbc8abd74	-0.016936041
37	0x3c49ebd8	0.012324296
38	0x3b82ccc7	0.0039916965
39	0x3cdbbc4e	0.02682319
40	0x3cb57f39	0.022155391
41	0x3cad231c	0.021134906
42	0xbd16ae57	-0.036787357
43	0x3c6f24d9	0.0145961875
44	0x3caaa887	0.020832313
45	0x3bc1f8a5	0.0059195333
46	0x3cfa5e6b	0.0305626
47	0x3d4c92f0	0.049944818
48	0x3c419428	0.011815108
49	0xbcef2510	-0.029192477
50	0x3bba3ae6	0.005683291
51	0xbc9d8e5d	-0.019232923
52	0x3d09b274	0.03361745
53	0xbc8ca519	-0.017168568
54	0xbd1efa7c	-0.0388131
55	0xbb95415a	-0.0045549097
56	0x3c8584de	0.016298708
57	0xbce2521a	-0.02762704
58	0xbd0f084d	-0.034920026
59	0xbccda8d9	-0.025104927
60	0x3c911e87	0.017714752
61	0xbcbb1fb7	-0.022842271
62	0xbc9e8f3c	-0.019355409
63	0x3c92f878	0.017940745
64	0xbcc6e247	-0.02427782
65	0xbd8b24e4	-0.06794146
66	0xbc3083a1	-0.01077357
67	0x3d16ab10	0.03678423
68	0xbcbc222b	-0.022965511
69	0x3cd455fe	0.02591991
70	0xbc8a661f	-0.016894398
71	0xbd265764	-0.040610686
72	0xbc9bf6cb	-0.019038578
73	0x3cf2f5f9	0.029658305
74	0x3cd10016	0.025512736
75	0x3b53694c	0.0032258807
76	0xbc8d7dbc	-0.017271869
77	0xbd0c5b1f	-0.034266587
78	0xbb99e82e	-0.0046968674
79	0x3c593c0b	0.013258944
80	0xbc18facf	-0.009337141
81	0x3c92e4f6	0.017931443
82	0x3cd6532c	0.026162706
83	0xbc34fb8c	-0.011046302
84	0xbca247a1	-0.019809546
85	0x3c877ea8	0.016539887
86	0xbd0ec670	-0.034857213
87	0x3c01368e	0.007886542
88	0x3ca0184a	0.019542832
89	0xbbf5e35d	-0.0075039105
90	0xbc4ef1c1	-0.012630881
91	0xbcd3b453	-0.025842821
92	0xbc3c7d1e	-0.01150444
93	0xbc1b78ea	-0.009489277
94	0xbd335887	-0.043785598
95	0x3c46c40c	0.012131702
96	0xbcee1534	-0.029062845
97	0x3ce38a27	0.027775837
98	0xbafeddfd	-0.001944482
99	0xbbb2601b	-0.0054435856
100	0x3d5293c2	0.051410444
101	0xbb9af1d4	-0.004728535
102	0xbc8b2da0	-0.01698953
103	0x3d3e2313	0.046420168
104	0xbc8dd0da	-0.017311502
105	0xbcd2f55f	-0.025751768
106	0x3b25e2b3	0.0025312125
107	0x3d81451a	0.06312008
108	0xbc8bc67c	-0.017062418
109	0xbb445ea3	-0.0029963634
110	0xbc79728b	-0.015225063
111	0x3d224b91	0.039622847
112	0x3bcfe8cb	0.0063448898
113	0x3c214c10	0.009844795
114	0x3d44925b	0.047991138
115	0x3bf09a5c	0.00734262
116	0x3c1a1e23	0.009406599
117	0xbd5b95a9	-0.053609524
118	0xbdacf995	-0.084460415
119	0x3bf7ceed	0.0075625093
120	0xbc65eba6	-0.014033234
121	0xbad97c1c	-0.0016592774
122	0x3b0634e4	0.0020478303
123	0xbc8d6ce4	-0.017263837
124	0xbc9e4afa	-0.019322861
125	0xbd4a78d2	-0.04943163
126	0xbbdbcc4b	-0.006707703
127	0xbc8fb611	-0.01754287
128	0x3ccbc136	0.024872404
129	0x3c81834d	0.01580968
130	0xbd2b40a6	-0.0418097
131	0xbce58c37	-0.028020961
132	0xbcae5e0a	-0.021285076
133	0xbcf7dd73	-0.030256962
134	0xbd0d7ed1	-0.03454477
135	0xbbd581e1	-0.006515727
136	0xbcf783b2	-0.030214164
137	0x3bd1ae49	0.0063989502
138	0xbcefa55f	-0.02925366
139	0xbc1557c5	-0.009115164
140	0xbb545e69	-0.0032404906
141	0x3ac1800b	0.0014762891
142	0x3c80450d	0.015657926
143	0xbccedf0a	-0.025252838
144	0x3d354108	0.04425147
145	0x3c742da8	0.014903463
146	0xbd0c3816	-0.034233175
147	0xbd4c9d25	-0.049954552
148	0x3d26799f	0.04064333
149	0x3c0282af	0.007965728
150	0xbbcf0bb6	-0.0063185347
151	0xbc96d72f	-0.018413154
152	0x3c13bca2	0.009017142
153	0xbd2333be	-0.039844267
154	0x3d4274f2	0.04747481
155	0x3d44df06	0.048064254
156	0x3bbea1c4	0.005817624
157	0x3d5b410b	0.053528827
158	0x3d1de9ef	0.038553175
159	0xbc9d50e9	-0.01920362
160	0x3caec725	0.021335194
161	0x3d1ce72b	0.038306396
162	0x3cd7276f	0.02626392
163	0xbd0bc4e9	-0.034123335
164	0x3cc16a51	0.023610266
165	0xbc7ab411	-0.01530172
166	0xbc9e1de0	-0.019301355
167	0x3c1459cb	0.009054611
168	0xbd34e7f6	-0.044166528
169	0xbc169209	-0.009190091
170	0x3c8d06fa	0.01721524
171	0xba9cea00	-0.0011971593
172	0xbca681d1	-0.020325573
173	0xba3b601f	-0.0007147807
174	0xbc6533cd	-0.013989401
175	0xbbb74333	-0.0055927276
176	0x3c381e82	0.011237742
177	0xbaecf9af	-0.0018079783
178	0x3c9f90b8	0.019478187
179	0xbc60569c	-0.013692524
180	0x3c4ce963	0.012506816
181	0xbcd98844	-0.026554234
182	0xbc1adfaf	-0.009452744
183	0xbd41ae16	-0.047285162
184	0xbd2f3bb9	-0.042781565
185	0x3a98a4d7	0.0011645806
186	0xba460c14	-0.00075549004
187	0x3c0326ad	0.0080048265
188	0x3d0ae593	0.033910345
189	0xbd10defa	-0.035368897
190	0xbbb5e595	-0.00555105
191	0x3cbaa924	0.02278573
192	0xbc11b8d2	-0.008894162
193	0x3c65cf06	0.014026409
194	0x3cc59737	0.024119956
195	0x3b9a973e	0.0047177365
196	0xbd1b223d	-0.03787445
197	0x3b4a07b3	0.0030827343
198	0x3b8cb6d8	0.0042942576
199	0xbd57b731	-0.05266494
200	0xbd72535a	-0.05916152
201	0xbc259ab5	-0.010107686
202	0x3c6619a4	0.014044199
203	0x3bd1c189	0.006401245
204	0x3c7d80a0	0.015472561
205	0xb96eabbe	-0.00022761428
206	0x3b0eeefe	0.002180993
207	0x3bb0b359	0.0053924737
208	0xbce3b0ab	-0.027794203
209	0x3c36082a	0.011110345
210	0xbd8552f0	-0.0650996
211	0xbce0f1d8	-0.02745907
212	0x3ae4b44f	0.0017448756
213	0xbcf6c231	-0.030121895
214	0xbc1df161	-0.009640069
215	0x3cfdab07	0.030965341
216	0x3c8f06a0	0.017459214
217	0xb9e3b0bd	-0.00043428494
218	0x3d36b68f	0.044607695
219	0x3c8c2351	0.017106684
220	0x3d2b7ffe	0.04187011
221	0xbbc84b19	-0.006112468
222	0xbc8f8b02	-0.017522339
223	0x3cd45abe	0.025922175
224	0x3c75a5c0	0.014993131
225	0xbd3619d7	-0.044458237
226	0xbd18ac4a	-0.037273683
227	0x3abc32fc	0.0014358456
228	0xbb9d2a3b	-0.004796294
229	0x3c800a7d	0.015630001
230	0x3d2cac19	0.042156313
231	0x3ca4d49b	0.02012091
232	0x3c4e98d6	0.012609681
233	0x3cb26c7b	0.021780243
234	0xbd1be587	-0.03806069
235	0xbd0e83b3	-0.034793567
236	0xbcab5f52	-0.020919476
237	0xbc6b52a8	-0.0143629685
238	0xbc59dd95	-0.013297458
239	0xbc851441	-0.01624501
240	0xbce15d7b	-0.027510395
241	0xbb2c368f	-0.0026277637
242	0xbd41cfe8	-0.047317415
243	0x3cbfdc56	0.023420494
244	0x3b032e8a	0.0020016753
245	0xbb2cd92c	-0.0026374562
246	0x3d1d7f5d	0.03845154
247	0x3c219fcf	0.0098647615
248	0xbd0ab330	-0.033862293
249	0x3b9e8d14	0.004838595
250	0x3cd1e6c5	0.025622735
251	0x3bab7600	0.0052325726
252	0xbc31e276	-0.010857215
253	0xbcd7bdca	-0.026335616
254	0x3cc8d7fd	0.024517054
255	0xbb9e7c40	-0.004836589

blocks.1.bn1.weight f4 [64]
0	0x3f8109ba	1.0081093
1	0x3f7fda5e	0.99942577
2	0x3f814a06	1.0100715
3	0x3f7dc248	0.99124575
4	0x3f7d91b1	0.9905043
5	0x3f7e964e	0.99448097
6	0x3f81b756	1.0134075
7	0x3f7d1996	0.98867166
8	0x3f805e28	1.0028734
9	0x3f7e1521	0.9925099
10	0x3f7ab213	0.9792797
11	0x3f7de10d	0.99171525
12	0x3f7ef5a2	0.99593556
13	0x3f833542	1.0250628
14	0x3f80b8f3	1.0056442
15	0x3f7eecb3	0.99579924
16	0x3f7d3e1f	0.98922914
17	0x3f7bda9e	0.9838046
18	0x3f7fc991	0.9991694
19	0x3f7b0b12	0.98063767
20	0x3f786b48	0.970387
21	0x3f7c2668	0.98496103
22	0x3f814ed4	1.0102181
23	0x3f7db135	0.9909852
24	0x3f8499b8	1.0359411
25	0x3f81c366	1.0137756
26	0x3f800d45	1.000405
27	0x3f7f6ba2	0.9977361
28	0x3f800577	1.0001668
29	0x3f80f5e0	1.0075035
30	0x3f81e462	1.0147822
31	0x3f7ebbcf	0.99505323
32	0x3f7e6357	0.9937033
33	0x3f80d49c	1.0064883
34	0x3f7e9a77	0.99454445
35	0x3f7e1cd1	0.9926272
36	0x3f80f120	1.0073586
37	0x3f8040e0	1.0019798
38	0x3f817b17	1.0115689
39	0x3f7e241a	0.99273837
40	0x3f7cc47a	0.987373
41	0x3f821101	1.0161439
42	0x3f7e15bb	0.9925191
43	0x3f7ed48d	0.99543077
44	0x3f774407	0.96588176
45	0x3f7fda5c	0.99942565
46	0x3f7d9788	0.99059343
47	0x3f7de9c0	0.991848
48	0x3f7ee827	0.99572986
49	0x3f7d0663	0.9883787
50	0x3f80febc	1.0077739
51	0x3f8093f5	1.0045153
52	0x3f8178ac	1.0114951
53	0x3f7c176c	0.9847324
54	0x3f7d7a55	0.9901479
55	0x3f79c6e8	0.9756913
56	0x3f7ffc22	0.999941
57	0x3f7f5f85	0.99755126
58	0x3f7e4cf4	0.9933617
59	0x3f8176d6	1.0114391
60	0x3f80a113	1.0049156
61	0x3f7d7236	0.990024
62	0x3f7f3df5	0.99703914
63	0x3f7cda24	0.98770356
