models/rym_grid_c0_s64_e2_t4_r4/resnet_c0_ce_a0p5_l0_lr1e-04.pt (torch, 758469 bytes, 28 tensors)

stem.0.weight f4 [64, 64, 3, 3]
00000000: 4ebf 04be ae28 4ebd 07d9 4bbe 00d2 60be
00000010: 6a90 91be bdbe debd e401 67be f6a8 cabe
00000020: 58ec 34be a8da c4bd 3773 5e3e b52f 47be
00000030: d144 363d 9527 8fbe 2215 cebd 5d74 ad3e
00000040: c81f e93c 513d ac3e 1f39 1abe ac17 a53d
00000050: ed60 79be 824f 82bd bf52 983c 82d7 6f3e
00000060: 9701 933e 7ac3 743e 8715 d03d fc9a 943d
00000070: b179 393e f0a3 963d 322c 8abb a2de acbc
00000080: 11a7 203e 691e 873e cd33 5e3e 73c0 2e3e
00000090: b7c6 25be 50ea 413e 32db 5ebc 5117 063e
000000a0: 1e36 033d fc17 f13d 6aa5 a93e c1e5 bb3e
000000b0: 97d9 483e a848 16bd dd71 873d 412b 38bd
000000c0: 3bcc 423c 7d84 583e 579b 25bd fe86 e13d
000000d0: 5eb4 e53d 31c2 81bd 1d46 c0be afe2 643e
000000e0: 202c 1a3e 412c 07be 1d01 2abe ab7d 023e
000000f0: ea36 d1bb e2f6 8e3e 36e0 85ba 800f 83bd
00000100: 5d58 523e 10e9 de3d 51c9 4c3e 2a84 823e
00000110: 18b4 023d 8cf4 b33e d22d 373e f491 0f3f
00000120: 2181 2cbe 5e5a 193c b75f a3bd 309f 0bbd
00000130: 50a6 37bd 6430 4a3b 0b62 a23e 4c6a bb3d
00000140: d2f3 963d ed6b f6bd 92ab 4cbd 36cd b0bd
00000150: 23c3 163e 1362 42bd 454e 0b3e 7bc7 a03e
00000160: d82f 623e 385a 903e b4e7 853c 7266 653d
00000170: 24ef 84be 6d37 413e 8da7 10bd 03bf 403d
00000180: 0a43 6f3c 9758 a1bc 96ef 763e bdf9 23bc
00000190: ce3e 68bd ad93 48be aff2 fdbd c9c1 f83c
000001a0: 70ab bd3d 410c da3d 20d1 8c3a 72b5 ca3d
000001b0: ec53 17bd e928 253d 33d8 16be ab07 17be
000001c0: af9b 54bd 9935 b6bd f4b8 14be a952 47bc
000001d0: d9ee d8bd bee8 d0bb 0d3e ccbd fe07 53bd
000001e0: 17ae 9a3d f8a4 73bd 9a37 4f3d bbe3 18bc
000001f0: 194d 34bd 0823 cc3d 6540 aebd 9594 5fbc
00000200: a2a8 e5bd 213b f5bd 33dc f9bd 7c0f 143d
00000210: bc76 05bd 12af 82bc ff10 39be d5a0 69bd
00000220: 2195 05be 5d40 d6bd 85d3 bcbd e3a7 893c
00000230: 3347 34bd 42e2 06be 0969 a8bd e237 fdbd
00000240: 504f 56bd 0166 3cbd 0ced cf3c 7670 b03c
00000250: c326 8cbc 88a2 08bd c108 5d3b 6f13 5a3c
00000260: 3806 c2bd 2ae9 cfbb 6e77 68bb 8667 c33a
00000270: bb49 bb3d 7ede 423d 6798 313c 2603 8a3d
00000280: 6980 a93c fb8f 193c 0626 033c 1f2e 80bd
00000290: 3103 93bd 0a0d afbd e099 dc3c d9be 36bd
000002a0: 5de2 373e 0fe5 a53c 6b7d 403e 534b b0bb
000002b0: 2dec 153e 593d efbc a1f8 c63c 05cf 03bc
000002c0: c2f3 dabb 10e6 ec3c e553 4f3b 030d 173e
000002d0: 27c1 8ebd 255a ec3a ee5a fa3c 2390 873d
000002e0: 0fab 013d d632 343d d12a b43d 691b da3d
000002f0: 9af0 d63d 21c5 083d 0830 6cbc e616 9c3c
00000300: 9a3b 773d a609 823b 6f85 31bc 3bf6 0c3e
00000310: 2253 113e 80da ee3d 9723 babc d190 89bc
00000320: daca aebc 0b21 15bc 66a3 a83c 43d9 823d
00000330: a51d a8bb 0407 b53c 326f e33c 680f 483c
00000340: ac2a 03ba d868 aebc cb30 b5bb 956a b93d
00000350: d365 fa3a 779a 00bd 16cb 013b f266 b6bc
00000360: 5466 1c3c 41b7 1d3d 55b8 43be 551d 32be
00000370: 500c 79bd 5ecb 46bd 0a81 19be 0769 97bd
00000380: cde0 8cbd 0893 08bc 09ee b7bc 44d0 cbbc
00000390: 42b5 8f3d 0299 72bd 59e1 713b b8ed 463b
000003a0: 2c21 14bd 4275 513d 9066 8f3d c3c1 5a3d
000003b0: b361 fe3d 9ef6 983d 390c 863d 66a1 a73d
000003c0: a607 c43d c711 c13c 510e 173e f00a acbb
000003d0: 28d7 1dbd fb63 d83d a8ce fb3c c222 833c
000003e0: 0d4e 233c edff 093d 2962 d23d 8276 973d
000003f0: dc13 133b 6a47 d63c eb6b a13c 8442 163d
-0.12963602 -0.050331764 -0.19907008 -0.21955109 -0.28430492 -0.10876224 -0.22559315 -0.39582032
-0.17668283 -0.09612018 0.21723638 -0.19451793 0.044499222 -0.27959886 -0.100626245 0.3387784
0.028457537 0.3364053 -0.15060852 0.08061156 -0.2435338 -0.06362821 0.018594144 0.23422053
0.2871215 0.23902693 0.10160356 0.072561234 0.18112828 0.07355487 -0.0042166943 -0.021102253
0.15688731 0.2639039 0.21699448 0.17065601 -0.16189085 0.1893704 -0.013602065 0.13094832
0.032034032 0.11772153 0.33134013 0.36698726 0.19614254 -0.036690384 0.066135146 -0.044963125
0.011889513 0.2114429 -0.040431347 0.11012076 0.11216043 -0.06335867 -0.37553492 0.22352098
0.15055895 -0.13200475 -0.16601987 0.12743251 -0.00638472 0.27922732 -0.0010213915 -0.06399441
0.2054152 0.10884297 0.19998671 0.25491458 0.031910032 0.35147512 0.17888573 0.5608208
-0.16846134 0.009359924 -0.079772405 -0.03408736 -0.044836342 0.0030851597 0.31715426 0.09151134
0.07370724 -0.12032304 -0.04996831 -0.08632891 0.14722876 -0.047456812 0.13604076 0.31402192
0.22088563 0.2819383 0.016345836 0.056005903 -0.259637 0.188688 -0.03531604 0.047057163
0.014603386 -0.019695563 0.24114832 -0.010008273 -0.05670052 -0.19587584 -0.12399804 0.030365841
0.09261215 0.106468685 0.0010743476 0.09897889 -0.03694527 0.040322218 -0.14730911 -0.14749019
-0.051906284 -0.08896942 -0.14523679 -0.012165704 -0.105924316 -0.0063754013 -0.09972773 -0.051521294
0.07552736 -0.0594835 0.050590135 -0.009331639 -0.04401884 0.09967619 -0.08508376 -0.013646265
-0.11213805 -0.119741686 -0.12200203 0.03614758 -0.032583937 -0.01595262 -0.1807289 -0.057038147
-0.1304517 -0.10461495 -0.09220032 0.016803687 -0.044013213 -0.13172248 -0.08223159 -0.123641744
-0.052321732 -0.045995716 0.025381587 0.021538 -0.017108327 -0.033358127 0.0033727142 0.013310297
-0.094738424 -0.006344934 -0.0035471576 0.0014908172 0.09144922 0.047575466 0.010839558 0.06738882
0.020691114 0.0093727065 0.008004671 -0.06258797 -0.07178343 -0.08547409 0.026928842 -0.0446156
0.17957444 0.020250825 0.18797843 -0.005380073 0.14640875 -0.029204058 0.024288477 -0.008044963
-0.00668189 0.028918296 0.0031635698 0.14751057 -0.06970435 0.0018032236 0.030560937 0.06619289
0.031657275 0.043993793 0.08797229 0.10649759 0.1049511 0.03339112 -0.014415748 0.019053888
0.060359575 0.0039684353 -0.010835036 0.13765804 0.14191869 0.11662769 -0.022722049 -0.016792687
-0.021336962 -0.009102116 0.020585727 0.06389096 -0.005130487 0.022098072 0.027762983 0.012210704
-0.0005003612 -0.021290228 -0.005529498 0.09053532 0.0019103832 -0.03139731 0.0019804887 -0.022265885
0.009545881 0.038504843 -0.19113286 -0.17394002 -0.060802758 -0.04853379 -0.14990631 -0.07393079
-0.06878815 -0.008335836 -0.022452371 -0.024879582 0.07016994 -0.05922795 0.0036908 0.0030354094
-0.036164448 0.051137216 0.07001984 0.05340744 0.124209784 0.074689135 0.065453 0.08185081
0.09571771 0.023568047 0.14751555 -0.0052503273 -0.038535267 0.10565945 0.03073819 0.016007785
0.009967339 0.033691335 0.10272629 0.073956504 0.0022442257 0.0261571 0.01970478 0.036684528

stem.1.weight f4 [64]
00000000: 4f8e 703f a801 563f 2b7d 473f 77ae 383f
00000010: a831 883f 9462 763f ac84 3b3f 342a 493f
00000020: 7219 633f 5d45 4e3f 4bb4 6d3f 3893 7d3f
00000030: 0760 603f e291 4e3f 707f 5d3f 3d85 593f
00000040: 40c0 4e3f bffb 3b3f e428 4e3f e124 633f
00000050: 4b9f 673f f1eb 2b3f 8c12 713f 9013 5b3f
00000060: b508 443f ec81 623f f6ba 583f 9dc6 5d3f
00000070: cf9c 313f 5804 693f 1564 363f e6dd 693f
00000080: 0ebd 483f ee2d 363f 51e9 653f 7445 613f
00000090: 5760 4a3f 4b7e 533f d287 693f 2a84 663f
000000a0: 51b8 5f3f 6c47 363f fd3b 863f c834 3f3f
000000b0: 9e4b 303f 0184 2f3f c4ac 673f b64f 6d3f
000000c0: 6ce8 473f 61b7 563f 8591 3c3f ef40 5d3f
000000d0: 5c09 663f c23d 653f d9cc 593f a249 7c3f
000000e0: 5e84 693f 26d3 3a3f 3bfb 393f 11c3 523f
000000f0: 8b2a 493f 3e66 6b3f 261a 4c3f d010 583f
0.93967146 0.8359628 0.77925366 0.7214121 1.0640154 0.9624417 0.73249316 0.7858002
0.887107 0.8057459 0.9285323 0.99052763 0.87646526 0.8069135 0.8652258 0.8496893
0.807621 0.7343101 0.80531144 0.8872815 0.90477437 0.67156893 0.94168925 0.85576725
0.76575786 0.88479495 0.8466028 0.86631185 0.69379896 0.91022253 0.71246463 0.91354215
0.78413475 0.71163833 0.8980914 0.879966 0.7905325 0.8261458 0.9122287 0.90045416
0.8739062 0.7120273 1.0487057 0.7468991 0.6886538 0.68560797 0.90497994 0.92699754
0.7808902 0.83873564 0.73659545 0.86427206 0.8985803 0.8954736 0.850782 0.98549855
0.912176 0.72978437 0.7264897 0.823289 0.7858054 0.91952884 0.797274 0.84400654

stem.1.bias f4 [64]
00000000: a7a6 83bc 8ab3 ffbd 36bb 03be 5c0a 0dbe
00000010: 2480 4bbe d512 90bb 0365 4abd 31ec 40be
00000020: 37d7 f7bd 2f6d 993c 22c0 6fbd af95 8cbb
00000030: 28eb f3bd 8041 6fbd 960f 19be 0c38 a13c
00000040: b74a 8fbe 7d3f b9bc c76d fbbd d8ff 23be
00000050: eb0a fabd 7556 bebc d527 01be de49 68bd
00000060: 5b02 babd 1fb9 80be 659c 4dbe 7bc4 cfbd
00000070: 751d 3bbd ccb4 95bd 6994 cabd 9341 0fbe
00000080: 829f e5bc b6d8 9bbd cf73 3abe 9ac8 27bd
00000090: db5e 3dbe 0e99 69bd 407d 15be ae9c 32be
000000a0: 3604 8dbd 4f19 e1bc 0746 d6be a081 ccbd
000000b0: dfcf 63bd 97bb 14be 7cdd 12be 42ec e4bd
000000c0: c709 9abd dfc3 19be dd46 4fbd cd16 1abe
000000d0: a22b 21be 2a68 07bd 1246 89bd 35b9 3abe
000000e0: ab16 79be 4de9 743d d424 82be d400 0cbe
000000f0: 63cb 84bd 93f6 8b3d ceb6 62be 8474 6e3d
-0.016070677 -0.12485416 -0.12864384 -0.13773483 -0.198731 -0.004396776 -0.04941274 -0.188401
-0.12101596 0.01872882 -0.05853284 -0.0042903046 -0.11910087 -0.058412075 -0.14947352 0.019680046
-0.2798669 -0.022613281 -0.12276798 -0.16015565 -0.12209114 -0.023234585 -0.12612851 -0.05671107
-0.090824805 -0.25141236 -0.20079191 -0.101448976 -0.04568239 -0.07309875 -0.09891588 -0.13989858
-0.02803016 -0.07609694 -0.1820824 -0.040962793 -0.18493216 -0.05703073 -0.1459856 -0.17442581
-0.06885569 -0.027477888 -0.41850302 -0.099856615 -0.055618163 -0.14524685 -0.14342302 -0.11177875
-0.07521396 -0.15016125 -0.05060469 -0.1504776 -0.15739301 -0.033058323 -0.06702818 -0.18234713
-0.24325053 0.059792805 -0.25418723 -0.13672191 -0.064841054 0.0683414 -0.22140047 0.058216587

stem.1.running_mean f4 [64]
00000000: 5ebb 76bf a658 3cbf f361 d8be 22e8 be3e
00000010: c2a7 9fbf 53bd 2abf 048c d4be 19ad a6bd
00000020: d6a3 a5bf b38a f2be 87a6 e7be 0d9d 5fbf
00000030: 80cb dcbe fc99 9bbe 48b4 a23e 1f67 a4be
00000040: 4816 06bf 1376 423f 9365 4abf c49b 32bf
00000050: 8f33 92bf 4a5c f1bd a7af 99bf 50b7 42bf
00000060: 154d 3cbf dd7e 37bf 4533 47bf d800 aebe
00000070: 096b bbbe 2a4d d5be ca83 a33e a373 b2bf
00000080: 9cc1 8d3e 6742 a43e 272d 30be 01e7 41bf
00000090: 063f 06bf 14e2 4fbf 8e71 8dbf 5d05 a3bf
000000a0: 2df5 13bf bd29 abbe f9f5 37be 00a2 acbe
000000b0: 64bd 05bf 53be 163e dbbd 793d 874d 1bbf
000000c0: 8840 913d 9283 81be cf06 363e 0db4 7ebf
000000d0: f29b 0bbf 805a e3be 0fff 303f fdd1 77bf
000000e0: d71f 1fbf 7fdb 30bf c461 a63e 3a0a 0a3f
000000f0: 6b1d e9be 9b89 81bf 10f5 a73e 4396 69be
-0.9637965 -0.73572767 -0.4226223 0.37286478 -1.2473071 -0.66695136 -0.41513073 -0.081384845
-1.2940624 -0.47371444 -0.45244238 -0.87349015 -0.43124008 -0.30390918 0.3177817 -0.32109925
-0.5237775 0.75961417 -0.7906124 -0.6976893 -1.1421984 -0.11785181 -1.200673 -0.7606096
-0.7355512 -0.71677953 -0.77812606 -0.3398502 -0.366051 -0.41660434 0.31936485 -1.394154
0.27686775 0.3208191 -0.17204724 -0.7574311 -0.52439916 -0.8120434 -1.1050279 -1.2736012
-0.57795984 -0.3343028 -0.17964925 -0.33717346 -0.5224211 0.1472104 0.060972076 -0.6066517
0.070923865 -0.25295693 0.17776035 -0.99493486 -0.5453483 -0.44404984 0.6913919 -0.9680479
-0.6215796 -0.69084924 0.32496464 0.53921854 -0.45530257 -1.0120119 0.32804155 -0.22811227

stem.1.running_var f4 [64]
00000000: 07f5 1e3f 1244 f23e 195b bb3e a209 bf3e
00000010: 267a 0a3f 21d9 f63e e74f bc3e eb35 7f3e
00000020: 3888 133f d3e5 ed3e f3d2 063f ca0b d73e
00000030: d62f cf3e c069 013f 7e65 b23e 2d83 aa3e
00000040: 3164 9b3e 0c7b 0a3f 4202 603f 026d 893e
00000050: de12 d93e 4484 ed3e 280b 013f 503d fa3e
00000060: cb49 423f 094d 0e3f 5bd7 be3e c313 c23e
00000070: 6531 bb3e b85f 233f 78bc 9a3e 9bb4 0d3f
00000080: 10a5 1d3f aa22 f83e 0de0 763e 1164 943e
00000090: 3577 fd3e 5169 c23e c423 573f 7846 d83e
000000a0: 6644 c13e 1c5a a13e 94ad 5b3e e470 aa3e
000000b0: 6b67 bc3e 2f4b b73e 71ea 843e 605c d63e
000000c0: 9993 063f 752b c23e 401b 0f3f f425 d93e
000000d0: 1ee6 cb3e da41 013f d39d 193f b667 8d3e
000000e0: 5c27 6e3e 7d38 053f a6f2 0f3f bf6d 983e
000000f0: d509 893e fa3f d43e e515 003f 1995 933e
0.6209263 0.4731756 0.3659294 0.37312037 0.54092634 0.4821253 0.3677971 0.24922912
0.5762973 0.46464404 0.5266563 0.42001182 0.40466183 0.50551987 0.34843057 0.33303204
0.30349877 0.54094005 0.87503445 0.2684098 0.42397207 0.46389973 0.5040765 0.48874903
0.7589385 0.55586296 0.37273678 0.37905702 0.36561123 0.6381793 0.30221915 0.5535371
0.6157999 0.48463947 0.24108906 0.28982595 0.4950501 0.37970975 0.8403895 0.42241263
0.37747496 0.3151406 0.21452934 0.33289254 0.36797652 0.35799548 0.25960115 0.41867352
0.52568966 0.3792378 0.55900955 0.42411768 0.39824003 0.50491107 0.60006446 0.27618188
0.23257202 0.5203932 0.5622963 0.2977123 0.26765314 0.4145506 0.5003341 0.2882469

blocks.0.conv1.weight f4 [64, 64, 3, 3]
00000000: 779b 8ebd 22ff b53d 0275 0ebd 6b85 8a3c
00000010: 96f8 e1bd 16dc 8d3d d4cf 98bd 5893 b2bd
00000020: f282 a3bd 5dc6 193e 4e2c 413d 22ae be3c
00000030: 1cb5 193e 8ea6 92bd 5d56 c1bc 4040 edbc
00000040: f5c2 cebd ee93 98bd 46c6 913d 93e1 b7bc
00000050: b181 02b9 76b4 cabd bbae 02bd f07c 793d
00000060: 0073 893c 58f7 f53c 493d 97bd 2a8e 9abd
00000070: 3659 d63b b1d3 a63b 0753 103d 63ef ebbb
00000080: 0ded b4bb c6d5 abbd 8bed 70bc e77f bcbd
00000090: 8252 ccbd a97b 91bd de69 28bd 212f 493c
000000a0: a04d 843d 5072 da3d 1f6c 023e 1c89 21bd
000000b0: be0f 05be 4c84 a9bc 6410 ba3d 6190 3e3d
000000c0: bf68 c23d 9008 a1bd 61f0 4a3b 346e 853d
000000d0: 9a7a ca3c fc3c 16bd be83 b83a 42da 01bd
000000e0: fc77 313d 325c 7a3d e52c 983c 3da3 c93c
000000f0: 13f7 df3b cf45 513d fab8 41bd 1757 4abd
00000100: de47 3d3d d5b6 d1bc d8e1 54bd 9a16 5bbc
00000110: 7782 913d ae8f 813c 5ddf 4c3d 887e d33d
00000120: 1d50 dc3d 4aef 983d 13c4 073c 933f 97bd
00000130: 716e 793d 8589 e6bd 5d67 563d 8095 23bc
00000140: 244d d2bc 873b 093e e578 0a3d 56ab 933d
00000150: 89fa 15bd 1cd2 c83d 99b0 71bc b90f ddbd
00000160: 4c5e abbd 06f6 933d 766f 4e3c 7c26 23bd
00000170: 9c96 7cbd 3208 d53d 82ee 243e 6923 4cbd
00000180: 0b40 91bc ae79 b83a b5fb a23d 10eb 51bd
00000190: e220 093a c955 cfbc 84e4 813b e3cf 4f3c
000001a0: 5663 babd e503 923d 064d 7e3d 1a61 273c
000001b0: 12e5 063e 7bfc 56be c0dc a23b d6a3 bebc
000001c0: a907 713c f0c8 51bc b706 193d ff38 86bd
000001d0: cdd8 1fbd 845c 433e 9846 983d b6fb 07bd
000001e0: 8ff3 733c e67d 92bd 8811 96bd 0fe0 edbd
000001f0: 7e5e e1bc 53b8 d03d 909c ebbc 733e f9bc
00000200: e11a a93d 570f 76bd 0f52 be3d 92bd 3c3c
00000210: f46d 8c3c bf72 173c 6bfc 30be 95c9 80bc
00000220: 6b00 1ebd ca9e a83d b24c 933d 3342 d03c
00000230: b42f 87bc ce67 0b3d 27c2 f0bc ae95 5bbd
00000240: be1e 88bd 9808 0b3e d6ef 6b3d 5507 edbd
00000250: 56f0 36bd e36f ce3d a470 28bb a4ab a53d
00000260: fb4a 9c3d 6376 c63d e04d 8ebd 29c3 753d
00000270: 454e 6dbc 7f17 303d 9a71 83bd 7103 eebd
00000280: 1af3 48bd 2cca 6e3d 9f9e 97bc 4a53 0ebe
00000290: ee82 06bd d7ae 17bd a9d8 ae3d dd6e 55bb
000002a0: 7eb1 0f3e a2dd c53a 6e7c c23a dc12 f4bb
000002b0: dc51 153c 88ad b0bd 3df6 79bd a258 f53c
000002c0: b5c9 4c3c 4733 4f3d 05d4 c7bc ab91 70bc
000002d0: c536 b2bd adef 723b ca95 a1bd a286 8ebd
000002e0: 8ab7 11bd 1f9e 76bc 1102 55bd 47c3 763c
000002f0: 1e85 21bc bb4a 123e 23db 26bd b933 b6bb
00000300: 0df7 c8bc 1f52 bb3d f9a9 c03c 1546 14bc
00000310: d0eb a9bd 9410 c73b e103 f63d 8f6e e33d
00000320: 0274 23bd faa7 f93c 6b38 54bd 42af 923c
00000330: 6a8d 2f3d 0f0f 583d 8fa2 053e 927d 333c
00000340: 7cdd 28be 46a6 89bd 7e47 cbbd 1785 c7bd
00000350: 9de9 f33c 8c43 24bd 64ec 7e3c 2fa0 07be
00000360: 79bf 9cbd 428d 06bc f271 df3d ae49 9cbd
00000370: e1af 99bd 02a8 25bd 99a4 44bd 1b66 dd3c
00000380: 7e3c 443c 40db b7bd 4940 043e 47f7 a93c
00000390: 8ef3 733d bcd6 5a3d 85ff bb3d e238 90bc
000003a0: d6e7 3e3d 7776 993d fcdf 1ebd d599 9b3d
000003b0: 90e8 5cbb de1f 973d 8e0d 933d 4cbc eabb
000003c0: f624 e1bd 50f5 92bd c3d2 c73b 98cd ecbd
000003d0: 2aea e13c 47d7 72bc 452a 31be 3217 babc
000003e0: b46d 093e 8b50 4dbd 0aa6 d6bd b616 443d
000003f0: 17cc 67bd d30e 543c 7cb1 26bd 9a9d b93c
-0.06963246 0.08886553 -0.034779556 0.016909322 -0.11033742 0.06926744 -0.07461515 -0.0871951
-0.0798396 0.15017076 0.047161393 0.023276392 0.15010494 -0.07160674 -0.023600752 -0.0289613
-0.10095779 -0.0745009 0.07117896 -0.02244643 -0.0001244608 -0.098977014 -0.031904917 0.060910165
0.01677847 0.03002517 -0.07384736 -0.07546647 0.0065413965 0.0050911536 0.03523543 -0.007200168
-0.0055214227 -0.083903834 -0.014705072 -0.09204083 -0.099766746 -0.071036644 -0.041116588 0.012279303
0.06460118 0.10666335 0.12736557 -0.0394374 -0.12994286 -0.020692967 0.090851575 0.04652441
0.09492635 -0.07862961 0.003096603 0.0651516 0.024716664 -0.036679253 0.0014077348 -0.031702287
0.043327317 0.06112308 0.018576095 0.02461397 0.0068348735 0.051091965 -0.047295548 -0.04939946
0.046211116 -0.025599876 -0.051973194 -0.013372088 0.07104962 0.015815582 0.050017703 0.10326868
0.10757468 0.07467516 0.008286494 -0.07385173 0.06089634 -0.112566985 0.05234467 -0.009984374
-0.02567155 0.13401614 0.0338067 0.07210414 -0.036615882 0.098057 -0.014751577 -0.107940145
-0.08367595 0.072246596 0.012599817 -0.039831623 -0.06166707 0.10401954 0.16106609 -0.049838457
-0.017730733 0.0014074349 0.079581656 -0.051249564 0.0005231035 -0.02530946 0.0039640088 0.012683841
-0.09100978 0.07129649 0.062085174 0.010216022 0.13173321 -0.20994751 0.004970163 -0.023271482
0.014711299 -0.012804255 0.03735992 -0.0655384 -0.039025117 0.1907826 0.0743534 -0.033199035
0.014889612 -0.071529195 -0.073275626 -0.116150014 -0.027510878 0.10191407 -0.028761178 -0.030425286
0.0825708 -0.060073223 0.09292995 0.011519806 0.017142273 0.009243666 -0.1728379 -0.015721122
-0.038574617 0.082334116 0.07192363 0.025422191 -0.016502239 0.034034543 -0.029389454 -0.053609543
-0.066464886 0.13577497 0.057601772 -0.11573664 -0.044662796 0.100799344 -0.0025701905 0.080893785
0.07631489 0.09690549 -0.06948447 0.060000572 -0.014483993 0.042991158 -0.06418152 -0.1162175
-0.049059965 0.058298275 -0.018508254 -0.1389896 -0.032839708 -0.037031975 0.085374184 -0.00325673
0.14032552 0.0015095959 0.0014838108 -0.0074485373 0.009113755 -0.086268485 -0.061025847 0.02994949
0.012499263 0.05058601 -0.024393091 -0.014683167 -0.08701853 0.0037069127 -0.07889898 -0.06959273
-0.035575427 -0.015052347 -0.052003924 0.015061206 -0.009858398 0.1428632 -0.04073633 -0.005560365
-0.024531865 0.09146523 0.02351855 -0.009049912 -0.08296931 0.0060749743 0.120124586 0.11105072
-0.039905556 0.030475605 -0.051811617 0.017905835 0.042859472 0.052748736 0.13050292 0.010955231
-0.1649074 -0.06721167 -0.099257454 -0.09742182 0.029774481 -0.04010348 0.01555929 -0.13244699
-0.07653708 -0.008212389 0.10910405 -0.07631241 -0.07504249 -0.040443428 -0.048008535 0.027026227
0.011977313 -0.089773655 0.12915148 0.020747794 0.059558444 0.053427443 0.09179596 -0.017605249
0.046607815 0.074932985 -0.038787827 0.075977005 -0.0033707954 0.07379125 0.0718032 -0.00716356
-0.10993378 -0.07175696 0.006098123 -0.115626514 0.027577478 -0.014821834 -0.17301281 -0.022716139
0.13420755 -0.05012564 -0.10480888 0.04787322 -0.05659112 0.0129429875 -0.040696606 0.022658158

blocks.0.bn1.weight f4 [64]
00000000: 3ba0 883f bed1 813f 636d 873f 77b3 803f
00000010: 6c02 7d3f 48d8 6a3f f2af 853f fe4f 813f
00000020: 8797 863f 0004 773f 958d 813f a6eb 853f
00000030: 4cb6 873f 169d 823f 7a2c 703f 7c2b 673f
00000040: da33 7d3f 87eb 833f c788 763f 27b8 823f
00000050: fefb 7b3f a931 6f3f 233c 853f 3ccf 903f
00000060: 6380 743f 74a5 813f 72c0 853f 2fc7 8c3f
00000070: 4b26 903f fa82 5f3f 155f 893f 34bd 863f
00000080: 124c 883f 5b0e 7c3f 2f5a 5f3f 6e3b 813f
00000090: 626d 7b3f 415d 843f 2a16 803f a064 753f
000000a0: 3cc6 783f 9738 813f e6d0 7b3f 478f 7a3f
000000b0: ebc5 853f 8696 853f 66e1 833f 18dc 723f
000000c0: 14b1 683f 5d4b 853f ad2d 7a3f c0c4 823f
000000d0: d51b 6f3f cbb6 873f e8d2 853f fc28 753f
000000e0: 3d99 5e3f d7af 6f3f e6d3 6c3f 4ee5 743f
000000f0: 9bb7 933f 8cb3 8b3f 4be9 623f c25b 813f
1.0673898 1.0142133 1.0580257 1.0054768 0.9883182 0.9173627 1.0444319 1.0102537
1.0514992 0.9649048 1.0121332 1.0462539 1.0602508 1.0204189 0.93817866 0.90300727
0.98907244 1.0306252 0.96302456 1.0212449 0.98431385 0.9343515 1.0408977 1.1313243
0.955084 1.0128617 1.0449355 1.0998286 1.1261686 0.8730923 1.0732142 1.052649
1.0648215 0.98459405 0.87246984 1.0096262 0.9821378 1.0340959 1.0006764 0.95856667
0.9717748 1.0095395 0.9836563 0.97874874 1.0451025 1.0436561 1.0303161 0.94867086
0.908952 1.0413624 0.97725946 1.0216293 0.93401843 1.0602659 1.0454988 0.9576566
0.86952573 0.93627685 0.9251083 0.9566239 1.1540407 1.0914168 0.88637227 1.0106127

blocks.0.bn1.bias f4 [64]
00000000: 6aa5 49be 76da 2e3d f93a 77be a437 55be
00000010: 3ecd 85be c692 04be 692a abbd 4719 a3bd
00000020: 069f 31be 53fd 11be 02c4 93be 06da 63be
00000030: 9566 0abe 0912 47be 6f21 dfbd 646d 39be
00000040: 60b2 62be 2c83 a0bd a78e 11be 7446 36be
00000050: 0f9e 26be 3e73 1ebd ef28 40be 68d9 9dbd
00000060: 7f44 08be 6290 5fbe 7375 47be 2422 67be
00000070: dcbb 2dbe 3f1d 563d 75ef 55be e67e 43be
00000080: a704 09be 2d64 903d 0ade 5e3d 7ea4 36bd
00000090: e8b0 db3b d798 c1bd 3c85 42be 7e5b 23be
000000a0: 4eed 22bd ae85 0dbe 2523 55be 5d7c 0cbe
000000b0: 728b 15be 0b52 89be d032 1fbe 2434 16be
000000c0: 9121 87bc 04af 80be 4671 efbd bcc2 d9bd
000000d0: f40d 60be 1745 b3bd 0897 5dbe 0bfa 34be
000000e0: da2d d0bd 6b12 09be ef76 60be 4bb5 1fbe
000000f0: a617 653c 5270 33be d5a7 92be d79b 5cbe
-0.19692007 0.04268881 -0.2414359 -0.20822006 -0.2613315 -0.12946615 -0.083576985 -0.07963806
-0.17345819 -0.14256792 -0.2886048 -0.22251138 -0.13515694 -0.19440474 -0.10895049 -0.18108135
-0.22138357 -0.07837519 -0.14214574 -0.17800313 -0.16271232 -0.038684122 -0.18765615 -0.077074826
-0.13307379 -0.21832421 -0.19478397 -0.22571617 -0.16966194 0.052273985 -0.20892127 -0.19091377
-0.13380681 0.07050357 0.05441097 -0.044590466 0.0067044385 -0.0945298 -0.18996137 -0.1595287
-0.039777093 -0.13820526 -0.20814188 -0.13719316 -0.14603975 -0.26820406 -0.15546727 -0.14668328
-0.016495498 -0.25133526 -0.11691527 -0.10632846 -0.21880323 -0.08753412 -0.21639645 -0.17673509
-0.101649955 -0.13385932 -0.2192037 -0.15596502 0.013982689 -0.17523316 -0.2864367 -0.21543823

blocks.0.bn1.running_mean f4 [64]
00000000: bca1 76be d6eb 8d3e bebc b53e 2601 463e
00000010: ca79 1a3f 94fe 0d3f 6246 09be dcc3 853e
00000020: 79f9 9cbe 87c6 1b3d 8efd 8f3d 04ab 8dbe
00000030: 597d 39bf bf24 1f3d e4d6 62be ab38 0ebd
00000040: 5b27 8ebd d3a7 0abf 0e25 37bf bd08 2ebe
00000050: 6703 3cbf 3308 da3e 6312 52bf 7405 96bf
00000060: ce14 393d 21b8 f4be 5cdc 6cbf b686 d7bd
00000070: 4418 69bf d0dd 4b3e c4f9 9cbe 627c 56be
00000080: 9353 acbf a25a b9be 07ce d0be 7272 edbb
00000090: b65e da3e 1a1f 65bf 38eb 80bf 84f9 b83c
000000a0: 6f94 593e 7002 e4be 9f2b 10bf c79c 093f
000000b0: de03 0bbe 1d43 c63e 9e1a 14bf 8e80 05bf
000000c0: 543b dcbd 2afe 7abf fb99 c8be 4006 06be
000000d0: 25f6 a13e 9bc1 4abf 0135 e3be 4673 7c3f
000000e0: ab1c 45bf 8f67 b1be 97d8 11bd 57e5 44bf
000000f0: a42b 7bbf 8f00 49bf 7b12 19bf 0a96 9fbe
-0.24085134 0.2771899 0.3549556 0.19336376 0.60342085 0.5546658 -0.13405755 0.2612599
-0.30659083 0.038031127 0.070307836 -0.27669537 -0.7245689 0.038853403 -0.22152287 -0.03472201
-0.069411 -0.5416233 -0.71540916 -0.16995521 -0.7344269 0.4258438 -0.82059306 -1.1720414
0.045185857 -0.4779673 -0.9252374 -0.10523741 -0.9105265 0.19908834 -0.30659306 -0.20945886
-1.3463005 -0.3620196 -0.40782186 -0.007246309 0.42650384 -0.8950058 -1.0071783 0.022579916
0.21248029 -0.4453311 -0.5631656 0.5375485 -0.13575694 0.38723078 -0.57853115 -0.52149284
-0.107535034 -0.98044074 -0.39179978 -0.13088322 0.31633106 -0.7920167 -0.44376376 0.98613393
-0.7699687 -0.3464932 -0.035606947 -0.76912445 -0.98113465 -0.7851648 -0.59793824 -0.31169158

blocks.0.bn1.running_var f4 [64]
00000000: f9de 343f af9e 383f 1f66 6f3f a430 373f
00000010: 17af 5d3f 3b8a 443f c5e3 433f 42c8 783f
00000020: 1ad2 4d3f 927c 3a3f f07c 373f 6222 5d3f
00000030: b8cc 4f3f 2339 173f 2e63 383f 2f4e 403f
00000040: 04a2 273f 6a2e 573f fa47 573f eead 563f
00000050: 54f0 4d3f 9a05 2f3f 4a69 473f f1bf 733f
00000060: 362e 383f 7210 483f 528c 8b3f c5d3 613f
00000070: cfcb 663f 3056 5a3f 5601 6f3f e383 2a3f
00000080: 577b 623f 76f1 433f 987e 343f 9894 3c3f
00000090: 87c9 743f 6827 703f f0f6 223f 1eae 493f
000000a0: 5218 523f b0af 3f3f c5da 323f 22b0 683f
000000b0: 0e94 513f 974a 6b3f 4307 603f 587d 2f3f
000000c0: 1f92 2d3f 0e96 313f 882e 373f 3ff7 643f
000000d0: 2a0f 363f b463 693f 49cf 533f 4789 6a3f
000000e0: 1e76 4f3f b9b0 3c3f bc02 293f 7db2 353f
000000f0: 8918 6c3f 085a 6b3f d604 123f 4b36 383f
0.7065273 0.7211713 0.935152 0.71558595 0.8659529 0.7677342 0.76519424 0.9718057
0.80398715 0.7284633 0.71675014 0.8638059 0.8117175 0.5907156 0.72026336 0.751193
0.6548159 0.840552 0.840942 0.83859146 0.80444837 0.6836792 0.77895033 0.95214754
0.7194551 0.78150094 1.0902197 0.8821376 0.9015474 0.8528776 0.93361413 0.66607493
0.8846945 0.76540315 0.70505667 0.73664236 0.95620006 0.9381013 0.63658047 0.78781307
0.8206836 0.7487745 0.69865066 0.9089376 0.8186654 0.9191069 0.8751108 0.68550634
0.6780109 0.6936959 0.71555376 0.8943977 0.7111689 0.9116776 0.8273817 0.9161572
0.8103961 0.7370716 0.660198 0.70975477 0.9222494 0.9193425 0.5703863 0.71957844

blocks.0.conv2.weight f4 [64, 64, 3, 3]
00000000: ba17 d03c b377 2b3d 00b8 15bc 4e80 873c
00000010: 1333 973d f9f6 abbd 4caf 833d 0d05 8a3d
00000020: 4d6a ec3d d96b a03d a39d 9c3d ecad b4bd
00000030: 45a3 563c f541 9cbc 1a1f 1cbd 4e13 9abd
00000040: 9364 413d e9b2 23be 093d 813d f31e 80bd
00000050: 25f0 da3d 2112 42bd 2ea2 de3b cd12 413c
00000060: 9f07 a53d c1df 3fbc c328 64bc 234e 803c
00000070: ee5e 56bc 8d3e da3c d96d 8cbb c5c4 1bbd
00000080: c64e ac3c 4818 ffbd 3480 a1bd 26e0 21be
00000090: 69c5 763b dc61 6abc f662 8abc 122a 7a3d
000000a0: 5354 cb3b eaee b4bd 879a 67bd 74a5 abbc
000000b0: edbd 94bd 583a 36bd ab26 a3bb a70a 93bc
000000c0: de9b 13bd c2ea b23a 8328 49bd 5b68 11be
000000d0: 917b 99bb 821e 7c3d 2653 83bd 8978 f33b
000000e0: f9c9 b13b ad5d 8b3d 585e c6bb 3c60 9c3c
000000f0: 627d 09bd fd17 923c 7268 983d efe7 523c
00000100: 2e97 953d 4d54 1e3b 8701 90bd cae1 e5bd
00000110: e745 e23b 968d 65bb a60f 0e3e dc20 b83c
00000120: 3abd a63d 3b4e ef3b 6bfc 56bd ef45 743d
00000130: bcbf 613d f6ba a53d bd8a 8abd 98c6 4ebd
00000140: 99c8 e73c 829f a23d 3aa3 123e 814f 4ebc
00000150: 2d0c 46bd 5f02 3b3d 8a6f 97bd 0fc2 be3d
00000160: 765d 003d e1e0 af3b 945c b63c 2911 703d
00000170: bd44 b13c 6152 be3c 0e0b cfbc de3d c4bc
00000180: a13d de3b 2dea c2bd d123 41bd 6d5e 993d
00000190: 3680 a5bd c094 aebc 289b 24bd d8c7 e4bd
000001a0: 99a7 9e3c 0443 cd3d bdca 01bd 1ac4 ca3d
000001b0: 0f47 7f3d 9cb2 043e b467 b73b f70f 3abe
000001c0: 5b34 e23d d2b3 23bd d6ad f43c 3601 eebc
000001d0: c716 223d b39a 043d f517 f4bd 97d4 713d
000001e0: 48f8 dabb a5e3 e33d d0e4 25be ba31 e0bd
000001f0: 5ff0 17bd 3b66 d13c 539b df3d 2082 ccbd
00000200: aa6c c83d f31a e6bd 39ef b6bc 363d 72bc
00000210: f173 863c 611d 7d3b e649 73bd e131 dbbd
00000220: f58f 28bb fdbe 59bd f5b1 ab3d 59a7 bdbc
00000230: 7b72 b73c 2273 763c 13d7 443d 46a9 a83d
00000240: 3bb9 983c 40be e5bd cda7 78bd ea10 aebc
00000250: 57f8 c53c 53b9 0bbd e112 7c3d 2788 da3c
00000260: 3a92 103d f09c 053d bcc4 26bd a6d7 b43c
00000270: 5438 933d 94f3 55bb 482e 303d 0d36 93bd
00000280: 7b74 d13c 8bfe c03d 146e 50bc 1ea0 e0bd
00000290: 7948 003c 985b 2a3d 62c9 313d bc48 cd3d
000002a0: 1286 623c e6ab c2bd 255c ef3c f816 1ebd
000002b0: 0af9 963d 4813 03be 08fb 993d 768e 88bd
000002c0: 3526 aebd 4f13 12bd f63f 35bc 2a48 16bb
000002d0: 9aed 0a3d ba1a 8cba c6c0 993c eb3c 293e
000002e0: a147 f0bc 3ce7 1dbc 5add 58bd 59d1 3eb9
000002f0: 2794 f63c 1602 1bbd 5304 98bd 2fb4 3e3d
00000300: 187d b6bd 328a 383d 24b4 703d 626b 493c
00000310: 3354 753d 0f09 423e 5521 bc3d 8d68 52bd
00000320: 8741 233e 71b4 c73d 7e4f b73d 01c6 2cbe
00000330: 9e2d df3a 943b 0fbd 70ad 1a3d 5956 17be
00000340: ba96 903d 18dd 9b3d d401 303d 50c9 d4bb
00000350: bcb5 1ebc bf62 9d3d 6e48 dfbd e8f6 0a3e
00000360: f688 45bd fd21 6c3d a106 033e f125 25bd
00000370: 5afa 0c3d 428e 8dbb 9a9a c8bd beff 9fbd
00000380: f222 ab3d 5d84 2b3e b0eb 1c3d be38 6b3c
00000390: 7e46 c43d e23a 1b3d 6cb4 683e e6ea 95bc
000003a0: 1ba8 dfbc 0bd4 f0bc f6cc 8dbd a36c 5abd
000003b0: 9594 013e 0004 33bd 5c03 eb3d 8e32 6abd
000003c0: b84e 2abd dc22 cb3d 266c eebc 8e7b 8e3d
000003d0: bead 323d aeaa e1bd f2a4 25bd 8fe1 8f3d
000003e0: ca13 86bd d42c 1b3d 45f0 27bd 0651 863d
000003f0: 564d dd3c fd20 90bd 9b18 c53a 33fa 27bd
0.025401939 0.0418622 -0.009138107 0.016540673 0.073827885 -0.08396716 0.064299196 0.067392446
0.11543713 0.0783307 0.07647254 -0.088222355 0.01310045 -0.01907442 -0.0381156 -0.07523213
0.047215056 -0.15986218 0.0631047 -0.06255903 0.10690335 -0.04738057 0.0067942357 0.011784268
0.08058094 -0.011711062 -0.013925734 0.015662258 -0.013084156 0.026641155 -0.004285556 -0.03802945
0.021033656 -0.12455803 -0.07885781 -0.15808162 0.0037654287 -0.014305558 -0.016892891 0.061075278
0.0062051206 -0.08834632 -0.056543853 -0.020952918 -0.07262788 -0.044489235 -0.004978975 -0.017949415
-0.03603732 0.0013650286 -0.0491109 -0.14199965 -0.0046839197 0.061552532 -0.06412344 0.0074301404
0.0054256883 0.068049766 -0.006053727 0.019088857 -0.03356684 0.017833704 0.07441796 0.01287268
0.07304226 0.0024159134 -0.07031541 -0.112247065 0.0069053057 -0.0035027019 0.13873157 0.022476606
0.08141561 0.007303027 -0.05248682 0.059637006 0.055114493 0.080923006 -0.067647435 -0.050482363
0.028293895 0.0794058 0.14320078 -0.012592197 -0.048351455 0.045656558 -0.07394321 0.093143575
0.03133913 0.005367384 0.022260942 0.058610115 0.021639222 0.02323264 -0.025273826 -0.023955282
0.006782249 -0.09517322 -0.047153298 0.074887134 -0.08081095 -0.021311164 -0.04018703 -0.1117093
0.019367026 0.10022548 -0.031687487 0.09900685 0.062323626 0.12958759 0.005597079 -0.18170153
0.11045142 -0.039966412 0.029868048 -0.029053312 0.039572503 0.032374095 -0.11918632 0.059040632
-0.0066824295 0.11127404 -0.16200566 -0.109469846 -0.03709447 0.025561443 0.109182976 -0.09985757
0.09786351 -0.11235609 -0.022330867 -0.014785102 0.016412707 0.0038622248 -0.059396647 -0.10702873
-0.002572057 -0.053160656 0.08383552 -0.023151087 0.022393456 0.015042098 0.048056673 0.08235411
0.018643012 -0.11217928 -0.060706902 -0.0212483 0.02416627 -0.034112286 0.06154144 0.02667625
0.035295703 0.03262037 -0.040714964 0.022075485 0.07188478 -0.0032646405 0.043012887 -0.07188044
0.025568238 0.0942355 -0.012721557 -0.1096804 0.007829779 0.041591257 0.043404944 0.100236386
0.01382591 -0.09505443 0.029218743 -0.038596123 0.07371719 -0.12800324 0.075185835 -0.06667797
-0.08503381 -0.035662945 -0.011062613 -0.0022931197 0.033918 -0.0010689117 0.01876868 0.16527145
-0.02933103 -0.00963765 -0.052945472 -0.000181978 0.030099941 -0.037843786 -0.074227 0.046558555
-0.089105785 0.04505367 0.058765545 0.012293668 0.05989475 0.18948768 0.09186045 -0.05136924
0.15942965 0.09751213 0.08950709 -0.16872407 0.0017027145 -0.034968928 0.03776306 -0.14779033
0.07059999 0.0761053 0.042970493 -0.006493725 -0.009686884 0.0768485 -0.10902487 0.1357075
-0.04822632 0.0576496 0.12795497 -0.040319387 0.03441844 -0.004319937 -0.09795113 -0.07812451
0.08356275 0.16749711 0.038310707 0.01435679 0.09583758 0.037897952 0.22725075 -0.018300485
-0.027301839 -0.029397985 -0.06923859 -0.05332626 0.12654336 -0.043704987 0.1147525 -0.05717712
-0.04157898 0.09918758 -0.029104304 0.0695716 0.043622725 -0.11018883 -0.040440507 0.07025444
-0.06546743 0.03788455 -0.041000623 0.06558423 0.027014416 -0.07037542 0.001503724 -0.041010093

blocks.0.bn2.weight f4 [64]
00000000: cd55 933f 1b47 983f aeeb 903f b78e 923f
00000010: ed74 8f3f 3292 993f e2b4 9b3f 31e9 a33f
00000020: 7f4f 963f 106a 983f 7dcf 9b3f d8e4 953f
00000030: 8079 8f3f cf33 8e3f 0533 903f 3db0 953f
00000040: 1bef 873f 438a 953f 2e3f 9a3f 81c0 953f
00000050: e4dd 843f 73b6 913f 0202 913f fe47 9c3f
00000060: 0786 913f 31ec 8a3f a3d8 973f 873f 8f3f
00000070: 4189 903f bb5a a93f dfec 983f 0309 9c3f
00000080: b512 883f 81d7 913f eeec 963f 433b 953f
00000090: 1874 953f 37b9 953f 32d5 9b3f 3197 8b3f
000000a0: 29fb 963f 4436 883f e2a7 973f c5dc 973f
000000b0: 2a41 983f 5ba1 973f 0944 903f ed2d 903f
000000c0: 00f6 873f a0a8 893f 853a 923f 5f65 963f
000000d0: bc72 8d3f e83d 8e3f e305 933f b8ee 8e3f
000000e0: 9cd0 8c3f 6ad7 943f 87f2 9b3f 0beb 973f
000000f0: 6d55 a13f 0073 953f 9b45 983f 0a10 903f
1.1510559 1.18967 1.1321924 1.1449803 1.1207558 1.199774 1.2164576 1.2805539
1.174301 1.1907368 1.2172695 1.1710463 1.1208954 1.1109561 1.126557 1.1694409
1.0619844 1.1682819 1.2050531 1.1699373 1.0380216 1.1383804 1.1328738 1.220947
1.1369027 1.085333 1.1862987 1.1191262 1.1291887 1.3230814 1.1947287 1.219025
1.0630709 1.1393892 1.1791055 1.165871 1.1676054 1.1697148 1.2174437 1.0905515
1.1795398 1.064156 1.1848109 1.1864249 1.1894886 1.1846117 1.1270763 1.1264015
1.0621948 1.0754585 1.1424109 1.1749686 1.1050639 1.1112642 1.1486171 1.1166601
1.1001163 1.1628239 1.2183388 1.1868604 1.2604195 1.167572 1.1896242 1.1254895

blocks.0.bn2.bias f4 [64]
00000000: e8bb 77be 1c25 92be cfce 45be c977 57be
00000010: 8558 97be 1df7 59be c3cd f4bd 8158 1cbe
00000020: af1e 87be 70d8 37be 0002 8bbe 5c00 2abe
00000030: c353 54be 8af7 5dbe ad71 51be e939 89be
00000040: edfc 70be 8e9e 74bd ad9d 53be e80c 81be
00000050: ec8e 66be 0576 61be 28dc 87be 38fc 1bbe
00000060: 0b58 62be caf6 2ebe 2e51 36be 9153 49be
00000070: f296 50be 25be 87be 8012 9ebe 7c6f 91be
00000080: 5e52 02be 6e1a 5ebe e9c8 80be c542 86be
00000090: 3267 22be aea9 b7bd ee72 37be 3352 abbe
000000a0: b0a1 2bbe 3601 3cbe 1d0c 96be 0182 75be
000000b0: f46f 85be 6928 45be 6339 62be d9b5 94be
000000c0: 4dc2 12be a7ed 91be c343 71be e818 92be
000000d0: 50d2 38be 5ec2 58be 5a81 6cbe b0a6 86be
000000e0: b585 91be a4fd e9bd 33cc 13be 2b88 2dbe
000000f0: b8b7 8ebe 891f f9bd 6993 a0be f559 a7be
-0.24192774 -0.28543937 -0.19317172 -0.21041788 -0.29559723 -0.21285672 -0.119533084 -0.15268137
-0.26390597 -0.17953658 -0.27149963 -0.166017 -0.20735078 -0.2167646 -0.2045352 -0.26801994
-0.23533984 -0.059721522 -0.20665617 -0.2520516 -0.22515458 -0.22017677 -0.26535153 -0.15232933
-0.22103898 -0.1708633 -0.17804405 -0.19660784 -0.20370081 -0.26512256 -0.3087349 -0.28405368
-0.12726733 -0.2168977 -0.25153282 -0.26222816 -0.15859678 -0.08967911 -0.17914936 -0.3346115
-0.16760898 -0.18359837 -0.29306117 -0.23975374 -0.26061976 -0.19253697 -0.22092204 -0.2904499
-0.14331932 -0.28501627 -0.23561005 -0.28534627 -0.18048978 -0.21167895 -0.23096219 -0.26299047
-0.28422323 -0.11425331 -0.14433365 -0.16946475 -0.2787454 -0.12164218 -0.31362465 -0.3268582

blocks.0.bn2.running_mean f4 [64]
00000000: dc82 e13d 26af 33bf 5bc5 5c3e 055e f1bd
00000010: 6816 d2bc 5e6b a2be d97e b2be c8c9 bebe
00000020: efb4 cabe 9921 3dbf d7e9 17bf 09a4 fcbd
00000030: 9f3c 4bbf 5eef 90be 824b adbe 7318 2bbf
00000040: bc91 a9be ecba 94be 15ee 78be 81ca 5abf
00000050: b649 73be 01b0 bcbe aa72 c8bd d013 1bbe
00000060: 81d9 5fbd 91d4 c1be b4d5 26bf 72a5 98be
00000070: b4de 5abe 11fd 7ebf 3a16 6fbe 6584 36bf
00000080: 41b7 c1be 52d2 19be c984 b4be f9ca 033f
00000090: 4e83 083e bfa4 9cbc 2a51 25bd 31c9 d83e
000000a0: b2b1 fa3e dcc6 c2be 9f15 9d3e 7dff 6dbe
000000b0: 249f 9a3f 8e5e 1f3d fcbd 7b3d bffb 99be
000000c0: 9072 02bf f4a2 f8bd cd78 ad3e 4971 29bf
000000d0: 8210 4cbe 39c8 2ebf b0a7 043d 04a3 91be
000000e0: f2e0 febc 3e90 99bc a5eb 0f3f 1540 9bbe
000000f0: afd8 433a 70ab 80be 6642 5cbe e297 dabd
0.110112876 -0.7018913 0.2155966 -0.11785511 -0.02564545 -0.3172254 -0.34862402 -0.37263322
-0.39591166 -0.7387939 -0.59341186 -0.12335975 -0.79389375 -0.28307623 -0.3384667 -0.6683418
-0.33119 -0.2904886 -0.24309571 -0.85465246 -0.23758587 -0.3685303 -0.097874954 -0.15144277
-0.054650787 -0.37857488 -0.65169835 -0.29813725 -0.21374017 -0.996049 -0.23348323 -0.7129577
-0.37835124 -0.15021637 -0.35257557 0.51481587 0.13331339 -0.019121526 -0.040360607 0.42340997
0.48963696 -0.38042343 0.30680558 -0.23241992 1.2079816 0.038908534 0.06146048 -0.3007488
-0.5095606 -0.12140456 0.33881226 -0.66188484 -0.19928172 -0.68274266 0.03238648 -0.28444684
-0.031113122 -0.018745538 0.5621894 -0.30322328 0.0007470948 -0.25130796 -0.21509704 -0.106735006

blocks.0.bn2.running_var f4 [64]
00000000: 09b3 513f e1d8 503f c2f4 773f ecc0 5a3f
00000010: 9f82 6d3f 0c2f 533f cf7a 4e3f ebba 7f3f
00000020: 5f58 4a3f f903 843f faa3 703f 78c4 493f
00000030: 1f08 7f3f bd06 3c3f 940f 763f 2c53 623f
00000040: 308a 323f 8915 893f 097b 893f 0987 543f
00000050: fce6 4d3f fe1e 243f a30e 5c3f 0719 6e3f
00000060: d9fe 553f a751 6e3f 9059 783f 95fd 443f
00000070: 4619 3e3f 11f9 873f 470a 573f f844 773f
00000080: 3147 483f 7d29 5c3f a26d 643f 9af4 543f
00000090: 7280 423f cdd3 6f3f 1240 903f 870d 8d3f
000000a0: 8fbf 493f a975 543f d210 853f c205 603f
000000b0: 55b5 473f 3564 393f 08f7 4c3f 23d5 533f
000000c0: 18b8 3f3f 80e5 6a3f f812 3f3f 0aac 353f
000000d0: f0e6 553f a303 4e3f 3585 473f c90a 433f
000000e0: d352 863f a0f2 6d3f ddba 3f3f 4f7e 803f
000000f0: ca9a 663f 7c27 6b3f 4823 543f 5947 833f
0.8191381 0.8158093 0.96857846 0.85450625 0.92777437 0.8249366 0.8065614 0.9989459
0.79041094 1.0313712 0.9400021 0.7881541 0.99621767 0.7344778 0.9611752 0.8840816
0.6974211 1.0709697 1.0740672 0.8301855 0.8043058 0.6410979 0.85959834 0.9300694
0.8359199 0.9309334 0.9701166 0.76949435 0.74257314 1.0622884 0.84000057 0.9658961
0.7823363 0.86000806 0.89229786 0.8318573 0.7597724 0.9368256 1.1269553 1.1019753
0.7880792 0.82992035 1.0395758 0.87508786 0.78011066 0.7241853 0.8006444 0.82747096
0.7489028 0.9175644 0.7463832 0.70965636 0.8355551 0.804743 0.7793763 0.7618833
1.0494026 0.9294834 0.74894506 1.0038546 0.9007994 0.91857123 0.82866335 1.0256149

blocks.1.conv1.weight f4 [64, 64, 3, 3]
00000000: c17b 05bd 4a40 83bd ee71 38bc 91c0 79bd
00000010: de23 f73c 90fc 633d f459 c4bd f89e 7b3d
00000020: 4a42 bfbc 23f1 5f3c 61e8 f7bc 4ee3 0fbe
00000030: 7514 3dbd 45c4 bc3c d64a 81be 853b 0b3e
00000040: 951a bbbc 12a6 f3bc 021a 2abc e00c 8dbd
00000050: 21cd 4d3d 646c f0bd 7468 23bd c98c 8ebd
00000060: e327 b13d d40f 26be 180c 92bd 6d29 ba3d
00000070: ba74 f53d e5fe 2a3d 81e5 a5bd 0e91 b83d
00000080: 1bc9 8dbd f72e ac3d 9d64 bc3d d8ca d7bc
00000090: b6cf 72bd 6123 9a3d 0233 533c 3aca 27bd
000000a0: e90e db3b 37cd 333d d1af 363c 522b 01bc
000000b0: 7a8a 1fbe 8b82 32bc 2b0c 96bc 4a00 80bb
000000c0: 2e35 183d ad9a 6e3c e780 c63d e20c 1cbc
000000d0: f0e7 30bd f861 ea3c f87c 03bd fd71 82bd
000000e0: d6e4 b03d a134 22bc 6ea8 2fbd d66d f0bd
000000f0: 034f 41bd b090 92bd d67f 0f3d 3948 d93d
00000100: f4b2 99bb bd32 89b9 1a2c babd 5e17 f83c
00000110: d3c6 dfbd 16f3 993d 2cfb 15be 6dc4 04be
00000120: 7768 54bd 5fca 603d 630d 513d 299f a83c
00000130: ccef 953d 478e 86bc adbc 663d 0cae 15bd
00000140: 7538 313d 6d5d e43c e6f8 35bd 8bca 41bd
00000150: d2d2 43bc 4bce ba3d d90a c0bd eed8 d33d
00000160: 56be cfbc b689 583d d1d5 3d3d 09b7 31bd
00000170: fc65 3f3c 201b d73a a1d9 07bd ae71 d7bc
00000180: dc4e 09be 0531 173c 81c9 0f3d f488 85bb
00000190: 4999 1d3d d937 753d 77be 51bd 55ef 713d
000001a0: 795a 8f3c 682f 1d3d 8629 633b 8789 a6bd
000001b0: 4ce7 be3b 05e5 fd3c a1d3 17bd 187c 00bd
000001c0: 52f2 01bd 6db1 d8bd b40e 343d d258 b5bb
000001d0: 8d4f 76bd c69b 94bd e710 aabd 930d 0bbe
000001e0: f025 903d 2d41 ccbc a711 02be 07e3 babc
000001f0: 7539 07bd fade c2bd e94a 053a 5988 a3bd
00000200: ada5 0339 3143 a93d bbc6 d03b a382 7ebc
00000210: 31eb 323c 07ac 48bd 2966 97b9 9919 b9bb
00000220: 304e 74bd d6a2 8bbc db66 32bd 9e08 6f3c
00000230: 1908 a6bb 12f4 1cbd bafd 213d 6da1 a2bd
00000240: f28b 363e 3b81 d03d 1370 c9bc 5b8b c7bb
00000250: 5a83 a7bc 9cab 083e 271f a1bd 712f 423d
00000260: 0b9c a8bc a412 b0ba baf6 023e 8b27 033e
00000270: 5f03 d4bc 87fa 013e d450 84b9 3ff6 43bd
00000280: 087d a93c d731 82bc 2f34 843d 5d19 ccba
00000290: f60d 343d 7ec0 413d 759e c4bc 3bdb 873c
000002a0: 563e efbc 9f96 cf3d dc2b e73d 584a 06be
000002b0: d6d3 2dbd c9fb 203a 6708 fabd 6284 363d
000002c0: 0ed2 c33c eb41 dfbc a571 f73c e22a fc3c
000002d0: 7664 603d 167c 89bb 8aee a23d 81ac 79bd
000002e0: 5783 2dbc aa0d e53c 1f16 79bd c7b7 d7bc
000002f0: fd18 0dbc 2932 c6bd 4884 94bd 1613 af3c
00000300: c621 353c c514 b63d 0ca8 cfbd c4a2 14be
00000310: eb0a af3d 4351 34bd 0810 dc3d 5913 b0bd
00000320: 639c b53b 1018 103d a358 8e3c aaee c13d
00000330: 8d68 5f3c 5ab0 343d baf7 adba 28e5 53be
00000340: c984 2abc 13c1 4f3d 3812 bbbd 874f 42bd
00000350: 13a3 d1bd eeb5 57bc 2433 a0bd b295 80bd
00000360: 3703 ad3d 580b b5bc 16aa 4a3d 921b 8fbc
00000370: c4d0 e0bb b8b9 f2bd 5350 673d fa93 d63c
00000380: 53ae 8abd 66a3 6b3c 9772 3f3d b1d8 58bc
00000390: dbf5 a1bd abdc d63b 4e56 a43c b6e5 33bd
000003a0: cbd7 173d fd9a f1bb e26a e3bd 08de 84bd
000003b0: 9337 e2bc 293f 4cbd 9447 52bd c153 d43c
000003c0: e58b 5c3c ebca 9bbd 85c4 dabc 236b a6bd
000003d0: 2916 5ebd 3d5a fbbd 148e 543c 8fb0 dbbd
000003e0: 0d3d f23b 2231 093d 2da9 133d 9272 91bd
000003f0: a8ce 42bc 11d5 ecbd 975f 0ebd e9db 0cbe
-0.032588724 -0.064087465 -0.011257632 -0.06097466 0.03016847 0.055660784 -0.0958747 0.0614309
-0.023347039 0.013668331 -0.030262174 -0.14051554 -0.046162087 0.023042807 -0.25252408 0.13596924
-0.022839824 -0.029742274 -0.010382177 -0.06887221 0.050244454 -0.11739424 -0.039894536 -0.069604464
0.08650186 -0.16216975 -0.07131213 0.090899326 0.119851544 0.041746993 -0.08100415 0.09012042
-0.069231234 0.08407395 0.09198878 -0.02634184 -0.05928012 0.07526279 0.012890579 -0.040964343
0.006685127 0.04389688 0.011150316 -0.0078838635 -0.15580168 -0.010895382 -0.018316349 -0.0039062845
0.03716009 0.014563245 0.09692555 -0.009524556 -0.043189943 0.028611168 -0.0321016 -0.06369398
0.08637397 -0.009900243 -0.042885236 -0.117396995 -0.047194492 -0.07156503 0.035034023 0.106094785
-0.0046905223 -0.0002616848 -0.09090443 0.03028458 -0.109265946 0.07517068 -0.14646596 -0.12965555
-0.051857438 0.054880496 0.051038157 0.020583706 0.07321128 -0.016425265 0.05633228 -0.036542937
0.043266732 0.02787658 -0.04442682 -0.0473123 -0.011952119 0.091213785 -0.09377069 0.103441104
-0.025359314 0.052865706 0.04634649 -0.043387447 0.01168203 0.0016411282 -0.03316653 -0.026299324
-0.13408989 0.009227996 0.03510428 -0.004075164 0.038476262 0.059867714 -0.051207032 0.059066135
0.017499195 0.03837529 0.00346622 -0.081317 0.0058259126 0.030992994 -0.03706706 -0.031368345
-0.031725235 -0.10580716 0.043959334 -0.00553427 -0.06013446 -0.07256274 -0.08304005 -0.13579397
0.07038486 -0.024933422 -0.12702046 -0.022813333 -0.03301378 -0.09515186 0.000508471 -0.079849906
0.00012554853 0.08264769 0.006371347 -0.015534076 0.010920332 -0.048992183 -0.0002887708 -0.0056488034
-0.059644878 -0.01704542 -0.043555122 0.014589457 -0.0050668833 -0.0383187 0.039548613 -0.07940946
0.17826822 0.10180899 -0.024589574 -0.0060896105 -0.020448375 0.13346714 -0.0786727 0.047408525
-0.02058222 -0.001343329 0.12789431 0.12808053 -0.025880514 0.12693225 -0.00025237224 -0.04784226
0.020689502 -0.015892906 0.06455266 -0.0015571524 0.043958627 0.047302715 -0.02400134 0.01658403
-0.029204529 0.101361506 0.112876624 -0.13114297 -0.04243835 0.00061410345 -0.12208634 0.044559844
0.023903873 -0.027253112 0.030205557 0.030782167 0.054783307 -0.0041957004 0.07955654 -0.06095553
-0.010590396 0.027960617 -0.060812112 -0.026332749 -0.008611915 -0.09677536 -0.07251793 0.021371406
0.0110554155 0.0889068 -0.10139474 -0.14515215 0.08547004 -0.04402281 0.10745245 -0.0859744
0.0055423244 0.035179198 0.01737625 0.0946935 0.013635767 0.044113494 -0.0013272681 -0.20692885
-0.010407635 0.05072124 -0.09134334 -0.047439124 -0.10236182 -0.013165934 -0.07822254 -0.06278552
0.08447879 -0.022100136 0.049478613 -0.017469201 -0.0068608243 -0.11851829 0.056473088 0.026193608
-0.06771531 0.014382219 0.04674014 -0.013235257 -0.07908221 0.0065570674 0.020060685 -0.04392024
0.03707103 -0.0073732124 -0.11104371 -0.064876616 -0.02761439 -0.04986492 -0.051337793 0.025918843
0.013461088 -0.07607063 -0.026705036 -0.081259035 -0.054220352 -0.12273071 0.012973327 -0.10727035
0.0073925317 0.033494122 0.03605001 -0.07101931 -0.011890091 -0.11564077 -0.03475913 -0.13755764

blocks.1.bn1.weight f4 [64]
00000000: 19c0 7f3f 15db 763f b015 753f 33de 783f
00000010: 35e0 6e3f 99a5 753f fcbb 803f c347 6f3f
00000020: 5ae7 703f 5971 783f f895 7c3f 83bc 713f
00000030: c2ba 743f 80aa 813f 5c35 803f a198 763f
00000040: c36c 8d3f 7dc7 6c3f c264 7d3f a1b6 703f
00000050: ea5d 6b3f fa64 6f3f 6420 6b3f a46a 753f
00000060: 09db 773f 4f19 7e3f d435 813f 3502 723f
00000070: b8ef 6f3f a3bd 773f a848 793f ee7d 773f
00000080: 4ce2 763f ff9f 773f 9b2e 783f d00d 763f
00000090: 4af4 733f b81b 763f 6939 783f df76 753f
000000a0: ebfb 733f ecae 7e3f 3e29 743f ecd1 733f
000000b0: 4e18 753f fa66 7e3f 30f8 753f 65fe 743f
000000c0: 34be 843f 433b 7a3f 605f 863f 5205 853f
000000d0: 8b65 7c3f 36be 6e3f f522 723f ca67 693f
000000e0: 5b57 7f3f 7765 743f 0eaf 7e3f b84d 7a3f
000000f0: 1488 703f 6da1 763f c0b6 733f 30ff 7e3f
0.9990249 0.9642804 0.9573622 0.9721405 0.9331086 0.95955807 1.0057368 0.93468875
0.94103014 0.97047955 0.98666334 0.9442827 0.9559747 1.0130157 1.0016284 0.96326643
1.1048816 0.92491895 0.9898187 0.9402867 0.91940176 0.93513453 0.918463 0.95865846
0.96818596 0.9925737 1.0094552 0.9453462 0.93725157 0.9677374 0.9737649 0.9667653
0.9643905 0.9672851 0.96946114 0.96114826 0.9529463 0.96136045 0.969626 0.9588451
0.9530627 0.9948566 0.9537543 0.9524219 0.9574021 0.9937588 0.9608183 0.95700675
1.0370545 0.97746676 1.0497856 1.0392249 0.9859244 0.9325899 0.9458459 0.91173995
0.9974267 0.95467323 0.9948586 0.9777484 0.9395764 0.96340066 0.9520073 0.99608135

blocks.1.bn1.bias f4 [64]
00000000: 1540 9dbe 8347 b2be 78d6 9fbe e3f4 d6be
00000010: 34f9 c9be 7fc9 9fbe 5282 b7be 00b1 6ebe
00000020: 5578 a3be f34e 3dbe ed26 a6be afac b4be
00000030: 403f 95be 5a95 fcbe 2d7e 3abe 918b b3be
00000040: 7af6 72be ce35 cbbe 533b 46be 1b55 68be
00000050: 41ce 96be 1264 c6be 1154 abbe ebf6 84be
00000060: 381c e7be 629d 82be 7466 45be c057 8bbe
00000070: c968 cebe b70e 59be e169 8dbe 3781 e5be
00000080: e913 92be c71f bfbe f029 59be f77b aabe
00000090: 867e 8abe 7029 86be f32e 8fbe 6d75 a2be
000000a0: 7b3b afbe ca36 bbbe e0b2 bebe 62ca 7cbe
000000b0: 9823 b8be be8a cabe c058 9fbe 90c6 b4be
000000c0: 3320 8fbe 0e23 97be 13e8 42be d57d 68be
000000d0: d59c 59be a5b6 ccbe f957 9fbe cdfb bcbe
000000e0: 1fee 29be 7abd 77be 6ee0 83be 89a1 89be
000000f0: a97f 87be a632 afbe a966 79be 5f25 aabe
-0.30712953 -0.34820184 -0.31218314 -0.4198371 -0.3944794 -0.31208417 -0.35841614 -0.23309708
-0.31927744 -0.18487148 -0.32451573 -0.35287997 -0.29149818 -0.49332696 -0.18212195 -0.35067418
-0.23726836 -0.39689487 -0.19358568 -0.22688715 -0.29454234 -0.38748223 -0.33462575 -0.25969633
-0.45138717 -0.255107 -0.19277364 -0.27215385 -0.4031432 -0.2119702 -0.27619842 -0.44825146
-0.28530815 -0.37328932 -0.21207404 -0.33297703 -0.27049655 -0.2620349 -0.27965507 -0.31730214
-0.34225067 -0.36565238 -0.37245846 -0.24686578 -0.35964656 -0.39558977 -0.31122398 -0.3530774
-0.27954254 -0.29518932 -0.19033842 -0.22704251 -0.21251233 -0.39983097 -0.31121805 -0.3691086
-0.16594742 -0.24193373 -0.25757164 -0.26881054 -0.26464584 -0.3421833 -0.24355568 -0.33231637

blocks.1.bn1.running_mean f4 [64]
00000000: 49b9 22c0 bfe9 cdbe cc19 bfbf 2a9d 63bf
00000010: aff8 2ebf 1c93 92bf 5c64 e1bf 28a1 91bf
00000020: 72ee d33e 313a cdbf 6107 15c0 944c bb3e
00000030: 2f90 b1bf 02de d2bf 7456 66bf 6c74 2abf
00000040: 38ce 10c0 aae2 70bf a441 eebf 5b39 8dbe
00000050: a6d4 e7bf 0164 f3bd 20cb 08be 13b2 1bc0
00000060: daf7 b23e d213 d13f fd24 94bf 3d26 a5bf
00000070: 89ae 37be eb66 afbf f09b c7be 99b0 c2be
00000080: 1f6d 59bb 7ee3 91be 6fbe c1bf 3044 15c0
00000090: 370d 48bf 4661 14be a6f8 63bf deaa 7c3e
000000a0: d495 e1bf 857a f13e a540 fabf 24a0 a63d
000000b0: 7cb2 74bf ab07 ea3e beaf e1be 5f30 74bf
000000c0: 4643 abbe caa3 aebf 2aec a8bf 1069 87bf
000000d0: 6cc8 f3bf 9545 52bf b388 3cbf f7be b6bf
000000e0: 1ca6 67bf fae4 a7bf d6c1 1dbf c61e 81bf
000000f0: f8ba f53e 4d72 ebbf 251d b93e e017 06bf
-2.542559 -0.40217397 -1.4929748 -0.8891169 -0.6834821 -1.1451144 -1.7608752 -1.1377306
0.41392857 -1.6033384 -2.3285754 0.36581862 -1.3872126 -1.6474001 -0.89975667 -0.66583896
-2.2625866 -0.9409586 -1.8613782 -0.2758282 -1.811177 -0.118843086 -0.13358736 -2.4327438
0.3495472 1.6334174 -1.1573788 -1.2902294 -0.17937674 -1.3703283 -0.38986158 -0.38025358
-0.0033176614 -0.28493875 -1.5136241 -2.3322868 -0.78145164 -0.14490232 -0.8905128 0.24674556
-1.7623849 0.47163787 -1.9550978 0.08136013 -0.95584846 0.45708975 -0.44079393 -0.9538631
-0.33449763 -1.3643734 -1.3197072 -1.0578938 -1.9045539 -0.82137424 -0.73646086 -1.4277028
-0.9048784 -1.3116753 -0.61623895 -1.0087516 0.47994208 -1.8394257 0.36155048 -0.5238018

blocks.1.bn1.running_var f4 [64]
00000000: 824f 2e40 5243 0e40 9fa1 ee3f b105 0b40
00000010: 63d4 1440 d92c 2440 f238 0740 472e c53f
00000020: 96ff e73f 832b d73f 1e93 4040 b65e ec3f
00000030: 6b23 0d40 f7f8 1940 c76f 0240 09f4 e63f
00000040: 6f6b 1840 8163 f93f 971a 0c40 be88 fc3f
00000050: 9480 1c40 b18f 2640 8ce5 ae3f f08f 0440
00000060: f65b cf3f c997 0d40 128d 0140 4bca f63f
00000070: c90d 0f40 85c6 d53f 5e61 0340 723d 2640
00000080: 62b5 0640 02b6 2540 82df 0640 dd11 2640
00000090: 92eb d73f 628a 0140 4993 2240 9053 0040
000000a0: d377 0f40 2b76 0b40 7428 2140 dc0b 0440
000000b0: 7f21 fb3f 8307 e33f 040e f93f 7a29 e83f
000000c0: e906 db3f 095f 1140 e926 0740 ee20 0e40
000000d0: a82e 2740 d057 0540 00f8 d03f 94e0 e33f
000000e0: 8ecd 3740 abe8 da3f 6685 1640 e1a5 2540
000000f0: ece5 a83f 0482 1d40 9a02 e03f 85b5 f83f
2.7236028 2.222859 1.8643073 2.1722224 2.325463 2.5652373 2.1128507 1.5404748
1.8124874 1.6810154 3.0089793 1.8466403 2.2052867 2.4058206 2.0380723 1.8043224
2.3815572 1.9483491 2.189123 1.972923 2.4453478 2.6025202 1.3663802 2.0712852
1.6199939 2.2123892 2.0242352 1.9280485 2.2352164 1.6701208 2.0528178 2.5975003
2.1048207 2.5892339 2.1073918 2.5948403 1.6868765 2.0240712 2.5402396 2.0051003
2.2416885 2.1790874 2.518094 2.0632238 1.9619597 1.7736667 1.9457402 1.8137658
1.7111484 2.2714255 2.11175 2.2207599 2.6122227 2.0834846 1.6325684 1.7802911
2.871921 1.7102255 2.351892 2.5882494 1.3195167 2.4610605 1.7500794 1.9430395
