models/rym_grid_c0_s64_e2_t4_r4/resnet_c0_g1_a0_l0p32_lr1e-04.pt (torch, 758509 bytes, 28 tensors)

stem.0.weight f4 [64, 64, 3, 3]
000000 5e 69 dd 3c 12 df 25 3e a6 1b 99 be 12 62 bf bd
       0.027027782 0.16198376 -0.29903907 -0.09344877
000010 04 5a 3e be ff 5d 69 3d d8 b4 5c bd 23 58 96 bd
       -0.18589026 0.056974407 -0.053883404 -0.073410295
000020 0f 48 fb bd f2 04 21 be 37 cc fc 3d c8 77 9c bd
       -0.122696035 -0.15724543 0.123436384 -0.07640034
000030 06 ea be bd 21 4b ec be c6 73 17 be d5 8f fa 3d
       -0.0932198 -0.4615107 -0.14790258 0.12234465
000040 3c 6d b0 3d db 1a bc bd 39 44 9b be a7 4a bc 3d
       0.08614585 -0.0918481 -0.30325487 0.09193926
000050 e8 d5 60 be 02 0d 08 bd e0 0a 92 bd 4e de a1 3d
       -0.21956599 -0.03321553 -0.071309805 0.079037294
000060 97 57 e7 3c 6f 67 52 3e cd b1 d9 bc 9f d0 df bd
       0.028240008 0.2054727 -0.02657404 -0.10928463
000070 9d 51 02 3e e2 1f 9d 3d 32 37 8c bd d1 5e 15 3b
       0.12726445 0.07672097 -0.06846465 0.002279211
000080 87 a4 3c be b5 bf 44 3e d4 b6 8b 3e 81 1c 8d 3e
       -0.18422137 0.19213755 0.27287924 0.2756081
000090 32 cf 2d be 04 4b d8 3d ab ea 9e 3d 31 57 94 bd
       -0.1697357 0.10561183 0.07759603 -0.07243193
0000a0 5e 86 61 3e f7 92 ec bd da 13 c3 3e 05 71 b5 3e
       0.22023913 -0.11551469 0.38101083 0.3543779
0000b0 5c 21 c7 3e d8 fe dd bc 31 65 b8 3d bf f8 d4 bb
       0.3889264 -0.027099058 0.09003676 -0.0064993794
0000c0 04 5c fc bc fd 37 62 3e d3 76 b0 3c c0 57 6f 3d
       -0.030805595 0.2209167 0.021541035 0.058433294
0000d0 24 55 44 be a2 e9 d2 3d 17 23 90 bc b9 1f 94 3e
       -0.19173104 0.10298468 -0.017594857 0.28930452
0000e0 5f de be 3e 3d 6e be 3d be bd 54 bd 05 31 35 3e
       0.3727903 0.0929837 -0.051938765 0.1769448
0000f0 a6 3e 25 bd 9d fd 92 3e f0 88 b0 bc 84 08 b2 bd
       -0.04034295 0.28709117 -0.021549672 -0.086930305
000100 d4 1c 0c be 4b 55 31 be 40 76 72 3d 58 90 57 3e
       -0.13682872 -0.17317693 0.059194803 0.21051157
000110 27 85 08 be e5 11 ef 3e 23 4d 69 3e 9f 40 2f 3e
       -0.13332044 0.4669334 0.22783332 0.17114495
000120 85 58 37 be 2f 5e c3 bc c1 c4 8e bd 93 b4 29 3c
       -0.17904861 -0.023848621 -0.069711216 0.010357994
000130 ee 74 89 bd b7 0a 46 3d e4 11 40 3e 7a 44 15 3e
       -0.06711756 0.048350062 0.18756825 0.14576903
000140 4e 55 04 bd fb 45 01 3d 2d 11 04 3e e5 91 9d be
       -0.032307915 0.03156088 0.12897177 -0.3077537
000150 d4 c2 56 3e 0d 03 12 3d 52 ef 1f be 45 10 c3 3e
       0.20972759 0.03564744 -0.15618637 0.3809835
000160 53 b3 83 3d db f6 df bd a6 3a 00 be d3 d8 87 3d
       0.06430688 -0.10935756 -0.12522373 0.06633153
000170 8d 66 da bd 54 b2 40 3e e8 be 96 3d 98 c0 1d 3e
       -0.10664091 0.18818027 0.07360631 0.154055
000180 c7 54 06 3e 6f 51 0a bd 2b 18 25 bc cd da 45 be
       0.13118277 -0.033769067 -0.010076563 -0.19321747
000190 e9 7c 08 be 11 4f 82 bd f5 ae b8 bd 1f f7 db bc
       -0.133289 -0.06362737 -0.090177454 -0.026851235
0001a0 29 9f 56 3e 17 c1 20 3e 0a f7 37 3d 9a 79 1a 3c
       0.20959152 0.15698658 0.04491333 0.009428406
0001b0 21 3e 20 bd a7 31 0d 3d e1 09 c5 bc a3 f2 d6 3c
       -0.03912175 0.03447118 -0.024052562 0.026238745
0001c0 9c 15 64 3d 67 a0 92 bd e1 01 f0 bd ee fc 9a 3d
       0.05568467 -0.071595006 -0.117191084 0.07567774
0001d0 4d c5 27 be 50 8d 92 3c e6 d3 85 bd d7 0c 45 bd
       -0.16383858 0.017889649 -0.06534557 -0.04810795
0001e0 f9 93 c9 bc b7 ca 10 bd f6 4e 38 3c b4 a6 d8 bc
       -0.024606692 -0.035349574 0.0112492945 -0.026446678
0001f0 0c 85 98 bc 2a ae 08 3d 22 08 12 be a7 07 68 bd
       -0.01861813 0.03336922 -0.14260915 -0.056647923
000200 8a 72 04 be 62 11 83 bd d6 83 03 be 10 45 b6 bb
       -0.12934318 -0.063998 -0.1284326 -0.005562432
000210 8c 64 59 ba ef c6 79 bd cc 2e ba bd db 14 b9 bd
       -0.0008292876 -0.060980733 -0.09090957 -0.09037181
000220 fe 1c 00 3d 47 4e 0a be 72 c0 da bc 5d 8e 53 3c
       0.03127765 -0.13506423 -0.026703093 0.01291236
000230 ee 2a 1a bd d6 39 7b bd f4 6a 71 bd 7b 20 94 bc
       -0.037638597 -0.061334454 -0.05893989 -0.018081894
000240 63 9a 31 bd a5 f3 03 3b 39 e7 23 bb a7 73 c6 bb
       -0.043360125 0.0020134237 -0.0025009646 -0.0060562673
000250 d1 ae b2 3a 95 43 a9 bd a7 e4 19 3b 00 9f 98 3d
       0.0013632422 -0.082648434 0.0023482235 0.07452202
000260 e3 f7 c4 bd f8 b4 29 bd 83 9a 82 bd 39 88 ae bc
       -0.09617593 -0.04143235 -0.06377127 -0.02130519
000270 c1 10 3d 3d 1a 91 09 3d d6 a4 5e 3c 12 2f 03 3c
       0.046158556 0.033585645 0.013589105 0.008006828
000280 b3 00 d9 3c 71 45 e4 bc 18 62 89 3d 9f f8 90 bc
       0.026489591 -0.027865143 0.06708163 -0.017696677
000290 f8 aa 97 bd 92 b6 6c bd af e3 db 3c 1d c9 a6 bd
       -0.074056566 -0.0577913 0.026841966 -0.08143828
0002a0 3d f2 b5 3d 71 6f 57 3e 9e 33 06 3e 81 86 14 3d
       0.08884094 0.21038605 0.13105628 0.036261085
0002b0 47 8a 89 3c c6 e8 9d bc 18 55 94 3d 1e 05 05 bd
       0.016789569 -0.019276034 0.07242793 -0.032475583
0002c0 ec d5 8b bc c8 bb f4 3d 11 98 61 3d 60 11 28 3d
       -0.01706978 0.11949879 0.055076662 0.041032195
0002d0 52 7c fe bd a5 e9 a0 3d ca de b2 bc 4e ae 82 bb
       -0.12426056 0.07857064 -0.02183475 -0.003988064
0002e0 4e 43 0a be a2 3c 8e bb f5 63 a2 3b b1 8e 77 bb
       -0.13502237 -0.004340724 0.0049557635 -0.003777426
0002f0 30 1b 0b 3b 2d c8 7e 3d 57 3b 83 3c 9d 4e b6 bd
       0.0021225922 0.06220262 0.016019506 -0.08901713
000300 31 44 00 3e e0 e8 05 3d 79 90 47 bd 1e 4e ff 3d
       0.12526013 0.03269279 -0.048721764 0.124660715
000310 e3 19 82 3d 01 11 c5 bd 86 01 4e 3d d8 5c 97 3c
       0.06352594 -0.09622384 0.05029442 0.018476889
000320 e4 70 bc bc 88 ba 6f 3d 66 53 3b bc dd 29 09 bd
       -0.02300305 0.0585275 -0.011433458 -0.03348719
000330 a0 b0 0d 3d 4b 75 5a 3c f5 2f 6b bc d3 1f 7d bb
       0.03459227 0.013333629 -0.014354696 -0.0038623705
000340 f4 ee 83 3c 95 ca cd 3c ea aa 66 3b b7 60 dd 3d
       0.016105153 0.025121013 0.0035197088 0.108094625
000350 87 27 55 bd 87 19 a6 bc 6a 31 28 3d 72 dc 13 bd
       -0.05203965 -0.020275844 0.04106275 -0.036098905
000360 85 7d f1 3b 7d c0 05 3d a4 01 8b bd fd 5c 5f b9
       0.0073696994 0.032654274 -0.06787422 -0.00021301578
000370 9f a4 3f 3d 60 41 ff bc 97 91 f9 bd e6 f4 63 3c
       0.046787854 -0.031159103 -0.12185972 0.013913369
000380 2f be 01 be 17 7d 82 3c 15 6f 43 3c 07 df af bc
       -0.12670206 0.015928788 0.0119283395 -0.021468652
000390 5a 77 f5 bc 92 be 0f bd 78 05 12 bd e3 ad 66 bc
       -0.029964138 -0.03509385 -0.035649747 -0.014079544
0003a0 d4 5d 30 bc f8 8e 78 bc a4 93 8a bc 3b 7f f1 3c
       -0.010764558 -0.015170805 -0.016916104 0.029479614
0003b0 73 84 ca 3d 42 33 f8 3d 05 78 72 3c 01 d8 37 3d
       0.09888544 0.12119152 0.014799123 0.04488373
0003c0 23 f6 0e 3e e1 31 c1 39 90 ed 54 3d cb 1d 13 3d
       0.13961081 0.0003684899 0.05198437 0.035917085
0003d0 71 ab 8d 3d a0 d9 33 3d e2 bd 81 3c 67 a5 fa bb
       0.069174655 0.043908715 0.015837613 -0.007649112
0003e0 ac 92 76 3d a2 c7 ef 3d b8 2b f0 3d a5 80 bb bc
       0.06019847 0.11707999 0.11727089 -0.02288849
0003f0 64 f1 2d 3d 0b 49 6e bd 4b 43 47 3d 4a 16 53 bb
       0.042466536 -0.058175128 0.04864816 -0.003220933

stem.1.weight f4 [64]
000000 80 45 4f 3f dd 48 4d 3f e0 88 2f 3f b0 eb 4b 3f
       0.80965424 0.80189306 0.6856823 0.79656506
000010 34 55 6e 3f 8b 68 4b 3f 3b 23 30 3f fc 4d 48 3f
       0.9309876 0.79456395 0.6880376 0.78243995
000020 69 be 84 3f d1 1f 57 3f 01 df 73 3f 37 b7 36 3f
       1.0370609 0.84032923 0.9526215 0.71373314
000030 f4 be 8a 3f 1b 9b 23 3f b9 db 56 3f 8a 75 4a 3f
       1.0839524 0.6390855 0.8392902 0.790856
000040 ba 69 67 3f 5c ef 46 3f dc 86 39 3f 37 3d 71 3f
       0.903957 0.77708983 0.72471404 0.9423403
000050 db fd 44 3f a0 3a 53 3f 76 e8 48 3f 67 6f 4f 3f
       0.7694985 0.8251133 0.7847971 0.8102936
000060 0f d7 45 3f 64 1b 4d 3f a7 d4 51 3f 8d 59 61 3f
       0.7728128 0.8011992 0.81965107 0.8802727
000070 a4 55 27 3f d0 60 46 3f 99 7a 2a 3f 95 62 34 3f
       0.6536505 0.77491474 0.6659332 0.70462924
000080 d4 75 4c 3f 6a 20 2b 3f 2f b3 4e 3f 5c aa 2d 3f
       0.7986729 0.66846335 0.8074216 0.6783807
000090 27 26 64 3f 84 1e 51 3f 28 8e 48 3f 7a af 4a 3f
       0.89120716 0.8168719 0.78341913 0.79174006
0000a0 33 63 78 3f fb 5e 38 3f 10 57 58 3f 91 b2 74 3f
       0.97026366 0.7201993 0.84507847 0.9558497
0000b0 37 d0 50 3f 29 ac 31 3f b5 88 6c 3f f6 f6 2d 3f
       0.8156771 0.6940332 0.923961 0.6795496
0000c0 4c 57 4a 3f 43 5b 3c 3f 52 1c 44 3f 80 10 75 3f
       0.79039454 0.73576754 0.76605713 0.957283
0000d0 80 b7 48 3f ef 33 56 3f 77 13 42 3f 78 7f 45 3f
       0.78405 0.83672994 0.7581095 0.77147627
0000e0 82 47 4b 3f 4d 4e 4b 3f 03 fc 45 3f 04 2b 30 3f
       0.7940599 0.7941635 0.77337664 0.68815637
0000f0 62 a3 59 3f 90 80 58 3f 9e 38 4b 3f f4 ff 4e 3f
       0.8501493 0.8457117 0.79383266 0.80859303

stem.1.bias f4 [64]
000000 fc db 0f be ab 54 39 be eb 3c 9c bd f6 d0 14 be
       -0.14048761 -0.18098705 -0.07628807 -0.14532837
000010 51 56 9f bd 9a 30 39 be 65 55 7a bd a7 b3 68 be
       -0.077801354 -0.18084946 -0.061116595 -0.22724782
000020 5e 8f 88 bd 5c bb 59 bd bb 93 bc be 5d 61 c5 bd
       -0.0666797 -0.053157195 -0.3683146 -0.09637711
000030 c6 ce 91 be cd 87 35 be 5b 41 8a be e2 a1 fa bd
       -0.28478068 -0.17727585 -0.27002987 -0.12237908
000040 88 0b 61 bd c7 06 6d bd 09 ba 32 be bc 2e 4c be
       -0.054942638 -0.05786779 -0.1745378 -0.19939703
000050 d5 2d 04 be bd 22 df bd 4e f3 31 be ca 0d d4 bd
       -0.12908109 -0.10895298 -0.1737797 -0.103541926
000060 4f f0 7a be ab 4b 27 be 70 d7 7a be b1 6c 06 be
       -0.24505733 -0.16337459 -0.24496245 -0.131274
000070 9b 0e 7b 3d c0 d2 2a be ac e0 b5 3c fd be 1a be
       0.061293226 -0.16681957 0.022201858 -0.15111919
000080 be 8d 07 be d1 70 ce ba 4f 8a f0 bd 06 df 27 bd
       -0.13237664 -0.0015750175 -0.1174513 -0.040984176
000090 c2 d8 28 be e1 e0 9d 3c 9c 1d d4 bd 25 47 88 3b
       -0.16488937 0.01927227 -0.1035721 0.0041588717
0000a0 69 88 a1 bd 02 b4 02 be 78 c4 74 be 30 ff fb bc
       -0.07887346 -0.1276398 -0.23903072 -0.030761331
0000b0 83 39 7e bd ca 36 4a be 9b 57 c6 bd 72 3d c4 bd
       -0.062066566 -0.19747463 -0.09684678 -0.09582032
0000c0 e0 96 fc bd ed ad 2e be 3e 0e ef bd 96 52 6e be
       -0.123334646 -0.17058535 -0.11672638 -0.23273692
0000d0 a3 a3 13 be 35 98 2e be f9 20 3e 3d d4 ce 0b be
       -0.14417891 -0.1705025 0.046418164 -0.13653117
0000e0 79 28 2c be 36 c9 32 bd d7 64 d5 bd e2 58 ac 3b
       -0.16812314 -0.04364892 -0.10419624 0.005259619
0000f0 c5 85 25 be 31 5a 99 bd 5f 0f 53 be ed 5b b1 bd
       -0.1616431 -0.07487906 -0.20611332 -0.086601116

stem.1.running_mean f4 [64]
000000 6e d2 35 bf f5 c9 cd bc 94 d4 d1 be cb 6e 36 bf
       -0.71024215 -0.025120715 -0.40982497 -0.71262807
000010 d5 dd 92 bf c4 24 d8 be 05 57 f3 3e 5e a3 17 be
       -1.1473948 -0.4221555 0.47527328 -0.14808413
000020 3c fc af bf 81 c0 72 bf 13 b2 47 bf ae 5e 38 bf
       -1.3748851 -0.9482499 -0.78006095 -0.7201947
000030 f2 b9 8a be 93 7a 11 3e dc 63 af 3e e3 92 12 bf
       -0.2709499 0.14206915 0.34255874 -0.5725538
000040 68 1a 22 bf 74 2b e9 3e f3 0d d7 be e7 49 48 bf
       -0.6332154 0.45540965 -0.4200283 -0.78237766
000050 2d 08 45 be 45 ba 84 bf 7f f7 ee be 82 b4 19 be
       -0.192414 -1.0369345 -0.466732 -0.15010265
000060 82 2e 29 bf dc c3 2c bf af 14 17 be 07 49 66 bf
       -0.6608659 -0.6748636 -0.14753984 -0.8995518
000070 26 a5 12 3f 7c 08 40 bf 70 f8 21 bd ef 60 e7 be
       0.57283247 -0.75012946 -0.03954357 -0.45191142
000080 60 b3 1b 3e 2b fa ce be 6c c0 e7 3e 95 f7 45 bf
       0.15205145 -0.40425238 0.45263994 -0.77330905
000090 95 dd be be 06 63 4b bf f4 25 8e be 1e 6d 07 bf
       -0.3727843 -0.7944797 -0.2776333 -0.52900875
0000a0 f5 87 e5 bf fe 9c c3 3e 9f 45 6c bf 8b 9d 5c bf
       -1.7932116 0.38205713 -0.92293733 -0.8617789
0000b0 59 fe a6 bf 54 d3 18 3e 52 e9 2b bf c3 9e 2e bf
       -1.3046371 0.14924365 -0.67152894 -0.68211
0000c0 4b fe 2c be 86 63 9c 3e 6b d1 5c bd 33 e2 24 bf
       -0.1689388 0.3054468 -0.053910654 -0.6440765
0000d0 3a ef 06 be 56 ce 31 bf 45 3a 49 3f d1 d6 37 bf
       -0.13177195 -0.6945547 0.7860454 -0.7181216
0000e0 0f d7 26 be c0 ed 6d bf 2d 5b b5 3d 56 8e 0d 3f
       -0.16292976 -0.929409 0.08855281 0.5529531
0000f0 20 17 73 bd 1e b2 44 bf cc a3 0b bf 37 4a 05 bf
       -0.059348226 -0.76834285 -0.5454681 -0.5206637

stem.1.running_var f4 [64]
000000 69 c9 ff 3e 2d d2 da 3e d3 17 06 3f 2c 8a e2 3e
       0.4995835 0.42738476 0.523801 0.44246042
000010 73 7d 03 3f d2 c5 e7 3e 18 3a 15 3f 53 80 86 3e
       0.51363295 0.45268112 0.5829177 0.2626978
000020 85 87 f9 3e d3 08 f7 3e 5b 5d b4 3e ff a5 ca 3e
       0.48736206 0.4824892 0.35227475 0.3957977
000030 f2 2b 91 3e 7b 81 9e 3e ee e9 96 3e 5e 12 3a 3f
       0.2835384 0.3095816 0.2947535 0.72684276
000040 de 11 b6 3e 9f 37 31 3f 4d 50 b8 3e 8f 21 8f 3e
       0.35560507 0.69225496 0.35998765 0.2795529
000050 56 1a c2 3e 6d cd 94 3e 41 66 d1 3e b5 a3 05 3f
       0.37910718 0.29062977 0.40898326 0.5220292
000060 e5 21 c9 3e c8 d8 33 3f 8c 7b e8 3e 86 0e 17 3f
       0.39283672 0.70252657 0.4540676 0.59006536
000070 10 57 9f 3e 7a df 08 3f c2 ab 8a 3e f6 ba 02 3f
       0.3112111 0.53466 0.27084166 0.5106653
000080 f3 c7 14 3f 0d df b6 3e f2 28 80 3e 4f c2 c2 3e
       0.581176 0.3571705 0.2503124 0.3803887
000090 9e 3e bd 3e d8 82 db 3e 7b 62 d5 3e 2a 1d a3 3e
       0.36961836 0.42873263 0.41676697 0.31858188
0000a0 1a 07 ed 3e d7 15 a0 3e 59 c2 03 3f 28 bc cb 3e
       0.4629448 0.31266662 0.51468426 0.3979199
0000b0 51 1c 4b 3f 1b d0 06 3f 72 27 41 3f 78 77 d9 3e
       0.7934008 0.52661294 0.75450814 0.4247396
0000c0 b7 46 cc 3e 4a 8b 3d 3f a4 f4 44 3f 29 a8 af 3e
       0.398977 0.74040663 0.7693579 0.34307984
0000d0 fd d9 bc 3e 43 b2 1b 3f 56 db fc 3e 05 bb 6b 3f
       0.36885062 0.6081888 0.4938609 0.92082244
0000e0 61 71 b4 3e c3 ba f5 3e 23 56 8c 3e 97 16 a3 3e
       0.3524275 0.4799405 0.27409467 0.31853172
0000f0 2d 98 ac 3e 6a a9 e3 3e 39 3e cf 3e 15 90 08 3f
       0.3370985 0.4446519 0.4047716 0.5334485

blocks.0.conv1.weight f4 [64, 64, 3, 3]
000000 2f c1 fc bd 43 69 c9 3d ea 7d da 3d d6 71 6e bd
       -0.12341534 0.0983453 0.106685475 -0.05821403
000010 fc 8c 11 3d 9c fe 4f 3d 08 64 ce 3c 9c 7d 8e 3d
       0.035534844 0.050779924 0.025194183 0.06957552
000020 99 dc 99 bd 77 b0 74 3d 97 9c ab 3b 9f 2c 96 3c
       -0.07512779 0.059738602 0.005237173 0.018331824
000030 8b fc ae 39 24 f6 c1 3d 42 22 05 bd 73 a1 11 3d
       0.00033376025 0.09470776 -0.032503374 0.03555436
000040 8b 2f 24 be e6 06 0b bd a5 90 be 3c d3 f1 35 3d
       -0.16033761 -0.033942126 0.023262331 0.044420075
000050 af 6a cd bd 6d fb c3 3d f7 25 a7 3d f6 c2 b5 bd
       -0.10030114 0.0956944 0.08161538 -0.088750765
000060 74 0c a6 3d 0c 7b 8a bc 00 5f 41 be 00 48 cb 3c
       0.08107844 -0.016904376 -0.18883896 0.024814606
000070 93 89 ad bb 68 d5 0f 3e 22 cc c5 3d d3 0e c3 bd
       -0.005295941 0.14046252 0.09658076 -0.09524312
000080 37 9a d9 3d f3 fb b6 bd 20 ae 29 bd 6e 65 dd 3c
       0.10625117 -0.08934774 -0.041425824 0.027025905
000090 d6 5e 40 3c 5a 5f 9a 3d 92 d6 d5 3a b7 84 1a bc
       0.011741361 0.07537718 0.0016314557 -0.009431056
0000a0 bc 7f 4a 3e d8 a2 31 3d f3 ce 01 3e ff df 32 bd
       0.1977529 0.04336819 0.12676601 -0.04367065
0000b0 80 d0 85 bd 17 ff d2 bd 6b bc 98 3d a5 2c 0e 3e
       -0.06533909 -0.10302561 0.07457813 0.13884218
0000c0 01 3b 1c 3e e7 6c c7 bc de 03 b2 3d f2 c6 a2 3d
       0.15256883 -0.02434392 0.08692144 0.07948102
0000d0 38 13 07 bc e4 d3 9d bc f5 05 b4 3d 71 56 32 bd
       -0.008244328 -0.019266076 0.08790199 -0.04353947
0000e0 4c 01 59 3d 6d c7 3a 3d 0d 97 5e bc d4 5b 44 bd
       0.052979752 0.045600343 -0.013585818 -0.047939137
0000f0 18 2c 5a 3d 8e 52 12 bd c4 2e c3 bd c6 de e5 bc
       0.053264707 -0.03572326 -0.09530404 -0.028060328
000100 f2 89 14 3c fb 65 05 3d 42 85 d7 bc 29 12 25 3d
       0.009066092 0.03256796 -0.02630866 0.040300522
000110 cc 42 10 bd cb db fa bb b9 fd 9e 3c 7c 89 9b bd
       -0.035219952 -0.007655596 0.019408094 -0.075945824
000120 96 cf b9 3d 93 37 81 3d 72 1e 38 bd d8 c2 1f bd
       0.09072797 0.06309428 -0.04495091 -0.039004177
000130 fb 7b 64 3d c4 67 8f 3d 48 2c 95 bc 7f e2 ec 3d
       0.0557823 0.070022136 -0.018209592 0.11566638
000140 21 dc a5 3d 4e c3 6e bd f9 5a b5 bc 77 48 35 bd
       0.08098627 -0.058291726 -0.022138106 -0.04425856
000150 3c 20 65 bd e6 4c cb 3d 6a f3 05 3e 38 3b a8 3a
       -0.055938944 0.099267766 0.13081136 0.0012835031
000160 27 b7 93 bc 3c b5 8c 3d 6e 89 38 3c 31 16 0e 3c
       -0.01803167 0.06870505 0.011263235 0.008672283
000170 ef 5d 69 bc 25 b9 26 3e 76 0c 22 bd c6 12 bd bd
       -0.014243587 0.16281565 -0.039562665 -0.092320964
000180 b8 fc 12 3d e6 74 be 3d bc a3 bd 3d 61 82 8b bd
       0.035885543 0.0929964 0.092597455 -0.06811977
000190 5b e0 bc bd 02 f0 4f bc 53 19 86 3c 22 89 29 3d
       -0.0922248 -0.0126915 0.016369497 0.041390546
0001a0 e0 84 77 3d b0 05 f8 3d da 87 66 3d 34 9f f3 3c
       0.060429454 0.1211046 0.056281902 0.029739
0001b0 4a f1 ee 3d 08 96 34 bd 68 fa ce 3d b0 6c bf 3c
       0.11667116 -0.044088393 0.10106355 0.023367256
0001c0 77 27 ba bc ea f4 c6 3d 18 7a c4 3c fa 93 94 bd
       -0.022723896 0.097146824 0.023984 -0.07254787
0001d0 75 72 9b ba c5 c5 48 3d cf a7 19 3d 55 03 4f bb
       -0.0011859672 0.049016733 0.03751355 -0.003158768
0001e0 39 ca 1e bd 77 d3 36 bc 43 f2 75 3d 8c cd 29 3d
       -0.038767073 -0.011158816 0.060045492 0.04145579
0001f0 4b bd fd 3d 03 b7 34 3c 25 08 51 bb fa 56 b8 b8
       0.123896204 0.0110299615 -0.0031895724 -8.790004e-05
000200 a7 3c 96 bd 14 3b 19 bd 99 73 1c bd 3b 7f 3c 3c
       -0.07335787 -0.037409857 -0.03819618 0.0115049435
000210 96 5f 57 bb ba 8d 05 3e 8c 33 1f bd 8c 31 c4 bd
       -0.003286337 0.13042346 -0.03886752 -0.09579763
000220 7d ef 9b bd 98 86 8e bc 54 66 96 3c 0b 7d 44 3c
       -0.07614038 -0.017398164 0.01835934 0.011992703
000230 99 4f 59 bc b5 8e ff 3b ec 54 6b 3b 37 5a 24 bd
       -0.0132636065 0.0077989944 0.0035908772 -0.040125098
000240 af 2b 65 bc 71 40 53 bd ff 1d dc bd 7f f7 e2 3c
       -0.013987466 -0.051575128 -0.10747909 0.027705906
000250 90 6b 62 bd b0 b2 7c 3c 07 4a 93 3d 3e 0d 09 3a
       -0.05527836 0.015423462 0.07191854 0.00052281085
000260 12 d3 f0 bd 8e 49 7f 3d 4b 50 ff bc 69 29 82 bd
       -0.117590085 0.062326007 -0.031166216 -0.063555546
000270 ff b2 d9 3d 46 35 2a bd 76 e8 e5 bc b8 6b a5 3d
       0.10629844 -0.04155471 -0.028064948 0.08077186
000280 06 cc ee bc da e9 23 3d e1 09 ec bd d6 a3 bb bc
       -0.02915002 0.04001794 -0.11525322 -0.022905272
000290 04 99 e2 bd 5f 56 0c 3e 5b 2e 0c 3d f7 11 2f bd
       -0.11064342 0.13704823 0.034223896 -0.042741742
0002a0 33 5d 04 3d 4f 27 94 bc b0 e4 06 be b1 e6 3e 3d
       0.032315444 -0.01808515 -0.13173175 0.046606723
0002b0 6b 9f 8f bd 63 0c 96 3a bd 22 e5 3c f4 85 9c bd
       -0.070128284 0.0011447783 0.027970666 -0.07642737
0002c0 3d 45 f6 3c 9f 81 a2 3d 4b 58 f5 3d 6c ba 55 3d
       0.030062312 0.079348795 0.11979731 0.05217974
0002d0 4d 47 48 3c 0d c6 93 3b 26 bd 03 3d 4e 16 06 bc
       0.012224031 0.0045096935 0.032162808 -0.008184029
0002e0 7c 61 11 bd 93 83 cf bc 87 c6 19 be dd 7f 56 bd
       -0.03549336 -0.025331294 -0.15017138 -0.052368034
0002f0 26 17 aa bd 4e db 90 bc 7d c6 90 bc 26 8f 0f 3e
       -0.083051965 -0.017682698 -0.017672772 0.1401945
000300 2e e7 1f 3d 50 c1 16 3d f3 e4 fb 3d 7a f6 53 3d
       0.03903883 0.03680545 0.12299528 0.05174873
000310 f4 4d ac bc a0 71 ce 3d 61 b0 54 3d 37 33 66 3b
       -0.021033265 0.10080266 0.05192602 0.0035125741
000320 7d f1 13 be a5 58 88 bd 23 a2 73 3c 6b b0 29 3d
       -0.14447589 -0.066575326 0.014870199 0.04142801
000330 a0 bf 47 3b df 5e 4d bd c4 f5 81 bd f3 f2 27 3d
       0.0030479208 -0.050139304 -0.06345704 0.04100318
000340 f6 5e fe bc b6 4d 55 bd 41 85 18 bd bb 84 ab 3c
       -0.03105114 -0.052076064 -0.037236456 0.020937314
000350 b5 46 9b bd 89 0d 29 be 3d dc f9 bd b2 d3 99 3d
       -0.07581846 -0.1650907 -0.1220021 0.07511081
000360 38 61 2f 3d 1c a8 15 3d d4 5d ab bc 92 fe 2c bd
       0.042817324 0.036537275 -0.020918764 -0.042234965
000370 10 23 81 3d f9 a7 3a b9 c1 6a b3 bb c1 b8 f4 bd
       0.06305516 -0.00017800917 -0.0054753725 -0.119493015
000380 0b c1 03 3e 43 33 bf bc df 65 63 bb eb ea d5 bd
       0.12866609 -0.023339873 -0.003469817 -0.10445198
000390 1b 16 9b bd 09 65 11 3e be a9 e2 3d 33 30 8c bc
       -0.07572576 0.14198698 0.11067532 -0.017112827
0003a0 d0 6e b8 bc ce 35 da 3c a0 b5 c1 bc 44 48 cc bd
       -0.022513777 0.026636984 -0.023646176 -0.09974721
0003b0 af d5 88 3c e5 1b 85 bd 64 c3 2e 3d 4a 13 58 3c
       0.016703455 -0.06499461 0.042666808 0.013188193
0003c0 79 3a d4 3c 8f 6a 9f 3d 0e da 8c bc 89 1c a0 3c
       0.025906788 0.07783996 -0.01719382 0.019544857
0003d0 5b 76 26 3e cc d7 2c bc a8 3f 10 bd 1e c4 a8 3d
       0.16256087 -0.010549497 -0.035216957 0.082405314
0003e0 91 01 96 3d db 76 fb 3d 37 8d b2 bd 15 3c 9a bd
       0.073245175 0.12278529 -0.08718341 -0.07530991
0003f0 d7 fa 92 3d 55 53 49 3d e9 b6 f9 3c fa d0 07 3e
       0.0717675 0.049151737 0.030482726 0.13263312

blocks.0.bn1.weight f4 [64]
000000 93 ae 85 3f b2 3d 72 3f a0 a3 66 3f 13 df 7d 3f
       1.0443901 0.9462539 0.9009342 0.9916851
000010 9f f0 6e 3f 04 83 70 3f 3e f8 84 3f 11 60 85 3f
       0.9333591 0.93949914 1.0388258 1.0419942
000020 16 03 74 3f 7b 48 7e 3f 55 81 89 3f 74 d7 7d 3f
       0.9531721 0.99329346 1.0742594 0.9915688
000030 26 72 73 3f cc 8a 7b 3f 07 fd 5b 3f fd 92 88 3f
       0.9509605 0.9825866 0.85932964 1.0669857
000040 62 ea 79 3f f2 22 86 3f 86 6f 6c 3f 86 28 7d 3f
       0.97623265 1.0479414 0.9235767 0.9888996
000050 14 5d 80 3f 2e aa 6a 3f 33 76 80 3f ef ae 82 3f
       1.0028405 0.91665924 1.0036072 1.0209635
000060 bb de 7b 3f 6d 19 89 3f 9b 1e 71 3f 59 f8 7d 3f
       0.98386735 1.0710884 0.94187325 0.99207073
000070 e6 35 6e 3f 8c c6 71 3f 9d 4b 8d 3f 9e 88 84 3f
       0.9305099 0.94443583 1.10387 1.0354192
000080 36 da 86 3f 85 9d 84 3f 0a 1f 7a 3f f4 3a 81 3f
       1.0535343 1.0360571 0.9770361 1.0096116
000090 92 7d 83 3f 28 bb 83 3f fa 72 66 3f 80 ed 8a 3f
       1.0272696 1.029149 0.9001919 1.0853729
0000a0 e4 15 71 3f 0a a2 7d 3f 98 9e 82 3f 4d 34 6d 3f
       0.9417403 0.99075377 1.0204649 0.9265793
0000b0 4f 72 82 3f 0d b6 8e 3f ed 36 8c 3f 64 ad 8b 3f
       1.0191134 1.1149307 1.0954262 1.091229
0000c0 89 18 7b 3f b0 b0 89 3f 9a 2c 6d 3f ce da 74 3f
       0.9808431 1.0757046 0.9264618 0.9564637
0000d0 ba 43 7c 3f 22 cd 91 3f db 2f 73 3f f5 df 72 3f
       0.9854084 1.1390727 0.94994897 0.9487298
0000e0 41 fd 68 3f db c5 7c 3f 08 4d 84 3f 96 92 7b 3f
       0.91011435 0.98739403 1.0336008 0.9827055
0000f0 32 b1 8e 3f 3c eb 8d 3f 95 9c 75 3f 7a d0 7a 3f
       1.1147826 1.1087413 0.9594205 0.9797436

blocks.0.bn1.bias f4 [64]
000000 04 01 34 be d3 f3 22 be 82 01 06 be 18 c9 9e be
       -0.17578512 -0.15913324 -0.13086513 -0.31012797
000010 17 0a 70 bc 28 1d 1b be a9 be 3e be 96 cb e8 bd
       -0.014650843 -0.15147841 -0.18627419 -0.11366956
000020 fa b4 de bd 40 4e a8 be f9 02 9a be 45 f1 14 be
       -0.10874362 -0.328722 -0.30080393 -0.14545162
000030 b0 9b 9d be 21 9e 20 bd 55 5d 99 3d 17 a7 54 be
       -0.30782843 -0.039213303 0.07488505 -0.20766865
000040 62 ed 3b be a2 dd 52 be c9 74 84 bd f6 00 5f be
       -0.18352273 -0.20592359 -0.064675875 -0.2177771
000050 0f 2d 2d be 1d a1 01 bd d1 41 3a be 89 b9 31 be
       -0.1691172 -0.03164779 -0.1818917 -0.17355932
000060 93 f9 3c be e0 99 88 be 90 b7 13 be 8c ba 55 be
       -0.1845458 -0.26679897 -0.14425492 -0.20871943
000070 83 f7 3c be 5f 67 61 bc 99 41 71 be 63 e6 89 be
       -0.18453793 -0.013757556 -0.2356018 -0.26933584
000080 02 89 1c be 3e 94 34 be 3b dc 08 be 07 46 16 be
       -0.1528664 -0.17634675 -0.13365261 -0.14675151
000090 7f cf b9 be f7 06 bd bd 58 66 04 be 13 f0 95 be
       -0.3629112 -0.09229844 -0.12929666 -0.29284725
0000a0 6f 7c 3b be c8 4b bd be 52 80 37 be 6c 7c dc bd
       -0.18309186 -0.3697188 -0.17920044 -0.10765919
0000b0 ac b3 3e be 9e b0 33 be a8 f0 1f be b6 ad 3a be
       -0.18623227 -0.17547843 -0.15619147 -0.18230328
0000c0 6b 5a 5c be a7 30 59 be e2 da 48 be 00 bb 74 bd
       -0.21518867 -0.21209966 -0.19614747 -0.05974865
0000d0 92 d1 5e be 4b c1 39 be 3c 31 3b bd f8 a7 e5 bd
       -0.21759632 -0.18140142 -0.04570125 -0.11213678
0000e0 36 3e e1 bd 08 e1 7f be 8e a3 14 be fb 27 44 be
       -0.10998194 -0.24988186 -0.14515516 -0.19155876
0000f0 39 08 03 be 68 af 22 be 8a 39 7d bd d3 8c 06 be
       -0.12796105 -0.15887225 -0.06182245 -0.13139658

blocks.0.bn1.running_mean f4 [64]
000000 9d 8c 26 3f 5e f7 5a be f2 bd a0 3e bc 15 5a 3f
       0.6505831 -0.21383426 0.31394917 0.85189414
000010 d0 21 74 be 09 a9 b8 3e 14 5a f1 be c0 b8 8b be
       -0.23841023 0.36066464 -0.47139037 -0.2728939
000020 c7 9f 5f be 69 53 95 be 6b 5f 0a be fc 21 42 bf
       -0.21838294 -0.291652 -0.13512962 -0.75833106
000030 a8 b0 4b bd 0d 3f 62 bf 48 5c 14 be 7e 14 f3 3e
       -0.04972902 -0.8837746 -0.14488328 0.47476572
000040 24 85 a9 be f3 2f 9f bf 49 bf 0b 3e 2d a5 ab be
       -0.3310939 -1.2436508 0.13647188 -0.33524457
000050 62 03 a5 be 2f ad 3b be e4 6a d7 3c de 13 bf 3d
       -0.32229143 -0.18327783 0.026296087 0.09329961
000060 a0 30 2c bf 03 d7 7f bd b2 14 08 3f f0 d1 66 be
       -0.67261696 -0.06246091 0.5315658 -0.22541022
000070 a1 4a 9e 3e b4 7a 18 3d 05 18 61 be dc 6f 1f 3e
       0.30916312 0.037226394 -0.21981819 0.15570015
000080 2a 5f ec be 39 6f 41 bf 09 a6 ba be 10 7f f4 be
       -0.46166354 -0.7556034 -0.364548 -0.4775319
000090 1d 90 e4 3e a6 6a 63 bf 2c 4f 57 bf 1f b9 75 be
       0.446412 -0.8883461 -0.8410518 -0.239964
0000a0 fa 5a 39 bd 6f 8d 18 3c da 58 0c be e1 56 bb bd
       -0.045252778 0.009311064 -0.13705769 -0.0914743
0000b0 9f 49 f4 3d 16 a6 37 bf a0 06 86 bf c2 22 64 bf
       0.119281046 -0.717378 -1.0470772 -0.89115536
0000c0 3b f0 3c 3f b9 7d 94 bf 83 5a 82 be 65 7e 10 3f
       0.7380406 -1.1600868 -0.2545968 0.5644286
0000d0 d2 8b 78 3e 6e ba 7a bf 14 5c 46 3e eb 4a 38 3f
       0.24272087 -0.9794072 0.19371063 0.71989316
0000e0 50 2b 07 be b0 32 06 3e 25 bb 6b bf 24 4f d5 be
       -0.13200116 0.13105273 -0.92082435 -0.41661942
0000f0 f5 15 fb be 28 de 94 bf 6b f4 8b bf 2d 6e 1f 3f
       -0.4904019 -1.1630297 -1.0933965 0.6227749

blocks.0.bn1.running_var f4 [64]
000000 b7 5b 42 3f dc 40 35 3f 14 c1 36 3f 05 3a 17 3f
       0.75921196 0.7080209 0.71388364 0.59072906
000010 85 af 31 3f 25 78 80 3f e2 5a 56 3f bc d6 3d 3f
       0.69408447 1.0036665 0.83732426 0.74155784
000020 80 a2 23 3f 3d 5a 32 3f 66 be 15 3f ed 5b 64 3f
       0.6391983 0.6966894 0.5849365 0.8920277
000030 fb 84 28 3f db cb 5d 3f 4f 74 22 3f cb 80 56 3f
       0.6582791 0.86639184 0.6345872 0.8379027
000040 e2 bb 29 3f 3a a4 35 3f 57 f8 51 3f ee 2b 59 3f
       0.6630231 0.70953715 0.8201956 0.84832656
000050 77 31 39 3f 6c 83 51 3f 1d d7 28 3f c3 6c 26 3f
       0.723411 0.8184116 0.65953237 0.6500971
000060 47 bb 3e 3f f6 cc 53 3f 6c c7 42 3f 3f 24 39 3f
       0.7450451 0.8273462 0.76085544 0.7232093
000070 3b a7 01 3f d1 85 19 3f f8 04 36 3f 28 bd 36 3f
       0.506458 0.5996981 0.7110133 0.7138238
000080 9a f1 4d 3f f7 7c 24 3f d7 d9 2b 3f a8 b7 31 3f
       0.8044678 0.6425318 0.6712927 0.6942086
000090 cf c8 43 3f 80 0d 5d 3f b0 7d 2b 3f 6c 4c 47 3f
       0.76478285 0.86348724 0.6698866 0.77850986
0000a0 84 08 61 3f e0 53 47 3f cf 0b 41 3f 94 3d 19 3f
       0.8790362 0.7786236 0.75408643 0.59859586
0000b0 c8 41 57 3f 22 30 4b 3f 11 6b 3f 3f c4 d0 3c 3f
       0.8408475 0.7937032 0.74772745 0.7375605
0000c0 ec a1 3c 3f cb 2c 46 3f da 11 16 3f c6 20 34 3f
       0.73684573 0.774121 0.5862099 0.7036251
0000d0 bd b9 37 3f ee ad 87 3f 16 d7 53 3f ba 91 4e 3f
       0.7176779 1.0599954 0.8275007 0.8069111
0000e0 25 c1 2d 3f e3 dc 42 3f b3 f0 31 3f 4d e5 2a 3f
       0.6787284 0.76118296 0.695079 0.66756135
0000f0 1b 58 5c 3f 49 15 5e 3f 3f cc 51 3f d2 7c 28 3f
       0.8607194 0.8675123 0.8195228 0.6581546

blocks.0.conv2.weight f4 [64, 64, 3, 3]
000000 d3 3f fc 3c a3 05 b8 bc 52 2e ff 3b 32 0d 04 be
       0.030792153 -0.022463625 0.0077875042 -0.12895659
000010 eb 50 72 bc 07 66 36 bd 18 cf fb 3d ce 8b 77 3b
       -0.0147898 -0.044530895 0.122953594 0.003777254
000020 70 f7 34 bd 46 64 e6 bd a0 9f e8 bc e9 48 68 bd
       -0.044181287 -0.112495944 -0.028396428 -0.056710158
000030 58 fb 9e 3d 9e 7a d8 bd b9 13 57 3c b4 44 ed 3c
       0.07762784 -0.10570262 0.013127261 0.028963424
000040 7b 0c e2 3c 55 6e 0a bc 45 79 b7 3d f4 b0 a8 3d
       0.027593842 -0.008449157 0.08958677 0.08236876
000050 cb de 1f 3c cf 3c 4e 3d 69 71 b1 bd 55 c3 a5 3b
       0.009757708 0.05035096 -0.086642094 0.005058686
000060 4c ec 7f 3d 02 d3 af b9 1c 75 a9 3c 30 01 09 be
       0.06248121 -0.00033535814 0.020685725 -0.13379359
000070 3a ad 51 3d 1d 17 f4 bc 4f 02 a3 bd d7 db 84 3d
       0.051190592 -0.029796178 -0.07959425 0.064872436
000080 de 49 e7 3d 6f 65 3f 3d 65 c4 1a bd 6b 4e 0b bd
       0.11293386 0.046727594 -0.037784953 -0.034010332
000090 69 98 7a 3d 56 1c 17 3d df db ce bd 71 8b 82 bd
       0.061180506 0.036892258 -0.10100531 -0.063742526
0000a0 43 af e2 3c 54 13 42 bb 85 7e 00 3d 70 54 a9 3d
       0.027671462 -0.0029613571 0.03137066 0.08268058
0000b0 c5 23 91 bd 23 27 0b be f0 d3 9d bb d1 5d 81 bb
       -0.070869006 -0.13589148 -0.0048165247 -0.0039479514
0000c0 43 d9 ad bd 39 89 a9 3b a1 a1 46 3d f6 ac b9 bc
       -0.08488705 0.005173829 0.048493985 -0.022665482
0000d0 f4 c1 81 bd 7f bc 03 be 5d ab 9c 3c 7f 3c 0d bd
       -0.06335822 -0.12864874 0.019124681 -0.03448152
0000e0 47 fd 8c 3c c7 01 8c bc 99 02 64 bd df 95 af 3c
       0.017210616 -0.017090691 -0.05566654 0.021433769
0000f0 10 c1 03 be 40 63 13 3d 87 7e 40 3e 0f a1 9c 3d
       -0.12866616 0.035983324 0.18798266 0.07647907
000100 d5 76 dd b9 e1 37 ac 3b f8 5e bb bd 5e e4 b2 bc
       -0.00042240942 0.0052556847 -0.09148973 -0.02183741
000110 6d 61 25 bd a1 78 b3 3d 1b 08 4d 3d 3a c0 45 bd
       -0.040376116 0.087632425 0.050056558 -0.048279025
000120 82 ae cf 3d 0e 4c a5 3c 62 f1 eb 3d 9c de 3f 3d
       0.101407066 0.020177867 0.115206495 0.046843156
000130 96 39 cb 3c a9 d4 6b bd 5c d6 c7 bd df 2a 56 bd
       0.024807733 -0.057575855 -0.09757683 -0.05228698
000140 56 b2 28 3d 13 35 25 3d ef 38 1e 3d d2 9f cd bc
       0.0411857 0.04033382 0.038628515 -0.025100622
000150 5f bf b0 3b 44 41 3b bd 7d a9 8c 3d fb d0 6f bc
       0.005393907 -0.04571654 0.06868265 -0.014637227
000160 df 0d a7 bd ff 15 dd 3d 56 a2 6d bd 90 5b 29 3d
       -0.081569426 0.10795211 -0.058016144 0.041347086
000170 ef ec 0d bc 4a f2 82 bd c0 7a 5c bd 7f c7 cd 3d
       -0.008662446 -0.06393869 -0.053828 0.100478165
000180 dc d6 2f bc 3b e5 d9 3c c6 68 b0 3c 52 28 dc 3b
       -0.010732379 0.026598563 0.021534335 0.0067186737
000190 1d 8c 82 3b c4 cc 1a 3e c5 bd 8b bb 0e a1 e9 3c
       0.003983988 0.15117174 -0.0042645657 0.02851918
0001a0 33 de 01 bd 6f bd 5e 3d f1 cf 34 3b 4d 63 85 3d
       -0.031706046 0.054379877 0.0027589763 0.06513081
0001b0 86 72 46 3d 83 ae 76 bc 21 96 a6 3c 2b f4 1a be
       0.04844906 -0.015056255 0.020335259 -0.15132205
0001c0 55 9c 6e 3d 48 d0 8f 3d 47 f4 49 3d 46 6d 82 3d
       0.05825456 0.07022148 0.049305227 0.063684985
0001d0 95 b2 a3 3d bb 64 65 bc 49 b1 3b 3d 99 3d c6 3d
       0.07993046 -0.014001067 0.04582337 0.096797176
0001e0 8d 97 db 3d ef 70 32 3d db d7 7b 3c 4a c9 99 3d
       0.107222654 0.043564733 0.015371288 0.07509096
0001f0 fb a2 a1 bc 53 d7 e7 bd b2 7d 8b b9 94 62 04 bb
       -0.019731035 -0.11320367 -0.00026605796 -0.0020200359
000200 20 f1 13 be 8f 7f 5f bc 88 b6 16 bd ad 24 9e 3c
       -0.1444745 -0.013641252 -0.03679517 0.019304598
000210 8e ab 43 3d ae 6e 89 3d 7a a8 b4 3c 8b b9 0c be
       0.04777103 0.067105636 0.022052992 -0.13742654
000220 e4 8f 0e bd 93 79 7a 3d 07 25 51 bd 2a ff a4 bd
       -0.034805194 0.0611511 -0.051060703 -0.08056481
000230 20 a1 9a bd 7a bf 89 3d 9f ad e0 3c 96 76 fa 3c
       -0.075502634 0.067259744 0.027426539 0.030574124
000240 09 b1 4f bc 31 42 f1 bd b6 c8 9a 3d ec 1e 8d 3c
       -0.012676486 -0.11780203 0.07557814 0.017226659
000250 13 ec a6 3c 04 22 3f bd 3d 22 99 3d 3c 27 83 3d
       0.02037624 -0.0466633 0.074772336 0.06403968
000260 90 db ab bd e1 75 6a 3c 4f 6c 3b 3d 17 45 91 3d
       -0.083914876 0.014310331 0.045757588 0.07093256
000270 49 95 ff 3d 1a 28 8b 3d 27 33 1a bd 16 ce 0d 3d
       0.12479646 0.06794758 -0.03764644 0.034620367
000280 e1 3a 94 3d 44 9e cd bc cb 29 e8 bd 0d 23 ea 3c
       0.07237793 -0.025099881 -0.113360964 0.028581167
000290 45 c4 64 bc fe eb 0d 3d 10 53 59 3d 08 26 63 3d
       -0.01396281 0.034648888 0.05305773 0.05545619
0002a0 3b 62 fe bd ed 69 92 bd 37 9c 4f 3c ac ff 6c bc
       -0.1242108 -0.0714911 0.012671522 -0.014465254
0002b0 74 c0 a5 3d aa 67 35 3d 5f a9 0c 3d 85 2d a4 3d
       0.08093348 0.044288315 0.034341212 0.08016495
0002c0 ad 6e b2 bd e1 eb 82 3d 96 00 06 3c cb be 9d bd
       -0.08712516 0.063926466 0.008178851 -0.077024065
0002d0 96 05 23 3c 16 72 9d bd 2d cc 8c bc 6e 48 0c bd
       0.009950062 -0.07687776 -0.017187202 -0.03424876
0002e0 a7 9d 21 bc ca 8a ea 3d c8 4a 7e 3c 85 dd ab bd
       -0.009864247 0.11452253 0.015520759 -0.08391861
0002f0 84 3c 37 bc 31 f7 f6 bc a1 59 83 bc ca a9 74 3d
       -0.011183862 -0.030147167 -0.01603395 0.059732236
000300 91 53 9b bd 50 d4 c3 3c ce d7 45 3c a1 62 20 bd
       -0.075842984 0.02390495 0.012075378 -0.03915656
000310 70 72 c0 3d 1e 82 39 3d f9 00 4a 3c 9c d7 7b 3c
       0.09396827 0.045290105 0.012329333 0.0153712295
000320 71 c4 23 3d 98 53 65 3c 20 43 17 3e 0a 5e fa bd
       0.039982263 0.013996981 0.147717 -0.12224968
000330 66 55 32 bc 31 3a b0 bd 33 44 d2 3d 09 71 16 3b
       -0.010884618 -0.08604849 0.10266914 0.0022955558
000340 2a f6 ff 3d 69 03 26 3d 7a 9c 8f 3d bf ea 1f bd
       0.12498124 0.040530596 0.070122674 -0.03904223
000350 f9 a3 96 bc 28 7f a7 bd 4f da 79 ba e7 62 d2 3c
       -0.018388735 -0.0817855 -0.00095311267 0.025681926
000360 7a a2 20 bd d3 ab 83 3d 6f 3d cc 3d 2d f9 3f 3c
       -0.03921745 0.06429257 0.09972655 0.011717123
000370 18 2b af 3c 88 d4 1c 3d 80 95 8b bd 85 41 c1 bd
       0.021382853 0.038288623 -0.06815624 -0.09436325
000380 96 dc 98 bd 36 98 ea bc ee 74 0c bc 56 55 25 bd
       -0.074639484 -0.028637033 -0.0085728 -0.040364586
000390 72 b5 a2 bd ef ee b9 3d 4b e0 9a 3c ef b0 f9 3b
       -0.07944764 0.09078776 0.01890578 0.007619969
0003a0 02 ed de bd 4c 78 b7 3d fb 40 e2 bc 56 76 36 bd
       -0.108850494 0.08958492 -0.027618876 -0.044546448
0003b0 d5 23 bd 3d cd 28 0d bd 44 58 8c 3d 85 62 b6 3d
       0.0923535 -0.03446274 0.06852773 0.0890551
0003c0 54 c4 5e bd 82 24 80 bd d3 94 09 ba 42 45 3a 3b
       -0.05438645 -0.06256963 -0.0005248312 0.0028422629
0003d0 82 31 b1 bd 52 e5 ab 3c 81 4a 77 bd 2b 6f 7a bb
       -0.08652021 0.020983372 -0.060373787 -0.0038213234
0003e0 30 ae 48 bd 2c 30 79 3d aa 17 e2 3d 7e 44 75 3c
       -0.048994243 0.060836956 0.1103967 0.014969943
0003f0 d1 83 d6 3d fe e2 9c 3d d7 34 04 bd a9 0e a0 bd
       0.10474361 0.07660483 -0.032276955 -0.07815296

blocks.0.bn2.weight f4 [64]
000000 95 45 87 3f fe 9d 8f 3f ab f0 85 3f 70 25 91 3f
       1.056811 1.122009 1.0464071 1.133955
000010 f1 d3 8b 3f be 89 8f 3f 53 35 90 3f c7 db 8d 3f
       1.0924054 1.121391 1.1266273 1.1082696
000020 12 8a 90 3f 13 1d 93 3f cb 8a 8f 3f 25 c8 93 3f
       1.1292136 1.1493248 1.1214231 1.1545454
000030 76 7b 95 3f 7c 3c 92 3f 44 ed 8f 3f 26 e4 a0 3f
       1.1678302 1.1424708 1.1244283 1.2569625
000040 08 27 87 3f 57 15 9b 3f d1 7b 90 3f 33 1f 91 3f
       1.0558786 1.2115887 1.1287786 1.1337646
000050 18 05 86 3f 89 a8 8d 3f 22 a3 9d 3f 70 cf 91 3f
       1.0470304 1.1067058 1.2315409 1.139143
000060 65 2c 90 3f b0 c4 9a 3f f7 1b 89 3f a3 65 93 3f
       1.1263548 1.2091274 1.0711659 1.1515392
000070 78 2b 92 3f 61 c5 a7 3f 99 b0 a4 3f 76 be 90 3f
       1.1419516 1.310711 1.2866393 1.1308124
000080 5a cf 74 3f 5b 2f 8d 3f 1b a2 90 3f fa ae 90 3f
       0.95628893 1.1030077 1.1299471 1.1303399
000090 66 d4 86 3f dc 29 91 3f b3 1d 90 3f 3d c1 8f 3f
       1.0533569 1.13409 1.1259063 1.1230847
0000a0 23 f8 91 3f eb 14 8b 3f 4b 4e 89 3f 59 c1 9b 3f
       1.140385 1.0865759 1.0727018 1.216838
0000b0 04 bb 91 3f 0e 71 93 3f 7d 6d 93 3f a1 c7 85 3f
       1.1385198 1.1518877 1.1517788 1.0451547
0000c0 60 b9 8f 3f a0 4b 8a 3f 0e 18 93 3f 54 10 94 3f
       1.1228447 1.0804329 1.1491716 1.1567483
0000d0 74 cb 9a 3f 90 31 90 3f 2f df 90 3f c5 ac 92 3f
       1.2093339 1.1265125 1.131811 1.1458975
0000e0 da 7b 96 3f fe 03 90 3f be 15 87 3f a1 4a 91 3f
       1.1756546 1.1251218 1.055351 1.13509
0000f0 76 fc 8e 3f fd 6b 83 3f 01 f4 9a 3f e2 d4 92 3f
       1.1170795 1.026733 1.2105714 1.1471217

blocks.0.bn2.bias f4 [64]
000000 67 ae 76 be 66 0a 99 be 12 82 ed bd c9 86 9b be
       -0.24089967 -0.29890746 -0.115970746 -0.3037627
000010 48 a3 42 be 06 24 91 be 61 da 85 be 39 43 86 be
       -0.190076 -0.28347796 -0.26143172 -0.26223162
000020 e2 d3 93 be 54 0a 52 be c4 fd 10 be c1 7a 8f be
       -0.2887259 -0.20511752 -0.14159304 -0.2802334
000030 c4 67 55 be 89 48 a1 be 13 bc 87 be 7e e9 50 be
       -0.20840365 -0.31500652 -0.26510677 -0.2040157
000040 0e ec 81 be 8e bf 8c be 1d 0e 31 be 51 d4 a0 be
       -0.25375408 -0.27489895 -0.1729054 -0.31411985
000050 9f 7e 4d bd 74 5b 8c be d9 67 93 be 0c 46 30 be
       -0.050169583 -0.27413523 -0.28790167 -0.17214221
000060 40 94 5e be fd ee 8f be 04 6c c8 bd 1c 31 72 be
       -0.2173624 -0.2811202 -0.09786227 -0.23651546
000070 b8 7e 4a be c4 f6 79 be a8 1a 1c be c6 45 c9 be
       -0.19774902 -0.2441054 -0.15244544 -0.39311045
000080 5e f2 0d be a8 da 44 be 4f fc 9a be f3 93 8d be
       -0.13861987 -0.19224036 -0.3027062 -0.2765194
000090 9b 43 a5 be ce 98 90 be 32 b5 e3 bd 8f 11 a2 be
       -0.3227814 -0.2824158 -0.11118545 -0.3165402
0000a0 51 37 06 be 4c cc 71 be cc 7a a1 be 35 e8 a1 be
       -0.13107039 -0.2361309 -0.31539 -0.31622472
0000b0 43 1a 4e be 25 b8 48 be 2d 3a 83 be cf 11 52 be
       -0.20127206 -0.19601496 -0.25630322 -0.20514606
0000c0 3d f8 9a be 63 3b 47 be 0a 06 1c be 89 5b 43 be
       -0.30267516 -0.19456248 -0.15236679 -0.19077887
0000d0 3c ae da be 71 14 6b be ae 8d 40 be 7e e4 93 be
       -0.42711055 -0.22957017 -0.18804047 -0.28885263
0000e0 ba 99 59 be b1 ed 2f be 34 81 36 be 75 60 7c be
       -0.21250048 -0.17180516 -0.17822725 -0.2464617
0000f0 e7 f9 7f be 7e 20 01 be 9b 5b 8a be 99 6a 33 be
       -0.24997674 -0.12610051 -0.27023014 -0.17521133

blocks.0.bn2.running_mean f4 [64]
000000 26 9a 21 be a6 93 02 3f 63 f6 b3 3d 47 c6 75 3e
       -0.15781459 0.51006544 0.08787229 0.24001418
000010 7a 77 b3 3d 2e e9 d9 3d 14 a0 d1 3e 97 1b 92 3c
       0.08763023 0.106401786 0.40942442 0.017835421
000020 7f 15 be be e7 d2 08 3e 65 61 6b 3e 1c 42 b3 be
       -0.37125775 0.13361703 0.22986372 -0.35011375
000030 52 fe 6f bf 10 48 41 3f 6f 79 05 bf 6f 0a 98 be
       -0.93747437 0.75500584 -0.5213842 -0.2969546
000040 95 7d c2 bd 2d 36 6f 3e b4 e6 57 bd 2a a2 4b bd
       -0.09496609 0.2336051 -0.05271025 -0.0497152
000050 1a e3 6a be bf 2b 10 bf 51 ab 13 bd 1f 58 85 be
       -0.22938195 -0.5631675 -0.036052052 -0.26043794
000060 f8 fc 82 3e 14 f9 91 be 20 53 09 bf 7a a0 a9 be
       0.25583625 -0.28510344 -0.53642464 -0.33130246
000070 7d 15 13 bf 39 be c7 be 78 c1 10 bf b8 51 e3 be
       -0.57454664 -0.39012316 -0.5654521 -0.44398284
000080 c3 89 2c be b9 73 41 be 9b f9 89 be f1 49 a3 be
       -0.16849427 -0.18891801 -0.26948246 -0.3189235
000090 d3 2e f6 3e f9 9d c5 be 27 b5 48 3e 7b 4e 94 be
       0.480826 -0.38597086 0.19600354 -0.28966126
0000a0 e5 53 52 bf cc df b3 be aa 97 9b be b6 12 c1 be
       -0.8215926 -0.3513168 -0.30389148 -0.37709588
0000b0 bb 6f 5c 3e 63 af 0d bf f5 2d 91 bf ed 2b f7 be
       0.21526997 -0.55345744 -1.134215 -0.482757
0000c0 b2 4a e6 3e cf 0a 77 3e be c1 db be 9b 55 34 bf
       0.44978863 0.24125217 -0.4292125 -0.70443124
0000d0 2f aa 82 3d 5b 6d bb 3d 33 bd 85 bd 45 03 d7 be
       0.06380116 0.09151717 -0.065302275 -0.41994682
0000e0 de 1a 89 be bb 5d b9 3e 8c 68 43 bf bf 4d 3b bf
       -0.2677831 0.36204323 -0.763314 -0.73165506
0000f0 55 14 d2 3d 62 d8 b4 be 19 89 6e bd 7f ef 94 be
       0.10257784 -0.35321337 -0.058236215 -0.2908897

blocks.0.bn2.running_var f4 [64]
000000 d0 cb 2a 3f af 42 5a 3f 60 e6 65 3f 47 c6 3b 3f
       0.66717243 0.85258 0.8980465 0.7334942
000010 aa 5a 4e 3f b9 0f 1f 3f f9 ac 4b 3f e5 37 6e 3f
       0.8060709 0.62133366 0.7956081 0.9305404
000020 a2 6a 45 3f 65 f2 6a 3f 34 5e 51 3f 78 47 45 3f
       0.77115834 0.91776115 0.8178437 0.7706218
000030 5b 3c 74 3f 0e dc 79 3f 9e 16 4d 3f 88 64 4f 3f
       0.95404595 0.976014 0.80112636 0.81012774
000040 96 7b 38 3f 56 99 49 3f a9 32 58 3f e1 0d 63 3f
       0.7206358 0.787496 0.844523 0.8869305
000050 0d ce 6a 3f 1d a7 4b 3f f6 50 45 3f 2a f9 3c 3f
       0.9172066 0.7955187 0.7707666 0.73817694
000060 27 f8 5d 3f f8 5b 53 3f ef 42 5c 3f 9e 63 3b 3f
       0.86706775 0.8256221 0.8603963 0.7319888
000070 83 2b 4c 3f 43 ca 7e 3f c3 10 6e 3f 1c e2 4f 3f
       0.79753894 0.99527377 0.92994326 0.8120439
000080 83 6c 52 3f fe e7 50 3f 66 6c 41 3f 99 27 53 3f
       0.82196826 0.8160399 0.7555603 0.82482296
000090 6d f6 27 3f 7a 5a 65 3f 98 62 48 3f 83 65 52 3f
       0.6561039 0.8959118 0.7827544 0.82186145
0000a0 e9 84 6d 3f 02 85 5f 3f a5 09 6f 3f d9 86 53 3f
       0.9278093 0.8731233 0.9337409 0.82627636
0000b0 55 df 36 3f fa d8 68 3f 01 51 8a 3f 32 e6 85 3f
       0.7143453 0.9095608 1.080597 1.0460875
0000c0 4e e5 2b 3f 05 cb 91 3f 94 ea 2a 3f ec 92 4a 3f
       0.67146766 1.1390082 0.6676419 0.79130435
0000d0 c4 d3 66 3f fd 32 37 3f 43 a0 53 3f 0d 2b 6b 3f
       0.9016688 0.71562177 0.82666415 0.91862565
0000e0 9f 4c 6b 3f 13 b3 42 3f c1 85 79 3f 62 64 82 3f
       0.9191379 0.76054496 0.9746972 1.0186884
0000f0 57 8c 3d 3f 60 d8 47 3f 13 13 73 3f 35 90 5b 3f
       0.74042267 0.7806454 0.9495098 0.8576692

blocks.1.conv1.weight f4 [64, 64, 3, 3]
000000 b0 a0 f8 3c 65 54 1d be f7 9b 3d bd 1a 44 9f 3c
       0.03035006 -0.15364225 -0.046291318 0.019441653
000010 ea 79 e6 bd 4c c5 a4 bd 2e 10 dc 3d c5 f3 a6 3d
       -0.11253722 -0.08045444 0.107452735 0.08151964
000020 a2 8d 67 3d 05 23 7b 3d f1 05 7f bc e5 ed 3a 3d
       0.056531556 0.061312694 -0.015565381 0.04563703
000030 ec f7 e7 bd 1a c5 55 bd 86 91 6e 3c 80 87 2c 3e
       -0.11326584 -0.052189924 0.014561063 0.16848564
000040 47 2d 5b 3d 5c 68 cb 3c ac 45 31 bc 1e c0 83 3c
       0.053509977 0.024830036 -0.010819834 0.01608282
000050 e3 d3 41 3d 87 2f c3 bc f5 48 70 3d d2 e9 94 3d
       0.04732121 -0.023826374 0.058663327 0.0727116
000060 83 d0 73 bc d0 22 0a 3c ba ed 4a 3d 39 24 91 3d
       -0.014881256 0.0084311515 0.04954312 0.07086987
000070 d9 25 1e 3e 2e 9c 91 3d c7 1a 90 3c bd b6 e8 bc
       0.15444125 0.07109867 0.017590893 -0.028407449
000080 7b 22 a3 3c 94 02 a3 3d 35 f2 c4 bc cf 1c bc bc
       0.019913903 0.07959476 -0.024041275 -0.022962956
000090 ec cd fa bd f6 6a eb bc 0b 33 04 3d d8 15 9b bd
       -0.12246308 -0.028737526 0.03227524 -0.07572526
0000a0 c2 66 5b 3d 49 89 d9 3d 5b 6e a0 bd 32 1d 51 bd
       0.053564794 0.10621888 -0.07833549 -0.051053233
0000b0 48 33 25 bd 44 37 1c 3e 92 c2 21 3d fe 14 31 3d
       -0.04033211 0.15255457 0.039492197 0.04323291
0000c0 32 6c 2a 3d 44 17 35 3b 6c d0 e2 ba 9f 56 15 bc
       0.04160709 0.0027632276 -0.0017304546 -0.00911489
0000d0 57 01 83 3d b4 8c 83 bc 73 82 10 3d 17 b2 55 3d
       0.0639674 -0.016058303 0.035280656 0.052171793
0000e0 54 b0 02 bd 8d f0 d6 bb 21 3a ae bd 26 39 96 3c
       -0.03190644 -0.0065594376 -0.08507181 0.018337797
0000f0 07 25 a7 bc cb ae 42 bd e8 8f 1d bd 21 a5 f6 3d
       -0.020403398 -0.047529977 -0.038467318 0.120432146
000100 b8 22 16 3c cf 69 44 3d 83 ae 34 bc 2b b0 6c 3d
       0.009163551 0.04795247 -0.011027935 0.057785194
000110 ac a7 1e bc 6d dc 9c 3c 3d 9a a6 3d a7 50 54 bc
       -0.009683531 0.019148076 0.08134887 -0.012958682
000120 4c 7c cf 3d 45 6d fd 3d 40 5c 51 bd 0f 2c cf bc
       0.101311296 0.12374357 -0.051113367 -0.025289563
000130 89 48 c3 3b 07 a5 b9 3a 02 2f 8e bd f9 c1 e0 3c
       0.0059595746 0.0014163562 -0.0694256 0.027436243
000140 96 7f 39 3c 35 b6 ba bd 4c 60 71 3c 1b 21 7d 3c
       0.011321923 -0.091167845 0.014732432 0.0154497875
000150 63 bd 02 bd 28 a8 1b 3d 15 11 45 3d 93 1c 0d 3c
       -0.031918894 0.038002163 0.048111994 0.00861277
000160 df 45 07 bd 84 61 13 bd b9 54 3f 3d c5 73 34 3d
       -0.03302562 -0.03598167 0.046711657 0.04405572
000170 e5 bb 86 bd ec 3f e3 bc df 4d 3b bd 60 b3 eb 3d
       -0.06578807 -0.027740441 -0.04572856 0.115088224
000180 5e dc 7c bb a0 4e a7 ba 0d 54 6d 3c da 5d 2f bd
       -0.0038583498 -0.0012764521 0.014485371 -0.042814113
000190 23 60 33 3e 73 1d 88 bd 31 a5 e7 3c eb cc 61 3d
       0.17517142 -0.06646242 0.028277012 0.055127066
0001a0 34 e9 af bd b9 57 cb bd 1a 89 25 3c 7d a3 97 bd
       -0.08589402 -0.09928841 0.010103488 -0.0740423
0001b0 3c 6c 51 3d 76 f6 e0 3d 96 23 a1 3d b7 b5 e9 3d
       0.05112861 0.10984509 0.078681156 0.114116125
0001c0 7b 65 3c 3c b4 89 ba bd cc c9 03 3d f8 ea 8f 3d
       0.011498804 -0.09108296 0.03217487 0.070272386
0001d0 aa ae 9f 3c 1b 79 cd 3c 50 1c 41 bd b0 5f a6 3d
       0.019492466 0.025082162 -0.04714614 0.0812372
0001e0 ca 61 2b bd 0c 77 a0 bc 4d 72 c6 bd f7 c9 5d bb
       -0.041841306 -0.019588016 -0.0968977 -0.0033842304
0001f0 2e 55 ae bd 65 96 c4 bd 07 7f 49 be c3 18 29 bd
       -0.085123405 -0.09598998 -0.19677363 -0.04128338
000200 ed 0f 81 3d 0c 3f 92 bd f8 bb 52 bd 18 f0 f1 bc
       0.06301866 -0.071409315 -0.051448792 -0.029533431
000210 fc 90 3d be f0 ae 0f be 68 a6 b5 bd 5b d4 da 3c
       -0.18512338 -0.14031577 -0.0886963 0.026712587
000220 53 52 5e 3d 64 64 39 3d 76 10 16 be 29 20 84 3d
       0.05427773 0.045261756 -0.14654717 0.064514466
000230 be ea 51 bd 7f 1f 21 3e 86 f3 ad 3d 07 13 f6 3d
       -0.05124926 0.15734671 0.08493714 0.12015348
000240 58 aa 07 3e 66 dd 8e 3c 25 79 1d be 65 7b c5 bd
       0.13248575 0.017439555 -0.15378244 -0.09642676
000250 29 8b 38 bc 6d f7 72 3d b9 06 e7 3c 7e 3d 68 bd
       -0.011263647 0.059317995 0.028201448 -0.05669927
000260 8c 1d 12 bd 48 b2 43 bd 94 29 4e 3e 87 d9 02 3e
       -0.03567271 -0.047777444 0.20133048 0.12778293
000270 88 57 c3 bc c0 54 14 be 59 69 d1 bd 74 64 8a bd
       -0.02384545 -0.14485455 -0.102251716 -0.06757441
000280 23 16 2b bd ba 2b 15 bd 47 e8 e7 bb 3f cd b1 bd
       -0.041769158 -0.036418654 -0.00707725 -0.08681726
000290 34 c9 e0 3c 3f 6d 45 bd cb 4d a9 bc 5a 92 29 bd
       0.027439691 -0.04819989 -0.020666977 -0.041399337
0002a0 88 f2 b7 bc a8 89 7e 3d fe 0d 1e 3d 74 af 82 bd
       -0.022454515 0.062142998 0.038587563 -0.06381121
0002b0 f6 c6 f9 3d d9 bd 42 3d 95 e1 36 3d e5 7a a4 3d
       0.12196152 0.047544334 0.044648726 0.08031253
0002c0 46 4a 64 3d 45 4e bb 3c 60 c6 a9 3d c8 26 82 3d
       0.055734895 0.02286447 0.0828979 0.06355053
0002d0 d0 a7 82 bc bd 75 f5 bb 07 fb 81 3c 33 1f f3 bd
       -0.01594916 -0.007490842 0.01586677 -0.11871185
0002e0 6a d4 90 3c c1 c5 e5 3c fc 68 b6 bd 91 25 9c 3a
       0.017679412 0.028048398 -0.08906743 0.0011913051
0002f0 75 71 22 3d c2 8c 28 bc 23 3f f8 3c 61 94 2a bd
       0.039658982 -0.0102874655 0.030303543 -0.04164541
000300 ef 40 9b bc 8b f5 0a be db dd 1b be d4 95 94 bd
       -0.018951861 -0.1357023 -0.1522135 -0.0725514
000310 c5 4f a9 bd 3b f6 42 bd 56 f4 8a bd 3b 8e 97 bd
       -0.08267168 -0.047598105 -0.06784885 -0.07400175
000320 97 c8 23 bd 6e a2 9a 3d 0f 02 d6 bb 57 1d d6 3b
       -0.03998622 0.07550512 -0.006531007 0.0065342593
000330 65 db 19 bc c5 76 e8 bc dc 86 26 be 3c 55 27 bc
       -0.009390687 -0.028376946 -0.16262382 -0.010213193
000340 d6 cc 72 3d 9a 2e 23 bc 41 6c 63 bd db fa a0 bc
       0.059277378 -0.009959841 -0.05552316 -0.019650867
000350 9c 99 2b bb 62 38 3f 3d 05 c3 ed 3c 44 f3 0f bd
       -0.0026184088 0.04668463 0.029023657 -0.035144106
000360 93 b2 b9 bd b0 c0 39 3c 44 b6 23 3d da 17 1a 3d
       -0.090672635 0.011337444 0.039968744 0.037620403
000370 f4 f2 a6 3d 83 d3 57 3d a1 50 a6 bd 79 67 dc bd
       0.081518084 0.052691948 -0.081208475 -0.10761923
000380 b2 8a 04 be fc 53 1a bd 8b 8f 00 3e 69 2d 89 bb
       -0.12943533 -0.03767775 0.12554757 -0.0041863215
000390 b9 a4 4a 3d a4 31 59 3d 27 b0 da 3d 36 58 01 3d
       0.049473498 0.053025857 0.1067813 0.031578265
0003a0 b9 3c 07 3e ea f4 8e 3d 50 21 a1 bd 8e 47 31 bd
       0.13206758 0.069803074 -0.07867682 -0.04328113
0003b0 97 3d 6f bd be 87 ce bd c1 42 1d bd b4 2d 9d bd
       -0.058408346 -0.100844845 -0.03839374 -0.07674733
0003c0 c9 c0 ad 3d 04 cb d9 3b 33 03 30 3d fe e9 a6 3c
       0.084840365 0.006646516 0.0429718 0.020375248
0003d0 7d 28 ac bb 39 75 75 3a c1 c6 85 39 6c bf 25 bb
       -0.00525385 0.0009363476 0.0002551582 -0.0025291098
0003e0 cc 7a 49 bd 5a 9d 30 3d de 5a 0e 3c 37 e3 e1 bc
       -0.049189374 0.043118812 0.008688657 -0.027574165
0003f0 4f d6 21 bd 32 56 c8 3c 6e 72 d6 3d aa 2a 86 3d
       -0.03951102 0.024455164 0.104710445 0.06551106
