models/rym_grid_c0_s64_e2_t4_r4/resnet_c0_g2_a0_l0_lr1e-04.pt (torch, 758389 bytes, 28 tensors)

stem.0.weight f4 [64, 64, 3, 3]
-0.0015080478 0.15733828 -0.20149717 -0.17692965 -0.34465948 0.051665295 -0.17444625 -0.13894588
-0.10231109 0.004223863 0.38770926 -0.017320652 -0.12648448 -0.14404188 0.2194858 0.009775122
0.14893009 0.096446715 -0.11660264 0.25472358 -0.15175185 -0.1226369 0.15476876 0.024667434
0.0033088722 -0.24791463 0.026806712 0.06190175 0.10682546 0.0016037222 -0.11702978 0.1756797
0.13311936 0.08591936 0.190117 0.008801015 -0.1845802 0.21455573 0.031791106 -0.04875868
0.37224126 0.022501035 0.16720867 0.33173773 0.35456154 -0.006444763 0.104448564 0.10837532
-0.12449973 0.20114523 0.035903715 -0.21286358 -0.43787727 -0.12642874 0.1764993 0.37212333
0.20693278 0.14685187 -0.22910675 0.14458282 0.06754717 0.23324026 0.08025374 0.17403685
0.05688757 -0.15500371 -0.013984493 -0.1652035 -0.0781459 0.36221093 0.17401123 0.17404862
-0.19136712 -0.3134173 -0.033450376 -0.056154218 -0.047342297 -0.22984843 0.3291126 -0.037954476
-0.031830415 -0.009995416 -0.17829669 -0.11824914 0.13162476 0.16945839 0.21717727 0.3399464
0.044226535 0.07129773 0.038829338 -0.3065933 -0.0035447064 0.0922962 0.09104613 0.0051487093
0.22610147 0.14498794 0.11905319 -0.059279583 0.019736873 -0.05669978 -0.057091862 -0.17119035
0.055483136 0.14412329 0.0065408465 -0.021365143 -0.09064355 0.08948652 -0.09656834 0.068948
0.14877853 -0.040300634 -0.019831924 -0.026177905 -0.1140374 -0.010556287 -0.08136866 -0.0592445
-0.071591824 -0.07761137 0.04192335 0.040937632 -0.0019844852 0.07837894 -0.13010672 -0.08926389
-0.13922119 -0.019154143 -0.1308947 0.04018846 0.0040528122 -0.039560962 -0.120536715 -0.07477176
-0.024654686 -0.03642114 -0.063630156 -0.040425077 0.031241715 -0.069094755 0.027178474 0.02950305
-0.101330355 -0.025192128 -0.054157313 -0.07467983 -0.033076752 -0.14154877 -0.034117036 -0.07476034
-0.027008293 0.07895733 0.005436683 -0.010927529 0.05318933 0.004097571 0.052086603 -0.059547286
-0.08665473 0.01739895 0.028963424 0.0011124314 -0.11297129 -0.063789494 0.048253402 0.0010206227
0.12808035 0.089706674 0.17053504 0.08775128 0.07292651 -0.03061909 0.018764483 -0.098379284
0.054340426 0.061539285 -0.023041008 0.032076064 -0.011383559 0.01879526 -0.022908172 0.04521908
-0.09927778 0.060728803 -0.12659167 0.0059692212 -0.12084075 0.048470102 -0.042909574 -0.02966025
0.1343459 -0.00935444 0.07848689 0.13829905 0.011929567 0.08167643 -0.004773483 -0.032282896
-0.0043885317 0.066279165 -0.037854444 0.010408013 -0.022963662 -0.06045728 -0.042478517 0.06889202
-0.022607096 0.036335856 0.0019862223 0.06452689 -0.035409197 0.040626165 0.011792843 0.019503852
-0.044153832 0.087669306 -0.14038895 0.042497855 0.13988243 0.00013490488 -0.024502048 -0.087942734
-0.076903954 -0.012517375 -0.004093238 -0.03260402 -0.07694893 -0.0773556 -0.0049753203 0.053304587
0.0058697117 0.029839559 0.05936728 0.05498179 0.080192246 0.06697354 -0.07540782 0.09388694
0.014371347 -0.035988647 0.092118144 0.06424816 0.01094981 0.05124276 0.047562096 0.036979478
0.033311367 0.10802676 0.11201997 -0.054744985 -0.0047973036 -0.08395654 0.027290946 0.0059459195
00000000: b0a9 c5ba 491d 213e 4655 4ebe 0c2d 35be
00000010: 3577 b0be fd9e 533d 0aa2 32be d447 0ebe
00000020: 7a88 d1bd 5568 8a3b d481 c63e 0ae4 8dbc
00000030: 2685 01be b77f 13be e3c0 603e d527 203c
00000040: 2181 183e db85 c53d 5dcd eebd 216b 823e
00000050: d664 1bbe 0e29 fbbd b47b 1e3e 5c13 ca3c
00000060: aad9 583b 55dd 7dbe c099 db3c b08c 7d3d
00000070: 4fc7 da3d fd33 d23a 4fad efbd 61e5 333e
00000080: 7150 083e 7df6 af3d 08ae 423e 2232 103c
00000090: 9802 3dbe 7fb4 5b3e 6437 023d 2eb7 47bd
000000a0: 6896 be3e 1754 b83c c038 2b3e 87d9 a93e
000000b0: 1789 b53e 972e d3bb 21e9 d53d e1f3 dd3d
000000c0: b7f9 febd 04f9 4d3e c60f 133d e9f8 59be
000000d0: 7331 e0be 8976 01be 3cbc 343e f386 be3e
000000e0: 30e6 533e 5660 163e f69a 6abe 850d 143e
000000f0: 2c56 8a3d 89d6 6e3e 135c a43d b736 323e
00000100: f102 693d 4bb9 1ebe 371f 65bc 1b2b 29be
00000110: f50a a0bd b673 b93e 0030 323e cd39 323e
00000120: bef5 43be 3b78 a0be 4303 09bd f701 66bd
00000130: ffe9 41bd 635d 6bbe 7281 a83e 2776 1bbd
00000140: 9c60 02bd d0c3 23bc 6893 36be 9b2c f2bd
00000150: a4c8 063e 8086 2d3e b863 5e3e 740d ae3e
00000160: e226 353d 8b04 923d 830b 1f3d ccf9 9cbe
00000170: 4e4e 68bb ca05 bd3d 6576 ba3d 81b6 a83b
00000180: 2587 673e b877 143e 29d2 f33d 26cf 72bd
00000190: 39af a13c 073e 68bd 28d9 69bd 864c 2fbe
000001a0: 4942 633d 0e95 133e 9954 d63b f405 afbc
000001b0: 53a3 b9bd b544 b73d 9fc5 c5bd 9c34 8d3d
000001c0: 6659 183e 4712 25bd 8f76 a2bc 0c73 d6bc
000001d0: 718c e9bd 47f4 2cbc 9da4 a6bd 5caa 72bd
000001e0: bc9e 92bd b6f2 9ebd d2b7 2b3d 38ae 273d
000001f0: 230e 02bb 2385 a03d b23a 05be fdcf b6bd
00000200: 0090 0ebe 26e9 9cbc 4309 06be a89c 243d
00000210: 74cd 843b ad0a 22bd f4db f6bd f021 99bd
00000220: a0f8 c9bc 552e 15bd 8750 82bd c494 25bd
00000230: a0ee ff3c 8d81 8dbd 64a5 de3c 61b0 f13c
00000240: 4a86 cfbd b95f cebc 0fd4 5dbd bdf1 98bd
00000250: 7d7b 07bd 29f2 10be 4ebe 0bbd f31b 99bd
00000260: 7f40 ddbc 61b4 a13d 3426 b23b 6109 33bc
00000270: 0edd 593d eb44 863b c358 553d dbe7 73bd
00000280: 0978 b1bd 3e88 8e3c b444 ed3c 01cf 913a
00000290: 7e5d e7bd 11a4 82bd 5ca5 453d 6ac6 853a
000002a0: 7f27 033e 22b8 b73d bda0 2e3e f1b6 b33d
000002b0: 7e5a 953d e3d4 fabc f9b7 993c 147b c9bd
000002c0: 1194 5e3d 9e10 7c3d 7fc0 bcbc 3162 033d
000002d0: 1b82 3abc 84f8 993c eba9 bbbc a437 393d
000002e0: 2652 cbbd c4be 783d 3fa1 01be 7599 c33b
000002f0: 5b7b f7bd 9688 463d f3c1 2fbd 0dfa f2bc
00000300: f991 093e 5d43 19bc bcbd a03d 449e 0d3e
00000310: 3b74 433c f945 a73d e16a 9cbb 123b 04bd
00000320: accd 8fbb 5fbd 873d 430d 1bbd 5f86 2a3c
00000330: 4a1e bcbc 0ea2 77bd f4fd 2dbd 4217 8d3d
00000340: 8432 b9bc e8d4 143d 482b 023b ad26 843d
00000350: 3c09 11bd 9f67 263d c536 413c 8bc6 9f3c
00000360: a6da 34bd f78b b33d 1fc2 0fbe 3b12 2e3d
00000370: 573d 0f3e 4175 0d39 85b8 c8bc 521b b4bd
00000380: d27f 9dbd ad15 4dbc 9220 86bb cb8b 05bd
00000390: 6797 9dbd 9d6c 9ebd 0308 a3bb e955 5a3d
000003a0: b656 c03b 1772 f43c 1b2b 733d 9634 613d
000003b0: d53b a43d 6c29 893d 6a6f 9abd cc47 c03d
000003c0: cc75 6b3c d568 13bd 70a8 bc3d 8a94 833d
000003d0: d566 333c eee3 513d 79d0 423d cb77 173d
000003e0: 8071 083d 223d dd3d ba6a e53d 473c 60bd
000003f0: b332 9dbb 68f1 abbd 4391 df3c fdd5 c23b

stem.1.weight f4 [64]
0.730998 0.7153703 0.8053552 0.8800095 0.9699022 0.8245289 0.74600744 0.91460687
0.94174653 0.8579677 0.9317088 0.72383386 1.1321598 0.83612126 0.8940919 0.8675359
0.95756197 0.7118791 0.74543446 1.0160375 0.7745213 0.72657037 0.85178506 0.7834791
0.76753306 0.9019291 0.81475604 0.7991392 0.6952908 0.71157366 0.65864146 0.78264266
0.7324466 0.71527904 0.8309612 0.785967 0.82835335 0.7921587 0.6991733 0.8374093
0.8920017 0.7915684 0.890897 0.9661941 0.73553497 0.7097086 0.8475468 0.72414994
0.78152066 0.71362174 0.78107876 0.9184455 0.7606849 0.84846026 0.846593 0.7743208
0.7116465 0.8413392 0.7046507 0.70894164 0.90821135 0.85779923 0.7164369 0.80790925
00000000: af22 3b3f 8222 373f c22b 4e3f 4d48 613f
00000010: 834b 783f 5314 533f 58fa 3e3f ad23 6a3f
00000020: 4d16 713f c5a3 5b3f 7884 6e3f 2d4d 393f
00000030: 9dea 903f 0b0c 563f 35e3 643f d516 5e3f
00000040: c822 753f b53d 363f cbd4 3e3f 840d 823f
00000050: 0747 463f 8400 3a3f 960e 5a3f 1692 483f
00000060: 0c7d 443f d3e4 663f da93 503f 6394 4c3f
00000070: 94fe 313f b129 363f ba9c 283f 455b 483f
00000080: 9f81 3b3f 871c 373f e0b9 543f 2235 493f
00000090: f70e 543f eaca 4a3f 05fd 323f 7560 563f
000000a0: 395a 643f 3aa4 4a3f d311 643f 7f58 773f
000000b0: 054c 3c3f 76af 353f d4f8 583f e461 393f
000000c0: bd11 483f eaaf 363f c7f4 473f 3f1f 6b3f
000000d0: 3fbc 423f b134 593f 52ba 583f e339 463f
000000e0: 772e 363f 0162 573f fd63 343f 337d 353f
000000f0: 8a80 683f bb98 5b3f 6968 373f 24d3 4e3f

stem.1.bias f4 [64]
-0.26629436 -0.05305828 -0.15934142 -0.120174944 -0.15291816 -0.018033806 -0.1936254 -0.29848057
-0.030138636 -0.13817255 -0.17329988 -0.031593934 -0.13695788 -0.13972397 -0.26741022 -0.16771811
-0.2893566 0.013309815 -0.21415414 -0.072303884 -0.038587514 -0.20907104 -0.054968562 -0.20083815
-0.26150265 -0.16522367 -0.39956728 -0.07414427 0.0058374763 -0.10807361 -0.14180313 -0.12240972
-0.13908547 -0.08188589 -0.22451803 -0.07532079 -0.17782117 -0.063984625 0.0243261 -0.10490949
-0.103814974 -0.24422988 -0.30753765 -0.07569421 -0.15025488 -0.113717295 -0.15770149 -0.22123818
-0.11502341 -0.11029629 -0.12102773 -0.10181811 -0.0603896 -0.063761845 -0.046135955 -0.11274251
-0.13198149 -0.07762665 -0.22179796 -0.08608887 -0.12956564 -0.08492858 -0.15956154 -0.06510506
00000000: bc57 88be a453 59bd 662a 23be 481e f6bd
00000010: 9496 1cbe a2bb 93bc bd45 46be 72d2 98be
00000020: 4de5 f6bc 1b7d 0dbe 8675 31be a468 01bd
00000030: b03e 0cbe cd13 0fbe fee9 88be 4cbe 2bbe
00000040: 8c26 94be 6911 5a3c 394b 5bbe 0f14 94bd
00000050: f10d 1ebd b816 56be b726 61bd 84a8 4dbe
00000060: ade3 85be 6530 29be 1594 ccbe f3d8 97bd
00000070: 4d48 bf3b b255 ddbd d734 11be f3b1 fabd
00000080: 6c6c 0ebe cab3 a7bd 0ee8 65be c941 9abd
00000090: c116 36be 5f0a 83bd 8747 c73c c9da d6bd
000000a0: f29c d4bd 6617 7abe 9375 9dbe 9105 9bbd
000000b0: 6adc 19be 9de4 e8bd 807c 21be 438c 62be
000000c0: 6591 ebbd 05e3 e1bd 63dd f7bd 0386 d0bd
000000d0: 165b 77bd 9295 82bd 0ef9 3cbd 8ce5 e6bd
000000e0: 2826 07be b9fa 9ebd 011f 63be 5d4f b0bd
000000f0: dbac 04be 09ef adbd 1a64 23be cd55 85bd

stem.1.running_mean f4 [64]
-0.2802476 0.31105545 -0.79883146 -0.94969124 -1.1336844 -0.74594855 0.6326795 -0.48934832
-1.3123823 -0.63037175 -0.70791614 -0.419396 -0.22344716 -0.50277925 0.3447215 -0.567608
-0.9979129 0.5902797 -0.63116866 -0.98753595 -0.76860803 -0.952732 -0.6391059 -0.065904096
-0.5924384 -1.1747414 -0.5401721 -1.0527683 0.3538142 -0.37789688 0.18813659 -0.3436494
0.64001346 -0.08082678 0.29701662 -0.66867965 -0.25397232 -0.75978243 0.13702624 -0.82922935
-1.6554853 0.1393976 -0.92891276 -1.1248592 -0.8844942 0.6729871 -0.3125294 -0.29768506
0.05703142 -0.34822735 -0.28989044 -1.1636244 -0.65350515 -0.89926964 0.7015863 -0.676663
-0.30564454 -1.0501461 0.20994754 0.0842386 -0.26135004 -1.2336736 -0.35184884 -0.38866735
00000000: 9d7c 8fbe a942 9f3e 3880 4cbf f71e 73bf
00000010: 921c 91bf 7cf6 3ebf 49f7 213f dd8b fabe
00000020: 25fc a7bf 0b60 21bf fe39 35bf 13bb d6be
00000030: 55cf 64be 24b6 00bf 567f b03e c24e 11bf
00000040: 3877 7fbf 921c 173f 4594 21bf 28cf 7cbf
00000050: 7fc3 44bf 3fe6 73bf 729c 23bf baf8 86bd
00000060: 0baa 17bf ed5d 96bf b848 0abf 1dc1 86bf
00000070: 2327 b53e b37b c1be e1a6 403e d0f2 afbe
00000080: ecd7 233f 8388 a5bd 9012 983e 972e 2bbf
00000090: a908 82be 1a81 42bf 9b50 0c3e 6048 54bf
000000a0: f1e6 d3bf 3fbe 0e3e 3acd 6dbf 63fb 8fbf
000000b0: 366e 62bf e248 2c3f db03 a0be 2d6a 98be
000000c0: c799 693d db4a b2be 856c 94be a5f1 94bf
000000d0: 1d4c 27bf 8936 66bf 299b 333f c939 2dbf
000000e0: 717d 9cbe 306b 86bf 7dfc 563e 4a85 ac3d
000000f0: accf 85be 04e9 9dbf 8825 b4be 68ff c6be

stem.1.running_var f4 [64]
0.3936608 0.40290466 0.5516344 0.4527465 0.5807841 0.62648 0.45415303 0.22581063
0.5048675 0.4113366 0.41052383 0.51808137 0.20272993 0.34669614 0.39591536 0.5357241
0.41950512 0.6637753 0.46778965 0.38187364 0.5121923 0.35801783 0.62095535 0.6685895
0.423432 0.8893981 0.4083559 0.5456942 0.37040225 0.5073239 0.2507269 0.44453663
0.58700186 0.5298158 0.2452219 0.3731658 0.4104364 0.34008193 0.34250605 0.3104161
0.7314127 0.23791443 0.5456756 0.3532476 0.46555713 0.5020706 0.68022203 0.40624568
0.40134007 0.36392367 0.6315861 0.3298118 0.35309294 0.5355847 0.6251083 0.99542505
0.39658216 0.4675412 0.33684167 0.3678867 0.37017363 0.49508733 0.3402937 0.462952
00000000: e98d c93e 8549 ce3e e937 0d3f 64ce e73e
00000010: 44ae 143f fe60 203f bf86 e83e e73a 673e
00000020: ff3e 013f b69a d23e 2e30 d23e fba0 043f
00000030: 6f98 4f3e 2882 b13e 6bb5 ca3e 3725 093f
00000040: 60c9 d63e 2eed 293f 2082 ef3e f184 c33e
00000050: 091f 033f 1d4e b73e eef6 1e3f ae28 2b3f
00000060: 14cc d83e 98af 633f 0614 d13e 9db2 0b3f
00000070: 5da5 bd3e fbdf 013f 475f 803e 4e9a e33e
00000080: c145 163f 02a2 073f 731b 7b3e 960f bf3e
00000090: b824 d23e 381f ae3e f45c af3e dcee 9e3e
000000a0: dd3d 3b3f d79f 733e 65b1 0b3f dfdc b43e
000000b0: 815d ee3e b387 003f 0823 2e3f 6fff cf3e
000000c0: 727c cd3e 3454 ba3e a0af 213f 18dd a83e
000000d0: 99c8 b43e 141c 093f 1907 203f 2dd4 7e3f
000000e0: d10c cb3e 8f61 ef3e 8376 ac3e a55b bc3e
000000f0: 6687 bd3e 167c fd3e fa3a ae3e 0b08 ed3e

blocks.0.conv1.weight f4 [64, 64, 3, 3]
0.13307318 -0.013949522 -0.008177738 -0.06083236 0.03542322 -0.089896195 -0.01914952 -0.012773432
-0.06381055 0.04094423 -0.055619273 -0.033877533 0.053249367 0.045225665 -0.0199231 -0.01281723
-0.10698493 0.016320916 0.040146966 0.15665832 -0.0063627753 -0.008864444 -0.046225157 -0.00757002
-0.01187394 0.14721382 -0.04761635 0.054633964 0.09632073 0.16624922 0.062988885 -0.13527846
0.14127158 -0.03705527 -0.05244547 -0.054486122 0.10612276 0.13539726 0.11520547 -0.13161798
-0.04642836 0.053838823 0.061478812 -0.030254146 -0.046737835 -0.079676434 0.001106037 0.08295528
0.010817875 -0.070200436 -0.05164822 0.04011966 0.06819337 -0.076045066 -0.052987006 0.022623152
-0.13051476 0.067565225 0.10178086 -0.118940786 -0.006325031 0.022496423 -0.034523677 -0.046091132
0.042188052 -0.05673722 -0.026109226 -0.03332192 -0.088168226 -0.045092806 0.0359574 0.041527048
0.05241422 0.08956858 -0.0028001189 -0.16580017 0.070727415 0.013330643 0.060746863 0.09814442
-0.018150968 -0.04552306 0.083083756 0.12998025 -0.023592934 0.0062697865 0.008505029 0.090167485
-0.03802631 -0.08386747 -0.031114688 0.0038351028 -0.056304913 0.083870776 0.025477612 -0.10147172
0.06384901 0.079504564 0.0604064 -0.10845459 -0.060668558 -0.00478929 0.0017911858 -0.018379776
0.04511247 0.03416805 0.096786514 0.027352946 -0.04664441 -0.023340601 0.13287702 0.013758776
-0.11587433 0.060122643 -0.038610544 -0.015936065 -0.104854725 -0.06413016 -0.041908007 -0.101681046
0.083707824 0.060605213 -0.10750297 0.0016456017 0.012166942 -0.013054416 0.052226644 0.0075400393
-0.113070555 -0.034993205 -0.020716593 0.096038535 0.08490911 0.030376824 -0.0715813 -0.032498114
-0.028079767 0.07018412 -0.052001487 0.002387799 -0.0113435285 -0.039893556 -0.080799796 0.05954942
-0.06688696 0.045050286 0.08585375 -0.12246252 -0.08684808 0.036716178 0.032940798 0.0473535
-0.1302686 0.03709712 0.03578355 -0.12307885 -0.050370123 -0.107745215 -0.037672274 0.0375386
0.042091794 0.0042453445 -0.035301324 -0.109684244 0.044524305 -0.020183804 0.0763012 0.030635932
-0.0034890233 -0.011068276 -0.17520572 -0.088781044 0.05173603 0.009652309 0.03448464 -0.070549384
0.046255477 -0.02074073 0.05621922 -0.0034136148 0.04249664 -0.050293226 0.0979062 0.029281307
-0.087822214 0.0715226 -0.09312586 -0.034410134 -0.09537043 -0.029594565 -0.04019724 0.022192143
-0.007604974 -0.02522254 0.03851943 0.028281057 0.0009792154 -0.02545135 -0.015770966 0.044503987
-0.0037349334 -0.015085507 0.04012507 0.08105823 0.05927036 -0.06932015 0.027703904 -0.034239702
-0.053671442 -0.0919588 0.008476051 -0.101225585 -0.027394291 -0.045173254 -0.102826305 -0.14306097
0.08610869 -0.06956992 -0.02157125 -0.09743643 -0.0500331 0.13980842 -0.07759727 -0.023747152
0.05029451 -0.03962584 0.097677134 0.040979948 -0.03942169 -0.004106858 0.10578657 -0.09512388
0.07921962 -0.025295362 -0.020184806 -0.050529893 -0.10456076 -0.015104025 0.012995561 0.021570213
0.0058822655 -0.015039209 0.13196546 -0.08569792 -0.014946399 -0.030283624 -0.03211819 0.12935917
0.112606265 -0.04028777 -0.025703793 0.02680654 0.03057195 -0.15364848 -0.03389431 0.06092343
00000000: 5644 083e 898c 64bc ebfb 05bc 5a2b 79bd
00000010: f017 113d 7f1b b8bd 74df 9cbc a847 51bc
00000020: 1baf 82bd 23b5 273d 09d1 63bd 2bc3 0abd
00000030: 021c 5a3d 8c3e 393d c535 a3bc 5cff 51bc
00000040: ea1a dbbd 71b3 853c 2571 243d 0a6b 203e
00000050: d47e d0bb 2c3c 11bc 9756 3dbd ee0d f8bb
00000060: ea8a 42bc 38bf 163e 5d09 43bd ddc7 5f3d
00000070: ce43 c53d 3c3d 2a3e 5100 813d 7086 0abe
00000080: 7fa9 103e 44c7 17bd 10d1 56bd d72c 5fbd
00000090: e456 d93d 94a5 0a3e d8f0 eb3d ddc6 06be
000000a0: aa2b 3ebd 1986 5c3d 35d1 7b3d 8bd7 f7bc
000000b0: 2c70 3fbd 662d a3bd 71f8 903a 75e4 a93d
000000c0: 753d 313c 3fc5 8fbd 158d 53bd 8354 243d
000000d0: f7a8 8b3d 84bd 9bbd e708 59bd 3054 b93c
000000e0: a9a5 05be a35f 8a3d 7c72 d03d 3a97 f3bd
000000f0: 3542 cfbb 6b4a b83c b368 0dbd 0eca 3cbd
00000100: 61cd 2c3d 4a65 68bd 04e3 d5bc 917c 08bd
00000110: 8b91 b4bd 3cb3 38bd 1148 133d 4418 2a3d
00000120: 4bb0 563d bb6f b73d 3382 37bb 85c7 29be
00000130: 89d9 903d c568 5a3c b4d1 783d f1ff c83d
00000140: 57b1 94bc 6376 3abd d127 aa3d 8b19 053e
00000150: f845 c1bc c872 cd3b ad58 0b3c bba9 b83d
00000160: 7ac1 1bbd b5c2 abbd 3be4 febc 5956 7b3b
00000170: fb9f 66bd 71c4 ab3d 6db6 d03c 68d0 cfbd
00000180: 45c3 823d 4ad3 a23d b46c 773d 711d debd
00000190: 987f 78bd 7aef 9cbb 39c6 ea3a 2f91 96bc
000001a0: dac7 383d ccf3 0b3d 0238 c63d 4913 e03c
000001b0: 350e 3fbd ca34 bfbc ea10 083e 7d6c 613c
000001c0: 854f edbd 2943 763d 1726 1ebd 5a8c 82bc
000001d0: 13be d6bd ac56 83bd bba7 2bbd 273e d0bd
000001e0: 026f ab3d 2c3d 783d 842a dcbd 3bb1 d73a
000001f0: da57 473c 30e2 55bc 9beb 553d 6f12 f73b
00000200: 8991 e7bd 0955 0fbd d8b5 a9bc daaf c43d
00000210: d4e4 ad3d d1d8 f83c 3799 92bd be1c 05bd
00000220: 8a07 e6bc b1bc 8f3d 83ff 54bd 9f7c 1c3b
00000230: 35da 39bc 6d67 23bd 5d7a a5bd 18ea 733d
00000240: 08fc 88bd a686 383d 17d4 af3d a1cd fabd
00000250: 68dd b1bd b463 163d eeec 063d bef5 413d
00000260: 2265 05be 26f3 173d c691 123d c410 fcbd
00000270: e750 4ebd 86a9 dcbd 3e4e 1abd 13c2 193d
00000280: 7268 2c3d 881c 8b3b 1f98 10bd 22a2 e0bd
00000290: 1e5f 363d 8158 a5bc ce43 9c3d 35f8 fa3c
000002a0: 19a8 64bb b757 35bc 2169 33be d6d2 b5bd
000002b0: 29e9 533d b824 1e3c c43f 0d3d 327c 90bd
000002c0: 6276 3d3d 77e8 a9bc 2046 663d f4b6 5fbb
000002d0: f510 2e3d 4500 4ebd 0c83 c83d 5adf ef3c
000002e0: 22dc b3bd 717a 923d c5b8 bebd a4f1 0cbd
000002f0: 9251 c3bd 4d70 f2bc dca5 24bd 4ccc b53c
00000300: 2533 f9bb 809f cebc 8dc6 1d3d adad e73c
00000310: 0459 803a 597f d0bc 1d32 81bc d049 363d
00000320: c9c5 74bb 3429 77bc 2f5a 243d db01 a63d
00000330: 7ac5 723d b9f7 8dbd 4cf3 e23c ee3e 0cbd
00000340: 96d6 5bbd e554 bcbd 22df 0a3c 5c4f cfbd
00000350: fe69 e0bc 9707 39bd 9996 d2bd 937e 12be
00000360: c159 b03d ad7a 8ebd 31b6 b0bc c08c c7bd
00000370: 82ef 4cbd f029 0f3e 51eb 9ebd 6389 c2bc
00000380: 9e01 4e3d b44e 22bd f30a c83d 97da 273d
00000390: a378 21bd d292 86bb a1a6 d83d 4fd0 c2bd
000003a0: e53d a23d 3838 cfbc 9b5a a5bc 6ff8 4ebd
000003b0: f423 d6bd df76 77bc 55eb 543c 04b4 b03c
000003c0: 05c0 c03b 0467 76bc f421 073e 6482 afbd
000003d0: bee1 74bc 5d15 f8bc 5d8e 03bd bb76 043e
000003e0: 1d9e e63d ca04 25bd c390 d2bc 6499 db3c
000003f0: 0772 fa3c 0756 1dbe c3d4 0abd d98a 793d

blocks.0.bn1.weight f4 [64]
1.0589367 1.0100769 0.8807557 0.97302467 0.93474746 1.0008936 1.0301604 0.98537725
1.0298437 1.052127 1.0226688 1.0056965 1.0279359 1.0424331 1.0516342 0.9974226
1.0142835 1.0134473 0.91628057 1.018244 0.9738905 0.9897719 1.0514997 1.034621
0.9459985 1.0416492 0.9736799 1.0083529 1.0670816 0.98504657 1.1522576 0.9458888
1.0681646 1.0320557 0.96134675 0.959881 0.8976615 0.9894859 0.94129944 0.98720896
0.9904274 0.9839641 0.9645279 0.9894278 1.001765 1.0825676 1.0540408 1.0244695
0.9299724 1.030096 0.83648145 1.0512 0.9918176 0.94718343 0.9695803 1.007298
0.94090223 0.9624519 1.0417812 1.0311058 0.9861025 1.0196487 1.0066867 1.0011114
00000000: 3d8b 873f 334a 813f 3579 613f 2518 793f
00000010: 9c4b 6f3f 481d 803f 4cdc 833f af41 7c3f
00000020: ebd1 833f 19ac 863f d0e6 823f aaba 803f
00000030: 6793 833f 736e 853f f39b 863f 1657 7f3f
00000040: 0bd4 813f a4b8 813f 5d91 6a3f d255 823f
00000050: e350 793f b161 7d3f 8b97 863f 766e 843f
00000060: f52c 723f c354 853f 1643 793f b511 813f
00000070: 2196 883f 032c 7c3f 2d7d 933f c525 723f
00000080: 9eb9 883f 671a 843f d21a 763f c3ba 753f
00000090: 25cd 653f f34e 7d3f 00f9 703f bab9 7c3f
000000a0: a68c 7d3f 12e5 7b3f 4deb 763f 244b 7d3f
000000b0: d639 803f 9391 8a3f cfea 863f d121 833f
000000c0: ac12 6e3f 30da 833f a623 563f b98d 863f
000000d0: c2e7 7d3f 9d7a 723f 6a36 783f 24ef 803f
000000e0: f8de 703f 3f63 763f 1659 853f 46fb 833f
000000f0: 3771 7c3f d983 823f 1cdb 803f 6b24 803f

blocks.0.bn1.bias f4 [64]
-0.18243569 -0.20508093 -0.18657696 -0.27593517 -0.15115845 -0.064363346 -0.15114363 -0.06399359
-0.060160972 -0.1784164 -0.14486739 -0.15091744 -0.16696994 -0.1529278 -0.2235514 -0.21270053
-0.10314161 -0.07744992 -0.02246594 -0.15053777 -0.15102144 -0.07109515 -0.20194873 -0.244557
-0.27523088 -0.21790642 -0.109644234 -0.32253736 -0.29932103 -0.1335806 -0.23213854 -0.12997274
-0.055400252 -0.11407058 -0.13916807 -0.19417238 -0.20253932 -0.13652039 -0.11532796 -0.2940251
-0.23318642 -0.2762776 -0.21107121 -0.14535202 -0.10982262 -0.27756435 -0.20055857 -0.16495949
-0.2949971 -0.21416749 -0.26839346 -0.0016329425 -0.20398752 -0.13114186 -0.131314 -0.1912532
-0.072735704 -0.1351488 -0.23132358 -0.21441671 -0.18382704 -0.24036793 -0.124591164 -0.34229225
00000000: 6cd0 3abe bc00 52be 080e 3fbe 6047 8dbe
00000010: 48c9 1abe eed0 83bd 65c5 1abe 120f 83bd
00000020: 5a6b 76bd cab2 36be 1e58 14be 1a8a 1abe
00000030: 2bfa 2abe 1b99 1cbe a8ea 64be 2bce 59be
00000040: e93b d3bd 109e 9ebd 7e0a b8bc 9326 1abe
00000050: 5da5 1abe 569a 91bd a6cb 4ebe 266d 7abe
00000060: 10eb 8cbe dc22 5fbe 288d e0bd 9e23 a5be
00000070: 9b40 99be 5ac9 08be bab5 6dbe 9317 05be
00000080: 60eb 62bd d69d e9bd 1382 0ebe 20d5 46be
00000090: 7866 4fbe 00cc 0bbe 1131 ecbd 758a 96be
000000a0: 6cc8 6ebe 4274 8dbe 0d23 58be 29d7 14be
000000b0: afea e0bd ea1c 8ebe 3a5f 4dbe 24eb 28be
000000c0: dc09 97be b94e 5bbe de6a 89be 7508 d6ba
000000d0: 1be2 50be 0d4a 06be 2d77 06be e1d7 43be
000000e0: 75f6 94bd 7264 0abe 17e0 6cbe 0e90 5bbe
000000f0: 283d 3cbe 0323 76be a729 ffbd ee40 afbe

blocks.0.bn1.running_mean f4 [64]
-0.4898901 -0.5027318 0.0055895965 0.27764675 -0.3156053 -0.1578399 -0.112918414 0.35306445
0.39437956 0.55415535 0.36773416 -0.6964156 -0.43746886 -0.10194143 -0.7060793 0.18512446
-0.84478045 -1.1758165 -0.64604974 0.36720502 -0.4847554 -0.6530486 -0.35012195 -0.19889632
-0.0611994 0.30617154 -0.09481873 0.2849307 -0.21322823 -0.07695913 -0.44604287 0.44248083
-0.90686816 0.5012439 -0.0023422888 0.25619152 0.28024378 -0.84086126 -0.35620224 -0.055896718
-0.18415928 0.0792364 -0.17317978 0.34798202 -0.49666283 -0.8998241 -0.90932363 -0.6113268
-0.3599407 -0.8239436 0.17130853 -0.046167266 0.04313572 -0.24819683 -0.147761 -0.29640594
0.38806555 -0.31117612 0.17759617 0.5080304 -0.45618552 -0.8111132 -0.6611572 0.74207664
00000000: e0d2 fabe 08b3 00bf ef28 b73b b727 8e3e
00000010: 0597 a1be c8a0 21be c541 e7bd ddc4 b43e
00000020: 1eec c93e 20dd 0d3f a747 bc3e 4b48 32bf
00000030: ebfb dfbe abc6 d0bd 9dc1 34bf 4491 3d3e
00000040: 8843 58bf 2881 96bf 8463 25bf 4c02 bc3e
00000050: dc31 f8be 312e 27bf 2f43 b3be 7aab 4bbe
00000060: 39ac 7abd 84c2 9c3e 5330 c2bd 70e2 913e
00000070: 8058 5abe c09c 9dbd bb5f e4be d98c e23e
00000080: 8328 68bf 8551 003f 1681 19bb 892b 833e
00000090: 1d7c 8f3e af42 57bf 2460 b6be f5f3 64bd
000000a0: 4094 3cbe b246 a23d 0a56 31be b32a b23e
000000b0: 974a febe df5a 66bf 6fc9 68bf ea7f 1cbf
000000c0: 264a b8be f8ed 52bf 816b 2f3e e319 3dbd
000000d0: 15af 303d 4f27 7ebe a94e 17be 85c2 97be
000000e0: 87b0 c63e 7a52 9fbe c5db 353e 480e 023f
000000f0: 2691 e9be 1da5 4fbf 9941 29bf bcf8 3d3f

blocks.0.bn1.running_var f4 [64]
0.7291422 0.59162706 0.6259168 0.72411364 0.6352 1.1819819 0.7966385 0.6024534
0.833994 0.6730665 0.7421487 0.68869555 0.8806018 0.75699615 0.6834408 0.68927264
0.6625487 0.80122715 0.74385923 0.67039263 0.60476196 0.969579 0.7293414 0.59486043
0.64888674 0.66382575 0.82745427 0.7945116 0.6304076 0.75417536 0.74884725 0.5797056
0.7369334 0.76687515 0.705628 0.7080034 0.6345286 0.7299141 0.51175755 0.5179717
0.63943225 0.59328955 0.5551439 0.79553705 0.73060983 0.6345373 0.88993484 0.7460835
0.56241846 0.6219856 0.5605252 0.83224106 0.70148426 0.59962374 0.89413196 0.66451275
0.7577284 0.69421417 0.50960225 0.6425194 0.6776982 0.59257746 0.736646 0.6209929
00000000: 10a9 3a3f df74 173f 153c 203f 835f 393f
00000010: 789c 223f 2f4b 973f 80f0 4b3f 633a 1a3f
00000020: a180 553f 164e 2c3f 75fd 3d3f 5a4e 303f
00000030: 1f6f 613f 80ca 413f faf5 2e3f 2c74 303f
00000040: cb9c 293f 391d 4d3f 8f6d 3e3f da9e 2b3f
00000050: aed1 1a3f 5436 783f 1eb6 3a3f c648 183f
00000060: 711d 263f 7cf0 293f 0bd4 533f 1d65 4b3f
00000070: 6462 213f a311 413f 74b4 3f3f 9667 143f
00000080: aba7 3c3f ee51 443f 09a4 343f b63f 353f
00000090: 7770 223f a7db 3a3f 8b02 033f cb99 043f
000000a0: d5b1 233f d3e1 173f e91d 0e3f 51a8 4b3f
000000b0: 3f09 3b3f 0971 223f c5d2 633f 54ff 3e3f
000000c0: a8fa 0f3f 733a 1f3f 947e 0f3f c00d 553f
000000d0: 7994 333f f180 193f d5e5 643f 821d 2a3f
000000e0: 7dfa 413f 05b8 313f 4b75 023f 277c 243f
000000f0: a17d 2d3f 28b3 173f d594 3c3f 64f9 1e3f

blocks.0.conv2.weight f4 [64, 64, 3, 3]
0.14214803 0.11615243 -0.042782083 -0.12589452 -0.049765695 0.005978113 -0.04851327 -0.13227926
-0.16550905 0.016897352 0.025302168 -0.110699184 -0.020074429 -0.016450409 -0.033318624 -0.08747655
-0.009830871 -0.018399652 -0.033751737 0.036294598 -0.03539526 0.04896327 -0.05313287 0.00023838929
0.03735422 0.028528525 -0.0804431 0.041725323 0.14867909 -0.11251619 0.087806605 -0.064530574
-0.0041797445 -0.03573893 0.03515962 -0.13212492 -0.1656971 -0.04461751 -0.06827352 -0.07688327
-0.09871632 0.049605645 0.08370927 0.017007753 -0.09994301 -0.08177187 0.02287702 -0.03811589
-0.0065062977 0.0031639305 -0.020213168 0.011044154 -0.039901458 -0.11897136 0.002779536 0.008183688
0.08281227 0.110880844 -0.12599742 0.08894422 -0.02625393 -0.17296813 0.059334416 0.06694078
-0.011455186 -0.14506784 0.021961031 -0.083601 0.021303829 0.062721476 -0.010218624 -0.12937899
-0.02022186 -0.018438978 0.059798304 0.08418293 -0.07184289 -0.043559507 -0.07731931 0.044474233
-0.016443271 -0.016910536 0.054345123 -0.011207878 -0.013468614 0.009299711 0.11680259 -0.029754564
0.03949003 -0.05920751 0.0043088007 0.023850773 -0.021747183 0.17931734 -0.050454825 0.010269216
0.052341536 0.09885598 0.006617762 -0.024149593 0.08490397 -0.07800532 -0.058291543 -0.04097186
0.089347616 0.035848483 0.036692195 -0.05960008 -0.0023645046 -0.01549995 0.041796714 -0.076529205
0.0033473135 -0.016792843 -0.03540717 -0.005611653 -0.05276921 -0.048163254 -0.06450286 0.07832643
0.050771892 0.10117858 -0.045303304 -0.016620224 0.0061407224 -0.10099081 0.07204643 -0.00035320758
-0.014853831 -0.021485722 -0.045128275 -0.10323315 -0.1533839 0.051222138 0.075510055 -0.019091511
0.029779164 -0.019743208 0.06787347 -0.00893002 -0.014522129 -0.00456348 0.043437287 0.05379338
-0.05912497 -0.17065328 -0.122656524 0.08141558 0.0379537 0.036080163 0.14348567 -0.039885573
-0.0035486156 0.061309647 -0.024599792 -0.14699411 0.110706724 0.08722285 -0.010104446 0.00936877
0.005969229 0.0065486017 -0.034587946 -0.009158776 0.094535716 0.02550213 0.05036176 -0.08561607
-0.04945092 -0.06182063 0.063983686 -0.08239747 -0.022997942 0.03399775 0.02534136 0.092295974
-0.0015602397 0.11295553 -0.00030088733 -0.052478023 0.082490295 0.029814731 -0.11733378 -0.04470518
-0.0014557253 -0.0030853003 0.073140934 0.0083133 -0.14885391 0.010484151 0.075301014 -0.03187262
-0.05530135 -0.08656613 0.047046628 0.06702393 -0.053197227 0.06795238 -0.06375967 -0.020316202
-0.09305778 -0.005185465 -0.05824227 -0.03630879 0.05933068 0.035628963 0.036164466 -0.07840972
-0.0064777364 0.02308129 -0.09762035 0.022220511 0.09464321 -0.017478669 -0.03339937 0.0057281842
0.16896886 0.015616987 0.06559949 0.053970672 0.017810173 -0.064926475 -0.15278383 0.025515964
-0.122090295 -0.033623558 -0.08876025 -0.08917647 -0.0046809497 0.10312224 -0.02408879 0.066078685
-0.022751883 0.077073395 -0.011052061 -0.004652511 -0.011738222 -0.04422968 0.0058844406 -0.010842471
0.0685197 -0.037055176 0.10729498 -0.027559435 0.0027505523 0.0059718825 -0.035566647 0.04980965
-0.16663097 -0.12714258 0.021998601 -0.097303405 0.008622162 -0.030904915 -0.0127773555 0.09845486
00000000: 418f 113e 53e1 ed3d 443c 2fbd 7eea 00be
00000010: 1dd7 4bbd 0ce4 c33b dab5 46bd 3774 07be
00000020: 347b 29be 516c 8a3c 7e46 cf3c 41b6 e2bd
00000030: 2173 a4bc 02c3 86bc 1c79 08bd e826 b3bd
00000040: a911 21bc deba 96bc 433f 0abd a5a9 143d
00000050: 9ffa 10bd b68d 483d daa1 59bd 23f8 7939
00000060: bd00 193d a7b4 e93c 5abf a4bd 2ce8 2a3d
00000070: 553f 183e e36e e6bd f3d3 b33d 9b28 84bd
00000080: 3df6 88bb fc62 12bd 8903 103d c14b 07be
00000090: 80ac 29be dac0 36bd fdd2 8bbd fa74 9dbd
000000a0: c82b cabd 4a2f 4b3d c46f ab3d d853 8b3c
000000b0: ecae ccbd 0378 a7bd 9768 bb3c 681f 1cbd
000000c0: c832 d5bb f259 4f3b 1696 a5bc 8af2 343c
000000d0: b66f 23bd 42a7 f3bd e028 363b e014 063c
000000e0: 7b99 a93d 7f15 e33d 7805 01be 6328 b63d
000000f0: 7b12 d7bc 8f1e 31be a508 733d 3f18 893d
00000100: 88ae 3bbc aa8c 14be 9fe7 b33c 0037 abbd
00000110: 5e85 ae3c 1e74 803d 046c 27bc ed7b 04be
00000120: 50a8 a5bc 570d 97bc 11ef 743d 1a68 ac3d
00000130: 5d22 93bd 746b 32bd 9659 9ebd 9d2a 363d
00000140: 0ab4 86bc f787 8abc fe98 5e3d 3fa1 37bc
00000150: 76ab 5cbc d15d 183c 3236 ef3d d8bf f3bc
00000160: 4cc0 213d 9383 72bd d730 8d3b b262 c33c
00000170: 2627 b2bc f79e 373e b8a9 4ebd 3740 283c
00000180: 1464 563d 0175 ca3d d0d9 d83b 5ed5 c5bc
00000190: 22e2 ad3d 41c1 9fbd 1dc3 6ebd 1cd2 27bd
000001a0: e2fb b63d dcd5 123d 8e4a 163d 371f 74bd
000001b0: cef5 1abb 81f3 7dbc 0833 2b3d 58bb 9cbd
000001c0: 9a5e 5b3b 2591 89bc 1c07 11bd f5e1 b7bb
000001d0: 8724 58bd d546 45bd 131a 84bd 9b69 a03d
000001e0: 30f6 4f3d b736 cf3d f58f 39bd 2327 88bc
000001f0: 1d38 c93b 45d4 cebd 148d 933d b82e b9b9
00000200: 7c5d 73bc d302 b0bc 6dd8 38bd e76b d3bd
00000210: ab10 1dbe 4ece 513d 04a5 9a3d cd65 9cbc
00000220: 6ff3 f33c 82bc a1bc 3f01 8b3d 384f 12bc
00000230: 39ee 6dbc 3f89 95bb 4ceb 313d 7256 5c3d
00000240: 062d 72bd bcbf 2ebe 5833 fbbd 36bd a63d
00000250: 5775 1b3d cbc8 133d e8ed 123e 0e5f 23bd
00000260: e48f 68bb d31f 7b3d 8185 c9bc a085 16be
00000270: 35ba e23d e5a1 b23d 1e8d 25bc 787f 193c
00000280: 8699 c33b a795 d63b 17ac 0dbd b10e 16bc
00000290: f19b c13d d8e9 d03c 2248 4e3d 7a57 afbd
000002a0: 0c8d 4abd a137 7dbd e109 833d 01c0 a8bd
000002b0: 2e66 bcbc 3a41 0b3d af98 cf3c ac05 bd3d
000002c0: f580 ccba 3b55 e73d 6ac0 9db9 32f3 56bd
000002d0: acf0 a83d 063e f43c b14c f0bd c71c 37bd
000002e0: 09ce beba c032 4abb eaca 953d 8234 083c
000002f0: 296d 18be b7c5 2b3c 6b37 9a3d dd8c 02bd
00000300: ab83 62bd 9549 b1bd f7b3 403d d843 893d
00000310: 56e5 59bd 9e2a 8b3d 6e94 82bd 2a6e a6bc
00000320: 1495 bebd d5ea a9bb 728f 6ebd 87b8 14bd
00000330: ba04 733d adef 113d 3121 143d 4695 a0bd
00000340: 3143 d4bb f914 bd3c 2eed c7bd ca07 b63c
00000350: 4dd4 c13d 6d2f 8fbc c7cd 08bd 7eb3 bb3b
00000360: 2c06 2d3e 64de 7f3c 0759 863d 5a10 5d3d
00000370: a4e6 913c 2cf8 84bd 5d73 1cbe db06 d13c
00000380: 7a0a fabd dbb8 09bd efc7 b5bd 27a2 b6bd
00000390: a762 99bb c131 d33d db55 c5bc 4354 873d
000003a0: 2862 babc a8d8 9d3d b413 35bc 1774 98bb
000003b0: ac51 40bc 2e2a 35bd 44d2 c03b 9fa4 31bc
000003c0: 0e54 8c3d 2bc7 17bd 78bd db3d 53c4 e1bc
000003d0: 9c42 343b c8af c33b 55ae 11bd 3405 4c3d
000003e0: 4fa1 2abe aa31 02be 6936 b43c 0247 c7bd
000003f0: f843 0d3c 4e2c fdbc 1d58 51bc b4a2 c93d

blocks.0.bn2.weight f4 [64]
1.1189305 1.1021602 1.0808164 1.1173588 1.0565329 1.1139983 1.1318041 1.1344166
1.1412673 1.1295806 1.1695791 1.1076179 1.0552919 1.066077 1.0467149 1.0842087
1.021732 1.1976134 1.1037607 1.195005 1.0633438 1.1538666 1.1282223 1.1658748
1.0525674 1.1386997 1.040161 1.1252439 1.0828067 1.1801928 1.1493165 1.0470378
1.0796726 1.155508 1.1092163 1.0839826 1.0967689 1.1056169 1.1572126 1.0438104
1.0998615 1.0008782 1.1269995 1.0642401 1.1708398 1.0992641 1.0723175 1.1094056
1.062179 1.0526303 1.1319656 1.096416 1.1097848 1.0254167 1.0664275 1.0755066
1.1506686 1.2453002 1.0316777 1.129191 1.133847 1.0842426 1.144153 1.116432
00000000: 1d39 8f3f 9613 8d3f 3158 8a3f 9d05 8f3f
00000010: 783c 873f 7f97 8e3f f5de 903f 9034 913f
00000020: 0c15 923f 1996 903f c5b4 953f 6cc6 8d3f
00000030: ce13 873f 3675 883f c1fa 853f 5ac7 8a3f
00000040: 1dc8 823f 654b 993f 0848 8d3f edf5 983f
00000050: a61b 883f e7b1 933f 9769 903f 633b 953f
00000060: 87ba 863f e9c0 913f ff23 853f fe07 903f
00000070: 6999 8a3f 8f10 973f ce1c 933f 5605 863f
00000080: b632 8a3f b0e7 933f cdfa 8d3f f1bf 8a3f
00000090: ec62 8c3f db84 8d3f 8b1f 943f 949b 853f
000000a0: 43c8 8c3f c71c 803f 8541 903f 0539 883f
000000b0: 14de 953f b0b4 8c3f b341 893f 0101 8e3f
000000c0: 7bf5 873f 97bc 863f 40e4 903f 5c57 8c3f
000000d0: 6e0d 8e3f db40 833f b280 883f 33aa 893f
000000e0: 1c49 933f ff65 9f3f 040e 843f 5589 903f
000000f0: e621 913f 76c8 8a3f 9b73 923f 3ee7 8e3f

blocks.0.bn2.bias f4 [64]
-0.33586073 -0.25186744 -0.18327396 -0.3103804 -0.36345708 -0.17634532 -0.35702813 -0.14845608
-0.27242962 -0.2567287 -0.2234512 -0.28846842 -0.34780973 -0.3319751 -0.2818028 -0.3982985
-0.2901693 -0.2811814 -0.29303247 -0.20261951 -0.2279673 -0.17630081 -0.26100972 -0.2887952
-0.20383418 -0.2637993 -0.2211182 -0.18739101 -0.30397263 -0.33351696 -0.3284966 -0.26226816
-0.20451167 -0.16204004 -0.31399697 -0.25558653 -0.31868768 -0.13943031 -0.21961506 -0.35261923
-0.23356304 -0.25362065 -0.32676387 -0.30894566 -0.2467328 -0.20981419 -0.28002775 -0.3213745
-0.20091057 -0.23651098 -0.24979348 -0.17267914 -0.27826592 -0.20044239 -0.2739023 -0.32954523
-0.31761888 -0.25833243 -0.226114 -0.22362097 -0.32573882 -0.29666778 -0.3755537 -0.24217406
00000000: f0f5 abbe c5f4 80be 2bac 3bbe 2eea 9ebe
00000010: 0c17 babe de93 34be 64cc b6be df04 18be
00000020: e57b 8bbe f271 83be 64d0 64be 22b2 93be
00000030: 1e14 b2be a4f8 a9be 7548 90be c8ed cbbe
00000040: 1291 94be 02f7 8fbe 5a08 96be 7d7b 4fbe
00000050: 4370 69be 3388 34be 11a3 85be f7dc 93be
00000060: e8b9 50be b410 87be cf6c 62be 6ee3 3fbe
00000070: 4da2 9bbe bcc2 aabe b530 a8be 0348 86be
00000080: 826b 51be d3ed 25be 36c4 a0be 3ddc 82be
00000090: 082b a3be d2c6 0ebe c5e2 60be 828a b4be
000000a0: 262b 6fbe 91da 81be 984d a7be 202e 9ebe
000000b0: 86a7 7cbe 88d9 56be cc5f 8fbe 338b a4be
000000c0: 80bb 4dbe ef2f 72be ddc9 7fbe cdd2 30be
000000d0: df78 8ebe c540 4dbe ec3c 8cbe 27ba a8be
000000e0: f19e a2be 2644 84be 6e8a 67be e5fc 64be
000000f0: 3dc7 a6be d7e4 97be 9348 c0be 7afc 77be

blocks.0.bn2.running_mean f4 [64]
-0.42499277 0.1615451 0.24442598 -1.1828876 -0.3046848 0.1897376 0.44037223 -0.078594364
-0.56310964 -0.41617814 -0.40130448 -0.6538812 -0.21386497 0.33344722 -0.4875149 -0.06477373
-0.20654944 -0.9800198 0.3176964 -1.1049454 -0.30280742 -0.3897317 -0.38876218 0.16261122
0.78745455 0.33628234 -0.17813602 -0.5135566 -0.6509404 -0.7166911 0.6444822 -0.86394274
-0.012760405 -0.9414802 -0.45802784 -0.043259084 -0.7717582 -0.5214164 -0.15860382 -0.43575135
-0.69011766 -0.026009861 -0.18220976 0.40708867 -0.0522012 0.1371344 -0.69816107 -0.5937777
-0.3514949 -0.12279382 0.27523154 -0.6929879 -0.60242677 -0.32162675 0.057342045 -0.11056911
-0.16865784 0.4963083 -0.37794244 -0.7756062 -0.23767759 -0.34100458 -0.09857246 -0.17497724
00000000: a798 d9be 146c 253e ce4a 7a3e dc68 97bf
00000010: a5ff 9bbe 934a 423e 7878 e13e 15f6 a0bd
00000020: f427 10bf 4d15 d5be c877 cdbe c264 27bf
00000030: 6bff 5abe 98b9 aa3e 8e9b f9be 17a8 84bd
00000040: b281 53be 94e2 7abf 1aa9 a23e da6e 8dbf
00000050: 9309 9bbe ea8a c7be d60b c7be 8e83 263e
00000060: 9f96 493f 332d ac3e 4a69 36be 7278 03bf
00000070: 08a4 26bf 1179 37bf c9fc 243f 5a2b 5dbf
00000080: 0511 51bc d904 71bf a082 eabe 7030 31bd
00000090: f291 45bf 8c7b 05bf 0a69 22be cd1a dfbe
000000a0: 8dab 30bf a212 d5bc 3295 3abe ed6d d03e
000000b0: edd0 55bd f66c 0c3e afba 32bf d101 18bf
000000c0: 24f7 b3be 547b fbbd 26eb 8c3e a867 31bf
000000d0: a438 1abf 43ac a4be 7edf 6a3d 0f72 e2bd
000000e0: a4b4 2cbe 1f1c fe3e ac81 c1be 218e 46bf
000000f0: c161 73be 2798 aebe 5ce0 c9bd 3c2d 33be

blocks.0.bn2.running_var f4 [64]
0.8015052 0.7662088 0.79819566 1.0273964 0.869806 0.93157476 0.79287636 0.7911205
0.8630553 0.7945049 0.7771978 0.7707989 0.8703654 0.7840073 0.97607267 0.78303427
0.8078176 0.8673336 0.7337207 0.8906871 0.9522612 1.0006145 1.121322 0.85551953
0.84102464 0.8556593 0.862148 1.0190192 0.69219065 0.8338326 0.7970034 0.73513776
0.83696455 1.0790067 0.7977457 0.69859546 0.93681127 1.0179591 1.0048761 0.79893893
1.0774686 0.7880764 0.72035384 0.66346836 0.88890874 0.7848243 0.8024497 0.94048166
1.0218625 0.6595424 0.79704326 0.79756 0.9720304 0.743949 0.86569285 0.8609463
0.8397952 0.84483063 0.75880563 1.114091 0.8403778 0.7791651 0.81707525 0.75335985
00000000: 722f 4d3f 4326 443f 8d56 4c3f ba81 833f
00000010: 9bab 5e3f af7b 6e3f f2f9 4a3f e086 4a3f
00000020: 31f1 5c3f ac64 4b3f 6ff6 463f 1453 453f
00000030: 44d0 5e3f b4b4 483f e6df 793f ef74 483f
00000040: 22cd 4e3f 9309 5e3f 1fd5 3b3f 1204 643f
00000050: 64c7 733f 2314 803f 7b87 8f3f 5403 5b3f
00000060: 644d 573f 7d0c 5b3f bbb5 5c3f 396f 823f
00000070: 6833 313f 0e76 553f 6a08 4c3f fd31 3c3f
00000080: 4f43 563f e41c 8a3f 1039 4c3f 27d7 323f
00000090: ddd2 6f3f 7c4c 823f c89f 803f 4387 4c3f
000000a0: 7eea 893f 60bf 493f 1c69 383f 10d9 293f
000000b0: 868f 633f 3fea 483f 586d 4d3f 68c3 703f
000000c0: 64cc 823f c5d7 283f 070b 4c3f e42c 4c3f
000000d0: fcd6 783f 7173 3e3f 0c9e 5d3f fa66 5c3f
000000e0: d1fc 563f d246 583f 1641 423f 899a 8e3f
000000f0: 0023 573f 5d77 473f d82b 513f 31dc 403f

blocks.1.conv1.weight f4 [64, 64, 3, 3]
0.07322555 0.018053602 0.030280791 -0.021042017 0.08736844 -0.034488164 -0.06831498 0.016473072
-0.051106084 -0.0018037226 0.004188467 0.013955394 0.0738505 -0.09779974 -0.037567645 0.017239705
-0.045610197 -0.1147706 0.053052668 0.036607906 0.07986865 -0.010320733 0.07049612 -0.06718023
-0.009442203 -0.076117374 0.025670413 0.0104817385 0.1103262 0.07358075 -0.00023262895 0.059625335
-0.018717108 0.056598492 -0.0039566816 -0.056203023 -0.08613603 -0.09871213 -0.11687816 0.10688278
0.01163976 0.12279702 0.058274597 0.03828128 0.13289008 0.06764893 0.016704392 0.044279743
-0.08802981 -0.12649919 0.014655331 -0.113411225 0.10389439 -0.12843713 -0.04697664 0.0076073757
0.07491306 0.050074775 -0.013316493 0.046977293 0.008973021 0.043850973 -0.103200234 0.07722192
0.083209634 0.0050030765 0.059423205 0.053898726 0.067760475 -0.010610541 -0.06087354 0.04022259
-0.13951212 0.1008674 -0.039623387 -0.08504978 0.05870697 -0.12360352 0.035845723 0.009464348
-0.05383806 0.106369354 0.046149977 -0.0035654376 0.11566431 0.011786526 0.019840935 -0.043939754
0.12116054 0.07421446 0.060197983 0.018169545 -0.026130853 0.059241824 0.015718244 0.09636192
-0.0019549797 0.04276361 0.058975432 -0.073166005 0.0055496055 0.043891832 0.02721272 0.033069707
-0.081549436 0.039137505 0.08908666 -0.09620287 -0.18441695 -0.0680755 -0.013616789 0.05633473
-0.0319606 -0.009970637 0.007900942 0.041447278 0.06479423 0.01202199 -0.06438595 0.04546923
-0.06256034 -0.054788068 0.07395677 -0.10304691 -0.049836997 -0.059373498 -0.0071363985 0.049065467
-0.08037656 0.08387 0.013459407 -0.05285475 -0.03719732 -0.014457432 -0.07262153 0.042007387
0.09009902 0.14791857 -0.046679024 0.13101748 -0.015310831 -0.017629078 -0.03351182 -0.008141328
0.022790562 -0.054033536 -0.14263867 -0.22133629 0.02037368 0.017806202 -0.027968926 -0.027041934
0.033091635 0.0071678096 0.067975275 -0.08640825 -0.015956348 -0.044648115 0.029258342 -0.048640702
0.01938473 0.034390125 0.045455724 -0.0066199647 0.019378064 -0.027047785 -0.05591264 0.07454469
0.035504036 0.098630615 0.052859202 -0.043067146 -0.09425125 0.09507494 0.052967887 0.03100261
0.024852166 -0.10788725 0.01603999 0.039538875 0.0628784 0.0059567085 -0.10055117 -0.088534296
-0.18179907 0.05831266 -0.048580397 0.074211344 0.023661502 -0.0016775584 -0.052658327 -0.0414857
-0.052778162 0.0800359 -0.01713894 -0.026374716 -0.03453633 -0.035102237 -0.023814432 -0.028697722
-0.064169385 -0.042213365 0.068954855 -0.114672385 -0.0047348137 0.07820892 -0.020593807 0.08165847
-0.024640951 -0.009578598 -0.098112404 0.046916887 -0.014093731 -0.002067048 0.04492157 0.060599037
0.016868453 0.11287952 0.07548548 -0.0669083 0.077412404 -0.13495232 0.025541749 0.085996255
-0.04478612 -0.010343394 0.1164192 0.10938629 0.13551784 -0.07038817 -0.049267408 0.030371731
-0.005422178 0.040348433 -0.18467927 -0.052306343 -0.04873137 -0.016215729 0.071491376 0.010481365
0.08293182 0.0114755165 -0.10657942 0.00057089824 -0.10592118 0.015955625 0.12326712 -0.049265493
0.058685895 -0.035357755 0.0026470781 0.09850976 0.10735141 0.060393833 -0.005159608 0.06433559
00000000: 47f7 953d 26e5 933c 6c0f f83c 4f60 acbc
00000010: 3aee b23d 7643 0dbd b9e8 8bbd 89f2 863c
00000020: 9d54 51bd e36a ecba 683f 893b 2aa5 643c
00000030: ee3e 973d 3b4b c8bd 88e0 19bd 483a 8d3c
00000040: c2d1 3abd d90c ebbd c14d 593d 2cf2 153d
00000050: 2d92 a33d 4b18 29bc 4560 903d ca95 89bd
00000060: 78b3 1abc 6de3 9bbd c24a d23c 99bb 2b3c
00000070: b4f2 e13d 81b1 963d dced 73b9 b239 743d
00000080: 9f54 99bc d2d3 673d 0da7 81bb 2435 66bd
00000090: 1668 b0bd 9629 cabd d15d efbd 5ce5 da3d
000000a0: b1b4 3e3c 017d fb3d 58b1 6e3d d5cc 1c3d
000000b0: 5614 083e 868b 8a3d a6d7 883c ad5e 353d
000000c0: f948 b4bd 0189 01be ea1c 703c 2544 e8bd
000000d0: 95c6 d43d 0685 03be 946a 40bd 4b47 f93b
000000e0: 056c 993d 351b 4d3d 6b2d 5abc 436b 403d
000000f0: 9403 133c 149d 333d a55a d3bd 8726 9e3d
00000100: d069 aa3d d9f0 a33b bf65 733d e9c4 5c3d
00000110: 01c6 8a3d d6d7 2dbc 8856 79bd 71c0 243d
00000120: 44dc 0ebe 9193 ce3d 224c 22bd 942e aebd
00000130: b876 703d d823 fdbd f7d2 123d 5a10 1b3c
00000140: 4c85 5cbd 2dd8 d93d c207 3d3d 1eaa 69bb
00000150: 69e1 ec3d 461c 413c 7589 a23c 2cfa 33bd
00000160: 0423 f83d c0fd 973d 2992 763d 4cd8 943c
00000170: 5f10 d6bc 8ea7 723d 8cc3 803c 6659 c53d
00000180: 1e1f 00bb e528 2f3d 3990 713d 0fd8 95bd
00000190: 77d9 b53b ecc7 333d 36ed de3c 1a74 073d
000001a0: 6403 a7bd a64e 203d 1173 b63d 0306 c5bd
000001b0: ccd7 3cbe 2b6b 8bbd f418 5fbc 3fbf 663d
000001c0: 1ee9 02bd e25b 23bc f472 013c 9fc4 293d
000001d0: d6b2 843d e1f7 443c c8dc 83bd f13d 3a3d
000001e0: a31f 80bd 7469 60bd a676 973d 420a d3bd
000001f0: e121 4cbd a031 73bd 73d8 e9bb dff8 483d
00000200: 779c a4bd 09c4 ab3d d884 5c3c 397e 58bd
00000210: 385c 18bd ddde 6cbc 99ba 94bd f00f 2c3d
00000220: d685 b83d f777 173e 8132 3fbd 7229 063e
00000230: 48da 7abc db6a 90bc b143 09bd 3463 05bc
00000240: 46b3 ba3c 4552 5dbd df0f 12be fba5 62be
00000250: b4e6 a63c 50de 913c 171f e5bc 0c87 ddbc
00000260: 188b 073d f2df ea3b 9f36 8b3d cff6 b0bd
00000270: e3b6 82bc f1e0 36bd 31af ef3c 793b 47bd
00000280: bacc 9e3c a9dc 0c3d c82f 3a3d 4aec d8bb
00000290: bfbe 9e3c 5193 ddbc a704 65bd e3aa 983d
000002a0: ae6c 113d d9fe c93d e482 583d 2d67 30bd
000002b0: cd06 c1bd a6b6 c23d dbf4 583d 30f9 fd3c
000002c0: c596 cb3c fef3 dcbd 4c66 833c 84f3 213d
000002d0: 64c6 803d 7e30 c33b c6ed cdbd 7851 b5bd
000002e0: 8929 3abe 41d9 6e3d 3dfc 46bd 1efc 973d
000002f0: c4d5 c13c 85e1 dbba 42b0 57bd e9ec 29bd
00000300: ea2d 58bd dde9 a33d f666 8cbc ca0f d8bc
00000310: f775 0dbd 5dc7 0fbd 7c16 c3bc 7c17 ebbc
00000320: 3d6b 83bd ece7 2cbd 3438 8d3d 5bd9 eabd
00000330: 7f26 9bbb 002c a03d 58b4 a8bc 8e3c a73d
00000340: d2db c9bc 8def 1cbc 28ef c8bd ec2b 403d
00000350: 64e9 66bc 5077 07bb aeff 373d b236 783d
00000360: b62f 8a3c 612d e73d 2298 9a3d 3807 89bd
00000370: 658a 9e3d f130 0abe ee3c d13c ce1e b03d
00000380: a771 37bd 5777 29bc 316d ee3d eb05 e03d
00000390: 30c5 0a3e ac27 90bd 9fcc 49bd 23ce f83c
000003a0: 87ac b1bb 6644 253d 901c 3dbe 2d3f 56bd
000003b0: 8c9a 47bd d9d6 84bc 126a 923d 08ba 2b3c
000003c0: 28d8 a93d ce03 3c3c 5046 dabd 55a8 153a
000003d0: 34ed d8bd 5fb5 823c 7973 fc3d 9dca 49bd
000003e0: 9f60 703d 4bd3 10bd 9a7a 2d3b 7cbf c93d
000003f0: 0edb db3d 865f 773d ee11 a9bb 61c2 833d

blocks.1.bn1.weight f4 [64]
0.95636904 0.9912141 0.91062117 0.9248844 0.93688107 0.97294974 0.9268357 0.94203806
0.96679217 0.99963737 0.9208165 0.9280676 0.9220999 1.0615048 0.9928599 0.92956924
0.9592263 0.98452145 0.9404956 0.9184745 0.8989565 0.97476447 0.9282488 0.9442042
1.0606463 0.98500234 0.9475888 0.9462242 0.93823105 0.99021935 1.0509259 1.0481982
0.9619938 0.9714835 0.94990087 0.9754833 0.9345978 0.95331645 0.9707544 0.9927
0.9790079 0.9669376 0.97515285 0.950103 0.9299308 0.9580943 0.9890037 0.93699276
0.9249472 0.931415 0.9697522 0.97517973 0.9673447 0.91420466 0.9411623 0.91998494
0.9123795 0.9651778 0.9895633 0.94214356 0.9643963 0.99182516 0.92894346 0.9508245
00000000: 9ad4 743f 35c0 7d3f 781e 693f 39c5 6c3f
00000010: 70d7 6f3f 3c13 793f 1b45 6d3f 6829 713f
00000020: b17f 773f 3ce8 7f3f a1ba 6b3f d795 6d3f
00000030: bd0e 6c3f 64df 873f 112c 7e3f 40f8 6d3f
00000040: db8f 753f 9909 7c3f 52c4 703f 2521 6b3f
00000050: 0322 663f 2a8a 793f b7a1 6d3f 5eb7 713f
00000060: 42c3 873f 1d29 7c3f 2e95 723f c03b 723f
00000070: e92f 703f 047f 7d3f bd84 863f 5c2b 863f
00000080: 3a45 763f 25b3 783f b42c 733f 46b9 793f
00000090: cd41 6f3f 8c0c 743f 5c83 783f 9621 7e3f
000000a0: 43a0 7a3f 3989 773f 9ea3 793f f339 733f
000000b0: f20f 6e3f ab45 753f 592f 7d3f c2de 6f3f
000000c0: 57c9 6c3f 3771 6e3f ae41 783f 61a5 793f
000000d0: e7a3 773f 5109 6a3f 03f0 703f 2284 6b3f
000000e0: b491 693f e415 773f 0554 7d3f 5230 713f
000000f0: ade2 763f 41e8 7d3f 3dcf 6d3f 3c69 733f

blocks.1.bn1.bias f4 [64]
-0.22241665 -0.29674086 -0.45177332 -0.35119143 -0.36152744 -0.30340707 -0.370425 -0.3566913
-0.4458981 -0.2045716 -0.31749916 -0.2848501 -0.22203307 -0.30172578 -0.2620664 -0.38494432
-0.26112902 -0.2119071 -0.29891688 -0.34409395 -0.34466946 -0.39771527 -0.22719999 -0.28903672
-0.43349466 -0.2673116 -0.37144926 -0.30779335 -0.31719673 -0.24840352 -0.2629757 -0.43550345
-0.2894705 -0.35305002 -0.36247748 -0.31896165 -0.33784923 -0.33717194 -0.28214967 -0.37266448
-0.33008483 -0.23625353 -0.34572205 -0.30999237 -0.38964057 -0.27720135 -0.39597964 -0.37341908
-0.34644115 -0.38267732 -0.28500175 -0.2655005 -0.3839863 -0.39542067 -0.41558263 -0.29432473
-0.39213386 -0.2808746 -0.24610277 -0.29088217 -0.35669276 -0.34714442 -0.36542523 -0.45467687
00000000: 31c1 63be 6bee 97be d54e e7be 5dcf b3be
00000010: 201a b9be 2c58 9bbe 58a8 bdbe 3ea0 b6be
00000020: c14c e4be 387b 51be 408f a2be dfd7 91be
00000030: a35c 63be cd7b 9abe 912d 86be 6c17 c5be
00000040: b4b2 85be 2dfe 58be a20b 99be 152d b0be
00000050: 8478 b0be 56a1 cbbe 1da7 68be 9ffc 93be
00000060: 03f3 ddbe 11dd 88be 992e bebe 1797 9dbe
00000070: 9c67 a2be 7e5d 7ebe c0a4 86be 4ffa debe
00000080: 7a35 94be f9c2 b4be a696 b9be f14e a3be
00000090: 93fa acbe cda1 acbe ec75 90be e1cd bebe
000000a0: e100 a9be 72ec 71be 7b02 b1be 52b7 9ebe
000000b0: f87e c7be 56ed 8dbe d8bd cabe c930 bfbe
000000c0: bc60 b1be 48ee c3be c0eb 91be aeef 87be
000000d0: da99 c4be 9474 cabe 3fc7 d4be bbb1 96be
000000e0: c5c5 c8be ccce 8fbe 5d02 7cbe 82ee 94be
000000f0: 6fa0 b6be eabc b1be 0419 bbbe 68cb e8be

blocks.1.bn1.running_mean f4 [64]
0.32980928 -0.16442901 -0.4359819 -0.57708263 -0.68363374 -0.52586013 0.6115198 -0.033629943
-1.1064572 -1.6784432 -0.32925427 -0.63288414 -1.2044395 -0.943042 -1.6000413 -0.70116854
-1.5858301 -2.098464 0.30371663 1.1909317 0.8779289 0.015087088 -0.28799728 -1.2140913
-0.0051158876 -0.21411741 -0.74968445 -0.9590671 0.41272682 0.053800095 -1.0960114 -1.2018565
-1.6150934 -1.2380829 -0.7469334 -1.4827915 0.43510267 -0.5709518 -1.1245028 0.48332423
-0.22855967 -0.5818499 0.0007376737 -0.026594788 -1.0059831 -0.77301407 -1.3230065 -1.0729595
-0.2212217 -1.0431235 -0.8534614 -0.79126966 -0.38860044 -0.8729769 0.06815914 -1.0625451
-0.7717537 -1.0101184 -2.0593855 -1.7213279 -0.13656452 -1.0950897 -0.8426799 -0.78537065
00000000: c3dc a83e 1460 28be 0539 dfbe b0bb 13bf
00000010: 9f02 2fbf c59e 06bf 908c 1c3f 8dbf 09bd
00000020: 64a0 8dbf 3ad7 d6bf 0494 a8be b204 22bf
00000030: 132b 9abf 336b 71bf 27ce ccbf c87f 33bf
00000040: 7bfc cabf 3c4d 06c0 bf80 9b3e 7370 983f
00000050: f3bf 603f d52f 773c 6174 93be 5867 9bbf
00000060: 2da3 a7bb 9841 5bbe 52eb 3fbf 6c85 75bf
00000070: ee50 d33e 7d5d 5c3d 1a4a 8cbf 6fd6 99bf
00000080: 61bb cebf 8079 9ebf 0737 3fbf 1dcc bdbf
00000090: c7c5 de3e e629 12bf b5ef 8fbf 4676 f73e
000000a0: 8c0b 6abe 1df4 14bf 7260 413a 50dd d9bc
000000b0: 0ec4 80bf 40e4 45bf 4758 a9bf bd56 89bf
000000c0: f187 62be 1285 85bf 727c 5abf a690 4abf
000000d0: a3f6 c6be 6a7b 5fbf 0597 8b3d 7a01 88bf
000000e0: a791 45bf 8f4b 81bf f9cc 03c0 7954 dcbf
000000f0: 92d7 0bbe e62b 8cbf dfb9 57bf 0d0e 49bf

blocks.1.bn1.running_var f4 [64]
1.5606452 1.8499424 1.2506387 1.9789933 1.2952744 1.6774383 1.3109499 1.7055832
2.711173 2.589096 1.5538503 1.9923766 1.4168671 2.1332788 1.8000227 1.8802142
1.9643623 1.7325418 1.9315491 1.8404181 1.3923346 1.9512925 1.5331628 1.8807853
1.6771255 1.2561162 1.5958478 1.3094044 1.4985147 1.4485737 1.4481589 1.9831718
1.9986585 1.3719405 1.7055777 2.3156412 1.6678009 1.5318633 2.2994773 1.7636851
1.1443002 1.9710822 1.3430897 1.1973914 1.6613036 1.6529436 1.3918977 2.4887092
1.397908 1.5840503 2.372565 2.0453668 1.3282006 1.7916694 1.8073406 1.5689287
1.3316767 1.4601226 2.0386317 1.3085642 1.3501704 2.1236682 1.2066717 1.7318345
00000000: 39c3 c73f eaca ec3f ee14 a03f a74f fd3f
00000010: 8dcb a53f 4cb6 d63f 35cd a73f 8d50 da3f
00000020: dc83 2d40 c0b3 2540 91e4 c63f 3206 ff3f
00000030: e75b b53f a487 0840 2567 e63f dcaa f03f
00000040: 3970 fb3f eec3 dd3f 003d f73f d292 eb3f
00000050: 0538 b23f f4c3 f93f ae3e c43f 93bd f03f
00000060: 0cac d63f 6ac8 a03f be44 cc3f 909a a73f
00000070: 54cf bf3f dd6a b93f 455d b93f 93d8 fd3f
00000080: 0bd4 ff3f bf9b af3f 5f50 da3f 7733 1440
00000090: 807a d53f 1914 c43f a32a 1340 6fc0 e13f
000000a0: 6e78 923f 6c4c fc3f 5dea ab3f 1f44 993f
000000b0: 99a5 d43f a893 d33f b429 b23f 0347 1f40
000000c0: a6ee b23f 29c2 ca3f 1bd8 1740 4ae7 0240
000000d0: 7a02 aa3f 6c55 e53f f056 e73f a8d2 c83f
000000e0: 6274 aa3f 4ce5 ba3f f178 0240 087f a73f
000000f0: 62d2 ac3f 2eea 0740 3874 9a3f c1ac dd3f
