models/rym_grid_c0_s64_e2_t4_r4/resnet_c0_g2_a0_l0_lr1e-03.pt (torch, 758389 bytes, 28 tensors)

stem.0.weight f4 [64, 64, 3, 3]
00000000: 4f5f b23e 1a87 4ebf 7c98 94bf b824 0fbf
00000010: 426f 0cbe 2cf2 28be 5059 36bf bdef 03c0
00000020: a6d3 44bf 6a05 08c0 45e3 8fc0 cb33 92c0
00000030: 724a 2ec0 36a5 7ac0 32bd 09c0 f368 ddbf
00000040: 1fdd 8ec0 e742 85c0 a03a ccbe 98dc 81bf
00000050: 7ff8 63c0 f1ef 82bf 0163 81c0 6189 dcbf
00000060: e3f6 9cbe fa1f 90be 9cb5 613f c7f9 cd3e
00000070: 14b5 913f 8bbb 9a3e 515b 8b3e 8e26 9fbe
00000080: 18a3 e33e 70df a53f 10e8 583f fa4f 21bf
00000090: 053c fc3d de7c 543f 6fa6 813f 3e0f d63f
000000a0: 3b50 f7bf 19a2 923f 1eee e23f 7281 d43f
000000b0: 6c2f a63f e938 e03e 572e 1b3f 0724 d4be
000000c0: 8caf c93e 9ae1 37bf 4490 7d3e 4cb9 58bf
000000d0: 2a59 4fbd 8166 7dbe 8260 863f 214a 1640
000000e0: 6b74 10bf 32bd f1be 19aa 743f c9cc be3e
000000f0: 5080 dc3d cd40 4240 6620 b23e 1117 0240
00000100: 22c7 6440 835c b23e ed97 5640 80eb e6be
00000110: 5280 603e 5bd1 8d40 95a4 9640 ac31 973f
00000120: ae48 95bf d789 7640 3d89 7bbf 859c 903f
00000130: 2bae 99bf 85cd 813e 952b 91bf a0c6 1640
00000140: fef3 723f ba46 9cbf e71d 93be 43b3 d1bf
00000150: 3607 a23f e215 36bf acbe 9f3f 0115 0840
00000160: d15a 2740 babb f23e a6f7 ffbf 05b9 df3f
00000170: 8dd3 6ebf a30b 03bf 1fd9 1dbf f1ba ce3f
00000180: 0ab0 44bf 286e 053f 9dcb 853f bbe4 d5be
00000190: db82 c0bf c7ce e9bc 6d99 e4be 1620 82bd
000001a0: 9b9f f43e 5375 7e3f f840 0c3f 3652 fb3e
000001b0: 4643 673e a959 023e 3740 e7be bc0b b0be
000001c0: afff 233e 7c5c 0fbf a560 14be 13a2 6ebd
000001d0: 5997 e7be 2caf 38bf 2a51 d9be 0fed 06bf
000001e0: 3b21 b4be 0efb 90be dcaa 96be 21ac 853e
000001f0: 0ccf 02bf 2adb 94bd 7eaf 9cbf 8a64 87bf
00000200: 2c14 2ebe f027 2bbf dbe1 d1be 9188 31bf
00000210: 4235 d3bc f9bd a93c 07dc 61bf 0221 3dbf
00000220: b01c 0abf afd4 46be e443 babf b83a 19bf
00000230: cc14 d0bf 3feb abbe 759a 29bf 4191 67bf
00000240: 92c1 abbe b484 9ebe d8b3 7abe 110c 23bd
00000250: e6a8 fcbe 98fc c6be ab80 84bf b022 4bbe
00000260: aedd 1bbf 1a8d c3bc c5a2 81bc 3dda d0be
00000270: e458 26be f7ce 81be 5be6 28bf a2db 04bd
00000280: e23c e9be 1c09 6fbe e552 123d c374 f0bc
00000290: c943 d2be c012 e4be 63c3 d1be 8050 25bf
000002a0: a753 95bf 0f3c 19bf 3e45 a73e 6b78 c33e
000002b0: 51c6 1e3f a2bd 48be c346 d13d 090a da3d
000002c0: a9e6 04bd 99d7 a13e 15fb a33e 58e8 1bbf
000002d0: 340f 5e3d 9e25 993f e3fc 61bf 3a17 103e
000002e0: bbe4 af3f 35b2 e93e c0af e63d 97d6 ac3c
000002f0: 59ee 4a3f c181 233f d639 5e3f e421 613e
00000300: 3824 dd3d 4639 973f b9b5 6e3d fab7 253f
00000310: 4afd cb3f d278 b13e ba6f dbbc 9f78 3c3e
00000320: c1c1 b2be 52a3 b7be 6e41 3b3f 3c93 01ba
00000330: e75c b73e c64a 153f 3bfe 9f3c 8d4a 0dbe
00000340: 10b9 37bd 4e7e f13d 6ac5 793d 5a3d ca3e
00000350: ce5d d33e d674 f9bd 837f bb3e 7838 f1be
00000360: c86f 8b3e 637d 003e b0b0 fdbe 6197 bdbe
00000370: 80e3 1a3e 8002 05bf 8f28 19be 98cd f5bd
00000380: 2b93 d4be b42f 39bf ebc1 b1be 271b 00bf
00000390: 87df b6be 7ad9 90be 59ad aebe 3d01 8c3e
000003a0: 35cc 00bf 5e41 f8bd 2f1d 1bbc e227 2a3e
000003b0: 6d81 c3be f249 f9bd cc38 2c3f dd8c fe3e
000003c0: 31c5 1cbf 2fb2 0b3e ffd9 a83e ae8a 88be
000003d0: 04fc 6dbf bb3c 503f 0c87 38be 33af 233f
000003e0: 0d08 e03e 9c99 1b3f 33d3 7d3c ed6d 153d
000003f0: d955 b53d a9df 9c3d 7f12 283d e36c 983e
0.3483834 -0.806749 -1.1609035 -0.55915403 -0.13714316 -0.16498631 -0.7123003 -2.0615075
-0.7688545 -2.1253304 -4.496493 -4.5688224 -2.7232938 -3.9163337 -2.1521726 -1.7297653
-4.4644923 -4.164417 -0.39888477 -1.0145445 -3.562042 -1.0229474 -4.0433354 -1.7229425
-0.3065711 -0.28149396 0.8816774 0.40229627 1.1383386 0.3022121 0.27218106 -0.31084102
0.44460368 1.2958813 0.847291 -0.6301266 0.12316135 0.8300303 1.0128917 1.6723402
-1.9321359 1.1455718 1.7728918 1.6602004 1.2983222 0.4379342 0.60617584 -0.41433737
0.39391744 -0.71828616 0.24762064 -0.8465774 -0.050622143 -0.24746133 1.0498202 2.3482745
-0.5642764 -0.47214657 0.9557205 0.37265614 0.10766661 3.0352051 0.34790343 2.0326579
3.574654 0.34836206 3.3530228 -0.45101547 0.2192395 4.431806 4.7075906 1.1812034
-1.1662805 3.852163 -0.98256284 1.1297766 -1.2006277 0.2535211 -1.1341425 2.355873
0.9490355 -1.2209084 -0.2873375 -1.6382831 1.2658451 -0.7112714 1.2480063 2.126282
2.614918 0.4740885 -1.9997451 1.7478338 -0.9329155 -0.5118963 -0.61659425 1.61508
-0.76831114 0.5212121 1.0452763 -0.4177607 -1.5039934 -0.028540982 -0.44648305 -0.06353776
0.4777802 0.9939777 0.54786634 0.4908616 0.22584257 0.12729515 -0.4516618 -0.34383953
0.16015504 -0.56000495 -0.14489992 -0.058260035 -0.45232657 -0.7214229 -0.42444736 -0.5270547
-0.35181603 -0.2831654 -0.2942723 0.26107886 -0.5109718 -0.07268365 -1.2241056 -1.0577557
-0.16999882 -0.66857815 -0.40992627 -0.6934901 -0.025782231 0.020720469 -0.8822636 -0.7387849
-0.53950024 -0.1941707 -1.4551969 -0.5985522 -1.6256347 -0.33577916 -0.6625131 -0.90456015
-0.3354612 -0.3096062 -0.24482667 -0.03980643 -0.4934761 -0.3886459 -1.0351766 -0.19837451
-0.6088513 -0.023870993 -0.015824685 -0.40791503 -0.16244847 -0.25353214 -0.65976495 -0.03243602
-0.45554262 -0.23343319 0.035723586 -0.029352551 -0.4106734 -0.44545555 -0.4096938 -0.6457596
-1.1666154 -0.5985727 0.32670015 0.3817781 0.62021357 -0.19603589 0.10218575 0.10646445
-0.032446537 0.316098 0.32027498 -0.60901403 0.054213718 1.1964605 -0.882765 0.1407136
1.3741678 0.45643774 0.112639904 0.021098418 0.7926994 0.63869864 0.86807 0.21985584
0.10797924 1.1814353 0.058278773 0.6473385 1.5936673 0.3466249 -0.026786674 0.18405388
-0.34913447 -0.3586679 0.7314671 -0.0004942899 0.35813066 0.5831722 0.019530406 -0.1379797
-0.044854224 0.11791669 0.060979284 0.39499933 0.41282505 -0.12180488 0.3662072 -0.47113395
0.2723372 0.12547831 -0.49548864 -0.37029555 0.15125847 -0.5195694 -0.14956878 -0.120021045
-0.4151853 -0.72338414 -0.3471826 -0.5004143 -0.35717413 -0.2829092 -0.3411663 0.27344695
-0.50311595 -0.12121843 -0.009467407 0.16616777 -0.38184682 -0.12172307 0.67274165 0.49716845
-0.6123839 0.1364219 0.32978818 -0.26668304 -0.9296267 0.8134267 -0.18020266 0.6393921
0.43756142 0.60781264 0.015492248 0.036481787 0.08854265 0.07659847 0.041033264 0.29770574

stem.1.weight f4 [64]
00000000: 25b8 443f 056e 1a3f a71c b63e 35d9 053f
00000010: faf5 193f dc97 c23e b3cc ce3e 2430 7b3f
00000020: b2c9 333f 467d b93e c54e 243f f1e0 a23e
00000030: edbb a83f 15b2 103f e864 e33e 106f 433f
00000040: a58c 693f c9e8 083f c7d3 f13e ff26 413f
00000050: f395 463f 4657 8d3f 8ec7 503f 458a 1a3f
00000060: d26f e63e e2ac 183f b701 193f b83b db3e
00000070: 893d 993e a314 d93e 9147 423f c23d f63e
00000080: 6b46 e93e 21b0 1a3f dadb 123f 1434 b53e
00000090: 5c0f 293f 113d bc3e eba5 263f e618 dc3e
000000a0: d4ac c83e dbc2 003f ad3b 653f e45a 653f
000000b0: 4fd1 b83e a9c9 3f3f bddd 3b3f 5a8a 123f
000000c0: b998 d63e 3f21 ae3e 7263 ac3e f2ac 623f
000000d0: 8464 db3e 59e8 db3e 6703 ec3e de1c a93e
000000e0: 30d8 033f bfd0 b73e 48a6 f83e a322 713e
000000f0: c8d5 4a3f 81e8 0a3f d989 933f dd9e d53e
0.7684348 0.60324126 0.35568735 0.52284557 0.60140955 0.38006485 0.40390548 0.9812033
0.7022964 0.3622839 0.6418269 0.31812242 1.318235 0.5652173 0.44412923 0.7634134
0.9123023 0.534802 0.47231886 0.7545013 0.77572554 1.1042259 0.81554496 0.6036723
0.45007187 0.596388 0.5976824 0.42819 0.2992976 0.42398557 0.7589045 0.48093992
0.45561537 0.60425 0.57366717 0.35391295 0.6603906 0.3676534 0.6509692 0.42987746
0.39194357 0.50297326 0.89544183 0.89591813 0.3609719 0.74917084 0.7338522 0.5724236
0.41913393 0.3400974 0.3366962 0.88545144 0.42850125 0.42950705 0.46096346 0.33029836
0.5150175 0.35901448 0.48564363 0.23548369 0.79232454 0.5426102 1.1526443 0.41722766

stem.1.bias f4 [64]
00000000: 95ac 20be d495 b0be c666 60bd 7315 15be
00000010: cbdd fb3d 365f 59be 3d54 c13c 4252 5ebf
00000020: f652 44be 65d2 0b3e e79a 06be 97ff 923d
00000030: a1a4 65bf f945 1abf 6579 13be ccba d9be
00000040: 13db efbe f871 8cbe d4df ccbe 193d 26be
00000050: 8860 43bf cebc dcbe b39a 3cbf 69c2 97be
00000060: 2c37 5bbe bb3a e3be bce9 89be 5a11 a4bd
00000070: 9d23 cbbc 0332 92bd ce60 07bf 11ce 863d
00000080: 26dc 84be 10ec 8cbe 43ea afbe 2715 063e
00000090: 63ac 26be ec4e e63d 5aa3 02bf fe28 debd
000000a0: cd46 c8bd 276d b5be 7958 58bf 6f0d bcbe
000000b0: c181 8ebe 234f 09bf 4605 b0be 1f3d 15be
000000c0: f95b 92bd 384d 13be 3a7a 1ebd f1a8 75be
000000d0: 0b62 d3bd 4a70 343e 3e91 3cbd d638 c33d
000000e0: f55c 88be 5c25 6ebd b2c0 1abe 3fbb c23d
000000f0: c0f2 f1be 3b6e aa3c b4dd 35bf 8452 0b3c
-0.15690835 -0.3448931 -0.054785512 -0.14558963 0.12298163 -0.21227726 0.023599738 -0.86844265
-0.19172272 0.13654478 -0.13145028 0.07177656 -0.8970433 -0.6026302 -0.14401777 -0.42525327
-0.46846828 -0.274307 -0.40014517 -0.16234244 -0.7631917 -0.43112797 -0.7367355 -0.2964051
-0.21407765 -0.44380745 -0.26936138 -0.08011122 -0.024797255 -0.07138445 -0.5288209 0.06582273
-0.2594921 -0.2752385 -0.34358415 0.13094006 -0.16276698 0.11245522 -0.51030505 -0.108476624
-0.09779129 -0.3543484 -0.8451 -0.36729 -0.2783337 -0.5363638 -0.34379023 -0.14574097
-0.07146449 -0.14384925 -0.038690783 -0.23990227 -0.103214346 0.1762096 -0.04603695 0.09532325
-0.2663342 -0.058141097 -0.1511257 0.095083706 -0.47255516 0.020804515 -0.7104142 0.00850356

stem.1.running_mean f4 [64]
00000000: 805e 36c1 a0f7 b8c0 a1da 5140 e004 66c0
00000010: 3244 74c1 00ec be40 a3c4 c3bf 20b2 43bf
00000020: 3179 24c1 2074 80bf 5b69 ebc0 f29c e8c0
00000030: 64eb d13e 18f6 f840 278a 6dc0 998a dcc0
00000040: f42a 9fc1 901f 83bf 576e 4f3f 8952 36c1
00000050: 5b1d 95bf 9b84 5cc1 d839 0fc1 3fab 12c1
00000060: c329 c9c0 a14e 14c1 0ed7 0ac1 cc43 aac0
00000070: 0a3d 8abf 9a40 85c0 5061 a8c0 c9e7 b4c0
00000080: 69c7 1ac0 9332 f7c0 b068 82c0 2940 d3c0
00000090: 2294 f4c0 9732 edc0 971e c5c0 89b6 17c0
000000a0: 4e5b 17c1 ccf2 2fc0 ae66 c7c0 1353 82c1
000000b0: 4c05 1ec0 45d4 2bc0 deb3 f9c0 fd9c 573f
000000c0: 44e5 c43f 7709 6340 3925 74c0 9cba 2ac1
000000d0: 3783 1f3f 636b 8fc0 bd92 9840 c1b5 fac0
000000e0: f4ab 04c1 ae90 93c0 fee3 b340 0eb7 d040
000000f0: d05e 19c1 39d8 56c1 032c b3bf 99d9 2e40
-11.398071 -5.7802277 3.278969 -3.5940475 -15.266649 5.9663086 -1.5294384 -0.7644367
-10.279588 -1.0035439 -7.356611 -7.2691584 0.409999 7.7800407 -3.7115571 -6.8919187
-19.895973 -1.0244007 0.8102774 -11.39515 -1.1649584 -13.782374 -8.951622 -9.166808
-6.286348 -9.2691965 -8.677504 -5.320776 -1.0799878 -4.164136 -5.261879 -5.653294
-2.418421 -7.7249236 -4.075279 -6.601582 -7.6430826 -7.4124255 -6.159984 -2.370516
-9.459791 -2.7491941 -6.231284 -16.290564 -2.4690733 -2.684831 -7.8032064 0.8422392
1.5382466 3.5474527 -3.814772 -10.670559 0.6230959 -4.4818587 4.7679124 -7.8346868
-8.291981 -4.611411 5.621581 6.5223455 -9.585648 -13.427789 -1.3997806 2.732031

stem.1.running_var f4 [64]
00000000: b23d 2b42 96c1 1b42 e3fc b341 3425 b842
00000010: bf58 7242 e912 1642 bccc 1a42 790f 1142
00000020: 3c52 0342 d0e3 c841 cd27 6c42 74bb 1242
00000030: ff31 a341 dc9f 4542 d598 db41 eea2 db41
00000040: ba3c 6c42 15cd 5742 4f17 1442 3a86 6742
00000050: 9966 c241 1d5a 1642 14f7 1442 4cc4 1942
00000060: 6f7d 2242 a295 5b42 5063 6442 93bf f841
00000070: 7a67 fe41 c99c 2b42 31fd 0c42 2269 4a42
00000080: aa37 3b42 1331 0b42 f83a 3642 2cf2 ef41
00000090: 4501 d241 e5e2 d641 7b7f 1b42 f4c0 0442
000000a0: 2caa 3742 2957 1e42 57eb 6142 2560 1742
000000b0: 20ec f641 156e 0542 8ac2 f141 e306 a041
000000c0: ef54 3842 9eec 0642 21f2 fe41 047d f841
000000d0: b730 3342 a5a1 2a42 eb7d 6942 cc76 2342
000000e0: f84a e542 3426 ee41 f550 4b42 abf5 f341
000000f0: 23d7 3e42 874c 8042 2828 9841 5ca8 5b42
42.81025 38.93905 22.49848 92.07266 60.586666 37.518467 38.699936 36.26511
32.830307 25.111237 59.038868 36.68306 20.399412 49.406113 27.449625 27.454556
59.059303 53.950275 37.022762 57.88108 24.300097 37.588 37.241287 38.441696
40.622494 54.896126 57.096985 31.093542 31.800526 42.90311 35.247257 50.60267
46.80436 34.797924 45.557587 29.993248 26.25062 26.860788 38.874493 33.18843
45.916183 39.585117 56.479824 37.84389 30.865295 33.357502 30.21999 20.003363
46.082943 33.73107 31.868227 31.061043 44.797573 42.657856 58.372967 40.866013
114.64642 29.768654 50.82906 30.494955 47.710094 64.14947 19.019608 54.914413

blocks.0.conv1.weight f4 [64, 64, 3, 3]
00000000: 850b d9be d56b 59bf 97ea 8c3e 634e ae3e
00000010: 37f4 1b3f a162 22bf bbe3 2ebe 1aef 1bbd
00000020: d5ce 01bf fe19 383d b615 343e 2219 b53e
00000030: 41ee 9c3d eec5 373e 2ea6 dbbe 8092 dcbe
00000040: 0728 62bf 9ee9 9dbf 2895 6abe 14c7 733f
00000050: 1633 8dbe 01a3 363f f743 48bd 426a 5ebf
00000060: 048a 9e3e 5240 533f 9dc9 59bd 80e6 c9bd
00000070: 0659 3a3c 294d 383f e063 2bbf 20f6 443f
00000080: 2574 133f 109c ecbd 83c3 a8bc 86ae 4d3f
00000090: 558f 5bbf cd46 513f f3de 433f bf77 aabe
000000a0: 68d9 253f 56fc 16bd a783 94bf c38e 4ebe
000000b0: 9832 c8be d646 083f a17e 62bf 2348 19bf
000000c0: 7b01 02be 5cff 19bf 4e09 693e 21e4 2dbf
000000d0: 3123 55bf 776f ae3d 3fef a1be f98c 29bf
000000e0: 8b92 29bf 673b 663f 996c a13e 4c03 82be
000000f0: dba7 c63e c1da 483f 5816 3abf d208 7b3f
00000100: 8bc2 76be f94f bdbe 367a 01c0 776f 503f
00000110: e17e 2ebe 14ca a23e 8bdb c53e 9fd7 1bbf
00000120: f359 943e 1826 c63e f9a0 9ebf 268a 00be
00000130: 009e 2b3f 6c47 843f 7993 f1be 8c45 ce3d
00000140: bb41 b93e 7b3c 17bf 6776 d43d a30e 07bf
00000150: 499f a23c 6c24 d1be de6c 453f c2d5 5b3d
00000160: 834a 15bc 7310 5dbf 7038 063e e5ba 243f
00000170: 5848 b4be 6e55 87be 6ced 843f 3c47 85be
00000180: d3ff 8ebe 0cd4 1abd 86bb 633e 1da6 ac3f
00000190: a01d 7c3f 0814 e33f 5dac 72bc 2f03 083e
000001a0: 1bab ccbe bec1 81bd 581a f1be 33bd 0f3e
000001b0: 25a8 2dbd 2a3e 913f 674c 0fbf 4f62 013f
000001c0: 92be 26bf 3a2e 143f b689 eebe 185b 9b3d
000001d0: fe9e 29bf a29e 403f a41c bc3f f11a 473f
000001e0: 4788 52bf b3f8 39bf b692 e1be 848d 743f
000001f0: 5c7d 733f 2e05 403d 9069 72bf a4b9 3a3d
00000200: ba99 933e 3deb 15bf 6a92 c93e 0b15 c3be
00000210: b9bd 193e f910 ee3e f0fb 93be 82fd 12bf
00000220: 2b4d 06bf 88fe 6fbe 7340 843e 6e90 043b
00000230: e4f4 f63e 2d79 45be d271 383f 3f62 32bf
00000240: 98ba 183e 945d 443f b966 543f ed29 843f
00000250: 361f 113f 4953 803e 2d61 973e 29b8 08be
00000260: c530 3abf 828d 7c3f 3409 d2be c977 a43f
00000270: eff5 01be a776 99be 1d94 69bf 30a4 013e
00000280: 3659 e73e 0168 9c3e 14fb fa3e 41de 56bf
00000290: 89d6 22c0 ce6a c6be 7a0d 05bf 2118 9ebf
000002a0: 0e3a 323f 2818 9ebe 3a65 3c3f 24ad b93e
000002b0: 291d f1bb 7ea3 7b3e 19e5 b43d 3ab8 5e3d
000002c0: f8dc 73bd 2149 c6bd f538 a4bf a712 cfbf
000002d0: 9e36 e03e 57a6 6f3e d94b d0bf 625c 343f
000002e0: ea83 2abe f47c 113f 581d 0e3f 535b 413f
000002f0: 0e1f d63d 3623 35bf 09fe 963d 0e7a 58be
00000300: 0f7e 4ebd 8952 83be cc52 45bf 6ddf 62bf
00000310: bd0c 2fbf 1082 fb3e eb68 35bc 36f9 f5be
00000320: 615b 29bf eb7a 943f 80ce fc3e da19 38bd
00000330: 4d45 c8bd 8043 2a3e c6ca 823f 81f4 003f
00000340: 9bed 843f ee53 e13e a8bb 99bc 91d7 803d
00000350: 3610 9f3f a609 003d b023 babf e3fa 803e
00000360: b96a 203e a43f 81bf 141d 883f d566 323f
00000370: 0a77 8fbf 9449 81bb 5d79 70bf 93e3 82bf
00000380: 80be a73e 1dd9 8d3f 8d51 203f d8ec 0b3e
00000390: e0e4 0b3f 7c61 643f 05c7 00bf 4cfe e23d
000003a0: 89bc 84be ce26 c63d 11c1 4ebd 58d5 943e
000003b0: 21eb aabf abfa 143f 8c77 7bbe cbf3 1fbe
000003c0: fae5 813e 0abd 1c3e 413d 96bd da2e 6ebf
000003d0: fbee 90be dc8c 973f f297 c2be da4b 77bf
000003e0: d70c c83f 3195 a5bf b7da 7abf 7a10 133f
000003f0: 6660 0c3d 6324 93be 626b 9bbe 7ec7 a43e
-0.423916 -0.84930164 0.27522728 0.3404418 0.6091952 -0.63431746 -0.1707906 -0.038069822
-0.50706226 0.044946663 0.17586407 0.35370737 0.07662631 0.17946598 -0.42900223 -0.4308052
-0.88342327 -1.2336919 -0.22908461 0.95225644 -0.27578038 0.71342474 -0.04889294 -0.86880887
0.30964673 0.8252002 -0.05317079 -0.098584175 0.011373764 0.7199274 -0.6694927 0.76938057
0.575991 -0.11553204 -0.02060104 0.80344427 -0.8576558 0.8174866 0.7651207 -0.33294484
0.6478486 -0.03686174 -1.1602677 -0.20171647 -0.391011 0.5323309 -0.8847447 -0.59875697
-0.12695877 -0.6015527 0.22757456 -0.6792622 -0.8325682 0.08517354 -0.31627843 -0.6623073
-0.6623923 0.8993439 0.31528166 -0.2539314 0.3879994 0.7845879 -0.72690344 0.98060334
-0.2409765 -0.36975077 -2.0230842 0.8142008 -0.17040588 0.31794798 0.3864406 -0.60875887
0.28974876 0.38700938 -1.2392875 -0.125527 0.67037964 1.0334296 -0.47182825 0.10071859
0.3618296 -0.5907666 0.10374146 -0.5275671 0.019851344 -0.408481 0.77119243 0.053670652
-0.009112003 -0.86353225 0.13107467 0.6434768 -0.35211444 -0.26432365 1.0384955 -0.2603091
-0.27929553 -0.03779988 0.22239503 1.3488194 0.98482704 1.7740488 -0.014811602 0.13282464
-0.39974293 -0.063357815 -0.4709041 0.14037018 -0.042396683 1.1347096 -0.55975956 0.5054063
-0.6513454 0.57883036 -0.4658944 0.07585734 -0.6625823 0.75242054 1.469624 0.77775484
-0.8223919 -0.7264511 -0.44057244 0.95528436 0.9511316 0.04687994 -0.94692326 0.045587197
0.28828222 -0.5856207 0.39369518 -0.38101992 0.1501378 0.46497324 -0.2890315 -0.5741807
-0.524615 -0.2343694 0.2583042 0.0020227688 0.48233712 -0.19284506 0.72048676 -0.6968116
0.1491493 0.7670529 0.8296924 1.0325295 0.5668825 0.25063542 0.29566327 -0.13351502
-0.72730666 0.98653424 -0.41022646 1.2849056 -0.12691472 -0.29973337 -0.9124163 0.12660289
0.4518525 0.305481 0.49019682 -0.8393288 -2.5443442 -0.3875336 -0.5197369 -1.2351114
0.69619834 -0.30877805 0.7359196 0.36264908 -0.0073582125 0.24574086 0.088327594 0.05437491
-0.059536904 -0.09681917 -1.2829882 -1.6177567 0.4379167 0.23403297 -1.6273147 0.70453465
-0.16651884 0.5683129 0.55513525 0.75529975 0.10455142 -0.7075685 0.07372672 -0.2114031
-0.050413188 -0.25648907 -0.77079463 -0.8862217 -0.6837881 0.49122667 -0.011072378 -0.48041695
-0.6615506 1.1600012 0.49376297 -0.04494653 -0.09778843 0.16627312 1.0218132 0.50373083
1.0385011 0.44009346 -0.01876624 0.06291116 1.2426822 0.0312592 -1.4542141 0.2519141
0.15665711 -1.0097547 1.0633874 0.6968816 -1.1208203 -0.003945539 -0.93935186 -1.02257
0.32762527 1.1081883 0.62624437 0.13664567 0.5464611 0.8921125 -0.5030368 0.110836595
-0.2592509 0.0967537 -0.05047709 0.29069018 -1.3353006 0.5819499 -0.24557322 -0.15620343
0.2537077 0.15306488 -0.07335902 -0.9304024 -0.28307328 1.1839862 -0.3800655 -0.96600115
1.5628918 -1.2936155 -0.9798998 0.57447016 0.03427162 -0.28738698 -0.30355364 0.3218345

blocks.0.bn1.weight f4 [64]
00000000: bb5b 923f e91b 893f 975e 9e3f 0a7b b73f
00000010: 55c7 473f 008d 683f 75a5 a03f 49fe 973f
00000020: 8102 a83f 3371 9b3f b4f8 b73f 60b5 9e3f
00000030: 538e e33f 77ad 863f 1a9f 533f fa0d 983f
00000040: 2785 a83f 14ec bd3f 8e39 693f 4023 a73f
00000050: 3176 943f c68b 953f 998c 853f 2bbd a23f
00000060: 153e 953f 1a07 9b3f e3ef a83f 9eca 953f
00000070: 5a02 a43f 71a4 3d3f 0a02 ad3f cc23 ba3f
00000080: 340d 903f baec 8b3f 4841 803f e7b1 883f
00000090: 94ff 803f b20c 8e3f 5dde 5a3f 2360 9b3f
000000a0: 34e9 a53f aa84 a93f 7ae7 823f db40 5a3f
000000b0: 581c 883f c6fd 8e3f 1bd2 c43f aae6 a63f
000000c0: edbf 973f cdf8 9b3f 8bd9 4c3f ca0d 763f
000000d0: d701 ac3f 523a 8d3f 99ae 523f 9524 753f
000000e0: 8807 843f 45fa 8d3f f360 853f b66f a23f
000000f0: d06b a93f fe0c b33f 063a bb3f e6a1 8d3f
1.1434244 1.0711643 1.2372617 1.4334424 0.7803853 0.9084015 1.2550493 1.1874477
1.3125764 1.2143921 1.4372773 1.2399101 1.7777809 1.0521687 0.82664645 1.1879265
1.3165635 1.483767 0.91103446 1.3057632 1.1598569 1.168328 1.0433532 1.271398
1.1659571 1.2111542 1.3198208 1.1702459 1.2813218 0.7407904 1.3516247 1.4542174
1.1254029 1.0931618 1.0019922 1.0679291 1.0077996 1.1097624 0.8549555 1.2138714
1.2961793 1.3243611 1.0226891 0.8525521 1.063365 1.1171196 1.5376619 1.3039143
1.1855446 1.2185303 0.80019444 0.9611479 1.3438061 1.1033423 0.82297665 0.95758945
1.0314798 1.1092001 1.0420212 1.2690341 1.3236027 1.398834 1.4627082 1.1065032

blocks.0.bn1.bias f4 [64]
00000000: d833 14bf 6482 11bf 0492 55bf 0156 bfbe
00000010: 2c43 19bf 2b65 33bf 87a4 09bf fd55 60bf
00000020: 2b53 72bf 407d 99be 0121 76bf d07a 76bf
00000030: 467d 81bf bf35 8cbe ffc1 e23d 4909 29bf
00000040: 3029 63bf f17e 71bf e308 bfbe 4b0d 08bf
00000050: 630f 5bbf 70b3 1dbf 80a1 f9be 92c5 58bf
00000060: a02f 34bf 1aa3 22bf f4f0 3fbf fbc4 84bf
00000070: 2b0c 98bf 5f51 613e 1d43 7bbf afd0 9dbf
00000080: 7cdc 7fbe cb68 1ebf 384b 2ebe 0c14 17bf
00000090: ebc0 0bbf cfd9 09bf f129 c9be cd4f 08bf
000000a0: d64f 05bf fdd1 82bf 10ba 28be 8894 91be
000000b0: a787 18bf 49a4 1fbf aa23 24bf c8e4 4cbf
000000c0: 29e5 28bf 8437 d6be ad85 8abd 958e 1ebf
000000d0: bd25 78bf 2b45 13bf 1771 343c 1c85 83be
000000e0: f962 e7be 89a1 28bf 466a e7be f3af 9dbf
000000f0: 657d 27bf 4c4f 8bbf 0ba6 9cbf 6a81 11bf
-0.5789161 -0.56839585 -0.8342593 -0.37370303 -0.5986812 -0.70076245 -0.53766674 -0.8763121
-0.94658154 -0.2997837 -0.9614411 -0.96281147 -1.0116355 -0.27384755 0.11072158 -0.66029793
-0.8873472 -0.9433432 -0.37311468 -0.53145283 -0.85570353 -0.61601925 -0.48756027 -0.8467647
-0.7038517 -0.63530123 -0.7497704 -1.0372614 -1.1878713 0.22003697 -0.9814928 -1.232931
-0.24986452 -0.6187865 -0.17020881 -0.59014964 -0.54591244 -0.53847975 -0.3928981 -0.53246766
-0.52074945 -1.0220333 -0.16477227 -0.28433633 -0.5958199 -0.62360054 -0.6411692 -0.8003659
-0.6597467 -0.4183923 -0.06763778 -0.6193631 -0.96932584 -0.57527417 0.011013291 -0.25687492
-0.45192698 -0.65871483 -0.45198268 -1.231932 -0.6542571 -1.0883574 -1.2238172 -0.56838095

blocks.0.bn1.running_mean f4 [64]
00000000: 7355 2bc0 be4f 66c0 1ad5 0a40 f82c e4c0
00000010: ea89 b43c f0e9 283e 32e2 69c0 dc95 d13c
00000020: 37ec 463f 6fea 69c0 c384 a4c0 7184 e6bf
00000030: 67aa 99c0 6579 4ac0 169e 5b40 23cf 1cc0
00000040: 1ca6 14c0 2321 60c0 6a55 72bf ca0e 5c3e
00000050: e913 0cc0 8db8 6a3f f1b0 743f ee39 00c0
00000060: 2605 10c0 85bf 64c0 e644 93bf 3905 9c3e
00000070: 63b8 aac0 b929 2ac0 6453 55c0 9199 e7bf
00000080: 9de0 08c1 8ce1 acc0 4af7 9ec0 e51c 90bf
00000090: 6aae 87c0 9151 39c0 1a81 ecbe 3838 5cc0
000000a0: fe34 88c0 f7da 0ec0 057a 1540 44b3 6e3f
000000b0: 6c93 2bc1 c79f 8ec0 f22e abc0 011e 52c0
000000c0: 5cc4 3bc0 42a4 5ec0 f6b7 96bf f6e4 8c3f
000000d0: 2335 51c0 1147 95bf 090b 46bf dd33 52c0
000000e0: 8c91 fdbf ea9f 1340 055d 42c0 3238 9f3f
000000f0: 624f 99c0 8759 cec0 1b62 8ec0 1ca7 b9bf
-2.6770904 -3.598617 2.1692567 -7.1304893 0.022038419 0.1649549 -3.6544309 0.025584154
0.77704185 -3.6549337 -5.1412063 -1.8009168 -4.802051 -3.1636593 3.4315238 -2.4501426
-2.3226385 -3.5020225 -0.9466158 0.21490017 -2.1887152 0.9168785 0.9558249 -2.0035357
-2.2503142 -3.5741894 -1.1505401 0.30472735 -5.335008 -2.6587965 -3.3332148 -1.809374
-8.554837 -5.4025326 -4.9676867 -1.1258818 -4.240041 -2.8956034 -0.46192247 -3.4409313
-4.256469 -2.2321146 2.3355725 0.9324229 -10.723492 -4.457004 -5.3494806 -3.2830813
-2.9338598 -3.4787755 -1.177489 1.1007373 -3.2688682 -1.1662313 -0.7736059 -3.2844155
-1.9810042 2.3066354 -3.0369275 1.2439024 -4.7909403 -6.4484286 -4.449476 -1.4504123

blocks.0.bn1.running_var f4 [64]
00000000: b746 fb41 e150 0142 45e7 0442 70f7 5242
00000010: d323 a541 d230 0542 439f 0342 6361 2d42
00000020: 88fe 4142 85f4 0642 444e f241 476f fa41
00000030: d3ca 2c42 11f9 1042 8500 0042 62c5 e741
00000040: b60b 1a42 a3f3 fb41 e301 c741 6748 4642
00000050: 0d27 c941 5410 fa41 5d51 e641 9c62 e241
00000060: 1284 f341 d580 0542 0fd8 ed41 fafb d241
00000070: 34fa 0f42 2722 0142 949b 0342 e035 0142
00000080: eb62 1a42 05e1 b141 44e7 f041 fdaf d041
00000090: 5447 c941 3776 0c42 7261 f741 dab9 ee41
000000a0: 841b 3b42 20bc 0842 a347 3242 48a2 de41
000000b0: 7cdb e441 fdb6 cb41 5958 5942 fb79 da41
000000c0: 6ea3 0542 875a 0c42 621c b441 801e e241
000000d0: 38c6 0a42 7cb6 ce41 088e 0542 30a3 eb41
000000e0: 7e56 0a42 1930 0b42 493a c741 2af4 cc41
000000f0: 9d9c de41 2af2 1942 416d 0642 83db b341
31.409529 32.328983 33.22585 52.74164 20.642492 33.297676 32.90553 43.345104
48.498566 33.73879 30.288216 31.304335 43.19807 36.24323 32.000507 28.971378
38.511436 31.493963 24.875921 49.570705 25.144068 31.257973 28.789728 28.29815
30.439487 33.375813 29.730497 26.373035 35.99434 32.28335 32.90193 32.302612
38.5966 22.234873 30.112923 26.085932 25.159828 35.115444 30.92258 29.840748
46.77687 34.183716 44.569958 27.829239 28.60717 25.46435 54.336277 27.30956
33.4096 35.088406 22.513859 28.264893 34.693573 25.839104 33.388702 29.454681
34.584465 34.79697 24.90346 25.61922 27.826471 38.48649 33.606693 22.482183

blocks.0.conv2.weight f4 [64, 64, 3, 3]
00000000: cbfa ccbd e1d6 0e3e b3e0 a63e 081a 813e
00000010: fd8c 273f 5e0f 273f ffc9 983f a544 05bf
00000020: db95 91be f6c0 c4be 145c 453f 429d fa3a
00000030: d381 bbbe 5b05 1c3f 2663 e5be eeb7 27bf
00000040: b08f 183f 81f7 4bbf 8a15 0d3f a5e7 e4bf
00000050: 3f4a 473f 4ca7 ad3e ffd0 623f 5bd7 5bbe
00000060: 4628 5fbf efae a1be 9818 14bf 8b3e 4dbd
00000070: 0924 9bbe b28b 073e 862d 2abf 8698 e9bd
00000080: efdc 50bf 775d 0a3f e786 0bbf 47e0 66bf
00000090: 4d1c 14bf b807 e13e 9cc5 b43e c2f4 263e
000000a0: eaa3 efbe 69de e33e c86f d8be 81a7 64be
000000b0: 8a9f b73e 3388 ad3d e3a3 29bf d072 0cbf
000000c0: f88e 4fbe 8f43 99be 6d95 523e bac3 4e3f
000000d0: 0871 153f b303 953e 6a9c aabf ed8e 64be
000000e0: 1cba 5ebf 8894 443e 5e41 81be 4986 113f
000000f0: f8d3 dbbe 7721 00bf 2742 ca3e 2430 b83d
00000100: eb38 11bf f660 7c3f 3033 743d dd0b cb3e
00000110: 7c37 8abe 52d6 e7be 0817 d0bc ada4 86bd
00000120: bb60 b13e 157f 5a3f da4e 5abf 8e93 703d
00000130: 8d92 903e 8721 533f 8151 14bf 7cb7 16bf
00000140: 2ab9 8c3e 7f90 913d 7575 b5be 6809 c33e
00000150: 67fc 6f3f 99ad 28bf ca73 05be 6d1c 3a3f
00000160: a016 afbf 1493 c73e cc6c c03d 56ef 7b3e
00000170: c9ea 18be fdf4 b33f 8c5d 9dbe 5337 27bf
00000180: 4325 503f a386 373f 64d2 8d3d 885d 39be
00000190: 51d6 64bf 49fc 943e f3a6 6b3f 756f 6abf
000001a0: 3d66 3abf a05b 34be e12d 8abf a55b c23e
000001b0: 0d2e 8ebf 8947 8abe 3fab d9be c46d 633f
000001c0: 9d7e dabf aa32 92bf 7d37 043d 433f 373f
000001d0: 3ea4 493d 33aa c83e 0fc3 07be ce8c d4bd
000001e0: 6a41 c4bf 17b7 463f c91d ccbe 3303 283f
000001f0: b8b7 8b3d 2e52 96be b2ed 8c3e c19d 05bf
00000200: f4c8 5fbd 912b aa3e 64f0 72bf 5c7b 11be
00000210: aa05 e93e eee9 bbbd 4d4e 043d 4d8b a9be
00000220: 52c5 76bf 575c 6d3e fbfe 47bf 813e 573f
00000230: 9772 ae3e f914 e5be ca3e 093f 82dc b1bf
00000240: e8aa 6dbd 7a02 eb3e 6b73 4c3f 8f01 5c3f
00000250: 63bf 2d3f a0f1 4abf 5b59 e7be 9618 6cbf
00000260: 9c10 053f 26aa c23f 8d2f 01bd 905a 13be
00000270: 886c 8b3b db61 67bf cdb1 883f eabc a83f
00000280: 08f0 1d3f 860c bebe b842 26bf 9529 eebe
00000290: 4b95 3abe 2396 62be b7ca b53d 15bc 5cbe
000002a0: ce2d 2f3f 30ef ffbe d4e4 a63e 5512 8eb9
000002b0: c5c4 5fbe 1f5a bbbf 0a71 09bf c1de 9bbe
000002c0: f801 fabe 8210 c2be ffb6 47bf f62e d3bf
000002d0: a462 c23e 86f7 b23f 3ae8 f33e 33ff 4bbe
000002e0: 6a42 013f b2f3 4b3f da1a 63bf 4da7 f6be
000002f0: f72b f9be 827f 7bbf 8fdb 313f 5c6d 8e3f
00000300: e67d 5fbd bfca 36bf 741f 88bf e2db 28bf
00000310: 7c0c acbe a744 1ebe bfdf 61bf 612b 4bbf
00000320: 3473 fdbe c446 62bf b4f3 023f 6522 873e
00000330: ad5d 2dbf a60b e3be 32fa 783a 738c 023e
00000340: fb85 423f 1452 d3bf f49c 8e3e 4227 bebf
00000350: 2823 b7be fb87 cebe 1f1e 8fbf bcaa c8bd
00000360: 3215 c23d 2bc4 633e 0401 6c3f 9a24 ab3e
00000370: 050c e63e 659f 9cbf cffc 28bf ce1d 05bf
00000380: e294 b8bd 0eb9 9a3e 0162 dcbe 5d4c 92bf
00000390: a3d5 a63e 7074 373f 54bc 2d3f 3b2a c9bd
000003a0: 8edd ab3e 6cf8 de3e 4ef3 11bf 4778 8abe
000003b0: faec af3f 3359 bf3e cbc1 78bf ac9b 5bbe
000003c0: 8179 3ebf ee53 973d ee7d 6f3e 787d 443e
000003d0: 9a68 b6be 5736 d5bd dfe1 16be f2d6 863f
000003e0: 11bd 4abe cc2a 2ebf 8ca0 7c3c a2c8 7bbf
000003f0: 0026 ad3e fd4f c83f c977 d6bf 3e16 c8bf
-0.100087725 0.13949157 0.32593307 0.25215173 0.65449506 0.65257823 1.1936644 -0.5205787
-0.28434643 -0.38428468 0.77093625 0.0019120353 -0.36622486 0.6094567 -0.44802207 -0.6551503
0.5959425 -0.79674536 0.5511099 -1.7883192 0.77847666 0.339167 0.8860015 -0.2146887
-0.8717083 -0.31578776 -0.5785003 -0.050108474 -0.3030093 0.13236883 -0.66475713 -0.11406045
-0.8158712 0.54048866 -0.5450272 -0.9018597 -0.57855684 0.439512 0.35307014 0.16304305
-0.46804744 0.44505623 -0.42272782 -0.22329523 0.35863906 0.084732436 -0.66265696 -0.5486269
-0.20269382 -0.29934356 0.20564814 0.80767405 0.58375597 0.29104385 -1.3328984 -0.22320147
-0.8700273 0.19197285 -0.25245184 0.5684553 -0.42935157 -0.50051063 0.39503595 0.08993557
-0.56727475 0.9858545 0.05961913 0.39657488 -0.26995456 -0.452807 -0.025401607 -0.06574378
0.34644112 0.8535016 -0.8527657 0.05873447 0.2823681 0.82473034 -0.57936865 -0.58873725
0.2748502 0.071076386 -0.35441175 0.38093114 0.9374451 -0.6588989 -0.13032451 0.72699624
-1.367878 0.389794 0.09395751 0.24603018 -0.14933313 1.405914 -0.30735433 -0.65318793
0.81306857 0.71689814 0.069248945 -0.18102086 -0.8938952 0.29098728 0.9205162 -0.9157632
-0.72812253 -0.17613077 -1.0795251 0.37960544 -1.1107804 -0.27007702 -0.42513463 0.88839364
-1.7069889 -1.1421711 0.03227948 0.71580905 0.0492289 0.39192352 -0.13258003 -0.10378419
-1.5332463 0.7762312 -0.39866474 0.6562988 0.06822151 -0.29359573 0.27525097 -0.5219384
-0.054635003 0.33236364 -0.94898057 -0.14207214 0.45512134 -0.09175478 0.032301236 -0.3311409
-0.96394837 0.23179756 -0.78123444 0.8407975 0.340718 -0.44742563 0.53611434 -1.3895419
-0.058024317 0.45900327 0.79863614 0.8593988 0.6787016 -0.7927494 -0.4518536 -0.92225015
0.5197847 1.5208175 -0.03153949 -0.14390016 0.0042548813 -0.9038369 1.067926 1.3182652
0.61694384 -0.3711893 -0.64945555 -0.465161 -0.18221013 -0.22127585 0.088765554 -0.21556123
0.6842927 -0.49987173 0.32596457 -0.0002709801 -0.21852405 -1.4636878 -0.5368811 -0.30443385
-0.48829627 -0.3790322 -0.78013605 -1.6498706 0.37965882 1.3981788 0.47638112 -0.1992157
0.50491965 0.79668725 -0.8871285 -0.48174515 -0.48666355 -0.98241436 0.69475645 1.1127124
-0.054563425 -0.71403116 -1.0634599 -0.65960515 -0.33603275 -0.15455876 -0.88232034 -0.79363066
-0.49501956 -0.8838923 0.5115311 0.26393428 -0.6772106 -0.44344825 0.0009497731 0.1274889
0.7598569 -1.6509423 0.2785412 -1.485573 -0.3576901 -0.4033812 -1.1181067 -0.0979819
0.09476699 0.22242801 0.9218905 0.33426362 0.44931045 -1.2236143 -0.66010755 -0.51998603
-0.09012772 0.3021931 -0.4304352 -1.1429554 0.32584867 0.71662045 0.6786549 -0.09822508
0.3356747 0.43548906 -0.5701188 -0.2704489 1.3744195 0.3737274 -0.97170705 -0.21446103
-0.7440415 0.07389055 0.23387882 0.19188488 -0.3562668 -0.10410755 -0.147346 1.0534346
-0.19798686 -0.6803405 0.015419137 -0.98353016 0.33818054 1.564941 -1.6755306 -1.5631788

blocks.0.bn2.weight f4 [64]
00000000: b8b5 a83f 2f90 9c3f 1030 8b3f b17c 6d3f
00000010: 1dad 753f 8882 833f f0d9 993f 3723 993f
00000020: e336 cb3f 1cbb a33f 8598 a33f a106 943f
00000030: f6ba be3f 2240 943f 398a 9d3f b471 a53f
00000040: 42dc 893f 9d07 933f a06c 943f 9279 973f
00000050: 0733 8a3f 603c 9c3f d086 a03f 3c8e 903f
00000060: 89e3 a53f d2dd 923f 96c3 a03f d56d 953f
00000070: e552 8c3f c5bd a03f fd84 9d3f 1613 b13f
00000080: ee64 903f b01f a43f b3e9 9d3f 5213 bb3f
00000090: 5a0f 873f 9261 8c3f 616f 9c3f 2dfb 8c3f
000000a0: 3f99 5e3f fa2c ab3f aa05 983f 18bc 8a3f
000000b0: d753 883f 2ec0 8b3f 2cc2 a23f 51b0 993f
000000c0: 7fd5 903f f57d 883f 2e97 a03f 8f46 933f
000000d0: b003 963f 7476 873f 7047 7c3f a08a 8d3f
000000e0: 2ef8 8f3f a602 983f 8cb3 803f 40fb 943f
000000f0: 62bb 943f 113e a23f 3690 a53f baab 823f
1.3180456 1.2231501 1.0874043 0.9276839 0.95967275 1.027421 1.2019634 1.1963872
1.5876125 1.2791476 1.278092 1.1564523 1.4900806 1.1582072 1.2307807 1.2925324
1.0770342 1.1486698 1.159565 1.1833975 1.0796822 1.2205925 1.2541142 1.1293406
1.2960063 1.1473944 1.2559688 1.1674143 1.0962797 1.2557913 1.230621 1.383395
1.1280801 1.282217 1.2336944 1.4615271 1.055156 1.0967276 1.222149 1.1014153
0.86952585 1.3373101 1.1876729 1.0838652 1.0650586 1.0918024 1.2715507 1.2006932
1.1315154 1.0663439 1.2546136 1.1505908 1.1719875 1.0583024 0.98546505 1.105793
1.1247613 1.1875808 1.0054793 1.1639175 1.1619685 1.2675191 1.2934635 1.0208657

blocks.0.bn2.bias f4 [64]
00000000: c61c 88bf 9c57 2ebf a91c 4cbf aa98 43bf
00000010: 960e 70be 1fa1 3ebf 636b b6bf 82ec 9ebf
00000020: f4fd f2bf 8be6 a1bf 3d36 2abf d7e8 9cbf
00000030: 995c cebf 639a 5dbf 5dda 8cbf b771 a3bf
00000040: 291a 53bf e6ae 36bf 873e 88bf 574e cebe
00000050: 14e8 66bf 5a0d b4bf 543f 65bf 2736 52bf
00000060: 7e4b 9dbf c11b 53bf 4ef9 afbf 15ff 3ebf
00000070: d5bc 6dbf a12a 93bf d665 b2bf 6326 aebf
00000080: ab9c 75bf df0f 6abf 8990 89bf 1cf1 e7bf
00000090: 3406 8fbf 84e4 99bf e6c5 7dbf 14ab 15bf
000000a0: bcc5 e0be 6d15 57bf 6757 4abf b44c 7fbf
000000b0: 8139 8fbe 053a ffbe 50cd bfbf 90a6 d2bf
000000c0: aa23 4fbf dab4 7ebf 9ca8 84bf d01a c7be
000000d0: a44e 78bf e76f 82bf f37e 13bf cb74 85bf
000000e0: 3aef 8ebf 9f04 6abf 1949 18bf 2ef8 8ebf
000000f0: c73a a8bf dd8d c0bf d19f 97bf 3894 54bf
-1.0633781 -0.6810243 -0.7973123 -0.7640482 -0.23443064 -0.744646 -1.4251522 -1.2415926
-1.898375 -1.2648481 -0.6648901 -1.2258557 -1.6122009 -0.865637 -1.1004139 -1.2769078
-0.8246179 -0.71360624 -1.0644082 -0.40294144 -0.90197873 -1.4066575 -0.89549756 -0.8211388
-1.2288663 -0.82464224 -1.3747957 -0.74607974 -0.9286626 -1.1497384 -1.3937328 -1.3605465
-0.9594218 -0.9143047 -1.0747234 -1.8120456 -1.1173768 -1.2022862 -0.99130094 -0.5846417
-0.4390086 -0.8401707 -0.79039615 -0.99726415 -0.2797356 -0.49848953 -1.4984531 -1.6457081
-0.80913794 -0.9949471 -1.0363955 -0.38887644 -0.96994996 -1.01904 -0.57615584 -1.0426267
-1.1166756 -0.914133 -0.5948654 -1.1169488 -1.3142937 -1.5043293 -1.1845647 -0.83038664

blocks.0.bn2.running_mean f4 [64]
00000000: 9807 d9c0 6de2 e8c0 04ab debf fa40 fbbd
00000010: 946a 0940 dcbd 8fbf 6854 833f 1960 91c0
00000020: 0b38 e6be b572 20c0 e937 66c0 abe7 8ebd
00000030: 1c8a e1c0 b80f 853e da0d 57c0 2827 4bc0
00000040: 2242 ecbe 42d4 cebf 8fe3 843e f0cc edc0
00000050: 7ca2 89c0 bf8e e7bf 9f3b eebf c18e 8dc0
00000060: dccb 9e3f bac1 d13d 117a dfc0 66c1 0240
00000070: 6743 01c0 0c12 27c0 574d 59bf d6c2 b7c0
00000080: f2a4 2bc0 8cd7 a1c0 50f4 aac0 ff59 68c0
00000090: 1a66 b9c0 b269 8bc0 1beb 0cc0 2649 aa3f
000000a0: 8f03 73c0 3be0 e4c0 0bbf 793e 94d2 59be
000000b0: 1960 3440 e1ba 20c0 55c0 8dc0 0353 24c0
000000c0: b895 8a40 88ca ab3f 4acf 91bf 57ef 4ec0
000000d0: ced1 86bf ea4b 79c0 352f 69c0 6e5a 603f
000000e0: 2cff 05c0 4736 d5be 873b c7bf 0585 fe3e
000000f0: 9df2 3e3f 6956 16c0 b925 8fc0 a6bf 83c0
-6.782177 -7.27764 -1.739594 -0.12268253 2.14713 -1.1229815 1.0260134 -4.5429807
-0.44964632 -2.5070012 -3.5971625 -0.06977781 -7.048109 0.25988555 -3.3602204 -3.174265
-0.46144205 -1.6158526 0.25954863 -7.431267 -4.3010845 -1.8090438 -1.8611945 -4.423676
1.2405963 0.102420285 -6.9836507 2.043054 -2.019739 -2.6104765 -0.84883636 -5.7425337
-2.6819425 -5.057562 -5.3423233 -3.630493 -5.7937136 -4.3566523 -2.2018497 1.3303573
-3.7970922 -7.152372 0.24389283 -0.21271735 2.8183653 -2.5114062 -4.429728 -2.5675666
4.330776 1.3421183 -1.1391385 -3.2333581 -1.0532777 -3.8952584 -3.6435063 0.87637985
-2.0936995 -0.41642973 -1.5565041 0.4971086 0.7458895 -2.349024 -4.473355 -4.1171446

blocks.0.bn2.running_var f4 [64]
00000000: 3430 9942 745f c242 9e35 8042 5add 8942
00000010: 7784 a242 132d 9c42 1ed7 9042 8c9d 9b42
00000020: 536b 9e42 aa23 c242 8f89 aa42 58ec 7042
00000030: 614e 9c42 5416 a042 200c 9442 734b 7542
00000040: 16d7 9a42 1f01 b042 3a1b a142 a9b3 c142
00000050: 98bf 9042 a4d4 a842 a5ca 9742 7585 a942
00000060: c26a a042 df56 b342 da90 7242 d84e 9d42
00000070: 9149 a642 2fb2 a242 96a4 a242 bdaa a042
00000080: e940 ab42 4386 9842 f8f8 b342 9be5 a142
00000090: b0ed a542 5c5d 8942 fc01 b342 2b20 a142
000000a0: 3cd4 a042 86cd bd42 c084 b442 0b47 c042
000000b0: 0014 c042 7a07 b242 61fc 6642 3543 6442
000000c0: 35d4 ba42 7e49 b642 22f8 8342 58c2 ad42
000000d0: 4356 ea42 b2ac 0343 ca83 6542 bc41 8b42
000000e0: b5a0 8e42 00eb a642 72a8 7b42 b40e 9542
000000f0: 48ec 7b42 3d54 a342 9902 a842 6840 9442
76.59415 97.18643 64.10472 68.93233 81.25872 78.088036 72.42015 77.80771
79.20962 97.06966 85.26867 60.230804 78.15308 80.04361 74.02368 61.32368
77.42009 88.00219 80.55318 96.8509 72.37421 84.41531 75.89579 84.76066
80.20851 89.66967 60.641457 78.65399 83.143684 81.348015 81.32146 80.33347
85.62678 76.26223 89.98627 80.94845 82.96423 68.68234 89.503876 80.56283
80.41452 94.90141 90.25928 96.138756 96.03906 89.0146 57.746464 57.06563
93.41447 91.14354 65.984634 86.87958 117.16848 131.67459 57.3787 69.62839
71.31388 83.458984 62.914497 74.52872 62.980743 81.66453 84.00507 74.12579

blocks.1.conv1.weight f4 [64, 64, 3, 3]
00000000: f718 1e3f 39e1 983e 1e02 e53e daea 9fbd
00000010: 8ef1 dc3e 225e b83e 8a96 c5be 276a fbbd
00000020: 0c55 663f c6c0 c6be e5bc a23f 6542 75be
00000030: 4557 753f d7ac 68bf a335 053e 7d1c 9c3d
00000040: 9280 433f 4164 6abf 2dc6 8a3f e3b9 2a3e
00000050: 0f2e d5be 99c7 fdbe 9dd8 c23e 4b4f 0bbf
00000060: b4c7 d83e cbad 8c3f a18d ae3f 73cd 2b3f
00000070: efcf 453f f21a d2be eca0 1abf 29b7 a1bf
00000080: 1090 a33e e450 91bd ac23 b83c 561a 843f
00000090: 3089 0dbf c7b5 12bf 5196 8cbe 966d a33f
000000a0: d78d 1c3f 9f40 4e3f dffc 50bf 8a7b 5abf
000000b0: a552 573e ec43 0cbe b26b 5ebf 2d35 2fbe
000000c0: 6196 7cbf 247f 2b3f 9c16 0d3f 9a03 263f
000000d0: fe92 413f f703 a83f c86e 9d3f b286 14be
000000e0: 8f83 7bbf eac8 223f 4d53 65bf 6101 8e3e
000000f0: 0e19 ae3f 9a3e 113d f663 be3f 722c 1ebe
00000100: ea3c 28bb 5fa1 2b3f 09e1 ea3e 2d66 3fbf
00000110: 9528 393f 809c a0bf daa4 1e3f 1ae5 0bbd
00000120: e276 1abf 3125 62bf 2918 c33f 5fa6 27bf
00000130: 7f66 f4be 1662 993f 033a 30ba 748f 2abe
00000140: 08e7 08bf 25ee 6dbf aa42 c63d 6905 ab3e
00000150: a7cc b7bf 3494 893f 38c8 86bf fe0d c1bf
00000160: f130 44bf 5967 2e3f c7d0 973f a33b dcbd
00000170: 88b6 f63d e66e ddbd 809c e53d 2f0f 2dbe
00000180: 0512 943d 1ef1 633e 2f57 8b3e e72c 18be
00000190: 03a8 3bbe cc9d ff3e fdf4 233f 1934 4c3f
000001a0: 6c37 693e 2c3f 953e ad10 b03e 5e6d 0d3f
000001b0: 9879 54be ac77 ad3e 4089 04bf 355c 21bf
000001c0: beb5 353e 8bda 54bf 7ad0 a53e 2596 c5bf
000001d0: d459 713e e97b 583f c4f6 dbbe 52f5 3cbf
000001e0: 8962 89be cdf1 36be 1a3b b3bd 4879 f6bd
000001f0: 033c 8fbf e075 3bbf 3162 82be 03d2 51be
00000200: 7b88 a0be 2c39 15be 1f07 4bbf e89b 15bf
00000210: ca77 04be a926 a73f b57c eebe 64d9 073f
00000220: d9bf c6be eb0c 453f f8e8 d93e 4211 6dbe
00000230: 656f 113f af1e 803f fa14 8d3f 754d 843e
00000240: 4a51 423f c846 873e 0765 3a3f 5a08 993e
00000250: 3389 f9be b2ea a53f 5617 e2bd c2ea 1fbf
00000260: d17b bc3e c495 92bf 4452 d63e cdc2 11bf
00000270: b35a 73bf 528e d8be f479 a53d 1839 9bbe
00000280: f22f 24bf 1fb4 1f40 cbd2 433f 98ca cf3e
00000290: d5e8 81bf 1314 7e3f 2e94 793f 6509 8bbc
000002a0: ce9c cfbe 75ec 333e 632b c73b c7de 233f
000002b0: 66c5 643e 577f d53e 6282 afbc b89b 7fbf
000002c0: 7b77 98be dd3d e1be c5b0 023f c9d9 cdbf
000002d0: 2876 853f 30f1 933f fb2d 2b3f f4de 0c3f
000002e0: 3678 ae3f 0a35 8dbe 5af2 66bf e91d b0be
000002f0: f423 ca3e 142c 953e 0c8d bd3f d2b7 e1be
00000300: 54fa a73f 906e 4d3f 02b5 c13e a269 d0bf
00000310: 264e b33f 6a25 663f 2ce6 9d3d 9fbb 703f
00000320: 49c6 b53f e8c9 9d3e 0a94 27bf 8b0f 083e
00000330: ef69 97be 92d6 683e f7b5 513f dfd8 333e
00000340: 4fb6 82bf 557c 1cbf b285 7bbf 0c80 113e
00000350: 36eb 86be 13ea 363f fd52 54be 0f3c 38be
00000360: 4f84 863d 28a8 c73e f242 593f 7829 e33e
00000370: 9906 8cbe 7342 b1bf 15ab a2be 667a 42bf
00000380: 10f4 44be ee7c d43e fab0 1cbf a6ad 1ebf
00000390: 0076 ef3d 7182 2ebe 4491 5dbf a23e 013f
000003a0: 0e08 a9be 72b3 88bd bc6f fabe d85f ac3d
000003b0: bfaf 3ebe f447 cb3f 393a 153f f543 653e
000003c0: 2196 583f 67f2 c5be 3d01 613e 686f e1bd
000003d0: 7ac9 2a3f fd82 113f ece5 30bf 76f1 b4bf
000003e0: 4f15 0f3f 71aa e7bd d9b7 67bf c77f a13d
000003f0: ef94 54bf 5efc 503e 8235 5dbd 3b5a 3a3e
0.61756843 0.2985933 0.44728178 -0.07808466 0.43153042 0.36009318 -0.38591415 -0.12276106
0.8997352 -0.3881895 1.2713896 -0.23951109 0.9583629 -0.9088873 0.13008742 0.07622621
0.7636806 -0.91559225 1.0841728 0.16672473 -0.41636702 -0.49566343 0.38055888 -0.54417866
0.4233986 1.0990537 1.3636972 0.67110366 0.77270406 -0.41036183 -0.604018 -1.2634021
0.31945848 -0.07095507 0.022477947 1.0320537 -0.55287457 -0.5730862 -0.27458432 1.2767818
0.6115393 0.80567354 -0.8163585 -0.85344756 0.2102762 -0.13697785 -0.8688308 -0.17110129
-0.9866696 0.66990876 0.55112624 0.64849246 0.7561492 1.312621 1.2299433 -0.14504507
-0.9824762 0.6358782 -0.8958023 0.27735427 1.3601396 0.035460092 1.4874256 -0.15446642
-0.0025671073 0.6704311 0.45874813 -0.7476528 0.7232755 -1.254776 0.61970294 -0.034154035
-0.6033765 -0.88338 1.5241748 -0.6548824 -0.47734448 1.1983058 -0.00067225116 -0.16656286
-0.53477526 -0.92941505 0.09680684 0.33402565 -1.435933 1.0748353 -1.0529852 -1.5082395
-0.7663718 0.68126446 1.1860589 -0.10753562 0.12046534 -0.10812168 0.11211491 -0.16900323
0.072299995 0.22259948 0.27214953 -0.14860879 -0.1832581 0.49925077 0.640457 0.79766995
0.22775048 0.2914976 0.34387723 0.55245006 -0.2074951 0.33880365 -0.51771927 -0.6303132
0.1774511 -0.8314597 0.32385617 -1.5436445 0.23569423 0.8456407 -0.42961705 -0.7381183
-0.2683299 -0.17865677 -0.08751507 -0.12034851 -1.1190189 -0.7322674 -0.2546554 -0.2049027
-0.31354126 -0.1457259 -0.7930774 -0.5844102 -0.12936321 1.3058673 -0.4657952 0.53066087
-0.38818243 0.76972836 0.42560554 -0.23151115 0.568106 1.0009364 1.1022027 0.25840345
0.7590529 0.2642119 0.72810405 0.29889184 -0.48737487 1.2962248 -0.11039607 -0.62467587
0.36813214 -1.1451955 0.4185964 -0.5693787 -0.9506027 -0.42296082 0.08079901 -0.30316997
-0.6413566 2.4953687 0.7649352 0.40584254 -1.014918 0.9924938 0.9749173 -0.016972253
-0.4054932 0.1757067 0.00607817 0.64011806 0.22340927 0.41698715 -0.021424476 -0.9984698
-0.29778656 -0.4399251 0.5105098 -1.6082088 1.0426683 1.155798 0.66867036 0.550277
1.3630435 -0.27579528 -0.9021355 -0.3439782 0.39480555 0.2913519 1.4808669 -0.44085556
1.3123269 0.8024683 0.3783341 -1.6282237 1.4008224 0.8990084 0.077099174 0.9403629
1.4201137 0.30818105 -0.65460265 0.13287179 -0.29573008 0.22738102 0.8191828 0.17563199
-1.0211886 -0.61127216 -0.9825088 0.14209002 -0.26351327 0.7145092 -0.20734783 -0.1799166
0.065682046 0.3899548 0.84867775 0.44367576 -0.27348784 -1.3848404 -0.3177115 -0.75968015
-0.19233727 0.41501564 -0.61207545 -0.61983716 0.116924286 -0.17041947 -0.8654978 0.50486195
-0.33013958 -0.066748515 -0.48913372 0.08416718 -0.1862173 1.5881333 0.58291966 0.22389205
0.8460408 -0.386615 0.21973129 -0.11007577 0.6671368 0.568405 -0.6910083 -1.4136188
0.5589189 -0.11311806 -0.90514904 0.078857 -0.83039755 0.2040877 -0.054006107 0.18198483

blocks.1.bn1.weight f4 [64]
00000000: 10be 5e3f 16a9 3b3f df6a 523f 8c12 6d3f
00000010: 7e5f 3a3f 0a43 4e3f a021 543f b36f 5a3f
00000020: 908e 8b3f 4c60 4d3f 6e50 4f3f 4418 583f
00000030: 2920 5c3f 3f0b 303f 9cdd 653f 59aa 273f
00000040: aca9 6f3f f5c7 6c3f 79ac 4c3f 6478 383f
00000050: c3d5 193f c9d8 833f 4069 403f 7198 7b3f
00000060: bab9 433f b105 453f 203b 703f 45a7 433f
00000070: 46d5 473f 8992 533f b49e 493f 1666 2c3f
00000080: 0874 483f 98b0 ed3e 6069 493f 0a7b df3e
00000090: 70b9 553f be3d 543f 3907 4a3f 8c0b 9a3e
000000a0: 0ce9 463f de58 603f ebf3 733f ae55 4c3f
000000b0: 4539 4d3f 05df 5e3f 2d22 143f f159 5f3f
000000c0: 31c3 783f 8160 4e3f d109 3b3f b57c 703f
000000d0: 3952 213f 6ce9 883f 1ed0 3b3f ec92 433f
000000e0: f405 5d3f 42ed 3a3f ee7c 613f 5013 4f3f
000000f0: 17c6 153f 9d4e 453f 1af7 453f 8114 193f
0.8700876 0.7330488 0.8219432 0.92606425 0.7280196 0.80571043 0.8286381 0.8532669
1.0902882 0.8022506 0.809821 0.84412026 0.8598657 0.6876716 0.89791274 0.65494305
0.93618274 0.9249261 0.7995067 0.720587 0.600918 1.0300533 0.751606 0.9827948
0.7645527 0.7696181 0.9384022 0.7642711 0.78059804 0.8264547 0.78757787 0.6734327
0.7830205 0.46423793 0.78676414 0.4364856 0.8348608 0.8290671 0.7891727 0.30086935
0.7769935 0.876356 0.95294064 0.79818237 0.8016551 0.8705905 0.5786465 0.87246615
0.9717284 0.80616003 0.73061854 0.9394029 0.63016087 1.0696235 0.73364437 0.7639606
0.8633721 0.73018277 0.8808125 0.80888844 0.58505386 0.7707308 0.7733017 0.5979691

blocks.1.bn1.bias f4 [64]
00000000: 67bf dbbf ecf5 bcbf 8a46 a8bf 3b15 e2bf
00000010: 3072 9ebf 5d44 06c0 ce56 bfbf f67e 81bf
00000020: ba45 72bf dd3b 82bf 164a b7bf f4eb 4bbf
00000030: 682c 4bbf 00a6 f1bf 2efd b0bf 2bcc ecbe
00000040: 7fb2 bcbf 56ac aebf 4878 1bbf dbd6 80bf
00000050: 0ef5 dfbf d071 01c0 bca5 2abf dd73 ccbf
00000060: 752b 96bf 10e1 babf dd00 eebf d97b 93bf
00000070: 0a37 47bf 4fb5 9dbf 27b5 c6bf 5756 02c0
00000080: e94a 8dbf e35b 03c0 d668 92bf 3aaa 0cc0
00000090: d168 83bf 963b c7bf b53b 12bf c4e5 02c0
000000a0: 8937 a9bf f968 a2bf da31 c8bf 5782 4fbf
000000b0: 311c 45bf 9938 efbf a318 d9be 60c8 dbbf
000000c0: 50ba 59bf 893b e6bf 11e3 88bf 0bcc a7bf
000000d0: 8bdc 19c0 bb9c d4bf 0c88 87bf 5210 d4bf
000000e0: 56dc 2fbf 5436 b8be 9095 c1bf 6f4c a6bf
000000f0: f874 08c0 ce00 b4bf 267b 42bf 9450 8cbe
-1.7167786 -1.4762549 -1.3146527 -1.7662729 -1.2378597 -2.0979226 -1.4948366 -1.011687
-0.94637644 -1.0174519 -1.4319484 -0.7965691 -0.79364634 -1.8878784 -1.3827264 -0.46249518
-1.4741973 -1.3646343 -0.6073041 -1.0065569 -1.749666 -2.0225716 -0.6665914 -1.5972859
-1.1732012 -1.4599934 -1.8594013 -1.152217 -0.7781836 -1.2320956 -1.5524033 -2.0365198
-1.1038486 -2.0524833 -1.1438243 -2.1978898 -1.0266362 -1.5565059 -0.57122356 -2.0452738
-1.3220073 -1.2688285 -1.5640213 -0.8105826 -0.7699614 -1.8689147 -0.4240161 -1.7170525
-0.85049915 -1.7986919 -1.0694295 -1.3109144 -2.4040859 -1.661033 -1.0588393 -1.656748
-0.6869558 -0.3597895 -1.5123768 -1.2992076 -2.1321392 -1.4062746 -0.7596916 -0.27405226

blocks.1.bn1.running_mean f4 [64]
00000000: 38fb 78c0 aed0 a8c0 6319 64c0 f29e d3c0
00000010: f7ec 62c0 91e8 713f 883f b9c0 6316 a9c0
00000020: 22fa e7c0 8c9a 3fc0 f09b 70c0 57b5 4cc0
00000030: 9f62 28bf adee 84c0 dc40 a9c0 dab6 2c3f
00000040: 280f 17c1 dbde 13c1 7bc9 ecbf 7a11 9dc0
00000050: 1a78 9ec0 7206 9cc0 460a dec0 fde5 8dc0
00000060: fd4d 89c0 3900 80c0 9832 27c0 9d5b 92c0
00000070: 3ee1 00c0 77a3 c0c0 69e6 96c0 60f7 c7bf
00000080: 0706 13c0 52d8 62c0 27aa b2c0 16f0 193f
00000090: 1526 86c0 50ff 4fc0 c1f9 1dc1 24b8 1cbf
000000a0: aadc c4bf 84f9 93c0 faad e4c0 460a a5c0
000000b0: dbfe cac0 a649 a5c0 0824 60c0 3874 afbe
000000c0: 006a 823f 8558 9ebf b5df 94c0 563b 2dc1
000000d0: 23d4 133f f654 f2c0 1b5c 41c0 513d b9c0
000000e0: f4b8 80bf d51a 3f3f 0c76 a3c0 38fd e0c0
000000f0: 5ce6 f1bf 7b50 75c0 f0d5 9fc0 0657 64c0
-3.8903332 -5.2754736 -3.5640495 -6.6131525 -3.5457132 0.94495493 -5.7890053 -5.2839828
-7.249284 -2.9938078 -3.7595177 -3.198568 -0.65775484 -4.154135 -5.2891674 0.6746651
-9.4412 -9.241908 -1.8498987 -4.9083834 -4.952161 -4.875787 -6.938754 -4.4343247
-4.29077 -4.000027 -2.612463 -4.5736833 -2.0137477 -6.019954 -4.7156262 -1.5622368
-2.2972429 -3.5444531 -5.5832705 0.6013197 -4.1921487 -3.249958 -9.873475 -0.61218476
-1.5379841 -4.6242085 -7.1462374 -5.157504 -6.3436103 -5.1652403 -3.5021992 -0.34268355
1.0188599 -1.2370764 -4.652308 -10.826986 0.5774557 -7.572871 -3.0212467 -5.788735
-1.0056443 0.7465032 -5.10816 -7.0309105 -1.8898425 -3.8330371 -4.9948654 -3.5678115

blocks.1.bn1.running_var f4 [64]
00000000: 921c 8d42 85d1 a542 1020 7c42 9d3d 4242
00000010: 90c3 4d42 3fd4 7d42 5d17 3142 a192 4442
00000020: 69fe cf42 6cf8 7742 e14c 4d42 c955 c242
00000030: f9ab 9242 9bee 7d42 4f75 8e42 3753 8b42
00000040: 87d5 8742 4c77 9042 49f8 9142 df5e 8e42
00000050: 0018 5f42 8cf2 4242 acd9 a542 eac2 7b42
00000060: 65b5 4b42 c0bf 8342 a8be 6842 bbf6 5842
00000070: ca0b 6942 48eb 4f42 a08b 8242 f119 7e42
00000080: 6afc 6642 fc0d 8342 73ad 5f42 6b5e 5142
00000090: d1a2 8742 e95c 5f42 6b77 5842 aa09 5842
000000a0: 525f 9142 d92d 8b42 124d 5042 f279 8c42
000000b0: e7c6 4242 aa5d 5a42 d9ab 7442 adb3 5142
000000c0: a1ac c042 22fa 5f42 0072 9b42 c952 9642
000000d0: ba69 5a42 0651 8a42 63c0 9842 73db 4f42
000000e0: 26d4 8942 b28d 8e42 9c28 8242 e93e 6f42
000000f0: 5432 6042 9ef7 2c42 40e8 3f42 8636 8f42
70.5558 82.90922 63.03131 48.56017 51.44098 63.45727 44.272816 49.143192
103.996895 61.9926 51.325077 97.16755 73.335884 63.483013 71.22912 69.66253
67.917046 72.233 72.98493 71.185295 55.773438 48.736862 82.92514 62.940346
50.927143 65.87451 58.186188 54.240948 58.261513 51.979767 65.272705 63.525333
57.7465 65.52731 55.919384 52.342205 67.818 55.840733 54.11662 54.009438
72.68617 69.58955 52.075264 70.238174 48.69424 54.59147 61.16782 52.425465
96.337166 55.99427 77.72266 75.16169 54.60325 69.15825 76.375755 51.964306
68.91435 71.27675 65.079315 59.811436 56.04915 43.241814 47.976807 71.60649
