models/rym_grid_c0_s64_e2_t4_r4/resnet_c0_ce_a0p5_l0_lr1e-03.pt (torch, 758469 bytes, 28 tensors)

stem.0.weight f4 [64, 64, 3, 3]
000000 c6 e7 cb bf cd 02 d1 3e 41 30 86 3f 2b aa de bf
       -1.5930107 0.4082245 1.0483476 -1.7395681
000010 cc 2d e6 be fb 7c 96 3e 11 2b 85 bf 42 a9 78 bf
       -0.44956815 0.29392228 -1.0403768 -0.97133267
000020 fc f9 4f bf 92 36 1c be f2 e0 41 c0 19 ad be bf
       -0.8124082 -0.15255192 -3.0293546 -1.4896575
000030 72 ec 55 c0 98 49 93 c0 7a 14 88 bf 3c 7e 29 3e
       -3.3425565 -4.6027336 -1.0631249 0.16552061
000040 28 22 6e c0 20 85 80 bf 3d f1 3a c0 b0 a1 17 c0
       -3.7208347 -1.0040627 -2.920974 -2.3692436
000050 0d c4 7c be 78 c1 8d 3f e3 6f d7 c0 e7 cf a9 3f
       -0.24684162 1.1074667 -6.732408 1.3266572
000060 55 b4 92 bf 04 1c 7a 3f 3f 91 b1 bf e9 1d 2c 3f
       -1.1461283 0.97699 -1.387245 0.6723314
000070 20 6c b9 3f af ea 06 40 7f f4 a2 3f cc 37 ae bf
       1.4486122 2.108074 1.2730864 -1.3610778
000080 b7 3d af 3c 1c 5d 15 3f b8 47 0f 3e 3f b1 a7 be
       0.021391733 0.583452 0.13992202 -0.32752416
000090 54 00 43 3f 3f ca b2 bf 8e 87 91 3f 65 89 2e 40
       0.76172376 -1.3967971 1.1369493 2.727136
0000a0 b3 29 b2 3f c5 c7 8f 3f d0 8c f7 bf e5 13 25 be
       1.3918976 1.123284 -1.9339848 -0.1612087
0000b0 fc e5 8b 3e eb 79 17 3f ae 53 96 be 27 0c 82 bf
       0.27323902 0.5917041 -0.29360718 -1.0159959
0000c0 49 a8 94 bf 6a ed c1 be da a4 06 be 20 a9 34 3f
       -1.1613857 -0.37876445 -0.13148823 0.70570564
0000d0 69 84 59 be ee 14 ec 3e 14 f5 e4 3f 5f e0 35 bf
       -0.21241917 0.46109718 1.7887292 -0.7104549
0000e0 9d c0 55 3f 0b 3b 49 bf f2 62 93 bf da d1 df be
       0.8349703 -0.7860572 -1.1514571 -0.43714792
0000f0 12 7d e1 bf 65 40 aa 3e 34 64 bc 3e 51 74 7e 40
       -1.7616293 0.33252254 0.367952 3.9758494
000100 73 ba 7e 3e fe ba 1c 40 81 7b 70 40 b4 b0 3b 40
       0.24875812 2.448913 3.757538 2.93266
000110 1c de 2f be 66 50 82 40 9c 89 54 40 3b ae 0e 40
       -0.17174572 4.0723143 3.320899 2.2293842
000120 5c 63 b8 3f 8f bd 00 40 66 31 d5 3f fa 05 bc 3f
       1.4405322 2.0115697 1.66557 1.4689324
000130 d1 39 29 3f b4 26 1c 3f d2 58 d4 3f 16 6c ac 3f
       0.66103846 0.60996556 1.6589606 1.3470485
000140 ee b4 ba bb ef fe 97 3f 60 0f 8f 3f 3f 44 61 bd
       -0.005697838 1.1874675 1.1176567 -0.054996725
000150 3e 45 ef 3d 7e 7c 81 3f c3 80 7d be a4 f4 96 3f
       0.11683129 1.0116117 -0.2475615 1.1793408
000160 ee f0 df 3f a4 59 c8 bf f0 3f 62 3f 2a e4 a9 3f
       1.7495401 -1.5652356 0.8837881 1.3272755
000170 c7 bf 89 3d dd 83 bc 3f f8 8a 33 3f 94 e6 a6 be
       0.06726032 1.4727741 0.70133924 -0.32597792
000180 2b 91 53 3f 94 6b bc be e2 bc 49 bf 74 1d d3 bf
       0.82643384 -0.36800826 -0.7880384 -1.6493363
000190 34 34 96 bf 66 8e 53 bb 9a 22 15 3e 63 75 73 bf
       -1.1734681 -0.003228092 0.1456398 -0.9510099
0001a0 3a 34 f1 bd af ab 1c 3f 26 90 98 be 97 74 9e 3e
       -0.117775396 0.6119947 -0.29797477 0.30948326
0001b0 fa 71 75 bf a0 10 93 3f 7b 66 15 bf ec 71 8a 3e
       -0.9587704 1.1489449 -0.583595 0.2704004
0001c0 3d 54 eb 3e d5 fc 27 bf 51 f9 c8 be 26 61 18 bf
       0.45962706 -0.65620166 -0.39252713 -0.59523237
0001d0 5a 44 66 bf f8 43 0c bf 07 c6 6e bf 60 d4 1f bf
       -0.89948046 -0.5479121 -0.93270916 -0.62433434
0001e0 bc 4a 36 bf 46 07 62 bf 16 da 0c be a8 03 ca 3e
       -0.71207786 -0.8829235 -0.13755068 0.39455914
0001f0 67 2d 45 be 9e 5d 9a be 6e ca b1 bf 25 0a 0f c0
       -0.19255601 -0.3014955 -1.3889902 -2.2349942
000200 2f 22 ac bf 46 3f ba bf 1e 17 24 bf 71 ff 8b bf
       -1.3447932 -1.455056 -0.64097774 -1.093733
000210 9d 00 4a be fc 5b fa be db 25 dd bf 38 fa 45 bf
       -0.19726796 -0.48898304 -1.7277178 -0.7733493
000220 09 e3 d9 bf 07 d9 39 bf 8a e7 f6 bf 53 8e 2d be
       -1.7022411 -0.7259678 -1.928941 -0.16948824
000230 3a d9 23 bf 89 3f f4 bd b3 46 d2 bf 9e 49 99 bf
       -0.64003336 -0.11926181 -1.6427826 -1.1975591
000240 16 41 9a be a5 88 15 bf 4b 7f 9a bf 8d a4 0a be
       -0.30127782 -0.5841163 -1.2070097 -0.13539334
000250 ac dd 1d bd 86 dc 6c bf 7d 18 af be 3c 17 67 bf
       -0.03854148 -0.9252399 -0.3419837 -0.9026983
000260 aa c6 89 bf 86 f0 5f 3e bc e0 2b 3e 50 68 4b be
       -1.0763752 0.21869096 0.16784948 -0.19864011
000270 a3 38 56 3e 47 67 eb be 5f 00 da 3e 59 86 14 3f
       0.20920043 -0.45977232 0.42578408 0.580175
000280 27 76 dc bc ce 8a 67 3e 7d 2b 49 3e a6 32 40 bf
       -0.026911808 0.22611544 0.19645496 -0.75077283
000290 2d 28 30 bf 90 f3 41 bf 1e 86 19 bf 7d ae 30 3e
       -0.68811303 -0.7576227 -0.5997027 0.17254062
0002a0 bd cf c3 be f9 b8 20 be a2 c6 ae 3f 79 7d 0e 3f
       -0.3824443 -0.15695561 1.3654368 0.55660206
0002b0 61 7d 13 3e dc bd 28 3f 2b 98 1c 3f 4b 16 34 be
       0.14403297 0.659147 0.6116969 -0.17586629
0002c0 88 d6 ac 3e b8 2b b1 3e 12 68 b6 3e cf fc 96 3f
       0.33757424 0.34603667 0.35626274 1.1795901
0002d0 b1 0e be bf 3e b0 9e 3f 3d 58 9a 3e b4 19 1e 40
       -1.4848233 1.2397535 0.30145445 2.4703188
0002e0 d0 e3 9c 3e 9e df 8a 3f 0f ed 4e 3f 25 79 11 40
       0.30642557 1.0849493 0.8083047 2.273019
0002f0 e3 1f 7c 3f a2 d2 f1 3f ba 22 e1 3f 31 39 f8 3e
       0.98486155 1.8892405 1.7588723 0.48481134
000300 0c 47 df 3f 8f 70 c7 3f 7b e1 d7 3e c0 76 ed 3f
       1.7443557 1.5581225 0.42164215 1.8551865
000310 e6 6e 88 3f c8 33 18 bd aa 8f 1c 3e af ec 1d 3f
       1.0658844 -0.037158757 0.15289178 0.61689276
000320 ee b1 0c bf 29 09 21 3f 64 b4 2c 3f 6b 2d 9f bd
       -0.54959 0.629046 0.67462754 -0.07772335
000330 c8 c7 43 3f 23 36 3d 3f 90 5a d8 3e 81 67 5e be
       0.76476717 0.7391073 0.42256594 -0.21719171
000340 3d 82 3d bf 7b 63 e8 be 26 88 5e 3b e8 3b c7 be
       -0.7402685 -0.45388398 0.0033955663 -0.38912892
000350 f4 03 62 be 17 70 16 3e fe 64 8b be 98 c1 dd bd
       -0.2207182 0.14691196 -0.27225488 -0.10827941
000360 9d 8b 69 bf 1e d5 92 3f 98 9e 20 bf 42 cd 79 3e
       -0.9122866 1.1471288 -0.62741995 0.24394706
000370 c8 c6 e6 3e 42 a3 1d bf 5a 5d cb be ef 30 28 bf
       0.45073533 -0.61577237 -0.3971966 -0.65699667
000380 8e c2 5c bf 6d c4 0c bf cc fd 5a bf b2 02 19 bf
       -0.86234367 -0.5498722 -0.85543513 -0.5976974
000390 f6 a9 37 bf 79 f6 61 bf a2 df 3c be be 58 d0 3e
       -0.71743715 -0.8826671 -0.18444684 0.40692705
0003a0 ba 22 3d be 42 38 b3 be f6 28 a4 bd 00 bb f2 be
       -0.18470278 -0.3500386 -0.08015625 -0.47408295
0003b0 d5 2d 64 bf 2c 36 22 3f 07 fb a3 be c8 14 64 3f
       -0.89132434 0.6336391 -0.32027456 0.8909421
0003c0 5e 02 0b bf f3 4d 5d 3e 10 a3 8a 3e 6d 4d 15 bf
       -0.5430049 0.21611767 0.27077532 -0.5832127
0003d0 0c dc ff be c6 cc 87 be 0d 95 9c bf d3 73 a6 3f
       -0.4997257 -0.26523417 -1.2232987 1.3004097
0003e0 fb e3 9d be 7e 5c 01 3f 3d 9a 1a be ac 17 93 3e
       -0.30837998 0.50531757 -0.150979 0.28728998
0003f0 c8 77 81 be 15 eb c9 3d 11 b0 b2 bd af ce 10 3d
       -0.25286698 0.098592915 -0.08724988 0.03535336

stem.1.weight f4 [64]
000000 e5 0f f5 3e 54 66 4f 3f 08 dc f3 3e 62 10 08 3f
       0.4786369 0.81015515 0.47628808 0.5315
000010 a5 ef de 3e f7 6b 05 3f 75 30 cc 3e 7a 59 da 3e
       0.4354221 0.52117866 0.3988072 0.4264639
000020 70 7d 46 3f 88 6a 1d 3f 6d 20 18 3f 0d f0 b1 3e
       0.7753515 0.6149068 0.5942448 0.34753457
000030 e8 b3 cf 3f f5 e5 1d 3f bf ed 65 3f 4d ab d7 3e
       1.6226778 0.6167901 0.89815897 0.4212288
000040 57 49 46 3f d1 29 dc 3e 37 61 0e 3f 47 1c 6c 3f
       0.7745566 0.43000653 0.5561709 0.9223065
000050 06 ef a7 3f 87 3f 08 3f fc ed 2a 3f 91 f7 2c 3f
       1.3119819 0.53221935 0.66769385 0.67565256
000060 7d 6a 27 3f 07 2a 8e 3f 07 60 21 3f ed c6 09 3f
       0.65396863 1.1106576 0.6303715 0.5381916
000070 68 83 1f 3f d5 81 1c 3f e5 34 27 3f 12 ed 00 3f
       0.62309885 0.6113561 0.65315086 0.5036174
000080 07 1d d4 3e 42 d7 b8 3e 30 92 e9 3e ed 81 29 3f
       0.41428396 0.3610173 0.45619345 0.66213876
000090 ca 5e 48 3f 96 0c 16 3f fa d8 8d 3f 66 ad 51 3f
       0.78269637 0.58612955 1.1081841 0.8190521
0000a0 4a 91 61 3f 4f d6 25 3f e9 ce 53 3f d3 33 16 3f
       0.8811232 0.64780134 0.82737595 0.5867283
0000b0 81 8a fa 3e a2 a0 66 3f 92 da 24 3f 0e 8d 09 3f
       0.48933795 0.90088856 0.6439601 0.5373086
0000c0 e8 7d 21 3f a7 c4 ec 3e 78 ed ec 3e 03 ab 36 3f
       0.6308274 0.46243784 0.46274924 0.71354693
0000d0 eb 46 51 3f 46 d1 e0 3e b4 23 0f 3f 86 38 54 3f
       0.8174884 0.43909663 0.55913854 0.8289875
0000e0 03 81 84 3f 0d 87 df 3e da 32 fa 3e dd 40 63 3f
       1.0351871 0.43657723 0.48866922 0.8877085
0000f0 32 7d 5d 3f ed 1b 03 3f 46 6b 22 3f 9f ed 06 3f
       0.8651916 0.51214486 0.63444936 0.5270633

stem.1.bias f4 [64]
000000 d2 fe 66 3e 13 4a 9b be 9d 91 cd bd 7f 0c 7a bd
       0.22558144 -0.30329952 -0.10037539 -0.061047073
000010 1f 4a 1d 3e 66 9e c5 bc 57 d2 50 be 21 b7 be bd
       0.15360306 -0.024123382 -0.20392738 -0.09312273
000020 ba 63 5c 3d 88 5c f1 be c3 f1 b5 bd 38 d8 d8 3e
       0.053806044 -0.47140908 -0.08884003 0.42352462
000030 09 1f a1 bf 03 35 03 bf 07 11 38 bf 2a 4a a7 3d
       -1.2587596 -0.51252764 -0.7190098 0.081684425
000040 81 39 33 bf de 21 27 3d df 54 45 be ab b6 26 bf
       -0.7000962 0.040803783 -0.19270657 -0.6512248
000050 f5 f4 18 bf 70 8b db be 30 f3 43 be fc 34 69 bc
       -0.59748775 -0.4287982 -0.19135737 -0.014233824
000060 a4 6a b7 bd b4 98 82 bf a7 6c 71 be 2b 54 39 bd
       -0.08955887 -1.0202851 -0.23576604 -0.045246284
000070 6c c8 fc be cd f6 d7 be eb 89 94 be f4 89 7f 3d
       -0.4937166 -0.42180482 -0.29011473 0.06238742
000080 f8 c4 dc bc ce 90 ea 3c 42 71 33 bd 0b f7 a8 be
       -0.02694939 0.028633501 -0.043809183 -0.3300098
000090 50 81 03 bf a1 87 07 3e f0 f8 1c bf bc 79 cb be
       -0.5136919 0.13235332 -0.6131735 -0.39741313
0000a0 a1 4f b4 be 3e 09 b4 bd 6b 4e a6 be 8e 88 d1 be
       -0.35217002 -0.08790825 -0.32481703 -0.40924495
0000b0 18 d3 73 be 50 fc 93 be b8 06 ae be 9d 7c 50 3c
       -0.23810995 -0.28903437 -0.339895 0.012725023
0000c0 5c e3 06 bf 8b 14 9d be 03 e7 26 be 0c 17 3e bf
       -0.5269067 -0.30679736 -0.16299061 -0.74253917
0000d0 da 6a a4 bc 3a 90 85 bd 2b b4 4b bd b9 2f 1d be
       -0.020070482 -0.0652165 -0.04973237 -0.15350236
0000e0 98 4f 7c bf 84 02 00 bd e7 3c 31 be 1b 74 34 bf
       -0.9855895 -0.0312524 -0.17308389 -0.7048966
0000f0 20 92 86 bd a5 dd 91 bd ee cd c2 be 45 ca 26 be
       -0.0657084 -0.071223535 -0.38047737 -0.16288097

stem.1.running_mean f4 [64]
000000 ab 79 f9 c0 ba 10 26 c1 6e d6 90 bf 19 10 7c bf
       -7.796102 -10.379084 -1.1315439 -0.98462063
000010 14 ca fb c0 2e 53 92 bf c6 de 98 40 f3 8d ea 3f
       -7.8684177 -1.1431634 4.777194 1.832457
000020 49 b0 6b c1 a4 43 91 c0 50 09 d8 c0 f4 96 80 bf
       -14.730538 -4.539507 -6.751137 -1.0046067
000030 65 15 c1 bf 15 8e 68 3d b0 b9 21 3f 31 d3 00 c1
       -1.5084654 0.056776125 0.6317396 -8.05156
000040 57 d2 08 c0 83 1c c9 40 1e 00 4b 40 fb b6 87 c0
       -2.1378381 6.2847304 3.1718822 -4.2410865
000050 19 f7 52 c1 d8 f6 5b bf 39 d7 2b c1 db 1d e2 c0
       -13.185327 -0.8592353 -10.740045 -7.0661445
000060 74 88 aa c0 06 14 27 bf a2 19 17 c1 91 bc 2e c1
       -5.329157 -0.6526493 -9.443758 -10.921037
000070 4e df 16 c1 c6 c7 72 c0 a5 3d 98 bf 6c 24 51 c0
       -9.429518 -3.7934432 -1.1893812 -3.267848
000080 e4 42 95 3f 17 87 85 c0 1f 25 d1 3f 14 c1 57 c0
       1.1661038 -4.1727405 1.6339453 -3.3711596
000090 0d a3 b6 c0 4b e6 15 c1 84 b1 47 c1 a0 eb 03 c1
       -5.7074037 -9.368724 -12.480839 -8.245026
0000a0 13 22 85 c1 9d ee f7 c0 24 31 5a c0 19 59 0f c1
       -16.641638 -7.7478776 -3.4092493 -8.959252
0000b0 d2 6f 03 c0 4d 6d 37 3f 7a 56 14 c1 db a3 bc bf
       -2.0537 0.71651155 -9.271112 -1.4737505
0000c0 72 6f 03 40 7d e8 67 40 50 99 96 40 e4 03 02 c0
       2.053677 3.623565 4.706215 -2.0314875
0000d0 62 7d 0f c1 ff 38 af c0 63 03 a4 40 26 b1 13 c1
       -8.968111 -5.4757075 5.1254134 -9.230749
0000e0 c2 36 02 c1 d2 b7 e7 3e e4 9b 34 40 2b 91 7a c0
       -8.138369 0.4525743 2.8220148 -3.9151103
0000f0 33 e7 55 c1 53 f7 01 c1 79 06 07 3d 72 ce 83 40
       -13.368945 -8.122882 0.032965157 4.118951

stem.1.running_var f4 [64]
000000 dc f4 60 42 b7 3b 13 42 8d 8b 02 42 01 0d 8c 42
       56.23912 36.808315 32.63628 70.0254
000010 8e b0 41 42 ae c7 81 42 90 ac f1 41 7b e5 c4 41
       48.422417 64.89 30.209259 24.612051
000020 bb 2e e7 41 b0 91 27 42 f7 ff 65 42 b3 8d a1 41
       28.897818 41.892273 57.499966 20.19419
000030 60 d8 ab 41 63 1c f6 41 b8 45 b8 41 e6 c3 0c 42
       21.480652 30.76386 23.034042 35.191307
000040 6a 02 e0 41 4e 67 04 42 ca c8 26 42 75 e0 30 42
       28.001179 33.100883 41.696083 44.219196
000050 3e 04 34 42 bc a0 02 42 80 20 44 42 76 a3 72 42
       45.004143 32.656967 49.03174 60.65963
000060 ac bd 32 42 89 13 ce 41 3d 71 a5 42 77 ea 41 42
       44.685226 25.759539 82.72117 48.47897
000070 10 4c 01 42 db 44 05 42 0d 1b 45 42 58 43 26 42
       32.32428 33.31724 49.276417 41.565765
000080 93 72 db 41 71 d5 f2 41 b1 fd bd 41 07 66 e8 41
       27.430944 30.35422 23.748873 29.049818
000090 5a b0 16 42 1c e6 1a 42 a7 01 77 42 e4 00 11 42
       37.67222 38.724716 61.751614 36.25087
0000a0 df cf 7f 42 bc c8 f6 41 2f 8a ca 41 f6 c0 c8 41
       63.953 30.848015 25.317472 25.09422
0000b0 56 fc 30 42 49 97 19 42 32 75 40 42 fb 72 0f 42
       44.24642 38.39774 48.11445 35.862286
0000c0 37 22 e5 41 24 8c f6 41 6d d5 26 42 84 b1 21 42
       28.641706 30.818428 41.708424 40.423355
0000d0 a4 84 3b 42 91 ef a0 42 e1 5d 48 42 b3 c0 63 42
       46.87953 80.4679 50.09168 56.938183
0000e0 07 a6 f2 41 54 e3 fc 41 3d f3 0a 42 38 4c 15 42
       30.331068 31.611 34.737537 37.324432
0000f0 c8 4a 82 42 e3 33 2f 42 7e c5 19 42 0e 1d 0c 42
       65.14606 43.80067 38.442863 35.028374

blocks.0.conv1.weight f4 [64, 64, 3, 3]
000000 ef 36 00 40 2d bb 7d 3f 63 17 e5 be 43 94 57 3f
       2.0033529 0.9911373 -0.44744405 0.84210604
000010 11 83 0b 3e ae 72 b4 bf 0c eb 9a 3f d4 a4 c1 3e
       0.13624217 -1.4097497 1.2102981 0.37821066
000020 96 8f 32 bf b9 72 11 3f 4c f5 86 3f 71 ec 73 3f
       -0.69750345 0.5681568 1.0543609 0.95282656
000030 2a e0 a1 3f 29 4c 9d 3e c7 24 75 bf ed 6d 75 3f
       1.2646534 0.30722168 -0.9575924 0.9587086
000040 8b b9 c4 be fb ba 10 be de b0 01 c0 47 a4 bf 3d
       -0.38422808 -0.14133827 -2.02642 0.09357505
000050 bf d4 09 3f e2 b5 b4 be ad e1 50 3f 03 6a 5e be
       0.5384025 -0.35295016 0.81594354 -0.21720128
000060 38 f3 b2 be d1 54 0c 3f 9d 66 1a bd 1b 48 1b bf
       -0.34951186 0.5481692 -0.037695516 -0.606569
000070 68 6b a5 be d1 46 06 bf 9e 39 f5 be 7a b4 ae be
       -0.32308507 -0.5245181 -0.4789552 -0.34122068
000080 95 8d 57 3f 5b a2 4c bd 25 51 b7 3e d9 32 c2 be
       0.8420041 -0.04995952 0.35804096 -0.3792942
000090 32 70 ff 3e b1 04 2c 3f d5 e5 a2 3f 3c 3c 4e bf
       0.49890286 0.6719466 1.2726389 -0.8056066
0000a0 6f 0d ad 3e 50 82 02 bf ac a6 c6 bd 81 fb 14 bf
       0.33799312 -0.5098009 -0.09699759 -0.58196265
0000b0 ec 51 7f bd e3 80 eb be 0f 99 9d be a2 93 60 bf
       -0.062333986 -0.4599677 -0.30780837 -0.8772527
0000c0 99 20 9b be 4d 30 ac be 6f 7b 02 bf a0 ff a1 3e
       -0.30298308 -0.336306 -0.50969595 0.3164034
0000d0 90 df e5 3d 45 d4 0a be bb 47 7a bf f8 5e 83 be
       0.11224282 -0.13557537 -0.977657 -0.25658393
0000e0 bc 05 5b be 36 36 84 3f b3 26 03 be a6 18 35 3f
       -0.21388906 1.0329044 -0.12807731 0.70740736
0000f0 2e 40 f1 be f1 f4 29 3f d9 33 03 3f 00 dd 8f 3f
       -0.47119278 0.66389376 0.5125099 1.1239319
000100 cc 01 e2 3e 80 d3 8e be 87 9b 53 bf ac 95 be 3e
       0.44141996 -0.27895737 -0.8265919 0.37223566
000110 b8 4e b1 3e be 8f 3b 3f cf 2f 56 3f 6d d7 fb be
       0.3463037 0.7326621 0.836667 -0.49187794
000120 f6 46 89 3e a9 4d 5e 3f a8 07 56 3f 69 f1 f5 3e
       0.2681195 0.8683725 0.8360543 0.48035744
000130 86 79 59 3e 76 97 88 bf ff 59 4e 3f cf 9e 19 bf
       0.21237764 -1.0671222 0.80606073 -0.6000795
000140 a4 46 67 be 2d a8 27 bf e5 f0 70 3f 6c d8 17 bf
       -0.22585541 -0.6549099 0.94117576 -0.5931461
000150 fd 33 bf 3e 8f 17 0d bf 33 0e 91 be c6 a4 a1 3e
       0.3734435 -0.5511407 -0.28331146 0.31571025
000160 6a c8 67 be 47 41 8e be bb b1 5b 3f 92 0d d7 bb
       -0.22635046 -0.27784178 0.8581807 -0.006562897
000170 33 be a9 bf 24 4f 30 3f 21 95 79 be 04 b5 da 3e
       -1.3261169 0.6887076 -0.24373294 0.4271623
000180 c0 a8 a8 3e db 1e 1a 3d 7b 76 c3 be a6 aa 89 bf
       0.32941246 0.037627082 -0.3817633 -1.0755203
000190 b2 43 91 be fb 7f cb be 8c 5e d1 3d dc 79 fa be
       -0.2837196 -0.3974608 0.102231115 -0.48921096
0001a0 6f 3b 06 bf b8 c5 0a be 86 45 f4 3e ae 47 b0 3e
       -0.5243444 -0.13551986 0.47709292 0.34429687
0001b0 7b 6d 49 bf de e4 1b bf 33 78 76 3f 11 56 e1 3d
       -0.7868268 -0.608961 0.9627716 0.11002744
0001c0 56 2e 8e be b6 dd 56 be 36 3f 39 3e 24 c1 36 be
       -0.27769727 -0.20983014 0.1809052 -0.17847115
0001d0 18 2c 3b bf a9 60 38 be 3b b6 bf bf 08 a8 99 bf
       -0.73114157 -0.18005623 -1.4977487 -1.2004404
0001e0 43 08 2b 3f 18 52 54 be c9 f1 d0 3e 62 f8 16 bf
       0.6680948 -0.20734441 0.40809467 -0.5897275
0001f0 35 d6 8b 3f d3 74 16 3f 9f 47 e4 3e ea 2c 3b bf
       1.0924746 0.5877201 0.44585893 -0.7311541
000200 d0 99 75 bf 54 fa 09 3e 11 9a d7 be 56 15 f0 be
       -0.95937824 0.13474399 -0.4210973 -0.46891278
000210 0f 03 f3 bd 04 ad 21 3f e9 c4 fb be 27 92 4d 3e
       -0.11865818 0.63154626 -0.49173668 0.20075284
000220 39 93 c3 3e 71 b9 00 3f bf a8 27 bf 9d 27 d7 3e
       0.3819826 0.5028296 -0.6549186 0.4202241
000230 e6 47 85 bd 4f dd c8 3d ef 13 d2 3e ea f1 93 bf
       -0.06507854 0.09807836 0.41030833 -1.1558201
000240 af 8c cc 3e eb 2a a6 bd e6 36 46 bf 59 d3 23 3f
       0.39951083 -0.08113655 -0.7742752 0.63994366
000250 2f a9 fe 3e 99 62 fa be 6e 92 63 bf 88 4d 82 3e
       0.49738452 -0.4890335 -0.8889531 0.25449777
000260 c8 03 a7 bd a2 8d 86 bf 35 08 bf 3e c7 19 0b bf
       -0.08155018 -1.0511973 0.3731095 -0.5433621
000270 da 94 5e 3e a6 a9 a9 be 25 2f 57 bd 2c ef 45 be
       0.2173647 -0.33137244 -0.052535195 -0.19329518
000280 d7 72 46 3e 71 7a 37 3e 48 dd 37 3e 1c ab 1c bf
       0.19379745 0.17917801 0.17955506 -0.6119859
000290 5a c7 73 3f 84 99 de 3c b3 9a 7f be b3 0d ca be
       0.9522606 0.027172811 -0.24961357 -0.39463577
0002a0 05 ef 28 be de 10 5f 3e 3a 5b 96 3e 72 ad 85 3d
       -0.16497429 0.21783778 0.29366475 0.06527223
0002b0 b8 27 5e 3f 39 61 f5 3e 40 c5 21 3f 34 db 78 bf
       0.86779356 0.47925738 0.63191605 -0.9720948
0002c0 9d 9d 27 3e ff 63 57 3f 36 11 47 bf d0 63 c4 3e
       0.16368718 0.84136957 -0.77760637 0.383574
0002d0 4d 8b ef 3f 13 fd 4c 3f 43 52 c5 be c3 49 52 3f
       1.8714386 0.8007366 -0.38539323 0.821438
0002e0 17 8a 35 3f 15 fa de be b9 9e d6 bc 25 e1 ac bf
       0.70913833 -0.43550172 -0.026198732 -1.3506209
0002f0 5e 08 e0 be 30 67 52 3f e9 88 79 3f e8 c5 a9 be
       -0.43756384 0.821887 0.97474533 -0.33158803
000300 3b d4 3f be e5 46 e3 be 29 36 3e 3f de 8c 44 bf
       -0.18733303 -0.44390026 0.7430139 -0.76777446
000310 99 c1 33 3f eb 58 37 3e 94 cd 58 3f 3d 48 92 3d
       0.7021728 0.17905013 0.8468869 0.071426846
000320 23 0f f6 3e 31 ff bb 3f e9 19 fb 3e 3d c7 10 3f
       0.48058423 1.4687253 0.49043205 0.56554013
000330 ce 30 82 3f 53 7d 84 3e 8a c5 9e 3e 4b 60 62 3f
       1.0171144 0.25876865 0.31010085 0.8842818
000340 f4 1a 57 bc f8 98 09 3f 3d b5 9c be 18 a6 f3 be
       -0.013128985 0.53749037 -0.30607024 -0.47587657
000350 5c 29 99 3e ce 97 1d bf b6 5a 21 bf 80 70 2e bf
       0.29914367 -0.6155976 -0.6302904 -0.6814041
000360 93 d8 06 bd f2 bb 9c 3e 26 91 0b 3f d1 38 e8 3e
       -0.032921385 0.3061214 0.54518354 0.45355847
000370 f5 d4 80 be de 3d 86 3e de c9 b9 3f 03 45 44 be
       -0.25162473 0.26219076 1.451473 -0.19166951
000380 a1 d3 25 bf e6 de 26 3f 27 1f 08 3f 8a fc e4 bf
       -0.64776045 0.65183866 0.53172535 -1.7889569
000390 c1 66 47 3e b2 19 60 3f ea 61 e4 bd a2 64 8f 3e
       0.19472791 0.8753921 -0.11151488 0.28006464
0003a0 09 05 ec be bc 04 00 3e 81 1d 23 3f 96 a2 12 bf
       -0.46097592 0.12501806 0.63716894 -0.57279336
0003b0 65 d3 55 3f 50 3f aa 3e 88 b4 3d bf 45 1f 6e be
       0.8352569 0.3325143 -0.74103594 -0.23254116
0003c0 c1 a0 37 bf b9 6e c7 be ff 4e f9 be 62 26 32 3f
       -0.71729666 -0.38951662 -0.48693082 0.6958982
0003d0 64 71 09 3f 1b 43 7d 3d 58 f7 f4 3d 6c d7 f3 3e
       0.53688645 0.061831575 0.119612396 0.4762529
0003e0 68 ae a3 3e 2d 17 c1 3e 84 ae d5 3e d6 e4 42 3e
       0.31969 0.37712994 0.41734707 0.19032606
0003f0 f3 30 00 bf 1a d0 83 3f 64 62 88 bf 1f 38 fa be
       -0.5007469 1.0297883 -1.0655026 -0.48870942

blocks.0.bn1.weight f4 [64]
000000 95 6b 93 3f 5f bb b1 3f e9 8e 7b 3f fe 0c 82 3f
       1.1517206 1.3885306 0.9826494 1.0160215
000010 73 9d b0 3f d9 3b 54 3f bf c0 ae 3f 0f a1 56 3f
       1.379805 0.8290382 1.3652571 0.83839506
000020 00 b7 68 3f 15 c6 91 3f 48 01 ba 3f 70 ae ad 3f
       0.90904236 1.1388575 1.4531641 1.3568859
000030 01 18 99 3f d2 bc aa 3f e6 bf 87 3f c4 1c 9e 3f
       1.196045 1.3338873 1.0605438 1.2352529
000040 2f 76 a7 3f 4a 63 93 3f 3f be 9a 3f 98 c4 81 3f
       1.3082942 1.1514676 1.2089309 1.0138121
000050 72 e7 18 3f 26 8e a8 3f e2 f1 36 3f 81 e2 99 3f
       0.5972816 1.316838 0.71462834 1.2022249
000060 3d a6 b4 3f cc 6a 64 3f 41 5b 5e 3f d4 d6 81 3f
       1.4113232 0.8922546 0.8685799 1.0143685
000070 68 cf b1 3f 29 7e 90 3f 88 a5 d6 3f 5d 60 93 3f
       1.389142 1.1288501 1.6769266 1.1513783
000080 54 f9 82 3f 53 0b 88 3f 9f 3f 9e 3f b6 4b 84 3f
       1.0232339 1.0628456 1.2363166 1.0335605
000090 89 86 9f 3f 88 58 94 3f 37 4c 88 3f 53 10 80 3f
       1.2462932 1.1589518 1.0648259 1.0004982
0000a0 12 5c 8b 3f 06 19 9a 3f 2e 84 59 3f be 3d 80 3f
       1.0887473 1.2038887 0.84967315 1.0018842
0000b0 19 b3 c0 3f c2 f2 af 3f 43 00 a2 3f 5c 5e 5a 3f
       1.5054656 1.3745959 1.265633 0.8530023
0000c0 0a 8f c8 3f 64 db c9 3f c7 43 78 3f a7 ff 9b 3f
       1.5668652 1.5770078 0.9697842 1.2187394
0000d0 0a ae 8c 3f 28 11 a3 3f a3 d5 90 3f 18 6a 8e 3f
       1.0990613 1.2739611 1.1315197 1.1126127
0000e0 c9 d5 93 3f 14 5a ad 3f 80 72 9e 3f f7 af 8e 3f
       1.1549617 1.3543115 1.2378693 1.114745
0000f0 c3 33 d6 3f be 98 79 3f 17 0a a3 3f ee 01 55 3f
       1.6734546 0.9749869 1.2737454 0.8320607

blocks.0.bn1.bias f4 [64]
000000 4f d7 5a bf 25 25 80 bf 4c e5 a7 be f3 6c 1b bf
       -0.85484785 -1.0011336 -0.32792127 -0.6071312
000010 04 bb 78 bf 74 e2 35 3e 15 b4 59 bf 81 1c 36 be
       -0.97160363 0.17762166 -0.8504041 -0.17784311
000020 83 1e b6 be 2e 51 ed be bb 6c 6f bf e8 45 0e bf
       -0.35570154 -0.46350998 -0.93525285 -0.5557542
000030 2d 2a 4b bf f7 84 67 bf 12 af ac be ea 49 10 bf
       -0.7936123 -0.90437263 -0.33727318 -0.56362784
000040 dd f6 42 bf b6 29 66 be 83 4f 8b bf cc d0 a9 be
       -0.76157933 -0.22476849 -1.088364 -0.33167112
000050 7d de 0f 3f a6 97 79 bf cb 44 bd 3d 07 59 38 bf
       0.56198865 -0.9749702 0.09241637 -0.72010845
000060 7b f1 40 bf da 79 e4 bd b7 93 b7 be 5a de fe be
       -0.7536847 -0.11156054 -0.35854885 -0.49779016
000070 43 36 76 bf 33 5b 4d bf 6f 81 65 bf 49 9a 32 bf
       -0.96176547 -0.80217284 -0.89650625 -0.6976667
000080 79 91 e4 be 69 a7 df be f8 77 3e bf cd d9 8c be
       -0.44642237 -0.4368241 -0.7440181 -0.2750992
000090 82 02 a1 bf 64 98 17 bf 56 b7 3d bf ad c0 13 bf
       -1.257889 -0.59216905 -0.74107873 -0.57715875
0000a0 33 3f ea be 22 a8 54 bf de 10 b1 be 27 89 ff be
       -0.45751342 -0.8306905 -0.3458318 -0.49909326
0000b0 22 1c 41 bf 9b 85 12 bf 50 46 8e bf 74 72 af be
       -0.7543355 -0.57235116 -1.1115208 -0.34267008
0000c0 53 02 76 bf 5a 08 40 bf 18 6c b8 be 29 17 76 bf
       -0.96097296 -0.75012743 -0.3601997 -0.9612909
0000d0 a3 02 88 3d 68 80 7e bf 44 8d 20 bf 9a 85 0d bf
       0.06641128 -0.9941468 -0.62715554 -0.55281985
0000e0 a6 d8 d5 bd 67 3a a0 bf 05 ff 6e bf db 07 f1 be
       -0.10441713 -1.2517823 -0.9335788 -0.47076306
0000f0 ea df 8b bf 5a 17 fa be ff 1b 0e bf 22 ff 84 be
       -1.0927708 -0.4884594 -0.5551147 -0.259759

blocks.0.bn1.running_mean f4 [64]
000000 dd 7e 3e 40 fd cf 44 3f cf f3 8d 40 ad 0f 80 c0
       2.9764931 0.76879865 4.436012 -4.0019135
000010 3f 02 03 c1 23 a7 7d c0 36 45 21 c0 3f 46 1f c0
       -8.188048 -3.9633262 -2.5198493 -2.4886625
000020 83 4c 85 40 a9 51 db bf 3f 11 00 c1 82 f1 70 c0
       4.16559 -1.7134296 -8.00421 -3.7647405
000030 a1 95 10 40 9d 02 99 c0 14 fe ad c0 9e d7 39 c0
       2.2591326 -4.781569 -5.4372654 -2.9037852
000040 18 e1 1e c0 ea 93 0f c1 4b f2 76 3e 37 bf 78 c0
       -2.4824886 -8.973612 0.24115865 -3.8866708
000050 51 ee 10 bf 5b 86 83 c0 9d 73 97 bf 9e 3b bf c0
       -0.5661364 -4.110151 -1.1832157 -5.9760275
000060 76 5e 11 c1 54 f3 36 c0 28 b7 0e c0 db 67 18 bd
       -9.085562 -2.8586016 -2.229929 -0.03720842
000070 f6 f1 cc c0 61 a2 97 c0 b8 d6 bc c0 38 dd 82 c0
       -6.4045362 -4.7385716 -5.901211 -4.0895042
000080 60 f4 3a c0 a3 e8 29 c0 35 f7 bb c0 ed a5 bf 3e
       -2.9211655 -2.654824 -5.8739266 0.3743128
000090 b0 b1 c6 3f 3d 93 3f c0 c8 55 c1 bf 13 61 d5 bf
       1.5522976 -2.9933617 -1.5104303 -1.667025
0000a0 4f 4b f2 c0 b8 a3 85 3e 08 59 8a c0 8d 6d a0 bc
       -7.571693 0.2610147 -4.323368 -0.019583488
0000b0 5a b8 fa c0 3e c6 ca c0 50 54 17 c0 89 9b a1 40
       -7.835004 -6.3366995 -2.364521 5.050236
0000c0 3f e2 ac c0 e3 cb 90 c0 54 7a 40 c0 1f b7 48 40
       -5.402618 -4.5248885 -3.0074663 3.1361768
0000d0 60 2d 83 c0 dc e8 3d 40 f5 9d 2d 40 71 ea 7c c0
       -4.099289 2.9673376 2.712766 -3.9518092
0000e0 00 5b b2 3f b9 59 4b c0 d5 a9 39 40 2a 40 b8 c0
       1.3934021 -3.1773512 2.9009907 -5.7578325
0000f0 67 63 11 c1 da a8 2b 3e b1 02 e5 c0 66 1a 06 c0
       -9.086768 0.1676363 -7.1565785 -2.0953612

blocks.0.bn1.running_var f4 [64]
000000 77 b7 3f 42 8e 34 4e 42 6d 33 2c 42 96 90 12 42
       47.929165 51.551323 43.05022 36.641197
000010 7d 44 37 42 0a 83 fb 41 71 f1 21 42 7e 88 04 42
       45.816883 31.438984 40.485783 33.133293
000020 5b 81 4e 42 d4 d8 38 42 0d 7b 32 42 17 f2 5f 42
       51.626324 46.211746 44.620167 55.986416
000030 e6 25 24 42 b6 fb 44 42 e0 dc 40 42 0d 60 74 42
       41.03701 49.24581 48.2157 61.0938
000040 b1 f0 5f 42 c9 d6 58 42 9d 89 1a 42 c2 e3 13 42
       55.98505 54.20975 38.634388 36.97242
000050 d9 02 00 42 47 b3 22 42 4c 21 0d 42 aa 86 14 42
       32.00278 40.675076 35.282516 37.131508
000060 ce 6d 69 42 3d 99 18 42 81 38 0d 42 29 41 22 42
       58.35723 38.149647 35.30518 40.563633
000070 ab d0 51 42 72 ed 1a 42 d0 d8 71 42 cd 0a 04 42
       52.453777 38.73188 60.46173 33.010548
000080 6e 42 0a 42 82 76 37 42 19 02 51 42 f1 6c 29 42
       34.564873 45.86573 52.25205 42.356388
000090 ec 4f 15 42 27 37 0e 42 0c 6b 0b 42 74 96 f8 41
       37.32805 35.55386 34.854538 31.073463
0000a0 f9 45 2d 42 b7 45 19 42 fc ab 00 42 8c bf 0c 42
       43.318333 38.31808 32.167953 35.187057
0000b0 18 81 56 42 34 44 4a 42 16 dc 02 42 bf b8 1b 42
       53.62607 50.566605 32.714928 38.930416
0000c0 a4 ff 2e 42 99 f0 4d 42 ce 09 0b 42 97 7f 1e 42
       43.74965 51.48496 34.759575 39.6246
0000d0 45 4f 5b 42 e5 f1 09 42 3f 7b 24 42 af 52 0b 42
       54.82741 34.486225 41.120358 34.830746
0000e0 fc 78 6f 42 9c e5 25 42 31 1d 09 42 a0 b7 37 42
       59.86815 41.474228 34.278507 45.92932
0000f0 31 95 57 42 a6 26 1b 42 ac 45 05 42 61 c7 0e 42
       53.895695 38.787743 33.31804 35.694706

blocks.0.conv2.weight f4 [64, 64, 3, 3]
000000 44 4b bc be df b1 93 3e f1 0e 81 3f 54 ab 68 3f
       -0.36776173 0.28846642 1.0082685 0.90886426
000010 00 64 8a bf b2 40 f9 bd 99 95 c7 bf 0c aa 31 3f
       -1.0811768 -0.12170543 -1.5592529 0.69400096
000020 74 08 28 3e 0e 14 b3 bf c9 04 f1 be 5b 9e 78 3e
       0.16409475 -1.3990495 -0.47073963 0.24279158
000030 33 25 1b 3e 5f 25 48 3e 0b e5 de 3e ed a0 1b bf
       0.15150909 0.19545506 0.4353412 -0.6079243
000040 4e 6b dd bd 11 98 04 3e 9a 95 49 bf cc c5 3c bf
       -0.10811482 0.12948634 -0.787439 -0.73739314
000050 55 a1 70 bf 1d 38 c7 3e 1b 01 dd be b9 bc 20 be
       -0.93996173 0.3891 -0.43164906 -0.15696992
000060 12 72 81 3f 52 f9 90 be b5 46 9a 3f a4 db 49 bf
       1.0112936 -0.28315216 1.2052828 -0.7885077
000070 5e e4 d4 3e 70 3b 5a be 28 72 04 bf 4f 48 f1 3e
       0.4158048 -0.21311736 -0.5173669 0.4712548
000080 93 89 81 be 48 30 5e 3e 3a 90 0c 3e 5e 5a 47 3f
       -0.25300273 0.21698105 0.13726893 0.77872264
000090 4f 3e 14 3e e0 e3 ce be fc 54 f0 3e 8b aa e0 3c
       0.14476894 -0.4040823 0.46939838 0.027425071
0000a0 95 d0 42 3c c5 e1 6e 3e 3a db a2 3e c6 97 05 bf
       0.01189055 0.23328312 0.31807882 -0.5218471
0000b0 cd e2 32 bf 92 73 59 be f7 4c a8 3f 4d 89 8d bf
       -0.6987732 -0.21235493 1.3148488 -1.1057526
0000c0 3e 8c 1a 3d d3 15 a9 be 09 fe 05 3e d2 79 fb bf
       0.0377314 -0.33024463 0.13085188 -1.9646552
0000d0 aa d9 64 bc 13 e8 a3 be 16 cb a9 3e d9 05 fc 3c
       -0.013967911 -0.32012996 0.33162755 0.030764507
0000e0 94 59 0e 3f 54 75 b0 be 9a 83 90 3f 0a 8d d8 3d
       0.55605435 -0.34464514 1.1290162 0.10573776
0000f0 16 1e 86 bf ae 92 3e bf 27 87 0b 3f c8 ad 07 3f
       -1.0477931 -0.74442565 0.545031 0.52999544
000100 d8 da d4 3e 37 ca d8 be 16 82 be 3e 9f 4d 21 3e
       0.41573215 -0.42341778 0.37208623 0.15752266
000110 64 49 14 3f e4 6f be be 95 96 14 bf e2 70 85 be
       0.57924485 -0.3719474 -0.5804227 -0.26062685
000120 86 43 ba 3e d5 55 80 3d cd b5 52 be 41 0a 9e bf
       0.3637964 0.06266371 -0.20577164 -1.2346879
000130 52 fd d3 3e 03 aa 67 3f da 1c 8b 3d 5a 2f 2b 3e
       0.41404206 0.9049379 0.067926124 0.16717282
000140 b2 68 a6 3e eb f9 69 3f bf 28 03 c0 a4 18 16 3f
       0.3250175 0.9139697 -2.049362 0.5863135
000150 3d 11 2e be 0d 13 b6 3e 2d 5d be 3e 67 9b 34 3e
       -0.16998763 0.3556141 0.37180462 0.17637406
000160 e4 82 cc be 4b d9 41 bf 3c bf 6b be e2 03 b2 bf
       -0.39943612 -0.7572219 -0.23022169 -1.3907435
000170 86 d9 8f bf ee 26 a9 bd 8d 60 89 3c e0 79 a0 3e
       -1.1238258 -0.082593784 0.016769672 0.31342983
000180 81 0a 38 bf 7d 29 06 3e 8f 03 98 bf 58 53 9c 3e
       -0.7189103 0.13101764 -1.1876086 0.30532336
000190 23 58 f6 be 66 7e 3e 3e 19 a1 4e bf 89 82 ad bf
       -0.48114118 0.18602905 -0.80714566 -1.3555461
0001a0 c5 f3 b2 be 7a 6b 70 3c 43 76 17 3e cd ad 25 bf
       -0.34951606 0.014674062 0.14791207 -0.64718324
0001b0 a1 dc a7 bf 68 ff f9 3b e0 c2 3c bf e6 f5 4f bf
       -1.3114206 0.0076293238 -0.73734856 -0.81234586
0001c0 23 bd 9d be c5 47 05 3f 80 91 6d bf 8f a1 96 3f
       -0.30808362 0.52062637 -0.9280014 1.1768054
0001d0 db 6a 9b 3e 0c 8d bd 3e 18 93 08 3f 8d 32 af be
       0.30354962 0.37021673 0.5334945 -0.34218255
0001e0 97 96 8c 3e 77 b7 34 bd 3b 94 8d 3f 60 f6 45 3f
       0.2745864 -0.04412028 1.1060861 0.77329063
0001f0 c9 7d 9c 3f cc 77 47 3f e9 73 df 3e 61 99 ae bf
       1.2225887 0.7791717 0.4364312 -1.3640558
000200 55 2e 76 bf 0b ec 96 3f 71 9f a7 3f f0 6b a9 3e
       -0.9616445 1.1790785 1.3095533 0.33090162
000210 61 9f 24 3f 16 d8 08 3e 66 62 9b be 77 88 6b 3f
       0.6430569 0.1336368 -0.3034851 0.92005104
000220 e6 0a 7b 3f 3f 9a 1a 3f d1 5b 6a bf 13 6a 0a 3e
       0.98063505 0.6039161 -0.9154635 0.13517027
000230 e7 69 04 3e 7f a3 10 3e 69 b4 58 be 0c 84 ce 3e
       0.12931024 0.14124869 -0.21162571 0.4033512
000240 6c 72 09 3f c0 83 10 bb 65 32 39 bf 10 d8 a9 be
       0.5369022 -0.0022051185 -0.7234252 -0.33172655
000250 32 8d 27 bf 07 c1 09 bf b7 d7 8c be 0b d9 f0 3e
       -0.6544982 -0.5381016 -0.27508327 0.4704059
000260 d9 9b 61 3e d4 09 01 3f 04 79 f9 bf d5 20 a0 3e
       0.22032107 0.5040562 -1.9490056 0.3127505
000270 52 e4 8c bf e2 65 0c bf 73 ba 51 3f 36 ec 57 be
       -1.1007178 -0.5484296 0.81925124 -0.21086201
000280 d6 b3 5b 3f 39 16 7d be 4e cb cd be 82 20 48 3e
       0.8582128 -0.24715509 -0.40194172 0.19543651
000290 4f 1c b6 3f 1f 92 3a bd de ef e9 be 57 eb 38 3f
       1.4227389 -0.04554951 -0.45690817 0.722341
0002a0 03 c3 9d be fa 96 b5 bf 46 ea 13 3f db f2 05 3f
       -0.30812845 -1.4186699 0.5777935 0.52323693
0002b0 00 1d 22 3f cb b9 4c bc 3a a6 5f bd de 15 83 be
       0.633255 -0.012495468 -0.054601885 -0.2560262
0002c0 ea 74 72 3f 20 28 2d bf 47 d2 d3 3e b2 56 c4 3e
       0.94709647 -0.6763935 0.41371366 0.38347393
0002d0 15 0f 0a be 8d 9f 69 bf 79 c2 84 3f c2 b3 c7 3e
       -0.13482316 -0.9125908 1.0371848 0.39004332
0002e0 65 d4 e1 3e b2 b9 00 3f a4 18 a0 3e 1b 11 e6 3d
       0.44107357 0.5028335 0.312688 0.11233731
0002f0 21 f6 d4 3e 81 4e 50 bf db c2 0a be 37 fa 1b 3e
       0.4159403 -0.8136979 -0.13550894 0.15232168
000300 47 30 8c 3f 33 2f 0c 3e c2 fd 87 3e 7a a1 61 bf
       1.0952233 0.1368988 0.2656079 -0.8813702
000310 a0 a3 ea 3e 64 5c 0a 3f 77 6f 10 be 98 48 52 be
       0.4582796 0.54047227 -0.1410502 -0.20535505
000320 0a fd 89 3e 7a 63 4a 3f 4a 7f 82 3e 30 3c 9b 3f
       0.26950866 0.7905804 0.2548774 1.2127743
000330 20 3e 66 3e cf 6c 3d 3e 6c e8 39 bf 06 cd 05 c0
       0.22484636 0.18498538 -0.7262027 -2.0906386
000340 71 98 74 bf d8 f5 96 be be 59 3d bf 81 db 34 bf
       -0.9554511 -0.2948444 -0.7396506 -0.70647436
000350 34 19 72 3e 88 c2 80 be d1 21 ee bd f3 8a b2 3f
       0.23642427 -0.25148416 -0.11627544 1.3948654
000360 c7 68 f2 bd b9 3d 25 3f c9 59 8b 3f d2 66 81 be
       -0.11836391 0.64547306 1.0886775 -0.25273758
000370 f9 3c 0c bf af 5d 80 3f f1 73 cf 3e 51 d2 6b 3e
       -0.54780537 1.002859 0.40518144 0.23029448
000380 6f 7f 52 be 6f 71 02 bf 8f 4c f3 be fc 8f 3a 3e
       -0.20556425 -0.50954336 -0.47519347 0.18218988
000390 06 f2 31 be c9 04 80 be 32 02 ed 3e 43 62 f9 be
       -0.17377481 -0.2500365 0.46290737 -0.4870778
0003a0 17 cc 38 3d c0 7a 97 3f 7c ba 5c 3d 86 1c dc bb
       0.04511651 1.1834335 0.053888783 -0.0067172674
0003b0 e7 3a de bd a1 16 16 bf d8 35 0f bf a4 75 e1 be
       -0.108510785 -0.5862828 -0.55941534 -0.44035065
0003c0 2d 29 b3 3f 04 f8 1c 3d 2f f2 1f bf 51 61 f1 be
       1.3996941 0.038322464 -0.6247892 -0.4714456
0003d0 11 58 8c bf 6c a7 05 3f df 54 50 bf c6 ab 6e bf
       -1.0964376 0.5220859 -0.81379503 -0.93230855
0003e0 93 7c f4 3e fd 21 e2 bd 4c 5b a4 3c ee bc a1 3f
       0.47751293 -0.11041639 0.020063065 1.2635782
0003f0 c7 58 4f 3f 80 f8 2d bf 3a 97 8b bd 5e 75 9e 3e
       0.8099484 -0.67957306 -0.068159536 0.3094892

blocks.0.bn2.weight f4 [64]
000000 23 ed 97 3f 42 2e bb 3f b7 76 a4 3f 79 0d b2 3f
       1.1869243 1.4623492 1.2848729 1.3910362
000010 b6 71 be 3f ce 08 9a 3f e4 9d 93 3f 6a 24 a8 3f
       1.4878452 1.2033937 1.1532559 1.3136113
000020 ff c3 a0 3f 29 39 b7 3f 30 3b cd 3f 89 1c b5 3f
       1.2559813 1.4314319 1.6033688 1.4149333
000030 4f d6 bb 3f 4a 09 81 3f 66 38 a2 3f 44 41 c0 3f
       1.4674777 1.008096 1.2673461 1.5019917
000040 3b a1 b7 3f a0 db b6 3f 6d aa 93 3f e0 07 c1 3f
       1.4346079 1.4285774 1.1536385 1.5080528
000050 24 c5 c5 3f 1e cc a4 3f fc 18 aa 3f d3 0c be 3f
       1.5450788 1.2874792 1.3288875 1.4847664
000060 26 40 a9 3f 3e a8 92 3f 61 13 be 3f 2f 11 ad 3f
       1.3222702 1.1457593 1.4849664 1.3520869
000070 e2 63 bb 3f ae 18 cf 3f 69 dc c4 3f e9 03 b0 3f
       1.4639857 1.6179407 1.5379764 1.3751193
000080 5c 5c 8d 3f 70 4c c0 3f c6 90 af 3f 9c 24 c8 3f
       1.1043811 1.5023327 1.3716056 1.5636172
000090 de bc a9 3f 72 d6 86 3f bd c2 a8 3f 87 4f c0 3f
       1.3260763 1.0534194 1.318443 1.502427
0000a0 09 29 ab 3f 1e 77 a7 3f 6f 5e b9 3f 15 20 b7 3f
       1.3371898 1.3083227 1.4481944 1.4306666
0000b0 69 a2 97 3f a5 06 b3 3f 7b 00 b4 3f 8e 28 c7 3f
       1.1846439 1.3986403 1.4062647 1.5559251
0000c0 60 86 ac 3f 72 86 d2 3f f3 ca a0 3f 23 ef a1 3f
       1.3478508 1.644728 1.2561935 1.2651104
0000d0 0c 63 b0 3f 6e 20 b9 3f 48 76 9a 3f b8 6c b8 3f
       1.3780227 1.4463022 1.2067347 1.4408178
0000e0 be 45 b0 3f 3e a3 c4 3f c3 5c c5 3f 16 b7 95 3f
       1.3771284 1.5362318 1.5418934 1.1696498
0000f0 b6 17 bc 3f af 6f cb 3f 9a c1 a1 3f 7e 3c 97 3f
       1.4694736 1.5893458 1.2637208 1.1815336

blocks.0.bn2.bias f4 [64]
000000 a1 c2 3f bf 93 53 87 bf e3 cc 3a bf 1d 0c 9c bf
       -0.74906355 -1.057238 -0.7296888 -1.2191197
000010 1a c1 58 bf 92 01 76 bf be 6e dc be fc 72 82 bf
       -0.8466965 -0.96096146 -0.4305324 -1.019134
000020 f5 46 45 bf 76 e7 9b bf 75 6d 9e bf e7 e6 b1 bf
       -0.77061397 -1.2180011 -1.2377154 -1.3898591
000030 f5 19 ae bf 04 0b 3f bf 3f 50 15 bf 8c e2 91 bf
       -1.3601671 -0.74626184 -0.5832557 -1.1397262
000040 a3 53 8f bf 88 b4 38 bf ed 5e b5 be 68 d6 33 bf
       -1.1197399 -0.7215047 -0.35423985 -0.7024903
000050 5a bd 91 bf 76 69 2b bf ce 92 a3 bf 3d 04 98 bf
       -1.138591 -0.66957796 -1.2779176 -1.1876293
000060 e8 1c 57 bf 50 f6 7f bf a0 4f 90 bf 6e e2 97 bf
       -0.8402848 -0.9998522 -1.12743 -1.1865976
000070 43 41 10 bf 62 c4 95 bf ab a7 ad bf d4 b4 a3 bf
       -0.5634958 -1.1700556 -1.3566793 -1.2789559
000080 50 96 23 bf 49 1c 8f bf d2 c2 6f bf 5d 20 c8 bf
       -0.63901234 -1.1180507 -0.9365665 -1.5634876
000090 95 c6 6c bf 9f f4 11 bf 40 77 74 bf 7e 1c 7d bf
       -0.9249051 -0.5701389 -0.9549446 -0.988716
0000a0 8e 8a 38 bf 96 a7 74 bf b7 c4 8d bf 5c 3a 51 bf
       -0.7208642 -0.95568216 -1.1075658 -0.81729674
0000b0 d0 f5 1b bf bd 11 d5 be 62 81 53 bf cb 5e 87 bf
       -0.60921955 -0.41615096 -0.826193 -1.0575804
0000c0 df f8 6e bf a4 1d 88 bf 07 13 10 be 92 77 38 bf
       -0.933485 -1.0634046 -0.14069758 -0.7205745
0000d0 a0 26 77 bf d2 44 da be c6 23 94 be 90 b4 ca bf
       -0.9654331 -0.4263063 -0.28933543 -1.5836353
0000e0 ed 80 4f bf 68 ed a1 bf 6d 08 91 bf a2 b6 13 bf
       -0.810561 -1.2650576 -1.1330696 -0.5770055
0000f0 cd 19 67 bf 3c 62 23 bf fa 07 01 bf eb 04 bf be
       -0.90273744 -0.6382177 -0.50402796 -0.3730844

blocks.0.bn2.running_mean f4 [64]
000000 a2 b4 13 bf 48 e3 4a c0 67 be 02 c0 f4 80 0a 40
       -0.576975 -3.1701221 -2.0428712 2.1641207
000010 ce 71 04 c1 19 70 b0 c0 cd cf 51 3e 41 01 94 c0
       -8.277784 -5.513684 0.20489426 -4.625153
000020 b2 db aa bf d9 90 a5 bf c0 b3 27 c1 95 b8 df c0
       -1.3348296 -1.2934829 -10.481384 -6.991282
000030 e5 fa de c0 51 3d 2d c0 c3 d8 be c0 64 31 be c0
       -6.968127 -2.7068675 -5.96396 -5.943529
000040 c9 38 e3 be 88 b0 bd c0 6e 8d 7e be c7 f8 4b c1
       -0.4437926 -5.927799 -0.24858639 -12.748237
000050 69 91 2c c0 e7 3e 81 40 f3 d8 37 c0 94 ec ab c0
       -2.6963751 4.0389285 -2.8726165 -5.372629
000060 b9 97 7e c0 b4 bf a1 bf 6a bb 80 3f 66 52 db 3f
       -3.9780104 -1.2636628 1.0057194 1.7134521
000070 4c 29 1e c1 52 ce a5 c0 9a 87 b8 c0 4a 3c af c0
       -9.885082 -5.1814356 -5.766553 -5.4761095
000080 5e 17 b8 c0 53 62 4d c0 39 6b bd c0 29 32 63 40
       -5.7528524 -3.2091262 -5.9193387 3.5499365
000090 c0 5b f1 c0 c3 f6 73 40 07 44 2e 3f 7a 46 67 c0
       -7.54245 3.8119361 0.6807255 -3.6136765
0000a0 a9 dd cb c0 31 be 5f c0 52 39 36 3f 1a ee 99 c0
       -6.370808 -3.4959834 0.71181214 -4.810315
0000b0 b9 71 9a 40 41 cd 8c bf f7 fa 95 c0 a4 c8 01 c1
       4.826382 -1.1000139 -4.6868854 -8.111485
0000c0 16 5a 4c c0 cb 48 2b c0 2d 1c 7a c0 2f 3a 21 c1
       -3.1929984 -2.676318 -3.9079697 -10.076705
0000d0 64 1c 14 c1 6b 92 2f 40 31 ce 41 c0 c3 09 44 c0
       -9.256931 2.7433116 -3.02821 -3.0630958
0000e0 cb 44 e4 c0 7f cb 90 bf bc 85 9e c0 d2 ca a2 bf
       -7.1333976 -1.1312102 -4.953825 -1.2718146
0000f0 e3 34 fb c0 1b 3e 73 3f 59 cb 87 c0 86 a4 f7 c0
       -7.850206 0.9501664 -4.2435727 -7.7388334

blocks.0.bn2.running_var f4 [64]
000000 b4 f6 97 42 74 1c 9d 42 0c 6f 79 42 e8 0d ad 42
       75.98184 78.55557 62.358444 86.52716
000010 51 2d b7 42 5b 0d 83 42 f6 c7 8c 42 58 2c 81 42
       91.58851 65.526085 70.39055 64.58661
000020 bf 68 9d 42 01 59 8b 42 1b 13 e0 42 9a 37 ae 42
       78.70458 69.673836 112.037315 87.1086
000030 6d 9a 85 42 c5 f3 77 42 14 25 82 42 14 7b 87 42
       66.80161 61.988056 65.07242 67.74039
000040 be 52 73 42 f2 b2 b5 42 0d 33 7a 42 53 0f b5 42
       60.830803 90.8495 62.549854 90.52993
000050 25 0f af 42 a4 45 ab 42 7b 94 7d 42 2e 7d bb 42
       87.52958 85.63602 63.395 93.74449
000060 e6 46 b9 42 00 2e 51 42 c6 bd b2 42 94 c5 a0 42
       92.63847 52.29492 89.37065 80.385895
000070 dc ea c6 42 3a a9 b1 42 cc d9 a3 42 5f fc b1 42
       99.45871 88.83052 81.925385 88.99291
000080 d9 22 69 42 f2 8a 94 42 45 da 8d 42 f1 2d 73 42
       58.28403 74.27138 70.92631 60.794865
000090 04 9f af 42 34 56 94 42 7d c9 9d 42 70 31 b3 42
       87.81058 74.168365 78.89353 89.59656
0000a0 23 79 b0 42 6d 82 97 42 df 9d 97 42 14 48 b7 42
       88.236595 75.75474 75.80834 91.64078
0000b0 44 6c 7e 42 6b 8b da 42 57 45 a7 42 5d e1 aa 42
       63.60573 109.2723 83.63543 85.44016
0000c0 85 2b a2 42 cf 56 a3 42 1d 6e 86 42 f8 13 ae 42
       81.085 81.66955 67.215065 87.039
0000d0 1f af bc 42 a0 11 ab 42 cf c8 bd 42 8b 30 9a 42
       94.34203 85.534424 94.892204 77.09481
0000e0 31 3b 8e 42 f8 cc 9a 42 c0 bf 85 42 48 f2 93 42
       71.11561 77.40033 66.87451 73.973206
0000f0 f5 7a 9f 42 18 ab ac 42 71 b2 8d 42 2f 2c a8 42
       79.74015 86.33417 70.84852 84.086296

blocks.1.conv1.weight f4 [64, 64, 3, 3]
000000 09 c4 7d bd a8 bc 97 3e 9d a9 05 bf 87 a6 c1 3f
       -0.06195453 0.2963612 -0.52211934 1.5128945
000010 16 7d de 3d e3 98 b8 bc 6e 22 c9 3b 3e f7 24 ba
       0.10863702 -0.02253384 0.0061381375 -0.00062929455
000020 74 f7 01 3e d5 20 50 be e2 7d 5a 3e 4d 50 17 bf
       0.12692052 -0.20325024 0.21337083 -0.59106904
000030 2f b3 ed 3e 8e 1f a3 3f 8b c3 94 be c4 b7 bc bf
       0.4642577 1.2744005 -0.29055437 -1.4743581
000040 7d d1 81 3f a3 49 be bf 7f 04 65 3f 76 88 60 bf
       1.0142056 -1.4866222 0.89459985 -0.8770822
000050 69 6f cd be 57 0e 13 bf dd 8d 6d 3f 5c b4 09 3d
       -0.40124062 -0.57443756 0.9279459 0.03361927
000060 43 ce 4b 3f 87 53 1b bf 30 bf 00 be 09 0a a5 bf
       0.79611605 -0.6067433 -0.12572932 -1.2893687
000070 d9 96 84 3e 24 f4 70 bf 03 c4 ba 3d 62 39 8e 3d
       0.25896338 -0.9412253 0.091194175 0.06944539
000080 c4 99 4a bf 7d 95 58 bf cd b6 10 bf 1b 77 53 be
       -0.7914088 -0.846031 -0.5652893 -0.20650904
000090 b1 51 05 c0 2a ba 74 bf 1d 5e ec bd 86 f6 49 bf
       -2.083111 -0.95596564 -0.11541388 -0.7889179
0000a0 48 d7 9a bd 60 75 a9 be 50 7e 07 be 2f 2a b2 bd
       -0.07560593 -0.33097363 -0.13231778 -0.08699452
0000b0 77 6a 65 3f 90 6c c0 bd a5 1d 4d 3f 74 e6 33 3f
       0.8961558 -0.09395707 0.8012336 0.7027352
0000c0 f0 29 82 be a0 ac 67 bf 48 4a 23 bf 2f 6c 73 3f
       -0.2542262 -0.9049778 -0.6378522 0.9508695
0000d0 62 a9 a9 3e a8 e1 5c be 15 3b 6a 3e de a8 0b 3e
       0.3313704 -0.21570456 0.228741 0.13638636
0000e0 22 65 8f 3e 7c bc 12 3e 09 5c 12 3b 2f 5e 01 bf
       0.28006846 0.14329714 0.002233269 -0.5053434
0000f0 45 55 37 bf d2 b4 3f 3e 3c 28 8d bf 7b bb 85 be
       -0.71614486 0.18721321 -1.1027904 -0.261196
000100 c2 8e d6 be 38 3f 2f 3d d6 c3 30 bf 73 ec 92 be
       -0.4190579 0.0427849 -0.6904882 -0.2869602
000110 3f b2 e3 be 0b 90 2d bf e8 2d 8c 3f df ac 16 3d
       -0.44471928 -0.6779792 1.095151 0.036785956
000120 bc 23 71 3f 42 9c 36 3f 75 b8 bc 3e 51 af 30 be
       0.9419515 0.7133218 0.3685948 -0.17254378
000130 09 0e c6 3e 2b 1e 47 bf 38 96 66 3e b9 cc 3b be
       0.38682583 -0.7778041 0.22518241 -0.18339814
000140 97 c6 97 be 4e 06 8a 3e 21 dd 1c 3e 48 2c 45 3d
       -0.296437 0.26957935 0.15318729 0.048137933
000150 0e 1f d2 be d2 34 03 bf 19 ca a1 bf ff 66 87 3f
       -0.41039318 -0.5125247 -1.26398 1.0578307
000160 07 33 a9 bf 3b 1a 8e be b8 76 04 c0 99 0c 7d bd
       -1.3218697 -0.27754387 -2.069746 -0.061779592
000170 6d 4e a7 3e 7f f4 47 bf 62 2a a1 be 24 06 05 be
       0.32677022 -0.78107446 -0.31477648 -0.12990624
000180 1b 96 ba 3d f7 51 10 be 3c 89 8a be af 76 d4 3e
       0.091106616 -0.14093767 -0.27057827 0.41496798
000190 ec 34 d7 be 33 d1 56 bf ec b6 2a bf 4b 40 be 3e
       -0.42032564 -0.8391296 -0.66685367 0.37158427
0001a0 54 81 dc 3f 9e 25 88 3e 50 5c 83 3e 57 82 1e 3f
       1.7226968 0.265912 0.25656366 0.6191763
0001b0 8d 7d 5b bf d8 1a 80 be 36 1e 52 bf 12 c4 fc 3b
       -0.8573845 -0.2502048 -0.8207735 0.007713803
0001c0 b5 a5 a8 be b4 fb a6 3e 05 29 d3 bf f3 43 94 bd
       -0.32938924 0.3261391 -1.6496893 -0.07239523
0001d0 14 89 de be 09 fd 0a 3f ff d1 09 bf e9 e0 08 3c
       -0.43463957 0.5429235 -0.53836054 0.008354404
0001e0 c3 53 09 3f 84 c2 58 bf c0 57 45 be 1f a1 13 3e
       0.53643435 -0.8467181 -0.19271755 0.14416932
0001f0 f7 f4 7c 3f 6c a1 8a bf 25 3e ef 3e 62 16 72 3e
       0.98811287 -1.0830512 0.467271 0.23641351
000200 2e 56 c9 3d 2e ff 66 3e fa 6a 35 be 9a 76 3b 3f
       0.098308906 0.22558281 -0.1771659 0.73227847
000210 bf 15 f8 3e 62 5b 8a 3e ab f6 18 be 52 f3 41 bf
       0.4845409 0.27022845 -0.14937846 -0.757619
000220 b1 c0 cf be 7d b3 81 3e fc 1a f6 3d 5e cc ff bc
       -0.405767 0.2533225 0.120168656 -0.03122538
000230 44 16 bf bd 4e f1 85 bd 66 cc e9 be 06 bd d7 3e
       -0.09330419 -0.06540166 -0.45663756 0.421364
000240 a1 3c 83 bf 30 c5 96 bd 93 4f 8c 3f 08 ad ab be
       -1.0252877 -0.07361829 1.0961784 -0.3353045
000250 03 0e 2f 3f 0f 2d 2b 3e 95 49 0c bf 36 59 ad be
       0.68380755 0.16716407 -0.5479978 -0.33857125
000260 f2 4f d8 bd ca 67 a2 3e c6 96 5c 3e 20 18 44 3f
       -0.10562123 0.3171981 0.2154189 0.7659931
000270 51 c2 86 3f ca 89 4d bf 3c 8e 52 3f 8a 2b dc 3e
       1.0528051 -0.80288374 0.8224828 0.43001968
000280 07 50 32 bf 66 43 a8 3f 74 5e 35 3f 0c e0 92 3e
       -0.6965336 1.3145568 0.7084725 0.2868656
000290 0a f7 1e 3f a5 bc 66 bf 09 00 ab 3e ba c4 2d 3f
       0.620957 -0.901316 0.33398464 0.67878306
0002a0 8b 60 85 3f 22 1f c8 3e ff 5b 2b 3d 5e 2c c2 be
       1.0420088 0.39086252 0.04183578 -0.37924474
0002b0 7e ba 7c be 02 b4 c7 3e 2f 6f fa 3b 0b d2 ec be
       -0.24680516 0.39004523 0.0076426486 -0.46254
0002c0 a2 d6 87 be bb 4e 4a bf 8c 81 a0 bc e3 e4 62 3e
       -0.2653094 -0.79026383 -0.019593023 0.22157626
0002d0 9b b1 8d bf 38 c9 4e 3e c9 84 de be 0f 1c 9c 3d
       -1.1069826 0.20193946 -0.43460682 0.07622539
0002e0 a8 3c 66 bc 18 df ae be 5e 31 f2 be b0 6a 72 3d
       -0.0140525475 -0.34154582 -0.4730329 0.059183776
0002f0 06 61 69 3f cb af 09 bf 50 61 27 bf 41 61 80 bf
       0.9116367 -0.53783864 -0.6538286 -1.002968
000300 5c 38 23 3f 75 14 33 3f 2b c9 39 3f 99 5b 4f 3d
       0.6375787 0.6995309 0.7257258 0.050624464
000310 2d 14 e9 3e 93 68 1f 3f aa a0 40 bd 5a e5 8c bf
       0.45523205 0.6226894 -0.04702822 -1.1007493
000320 f4 a5 20 3e 12 9b 2d 3f 19 f5 ce 3d 90 f7 a3 bf
       0.15688306 0.67814744 0.101053424 -1.2809925
000330 d4 4b 5c bf 51 ea e7 3d 0b e2 11 bd 7e 44 2d 3f
       -0.86053205 0.11323989 -0.035615962 0.67682636
000340 36 97 35 bd 93 b4 7b 3f 0c a6 23 3f 63 67 e9 be
       -0.04433366 0.9832241 0.6392524 -0.4558669
000350 36 6c ff bd 33 c0 3b 3f 81 70 c5 bf ac d1 65 3e
       -0.124718115 0.7334015 -1.5424958 0.22443265
000360 e4 b9 2b 3d c8 fc 50 3e 78 b7 e1 3c 38 cd 30 bf
       0.041925326 0.20408928 0.027553305 -0.6906314
000370 2f 2e 2c bf 0d a1 f5 3d 2b 97 b1 3e a3 52 4a 3d
       -0.6725797 0.119936086 0.34685645 0.049395215
000380 99 1b 35 3f ed 1d d3 3e 9a 4b 99 be 75 aa 25 bf
       0.70745236 0.4123377 -0.29940492 -0.6471322
000390 7f c9 fd be aa 67 43 bf f4 e7 ab be 22 b1 24 3f
       -0.49567792 -0.76330054 -0.33575404 0.64332783
0003a0 6d 62 46 3f d8 75 b5 3d d3 f8 01 bf 69 3d 76 bf
       0.77493936 0.088603675 -0.507703 -0.96187454
0003b0 a4 c4 93 3e 20 1c eb 3d 1a 06 45 bf d4 16 03 3f
       0.28860962 0.11479974 -0.76962435 0.5120671
0003c0 1d e2 d6 bd a1 4c a6 bf 39 66 0c 3f cc f8 dd be
       -0.104923464 -1.2992135 0.5484348 -0.4335388
0003d0 b6 46 5d bf 68 c7 9d 3e ab 26 c9 3f ec ce 3c bc
       -0.8643602 0.30816197 1.5714926 -0.011523943
0003e0 33 4e 95 bb 01 e4 60 bf 38 87 52 3f 39 e5 49 3f
       -0.004556441 -0.87847906 0.8223758 0.7886539
0003f0 b8 13 34 3f 05 80 ad bf 34 e9 5e 3f cf f2 57 bf
       0.7034259 -1.3554693 0.8707459 -0.8435487

blocks.1.bn1.weight f4 [64]
000000 be a0 7e 3f 17 0e 6c 3f a5 fe 65 3f c2 11 7d 3f
       0.99464023 0.92209 0.8984168 0.9885522
000010 6c db 51 3f 0d ed 36 3f 57 b0 49 3f 25 16 83 3f
       0.81975436 0.7145546 0.787847 1.0241133
000020 92 29 62 3f 7f 5f 58 3f 9c 6a 5c 3f a1 0e 7a 3f
       0.8834468 0.84520715 0.86100173 0.9767857
000030 62 e1 6a 3f 09 65 71 3f 9c a4 4a 3f b5 6a 6b 3f
       0.91750157 0.9429479 0.79157424 0.91959697
000040 78 22 53 3f 80 d9 6e 3f 10 a5 47 3f ba 0d 5b 3f
       0.8247447 0.9330063 0.7798624 0.8556782
000050 f5 62 6f 3f 4a f2 71 3f 19 6f 8d 3f f6 f7 57 3f
       0.9351037 0.9451033 1.1049529 0.84362733
000060 71 db 64 3f 53 b9 5f 3f ea 90 64 3f 05 eb 4d 3f
       0.8939734 0.8739216 0.8928362 0.80436736
000070 78 1c 5c 3f 78 66 53 3f e2 f8 8b 3f ce c5 48 3f
       0.8598094 0.8257823 1.0935328 0.78426826
000080 93 70 67 3f c0 00 67 3f cd f0 65 3f 16 2a 51 3f
       0.9040615 0.9023552 0.8982056 0.81704843
000090 2d 6c 76 3f fd 71 46 3f 79 f1 81 3f a7 7c 7e 3f
       0.96258813 0.7751768 1.0151817 0.99408954
0000a0 dc e9 4f 3f aa 16 5b 3f 1f e3 4f 3f e3 01 59 3f
       0.81216216 0.8558146 0.81205934 0.84768504
0000b0 05 27 52 3f 8e 52 56 3f c4 0a 64 3f 4e 71 6c 3f
       0.8209079 0.8371972 0.8907893 0.9236039
0000c0 70 f2 64 3f da 34 73 3f f3 25 43 3f 42 dd 71 3f
       0.8943243 0.9500252 0.7622978 0.9447824
0000d0 50 0a 85 3f b6 30 7d 3f 6a 75 66 3f 99 cd 65 3f
       1.0393772 0.9890245 0.9002291 0.8976684
0000e0 f5 a0 4c 3f 3d f3 62 3f c2 35 67 3f 9e 87 7f 3f
       0.799331 0.886524 0.903164 0.9981631
0000f0 c9 8a 6d 3f bc 0e 4d 3f 54 21 84 3f 43 ee 69 3f
       0.92789894 0.8010061 1.0322671 0.91379184
