models/rym_grid_c0_s64_e2_t4_r4/resnet_c0_ce_a0p32_l0p16_lr1e-03.pt (torch, 758693 bytes, 28 tensors)

stem.0.weight f4 [64, 64, 3, 3]
00000000: e147 fdbe c762 babf aa20 d63e e2b8 03c0
00000010: abce 6f3f 76bf aebf 93c1 0e3f 93ca acbf
00000020: 752c 25c0 10c1 07c0 ee03 0cc0 1b46 bb3e
00000030: 9f6c 92c0 961d e9bf 9dd0 56c0 5476 afbf
00000040: 98af 2340 f3fd 39bf a05f 2bbf 0b35 e4bf
00000050: 3f00 9ebe 340e b0bf 5e04 45bf ccdf ec3f
00000060: c34e ce3e cf6a 0640 cc40 68bd 455c 0cbf
00000070: db56 19bf 9086 f4bd 0077 473f 2b97 a93f
00000080: d87c be3d 1be9 243f 023c b53f ec28 adbf
00000090: 937e 9d3e 38d9 81bf 77ba 8ebe a620 253f
000000a0: d62f 35c0 a4af 493f 65c7 9abf 4880 993e
000000b0: d347 febe 6f2c acbf 7a44 b33e d902 40bf
000000c0: 7072 81be 7884 c03f 7a0e 083e 75ac 19bf
000000d0: bac7 b53f eb56 b83f f15b 8d3b 7a82 53bf
000000e0: 3efb d13f 2bf3 9abf 9cf0 7abf be65 3a3f
000000f0: ef7a 19bf c6ce 4fc0 24e6 7c3d 959f 623f
00000100: d064 b8be 8d46 afbf 6fb4 1a40 303e 9b40
00000110: f6cd 923b 6b45 3e40 960f b940 a4b6 1240
00000120: b568 83bf a46f 923f 4ad0 fa3f e64e 2440
00000130: 0972 bfbf 5236 23be 1931 b83f 037a aa40
00000140: a004 60bf 7d37 95bf f117 873e bd64 64be
00000150: ed43 0a3f 7020 293f 0292 a73e c37c 3f40
00000160: 5ad4 1b40 0c12 0b3d ab48 aebf da2c 313e
00000170: 66d6 6c3f b7da d13e c909 9e3f d0d7 a5bc
00000180: 3a4c e7bf 86c2 c73f 91dd 90bf cfd5 70bf
00000190: db5b c93e 518a 9c3f 78e0 8ebf ff49 d4be
000001a0: 77a8 9e3e b772 063f 6291 623f 0241 71bf
000001b0: 1666 02bf e39e 9d3d a9f2 053e 1668 e8be
000001c0: d1b4 973d 133d 96bf 74ea 073e 31a3 f9bf
000001d0: 826f 173f 7d49 7bbf 96cc 2ebf 90cb 2cbf
000001e0: a12a 76bf f11d 32bf 46d5 2fbf 6dfa 153e
000001f0: 4220 e3bd dc02 cf3e ac66 68bf 3657 29be
00000200: ddfd 01c0 02f1 d1bf 667d 8dbd 3149 2ebf
00000210: ec5b 8cbf 067c e0bf 9281 b5bf a123 06bf
00000220: 3335 4bbf caa4 b6bf b62c 39bf 7d92 88bf
00000230: 681b 88bf c12a 21bf 5bb7 3cbf cda2 a5bf
00000240: 1f0c a73d 2604 3cbe bb30 723e 6451 1bbf
00000250: 4d64 ffbb b69f 043d 1d5b de3d 3255 a5be
00000260: bce4 f9be 9a04 f4be 82a7 aebd 2daf 32be
00000270: 1f91 dc3d 9561 70bd 7b01 e33e cf8d 9a3e
00000280: 2d4f 263f 0d7a 6d3f 9585 d03e 0ee9 87be
00000290: a8bb 4ebf f232 b1bf 17d1 7fbf 732f 12bf
000002a0: ab09 c93e c999 64bf 5571 0b3f 9b90 a63f
000002b0: 845a cd3d 09fb dd3e a3af 853f 5121 9f3d
000002c0: a395 643e de0d bf3e 08f9 fb3e 9d7d 023f
000002d0: 0fdb 94bf d2f5 82be 9fa2 513f b20c ec3f
000002e0: d3ef 9ebe b9eb 273f ae77 333f 80f6 913f
000002f0: 3fa2 c8be c0b4 103f 0bdd 433f bb53 b2be
00000300: 4ed6 1d3f 57d0 053f 40bb c63c 5f68 0740
00000310: b484 bd3f bb9b 753f 6dff 60be daf9 9fbe
00000320: e401 14bf ca10 0bbf 3211 efbe b102 a03e
00000330: 1c55 05bf ae64 72be 1266 37be e11c 24bf
00000340: ad66 d9bc 17fa 613f c632 0c3d 4733 c83d
00000350: 38ce 513d b86b 883d 2cc4 20bf d848 ea3d
00000360: 69fe ecbe ede5 993d ea23 b23d d1f2 f5be
00000370: 057c 853d 0f10 91bf 2a22 033e d6c5 00c0
00000380: 74f1 203f f1c9 7bbf 6804 1bbf c1f9 25bf
00000390: ce89 77bf 300d 32bf e8d6 3bbf 83a4 223e
000003a0: c10a d3bd 7628 b63e 8123 883d a8be c83e
000003b0: 59ea 82bf ebd5 a6be 7634 b3be ad38 9f3f
000003c0: 3dc1 f7be 5fc8 6f3f 8559 2fbf d536 29bf
000003d0: 51d9 97be 7d90 583e 3195 3fbf 74d6 373e
000003e0: 3413 993c ebef eb3c 4e5b 4fbe d000 443e
000003f0: 40a2 8a3d 1089 963d 99ac ba3b 9948 5abd
-0.49468902 -1.4561394 0.41821796 -2.0581594 0.93674725 -1.3652179 0.5576412 -1.3499321
-2.5808384 -2.1211586 -2.1877398 0.36576924 -4.5757594 -1.8212154 -3.3564827 -1.3707986
2.5575924 -0.7265312 -0.6694279 -1.7828687 -0.30859563 -1.3754334 -0.7695979 1.8505797
0.40294465 2.100269 -0.05670242 -0.5482829 -0.59898156 -0.11939728 0.77915955 1.3249258
0.09301156 0.6441819 1.4158938 -1.3528113 0.3076063 -1.0144415 -0.27876636 0.6450294
-2.8310447 0.7878363 -1.20921 0.29980683 -0.49664173 -1.345106 0.3501318 -0.75004345
-0.2528262 1.5040426 0.13286772 -0.60028774 1.4201577 1.4401525 0.004313939 -0.82620966
1.6404798 -1.2105459 -0.9802339 0.72811496 -0.59953207 -3.2469954 0.061742917 0.8852475
-0.36014414 -1.3693405 2.4172628 4.8513412 0.004480119 2.972987 5.7831526 2.2923975
-1.0266329 1.144032 1.9594815 2.5673156 -1.4956676 -0.1593869 1.4389983 5.327394
-0.8750706 -1.1657559 0.26385453 -0.22304054 0.54009897 0.6606512 0.32728583 2.9919899
2.434836 0.033952758 -1.3615927 0.17302266 0.92514646 0.4098718 1.2346736 -0.020244509
-1.8070138 1.5606239 -1.1317617 -0.94076246 0.39327893 1.2229711 -1.1162252 -0.41462705
0.30987903 0.5251879 0.88503087 -0.9423982 -0.5093702 0.07696321 0.13080849 -0.4539191
0.07407535 -1.1737388 0.1327303 -1.9502927 0.5915452 -0.9815901 -0.68280923 -0.6749811
-0.96158797 -0.69576937 -0.68684804 0.14646311 -0.11090137 0.4043187 -0.90781665 -0.16537175
-2.0311196 -1.6401675 -0.069086835 -0.6808043 -1.0965552 -1.7537849 -1.4180167 -0.52398115
-0.7937805 -1.426904 -0.7233385 -1.0669705 -1.0633364 -0.6295586 -0.7371728 -1.2940308
0.08156609 -0.18360958 0.23651402 -0.6067107 -0.007793939 0.032378875 0.10857222 -0.3229156
-0.48807323 -0.4765976 -0.08528043 -0.17449637 0.10769867 -0.05868681 0.44337067 0.30186316
0.6496456 0.9276436 0.40726915 -0.26544994 -0.8075509 -1.3843672 -0.9992842 -0.5710365
0.3926519 -0.8929716 0.54469806 1.301288 0.1002703 0.43355587 1.0444225 0.077700265
0.22322707 0.37315267 0.49213433 0.5097292 -1.1629351 -0.2557817 0.81888765 1.8441374
-0.31042346 0.6559406 0.7010449 1.1403351 -0.39186284 0.565258 0.7650916 -0.34829506
0.6165513 0.52271026 0.02425921 2.1157453 1.4806123 0.9594075 -0.21972437 -0.3124531
-0.57815385 -0.54322493 -0.46692806 0.31252053 -0.5208299 -0.23671219 -0.1791003 -0.64106566
-0.026538217 0.8827223 0.03422811 0.097754054 0.051222056 0.06661171 -0.62799335 0.11439675
-0.4628785 0.07514558 0.08698256 -0.48036817 0.065177955 -1.1333026 0.12806001 -2.012075
0.6286843 -0.98355013 -0.605536 -0.6483422 -0.9669465 -0.6955137 -0.73374796 0.15883069
-0.103047855 0.35577744 0.06647397 0.3920796 -1.0227767 -0.3258508 -0.35000962 1.2439171
-0.48389617 0.9366512 -0.6849597 -0.6609929 -0.29657987 0.21148868 -0.74837023 0.17952901
0.018685915 0.028800925 -0.20249674 0.19140935 0.06769228 0.07350361 0.005696845 -0.05329189

stem.1.weight f4 [64]
00000000: 9c3c 0e3f 62cf 2a3f d48a 1f3f de8f 063f
00000010: a059 f33e 0a4c 323f 64dd ba3e da6e 223f
00000020: d945 613f 8f08 833f f9f9 493f ee0c 193f
00000030: 2de7 833f 3658 543f 3760 143f 4945 013f
00000040: 4de7 423f 81ee 3a3f 69c8 233f a7a2 4c3f
00000050: 42be 6d3f a351 0b3f f737 0b3f de71 423f
00000060: 8e20 013f b506 c03f 64d2 083f 57af 013f
00000070: ae6f 033f 2587 e23e 43ea 203f 9f97 1d3f
00000080: 36f9 ee3e 0ef6 263f c194 1b3f 2618 3e3f
00000090: 3932 633f 4c57 2f3f ac82 2f3f 63bc 593f
000000a0: 0d93 803f 77ca 6b3f 3341 4b3f 1aeb 6f3f
000000b0: aaaf e43e aa91 063f 04e3 4e3f 4e0b 0c3f
000000c0: a129 ff3e cc96 133f 906e 033f b643 4e3f
000000d0: 7ec1 593f 8b20 043f 0a23 ee3e 7c80 0d3f
000000e0: 949b 0a3f c2a1 123f eb1e 0d3f d6b1 7f3f
000000f0: 5dca 3f3f 7778 343f b4b4 f93e 00e0 103f
0.5556123 0.6672269 0.6232121 0.52563274 0.47529316 0.69647276 0.36497033 0.63450396
0.87997204 1.0236987 0.78897053 0.59785354 1.0304924 0.829471 0.5795931 0.50496346
0.76134187 0.7302018 0.63977677 0.7993569 0.92868435 0.5442144 0.5438227 0.75955
0.504403 1.5002047 0.5344603 0.5065817 0.51342285 0.44243732 0.62857455 0.6155948
0.46674508 0.652192 0.60773855 0.742556 0.8874851 0.6849258 0.68558764 0.8505308
1.0044876 0.9210581 0.7939636 0.9371811 0.4466527 0.52566016 0.8081515 0.5470475
0.49836448 0.5765197 0.5134058 0.8057207 0.8506087 0.51612157 0.46511108 0.55274177
0.54143643 0.5727807 0.551253 0.9988073 0.74918157 0.70496315 0.48770678 0.56591797

stem.1.bias f4 [64]
00000000: 95e6 bb3d 05b7 e83d f222 44be a49c 8ebd
00000010: d8e9 c83c 01e6 063d c8af 70bd 99ff 05bf
00000020: e686 20bf 3ab4 4bbf d59a e6be 5e51 23be
00000030: 4691 55bf 001b 6cbf 41c0 cabd 406c 3ebe
00000040: 5fa1 72be c17f efbe 6436 e4be a732 87be
00000050: 0ce3 3fbf e586 9bbe 693f 02be df52 00bf
00000060: be61 0dbd 2977 b9bf 5900 3d3e 6bd3 533e
00000070: 9f9c 87be 50bc a43d 998b 31be bbf9 01be
00000080: 5775 3bbe 83d1 95be 4df5 6fbd a55e 09be
00000090: c930 5dbf 9426 aabd bd7b 00bf 4a76 8fbe
000000a0: dd4f 80be f95f 0bbf 4b48 1ebf 44e9 33bf
000000b0: dede 16be b9b4 693c d8df 08bf 33dc 3b3b
000000c0: 485c 8bbe 8fc0 87be 0da9 183d 4974 94be
000000d0: e44f 0e3e 485f 88be e68b 95bb 7351 173e
000000e0: 57e5 13be 9fd5 bbbe 372b 5fbe b82a 91bf
000000f0: b3ae a83d 9782 84bd 99b1 66be b2f9 03be
0.091748394 0.11363033 -0.19153956 -0.069634706 0.024525568 0.032934193 -0.058761388 -0.52343136
-0.6270584 -0.7957188 -0.45040002 -0.15949008 -0.83424795 -0.922287 -0.09899951 -0.18595982
-0.2369437 -0.46777156 -0.44572747 -0.26405832 -0.7495582 -0.30376354 -0.12719502 -0.5012645
-0.034517042 -1.448949 0.18457164 0.20686118 -0.2648668 0.0804373 -0.17338409 -0.12692921
-0.1830648 -0.29261407 -0.058583546 -0.1341501 -0.86402565 -0.083081394 -0.5018881 -0.28019935
-0.2506093 -0.5444332 -0.6182906 -0.7027781 -0.14733455 0.014264279 -0.5346656 0.0028665185
-0.27218843 -0.26514098 0.037270594 -0.2899497 0.13897663 -0.26635194 -0.0045637963 0.14777164
-0.14442955 -0.36686417 -0.21793829 -1.1341162 0.08236446 -0.064702205 -0.22528686 -0.1288822

stem.1.running_mean f4 [64]
00000000: 3ebe 0fc1 c536 34c1 318b 87c0 eaa0 5dc0
00000010: 40f2 72c0 934e 06c1 0a6f 3f3f c824 2c3e
00000020: 6520 d2c0 2a6f 9dc0 0772 d3bf ac4a 2cc0
00000030: a3fd febf 8290 8140 aa1b 0241 11bf 8bc0
00000040: 375e 4ac1 d669 11c1 17e0 b2c0 5c10 1bc1
00000050: eb42 20c1 7a24 f03f 2046 bfc0 5279 efc0
00000060: 97f8 bdc0 2582 90c0 c874 d6c0 aa48 2ec1
00000070: 70c6 25c0 37d7 1440 646b 3abe 524c e1bf
00000080: f113 8940 2b44 bbc0 6777 4ec0 5af8 69c1
00000090: 521f a7c0 c9e5 19c1 790a 20c1 0adf 11c1
000000a0: 6ce4 7cc1 843e e5c0 51ae d1bf 1d21 a6c0
000000b0: 9c80 16c0 d329 cec0 1c42 f1c0 c4d8 4240
000000c0: 35f8 0841 c459 0040 a5e8 aa40 13d9 26c1
000000d0: 2c56 24c1 80fb cec0 09de 9940 a1c1 09c1
000000e0: 7b1d c6c0 c9d0 fabf 9021 a43f 0075 5fbf
000000f0: 9a8c 30c1 b0bd 05c1 30f9 34c0 2ec9 9ec0
-8.983946 -11.263371 -4.235741 -3.4629464 -3.7960358 -8.394183 0.7477881 0.16810906
-6.5664544 -4.91982 -1.6519173 -2.6920576 -1.9921154 4.04889 8.131754 -4.3670735
-12.648002 -9.088339 -5.5898547 -9.691494 -10.016337 1.8761132 -5.97731 -7.4835596
-5.9365954 -4.515887 -6.7017555 -10.89274 -2.5902367 2.3256357 -0.18205029 -1.7601416
4.2836843 -5.8520713 -3.2260377 -14.623133 -5.2225733 -9.6186 -10.002557 -9.116953
-15.805767 -7.1638813 -1.6381322 -5.191542 -2.3515997 -6.4426055 -7.53932 3.0444803
8.560597 2.0054789 5.340899 -10.427997 -10.271038 -6.4682007 4.808354 -8.609773
-6.1910987 -1.9594966 1.2822742 -0.872879 -11.034327 -8.35881 -2.8277092 -4.962058

stem.1.running_var f4 [64]
00000000: 43ef 6942 58ae 9042 015c d341 ddbb db42
00000010: 3a71 fb41 f150 9042 b1b5 e941 45fc f141
00000020: 80eb 8541 5569 3442 7fb4 4142 abd2 0442
00000030: 41f6 9641 6872 0e42 8108 3242 d967 0a42
00000040: 9866 3d42 c587 f841 e718 0442 52a1 6c42
00000050: b275 4b42 bb2a e541 fd6a 6442 e8a2 3f42
00000060: a3fe 2d42 c3e4 f241 2f66 a441 d21e 2c42
00000070: 23a5 0742 364d ce41 b7fc 0b42 ef40 b941
00000080: ec9f 0042 9ef3 f341 1cb2 e741 3d7e 4042
00000090: 2c4a 1d42 6663 0d42 1eb6 3b42 f30b fa41
000000a0: a801 8342 f6ee b941 08aa 1242 a19e d341
000000b0: 3d11 2442 52ff 6742 27ed a942 231f 0442
000000c0: 9db1 fc41 c5aa 1242 843d 5442 71b3 4d42
000000d0: 9568 3342 2116 0a42 d049 1d42 8a78 2442
000000e0: 4816 bd41 d4b0 dc41 1d58 4642 c7f0 cd41
000000f0: b084 7b42 0cd0 0142 6bae f841 cd5f cc42
58.483654 72.340515 26.419924 109.86692 31.430286 72.15809 29.213717 30.248178
16.73999 45.102863 48.426266 33.20573 18.870241 35.611725 44.508305 34.601414
47.35019 31.066294 33.02432 59.15754 50.864937 28.645864 57.10448 47.90909
43.49867 30.3617 20.549894 43.030098 33.911266 25.7877 34.99679 23.156706
32.156174 30.493954 28.961967 48.12328 39.322433 35.34707 46.92785 31.255835
65.503235 23.24168 36.666046 26.452456 41.016834 57.999336 84.96319 33.030407
31.586725 36.666767 53.060074 51.425236 44.85213 34.52161 39.322083 41.117714
23.63588 27.586342 49.58605 25.742567 62.879578 32.45317 31.085165 102.18711

blocks.0.conv1.weight f4 [64, 64, 3, 3]
00000000: 01ba d33e 3315 ca3f 4abf 603f 2da5 de3b
00000010: df2c 5fbe a302 e73e 40b5 063f e8d5 90bf
00000020: ba9f b5bf d2cc 473f cf83 35bf 4acf 9b3e
00000030: db18 b03e c92a e8bd 19ec 0abf 00fb 673d
00000040: 752e f8be 7d54 2ebf 8753 093f 1be0 ee3e
00000050: 78ae b4be 2082 e43e 7f26 ef3e 5039 163f
00000060: d896 103f 009a 973e ddd2 173f a982 fd3c
00000070: e94d a3be 84e3 85bf e423 2e3f 07e6 07bf
00000080: deeb 983e 4763 28be d465 743e 93bb ee3d
00000090: 722c 53bd f49d 513d ed41 083f 9d86 f1be
000000a0: 075f 6cbf dc1e 1dbe 89bf 67bd 2d9f c93e
000000b0: a5cd 00be 43cc acbe eb84 92bd 6afb c23d
000000c0: 34a1 8cbe 65cc 4a3e 9929 bc3d 2a2a f13e
000000d0: 1fc6 d9be 52fd 99be 969f 893d 0dcd 683e
000000e0: 7cf0 12bf c95e 66be 9600 a53d 029f 3e3f
000000f0: 5319 24be d6cd 113e 5dec 84bf 33dc 8e3f
00000100: 2fb3 00bf ad72 bebf 3026 10be 32a9 233e
00000110: 4c19 51bf ebd6 8abe 5573 abbf ea5f ecbc
00000120: 6972 fb3e 5ab5 2dbb e1a6 a3bf a40e edbe
00000130: 0102 08bf 0743 273f 46ef 223f 5fc1 c73f
00000140: 3af0 7f3f 23de c73e f9dd 23bf d030 1fbe
00000150: 3eaf 9e3e 84f8 56be 95d6 273e b95a dabe
00000160: 8ba8 f83e aeda 5c3e 60fa aa3e 1246 80be
00000170: 1d84 debe 1e64 0abe e095 f4be 87e9 453d
00000180: c08d b7be 2cac 813e b747 2a3e a414 f13d
00000190: e53b 943e 4306 323f 191b 503f 9f8d 503f
000001a0: c604 0e3f 244a 88bd a6f8 39be b637 f63e
000001b0: 064a 11bf ba53 623d ef30 453f 0997 15bf
000001c0: 0f52 4bbf a24a 133e 0e91 df3e 5e7e 3d3f
000001d0: 5de5 3e3d ede3 4a3e 963f d83d 57c5 8c3e
000001e0: b22e 113f e92d 59bf 2214 2abf bba6 8cbf
000001f0: ccd1 593f ad37 563f 7dda f3bc b525 ecbe
00000200: 8b74 20bf 0a4d 1bbe b2bf e73e f183 86bf
00000210: c597 5dbe c5c3 cc3e 1bce 2ebe 93fe 24bf
00000220: 5835 0dbf ed10 993e 2970 4d3f 3736 743f
00000230: f553 163f 0da5 ba3c 120d 4c3f 15fb 0f3f
00000240: 9fe5 f53e 2e3d 4c3f 7f4b 5d3f a87c 80be
00000250: 881f d23e 73cd d83d 9718 1d3f 9753 e6be
00000260: 19bb 39be b5da 07bf 4c9f 99be b164 b63d
00000270: 3f80 e63e 65d6 d03e 5b2e 0ebf 9240 77bf
00000280: f3d0 6fbf 02ea 053f 4e83 d9bc b919 e73e
00000290: 5a4e 653e f243 0a3f 2a0c d7bd 6ec5 243f
000002a0: 698f acbd 390d a03e 445f 253e 98b8 27bf
000002b0: f1b6 4ebf d579 04bf 1839 203f 50ea f53e
000002c0: e2c5 07bf 3f55 813e 813b 703e 8398 ecbe
000002d0: 54f0 ba3f a1ce 05be c134 3fbe ce0a a23f
000002e0: d672 52be 201e 503f 5db2 ffbe 8b51 69bd
000002f0: ecaf e6be bacb 1e3e 1371 813e afec 753f
00000300: c008 343f c973 053f 9d4f 123f 1455 043f
00000310: 00f4 51bf 5714 333f a55f ab3e 536e ab3e
00000320: bd2f cdbf b67d d43d 835b 78bf 97b2 ea3e
00000330: 171f ae3c 9294 b63e 2d51 10bf 94a4 d93d
00000340: df92 13bf 5b7b 81bf a3ed ee3d 8d40 34bf
00000350: e0d5 f3be f3ef 993e ba4b 4e3f e388 ccbe
00000360: 715e 253f b074 073f 75c5 213f e690 59bf
00000370: 2c35 003f f0bd ca3e 9a31 d1be c5e1 c93e
00000380: 6703 5f3f 3ce5 893f 8e9e b03e bbaf dcbd
00000390: 3a67 9dbe 05e8 6cbe f787 02bf b968 19bd
000003a0: 0cdd 873f f464 b23f b392 cf3e f30d 693f
000003b0: 7989 4d3f e044 943f ae47 323e 58e3 553f
000003c0: 839f cf3e 6393 87be 0ae5 a23e 521a ba3f
000003d0: cdc9 c53f 3593 1640 66a5 47bf 4fbd 333e
000003e0: 0908 e63e 73b8 f0be 0e6c 213f 1f42 913d
000003f0: ddad 31be 50e3 9abf 2b66 fdbe 82b6 ddbe
0.41352847 1.578772 0.87791884 0.006794593 -0.2179446 0.451192 0.52620316 -1.1315279
-1.418937 0.78046906 -0.7090425 0.30431587 0.34393963 -0.113362856 -0.54266506 0.056635857
-0.48472944 -0.6809767 0.5364308 0.46655354 -0.3528936 0.44630527 0.46709058 0.586812
0.5648017 0.2960968 0.59306127 0.030946093 -0.31895378 -1.0460057 0.68023515 -0.5308537
0.29867452 -0.16444121 0.2386697 0.11656871 -0.05155606 0.051176026 0.53225595 -0.47173014
-0.923325 -0.15343803 -0.056579147 0.39379254 -0.12578447 -0.3374959 -0.07154258 0.0952061
-0.27466738 0.19804533 0.091876216 0.4710248 -0.42533967 -0.3007608 0.06719892 0.2273447
-0.573982 -0.22497095 0.080567524 0.74461377 -0.16025285 0.14238676 -1.0384632 1.116095
-0.5027341 -1.4878746 -0.14077067 0.15982512 -0.81679225 -0.27117094 -1.3394572 -0.02885433
0.49110726 -0.00265058 -1.2785302 -0.46300232 -0.5312806 0.6533665 0.6364635 1.5605887
0.9997593 0.39036664 -0.6401058 -0.15545964 0.30993074 -0.20993239 0.1639045 -0.4264734
0.48566088 0.21567795 0.33394146 -0.2505346 -0.4346017 -0.13514754 -0.47770596 0.048318412
-0.35850334 0.2532667 0.1662892 0.11771515 0.28951946 0.69540805 0.8129135 0.81466097
0.55476034 -0.06654766 -0.18161258 0.4808938 -0.56753576 0.05525563 0.7702779 -0.58433586
-0.79422086 0.14383939 0.43665355 0.74020946 0.046605457 0.1981351 0.10559003 0.27494308
0.56711876 -0.8483568 -0.6643697 -1.0988382 0.8508575 0.83678705 -0.02976727 -0.46122518
-0.6267783 -0.15166107 0.4526344 -1.0509015 -0.21639927 0.3999311 -0.1707081 -0.6445095
-0.5515952 0.29895726 0.8024927 0.95395225 0.5872186 0.02278378 0.79707444 0.56242496
0.4802675 0.7978085 0.8644332 -0.25095105 0.4103968 0.10586061 0.61365646 -0.4498565
-0.18137778 -0.53068095 -0.30004346 0.08905924 0.4501972 0.4078857 -0.5553948 -0.965829
-0.93678206 0.5231019 -0.026551869 0.45136812 0.2239317 0.54009926 -0.10500367 0.64363754
-0.08425791 0.31260088 0.16149622 -0.6551604 -0.80747896 -0.517484 0.6258712 0.4803033
-0.5303632 0.2526035 0.23460199 -0.46210107 1.4604592 -0.13067104 -0.18672468 1.2659547
-0.20551619 0.8129597 -0.49940768 -0.05696253 -0.45056093 0.15507403 0.2528158 0.96064276
0.7032585 0.521298 0.5715273 0.5169232 -0.8201294 0.6995291 0.33471408 0.33482608
-1.6030194 0.1037554 -0.97014636 0.45839378 0.02125506 0.35660225 -0.56373864 0.10627094
-0.5764598 -1.011577 0.11666419 -0.70410997 -0.4762411 0.3006588 0.805843 -0.39948186
0.6459723 0.52912426 0.6319192 -0.8498672 0.50081134 0.39598036 -0.40858155 0.3943006
0.87114567 1.0773082 0.34495968 -0.107757054 -0.30742818 -0.23135383 -0.50988716 -0.037453387
1.0614333 1.3937058 0.4054161 0.9103691 0.8028789 1.1583519 0.17410156 0.83550024
0.40551385 -0.26479635 0.31815368 1.4539282 1.545221 2.3527348 -0.77986753 0.17552684
0.44928005 -0.47015724 0.63055503 0.0709269 -0.1735148 -1.210062 -0.4949201 -0.43303305

blocks.0.bn1.weight f4 [64]
00000000: e3a1 a43f d8a4 c83f 5d92 7c3f a72f 8e3f
00000010: 5376 a13f bd0e 6e3f bf85 b93f a36f 8d3f
00000020: f74f 5d3f c262 7a3f 19c2 973f a59f 9e3f
00000030: 7e3e 3b3f ff87 a03f 26b5 903f d83b 693f
00000040: c8a0 b13f e5cf 9e3f bf5f 8f3f 705c 993f
00000050: 56b5 7c3f 8234 a43f f311 a73f 3fe7 a73f
00000060: ae89 833f 0a2d 8c3f f875 9d3f 2500 863f
00000070: 8876 ab3f 7d5e 813f 7d37 9b3f 411c a83f
00000080: 3e73 bd3f fdf9 b93f c90f 8c3f 1e7e 863f
00000090: f24b 9d3f f078 a33f c869 7d3f 6da4 9d3f
000000a0: 3a7e 973f 45bf 693f 2b6b ae3f 4fe8 7a3f
000000b0: a3d4 703f ac94 ce3f 2711 a53f 38e9 7a3f
000000c0: 1658 813f 1228 b83f 6e40 9c3f 35d8 803f
000000d0: c77d 863f 68ae c13f 23d7 613f 44e8 a23f
000000e0: 98bd 8d3f 79a1 c83f b6e8 6f3f 1888 733f
000000f0: e430 d23f afcb 843f c928 c03f 0cc1 883f
1.2861904 1.5675306 0.9866083 1.1108292 1.2614235 0.9299124 1.4493941 1.1049694
0.8645014 0.9780694 1.1856109 1.239247 0.7314223 1.2541503 1.1305282 0.9110694
1.3877192 1.2407194 1.1201094 1.1981335 0.98714197 1.2828524 1.3052353 1.3117446
1.0276392 1.0951245 1.2301626 1.0468794 1.3395548 1.010696 1.2126309 1.3133622
1.4800794 1.4529415 1.0942317 1.0507238 1.2288802 1.2771282 0.98989534 1.2315804
1.1835396 0.9130748 1.3626455 0.98010725 0.9407446 1.6139121 1.289586 0.98012114
1.0105007 1.4387228 1.2207162 1.0065981 1.0507134 1.513135 0.882189 1.2727132
1.1073484 1.5674278 0.93714464 0.9512954 1.642117 1.0374659 1.5012447 1.0683913

blocks.0.bn1.bias f4 [64]
00000000: ace0 a4bf bae9 29bf d02a 21be 7259 8abe
00000010: 45fb bbbe 47f8 14be b335 7cbf a0ef eebe
00000020: 6bc8 a4bd d5b0 4e3e 4180 0bbf 6347 45bf
00000030: 756a 6b3e 1d63 82bf 91a4 22bf e43d 0bbf
00000040: d72d bfbe d475 d2be 7602 2bbf 135d 24bd
00000050: 8bf1 12bf ec25 23bf 8d5a a4bf 7974 4cbf
00000060: 6d04 9ebe b8c2 b8bd 73a7 96bf 1d6b cfbe
00000070: 3fbd 83bf 6bc0 8fbe e14a 0cbf 789b 66bf
00000080: dd8e 0bbf 645a 18bf 9273 56bf 9e47 a7be
00000090: a26e 24bf ef65 29bf d5a6 36bf 2d0d 31bf
000000a0: b03e 0fbf 05cb 2bbe ce58 59bf 6f8f 05bf
000000b0: a252 e8be 6fd5 70bf bbe8 46bf 9f73 3bbf
000000c0: ab08 0abf 1bf0 2dbf 26f1 15bf 3c3c 21bf
000000d0: c13a a6be eeaf 92bf ca46 41bd 0f5b 48bf
000000e0: bf6d 30bf d58b a2bf d35d 87be c08e c4be
000000f0: a3c7 82bf 3acf fabd c840 32bf 3e6d f9be
-1.2881064 -0.66372263 -0.15738988 -0.27021366 -0.3671514 -0.14547835 -0.9851944 -0.46667194
-0.08046039 0.20184644 -0.54492575 -0.7706205 0.22989829 -1.0186497 -0.6353236 -0.5439131
-0.3733966 -0.4110552 -0.6680063 -0.040127825 -0.57399815 -0.6372974 -1.2840134 -0.79865223
-0.30862752 -0.09021515 -1.1769851 -0.40511408 -1.0292128 -0.2807649 -0.54801756 -0.90080976
-0.5451487 -0.59512925 -0.83770096 -0.32671827 -0.6423131 -0.66171163 -0.71348315 -0.6916073
-0.5595503 -0.16776665 -0.8490113 -0.5217199 -0.45375544 -0.94075674 -0.7769887 -0.732233
-0.53919476 -0.67944497 -0.5857109 -0.62982535 -0.324667 -1.145994 -0.04718665 -0.78263944
-0.6891746 -1.2698923 -0.2643877 -0.3839016 -1.0217174 -0.122465566 -0.696301 -0.48716158

blocks.0.bn1.running_mean f4 [64]
00000000: bb1c 8140 e813 32c0 46b2 1940 9eaa d2c0
00000010: be5e 25c0 779c 9640 6604 de3e 9918 d0be
00000020: 39a0 d4bf c04e eac0 177d 503f 9228 afc0
00000030: ed26 1e3f 0491 8240 f72f 25c0 6b1e fcbf
00000040: 7c98 f0c0 b233 b1c0 c8e1 0fbf a9b0 f2c0
00000050: 1414 f1be b076 97c0 067c 4b3e 24d1 4ec0
00000060: d790 63c0 c9b2 82c0 9c0d 7fbf 3486 aebf
00000070: 72ef 90c0 d71f 4540 c7b3 fdc0 9782 c5c0
00000080: 0236 10c1 e4e3 a2c0 00e5 623f b526 8bbf
00000090: 0b35 80c0 dcba a53e 52aa 77c0 14cd 933f
000000a0: b1c1 02c0 c782 083f 2dab 3ac0 2f2b 29c0
000000b0: bd7d 653f 06cf 0ac1 d2b1 34c0 22df bf3f
000000c0: e105 b1c0 02b2 88c0 e1fd 3cbf 0948 e0bf
000000d0: 5177 5240 6815 d6c0 3536 0540 e732 3bc0
000000e0: 6c2e bdbe 7e48 2a40 0304 14c0 9068 02c0
000000f0: ab22 11c1 c507 02c0 f973 4ac1 4118 a4c0
4.034757 -2.782465 2.401506 -6.5833273 -2.5839076 4.7065997 0.4336273 -0.40643767
-1.6611396 -7.322113 0.8144087 -5.4737024 0.61778146 4.080202 -2.5810525 -1.9696783
-7.518614 -5.5375605 -0.5620389 -7.584065 -0.4708563 -4.733238 0.1987153 -3.231515
-3.5557153 -4.0843244 -0.9963014 -1.3634706 -4.529229 3.0800683 -7.9281955 -6.172191
-9.0131855 -5.0903187 0.88630676 -1.0871187 -4.006475 0.32369125 -3.8697705 1.154696
-2.043072 0.5332455 -2.9166977 -2.6432607 0.89644986 -8.675543 -2.8233533 1.498997
-5.5319676 -4.2717295 -0.7382489 -1.7521983 3.2885325 -6.690113 2.0814335 -2.9249818
-0.3694948 2.6606746 -2.3127449 -2.037632 -9.070964 -2.0317242 -12.653314 -5.1279607

blocks.0.bn1.running_var f4 [64]
00000000: 0f18 2342 93ec 4642 6f94 8a42 467d 0042
00000010: fcb6 2642 aa37 1c42 7aa0 4e42 a690 3642
00000020: c896 0d42 8ff7 3c42 3f94 1342 9621 3542
00000030: 640d 1642 c831 2342 177e fc41 5edb f541
00000040: 19fc 7c42 b244 3a42 7e2f d841 bafb 3842
00000050: 0341 f741 56e8 8a42 6fbc 0242 bebe 2e42
00000060: cf1a 1742 2c07 4a42 20a4 1242 f821 1542
00000070: 0f70 2642 cf28 3742 6b83 2842 1d2b fe41
00000080: e843 5f42 4579 3742 a65a 0d42 84f2 5b42
00000090: bc77 2d42 a945 2e42 4bf1 b641 7fb4 1d42
000000a0: 6450 3142 f7df 2942 949f 2842 55a9 1b42
000000b0: 3596 0a42 d058 2542 7d3c 3f42 e791 ca41
000000c0: b9ad 0d42 6620 3d42 9a1b 2442 ae03 1a42
000000d0: d52d 0c42 54fb 0d42 0be4 4442 cecf 2642
000000e0: a4a7 1542 f2c5 5642 760c 2242 9478 1442
000000f0: 0b87 5042 5a67 2142 d070 3242 8e72 1642
40.773495 49.73103 69.28991 32.122337 41.678696 39.05436 51.656715 45.64126
35.397247 47.241756 36.89477 45.2828 37.513077 40.798615 31.561567 30.732113
63.24619 46.567085 27.02319 46.245827 30.906744 69.45378 32.684017 43.68627
37.77618 50.507004 36.66028 37.283173 41.609432 45.789852 42.128338 31.771051
55.816315 45.868427 35.338524 54.98683 43.36693 43.568027 22.867819 39.426266
44.328506 42.468716 42.155838 38.915363 34.646687 41.33673 47.80907 25.321241
35.41965 47.28164 41.026955 38.503593 35.044758 35.495438 49.2227 41.702934
37.41371 53.693306 40.51217 37.117752 52.131878 40.35093 44.61017 37.61187

blocks.0.conv2.weight f4 [64, 64, 3, 3]
00000000: e9a2 c73d a8ab a23d a8ff 68be 6201 373f
00000010: 0433 3bbe 3d50 f6be 5e64 763f 2026 293d
00000020: a198 90be e2d5 a8be 3dfd 24be 0ff9 8dbd
00000030: af53 0c3f 0fc1 893e 73af 8dbc dd31 2c3e
00000040: e0f1 a03e 42ed e3be 143e d03e 2ee4 a93e
00000050: c0b2 adbe c981 32be 80c1 2ebf 0966 143d
00000060: 27f3 433e 9be3 753f 14d4 1e3f c786 93bf
00000070: 7a3c f13e 7d87 643f 8283 963e 1f85 f9bd
00000080: 598b ff3e 8605 ad3f 1438 10be 1fec adbe
00000090: 49ba 2c3f 81eb e1bd cd1a c0be a650 f7bd
000000a0: 0db8 1d3f 4934 24bf c83c ec3d 8a6c 38bf
000000b0: 3c1b 18bf f21c b8bd 1310 0a3f de63 f0be
000000c0: ed14 76be 2059 ca3e 9b2a cebe 1bc0 563e
000000d0: a120 08be 6a1e 1bbf 827e 133e 0ba3 813e
000000e0: b3a6 08bf 5845 96bf beb0 42be ec47 5cbf
000000f0: b794 b6be 7d22 32bf fac8 0ebf d9d1 27bf
00000100: 8322 14bf ff69 b93f a23d aabd c169 3a3f
00000110: f230 5c3f 6698 f13e 20c4 ecbe 1179 413f
00000120: 109d f63e a4fe 4e3d de0d cdbb 5f88 eabe
00000130: 6d8b 2a3f 5133 593f 305d d1bf f059 f4bd
00000140: 78e5 2abf 177f bebe 5e66 8d3f 2576 333f
00000150: c0a4 cc3e 661e 21bd b4e9 60be d41a c8be
00000160: c0a8 11bd 7261 f8bd e914 05bf 036f f13e
00000170: fd43 b0be 1eff c0bd f962 fdbc 1ac9 df3e
00000180: f843 c03e d8b5 7bbf c797 783f 6d7f 95bf
00000190: 3023 113f c0e3 863f 42ee a0bf 0711 7f3e
000001a0: 2ffd 413f 6b12 14be d4bc e6be 509c 9b3f
000001b0: f1e5 acbf 2cc7 57bd 51ed 3f3f 70ff 85bd
000001c0: 139a e03e abd1 9e3e 3ed7 03bf cab7 9cbd
000001d0: 0121 333e 668b eb3e cb80 303f 6a90 4fbf
000001e0: 00a7 cdbd 64b3 e4bd 7696 82bf a52a 16bf
000001f0: c727 003f 047d 4e3e 8560 d93e 56c9 57bd
00000200: 44af 42bf 281e b73e 3e78 053f e17a 473d
00000210: 5f92 df3d 55fa 0c3f 702d f3be 6fcf b3be
00000220: c511 b2bf 6c9d cbbe d6c5 4dbf e846 ddbe
00000230: 6e45 aebe 634f 903d 22bf cf3b 7238 1a3f
00000240: ef7f 73bf eb6f d03e 147a 9bbe 1ace 153f
00000250: f399 cdbd ea49 79bf 3d0b d53d 2aab 013e
00000260: 313b 44be 0a41 3ebf 8609 4dbe 2682 b3bf
00000270: 9fa8 833e c573 97bd b904 373f 61ff 933c
00000280: a08b 00be 1a00 a7be fb36 9cbf 930d 28bf
00000290: a758 083f f717 df3e 24f3 1e3e ee8c a93e
000002a0: e5c8 28bf 9cbf 9ebe f7b8 78bf aead 013f
000002b0: 50cf d3be c6d6 53be 5d95 23bf 22ff 87be
000002c0: 0d8a d3bd 2e56 513e cd5c 35bf 115d 2d3f
000002d0: 6b6d 0a3c cda3 c5be b23c 6b3d 0b2a 26bf
000002e0: 5f1f 72bd 5398 75bf d9a4 143f 8f27 073e
000002f0: 8a2a 4fbf 4eb1 32bf 7ba6 7dbf 1db8 4b3f
00000300: 1d7c 223f 1e82 1dbe 2b41 d2bc ebc0 973f
00000310: 5674 333e 5193 c83f 5d2f b5be 6c3c 0fbf
00000320: cd3c 483f 5f3e 48bf bdc5 0dbf 5254 e53e
00000330: 33e5 673f d812 0f3e 9070 833e 604e 9f3d
00000340: 479c 623f c9cb 483f 7f5c ab3f 02ee e1be
00000350: 2ae4 07be 0a1b bc3f 83ab 29bf dd59 933f
00000360: 835d c0be ec8c f4bf 81b2 45be ac9b 18bc
00000370: 3903 79bf 1fd6 ae3e bcc9 e73f 5262 f13e
00000380: ae5c 283f ad13 e3be f7ad 43bf d042 d3be
00000390: aa82 62be 9411 45bf 2c94 ef3d ea61 be3e
000003a0: 848d 4fbf cad1 b0bc fa67 b43d 05a5 cdbf
000003b0: 9961 58be 742c c7bf c05a 97bf 775d 36bf
000003c0: 1608 44bf 2fd9 9e3e 267a ac3e b6df 99bf
000003d0: f57b 5dbf c1de eebe 7961 6cbf 4376 7c3f
000003e0: 1779 6cbd 5477 4a3e 7432 be3e 4709 623e
000003f0: d9e9 97be 8aa2 493f a5d5 83be 321c a73e
0.097478695 0.07942897 -0.22753775 0.71486485 -0.1828118 -0.48108092 0.962469 0.041296124
-0.28241447 -0.3297568 -0.16112228 -0.0693227 0.5481519 0.26905105 -0.017295575 0.16815896
0.31434536 -0.4451695 0.40672362 0.331819 -0.33925438 -0.17432322 -0.6826401 0.03623012
0.19135724 0.96050423 0.62042356 -1.1525506 0.47116452 0.8926924 0.29397207 -0.12183594
0.49911 1.3517311 -0.14083892 -0.3396921 0.6747175 -0.11031247 -0.37520447 -0.12075929
0.61608964 -0.6414228 0.115350306 -0.7204062 -0.59416556 -0.08989896 0.5393078 -0.46951193
-0.2403142 0.39521122 -0.4026688 0.2097172 -0.13293697 -0.60593283 0.14403728 0.25319704
-0.5337936 -1.1739912 -0.19012734 -0.86047244 -0.35660335 -0.69583875 -0.55775416 -0.6555458
-0.5786516 1.4485472 -0.08312537 0.7281762 0.86012185 0.47186583 -0.46243382 0.7557536
0.48166704 0.050535813 -0.0062577566 -0.45807168 0.66618997 0.8484393 -1.6356564 -0.11931217
-0.6675639 -0.37206337 1.1046865 0.7010215 0.39969444 -0.03933563 -0.2196415 -0.39082968
-0.035561323 -0.12127961 -0.5198503 0.47155008 -0.3442687 -0.0942366 -0.030930983 0.43708116
0.37551856 -0.98324347 0.97106594 -1.1679512 0.56694317 1.0538254 -1.257271 0.24908839
0.7577695 -0.14460151 -0.4506594 1.2157078 -1.3507673 -0.05268018 0.7497149 -0.065428615
0.4386755 0.3101934 -0.5150031 -0.076522425 0.17493059 0.4600479 0.6894652 -0.81079733
-0.10041618 -0.111670285 -1.0202167 -0.5865882 0.50060695 0.20164877 0.4245645 -0.052682243
-0.76048684 0.35765195 0.521366 0.04870117 0.1091659 0.55069476 -0.47495604 -0.35119197
-1.3911673 -0.3976854 -0.8038 -0.4321816 -0.34037346 0.07046392 0.0063399235 0.6024238
-0.95117086 0.40710387 -0.30366576 0.5851761 -0.10039129 -0.9737841 0.10402534 0.1266295
-0.19163205 -0.7431799 -0.20023164 -1.4024093 0.25714585 -0.07395128 0.7149158 0.01806611
-0.12553263 -0.32617265 -1.2204279 -0.6564571 0.5326027 0.4357297 0.15522438 0.33115333
-0.6593154 -0.3100556 -0.97157234 0.5065564 -0.41369104 -0.20687398 -0.63899785 -0.26561838
-0.103290655 0.20443031 -0.7084473 0.67720133 0.008448939 -0.38601533 0.05743093 -0.649079
-0.05911195 -0.95935553 0.5806404 0.13198684 -0.80924284 -0.69801795 -0.99082154 0.7957781
0.6347063 -0.15381667 -0.02566584 1.1855749 0.17524847 1.5669957 -0.35387698 -0.5595157
0.78217775 -0.7822017 -0.5537985 0.44790894 0.90584105 0.13972032 0.25671816 0.07778621
0.8851971 0.7843595 1.3387603 -0.44126898 -0.13270631 1.4695752 -0.6627733 1.1511799
-0.37571344 -1.9105506 -0.19306375 -0.009314459 -0.9727054 0.34147736 1.810844 0.47145325
0.6576642 -0.4435095 -0.76437324 -0.4126191 -0.22120157 -0.7697995 0.116981834 0.37184078
-0.8107531 -0.02158441 0.088088945 -1.6065985 -0.2113098 -1.5560441 -1.182457 -0.71236366
-0.7657484 0.31025073 0.33686942 -1.2021396 -0.8651727 -0.46654323 -0.9233623 0.98617953
-0.057732668 0.19772083 0.37147868 0.22073852 -0.296706 0.7876364 -0.25748935 0.326387

blocks.0.bn2.weight f4 [64]
00000000: b609 9c3f d3d0 943f 3965 8d3f e37f bd3f
00000010: cdc2 ab3f 531b 963f a8eb ad3f 8dd9 9b3f
00000020: fcdc b53f d087 c13f b73f c23f 4b67 b13f
00000030: 5c14 a33f 7be3 963f 191d 813f 26ed ce3f
00000040: dfa0 a83f 886e ba3f 1d1a bb3f 94d3 a03f
00000050: 4ab2 b83f a5a8 9b3f 146f d03f 6316 b23f
00000060: dec6 a03f 1c0f ae3f db35 ba3f 5f27 b73f
00000070: a42f ab3f 4e41 733f c905 d73f 78a7 b43f
00000080: e454 903f 23f0 a83f 308c be3f d873 a43f
00000090: be8c bc3f a4f1 8d3f 1f6a b13f 4a9c d63f
000000a0: b1e3 863f 56b1 a13f 2c74 c13f 7506 b53f
000000b0: 164f a23f 7108 923f e7a0 b23f 7af6 a93f
000000c0: 5487 a43f 8d57 b73f 17fc 933f d86f a43f
000000d0: fe7a 9b3f 58fe b53f ef71 873f 6f07 9c3f
000000e0: 03c4 b23f 063f ab3f caa6 c43f e200 be3f
000000f0: 2466 9e3f 40a3 a83f debb 8c3f 4566 a03f
1.2190464 1.1626228 1.1046516 1.4804653 1.3418823 1.1727089 1.3587542 1.2175766
1.4208064 1.5119572 1.5175694 1.3859648 1.2740588 1.1788172 1.0087005 1.6166122
1.3174094 1.4564981 1.4617344 1.2564569 1.442941 1.2160841 1.6283898 1.3913082
1.256069 1.3598361 1.4547685 1.430889 1.3373914 0.9502152 1.679864 1.4113607
1.1275907 1.3198284 1.4886532 1.2847853 1.4730451 1.1089368 1.386051 1.6766446
1.0538236 1.2632244 1.5113578 1.4142596 1.2680385 1.1408826 1.3955353 1.3278344
1.2853799 1.4323593 1.1561307 1.2846632 1.2146909 1.4218245 1.0581645 1.2189769
1.3966068 1.3378608 1.53634 1.484402 1.2374921 1.317482 1.0994833 1.253121

blocks.0.bn2.bias f4 [64]
00000000: 5e12 23bf e178 75bf 2d7c 23bf d69a 80bf
00000010: a862 72bf 2b6e 44bf fc51 76bf da3b 43bf
00000020: 4763 45bf 5829 44bf b23f 91bf 44b9 a5bf
00000030: 4e37 75bf 3969 b8be 06a3 f9be 2a23 7abf
00000040: 4494 a2bf aef6 b9bf 2dd1 c5bf f29c 4cbf
00000050: 409b afbf 50e2 15bf b344 a2bf 2321 5fbf
00000060: 1ba9 5bbf 5dcc 2cbf ffab 83bf a3ce 5abf
00000070: 1b85 5cbf acb3 b8bd e239 acbf 7a7e 88bf
00000080: ed2d cbbe 697f 84bf 8454 9bbf 2cb5 8ebf
00000090: edcf 9ebf 5603 8abe 89f7 4cbf ec04 9abf
000000a0: 1720 2fbf 8add 53bf 4a47 5ebf 107d cfbf
000000b0: 1f02 40be 4222 ecbe 468a dcbf 5ef6 3fbf
000000c0: e9b3 8ebf 4b28 09bf 99cd d6be 19c2 9ebe
000000d0: 7ca2 69bf d99f c1bf 458d 00bf 9fd8 44bf
000000e0: 935b 8bbf ceb6 8bbf 3f70 a8bf fd53 6fbf
000000f0: 726a 12bf 9e4a 3fbf 15f6 1dbf a9e1 88bf
-0.636999 -0.9588757 -0.6386135 -1.0047252 -0.9468179 -0.767306 -0.9621885 -0.762632
-0.7710461 -0.76625586 -1.1347563 -1.2947164 -0.95787513 -0.3601778 -0.4875719 -0.97709906
-1.2701497 -1.4528406 -1.545446 -0.7992698 -1.3719254 -0.5854845 -1.2677215 -0.8715994
-0.8580491 -0.67499334 -1.0286864 -0.8547155 -0.861406 -0.09018645 -1.3455164 -1.0663598
-0.39683476 -1.0351382 -1.2135167 -1.1149039 -1.2407204 -0.2695567 -0.8006521 -1.2032752
-0.6840834 -0.82759917 -0.8682753 -1.6210041 -0.18750809 -0.46119887 -1.7229698 -0.749853
-1.1148654 -0.5357711 -0.41953734 -0.3100746 -0.91263556 -1.5126907 -0.5021556 -0.7689304
-1.0887321 -1.0915163 -1.3159255 -0.9348753 -0.5719367 -0.7472323 -0.61703616 -1.0693866

blocks.0.bn2.running_mean f4 [64]
00000000: 65aa b9c0 8429 5340 abab af3e b99e cbc0
00000010: ffa9 9bbf 3a48 57c0 5a43 01c1 aba2 34c1
00000020: 9646 5dc0 2041 b0c0 cc54 c1c0 8e66 24c0
00000030: 6aee d4bf 0085 f2bf 6659 bac0 1332 a6bf
00000040: c8aa 89c0 b24b 4ac0 93c3 e0c0 9e46 b2bf
00000050: d188 3f3f b6b5 90bf 20b5 acc0 4ef0 d4c0
00000060: f21e a2be 5c00 9fc0 12eb b33e b55e 7fc0
00000070: 4e6f c8c0 51b5 9840 0d42 26c1 8d1a 7abf
00000080: f56e a9c0 5a00 d53e 2a7c 53c0 7a44 70c0
00000090: c4e1 2540 c65e 993f 5c02 1d3f a2a5 b0c0
000000a0: dc4f abbf 1cc1 e0c0 ad94 553e 397a c6c0
000000b0: 0d44 ff3f f893 853e 947f 233f 2d22 fcc0
000000c0: 3025 b93e a28d 9bc0 19ac c83f b12a f5c0
000000d0: a701 9ec0 9fab e0c0 7e61 ec3f 8336 6b3f
000000e0: cd37 98c0 7a9f 4dbf cf2f 2ac0 05ec 87bf
000000f0: 653c 2640 dbed 28bf 2b87 b1bf 89cd e63f
-5.80205 3.299409 0.3431066 -6.3631253 -1.2161254 -3.3637834 -8.078943 -11.289714
-3.4574332 -5.50795 -6.041601 -2.5687594 -1.6635258 -1.8946838 -5.823413 -1.2984031
-4.3020973 -3.16087 -7.023874 -1.3927801 0.7481814 -1.1305454 -5.39711 -6.654334
-0.31664234 -4.968794 0.35140282 -3.9901555 -6.263587 4.7721334 -10.391126 -0.97696763
-5.2947946 0.4160183 -3.3044534 -3.7541795 2.5919046 1.1982048 0.61331725 -5.520219
-1.3383746 -7.023573 0.20857497 -6.2024198 1.9942642 0.26089454 0.63866544 -7.879172
0.36161184 -4.861039 1.567752 -7.6614614 -4.9377017 -7.02095 1.8467252 0.91880053
-4.7568116 -0.80321467 -2.659168 -1.0618902 2.5974362 -0.6598794 -1.3869375 1.8031474

blocks.0.bn2.running_var f4 [64]
00000000: 06ad a742 96a2 9942 8ce1 7842 dfd9 a142
00000010: f97f d142 8881 9842 d302 b542 9de6 be42
00000020: 8371 a142 0c03 c142 1b37 af42 3cd5 cc42
00000030: ff78 8c42 af72 bd42 a515 7242 2675 c142
00000040: deac 8442 4154 b442 e317 7e42 769b bd42
00000050: 8acc ad42 4cd4 a142 33ff c642 59e2 9042
00000060: 6c97 9242 10f0 ad42 35f5 ab42 44f5 9942
00000070: b70c bb42 fb26 cc42 16b7 f642 6e91 b942
00000080: e137 cf42 65dd 8242 da40 ad42 de2f ab42
00000090: 5b7a a842 c1a5 b442 6138 b642 1246 fa42
000000a0: db0b 9142 659e af42 7793 de42 5867 9042
000000b0: e0ee dc42 3131 c842 9661 8842 f23e e642
000000c0: 4177 9942 a1b6 c142 3228 9c42 4435 db42
000000d0: 1ed2 9142 bed4 9c42 e962 b342 e7d9 ec42
000000e0: 214b c442 0c06 8042 f69e 9e42 d980 8c42
000000f0: a6f0 b442 ebb8 af42 cb79 ba42 b121 7c42
83.83794 76.81755 62.22026 80.92553 104.74995 76.25299 90.505516 95.45042
80.7217 96.50595 87.60763 102.41647 70.23632 94.72399 60.521137 96.728806
66.33763 90.16456 63.523327 94.803635 86.89949 80.91464 99.498436 72.442085
73.295746 86.96887 85.97892 76.979034 93.52483 102.07613 123.35759 92.78404
103.60914 65.43241 86.62666 85.59349 84.238976 90.32374 91.110115 125.136856
72.523155 87.809364 111.28802 72.20184 110.46655 100.09608 68.1906 115.12294
76.73292 96.8567 78.07851 109.604034 72.910385 78.41551 89.693184 118.42559
98.146736 64.01181 79.31047 70.251656 90.47002 87.86117 93.23788 63.0329

blocks.1.conv1.weight f4 [64, 64, 3, 3]
00000000: bad5 1d3f e25a 653e ea0c 58bb 475a 703e
00000010: db82 a53e e0dd 16be 6b56 37bf 0d77 bfbe
00000020: e14a 73be 34c3 a93e 2e0c 23be 77fe 22bf
00000030: d74d 00bf d49c 303e c33d 70bf 6b8e a53e
00000040: 51ff 8dbf a41a 50bd 8692 71bf 2e36 7c3d
00000050: 0b5e 063f a06f ffbe bf37 fabe 600d dabd
00000060: 361b b3be c90d fcbe b6cf b93d d877 98be
00000070: e241 bdbd baae 06bf 0b9c 38bf 1154 743f
00000080: 525a 7ebf 5bf1 cdbe ef7f e4be ba56 713e
00000090: f39e 0cbf 51b2 38be 6bdd ed3e d079 b33b
000000a0: 37c8 8a3e ef45 8c3e 41a4 38bf cf3c 02bf
000000b0: 5343 0e3f 11a6 0fbf e4a0 d5bd 266a e03d
000000c0: ebd9 65be 6ec9 303e b23d a23e 4b65 86be
000000d0: a8cd 99be 164b cebe cca7 80be 3fee a03c
000000e0: 3ca1 e2be 97ce bfbe 3abf 1bbd df84 053f
000000f0: 83e9 0abf 43d1 7abe 4091 563f e812 9abd
00000100: c22f 683f b662 70bf 96f6 8c3e 657e fabe
00000110: 26be 5b3f 81b2 913e 30e7 98bf 4762 9a3e
00000120: c068 92be a6a1 513e f9c7 a1be 72bf 2dbd
00000130: 5641 a73e 86ef e5bd ded5 d03e aee6 a53d
00000140: f667 aa3e bf02 343f e0d0 bb3d 425b b53d
00000150: d509 11bf d9b9 04bf 2c28 b9bf e705 86be
00000160: 43f0 793c c814 2e3e 6e98 9d3f 0caf 563f
00000170: e892 eabe d7e5 07be 204c 17bf e5a7 65bf
00000180: c639 96be a19d c43d ed02 f7be f8c1 59bf
00000190: 4c85 5d3e 8032 a7bd 0ece 83bc 9830 113f
000001a0: b296 b0be b001 bebe a345 b73d e5e6 d9bf
000001b0: 46e7 b43e ee77 56be 1fd1 113e 677f b4be
000001c0: 03cc f93a 1f3f f63d bfb5 ef3c 2ce7 a13e
000001d0: b60c 453f 4550 8ebf 2ccb 59bf f06d 97bf
000001e0: d806 58bf 20ca 8abe 1d91 30bf 0c2d 5fbf
000001f0: 1abc aebe abd6 cbbf 9632 fa3d 0f96 223f
00000200: b2ea 173f 4911 ae3e a066 d8bb 938b e73e
00000210: eaf1 e3bd 9b8a 64be 3f7b 703f b07f b5be
00000220: 1d4f b13d d725 0e3f e3f4 38bc 8e84 16bf
00000230: 60b3 8cbe c700 57bd 160d 43bf f0d6 acbe
00000240: bbe8 52bf aa52 20be 8d82 bd3e b45c 6bbf
00000250: b24c eebe e096 2a3f aa1b b1bf 268b 15bf
00000260: 9f7d d23e ef6c f03e 512f 053f 480f 0bbf
00000270: 9795 b6be c6f6 08be db50 b13f 514e ecbe
00000280: 3bc9 64bf e27a 02bf 569d 09be 7e48 e7be
00000290: e73e 493f e559 943e 4761 b93e 87ce ffbe
000002a0: da24 65bf 7dad 263e 6d37 a5bf 5185 813e
000002b0: d9f7 b8bd c753 343f 4766 3f3f f9de 81bd
000002c0: 9b52 cfbe 7901 8c3f 092c b83d 0735 bc3f
000002d0: be43 62bf a4cf 92bd c750 d83e 516e d23e
000002e0: 44b2 893f 2b10 3e3f ce63 343f fb6a b03e
000002f0: 38cf 8f3e b43f 58bf d231 52bf cc16 90bd
00000300: 9914 e9bd c7cd 973e c1b5 503f 4d7f 9cbe
00000310: 9ef8 e1be bcdb 963f d2b3 0c3f 72f3 e63e
00000320: 0917 66be 28a9 113e 988c 113e 3e4f 9ebf
00000330: 1472 7dbf a185 d33e 2214 2fbf 2d8c b33e
00000340: 435c 273f fbfc 023e 7414 bbbe a8da a2be
00000350: 3358 5dbe 9dc9 97be 7981 003d 2149 4cbf
00000360: bec3 d33b 09db 35bd 202a 58bf 24f8 69be
00000370: 63e1 553e db07 603d 03a0 19bd 5fe9 ec3d
00000380: ed70 993e 481d 7f3f c6e6 003f 84e0 1e3e
00000390: 02c9 663f eabc 223e 1fc7 30bf cefa c13e
000003a0: 63fc 9d3e 43e2 e1bd 591f 17bf 0701 32bf
000003b0: 71a9 f6be f86d 5f3d ace0 bf3e 572d 1a3e
000003c0: f8ce f0be 30ad 4abf cd66 07bf ce01 de3e
000003d0: d7a1 823f bcf6 5b3d 923c 183f 7b63 ffbe
000003e0: f902 4ebf e861 483e c45a b8be 6676 f13e
000003f0: c577 5abe b01b 323d e991 ef3d 95af 1ebf
0.61654246 0.2239795 -0.0032966682 0.23471938 0.32326397 -0.14733076 -0.7161624 -0.37395516
-0.23759033 0.3315674 -0.15922615 -0.6366953 -0.50118774 0.17247325 -0.9384424 0.3233522
-1.1093541 -0.050806656 -0.943642 0.061575107 0.5248725 -0.4988985 -0.48870656 -0.10647082
-0.34981698 -0.49229267 0.09072821 -0.29778934 -0.09241082 -0.5261036 -0.721131 0.95440775
-0.9935657 -0.40223202 -0.44628856 0.2356824 -0.5493004 -0.18036772 0.4645799 0.0054771677
0.27105877 0.27397105 -0.7212563 -0.50874037 0.5557148 -0.5611277 -0.10431078 0.10957746
-0.2244641 0.1726434 0.31687695 -0.26249155 -0.30039716 -0.4029166 -0.2512802 0.019644855
-0.44263637 -0.37462303 -0.038024165 0.5215587 -0.5426256 -0.2449389 0.83815384 -0.07523137
0.9069787 -0.9390062 0.2753188 -0.48924556 0.8583702 0.284565 -1.1945553 0.30153105
-0.28595543 0.2047182 -0.3159788 -0.042418905 0.32667035 -0.11227326 0.40788168 0.08100639
0.3328244 0.7031669 0.09170699 0.08855297 -0.5665563 -0.5184608 -1.4465384 -0.26176378
0.015255037 0.17000115 1.2312143 0.8386085 -0.45815206 -0.1327127 -0.5910053 -0.8970931
-0.29340953 0.09600378 -0.4824442 -0.850616 0.2163288 -0.08163929 -0.016089465 0.56714773
-0.3448997 -0.37110662 0.08948829 -1.7023588 0.35332698 -0.20944187 0.1423993 -0.3525345
0.0019057993 0.12023758 0.029261468 0.31621683 0.7697252 -1.1118246 -0.8507564 -1.1830425
-0.8438544 -0.27107334 -0.68971425 -0.8717811 -0.34127885 -1.5924886 0.1221668 0.6351022
0.5934249 0.33997563 -0.0066040307 0.45223674 -0.11130126 -0.22318499 0.9393806 -0.3544898
0.08657668 0.5552649 -0.011288854 -0.5879601 -0.27480602 -0.052490976 -0.7619184 -0.33757734
-0.8238637 -0.15656534 0.37013665 -0.9193833 -0.4654289 0.66636467 -1.3836567 -0.5841545
0.41111466 0.4695811 0.52025324 -0.5432019 -0.35661003 -0.13375387 1.38528 -0.461535
-0.89369553 -0.50968754 -0.13438925 -0.45172495 0.78611606 0.28974834 0.3620703 -0.49962255
-0.89509356 0.16277118 -1.290754 0.25297025 -0.09031648 0.70440334 0.7476544 -0.06341357
-0.4049271 1.093795 0.08992774 1.4703683 -0.88384616 -0.071685106 0.42249128 0.4109979
1.0757527 0.7424342 0.7046479 0.3445662 0.28087783 -0.84472203 -0.8210727 -0.07035598
-0.11380882 0.29649183 0.81527334 -0.30565873 -0.44134992 1.1785808 0.54961884 0.4510761
-0.22469725 0.14224684 0.14213789 -1.2367933 -0.99002194 0.41312888 -0.68390095 0.35067883
0.65375155 0.12791817 -0.36539042 -0.31807446 -0.21615677 -0.29646006 0.031373475 -0.79799086
0.0064625433 -0.04439834 -0.8443928 -0.22848564 0.2088676 0.05469499 -0.037506115 0.115679495
0.29968968 0.99654055 0.5035213 0.15515333 0.90150464 0.15892377 -0.69053835 0.3788666
0.30856618 -0.11029484 -0.5903221 -0.6953282 -0.4817615 0.054548234 0.374761 0.15056358
-0.47032905 -0.79170513 -0.52891237 0.43360752 1.020564 0.0537021 0.5946742 -0.49880585
-0.80473286 0.19568598 -0.3600675 0.47160643 -0.21334751 0.043483436 0.11697752 -0.61986667

blocks.1.bn1.weight f4 [64]
00000000: 0d46 3d3f 2f55 373f cd26 6c3f cc7c 6d3f
00000010: fed9 4f3f 42f7 343f f100 6b3f 468b 7d3f
00000020: 29f0 7b3f 6b3a 4a3f e642 193f 1a04 563f
00000030: 338e 493f 1281 763f 4cc5 523f 3d9c 323f
00000040: d912 783f eb41 6d3f c0b7 733f 7d19 713f
00000050: 0280 753f a0fe 623f 23e2 703f 94bc 453f
00000060: 4f86 483f b7f4 813f afcc 7b3f 1695 4e3f
00000070: 2f4c 7e3f a51c 683f 6a3b 6d3f 1471 613f
00000080: d7b2 6e3f cd8e 5c3f 796b 483f 598c 783f
00000090: 76a5 6f3f 4537 613f cca0 783f fe37 803f
000000a0: 08b8 373f fba7 643f 5d1c 483f f5e4 553f
000000b0: f665 663f 8646 5e3f 5e86 583f e96d 5f3f
000000c0: d085 403f dad1 873f 2174 823f e2e9 593f
000000d0: 6574 663f 0544 653f 5649 523f 462c 603f
000000e0: 8a55 813f 30b2 fa3e 875f 613f 6d22 473f
000000f0: 8a04 623f d664 523f bffd 553f 0d85 723f
0.73935014 0.71614355 0.92246705 0.9276855 0.81192005 0.70689785 0.9179831 0.9904064
0.9841333 0.7899539 0.59867704 0.8360001 0.78732604 0.96290696 0.823323 0.6976965
0.9690376 0.9267871 0.95202255 0.9417952 0.9589845 0.88669777 0.9409506 0.7724087
0.7832994 1.0152806 0.983592 0.8069624 0.99334997 0.9066871 0.92668784 0.8806317
0.9324164 0.86155397 0.7828899 0.97089154 0.9361185 0.8797496 0.97120357 1.0017087
0.71765184 0.8931882 0.7816828 0.83552486 0.8999933 0.8682636 0.8458003 0.87277085
0.7520418 1.0610917 1.019169 0.851225 0.90021354 0.89556915 0.8214315 0.87567556
1.010423 0.4896407 0.8803639 0.77786905 0.88288176 0.82185113 0.8359031 0.9473427

blocks.1.bn1.bias f4 [64]
00000000: 9a9b 5cbf 6742 dabe e889 e5bf bbc0 b3bf
00000010: 8ab5 59bf facf 06bf 967d ddbf d0a8 99bf
00000020: 9ff6 7fbf 97cc a3bf 9d65 f6bf 1e43 5dbf
00000030: 7664 eabe db90 a5bf 3a08 ccbf 2405 e1bf
00000040: 016f 9ebf d5c5 80bf b9bb bdbf a699 bbbf
00000050: 66c7 9ebf 862f a4bf 493b 58bf 5fe1 02bf
00000060: ccc5 acbf 82b5 edbf 831b a1bf 49fa 8dbf
00000070: 3fd9 69bf 6f51 c2bf a264 ccbf acc3 59bf
00000080: fe74 81bf 0a51 39bf badc f7bf 0c7f babf
00000090: 0f43 a0bf cc7a 95bf 4acd c4bf 842b 7cbf
000000a0: 8b48 4cbf 7db1 adbf bb2a 8dbf 23b5 bcbf
000000b0: 9b37 b9bf ad3b 7ebf 128d 2cbf 1aac 94bf
000000c0: 5199 b2bf fe7e aabf 353e b0bf 12b8 52bf
000000d0: dc28 b6bf 5241 8bbf 1ec3 69bf 79e0 bcbf
000000e0: a274 e8bf f185 0cc0 8223 9cbf d9e5 c8bf
000000f0: eaa8 66bf 53dc 22bf bff9 d1bf 9a88 c0bf
-0.8617493 -0.42628786 -1.7932711 -1.4043192 -0.8504263 -0.526611 -1.7303951 -1.2004642
-0.9998569 -1.2796811 -1.924976 -0.8643054 -0.4577977 -1.2934831 -1.594001 -1.7579694
-1.2377626 -1.0060374 -1.4822913 -1.4656265 -1.2404602 -1.2827003 -0.8446546 -0.5112514
-1.3497863 -1.8571017 -1.2586521 -1.1092006 -0.91347116 -1.5181102 -1.5968211 -0.85064197
-1.0113828 -0.7238928 -1.9364235 -1.4570022 -1.2520465 -1.16781 -1.5375149 -0.985039
-0.7979819 -1.356979 -1.1028665 -1.4742779 -1.4470094 -0.9930981 -0.67402756 -1.1615021
-1.3953038 -1.3320005 -1.3768984 -0.8231212 -1.4231219 -1.0879309 -0.9131335 -1.4756004
-1.8160594 -2.1956751 -1.2198336 -1.5695144 -0.9010149 -0.6361744 -1.6404341 -1.5041687

blocks.1.bn1.running_mean f4 [64]
00000000: 243b febf 49a2 d73e e9f9 a5c0 52a3 e4c0
00000010: 59de 52c0 7399 b9c0 6080 44c0 7abd ebc0
00000020: 3b6a 0ec1 6d87 b83f 2d1b b9c0 477c eac0
00000030: eb0c 61c0 45eb 4ec0 66c0 8dc0 46ca 02c0
00000040: c4d6 1ec1 3097 18c1 670f c5c0 4dfe 8440
00000050: f7f6 96c1 6d14 c6c0 ad10 62c1 286c 1cc0
00000060: ed16 e5c0 144b c7c0 31ba 14c1 6664 1ac1
00000070: 8a1e a8c0 14b7 72c0 1850 09c0 57ac 84c0
00000080: 41a6 32c1 37d5 d6bf 6cde 47c0 dc6e 42c1
00000090: 30ed adc0 bf94 0ec1 0b45 acc0 eb7a 22c1
000000a0: 7609 98c0 e5b1 41c1 4f86 c6c0 7127 15c1
000000b0: 36bc 1cc1 c15e fabe a415 0ebf 477c c5bf
000000c0: d440 0fc0 8543 e5c0 c2f9 9ac0 4c9d 4bc0
000000d0: 45e5 1cc1 5363 0bc1 f02a b9c0 4d88 58c1
000000e0: cd8a c0c0 e05c ebc0 c200 02c1 becb 09c1
000000f0: 5307 b0c0 78d4 01c1 0511 e4c0 923c 50c0
-1.9861798 0.42116 -5.1867566 -7.1449366 -3.294821 -5.7999816 -3.0703354 -7.3668795
-8.900935 1.4416329 -5.7845674 -7.3276706 -3.5164135 -3.2331097 -4.429736 -2.0435958
-9.927433 -9.536911 -6.15813 4.1560426 -18.870588 -6.1899934 -14.129071 -2.4441013
-7.1590486 -6.227915 -9.295457 -9.649511 -5.253728 -3.7924242 -2.1455135 -4.1460376
-11.165589 -1.6783818 -3.1229506 -12.152065 -5.4352036 -8.911315 -5.383428 -10.155009
-4.751155 -12.105931 -6.203895 -9.322129 -9.79595 -0.48900416 -0.5550177 -1.5428551
-2.2383318 -7.164492 -4.842988 -3.1814756 -9.805974 -8.711749 -5.7864914 -13.533277
-6.0169435 -7.3550873 -8.125185 -8.612242 -5.500894 -8.114372 -7.1270776 -3.253697

blocks.1.bn1.running_var f4 [64]
00000000: c96b b742 2dfc dc42 ca75 0a43 b530 d642
00000010: d2b8 bf42 1123 e742 23af b842 f233 0443
00000020: ed07 0143 17f6 d242 1a1c e042 2508 3443
00000030: 7b9f d042 0697 d542 bee9 2243 b623 1243
00000040: 1a8a 1843 e82d f442 d48e cc42 e43e e842
00000050: 1117 4643 523c b142 27c9 f342 39d8 0e43
00000060: e35e f542 ff5f cb42 e027 d442 50a4 0f43
00000070: 18e8 f942 ca33 db42 67e7 db42 5b9a 1843
00000080: 4aff ce42 643d d542 0bc8 d442 e6ab 1c43
00000090: 48a0 1443 068b bc42 d772 b042 74f2 f942
000000a0: 7ad8 c842 e52b 2643 9054 b042 fafa 2043
000000b0: eb64 d142 a044 bb42 9265 1043 d702 c842
000000c0: d1a8 e642 8cb2 f442 c0b6 e942 e437 c442
000000d0: 70e4 4e43 bacd d042 d417 ca42 b509 e742
000000e0: b03d ce42 5d0b 1643 e41d db42 10d6 2d43
000000f0: aa6c c542 be19 c442 7c9b ba42 432b ca42
91.71052 110.49253 138.46011 107.09513 95.86098 115.56849 92.342064 132.20291
129.03096 105.480644 112.054886 180.03181 104.311485 106.79497 162.91306 146.1395
152.53946 122.08966 102.27896 116.12283 198.0901 88.61781 121.892876 142.84462
122.685326 101.68749 106.07788 143.64185 124.95331 109.60115 109.95196 152.60295
103.49861 106.6199 106.39071 156.67148 148.6261 94.27153 88.2243 124.97354
100.422806 166.17146 88.16516 160.98038 104.697105 93.63403 144.39676 100.00555
115.32972 122.348724 116.85693 98.10916 206.89233 104.40181 101.04654 115.51896
103.12048 150.04439 109.55838 173.83618 98.712234 98.05028 93.30368 101.084496
