models/rym_grid_c0_s64_e2_t4_r4/resnet_c0_g2_a0_l0_lr1e-05.pt (torch, 758389 bytes, 28 tensors)

stem.0.weight f4 [64, 64, 3, 3]
000000 f1 92 36 3c ab 24 f5 3c f9 eb 69 bd 01 31 37 bd
       0.011143432 0.029924711 -0.057109807 -0.04472447
000010 e9 9f 2a 3c 95 89 c8 bb e5 14 b3 bd cc 61 59 bd
       0.010414102 -0.0061199167 -0.0874422 -0.053071782
000020 77 7a c8 bb ff fa bc bd d4 d6 89 3c 94 64 dc bc
       -0.0061181146 -0.09227561 0.01682607 -0.026903428
000030 64 e3 f7 bb d8 27 16 bd 7c 21 d5 bc 72 d2 d0 bc
       -0.007564949 -0.03665909 -0.026016943 -0.025490973
000040 5b b6 22 bd 99 ce 53 bd e4 3d 95 bd d5 44 f1 3c
       -0.03972469 -0.0517107 -0.07287195 0.029451767
000050 8a 7f 04 bd bc f2 ca bd 55 b1 00 bd ce 3d c6 3c
       -0.032348193 -0.09909579 -0.031419117 0.024199393
000060 fe 70 6b bc 93 c0 6d bd e9 32 70 3d 76 96 db bc
       -0.014370201 -0.05804498 0.0586423 -0.026805144
000070 32 f8 22 3d 99 55 dd 3c b9 ef 36 3c 45 ea 81 3c
       0.03978748 0.027018355 0.011165553 0.015858779
000080 3b bd cc 3c f1 91 0a 3d 70 bd 12 bd 47 98 b8 bc
       0.024992576 0.033830587 -0.035825193 -0.022533549
000090 a4 dc dc bc 45 8a 7f 3d cb 23 dc 3c 37 71 a8 3c
       -0.026960678 0.062387723 0.026872536 0.020561798
0000a0 78 f3 93 3d 5c 73 3e 3b 7b 7b c7 3c 68 35 b8 bc
       0.07224172 0.0029060459 0.024350872 -0.022486404
0000b0 2a ca 0a 3d 5c b1 72 bd fe 77 b0 bc 80 82 98 bc
       0.033884205 -0.059251174 -0.021541592 -0.018616915
0000c0 71 bc 16 3c b8 cd a2 3c be d7 05 3b 07 9c c4 3b
       0.009200201 0.019873485 0.0020422782 0.006000045
0000d0 c1 96 ab 3c 5f dd 84 bd c6 9c 42 bd a7 3b 95 3d
       0.020945909 -0.06487536 -0.047512792 0.072867684
0000e0 9d c4 aa 3d 3d 3f 12 3d e6 a9 ac bd 88 cb 64 3d
       0.08338282 0.03570484 -0.08430843 0.055858165
0000f0 88 b9 29 3d 8f 10 83 3d 2f ac b0 bd 21 3b ad bc
       0.041436702 0.06399643 -0.086265914 -0.021146359
000100 db ff 10 bd c1 ee 8b bc b8 0c 8d 3d dc 8f 10 3d
       -0.035400253 -0.01708162 0.068871915 0.035293445
000110 f6 69 23 bd 2f a0 c0 3c 2b 24 51 3c f2 86 05 3b
       -0.039895974 0.023513881 0.012764971 0.0020374623
000120 a8 1b 58 bd 82 f9 02 3c 76 1f ff bb 6e 95 f8 3b
       -0.05276075 0.007994058 -0.007785733 0.007586173
000130 e0 40 0d bd 92 a0 5a bb b9 01 69 3d 6f 83 de 3b
       -0.034485698 -0.0033359868 0.05688641 0.0067905704
000140 cf 4b 8f 3c 22 d1 ec 3c 46 b9 33 3d b9 62 35 bc
       0.017492203 0.028908316 0.043877862 -0.011070901
000150 81 95 f9 3c b7 1a 5a bc 23 02 ed 3c 0a 30 4c 3d
       0.030466797 -0.013312033 0.028931683 0.0498505
000160 13 d1 11 3c eb f0 e4 3c 64 68 9c 3a 61 58 cc 3c
       0.008899945 0.02794691 0.0011932966 0.024944486
000170 5e 53 09 bd 15 c1 6b 3d 5a 86 16 3d 60 d0 21 bb
       -0.03352677 0.057557184 0.03674922 -0.0024690852
000180 10 be 87 bc 60 ac bc 3a 1b 12 a0 3b d8 f7 3a bd
       -0.016570121 0.0014394633 0.004884971 -0.04564652
000190 9c f2 4c bd c8 3b bf bd 6b ab 6f bc 9e df ae 3c
       -0.050036058 -0.09337574 -0.014628272 0.021346863
0001a0 8d 8c 1f 38 57 8a 06 3d 18 db 9b 39 a0 95 81 3c
       3.8039452e-05 0.032846775 0.0002972714 0.015818417
0001b0 f1 72 32 bd 2e ef 2f 3d 54 84 5b 3c d8 87 0b 3d
       -0.043566648 0.04295271 0.013398249 0.034065098
0001c0 a7 b4 7b 3d 5e 8c 1e bd 4d c2 a5 3c 32 fc b3 39
       0.06145158 -0.038708083 0.020234251 0.0003432944
0001d0 96 b3 5d bd e8 32 35 ba 06 86 30 bd 2a 24 1f bd
       -0.054126345 -0.00069121877 -0.043096565 -0.038852848
0001e0 6c 00 a4 3b 55 93 9b bc cb 53 45 3b f2 f4 02 3b
       0.005004933 -0.018991152 0.003010976 0.0019982425
0001f0 9b 3c 2e bb 75 63 c6 3c 39 41 b3 bc 7c 2f 09 bd
       -0.0026586417 0.024217347 -0.021881687 -0.03349255
000200 7c 90 05 bd 9d ae a4 bc f4 53 10 bd c6 60 b0 ba
       -0.032608494 -0.020102793 -0.035236314 -0.0013456575
000210 e0 54 54 3b 9d 2c 6c bc df 3a 35 bd 74 a6 93 bc
       0.0032399222 -0.0144149335 -0.044245597 -0.018023707
000220 8c 4f ad bb 0c 04 00 bd 29 ad 9f bc 27 fe 03 bd
       -0.0052890237 -0.03125386 -0.019491749 -0.0322248
000230 90 5e a7 bc e5 04 c7 bc 0e 2a 33 bc b5 bc 9d bb
       -0.020430833 -0.024294326 -0.01093532 -0.0048137554
000240 9b 56 1f bd 48 50 07 3c a0 e7 6b bc 60 bd 9a 3b
       -0.038900953 0.008258887 -0.014398485 0.0047222823
000250 4c 8f 21 bd 83 b3 d3 bc ca 83 4c ba 96 01 8a 3c
       -0.0394433 -0.025842434 -0.00078016205 0.01684646
000260 e1 f9 29 bd 34 70 e0 bc 32 a9 37 3b 71 7f cd bc
       -0.04149807 -0.027397253 0.0028024432 -0.025085183
000270 35 2f 00 3d d1 df b6 3c 8b 8f f6 bc 51 58 1c 3c
       0.03129502 0.02232352 -0.030097743 0.009542541
000280 42 ea 14 bc 60 fe 87 3c a3 af 11 bc 4a be 17 bd
       -0.009089055 0.016600788 -0.008891973 -0.03704671
000290 62 46 09 bd 00 e2 19 bd 0f b8 4b 3d c4 78 52 ba
       -0.033514388 -0.037569046 0.04973608 -0.000802886
0002a0 dd 00 22 3c c5 44 2d 3d 5b 04 7b 3d 0d 6e 04 3d
       0.009887901 0.04230191 0.06128345 0.032331515
0002b0 4e 10 25 3d f1 5e ce bc fd fe 13 3d d3 a1 db 3b
       0.040298752 -0.025191756 0.036131848 0.0067026406
0002c0 26 e1 c5 3c 5f a0 9f 3c 2a ee 89 bc ff 24 c3 3b
       0.02415521 0.01948565 -0.016837198 0.005955338
0002d0 f3 a4 02 bd 77 fc 49 3d d2 92 96 bb 6d 50 27 3d
       -0.03189559 0.049313035 -0.004595139 0.040848184
0002e0 9d bd 08 bd 66 0c a9 3c da 82 0a bc 28 b0 ef 3c
       -0.033383954 0.020635795 -0.008454049 0.029258803
0002f0 3e c6 9e 3c e0 0c b8 3b 10 d6 04 3c 68 47 17 bc
       0.019381639 0.005616769 0.008107677 -0.009233333
000300 36 0c 0d 3d 66 c5 a2 bb bf 20 a8 bb 48 a2 59 3d
       0.034435473 -0.0049673794 -0.0051308568 0.05313328
000310 c8 8b 82 3c 23 ad 04 3d d4 cd 09 3d dc f9 e1 3b
       0.015935794 0.03239168 0.03364356 0.0068962406
000320 25 f1 65 bc e0 ff 1c 3c 52 35 a4 3c 95 c0 de bc
       -0.014034544 0.00958249 0.020044956 -0.02719144
000330 c9 f8 e8 bb d7 5f a9 bc d2 f3 27 3c 82 0f df 3c
       -0.0071097356 -0.020675583 0.010251002 0.027229074
000340 6e 04 85 bc a3 0b d0 bc ee fe c9 3c 16 78 0f 3d
       -0.016237464 -0.025396174 0.024657693 0.035026632
000350 e9 12 c1 bc ca af c7 bb 78 d0 ab 3c 0e fe 2a 3c
       -0.023568587 -0.0060939537 0.02097343 0.010436548
000360 81 a8 3f 3b e3 7d 28 3d 1c 3d f9 bc da 7e f9 3b
       0.0029244723 0.04113568 -0.030424647 0.007613999
000370 b9 43 57 3d 64 41 e2 3a 6c 01 7f 3c e5 94 7b bd
       0.05255482 0.001726192 0.015564304 -0.061421294
000380 49 2f 8b bc 12 cf 2d bb 90 fe 0b 3d b3 18 48 bc
       -0.01699032 -0.0026521129 0.034178317 -0.01221292
000390 22 e6 b8 b9 1f 7b 99 bc 20 c3 33 bd 35 5e 6b 3c
       -0.00035266677 -0.018735467 -0.043887258 0.014365722
0003a0 38 3e aa 3b 74 3f c7 bc 84 24 1a 3d 75 dc 0c bb
       0.0051954053 -0.024322249 0.03763248 -0.0021493707
0003b0 a1 84 28 3d db 38 4f 3d 99 03 83 3c 77 74 a7 3b
       0.04114211 0.05059133 0.015992926 0.0051103192
0003c0 53 b3 11 3d 70 c3 ba 3c 51 99 bc 3c 70 b3 5b bc
       0.035571408 0.02279827 0.023022326 -0.01340948
0003d0 9f b6 09 bc af 9c b3 3c 14 9b c4 3b 4f 29 17 bd
       -0.008405357 0.021925298 0.005999932 -0.03690463
0003e0 a6 8d 4e bc 97 8b b6 3c e6 78 59 3d 0a 3e 0d bd
       -0.012607014 0.022283358 0.053093813 -0.034482993
0003f0 e4 74 39 bb 0b 18 ef bc 8d be 79 3c 4a 80 ed bc
       -0.0028298432 -0.02918627 0.015243185 -0.028991837

stem.1.weight f4 [64]
000000 a3 0b 7f 3f fb c6 7f 3f 01 dd 7d 3f da 9b 78 3f
       0.9962713 0.99912995 0.9916535 0.9711281
000010 e4 0a 84 3f 06 40 80 3f 58 71 78 3f 56 cd 7a 3f
       1.0315824 1.0019538 0.9704795 0.9796957
000020 44 b1 80 3f 8f 5e 7a 3f 47 5c 83 3f c8 5b 7d 3f
       1.0054097 0.97800535 1.0262536 0.9896817
000030 c3 8d 80 3f a3 be 78 3f 3c 39 81 3f e8 67 80 3f
       1.0043262 0.9716589 1.0095592 1.003171
000040 cd 6e 81 3f 25 c3 7a 3f 88 60 7a 3f 89 8d 7d 3f
       1.0111939 0.97954017 0.97803545 0.9904409
000050 39 ca 79 3f 77 c0 78 3f e7 a1 7d 3f a3 fc 78 3f
       0.9757419 0.9716868 0.9907517 0.97260493
000060 a8 78 7a 3f 65 8a 7c 3f a3 1b 7b 3f 3e ea 81 3f
       0.97840357 0.98648673 0.98089045 1.014961
000070 72 d3 7c 3f c1 02 77 3f 83 ec 7b 3f a7 48 77 3f
       0.9876014 0.9648858 0.98407763 0.96595234
000080 ce ba 7c 3f 31 4a 7a 3f 56 98 73 3f bf 7b 7e 3f
       0.9872254 0.9776946 0.9515432 0.9940757
000090 11 fc 77 3f 94 e0 79 3f 7c da 81 3f a0 15 81 3f
       0.96869 0.97608304 1.0144801 1.0084724
0000a0 1f e3 7f 3f f6 48 78 3f 11 e0 7b 3f 86 d6 81 3f
       0.99955934 0.9698633 0.98388773 1.0143592
0000b0 23 93 78 3f 83 7d 74 3f b4 2a 7d 3f 1c 01 74 3f
       0.9709951 0.95504016 0.98893285 0.9531419
0000c0 c2 be 79 3f e8 4e 77 3f 7e 06 80 3f f6 f0 7d 3f
       0.975567 0.96604776 1.0001981 0.991958
0000d0 5a 7f 80 3f 49 ce 7f 3f 99 3f 81 3f 7b a1 7b 3f
       1.0038865 0.9992414 1.0097533 0.98293275
0000e0 b1 f7 7c 3f aa ef 78 3f b9 44 77 3f ae 11 78 3f
       0.9881545 0.972407 0.9658924 0.9690198
0000f0 c6 c2 7c 3f 3a 44 81 3f ab 4c 75 3f ff 26 78 3f
       0.987347 1.0098946 0.9582011 0.96934503

stem.1.bias f4 [64]
000000 91 e4 48 3d 0d ff 13 3c f5 56 42 3b e4 d3 e8 bc
       0.049046103 0.009032977 0.0029653881 -0.02842135
000010 b1 3e d3 3c c8 44 a4 3c 67 20 13 3c e0 b4 35 bc
       0.02578673 0.020052329 0.008979893 -0.011090487
000020 1f bd b8 3c 84 e3 45 3c f8 26 dd 3a 42 ff c4 3c
       0.022551117 0.01207817 0.0016872576 0.024047498
000030 94 5f a8 3c 22 af 17 bd 5b af 12 bc dd 65 04 3d
       0.020553388 -0.037032254 -0.008952941 0.032323707
000040 0a c8 b1 3c 4d 5a 73 3b 62 b2 a1 bc ff e7 6b bc
       0.021701831 0.003713268 -0.01973838 -0.014398574
000050 ad 9b 5c 3c 4d 81 39 bc dc 40 19 3c 05 51 81 bc
       0.01346485 -0.011322332 0.009353843 -0.015785703
000060 66 13 da bc 7e c5 ba bb ce 08 9b bc 55 e5 58 3c
       -0.026620578 -0.0056998124 -0.018925097 0.013238271
000070 ea 47 75 3d b7 6c 28 3c 1c 15 68 3c 9b 1f 04 3b
       0.059883036 0.010279826 0.014165189 0.002016044
000080 2b 07 cd 3c 63 01 3f bc 5d 9e 1d 3c 02 26 de 3c
       0.025027832 -0.011658045 0.009620276 0.027117733
000090 ef 6a d8 bb e9 7f 40 bc 64 04 43 3d e1 47 df 3c
       -0.0066045444 -0.011749246 0.04761161 0.027255954
0000a0 2a 0f 82 3c 8c 1b 10 3c 43 67 9a bc 52 63 cc 3c
       0.015876371 0.00879563 -0.018848067 0.024949703
0000b0 84 f4 bc bc ac 44 c7 bc e4 38 8b 3d d7 c8 e0 3c
       -0.023065813 -0.024324737 0.067979604 0.027439518
0000c0 26 30 89 3c 51 c0 92 3a 2d 14 20 3d 61 59 00 3d
       0.016746592 0.0011196231 0.03908174 0.03133524
0000d0 0f 7d 26 3d f4 8d 91 3c e5 53 23 3d 36 09 b2 3c
       0.04064661 0.017767884 0.03987493 0.021732908
0000e0 c5 01 41 ba c6 3d 1f 3d 14 9b 8d bb 53 3c 5f 3b
       -0.00073626294 0.03887727 -0.0043214653 0.0034063056
0000f0 7b 7d 1d 3b bb df 7a 3c 10 82 d0 bc e0 96 8b bb
       0.002403109 0.015312131 -0.025452644 -0.004259929

stem.1.running_mean f4 [64]
000000 92 a8 05 be bc 32 20 bc e2 86 87 be a4 47 a3 bc
       -0.13052586 -0.009777721 -0.26470095 -0.019931622
000010 29 01 8c be 3d 0f ba bd d2 74 cc 3e f4 30 fa 3c
       -0.27344635 -0.09084938 0.39932877 0.03054092
000020 ed b5 ca bd 07 57 3f 3d 1e 33 30 be 6c 8f 27 be
       -0.09897981 0.046713855 -0.17207 -0.16363305
000030 56 f9 53 3d 13 74 57 3d 1a c9 96 3d 76 3d 08 be
       0.051751457 0.05260093 0.07362576 -0.13304695
000040 91 08 80 be 86 05 69 3e 73 32 1e be 03 40 22 be
       -0.25006536 0.22756013 -0.15448932 -0.15844731
000050 ab c0 71 3d 1a 53 3e be 57 1b 66 be 93 96 20 3e
       0.059021633 -0.18586388 -0.22471367 0.1568244
000060 a0 64 af 3d 83 e7 8e be 9f e8 a9 bd a3 a6 7e bd
       0.085641146 -0.27911004 -0.08296322 -0.062170636
000070 b4 60 2a 3e 2b 84 1a be 68 6b 14 3e 51 bf d3 3b
       0.16638452 -0.1508948 0.14494097 0.0064620157
000080 c9 46 33 3e 58 2b 2b 3e 82 84 12 3d ff 0f 1a be
       0.17507471 0.16715753 0.0357709 -0.15045165
000090 d8 0e df 3d aa 70 3e be ff c8 59 be fa 4e 7f be
       0.10891503 -0.18597665 -0.2126808 -0.24932471
0000a0 15 e2 ca be 56 dc 57 3e 92 7b 96 be 74 1d 86 be
       -0.39625612 0.21080145 -0.29391152 -0.26194346
0000b0 30 90 fe 3c ee f7 d9 3d 3a de 26 bd 82 00 9f bd
       0.031074613 0.10642992 -0.040739276 -0.07763769
0000c0 6b e6 1c 3e a2 d0 19 3e a4 49 e0 bb e4 d8 b5 bc
       0.15322272 0.15020993 -0.006844716 -0.022198148
0000d0 a5 4b e0 bc ed db d1 3d 94 0b 7e 3e 3b 51 16 bb
       -0.02737982 0.10247026 0.24809104 -0.00229366
0000e0 5d d6 a0 bc a0 a6 7e be 6b 75 34 3e 3c 9c 16 3c
       -0.019633466 -0.2486825 0.17622916 0.009192523
0000f0 99 cb 00 bc 7f 32 97 be 9c 45 11 3e 1f 49 4e be
       -0.007861041 -0.29530713 0.1418671 -0.20145081

stem.1.running_var f4 [64]
000000 91 41 2b 3d b2 9f 53 3d b8 98 96 3d 5e 1c a6 3d
       0.041810576 0.05166597 0.073533475 0.08110879
000010 5c ab 89 3d 90 a9 9f 3d 97 95 7b 3d 6f 3d 7c 3d
       0.06722137 0.07796013 0.061421957 0.061582025
000020 b0 1d 92 3d 52 52 05 3d 6a fb a4 3d b9 23 37 3d
       0.07134569 0.03254921 0.08055766 0.044711802
000030 d3 4f 11 3d f3 ed 84 3d 60 f4 11 3d ac 30 36 3d
       0.035476517 0.06490698 0.035633445 0.04448001
000040 54 d3 13 3d fb 49 aa 3d 8b 3d 61 3d 05 14 41 3d
       0.03609021 0.08314892 0.054990333 0.047138233
000050 6f fa 41 3d ea 03 85 3d 27 4d 4b 3d 87 03 98 3d
       0.047357973 0.06494887 0.049634125 0.07422548
000060 f1 d2 54 3d 7a e1 b3 3d fc 4b 67 3d 2f 70 79 3d
       0.051958982 0.087832406 0.05646895 0.060898002
000070 76 10 02 3d 35 ac 41 3d 57 a8 33 3d d8 40 2e 3d
       0.03175398 0.04728337 0.043861713 0.04254231
000080 65 9e 9b 3d 4a b9 8e 3d 5e e0 0b 3d 4e 7c f0 3c
       0.07598571 0.06968935 0.03414952 0.029356148
000090 bc f9 90 3d 3f cf 82 3d 46 21 4b 3d d3 34 34 3d
       0.07078883 0.06387185 0.04959228 0.04399569
0000a0 be a9 84 3d 3f fe 3f 3d db 95 5b 3d 7f 07 0a 3d
       0.06477688 0.046873327 0.05360971 0.033698555
0000b0 df 1b 45 3d 76 c0 72 3d fc 61 24 3d cd 5c fb 3c
       0.048122283 0.059265576 0.040132508 0.0306839
0000c0 e1 62 e9 3c 5e d4 34 3d 6a 2f 69 3d c2 38 fc 3c
       0.028489532 0.04414784 0.056929983 0.030788783
0000d0 bf 4d 15 3d eb 73 47 3d ec 02 54 3d c7 89 7b 3d
       0.036451098 0.048694532 0.0517606 0.06141069
0000e0 26 9f c5 3c ab 44 21 3d a7 a1 23 3d ec 94 82 3d
       0.02412374 0.039372128 0.039949086 0.06376061
0000f0 da 32 00 3d 85 38 5f 3d 93 cf 7c 3d 26 05 30 3d
       0.031298496 0.05449726 0.061721396 0.04297366

blocks.0.conv1.weight f4 [64, 64, 3, 3]
000000 33 78 7f 3c cc bc 96 3c 0f 50 0b 3c 5c bb ec bc
       0.015592623 0.018400572 0.008502974 -0.028897934
000010 12 d3 03 3d fc 74 99 bc 59 23 3a 3d 28 31 00 b9
       0.032183714 -0.01873254 0.045443866 -0.00012225343
000020 5b 1f bf bc 90 0e d2 3c a5 09 52 bc 9c b0 85 bc
       -0.023330381 0.02564171 -0.012819682 -0.016319565
000030 9f e6 99 3c b8 35 af 3c e0 5d e3 3b f8 58 80 bc
       0.018786727 0.02138792 0.006938681 -0.015667424
000040 e9 20 ed bc 34 a6 99 bc 7a 2f 97 bc 3a 5b 12 3b
       -0.028946357 -0.01875601 -0.018455256 0.0022332207
000050 0c b0 05 bd 72 b1 85 3b 44 d0 66 3c 31 9b 0e 3b
       -0.032638595 0.004079991 0.01408774 0.0021759982
000060 f0 0f b8 3b 24 fd 5a 3c eb 9e 9b bb d7 a1 27 bb
       0.0056171343 0.0133660175 -0.004749169 -0.0025578642
000070 d4 e5 0c 3d 23 af 1c 3d 98 53 16 bd 12 fc bc bb
       0.03439887 0.03825296 -0.036700815 -0.005767354
000080 4d 2b 2a 3d 90 0d ba bc 85 a1 8d bc bc b4 7e 3a
       0.0415452 -0.022711545 -0.017288933 0.00097162626
000090 0e bf 82 bc 9e dd c2 3c d6 95 37 bc 47 bc 1d 3c
       -0.015960243 0.023787316 -0.011205157 0.009627408
0000a0 3e 3e 90 3c 87 82 ed 3c 41 c4 2b 3d ae 17 67 bc
       0.017607804 0.028992904 0.04193521 -0.014104767
0000b0 14 9b 3d bd 95 dd 3a bd 6c 4e 01 3b 37 32 e6 3c
       -0.046290472 -0.045621473 0.001973058 0.028100116
0000c0 e6 b5 57 3d f5 4c 0e bc aa 8c eb bc 76 e1 5a 3d
       0.052663706 -0.00868534 -0.028753597 0.053437673
0000d0 85 26 b1 bc e7 81 25 3c 3b bd 34 3d c6 25 ec 3c
       -0.021624813 0.010101772 0.044125777 0.028826606
0000e0 3d c5 09 3d 22 8e 04 3d 00 53 a8 3c 3a 6f 5a bc
       0.033635367 0.03236211 0.02054739 -0.013332183
0000f0 60 f4 e7 3c 40 b8 c8 3c 14 9f 25 bd ba 53 3a bb
       0.02831477 0.02450192 -0.04043491 -0.0028431253
000100 59 d1 49 3d f5 5d 7c bb 7d ba 30 bc 07 88 2a 3d
       0.049271915 -0.0038508151 -0.01078665 0.041633632
000110 33 6b a7 3c 6b 6c 7b 3c 8e 7c 72 bb 98 0a 3b bd
       0.020436859 0.015345673 -0.003700051 -0.0456644
000120 63 54 1f 3d b8 6d 2d bb ca ee c8 bc e2 f8 a2 bc
       0.038898837 -0.0026463103 -0.024527926 -0.019894067
000130 95 f3 1f 3d 2c ef bd 3a 0e e9 a6 3c 54 ce 3b 3d
       0.039050657 0.0014490834 0.020374801 0.045851067
000140 55 84 c4 bc e0 31 cb 3c 06 d1 39 bc 86 62 fa 3b
       -0.023988882 0.024804056 -0.011341339 0.0076411394
000150 f5 3f 0f 3d c6 4c 2b bd ea 0c d5 bb 03 5a 1a bc
       0.034973104 -0.041821264 -0.0065017836 -0.0094208745
000160 49 a2 f9 bc 26 31 e0 3b 4d 09 41 bc 4c 83 29 3c
       -0.030472891 0.0068417965 -0.011782003 0.010346245
000170 37 5b b6 bc 01 aa d1 3c 0c 0f 09 3d cb f7 e8 bc
       -0.022260292 0.02559376 0.033461615 -0.02843847
000180 5e 9c 0c 3b ea 60 88 3c 4e f7 b0 bc 7d 7e 3b bc
       0.0021455507 0.016647775 -0.021602299 -0.011443731
000190 9f 6b ce bc b9 35 e5 bb 32 95 87 39 17 54 1a 3c
       -0.025197802 -0.0069949296 0.00025860366 0.009419463
0001a0 84 2e ee ba ba b9 eb 3b dd c1 23 3d 3e c3 84 bc
       -0.0018171822 0.007193771 0.039979804 -0.01620638
0001b0 6a 0e 08 3d 9e 0a 38 bc b8 1d 28 3d c8 b2 67 bc
       0.03321687 -0.011233 0.041043967 -0.014141746
0001c0 d7 81 46 3b ae a2 0a 3d d1 cd 2e bc 62 ba 4a 3c
       0.0030289793 0.03384655 -0.010669188 0.012373539
0001d0 e4 f8 3d bc 27 f7 06 3d 4e d2 7d bc 45 39 0e bd
       -0.011594985 0.032950547 -0.015492035 -0.034722585
0001e0 8e 2b 10 3c 07 7a 04 3c 6d 16 08 bd 8d 3a f2 bc
       0.008799447 0.008085734 -0.033224512 -0.029568935
0001f0 13 a2 c2 3c a4 dc fa 3c ed f6 33 3c b2 46 f6 bc
       0.023758924 0.030622788 0.010984165 -0.030063007
000200 7c ad 22 bd 06 c8 1b bd 64 a1 33 bc 90 84 c2 3c
       -0.03971623 -0.038032554 -0.0109637715 0.023744851
000210 8b da dd bb 71 4b 80 3c 01 dd 51 bc 74 c7 0d bd
       -0.006770437 0.015660973 -0.012809039 -0.03461404
000220 bc df ac bc 50 5f b6 3c 3c 8a ae 3c d8 17 64 3c
       -0.021102779 0.022262245 0.02130615 0.0139217
000230 fd cc 30 bd 7a 08 5d bc 06 fc ba 3c b3 34 1f 3a
       -0.043164242 -0.0134907905 0.022825252 0.00060732214
000240 ae ab 7d 3a e6 ca 17 bd 07 e8 f4 ba b1 85 2a bd
       0.00096767663 -0.037058733 -0.0018684872 -0.041631404
000250 4c 18 23 bd 3f 8d 28 3d d1 89 05 3d 33 09 b4 bc
       -0.039818093 0.041150328 0.032602135 -0.021977043
000260 7a 07 fc bc b9 49 af 3c 90 c0 68 bc 1f f0 32 bd
       -0.030765284 0.021397458 -0.014206067 -0.04368603
000270 42 df 6a bb 0a 7a 48 bd ae 50 ab bc 93 00 a2 bc
       -0.0035838638 -0.04894451 -0.020912495 -0.019775664
000280 c2 3c aa bc 61 2b 4c bd 9c 61 fd bc d8 6e ae bc
       -0.020780925 -0.049846057 -0.030930333 -0.021293089
000290 dc 3f 12 bd f1 a9 0c bc 61 74 b7 bc 5d f7 e3 bc
       -0.035705432 -0.008585439 -0.022394361 -0.027827913
0002a0 86 9b f3 3c f3 11 25 bd 27 83 4e bd da 00 72 bc
       0.029737245 -0.04030032 -0.050418045 -0.014770711
0002b0 c2 ca cc 3c 37 38 5f bd b1 ad cb bc cb 43 7d 3c
       0.024999026 -0.05449697 -0.024863096 0.015458058
0002c0 47 cb 14 3d 29 e7 7e 3c 72 5a 63 3a f8 a7 b4 bc
       0.036326673 0.015558043 0.000867284 -0.02205275
0002d0 2f 66 06 bc ea 06 28 3d 21 0b 16 bd cc 46 45 3c
       -0.008203073 0.04102222 -0.036631707 0.012040805
0002e0 1a 36 e9 bc 3d 4a b0 bc 76 f0 df bc 72 92 2e bc
       -0.02846818 -0.021519775 -0.02733634 -0.0106550325
0002f0 14 11 e9 bb 17 ba 8b bc 86 97 07 bd c1 44 12 bc
       -0.0071126316 -0.017056508 -0.03310349 -0.008927525
000300 21 3d 77 bb b5 c2 8f 3c ac 53 55 3c 83 e7 04 3d
       -0.0037725645 0.017548898 0.013020437 0.03244735
000310 cc 0c 14 bc 01 d5 16 3c 47 35 36 3d b6 63 2e 3d
       -0.009036254 0.0092060575 0.044484403 0.04257556
000320 c0 31 c3 bc 21 f2 41 3c a6 37 f4 3c 81 0a 00 3d
       -0.023827434 0.011837513 0.029811691 0.031260017
000330 dd fa b4 3c dc 72 c8 ba e9 00 88 3b d0 2f 25 bd
       0.022092277 -0.001529302 0.004150499 -0.0403288
000340 aa dc e6 bc c1 62 97 ba 08 32 8a bb b4 d8 4f bb
       -0.028181393 -0.0011549817 -0.00421739 -0.0031714858
000350 87 ff 00 3d c3 5b 20 bd 17 ae 71 3b 03 70 a0 3c
       0.03149369 -0.03915001 0.0036877447 0.019584661
000360 0c 0b c5 bc 4d 0e b1 3c af c1 74 bc 5b 97 c5 bc
       -0.02405312 0.021613264 -0.014938756 -0.024120023
000370 1d c2 b3 bb bb 7f be 38 3b 3d cf bc 12 b7 3f bd
       -0.0054857866 9.083698e-05 -0.025297752 -0.04680545
000380 a2 b1 83 3c 8a 62 0e bd 5b bc ef 3c 31 41 c8 3a
       0.016075913 -0.034761943 0.02926462 0.0015278218
000390 0d 0b 11 ba 8c 41 cd 3b 78 2e 56 3d fc ab 57 bc
       -0.0005532958 0.0062639173 0.05229041 -0.013163563
0003a0 32 88 d9 3c 1f b6 75 3c 63 04 38 bd ff 79 a8 bc
       0.0265542 0.014997034 -0.04492606 -0.020565985
0003b0 2f ab bd 3c ea 96 f0 3b ab a1 cc bc 42 b0 a4 3b
       0.023152916 0.007342209 -0.024979433 0.0050258944
0003c0 08 5c c2 bb 3e 3a f2 bc a7 88 fb ba f6 2c 87 3c
       -0.005931381 -0.029568788 -0.0019190506 0.016500931
0003d0 79 12 38 3d 65 93 2c bc 02 51 f8 bc 41 f0 ea 3c
       0.044939492 -0.0105331885 -0.030312065 0.028679015
0003e0 20 1c a8 3c 2a 1a 2b bc 1d b7 c7 bc ae 0d c9 3c
       0.020521224 -0.01044325 -0.024379307 0.024542656
0003f0 c8 0a 87 3c ba bf 17 3c 51 a3 85 bc 4b 3c c4 3c
       0.016484633 0.00926202 -0.016313227 0.023954531

blocks.0.bn1.weight f4 [64]
000000 f1 a4 84 3f b8 d5 7f 3f 7d 00 7f 3f 27 8f 7d 3f
       1.0362836 0.99935484 0.9961012 0.9904656
000010 c8 3d 82 3f 8f aa 7e 3f 0d 89 7c 3f 8b 67 7e 3f
       1.0175104 0.99479 0.9864662 0.99376744
000020 25 e3 7f 3f f8 40 82 3f 35 b6 7f 3f 36 ac 7c 3f
       0.9995597 1.0176077 0.998874 0.98700273
000030 db 9e 7b 3f 02 03 81 3f 50 87 80 3f 7b da 7f 3f
       0.9828927 1.0079043 1.0041294 0.9994275
000040 9d 77 80 3f 9d 51 80 3f 00 cd 7e 3f 50 99 80 3f
       1.0036503 1.0024906 0.99531555 1.0046787
000050 d4 ea 81 3f d4 18 81 3f c5 8a 87 3f 80 0f 82 3f
       1.0149789 1.0085702 1.0589224 1.016098
000060 7a 5c 7c 3f cb a1 82 3f 8a 67 80 3f b2 2a 7e 3f
       0.9857861 1.0205625 1.0031598 0.992839
000070 ec 1a 80 3f e8 10 7b 3f 9a 37 82 3f 8b 60 82 3f
       1.0008216 0.9807267 1.0173218 1.0185713
000080 7c 94 84 3f c4 e8 7e 3f 28 92 7d 3f a4 30 81 3f
       1.0357814 0.9957392 0.9905114 1.0092969
000090 76 ac 7d 3f 8a b1 81 3f 29 14 7e 3f 9b 0b 7e 3f
       0.9909128 1.0132306 0.9924951 0.9923646
0000a0 8f 3c 80 3f 27 7b 7e 3f 34 ed 7d 3f 06 57 80 3f
       1.0018481 0.99406666 0.9919007 1.0026557
0000b0 62 50 7f 3f 94 38 81 3f 7d 6f 81 3f 70 05 81 3f
       0.9973203 1.0095391 1.0112149 1.0079784
0000c0 63 77 80 3f 52 5d 84 3f 94 8f 7c 3f d7 98 80 3f
       1.0036434 1.0340979 0.9865658 1.0046643
0000d0 16 75 81 3f cf 16 81 3f b2 35 7f 3f c3 2e 81 3f
       1.0113857 1.0085086 0.9969131 1.0092396
0000e0 17 5a 81 3f d5 3d 7e 3f a1 57 7a 3f 8d 3f 7d 3f
       1.0105618 0.993131 0.9778996 0.98925096
0000f0 a6 0c 82 3f ad 21 80 3f 6b 17 81 3f f1 b5 80 3f
       1.016011 1.0010277 1.0085272 1.0055524

blocks.0.bn1.bias f4 [64]
000000 be d8 0a bc 69 3e 8e 3c 0d 0e 4e bb 53 b6 8a bc
       -0.008474527 0.017363744 -0.003144148 -0.016932642
000010 93 f2 35 3c 73 ff 3a bb 7e d0 1b bc df 02 45 3c
       0.0111051975 -0.0028533607 -0.009510158 0.01202461
000020 d4 a8 e6 3b 4e cd a8 3c ea 28 7b bc 95 5f de 3a
       0.007039169 0.02060571 -0.015329579 0.0016965742
000030 73 64 b2 bb 44 2e bc 3c 6f fe a5 3c d8 94 cf bb
       -0.0054441034 0.02297128 0.020262925 -0.006334882
000040 a0 5e a4 ba e3 cc 3a 3c 0c 17 f7 bb 7c 13 a7 ba
       -0.0012540407 0.011401388 -0.007540589 -0.0012746896
000050 0a 3a 13 3d de 94 da 3c 4e ea be 3c cc b1 6a bc
       0.035944022 0.026682314 0.023305085 -0.014324617
000060 50 97 f6 bb 18 43 74 3c 6e 96 06 bc be bb 89 3b
       -0.007525362 0.0149085745 -0.008214576 0.004203289
000070 df 23 e4 ba e5 1f b8 bb 63 d6 79 3c 8f 34 25 3c
       -0.001740571 -0.0056190365 0.015248868 0.010083332
000080 06 d0 dc 3c 0a 18 02 bc 2d 2e 29 bc 0e 2f 34 3c
       0.026954662 -0.007940302 -0.010325951 0.010997547
000090 89 05 0b 3c ae c7 4d 3c 93 54 60 ba 11 1c 6a bc
       0.008485206 0.012559814 -0.00085575244 -0.014288918
0000a0 32 f7 24 39 9a ff 0a 3a 96 2f 36 bc 71 3c f5 ba
       0.00015732346 0.000530237 -0.011119744 -0.001871003
0000b0 c4 bd 9b 3a 3d 07 3b bc 80 1d 6a 3c 65 3a 4f 3c
       0.0011882116 -0.0114153 0.01428926 0.0126482
0000c0 48 c4 81 bc 62 c7 f2 3c e7 39 35 bc 17 0b b7 3c
       -0.015840665 0.029636089 -0.011061168 0.022344155
0000d0 91 d5 06 bc d3 f2 53 bc 03 6f 99 3c 32 e5 9e 3b
       -0.008229629 -0.012936312 0.018729692 0.0048490996
0000e0 1e 3a 0b 3d 6c ba 20 3c ea 84 55 bc 5a 14 92 b9
       0.03399097 0.009810071 -0.013032177 -0.00027862453
0000f0 72 bf 61 3a 90 1f 83 3c c7 3e 94 bc b4 57 9c 3b
       0.00086115964 0.016006261 -0.01809634 0.004771197

blocks.0.bn1.running_mean f4 [64]
000000 b2 aa 95 bc e5 c3 25 3d d4 47 67 3e f0 a4 56 3e
       -0.01826987 0.040470023 0.22585994 0.20961356
000010 32 d6 b8 3e 24 f4 d4 3e 64 34 f8 be cd eb 9c 3e
       0.36100918 0.41592515 -0.4847747 0.30648652
000020 e9 a9 5a 3e 62 5e 23 3c 3e d8 9d bd c5 18 b5 bd
       0.21353878 0.009971233 -0.077072605 -0.08842615
000030 29 a1 fe bc 09 6a 44 3e 28 c5 9a 3d 38 54 8a 3e
       -0.031082707 0.19181074 0.07557136 0.2701738
000040 f4 22 a6 be 5c ee 14 bf 68 fb 8c 3e 28 e3 f2 bd
       -0.32448542 -0.5817621 0.27535558 -0.11859733
000050 e3 fc a5 bd d3 cf 45 3e a8 55 c6 be 8b 57 dc be
       -0.08104875 0.1931756 -0.38737226 -0.4303554
000060 65 02 09 bf 4a 41 d9 3e 76 9a 77 3d 02 c1 ab 3e
       -0.5351928 0.42432624 0.06045004 0.3354569
000070 12 9d 69 3d cb fe 7a be 6c 9e 8e be c0 6f 2b 3e
       0.05703456 -0.24511258 -0.2785524 0.16741848
000080 c4 4b 7b be 9e b2 5a 3e a3 fa 5d 3c 35 fc 15 be
       -0.24540621 0.213572 0.013548526 -0.1464699
000090 eb df 0e 3f a7 0e 1f be 55 5f dc be 6d 98 64 bc
       0.5581042 -0.15532933 -0.43041483 -0.013952357
0000a0 a6 b2 4a be 3f 9a 1c 3d 31 f1 9f be 80 7f 97 3e
       -0.19794711 0.038233038 -0.31238702 0.29589462
0000b0 53 43 1a be 0f 31 3a bd e5 27 97 be 2d 41 94 bd
       -0.15064745 -0.045456942 -0.29522625 -0.07238994
0000c0 b6 1f a4 3e 58 f0 09 bf ee d7 e3 bd f1 4b 1a 3c
       0.32055444 -0.5388236 -0.1112517 0.00941752
0000d0 30 8f 2a 3e 2b b7 b5 be 13 c2 8f bc ee cb 54 bc
       0.16656184 -0.3549131 -0.017548596 -0.012988074
0000e0 97 7b 2b 3c fc 0e cf 3d d4 18 19 3e ed 29 81 be
       0.010466478 0.1011028 0.14950877 -0.252273
0000f0 54 00 d3 be 25 48 6f be 41 22 ff be 6e bb 31 bc
       -0.41211188 -0.23367365 -0.4983082 -0.010847909

blocks.0.bn1.running_var f4 [64]
000000 7b b4 1d 3e c9 f0 ea 3d c3 7b 25 3e e9 4a 2c 3e
       0.15400879 0.114717074 0.16160493 0.16825451
000010 6c fa 19 3e 56 24 1c 3e 1a c4 05 3e f9 61 0f 3e
       0.15036935 0.15248236 0.13063088 0.14002217
000020 5c cf 11 3e bf 25 0c 3e d9 ce 53 3e 9c 66 ef 3d
       0.14239258 0.13686274 0.20684375 0.11689493
000030 07 12 1d 3e 33 18 e4 3d 32 ee f1 3d eb 77 0a 3e
       0.15338908 0.11137428 0.1181301 0.13522308
000040 ba 53 15 3e 6c 4e 21 3e 2d d1 12 3e 26 00 19 3e
       0.1458272 0.15752572 0.14337607 0.14941463
000050 fa 90 19 3e ba 1a 24 3e e1 3b 06 3e 8c 77 19 3e
       0.1499671 0.1602582 0.1310878 0.1498701
000060 0c 19 3b 3e 01 74 1c 3e 8d 3d 58 3e 9f 63 61 3e
       0.18271273 0.15278627 0.2111723 0.22010659
000070 06 fb cd 3d c7 94 19 3e 14 5f df 3d d9 a2 d6 3d
       0.100576445 0.1499816 0.109068066 0.104802795
000080 55 ad 06 3e c0 09 f3 3d c9 6b ef 3d ea a1 18 3e
       0.13152058 0.11867094 0.1169048 0.14905515
000090 7d 16 27 3e 14 0b 18 3e 77 36 42 3e 13 5b fa 3d
       0.16317172 0.14847976 0.18966089 0.12224402
0000a0 2c 31 08 3e 62 0b 0e 3e df bd cd 3d 3b f8 0e 3e
       0.13300008 0.1387153 0.10045981 0.1396188
0000b0 95 c0 84 3e 28 5f 29 3e 21 2f 85 3e 27 60 08 3e
       0.25928178 0.16540205 0.2601252 0.13317929
0000c0 1e 7f 10 3e f3 58 0c 3e d8 25 eb 3d f8 54 03 3e
       0.14110991 0.13705806 0.114818275 0.12825382
0000d0 c1 1b 12 3e 14 74 3c 3e ed fe 36 3e 61 1f d6 3d
       0.142684 0.18403655 0.17870684 0.10455204
0000e0 f7 eb c7 3d ef 3d ff 3d a3 e4 18 3e 6b 80 54 3e
       0.097618036 0.12462985 0.14930968 0.20752113
0000f0 15 d2 30 3e 63 68 25 3e 70 6d 35 3e 41 27 07 3e
       0.1726764 0.16153102 0.17717528 0.13198568

blocks.0.conv2.weight f4 [64, 64, 3, 3]
000000 52 d4 b5 bc d4 ca 04 3d 83 29 1c 3d 62 c8 8b bc
       -0.022195969 0.032419994 0.038125526 -0.017063323
000010 ee 01 d1 39 a3 c0 40 bd e3 94 94 3a 58 6b 6b bd
       0.00039865024 -0.047058713 0.0011335876 -0.057475418
000020 99 8f b1 3b 4e b7 a2 bc f0 de 9b 3c 2d 78 36 bd
       0.0054187295 -0.019862797 0.019027203 -0.044548202
000030 b5 57 4f 3d 4a b4 27 39 62 7e 89 3c 66 68 2e bc
       0.050620753 0.00015993524 0.016783897 -0.010645008
000040 6a ff 7d 3c 16 e0 44 3c 82 fe e3 3c cb 10 c0 3b
       0.01550279 0.012016317 0.02783132 0.005861377
000050 f7 1a 37 3d 62 12 8e 3a 2e 7e 12 bd 1d 5d 3b 3d
       0.04470345 0.0010839219 -0.035764866 0.045743097
000060 37 0a 47 3c d7 10 59 bb 16 55 34 bd dd 53 cc bc
       0.0121484315 -0.003312161 -0.044026457 -0.024942333
000070 83 7f 04 3d 43 0d d8 3c c5 e8 1e bd 96 e7 ef bb
       0.032348167 0.026373511 -0.038796205 -0.0073213084
000080 df da eb 3c 79 92 80 3b 8f 85 c3 bc 52 32 2b 3c
       0.02879089 0.003923711 -0.023867397 0.010449009
000090 57 0f 97 bc 4b 8e ac 3b a2 cc 55 bc 86 42 3c bb
       -0.018439932 0.005265986 -0.013049277 -0.0028726174
0000a0 58 e7 0c bd 1e a1 4f bc 41 2f 2c bd 2b d5 a3 ba
       -0.034400314 -0.012672691 -0.042037252 -0.0012499442
0000b0 a9 e4 34 bd 20 13 fc bc 64 34 d6 3c 14 c5 a4 bb
       -0.04416338 -0.030770838 0.026148029 -0.0050283764
0000c0 3b ba 98 3c 38 3c d0 36 55 a3 09 bd 49 be 94 bb
       0.01864349 6.2058934e-06 -0.03360303 -0.0045392853
0000d0 22 53 6e 3c e0 e0 84 3a 79 85 8e 3b 04 d3 fe ba
       0.014546188 0.0010137819 0.0043494073 -0.001944155
0000e0 fa 7d 41 bc ea d8 b7 bc 8d 1a e9 bc 66 a4 22 3d
       -0.01180982 -0.0224423 -0.028455043 0.039707564
0000f0 4f e3 e9 bc 1e 16 12 3c d0 01 3f 3d 5a 08 e4 3c
       -0.028550772 0.008916406 0.046632588 0.027836014
000100 b8 f7 de 3c 3e 78 6a ba ad c6 ba 3a 37 29 c9 bb
       0.02721773 -0.0008944309 0.0014249884 -0.0061389464
000110 56 6d 22 bc ab 2a 09 3d 21 7a 60 3d c3 bc 05 3d
       -0.009913763 0.033487957 0.05480397 0.03265072
000120 b6 4c 27 3c 87 79 a7 bc 58 b6 09 3c c1 ec 06 3d
       0.01021116 -0.020443691 0.008405291 0.03294063
000130 87 7b aa bc 89 c3 91 bb 2b 73 23 bd c0 fa e2 3c
       -0.020810856 -0.0044483584 -0.039904755 0.027707458
000140 a0 20 51 3c 6a ee 02 3d 6a af 03 3d 63 d8 31 3c
       0.012764126 0.03196565 0.03214971 0.010854813
000150 76 5f 6b 3c f3 7a d4 bb 19 25 f7 3c a7 be b6 3c
       0.014366021 -0.0064843833 0.030169057 0.022307707
000160 8c 9c 7a 3c 21 b1 45 bd 46 e7 3b 3c 4d 08 80 3c
       0.015296113 -0.048264626 0.011468714 0.015628958
000170 2b 62 d3 3c 9e 21 94 3c 50 8e 56 bd 49 a1 35 3c
       0.025803646 0.018082436 -0.052381814 0.011085817
000180 84 ef 12 bb e9 90 bc bc ca c7 b1 3a 51 7c 94 3c
       -0.0022420594 -0.023018317 0.001356357 0.018125685
000190 18 2b b9 bc be f8 de 3c 2e 9b 08 bc 1c 95 28 bc
       -0.022603557 0.027218219 -0.008337779 -0.010289457
0001a0 df 00 39 3c f2 e5 36 3d 9c c3 fb 3b 0e c3 9f 3c
       0.011291712 0.044652887 0.0076832306 0.019502189
0001b0 3c 66 91 bc fc f9 ef 3c 87 50 e6 bb 89 dc 04 3c
       -0.017748944 0.029294007 -0.0070286426 0.00810922
0001c0 3e 52 df 3b be b5 0b bd 84 8a 20 3d db b5 a2 3c
       0.006815224 -0.03410887 0.0391946 0.019862106
0001d0 19 ef 54 3c 8d c5 0a bd ab 5c 0a bb ac fa 95 bb
       0.012996458 -0.033879805 -0.0021112363 -0.0045770016
0001e0 bc db 36 bc 5e 19 2b 3c 71 d7 46 bd 4f a3 b3 3c
       -0.011160787 0.01044306 -0.048545305 0.021928458
0001f0 4d c3 cf 3c 25 b8 58 3a 0d aa 2e 3d 06 2d 2b bd
       0.025361681 0.0008267186 0.04264264 -0.041790985
000200 35 04 46 bc 8d f3 2e bc b3 69 ba 3c d2 6b 03 3c
       -0.012085964 -0.010678184 0.02275548 0.008021312
000210 e9 4d 1f bc ab 77 68 3c 55 75 e1 3c f0 38 23 bc
       -0.009723165 0.014188687 0.027521769 -0.009962305
000220 7b 85 c6 bc fd c0 48 bc 8c aa 12 bc c1 ac 01 bd
       -0.02423357 -0.012253043 -0.008951794 -0.03165889
000230 cb 06 cc bb 2f 7d a6 3c a8 54 ce ba 04 d5 c1 3c
       -0.0062263957 0.020323364 -0.0015741782 0.023661144
000240 6d 53 4e bc 38 e9 32 bd 62 06 2a bd 26 ee b8 bc
       -0.012593132 -0.043679446 -0.041509993 -0.022574496
000250 cb e2 8c bc ca 75 83 bb 35 ac de b9 a8 4f eb ba
       -0.017197987 -0.0040118443 -0.00042471444 -0.0017952817
000260 16 43 e4 3c 67 eb 2f 3d c0 6b 61 bb a6 6c 48 bc
       0.02786402 0.042949107 -0.00343965 -0.012232935
000270 ca 76 37 3d 20 d3 5c bc e7 7d fa 3b 8e 21 ab 3c
       0.04479102 -0.0134780705 0.0076444033 0.020890024
000280 95 50 d6 3c 30 5b fe 3c 58 88 c2 bc 90 a7 d4 bc
       0.026161471 0.031049341 -0.023746654 -0.025958806
000290 ec 82 a7 3c 99 45 fa bc be c0 77 3c d2 13 98 bb
       0.02044817 -0.030550765 0.015121637 -0.0046410346
0002a0 6d 2c 27 3b 7f 85 0f bd 06 91 80 ba 55 c4 8d bc
       0.0025508658 -0.03503942 -0.0009808845 -0.017305532
0002b0 04 9f 06 bd f1 ec e6 bb a3 21 a1 3b 5a 78 ed 3c
       -0.032866493 -0.0070472886 0.00491734 0.028988052
0002c0 ae ff 9e bb f3 d4 7e 3b 49 3f 0c 3b b4 87 ea 3c
       -0.0048522567 0.0038884252 0.0021400026 0.028629161
0002d0 a3 e6 95 3b 79 48 1a 3d d9 6a b7 3c 22 10 89 3c
       0.004574613 0.03766677 0.022389816 0.016731326
0002e0 81 7e 81 bc 92 aa 9c 3c d1 84 09 bd 7f 6d 0c bd
       -0.015807392 0.019124303 -0.03357393 -0.03428411
0002f0 bb 89 81 bc 44 01 a3 3b 1b 84 25 3b b0 24 2a 3c
       -0.015812745 0.004974516 0.0025255743 0.010384724
000300 91 a6 0e bd e6 0d 78 3b da ff 68 bb dd 87 52 3c
       -0.03482682 0.003785008 -0.003555289 0.012849775
000310 bc ac 05 3c 25 ee c1 3c cd c8 ad bb 48 00 82 3c
       0.008158859 0.023673126 -0.0053034783 0.015869275
000320 3e 11 9c 3b aa 7f b4 bc 87 18 7b 3c 7a af 01 bd
       0.0047627976 -0.022033531 0.015325672 -0.031661488
000330 d2 1d 8d 3c b1 91 92 3b 95 89 3d 3c 83 68 e8 bc
       0.017226133 0.004472934 0.011568447 -0.028370148
000340 c9 c0 1d 3d a4 ee e6 bb ad 2f 49 ba 42 23 87 3b
       0.038513932 -0.007047491 -0.0007674646 0.004124076
000350 da 69 60 3c 46 7b eb 3b c9 34 1e bc 21 e0 e8 bc
       0.013697112 0.007186326 -0.00965614 -0.028427185
000360 ff ac eb 3c 6d ca 18 bc 5e 63 90 3b 9e a2 da bc
       0.028769014 -0.009325606 0.0044063767 -0.02668887
000370 45 b3 c2 bc 7d a2 8c 3b c2 97 a8 bc 81 47 de bc
       -0.023767123 0.004291831 -0.020580176 -0.027133705
000380 0a 87 fd bc 86 c9 3c 3c 19 0c 64 3c 59 8e ba 3c
       -0.03094818 0.011522656 0.0139189 0.022772955
000390 a9 2e b7 3c 2c 84 da 3c 57 d1 3c 3c 96 90 14 3c
       0.022361116 0.026674353 0.01152452 0.009067675
0003a0 26 98 fe 3c d0 68 62 3d f6 58 f8 ba 3f f7 de bc
       0.03107841 0.05527574 -0.0018947411 -0.027217505
0003b0 4f ac 97 bb 8a 8a 51 bb 56 17 0d bd e0 a1 02 3d
       -0.004628695 -0.0031973445 -0.034446083 0.031892657
0003c0 22 33 98 bc 97 84 97 bc 23 4e 46 3d 46 13 d8 bc
       -0.01857907 -0.018495841 0.04841436 -0.026376378
0003d0 97 9b cc bc 55 bb 0e 3c 5a f6 2c bd ca ec 20 3d
       -0.024976535 0.008711656 -0.042227127 0.03928832
0003e0 01 dc 55 bc f4 de 22 bd ad 1f fa 3c ba 9f ca bb
       -0.013052941 -0.039763406 0.030532682 -0.0061835917
0003f0 69 ee b1 3c 23 a0 c7 3b a7 6f 16 3d de da 85 bc
       0.021720128 0.006092088 0.036727574 -0.016339716

blocks.0.bn2.weight f4 [64]
000000 61 9b 80 3f 74 bb 81 3f f6 2f 82 3f 5d ae 81 3f
       1.0047418 1.0135331 1.0170887 1.0131336
000010 81 dc 82 3f c1 03 83 3f e8 71 84 3f ab f3 81 3f
       1.0223542 1.0235521 1.0347261 1.0152487
000020 82 5c 83 3f ce 91 82 3f ce 0a 87 3f 21 82 83 3f
       1.0262606 1.0200746 1.0550172 1.0274087
000030 2d 4c 7f 3f a6 8a 7e 3f d5 8e 82 3f c8 eb 81 3f
       0.9972561 0.9943031 1.0199839 1.015008
000040 bb 15 7e 3f 95 76 84 3f 0e 3a 7c 3f 14 78 82 3f
       0.9925191 1.0348688 0.98526084 1.0192895
000050 0c 7d 83 3f 45 5e 7e 3f 5d 2d 83 3f 37 12 81 3f
       1.0272536 0.99362594 1.0248219 1.0083684
000060 d4 80 80 3f e1 f6 82 3f 34 f6 7f 3f 4e a1 87 3f
       1.0039315 1.0231591 0.9998505 1.0596101
000070 32 a3 82 3f 07 35 83 3f 2e 9e 86 3f f1 c9 7e 3f
       1.0206053 1.0250558 1.0517023 0.9952689
000080 9d f1 81 3f 6b ed 81 3f ba 7d 82 3f 85 d1 81 3f
       1.015186 1.0150579 1.0194619 1.0142065
000090 38 1a 82 3f 0b db 80 3f 71 ae 82 3f 60 a5 83 3f
       1.0164251 1.0066847 1.0209485 1.0284843
0000a0 86 50 7f 3f a7 de 83 3f 5b 6f 83 3f 2b 21 7f 3f
       0.99732244 1.0302323 1.0268358 0.99659985
0000b0 ef fc 81 3f 13 5a 84 3f 99 78 82 3f 2b 35 85 3f
       1.0155314 1.0339988 1.0193053 1.040685
0000c0 1b a0 82 3f 74 fb 7f 3f 42 14 84 3f d1 2c 86 3f
       1.020511 0.9999306 1.0318682 1.0482427
0000d0 af 77 84 3f f5 23 80 3f 25 fe 80 3f 3c ed 81 3f
       1.0349025 1.0010973 1.0077559 1.0150523
0000e0 5f 6a 84 3f f6 71 80 3f bd 5e 7f 3f aa a1 81 3f
       1.0344962 1.0034778 0.99753934 1.0127461
0000f0 d7 60 81 3f 74 e1 82 3f 58 fd 80 3f fd 26 83 3f
       1.0107678 1.0225053 1.0077314 1.0246273

blocks.0.bn2.bias f4 [64]
000000 e1 59 c5 bb 71 ed 4d bc 5f 20 74 3c fa 87 eb bc
       -0.0060226773 -0.0125688175 0.014900296 -0.028751362
000010 69 d3 c6 bc 11 85 01 bc 36 0b 83 bc 7a b8 bf bc
       -0.02427073 -0.007905261 -0.015996557 -0.023403395
000020 93 9f fe bc d4 a2 fd bb c8 de a2 bb 75 b8 88 bc
       -0.03108195 -0.007740358 -0.0049704053 -0.016689518
000030 96 89 0b bc a1 6b e2 bc 4e 09 1d bd 33 64 f3 bc
       -0.00851669 -0.027639212 -0.03833895 -0.029710865
000040 29 61 b8 bc 72 79 e5 bb 75 4b a1 bc 85 7a f7 bc
       -0.022507267 -0.007003003 -0.019689301 -0.030209789
000050 0d f0 ab 3c 2a fe 21 bd d0 5f 37 bc 50 bc 97 bc
       0.020988489 -0.03954903 -0.011192277 -0.018522412
000060 5c cd 9a ba f2 94 30 bb 1d 72 fe bc ec a4 f2 3b
       -0.001181047 -0.0026944247 -0.031060273 0.007404914
000070 28 ab 03 bd 6e 75 98 bc dd 5c a1 bc 4d 6c d5 bc
       -0.03214565 -0.018610682 -0.019697601 -0.026052618
000080 d2 8b 7a 3c cc 32 82 bb 87 69 08 3c 72 ed c2 bc
       0.015292125 -0.0039733406 0.008325941 -0.023794863
000090 1e 11 c8 bc 8d 60 ce bc 55 f5 e9 3b f6 f3 2e bc
       -0.024422225 -0.025192523 0.0071398416 -0.010678282
0000a0 6f c0 30 bb a5 06 0e bd e0 49 1f bd 29 d2 0a bd
       -0.0026970168 -0.034674305 -0.038888812 -0.03389183
0000b0 b3 c8 43 bc 0f 66 9a bb 23 30 e0 3a 2e 59 62 3c
       -0.011949706 -0.0047118734 0.001710419 0.013815207
0000c0 f2 58 c1 bc d1 ee ac bc 60 0d af bc 32 1d 1f ba
       -0.023601983 -0.02110997 -0.021368682 -0.0006069719
0000d0 d1 a2 0d bc 96 32 0a bb 2a af e2 3b b2 32 e6 39
       -0.0086447755 -0.002108728 0.006917854 0.0004390679
0000e0 26 ec 33 bc 8c ec 7a bc 41 24 f1 bc 0d 03 1a ba
       -0.010981595 -0.015315186 -0.029436233 -0.00058750884
0000f0 ec b3 9c 3b e9 15 87 3b c9 82 12 bd a5 b8 ed bc
       0.0047821905 0.004122485 -0.035769258 -0.02901871

blocks.0.bn2.running_mean f4 [64]
000000 19 3f 60 be 01 4b c3 bd 66 18 b8 bd c9 6e 45 be
       -0.2189907 -0.0953579 -0.08989029 -0.19280542
000010 cd 3c a5 bc 22 a5 69 be 34 b4 66 3e cf 48 f5 3d
       -0.020170594 -0.228169 0.2252968 0.11976778
000020 b2 bf 8a be a6 b8 b5 be ee 61 45 be 9a 28 19 3d
       -0.27099377 -0.35492438 -0.19275638 0.037392236
000030 38 28 a9 be 0e c0 e9 3a 68 1a b9 be 7e b8 9b bd
       -0.33038497 0.0017833726 -0.3615296 -0.076035485
000040 54 75 ea 3e d9 fa d0 3d ed 0f 83 3d 84 f7 e7 bd
       0.4579264 0.102040954 0.06399522 -0.11326507
000050 27 df c0 3e d0 d8 26 3f 3f 30 04 bf d9 a0 3b be
       0.37670252 0.6517458 -0.5163612 -0.18323077
000060 d2 7f 8c 3e e2 03 11 be 1d 96 57 3d 79 51 97 be
       0.2744127 -0.14161637 0.052633394 -0.29554346
000070 cb 33 1a bd 0b fd 71 be fc 77 fd bb 38 83 1c be
       -0.03764705 -0.23631684 -0.0077352505 -0.15284431
000080 12 36 0d be d5 26 bf be 2e f1 6f be f0 28 82 3e
       -0.13790157 -0.37334314 -0.23431846 0.25421858
000090 b6 38 93 bd 98 dc 16 be af aa a4 3e b6 47 ad 3b
       -0.07188551 -0.14732587 0.3216147 0.0052880896
0000a0 c9 dd 79 3e 02 3a f6 3c 7e df 0a 3e b7 e8 5a 3e
       0.2440101 0.030056957 0.13561818 0.21377836
0000b0 54 ac d3 bd cd cc 93 be 4f f3 17 be b6 b6 2e 3e
       -0.10335603 -0.28867188 -0.14838909 0.17061886
0000c0 43 06 c1 be 48 36 b1 be 65 c9 88 3d a1 1d e3 be
       -0.3770009 -0.34611726 0.06679038 -0.44358543
0000d0 fb 94 f0 be f2 31 01 be 78 d5 28 3e b4 c9 55 bd
       -0.46988663 -0.12616709 0.16487682 -0.052194312
0000e0 20 dd 73 3e 47 b5 af 3e 5a 99 94 3d ad 42 0d bf
       0.23814821 0.3431799 0.07255812 -0.55179864
0000f0 ae ec d9 3e 54 3e cf 3d e4 ea 38 bc e9 50 97 3d
       0.42563385 0.1011931 -0.011286471 0.07388479

blocks.0.bn2.running_var f4 [64]
000000 83 f1 03 3e 86 44 d4 3d e2 0b ec 3d ed 23 41 3e
       0.12885098 0.10364632 0.11525704 0.18861361
000010 d0 f6 0c 3e 59 4c fd 3d 48 f6 a5 3d ee 8f 0c 3e
       0.13766026 0.12368078 0.08103615 0.1372678
000020 4e da f2 3d 9f 86 c3 3d e2 85 f6 3d bd e5 d5 3d
       0.118580446 0.09547161 0.12037255 0.1044421
000030 ae 03 00 3e 4b 33 18 3e 43 76 0e 3e 48 52 50 3e
       0.12501404 0.14863317 0.13912301 0.20343888
000040 ce cf 4a 3e 50 f1 4a 3e 03 1d 2b 3e ed 22 06 3e
       0.19805834 0.19818616 0.16710286 0.1309926
000050 62 c7 ef 3d 76 cd 59 3e 4e b8 fb 3d da 87 45 3e
       0.11707951 0.21269783 0.12291013 0.19290105
000060 77 ca 03 3e fb f2 fe 3d 8f 76 fb 3d fc c4 e1 3d
       0.12870203 0.124486886 0.12278473 0.110239
000070 76 b5 ee 3d 32 73 2d 3e e9 33 b4 3d c6 d8 13 3e
       0.11655705 0.16938475 0.087989636 0.14438161
000080 4b 5b 3d 3e 41 6d d2 3d 49 80 0c 3e 8f bb d2 3d
       0.18491857 0.10274745 0.13720812 0.1028968
000090 46 e0 08 3e fa 7a 1e 3e 13 b5 1d 3e 6e 03 0c 3e
       0.13366804 0.154766 0.15401106 0.13673183
0000a0 97 40 e3 3d cb 3c ee 3d c2 ab bc 3d a9 44 11 3e
       0.11096304 0.11632689 0.09212448 0.14186348
0000b0 83 b6 14 3e f7 b4 08 3e c5 cb ba 3d 68 9e e6 3d
       0.14522748 0.13350283 0.09120897 0.11260682
0000c0 12 f9 1f 3e 8d 40 0b 3e 83 46 1f 3e e4 7b b6 3d
       0.15622357 0.13598843 0.15554242 0.08910349
0000d0 1e 0d d7 3d ef 6f e7 3d 5d e5 a2 3d ea 54 20 3e
       0.10500549 0.113006465 0.07953904 0.15657392
0000e0 14 1f ce 3d 2a 5c d2 3d 6d 4d 0a 3e 1d e4 33 3e
       0.100645214 0.10271485 0.13506098 0.17567487
0000f0 c5 30 11 3e fa 06 d9 3d 71 5b dc 3d c9 cb f4 3d
       0.1417876 0.10597034 0.107596286 0.119529314

blocks.1.conv1.weight f4 [64, 64, 3, 3]
000000 18 36 fa 3c 94 0b 10 bd c9 00 94 3b 84 d6 a6 bc
       0.030543372 -0.03516729 0.004516695 -0.02036596
000010 39 6d 25 bc f8 77 09 bd ac c4 cf bc 92 89 8e 3c
       -0.0100968415 -0.033561677 -0.025362335 0.017399583
000020 e1 3e 5a 3c 73 87 ce bb 5f 92 18 3c 38 9a b9 3a
       0.013320656 -0.006302768 0.009312241 0.0014160341
000030 dc e4 a7 bc 67 d3 f7 bc a0 6d 0f bd 4c d7 75 3c
       -0.02049487 -0.030252172 -0.035016656 0.015004944
000040 53 b0 f1 bc 7c 43 07 bc c0 09 3d 3d 06 fe cd 3c
       -0.029503023 -0.008255836 0.046151876 0.025145542
000050 42 0e 18 3d d6 cd 02 bd 00 25 1c 3c 82 78 84 bc
       0.037122972 -0.03193458 0.009530306 -0.016170744
000060 d5 f5 db 3c 6e 3d cc bc 6e e7 12 3c 58 94 32 3c
       0.02685062 -0.024931636 0.00896631 0.010899626
000070 78 e6 d9 bc aa 94 36 bc 4e af aa 3c 0e 86 10 3c
       -0.026599154 -0.011143843 0.020835545 0.008821024
000080 c7 77 c5 ba d5 c1 6c 3b 96 b4 96 bc 9d cd a7 bc
       -0.0015065604 0.0036126275 -0.018396657 -0.020483786
000090 85 e4 d0 3a e0 fa 12 bc e3 b0 28 3b aa 3b b6 3c
       0.0015937245 -0.008970946 0.0025740198 0.022245247
0000a0 f4 b1 ad 3b 6c 49 0b bc 01 8a b9 bc e1 78 9c 3b
       0.0053007547 -0.008501392 -0.022648813 0.004775152
0000b0 c5 eb 83 3c 63 66 19 3d c0 66 44 3c ef b1 5c 3c
       0.016103635 0.03745116 0.011987388 0.013470157
0000c0 74 f4 95 3c 55 ae 20 bd 95 8c 0a bc 49 36 3a bc
       0.01830504 -0.039228756 -0.008456369 -0.011365482
0000d0 4e 2b 53 3c f0 a1 1c bd 2e 89 6c bc eb 76 9d 3a
       0.012888743 -0.038240373 -0.014437003 0.001201359
0000e0 9f 9b 99 bb 1d ea b1 bc 73 8f d7 bc 40 4c 10 bd
       -0.004687741 -0.02171808 -0.02631352 -0.035228968
0000f0 49 df 79 b9 96 95 e7 bc 46 e7 af bc 1c 67 eb 3c
       -0.0002382967 -0.02826957 -0.021472584 0.02873569
000100 95 35 42 bd 30 c5 36 bd 36 de 13 bd f1 15 9d 39
       -0.04741438 -0.044621646 -0.03610059 0.0002996172
000110 cd 65 66 bc c0 e6 24 3d f8 41 6b bc c8 40 f6 ba
       -0.014062357 0.040259123 -0.01435899 -0.0018787617
000120 3d 0a e1 bc 9b 49 2c 3c e6 b0 a4 3c 09 74 78 bc
       -0.027470702 0.010515596 0.020103883 -0.015164384
000130 6b 01 98 3b fc 73 1c ba ab 1c c5 3b b9 67 1b bc
       0.004638841 -0.0005968211 0.0060153804 -0.009485179
000140 df 18 19 bc 1e bf 20 3c ce f8 95 3c 13 fe 04 39
       -0.009344309 0.009811191 0.018307116 0.00012683151
000150 cf c7 97 3b c2 3e ce 3c 69 c9 da bc 4f 8a b9 3c
       0.0046319733 0.02517641 -0.026707368 0.022648958
000160 bc 79 05 3d dd 7d 05 3b d1 ac 91 bb 07 6e 36 ba
       0.032586798 0.002036921 -0.00444565 -0.00069591444
000170 49 b9 78 bb be 07 f5 bb e0 17 1f bd 9e 73 34 3c
       -0.0037952235 -0.0074777296 -0.03884113 0.011013893
000180 f2 79 a0 bc 35 dc 24 3d f5 fe 92 3c 07 6a 90 bb
       -0.019589398 0.04024907 0.017943839 -0.0044071707
000190 cd 6d e1 3c 44 23 bb bc 97 97 19 bd 5b d5 e8 3c
       0.027518177 -0.022843964 -0.037498083 0.028422048
0001a0 12 1b 46 bd 62 c3 96 bb 0a 2c d4 3c 63 17 d4 3c
       -0.04836566 -0.004600928 0.025899906 0.025890058
0001b0 30 43 b6 bc 84 7a 6b 3c ee 0f b6 3b aa d3 04 3d
       -0.022248834 0.014372472 0.005556098 0.03242842
0001c0 fd 8d a1 3c a4 72 9e 3c 7b f0 f2 3c c2 58 29 3d
       0.019721026 0.019341774 0.029655686 0.04134441
0001d0 03 f8 0d 3d 80 1f 4f bd f1 f4 82 bd ea e1 4f 3c
       0.03466035 -0.05056715 -0.06394375 0.012688139
0001e0 5c f3 45 bd e7 6f 94 3c d3 de dd 3c 65 70 45 bc
       -0.04832779 0.018119765 0.02708379 -0.012050723
0001f0 2c e3 e0 bb d6 7a 8c bb 1b 39 ad bc a3 de 9a bc
       -0.0068630185 -0.004287104 -0.021145394 -0.01890499
000200 23 5c bd 3c 3d eb ec 3c ea 67 3d bd 22 01 7e bc
       0.023115223 0.028920764 -0.04624168 -0.0155032
000210 52 2a e9 bc 95 12 f6 bc 4f 52 36 3c a3 26 9a 3c
       -0.028462563 -0.030038157 0.011128022 0.018817252
000220 4f b1 cb 39 26 b6 30 3d 65 57 53 3c 6d df d1 3c
       0.00038851282 0.04314246 0.012899254 0.025619233
000230 fa 74 f3 ba 7c 7b e0 3c af fb 29 3d de a3 a3 bc
       -0.001857429 0.027402632 0.04149979 -0.019975599
000240 6e 97 f5 3c bf 63 04 bb 9f 51 e8 bc f6 b2 5a bd
       0.029979434 -0.0020201055 -0.028359232 -0.053393327
000250 b9 db 90 3c a4 45 13 3c 0c 2c 0e bd fc b7 5f bd
       0.017682897 0.008988772 -0.034709975 -0.05461882
000260 e2 b5 de ba 9a 1c 71 bd e3 9a 17 3c e7 39 b2 3c
       -0.0016991461 -0.058865167 0.009253236 0.021756126
000270 29 78 10 39 b1 e2 46 ba 5c 8d 3a bb 0b d5 84 bc
       0.00013777673 -0.000758688 -0.0028465604 -0.016214868
000280 7b 49 f6 3b 5e a7 32 3c 29 9b 3d 3d 39 48 c4 bb
       0.007516084 0.010904161 0.04629055 -0.005990055
000290 f9 6e 84 3d db 41 92 3b 7c 4f cf bb 89 f4 fa 3c
       0.06466479 0.004463417 -0.006326614 0.030634182
0002a0 a4 d9 de bc 2b 6e 6c bc e7 f4 ca 3c 6a fa cf 3a
       -0.027203389 -0.014430563 0.024774982 0.0015867476
0002b0 b4 48 32 bd 69 65 ff 3c a9 de 44 bc 8f 6d 2a bc
       -0.043526366 0.031176286 -0.012015977 -0.010402097
0002c0 6b 94 68 3b 91 ec b1 3c c0 90 55 3c 43 49 a5 3a
       0.0035488855 0.021719249 0.013034999 0.0012610335
0002d0 6c de d7 3c 54 f8 f3 bc f7 88 91 3b 4c ce fc bc
       0.026351176 -0.029781498 0.0044413763 -0.030860089
0002e0 e0 b5 ce bc 0e 6c e6 3c 34 f6 a3 3b 77 8b 26 3a
       -0.02523321 0.028127696 0.005003715 0.00063531793
0002f0 e6 39 26 3d 2c 1e d1 bc ca c6 50 bc 8b 43 af 3c
       0.04058256 -0.025527082 -0.0127427075 0.021394512
000300 1f 23 54 b9 48 bd 27 3b 71 cc c1 3c e2 b9 ca 3b
       -0.00020230979 0.0025594998 0.023657056 0.0061867097
000310 6b 99 1d bd 07 9c 23 3c c4 84 08 3c b9 73 ef bc
       -0.03847639 0.00998593 0.008332435 -0.029229986
000320 e6 cb c5 bc 47 62 1a 3c f6 f4 05 3c a7 79 f6 3c
       -0.024145078 0.009422845 0.008176079 0.030087305
000330 7f 45 20 3c 64 7c 0d bc ea 80 4c 3d 41 54 1c 3a
       0.009782194 -0.008635614 0.04992763 0.00059634825
000340 6d d5 99 bc df bf b6 3a 16 fd 98 bb e3 02 6e 3a
       -0.018778527 0.001394268 -0.004668842 0.00090794096
000350 ea 55 aa bb 46 69 01 bd 8a f5 1e bd ca b2 03 3d
       -0.00519823 -0.031594537 -0.038808383 0.03215293
000360 7a 31 04 bc 39 a1 04 3c 9f 73 19 3d 2a a6 87 3c
       -0.008068437 0.008095079 0.03746378 0.016558725
000370 ae 88 f8 3c 19 f6 ab bc 44 a9 8a 3b cb 0b 81 3c
       0.030338611 -0.020991372 0.004231604 0.015752694
000380 be 9e e3 ba fd cb 87 bc 58 b2 8d bc 2f 7f 5b bd
       -0.0017366034 -0.016576761 -0.017296955 -0.05358809
000390 88 1f 0c 3c 8e 0c 59 3b b8 01 43 3b f8 7e 01 3c
       0.0085524395 0.0033119055 0.0029755663 0.007903807
0003a0 da ee 59 3c 72 99 1e bc 9e bb b5 bc 1d cb e7 bc
       0.013301576 -0.009680139 -0.02218419 -0.028295094
0003b0 15 c5 88 3b 25 33 6d bd 7b af f8 bc a1 55 a6 bc
       0.0041738846 -0.057910103 -0.030357113 -0.020304503
0003c0 cc 88 ca bc 8a ca 89 bb f2 7c 0c bd 48 40 41 3c
       -0.024723433 -0.0042050527 -0.034298845 0.011795111
0003d0 ec 34 c1 bc bf 65 e4 3c 16 9d b8 3c 23 86 e0 bb
       -0.023584805 0.027880548 0.022535842 -0.006851928
0003e0 90 02 89 bc e3 ed 06 bd 75 fa a7 3c b7 42 6f 3c
       -0.016724855 -0.03294171 0.02050517 0.014603308
0003f0 e3 3c de bc 6d 2d 06 bb 56 c9 57 3d 23 42 c1 3b
       -0.027128642 -0.0020473853 0.052682243 0.0058977767
